experiments/grail_wn_v2/best_graph_classifier.pth (torch, 102316 bytes, 21 tensors)

weight f4 [10, 32]
0	0xbe0ebff5	-0.13940413
1	0xbdb831fa	-0.08993907
2	0xbd9ef7db	-0.077621184
3	0xbcb9153a	-0.02259313
4	0x3cb5b39b	0.02218037
5	0x3e355669	0.17708744
6	0xbdf71855	-0.12065188
7	0xbde77dfb	-0.11303326
8	0x3d072006	0.032989524
9	0x3c77b554	0.015118916
10	0x3e1a0edc	0.15044731
11	0x3e2fafc8	0.17156899
12	0xbdc7cd4f	-0.097559564
13	0xbe111dff	-0.14171599
14	0x3e0eb3f6	0.13935837
15	0x3da467be	0.080276
16	0xbdb4abd8	-0.08821839
17	0xbbd52296	-0.006504367
18	0xbdb3e2c9	-0.0878349
19	0xbe0b4350	-0.13599896
20	0x3d8bd501	0.06827737
21	0xbe26e490	-0.16298127
22	0x3d3b4d3d	0.045727957
23	0x3d460ddf	0.048353072
24	0x3d8625fc	0.06550214
25	0x3d8bd236	0.06827204
26	0x3d8b3a59	0.06798238
27	0xbe22c72d	-0.15896292
28	0x3d94fd62	0.072748914
29	0x3e204a3a	0.15653315
30	0xbe3423b8	-0.1759175
31	0x3e0dc4bf	0.13844584
32	0xb119a4f2	-2.235819e-09
33	0x281485d5	8.244671e-15
34	0xb995f728	-0.0002860364
35	0x354c2001	7.6042494e-07
36	0x3ac2a6f6	0.0014850784
37	0x3514af10	5.5389046e-07
38	0xb718db54	-9.110972e-06
39	0xb8194dac	-3.655038e-05
40	0x3759b15f	1.2975505e-05
41	0x38bd63a7	9.030784e-05
42	0x39869851	0.00025671956
43	0x3688db04	4.0786126e-06
44	0x24ab109d	7.418757e-17
45	0xa7cc5371	-5.671184e-15
46	0x33332690	4.1711758e-08
47	0x3b137150	0.002249796
48	0xb9bdbd62	-0.0003618999
49	0xa6211558	-5.588702e-16
50	0x252c4bc3	1.4944291e-16
51	0xb3089015	-3.179601e-08
52	0x252ba3ac	1.488734e-16
53	0xb7b846ac	-2.1967418e-05
54	0xb12ac765	-2.4851599e-09
55	0xb686dcf5	-4.019234e-06
56	0x3accc6a5	0.0015623166
57	0x3b39ae1c	0.0028332537
58	0x1fa01326	6.7794314e-20
59	0xb89b05f6	-7.392086e-05
60	0xa52dc408	-1.5071776e-16
61	0x37277dcd	9.983266e-06
62	0xb5fc1385	-1.8781144e-06
63	0x37c1315f	2.3030383e-05
64	0xbddefcd0	-0.10888064
65	0x3da6b2b7	0.08139556
66	0xbe81f253	-0.2538019
67	0xbe1072e1	-0.14106323
68	0xbe35cb60	-0.17753363
69	0x3dfb1cd8	0.12261361
70	0xbe5358fc	-0.20639414
71	0xbe29df87	-0.16589175
72	0xbe6eae20	-0.23308611
73	0xbdeff2ed	-0.11716256
74	0x3e766d3a	0.24065104
75	0x3e1627d0	0.14663625
76	0x3d8e249a	0.06940575
77	0xbd7ecdca	-0.062207974
78	0x3e0abfc7	0.1354972
79	0xbe16a411	-0.14711024
80	0xbe823daa	-0.2543767
81	0x3e112855	0.14175542
82	0xbd88bce5	-0.06676654
83	0xbd5b2986	-0.053506397
84	0xbbb0f353	-0.0054001003
85	0xbe3bdbee	-0.18345615
86	0x3de23b2e	0.11046444
87	0xbceafaaf	-0.028683988
88	0x3e967604	0.29386914
89	0x3eb4e2b6	0.35329217
90	0x3da48ef2	0.08035077
91	0xbe5c51eb	-0.21515624
92	0x3d985265	0.074375905
93	0x3e46a54b	0.19398992
94	0xbe0b2d05	-0.13591392
95	0x3e5d4c72	0.21611193
96	0x3d08c912	0.03339488
97	0xbc07fc75	-0.008299937
98	0x3dc6abe7	0.097007565
99	0xbd89e90a	-0.06733902
100	0xbde76850	-0.11299193
101	0xbd7f4e62	-0.06233061
102	0x3d83e54f	0.064402215
103	0x3d9ef2fd	0.0776119
104	0xbdd7b509	-0.105325766
105	0xbda85e3b	-0.08221098
106	0xbdd9aa8e	-0.10628234
107	0xbd8efcd8	-0.0698182
108	0x3b267498	0.0025399085
109	0x3cafd527	0.021463944
110	0xbd205ad0	-0.039149106
111	0xbe2aa641	-0.16664983
112	0x3ddb4e78	0.10708326
113	0x3bdc35cc	0.0067202803
114	0xbb52e7b1	-0.0032181556
115	0x3d2d1f3d	0.04226612
116	0x3d84fcc6	0.06493525
117	0x3d9e855f	0.07740282
118	0x3d2a3543	0.0415547
119	0x3db28d1e	0.08718322
120	0xbda72c1f	-0.08162712
121	0xbde7ceb1	-0.1131872
122	0x3c950530	0.01819095
123	0x3db81e4c	0.08990154
124	0x3c7aedba	0.0153154675
125	0xbd92b23c	-0.07162902
126	0x3d8a92a3	0.0676625
127	0xbd937469	-0.07199938
128	0xbd907fb0	-0.070556045
129	0xbd2a9b90	-0.041652262
130	0xbdd44f2c	-0.10366663
131	0xbd929cf2	-0.07158841
132	0xbbc542b8	-0.0060199164
133	0x3de85511	0.1134435
134	0xbe290594	-0.16506034
135	0xbdada9b9	-0.08479638
136	0xbd14511e	-0.036210172
137	0xbcd55d84	-0.026045568
138	0x3dcbabca	0.099448755
139	0x3dce9634	0.10087243
140	0xbd4b6119	-0.049653146
141	0xbd932312	-0.071844235
142	0x3d98af92	0.074553624
143	0xbbea229d	-0.0071452395
144	0xbdc3f7ae	-0.095687255
145	0xbd50dddf	-0.050992843
146	0xbddeb614	-0.108745724
147	0xbd971a4c	-0.073780626
148	0x3da07e92	0.07836641
149	0xbdfcad07	-0.1233769
150	0x3db0ea19	0.086384006
151	0x3d5c46ff	0.053778645
152	0x3e248d82	0.16069606
153	0x3e318851	0.17337157
154	0x3dd926e0	0.10603118
155	0xbe070222	-0.13184407
156	0x3de16888	0.11006266
157	0x3db2af71	0.08724869
158	0xbddef711	-0.10886968
159	0x3e1c7e46	0.15282544
160	0x3cfd53e7	0.030923797
161	0x3c49810c	0.012298834
162	0x3d677a7c	0.056513295
163	0xbcb1bdfa	-0.021697033
164	0xbcc1258e	-0.023577478
165	0xbccc7825	-0.024959633
166	0xbc4622cf	-0.01209326
167	0x3d65a6c0	0.05606723
168	0xbd02a9b5	-0.031900126
169	0xbc17a6e9	-0.009256103
170	0xbd0cc52d	-0.03436773
171	0xbcedd2af	-0.029031126
172	0x3cbf674a	0.023364682
173	0x3cd0ef90	0.025504857
174	0xbcdf1f59	-0.027236627
175	0xbd6b3c0c	-0.057430312
176	0x3d70863e	0.058721773
177	0x3bba368f	0.0056827734
178	0xbbc77591	-0.006087013
179	0x3d56e940	0.05246854
180	0x3d1c9a7c	0.038233265
181	0x3c83859a	0.016054917
182	0x3c86a17d	0.016434425
183	0x3c6d97e8	0.014501549
184	0x3c72449d	0.0147868665
185	0x3c88a022	0.01667792
186	0x3cc8b728	0.024501398
187	0x3c6a778b	0.014310728
188	0x3ca8703f	0.020561336
189	0xbcbbe3b4	-0.022935726
190	0x3cde4fa2	0.027137581
191	0x3c28521f	0.010273485
192	0x3d8b14ad	0.06791053
193	0xbd232b02	-0.039835937
194	0x3e0d95fd	0.13826747
195	0xbe19f535	-0.15034945
196	0xbe25115e	-0.16119906
197	0xbe170003	-0.14746098
198	0x3de1e9f6	0.11030953
199	0x3dd7ef86	0.10543732
200	0xbe4a1c64	-0.19737393
201	0xbe0368ab	-0.12832896
202	0xbe2325f3	-0.15932445
203	0xbe150fd4	-0.14556819
204	0xbc6f685e	-0.014612285
205	0x3d7650ca	0.06013564
206	0xbd9be937	-0.076128416
207	0xbe5f5d79	-0.21813
208	0x3e0e0a99	0.1387123
209	0x3dad0240	0.08447695
210	0xbd09ecb2	-0.033672996
211	0x3d7b0899	0.061287496
212	0x3c313667	0.010816193
213	0x3e2d1b64	0.1690498
214	0x3dea51b9	0.114413686
215	0x3deee1b0	0.1166414
216	0xbe250988	-0.16116917
217	0xbe3f055b	-0.18654387
218	0x3d7c8bfc	0.061656937
219	0x3e3aeb24	0.18253762
220	0x3d6d4d68	0.05793515
221	0xbe0327f7	-0.12808214
222	0x3e1a576f	0.15072416
223	0xbdf8f8b7	-0.121568136
224	0xade351f8	-2.5843314e-11
225	0xafa072c6	-2.9185382e-10
226	0x2d5c5bb2	1.2525913e-11
227	0x3b0b130a	0.0021221065
228	0x2eb33fa0	8.1512797e-11
229	0x2acd9214	3.6516677e-13
230	0x0000bf69	6.8665e-41
231	0x36b9b494	5.5344517e-06
232	0xacb1c52b	-5.0525326e-12
233	0x8001a104	-1.49597e-40
234	0xb70f9e67	-8.560345e-06
235	0x80016c6c	-1.3073e-40
236	0xa720180a	-2.2217492e-15
237	0xb6abc199	-5.118735e-06
238	0xa205cdce	-1.8133813e-18
239	0x20d36d54	3.5817138e-19
240	0xaa13fc26	-1.3143704e-13
241	0x2e258f70	3.7644055e-11
242	0x000151a0	1.21117e-40
243	0xa08fd739	-2.4367565e-19
244	0x376d1fe8	1.413373e-05
245	0xa602bbab	-4.535715e-16
246	0x348c5648	2.613981e-07
247	0x2adebf96	3.956806e-13
248	0xaf35c4cc	-1.653177e-10
249	0x0001789c	1.35102e-40
250	0xa9e80b72	-1.0304855e-13
251	0x3b009b27	0.0019623728
252	0x2254755a	2.8793483e-18
253	0xb04380e1	-7.1123735e-10
254	0xaa3fd524	-1.7038156e-13
255	0xb02c21f5	-6.262149e-10

weight f4 [4, 8, 32]
0	0x0000bfcd	6.8805e-41
1	0x3c4c9b3d	0.012488184
2	0x3cebcec7	0.028785123
3	0x3e3d5645	0.1848994
4	0x384c5997	4.8720827e-05
5	0x3780c056	1.5348352e-05
6	0xbaf86340	-0.0018950477
7	0xbda13d80	-0.07873058
8	0x3f001250	0.5002794
9	0xbd9df86c	-0.07713398
10	0xbb66757d	-0.0035165243
11	0x3eeda619	0.46415785
12	0x3db7653f	0.08954858
13	0xb75d2575	-1.3181348e-05
14	0xb993eadc	-0.0002821301
15	0x34c57012	3.677565e-07
16	0xbe0d695c	-0.13809723
17	0x80014fad	-1.20418e-40
18	0xbf6ee4bb	-0.93317765
19	0xbf681ab9	-0.90665776
20	0x1918ddd8	7.903017e-24
21	0x3daeaca6	0.08529024
22	0xa2fe8bd4	-6.8994887e-18
23	0x3d843f82	0.06457426
24	0xa045737a	-1.6724757e-19
25	0x3843e636	4.6706024e-05
26	0x800052d6	-2.9716e-41
27	0xbed05c5b	-0.40695462
28	0x3b33e9d0	0.0027452596
29	0xbeb99292	-0.36244637
30	0x39f2a1ea	0.00046278472
31	0x80017ab9	-1.3586e-40
32	0x80009443	-5.3186e-41
33	0xbd118cc6	-0.035534643
34	0x3c04dcf6	0.008109322
35	0x3e099f25	0.13439615
36	0x382fb973	4.1895964e-05
37	0xbb87602b	-0.004131337
38	0xbacbbe5a	-0.00155444
39	0x3ea107ee	0.31451362
40	0xbd9a597d	-0.075366
41	0x3f22dd54	0.6361897
42	0xbed8500f	-0.4224858
43	0xbdd77961	-0.10521198
44	0x3f1d40d2	0.6142703
45	0x38bf7d33	9.13091e-05
46	0x35457956	7.3564786e-07
47	0xbdd9f5ba	-0.10642572
48	0xbf90784e	-1.1286714
49	0x0000d936	7.792e-41
50	0xbe98d496	-0.2984969
51	0x3e0523ca	0.13001934
52	0x335cd916	5.142018e-08
53	0xbcd7ffde	-0.026367124
54	0xa404e53e	-2.8817113e-17
55	0x38c0e8ec	9.1986585e-05
56	0x360292f7	1.9457054e-06
57	0x3c0cdddb	0.008597816
58	0x800021aa	-1.2076e-41
59	0xbe64e1df	-0.22351788
60	0x3d5a0cac	0.05323474
61	0xbda80184	-0.08203414
62	0x3b52cc3f	0.0032165197
63	0x2548df2d	1.742285e-16
64	0x800038e7	-2.0413e-41
65	0x3db11947	0.086473994
66	0xb1890c73	-3.98864e-09
67	0x3002a37c	4.752605e-10
68	0x3a07a464	0.00051743374
69	0xb5785e0a	-9.2524044e-07
70	0x3ac5307d	0.0015044358
71	0x3bf298e7	0.0074034813
72	0xbc6d3088	-0.014476903
73	0x3d6ed7d4	0.0583113
74	0x3d17702e	0.036972217
75	0xbe4efde7	-0.20214044
76	0xbe5f1a8e	-0.21787474
77	0x3a5489a0	0.0008107666
78	0x3d69e589	0.057103667
79	0xbc047356	-0.008084139
80	0xbde0260f	-0.10944759
81	0x800067a7	-3.7183e-41
82	0x3f03f99f	0.51552767
83	0x3d8cabfd	0.06868742
84	0x00007e57	4.5322e-41
85	0x385ab292	5.2141557e-05
86	0x23b63988	1.9756845e-17
87	0x00006a37	3.8103e-41
88	0x1d1f6032	2.1093207e-21
89	0x3b1e3546	0.002414064
90	0x000163a0	1.27574e-40
91	0xbca2240d	-0.019792581
92	0x3aeb91fa	0.0017972582
93	0xbd5c07a0	-0.05371821
94	0x3c12b46f	0.0089541515
95	0x38a2a8ab	7.756179e-05
96	0x000101ba	9.2455e-41
97	0x3e273ad3	0.16331033
98	0x3896f85a	7.1988165e-05
99	0x3a6f5c7a	0.00091309065
100	0x34c90f4d	3.74503e-07
101	0x39655780	0.00021871738
102	0x3805f6f7	3.1939675e-05
103	0x3ea5d8bf	0.32391927
104	0xbe1c8387	-0.15284549
105	0x3e48cbf7	0.19609056
106	0x3ddb9f49	0.107237406
107	0xbf3f32b9	-0.7468677
108	0xbf0398c1	-0.5140496
109	0x00703f8c	1.0308372e-38
110	0x3d669c71	0.056301538
111	0x3d0dfcf9	0.03466508
112	0x3f9d845b	1.2306017
113	0x24c95dd0	8.732878e-17
114	0x3ee7b704	0.45256817
115	0x400d751c	2.2102728
116	0x0000e4bc	8.2054e-41
117	0x3eeff125	0.46863666
118	0x8000d8e2	-7.7803e-41
119	0x387ef7d0	6.0789112e-05
120	0xad117d3e	-8.270105e-12
121	0x3c85405d	0.016266042
122	0x800049df	-2.65e-41
123	0xbcc25883	-0.023723846
124	0x3775df17	1.465508e-05
125	0xbc8efe97	-0.017455382
126	0x3b82f4e5	0.003996479
127	0xaef7ba79	-1.1265384e-10
128	0x8000921a	-5.2411e-41
129	0xbba93441	-0.0051637
130	0x3c04b499	0.008099698
131	0x2e8c350a	6.3758845e-11
132	0x33db1a4c	1.02027656e-07
133	0x3a7783de	0.0009441952
134	0xb78dd3df	-1.690717e-05
135	0xbb02ecaf	-0.00199775
136	0x3c220a25	0.009890114
137	0x3ca23465	0.019800374
138	0xb90f1a95	-0.00013647445
139	0x3c940263	0.018067544
140	0xbaef16e4	-0.0018241075
141	0x2ced7017	6.7483896e-12
142	0x00003270	1.8094e-41
143	0x2ac685fb	3.5264833e-13
144	0xbf09afa6	-0.53783643
145	0x8000b7c0	-6.5917e-41
146	0xbaec7676	-0.0018040675
147	0xbf0a1997	-0.53945297
148	0x80010c38	-9.6219e-41
149	0x3c29cef6	0.010364285
150	0x231ad24e	8.3928905e-18
151	0x302979c6	6.165489e-10
152	0x1c394e74	6.1312764e-22
153	0x39b0627c	0.00033642713
154	0x80008b53	-4.998e-41
155	0x3e95c71f	0.2925348
156	0x2e1b11bb	3.5258668e-11
157	0xbdb5aea1	-0.088711984
158	0x3ad78a6a	0.0016444449
159	0x1e7c603b	1.3360669e-20
160	0x12acc346	1.0902865e-27
161	0x3e04ff36	0.1298798
162	0x3d05a5b8	0.032628745
163	0x3db33ab3	0.0875143
164	0x39272498	0.00015939993
165	0x3b03bb7f	0.002010077
166	0x3b8c150d	0.0042749704
167	0x3f0b1481	0.5432816
168	0x3eb81869	0.35956123
169	0xbd83fefa	-0.06445117
170	0xbe32f2de	-0.17475459
171	0xbf398a93	-0.7247707
172	0x3ec340cc	0.38135374
173	0x3c39d714	0.0113427825
174	0x3d62025c	0.05517803
175	0xbd53fb0c	-0.05175309
176	0x3dda5e17	0.106624775
177	0x229fc550	4.330595e-18
178	0xbf5e4292	-0.8682033
179	0x3f71bb63	0.94426554
180	0x247d5198	5.4929743e-17
181	0x3dd2ad63	0.10286977
182	0xa3d782ef	-2.33658e-17
183	0x3da582c3	0.080815814
184	0x2e3a3a36	4.2343205e-11
185	0x3d04b4fd	0.032399166
186	0x0000486c	2.598e-41
187	0xbedb98d5	-0.4289004
188	0x3c5bc902	0.013414623
189	0x3e1d96ba	0.15389529
190	0x3cf485be	0.02984893
191	0x38d6dc7d	0.00010245384
192	0x000044fa	2.4744e-41
193	0x3b9f964d	0.004870212
194	0xbaa2bf2b	-0.0012416592
195	0x3e62e06b	0.22155921
196	0x379bbae8	1.8564475e-05
197	0xb9b87ba8	-0.00035187346
198	0xbbd3c7fe	-0.00646305
199	0x3cf2f1ac	0.029656254
200	0xbd0bd7b1	-0.034141246
201	0x3eac3646	0.33635157
202	0xbe1d0403	-0.15333562
203	0x3f17dff3	0.59326094
204	0xbe8133ed	-0.2523493
205	0x30a94a1b	1.231743e-09
206	0x000195b3	1.45537e-40
207	0x3c9117f6	0.01771162
208	0xbd9bf691	-0.07615388
209	0x204cf7a1	1.7361406e-19
210	0x3eacced9	0.33751562
211	0x3f232b8d	0.6373833
212	0x2b7ac12a	8.908591e-13
213	0x3d20e8c1	0.03928447
214	0xa4207933	-3.479713e-17
215	0x361aa6ce	2.3044881e-06
216	0x362f2300	2.6097405e-06
217	0x3235152f	1.0540403e-08
218	0x8000a729	-5.9966e-41
219	0xbbedc264	-0.007255839
220	0x3d8ed32b	0.06973871
221	0x3ca7d2a6	0.020486187
222	0x3a974a7f	0.0011542587
223	0xac72aede	-3.448734e-12
224	0x800032f4	-1.8279e-41
225	0xaa764852	-2.187428e-13
226	0x07f35f5d	3.6618626e-34
227	0x3e736f1e	0.23772857
228	0x2e81ddf4	5.9056676e-11
229	0xb9aabb5f	-0.0003256453
230	0xb00cc09f	-5.1205434e-10
231	0x0089cfad	1.2655963e-38
232	0x3bb97262	0.0056593874
233	0xbda0a649	-0.078442164
234	0x3bbf3984	0.005835714
235	0x3e54a750	0.2076695
236	0x3bdbca46	0.0067074625
237	0x2afdc898	4.5081018e-13
238	0x1c59f11f	7.211092e-22
239	0xbe08a0e7	-0.1334263
240	0x3e1554a7	0.14583074
241	0x80003895	-2.0298e-41
242	0xbc59a28b	-0.013283382
243	0x3e4395c3	0.19100098
244	0xaacab916	-3.6010837e-13
245	0x2eb306cf	8.141187e-11
246	0x222d6726	2.3500478e-18
247	0x26217592	5.6017433e-16
248	0x13ab5239	4.3247547e-27
249	0x800047e2	-2.5787e-41
250	0x80007db5	-4.5095e-41
251	0x3e65d8cc	0.22445983
252	0x957d43fa	-5.1146567e-26
253	0xbdd5b555	-0.10434977
254	0x00001971	9.127e-42
255	0x0000fd24	9.081e-41

w_comp f4 [10, 4]
0	0xbf6ea7d8	-0.9322486
1	0x3f79c32a	0.9756342
2	0xbe57861e	-0.21047255
3	0xbe69420a	-0.22779098
4	0x3d36e1a4	0.04464878
5	0xbeffa95f	-0.49933907
6	0xbe0df996	-0.1386474
7	0x3e8f0035	0.27929845
8	0xbc8c1a55	-0.0171024
9	0xbf72faca	-0.94913924
10	0xbebb47a9	-0.3657811
11	0x3f87c3d9	1.0606643
12	0x3e3b0dda	0.18267003
13	0xbd1b8300	-0.03796673
14	0x3eba55e3	0.3639365
15	0xbdce33aa	-0.10068448
16	0xbe86581f	-0.26239106
17	0xbf231311	-0.6370097
18	0xbea63df9	-0.32469156
19	0x3d96edeb	0.07369598
20	0x3d43504b	0.047683995
21	0xbf3324bb	-0.6997792
22	0x3f1945ce	0.5987214
23	0xbf093171	-0.53591067
24	0xbfb5b4f3	-1.4195846
25	0x3de4f5a5	0.111796655
26	0xbf0ebbb6	-0.55755174
27	0x3f0cbf91	0.5497981
28	0x8d1bef01	-4.8050753e-31
29	0xa4c26658	-8.4307466e-17
30	0x80008458	-4.7476e-41
31	0x0003cb1b	3.48367e-40
32	0xb3c76076	-9.284206e-08
33	0x2b0a0835	4.903884e-13
34	0xa0b03cde	-2.9855838e-19
35	0x00002c2a	1.5843e-41
36	0x0000beb7	6.8416e-41
37	0x0000b589	6.5123e-41
38	0x800093db	-5.304e-41
39	0x0000be5e	6.8291e-41

self_loop_weight f4 [8, 32]
0	0x000080c1	4.6188e-41
1	0xbd3f25c4	-0.046666875
2	0xbc0c47b5	-0.008562018
3	0xbd186f0a	-0.03721527
4	0xbc151e34	-0.009101439
5	0xbd332afe	-0.043742172
6	0xbbb3d698	-0.005488228
7	0x3e27e54d	0.16396065
8	0xbde0a84f	-0.10969602
9	0xbefe7b99	-0.49703673
10	0xbe3a5d71	-0.18199708
11	0x3f7956d1	0.97398096
12	0x3e1a8ea8	0.15093482
13	0xb66e05bf	-3.5468108e-06
14	0xbd98bcad	-0.07457862
15	0xbd43da6d	-0.04781573
16	0xbe9cc49b	-0.30618748
17	0xb81e2e9c	-3.7713544e-05
18	0xbf0b7537	-0.5447573
19	0x3e8ed2b9	0.27895144
20	0xabc77413	-1.4172018e-12
21	0xbe8b5580	-0.2721367
22	0x9ca3fd84	-1.0851967e-21
23	0x3c20411b	0.009781147
24	0x80000b62	-4.083e-42
25	0xbd9c6224	-0.07635906
26	0x0001237c	1.04565e-40
27	0xbda03c69	-0.07824022
28	0xbe10da74	-0.14145833
29	0x3db3e168	0.08783227
30	0xbc552bd0	-0.013010934
31	0xb7649294	-1.3623987e-05
32	0x9edd3990	-2.3423092e-20
33	0xbe9b956c	-0.30387437
34	0xbe072b15	-0.13200028
35	0xbe9b595f	-0.30341622
36	0x3b733e28	0.0037115905
37	0xbe85c7d2	-0.26129013
38	0xbd00f5d8	-0.031484455
39	0xbf04a2d6	-0.5181097
40	0xbeff1eca	-0.49828178
41	0x3f01f835	0.5076936
42	0xbead7a92	-0.33882576
43	0xbf97c8c7	-1.1858147
44	0xbed37f3b	-0.41308007
45	0xbe1d9210	-0.1538775
46	0xbe8349ee	-0.2564234
47	0xbe81d6c8	-0.25359178
48	0xbf3efbbe	-0.7460288
49	0xa60954aa	-4.7646164e-16
50	0xbeec6343	-0.4616948
51	0x3da4cbb6	0.08046667
52	0xb4b43678	-3.3567244e-07
53	0xbe51d49f	-0.20491265
54	0xb66914cc	-3.473181e-06
55	0xbea9c086	-0.33154696
56	0xbd006522	-0.031346448
57	0xbdd8babe	-0.10582493
58	0xaa543c2d	-1.885026e-13
59	0x3f50bba7	0.81536335
60	0xbc904a47	-0.017613543
61	0x3eca3649	0.3949454
62	0xbdb959df	-0.09050345
63	0xbc985963	-0.01859731
64	0x9a317324	-3.6695752e-23
65	0xbdb87435	-0.0900654
66	0xbd240984	-0.040048137
67	0xbeb9d56c	-0.3629564
68	0xb9dce725	-0.00042133886
69	0xbc069bf0	-0.008215889
70	0xbb2aa1e6	-0.002603644
71	0x3e7f0363	0.24903636
72	0x3e183d25	0.14867075
73	0x3c011b9a	0.007880116
74	0xbde10701	-0.10987664
75	0x3fb769e4	1.432919
76	0x3f1ed8e2	0.62049687
77	0xbc4d5d41	-0.0125344405
78	0xbaae587e	-0.0013301519
79	0x3d8cc96f	0.06874358
80	0x3f92e760	1.147686
81	0xb39c31c2	-7.273367e-08
82	0xbeb24a71	-0.3482242
83	0xbe85b3e0	-0.26113796
84	0xb8a3c14c	-7.80845e-05
85	0xbe7ed1ae	-0.24884674
86	0xbb0cdb91	-0.0021493176
87	0xbd636405	-0.055515308
88	0xbb89b7f7	-0.0042028385
89	0xbc9108cd	-0.017704392
90	0xaa5e7e1f	-1.9761318e-13
91	0xbf178215	-0.59182864
92	0xbd5baa8c	-0.053629443
93	0xbef5c5b9	-0.48002413
94	0xbbd213ed	-0.0064110667
95	0xba6b26e0	-0.00089703314
96	0x800141ae	-1.15397e-40
97	0xbadf5df9	-0.0017041556
98	0x3cb9cd73	0.022680974
99	0x3b656de6	0.0035008132
100	0x00013a13	1.12669e-40
101	0xb9ef79b8	-0.0004567632
102	0xba6a844c	-0.00089461054
103	0x3e955100	0.2916336
104	0x3d8e1233	0.06937065
105	0xbe6cb955	-0.23117574
106	0xbc6ebd75	-0.014571537
107	0xbe95c9f9	-0.29255655
108	0x3e4a3e95	0.19750436
109	0x0000f99a	8.954e-41
110	0x2643419b	6.774313e-16
111	0x3e0392d6	0.12848982
112	0xbf10afa7	-0.56518024
113	0x9fc4237f	-8.306795e-20
114	0xbde16607	-0.11005788
115	0x3ec9b735	0.39397588
116	0x9d8ddc03	-3.7549876e-21
117	0xbed840f8	-0.42237067
118	0x00013b3f	1.13089e-40
119	0xba6fbfee	-0.0009145726
120	0x0001042f	9.3336e-41
121	0x3947e9d7	0.00019065231
122	0x8c4515e0	-1.5182911e-31
123	0xbe8e0fe1	-0.2774649
124	0xbd123f73	-0.03570504
125	0x3ca26d3c	0.019827478
126	0xbc3ed4e0	-0.011647433
127	0xbceaec4e	-0.028677132
128	0x9a096afb	-2.8417354e-23
129	0xbe917fdc	-0.2841786
130	0xbe159763	-0.1460853
131	0xbe9ba897	-0.3040206
132	0xbc0aadc5	-0.008464281
133	0xbc50eccc	-0.012751769
134	0x3bcfae5a	0.006337923
135	0xb54194cc	-7.211463e-07
136	0xbe30e313	-0.17274122
137	0xbd84be93	-0.06481662
138	0xbeaf650a	-0.34256774
139	0x92ba8156	-1.1770134e-27
140	0xbe8a918f	-0.27064177
141	0x3de98f23	0.11404254
142	0xbe635f46	-0.22204313
143	0xb76710f5	-1.3772621e-05
144	0xbea51e80	-0.32249832
145	0x8001374a	-1.1167e-40
146	0xbeaeb310	-0.3412099
147	0xbf2c9760	-0.6741848
148	0xb3ae9b2e	-8.1307334e-08
149	0xbd3ecc44	-0.04658152
150	0xa54ae234	-1.7597348e-16
151	0xbe79e3b1	-0.24403264
152	0xb9aad6ad	-0.00032584873
153	0xbb0c0db3	-0.002137047
154	0x00004de8	2.7947e-41
155	0x3f14e443	0.581608
156	0xbaca1d63	-0.0015420135
157	0x40472134	3.1114016
158	0xbe1e01f3	-0.15430431
159	0xace33da7	-6.458573e-12
160	0x98c35253	-5.0489445e-24
161	0xbe348cc5	-0.17631824
162	0xbdc0854f	-0.094004266
163	0xbe3d0bd2	-0.1846154
164	0xbd6dbf84	-0.05804397
165	0xbdc703fd	-0.097175576
166	0xbc961e68	-0.018325046
167	0x3dcbf1b0	0.099582076
168	0xbe988fd8	-0.29797244
169	0xbdb5240b	-0.08844765
170	0xbeb59286	-0.3546335
171	0xbf50e1f9	-0.81594807
172	0xbc710b76	-0.014712205
173	0xbac86db2	-0.0015291481
174	0xbe6e528e	-0.2327368
175	0xbd967213	-0.07345977
176	0x3dbeea66	0.09322052
177	0xb99b17ff	-0.00029581782
178	0xbecd6c79	-0.4012182
179	0x3ff375b9	1.9020301
180	0xb963db44	-0.0002173009
181	0xbdce2107	-0.10064893
182	0xb50f9f39	-5.350335e-07
183	0xbe5dbf29	-0.21654953
184	0xbc29a635	-0.010354568
185	0xbdbb27aa	-0.09138425
186	0x8ca73d62	-2.5767367e-31
187	0xbe863738	-0.26214004
188	0xbea336c3	-0.31877717
189	0xbf31a4b7	-0.6939196
190	0xbe15a274	-0.14612752
191	0xb9d1437e	-0.00039913872
192	0x0000828b	4.683e-41
193	0xbc1778fe	-0.009245155
194	0xbd1fdd18	-0.03902921
195	0xbe75f835	-0.24020465
196	0xbda85c75	-0.0822076
197	0xb894e2bf	-7.099425e-05
198	0xb997339e	-0.00028839422
199	0xbeae8d3d	-0.3409213
200	0xbe3d4be5	-0.18485983
201	0xbed158f7	-0.40888187
202	0xbe4b5998	-0.19858396
203	0x3f489bb2	0.7836257
204	0xbe7e1bdb	-0.24815314
205	0xbc7cd06e	-0.015430553
206	0xbaf8f6dd	-0.001899447
207	0x3e2713ad	0.163161
208	0xbfd980b4	-1.6992402
209	0x9fd84ba2	-9.160468e-20
210	0xbe368014	-0.17822295
211	0xbf02db40	-0.511158
212	0xb0231610	-5.933041e-10
213	0xbe0fa874	-0.14029104
214	0xbb143aac	-0.002261798
215	0xbc137b95	-0.009001632
216	0xbcafc4bb	-0.021456113
217	0xb819dd19	-3.6683956e-05
218	0xaf4cfd5f	-1.8643707e-10
219	0xbed10aba	-0.40828496
220	0xbce1e281	-0.027573826
221	0xbf6cb5f6	-0.9246515
222	0xbdb16efd	-0.086637475
223	0xbd2d4ed1	-0.042311493
224	0x00012081	1.03496e-40
225	0x00012862	1.06322e-40
226	0xbcdd7312	-0.027032409
227	0xbda07856	-0.07835452
228	0xbc812001	-0.015762331
229	0xad1b2f48	-8.8212285e-12
230	0xada38d7b	-1.8593784e-11
231	0xbeb218bf	-0.34784505
232	0x3e4372b7	0.19086729
233	0xbeb3e3c7	-0.35134718
234	0xbd9c072a	-0.07618554
235	0x3f87310b	1.0561842
236	0x3d9581f2	0.07300176
237	0x2a3357ce	1.5928857e-13
238	0x00009a01	5.5246e-41
239	0xbe08af77	-0.13348185
240	0xbf980bba	-1.1878579
241	0x0000046c	1.586e-42
242	0x3dba6cfd	0.09102819
243	0xbf17c3c7	-0.5928311
244	0xae2e3549	-3.9610346e-11
245	0xbaab6045	-0.0013074955
246	0xb3684a95	-5.408454e-08
247	0x3c375a5c	0.011190977
248	0xbb8b357d	-0.0042483197
249	0xb747611c	-1.1883934e-05
250	0x000087fb	4.878e-41
251	0xbe261471	-0.16218735
252	0x2e1eba42	3.609047e-11
253	0x3e27f2ab	0.16401164
254	0xbdaa2fe6	-0.08309917
255	0xbb5966ba	-0.0033172802

weight f4 [8, 80]
0	0xbe069e7f	-0.13146399
1	0xbe12182d	-0.14267035
2	0xbc125a18	-0.008932613
3	0xb692a1f5	-4.3699933e-06
4	0xbbd399cc	-0.006457543
5	0xbe6b9365	-0.23005445
6	0xbcde485f	-0.027134119
7	0x9c860390	-8.868297e-22
8	0x3cbb0a0a	0.022831935
9	0xbe06f9a7	-0.13181172
10	0xbd0dc057	-0.034607258
11	0xbd04bb8f	-0.032405432
12	0xbdf13c45	-0.117790736
13	0x3cc2fee6	0.023803186
14	0xb67cad4d	-3.76518e-06
15	0x800036ab	-1.9611e-41
16	0x3c1584cd	0.0091259
17	0x3c4f221a	0.012642408
18	0xbbd1c5db	-0.00640176
19	0x3c4296a1	0.011876733
20	0x3b7a2faf	0.0038175394
21	0xb9c4cd7a	-0.00037537125
22	0x3c3eae7e	0.011638282
23	0xbb0d1517	-0.0021527463
24	0x3c2c39c0	0.010511816
25	0x3bb0c16d	0.005394152
26	0x3b976fd7	0.0046214866
27	0xbac4b32c	-0.0015007011
28	0x3be1a88c	0.0068865474
29	0x3c3080d7	0.010772905
30	0xbc383f51	-0.011245565
31	0x3b999b33	0.0046876906
32	0xbbdb0d52	-0.0066849375
33	0xbc04bd1c	-0.008101728
34	0x3c3c6cc7	0.011500544
35	0x3a55ebff	0.00081604713
36	0xba263aa3	-0.0006341135
37	0x38a999cf	8.087197e-05
38	0xbc46c5d3	-0.012132126
39	0xbc2c5c68	-0.010520078
40	0x3c3a110b	0.011356602
41	0x3c266101	0.0101549635
42	0xbcafc4b8	-0.021456107
43	0xbab58ebd	-0.0013851743
44	0xbc8c7e3e	-0.01715004
45	0xbc22e0d8	-0.009941302
46	0x3a00ea75	0.00049177493
47	0xbc59cee4	-0.0132939555
48	0x3ac18301	0.0014763774
49	0x3b7cf183	0.00385961
50	0xbbed1e00	-0.0072362423
51	0xba0f7c43	-0.00054735335
52	0x3945316b	0.00018805794
53	0xb95a0060	-0.0002079024
54	0x38eb2b80	0.00011213776
55	0xbbca6627	-0.0061767283
56	0xba9c58c5	-0.0011928311
57	0xba66eec3	-0.0008809382
58	0xba864136	-0.0010242823
59	0xba423920	-0.0007409025
60	0xbac395a9	-0.0014921922
61	0x3ab06e8c	0.001346068
62	0xbb064d2e	-0.002049278
63	0xba89e539	-0.0010520584
64	0xbbd0c0f5	-0.0063706585
65	0x3b96a03c	0.004596738
66	0xb954e702	-0.00020303953
67	0xbbb63fd2	-0.005561807
68	0xba5da80f	-0.00084555236
69	0x3a10ccf2	0.00055237033
70	0x39c0b693	0.00036757122
71	0xbaf50b17	-0.0018695322
72	0xb9f72393	-0.00047138016
73	0xb9b6e086	-0.00034881028
74	0xb7aeea82	-2.0851618e-05
75	0x39a6a041	0.00031781386
76	0x35c91f34	1.4984748e-06
77	0xbb82d4c4	-0.003992649
78	0x39cdbf80	0.00039243326
79	0xba150f4d	-0.0005686179
80	0xbf72af2e	-0.94798553
81	0xbf1b63bf	-0.60699075
82	0xbe566477	-0.20936762
83	0x3fe2648c	1.7686934
84	0x3deb8363	0.114996694
85	0xbeb1adb8	-0.3470285
86	0x3f2b0258	0.6680045
87	0xbe3a2817	-0.18179356
88	0x3fcd6abc	1.6048198
89	0xbfb2b55c	-1.3961596
90	0x3f48811a	0.78321993
91	0xbeff264e	-0.49833912
92	0xbebedae9	-0.3727639
93	0x3f5d538e	0.8645562
94	0xbe5cf176	-0.21576485
95	0x3dcb6671	0.099316485
96	0xbd43eac6	-0.04783132
97	0xbd006a40	-0.031351328
98	0x3cd1e4c8	0.025621787
99	0x3dbe0f03	0.09280207
100	0x3da496c7	0.08036571
101	0x3dd0593c	0.1017327
102	0xbd84bac4	-0.06480935
103	0xbc1a7474	-0.009427179
104	0x3e192243	0.14954476
105	0x3d6ea6ef	0.05826467
106	0x3dad2316	0.08453958
107	0x3dc64b67	0.096823506
108	0xbceb310c	-0.02870991
109	0xbd4dabc4	-0.050212637
110	0x3d565e6c	0.05233614
111	0x3dd84588	0.10560137
112	0x3c6a61ac	0.014305513
113	0xbdb07e55	-0.08617846
114	0x3c8431bc	0.016136996
115	0xbcf86ed8	-0.030326292
116	0x3baf400d	0.0053482116
117	0xbde0e261	-0.10980678
118	0xbd8cb953	-0.06871285
119	0xbc319c72	-0.010840522
120	0x3d73e309	0.05954269
121	0x3d9712db	0.07376643
122	0xbd0aba7c	-0.03386925
123	0xbdec4ded	-0.11538301
124	0xbcf0155a	-0.029307056
125	0x3dbcb9bb	0.09215113
126	0xbdd1b70c	-0.102399915
127	0x3da996a5	0.08280686
128	0x3e0d57c3	0.1380301
129	0xbc38962d	-0.011266273
130	0x3e7bbbf5	0.24583419
131	0x3d3b28a2	0.045693047
132	0x3da7ea65	0.08199004
133	0xbe3b3c62	-0.18284753
134	0x3e68a2c3	0.22718339
135	0x3e48be8c	0.19603938
136	0x3d887612	0.06663145
137	0x3cc59380	0.024118185
138	0xbe83bc66	-0.25729674
139	0xbe44eb52	-0.19230393
140	0x3ca17e8b	0.01971366
141	0x3ddbb992	0.10728754
142	0xbe1cca7d	-0.15311618
143	0x3b1cc1ee	0.0023919302
144	0x3e812b3e	0.25228304
145	0xbc989d72	-0.018629763
146	0x3dae0dd0	0.08498728
147	0x3e02b9cb	0.12766187
148	0xbcdd77f8	-0.027034745
149	0x3e6235fa	0.22090903
150	0xbd634a69	-0.055490885
151	0x3cd27945	0.025692591
152	0xbe937437	-0.28799602
153	0xbeae7b3c	-0.34078395
154	0xbd8d6867	-0.06904679
155	0x3e7bfd66	0.24608383
156	0xbd93e308	-0.07221037
157	0xbe4e240c	-0.20130938
158	0x3e4279a2	0.18991712
159	0xbe6dc543	-0.2321978
160	0xbda80a35	-0.08205072
161	0xb5c50f90	-1.4682173e-06
162	0x00001a40	9.417e-42
163	0x00007376	4.142e-41
164	0x800055ba	-3.0753e-41
165	0xbda39427	-0.07987242
166	0x8000a4b5	-5.9086e-41
167	0x000096e7	5.4134e-41
168	0xb686818d	-4.008593e-06
169	0xbda8a507	-0.082346015
170	0x800179ac	-1.35483e-40
171	0x80005713	-3.1236e-41
172	0xbda8837a	-0.08228202
173	0x363f8e5c	2.8544082e-06
174	0x800004b6	-1.69e-42
175	0x8000344f	-1.8765e-41
176	0x38b419ba	8.587861e-05
177	0xb7fdd93e	-3.0261112e-05
178	0xb8e319f7	-0.0001082904
179	0x3890030b	6.867022e-05
180	0x3667b5ee	3.452758e-06
181	0x3902c2ae	0.0001247029
182	0x393aa544	0.00017799909
183	0x389e7a20	7.556775e-05
184	0xb8520459	-5.007195e-05
185	0xb7e97856	-2.78318e-05
186	0x385b7ce2	5.2329975e-05
187	0x38883e20	6.496557e-05
188	0xb8544ca7	-5.0616127e-05
189	0x389ae1fc	7.385385e-05
190	0xb8a0ea00	-7.6729804e-05
191	0x37bed1e2	2.27475e-05
192	0xb88fc465	-6.855353e-05
193	0x388bd48b	6.667626e-05
194	0xb9020457	-0.00012399383
195	0x38be1045	9.0629364e-05
196	0xb8836a3f	-6.266357e-05
197	0xb8f06c13	-0.00011464222
198	0x378f204a	1.7061964e-05
199	0xb8258916	-3.9466737e-05
200	0xb91add5d	-0.00014769049
201	0xb9440b00	-0.00018696114
202	0x3902d104	0.0001247563
203	0xb8398625	-4.423237e-05
204	0x38e986e2	0.0001113543
205	0x38014580	3.0820724e-05
206	0xb8fad9a3	-0.00011961467
207	0xb8d603b7	-0.00010205007
208	0x390b66a1	0.00013294305
209	0xb8abdf9d	-8.1955666e-05
210	0x38748e6c	5.8306774e-05
211	0x36490b96	2.9958078e-06
212	0x3889c790	6.5698405e-05
213	0xb901aad9	-0.00012366044
214	0xb8339e5d	-4.2824413e-05
215	0xb905479e	-0.00012710548
216	0xb8aeb5d1	-8.3308325e-05
217	0x381a20e6	3.67471e-05
218	0xb92ea2a6	-0.00016654524
219	0xb91e61ec	-0.00015104533
220	0xb906b043	-0.00012844898
221	0x3923a479	0.00015606162
222	0xb90ab717	-0.00013228912
223	0x39065fc7	0.00012814916
224	0xb7b0a05d	-2.105551e-05
225	0x369a4dc3	4.5986103e-06
226	0x38281072	4.0069637e-05
227	0x38b0a135	8.422361e-05
228	0xb8bfaf0f	-9.140197e-05
229	0x3940fd6b	0.00018404952
230	0x385a23ce	5.2008596e-05
231	0xb7ebc6cc	-2.8106755e-05
232	0xb8abeb09	-8.197694e-05
233	0xb8b633f4	-8.688113e-05
234	0xb891d54c	-6.9538684e-05
235	0x39413c24	0.00018428318
236	0xb871e500	-5.767215e-05
237	0xb9334f9d	-0.00017100429
238	0x38ef28bf	0.000114039976
239	0xb8b63238	-8.68779e-05
240	0xa967be1e	-5.1457204e-14
241	0x0000a75d	6.0039e-41
242	0x800048e2	-2.6145e-41
243	0x8000983a	-5.4609e-41
244	0x800003c1	-1.347e-42
245	0xab142023	-5.262476e-13
246	0x80002615	-1.3661e-41
247	0x0000f101	8.6456e-41
248	0x0000563b	3.0934e-41
249	0xa9c02925	-8.53365e-14
250	0x00000c6f	4.46e-42
251	0x00000a59	3.712e-42
252	0xaa19a10d	-1.3645006e-13
253	0x80008fe6	-5.1621e-41
254	0x00003051	1.7333e-41
255	0x0000281b	1.4387e-41

bias f4 [8]
0	0xbe70cf94	-0.23516685
1	0x3e5fb548	0.21846497
2	0xbda43281	-0.08017445
3	0xaad2487e	-3.7353795e-13
4	0xb8c1a9cc	-9.234584e-05
5	0x3e159bb0	0.14610171
6	0xbe2c3abb	-0.16819279
7	0xa8d15997	-2.3242515e-14

weight f4 [1, 8]
0	0xbe3f0d10	-0.18657327
1	0x3f124910	0.57142735
2	0xbde77941	-0.11302424
3	0x3b4f7bdb	0.0031659517
4	0xb98861ea	-0.00026012893
5	0xbcb69d36	-0.02229176
6	0xbc864491	-0.016390117
7	0xbb81c7ae	-0.0039605713

weight f4 [4, 32, 32]
0	0x00009cdd	5.6272e-41
1	0x8000b65b	-6.5417e-41
2	0x0000b883	6.619e-41
3	0x8000a959	-6.075e-41
4	0x00007ae9	4.4092e-41
5	0x8000a678	-5.9718e-41
6	0x80007f4b	-4.5664e-41
7	0x8000491c	-2.6227e-41
8	0x8000bd93	-6.8006e-41
9	0x00005d2d	3.3425e-41
10	0x8000157f	-7.711e-42
11	0x80001575	-7.697e-42
12	0x80008795	-4.8638e-41
13	0x80012408	-1.04761e-40
14	0x8000772e	-4.2754e-41
15	0x8000e518	-8.2183e-41
16	0x0000596d	3.208e-41
17	0x00007b9f	4.4347e-41
18	0x00004926	2.6241e-41
19	0x3184d17a	3.8655203e-09
20	0x00007d12	4.4867e-41
21	0x80012628	-1.05523e-40
22	0x8001230e	-1.04411e-40
23	0x80008b7f	-5.0042e-41
24	0x00007d37	4.4919e-41
25	0x8000bf9c	-6.8736e-41
26	0x8000bf90	-6.872e-41
27	0x80003b57	-2.1287e-41
28	0x800155b7	-1.22584e-40
29	0x80001e9c	-1.098e-41
30	0x000038e1	2.0404e-41
31	0x800092f0	-5.2711e-41
32	0x2db49664	2.0530418e-11
33	0xb03404a4	-6.5490213e-10
34	0xb9ead2b6	-0.0004478895
35	0x0000c570	7.0827e-41
36	0xbb53288a	-0.0032220208
37	0xac1feae6	-2.2725654e-12
38	0x000102a1	9.2779e-41
39	0x0000892a	4.9205e-41
40	0x2eb810e9	8.370355e-11
41	0xb3121d95	-3.402018e-08
42	0x36d627db	6.382337e-06
43	0x000148e2	1.17981e-40
44	0x1d942054	3.92087e-21
45	0xb5fa207c	-1.8635906e-06
46	0x1f3a3666	3.943203e-20
47	0x3c3cd95e	0.011526434
48	0x80009c2b	-5.6023e-41
49	0xb04f254e	-7.5359174e-10
50	0xad1d7946	-8.951345e-12
51	0x00003ada	2.1112e-41
52	0x2104a52a	4.494193e-19
53	0x0000d0af	7.4862e-41
54	0x00008b13	4.989e-41
55	0x3d11dabe	0.035609
56	0xad3f6d23	-1.0881326e-11
57	0xa243b8b4	-2.652521e-18
58	0xbae122a6	-0.0017176464
59	0x80002193	-1.2044e-41
60	0xb81a3442	-3.676513e-05
61	0x38e1a1eb	0.000107589956
62	0x80017cb0	-1.36565e-40
63	0xab9f6e82	-1.1328302e-12
64	0x8000dbab	-7.8802e-41
65	0xb83297e5	-4.257997e-05
66	0x3a80ab7a	0.0009816729
67	0x80019098	-1.43706e-40
68	0x39e768e9	0.00044137918
69	0x00004cc8	2.7544e-41
70	0x0002c069	2.52695e-40
71	0x80014748	-1.17406e-40
72	0x3c971b36	0.018445592
73	0x0000e7c2	8.3139e-41
74	0x00008efd	5.1295e-41
75	0x00008cca	5.0506e-41
76	0x8000fc96	-9.0611e-41
77	0x00010c44	9.6236e-41
78	0x0000acd6	6.2002e-41
79	0x3bc73261	0.0060790037
80	0x00000984	3.414e-42
81	0x00008e31	5.1009e-41
82	0x00018acb	1.41625e-40
83	0x0c2af300	1.3169449e-31
84	0x39681748	0.00022133917
85	0x8000b951	-6.6479e-41
86	0x00001fb9	1.138e-41
87	0x3cc6ea04	0.02428151
88	0x246b1dbf	5.0982698e-17
89	0x1ee301a1	2.4035234e-20
90	0x3c723466	0.014783001
91	0x8000ec30	-8.4728e-41
92	0x3a35b408	0.0006931429
93	0x37cc6a6e	2.4368255e-05
94	0x0000d91d	7.7886e-41
95	0x832b6b16	-5.037531e-37
96	0x2e04d7ca	3.0204984e-11
97	0xac7b73b4	-3.5733473e-12
98	0x3e108b32	0.14115599
99	0x3311dac2	3.3959402e-08
100	0xbccf6352	-0.025315914
101	0xae586eea	-4.9211225e-11
102	0x0000cb5b	7.295e-41
103	0x00017dbb	1.36939e-40
104	0xb924aa44	-0.00015703688
105	0xbcf20306	-0.029542457
106	0x32317375	1.0329008e-08
107	0x0000972d	5.4232e-41
108	0x3a130d6f	0.0005609607
109	0x29c8aa9a	8.911379e-14
110	0x0000aab6	6.124e-41
111	0xbda9ed16	-0.08297174
112	0x3e43c166	0.19116744
113	0x30953f78	1.0859216e-09
114	0xa9cebd80	-9.181111e-14
115	0x2d775877	1.4059968e-11
116	0x3c5b4444	0.013382975
117	0x00005cf4	3.3345e-41
118	0x00001f9d	1.1341e-41
119	0x3dafc3ee	0.085822925
120	0xbcc91a18	-0.024548575
121	0xbdbc5d6a	-0.09197505
122	0x36d8c699	6.4604214e-06
123	0x00019a98	1.47293e-40
124	0x3e38abef	0.18034337
125	0x3cfbf9a7	0.030758692
126	0x2e9851a8	6.926665e-11
127	0xbab2847e	-0.0013619808
128	0x8000517a	-2.9228e-41
129	0xb7523851	-1.2530088e-05
130	0xb49a7690	-2.8771e-07
131	0x80004602	-2.5114e-41
132	0xb85fd313	-5.336392e-05
133	0x00000c99	4.519e-42
134	0x318d07b9	4.104518e-09
135	0x80003a49	-2.0909e-41
136	0xb2fa92e2	-2.9170625e-08
137	0x22b67193	4.945145e-18
138	0x38a50d8d	7.870337e-05
139	0x00003e0b	2.2257e-41
140	0x80004978	-2.6356e-41
141	0x8001417e	-1.1533e-40
142	0x80004210	-2.3699e-41
143	0x3542a55f	7.251128e-07
144	0x8000286a	-1.4498e-41
145	0x8000eddc	-8.5328e-41
146	0x8000e05a	-8.0482e-41
147	0x000032a1	1.8162e-41
148	0x00007162	4.0674e-41
149	0x0000b2ab	6.4094e-41
150	0x80002fd9	-1.7165e-41
151	0x37c14909	2.3041403e-05
152	0x36671063	3.443122e-06
153	0xb33fd2c7	-4.4662354e-08
154	0x881595ae	-4.5014004e-34
155	0x8001590c	-1.2378e-40
156	0xad18ccce	-8.6856754e-12
157	0x2db4ef5a	2.0569924e-11
158	0x00003ae2	2.1123e-41
159	0x000174fc	1.33802e-40
160	0x2541976d	1.6791387e-16
161	0xaf67b064	-2.1071994e-10
162	0xba7f7cfb	-0.00097461016
163	0x8000c621	-7.1075e-41
164	0xbb116920	-0.0022187904
165	0xadf0c5e3	-2.737272e-11
166	0xb5d5df39	-1.5934703e-06
167	0xad4cffb9	-1.1652839e-11
168	0xb49d00bd	-2.9244066e-07
169	0x80016de0	-1.31251e-40
170	0xbb257782	-0.0025248234
171	0x39a46bc4	0.0003136081
172	0xb94196f0	-0.00018462143
173	0x8000bfe3	-6.8836e-41
174	0x000045ec	2.5083e-41
175	0x3a595a98	0.00082913926
176	0x0736bd8f	1.3747864e-34
177	0x25a88ce3	2.9238823e-16
178	0x00005cfe	3.336e-41
179	0x992d6c9f	-8.965826e-24
180	0xb9fc1a0a	-0.00048084586
181	0x2f61482d	2.0489273e-10
182	0x32916cab	1.6929638e-08
183	0x3b5b1b8e	0.0033433172
184	0xbc0cca6e	-0.008593185
185	0xb5fa82e9	-1.8664551e-06
186	0xb83e5e2d	-4.5387238e-05
187	0x09bb6079	4.5109335e-33
188	0xaab36ba7	-3.1871486e-13
189	0x00007915	4.3436e-41
190	0x00003508	1.9024e-41
191	0xb072a288	-8.827006e-10
192	0x0001156d	9.9522e-41
193	0xb504d4e8	-4.948365e-07
194	0x345a84a9	2.0351094e-07
195	0x000038d1	2.0382e-41
196	0x328b1b51	1.6194152e-08
197	0x2aaef19f	3.1076267e-13
198	0xa1b0c782	-1.1979033e-18
199	0x800171cc	-1.32658e-40
200	0x39fcf0ff	0.00048244742
201	0x3af210fd	0.0018468198
202	0x2557ce94	1.8718269e-16
203	0x3baed650	0.0053356066
204	0x3709068f	8.167363e-06
205	0x00001405	7.182e-42
206	0x800064ae	-3.6117e-41
207	0x0000c118	6.9269e-41
208	0x000029f4	1.505e-41
209	0x27555712	2.960689e-15
210	0x0001513f	1.20981e-40
211	0x9a4b3c8e	-4.2028332e-23
212	0x37f7e888	2.9552975e-05
213	0x3132783a	2.597075e-09
214	0x2f23df85	1.4904174e-10
215	0x323faf12	1.115747e-08
216	0x39c232ff	0.00037040559
217	0xb69995a6	-4.5771767e-06
218	0x35383707	6.8625417e-07
219	0x8000914c	-5.2123e-41
220	0x256350e6	1.9716521e-16
221	0x800026ad	-1.3874e-41
222	0x0000174a	8.355e-42
223	0x3202583a	7.587056e-09
224	0xaacc84b6	-3.6329766e-13
225	0x3e18f9a2	0.14938977
226	0x3e26d7b8	0.16293228
227	0x17bb2c69	1.2095802e-24
228	0x3d357450	0.044300377
229	0xaf8ab891	-2.5233196e-10
230	0x98a9e0d2	-4.3912487e-24
231	0x3cec8154	0.028870262
232	0x3ebf875c	0.37407959
233	0x3b494888	0.0030713398
234	0xbd70e8fb	-0.058815937
235	0xac88a4a6	-3.883632e-12
236	0x3c87a239	0.016556846
237	0xbdc1fca0	-0.094720125
238	0xb8fbfdcd	-0.00012015887
239	0xbebcbbb5	-0.3686196
240	0x3c564895	0.013078828
241	0xb2692a3d	-1.3571989e-08
242	0xbc784396	-0.0151528325
243	0x971c4942	-5.0498783e-25
244	0x3d4d77fd	0.050163258
245	0x95bcd654	-7.6270745e-26
246	0xba0e8dc0	-0.00054379925
247	0xbf1117cb	-0.5667693
248	0xbd091fc0	-0.033477545
249	0xbe0d2b55	-0.13786061
250	0xbf02bdef	-0.51071066
251	0x80012852	-1.063e-40
252	0x3e1905b0	0.14943576
253	0x3cd8e6fd	0.026477331
254	0x98076875	-1.7501078e-24
255	0xbbee1a7c	-0.007266341

w_comp f4 [10, 4]
0	0x3de31a40	0.11088991
1	0xbf83fdbd	-1.031181
2	0x3e0f726e	0.14008495
3	0x3c33fba7	0.010985292
4	0x00017ab4	1.35853e-40
5	0x000157f5	1.23389e-40
6	0x8001494c	-1.1813e-40
7	0x00014a00	1.18382e-40
8	0x3f46c160	0.77638817
9	0xbde5c86d	-0.11219869
10	0xbcfb6618	-0.03068833
11	0xbe1a58cc	-0.15072936
12	0x3e58ef64	0.2118507
13	0xbfaeae68	-1.3646975
14	0xbf65ec38	-0.89813566
15	0xbebbf9f8	-0.3671415
16	0x3d93b95f	0.07213091
17	0xbe289de8	-0.16466486
18	0x3e5801d4	0.21094447
19	0xbadff9c2	-0.0017087983
20	0x3d0d9bae	0.034572296
21	0x3db8989d	0.09013484
22	0x3d1906d0	0.037360013
23	0x3dd546ef	0.1041392
24	0xbfd250ff	-1.6430968
25	0xbecdd8f2	-0.4020458
26	0x3e14a72c	0.14516896
27	0x3e8427f0	0.2581172
28	0x00015610	1.22709e-40
29	0x0001383c	1.12009e-40
30	0x00013b44	1.13096e-40
31	0x000131e2	1.0973e-40
32	0x80005a18	-3.232e-41
33	0x800154c3	-1.22242e-40
34	0x80018802	-1.40626e-40
35	0x0000d320	7.5737e-41
36	0x8000c51f	-7.0714e-41
37	0x8000f5b3	-8.814e-41
38	0x8000f4a7	-8.7765e-41
39	0x00001df3	1.0744e-41

self_loop_weight f4 [32, 32]
0	0x8000db98	-7.8775e-41
1	0x00005c29	3.3061e-41
2	0x8000a2ef	-5.845e-41
3	0x800068ee	-3.7642e-41
4	0x000096cb	5.4094e-41
5	0x00008d86	5.0769e-41
6	0x00007057	4.03e-41
7	0x00004654	2.5229e-41
8	0x00003f9c	2.2819e-41
9	0x000069d2	3.7961e-41
10	0x00015f85	1.26101e-40
11	0x00005669	3.0998e-41
12	0x0000017e	5.35e-43
13	0x8000ac16	-6.1733e-41
14	0x0000282b	1.441e-41
15	0x8001891a	-1.41018e-40
16	0x80007b12	-4.415e-41
17	0x0000593c	3.2011e-41
18	0x8000f007	-8.6106e-41
19	0x80006773	-3.711e-41
20	0x000061fd	3.5152e-41
21	0x8000252d	-1.3336e-41
22	0x8000c900	-7.2105e-41
23	0x8000a186	-5.7944e-41
24	0x80002f58	-1.6984e-41
25	0x000055f8	3.084e-41
26	0x8000191c	-9.008e-42
27	0x80005a66	-3.2429e-41
28	0x00008193	4.6482e-41
29	0x8000464b	-2.5216e-41
30	0x80009e62	-5.6817e-41
31	0x80005589	-3.0684e-41
32	0x00008026	4.5971e-41
33	0xbdc73229	-0.09726364
34	0xbe085ca1	-0.13316585
35	0x8000a97c	-6.08e-41
36	0xbe29f491	-0.16597201
37	0x0000b17f	6.3674e-41
38	0x00000a1f	3.631e-42
39	0xa041649a	-1.6381022e-19
40	0x3e7f4000	0.24926758
41	0x3d575e1c	0.052579984
42	0xbaa2f60f	-0.001243295
43	0x80013228	-1.09828e-40
44	0x3d8d2bd2	0.06893124
45	0x1f107dd7	3.0597278e-20
46	0xb0512411	-7.608501e-10
47	0x3c236772	0.009973394
48	0x36dcfc0a	6.585852e-06
49	0x3106f24c	1.9637296e-09
50	0x000090c8	5.1938e-41
51	0xbc823794	-0.015895642
52	0x3d65430b	0.05597214
53	0x8000e5d4	-8.2447e-41
54	0x0f647460	1.1263681e-29
55	0x3c99833f	0.01873934
56	0xba01ced6	-0.00049517804
57	0xbe3a6192	-0.18201283
58	0x3e04f1d7	0.1298288
59	0x00000780	2.69e-42
60	0xbcbb8d5d	-0.022894556
61	0x3cbc759f	0.023005305
62	0x8000a04f	-5.7508e-41
63	0x3e4aa34f	0.1978886
64	0x00011a11	1.01186e-40
65	0xbd4cad3f	-0.049969908
66	0xbb0dc3d4	-0.0021631615
67	0x8000baa3	-6.6953e-41
68	0xbdcc775b	-0.09983703
69	0x800157aa	-1.23283e-40
70	0x00006a33	3.8097e-41
71	0x80000b4d	-4.054e-42
72	0x3eb8e3e8	0.3611138
73	0x8fe4286d	-2.2498107e-29
74	0xacc3c69b	-5.564283e-12
75	0x1457963a	1.0884353e-26
76	0x326f564a	1.3931251e-08
77	0x80007f78	-4.5727e-41
78	0x842b239f	-2.011731e-36
79	0x3aa344b2	0.0012456386
80	0x8000181b	-8.647e-42
81	0x80002660	-1.3766e-41
82	0x8000d7db	-7.7434e-41
83	0x800062d4	-3.5453e-41
84	0x3c84fdc0	0.016234279
85	0x8001957f	-1.45465e-40
86	0x800082cd	-4.6922e-41
87	0xbd6befba	-0.057601668
88	0x3110ad87	2.1053397e-09
89	0x3cc4dae4	0.024030156
90	0x3d02801f	0.031860467
91	0x2cc0692b	5.468644e-12
92	0x3dd2a50d	0.10285387
93	0x37f97093	2.9735535e-05
94	0x00017a79	1.3577e-40
95	0xb377296f	-5.7546853e-08
96	0xb102c023	-1.9026707e-09
97	0xbe39bce3	-0.18138461
98	0x3c27de99	0.0102459425
99	0x80004b53	-2.7021e-41
100	0xbd4fcfbd	-0.050735224
101	0xba8e01fe	-0.0010834334
102	0x800044bc	-2.4657e-41
103	0x80000545	-1.89e-42
104	0xbd5b9ab5	-0.053614337
105	0xba7ef42e	-0.00097257167
106	0xb705405d	-7.9424035e-06
107	0xb751eca2	-1.2512466e-05
108	0xb41c4ec2	-1.4557284e-07
109	0x00015f34	1.25988e-40
110	0xad496c9d	-1.1449644e-11
111	0xbdd0b98f	-0.101916425
112	0x3ba0c320	0.004906073
113	0x3196c7fc	4.38831e-09
114	0xb6f41d80	-7.275201e-06
115	0x82c72fdb	-2.926789e-37
116	0x3791cb67	1.7380064e-05
117	0x380d61c7	3.3708082e-05
118	0x80006d60	-3.9236e-41
119	0x3d83bf6a	0.06432994
120	0xbab4b6d3	-0.0013787396
121	0xbd52454c	-0.051335618
122	0xbe42a494	-0.19008094
123	0x00007c9e	4.4704e-41
124	0xbe882a82	-0.2659493
125	0x3a49fcc1	0.0007705205
126	0x3bb475b6	0.0055071963
127	0x294c2cfc	4.5336117e-14
128	0xacba2828	-5.290896e-12
129	0x3c75cef8	0.0150029585
130	0x367af96f	3.7398092e-06
131	0x00004c25	2.7316e-41
132	0x3be6d9b7	0.0070449966
133	0x8001a64c	-1.51492e-40
134	0x3ca6563c	0.020304792
135	0x0595f12b	1.4100484e-35
136	0xba870275	-0.0010300415
137	0xba2aa7aa	-0.0006509969
138	0xb9e341f9	-0.00043345967
139	0x383a9f63	4.4494296e-05
140	0x291af9c4	3.4411506e-14
141	0x8000f1ea	-8.6782e-41
142	0x00007095	4.0387e-41
143	0x3de52f75	0.11190692
144	0x057029ea	1.1292444e-35
145	0x00004e8c	2.8177e-41
146	0xabbd0563	-1.3430753e-12
147	0x19b2b494	1.8477704e-23
148	0xab14295f	-5.2637576e-13
149	0xb6232d49	-2.4315252e-06
150	0x3ad9f682	0.0016629251
151	0x3a853ac3	0.0010164607
152	0x3a0f28b3	0.0005461082
153	0x3b966867	0.0045900824
154	0x2e19cdeb	3.4971064e-11
155	0x00004170	2.3475e-41
156	0x2e27f7b7	3.819142e-11
157	0x2fd9187e	3.9489473e-10
158	0x0000d848	7.7587e-41
159	0xb0c5e038	-1.4397363e-09
160	0x359f37bb	1.1862643e-06
161	0x3a7dd710	0.0009683231
162	0x2a1dfa96	1.403134e-13
163	0x000113c8	9.8932e-41
164	0x3c19603d	0.009361324
165	0x14cbf8d9	2.0595915e-26
166	0x34d955d3	4.0481845e-07
167	0x189542c1	3.8583e-24
168	0xbcb910c8	-0.02259101
169	0x0000ffd1	9.177e-41
170	0x28b9c192	2.0623074e-14
171	0x9fb37ea0	-7.601893e-20
172	0x3097be17	1.1040723e-09
173	0x000090f5	5.2001e-41
174	0x80002fa1	-1.7086e-41
175	0x2f12c8ae	1.3349918e-10
176	0x800152a7	-1.21486e-40
177	0xa60373f5	-4.5606906e-16
178	0x00003e2f	2.2307e-41
179	0x34ae63a1	3.2482515e-07
180	0x2af9fde5	4.440746e-13
181	0xb16ac6e6	-3.4164542e-09
182	0x962ac721	-1.3795325e-25
183	0x3a9615b2	0.0011450558
184	0xae40c3b1	-4.3829555e-11
185	0x3c512272	0.01276456
186	0x27a587de	4.5944007e-15
187	0x8000a938	-6.0704e-41
188	0xb6892641	-4.0873715e-06
189	0x8000341b	-1.8692e-41
190	0x0000840c	4.737e-41
191	0x3116d47a	2.1948652e-09
192	0x30ff0475	1.8554959e-09
193	0xba75f25b	-0.0009382122
194	0x331f729c	3.712431e-08
195	0x000023ce	1.2844e-41
196	0x39e139b8	0.00042958348
197	0x2b8138e2	9.181789e-13
198	0xae4a67fe	-4.6021846e-11
199	0x80004417	-2.4426e-41
200	0xbc1adf6a	-0.00945268
201	0xaa6d3985	-2.1069785e-13
202	0x31dd52f4	6.441377e-09
203	0x80019cf7	-1.48144e-40
204	0x3ce56d61	0.028006257
205	0x80002927	-1.4763e-41
206	0x80019d01	-1.48158e-40
207	0x2d0840d7	7.745102e-12
208	0x12e2d839	1.4315908e-27
209	0xb062cf9c	-8.251335e-10
210	0x00006920	3.7712e-41
211	0xb44e7b5e	-1.9230126e-07
212	0xb3a47fe3	-7.6601076e-08
213	0x26848cb1	9.197474e-16
214	0xa4e0590a	-9.729535e-17
215	0x3b1cbf04	0.0023917565
216	0xb08724e1	-9.833024e-10
217	0xbca04ddc	-0.019568376
218	0x30ba1e3e	1.3541877e-09
219	0x000088b1	4.9036e-41
220	0x2e28055f	3.8203548e-11
221	0x80001ce9	-1.0371e-41
222	0x80013936	-1.12359e-40
223	0x3c680f96	0.014163872
224	0xbd07f031	-0.03318805
225	0x3ea9090d	0.33014718
226	0x3dcfdac9	0.10149152
227	0x8000c26c	-6.9745e-41
228	0x3e1b9c0e	0.15196249
229	0xbc5543af	-0.013016625
230	0xae901ea7	-6.553807e-11
231	0xbe0135f0	-0.12618232
232	0x3e9a0cf8	0.3008802
233	0xbd82cd94	-0.06386867
234	0x3d9b9432	0.075966254
235	0x24e2e133	9.839338e-17
236	0x98c63328	-5.1233455e-24
237	0x3dbf689e	0.09346126
238	0xb8211bd8	-3.8411323e-05
239	0x3dd55993	0.104174756
240	0xbe32f148	-0.17474854
241	0xbb66bf34	-0.003520918
242	0x3d5a67f6	0.0533218
243	0xbc2df48f	-0.010617389
244	0xbab37f8d	-0.0013694629
245	0x00016382	1.27532e-40
246	0x2f9794c1	2.7572436e-10
247	0x3dc95681	0.098309524
248	0xbd58ced5	-0.052931625
249	0x3e8a75b6	0.2704293
250	0x3da7ae7c	0.08187577
251	0xb2902415	-1.6780215e-08
252	0x3dc11acc	0.09428939
253	0x3c075fa1	0.008262546
254	0xbc8554bc	-0.016275756
255	0xbe098d5b	-0.13432829
