experiments/grail_wn_v2/graph_classifier_chk.pth (torch, 102286 bytes, 21 tensors)

weight f4 [10, 32]
0.029288784 -0.07594329 0.16272503 0.049032044 0.13785191 -0.03130235 0.076025195 0.10224906
0.1482336 0.065484285 -0.0903669 -0.03931479 -0.04946738 0.0019489949 -0.031918906 0.10250882
0.15671593 -0.043151323 0.019929549 0.038779832 0.027081102 0.049191132 -0.032660097 0.045960892
-0.15505973 -0.17098108 -0.0108663635 0.06426798 -0.012228768 -0.038816486 0.035421394 -0.06373233
-2.5195714e-12 6.2954535e-21 -2.609059e-05 8.162218e-09 0.0002404592 5.2827502e-09 -2.433433e-07 -1.6092293e-06
3.9383087e-07 5.4859297e-06 2.254436e-05 8.1318504e-08 -3.0029292e-25 -1.371667e-20 1.4905886e-10 0.00042049875
-3.5847326e-05 -2.846775e-22 -9.912641e-25 -1.0229909e-10 -1.854414e-25 -8.059178e-07 -2.9224546e-12 -7.970639e-08
0.0002574424 0.00057334994 7.5387075e-28 -4.1825856e-06 4.8701087e-25 2.7561953e-07 -2.817449e-08 8.593796e-07
-0.19299205 0.09151547 -0.22856702 -0.07998513 -0.1250518 0.26801106 -0.2846051 -0.17067578
-0.098140076 -0.074496895 0.33982465 0.28127652 0.089623354 -0.161593 0.22069152 -0.07676696
-0.23833825 0.04337039 -0.044548478 -0.11325349 -0.036862172 -0.31946155 0.028759314 -0.09108095
0.35817415 0.44789213 0.025767962 -0.34981352 0.029141948 0.31672627 -0.27907324 0.3175867
0.007654288 -0.0011873334 0.041491725 -0.024030738 -0.05419975 -0.02060139 0.02409408 0.028687466
-0.04769162 -0.03244265 -0.04992153 -0.0249373 0.00018198689 0.0039983196 -0.010066006 -0.09489796
0.04848766 0.0006746069 -0.0006346652 0.010271168 0.025218515 0.030042738 0.012029821 0.03644624
-0.03655832 -0.060052566 0.004259072 0.038399845 0.0034881607 -0.026019596 0.023563394 -0.028159177
-0.09759715 -0.07286465 -0.08343572 -0.07924237 0.044225905 0.13853288 -0.16832268 -0.089437515
0.03751244 -0.03730556 0.10097909 0.122841515 -0.0715833 -0.1072426 0.09959857 0.061455432
-0.077164784 -0.04659062 -0.12741707 -0.09953554 0.09496589 -0.13879278 0.09840126 0.06856331
0.13057777 0.130913 0.123026595 -0.14000313 0.1273061 0.10480015 -0.13215646 0.159357
0.103963874 0.11253192 0.020859685 -0.012153272 -0.129264 -0.09238375 0.033292904 0.077417776
-0.14634833 -0.033989724 -0.06490144 -0.09169976 0.09706139 0.1133799 -0.097451255 -0.14410576
0.029529257 0.053527355 0.06762626 0.11719944 -0.045618184 0.07187831 -0.030739507 -0.058575585
0.010821204 0.026620533 -0.044861972 0.06029725 -0.050792526 -0.08011693 0.09167386 -0.038599618
-0.03899507 -0.023951847 0.08409715 -0.12981725 -0.14427797 0.018313846 -0.009802704 0.039228104
-0.15387659 -0.12350542 -0.028717522 0.012191876 0.011440181 -0.048721198 0.03880477 -0.1777626
0.07939246 0.08002547 -0.07031939 -0.0016526254 0.018440504 -0.0008879166 0.11557323 0.0862439
-0.061142318 -0.08110603 0.08859513 0.012851393 0.0864785 0.022575932 -0.014307668 0.014044771
-2.6893136e-19 -5.5834636e-05 3.0242638e-20 6.0858592e-12 -5.08243e-14 6.0295522e-05 -2.3525823e-10 5.1667397e-14
-7.156221e-11 -1.6638044e-10 -1.442706e-11 -1.3073e-40 -1.4865489e-08 1.2246247e-14 -2.678059e-08 5.120163e-09
1.5866425e-10 -0.00036058633 1.21117e-40 -1.1480664e-08 2.0248959e-12 7.551216e-09 1.0743681e-15 -1.3857826e-07
-1.0726148e-10 9.5797995e-11 -5.133062e-06 5.0647954e-12 2.447299e-07 -1.9227488e-11 -2.6051648e-09 -5.16262e-06
00000000: 08ef ef3c 2888 9bbd 64a1 263e d3d5 483d
00000010: 0d29 0d3e e536 00bd 19b3 9b3d f567 d13d
00000020: 8dca 173e a01c 863d 4812 b9bd 8c08 21bd
00000030: 4f9e 4abd 6b75 ff3a 66bd 02bd 25f0 d13d
00000040: 247a 203e 71bf 30bd 4b43 a33c 9ad7 1e3d
00000050: 30d9 dd3c a47c 493d 98c6 05bd 7d41 3c3d
00000060: fac7 1ebe aa15 2fbe d508 32bc ee9e 833d
00000070: 2c5b 48bc 09fe 1ebd 0616 113d 1986 82bd
00000080: 904c 31ac e4d5 ed1d 1edd dab7 d039 0c32
00000090: c623 7c39 9083 b531 d9a4 82b4 b3fc d7b5
000000a0: b46f d334 c713 b836 a51d bd37 52a1 ae33
000000b0: 50df b996 df8c 819e 57e4 232f 6376 dc39
000000c0: c65a 16b8 b613 ac9b 0464 9997 45f5 e0ae
000000d0: ba90 6596 4056 58b5 43a6 4dac 0d2b abb3
000000e0: 56f9 8639 dd4c 163a 43e9 6e12 2358 8cb6
000000f0: fab8 1617 dcf8 9334 5c04 f2b2 1eb0 6635
00000100: b59f 45be 766c bb3d 790d 6abe 3ecf a3bd
00000110: 940d 00be bf38 893e c2b7 91be a2c5 2ebe
00000120: aafd c8bd d491 98bd 7ffd ad3e 7a03 903e
00000130: 738c b73d a378 25be f5fc 613e ff37 9dbd
00000140: f10e 74be 26a5 313d 7778 36bd 72f1 e7bd
00000150: cafc 16bd 7790 a3be a798 eb3c a688 babd
00000160: 9a62 b73e 1e52 e53e 5517 d33c c21a b3be
00000170: 18bb ee3c f229 a23e b0e2 8ebe b99a a23e
00000180: d2d0 fa3b 4ca0 9bba 3af3 293d 1cdc c4bc
00000190: 8f00 5ebd 3fc4 a8bc f360 c53c fa01 eb3c
000001a0: 4a58 43bd 96e2 04bd 857a 4cbd 4f49 ccbc
000001b0: bcd3 3e39 5604 833b e4eb 24bc dd59 c2bd
000001c0: ff9a 463d 1ad8 303a a95f 26ba 6748 283c
000001d0: 0f97 ce3c 301c f63c ba18 453c a748 153d
000001e0: 2dbe 15bd aef9 75bd af8f 8b3b 2849 1d3d
000001f0: a099 643b 0c27 d5bc 0508 c13c 13ae e6bc
00000200: 04e1 c7bd 103a 95bd 59e0 aabd d349 a2bd
00000210: 3926 353d 90db 0d3e c85c 2cbe 042b b7bd
00000220: a5a6 193d b7cd 18bd 20ce ce3d 5594 fb3d
00000230: 449a 92bd 02a2 dbbd 56fa cb3d b1b8 7b3d
00000240: 9208 9ebd ced5 3ebd 9f79 02be 4ad9 cbbd
00000250: 7a7d c23d b21f 0ebe 9a86 c93d ec6a 8c3d
00000260: 2eb6 053e 0f0e 063e 5ef5 fb3d fb5c 0fbe
00000270: 885c 023e 76a1 d63d 0654 07be 7b2e 233e
00000280: 03eb d43d 2377 e63d eee1 aa3c 841e 47bc
00000290: c85d 04be b133 bdbd 245e 083d 368d 9e3d
000002a0: 56dc 15be cf38 0bbd 0ceb 84bd 15cd bbbd
000002b0: 1fc8 c63d b933 e83d 8694 c7bd 7690 13be
000002c0: 57e7 f13c 803f 5b3d a37f 8a3d 4306 f03d
000002d0: 22da 3abd ef34 933d 6bd1 fbbc f4ec 6fbd
000002e0: 6b4b 313c 4e13 da3c 30c1 37bd 40fa 763d
000002f0: d30b 50bd 5814 a4bd 81bf bb3d a21a 1ebd
00000300: 4bb9 1fbd aa36 c4bc 203b ac3d d0ee 04be
00000310: 9bbd 13be eb06 963c 859b 20bc a6ad 203d
00000320: d391 1dbe 69f0 fcbd 0241 ebbc 6fc0 473c
00000330: 996f 3b3c e18f 47bd c0f1 1e3d 6607 36be
00000340: 8498 a23d 65e4 a33d 9d03 90bd e89c d8ba
00000350: 8a10 973c 13c3 68ba a8b1 ec3d a4a0 b03d
00000360: 5e70 7abd eb1a a6bd 5d71 b53d a68e 523c
00000370: a41b b13d 29f1 b83c b66a 6abc 0a1c 663c
00000380: c2bf 9ea0 fc2f 6ab8 1bd1 0e1f 8c20 d62c
00000390: 6ee4 64a9 d3e5 7c38 a755 81af 74b0 6829
000003a0: f15d 9dae eeef 36af b4cd 7dad 6c6c 0180
000003b0: 1d63 7fb2 d99b 5c28 240b e6b2 6eed af31
000003c0: 0474 2e2f 140d bdb9 a051 0100 7f3c 45b2
000003d0: 487d 0e2c 99ba 0132 30d5 9a26 1acc 14b4
000003e0: d8de ebae 7aa9 d22e ab3c acb6 9f33 b22c
000003f0: 6c63 8334 7420 a9ad 8b06 33b1 913a adb6

weight f4 [4, 8, 32]
6.8805e-41 0.007953605 0.012787235 0.041920286 5.314585e-06 1.6780841e-06 -0.0005986662 -0.16881871
0.40089205 -0.094267085 -0.06728322 0.6887591 0.23198831 -4.5772017e-06 -4.4196266e-05 0.15856703
-0.39629766 -1.20418e-40 -0.88855195 -0.87568945 3.534059e-06 0.019995857 1.0439773e-28 0.049709167
6.7532315e-28 6.0672464e-06 -0.015214646 -0.2930803 0.00035402493 -0.33700684 7.2598894e-05 -1.3586e-40
-5.3186e-41 -0.016997809 0.003569462 0.02730156 9.433436e-07 -0.002576314 -0.0006941854 0.5891765
-0.07392865 0.68426526 -0.14218387 0.3153087 0.75997853 5.306123e-06 2.230487e-08 0.25341016
-1.1828145 7.792e-41 -0.033099107 0.038091835 0.15456104 -0.01890195 -7.577917e-26 0.002088769
5.610009e-09 0.003241648 -0.0008921633 -0.22202161 0.024262652 0.11150741 0.00051262486 3.970604e-22
-2.0413e-41 0.03194344 -1.2058565e-11 -7.880786e-19 7.560594e-06 -6.5985766e-08 0.0006020391 -0.15578683
-0.14061876 0.22430965 0.21444295 0.19602409 0.018872324 0.00022085982 0.036149256 0.013232117
-0.39197427 -3.7183e-41 0.3766039 0.2531828 4.5322e-41 1.5880339e-11 8.82652e-27 3.8103e-41
9.232383e-29 0.000832668 -2.2031449e-10 0.20838095 0.00019023394 -0.0777824 0.003509826 5.2429245e-06
9.2455e-41 0.09830544 4.8038e-06 0.0002115513 1.5645092e-08 4.1999552e-05 4.339832e-06 0.19650832
0.08526221 0.46543634 0.10832524 -0.44431165 -0.530343 -6.3608e-41 0.035506878 0.010211301
1.0885841 1.5486757e-20 0.46890074 2.3189363 0.008187607 0.3726462 -7.7803e-41 5.878744e-06
-3.7196774e-17 0.006995189 -1.7611048e-09 0.24380526 2.1868304e-07 0.41364372 0.0008363419 -5.6081973e-13
-5.2411e-41 -0.0014674901 0.002830865 1.3287916e-12 1.10783026e-13 0.00027150076 -2.2283898e-06 -0.00012901341
0.0044485945 -0.02159512 -1.1205103e-05 0.011527708 0.009489019 2.0928736e-14 1.8094e-41 0.011145517
-0.5806407 -6.5917e-41 0.11509097 -0.75879204 -4.9655023e-06 0.00039791898 -3.5434237e-27 2.3157494e-12
1.9275045e-30 5.881012e-05 -4.998e-41 0.31525996 2.3860458e-17 0.09178545 0.00020265137 -5.823669e-29
-5.961888e-36 0.09684501 0.0166149 0.035015475 2.998269e-05 0.00063676445 0.0014523983 0.57541484
0.29066378 0.09093699 0.005839479 -0.39047512 0.7688605 0.005222874 0.04385263 0.044417474
0.0030179045 2.7046792e-22 -0.77982384 1.00868 0.18763338 0.02945217 -1.2848685e-26 0.06315728
4.7994488e-17 0.018477987 0.028997228 -0.17388168 0.003156512 0.178308 0.01532484 7.581254e-06
2.4744e-41 0.00026240843 -0.00027559686 5.0398023e-05 2.4822824e-10 -7.40735e-05 -0.0035426405 -0.2311377
0.08785428 0.41425082 -0.26224375 1.0281812 -0.2514163 1.0798219e-12 1.45537e-40 0.19607906
-0.35327935 2.2882735e-24 0.33968857 0.907804 -9.215305e-06 0.033321965 9.753287e-27 3.3776626e-08
2.0505867e-08 1.9167626e-10 -5.3550773e-09 -0.0365164 0.031821407 0.29092157 0.00013653378 -4.499928e-15
-1.8279e-41 -3.499648e-16 1.4995e-41 0.00048656616 3.332549e-13 -0.00011949033 -5.9901272e-12 -4.3456e-41
0.003625014 -0.033875205 -0.014883659 0.110123396 -0.030833332 2.479016e-18 -5.9107648e-30 0.15542085
0.3396373 -2.0298e-41 -0.0100676995 0.13542773 -6.6740664e-16 1.36845e-19 7.756809e-27 6.061685e-23
1.2237388e-35 -2.5787e-41 1.6843194e-05 0.14506638 -9.897797e-35 -0.15514538 9.127e-42 9.081e-41
00000000: cdbf 0000 d64f 023c 8d81 513c 9bb4 2b3d
00000010: f053 b236 883a e135 cfef 1cba d0de 2cbe
00000020: b941 cd3e 1a0f c1bd c9cb 89bd 8452 303f
00000030: 588e 6d3e dd95 99b6 615f 39b8 655f 223e
00000040: 87e7 cabe ad4f 0180 2478 63bf 2f2d 60bf
00000050: ac2a 6d36 5ace a33c 0057 0411 d79b 4b3d
00000060: b904 5612 4095 cb36 da46 79bc 9f0e 96be
00000070: 6c9c b939 298c acbe 3c40 9838 b97a 0180
00000080: 4394 0080 fd3e 8bbc a3ed 693b 85a7 df3c
00000090: 143a 7d35 60d7 28bb fef9 35ba 45d4 163f
000000a0: e767 97bd 022c 2f3f a698 11be 2470 a13e
000000b0: f48d 423f 400b b236 ee98 bf32 fabe 813e
000000c0: 7766 97bf 36d9 0000 ee92 07bd 2f06 1c3d
000000d0: 4045 1e3e 43d8 9abc c19e bb95 bbe3 083b
000000e0: 29c2 c031 d471 543b 11e0 69ba a259 63be
000000f0: 78c2 c63c ff5d e43d ac61 063a 1f02 f01b
00000100: e738 0080 20d7 023d f322 54ad 8999 68a1
00000110: 02b1 fd36 0fb4 8db3 29d2 1d3a 9586 1fbe
00000120: 5dfe 0fbe 6eb1 653e ef96 5b3e 8aba 483e
00000130: 229a 9a3c 9b96 6739 3e11 143d 85cb 583c
00000140: dab0 c8be a767 0080 3ad2 c03e 2da1 813e
00000150: 577e 0000 58af 8b2d c6d3 2e14 376a 0000
00000160: 9711 ea10 6747 5a3a 043d 72af d161 553e
00000170: 8979 4739 614c 9fbd 1c05 663b 61ec af36
00000180: ba01 0100 5d54 c93d 5430 a136 dfd3 5d39
00000190: ec63 8632 ad28 3038 df9e 9136 7a39 493e
000001a0: f49d ae3d ac4d ee3e a0d9 dd3d d17c e3be
000001b0: 8fc4 07bf 50b1 0080 a96f 113d 4d4d 273c
000001c0: b956 8b3f ae44 921e c213 f03e 7469 1440
000001d0: 5025 063c 7ccb be3e e2d8 0080 0742 c536
000001e0: 338a 2ba4 e637 e53b 5e0b f2b0 16a8 793e
000001f0: 23cf 6a34 1cc9 d33e f43d 5b3a 52db 1dab
00000200: 1a92 0080 cc58 c0ba 0986 393b c302 bb2b
00000210: 1176 f929 3758 8e39 728b 15b6 c647 07b9
00000220: 84c5 913b 40e8 b0bc 8dfd 3bb7 b6de 3c3c
00000230: d577 1b3c 6182 bc28 7032 0000 b09b 363c
00000240: dea4 14bf c0b7 0080 d1b4 eb3d 3240 42bf
00000250: 579d a6b6 c89f d039 965e 8c93 d5f4 222c
00000260: b460 1c0e e3aa 7638 538b 0080 c169 a13e
00000270: ea12 dc23 03fa bb3d d07e 5439 c6a5 9390
00000280: 3697 fd84 ad56 c63d f91b 883c 636c 0f3d
00000290: 5683 fb37 8aec 263a 665e be3a 634e 133f
000002a0: e2d1 943e 2c3d ba3d 1a59 bf3b 5bec c7be
000002b0: 0bd4 443f a524 ab3b d19e 333d 19ef 353d
000002c0: 09c8 453b e27c a31b 89a2 47bf 6d1c 813f
000002d0: f722 403e ad45 f13c 937e 7e94 9b58 813d
000002e0: e455 5d24 265f 973c 988b ed3c 0a0e 32be
000002f0: 7cdd 4e3b 5f96 363e 0a15 7b3c 7a62 fe36
00000300: fa44 0000 dd93 8939 fc7d 90b9 7762 5338
00000310: 0577 882f e857 9bb8 a52b 68bb 5caf 6cbe
00000320: f2ec b33d af18 d43e d044 86be 719b 833f
00000330: a3b9 80be aff8 972b b395 0100 f3c8 483e
00000340: 08e1 b4be ed0b 3118 a9eb ad3e d865 683f
00000350: 6f9b 1ab7 9d7c 083d 0a2f 4114 cb11 1133
00000360: e124 b032 12c0 522f c2ff b7b1 3892 15bd
00000370: 2a57 023d acf3 943e 822a 0f39 8320 a2a7
00000380: f432 0080 b0bd c9a5 cd29 0000 ce19 ff39
00000390: 189b bb2a e296 fab8 45c2 d2ac 2379 0080
000003a0: a591 6d3b bac0 0abd 97da 73bc 6088 e13d
000003b0: 2f96 fcbc 4aeb 3622 e4c4 ef8e a526 1f3e
000003c0: f1e4 ad3e 9538 0080 fef2 24bc 91ad 0a3e
000003d0: eb5d 40a6 dd8e 2120 b2a3 1914 0390 921a
000003e0: 5721 8205 e247 0080 7c4a 8d37 488c 143e
000003f0: 7590 0387 6ede 1ebe 7119 0000 24fd 0000

w_comp f4 [10, 4]
-0.9735335 0.94681793 -0.25328678 -0.22007957 0.033011492 -0.42343435 -0.09303081 0.23354684
-0.42339998 -0.7068039 -0.595218 1.093178 0.17352907 -0.05424544 0.30615065 -0.053078108
-0.034479626 -0.6214779 -0.013930788 -0.29680666 0.065428615 -0.71887094 0.5938489 -0.53803474
-1.4345338 0.23101592 -0.4905025 0.52071 6.69145e-40 -1.0208417e-20 -4.7476e-41 3.9833e-41
-2.9618952e-09 6.148043e-16 -4.216903e-24 1.5843e-41 6.8416e-41 6.5123e-41 -5.304e-41 6.8291e-41
00000000: 7e39 79bf a962 723f ceae 81be 8a5c 61be
00000010: 0f37 073d 63cc d8be f086 bebd e726 6f3e
00000020: e2c7 d8be 1af1 34bf 3560 18bf 42ed 8b3f
00000030: 9bb1 313e 7730 5ebd c7bf 9c3e 6e68 59bd
00000040: 823a 0dbd 2d19 1fbf f63d 64bc 0bf7 97be
00000050: 70ff 853d ed07 38bf 7b06 183f a5bc 09bf
00000060: ce9e b7bf 708f 6c3e 2523 fbbe 404d 053f
00000070: 4e49 0700 e0d4 409e 5884 0080 0a6f 0000
00000080: 368a 4bb1 8d34 3126 2f22 a398 2a2c 0000
00000090: b7be 0000 89b5 0000 db93 0080 5ebe 0000

self_loop_weight f4 [8, 32]
4.6188e-41 -0.041721947 -0.00538608 -0.13964066 -0.004907375 -0.026335886 -0.0025384584 0.08142522
-0.08274006 -0.60045224 -0.29018518 0.80808103 -0.14546187 -2.9452715e-07 -0.06499471 -0.03523172
-0.33245108 -7.652942e-06 -0.7407013 0.03373318 -0.29247484 -0.246071 -4.0377083e-27 -0.0018006577
-4.083e-42 -0.06857385 0.0016551118 -0.20922913 -0.123285286 0.08240054 -0.0052907513 -5.833161e-07
-2.0919152e-25 -0.26719216 -0.11788891 -0.25661436 0.0030211776 -0.23196132 -0.017771684 -0.4662167
-0.48555 0.5537821 -0.31744742 -1.1278436 -0.3849494 -0.10792219 -0.21520853 -0.42198133
-0.7040638 -1.1825582e-19 -0.46328697 0.2758528 -0.20204693 -0.17602663 -4.7132487e-10 -0.30594093
-0.011065375 -0.07129414 -0.15950629 0.6646326 -0.008992322 0.6257025 -0.080856584 -0.008239872
-2.1809354e-29 -0.045223013 -0.025687268 -0.2547491 -9.2830574e-05 -0.005059875 -0.0008618498 0.12379068
0.09272731 -0.23784833 -0.07309972 1.1016386 0.54466504 -0.0038766137 -0.0003064569 -0.13772732
1.2424157 -3.41498e-09 -0.55963814 -0.48846003 -0.07627529 -0.20202993 -5.2184998e-05 -0.04008815
-0.0018910386 -0.009148702 -0.016267573 -0.6276494 -0.039461702 -0.6895309 -0.0030868044 -0.00020143847
-1.15397e-40 -1.5205122e-05 0.015500436 0.00045926025 1.12669e-40 -6.469944e-05 -0.0003723093 0.584006
0.0075320047 -0.20450385 -0.004815742 -0.32607907 0.720966 8.954e-41 1.6701974e-20 0.333301
-0.4213841 -1.2053588e-24 -0.08186372 0.46202424 -4.233593e-27 -0.2745791 1.13089e-40 -0.00015392173
9.3336e-41 5.1190622e-05 2.980928e-09 -0.22739662 -0.010941949 0.010894102 -0.00672284 -0.01477503
-1.3123205e-29 -0.24986745 -0.11430632 -0.25674504 -0.0040412555 -0.0058349674 0.003448245 -2.711933e-08
-0.16824193 -0.041926313 -0.31890202 1.0624443e-36 -0.45380324 0.07930967 -0.1861882 -1.7446082e-06
-0.41982275 -1.1167e-40 -0.33920777 -0.71781313 -0.07202835 -0.038988665 -4.9050705e-25 -0.22503929
-3.7172707e-05 -0.000616263 -1.057819e-05 0.5160936 -0.0051545533 3.2180705 -0.12601413 -9.8769945e-15
-6.8714105e-31 -0.15775214 -0.0704719 -0.26999363 -0.04209106 -0.08102718 -0.010334915 0.029877879
-0.50630784 -0.19559835 -0.4175327 -1.2538443 -0.25635597 -0.00037473132 -0.20271045 -0.4049146
0.26181445 -7.06966e-05 -0.6242528 1.8075023 -0.30165803 -0.09439887 -4.918623e-11 -0.17708623
-0.0040291464 -0.08298633 -0.19518004 -0.5534552 -0.28100055 -0.6597302 -0.12273888 -5.3446944e-05
4.683e-41 -0.0024627075 -0.02333111 -0.16600852 -0.059576977 -6.1708786e-05 -3.9307677e-05 -0.3021583
-0.12412169 -0.41393295 -0.32243115 0.73515606 0.1109993 -0.004908517 -0.00044766284 0.16622879
-1.8537222 -1.528071e-24 -0.2326102 -0.60364115 -0.081353344 -0.063821 -5.745313e-05 -0.0045246636
-0.0065398654 -5.1689e-06 -0.02087896 -0.23438615 -0.0132120345 -0.85049665 -0.06340827 -0.02220808
1.03496e-40 1.06322e-40 -0.021495484 -0.0046461597 -0.004971847 -2.7314961e-14 -2.600133e-15 -0.16728613
0.3224359 -0.28773895 -0.05979498 1.2435868 -0.04666818 5.908436e-19 5.5246e-41 -0.3880876
-1.4255452 1.586e-42 0.083622694 -0.5428928 -1.7797225e-13 -0.0004637791 -9.039667e-14 0.0059609623
-0.0006470933 -1.1373357e-06 4.878e-41 -0.62105846 2.5840204e-17 0.40316227 -0.061641987 -0.0015394399
00000000: c180 0000 a2e4 2abd b77d b0bb f6fd 0ebe
00000010: 0cce a0bb 5bbe d7bc 445c 26bb 44c2 a63d
00000020: 9f73 a9bd 3db7 19bf 2793 94be 66de 4e3f
00000030: f5f3 14be 811f 9eb4 f21b 85bd 234f 10bd
00000040: 0737 aabe 2365 00b7 9a9e 3dbf ce2b 0a3d
00000050: 43bf 95be 09fa 7bbe 3af3 9f93 0c04 ecba
00000060: 620b 0080 7270 8cbd 56f0 d83a 2940 56be
00000070: ff7c fcbd 9dc1 a83d 0a5e adbb 2d95 1cb5
00000080: b87b 8196 69cd 88be be6f f1bd f562 83be
00000090: f3fe 453b 4587 6dbe ec95 91bc f5b3 eebe
000000a0: 029a f8be aac4 0d3f 7888 a2be 2e5d 90bf
000000b0: 1618 c5be 4f06 ddbd a05f 5cbe f00d d8be
000000c0: 863d 34bf a19c 0ba0 f333 edbe 943c 8d3e
000000d0: 64e5 4ebe 5340 34be 8a8e 01b0 4aa4 9cbe
000000e0: 8c4b 35bc a902 92bd 9e55 23be 5d25 2a3f
000000f0: 8854 13bc 0a2e 203f 2398 a5bd 8700 07bc
00000100: 522c dd8f c43b 39bd 1b6e d2bc 796e 82be
00000110: 09ae c2b8 4fcd a5bb c3ed 61ba f885 fd3d
00000120: d1e7 bd3d 838e 73be 4eb5 95bd 7e02 8d3f
00000130: 2b6f 0b3f c90e 7ebb f3ab a0b9 6408 0dbe
00000140: 7a07 9f3f f7ac 6ab1 7244 0fbf 6f17 fabe
00000150: 3836 9cbd efe0 4ebe 37e1 5ab8 7933 24bd
00000160: badc f7ba 70e4 15bc 9343 85bc a2ad 20bf
00000170: 98a2 21bd 1985 30bf fc4b 4abb 3a39 53b9
00000180: ae41 0180 8019 7fb7 8af5 7d3c dec8 f039
00000190: 133a 0100 3faf 87b8 8232 c3b9 6b81 153f
000001a0: 09cf f63b 7569 51be 5fcd 9dbb d6f3 a6be
000001b0: 3a91 383f 9af9 0000 e5be 9d1e 6ea6 aa3e
000001c0: a8bf d7be 2e85 ba97 2ba8 a7bd 718e ec3e
000001d0: bcb5 a793 a295 8cbe 3f3b 0100 0d66 21b9
000001e0: 2f04 0100 83b5 5638 0ad9 4c31 a9da 68be
000001f0: dc45 33bc 2d7d 323c 454b dcbb f812 72bc
00000200: ca15 858f 41dd 7fbe 6f19 eabd 1674 83be
00000210: 826c 84bb 4133 bfbb f4fb 613b 0af4 e8b2
00000220: 9d47 2cbe edba 2bbd 2047 a3be fac3 b403
00000230: e658 e8be 1c6d a23d 1fa8 3ebe 4828 eab5
00000240: 02f3 d6be 4a37 0180 a4ac adbe 9ac2 37bf
00000250: 9983 93bd 94b2 1fbd f9cd 1797 b370 66be
00000260: e4e9 1bb8 b68c 21ba fb78 31b7 b61e 043f
00000270: 87e7 a8bb def4 4d40 d909 01be 99ed 31a8
00000280: 72fd 5e8d c789 21be 9253 90bd 9b3c 8abe
00000290: ad67 2cbd 94f1 a5bd c653 29bc 74c2 f43c
000002a0: 649d 01bf ef4a 48be d9c6 d5be f87d a0bf
000002b0: 1741 83be 9677 c4b9 5493 4fbe f750 cfbe
000002c0: 8b0c 863e f342 94b8 08cf 1fbf 3c5c e73f
000002d0: ec72 9abe 3254 c1bd c652 58ae 1856 35be
000002e0: ee06 84bb bdf4 a9bd 47dd 47be 3daf 0dbf
000002f0: 4edf 8fbe 14e4 28bf 865e fbbd 382c 60b8
00000300: 8b82 0000 6065 21bb e220 bfbc 23fe 29be
00000310: fd06 74bd a769 81b8 4cde 24b8 7eb4 9abe
00000320: 8333 febd 05ef d3be b215 a5be 3033 3c3f
00000330: 9a53 e33d a0d7 a0bb 4ab4 eab9 e137 2a3e
00000340: c546 edbf 2175 ec97 5e31 6ebe 3a88 1abf
00000350: 959c a6bd 96b4 82bd d4f9 70b8 a143 94bb
00000360: 5e4c d6bb 8370 adb6 5a0a abbc ec02 70be
00000370: 4a77 58bc 26ba 59bf 32dc 81bd b8ed b5bc
00000380: 8120 0100 6228 0100 4c17 b0bc d03e 98bb
00000390: e0ea a2bb 0308 f6a8 fd5b 3ba7 0e4d 2bbe
000003a0: 5116 a53e 8552 93be 95eb 74bd da2d 9f3f
000003b0: 2227 3fbd e162 2e21 019a 0000 6bb3 c6be
000003c0: 4478 b6bf 6c04 0000 6042 ab3d 06fb 0abf
000003d0: 0261 48aa 6127 f3b9 228e cba9 2d54 c33b
000003e0: b2a1 29ba 8fa6 98b5 fb87 0000 b0fd 1ebf
000003f0: 7555 ee23 496b ce3e 4f7c 7cbd 08c7 c9ba

weight f4 [8, 80]
-0.09077741 -0.10505328 -0.0036118673 -7.660892e-07 -0.0024096665 -0.18561903 -0.014072783 1.8813678e-30
0.01809119 -0.090624504 -0.02329531 -0.017143136 -0.080003045 0.020439168 -2.0349017e-07 -1.9611e-41
0.0042383643 0.005485357 -0.00290576 0.0047680526 0.0010686537 -0.00016562577 0.0052251057 -0.0009828821
0.0045004524 0.0017928377 0.0023453494 -0.00071831915 0.0029071122 0.004841858 -0.005367779 0.0013929298
-0.0030758095 -0.0038028338 0.0046926104 0.0003597481 -0.00023649706 3.764475e-05 -0.004885003 -0.00390691
0.005733947 0.0050007626 -0.0093989 -0.000645605 -0.007218878 -0.004754577 0.00022537938 -0.0060864505
0.00059027853 0.0015218124 -0.0028780827 -9.235695e-05 1.7240729e-05 -5.4738885e-05 1.52435805e-05 -0.002619492
-0.00021941896 -0.00022024079 -0.000381698 -0.00024011273 -0.00056591706 0.00050830474 -0.00081530405 -0.00023353471
-0.0027179718 0.0011124525 -3.3894365e-05 -0.0022594344 -0.00012172953 0.00013987091 5.8075006e-05 -0.00049609394
-7.1238224e-05 -5.2737618e-05 -1.9608647e-06 7.615513e-05 1.5775355e-07 -0.0015546631 0.000113291586 -9.889039e-05
-0.81800634 -0.6299786 0.25608173 1.9083215 0.3063954 -0.37414065 1.1460985 -0.106362395
1.4682148 -0.79554456 1.052425 -0.31795627 -0.091372006 1.1224769 -0.2588771 -0.11384218
-0.18201752 0.1140031 -0.23094635 -0.055160303 -0.16573478 0.26093742 -0.28406137 -0.19001748
-0.15499797 -0.019344505 0.3176879 0.26974162 0.09635097 -0.14057544 0.20692615 -0.12065693
-0.2408098 0.05464115 -0.050755043 -0.11317323 -0.04441975 -0.30583695 0.023069188 -0.09320801
0.32890844 0.37910765 0.031049708 -0.3319685 0.03426365 0.2908685 -0.2699568 0.30555043
-0.036629334 -0.03230378 -0.0018592654 -0.09559228 -0.021257555 0.049057152 -0.012839086 -0.011155333
0.022562372 -0.08874246 -0.02051924 0.03617505 -0.019953981 -0.05418753 0.033139747 0.020577125
0.013410053 -0.009341043 -0.046157338 -0.03425898 0.021075156 -0.02447577 0.07205293 0.0188148
-0.07368719 -0.13260908 0.042949203 -0.005623378 0.044543784 0.016724918 -0.042430397 0.011367211
-0.0010442685 -5.227995e-15 9.417e-42 4.142e-41 -3.0753e-41 -0.0010933332 -5.9086e-41 5.4134e-41
8.988227e-15 -0.0010836454 -1.35483e-40 -3.1236e-41 -0.0010467164 5.2133997e-15 -1.69e-42 -1.8765e-41
1.6181731e-13 -1.1848159e-13 -2.297311e-13 -1.6432442e-13 -3.2496128e-14 2.0322395e-13 -3.439244e-13 -1.70664e-13
-1.2142365e-13 -4.2678324e-14 -1.4747762e-13 -6.3256976e-14 -1.0121601e-13 -6.8094856e-14 5.9260316e-14 -4.6748955e-14
-1.4036915e-14 1.2430562e-13 -1.8453212e-13 1.8299452e-13 2.1254928e-13 2.4156333e-13 -2.1851638e-13 1.2819041e-13
-9.993583e-14 3.766653e-13 1.11922434e-13 -2.915278e-13 -2.53219e-13 -2.0172424e-13 -1.9635061e-13 -3.4094543e-13
1.7339542e-13 -6.905292e-14 -1.6553088e-13 1.5895456e-14 -1.12387543e-13 -4.24198e-13 -2.8443976e-13 2.1518922e-13
-1.5104815e-13 -1.5959763e-14 1.5788784e-13 -3.7979437e-13 9.210645e-14 -1.0332192e-13 -1.7308339e-13 8.104674e-15
2.0332386e-13 3.9543306e-14 -1.218655e-13 3.134541e-13 -1.8904211e-13 -1.1665475e-13 -4.8323653e-14 7.2102866e-14
-6.65383e-14 -1.7020479e-13 1.128922e-13 -2.325403e-13 1.7633273e-13 4.7968736e-14 3.9747307e-13 -3.1904655e-13
-8.045925e-17 6.0039e-41 -2.6145e-41 -5.4609e-41 -1.347e-42 -8.6796927e-16 -1.3661e-41 8.6456e-41
3.0934e-41 -1.2808077e-16 4.46e-42 3.712e-42 -1.993704e-16 -5.1621e-41 1.7333e-41 1.4387e-41
00000000: 82e9 b9bd 2d26 d7bd 14b5 6cbb 40a5 4db5
00000010: 7feb 1dbb ea12 3ebe 8891 66bc 7ba2 180e
00000020: fa33 943c 5799 b9bd ced5 bebc c36f 8cbc
00000030: a3d8 a3bd 0b70 a73c f47e 5ab4 ab36 0080
00000040: fae1 8a3b 82be b33b 906e 3ebb 533d 9c3b
00000050: 1112 8c3a d4ab 2db9 5d37 ab3b 0dd4 80ba
00000060: 8878 933b a7fd ea3a 6fb4 193b 954d 3cba
00000070: 4085 3e3b 73a8 9e3b 32e4 afbb f892 b63a
00000080: 8593 49bb f738 79bb 78c4 993b 939c bc39
00000090: 32fc 77b9 bee4 1d38 6012 a0bb 8905 80bb
000000a0: d5e3 bb3b 70dd a33b d8fd 19bc d13d 29ba
000000b0: 568c ecbb 48cc 9bbb d153 6c39 d970 c7bb
000000c0: ecbc 1a3a 8d77 c73a 379e 3cbb c3af c1b8
000000d0: 2fa0 9037 6e97 65b8 aebe 7f37 c8ab 2bbb
000000e0: d413 66b9 70f0 66b9 a31e c8b9 c5c6 7bb9
000000f0: 0d5a 14ba c13f 053a 21ba 55ba ffe0 74b9
00000100: 0020 32bb b6cf 913a cc29 0eb8 0513 14bb
00000110: 0b49 ffb8 50aa 1239 9095 7338 4d0c 02ba
00000120: bb65 95b8 9632 5db8 6697 03b6 79b5 9f38
00000130: f762 2934 d6c5 cbba f596 ed38 6063 cfb8
00000140: dd68 51bf 4746 21bf 251d 833e e143 f43f
00000150: dcdf 9c3e 5d8f bfbe 5bb3 923f 87d4 d9bd
00000160: 76ee bb3f cfa8 4bbf ddb5 863f 2acb a2be
00000170: 3f21 bbbd 53ad 8f3f 8a8b 84be 1726 e9bd
00000180: cd62 3abe 757a e93d 337d 6cbe c5ef 61bd
00000190: 61b6 29be 9799 853e 7e70 91be f193 42be
000001a0: cab7 1ebe 5e78 9ebc fda7 a23e 931b 8a3e
000001b0: a853 c53d 02f3 0fbe 73e4 533e fb1a f7bd
000001c0: d896 76be 66cf 5f3d 85e4 4fbd 5ec7 e7bd
000001d0: 7cf1 35bd a996 9cbe 98fb bc3c d7e3 bebd
000001e0: b066 a83e 661a c23e f55b fe3c c6f7 a9be
000001f0: 0b58 0c3d b7ec 943e c737 8abe 1b71 9c3e
00000200: a408 16bd f850 04bd 98b2 f3ba e3c5 c3bd
00000210: 5324 aebc 27f0 483d 085b 52bc dcc4 36bc
00000220: b9d4 b83c 9bbe b5bd f717 a8bc 4a2c 143d
00000230: 8876 a3bc bef3 5dbd 8bbd 073d 5c91 a83c
00000240: d7b5 5b3c 2d0b 19bc 7a0f 3dbd 2553 0cbd
00000250: cea5 ac3c 6981 c8bc 7d90 933d 7f21 9a3c
00000260: 4fe9 96bd adca 07be 81eb 2f3d 5044 b8bb
00000270: 8b73 363d b202 893c 7fcb 2dbd 8a3d 3a3c
00000280: d6df 88ba be5b bca7 401a 0000 7673 0000
00000290: ba55 0080 2d4e 8fba b5a4 0080 e796 0000
000002a0: e1ea 2128 1b09 8eba ac79 0180 1357 0080
000002b0: f931 89ba 20d5 bb27 b604 0080 4f34 0080
000002c0: aa30 362a fe65 05aa be53 81aa 4a03 39aa
000002d0: 7c59 12a9 51cf 642a bb9c c1aa 8d26 40aa
000002e0: fcb5 08aa c234 40a9 880b 26aa 2a71 8ea9
000002f0: 0feb e3a9 0356 99a9 3f71 8529 e089 52a9
00000300: d8dd 7ca8 a8f4 0b2a c3c3 4faa 9408 4e2a
00000310: 294f 6f2a f2fc 872a 0f07 76aa 5f54 102a
00000320: 1509 e1a9 310b d42a e406 fc29 951d a4aa
00000330: b48c 8eaa 0e1f 63aa 3612 5daa 6aef bfaa
00000340: d439 432a 4c7e 9ba9 075f 3aaa 6d2c 8f28
00000350: 0213 fda9 60cd eeaa 1720 a0aa 1248 722a
00000360: aa10 2aaa b5c0 8fa8 12c4 312a 23ce d5aa
00000370: c167 cf29 08a9 e8a9 e4df 42aa 3600 1228
00000380: 1dec 642a 5416 3229 5735 09aa 7f75 b02a
00000390: aed7 54aa 7157 03aa 61a1 59a9 795c a229
000003a0: b8d4 95a9 31a2 3faa ec35 fe29 97e8 82aa
000003b0: 7388 462a 3008 5829 e8c1 df2a 749b b3aa
000003c0: c286 b9a4 5da7 0000 e248 0080 3a98 0080
000003d0: c103 0080 d42c 7aa6 1526 0080 01f1 0000
000003e0: 3b56 0000 c5aa 13a5 6f0c 0000 590a 0000
000003f0: c2db 65a5 e68f 0080 5130 0000 1b28 0000

bias f4 [8]
-0.1991386 0.49948 -0.0011277327 -6.0975546e-16 -1.2100413e-05 -0.3101911 -0.14727184 -2.2328564e-17
00000000: fdea 4bbe d8bb ff3e 6ed0 93ba 03c0 2fa6
00000010: e102 4bb7 5ed1 9ebe 6ece 16be d5f1 cda3

weight f4 [1, 8]
-0.18404132 0.6316471 -0.033345833 0.0018172018 -4.7174028e-05 0.27839667 -0.008431132 -0.0033803585
00000000: 5475 3cbe a0b3 213f a495 08bd 2d2f ee3a
00000010: badc 45b8 028a 8e3e bb22 0abc 0189 5dbb

weight f4 [4, 32, 32]
5.6272e-41 -6.5417e-41 6.619e-41 -6.075e-41 4.4092e-41 -5.9718e-41 -4.5664e-41 -2.6227e-41
-6.8006e-41 3.3425e-41 -7.711e-42 -7.697e-42 -4.8638e-41 -1.04761e-40 -4.2754e-41 -8.2183e-41
3.208e-41 4.4347e-41 2.6241e-41 1.1007185e-18 4.4867e-41 -1.05523e-40 -1.04411e-40 -5.0042e-41
4.4919e-41 -6.8736e-41 -6.872e-41 -2.1287e-41 -1.22584e-40 -1.098e-41 2.0404e-41 -5.2711e-41
-3.9536122e-20 6.833353e-19 -2.2077752e-07 7.0827e-41 -0.00023109435 -5.982226e-20 9.2779e-41 4.9205e-41
1.2875079e-19 -8.4478306e-11 9.237793e-10 1.17981e-40 9.452114e-31 -3.3731624e-08 -3.9860647e-29 0.0016963354
-5.6023e-41 -1.5945218e-18 1.5572651e-20 2.1112e-41 1.8687984e-28 7.4862e-41 4.989e-41 0.014318942
-3.995555e-19 -6.1247473e-27 -0.00036451354 -1.2044e-41 -3.2914801e-10 4.242677e-09 -1.36565e-40 4.6568685e-21
-7.8802e-41 -3.0617916e-06 0.00033246615 -1.43706e-40 8.592594e-05 2.7544e-41 -9.07798e-40 -1.17406e-40
0.00571869 8.3139e-41 5.1295e-41 5.0506e-41 -9.0611e-41 9.6236e-41 6.2002e-41 0.0026192795
3.414e-42 5.1009e-41 1.41625e-40 1.0066e-40 3.230884e-05 -6.6479e-41 1.138e-41 0.016543902
3.5706085e-23 -1.3315474e-28 0.009393949 -8.4728e-41 0.000154841 1.5700233e-06 7.7886e-41 -6.6892e-41
3.6732506e-20 -7.843771e-21 0.009798626 -4.1352952e-11 0.03477078 9.314617e-20 7.295e-41 1.36939e-40
-7.221936e-06 6.056848e-11 1.9165829e-18 5.4232e-41 4.1996333e-05 1.7742778e-22 6.124e-41 -0.013339953
-1.2558581e-09 2.4605097e-18 3.1120356e-22 6.4114246e-20 2.5805608e-11 3.3345e-41 1.1341e-41 -0.004674992
5.1008763e-11 -0.001222806 2.6729935e-10 1.47293e-40 0.00023296104 7.576108e-11 2.6020486e-19 -4.1211802e-05
-2.9228e-41 -1.4052886e-06 -1.2931997e-12 -2.5114e-41 -1.1254775e-06 4.519e-42 4.81891e-11 -2.0909e-41
-7.9337287e-10 2.0259542e-22 1.0191151e-05 2.2257e-41 -2.6356e-41 -1.1533e-40 -2.3699e-41 2.3305032e-12
-1.4498e-41 -8.5328e-41 -8.0482e-41 1.8162e-41 4.0674e-41 6.4094e-41 -1.7165e-41 1.2788004e-08
2.0932474e-07 -2.3162823e-09 -4.9858e-41 -1.2378e-40 6.9431246e-20 -2.9733123e-20 2.1123e-41 1.33802e-40
2.5917766e-20 -1.626338e-12 -0.00030518178 -7.1075e-41 -0.0006894665 -1.1467814e-13 -9.301106e-08 -3.8224307e-14
-9.191102e-09 -1.31251e-40 -0.0012430075 7.298286e-05 -3.0066696e-05 -6.8836e-41 2.5083e-41 0.00020216059
9.8713e-41 5.3366937e-20 3.336e-41 -1.474013e-30 -0.0001212161 2.216776e-12 4.2741552e-10 0.0012371116
-0.0035008704 -9.453866e-08 -1.2001461e-05 2.84e-41 -3.3332525e-16 4.3436e-41 1.9024e-41 -8.548267e-12
9.9522e-41 -4.1822762e-08 1.6366629e-08 2.0382e-41 4.240347e-10 3.1085532e-16 -4.1926685e-23 -1.32658e-40
0.00017970675 0.0004939424 9.8314075e-21 0.0020893721 8.4963943e-07 7.182e-42 -3.6117e-41 6.9269e-41
1.505e-41 1.1170825e-18 1.20981e-40 -1.534266e-29 3.5220244e-06 3.959177e-11 1.3742233e-12 2.469451e-10
7.432223e-05 -3.3036304e-07 3.311703e-08 -5.2123e-41 1.0181574e-20 -1.3874e-41 8.355e-42 1.6970514e-10
-0.19729006 0.12642436 0.1683213 -2.8022856e-33 0.30515978 -1.5273048e-16 -8.715299e-33 -0.10234386
0.32082123 -0.0006109067 -0.16218297 -0.12986125 0.00019550786 -0.058284473 -7.502237e-05 -0.32334748
-0.008222074 7.028921e-18 -0.079776034 1.0494242e-33 -0.22990137 1.8727774e-33 -1.0997875e-07 -0.77022284
-0.33615652 -0.12076505 -0.38837188 -1.063e-40 0.121694416 0.18521093 1.3909982e-32 -0.3060649
00000000: dd9c 0000 5bb6 0080 83b8 0000 59a9 0080
00000010: e97a 0000 78a6 0080 4b7f 0080 1c49 0080
00000020: 93bd 0080 2d5d 0000 7f15 0080 7515 0080
00000030: 9587 0080 0824 0180 2e77 0080 18e5 0080
00000040: 6d59 0000 9f7b 0000 2649 0000 f86f a221
00000050: 127d 0000 2826 0180 0e23 0180 7f8b 0080
00000060: 377d 0000 9cbf 0080 90bf 0080 573b 0080
00000070: b755 0180 9c1e 0080 e138 0000 f092 0080
00000080: 3db4 3a9f 5baf 4921 dd0e 6db4 70c5 0000
00000090: eb51 72b9 5640 8d9f a102 0100 2a89 0000
000000a0: 8a00 1820 0fc5 b9ae 30ed 7d30 e248 0100
000000b0: 8c5e 990d 50e0 10b3 141e 4a90 9257 de3a
000000c0: 2b9c 0080 554f eba1 5c14 931e da3a 0000
000000d0: fae5 6c11 afd0 0000 138b 0000 ff99 6a3c
000000e0: 1fdb eba0 51a0 f293 2e1c bfb9 9321 0080
000000f0: 77f3 b4af fbc6 9131 b07c 0180 78ee af1d
00000100: abdb 0080 2e79 4db6 da4e ae39 9890 0180
00000110: 2333 b438 c84c 0000 92e2 0980 4847 0180
00000120: d963 bb3b c2e7 0000 fd8e 0000 ca8c 0000
00000130: 96fc 0080 440c 0100 d6ac 0000 38a8 2b3b
00000140: 8409 0000 318e 0000 cb8a 0100 9918 0100
00000150: 5a83 0738 51b9 0080 b91f 0000 1487 873c
00000160: fea9 2c1a 2fcb 2891 14e9 193c 30ec 0080
00000170: d05c 2239 97b9 d235 1dd9 0000 78ba 0080
00000180: e076 2d1f 262a 149e 6b8a 203c 49df 35ae
00000190: ce6b 0e3d 68ef db1f 5bcb 0000 bb7d 0100
000001a0: f553 f2b6 0631 852e 3a6b 0d22 2d97 0000
000001b0: 3825 3038 3d7f 561b b6aa 0000 d18f 5abc
000001c0: 949a acb0 b78d 3522 6b1c bc1b af62 971f
000001d0: 10fd e22d f45c 0000 9d1f 0000 ad30 99bb
000001e0: c356 602e 9046 a0ba 0af3 922f 989a 0100
000001f0: 0147 7439 b299 a62e 0c99 9920 d6da 2cb8
00000200: 7a51 0080 599d bcb5 6e00 b6ab 0246 0080
00000210: 1d0f 97b5 990c 0000 1af0 532e 493a 0080
00000220: a714 5ab0 3fec 741b a9fa 2a37 0b3e 0000
00000230: 7849 0080 7e41 0180 1042 0080 9dfe 232c
00000240: 6a28 0080 dced 0080 5ae0 0080 a132 0000
00000250: 6271 0000 abb2 0000 d92f 0080 3db2 5b32
00000260: bfc2 6034 782c 1fb1 fc8a 0080 0c59 0180
00000270: 9df0 a31f 2469 0c9f e23a 0000 fc74 0100
00000280: 50c9 f41e 00e3 e4ab ce00 a0b9 21c6 0080
00000290: 50bd 34ba b91d 01aa 5fbd c7b3 a025 2ca9
000002a0: e5e6 1db2 e06d 0180 69ec a2ba 600e 9938
000002b0: bd37 fcb7 e3bf 0080 ec45 0000 12fb 5339
000002c0: 2c13 0100 ab04 7c1f fe5c 0000 1b2c ef8d
000002d0: 6635 feb8 e3fd 1b2c 63f9 ea2f 9426 a23a
000002e0: dc6e 65bb 2e05 cbb3 e259 49b7 2b4f 0000
000002f0: 2026 c0a5 1579 0000 0835 0000 f961 16ad
00000300: 6d15 0100 9da0 33b3 9996 8c32 d138 0000
00000310: 941d e92f 2632 b325 b9be 4a9a cc71 0180
00000320: aa6f 3c39 ea7b 013a c5b5 391e d9ed 083b
00000330: c712 6435 0514 0000 ae64 0080 18c1 0000
00000340: f429 0000 2fda a421 3f51 0100 d397 9b8f
00000350: eb5b 6c36 5f20 2e2e 9d67 c12b 6fc2 872f
00000360: 72dd 9b38 c05c b1b4 8f3c 0e33 4c91 0080
00000370: 1253 401e ad26 0080 4a17 0000 c097 3a2f
00000380: 6806 4abe 6375 013e 6b5c 2c3e 06ce 6889
00000390: e73d 9c3e 1516 30a5 7a02 358a a899 d1bd
000003a0: ae42 a43e 4125 20ba 4b13 26be 59fa 04be
000003b0: 3e01 4d39 b3bb 6ebd 5455 9db8 cd8d a5be
000003c0: e1b5 06bc 24a9 0123 9e61 a3bd 925d ae08
000003d0: 446b 6bbe 9295 1b09 752d ecb3 532d 45bf
000003e0: b51c acbe ab53 f7bd aed8 c6be 5228 0180
000003f0: ec3a f93d efa7 3d3e 1373 900a 8ab4 9cbe

w_comp f4 [10, 4]
0.08972024 -1.104671 0.13327561 0.10669959 1.35853e-40 1.23389e-40 -1.1813e-40 1.18382e-40
1.0707442 0.026484419 -0.09985243 -0.12593473 0.2055727 -1.3371927 -0.80459356 -0.3166735
0.055645145 -0.14200653 0.21242458 0.007773919 -0.0722641 -0.0046719285 0.27314904 0.09793085
-1.5716724 -0.35432276 0.03532368 0.21612298 1.22709e-40 1.12009e-40 1.13096e-40 1.0973e-40
-3.232e-41 -1.22242e-40 -1.40626e-40 7.5737e-41 -7.0714e-41 -8.814e-41 -8.7765e-41 1.0744e-41
00000000: 3fbf b73d dc65 8dbf 6779 083e 5185 da3d
00000010: b47a 0100 f557 0100 4c49 0180 004a 0100
00000020: 250e 893f daf5 d83c 6e7f ccbd 09f5 00be
00000030: a681 523e 2129 abbf d8f9 4dbf 0723 a2be
00000040: 2aec 633d 296a 11be d485 593e 5cbc fe3b
00000050: 33ff 93bd fa16 99bb 31da 8b3e f88f c83d
00000060: 902c c9bf cb69 b5be 90af 103d 584f 5d3e
00000070: 1056 0100 3c38 0100 443b 0100 e231 0100
00000080: 185a 0080 c354 0180 0288 0180 20d3 0000
00000090: 1fc5 0080 b3f5 0080 a7f4 0080 f31d 0000

self_loop_weight f4 [32, 32]
-7.8775e-41 3.3061e-41 -5.845e-41 -3.7642e-41 5.4094e-41 5.0769e-41 4.03e-41 2.5229e-41
2.2819e-41 3.7961e-41 1.26101e-40 3.0998e-41 5.35e-43 -6.1733e-41 1.441e-41 -1.41018e-40
-4.415e-41 3.2011e-41 -8.6106e-41 -3.711e-41 3.5152e-41 -1.3336e-41 -7.2105e-41 -5.7944e-41
-1.6984e-41 3.084e-41 -9.008e-42 -3.2429e-41 4.6482e-41 -2.5216e-41 -5.6817e-41 -3.0684e-41
4.5971e-41 -0.0643807 -0.09358815 -6.08e-41 -0.122365616 6.3674e-41 3.631e-42 -7.824286e-28
0.20814988 0.02532528 -0.00017922671 -1.09828e-40 0.03524883 -1.244378e-28 -1.1711543e-18 0.0031378013
1.3285425e-07 -5.1268758e-18 5.1938e-41 -0.0063660746 0.044113062 -8.2447e-41 1.8746997e-38 0.011388141
-1.3649457e-05 -0.1515378 0.08672895 2.69e-42 -0.0158257 0.008726077 -5.7508e-41 0.14882183
1.01186e-40 -0.034676984 -0.0006741351 -6.6953e-41 -0.07220179 -1.23283e-40 3.8097e-41 -4.054e-42
0.3061187 2.1355591e-37 -1.569677e-15 -1.9804165e-35 5.322328e-11 -4.5727e-41 -3.5252e-41 0.0003172296
-8.647e-42 -1.3766e-41 -7.7434e-41 -3.5453e-41 0.007755532 -1.45465e-40 -4.6922e-41 -0.028585032
6.7704523e-12 0.0203816 0.0195551 1.3683366e-15 0.07040241 1.9128775e-06 1.3577e-40 -5.6690014e-10
2.4802552e-18 -0.08017097 3.1100595e-07 -2.7021e-41 -0.0068325014 -4.5834656e-12 -2.4657e-41 -1.89e-42
-0.028344417 -6.44717e-06 -4.3889486e-08 -7.213458e-08 -5.607156e-09 1.25988e-40 -1.8344853e-20 -0.00953651
-0.04008691 1.1402355e-17 -1.0249732e-14 -2.9431e-41 2.697071e-14 1.996734e-12 -3.9236e-41 0.017529104
-2.3270635e-08 -0.024937771 -0.018196313 4.4704e-41 -0.15783073 -8.225228e-14 -9.864939e-14 2.2872733e-17
-2.4387333e-20 0.0075342297 5.1997738e-08 2.7316e-41 0.0028366076 -1.51492e-40 0.01090031 8.9026e-41
-0.00041739637 -0.00018974213 -0.00019448288 8.050186e-06 -2.0725436e-21 -8.6782e-41 4.0387e-41 0.09367177
-7.678e-41 2.8177e-41 -2.1955011e-21 3.506525e-30 -5.5718076e-16 -2.0875177e-07 0.0006344268 0.00036971693
0.00021860047 0.0020892858 2.7809262e-14 2.3475e-41 -2.1770434e-20 -4.87149e-19 7.7587e-41 -8.3147097e-20
7.853571e-08 0.00052112195 2.7871467e-17 9.8932e-41 0.004806466 -1.4342282e-34 1.6536257e-08 1.7324471e-31
-0.011026272 9.177e-41 2.291356e-18 -6.093559e-25 1.2504888e-11 5.2001e-41 -1.7086e-41 9.36318e-13
-1.21486e-40 -1.0024387e-19 2.2307e-41 2.2516597e-08 8.3522155e-16 -4.9879146e-11 6.2000986e-34 0.000384578
-2.2012242e-13 0.006678528 1.4593534e-18 -6.0704e-41 -4.0761182e-07 -1.8692e-41 4.737e-41 1.8275922e-11
2.7942232e-11 -0.00024849322 9.995356e-10 1.2844e-41 0.00012176067 1.550489e-15 -2.0641644e-13 -2.4426e-41
-0.0062081213 -1.934248e-16 1.04332785e-10 -1.48144e-40 0.016038334 -1.4763e-41 -1.48158e-40 2.8177152e-14
-5.176209e-37 -1.1388543e-11 3.7712e-41 -6.66107e-09 -3.0152414e-09 1.9308505e-19 -5.540237e-21 0.0007896677
-1.2919554e-11 -0.013921384 2.251814e-11 4.9036e-41 1.5707879e-13 -1.0371e-41 -1.12359e-40 0.007083033
-0.01473901 0.12058728 -0.09864886 -6.9745e-41 0.21468695 -0.0021753106 -0.0056707026 -0.042876314
0.109952316 -0.047536742 0.059795342 8.8904975e-26 1.28986954e-08 0.07981073 0.0022665027 0.062112387
-0.12247981 -3.3096471e-06 0.029345132 -0.002177304 -0.032725427 1.27532e-40 4.704035e-18 0.1414217
-0.09928327 0.094261594 0.13705763 -7.3702945e-12 -0.12782109 0.25669992 -0.00013318926 -0.12332649
00000000: 98db 0080 295c 0000 efa2 0080 ee68 0080
00000010: cb96 0000 868d 0000 5770 0000 5446 0000
00000020: 9c3f 0000 d269 0000 855f 0100 6956 0000
00000030: 7e01 0000 16ac 0080 2b28 0000 1a89 0180
00000040: 127b 0080 3c59 0000 07f0 0080 7367 0080
00000050: fd61 0000 2d25 0080 00c9 0080 86a1 0080
00000060: 582f 0080 f855 0000 1c19 0080 665a 0080
00000070: 9381 0000 4b46 0080 629e 0080 8955 0080
00000080: 2680 0000 07da 83bd 25ab bfbd 7ca9 0080
00000090: d39a fabd 7fb1 0000 1f0a 0000 26f6 7792
000000a0: 3e25 553e f676 cf3c ceee 3bb9 2832 0180
000000b0: 1461 103d 60be 1d91 f5d4 aca1 92a3 4d3b
000000c0: b3a6 0e34 f925 bda2 c890 0000 819a d0bb
000000d0: e6af 343d d4e5 0080 0023 cc00 5395 3a3c
000000e0: f9ff 64b7 ba2c 1bbe f39e b13d 8007 0000
000000f0: e6a4 81bc d2f7 0e3c 4fa0 0080 c064 183e
00000100: 111a 0100 7409 0ebd 71b8 30ba a3ba 0080
00000110: 88de 93bd aa57 0180 336a 0000 4d0b 0080
00000120: 97bb 9c3e b056 9102 dc36 e2a6 1198 d285
00000130: 1614 6a2e 787f 0080 4562 0080 d651 a639
00000140: 1b18 0080 6026 0080 dbd7 0080 d462 0080
00000150: 1e22 fe3b 7f95 0180 cd82 0080 282b eabc
00000160: d036 ee2c 50f7 a63c 0432 a03c b632 c526
00000170: 242f 903d fc5e 0036 797a 0100 0dd4 1bb0
00000180: b202 3722 ad30 a4bd 55f8 a634 534b 0080
00000190: 2de3 dfbb 3044 a1ac bc44 0080 4505 0080
000001a0: 8d32 e8bc c554 d8b6 0081 3cb3 68e8 9ab3
000001b0: 11a9 c0b1 345f 0100 2243 ad9e 063f 1cbc
000001c0: 2c32 24bd 1956 5223 8ca4 38a8 0b52 0080
000001d0: 39ee f228 f681 0c2c 606d 0080 3299 8f3c
000001e0: abe4 c7b2 4c4a ccbc 6f10 95bc 9e7c 0000
000001f0: 619e 21be 3637 b9a9 8023 dea9 b7f6 d223
00000200: f454 e69e b3e1 f63b 1e54 5f33 254c 0000
00000210: 61e6 393b 4ca6 0180 3797 323c 2bf8 0000
00000220: fed5 dab9 84f5 46b9 1aee 4bb9 490f 0737
00000230: d398 1c9d eaf1 0080 9570 0000 fcd6 bf3d
00000240: 08d6 0080 8c4e 0000 2be3 259d d63d 8e0e
00000250: af98 20a6 4025 60b4 a94f 263a 91d6 c139
00000260: 1e38 6539 66ec 083b cb7b fa28 7041 0000
00000270: ae9d cd9e f0c7 0fa1 48d8 0000 5653 c49f
00000280: 77a7 a833 e79b 083a d288 0024 c813 0100
00000290: 8f7f 9d3b 42a4 3e87 9d0b 8e32 6ee2 600c
000002a0: 89a7 34bc d1ff 0000 7e12 2922 2696 3c97
000002b0: 02fd 5b2d f590 0000 a12f 0080 69c6 832b
000002c0: a752 0180 b4b1 ec9f 2f3e 0000 856a c132
000002d0: 79bc 7026 ed5e 5bae 9b08 4e08 2fa1 c939
000002e0: f8d5 77aa 8ed7 da3b d05c d721 38a9 0080
000002f0: bed5 dab4 1b34 0080 0c84 0000 b8c1 a02d
00000300: 50c8 f52d 3248 82b9 0860 8930 ce23 0000
00000310: c359 ff38 f372 df26 7d67 68aa 1744 0080
00000320: 7f6d cbbb ed00 5fa5 236e e52e f79c 0180
00000330: d362 833c 2729 0080 019d 0180 17cc fd28
00000340: 2423 3083 7059 48ad 2069 0000 64df e4b1
00000350: b034 4fb1 60f4 6320 e24d d19d b401 4f3a
00000360: 8048 63ad 8416 64bc 5812 c62d b188 0000
00000370: e1da 302a e91c 0080 3639 0180 ca18 e83b
00000380: e37b 71bc 77f6 f63d 6a08 cabd 6cc2 0080
00000390: e5d6 5b3e a88f 0ebb 4dd1 b9bb 139f 2fbd
000003a0: ae2e e13d e3b5 42bd f6eb 743d 391e dc15
000003b0: 1099 5d32 cf73 a33d 9b89 143b 8f69 7e3d
000003c0: b2d6 fabd 4e1b 5eb6 3465 f03c 19b1 0ebb
000003d0: 190b 06bd 8263 0100 5b8c ad22 dad0 103e
000003e0: 0755 cbbd 390c c13d d658 0c3e dba8 01ad
000003f0: 88e3 02be 2c6e 833e b8a8 0bb9 9992 fcbd

weight f4 [32, 128]
-7.194956e-11 9.498802e-19 6.565159e-39 -1.5102486e-10 -1.3235342e-16 -3.6948e-41 9.058e-42 0.0061279824
5.977484e-06 0.063354805 0.109853625 0.2782393 0.14831726 2.02706e-40 -8.934236e-39 1.7005732e-05
0.44488463 -6.5879e-41 0.10688974 0.20515248 1.0834074e-06 -7.206763e-09 1.4048739e-28 1.7662869e-07
-1.5992298e-34 -2.797554e-10 5.64937e-06 0.042764686 1.7405581e-10 0.18409717 3.335078e-39 6.151266e-39
6.582925e-16 9.855736e-18 5.24405e-40 3.595939e-11 -1.2161752e-20 6.8131e-41 1.4693e-41 0.010990165
7.675046e-09 0.18789503 0.064167 0.3057853 0.082985 7.556e-42 -7.305731e-39 0.00015177204
0.15088016 1.372881e-14 3.157543e-05 0.28546008 -2.4740527e-07 -1.7300785e-17 1.1804443e-27 -3.3168902e-08
-4.0850605e-34 1.3417e-40 -1.4412531e-06 0.023044297 1.0772411e-36 -0.22012958 4.555941e-39 -7.987423e-10
0.018465037 -0.0070840633 0.07425686 0.0023460698 0.050167322 -0.022214282 0.022377875 0.050759688
0.04934063 0.004566628 -0.0323243 -0.022366034 0.010107838 0.01073807 -0.013626165 0.0029303336
0.06907618 -0.0033106743 0.008338043 0.04148543 0.0019308724 0.019739538 -0.00035280106 0.0057391725
-0.058301028 -0.060195714 0.002777663 0.022895265 0.001104798 -0.009829064 0.022489702 -0.016452717
-0.00039187144 0.0020254976 0.049204797 0.007675914 0.05328686 0.0057959347 -0.00873016 0.02964155
0.070120886 -0.0008904315 0.0038180999 0.007175253 0.021881744 -0.004476266 0.00927057 -0.00022004331
0.042245407 -0.00071799115 0.010049764 0.029919006 -0.0027098088 -0.014706802 -0.0033554316 -0.0019553916
-0.021677343 -0.017373977 0.0042785066 -0.014638303 0.0013474996 0.0238373 -0.006785578 0.017357081
9.2e-42 -5.9635e-41 -4.822e-41 6.0996325e-16 -1.0344e-41 8.171e-41 4.5633e-41 2.0943438e-14
1.6770277e-15 -2.4766174e-12 -1.3471873e-23 8.078945e-12 1.8797064e-14 4.526e-41 1.5445359e-10 7.2979715e-24
4.5590545e-11 -2.846e-41 -5.932143e-11 -4.4645683e-11 -5.2291904e-14 4.403127e-33 2.9244e-41 1.3733932e-10
1.1519e-40 7.3432e-41 1.8560822e-21 -1.6507069e-12 2.9375e-41 -1.9487834e-09 -5.1778e-41 1.2533e-41
-1.45257e-40 -2.2652e-41 5.4812e-41 -5.867644e-18 -0.00012125877 -1.0821e-41 -1.4509e-41 -2.7961316e-15
8.167288e-16 -1.3850357e-12 2.8512633e-14 2.589315e-12 -7.696318e-15 2.9748e-41 1.0748e-41 -5.4247354e-14
-7.1991727e-12 -5.5291e-41 1.3787446e-11 -8.29034e-11 -8.79092e-16 -4.204001e-15 -1.06352e-40 2.2051368e-06
-1.02886e-40 -4.4046e-41 -1.8731e-41 -8.321945e-12 4.1822e-41 -1.368547e-09 -5.1405e-41 6.3636e-41
3.6013388e-14 -6.9313025e-14 2.0837081e-13 3.008296e-15 -4.8374495e-14 -8.784664e-14 2.1390994e-14 -1.7951221e-13
1.4225657e-13 -8.154211e-14 8.86595e-14 1.9316375e-13 3.17821e-14 9.92236e-14 -5.2747337e-14 2.5197265e-14
1.8413397e-13 -2.3637295e-14 2.5293639e-14 -6.8449905e-14 9.330725e-14 1.1700637e-13 1.1716551e-14 -4.6760268e-14
-2.906238e-13 4.2205467e-13 -3.3694263e-14 -4.0051506e-14 6.6400463e-15 -2.3136336e-14 9.018988e-14 8.903611e-14
1.0718345e-13 -6.934347e-15 2.815774e-14 3.216444e-14 1.1928849e-13 -1.9803357e-13 -2.3277544e-13 -1.11212695e-13
-1.7672734e-13 8.535326e-14 -2.2011523e-13 -4.332571e-13 -3.427352e-14 1.4214284e-13 -1.6408564e-13 1.0882762e-13
4.984116e-14 7.0520724e-14 -6.6967584e-14 -1.7276072e-13 1.7812144e-14 4.7738164e-13 -9.3388195e-15 1.32396535e-14
-2.3128792e-13 -5.1530937e-13 3.887302e-14 5.049408e-13 4.5769175e-14 -3.5188936e-13 4.139509e-13 3.7063522e-13
00000000: 0038 9eae 762d 8c21 fe7c 4700 b80d 26af
00000010: d697 18a5 ff66 0080 4019 0000 3ecd c83b
00000020: 3292 c836 2ac0 813d f0fa e03d 6275 8e3e
00000030: 7be0 173e 1035 0200 0449 6180 88a7 8e37
00000040: ebc7 e33e a5b7 0080 02e9 da3d 7e13 523e
00000050: 9869 9135 5c9f f7b1 c416 3211 53a7 3d34
00000060: f892 5487 13cc 99af b88f bd36 062a 2f3d
00000070: 5b60 3f2f f883 3c3e d750 2400 3afb 4200
00000080: 6abd 3d26 66ce 3523 d4b5 0500 ad26 1e2e
00000090: a0ba 659e ecbd 0000 f528 0000 1810 343c
000000a0: 36db 0332 8e67 403e fd69 833d e48f 9c3e
000000b0: 0af4 a93d 1015 0000 688d 4f80 ff24 1f39
000000c0: 5480 1a3e f650 7728 dc6f 0438 d327 923e
000000d0: 1fd3 84b4 5392 9fa3 820c bb12 9875 0eb3
000000e0: dabf 0788 0376 0100 1471 c1b5 65c7 bc3c
000000f0: 7848 b703 a669 61be 1c9c 3100 7e8e 5bb0
00000100: fd43 973c 6e21 e8bb fb13 983d 85c0 193b
00000110: 407c 4d3d bafa b5bc ce51 b73c 64e9 4f3d
00000120: 6719 4a3d a7a3 953b 7c66 04bd f938 b7bc
00000130: 589b 253c bbee 2f3c 4740 5fbc d70a 403b
00000140: d077 8d3d e6f7 58bb 499c 083c a0ec 293d
00000150: 5415 fd3a d0b4 a13c 28f8 b8b9 ab0f bc3b
00000160: 0fcd 6ebd c88f 76bd 7409 363b da8e bb3c
00000170: dfce 903a 150a 21bc 533c b83c d9c7 86bc
00000180: 1874 cdb9 36be 043b f88a 493d 3c86 fb3b
00000190: 5343 5a3d d3eb bd3b f208 0fbc d6d2 f23c
000001a0: 8a9b 8f3d d96b 69ba 1639 7a3b 621e eb3b
000001b0: 5841 b33c a4ad 92bb 97e3 173c 6dbb 66b9
000001c0: 8509 2d3d 9237 3cba c4a7 243c b418 f53c
000001d0: 0c97 31bb ccf4 70bc cde6 5bbb 0726 00bb
000001e0: af94 b1bc df53 8ebc b732 8c3b 7ed5 6fbc
000001f0: 959e b03a 7146 c33c 8e59 debb 7030 8e3c
00000200: a519 0000 3da6 0080 6b86 0080 58cf 2f26
00000210: d61c 0080 c6e3 0000 357f 0000 48a4 bc28
00000220: 67af f126 c646 2eac be4a 8299 5520 0e2d
00000230: 144f a928 2b7e 0000 d2d2 292f ce29 0d19
00000240: 6482 482e 564f 0080 ff72 82ae 925a 44ae
00000250: 7680 6ba9 14e6 b609 8551 0000 9501 172f
00000260: 1a41 0100 b3cc 0000 da3d 0c1d fc50 e8ab
00000270: e351 0000 5ceb 05b1 5690 0080 f022 0000
00000280: eb94 0180 253f 0080 cb98 0000 557a d8a2
00000290: 4e4c feb8 2a1e 0080 7228 0080 867b 49a7
000002a0: f367 6b26 2ced c2ab d468 0029 f434 362c
000002b0: 01a5 0aa8 ed52 0000 f61d 0000 f14e 74a9
000002c0: 624c fdac 219a 0080 238d 722d 774e b6ae
000002d0: 8a61 7da6 1177 97a7 7728 0180 f6fb 1336
000002e0: ce1e 0180 c87a 0080 3734 0080 b566 12ad
000002f0: 9574 0000 7817 bcb0 4c8f 0080 64b1 0000
00000300: 9c30 2229 3d14 9ca9 cc9a 6a2a 44c5 5827
00000310: ffdb 59a9 24d0 c5a9 46ac c028 df1c 4aaa
00000320: aa2a 202a d39d b7a9 b9a4 c729 a97b 592a
00000330: 4422 0f29 836e df29 8a8d 6da9 f0f4 e228
00000340: 0151 4f2a e4e7 d4a8 29d3 e328 af22 9aa9
00000350: f81b d229 cabc 032a 0e11 5328 eb96 52a9
00000360: 4e9b a3aa 7d98 ed2a d7be 17a9 3e60 34a9
00000370: 9e3b ef27 c264 d0a8 ed16 cb29 d37d c829
00000380: 0d5b f129 10d6 f9a7 549f fd28 13db 1029
00000390: 914e 062a 4af7 5eaa 7a0a 83aa c16d faa9
000003a0: 30fa 46aa ce32 c029 e5d3 77aa eee6 f3aa
000003b0: ae5a 1aa9 e209 202a 77be 38aa da0e f529
000003c0: f276 6029 6ecc 9e29 2fcc 96a9 e382 42aa
000003d0: 0270 a028 f95e 062b b43b 28a8 2081 6e28
000003e0: 1a34 82aa f40b 11ab 8a11 2f29 d220 0e2b
000003f0: 4420 4e29 9a18 c6aa 9d08 e92a 2aa6 d02a

bias f4 [32]
0.51568764 1.6409029e-12 0.19895147 -0.019854479 1.4855592e-10 3.0912575e-09 -0.000497306 1.591092e-06
0.35435826 -1.0757818e-11 -6.3900396e-09 0.011164178 -2.2971133e-10 0.1530272 -8.83065e-11 -0.04640922
0.7424236 -0.0035719906 -5.626266e-07 -0.054733906 0.0018545635 0.6056009 -1.5014493e-06 -0.00016035976
-1.2420354e-10 0.026727077 -0.032387424 -0.014000681 -2.8814834e-19 4.0953935e-05 -6.3125323e-09 -8.942726e-07
00000000: 1b04 043f c2ef e62b efb9 4b3e dca5 a2bc
00000010: c656 232f fa6d 5431 a45d 02ba 818d d535
00000020: 726e b53e e840 3dad 628f dbb1 f5e9 363c
00000030: fe91 7caf 2ab3 1c3e 2430 c2ae 9817 3ebd
00000040: 790f 3e3f 0f18 6abb 6807 17b5 a930 60bd
00000050: d314 f33a a908 1b3f 6885 c9b5 3f26 28b9
00000060: 3090 08af bef2 da3c ada8 04bd 1d63 65bc
00000070: bf17 aaa0 f4c5 2b38 9fe5 d8b1 f20d 70b5

weight f4 [1, 32]
0.6914186 6.789898e-08 0.17635489 0.011096005 2.3994508e-07 -1.4240997e-08 0.01508845 6.5347044e-06
0.40114942 -3.429902e-11 1.3295038e-09 0.023012796 8.438048e-11 0.20150593 -4.4184162e-08 0.18549536
0.7464118 0.014398553 -0.0032891203 -0.122958705 -0.0057261903 0.69055516 -2.5435672e-06 -0.022393996
-1.872957e-06 0.14750019 -0.1353987 0.15411136 -7.3484068e-09 -0.00090123876 -1.0107313e-07 -4.6288253e-07
00000000: cf00 313f dccf 9133 6096 343e 05cc 353c
00000010: cdd1 8034 91a8 74b2 8c35 773c af44 db36
00000020: 7563 cd3e 43d9 16ae c2b9 b630 5585 bc3c
00000030: fd8d b92e 9257 4e3e 00c5 3db3 7ff2 3d3e
00000040: d814 3f3f e9e7 6b3c 488e 57bb c6d1 fbbd
00000050: c4a2 bbbb 39c8 303f 27b2 2ab6 9d73 b7bc
00000060: 5062 fbb5 4a0a 173e f5a5 0abe 5ecf 1d3e
00000070: 457d fcb1 1c41 6cba 8a0d d9b3 1782 f8b4
