experiments/grail_nell_v2_ind/best_graph_classifier.pth (torch, 126124 bytes, 21 tensors)

weight f4 [79, 32]
000000 d3 70 08 bd dd ab 7d 3e 6d 7e a3 be 4f 4f cd be
       -0.033310723 0.24772592 -0.31932393 -0.4009957
000010 f4 b3 23 be 51 76 c1 be cb 76 ca 3d ba ca 44 be
       -0.15986615 -0.3778558 0.09885939 -0.19217959
000020 e2 9b 7a 3f 6b 95 a1 bd 9f c5 92 bc fc 34 f3 3d
       0.9789411 -0.07889827 -0.017916499 0.1187534
000030 16 f7 36 3f 67 d0 bb 3e b4 41 62 3f b3 61 f3 3e
       0.71470773 0.36682436 0.88381505 0.47535476
000040 ad 4d 00 3f ee 6a a7 3e 4f c8 b5 be 00 77 ef 3e
       0.50118524 0.32698768 -0.35504386 0.46770477
000050 fd ae 12 bf e1 1e 1f bd 10 cd d1 3c b9 a4 b9 3e
       -0.5729826 -0.038847808 0.025610477 0.36258486
000060 ba c5 fe be b2 9a ce be 56 67 83 3c 16 36 38 bf
       -0.49760228 -0.40352398 0.016040485 -0.7195753
000070 6a 19 fd 3e 4e 0f 3e 3f 0f 50 fb 3e 06 ed 5f 3f
       0.49433452 0.74242103 0.49084517 0.87471044
000080 d9 88 03 bf 46 0c 4f 3f 1a a9 fe 3e e8 2b 16 3f
       -0.5138069 0.808781 0.4973839 0.58660746
000090 2d a5 10 3f 62 cc 8c bd 4a 39 06 3f a5 13 56 3e
       0.5650204 -0.068749204 0.52431166 0.20905931
0000a0 b1 6e c4 3e c9 d5 c3 be 7f 20 c8 be 1a c8 96 3e
       0.383657 -0.38249043 -0.39087293 0.2944954
0000b0 58 11 ba 3e 22 e1 1e bf 3e 10 c3 3e 65 c0 31 bf
       0.36341357 -0.62062275 0.3809833 -0.69434196
0000c0 46 5a 03 bf 26 03 3e bf 34 8b ac bf 3c 04 a6 3e
       -0.5130962 -0.74223554 -1.3479981 0.32425106
0000d0 51 ed 79 bf 85 a7 f5 be 62 7d 1a bf 43 ff 13 be
       -0.9762774 -0.4797937 -0.6034757 -0.14452843
0000e0 ae 85 ec 3e 25 6c 3e 3f d1 6a 92 3f 11 d5 65 be
       0.4619574 0.74383765 1.1438848 -0.2244456
0000f0 c4 fb 98 3e 73 e5 34 3e d7 a2 19 be 21 53 38 bf
       0.29879582 0.17665653 -0.15003525 -0.72001845
000100 4e 5c a0 be 26 1c 46 bd b8 53 33 bf fc 48 bf 3d
       -0.31320423 -0.04836669 -0.7004962 0.093400925
000110 91 a1 0b 3f aa 3e da 3e 2e 3b 5b bf 62 36 85 be
       0.54543406 0.42625934 -0.85637176 -0.26018053
000120 31 a1 71 be 44 91 78 bf 89 d7 b2 3f 5e 6f d1 3f
       -0.23596646 -0.9709666 1.3972026 1.6362112
000130 02 f5 a9 bf 12 db d9 3f 77 3b 22 3f 76 7f 64 3f
       -1.3277895 1.701998 0.63371986 0.8925699
000140 3a f8 53 bf 0d d4 a6 bd 55 40 50 3e 1d 39 a4 3e
       -0.8280064 -0.08145914 0.2033704 0.32074824
000150 df bf d7 3e 19 86 ac bd f0 8b 75 3d d7 26 07 bf
       0.42138574 -0.084240146 0.059947908 -0.5279364
000160 1f e7 57 3f 1c f6 59 3d 77 6b dd be b3 a5 c5 bf
       0.8433704 0.053213224 -0.43246052 -1.5441192
000170 67 5a 38 3f df df 8b 3e 4f d3 63 3f b1 e5 5c bd
       0.72012943 0.27319238 0.88994306 -0.05392999
000180 0b 5a 72 bf 4b f4 92 3f 86 43 87 3f db bf ba 3f
       -0.94668645 1.1480802 1.0567482 1.45898
000190 3a 0b 16 3f c2 6d 3b be f5 f2 53 3f f0 82 f6 3f
       0.5861088 -0.18303588 0.827926 1.9258709
0001a0 4a 9e 60 bf 0e c8 16 bf 32 ba 39 bf 56 ca 8b 3f
       -0.8774153 -0.5889901 -0.72549736 1.0921123
0001b0 e8 4f 1f bf ce da a9 bf ab 43 28 3e 46 45 7f bf
       -0.622313 -1.3269899 0.16432063 -0.9971508
0001c0 4e 32 7d bf c6 21 84 bf 6e e1 ba bf 6b 6a 4d be
       -0.98904884 -1.0322807 -1.4600046 -0.20060126
0001d0 ca 03 9e bf 12 a3 86 bf 45 0f 3f bf e8 a4 74 3e
       -1.2344906 -1.0518515 -0.74632674 0.23891032
0001e0 89 1b f8 be bf f0 32 bf a1 65 e5 3e 08 7c 17 3e
       -0.48458508 -0.698986 0.448041 0.14793408
0001f0 2d 78 d8 be c8 1f ff bd 60 b7 51 3f 1c cd a0 bf
       -0.42279187 -0.12457234 0.81920433 -1.2562594
000200 cd 15 d3 3e 4f d8 12 be 65 6e a5 bf d9 e5 e1 bf
       0.4122757 -0.14340328 -1.2924315 -1.7648269
000210 85 c7 03 be 34 98 87 3e ee 77 ba bd 33 2f dd bf
       -0.1286908 0.2648331 -0.09104906 -1.7280029
000220 24 2f 3c 3f 54 b6 d6 bf f8 59 3e 3f 32 f9 99 3f
       0.7350943 -1.6774392 0.7435603 1.2029173
000230 75 27 18 3e 37 81 66 3f df e5 c4 3e d9 96 72 3f
       0.14858802 0.90040916 0.38456628 0.94761425
000240 61 3e 92 3f 77 32 bd 3f 04 90 c9 3e fe 06 09 bf
       1.1425287 1.4781026 0.39367688 -0.53526294
000250 f5 3d 24 3f 0a d0 dc 3e 53 7f 9b 3e 22 26 fa bb
       0.6415704 0.4312747 0.30370578 -0.0076339403
000260 c1 a1 1a bf 95 39 9b 3f bc 2a b8 be 4e 35 9d bd
       -0.60403067 1.2126948 -0.35970104 -0.07676183
000270 1f cb fe 3e ea 61 f5 3e 08 fe 2a 40 a6 83 87 3f
       0.49764344 0.47926265 2.6717548 1.0587051
000280 8c 8e 43 3e 02 53 bd be ff 33 54 3f 79 b3 22 3f
       0.19097346 -0.36977392 0.8289184 0.63555104
000290 81 5c 29 bd 22 8f 91 3f 21 5a f3 3d e3 0b 48 be
       -0.041347984 1.1371806 0.11882425 -0.19535784
0002a0 62 9c 93 bf b4 60 0e 3e f9 f3 61 3e 60 a8 0e bf
       -1.1532099 0.13904077 0.22065724 -0.5572567
0002b0 6d cc c2 bd 26 dc 9a 3c f6 26 af be 44 db c7 bd
       -0.095116474 0.018903803 -0.34209412 -0.097586185
0002c0 5e c7 3f be 55 d0 a6 3e 76 4e 75 3f 61 54 84 3d
       -0.18728396 0.3258082 0.95822847 0.064614065
0002d0 ce b4 c7 3f 37 29 95 bc 4c d8 0b 3f 8d ea 7d 3e
       1.5602052 -0.01820813 0.5462692 0.24796505
0002e0 bf fb 2f 3f 2f 7d e6 3e 41 56 0d be bd 33 e6 3e
       0.6874351 0.45017383 -0.13802435 0.44961348
0002f0 53 d3 c7 bd 5d ab 00 bf 2a f3 33 bf 1f eb 00 be
       -0.09757104 -0.5026148 -0.70292914 -0.12589692
000300 4a ad 47 3f 0b 38 4e bf c7 a2 0f bf a2 64 c0 3c
       0.77998793 -0.80554265 -0.56107754 0.023485485
000310 a3 20 06 bf 60 3d 62 3f c3 58 f5 bc d2 18 e2 3e
       -0.5239355 0.883749 -0.029949551 0.4415956
000320 b9 a4 d7 bf a3 33 01 bf 01 ce 84 3f 26 73 39 3f
       -1.6847144 -0.50469416 1.0375367 0.7244133
000330 46 08 94 bf 12 e3 86 3e 2a 02 ef be 8d 4d 4a 3f
       -1.1565025 0.26345116 -0.4668134 0.79024583
000340 72 d9 f8 be 7d 1f a1 3f c7 70 1d 3f a2 32 b2 bf
       -0.48603398 1.2587734 0.6150021 -1.3921702
000350 87 a7 0d 3f cd 77 41 3f ab 80 44 3d 11 38 74 be
       0.5533375 0.75573426 0.04797427 -0.23849513
000360 6a b5 23 be ac 46 f4 3e d3 94 66 bf 92 60 df be
       -0.15987173 0.47710168 -0.9007084 -0.43628365
000370 9b 59 b2 be 5a 87 b9 be 5b 19 ca 3f fb 86 13 bf
       -0.3483399 -0.36236078 1.5788988 -0.5762784
000380 3c bd a2 3e 11 73 6c bf e6 33 1f be 95 1c be 3d
       0.31785 -0.9236308 -0.15547141 0.09282795
000390 2f 96 13 3e e2 ce 12 3f 71 47 be 3e 22 f4 87 be
       0.14412759 0.5734693 0.3716388 -0.26553446
0003a0 ca 71 27 bf 2e 89 51 3c 2f fb 00 3f 3b e0 48 3e
       -0.65408003 0.012789054 0.50383276 0.19616787
0003b0 ec 9e 3a bf c8 24 28 3e e1 d5 c8 be 38 ef 5c be
       -0.72898746 0.16420281 -0.39225677 -0.2157563
0003c0 e6 1d 6d bf 88 14 6b 3f 19 60 e7 3e 1a 1f 03 bf
       -0.92623746 0.91828203 0.45190504 -0.5121933
0003d0 3e 55 db 3e 13 16 20 3f f5 21 8b be 7d b6 fe bd
       0.42838472 0.6253368 -0.27174345 -0.124371506
0003e0 83 93 d4 3a f1 3d 12 3f be 48 2c be 7f fd 0f 3f
       0.0016218278 0.57125765 -0.16824624 0.5624618
0003f0 3a 96 b0 be f0 64 2b be 4f d5 9a 3e ee be e7 be
       -0.34489614 -0.16737723 0.30240867 -0.45262855

weight f4 [4, 8, 32]
000000 fc 9b 0c 3e 89 ac 31 be 3b 5b 95 3d ca dc af be
       0.13731378 -0.17350973 0.072927915 -0.34348136
000010 cb 3d ef be 13 15 d7 bb f6 5d 83 3f 01 ea ba 3e
       -0.46726832 -0.0065637915 1.026305 0.36506656
000020 e7 b2 3c bf 3c c3 55 be ad 43 de bd 11 f8 6d be
       -0.73710483 -0.20875257 -0.10852752 -0.23239161
000030 25 46 48 bf 5c 3e e4 3e 57 7c 15 bf c7 1d c1 bf
       -0.7823203 0.44578826 -0.5839285 -1.5087212
000040 9b d8 98 3e 1b b8 32 3e 7d fc 3f be f3 5e 22 bd
       0.29852757 0.17453043 -0.1874866 -0.039641332
000050 49 49 92 be 1b 7b 90 bf dc a3 d1 be 88 41 c3 be
       -0.28571537 -1.1287569 -0.40945327 -0.38135934
000060 3d 41 36 bf 9b c6 60 bf a6 e1 24 bf be f4 ff bf
       -0.71193296 -0.8780305 -0.6440681 -1.9996564
000070 15 45 99 3c 6b 4b 9a bf 91 22 f3 be be b8 94 be
       0.018709699 -1.2054266 -0.4748731 -0.29047197
000080 5e 0d 9b 3f f7 74 af be 69 32 ba 3d 85 21 12 3e
       1.2113454 -0.34268925 0.09091646 0.14270599
000090 5c e2 36 bf 7f 75 10 bf ca a4 16 bf c7 c0 ce 3e
       -0.71439147 -0.56429285 -0.588452 0.40381452
0000a0 8a d6 84 3d 10 25 f8 be 3d a1 db 3a 01 97 a4 be
       0.064862326 -0.48465776 0.0016756427 -0.32146457
0000b0 d5 5c 5f bf b6 34 20 be 4a 8d a9 3e fc c5 b8 bd
       -0.87251025 -0.15645108 0.33115608 -0.090221375
0000c0 8e 00 4c 3f 57 6a 5a 3f b4 4c 96 bf a5 97 8d bd
       0.79688346 0.8531851 -1.1742158 -0.069136895
0000d0 e5 e9 34 bf 53 77 77 be ae 80 3e 3f 33 57 9a 3f
       -0.70669395 -0.24166612 0.744151 1.2057861
0000e0 17 da 30 bf f8 48 94 3f 8b af 04 be 6f 72 8d bf
       -0.6908278 1.1584768 -0.1295759 -1.1050547
0000f0 1a c4 b6 3e c4 0a be be 61 c6 f5 be 60 a2 e5 3e
       0.3569649 -0.3711759 -0.48002914 0.44850445
000100 e7 b2 82 be 43 c1 62 bf 1f e7 8c be 60 2c 17 3f
       -0.25527117 -0.88576144 -0.2752008 0.59052086
000110 fd 57 29 be 69 07 16 3e c3 9f 0f c0 ce b2 8a 3f
       -0.16537471 0.14651264 -2.244126 1.0835817
000120 bd 64 22 3e c5 14 e2 3e 6b ca 59 bd 1b 61 89 3f
       0.15858741 0.4415647 -0.053171556 1.0732759
000130 9f c3 01 3e d3 f0 10 bf b2 d9 c2 bd 0a 81 02 40
       0.1267228 -0.5661747 -0.09514178 2.039126
000140 3a 73 1f bf db 05 7f be 0b 63 43 bf ea 68 07 3e
       -0.62285197 -0.24904577 -0.76323 0.13223615
000150 fc 4a f4 3d 91 b1 89 3f 37 6d da 3e 33 29 f4 3d
       0.11928365 1.0757314 0.4266145 0.119219206
000160 28 6b 8c bc a0 84 08 c0 81 df 46 bf 51 ab 29 bf
       -0.01714094 -2.1330948 -0.7768479 -0.66277033
000170 bc 20 39 bf 5d ac 2f 3f 62 7a 7f bf 93 d1 9f 3d
       -0.72315574 0.6862238 -0.99796116 0.07803645
000180 b4 ac a4 3e 8b 22 95 be 6c a8 18 3d cf df 32 3d
       0.32163012 -0.29127917 0.037269995 0.04367047
000190 2c 30 05 bc 12 56 17 3f 21 bc cd bf ea 14 30 3f
       -0.008129161 0.5911571 -1.6073037 0.6878191
0001a0 35 c6 f7 3e 66 a5 be bf f9 36 96 be ad 12 08 bf
       0.48393407 -1.4894226 -0.29338816 -0.53153497
0001b0 4a 9b c7 3e 2d 60 2a 3e 30 82 f3 3c 25 a9 0e 3f
       0.38985664 0.1663825 0.029725164 0.55726844
0001c0 7d 99 d8 3e 3e d2 2a 3e 25 8d e6 3e 80 fb ea be
       0.42304602 0.16681764 0.4502956 -0.45895004
0001d0 bb 6e 01 3f 69 fa 4c 3f 02 65 91 3f f8 a4 fc 3e
       0.50559586 0.80069596 1.135895 0.4934461
0001e0 65 e8 e5 be 6c c1 36 3f 7a 94 ab 3e 73 5b d6 3f
       -0.44903865 0.7138889 0.33511716 1.6746658
0001f0 09 a2 8a 3e 8e d5 61 bf 68 66 38 3d 21 4e 1e bf
       0.27076748 -0.88216484 0.045019537 -0.61837965
000200 7d ac ae 3e fa e0 78 3e b8 5b 86 bd c1 4a d1 3e
       0.34115973 0.24304572 -0.06560463 0.40877345
000210 b6 7d 4f be 32 6a 97 bd 5f 37 85 bf ad cd 55 3f
       -0.20262799 -0.07393302 -1.0407523 0.8351696
000220 78 dc 69 bf 7d 56 8f bf f2 da ec 3c 57 21 62 be
       -0.91352034 -1.1198269 0.028912995 -0.2208303
000230 08 48 0c c0 a4 6c ed 3e 30 14 90 bf 60 b2 0b 40
       -2.1918964 0.4637195 -1.1256161 2.1827621
000240 19 63 4f be 5d 79 69 3e 59 2d 59 bf 90 15 c8 3d
       -0.20252647 0.22800203 -0.8483482 0.09769738
000250 0d 1a cd bf 38 1a d7 3e 85 72 a5 be e0 a5 8e 3e
       -1.6023575 0.4201219 -0.32313934 0.27860928
000260 23 77 b5 bf af 4f be 3f 13 83 fb 3d 53 d6 ee 3d
       -1.4176983 1.4868068 0.1228086 0.11661973
000270 6f 91 3f 3f 87 7d 35 bf 39 f2 70 bf fc f4 8a 3f
       0.7483129 -0.70894665 -0.941196 1.0856013
000280 8d 70 71 3f 8e 80 ba bf 1a 65 92 be b8 18 32 3e
       0.94312364 -1.4570482 -0.2859276 0.17392242
000290 0e f6 33 bf 86 dc 26 3f 1c 37 c7 be ab 16 87 3f
       -0.70297325 0.6518024 -0.38909233 1.0553793
0002a0 1a b2 c1 3d 1b be 9c bf 8d 69 22 bf 8d 15 db 3d
       0.09457798 -1.2245516 -0.6344231 0.1069747
0002b0 21 30 6d 3f 12 bb fb be c4 a5 8a bf cd f4 13 3f
       0.92651564 -0.4916616 -1.0831838 0.5779541
0002c0 93 3a 65 be be 9d 6e 3d 5e b0 10 bf 2b f4 b9 be
       -0.22385626 0.058255903 -0.56519115 -0.36319098
0002d0 02 a0 cf 3e de 12 dd 3e 72 f0 a4 3f 48 8b 8e 3f
       0.40551764 0.43178457 1.2885878 1.1136255
0002e0 8d 83 f3 be d3 d0 93 bf 03 01 9a bf 8f 30 c4 bf
       -0.47561303 -1.1548103 -1.2031559 -1.5327319
0002f0 47 0e 1f bf 34 83 2a bf bf b4 1f bf 4d fd b4 3d
       -0.6213116 -0.6660645 -0.6238517 0.08837376
000300 71 53 17 40 f4 dd ac bf 0d c0 15 3f 79 da 09 3d
       2.3644679 -1.3505235 0.5849617 0.033655617
000310 ad e1 72 bf 79 eb 2d be 21 b2 11 c0 63 8c 65 3f
       -0.94875604 -0.16984357 -2.2764971 0.8966734
000320 0a 64 9e 3f f8 d9 58 be 3a 7a bc 3d 1f 25 02 3f
       1.237428 -0.21176898 0.09203 0.5083789
000330 ed b5 28 bf 7e 29 31 3e 62 11 eb 3f 6e 3b 1b 3f
       -0.65902597 0.17300984 1.836468 0.6063756
000340 e8 fb b8 3f bf 4b ab be 63 dd 82 bf 7b f4 47 bf
       1.4451876 -0.33456227 -1.0223812 -0.7810742
000350 b0 91 2a 3f 46 e3 67 3f 7c 42 1b 3f 78 d0 73 be
       0.6662855 0.90581167 0.6064832 -0.23809993
000360 ef a7 57 bf 90 ee ec bf 5f 9b 1a 3f 75 0d bc 3e
       -0.8424062 -1.8510303 0.6039333 0.36729017
000370 e1 ca 9a 3f aa 42 7c bd 2b 08 bb 3e e5 8d 66 be
       1.2093164 -0.061587013 0.3652967 -0.22515066
000380 41 4d 9c bf ec d6 71 3f a6 d9 ba 3c fa a5 9b be
       -1.2211076 0.9446857 0.022808861 -0.30400068
000390 1a da 78 be df 09 b7 3d ba 72 4e 3d 3d ce 73 bf
       -0.24301949 0.0893743 0.05040238 -0.9523657
0003a0 30 1c 8d bf fc a1 3a 3f bc 63 51 3d bd 40 26 be
       -1.1024227 0.7290342 0.051120505 -0.16235633
0003b0 29 7d 1f bf 3c 09 65 3c 7b 29 28 bf b5 27 bd bf
       -0.62300354 0.013979252 -0.65688294 -1.4777743
0003c0 82 f4 31 bf bc 03 2e 3e f1 93 0f 3f cf 4f 9b 3b
       -0.69513714 0.16993612 0.56085116 0.0047397385
0003d0 79 b6 9c be 0b 07 27 bf ad ba 1e 3f 77 ad af 3e
       -0.30607966 -0.6524512 0.62003595 0.3431203
0003e0 9f 58 19 3f 15 43 8c 3e f6 18 f3 be 4a 1c 4e bd
       0.5990085 0.2739493 -0.4747998 -0.050319947
0003f0 dd 51 30 bf 96 00 d1 3e 44 68 2e bf f6 15 cf be
       -0.68874913 0.4082076 -0.68127847 -0.40446442

w_comp f4 [79, 4]
000000 55 92 2d 3e 43 52 9a 3f 61 6a 81 3e 03 2d 0a 3f
       0.16950352 1.2056354 0.25276473 0.5397493
000010 82 e6 c9 bf 3e 97 0b 3f e6 c2 91 bf 78 46 bb bf
       -1.577347 0.5452765 -1.1387603 -1.463088
000020 bd 08 45 3f eb e4 c4 3f 06 e9 90 3f 34 b5 29 be
       0.7696646 1.538236 1.1321113 -0.1657303
000030 ba 7a 42 be 8c 07 09 40 ce 22 04 bf 70 0e b6 3e
       -0.18992129 2.1410856 -0.5161561 0.3555789
000040 a8 79 01 40 c8 97 9b be eb 88 74 3c 60 09 0e c0
       2.0230503 -0.30389237 0.014925222 -2.2193222
000050 f6 48 a5 3f de 2f 45 3e a3 bc c4 bf 02 77 bc 3f
       1.2912891 0.19256541 -1.5370067 1.4723818
000060 98 3c 9f bd 1f 9a 09 3f ad f5 35 bf ae cf 6d bf
       -0.07775229 0.53750795 -0.71077996 -0.9289502
000070 a6 d0 0d bf 8d 75 4c bf ed fa 58 3f 30 9e 2c 3f
       -0.553965 -0.7986687 0.8475788 0.67428875
000080 69 b9 81 bf e7 6b 3c 3f bc 72 46 bf b7 1f 51 bf
       -1.0134708 0.73602146 -0.7751882 -0.8168902
000090 b0 af 6c ba 93 62 5e 38 a8 fb 4d 37 6b a5 96 ba
       -0.0009028865 5.302073e-05 1.22775455e-05 -0.001149339
0000a0 4a e8 fd be 89 5e 9a bf 5d f4 a8 bf 0f 8a 16 c0
       -0.49591285 -1.20601 -1.3199574 -2.3521764
0000b0 f5 26 e6 3f 23 c8 f6 be d0 95 c4 bf ed b8 06 c0
       1.7980639 -0.48199567 -1.5358219 -2.105037
0000c0 b4 81 94 3c 31 de 70 3f a1 bf de 3e c5 e8 a1 bf
       0.018128254 0.9408904 0.43505576 -1.2649161
0000d0 16 51 a4 bf 35 28 6f bf 44 ce 39 3f 95 ea 49 bf
       -1.2837245 -0.93420726 0.7258036 -0.7887357
0000e0 f0 76 7a bf 1e f0 30 3f 3d b1 52 bf 23 b0 cb 3e
       -0.97837734 0.6911639 -0.82301694 0.3978282
0000f0 ef 88 2a bf 04 5d b9 3e 2a 7c 7f bf 6d 56 3c 3f
       -0.66615194 0.36203778 -0.99798834 0.73569375
000100 af f5 24 3f 23 45 4e bf 79 94 1f 3f 2b a6 39 be
       0.64437383 -0.80574244 0.62335926 -0.18129794
000110 dd 71 93 3d 0f e0 07 40 a4 57 3d c0 30 da 95 bf
       0.07199452 2.1230505 -2.9584742 -1.170721
000120 fb 0e fb be d9 be f5 3e 69 13 61 bf 9d 5f 8f bd
       -0.49034867 0.47997168 -0.8792024 -0.07000659
000130 1d d4 7a 3f f6 70 8b 3f 25 8a 77 3f b0 7d e6 3f
       0.9797991 1.0893848 0.96695167 1.8007107
000140 33 b5 81 bf ae 19 b1 3f fa ca 16 bf 41 37 cd 3f
       -1.0133423 1.3835962 -0.5890347 1.6032487
000150 03 50 f4 3c 29 94 64 3f 3f 5c 66 3f 91 a2 ce 3f
       0.029823309 0.89288574 0.89984506 1.6143361
000160 b7 f5 88 3e 16 a5 87 3f 2c e8 32 be 2f ac f7 be
       0.26749966 1.0597255 -0.17471379 -0.48373553
000170 01 5b 8c bf be 02 ba be 86 b4 d3 be f1 e6 c9 bf
       -1.0965272 -0.36330217 -0.41348666 -1.5773603
000180 39 f3 bd be 59 1c eb be 1b ad 81 bf 1c 8d af be
       -0.37099627 -0.45920065 -1.0130953 -0.34287345
000190 6e a4 24 bf 5d 87 85 3e 02 fe 89 bd 1d 5d 64 3e
       -0.643134 0.26079836 -0.06737901 0.22301145
0001a0 be c3 09 bf 2c 1a fa 3f f3 4b c4 3e 01 01 a3 3f
       -0.53814304 1.9539237 0.38339195 1.2734681
0001b0 1d 2c 1b bf f5 82 ce be 50 5e 00 bf 92 de ea bd
       -0.60614187 -0.40334287 -0.5014391 -0.11468233
0001c0 bd 68 e8 bf e5 10 88 3f 7b 7b c6 be d8 61 98 3e
       -1.8156964 1.0630156 -0.38766083 0.2976215
0001d0 44 0c b3 3f 02 3c f7 be 95 79 a5 3f 20 b9 4d 3e
       1.3988118 -0.4828797 1.2927729 0.20090151
0001e0 40 9b 3d bd c6 6b 43 bd ef 36 31 c0 30 16 81 3f
       -0.046290636 -0.047710203 -2.7689779 1.0084896
0001f0 b6 20 a6 bc 2b a9 05 3f ce e0 a0 3f 9e d4 e6 3f
       -0.02027927 0.52211255 1.2568605 1.8033636
000200 d5 61 90 3f ca 21 a7 3f c5 b9 a8 be e6 a7 c2 3e
       1.1279856 1.3057187 -0.3295423 0.3801872
000210 e9 66 96 bf fb c0 68 3f d8 81 f6 bf 45 5d 90 3e
       -1.1750156 0.90919465 -1.9258375 0.2819616
000220 bb e3 0d 3f 46 fe a2 3f 85 11 0d 3f 26 58 49 3f
       0.55425614 1.2733848 0.5510486 0.7865013
000230 ee d5 b2 3f d2 f5 61 3f 39 b4 47 3e 5a eb 18 3f
       1.3971536 0.8826572 0.19502343 0.5973412
000240 2c 80 e6 3f e8 f2 59 3f eb 0a 39 bf 8d df c4 bf
       1.8007865 0.8513627 -0.72282284 -1.5380722
000250 a5 5c f5 3e 4f 5b 94 3f fa b8 04 bf 59 f6 71 bf
       0.47922245 1.1590365 -0.5184475 -0.9451652
000260 e3 06 3e 3f 82 68 b7 bb 7d 0d 8c be 5b 7d 8f bf
       0.7422926 -0.005597175 -0.2735404 -1.121013
000270 f9 9a 6a 3f 1c fb a1 3f c4 dc 5e 3f fd e6 ed bd
       0.9164272 1.2654757 0.8705561 -0.11616323
000280 cb b1 75 bf 80 5f 3a 3f 97 34 73 3f a2 37 29 c0
       -0.95974416 0.7280197 0.9500212 -2.6440206
000290 f7 36 e0 be 7a 3c 19 3e 90 fc 70 bf 91 59 4d bf
       -0.43791935 0.14964476 -0.9413538 -0.8021479
0002a0 51 d0 39 bf 4c 2c ae bd 7c fb 6e bf 1e 37 d1 bf
       -0.7258349 -0.08504543 -0.93352485 -1.6344945
0002b0 f4 40 0a bf 57 22 09 3e b4 af 96 3e a4 a5 e7 bf
       -0.5400536 0.13392006 0.29430926 -1.8097425
0002c0 65 ae ba bd ec 73 6c 3e 63 79 88 bf 3f 9f 91 bf
       -0.09115294 0.23091096 -1.0662044 -1.1376723
0002d0 25 39 aa be c2 50 55 3e b7 a1 f1 3e 91 69 98 be
       -0.33246723 0.20831588 0.4719369 -0.2976804
0002e0 a3 3f 17 bf 11 ed 19 bf 7e f6 bb be d9 98 e6 3e
       -0.59081477 -0.6012736 -0.36711496 0.45038489
0002f0 43 a6 5a bf 7e aa e7 be cc 05 be be 0b 10 49 bf
       -0.85409945 -0.45247263 -0.37113798 -0.78540105
000300 c8 63 72 bf 15 53 bf be 74 95 3d 3f 4f 4a 1a be
       -0.94683504 -0.37368074 0.7405617 -0.15067409
000310 66 74 1d 40 b5 b4 94 3f 18 a5 01 c0 b8 98 03 bd
       2.4602294 1.1617647 -2.0257015 -0.032128066
000320 9a f1 c5 3f f8 7e 92 3d 74 fe 94 bf 5c dc aa be
       1.5464356 0.071531236 -1.1640153 -0.33371246
000330 8f cc a2 3e 42 84 f4 be e2 dc 90 bf ff d3 d1 3f
       0.3179669 -0.47757155 -1.1317408 1.6392821
000340 10 96 e9 bf 6a d6 bf 3e cd 31 77 bf 0e cd e4 3e
       -1.824892 0.37468272 -0.96560365 0.44687694
000350 f5 cc 58 3f 10 7b 86 3f 56 ae 05 c0 9d a9 fc be
       0.8468774 1.0506306 -2.0887656 -0.49348155
000360 23 8b 9d bf b2 c2 90 3f 57 7c f5 bf 34 98 c5 3e
       -1.2308086 1.1309416 -1.917857 0.38592684
000370 27 8f a3 bf a6 ff 61 3e 16 1c e5 3e 6a 55 65 3f
       -1.2778062 0.22070178 0.4474799 0.89583457
000380 b5 fc 00 bf d5 d4 6c bf e3 27 65 bf d5 e9 1a 3f
       -0.503856 -0.92512256 -0.8951399 0.6051305
000390 91 a5 26 bf f3 93 bb bf 92 80 93 3e a1 05 94 bf
       -0.65096384 -1.4654526 0.2880903 -1.1564218
0003a0 e5 78 52 be 0a 34 9e bd 0f a3 09 be ab c9 57 bf
       -0.2055393 -0.077247694 -0.13441108 -0.84292096
0003b0 21 10 1b be 59 65 1a 3f 2a 7f e0 be de eb 07 3f
       -0.15142871 0.60310894 -0.43847018 0.5309428
0003c0 0f 21 f9 bf 3c da ad 3f 0c b5 70 bf a7 60 f6 bf
       -1.9463214 1.3582225 -0.94026256 -1.9248246
0003d0 77 6e 92 3f a1 5f bd 3f fe e2 41 bf 57 d2 0d 40
       1.1439961 1.4794809 -0.7573699 2.2159631
0003e0 f1 2b 0b bb 36 ea 07 bd 16 ec b3 be 01 7f 95 be
       -0.0021235908 -0.033182345 -0.35141057 -0.2919846
0003f0 2e ef 2f 3f ef 54 1e 3f 8c 4f a1 be b9 4d f9 be
       0.68724334 0.6184835 -0.31506002 -0.4869211

self_loop_weight f4 [8, 32]
000000 d5 87 0a bf 64 a7 85 be 74 ca 23 be 83 71 f3 bd
       -0.54113513 -0.2610427 -0.15995198 -0.11886885
000010 76 6e 14 bf 91 6b 7a be fd 63 d8 3e f3 21 f7 3e
       -0.5798105 -0.24455096 0.42263785 0.4826809
000020 95 c1 95 bf 40 0a 40 3e b0 ab 2e be e3 0e 48 bf
       -1.1699702 0.1875391 -0.17057681 -0.78147715
000030 fd e6 da bf 20 c2 9f bf c5 34 85 bf f3 0e a7 3f
       -1.7101742 -1.2481117 -1.0406729 1.3051437
000040 75 fe 18 bb 3e d0 f6 be 8a 47 c3 3e 54 fa 53 be
       -0.0023345028 -0.4820575 0.38140517 -0.20700961
000050 d0 83 f1 3e b1 51 08 be 07 8b b7 3e d4 cc 59 3e
       0.47170877 -0.13312413 0.35848257 0.21269542
000060 d9 42 73 3f c1 d2 90 be 15 ea 30 be 8d 3d ba 3e
       0.95023876 -0.28285792 -0.17276795 0.36375085
000070 84 7d 94 be 12 31 82 be cc de 6f bf 11 cb 85 3d
       -0.2900201 -0.25428063 -0.93699336 0.065328725
000080 58 36 89 be 70 c3 80 3e e8 de 2e bf 6b ba ab bf
       -0.26799273 0.25149107 -0.6830888 -1.3416265
000090 2c 7b ac be 57 98 8f bf 53 d4 4b bf 0b 46 97 bf
       -0.33687723 -1.1218365 -0.79620856 -1.181825
0000a0 2e 13 37 bf 67 8b e1 be d4 b8 a4 bf cd aa 56 bf
       -0.7151364 -0.44051668 -1.2868905 -0.8385437
0000b0 f7 df 5e bf f6 fb d1 3e 3a 1c 8d 3e 8f 57 d0 be
       -0.87060493 0.41012543 0.27560598 -0.40691802
0000c0 16 2b 92 bf 25 e6 c3 bf 63 7c a7 bf 2a d2 9c bf
       -1.1419399 -1.530461 -1.3084835 -1.2251637
0000d0 f9 b4 0e bf 76 94 d3 be 89 1f a3 bf 0c cc f1 bf
       -0.5574489 -0.41324204 -1.2743999 -1.8890395
0000e0 f4 7a 9e bf 7a 59 19 3e 62 2f 25 bf 93 8c 63 bf
       -1.2381272 0.14975539 -0.64525425 -0.88886374
0000f0 1d 59 0d be 75 49 16 3c 42 ea 7a 3e fb 7c f9 3e
       -0.13803525 0.009172787 0.24503425 0.48728165
000100 68 9d 2b be ad 12 c3 bf ae b6 8f be e7 41 b8 bd
       -0.16759264 -1.5240074 -0.2806906 -0.08996945
000110 b3 d5 4c bf 64 19 29 be ec 92 dc be 7d 8b 61 bf
       -0.8001358 -0.16513592 -0.43080842 -0.8810347
000120 49 06 c6 3e 58 44 ed bf 00 6b 32 bd 9c 6f a4 3e
       0.3867667 -1.8536482 -0.043559074 0.321164
000130 82 ce 0f 3e 99 20 22 c0 f3 12 eb be d0 1a 5d 3d
       0.1404362 -2.5332396 -0.45912895 0.05398065
000140 b8 fe 5f 3e 61 73 1b bf 77 e6 16 bf 6f bb f6 be
       0.21874511 -0.6072293 -0.5894541 -0.48189875
000150 d7 5d 53 bf 22 d3 b5 3e 9a 0a c5 3e 6d a8 22 3e
       -0.82565063 0.35512644 0.3848465 0.15884562
000160 f2 2c 35 bf 99 bd 83 bf 62 c6 a1 bd d6 e8 cb bf
       -0.70771706 -1.0292236 -0.07899167 -1.5930431
000170 e5 1e 7c bf 46 8a 61 bf 2b 18 c6 bf 06 64 1f bf
       -0.9848464 -0.88101614 -1.5476125 -0.62262
000180 4a 9b 10 3e d1 b5 18 be 74 df 06 be cd 73 e1 bf
       0.14121738 -0.14913107 -0.13171178 -1.7613465
000190 e3 68 a5 be dc c4 b4 bf 68 32 de 3e 6a 00 14 3f
       -0.32306585 -1.4122577 0.43397832 0.5781313
0001a0 d2 84 84 c0 a0 0e b2 bf 97 8f 3b 3e 58 a8 35 c0
       -4.1412134 -1.3910713 0.18316494 -2.8384
0001b0 30 0c 12 c0 a0 db ec be f7 66 2d be 43 d5 81 3e
       -2.2819939 -0.4626131 -0.16933809 0.25358018
0001c0 47 a0 98 3e b9 4c d3 bf 87 52 1f bf ed d5 3e be
       0.29809782 -1.6507789 -0.622353 -0.18636294
0001d0 e4 61 50 3e d9 3f 81 3d 87 87 52 c0 41 58 c4 bf
       0.20349842 0.06311006 -3.289522 -1.5339433
0001e0 bf c4 e1 be aa 0d 03 c0 9a 91 a8 bf 02 e5 cc be
       -0.44095418 -2.047709 -1.3169434 -0.4001847
0001f0 b9 f8 9f bf 1e d6 50 bf 75 5c 92 bf eb 86 36 bd
       -1.2497779 -0.81576717 -1.1434466 -0.04456226
000200 4b f5 a2 3f 5a c2 bf bf 34 76 c6 be c8 ea bc be
       1.2731107 -1.4981186 -0.38762057 -0.36897874
000210 25 0b 0d be 0d d1 af be 48 c6 31 3f 1e ed d7 3e
       -0.13773783 -0.3433918 0.6944318 0.42173094
000220 94 61 0b be 31 ae a5 bf d9 e5 6a be 63 c0 5e bf
       -0.13611442 -1.2943784 -0.22939242 -0.8701231
000230 83 e7 6e bf 25 0b 98 bf 3d bb 7e 3f e9 dc 69 3f
       -0.9332201 -1.1878401 0.9950445 0.9135271
000240 3d ab d1 3e b6 b9 84 be 1a 98 46 be e0 c9 fe bc
       0.40950957 -0.25922936 -0.1939396 -0.03110212
000250 85 61 43 bf 2c 92 97 3f 8b 69 d0 3e 11 b0 18 bf
       -0.7632068 1.1841483 0.40705523 -0.59643656
000260 0f 35 63 3e 7c fc c0 bf 71 a9 9d 3f be d5 46 3f
       0.22188209 -1.5077052 1.2317334 0.77669895
000270 26 6f d0 be 5e 85 a3 bf 4e fd 8f bf cb 58 9b 3f
       -0.407098 -1.2775075 -1.1249177 1.2136472
000280 d0 bf 91 bf 53 12 7e bf 84 c9 25 bf 35 21 35 bf
       -1.1386662 -0.9924671 -0.64760613 -0.70753795
000290 36 aa 80 bf 7f 82 4a 3c f6 82 09 bf b3 a6 92 bd
       -1.0051944 0.012360214 -0.53715456 -0.071607016
0002a0 44 1f e4 be df d1 a6 be dc bd 46 bf 09 74 26 3e
       -0.44555104 -0.32581994 -0.7763345 0.16255201
0002b0 a0 ec 6c 3d 78 c4 00 3f fb 85 c1 bf d5 77 58 bf
       0.05784285 0.5029979 -1.5119013 -0.8455785
0002c0 df 07 08 c0 22 99 1a bf ff 36 ac bd 99 23 54 bf
       -2.1254804 -0.6038991 -0.08408927 -0.8286682
0002d0 e7 ed 60 bf 39 95 ba bf 2a b0 2b 3f 8c 81 19 bf
       -0.8786301 -1.4576789 0.6706568 -0.599633
0002e0 8b 38 00 bf c4 0f 65 bf 42 ee 74 bf 4f 89 e7 be
       -0.5008628 -0.8947718 -0.9567605 -0.45221946
0002f0 dc 1f 81 bf 14 d9 ca be f4 3c 40 be 4a 52 77 bf
       -1.0087848 -0.39618742 -0.18773252 -0.9660994
000300 5e 9f f5 bf 84 92 2a 3f 9d 7a 00 bf a9 a9 39 bf
       -1.918926 0.66629815 -0.50187093 -0.72524506
000310 26 be 22 bf a4 93 1a bf 2b 3b 51 bf 8f 54 73 bd
       -0.63571393 -0.6038153 -0.8173091 -0.059406813
000320 8e 0c 54 bf 2c 7b 54 bd 3d 9d 19 bf 63 7e b5 bd
       -0.82831657 -0.05187528 -0.6000555 -0.08861997
000330 6b 06 9f bf 97 25 4f bf 2b 41 af bf 5b d7 8e be
       -1.2423834 -0.8091673 -1.3691763 -0.27898678
000340 1a 2c 3f bf 2c 84 ad 3e 40 5c 6d bf 26 44 70 be
       -0.7467667 0.33889902 -0.9271889 -0.23463497
000350 90 94 4c 3e 8c 98 5f 3e 7a 84 46 bf 5d ea e8 be
       0.19978547 0.21835536 -0.77545893 -0.45491305
000360 39 f7 be be 94 fb fc 3e ef 60 d4 bf 10 92 d8 be
       -0.3729799 0.4941069 -1.6592082 -0.42298937
000370 cd 54 b2 3e 57 65 6b be 3d 20 26 3e 9a 49 16 c0
       0.34830323 -0.22987877 0.16223235 -2.3482423
000380 d1 43 a5 be 71 5b d4 3d bd 48 0a be 31 4f fc bd
       -0.32278302 0.103690036 -0.1350431 -0.12319792
000390 a1 54 87 3e 0e a4 e6 3d 30 43 8e 3f 28 c7 0f be
       0.26431754 0.1126176 1.1114254 -0.14040816
0003a0 b0 44 06 3e c9 74 6c 3e 66 0d bd be 68 af ea be
       0.1311214 0.23091425 -0.36924285 -0.4583695
0003b0 04 a3 ba bf b5 ab a1 bf 8d 38 5b 3f e1 5f 01 c0
       -1.4580998 -1.2630526 0.85633165 -2.021477
0003c0 a2 5b 5d 3f dc 42 ad be 0d 7d 33 3e db f7 c4 bb
       0.86467946 -0.33840072 0.17528172 -0.006010992
0003d0 c8 05 94 3d 8e 1d b6 bf de 57 30 3e f3 a6 cc bf
       0.07227665 -1.4227769 0.17221019 -1.5988449
0003e0 50 5a 74 be f7 0a a8 bd 2f c2 a6 3e 99 3d 57 3e
       -0.23862576 -0.082052164 0.32570025 0.21019591
0003f0 59 e1 a1 be 44 18 52 be fa 3b 8e be 0b 17 89 bf
       -0.3161724 -0.20517069 -0.27780133 -1.0710157

weight f4 [8, 80]
000000 af 12 61 bc 2f 33 a7 bb 29 78 08 3a ed fa 65 ba
       -0.013737365 -0.005102537 0.00052058935 -0.00087730476
000010 08 18 1c b6 02 34 a2 bd 29 07 f2 ba 2d f0 0e af
       -2.32598e-06 -0.07920076 -0.0018465269 -1.3000152e-10
000020 94 b2 c3 bc fc fe 40 bd aa ee a0 ba 92 b5 f1 34
       -0.023888864 -0.047118172 -0.0012278159 4.5021858e-07
000030 48 2b 1e bd 27 a9 a5 bc 1d 6f 9b ba 21 af 16 a3
       -0.038615495 -0.02022226 -0.0011858676 -8.168601e-18
000040 15 62 2d 3c ba 33 5e 3c 77 f9 c3 bb f3 19 05 bb
       0.010582467 0.013562137 -0.0059806663 -0.0020309656
000050 9a 68 92 3a 7e fd 60 3b c9 c5 91 bc 9b 20 79 ba
       0.001117009 0.003433078 -0.017794507 -0.0009503455
000060 3f b7 3e 3d 82 76 43 3a 96 07 d1 3b da 70 0a 3a
       0.046561476 0.00074563187 0.006379078 0.00052810984
000070 0c a6 31 bc 4a a2 d2 39 79 8f ee ba c7 75 36 3c
       -0.010842811 0.00040175236 -0.0018200717 0.011136479
000080 5e 42 f3 3a 4c 3f 1c bd a2 74 a5 3d 14 d7 85 3b
       0.0018559208 -0.038146302 0.080788866 0.004084477
000090 1c 19 d7 3c 2c e8 0b bb ff 73 07 bb 4c b0 88 3a
       0.02625709 -0.0021348102 -0.0020668504 0.0010428517
0000a0 f8 ec 10 bd 02 7f 29 3a e0 09 58 3a b0 24 4a 3c
       -0.03538224 0.0006465764 0.00082412176 0.012337849
0000b0 a0 6c 19 3a 56 4d 97 b8 3f 8d 5e bd 6f d5 77 3a
       0.0005852673 -7.214646e-05 -0.05433392 0.00094541063
0000c0 35 f7 07 3c 11 58 a2 3b 53 f4 16 3a 55 9c b6 bb
       0.008298685 0.004954346 0.0005758453 -0.0055728354
0000d0 af 19 9c ba b5 80 f3 bc f2 e5 53 bc e0 be 93 ba
       -0.001190951 -0.029724458 -0.012933241 -0.0011272095
0000e0 ce 0e 0d 3d 99 cc da 3a 4c 75 e7 ba ac a8 a0 3a
       0.034437947 0.0016693055 -0.0017658859 0.0012257299
0000f0 89 7f cd 3b 9c 12 da ba 7d 3c 8a 3a c6 f7 8c ba
       0.006271307 -0.0016637626 0.0010546591 -0.0010754995
000100 54 f1 92 b9 48 93 05 3c 13 27 73 ba 24 15 33 bb
       -0.00028027094 0.00815279 -0.0009275537 -0.0027325833
000110 44 e3 dd 3c 6c be a4 3b bf 30 35 bb c5 c6 87 ba
       0.027085908 0.005027583 -0.0027647463 -0.001035892
000120 2e 6e 37 bd 71 8d ed ba 06 17 a1 bb 46 3b 90 3c
       -0.04478281 -0.0018123818 -0.0049160747 0.017606389
000130 25 37 3b 3b 5f e9 0f b9 0f fc a6 bd e5 6f 03 ba
       0.0028566804 -0.0001372448 -0.08153545 -0.0005013927
000140 d1 c1 20 be 5b db 88 be 4d 08 95 3d c9 6f 8b bd
       -0.15698935 -0.26729855 0.07276974 -0.06808431
000150 8e 4b e6 be 38 5e 9a be d1 fb 22 3e 6e 4a b3 3e
       -0.4497952 -0.30150008 0.15916373 0.35017723
000160 e0 05 2c bf 08 10 75 be f0 a6 5a 3d e7 ec a5 be
       -0.67196465 -0.23931897 0.05338186 -0.32407305
000170 35 19 80 be 6a c5 19 bf 29 b1 51 3e 72 6c 28 3e
       -0.2501923 -0.60066855 0.20477737 0.16447619
000180 7a fd 41 bd f5 25 ef be d7 96 05 be 33 e0 4a bf
       -0.047360875 -0.46708646 -0.13045822 -0.7924835
000190 70 3c 9a 3b 3d 8e 84 bf de 43 10 bf 2b aa 26 bf
       0.0047069117 -1.0355908 -0.5635356 -0.65103406
0001a0 4e 28 9b 3e ce 1a 17 be 84 90 0d 3f 34 73 69 be
       0.30304188 -0.14756319 0.5529864 -0.22797853
0001b0 a6 0a 91 be 1f e1 b6 bd 19 b7 b6 3e d6 50 1a 3f
       -0.28328437 -0.08929657 0.35686567 0.60279596
0001c0 7d dc cd 3e 33 9f 16 3f 9a 4d 1e 3f ac dd 0e be
       0.40207282 0.5883667 0.6183716 -0.13951749
0001d0 3a bf 1d 3e ff f6 67 bd 55 4f 78 3e 5d e7 20 3e
       0.15404978 -0.05663204 0.24249013 0.15713258
0001e0 5c b5 56 be 67 d2 0d bf 92 8e 30 bf 26 8f a9 be
       -0.2096762 -0.55399173 -0.68967545 -0.33117026
0001f0 ff c0 b5 3d e8 01 44 3c 58 0a c9 be 5d b8 15 3e
       0.08874702 0.011963345 -0.39265704 0.1462111
000200 20 0a 25 bf 58 13 f9 be d4 bf 90 be 6a 65 97 be
       -0.64468575 -0.4864757 -0.28271353 -0.2956956
000210 f6 32 52 bf ac 0d 94 be 28 25 d9 be 71 40 c6 be
       -0.8210901 -0.2891668 -0.4241116 -0.3872104
000220 4c b4 b3 3e 5f 3d 39 3f 9d ee f6 be a0 0e a2 be
       0.35098493 0.7235927 -0.48228922 -0.31651783
000230 a2 98 c1 be c9 18 d0 be 37 0b 85 be 44 50 7f be
       -0.37811762 -0.4064391 -0.2598512 -0.24932963
000240 75 13 95 3f c1 83 24 bf 2e c3 e7 3d b7 07 13 3f
       1.1646563 -0.6426354 0.113165244 0.57433647
000250 b7 93 29 bf d4 03 c2 3e f5 7e 8d 3f 47 0d 5e 3f
       -0.6624102 0.37893546 1.1054369 0.8673901
000260 da 12 4e bf c9 b4 63 bf f1 43 00 bf 06 d9 30 be
       -0.80497515 -0.8894773 -0.5010367 -0.17270288
000270 50 e2 f5 3e 49 63 64 be b7 b9 86 bd 30 50 80 3d
       0.48024225 -0.223035 -0.06578391 0.062652946
000280 ee a0 24 be 61 ac fd be 6f b2 ed be 45 da b2 bd
       -0.16077015 -0.49545577 -0.46425197 -0.08733038
000290 df 00 09 be 49 3e a7 bf 3c 28 07 3e 23 f1 ce bc
       -0.13379239 -1.3065883 0.13198942 -0.025261467
0002a0 fa 35 34 bd 21 50 17 be 0d 6a 74 bf 04 39 27 b9
       -0.04399679 -0.1477666 -0.9547432 -0.00015947601
0002b0 b6 ec 99 bd 60 11 72 bf 4c 08 5f bf 78 4b a6 bc
       -0.07515852 -0.9455776 -0.87122035 -0.020299658
0002c0 05 b4 02 3e 23 65 02 bf b4 79 11 be ef c6 a2 be
       0.12763985 -0.5093557 -0.14206582 -0.317924
0002d0 74 ec 3f 3d 5a 8a f9 3e 8a e3 0f be a7 74 9a be
       0.04685636 0.48738366 -0.14051643 -0.30167124
0002e0 88 c4 d7 bc 52 71 37 3e 0a fa 25 3e 19 30 9f be
       -0.02633883 0.17914322 0.16208664 -0.31091383
0002f0 e2 57 80 be 51 38 ac bc 27 2f 11 be d9 de d9 3d
       -0.2506705 -0.021022948 -0.14178143 0.10638208
000300 a3 89 6b 3c 14 16 81 bd 7e 27 f0 3e 90 8f 40 3e
       0.014376077 -0.06303039 0.4690513 0.18804765
000310 65 2d 12 3e 49 da c6 3e 0c 2b 3f be c4 53 ef bd
       0.14275129 0.38838413 -0.18668765 -0.11685899
000320 6c eb 2f be 99 a2 1b bd c1 3e 8e 3d 00 6c ad 3d
       -0.1717965 -0.037996862 0.06945563 0.08467865
000330 b7 77 b5 3d fc 6e f1 3c e6 30 d1 be 8d 24 3e be
       0.088607244 0.029471867 -0.4085762 -0.1856863
000340 dc e2 dc bd b0 11 b5 3d a1 4a 83 3d be 86 bf bd
       -0.107854575 0.08841264 0.06410719 -0.09351872
000350 4c 34 6b bb 2f 06 9c be 79 5b 97 be 06 7c 40 3e
       -0.0035889326 -0.30473468 -0.29561976 0.18797311
000360 79 2d 0f 3f 03 2b 8d 3e 69 3a 1c bf 79 f5 40 3e
       0.5592876 0.27571878 -0.61026627 0.1884364
000370 ec 85 84 3e d1 a6 a8 be ac 57 21 3a f0 ae 18 3e
       0.25883424 -0.3293977 0.0006154727 0.14910483
000380 a9 43 9b 3e 46 d9 00 bf 12 c4 85 bd 9d fa 29 3e
       0.30325058 -0.5033153 -0.06531538 0.16599508
000390 d7 91 40 be 2b a3 6c bd 0d 8b 03 3d c4 2a b9 3c
       -0.18805633 -0.057772797 0.03211503 0.0226034
0003a0 9a aa 69 bc 8c f4 9e be 5a 35 87 3d ad 22 59 bd
       -0.014261866 -0.3104595 0.06601973 -0.053011585
0003b0 b5 d5 d7 3c 32 e7 bd 3d a9 42 bc be 5b a0 04 3e
       0.02634702 0.09272613 -0.36769608 0.12951796
0003c0 50 70 c3 be ce 45 08 bf ed 89 9d be 1e 15 73 bf
       -0.38171625 -0.53231514 -0.30769292 -0.949541
0003d0 ca 89 87 3f 5e 30 03 c0 74 2f 11 bf 12 7a d0 3e
       1.0588925 -2.049827 -0.5671303 0.40718132
0003e0 96 ce ff 3e fc 2b 77 bf ee 85 1f be 05 fa 8c 3e
       0.499623 -0.9655149 -0.15578434 0.275345
0003f0 18 9c 2d bf 50 39 ff be 8e ac 05 be 9e a8 6f be
       -0.67816305 -0.49848413 -0.13054106 -0.23404166

bias f4 [8]
000000 5d bb 1c be 04 87 8f bf ab 00 a3 bf ea 73 c3 bf
       -0.15305848 -1.1213078 -1.2734579 -1.5269749
000010 ee f3 3e bf 6b 4f 0e bf 56 3a d6 bf d7 7a 08 c0
       -0.7459096 -0.5558993 -1.6736553 -2.1324975

weight f4 [1, 8]
000000 64 d3 c2 bc d4 eb dc bd 5a 12 23 bd 78 8e ab be
       -0.02378244 -0.10787168 -0.039812423 -0.33507133
000010 61 fd 84 3a 59 29 ed be 8c 2e ad be 7a 1d 80 be
       0.0010146314 -0.46320608 -0.33824575 -0.2502249

weight f4 [4, 32, 32]
000000 82 4a bb be a9 6b cf bd 46 c1 32 3f 4e fc a6 be
       -0.36580282 -0.101279564 0.6982616 -0.32614368
000010 9e 1a 98 be 7d 45 6e be 82 53 97 3e da 88 e5 3c
       -0.29707807 -0.23268695 0.295559 0.028019357
000020 a5 30 d3 3e 6d d5 b3 3e 88 dd 15 3e 88 9f cf be
       0.4124805 0.35123768 0.14635289 -0.405514
000030 00 bc c9 bb b1 a9 ee 3e b7 19 22 3f c9 bf f7 be
       -0.0061564445 0.4661384 0.6332049 -0.48388508
000040 5d 18 29 3e a8 04 d5 3d 84 99 3a 3f 27 b7 f3 3b
       0.165132 0.10401279 0.72890496 0.007437605
000050 e2 ad f3 3e a2 04 2d be 4b 31 8e 3e 31 26 89 3b
       0.475936 -0.16896299 0.27771983 0.004185461
000060 69 9c 31 3e 0b e7 c0 be 0e d0 5c bb bc 52 49 bf
       0.17344822 -0.37676272 -0.0033693346 -0.7864187
000070 b4 53 70 bf ba 15 a8 bd ce c8 fb 3d 02 0d d6 3d
       -0.9387772 -0.08207269 0.1229416 0.104517
000080 01 c3 8a 3f 5d 61 30 bf 4d 8d 35 3f 5d 06 38 bb
       1.084076 -0.68898565 0.7091873 -0.0028079965
000090 7a 27 9d bf 1f d3 14 bf 91 6f 87 bd 13 4c d0 be
       -1.2277672 -0.58134645 -0.066130765 -0.4068304
0000a0 69 04 1c 40 00 f3 20 3e 79 44 04 3f 51 0c a8 bf
       2.4377692 0.15717697 0.5166698 -1.3128759
0000b0 23 70 9e 3e 45 5d af 3e 36 22 05 3f 06 8b fc be
       0.3094493 0.34250847 0.52005327 -0.49324816
0000c0 77 b7 2d 3f 16 fe 8c 3f 8a 5e b3 3e 81 4f 70 3f
       0.6785807 1.1015041 0.35033065 0.93871313
0000d0 9e 8e 68 be 40 8e 3d 3e 64 fd 08 3e 33 90 78 3e
       -0.22710654 0.18511295 0.13377911 0.24273758
0000e0 4b 01 b6 3e ef d4 e1 bb 5d 3d f0 3e 7f 76 45 3e
       0.3554786 -0.0068918387 0.46921816 0.19283484
0000f0 a7 5f 88 bf 1e e5 ef bd 21 35 3d 3e 6e 4e 3c bf
       -1.0654191 -0.117136225 0.18477298 -0.73557174
000100 59 41 98 3e 9f 28 b4 3c 70 f9 7c bd a3 8b 26 3d
       0.29737356 0.021992026 -0.06176132 0.04066051
000110 4a 9a ad ba fa aa cb ba be e0 56 bc 1c 0d 61 3c
       -0.0013244834 -0.0015538626 -0.013115106 0.013736036
000120 b9 c9 14 bd 63 84 90 bc 4a 73 0b 3d da 5d 8c ba
       -0.03632519 -0.017641252 0.034045495 -0.0010709122
000130 c9 ee b6 3b fd 81 33 38 ec d9 00 28 57 6c 04 be
       0.0055826646 4.2797987e-05 7.152682e-15 -0.12931953
000140 4b a1 c9 af 20 b1 42 bd 58 f2 e8 b5 8a be fd 3d
       -3.6676293e-10 -0.0475322 -1.7355878e-06 0.12389858
000150 6f 91 37 38 db 66 b3 3d 85 52 3d 3d 40 ef 81 1d
       4.3766046e-05 0.087598525 0.046221275 3.4393394e-21
000160 e3 7f 56 32 e5 8d ff b6 42 44 b8 bb 8e 82 4f 2f
       1.24855175e-08 -7.616111e-06 -0.0056233713 1.8872923e-10
000170 6b 52 96 33 37 44 15 3c 6d 91 ac 20 7b c6 9d 3b
       6.999911e-08 0.009110502 2.9234168e-19 0.0048149205
000180 48 9a a1 3c 1a e9 19 3e 4d e7 ba bd b4 7d 35 bc
       0.019726887 0.15030327 -0.091261484 -0.011077333
000190 df 22 28 be 3e 2c 95 3c b5 19 14 be 45 97 81 be
       -0.16419552 0.018209573 -0.14462931 -0.25310722
0001a0 16 49 44 3e f0 ae 77 3e 4d 4f 65 3e e9 62 17 be
       0.19168505 0.24187827 0.22393532 -0.14783825
0001b0 85 48 0b 3e 90 21 00 bd 2f 0d 56 3e 5c bc 09 bf
       0.13601883 -0.031282008 0.20903467 -0.5380304
0001c0 e1 10 b3 3d 6d 3d aa bc e7 b8 a0 be 15 63 db 3d
       0.08743454 -0.020781243 -0.3139107 0.10712258
0001d0 8d fc 17 3e 2f cd c2 3d 48 20 ff bd 74 de 4f bc
       0.14842434 0.09511792 -0.12457329 -0.012687314
0001e0 c8 3f 15 bf db 9a b5 3e c2 70 5c 3d 72 71 8f 3d
       -0.5830045 0.35469708 0.05381847 0.0700406
0001f0 44 a6 03 bf 69 08 a5 3d 48 2e af 3c 47 02 ed 3d
       -0.51425576 0.08058245 0.021384373 0.115727
000200 bb 3a 11 bf 5f d4 f2 bb 11 af ab bd 3e c2 ee bd
       -0.5673024 -0.0074105705 -0.08383001 -0.116581425
000210 da 91 47 bf bc e8 13 3e 19 8f c5 3d 8d 1e 9b 3d
       -0.77956927 0.1444425 0.09646434 0.075741865
000220 cb a9 9d 3d 7e 36 37 bd 29 e6 e5 bc d8 b5 56 be
       0.07698401 -0.044729702 -0.02806385 -0.20967805
000230 c1 76 18 bd b1 66 cd 3e 54 a6 d9 3e 5b b9 63 be
       -0.037222628 0.4011741 0.4250971 -0.22238676
000240 87 9d c2 3a 01 77 1a be f5 0b 92 3e e7 4c 7f be
       0.0014847972 -0.15084459 0.28524747 -0.2493168
000250 fd 17 f5 bd 2a 60 f0 3c d5 e0 8b be ff 77 cd bc
       -0.11967466 0.02934273 -0.2731997 -0.025081633
000260 4d 42 0b bd 8b 44 77 be 98 fe 05 bc 83 1b db 3c
       -0.033998776 -0.24147241 -0.008178376 0.026746517
000270 91 50 1a be e8 ac 9b 3d f4 17 1f 3f 93 80 09 3d
       -0.15069796 0.076013386 0.62145925 0.033569884
000280 d0 f7 fa 3c ed 44 10 be 18 12 02 3c 07 e0 0b 3e
       0.030635744 -0.14088793 0.007938884 0.13659678
000290 55 fd c9 bd 1b 2f 12 3e c8 5d 06 3e de 3d e3 bd
       -0.098627724 0.14275782 0.13121712 -0.110957846
0002a0 f6 b0 5a 3e f9 1e ee 3d c9 f5 26 be 0f d8 dc 3c
       0.21356568 0.11627001 -0.16304697 0.026958494
0002b0 2f 3e 2c 3d c5 c7 ec be b9 69 80 3d 7e 46 91 3e
       0.04205149 -0.46246162 0.06270165 0.28374094
0002c0 69 43 00 be c0 69 ac 3e c5 2f 89 3e f1 83 5c 3c
       -0.12525715 0.3367443 0.26794258 0.013459192
0002d0 de b7 b9 bc 3b 0c 97 be a1 24 e3 bd b3 00 c1 3d
       -0.022670683 -0.2950152 -0.11090971 0.094239615
0002e0 f4 a8 15 be c4 2e a9 bd ba 7b 92 bd 17 f0 ac 3b
       -0.14615232 -0.08260873 -0.07152505 0.0052776444
0002f0 00 ea 9f bd ea db 31 be e5 3b 61 3d a0 8d 36 3c
       -0.07808304 -0.17369047 0.05498876 0.0111421645
000300 bb 12 c7 3e 30 16 f4 3d 12 29 14 3d b7 b7 ed 3e
       0.38881478 0.119182944 0.03617198 0.46429226
000310 7d b1 b5 3e 6b 47 c4 be de 63 8e bf c4 cd b9 3f
       0.35486975 -0.38335738 -1.1124227 1.451592
000320 4c ee 7c bf 95 72 84 bf a0 73 3b 3f 41 7e 84 3f
       -0.9880111 -1.0347468 0.73223305 1.035103
000330 fa e8 6d be 76 6e e6 3e 53 90 4e 3e 8a 1c 29 be
       -0.23233405 0.4500615 0.20172243 -0.16514793
000340 95 0a d8 bd c7 3d 6b bf 92 f3 5f be bb 6e 7e 3e
       -0.10548893 -0.9189114 -0.21870258 0.24846928
000350 9d af e3 bd 6e aa b3 3f 6a bf 39 3f 39 7c ad 3e
       -0.1111748 1.4036386 0.725577 0.33883837
000360 7c ed d0 3c 13 85 8b 3f d2 dd 04 3d e2 58 c0 3e
       0.025503866 1.0899986 0.032438107 0.37567812
000370 57 5a 22 3f eb 2d 86 3f 60 ec 71 be b9 5f 09 3e
       0.634191 1.0482763 -0.23625326 0.13415422
000380 c1 3e 4c 3f 0e bb 59 3f 93 c0 63 3c 9f e8 cd 3e
       0.79783255 0.8505105 0.013900894 0.40216538
000390 08 43 2a bf 7a f5 8d be 5a d1 b4 be c1 5c 90 3e
       -0.6650853 -0.27726346 -0.35315973 0.28195766
0003a0 64 a1 5e be d6 4d 17 bf 8e 51 27 bd d3 cf 8d 3f
       -0.21741253 -0.59103143 -0.04084926 1.1079048
0003b0 3a a5 ef 3e 8c 76 34 be 5c dc 58 bd 16 6a c2 be
       0.46805745 -0.17623347 -0.052944526 -0.37971562
0003c0 c1 79 70 3f 84 d1 48 bf 85 ea af bf 3c b2 0f 3f
       0.9393578 -0.78444695 -1.3743445 0.5613134
0003d0 17 e5 ad 3d 6a 33 b6 3f cb a2 87 bf f9 18 cd bb
       0.08490961 1.423444 -1.0596555 -0.0062590805
0003e0 28 d6 36 3e 24 9f 9c 3f 42 54 47 3c 2f 44 6d 3f
       0.17855132 1.2236066 0.012166085 0.92682165
0003f0 92 8b 09 40 e7 11 0c bf 89 de 85 be da bc 73 3e
       2.1491437 -0.54714817 -0.26146343 0.2380251

w_comp f4 [79, 4]
000000 09 95 23 bf 3f eb ae be 74 26 40 3f 71 b9 0c bf
       -0.63899285 -0.34163854 0.75058675 -0.5497046
000010 67 95 53 bf 69 eb 04 be e4 39 8d 3e 18 d1 94 be
       -0.82649845 -0.12980427 0.2758323 -0.29065776
000020 52 76 85 bd 75 65 3a be 75 bf 89 be 5a 62 1f bd
       -0.065167084 -0.18202765 -0.26903883 -0.038912155
000030 1b a6 18 bd 64 fc cc be 18 ba e2 bd 89 49 8c 3d
       -0.037267786 -0.4003631 -0.11070651 0.06849963
000040 50 c9 4e 40 21 53 a2 3d 8e 32 19 3f 23 39 f2 bd
       3.2310371 0.07926012 0.59842765 -0.11827304
000050 0b 8b 32 3f 43 74 07 3f fb 54 8c be 39 5b cf 3e
       0.6974341 0.52911776 -0.27408585 0.40499285
000060 86 84 6a bd 35 81 91 3d 0f c8 bd bd 47 77 ae bb
       -0.05725529 0.071047224 -0.09266674 -0.0053242776
000070 9c a4 a9 bf b1 dd 99 3e 57 fe bf 3e fa c4 9a 3d
       -1.325336 0.3005195 0.37498733 0.075571015
000080 52 b3 61 3c 3f 67 e0 bb 46 f7 8e bf 22 7b fb be
       0.013775663 -0.0068482454 -1.1169212 -0.4911738
000090 4e 7d 00 80 75 7d 00 00 ca 7a 01 80 b7 4e 01 00
       -4.4951e-41 4.5006e-41 -1.35884e-40 1.20073e-40
0000a0 02 e6 43 3f 37 72 73 be c3 80 e5 be a4 ac 9c bd
       0.7652284 -0.23774038 -0.448248 -0.07650116
0000b0 c9 c4 9d bf db 75 ed 3e 20 f4 7c bf 3e 5b 14 bf
       -1.2325679 0.4637898 -0.98810005 -0.57951725
0000c0 59 4f 1b be 1c f5 c4 be 89 f3 07 3e 04 f8 0b 3e
       -0.15166987 -0.38468254 0.13276495 0.13668829
0000d0 07 fb 52 bc 71 69 bc be c5 0f 8e 3e 25 70 c9 be
       -0.012877232 -0.36799195 0.27746406 -0.39343372
0000e0 ca cc b1 bd 03 88 09 bf 5d 19 32 bf 10 6e 45 3e
       -0.086816385 -0.5372316 -0.6956995 0.19280267
0000f0 13 7e 85 3d bb 02 b2 3d ef e1 15 bf 22 4e f2 bd
       0.065181874 0.08691927 -0.5854787 -0.11831309
000100 55 3d ba bd b9 7a 41 bd 1e a8 b7 3e d8 33 f3 b9
       -0.090937294 -0.047236178 0.3587045 -0.00046387198
000110 56 de a4 bf 4e 8f 95 3f f3 0c a6 3f 13 5d 56 bf
       -1.2880352 1.1684358 1.2972702 -0.8373577
000120 32 47 28 3e 91 95 4c bf 19 72 01 3e ee 17 1f bf
       0.16433409 -0.7991572 0.12641181 -0.6214589
000130 fa bd 08 bf a6 0e 7a be e3 e9 a9 3e 24 9c 83 3e
       -0.5341488 -0.2441965 0.33186254 0.25705063
000140 a6 0f 02 3e 0a ea db be b9 87 47 bc aa 0a e0 be
       0.12701282 -0.42951995 -0.012178355 -0.43758136
000150 12 b1 0d bf 5a 0c 45 3e bb 7e fb 3e 56 21 ca be
       -0.5534831 0.19242993 0.49120125 -0.39478558
000160 5b a0 1e bd 92 42 2e 3e bc 67 f3 be 56 ac e5 3c
       -0.038727146 0.17017582 -0.4754008 0.028036278
000170 3d 6f 34 be 70 8f 96 be 8b 90 45 bf 89 77 9b be
       -0.17620559 -0.2940631 -0.7717368 -0.30364636
000180 23 8b 8a bc 34 09 c9 3e 2d 95 84 be 8a fe 02 3f
       -0.016912049 0.39264834 -0.25895062 0.51169646
000190 b9 ee 00 80 da d3 00 00 cc 05 00 80 05 35 00 00
       -8.5638e-41 7.5998e-41 -2.08e-42 1.902e-41
0001a0 b7 2c 7b bf 87 f9 dd 3e 2a 32 85 bd c8 44 75 bf
       -0.98115104 0.43354437 -0.06503709 -0.95808077
0001b0 49 b9 00 00 60 85 19 33 e5 14 01 80 5e 0e 00 80
       6.6468e-41 3.5744392e-08 -9.9331e-41 -5.154e-42
0001c0 ae 8d 22 bf df 91 5a be 18 1f 18 bf f5 93 55 3e
       -0.63497436 -0.21344708 -0.59422445 0.20857222
0001d0 35 51 90 bd 04 83 a5 bf 95 3f 2a 3e e5 08 0a bf
       -0.07046739 -1.2930608 0.16625817 -0.5391982
0001e0 be 41 ab be ba a0 6d 3f 96 12 66 bf 60 7c be 3f
       -0.33448595 0.92823374 -0.8987211 1.4881706
0001f0 f2 4b 56 bd ef 84 11 bf 44 c7 22 3e 31 ce 0a bf
       -0.05231852 -0.56843466 0.15896326 -0.54220873
000200 20 82 a9 36 7a 09 5a ae 4c 40 1f ba c4 39 29 33
       5.051741e-06 -4.9575878e-11 -0.00060749496 3.9400916e-08
000210 67 c6 1e be 6e 3b c4 3e 4c b1 8a bd ca 82 09 bf
       -0.15505372 0.3832659 -0.06772098 -0.53715193
000220 cc 0b a7 bc b5 35 8b 3d 36 d1 35 be db 33 83 3e
       -0.020391367 0.06797353 -0.17755589 0.256255
000230 0f 32 c4 3e 68 2b 2a 3e 5a de 2d bf df 59 a2 3f
       0.38319442 0.1661812 -0.67917407 1.2683676
000240 48 38 28 bf 7a 84 85 3f 34 0c 4e 3d 8c d0 f0 bd
       -0.6571088 1.0431054 0.050304607 -0.11758527
000250 f1 76 f1 be 0d 9f 17 bf 12 16 f5 3e c5 61 3d 3f
       -0.47161058 -0.5922707 0.478684 0.7397731
000260 82 c6 8a bb cd 56 98 bd f9 36 d5 3b fe 24 31 3b
       -0.0042350898 -0.07438431 0.0065067974 0.0027030106
000270 b6 7a 90 3f 4c cc 1b bd 61 84 c0 3e f5 a3 47 3f
       1.1287448 -0.03803663 0.37600997 0.77984554
000280 1b 66 09 3e d2 9d 6c 3d 14 3a 5f 3e ed c2 e6 3d
       0.13417856 0.057767697 0.21799499 0.11267648
000290 1e 7b c7 be 14 15 86 3f 0b 3a 66 bf ca bf 07 40
       -0.38961118 1.0475183 -0.89932317 2.1210809
0002a0 ac ba 0d be 5a 81 e0 3e cc 60 35 3e ed 07 1f 3f
       -0.13840741 0.43848687 0.17712706 0.6212147
0002b0 ae 3f 27 bf ea e0 11 c0 17 46 a7 3f 98 bd 95 be
       -0.6533154 -2.2793527 1.3068265 -0.2924621
0002c0 ec 45 bf ad be 20 cb ad e4 d9 4e 35 74 4f 83 b2
       -2.1745238e-11 -2.3092969e-11 7.705805e-07 -1.5286538e-08
0002d0 85 af 0c 0e a9 d5 00 00 97 a0 01 00 45 44 03 ac
       1.7340842e-30 7.6647e-41 1.49444e-40 -1.8654117e-12
0002e0 8b 6a 18 3f a8 16 51 bf 75 84 a9 3e 50 fe cd be
       0.5953757 -0.81675196 0.3310887 -0.40233088
0002f0 15 93 2f bf d4 89 9f 3e 41 12 4c 3f 4e bb fa be
       -0.68583804 0.31159842 0.79715353 -0.48971027
000300 a0 43 00 80 bc 16 88 af 7c 37 09 34 34 71 01 00
       -2.4259e-41 -2.475441e-10 1.2779304e-07 1.32445e-40
000310 bd 93 00 80 22 6a 01 00 2c bc 04 b1 1d b6 b8 aa
       -5.2999e-41 1.29909e-40 -1.9315491e-09 -3.2811332e-13
000320 20 06 54 bf b7 d5 ca 3e c9 da 96 3f 0a eb d3 3e
       -0.82821846 0.39616176 1.1785518 0.41390258
000330 14 87 a2 3f ff 09 3a 3f f2 56 15 bf ce d5 15 3f
       1.2697473 0.726715 -0.58335793 0.58529365
000340 ab d7 7b 3e 56 ac 8b 3e c6 58 e3 be 20 25 ad 3d
       0.2459399 0.2727992 -0.44403666 0.08454347
000350 1f cd 9e 3d 1c 65 d2 be 36 97 65 be 0b 4e b1 be
       0.077539675 -0.41092765 -0.22420964 -0.34629855
000360 34 84 16 bd e4 b3 4e bf b9 ad 93 3e ae 20 8b be
       -0.036747172 -0.8074324 0.28843477 -0.2717337
000370 61 9d 00 00 49 2c 00 00 7c e2 78 b7 7b bb 00 80
       5.6457e-41 1.5887e-41 -1.4834684e-05 -6.7255e-41
000380 bf 0d 47 bf 96 3e 7f be 31 5b 4c 3e b7 65 13 bf
       -0.7775535 -0.24926218 0.19956662 -0.5757708
000390 47 a3 b4 bf 11 90 56 3c cf 12 b9 3e 83 29 25 3f
       -1.4112328 0.013095872 0.36147162 0.64516467
0003a0 71 6f c0 be f8 35 19 be d5 88 46 3e b5 b4 cd be
       -0.37585023 -0.14961994 0.19388135 -0.4017693
0003b0 9d f5 16 3d b3 ca 57 3d a7 4e fe 3c 07 c9 71 bc
       0.03685533 0.052683543 0.031043364 -0.014757401
0003c0 09 c5 81 bf 93 3d d8 be d7 f7 85 3c be 9e 42 bf
       -1.0138255 -0.42234477 0.01635353 -0.7602347
0003d0 08 d4 c3 3d 66 81 26 3e 6d 17 4f be e5 ab 02 3f
       0.09561926 0.16260299 -0.2022378 0.5104354
0003e0 93 7b fb 3b 1f 18 3d 3f e1 9e c6 bd e0 66 09 bf
       0.0076746433 0.7386493 -0.096982725 -0.536726
0003f0 d9 b3 eb 3e cc f3 52 be a2 60 f1 3d d7 da 83 be
       0.4603565 -0.20600814 0.11786009 -0.257529
