experiments/grail_nell_v2_ind/graph_classifier_chk.pth (torch, 126094 bytes, 21 tensors)

weight f4 [79, 32]
00000000: ae45 2dbd 5dc3 733e b42d a2be d43d cdbe
00000010: e30e 25be 52e8 c1be 7263 bb3d 48f4 45be
00000020: e428 793f 74a3 8fbd 2149 86bc 3664 e53d
00000030: 19fb 303f 145c b93e be30 5f3f 099d ee3e
00000040: a058 003f 3b76 a43e 12e8 afbe 6835 ea3e
00000050: ab4d 10bf c24d 16bd b1fb ef3c a182 b93e
00000060: c49c fcbe 3bac cfbe 62f1 233c 6069 36bf
00000070: 641a fb3e 6284 3a3f 88bf f63e 5c98 5e3f
00000080: 86ad dbbe ee88 2e3f 8e63 c13e cb95 043f
00000090: efb1 0b3f 5525 0e3e 4bf8 db3e 9a74 c8bc
000000a0: 6bee b93e 6325 d1be 5e1b 30be daa3 c93e
000000b0: 5fb7 953e f83e d9be 3b66 e53e 0100 0ebf
000000c0: f946 e4be 5280 0fbf 5c39 9dbf 1c7f bd3e
000000d0: 7259 66bf 3033 dfbe 6d97 f4be e7de 0bbe
000000e0: 0eb8 163f d117 5a3f c159 7d3f ed48 96be
000000f0: a1b6 be3e db1a 8c3e a83f 8fbd c544 1dbf
00000100: 7a7c 44be 2e8f 59bc dfc4 1bbf e66b 863e
00000110: afe9 1f3f 78fe 1b3f 3bb8 3fbf a0e9 63bd
00000120: a98f e3be c664 85bf 508f ab3f 04ce da3f
00000130: 6e0e acbf c882 c93f 551b 053f 6fd7 7b3f
00000140: 63ad 8abf 2594 79bd 2af8 963e d80b 153e
00000150: 906a 0d3f 51ea 17be 7e05 27be efd5 35bf
00000160: b691 853f 7faa 0e3e 3a31 d2be 34f7 adbf
00000170: 99eb 003f ec1a f13d fb9c 403f e694 85be
00000180: d515 78bf ac12 a33f 7dc0 873f ed78 b33f
00000190: 5cdc 1c3f 8592 a3be ec36 623f cc3c f73f
000001a0: 6e14 53bf 56e7 0ebf 2994 61bf e2ce 8c3f
000001b0: 275c f7be 1474 acbf f5f1 903e eb0c 79bf
000001c0: 1d61 49bf 7d8f 88bf 7503 cbbf 45f1 1dbe
000001d0: 3d71 aebf 00d4 8ebf 9d6a 5ebf 3b6f 9c3e
000001e0: 40d0 09bf 543a 41bf f3bb 043f a099 1f3e
000001f0: a3a5 ddbe 339e ef3c c775 4a3f 8a31 92bf
00000200: fa72 d23e 7454 1dbe 8f59 a5bf 2872 e1bf
00000210: 893a 05be c9cd 873e b133 d0bd 6b00 ddbf
00000220: 2467 3b3f fb7a d6bf 94b6 3f3f c6ae 993f
00000230: 1771 103e 92fc 623f bf37 bc3e 9149 723f
00000240: 33ed 913f 5ce5 bc3f 1af8 c93e 089a 08bf
00000250: b144 243f dfe4 c73e 205e 9a3e cd97 02bc
00000260: d3c9 1abf 10d5 9a3f de81 b8be ef79 a1bd
00000270: 52da fd3e 02aa f33e ade7 2a40 bc8a 863f
00000280: ca89 b23d 210f 9dbe 3db8 423f 4bdd 123f
00000290: 9659 5f3c 0484 913f 8d47 083e d5b5 51be
000002a0: 6582 88bf dda3 6e3d b69b 8b3e 75b2 f2be
000002b0: 3326 01be 4fc2 ec3b 1c03 87be d1e4 87bd
000002c0: 9c40 40be 3051 8a3e fd0b 5b3f eca9 0c3d
000002d0: 0c4a bb3f aca5 d5bc 6cc2 c53e 78ac 093e
000002e0: 1ca5 103f 3ca8 ee3e 9495 0fbe 3015 a23e
000002f0: de8d 11be c07b 04bf d739 1cbf 395c 69be
00000300: 699e 373f ad98 42bf a9bc 18bf 28bd 4e3b
00000310: 5dfa febe d933 603f c804 11bd ae09 d13e
00000320: bbd1 d0bf 3f37 14bf 3f85 873f 0c32 3d3f
00000330: a731 92bf a167 8c3e 55ba dabe d14a 483f
00000340: 4177 f2be 57f9 983f e798 0a3f ea3d adbf
00000350: f006 003f 9fd4 403f 7ec7 a53c 8336 83be
00000360: c1f1 39be e57d f43e 20a2 5ebf 2840 f2be
00000370: 0605 a7be d9d3 b8be 0486 d13f 10fc 19bf
00000380: bb3a a53e dc38 74bf 5e8d 52be 778a 8f3d
00000390: 81b5 013e 76ea 1a3f d4cb a83e 194b 95be
000003a0: 1db5 2bbf d500 98bd a546 133f f1d5 a53e
000003b0: 4f12 48bf c106 463e 79f7 c7be 8e8c fdbd
000003c0: a893 64bf b361 7a3f 4bbd f93e bc16 06bf
000003d0: ea45 e03e 9253 1c3f 7416 73be cb6b 29be
000003e0: a37a 40bb 24ad 183f 3615 82be 33bd 0c3f
000003f0: 41a0 a6be 05f0 35be 13da b03e d161 e8be
-0.04230278 0.23804994 -0.31675494 -0.40086234 -0.1611896 -0.3787256 0.09149827 -0.19331467
0.9732802 -0.07013598 -0.016392292 0.11200754 0.69133145 0.36203063 0.8718375 0.46604183
0.5013523 0.32121453 -0.34356743 0.4574387 -0.5636851 -0.03669525 0.02929482 0.36232474
-0.49338353 -0.4056109 0.010006281 -0.7125454 0.49043572 0.7285825 0.48193002 0.8695123
-0.42905825 0.6817769 0.37771267 0.51791066 0.5456838 0.13881429 0.4296287 -0.024469662
0.3631471 -0.40848836 -0.1719794 0.3938282 0.29241464 -0.42430854 0.44804558 -0.55468756
-0.44585398 -0.56055176 -1.228313 0.3701104 -0.8998023 -0.4359374 -0.4777178 -0.13659249
0.58874595 0.8519259 0.9896508 -0.29352513 0.3724871 0.2736424 -0.06994563 -0.6143306
-0.19188109 -0.013278766 -0.60847276 0.26254195 0.6246595 0.60935163 -0.7489049 -0.055642724
-0.44445542 -1.0421379 1.340311 1.7094121 -1.3441904 1.5743036 0.5199483 0.983756
-1.0834163 -0.060932297 0.2948621 0.145553 0.55240726 -0.14835478 -0.16310689 -0.7102956
1.0435092 0.13932227 -0.41053182 -1.3591065 0.50359493 0.11772713 0.75239533 -0.26090163
-0.96908313 1.2740073 1.0605618 1.4021279 0.6127374 -0.31947723 0.88365054 1.9315429
-0.8245305 -0.5582174 -0.881167 1.1000636 -0.48312494 -1.3472924 0.283096 -0.97285336
-0.7866381 -1.0668789 -1.586043 -0.15424068 -1.3628308 -1.1158447 -0.8688143 0.30553612
-0.5383339 -0.75479627 0.5184929 0.15585947 -0.43290433 0.02925024 0.79085964 -1.1421368
0.41103345 -0.15364248 -1.2917956 -1.7612963 -0.1301061 0.2652419 -0.10166109 -1.7265753
0.73204255 -1.6756281 0.7488797 1.2006462 0.1410564 0.8866664 0.3676128 0.94643503
1.1400512 1.4757495 0.394471 -0.53360033 0.64167315 0.39041802 0.30149937 -0.007970762
-0.6046421 1.2096272 -0.3603658 -0.07884585 0.49580628 0.47590643 2.6703904 1.0511088
0.087176874 -0.30675605 0.76062375 0.57368916 0.013632199 1.1368413 0.13308544 -0.2047952
-1.0664793 0.05826174 0.27267236 -0.47401777 -0.12612228 0.007225312 -0.2636956 -0.0663544
-0.18774647 0.27015066 0.8556517 0.034341738 1.4631972 -0.026079975 0.38624895 0.13444698
0.56501937 0.46612728 -0.14021903 0.3165679 -0.14214274 -0.5175133 -0.61025757 -0.22789086
0.7172609 -0.76014215 -0.5966287 0.0031545851 -0.49800387 0.87579113 -0.03540495 0.40827698
-1.6314005 -0.578968 1.0587538 0.7390449 -1.1421403 0.27422813 -0.42720285 0.7823916
-0.4735661 1.1951092 0.5413956 -1.353452 0.50010586 0.75324434 0.020236727 -0.25627527
-0.18158628 0.477523 -0.86966133 -0.47314572 -0.3262102 -0.36099127 1.6369023 -0.6015024
0.3227137 -0.9539926 -0.2056174 0.07008832 0.12666894 0.6051401 0.3296801 -0.29158857
-0.6707323 -0.07422034 0.5752967 0.32389787 -0.78152937 0.19338514 -0.39055994 -0.12380324
-0.89287806 0.9780533 0.48777232 -0.5237844 0.4380334 0.6106502 -0.23739034 -0.16545026
-0.0029369972 0.5963919 -0.25406808 0.54976195 -0.3254414 -0.17767341 0.34541377 -0.45387128

weight f4 [4, 8, 32]
00000000: 8ce4 1c3e eab2 3bbe 993f 633d 8d65 d1be
00000010: c609 ecbe 3174 44bc b598 7d3f 7e94 af3e
00000020: 8b33 40bf 852b 84be ecb1 aebd 3a77 b7be
00000030: 587a 64bf 5a23 dd3e a50e 13bf 2939 bebf
00000040: 64fd b23e f8a3 1e3e 2b35 2bbe 6b4d 2f3d
00000050: 5f78 8dbe 3897 8dbf 8a0b 05bf 85e8 bebe
00000060: 4193 33bf 9b8b 5ebf 85e2 17bf 6127 00c0
00000070: ae93 6abb bc44 91bf 3cb0 03bf d432 85be
00000080: 7458 a13f c76e 86be da13 b93d 26aa 89bb
00000090: 0da2 2ebf beb0 11bf 227a 17bf 3a2e 653e
000000a0: ca35 01bd 0325 16bf 7402 58bc 6e86 afbe
000000b0: dcb8 71bf 01bb 03be 2d36 b63e 6f2b 65bd
000000c0: 96c7 5e3f de4e 573f 3801 89bf e7ae 81bd
000000d0: 320d 32bf 25cf 013d 042b 403f 33db a53f
000000e0: 677b 19bf ef1d a23f a091 803d 3697 7cbf
000000f0: 5600 ba3e e125 b9be 37c2 a1be a900 f03e
00000100: ce54 8fbe 6b90 61bf 85e6 75be 0bbd eb3e
00000110: 7b11 d7bd f02d e83d 264a 0ec0 d344 923f
00000120: 3744 173e 5a69 db3e 6517 8abd 0dd4 883f
00000130: 7b14 c73c 8304 0ebf 47c8 81bd df00 0740
00000140: e825 0fbf 9e81 7cbe cc15 2dbf 381b 083e
00000150: 4510 d13d 8819 7d3f ba05 d33e cb83 413e
00000160: c0af bf3d 646b 0ec0 5153 49bf 97c2 3bbf
00000170: 9014 36bf a6d8 3e3f c422 88bf c012 c03d
00000180: 189f a93e c8b6 8abe 4aee 123d 6e4f 273d
00000190: 70b3 ecbb 5eba 183f da10 d0bf f817 073f
000001a0: fdca c33e dc48 c5bf 060a 86be 040a f6be
000001b0: a15e ab3e 228b 513e 2e0d bbba 72a1 033f
000001c0: 3871 d03e 9314 283e a4b7 e23e ed76 4bbe
000001d0: ee93 e33e b92d 643f f6a0 8c3f 4000 e53e
000001e0: 965e 1dbf 3c95 323f ee33 863e fa3a d63f
000001f0: 6c0c 893e 072b 57bf 45ab d53c 8192 18bf
00000200: 8c07 a73e 8356 973e 843f 2ebd 70cd 843e
00000210: 127b 20be ce75 49bd 5924 88bf cd4e 4f3f
00000220: 8c06 77bf 6887 91bf f2da 963c bbe5 88be
00000230: 5466 0ec0 e98c d63e 3a88 88bf 26cc 1340
00000240: 0db9 b9bd 3355 613e 6cbf 48bf 2d2a 9c3d
00000250: f5df c7bf c551 f13e a481 88be 9873 813e
00000260: 3b15 a6bf c502 c43f 83ed ce3d 4501 5d3e
00000270: 93e3 5c3f 6f1c 29bf 1808 62bf f4b5 8f3f
00000280: 5a88 773f 7e9f b5bf 8eff 8abe 626b ec3d
00000290: cfd8 31bf 78bc 183f 5da6 bcbe 47cf 693f
000002a0: 7f48 af3d b559 a5bf 5673 1cbf e74f d53d
000002b0: 5d78 5d3f 0ca0 07bf 7a36 88bf d498 0a3f
000002c0: 171d 39be cee9 6c3d 1486 d6be 257a b0be
000002d0: 1e7f c03e ee6a e03e 9d49 a73f 253f 9b3f
000002e0: 462c ecbe da12 96bf 58df 8fbf be26 c4bf
000002f0: b823 27bf 7de1 20bf c10f 1ebf 286b ea3d
00000300: 4c96 1a40 1a07 adbf 90a2 123f cbec 06be
00000310: 8d6f 66bf d429 2cbe 89b6 14c0 ae23 663f
00000320: b000 8e3f 9bcd 85be 2566 ac3d 3a45 f73e
00000330: 76f9 51bf a4a8 6a3e e164 ee3f 0c26 333f
00000340: 25ac c13f eed2 a5be 218b 90bf d4de 28bf
00000350: d449 203f ee7d 843f 1a86 033f 2714 80be
00000360: 4213 66bf f260 f0bf f889 303f 3f78 b43e
00000370: bb6c a03f f2b6 8bba 626f d63e 6548 51be
00000380: dc6c 96bf 9e7c 773f e7d9 b33c 0598 9abe
00000390: 436a 61be 3482 723c 1c1c 503d 6eb1 80bf
000003a0: 68f2 8fbf 8305 263f 21b9 11bd f35d d3bd
000003b0: 66cf 1cbf c886 f83b 18ef 1ebf c522 b1bf
000003c0: 442e 2bbf 69c6 1c3e d5a8 053f 5db6 d83a
000003d0: 91c0 99be df5c e6be b4a1 1f3f c3e5 d23e
000003e0: 23cc 273f d07b 9e3e cbee 04bf de70 e53c
000003f0: 82f3 37bf 4ab0 b13e ba54 29bf 23d9 bfbe
0.15321559 -0.18329969 0.055480573 -0.4089779 -0.46101207 -0.011990593 0.9906114 0.34292978
-0.7507865 -0.25814453 -0.0853003 -0.3583315 -0.8924918 0.43191034 -0.5744422 -1.4861194
0.34958947 0.15492237 -0.167195 0.04279844 -0.27630898 -1.1061773 -0.5197073 -0.37286773
-0.70146567 -0.8693177 -0.59330016 -2.0024035 -0.003579359 -1.1349101 -0.5144079 -0.2601534
1.2605119 -0.2625639 0.090369895 -0.0042011915 -0.6821602 -0.5691031 -0.59170735 0.22380915
-0.031545438 -0.58650225 -0.013184179 -0.3428225 -0.944227 -0.12864305 0.35588208 -0.055949625
0.87023294 0.84104717 -1.0703497 -0.06332188 -0.69551384 0.03169169 0.75065637 1.2957519
-0.5995392 1.2665385 0.06277776 -0.9866823 0.3632838 -0.36161712 -0.31593487 0.46875504
-0.27994388 -0.8811099 -0.24013717 0.46042666 -0.10501381 0.11336887 -2.2232757 1.1427253
0.14772116 0.42853814 -0.067427434 1.0689713 0.024301758 -0.55475634 -0.06337028 2.1094282
-0.55917215 -0.2465882 -0.67611384 0.13291633 0.10208181 0.9886708 0.41215307 0.18897931
0.093596935 -2.2253046 -0.78642756 -0.73343796 -0.71125126 0.7454933 -1.063561 0.09378576
0.3312919 -0.27092576 0.03587178 0.040847234 -0.007223539 0.59659374 -1.6255143 0.5277095
0.38240805 -1.541286 -0.26179522 -0.48054516 0.33470634 0.20463231 -0.0014270896 0.5141822
0.4071138 0.16414098 0.44280732 -0.19869585 0.444488 0.8913227 1.0986621 0.44726753
-0.6147245 0.69758964 0.26211494 1.6736748 0.2676729 -0.8405003 0.026082644 -0.5959855
0.32622945 0.2955819 -0.042541042 0.25937986 -0.15671948 -0.049184613 -1.0636092 0.80979615
-0.96494365 -1.1369448 0.018414948 -0.2673777 -2.2249956 0.4190438 -1.0666573 2.3093352
-0.09068499 0.22005157 -0.78417087 0.07625232 -1.5615221 0.47132698 -0.26661408 0.25283504
-1.2975229 1.5313345 0.101038955 0.21582516 0.8628475 -0.6605901 -0.882936 1.1227403
0.9669243 -1.4189298 -0.27148098 0.11543919 -0.6947145 0.5966258 -0.36845675 0.91331905
0.085587494 -1.2918001 -0.6111349 0.10415631 0.86511785 -0.5297859 -1.0641625 0.5413945
-0.18077503 0.05784016 -0.41899168 -0.3446819 0.37596983 0.4383158 1.306934 1.2128645
-0.46127528 -1.1724503 -1.1240034 -1.5324323 -0.6528888 -0.6284407 -0.6174279 0.1144622
2.4154234 -1.3517792 0.572793 -0.13176267 -0.90013963 -0.16812831 -2.323641 0.8989819
1.109396 -0.26133427 0.0841792 0.48295003 -0.8202127 0.22915894 1.8624536 0.6997993
1.5130659 -0.3238749 -1.1292459 -0.6596501 0.6261265 1.0350931 0.513765 -0.25015375
-0.89873135 -1.8779585 0.68960524 0.3524799 1.2533182 -0.001065938 0.41881853 -0.20437773
-1.1751971 0.96674526 0.02195449 -0.30194107 -0.22013192 0.014801551 0.050808057 -1.0054147
-1.1245852 0.6485216 -0.035576943 -0.10320654 -0.61253965 0.0075844266 -0.6208358 -1.3838736
-0.6686747 0.15310062 0.5221074 0.0016533841 -0.3002973 -0.4499273 0.62356114 0.4119092
0.6554586 0.30953836 -0.5192687 0.02800792 -0.7185594 0.3470481 -0.6614491 -0.3747035

w_comp f4 [79, 4]
00000000: 76a7 2b3e 85a0 983f da98 7a3e a405 083f
00000010: b873 c4bf 98de 073f deb1 93bf 0a42 bbbf
00000020: 56a4 543f a6af c53f 02ab 7b3f 8f30 b8be
00000030: c877 a9be 3182 0e40 d561 fbbe 6810 b53e
00000040: 9dcb 0040 78a6 a4be 035b e5bc a72e 0fc0
00000050: fc50 973f 9620 133e c1a4 cfbf da46 bd3f
00000060: dc1b 08be fe5a 223f d529 3fbf e4c9 7bbf
00000070: 3aa2 08bf c0e5 70bf efa0 5c3f 1809 163f
00000080: 5a0b 82bf 2797 353f 6009 44bf 58eb 4bbf
00000090: 5203 22b8 e3f7 3c36 0f6e 6033 c250 afb8
000000a0: d5ca 07bf 0eb6 a9bf edb2 adbf 3df5 18c0
000000b0: 885d e33f 172d 22bf 3758 c4bf ebda 0bc0
000000c0: 1c90 ca3c 9a73 633f 8578 ed3e 9020 9cbf
000000d0: bb8f a9bf dc9c 45bf c566 543f bb8e 22bf
000000e0: 267a 83bf d617 413f cf49 5abf 201f 093f
000000f0: 3f3a 3dbf 6eb1 aa3e 4d5d 88bf abc8 373f
00000100: 2747 203f 7434 4cbf 8661 293f c8f3 2ebe
00000110: 4185 ec3d 872e 0640 9593 3ec0 2798 9cbf
00000120: 4f3d f8be ab35 f23e 50bb 5ebf 4012 8ebd
00000130: ca48 783f b283 8c3f 7de7 823f c929 ea3f
00000140: 83c1 85bf 1fda b13f 8ebd 05bf 9975 cc3f
00000150: 5db8 023d 09d6 633f a55c 663f 9e4e ce3f
00000160: e905 8d3e af4b 853f 5388 3bbe 7888 f3be
00000170: ac82 8abf 0dc9 b9be d0dd c9be 4a7d cdbf
00000180: 8b9c e1be fe22 bdbe d854 87bf fe93 c1be
00000190: e0d6 21bf 1653 863e aea7 71bd 6124 6a3e
000001a0: fe9e 04bf 8bc7 f83f 6fbc c53e 5f9c a33f
000001b0: f4d9 1ebf b5bf 0ebf 2cea 2ebf 6bd1 8dbe
000001c0: 91a4 fabf e6bb 923f f426 b9be 0bb3 aa3e
000001d0: c660 bc3f 57d7 e4be 6517 a03f 0988 803e
000001e0: 9fc8 54bd 68c3 c1ba b1e7 2ec0 cb44 7e3f
000001f0: 4ed8 9e3d d613 023f 5535 a83f 895a e43f
00000200: 20bb a33f a324 993f 0518 3abe a491 0a3e
00000210: 9a3d 98bf 5155 6e3f ce4c fabf a4c0 763e
00000220: 5591 fe3e 9691 ac3f 4d50 083f 4b0c 413f
00000230: c2ed b63f dac0 5c3f 33a5 033e a643 243f
00000240: 1d52 dc3f 8e31 503f 2a4d 4abf da8f cebf
00000250: e033 dc3e 7de4 893f c847 ebbe 9c1d 87bf
00000260: 4f03 2f3f 722b 663e 1451 93be 859e 8bbf
00000270: 1986 7d3f 6bc0 a33f 6587 743f 1485 08be
00000280: 8db0 86bf d43c 1d3f b8f4 873f f2d5 29c0
00000290: 78d2 dabe 128e 193e 602d 71bf 7c98 4cbf
000002a0: e12a 3bbf 3bd8 12be c3ee 5abf f11f dcbf
000002b0: 815a 06bf f581 093e e10b 953e d465 e6bf
000002c0: ea23 b7bd 893e 6e3e 4b43 87bf af65 90bf
000002d0: 26d2 a7be 8df1 523e 488d ef3e 9ae0 97be
000002e0: f768 1abf 47da 18bf 5ed8 b8be ea81 dd3e
000002f0: e549 84bf ff38 04bf a047 f2be 10b4 72bf
00000300: a8ce 73bf 3255 e0be 032b 2f3f 9c93 53be
00000310: 7d32 1d40 1062 9a3f 1e4a fabf 25f5 80bd
00000320: 8fd0 ca3f 6f8e 1d3d 946c 97bf 7704 8fbe
00000330: fc54 ad3e de4c 0abf a7c5 a1bf 5271 cf3f
00000340: 6070 ebbf 32ca 9c3e 6ab3 84bf 985b 1a3f
00000350: 5f59 653f d55f 7b3f 9817 0dc0 87fd d7be
00000360: 5b80 a5bf 56c2 9b3f 7f61 07c0 f18f 8a3e
00000370: d22f a0bf 78af 593e aba8 e03e 022d 613f
00000380: 0c28 00bf b39e 65bf ace9 5dbf a15d 1f3f
00000390: a726 11bf 4975 b4bf d17a 9d3e 5167 8ebf
000003a0: 279f 50be 8106 98bd debf 07be 3f73 54bf
000003b0: c5e5 19be 64b4 173f 8ba6 ddbe ae23 063f
000003c0: 8a45 04c0 53c5 ad3f ae20 83bf 6c52 f4bf
000003d0: a639 933f fdc6 bd3f 0ec8 33bf 704a 0c40
000003e0: 1036 f5b9 6c09 21bd e1e7 aebe 690d 90be
000003f0: a25d 3a3f c771 213f 8732 8fbe b818 f0be
0.167631 1.1923987 0.2447237 0.53133607 -1.5347815 0.53074026 -1.1538656 -1.4629529
0.83063257 1.5444229 0.9830781 -0.35974547 -0.33099198 2.2266963 -0.49098077 0.3536408
2.0124276 -0.32158256 -0.0279975 -2.2372224 1.182159 0.143679 -1.6222154 1.4787247
-0.13291878 0.63420093 -0.74673206 -0.98354936 -0.5337254 -0.9410057 0.86183065 0.58607626
-1.0159714 0.70933765 -0.76576805 -0.7965598 -3.8626902e-05 2.8158472e-06 5.2254162e-08 -8.3596926e-05
-0.5304387 -1.3258684 -1.3570229 -2.3899682 1.7762918 -0.6335005 -1.5339421 -2.1852367
0.02472692 0.8884827 0.46381012 -1.2197437 -1.3246988 -0.77192473 0.82969314 -0.6349904
-1.0271652 0.75426996 -0.8526887 0.5356312 -0.73917 0.33338493 -1.0653473 0.7179057
0.6260857 -0.7976754 0.66164434 -0.17085183 0.11548854 2.0965898 -2.9777577 -1.2233933
-0.48484275 0.4730657 -0.87004566 -0.06937075 0.9698607 1.097769 1.0226895 1.8294002
-1.044968 1.389469 -0.5224236 1.5973388 0.031914104 0.88998467 0.89985114 1.6117742
0.27543572 1.0413722 -0.18313722 -0.47565055 -1.0821128 -0.36286202 -0.39427042 -1.605386
-0.44064745 -0.3694076 -1.0572767 -0.37808222 -0.632185 0.26235265 -0.058997802 0.2286544
-0.518051 1.9435896 0.38620326 1.2782096 -0.6205132 -0.5576127 -0.6832607 -0.27698836
-1.9581472 1.1463592 -0.3616253 0.33339724 1.4717033 -0.4469554 1.250714 0.25103787
-0.05194914 -0.0014782967 -2.7328913 0.9932372 0.077561006 0.5081152 1.3141276 1.7840129
1.2791481 1.1964306 -0.18173225 0.1353212 -1.1893799 0.9309893 -1.9554689 0.24096924
0.49720255 1.3481929 0.5324753 0.7540938 1.4291308 0.8623177 0.12855987 0.64165723
1.7212559 0.81325614 -0.79023993 -1.613765 0.43008327 1.0772854 -0.45953202 -1.0555911
0.68364424 0.2247751 -0.28772795 -1.0907751 0.9903274 1.2793096 0.95519096 -0.13332015
-1.0522629 0.6142094 1.0621557 -2.6536832 -0.427387 0.14995602 -0.9420986 -0.7992017
-0.73112303 -0.14340298 -0.8552057 -1.7197248 -0.5248185 0.13428481 0.29110625 -1.7999825
-0.08942397 0.23266043 -1.0567411 -1.1281031 -0.32777518 0.20599957 0.46787477 -0.29663545
-0.60316414 -0.59708065 -0.36102575 0.4326318 -1.0335051 -0.5164947 -0.4732027 -0.94806004
-0.9523721 -0.43815 0.68425006 -0.20661777 2.4562066 1.2061176 -1.9553869 -0.062967576
1.5844897 0.038465913 -1.183001 -0.27933094 0.338539 -0.5402354 -1.2638444 1.6206458
-1.8393669 0.30623013 -1.0367253 0.6029601 0.89589494 0.98193103 -2.204565 -0.42185614
-1.2929796 1.2168682 -2.1153257 0.27062944 -1.2514594 0.21258342 0.43878683 0.879593
-0.50061107 -0.8969528 -0.8668468 0.6225224 -0.56699604 -1.4098293 0.30757764 -1.112528
-0.20373212 -0.074231155 -0.13256785 -0.8298835 -0.15029056 0.5925963 -0.43291125 0.5239819
-2.0667443 1.3575844 -1.0244348 -1.9087653 1.1501968 1.4826351 -0.70227134 2.1920433
-0.0004677032 -0.039315626 -0.34161285 -0.2813523 0.7279912 0.63064235 -0.27968237 -0.4689386

self_loop_weight f4 [8, 32]
00000000: 7372 09bf 761e 84be 0002 12be 45b2 b1bd
00000010: db53 0ebf 672e 71be 1c3f e63e 0939 0c3f
00000020: 74d2 94bf 7508 773e a331 29be 800d 53bf
00000030: d448 d9bf 59a0 9bbf 76ff 82bf eece b33f
00000040: 4d8f abba ce71 f6be 9268 863e bd1b 51be
00000050: e2e5 f03e 6cc2 ccbd 1e38 993e 92a5 a03e
00000060: 846e 653f 377f 3abe 0fe4 1bbe 3f31 603e
00000070: f367 e3bd ee1e 81be 6156 67bf e5b2 853d
00000080: e929 69be 5fe3 cc3e 52e2 28bf 3682 babf
00000090: ec14 b1be ecac 8fbf 321f 59bf d6f9 a1bf
000000a0: 0b36 38bf 2924 b7be 5466 9cbf c6b8 5abf
000000b0: 4f3b 71bf cdfa 193f 1f16 873e da37 c0be
000000c0: 3599 80bf 242c c2bf 6a7c 9dbf db6e 9abf
000000d0: db01 0ebf c113 ebbe 7c46 a3bf d624 f1bf
000000e0: cf15 95bf f43e 623e f964 39bf d1ee 64bf
000000f0: 0eb4 aabd 4c81 843b 5fe4 983e 338a 0b3f
00000100: 18ff cabd 3afc bebf e371 6abe 9899 65bd
00000110: a0c3 47bf 89df 1bbe ad56 bdbe 1138 54bf
00000120: 012b 893e 83e2 eabf 1257 2a3d 7ddb b03e
00000130: 1521 633e 4e11 1ec0 c0e0 cabe 439f 783e
00000140: fd21 343e e6c6 1abf e8dc 06bf 653e ddbe
00000150: b95a 5ebf 0afc ee3e 353b a93e dc53 4d3e
00000160: 3b7e 2cbf d990 6dbf 9ec7 c6bd 607b cebf
00000170: 5ff9 89bf fb7e 59bf 11b3 d2bf 9d72 1dbf
00000180: 8604 c63d bca3 0dbe a80e d5bd 782f e9bf
00000190: 630d 98be bc75 a4bf 4258 043f c7ad fa3e
000001a0: 3fa9 81c0 45ba b8bf 9398 383e c54b 35c0
000001b0: bcbe 16c0 ec47 a3be df41 a3bd cf63 0e3e
000001c0: 02bf a03e 2242 c9bf d8ef 13bf 6007 91be
000001d0: d4ba 143e 1b2f 8fbd 0e99 49c0 60f9 bbbf
000001e0: 4bf4 96be 67a2 01c0 367a 9abf b768 92be
000001f0: dcd8 a0bf 51a5 40bf 4146 67bf 61f7 fdbc
00000200: c82f a83f 60e5 bbbf f823 bebe eca8 c4be
00000210: 7687 11be 5936 aabe cfde 293f 1b55 a93e
00000220: f124 fcbd fd75 aabf 96ec 4ebe 810d 51bf
00000230: 113c 6ebf f8d3 95bf ac95 853f 5190 6e3f
00000240: fab9 173f 0c7c 7abe 26e1 43be f825 acbc
00000250: ae4f 3fbf 7dd3 903f c9d6 d33e 82e3 19bf
00000260: 23e5 983e d983 bfbf 9413 933f febf 443f
00000270: 9936 b5be 453a a1bf 9fa0 84bf 3bb3 a53f
00000280: ce2b 8cbf bc86 7cbf 3bf6 18bf 16f8 33bf
00000290: 35ce 7cbf 2931 a33c 6b85 fbbe 30f7 68bd
000002a0: 205d 02bf 10d1 86be daca 43bf 871a 163e
000002b0: 48ea 003e 4026 453f 6f1f c2bf 3817 3cbf
000002c0: 664c fdbf 365c 1abf e67b 4bbe c340 55bf
000002d0: d912 63bf 1e27 b0bf 64ae 173f e561 06bf
000002e0: e1aa 0dbf 50ce 5abf e120 7fbf 4ce1 14bf
000002f0: 3def 51bf 92c3 bfbe 86dc a7bd d98d 79bf
00000300: baf0 f3bf 9eb3 453f 283d f0be f74c 35bf
00000310: fc25 23bf 0f7d 15bf 6947 33bf b76f 74bd
00000320: 3e24 5abf 136c b6bd a0c1 15bf ec81 44bd
00000330: dc7f 9fbf 638d 50bf c74c aebf 518b 55be
00000340: c956 4abf fcc3 ac3e cc2c 29bf e888 69be
00000350: 46b2 0b3e 90d6 6e3e fc56 35bf a1ec cabe
00000360: f403 bcbe ca89 163f 1e1d d9bf 4356 d9be
00000370: c90c c03e 6c81 8cbe 95d9 c63d f353 15c0
00000380: 1c3e 98be 8961 513e 8ad7 dbbd a90a 22be
00000390: ff78 7d3e 6528 023e f587 8f3f fc75 e5bd
000003a0: 3da0 58bc 59b1 b33e 86f2 86be 379e 32bf
000003b0: b852 b8bf eb9e 9fbf 1de2 413f cc9c 00c0
000003c0: fb80 533f 1de4 9dbe 179b 183e 2608 54bb
000003d0: 270f bb3d a9e4 afbf 23c6 e23d bf09 cabf
000003e0: f9ad 3ebe ab91 b7bd 870d ac3e a15f 5a3e
000003f0: 06dc bebe 3433 85be 72e5 23be 5bff 8bbf
-0.5369026 -0.2580449 -0.14258575 -0.0867658 -0.55596703 -0.23552857 0.44970024 0.5477453
-1.1626725 0.2412432 -0.16522841 -0.82442474 -1.697535 -1.2158309 -1.023421 1.4047525
-0.0013088972 -0.481337 0.26251656 -0.20420738 0.47050387 -0.099980205 0.29925627 0.3137632
0.8962176 -0.18212591 -0.15223716 0.21893786 -0.11103811 -0.2521891 -0.9036618 0.06528262
-0.22769894 0.4001722 -0.6597034 -1.4570987 -0.34586275 -1.1224647 -0.84813225 -1.2654369
-0.71957463 -0.35769776 -1.2218728 -0.8543819 -0.9423112 0.60148317 0.26384065 -0.3754261
-1.0046755 -1.5169721 -1.2303593 -1.206508 -0.5547158 -0.4591351 -1.2755885 -1.8839366
-1.164728 0.22094327 -0.724197 -0.89426905 -0.08335124 0.0040437337 0.29861733 0.5450775
-0.099119365 -1.4920723 -0.22895007 -0.05605468 -0.78032875 -0.1522199 -0.3698019 -0.8289805
0.26790622 -1.8350376 0.041586943 0.34542456 0.22180589 -2.4698062 -0.39624596 0.24279504
0.1759109 -0.60459745 -0.52680826 -0.43211666 -0.8685718 0.46676666 0.33052984 0.20051521
-0.6738011 -0.92799145 -0.09706043 -1.6131401 -1.0779227 -0.8495938 -1.6460897 -0.6150301
0.096688315 -0.13831991 -0.10403186 -1.8217611 -0.29697713 -1.284843 0.5169717 0.48960707
-4.05191 -1.4431845 0.18026952 -2.8327496 -2.3553915 -0.3189081 -0.07971548 0.13905261
0.31395727 -1.5723307 -0.5778785 -0.2832594 0.14524394 -0.069914065 -3.1499667 -1.4685478
-0.29483256 -2.0255373 -1.2068546 -0.28595516 -1.256618 -0.7525225 -0.90341574 -0.031001749
1.3139582 -1.4679375 -0.37136817 -0.38410127 -0.1421183 -0.3324459 0.66355604 0.33072743
-0.123117335 -1.3317257 -0.20207438 -0.8166123 -0.93060404 -1.1705313 1.0436301 0.9318896
0.5926815 -0.24461383 -0.19128856 -0.021014199 -0.74730957 1.1314541 0.41374806 -0.60112774
0.29862317 -1.4962112 1.149035 0.76855457 -0.35393217 -1.2595907 -1.0361518 1.2945322
-1.0950868 -0.9864309 -0.5975072 -0.70300424 -0.98752147 0.019920902 -0.49125227 -0.05687636
-0.5092335 -0.26331377 -0.764814 0.14658557 0.12589371 0.7701149 -1.5165843 -0.7347293
-1.978894 -0.6029695 -0.19871482 -0.83301944 -0.88700634 -1.3761938 0.59250474 -0.52493125
-0.55338866 -0.8547106 -0.99659544 -0.58156276 -0.82005674 -0.37453896 -0.081963584 -0.9748207
-1.9057839 0.772272 -0.4692166 -0.70820564 -0.63729835 -0.5839395 -0.7003084 -0.059676852
-0.8521155 -0.08907332 -0.58498573 -0.047975466 -1.2460895 -0.8146574 -1.361718 -0.20853926
-0.79038674 0.33743274 -0.6608398 -0.22806132 0.13642225 0.23324037 -0.7083585 -0.3963366
-0.36721766 0.58804 -1.6962011 -0.42448625 0.37509754 -0.2744249 0.09709469 -2.3332489
-0.29734886 0.20447363 -0.1073447 -0.15824379 0.24753188 0.12710722 1.1213366 -0.11204144
-0.0132217975 0.35096243 -0.26356906 -0.69772667 -1.4400244 -1.2470373 0.75735646 -2.0095701
0.82618684 -0.308381 0.14902912 -0.003235349 0.091337495 -1.3741657 0.11072948 -1.5784224
-0.18621053 -0.08963331 0.3360407 0.21325542 -0.3727724 -0.26015627 -0.16005495 -1.0937303

weight f4 [8, 80]
00000000: 569b 0abc 260e 16bb 88af aa39 5c02 c0b9
00000010: 0fa1 c8b4 3b89 63bd 2517 6cba 1fca 5337
00000020: faad 62bc eeb4 02bd 7a79 c7b9 e1b9 4eb5
00000030: 1399 c8bc 6472 4fbc a6c9 06ba 08ca 1f37
00000040: 1cd8 003c 7c0e 103c 0628 7ebb 18ba 9cba
00000050: 9cf0 123a bee9 1b3b 75d9 4abc abbd 02ba
00000060: 4e6c 173d a7c6 c939 f22c 823b 1b59 b239
00000070: 07d7 ebbb 52e6 7739 1dd0 98ba 951f 0b3c
00000080: 56d5 773a 791f e7bc f432 843d 82d6 2e3b
00000090: 9e4f ab3c cecb 9fba bfdd a5ba d3d0 033a
000000a0: 91df c8bc 4db2 c239 8d16 1a3a 9eb2 053c
000000b0: 4ac3 8139 81d3 f5b7 3f31 22bd b0f3 9139
000000c0: 4f6a cb3b bb41 5c3b e833 c939 a904 5cbb
000000d0: 3350 1fba 7c8f a9bc 5851 10bc 77d7 1dba
000000e0: 80e7 d93c 922a 6f3a 5f1a 93ba 2e34 613a
000000f0: 66ac 7d3b 7aad 5bba 4fe2 2d3a 882b 54ba
00000100: 8bca 0db9 f56b ce3b 1dd9 36ba 5d77 e5ba
00000110: 9170 ac3c 3eb3 333b f6aa d9ba 0ea2 03ba
00000120: 3c66 fcbc b0d8 84ba 60d6 6ebb ba47 463c
00000130: 7231 bb3a a608 34b8 7499 75bd 24b7 25b9
00000140: 1bd8 7cbe 0bf2 8dbe 3acc 1d3d c711 2cbd
00000150: 37ab e1be 474a b9be 45b7 bb3d 0b5e 0b3f
00000160: cce6 2cbf 950a 9abe 6a9d 6a3c 4e07 97be
00000170: 350b abbe 58ba 22bf 01d5 4b3e 593b 243e
00000180: af1d 643c e88f efbe 79bd ebbd fd6f 43bf
00000190: c328 583d 4d00 84bf b712 0ebf 0f41 20bf
000001a0: 3bb6 893e 006f 68bd 3817 0c3f c20e 67be
000001b0: e931 98be 6c19 f1bd 26cb a53e cbf7 173f
000001c0: 75f7 c93e d416 183f 70a8 233f 7767 4cbe
000001d0: eeec 203e 9b91 54bd 637f 693e 0c8c 133e
000001e0: 2f3f 31be c2ac 0ebf 46cb 30bf 7def 99be
000001f0: 8ecb 223d 61ee 093c 0113 d5be 1b27 fe3d
00000200: d98f 19bf e97c f4be 6a11 92be 8dbf 8dbe
00000210: d215 50bf e96f 99be 8c0b dabe 6716 b3be
00000220: 6922 a63e 09b4 3a3f 8375 f7be 4ce4 8cbe
00000230: c814 c4be 2518 e2be f46d 7cbe 4900 69be
00000240: 9f98 943f f98d 23bf d1a0 dd3d bc17 f83e
00000250: 033b 2ebf e2b0 b63e cc50 893f d58a 533f
00000260: bcd7 4cbf 7ec7 64bf 5d66 01bf 562a 28be
00000270: 2ba0 ed3e 7beb 55be f60c 8dbd a3f2 d13c
00000280: fc97 eebd d3c9 eabe cb0f d9be 41ca 6fbd
00000290: 1ea6 d7bd c070 96bf 75f2 fc3d 92b7 89bc
000002a0: cd03 e2bc a449 0cbe 8031 63bf 25d3 af3b
000002b0: ffd4 8bbd ffd2 5dbf 3d94 4dbf 7649 47bc
000002c0: 4a3e ee3d c778 f6be 200c 09be adcf 90be
000002d0: 22e3 2a3d f5c1 f13e 16b8 03be 5d00 8abe
000002e0: 5271 d4bc 5bb9 293e 0ba8 153e 2a3f 92be
000002f0: f92b 69be 3a1f 9cbc b0d5 00be 69cd cf3d
00000300: 4c06 4d3c 42c7 6dbd f1bb e53e 4a63 313e
00000310: 4bc5 0b3e b7c5 ba3e 156d 2cbe b1de d8bd
00000320: 7a9d 26be 0700 10bd e5e7 833d dd59 a13d
00000330: 9f32 9b3d 33e3 db3c 2992 c5be c334 28be
00000340: 9e90 ccbd 74ba a63d 36fc 773d 459a b0bd
00000350: f648 f9ba a99a 93be d137 8dbe 4e32 2f3e
00000360: 29af 063f 4a40 833e a822 12bf 3c75 333e
00000370: 48f3 783e 4810 96be 743e 8e3a 13c7 083e
00000380: 3f98 8d3e e7c3 f3be 94b9 7bbd 27b6 1b3e
00000390: 9ac7 35be 3a2b 51bd c7a8 ea3c 5645 9d3c
000003a0: b1fb 5abc 2f30 95be 2822 813d 1d16 50bd
000003b0: 27dc c33c b623 a63d e018 b6be 8a93 e43d
000003c0: b166 d1be 8fd1 dabe c5bd bbbe a4b2 78bf
000003d0: 89ad 873f fdaf 02c0 3d9c 03bf 212d dc3e
000003e0: 7e8e ef3e 18d6 64bf d9ce 05be b71f 6a3e
000003f0: 6048 15bf a7c7 02bf 0198 c5bd 8808 73be
-0.008459887 -0.0022896617 0.00032555708 -0.00036622852 -3.7370089e-07 -0.055550795 -0.00090061344 1.262364e-05
-0.013835425 -0.03191083 -0.00038046745 -7.701147e-07 -0.024487054 -0.01266155 -0.00051417423 9.524178e-06
0.0078640245 0.008792516 -0.003878118 -0.0011957316 0.00056053116 0.0023790444 -0.012380947 -0.0004987369
0.03696852 0.00038485715 0.003972643 0.00034017194 -0.007197264 0.00023641557 -0.0011658702 0.008491416
0.0009454092 -0.02821325 0.06455031 0.002667815 0.020911988 -0.0012191476 -0.0012654586 0.00050283707
-0.024520667 0.00037135408 0.0005877994 0.008160261 0.000247503 -2.9304765e-05 -0.039597746 0.00027838117
0.0062077413 0.0033608514 0.0003837638 -0.0033572114 -0.0006077319 -0.020698301 -0.008808456 -0.00060211815
0.026599646 0.000912347 -0.0011223069 0.0008590844 0.0038707494 -0.0008380037 0.0006633149 -0.0008093645
-0.00013522261 0.0062994906 -0.00069751014 -0.0017506887 0.02104977 0.002742007 -0.0016606736 -0.00050214014
-0.030810468 -0.0010135379 -0.0036443695 0.012102062 0.0014281704 -4.29234e-05 -0.059960797 -0.00015803851
-0.24691813 -0.27723727 0.038524844 -0.04200914 -0.4407594 -0.36189482 0.09165815 0.54440373
-0.6753967 -0.30086198 0.014319757 -0.2949776 -0.33406988 -0.6356559 0.19905473 0.16038264
0.013923093 -0.4678948 -0.115107484 -0.76342756 0.05277325 -1.0312592 -0.55497307 -0.6259927
0.26896843 -0.056746483 0.5472293 -0.22564223 -0.29725578 -0.11772427 0.32381552 0.5936248
0.39446607 0.5940983 0.6392889 -0.19961344 0.15715382 -0.051896673 0.228025 0.14408892
-0.17309259 -0.5573236 -0.6906017 -0.30065528 0.039744906 0.00841865 -0.4161606 0.124098025
-0.5998512 -0.4775155 -0.2852891 -0.27685204 -0.81283295 -0.29968193 -0.42586935 -0.3497803
0.32448128 0.7293096 -0.48331842 -0.27517927 -0.38297105 -0.44159046 -0.24651319 -0.22754015
1.1609076 -0.6388851 0.10821689 0.48455608 -0.68058795 0.35681826 1.0727782 0.82633716
-0.80016685 -0.893669 -0.5054682 -0.164224 0.4641126 -0.2089061 -0.06887238 0.025628394
-0.116500825 -0.45857105 -0.42394862 -0.058542494 -0.10529731 -1.1753159 0.123509325 -0.016811166
-0.027589703 -0.13699967 -0.88747406 0.0053657466 -0.06827735 -0.8665008 -0.8030432 -0.012163511
0.116329744 -0.4813902 -0.13383532 -0.28283444 0.041720517 0.4721829 -0.12863192 -0.26953402
-0.025932942 0.16574614 0.14614885 -0.28563815 -0.2277068 -0.019057859 -0.12581515 0.10146601
0.012513708 -0.058051355 0.4486995 0.17323032 0.1364948 0.3647897 -0.16838486 -0.1058935
-0.1627101 -0.035156276 0.06440715 0.07878468 0.075780146 0.026841735 -0.38588074 -0.16426377
-0.09988521 0.08141032 0.06054326 -0.086231746 -0.0019018936 -0.28828934 -0.27581647 0.17109033
0.52611023 0.25634986 -0.5708413 0.1752519 0.24311554 -0.29309297 0.0010852353 0.13357191
0.27655217 -0.476104 -0.061456278 0.15206204 -0.17751923 -0.051066615 0.028644932 0.019198101
-0.013365672 -0.29138324 0.06305343 -0.05080234 0.023908688 0.0811228 -0.35565853 0.11160953
-0.4089866 -0.42738006 -0.3666822 -0.97147584 1.0599834 -2.0419915 -0.51410276 0.4300318
0.467884 -0.8938918 -0.13067187 0.22863661 -0.5831356 -0.51085895 -0.09648133 -0.23733723

bias f4 [8]
00000000: c387 e4bd e64d 96bf c958 9bbf e288 bebf
00000010: 873d 2dbf 8362 36bf d737 e4bf 05ba 0ac0
-0.11158707 -1.1742523 -1.213647 -1.4885523 -0.6767201 -0.71244067 -1.7829541 -2.1676037

weight f4 [1, 8]
00000000: 7dd3 bfbc 38aa d0bd 530d 23bd f9bb adbe
00000010: d22d 5e3a 5232 f0bd 8d16 b3be 72f0 6cbe
-0.023416275 -0.10188717 -0.03980763 -0.33932474 0.00084754557 -0.11728348 -0.34978142 -0.23138598

weight f4 [4, 32, 32]
00000000: c922 aabe 8263 92bd d032 323f 941e a9be
00000010: 3ff9 04be 11fb 7fbe 5b6e 573e f893 b93d
00000020: 4ab4 8c3e 3cf9 8b3e 8b1b 0b3e 490d dcbe
00000030: 08e6 96bd 2951 db3e 2578 0d3f 660f 04bf
00000040: afe5 273e 0516 1e3e 520f 3a3f 94df 53bd
00000050: dd94 e23e 305d 66be 4f4d 6c3e d78a 61bc
00000060: c29a 283e 0c0b aebe 13bf 213c e658 47bf
00000070: f377 75bf 9a16 72bd b728 013e e2ba 8b3d
00000080: ee34 973f 1e3b 2abf 0806 363f bc82 edbc
00000090: 4534 98bf de6a 0dbf 24b9 f5bd f332 d4be
000000a0: 517d 2140 85fc e73d 5e47 fd3e f983 a4bf
000000b0: 666f 9d3e 8dd0 be3e 5e7b 0c3f 7f35 0ebf
000000c0: 2e48 433f 2a7d 943f ac7b d43e 9061 873f
000000d0: 1752 6ebe 1b26 fe3d b372 ad3d 228b b63e
000000e0: e92d ab3e 7045 dbbc 33a1 fb3e b768 443e
000000f0: 37d2 80bf 0d4e 1cbe c647 ac3d d93a 3fbf
00000100: 167e 8e3e 98e3 9a3c d9c5 5dbd f1cb 003d
00000110: 46f9 c4b9 1320 bbb9 ba47 9fbb ed49 b13a
00000120: c954 0fbc a3b4 a9b9 43e6 c63c 01a3 86b9
00000130: 224f 1938 e132 eb36 3ed9 b21d f7c4 e1bd
00000140: 7ba8 d3aa 51c1 26bd 4cef cdb3 45e1 ce3d
00000150: 6727 1e37 b39d 8c3d 095b 0f3d 9297 cb16
00000160: 275b 002e e062 a5b5 c395 36b4 21a1 252d
00000170: a3f4 1d32 b493 3b37 822b 0a1b 0b52 3c35
00000180: 613e c33c b382 b9bd ed01 aabd 8f30 8dbd
00000190: 2721 1cbe bcdb dabb 8c4c 45be 3e8f d6bd
000001a0: 005d 0b3e 0c67 463e 859c 2c3e 08f5 38be
000001b0: 2966 db3d ccef 283e 5508 533e f46a 07bf
000001c0: af38 353e e7d2 b3bd bbf2 a5be a639 bc3d
000001d0: 1d2b 383e 9748 54bc f430 dabd 129b 0cbd
000001e0: 0f1c 05bf 2d5e fb3e 355a 7ebd c6bb fd3c
000001f0: 84b7 f9be f1e2 f73c a1dc 6c3d 99db 9d3d
00000200: ef15 09bf 514a e9bb 61dd 89bd 0987 b2bd
00000210: ed2a 3abf 92ae 063e 1d93 a43d 7c1c 813d
00000220: b8b9 8c3d 8611 f0bc 49d8 c2bc 66b3 4fbe
00000230: 7185 f8bc b5d4 bd3e b98a c53e e445 5fbe
00000240: e0c9 973a 3e5c ffbd f8a9 8c3e 6511 58be
00000250: 3f8e bebd 8bac e23c 2b5f 82be 3f3f b0bc
00000260: a186 03bd abcc 64be 881f c7bb ef2f ca3c
00000270: f869 11be d793 5a3d f22b 163f c117 d43c
00000280: cf3f 823c 3a82 03be 3d9f 50bd d8bc ec3d
00000290: 0457 c1bd 4f44 f53d de82 873d f365 93bd
000002a0: 0a6a 163e 6852 6a3d eed9 c9bd ad4d f93c
000002b0: 417f 033d bddf ccbe 4d11 313d 4534 6c3e
000002c0: bf4f c3bd 0edc 873e b579 783e cdb0 693c
000002d0: 7187 49bc 1994 8cbe b5b9 a4bd 12b4 963d
000002e0: 0c77 0cbe 176a 6abd 7d44 89bd a485 4c3b
000002f0: 3b7a 8dbd 54c0 dfbd 6b03 583d e49a fd3b
00000300: a254 8f3e a844 153e a7fa ec3b 68f0 c53e
00000310: 7319 d43e 1a13 9cbe 4f77 8abf a94b ba3f
00000320: 7036 80bf 0716 88bf 3c4f 323f 3585 823f
00000330: f93a 9ebe 6487 b13e 0e83 473e 57a0 a1be
00000340: bfac 2fbd 0186 72bf a98a 50be a6fa 633e
00000350: 44f9 ef3d 54a2 ad3f 62e4 373f 9589 ab3e
00000360: 4166 423d dcb6 973f e097 563c 22dc b33e
00000370: 2398 0f3f d868 7f3f 180d 8bbe 9642 403d
00000380: 3046 443f 038d 5d3f 940e 43bd f2ac ab3e
00000390: debd 26bf b92e 91be ff0e b6be fd10 8e3e
000003a0: 97d8 63be 9056 21bf 0922 36bd 51b9 8a3f
000003b0: b859 ac3e da0c 8cbe 3d10 563a 6f59 d3be
000003c0: c68c 763f 9fad 4fbf 52a8 8fbf 63e5 0d3f
000003d0: 51eb fa3d 031d a73f 56ff 82bf 052c 03bc
000003e0: b8d0 9e3e 9b7d 923f 2316 943c 243b 693f
000003f0: 98de 0840 7855 08bf ea71 c8be 70e0 193e
-0.33229664 -0.07147886 0.69608784 -0.33031142 -0.12985705 -0.24998118 0.21038191 0.09061426
0.274813 0.27338588 0.13584726 -0.42978886 -0.07368094 0.42835358 0.5526145 -0.51585996
0.16396211 0.15438087 0.72679627 -0.051726893 0.442542 -0.22496486 0.23076366 -0.013766012
0.16465285 -0.33992803 0.009872216 -0.77870023 -0.95886153 -0.059103586 0.12613188 0.068227544
1.1813028 -0.66496456 0.7110295 -0.028993003 -1.1890951 -0.5524119 -0.119982034 -0.4144512
2.5232737 0.11327461 0.4946851 -1.2852775 0.30749053 0.37268487 0.54875743 -0.5555038
0.7628201 1.1600697 0.41500604 1.0576649 -0.23273502 0.12409612 0.08469143 0.35653025
0.33433464 -0.026766509 0.49146423 0.1918057 -1.0064152 -0.15264149 0.08412127 -0.7469917
0.2783057 0.018907353 -0.05414376 0.031444494 -0.00037569756 -0.00035691317 -0.0048608454 0.001352606
-0.008748242 -0.00032368777 0.02427972 -0.0002567992 3.655174e-05 7.009469e-06 4.734083e-21 -0.11023896
-3.7598036e-13 -0.040711705 -9.589584e-08 0.101015605 9.426708e-06 0.06866016 0.034998927 3.2892073e-25
2.918479e-11 -1.2322234e-06 -1.7004554e-07 9.414942e-12 9.194227e-09 1.1180458e-05 1.142915e-22 7.0154846e-07
0.023833456 -0.09058132 -0.083011486 -0.068940274 -0.15247022 -0.0066790264 -0.19267482 -0.1047654
0.13609695 0.19375247 0.16856582 -0.18062222 0.10712845 0.16497725 0.20608647 -0.5289757
0.17697404 -0.08780461 -0.3241175 0.09190683 0.17985196 -0.01295676 -0.10653868 -0.034327574
-0.5199594 0.49095288 -0.062097747 0.030973326 -0.48772824 0.030259581 0.057827596 0.077079006
-0.53549093 -0.007119455 -0.06731678 -0.08717162 -0.7272175 0.13152531 0.08035872 0.06304261
0.068713605 -0.02930523 -0.023784773 -0.20283279 -0.030337067 0.37076345 0.385824 -0.21804005
0.0011580549 -0.12468766 0.27473426 -0.21100385 -0.09304475 0.027670166 -0.25463232 -0.021514533
-0.032110814 -0.223437 -0.006076757 0.02468106 -0.1420058 0.053363647 0.58660805 0.025890233
0.015899567 -0.12842646 -0.05093311 0.115594566 -0.09440425 0.119759195 0.06616758 -0.0719718
0.14688888 0.057207495 -0.0985602 0.030432547 0.03210378 -0.4001445 0.04322939 0.23066814
-0.09536695 0.26535076 0.24265178 0.014263344 -0.012300358 -0.2745674 -0.08043233 0.073585644
-0.13717288 -0.05723008 -0.06702516 0.0031207586 -0.06908079 -0.109253556 0.052737635 0.0077394117
0.27994257 0.14576972 0.0072320285 0.38659978 0.41425666 -0.30483323 -1.081766 1.455434
-1.0016613 -1.0631722 0.6965215 1.0196902 -0.30904368 0.34673607 0.19483587 -0.31567642
-0.042889353 -0.94735724 -0.20365395 0.22263584 0.117174655 1.3565164 0.7183286 0.33503404
0.0474608 1.1852679 0.013097733 0.35128886 0.5609152 0.99769354 -0.27158427 0.0469385
0.766696 0.8654329 -0.047621325 0.33530384 -0.65133464 -0.2835596 -0.35558316 0.27747336
-0.22250591 -0.6302271 -0.044466052 1.0837804 0.336622 -0.27353555 0.0008165872 -0.4127917
0.96308553 -0.811243 -1.1223242 0.5542814 0.12251914 1.3055729 -1.0234172 -0.008006101
0.31018615 1.1444582 0.018076962 0.91105866 2.138586 -0.53255415 -0.3914941 0.15027022

w_comp f4 [79, 4]
00000000: c5fe 1dbf 46bb b5be a066 3d3f 37d7 09bf
00000010: 99db 1dbf 7939 a2be c3d3 233e a56c a9be
00000020: af1b b73c c30a a13d c3a3 0abe 42e0 6d3d
00000030: dabc 1ebd 2cd1 cbbe 73c0 dbbd df2b 883d
00000040: f4c9 4940 d56c fa3d d802 263f 10f2 30be
00000050: 8d9b 2d3f f0f2 ea3e 927c fbbe 9059 c93e
00000060: a1f0 353c 6ec1 a03d 0037 4ebc 2d4c 8abd
00000070: 9094 a0bf c2c4 8b3e 1b2a af3e 2178 853d
00000080: 48b8 5e3c 5648 d9bb 07e4 8cbf a35d f8be
00000090: 4e7d 0080 757d 0000 ca7a 0180 b74e 0100
000000a0: 8252 383f 47f5 58be 3740 d0be de50 7ebd
000000b0: 537f a0bf b424 0a3f f0ff 6dbf 3f39 0abf
000000c0: c137 55be 3c6c dbbe 95da 363e abbe 933d
000000d0: cfc7 a4bc 853c afbe 5720 903e 9543 cebe
000000e0: 74f3 9dbc af72 3dbf d71b e1be aa27 ac3e
000000f0: 2f88 123d d5c8 ed3d 393b 24bf 1d87 25be
00000100: dddd 1cbe 9567 61bd 29eb b33e a3aa 00bc
00000110: 02c1 a2bf 3392 913f 61fd a43f fcc1 51bf
00000120: e3a6 263e 55e2 4abf affc f93d 4088 15bf
00000130: 542f 07bf e911 78be 08de a83e c613 823e
00000140: 4b28 d13d 8d19 e1be 0fab 8b3c c9ad eebe
00000150: 3ea8 fcbe 4484 ec3d dd38 fc3e d2d4 bfbe
00000160: c460 cf3d a421 3f3d 6836 cfbe ab79 0a3e
00000170: dcfc 24be 51e6 85be 60c7 43bf 6a4a 9abe
00000180: 60be 85bc 906a c03e fa34 7bbe 7674 fb3e
00000190: acc6 8f96 e39e 4a98 4486 c119 b82d 1c98
000001a0: 39e7 77bf 9031 de3e 01d6 94bd 3d30 74bf
000001b0: 49b9 0000 eb9a 9c32 e514 0180 5e0e 0080
000001c0: cd57 60bf 6016 17be 3c36 27bf ce52 b83e
000001d0: d278 be3c 2f25 a8bf 8334 a73e 1fff 2bbf
000001e0: 32e2 a7be 9150 453f dd2f 69bf 6f1f d33f
000001f0: c92a 54bd bdac 10bf b6a6 203e 0ec5 06bf
00000200: e23f 8f35 8b2d 1dac 8692 88b9 dda4 dc31
00000210: 5365 1cbe e02c c23e bada 89bd 0c05 07bf
00000220: 3a7d 72bb 3f03 d23d 7e93 54be a5dd 7e3e
00000230: 6492 c83e dd94 1f3e 7a09 3dbf da54 b33f
00000240: 32c7 21bf 01ee 7f3f 0915 453d 00aa e2bd
00000250: 0c91 04bf d333 31bf d606 c63e 18af 663f
00000260: 67f4 1ebb 9bc5 63bd 117f 903b d083 ea3a
00000270: 0109 9a3f acbd ad3c 0960 023f f686 813f
00000280: 782e fc3d ff1c 633d 5d7e 503e 6cf7 c23d
00000290: a5a0 bdbe 63f9 763f edf6 51bf ea8f 0240
000002a0: e72b b7bd 7266 f43e a462 113e 2214 233f
000002b0: 0333 35bf a6c5 0bc0 bce9 a93f ecc1 b3be
000002c0: b8dc 3ba8 c727 80aa bf90 1c34 6b46 ceb0
000002d0: 5c2f 4384 a9d5 0000 97a0 0100 e0f6 58a9
000002e0: ca57 3d3f 2c7d 88bf 8d99 d63e 0d42 19bf
000002f0: 2386 50bf b6f3 bc3e 64e1 3e3f e4a6 17bf
00000300: a043 0080 4a4c 103a 6d12 70ae 3471 0100
00000310: bd93 0080 226a 0100 5353 11af 259a cca7
00000320: f1a9 69bf 6fb3 da3e 82c9 933f a31d b23e
00000330: 0ccc ae3f f660 3d3f f50f 17bf 21fa 2f3f
00000340: 4852 453e 380c 823e edda e5be 58d2 c63c
00000350: 6f2c ef3c 9629 d8be 701a 95be fe9f b7be
00000360: fde8 e6bd 37d7 49bf f932 ac3e ba46 56be
00000370: 619d 0000 492c 0000 c802 0f2e 7bbb 0080
00000380: c609 46bf 8364 7dbe 32d4 4b3e 1c76 12bf
00000390: 8d27 c0bf 43d4 52be 12bb b53e 8bc6 3e3f
000003a0: bbb5 73be c011 7fbe 3d23 5bbc ca96 8fbe
000003b0: 36e3 cc3c 8845 313d 8bcb da3c 2750 4abc
000003c0: d4fc 83bf efc3 12bf 7577 d2bd b131 41bf
000003d0: e0d9 9a3d c7d4 223e f15a 4bbe 9aea 003f
000003e0: 6919 f73b 084f 353f 825a c2bd c2c9 05bf
000003f0: 7242 dc3e b020 42be 9cac cd3d 30d9 60be
-0.6171687 -0.3549444 0.7398472 -0.53844017 -0.61663204 -0.31684473 0.1599875 -0.33090702
0.022352068 0.07863381 -0.13539033 0.058075197 -0.03875432 -0.39808023 -0.10730066 0.06648993
3.1529512 0.12227789 0.6484809 -0.1727984 0.67815477 0.45888472 -0.49118477 0.39326143
0.011104734 0.07849394 -0.012586355 -0.067528106 -1.2545338 0.27298552 0.3421181 0.065170534
0.013593741 -0.0066309376 -1.1007088 -0.4850894 -4.4951e-41 4.5006e-41 -1.35884e-40 1.20073e-40
0.72000897 -0.21187316 -0.40673992 -0.06208884 -1.2538856 0.53962255 -0.92968655 -0.539936
-0.2082205 -0.42856014 0.1785682 0.072141014 -0.020114807 -0.3422586 0.28149673 -0.40285936
-0.019281127 -0.7400312 -0.43966553 0.3362401 0.035774406 0.11610571 -0.64152867 -0.16164823
-0.15319009 -0.055030424 0.3514035 -0.007853183 -1.2715151 1.1372741 1.2889825 -0.8193662
0.162746 -0.79251605 0.12206399 -0.58411026 -0.5280659 -0.24225582 0.32981896 0.2540571
0.102127634 -0.43964806 0.01704934 -0.46616963 -0.4934711 0.11548665 0.49262133 -0.37467057
0.101258785 0.04666294 -0.40471196 0.13522975 -0.16112083 -0.2615228 -0.764761 -0.30134898
-0.01632613 0.375813 -0.24531928 0.4911229 -2.3228276e-25 -2.6188105e-24 2.0009962e-23 -2.018561e-24
-0.9683719 0.43397188 -0.072673805 -0.95386106 6.6468e-41 1.8231239e-08 -9.9331e-41 -5.154e-42
-0.87633973 -0.14754629 -0.6531713 0.36000675 0.023250971 -1.3136348 0.3265725 -0.6718616
-0.3278976 0.7707606 -0.9108866 1.6493968 -0.051798616 -0.5651358 0.15688595 -0.5264443
1.0672923e-06 -2.2336323e-12 -0.0002604911 6.4215855e-09 -0.15273027 0.37924862 -0.06731172 -0.52742076
-0.003700091 0.102545254 -0.20759389 0.24889238 0.39174187 0.1558413 -0.73842585 1.401027
-0.6319457 0.9997254 0.048115764 -0.11067581 -0.51783824 -0.692197 0.3867709 0.9011092
-0.0024254562 -0.055608373 0.0044096787 0.0017892066 1.2033998 0.021208607 0.5092779 1.0119312
0.12313551 0.055447575 0.20360704 0.09519848 -0.37036625 0.96474284 -0.82017404 2.0400338
-0.089439206 0.4773441 0.14197785 0.63702595 -0.7078096 -2.1839385 1.3274455 -0.35108888
-1.0428446e-14 -2.2764969e-13 1.458129e-07 -1.5008487e-09 -2.2943886e-36 7.6647e-41 1.49444e-40 -4.8175765e-14
0.7396208 -1.06632 0.41914025 -0.5986641 -0.81454676 0.36904687 0.7456267 -0.5923903
-2.4259e-41 0.0005504532 -5.4586047e-11 1.32445e-40 -5.2999e-41 1.29909e-40 -1.3217276e-10 -5.67885e-15
-0.91274935 0.42715022 1.154587 0.34788236 1.365602 0.73976076 -0.59008723 0.6874104
0.19269669 0.25399947 -0.4489359 0.024270222 0.029195992 -0.42219228 -0.29121733 -0.35864252
-0.11274908 -0.78844017 0.3363264 -0.20925418 5.6457e-41 1.5887e-41 3.2516906e-11 -6.7255e-41
-0.77358663 -0.24745373 0.19905165 -0.5721147 -1.501207 -0.20588784 0.35494286 0.745217
-0.23799793 -0.24909115 -0.013375101 -0.2804473 0.025010686 0.0432792 0.026708385 -0.012348211
-1.0311532 -0.5733022 -0.10276691 -0.7546645 0.075610876 0.1590148 -0.1985891 0.50357974
0.007540871 0.7082372 -0.09489919 -0.52260983 0.43019444 -0.18957782 0.10042688 -0.2195785

self_loop_weight f4 [32, 32]
00000000: a6c6 a0bf f493 52bf df4b 423f 998b 973d
00000010: eb7d 593f bee1 c5bf aa1d 08be 2a50 f43d
00000020: d84f b8be 2fff 40be 36c1 d1be b049 bbbf
00000030: d008 0ebf b878 86be ca04 87bd 1cde 82bf
00000040: 4ad9 32bf fa62 693d d1af a43f 95e0 553e
00000050: f4fe 2abf f45d 553e 94d5 c6bd 83ab 10be
00000060: b78a 743f ee1b b3be 06a8 0abf 178f bebe
00000070: daab b5bf e6a2 4f3e e8b6 08bf 77be 16be
00000080: 0588 b7bf 7239 ccbe 5a1c e43d 999d 363e
00000090: 5678 81bf b0ad d8bf cb2c d5be 4f0a 063d
000000a0: 6b5c 89bf 8525 41bf a4f3 8abe cfc6 643e
000000b0: d668 6dbe 98ac eabe a522 2bbf b5fd 83bf
000000c0: 4518 31bf e8db 503d 90ab 7dbf 3e28 7cbf
000000d0: 97d5 09bf 71d1 53bd c689 96bf ef4a 15bf
000000e0: 1c15 ddbe 4a55 1bbf 24cb b3be 13b8 0fbf
000000f0: 58e6 8d3f 304f 55be 7648 88bf 48a9 e8be
00000100: 1cb7 10be ccf4 0b3e 529b fb3c e56f 4fbd
00000110: 4528 39be f54e 15bd d576 963e 6a5c c6bd
00000120: 0c2c 183c f7a8 f13c 00e6 463c 7972 1d3c
00000130: fb72 a43d e867 823e b199 e2ba 83e8 fcbe
00000140: 3971 eabb 614f 22bd 13b4 29be ff25 a8bd
00000150: e25f 87b5 45bf 4c3d 5313 cda4 17f8 2138
00000160: 4070 82bc 4493 103e bd2e ab3a 4de8 83bb
00000170: 9212 8fbe f7e1 6dbb 93ba 963d c5d8 d3bb
00000180: 908e 5dbf fd61 813f a42f 36bf e065 dbbe
00000190: cc5a 5d3f 979f 5bbe df29 c73e a812 b8be
000001a0: 3239 a43e 9d11 b0be f510 93bd 79db 9b3e
000001b0: b79a c6be 2c17 243f 3a6e 943d e8be 06be
000001c0: bc6b d1be 0caa a1bf fbec 0dbf f610 2abf
000001d0: 9091 873e 0db4 9d3e 7a79 f63d 55ea 0e3e
000001e0: 0edd d7bd b585 57bf e810 4ebf f5e4 45bf
000001f0: 7194 e0be 7bf1 0e3f e657 b8bd 651f b2be
00000200: 1f9d efbe 1981 aebe 78c0 a03d 43eb 71be
00000210: 15e7 44bf 9a44 aebe d7a9 523c cf34 d7be
00000220: eefd 43bf 98ff 353d 3b26 a1bc 318a b23e
00000230: 9d6b 73bd bb2e 06bf 0daf 47bd a404 c2be
00000240: a1f5 11bf e680 bebe 8d1a 883e 3443 773d
00000250: 1253 f93d a9fd 2dbf 1fe0 77bc 0d04 79bd
00000260: b5a8 8abe c8a1 5dbe ee28 8dbe 0c7d 663a
00000270: 96d2 80be f64d 75be a0bf 36bd fd53 b1be
00000280: 9079 afbd 666f 1e3f 6047 613e f0f4 c3bc
00000290: cffd 92bd 3c62 973e 5f3e b03e a185 67be
000002a0: 4afb 9fbe f8fe c23d ab74 9fbd 1acf 87be
000002b0: ef5c 46bd 68e1 9fbe 54ad 48be 8d0d 81bf
000002c0: cf27 44be 7b01 7c3e 81b2 c4be 49c4 763c
000002d0: 8e2f 03be f5b6 82be a357 ca3c 5ddc 92be
000002e0: a375 1abe 7514 a4bd a56f 4dbe 5d54 86be
000002f0: 5dc5 763e 4df3 04be f9ce 84be 8e6b 5836
00000300: 6f4e f2be 680e c0be 731d d1bf 0e94 97be
00000310: 1e8f 95bf 7b42 b4bf 68e1 35bf 3a6e b0be
00000320: 1714 febf 3548 63bf d3cc 78bf 81ee 82bf
00000330: 189e aebf 6863 8a3f 9485 35bf 2d2b abbd
00000340: 0395 543f d41e a8bf ff0f bfbf cd63 e0be
00000350: f440 88be 3dcf 4e3f 9c99 253d 9314 2ebf
00000360: b22c ddbe ea01 babe ff74 78bf 23a7 9cbf
00000370: 005b 19c0 212e 87be df04 a2bf 9284 97bf
00000380: 1bba 6bbf 8234 15bf 7363 b1bd 5dc3 5fbf
00000390: fc00 55bf 2179 80bf 8c64 5ebe cd7b ec3e
000003a0: 7048 383e bc49 e3be a00e 18bf ec4e fabc
000003b0: 2b32 e83e 0565 eebd cde8 11be 9a96 75bf
000003c0: d334 823e 1e9f 613f fba0 053e a3fa 24bf
000003d0: a7c3 76be c1bd 4dbf 81b4 c8be f719 84be
000003e0: 4638 b1be 6212 38be 58bf c1be da71 a4bf
000003f0: 44d9 95bf 38be 82bf 2843 96bf 8793 d9be
-1.2560623 -0.8225701 0.7589702 0.07399673 0.8495776 -1.5459516 -0.13292566 0.119293526
-0.35998416 -0.18847345 -0.4096772 -1.4631863 -0.55482197 -0.26263976 -0.0659271 -1.0224032
-0.69862807 0.056979157 1.2866155 0.20886452 -0.6679528 0.20836622 -0.097087055 -0.14127927
0.9552416 -0.34982246 -0.54162633 -0.37218544 -1.419307 0.20276985 -0.5340409 -0.14721094
-1.4338385 -0.39887577 0.1113822 0.17833556 -1.0114849 -1.6928005 -0.41635737 0.032724675
-1.0731329 -0.75447875 -0.27139008 0.22341464 -0.23184523 -0.45834804 -0.6684974 -1.03118
-0.6917766 0.05099097 -0.9908991 -0.98498905 -0.5384154 -0.05171341 -1.1760795 -0.58317465
-0.43180168 -0.60677016 -0.35115921 -0.5614025 1.108592 -0.20830989 -1.0647113 -0.4544165
-0.1413235 0.13667601 0.030713711 -0.05064382 -0.18081768 -0.036452252 0.29387537 -0.09685595
0.009287845 0.029499514 0.012139797 0.009609812 0.08029743 0.254699 -0.0017288235 -0.49396142
-0.0071546105 -0.039626483 -0.16572599 -0.08210372 -1.0086189e-06 0.049987096 -8.8937315e-17 3.8616443e-05
-0.015922666 0.14118677 0.0013060194 -0.004025495 -0.27943856 -0.0036298016 0.07359805 -0.00646505
-0.8654566 1.0108029 -0.71166444 -0.42851162 0.8646667 -0.21447597 0.38899133 -0.35951734
0.32074887 -0.34388438 -0.07180969 0.30440882 -0.38789913 0.6409786 0.072475865 -0.13158762
-0.40902507 -1.2630019 -0.5543973 -0.6643213 0.26478243 0.3080143 0.120348886 0.13956578
-0.1054021 -0.84188396 -0.80494547 -0.77302486 -0.43863252 0.5583722 -0.0900114 -0.34789577
-0.4679956 -0.3408287 0.078492105 -0.23624901 -0.76915103 -0.34036714 0.012857876 -0.42032477
-0.7655934 0.044433206 -0.01967155 0.34871057 -0.0594288 -0.52415055 -0.048750926 -0.37894166
-0.57015425 -0.37207717 0.26582757 0.060366824 0.121740475 -0.6796518 -0.015129118 -0.06079488
-0.27081838 -0.21643746 -0.2757029 0.0008792437 -0.25160664 -0.23955521 -0.04461634 -0.3463439
-0.08568108 0.6188873 0.21999884 -0.023920506 -0.071773164 0.29567134 0.34422585 -0.22609569
-0.31246406 0.09521288 -0.077859245 -0.26525193 -0.048428472 -0.3122666 -0.1959737 -1.008226
-0.19155811 0.2460994 -0.38417438 0.015061446 -0.1281111 -0.2553021 0.024699992 -0.2868375
-0.15083937 -0.08011714 -0.2006212 -0.2623624 0.24098726 -0.12983437 -0.25939158 3.2249113e-06
-0.47325465 -0.3751099 -1.6337112 -0.29605144 -1.1684301 -1.4082788 -0.7104707 -0.34459096
-1.9849881 -0.88782054 -0.97187537 -1.0229036 -1.3641996 1.0811586 -0.7090695 -0.083578445
0.83039874 -1.3134408 -1.4926757 -0.43826142 -0.26612055 0.8078497 0.040429696 -0.68000144
-0.43198162 -0.36329585 -0.9705352 -1.2238506 -2.3961792 -0.2640238 -1.2657737 -1.1837332
-0.9208085 -0.58283246 -0.086615466 -0.87407476 -0.8320463 -1.0036966 -0.21718043 0.46188203
0.17996383 -0.44392192 -0.59397316 -0.030555211 0.45350775 -0.11640362 -0.14248963 -0.95932925
0.25430927 0.8813342 0.1304969 -0.6444494 -0.24098073 -0.80367666 -0.39200214 -0.2580106
-0.34613246 -0.17975762 -0.37841296 -1.2847245 -1.1706929 -1.02143 -1.1739244 -0.42495367
