experiments/grail_wn_v3/best_graph_classifier.pth (torch, 102572 bytes, 21 tensors)

weight f4 [11, 32]
000000 cd b5 3d 3d cd e3 08 3d e3 5f 83 3c 5c db 03 3d
       0.046315957 0.033420373 0.016036933 0.03219162
000010 75 eb bd 3c 44 a8 8c 3a 76 b4 88 bd ff 51 06 3d
       0.023183564 0.0010731299 -0.06675045 0.03279304
000020 e4 25 8b 3c f2 e0 91 3d 0c 97 21 3d b7 75 0d bd
       0.016985841 0.07122983 0.03945069 -0.03453609
000030 23 15 d6 3b da 93 13 3d 2c 69 44 3c b2 ae a1 b9
       0.0065332814 0.036029674 0.011987966 -0.0003083847
000040 c1 13 18 bd 54 e2 95 bc c7 2a 13 3d eb 3b 98 3c
       -0.037128214 -0.018296398 0.035929468 0.018583259
000050 6d ce 54 3d e7 09 28 be 1b f6 fa bc 28 7b a6 3d
       0.051954675 -0.16410027 -0.03063493 0.08128959
000060 05 fb c8 bb 97 d8 1e bd 5d 53 2d bc 04 3f 76 3a
       -0.0061334395 -0.038780775 -0.010578957 0.00093935453
000070 ed e2 c2 3d d4 4a 26 be f3 0a 0f bd 0a 5b d8 3d
       0.09515939 -0.16239482 -0.03492255 0.10564239
000080 81 ef 98 3e 34 b0 d0 be 08 a2 a1 be ec 66 fd 3e
       0.29870227 -0.40759432 -0.31568933 0.49492586
000090 f2 8f d1 be 45 af d8 be 34 13 94 be 63 54 01 bf
       -0.40930134 -0.4232122 -0.289209 -0.5051939
0000a0 46 36 9e 3e f2 6f 05 bf 46 7c cc be ec c3 9e 3e
       0.30900782 -0.5212394 -0.39938563 0.31008852
0000b0 ab 54 00 bf 0a 67 ea 3e 41 5e b3 be 95 64 d2 be
       -0.50129193 0.45781738 -0.35032848 -0.41092363
0000c0 cd 1a e2 be 5f b0 e0 be 14 27 98 3e cd ea dc be
       -0.44161072 -0.4388456 0.29717314 -0.4314789
0000d0 40 9d 86 3e 59 55 cd be 38 76 a4 3e dd f0 9c 3e
       0.26291847 -0.40104178 0.32121444 0.30652514
0000e0 a8 53 f4 be 97 e0 e2 be 91 16 01 3f fc ca 94 3e
       -0.47720075 -0.44311973 0.5042506 0.29061115
0000f0 1e 11 9b 3e 59 00 cd be 8e 84 d3 3e d2 6a 99 3e
       0.30286497 -0.40039328 0.4131207 0.2996431
000100 49 55 23 bd 9e a8 37 be 4a 49 01 be 1f d6 6b 3e
       -0.039876256 -0.17935416 -0.12625614 0.230309
000110 7c f2 42 be 81 08 61 be fc f7 8d 3d fe 7e 23 be
       -0.19037813 -0.219759 0.06932065 -0.15966412
000120 dd 23 1a 3c c5 44 0f 3d 71 d1 d6 bd 9c 8b e5 3d
       0.009407965 0.034977693 -0.104891665 0.11208269
000130 9e 36 57 be 2e 1b 72 3e a8 80 ef bd 45 55 62 be
       -0.21016929 0.2364318 -0.11694461 -0.2210284
000140 02 87 75 be cc 47 6c be 59 2f eb bc 55 ab 3c be
       -0.23977283 -0.23074263 -0.0287091 -0.18424733
000150 64 fa 13 3e 9d 53 41 3e c1 bf 87 3e ea 5d 57 3e
       0.14450985 0.18879552 0.26513484 0.21031919
000160 97 9d 80 be 29 44 76 be f4 39 52 3e 5a 8c 1d 3e
       -0.25120232 -0.24049439 0.2052992 0.15385571
000170 ec e0 5e 3e a4 6b 6e 3e 58 23 14 3e b2 12 66 3e
       0.21765488 0.23283249 0.14466608 0.22468069
000180 40 b8 6b 39 8a 35 27 38 ae bd 9b 36 c9 b1 18 b8
       0.00022479985 3.9865765e-05 4.6414416e-06 -3.64052e-05
000190 a1 0a c7 b5 78 f9 7c 35 c5 51 27 b9 c8 ea 34 b5
       -1.4829749e-06 9.424034e-07 -0.00015956823 -6.7396877e-07
0001a0 84 16 94 39 5b 9b 82 b6 2f 0f 9b b5 cc 3e 16 b7
       0.00028245535 -3.8923877e-06 -1.1552819e-06 -8.955318e-06
0001b0 08 cb 6b 37 20 0d 83 b7 ef 4d 2a 37 35 57 3c 37
       1.4054363e-05 -1.5622529e-05 1.0150935e-05 1.1225978e-05
0001c0 dd c1 be 36 4a 02 c7 36 86 e6 7f 39 f7 c4 fa 37
       5.68501e-06 5.9309286e-06 0.00024404572 2.9894041e-05
0001d0 e5 a4 ad b6 87 22 c2 36 1a 9a 26 3b 7b fc 5f 38
       -5.174998e-06 5.78567e-06 0.0025421442 5.3402484e-05
0001e0 ed 31 33 b9 3f e9 b6 36 f6 68 80 b7 f7 b8 fc b6
       -0.00017089369 5.451176e-06 -1.5307665e-05 -7.531718e-06
0001f0 80 80 7c 38 09 27 cd 35 aa 53 13 36 ca 94 6f 38
       6.0201157e-05 1.5285051e-06 2.1953406e-06 5.712061e-05
000200 cc 75 5d bd a5 37 a2 3d a3 2b 4d 3d 4b 8a c2 bd
       -0.054067418 0.079207696 0.050090443 -0.094990335
000210 68 f0 9a 3d d4 90 9a 3d 7c 70 59 3d 05 16 cf 3d
       0.07565385 0.07547155 0.05308579 0.10111622
000220 3c d8 66 bd a5 30 dc 3d e5 2d a4 3d a4 11 6a bd
       -0.05635856 0.10751466 0.08016566 -0.05714573
000230 50 2c c9 3d 61 49 aa bd 0c 76 83 3d 1f 7f 90 3d
       0.09822905 -0.08314777 0.06419 0.070554964
000240 ab ad a2 3d 9f 4e 9f 3d 5c 98 5e bd 62 ee a3 3d
       0.07943281 0.07778668 -0.05434452 0.08004452
000250 4b b6 1a bd 93 e6 99 3d 95 52 00 bd e9 78 3f bd
       -0.037771504 0.07514682 -0.031328756 -0.04674617
000260 65 c5 be 3d b5 9d a3 3d 1b 50 cb bd d2 86 2f bd
       0.09314994 0.079890646 -0.09927388 -0.042853184
000270 24 88 33 bd 77 1d 99 3d e3 1f a5 bd ff 2d 2a bd
       -0.043831006 0.07476323 -0.080627225 -0.04154777
000280 14 7d 8f 3e 79 a6 91 be 7c 7b 90 be d5 2c 92 3e
       0.28025115 -0.2844732 -0.2821921 0.2854983
000290 b3 cd 91 be cc 28 92 be cb 21 8f be 04 de 91 be
       -0.2847725 -0.2854675 -0.2795547 -0.28489697
0002a0 e9 da 8f 3e 34 87 91 be cb 3e 91 be 3d 78 90 3e
       0.28096703 -0.28423464 -0.2836822 0.28216735
0002b0 4b 24 92 be 4d 4a 92 3e 4b ea 90 be 17 0e 92 be
       -0.28543314 0.28572312 -0.2830375 -0.28526375
0002c0 1f 59 92 be 76 51 92 be 7e 7b 8f 3e 80 e0 91 be
       -0.2858362 -0.28577775 0.28023905 -0.28491592
0002d0 90 d8 8f 3e 10 18 8f be af 1b 92 3e 9e 51 90 3e
       0.28094912 -0.27948046 0.28536746 0.2818727
0002e0 39 73 92 be 20 57 92 be b5 1d 92 3e a7 7c 90 3e
       -0.28603533 -0.28582096 0.2853829 0.28220102
0002f0 51 46 90 3e b7 1d 8f be c4 64 91 3e ca 3d 90 3e
       0.28178647 -0.27952358 0.2839719 0.2817214
000300 37 8a 31 3d 7e 6f 07 3c 9e 22 e9 3c 1c 1b c4 bb
       0.043344703 0.008266328 0.02845889 -0.005984677
000310 78 da 73 3c 8c 0a a7 3c 5b 99 22 bd dd 39 cf ba
       0.01488363 0.020390771 -0.039697032 -0.0015810091
000320 bf 6c 30 3d ce 7d 4b bc 59 db 1e 3c b6 10 d1 bc
       0.04307246 -0.012420131 0.009695851 -0.025520664
000330 69 7b 89 3b c2 d2 94 bc c9 cb b0 3c f0 9b 35 3c
       0.00419562 -0.018166903 0.021581547 0.011084542
000340 f0 72 91 3c 5d 3b a6 3c f9 94 20 3d 97 bb b3 3b
       0.017755002 0.020291978 0.03920457 0.005485009
000350 22 d2 3d bd 41 a1 6b 3b ab a6 91 bc fc 87 05 3d
       -0.046342976 0.003595427 -0.017779669 0.032600388
000360 eb 49 be 3b b9 75 92 3c dd 64 30 bb fe 5a 35 bd
       0.0058071516 0.0178784 -0.0026915588 -0.04427623
000370 f9 65 00 3d 67 47 39 b8 1a c9 13 bc 4b 7f f9 3c
       0.03134725 -4.4173936e-05 -0.009020114 0.030456206
000380 fb de a6 27 9e 4d 8b a5 47 cb 95 a7 3a f1 8b 25
       4.631601e-15 -2.4165252e-16 -4.15762e-15 2.4276118e-16
000390 10 87 e2 27 4f a7 24 28 47 64 18 a7 f3 16 77 a8
       6.2874036e-15 9.140108e-15 -2.1148598e-15 -1.3716231e-14
0003a0 71 92 4f 27 d4 78 a3 a6 25 76 8e 27 77 04 83 a8
       2.8806407e-15 -1.1343148e-15 3.954101e-15 -1.4545858e-14
0003b0 ab 69 33 28 2b c8 22 a7 10 9d 51 a7 95 b5 f5 a6
       9.959409e-15 -2.2590528e-15 -2.908972e-15 -1.7049508e-15
0003c0 8d a7 06 a8 50 bd 4e a7 1e dc 47 27 14 c2 a5 a6
       -7.474826e-15 -2.869087e-15 2.7736124e-15 -1.150178e-15
0003d0 58 1b 60 a8 56 e9 8f 27 71 c4 7d 27 45 24 74 a7
       -1.2440427e-14 3.9943456e-15 3.5217294e-15 -3.3881464e-15
0003e0 f0 42 20 a4 4c 58 53 27 fd 08 f2 27 2c 7e ea a7
       -3.4751168e-17 2.9329998e-15 6.717824e-15 -6.5084843e-15
0003f0 ba dd 18 a7 e0 0e 38 a8 92 49 2e 28 a9 5e b9 26
       -2.1214436e-15 -1.0217277e-14 9.674893e-15 1.2862611e-15

weight f4 [4, 8, 32]
000000 2b 12 17 3f 06 66 9b 3a dd bb 00 80 2c 02 a9 28
       0.590121 0.0011855967 -6.7393e-41 1.8763711e-14
000010 10 62 1f 3e fa 7c 45 be a5 7d 89 38 39 7e f2 3d
       0.15564752 -0.19285956 6.556072e-05 0.11840481
000020 31 98 2d 1c 2a 2e 10 3f 8a 1a bd 3d ba 2a d5 37
       5.74376e-22 0.5632044 0.092335775 2.5411475e-05
000030 a2 62 4c bd 15 90 fb ba 9f a9 99 bf 3d cb f0 bd
       -0.04989875 -0.001919272 -1.2004889 -0.117575146
000040 a5 0b d3 35 ff 40 69 be 79 81 48 10 5c 35 18 bf
       1.5724114e-06 -0.227787 3.9542787e-29 -0.5945642
000050 25 dc aa bc 9b 04 cc 39 1a 73 00 80 7a 49 3f 2e
       -0.020856926 0.00038913343 -4.129e-41 4.3493632e-11
000060 d5 18 01 bf 7b 97 96 3d a2 57 21 2d 3b f7 0c 3f
       -0.50428516 0.07353111 9.171249e-12 0.55064744
000070 4d 35 25 bf 90 b5 92 34 e5 55 c8 31 2f 4d b6 98
       -0.64534456 2.7326723e-07 5.830531e-09 -4.7123833e-24
000080 47 bf 61 3f 3c dc e1 b4 20 a6 e0 ac 69 ba 4a 24
       0.8818249 -4.2069757e-07 -6.3849065e-12 4.3959663e-17
000090 84 d7 b0 3d ec 16 4f 3e b6 90 63 b6 96 e7 35 be
       0.08634856 0.20223588 -3.3909869e-06 -0.17764124
0000a0 a4 a0 d2 ac cb 40 c0 3e e3 c6 e7 bc be 91 04 b7
       -5.9863937e-12 0.37549433 -0.028293079 -7.901746e-06
0000b0 dd 91 ef 3c 67 0d 33 3c ba 15 c0 bf 16 b3 b1 3e
       0.029244358 0.010928488 -1.500663 0.34706944
0000c0 59 c5 3a a9 24 7e 1c 3d 40 de 16 10 bb ff 48 bf
       -4.147147e-14 0.038206235 2.97535e-29 -0.78515214
0000d0 e6 dd ee 3e 6e a7 f8 2e 9f 2f 00 00 b3 88 4b 38
       0.4665367 1.1307476e-10 1.7083e-41 4.8526283e-05
0000e0 62 5b 37 bf a1 f1 4d 3a 7e 37 28 b0 4a 84 e0 3c
       -0.71623814 0.0007856135 -6.1196903e-10 0.02740683
0000f0 1d 4d b5 bf 71 9f cf ab 3a a8 83 21 46 d7 de 2b
       -1.4164158 -1.4752489e-12 8.921434e-19 1.5833799e-12
000100 f5 24 4a 3e e6 83 20 ae 52 87 9b 2b 3b c9 0b 23
       0.1974066 -3.6496937e-11 1.1050971e-12 7.577817e-18
000110 17 0d 92 3c 62 d3 42 3d b2 fa 63 b5 53 c8 b1 3e
       0.017828507 0.04756487 -8.49289e-07 0.34723148
000120 21 91 be 85 9a 1b 24 3f 37 ce 1d 3d 66 a1 7b b9
       -1.7920826e-35 0.64104617 0.03852674 -0.00023997351
000130 e0 59 02 3d b9 01 4c 3b 22 76 73 3f f4 f1 c0 3e
       0.031823993 0.0031128956 0.9510213 0.37684596
000140 29 b0 2a 30 57 78 07 3e b1 02 eb 01 17 b2 24 bf
       6.209598e-10 0.132295 8.632923e-38 -0.64334244
000150 5e 3d 05 3c 8e dc 00 00 59 d1 00 00 a6 bf 06 b9
       0.008132307 7.912e-41 7.51e-41 -0.0001285063
000160 3e 98 31 3e 63 84 00 80 ea 4f a1 05 63 05 e9 bb
       0.17343232 -4.7491e-41 1.5169723e-35 -0.007111238
000170 b3 2d 04 3f a1 1f 00 00 44 96 00 80 08 50 16 29
       0.5163223 1.1346e-41 -5.3905e-41 3.3376107e-14
000180 ca cf da bd 3d 7b 15 3c 0d 50 00 80 2f 68 00 00
       -0.10684164 0.009123621 -2.8717e-41 3.7374e-41
000190 9e 4b f0 ba c5 9a 6f be 54 8d 79 2d 82 ee bb be
       -0.0018333083 -0.23398884 1.41853924e-11 -0.36705405
0001a0 0b 2f 00 80 fe a1 d0 be 91 16 95 3b d3 65 ff a8
       -1.6876e-41 -0.4074859 0.0045498093 -2.8354846e-14
0001b0 a1 a1 db 3a cf 49 00 80 1e c0 14 3f 32 a1 a1 bd
       0.0016756543 -2.6478e-41 0.5810565 -0.07892074
0001c0 3a 0c 00 80 8b e6 28 be 85 4e 00 80 1c 9d 2e 3f
       -4.386e-42 -0.16494195 -2.8168e-41 0.6820848
0001d0 f7 8d 58 3c 8d 1e 21 00 75 73 00 00 ae ae ee 3a
       0.013217441 3.041531e-39 4.1418e-41 0.0018210018
0001e0 ad 00 a9 3d 02 da 00 00 82 c4 eb a2 10 16 c0 bc
       0.08252082 7.8206e-41 -6.390494e-18 -0.02344802
0001f0 4a 61 8b 3e b4 8a 00 00 d8 be 00 00 bc 9d 00 00
       0.27222663 4.9757e-41 6.8462e-41 5.6584e-41
000200 05 a1 8a 3e 21 dd 01 80 a7 18 a3 a6 29 62 f0 96
       0.27075973 -1.71162e-40 -1.1317079e-15 -3.883604e-25
000210 d5 dd 2b bc 4f ee 12 3d ad db 1c b1 28 f5 89 bf
       -0.010489901 0.0358718 -2.282586e-09 -1.0777941
000220 11 3f 6a aa da db 76 3e d2 16 7c 39 73 05 75 23
       -2.0805256e-13 0.24107304 0.00024041094 1.32826305e-17
000230 cf 82 de 37 7e 46 44 30 ff e0 28 c0 94 fb d6 37
       2.6525375e-05 7.140456e-10 -2.6387327 2.5627938e-05
000240 8d 04 00 98 72 0d bc 36 f0 2f 01 80 18 3a d2 bf
       -1.654591e-24 5.604402e-06 -1.09032e-40 -1.6423979
000250 4f 34 3e 3a 09 71 04 80 4f c1 00 80 50 56 a1 a6
       0.00072557194 -4.07891e-40 -6.9346e-41 -1.1195014e-15
000260 f5 b9 93 3c 6b c9 4d 3a ee 1c 01 80 38 9f 04 81
       0.018033007 0.0007850143 -1.02214e-40 -2.4358805e-38
000270 da cb e5 bd aa 85 00 80 85 07 00 80 4c 9d 4d 28
       -0.11220522 -4.795e-41 -2.697e-42 1.1413894e-14
000280 65 8f 5e 3f c1 02 4e 3b b4 9b ac 2c 45 b1 f5 2f
       0.8693755 0.0031434747 4.9058205e-12 4.4691198e-10
000290 b1 11 95 3e f1 6f 56 be be c7 09 3b 6d cf 2a 3f
       0.2911506 -0.2094114 0.0021023597 0.66722757
0002a0 d2 04 b5 27 0a 59 ec bd 7a 50 07 3e 5b f1 e7 3a
       5.024282e-15 -0.1154042 0.13214293 0.0017695831
0002b0 a8 89 95 bc 70 06 a3 3c 3f 9c b5 3f c8 ba 4a be
       -0.018254116 0.01990053 1.4188308 -0.19797814
0002c0 4d c7 80 37 ec 45 37 be fe c1 bb 17 c6 43 87 3e
       1.5351596e-05 -0.17897767 1.2133562e-24 0.26418895
0002d0 b5 ad 20 3e 72 4f 03 3a fb 59 00 80 20 d9 02 3c
       0.15691264 0.00050090917 -3.2279e-41 0.007986337
0002e0 e7 28 90 3e c3 8c 96 3d 32 2b 52 33 a9 37 12 3f
       0.28156206 0.07351067 4.893372e-08 0.5711618
0002f0 7a 7b 36 bb d5 44 66 35 90 99 01 35 42 7b a3 2a
       -0.0027844594 8.578184e-07 4.827971e-07 2.9040144e-13
000300 d4 6b bd 3e 95 1b a3 3a 62 db 00 19 86 31 01 00
       0.3699633 0.0012444133 6.661749e-24 1.09601e-40
000310 07 c3 82 bc 51 d1 f6 3d 71 a5 2f b2 62 06 a6 be
       -0.015962137 0.12051643 -1.0223958e-08 -0.32426745
000320 d4 26 00 80 d3 87 dd 3e e9 aa 52 3c 03 8a 1a b7
       -1.3929e-41 0.43267688 0.012858131 -9.211249e-06
000330 ea 6f 98 3d 87 0a 07 3b b5 74 80 bf 41 0f 56 3c
       0.07443221 0.002060564 -1.0035616 0.01306516
000340 4e 18 d6 28 20 a2 04 3d 35 c1 25 1d f0 97 8f be
       2.3769313e-14 0.032381177 2.1937454e-21 -0.28045607
000350 b9 ae 4d 3e 14 4c 86 9b 93 19 00 00 6a ef 18 38
       0.20086183 -2.2217605e-22 9.174e-42 3.6462596e-05
000360 5b 84 38 bf ef 07 00 00 1b 8b 5f ae fc 2f 88 bb
       -0.7207696 2.846e-42 -5.082788e-11 -0.004156111
000370 82 97 9d bf d3 d8 cb 83 40 0f 00 80 e2 42 df 8c
       -1.2311862 -1.1981048e-36 -5.47e-42 -3.4398844e-31
000380 6a 70 07 3d 75 1d 00 00 fe c0 00 00 9b 64 00 80
       0.03306619 1.0567e-41 6.9233e-41 -3.609e-41
000390 4f ff 51 b9 bc 60 6e 3e 5e 77 00 00 99 3c ee 3d
       -0.00020026903 0.23279089 4.2821e-41 0.11632652
0003a0 dc 8b 00 80 ad 99 26 3f 03 2b 03 3c c1 42 10 00
       -5.0172e-41 0.6507824 0.00800586 1.493315e-39
0003b0 c6 fc 12 be b8 78 87 37 1d 09 3d bd 25 2d 28 35
       -0.14354238 1.6149468e-05 -0.04615127 6.265057e-07
0003c0 f4 96 00 80 70 12 62 8f bd 08 00 00 76 26 4d 3e
       -5.4152e-41 -1.1146211e-29 3.135e-42 0.20034203
0003d0 a3 5a 13 38 34 93 01 80 b6 4d 00 80 b0 e0 00 80
       3.5131943e-05 -1.44642e-40 -2.7877e-41 -8.0603e-41
0003e0 ef b0 16 bf 7d 44 00 00 ad 22 01 00 8c 3c 00 80
       -0.5886373 2.4569e-41 1.04275e-40 -2.172e-41
0003f0 c0 b9 31 bf e4 f8 79 12 df 72 00 80 c6 07 01 80
       -0.69424057 7.8877328e-28 -4.1208e-41 -9.4624e-41

w_comp f4 [11, 4]
000000 22 8f 92 bf e1 72 19 3f fb 16 25 3e e3 4b 9b be
       -1.1449931 0.59940916 0.16122048 -0.30331334
000010 3a 95 42 bf 04 ac 26 3f aa 59 dc 3e 7c 22 a2 bc
       -0.7600895 0.65106225 0.43037158 -0.019791834
000020 6b a2 89 be 4b 53 a0 3e 8e 3a ee bc 94 b3 8a be
       -0.26881728 0.31313547 -0.029080655 -0.27090132
000030 60 2e 41 bf a1 41 8e bc b6 97 28 3e a3 dd 98 3d
       -0.7546139 -0.017365279 0.16464123 0.07464149
000040 f1 3e 5e bf b2 74 b6 3d 54 d2 fe 3e fc d1 4e be
       -0.8681479 0.089089766 0.49769843 -0.2019729
000050 8c c8 bf bf cc 22 6c bf c5 48 ea be a0 55 a1 3c
       -1.4983077 -0.92240596 -0.45758644 0.01969415
000060 47 79 ec bf f9 26 56 be 71 9f 6b bf d1 72 84 be
       -1.8474511 -0.20913304 -0.92040163 -0.25868848
000070 d5 3e 28 3f ef f2 33 3c 0e 5b 2c be e8 f3 2e be
       0.65720874 0.010983213 -0.1683161 -0.1708523
000080 6e 0f d4 bd c1 bc 69 3c 2b 55 58 bc d7 67 3b bd
       -0.103545055 0.014266194 -0.013203899 -0.045753326
000090 5a 45 33 3e 77 84 c4 bd f5 ca 9c 3d 92 99 05 3e
       0.17506924 -0.09595578 0.076558985 0.13046864
0000a0 ea 06 95 3d d8 29 b7 bd 83 45 1d bd 84 4b 99 bd
       0.072767094 -0.08943528 -0.03839637 -0.074851066

self_loop_weight f4 [8, 32]
000000 4f 65 01 00 b5 a9 04 39 90 e9 61 b5 9d cd fb aa
       1.28178e-40 0.00012651722 -8.415891e-07 -4.472923e-13
000010 0c d3 12 be 8d 8d 67 be 01 5f 89 bd c3 ef 09 bf
       -0.1433832 -0.22612591 -0.06707574 -0.5388147
000020 20 66 48 b5 50 12 be be 41 a9 02 be 68 51 44 bd
       -7.465442e-07 -0.37123346 -0.12759878 -0.047929198
000030 b9 e7 26 be f3 27 93 bc 6d c3 04 3f 2e 28 bf be
       -0.16299333 -0.017963385 0.51860696 -0.37335342
000040 b4 63 78 20 78 96 68 bd cd 8b 00 00 ee ac b8 3e
       2.1039406e-19 -0.056784123 5.0151e-41 0.36069435
000050 9b 94 27 bd cf 61 00 80 ed 53 00 80 dd 09 b1 bc
       -0.040913206 -3.5087e-41 -3.0107e-41 -0.021611148
000060 08 ad 00 00 22 50 85 bd 53 68 cd 05 63 04 00 80
       6.2072e-41 -0.06509425 1.931643e-35 -1.574e-42
000070 c7 b9 06 ac 59 96 bd a1 ab c7 6b 08 03 76 ec 38
       -1.9145672e-12 -1.2846935e-18 7.095245e-34 0.00011275338
000080 37 cc 6c 3e 46 d7 83 bd dc 9c 61 b5 ac 40 f4 b7
       0.23124777 -0.064375445 -8.404729e-07 -2.9117182e-05
000090 e4 82 0d be f8 e5 0c be be 80 8d bc 1c 75 67 3d
       -0.13819462 -0.13759601 -0.017273303 0.05650817
0000a0 8e 7d 42 b0 c2 a5 8e bf 23 cf 1f be a5 cb d6 bb
       -7.0755213e-10 -1.1144335 -0.1560636 -0.006555038
0000b0 c3 36 7e be 8a 9a ea bc 83 4c 54 3e 40 6a 6c be
       -0.24825577 -0.028638143 0.20732312 -0.23087406
0000c0 ff e3 68 b7 c3 de 91 be 13 0c a1 ae a4 5c ba 3e
       -1.3881362e-05 -0.28490266 -7.323577e-11 0.36398804
0000d0 c7 56 aa be f1 c7 d1 bd 85 95 6e a8 c3 d3 82 ba
       -0.3326933 -0.10243214 -1.3244076e-14 -0.0009981323
0000e0 e7 fe 96 bd e4 5a 0c be 45 76 f5 bb 68 b0 55 be
       -0.073728375 -0.13706547 -0.0074909055 -0.20868075
0000f0 77 32 b1 3e 3d 37 cb ba 68 28 2b ba b7 37 82 ab
       0.34608814 -0.0015504133 -0.00065291533 -9.25252e-13
000100 5c 43 51 be aa e0 ee bc 0b 90 2a b4 41 a0 c4 ba
       -0.20435852 -0.029159863 -1.5884886e-07 -0.0015001373
000110 da 8f a6 3b f2 2d 46 3e 55 4b 3c bd 9c f5 65 bf
       0.0050830664 0.19353464 -0.04597028 -0.89827895
000120 b6 66 a7 af 0b 87 7d 3f 8f e8 c0 bd 70 a4 ac 3b
       -3.0450104e-10 0.99034184 -0.09419357 0.005268626
000130 ca 13 40 3d b9 76 f4 3c b9 08 09 bf 60 ef 48 be
       0.046893872 0.029841768 -0.53528935 -0.19622564
000140 1b 2d 74 bb ad 21 4c 3e 19 69 03 8f 11 fc 14 be
       -0.003725833 0.19934721 -6.47904e-30 -0.1454928
000150 80 85 6b bd bb f2 a3 9e 3c ec d4 a4 da 17 ac bb
       -0.057500362 -1.7358687e-20 -9.234054e-17 -0.0052518668
000160 75 1d 10 bf 47 7d a7 bb 30 90 5c bc 24 5c fd bd
       -0.5629495 -0.00511137 -0.013462111 -0.1237109
000170 6b 5e d8 be 5a 84 9c a9 2b c3 98 ab 13 d7 f1 a6
       -0.42259535 -6.950751e-14 -1.085442e-12 -1.678103e-15
000180 e4 b1 6e 3e c7 df 57 b7 34 29 52 94 44 0b 19 af
       0.23310047 -1.2867101e-05 -1.06104164e-26 -1.3919271e-10
000190 4a e2 59 bc b7 f7 39 3e 46 c2 55 bc 7e 7b 78 be
       -0.01329858 0.18160902 -0.013046807 -0.24265859
0001a0 20 86 00 00 f9 03 0f bd 38 d7 a1 bd 41 39 e4 b5
       4.8115e-41 -0.034915898 -0.07902378 -1.7003987e-06
0001b0 d8 3d 59 3e cd a3 d9 b6 ef d3 c5 bf a2 64 12 3e
       0.21214998 -6.486173e-06 -1.5455302 0.14296201
0001c0 68 b3 b1 35 f0 02 52 3d 31 38 03 9e b8 bb e6 be
       1.3239742e-06 0.051272333 -6.946702e-21 -0.45065093
0001d0 e6 2c 92 3d 89 05 01 00 85 71 bd 97 28 1a 71 3c
       0.0713747 9.3821e-41 -1.2242495e-24 0.014715709
0001e0 99 9f 59 3e 82 73 00 80 71 1c 27 b5 23 6d 09 3d
       0.21252288 -4.1436e-41 -6.2253736e-07 0.033551347
0001f0 a5 1a 9f be 83 5f 00 00 46 bb 00 00 fa da 00 00
       -0.31075016 3.4263e-41 6.7181e-41 7.8554e-41
000200 0b f0 08 3f bd 36 89 bd 88 95 00 80 84 72 b1 b4
       0.53491277 -0.066998936 -5.3642e-41 -3.305214e-07
000210 af ae 89 39 d0 52 c3 3d 05 d9 d9 ba 57 16 91 3d
       0.00026260826 0.095372796 -0.0016620463 0.07084339
000220 9a 38 01 00 a1 15 01 80 eb e8 95 3d 1d cb 2b ba
       1.1214e-40 -9.9594e-41 0.07319816 -0.00065533986
000230 7c 55 00 be 11 33 fe bb 6e 17 5e bf 98 57 13 be
       -0.1253261 -0.0077575524 -0.867545 -0.14388883
000240 bd 36 c5 a9 3c f9 20 3d 25 bf 50 a5 76 68 41 3e
       -8.758053e-14 0.03930019 -1.8105886e-16 0.18887505
000250 9c 42 1f 3d 83 70 e4 3a d6 18 68 a8 6e 9a 4c bb
       0.038881883 0.0017428551 -1.28839725e-14 -0.0031219977
000260 8c a1 02 40 d1 e8 c9 bd b5 0c 71 b7 79 f2 dc bd
       2.04111 -0.09858859 -1.4367678e-05 -0.107884355
000270 d4 97 25 40 87 4a 4d b8 5f df 86 b8 2c 21 1a 00
       2.5873919 -4.8945218e-05 -6.431224e-05 2.399623e-39
000280 8b 21 27 bf 5c 26 44 bd c6 10 bc b6 1c 50 8c b7
       -0.6528556 -0.047888145 -5.6047893e-06 -1.6726604e-05
000290 2d 6c 3c bc 2d eb ff be 4a 15 c0 bc 46 5a 87 bf
       -0.0115004005 -0.49984112 -0.023447651 -1.0574424
0002a0 25 14 b4 b6 01 0d d1 bf 76 03 f4 be c1 3b b4 bd
       -5.366763e-06 -1.6332093 -0.4765889 -0.0880046
0002b0 8a 5b ae be 07 bf a9 bd b4 47 b1 3f 3e f5 cc be
       -0.34054214 -0.08288389 1.3850007 -0.40030855
0002c0 9d 36 02 b6 6d 5b a5 be ef 57 22 ab ca a6 ad bc
       -1.9403299e-06 -0.32296315 -5.7675994e-13 -0.021197695
0002d0 bc ec 8c be 43 c7 cf bd 2e 22 0d a5 05 99 15 bd
       -0.27524364 -0.10145428 -1.2241381e-16 -0.036522884
0002e0 ee c0 19 bf 44 ff 95 bd 99 0f 89 bc 3b c6 75 be
       -0.6006001 -0.07324079 -0.01673107 -0.240014
0002f0 c2 04 d6 be d1 c4 03 ae ef f9 86 b5 fb 21 45 ba
       -0.41800505 -2.996076e-11 -1.0056518e-06 -0.0007520017
000300 95 01 2a 3d c5 e8 08 b7 7d d2 8b b4 94 0a 77 ba
       0.041505415 -8.160428e-06 -2.6043918e-07 -0.00094238785
000310 05 e2 14 be 5e 10 2e 3e 09 f6 f8 b6 90 8e d3 3f
       -0.14539345 0.16998431 -7.419618e-06 1.6527882
000320 93 5c b8 b1 f8 5b 6f 3f 16 4d 14 bc 0d d6 94 bb
       -5.3656293e-09 0.9349971 -0.009051582 -0.0045421184
000330 17 17 74 3e 0c 07 37 bd cf 02 d4 3f ba 3a a3 be
       0.23836933 -0.044684455 1.6563357 -0.31880742
000340 f9 37 7b b9 49 c2 a4 be dc 5f f1 9e 00 5a 45 bd
       -0.00023958077 -0.32179478 -2.5556514e-20 -0.048181534
000350 db bf 96 bd c5 2c bb 8f cc 15 45 98 91 80 b3 bc
       -0.07360812 -1.8456868e-29 -2.5472658e-24 -0.021911891
000360 ef 32 0d be e7 58 a7 bb 48 45 73 bb da 4d f9 3c
       -0.13788961 -0.0051070335 -0.0037120152 0.03043263
000370 dc 7f 29 bf 79 5d 9e b2 18 54 2f 8d 57 5d b7 a8
       -0.6621072 -1.8436127e-08 -5.4027263e-31 -2.0357561e-14
000380 33 38 75 be b6 02 1a bb 1a 6b 17 b5 75 8f 00 00
       -0.2394722 -0.002350015 -5.6407737e-07 5.1463e-41
000390 96 b0 a1 3e ff f8 1b be d8 ef 20 92 1d 10 96 be
       0.31580037 -0.15231703 -5.078273e-28 -0.29309168
0003a0 cf a3 00 00 79 86 cc bc 0d 2c 36 bd f4 c1 24 38
       5.8763e-41 -0.024966465 -0.044475604 3.928128e-05
0003b0 90 a8 f8 bb 12 59 58 3c aa 1f 1c 3e 37 52 4c 3b
       -0.0075884536 0.01320483 0.15246454 0.0031176934
0003c0 74 ae 00 00 ba 4e 73 3d 40 b2 00 80 30 7b 00 80
       6.2582e-41 0.05940125 -6.3944e-41 -4.4191e-41
0003d0 bc e1 9d 32 d5 0b f2 1d e0 4a 00 00 f7 39 00 80
       1.8379858e-08 6.40691e-21 2.686e-41 -2.0794e-41
0003e0 d9 4e 8a be 20 64 01 00 47 7a 15 ba 1c 62 01 00
       -0.2701328 1.27754e-40 -0.00057021197 1.2703e-40
0003f0 af b4 fd be 65 7a 00 80 ea 6b 9f a6 61 d0 00 80
       -0.49551913 -4.3907e-41 -1.1062091e-15 -7.4752e-41

weight f4 [8, 80]
000000 85 a6 86 bc 13 e2 08 2c 31 1f 00 00 a8 80 01 80
       -0.016436825 1.9452259e-12 1.119e-41 -1.37989e-40
000010 17 34 01 00 a2 8a a7 bb 60 78 5a 28 41 89 00 80
       1.10522e-40 -0.005112962 1.2127533e-14 -4.9237e-41
000020 a7 b9 00 80 c3 69 4c bb 96 98 53 1f 13 e1 00 00
       -6.66e-41 -0.0031190969 4.4807204e-20 8.0741e-41
000030 c5 71 4b bc d6 d6 1e 3c d6 91 01 80 05 23 00 80
       -0.0124172615 0.009694776 -1.44152e-40 -1.2563e-41
000040 6b a6 21 b9 28 82 45 b9 6d be 27 ba 46 c0 04 3a
       -0.00015416152 -0.00018835871 -0.000639892 0.00050640514
000050 a6 d2 9a b9 e7 93 24 ba 8a 7c 5e b8 8c 80 5c 38
       -0.00029530114 -0.00062781427 -5.304491e-05 5.2571806e-05
000060 39 28 ec b9 26 17 ce 39 df 6d 15 b9 6a 97 ee 39
       -0.00045043396 0.0003930863 -0.00014250677 0.0004550771
000070 d5 f2 9c b9 0c 7f 73 3a 8c 71 ef b9 99 fc e4 b9
       -0.00029935563 0.0009288646 -0.0004567023 -0.0004367575
000080 b2 58 33 ba dc bf 54 ba 29 8c 8c b9 75 8d 78 b9
       -0.0006841525 -0.00081157475 -0.00026807308 -0.0002370382
000090 f2 01 87 3a 65 e8 82 b9 5a 8c 0e 39 c4 d1 1c ba
       0.0010300262 -0.0002496868 0.0001359446 -0.0005982185
0000a0 b0 b9 c3 38 3a 27 36 ba bf 17 80 39 3b b4 ed 39
       9.3329116e-05 -0.0006948594 0.00024431755 0.00045338445
0000b0 b6 4d 0f ba af b8 c7 ba ae 9c 56 39 0a 1a 12 ba
       -0.0005466597 -0.0015237535 0.00020466998 -0.0005573338
0000c0 c4 b7 9a bb 7d d5 17 3c 1e d3 e3 3b 4a 83 2a bc
       -0.0047216136 0.009267208 0.0069526574 -0.010407278
0000d0 7e f3 13 3c 92 f2 14 3c a1 d8 9f 3b 8e d2 3b 3c
       0.009030221 0.009091036 0.004878119 0.011463774
0000e0 3f 6b aa bb 8c 56 4a 3c 6f a1 17 3c 58 2d e9 bb
       -0.005200773 0.012349736 0.009254797 -0.007116001
0000f0 96 f7 36 3c 40 2f 1c bc e0 2b eb 3b 6a 76 0f 3c
       0.0111674275 -0.00953275 0.007176861 0.008756259
000100 66 30 0f 3c db a1 17 3c ea 40 b2 bb b4 98 1d 3c
       0.008739566 0.009254898 -0.0054398673 0.009618927
000110 90 13 a7 bb 67 51 ec 3b 81 69 d1 bb 98 83 c2 bb
       -0.0050987676 0.0072118524 -0.006390751 -0.0059360974
000120 66 db c2 3b 2e c9 0f 3c f8 bb 38 bc 47 da 9c bb
       0.0059465645 0.008775992 -0.011275284 -0.004786763
000130 71 2f bc bb 24 fd dd 3b 74 2f 1b bc 13 8b b6 bb
       -0.00574296 0.0067745615 -0.009471763 -0.005570778
000140 b4 17 01 80 a9 f6 d2 b9 59 e2 15 b1 05 f1 93 9d
       -1.00339e-40 -0.00040238097 -2.1811017e-09 -3.9159784e-21
000150 dc 5b 03 35 0c 92 f5 b2 00 70 b4 b9 1a 87 00 80
       4.8934976e-07 -2.8588168e-08 -0.00034415722 -4.8465e-41
000160 2f b8 cc 35 9d 82 b9 ba 19 57 64 1e 9e 82 00 00
       1.5252789e-06 -0.0014153306 1.2088231e-20 4.6857e-41
000170 7f d3 1f ba e2 a6 91 b6 29 dc 59 a6 7c b0 00 00
       -0.0006096884 -4.3407645e-06 -7.558537e-16 6.331e-41
000180 d2 6b 95 27 e3 c6 37 2d 7b 58 a0 19 df 72 57 97
       4.1472707e-15 1.0446507e-11 1.657935e-23 -6.9615234e-25
000190 97 17 0e 20 14 50 be 20 a9 b1 e3 ac e7 77 24 1c
       1.2035673e-19 3.2240243e-19 -6.4714523e-12 5.441802e-22
0001a0 13 ee 71 27 f0 b6 4b 17 9b 5e 26 29 5b ee 3d aa
       3.3574529e-15 6.5823737e-25 3.694146e-14 -1.6869268e-13
0001b0 f3 c7 11 1c 1e f9 25 9f c3 60 8f 31 5a 21 17 1a
       4.8234904e-22 -3.5146174e-20 4.1728483e-09 3.125301e-23
0001c0 23 0e 95 1c 1a 97 7b 20 7e fb 7a 2c 91 15 48 1e
       9.863647e-22 2.1310522e-19 3.5666743e-12 1.0592372e-20
0001d0 ac a7 9e a2 c8 0a 51 b2 3f a9 c2 2d 79 34 17 2c
       -4.3003515e-18 -1.21678525e-08 2.2130407e-11 2.1487519e-12
0001e0 6a ab 8c 30 8f 8f fe 1b fd 7f d4 9b 9e 05 6c a3
       1.023506e-09 4.2113548e-22 -3.5155168e-22 -1.2794775e-17
0001f0 59 ae 68 2b b8 84 c9 27 21 ca 02 a6 df 3a 12 2b
       8.2664913e-13 5.59326e-15 -4.5376746e-16 5.195132e-13
000200 df 63 a7 20 a4 33 93 28 5f 18 24 8a 3b 75 52 9b
       2.835699e-19 1.6342674e-14 -7.9008965e-33 -1.7408672e-22
000210 68 39 3b 1e 2a fa 8c 22 9a 95 b7 9f 8a 2d 3d 1d
       9.911569e-21 3.8211948e-18 -7.775101e-20 2.5037485e-21
000220 d4 78 35 1f f5 ff 2f 1d 34 db bf 96 ed fd 3c a4
       3.8428188e-20 2.3293384e-21 -3.099605e-25 -4.0981085e-17
000230 04 d3 4a 1e e1 18 fe a0 5a b6 09 27 fc ad c1 12
       1.0737428e-20 -4.3045737e-19 1.9111422e-15 1.2222903e-27
000240 b0 59 ef 22 a0 5f 61 22 c0 86 5f 1d c9 61 c9 88
       6.487604e-18 3.054381e-18 2.9583468e-21 -1.2120237e-33
000250 bd 94 1c a6 53 3b 3b 23 bb dd 0a 9b 40 be 18 27
       -5.432495e-16 1.0149853e-17 -1.1486737e-22 2.1197372e-15
000260 f3 d9 89 9f d9 bc 9d 22 9e b5 16 9e c3 e4 bb a3
       -5.8382324e-20 4.2754886e-18 -7.9784914e-21 -2.0371465e-17
000270 76 a0 a1 27 be e3 bc 8f e5 7c de 85 b7 33 8e 27
       4.486045e-15 -1.8625954e-29 -2.0922659e-35 3.9468987e-15
000280 d9 62 00 00 cd d8 00 80 8d 06 62 9f e7 76 06 80
       3.546e-41 -7.7773e-41 -4.786278e-20 -5.93667e-40
000290 37 ac 00 00 aa 87 82 a1 c7 69 00 80 57 52 00 00
       6.1779e-41 -8.845053e-19 -3.7946e-41 2.9538e-41
0002a0 0a 18 01 80 5a 1d bf 9b 87 ef 00 00 1a c4 00 00
       -1.00459e-40 -3.1617267e-22 8.5926e-41 7.0348e-41
0002b0 c2 da 00 80 44 a7 00 80 75 5a 84 9f bd 63 01 00
       -7.8476e-41 -6.0004e-41 -5.605382e-20 1.27615e-40
0002c0 7a 7c 00 80 18 69 00 80 e5 1b 01 00 28 5e 01 80
       -4.4654e-41 -3.77e-41 1.01842e-40 -1.25612e-40
0002d0 77 3c 00 80 8a 22 00 80 d8 69 00 80 dc 4d 00 80
       -2.169e-41 -1.239e-41 -3.797e-41 -2.793e-41
0002e0 b0 ff 00 80 68 2d 00 00 9a 7d 00 80 e0 33 00 80
       -9.1723e-41 1.6289e-41 -4.5057e-41 -1.8609e-41
0002f0 3e 12 01 80 ca 8a 01 80 98 0c 01 80 86 1b 00 80
       -9.838e-41 -1.41624e-40 -9.6353e-41 -9.874e-42
000300 b8 52 01 80 52 67 01 00 ac 45 00 80 c1 7f 00 80
       -1.2151e-40 1.289e-40 -2.4994e-41 -4.583e-41
000310 1e 29 01 80 81 2a 00 80 b7 18 01 80 3e 25 00 80
       -1.06586e-40 -1.5248e-41 -1.00702e-40 -1.336e-41
000320 88 27 00 00 4a 81 00 80 c8 d1 00 00 92 03 01 80
       1.4181e-41 -4.638e-41 7.5255e-41 -9.3116e-41
000330 34 f6 00 80 46 ba 00 80 39 65 00 00 a0 34 01 80
       -8.8321e-41 -6.6822e-41 3.6312e-41 -1.10714e-40
000340 75 d0 00 00 6a 7d 00 00 1a bf 00 00 cd 0f 01 00
       7.478e-41 4.499e-41 6.8554e-41 9.7504e-41
000350 3b 17 00 80 f9 e1 00 80 1b 22 01 00 08 e5 00 00
       -8.334e-42 -8.1064e-41 1.0407e-40 8.2161e-41
000360 a1 24 00 80 99 68 01 00 5a db 00 00 f6 0e 01 80
       -1.314e-41 1.29358e-40 7.8689e-41 -9.7202e-41
000370 8d 7a 00 80 57 ef 00 80 71 df 00 00 e4 3e 01 80
       -4.3963e-41 -8.5859e-41 8.0156e-41 -1.14396e-40
000380 02 34 00 00 77 a4 01 80 e4 1f 01 80 8e b1 00 00
       1.8657e-41 -1.50834e-40 -1.03276e-40 6.3695e-41
000390 e2 a7 00 00 2c 0c 00 80 1c 1d 01 00 89 e5 00 80
       6.0225e-41 -4.366e-42 1.02278e-40 -8.2342e-41
0003a0 57 f4 00 00 75 72 00 80 a5 34 01 00 62 b6 00 00
       8.7653e-41 -4.106e-41 1.10721e-40 6.5427e-41
0003b0 70 51 01 80 58 cf 00 80 a4 50 00 00 96 03 01 00
       -1.2105e-40 -7.4381e-41 2.8928e-41 9.3122e-41
0003c0 51 c7 4e be 7f 8f 64 3e 9a 0e 83 be 4e 4b 52 3d
       -0.2019322 0.22320364 -0.25597078 0.051341347
0003d0 c7 c7 cf 3e 2f 4c 83 be af b5 a0 3d 74 0a 7f 3e
       0.40582106 -0.2564406 0.078471534 0.24906331
0003e0 59 79 04 3f f9 08 5f bf 05 af 5a 3c e0 c4 b9 3d
       0.5174766 -0.87123066 0.013347392 0.09070754
0003f0 48 68 d6 be 01 76 d1 be 77 04 0e 3f 1c 77 3d ae
       -0.41876435 -0.40910342 0.5547556 -4.3079415e-11

bias f4 [8]
000000 4f a4 13 bb 93 a6 dc b9 84 0b 9a 9e 6e 01 cb be
       -0.0022528355 -0.00042085777 -1.6310147e-20 -0.39649528
000010 af e6 f7 b9 72 f9 81 aa c9 00 8e be cc f2 cc a4
       -0.00047283384 -2.308809e-13 -0.27734974 -8.888221e-17

weight f4 [1, 8]
000000 32 96 22 3e b3 1e f1 3a 76 90 71 be d8 3f a2 3d
       0.15877607 0.001839599 -0.23590264 0.079223335
000010 4d 5c d2 3b f4 a6 93 3a 12 15 86 bd 71 66 52 ba
       0.0064196945 0.0011264966 -0.065469876 -0.0008026129

weight f4 [4, 32, 32]
000000 03 f6 49 3d 9f 57 3f b6 c9 12 bd 3c 7c 39 0c 96
       0.04930688 -2.851222e-06 0.023080247 -1.1327249e-25
000010 f4 3c c1 be d8 e7 79 80 91 a2 a8 b8 c9 37 25 a0
       -0.37741816 -1.1195265e-38 -8.0411446e-05 -1.3994501e-19
000020 85 15 88 38 16 b2 ab 9a 09 03 a0 9c b4 53 76 bc
       6.488994e-05 -7.1011656e-23 -1.0588696e-21 -0.015034605
000030 53 f8 20 9e 6f b6 35 b9 ee d4 0d 3e 2e 97 a3 3d
       -8.521682e-21 -0.00017329467 0.13850757 0.079878196
000040 7a 2a 1b aa 59 16 23 bb 70 3d c7 bd e1 2d 78 1b
       -1.3781503e-13 -0.0024885146 -0.09728515 2.0528903e-22
000050 c1 1d 21 1c d8 cf 85 be 40 f2 07 1e 9a 02 d0 3b
       5.3308887e-22 -0.26135135 7.196937e-21 0.0063479664
000060 8c 7e b1 3d 1d 16 51 ba bc 4c 11 36 8c 30 55 99
       0.08666715 -0.00079760124 2.165135e-06 -1.1021646e-23
000070 20 b5 2a 28 25 0b af 3b c2 12 35 1e bc f1 25 b1
       9.476171e-15 0.0053419047 9.585939e-21 -2.414807e-09
000080 52 fa 00 80 fd 1b 96 24 7e f0 11 35 28 af 02 80
       -8.9798e-41 6.5099544e-17 5.436667e-07 -2.46505e-40
000090 e6 19 6b 36 5b fc 00 80 bd 7d 00 80 55 ab 04 80
       3.5032804e-06 -9.0528e-41 -4.5106e-41 -4.28804e-40
0000a0 48 3e a7 29 da 2b 01 80 71 f3 00 00 94 8f 64 27
       7.427094e-14 -1.07566e-40 8.733e-41 3.171919e-15
0000b0 c5 d1 00 00 0b 6f 00 80 3e 66 df 12 57 67 3f aa
       7.5251e-41 -3.9835e-41 1.4098483e-27 -1.7000061e-13
0000c0 d5 6a 00 80 38 f6 f1 04 79 42 0b 00 c9 03 84 22
       -3.8324e-41 5.6884944e-36 1.034036e-39 3.578268e-18
0000d0 b6 40 26 91 d5 69 47 a7 bf 5b 01 00 4f 3b 01 80
       -1.3115032e-28 -2.767417e-15 1.24748e-40 -1.13111e-40
0000e0 d3 40 00 80 8b ec 96 25 e0 c2 00 00 fc 12 01 00
       -2.3255e-41 2.618114e-16 6.9908e-41 9.8646e-41
0000f0 f9 78 00 80 16 7f 03 29 2b 5a 00 80 84 d3 00 80
       -4.3397e-41 2.9198073e-14 -3.2346e-41 -7.5878e-41
000100 cc 37 00 80 10 ac 00 00 e6 7f 00 00 5c 63 00 80
       -2.0016e-41 6.1724e-41 4.5881e-41 -3.5643e-41
000110 06 b8 8f 93 7b 64 00 00 42 a0 01 80 af 8d 00 80
       -3.6279736e-27 3.6046e-41 -1.49325e-40 -5.0826e-41
000120 26 83 00 80 ed f9 00 80 be a0 01 80 a0 35 01 80
       -4.7047e-41 -8.9656e-41 -1.49499e-40 -1.11073e-40
000130 bd 3a 00 00 7d 34 00 80 b4 17 00 00 ab 87 00 00
       2.1071e-41 -1.8829e-41 8.503e-42 4.8668e-41
000140 37 77 00 00 fc 33 01 00 dc 01 00 00 a1 55 00 80
       4.2766e-41 1.10484e-40 6.67e-43 -3.0718e-41
000150 4c 77 00 80 80 43 00 80 4d 87 00 00 a6 15 41 80
       -4.2796e-41 -2.4214e-41 4.8537e-41 -5.977073e-39
000160 85 a2 01 00 d9 1f 00 00 50 5e 01 00 73 1e 00 00
       1.50137e-40 1.1425e-41 1.25668e-40 1.0923e-41
000170 c7 15 00 00 56 48 00 80 52 3a 01 80 79 91 00 00
       7.812e-42 -2.5949e-41 -1.12757e-40 5.2186e-41
000180 91 63 00 80 2d 82 00 00 d6 28 ad 83 f1 7d 01 80
       -3.5718e-41 4.6698e-41 -1.0177402e-36 -1.37015e-40
000190 f4 50 cf 38 56 be 00 80 20 a9 00 00 c9 db 00 80
       9.885608e-05 -6.828e-41 6.067e-41 -7.8844e-41
0001a0 1a 49 00 00 90 e2 00 80 c5 4c 00 00 e8 2f 01 80
       2.6224e-41 -8.1275e-41 2.754e-41 -1.09021e-40
0001b0 28 14 00 80 8c 8d 00 80 f7 41 01 00 b5 95 00 00
       -7.23e-42 -5.0777e-41 1.15499e-40 5.3705e-41
0001c0 6f 15 00 80 a7 6c 00 00 a1 97 01 80 12 56 01 00
       -7.689e-42 3.8977e-41 -1.4623e-40 1.22712e-40
0001d0 e6 da 00 80 0b 66 ee 32 b1 89 00 80 3b a8 00 80
       -7.8526e-41 2.775325e-08 -4.9394e-41 -6.035e-41
0001e0 99 2f 01 80 59 96 01 80 18 55 00 80 d6 13 00 00
       -1.0891e-40 -1.4577e-40 -3.0526e-41 7.116e-42
0001f0 43 80 00 80 b1 4c 01 80 9f 56 00 00 70 15 00 80
       -4.6012e-41 -1.19347e-40 3.1074e-41 -7.69e-42
000200 fc a3 f8 a8 69 72 38 33 19 cb be 3c 47 f5 92 16
       -2.7604648e-14 4.2944894e-08 0.023290204 2.3742364e-25
000210 1e df f2 ba 43 e7 1d 12 67 00 22 1e ac 02 d4 9f
       -0.0018529629 4.9825517e-28 8.576292e-21 -8.978991e-20
000220 de 91 5a 38 bc 48 00 80 a4 15 0a 11 cb 82 8f 3b
       5.21111e-05 -2.6092e-41 1.0892949e-28 0.0043796054
000230 b0 ba 00 80 5a 03 de 3b 07 75 b6 b8 c3 44 6c 2e
       -6.6971e-41 0.006775302 -8.700234e-05 5.372126e-11
000240 be 07 a4 22 f6 4e 9e 37 76 db 18 ae e6 de 34 b8
       4.4460486e-18 1.8871837e-05 -3.475572e-11 -4.3122935e-05
000250 6a 40 38 11 b8 f1 46 b9 94 be bb 2f 23 57 1d a8
       1.453489e-28 -0.00018972799 3.4150516e-10 -8.7341455e-15
000260 d1 26 27 b7 82 55 18 20 99 02 8b 9d 00 11 0f 9b
       -9.963013e-06 1.2903193e-19 -3.679568e-21 -1.1834176e-22
000270 da d2 97 1d 0b e9 51 22 e4 c4 ca 1d 80 fe 9d 20
       4.0187383e-21 2.8448154e-18 5.3672535e-21 2.6765249e-19
000280 a9 3f ae b9 5a b2 19 2b a7 b5 04 3e b9 b6 27 ad
       -0.00033235297 5.460403e-13 0.1295992 -9.5334235e-12
000290 93 1e 3f bb 7a 97 d1 2f e2 28 13 bb 65 57 53 21
       -0.002916251 3.812451e-10 -0.0022454788 7.1605246e-19
0002a0 0b 7c 60 39 ee 54 36 1a f0 3e 4e 99 02 46 13 33
       0.00021408514 3.7705324e-23 -1.06626605e-23 3.4289776e-08
0002b0 64 83 75 9f da ad b1 aa bb 30 a1 bc 05 d7 a7 b7
       -5.1989452e-20 -3.156215e-13 -0.019676557 -2.0008078e-05
0002c0 06 d1 93 37 8c fc 20 3b 9a b9 7a 3a 47 75 51 20
       1.76211e-05 0.0024564592 0.00095644 1.7741792e-19
0002d0 b6 6c a9 9a 36 b3 0b bd be c2 90 33 cc 07 db b8
       -7.0072394e-23 -0.034106456 6.740946e-08 -0.00010444186
0002e0 49 05 00 3e 7e 25 ab b8 01 02 2c a0 28 d8 61 9f
       0.12502016 -8.160899e-05 -1.456963e-19 -4.7824404e-20
0002f0 12 31 1d 30 44 a5 41 3c 4b cb 5d a0 64 5a 43 b7
       5.7186e-10 0.011819188 -1.8786692e-19 -1.1643951e-05
000300 fb 2c 00 00 ba 6a 08 00 fa 04 cf ad 6c a9 01 80
       1.6136e-41 7.7297e-40 -2.3535385e-11 -1.52613e-40
000310 9c 81 25 aa 5c a0 01 00 fb 3d 00 00 0c 3c 01 80
       -1.4699911e-13 1.49362e-40 2.2234e-41 -1.13376e-40
000320 ef c6 18 a5 99 65 00 00 cc 04 00 80 c7 15 c7 8b
       -1.32513e-16 3.6446e-41 -1.721e-42 -7.668478e-32
000330 4a 4e 00 00 bf 5a 53 ac 29 6b 01 00 7f 24 00 80
       2.8085e-41 -3.0035278e-12 1.30277e-40 -1.3092e-41
000340 55 99 00 00 61 55 03 00 f7 1f 00 00 1d 0b 00 80
       5.5005e-41 3.06135e-40 1.1467e-41 -3.987e-42
000350 bf 83 01 00 92 f1 01 1c be 8d 01 00 cc 4b 0b 00
       1.39097e-40 4.299474e-22 1.42683e-40 1.037381e-39
000360 2a 21 2f 05 8e 70 00 00 a2 19 a2 82 55 ba 00 00
       8.234552e-36 4.0377e-41 -2.3818473e-37 6.6843e-41
000370 1a 91 00 00 c1 f6 00 80 7f ed 00 80 68 e5 00 00
       5.2053e-41 -8.8519e-41 -8.5198e-41 8.2295e-41
000380 39 9c 13 be 5e 37 a8 bb c1 44 16 3f 12 c6 c7 aa
       -0.14415063 -0.0051335534 0.5869866 -3.548694e-13
000390 44 7c 62 be 25 7b df b8 a2 b2 84 ae 38 99 8b 9f
       -0.22117716 -0.00010656406 -6.0343966e-11 -5.912227e-20
0003a0 83 9e da 3d 7c d3 f2 1d 40 bf 5e 37 e3 61 58 3a
       0.10674765 6.4275536e-21 1.327676e-05 0.00082543324
0003b0 64 21 49 3d e3 dd 23 bd 4e ce 9a 3e 25 ca 96 be
       0.04910411 -0.04000653 0.30235523 -0.294511
0003c0 58 64 a4 bb 20 08 7a 3d b4 73 7b be e7 9e 85 3b
       -0.0050168447 0.061042905 -0.24555856 0.0040777805
0003d0 ac 82 bc 39 07 84 b9 be 69 33 14 38 1d f5 49 3d
       0.00035955512 -0.3623354 3.533383e-05 0.049306024
0003e0 fa 41 cc bd 98 ca 3c b9 5e 46 1b 38 2a e8 56 38
       -0.099735215 -0.00018004549 3.7020414e-05 5.1237796e-05
0003f0 94 ff b3 b3 46 70 3f 3c 29 52 f8 a4 27 4d 26 b0
       -8.3818264e-08 0.011684483 -1.0769204e-16 -6.050009e-10

w_comp f4 [11, 4]
000000 0d 7c f4 be fa f3 17 bd 64 f6 dc 3e 22 9a 9d 3e
       -0.47750893 -0.03709791 0.4315673 0.30781657
000010 23 b0 bf bb 82 a2 49 be 27 bd df 3d 94 28 ab 3e
       -0.0058498546 -0.19690898 0.1092475 0.33429396
000020 62 3c 21 3f 67 f0 ac 3d 17 9d 1c 3e df e2 58 3a
       0.6298276 0.084442906 0.152943 0.00082735525
000030 be ff 1f 3f 6b 47 6d 3d af 13 be 3e 00 05 4b 3d
       0.62499607 0.057929438 0.37124392 0.049565315
000040 c8 e5 58 be 2d b9 f4 3d 87 85 9d 3e 92 82 1a 3f
       -0.21181405 0.11949382 0.30765936 0.60355484
000050 6b 6b 6e 3e 2c 80 1f 3e fd 9f 21 be a8 be 1e be
       0.23283164 0.15576237 -0.15783687 -0.15502417
000060 94 cd bf be 72 4c 09 be ab 4b d6 3e 36 0b 62 bf
       -0.3746153 -0.13408068 0.41854605 -0.88298357
000070 9b 81 01 80 8f ca 00 80 74 d5 5d 34 cd 56 00 00
       -1.38329e-40 -7.2664e-41 2.0659883e-07 3.1138e-41
000080 2b 96 6a be 8d a3 3b bc 09 59 90 bb 73 0d 38 3e
       -0.22908847 -0.011452568 -0.004405145 0.1797388
000090 78 d5 00 00 97 5b 00 00 6c d6 a6 37 1a ea 00 80
       7.6578e-41 3.2856e-41 1.988859e-05 -8.398e-41
0000a0 cc 8e 15 be 47 6f 90 bd 19 9c f0 2e 7e a7 31 ba
       -0.14605254 -0.070524745 1.0941665e-10 -0.00067769724

self_loop_weight f4 [32, 32]
000000 0f 8a 45 bf 6b b7 56 be 47 92 e3 3e 4f 13 66 97
       -0.77163786 -0.20968406 0.44447538 -7.434138e-25
000010 fa 0c be be a3 1e df b0 6b 43 82 ba f4 de 2e bb
       -0.37119275 -1.6234093e-09 -0.0009938305 -0.0026683183
000020 f7 d7 04 be dd cf 5e ba b9 13 88 bb b4 a1 5a bc
       -0.12973009 -0.0008499602 -0.0041527417 -0.013344217
000030 ff 45 7e bc 3d 3e c5 bd 8c 19 4e bf d6 94 27 3e
       -0.015519618 -0.09631012 -0.8050773 0.1636537
000040 2d 70 78 be 33 a9 d2 be c8 3e 8e 3f e8 2d 72 9c
       -0.24261542 -0.41144714 1.1112909 -8.0130416e-22
000050 b4 27 00 80 40 80 af 3c 37 83 92 27 65 d3 86 3d
       -1.4243e-41 0.021423459 4.0665404e-15 0.06583289
000060 7a 82 b4 be c9 93 ad 3d d2 46 b5 3c e7 26 b1 bd
       -0.35255796 0.084754534 0.022128496 -0.08649998
000070 1d 6e 13 b6 29 d4 e7 bd 59 d5 45 bc d2 e8 ca bd
       -2.1968801e-06 -0.11319763 -0.012074792 -0.09907688
000080 93 b4 75 2d 54 68 e7 9b 95 79 f8 b7 34 b2 00 80
       1.3966733e-11 -3.8283165e-22 -2.962052e-05 -6.3927e-41
000090 a9 df b2 ba a1 3b 00 00 98 5e 0e 00 58 bd 03 80
       -0.0013646978 2.1391e-41 1.319631e-39 -3.4343e-40
0000a0 de f5 fb aa ab 56 84 b3 3a d3 0b 80 70 5e 31 3b
       -4.475716e-13 -6.162494e-08 -1.085964e-39 0.0027064346
0000b0 0c c0 00 00 13 bd 19 ba d8 bc 1d 1a 59 96 e1 36
       6.8893e-41 -0.0005864661 3.2619386e-23 6.7230253e-06
0000c0 40 1b 01 80 d1 18 00 00 ef 72 01 00 ac 54 24 a2
       -1.01611e-40 8.902e-42 1.33066e-40 -2.227097e-18
0000d0 6c a7 22 2b ee 4e 41 bc a0 0d 00 00 8e 15 00 00
       5.7786306e-13 -0.011798603 4.888e-42 7.732e-42
0000e0 75 08 01 00 2c c6 e1 28 a1 92 c5 ae 63 82 00 00
       9.487e-41 2.5065961e-14 -8.984569e-11 4.6774e-41
0000f0 13 f1 e3 98 ba 6a b2 34 57 f0 30 00 d5 5a 00 80
       -5.8921547e-24 3.3232737e-07 4.494322e-39 -3.2584e-41
000100 6d 86 00 80 b6 f0 00 00 9a 5a 2c b4 cd 90 00 80
       -4.8223e-41 8.6351e-41 -1.6051709e-07 -5.1945e-41
000110 9f 4e e7 ae 8e 33 00 80 49 06 01 00 63 a0 01 00
       -1.051863e-10 -1.8494e-41 9.409e-41 1.49371e-40
000120 2c f4 00 00 a7 fd 1b 89 6b 91 01 00 a8 35 ed 11
       8.7592e-41 -1.8776713e-33 1.44002e-40 3.7425075e-28
000130 ab 2e 01 80 f3 56 00 80 8a 2d 00 80 b3 8a 00 80
       -1.08577e-40 -3.1192e-41 -1.6336e-41 -4.9756e-41
000140 28 9b 00 00 ce e3 8f 01 35 59 01 00 0f 4f 00 80
       5.566e-41 5.285679e-38 1.23837e-40 -2.8361e-41
000150 ea e9 00 80 11 c0 31 22 f9 e7 00 00 fb 62 00 80
       -8.3913e-41 2.4089652e-18 8.3216e-41 -3.5508e-41
000160 20 00 01 80 93 1e 00 80 05 f7 00 00 cf 5a 00 80
       -9.188e-41 -1.0968e-41 8.8614e-41 -3.2576e-41
000170 b9 d8 00 80 bd 13 00 00 86 b1 00 00 2c 8e 00 00
       -7.7745e-41 7.081e-42 6.3683e-41 5.1002e-41
000180 0a 51 01 00 9a 1c 00 00 04 6e 69 b7 7c c4 36 13
       1.20907e-40 1.026e-41 -1.3913497e-05 2.3068504e-27
000190 cd a4 50 35 16 f7 00 80 51 49 01 80 85 7e 00 80
       7.7725855e-07 -8.8638e-41 -1.18136e-40 -4.5387e-41
0001a0 3d 13 82 ac fb 7c 00 00 52 61 01 80 ea 13 db 99
       -3.696958e-12 4.4835e-41 -1.26747e-40 -2.2652112e-23
0001b0 1b c0 00 80 b5 bd 9c 0b 43 3e 00 80 f9 54 1d 1b
       -6.8914e-41 6.0374454e-32 -2.2335e-41 1.3014192e-22
0001c0 07 f7 00 00 7a dd 00 00 f1 66 00 00 3b 32 00 80
       8.8617e-41 7.9451e-41 3.6928e-41 -1.8019e-41
0001d0 2f 5e 00 80 e1 aa 03 24 52 f8 8c 8b a4 3f 00 00
       -3.3787e-41 2.8550837e-17 -5.429967e-32 2.283e-41
0001e0 db 45 00 00 0f 87 00 80 ef 4c 00 80 6f 35 01 00
       2.506e-41 -4.845e-41 -2.7599e-41 1.11004e-40
0001f0 e5 15 00 80 61 19 01 80 0e 0b 10 1b 54 87 00 00
       -7.854e-42 -1.0094e-40 1.1914973e-22 4.8547e-41
000200 53 a7 4f b4 f9 49 2c bc da 78 78 be ea 4f 13 00
       -1.933925e-07 -0.010515683 -0.24264851 1.773542e-39
000210 a7 d6 ad 3c fc 22 d3 b4 b1 3d 0d ab 45 45 65 b8
       0.021220518 -3.9327267e-07 -5.0178877e-13 -5.4662367e-05
000220 6f 29 97 af f3 a1 20 b3 1e 74 68 1a 84 a6 9f bb
       -2.749618e-10 -3.7400195e-08 4.8070274e-23 -0.004872145
000230 53 eb d2 9a 35 7e 32 3e b1 21 a6 2f ab 13 fd 3c
       -8.723415e-23 0.17430957 3.0219163e-10 0.030893167
000240 24 35 cf 9f 53 8b 70 b6 20 ef 75 39 6c d5 26 38
       -8.7755824e-20 -3.5843884e-06 0.00023454102 3.977625e-05
000250 3c e2 83 95 57 79 a1 3d 6e 2e 69 b8 03 97 0a a7
       -5.3267414e-26 0.07884472 -5.559477e-05 -1.923321e-15
000260 87 f9 ad 3d 96 5a cd 27 56 e8 5f b8 4f 15 9e 9a
       0.08494859 5.6997143e-15 -5.3383723e-05 -6.5381694e-23
000270 b6 25 e7 24 ad 0a b2 a2 f0 0f 97 b0 d6 91 78 2a
       1.00244166e-16 -4.82583e-18 -1.0991226e-09 2.2077422e-13
000280 47 f9 08 3d a5 bd 4a 3d 8d 7c c5 3e bd a7 9d 2f
       0.033440854 0.049497265 0.38571587 2.867732e-10
000290 c0 10 08 3e 03 bd d8 b5 fb f4 21 bc 30 1e 2b 3e
       0.1328764 -1.6148264e-06 -0.009885068 0.16710734
0002a0 84 d0 60 bd bf 57 95 bb 16 99 7a bc e8 7d cd 39
       -0.054886356 -0.0045575793 -0.015295288 0.00039194454
0002b0 15 25 04 bd 0f c7 87 ba a2 ac a4 3d e2 fe e6 3d
       -0.032261927 -0.0010359007 0.080407396 0.11279084
0002c0 1c e6 52 36 55 e1 91 3c 2f c8 24 bd 23 86 fd a0
       3.142638e-06 0.017807642 -0.040229972 -4.2948631e-19
0002d0 28 09 a7 1d 19 67 a7 3c db a1 07 20 e9 2e 8d bc
       4.4214e-21 0.020434903 1.1488498e-19 -0.017234283
0002e0 06 64 ba 3d cc 4c b8 bc ba aa 64 bc 98 fc 3a bb
       0.09101109 -0.022497557 -0.01395672 -0.0028531905
0002f0 f4 5d df ba db db 81 bc 1b 8f 19 bb 90 03 df bd
       -0.001704155 -0.015851906 -0.0023431245 -0.10889351
000300 b3 dd d4 38 fa 33 f2 8f 92 52 a6 35 77 e7 92 21
       0.000101502425 -2.3883063e-29 1.2391995e-06 9.954613e-19
000310 a1 e1 97 3c d5 68 6c 91 d0 bb 00 80 f9 82 59 0a
       0.018540205 -1.8649421e-28 -6.7374e-41 1.0472803e-32
000320 eb 99 26 32 b2 64 8d 2c 9c 4c 7e 0e a4 5e d7 38
       9.697469e-09 4.0186405e-12 3.1344803e-30 0.00010269627
000330 44 2a 50 9f 51 1d fb 90 f0 d0 1e 8e d8 d0 b4 b8
       -4.4080675e-20 -9.904721e-29 -1.9575603e-30 -8.621969e-05
000340 47 67 e4 a3 a8 33 f3 8f 8f 43 00 80 10 75 b9 0d
       -2.476355e-17 -2.3981547e-29 -2.4235e-41 1.1429687e-30
000350 8b 1f 00 80 90 5f 69 3c 1b 57 00 00 78 fd 62 10
       -1.1315e-41 0.014243975 3.1248e-41 4.4765906e-29
000360 30 1e 32 8f b5 ec fe 30 14 d4 47 af e8 1c 09 37
       -8.7818915e-30 1.8548209e-09 -1.817429e-10 8.172567e-06
000370 bd 36 00 00 c8 dd d1 b3 5a 4b b9 b4 10 d8 2c 89
       1.9636e-41 -9.772663e-08 -3.451376e-07 -2.0805339e-33
000380 6a b0 a7 be ef e6 ca bc 12 9a 22 3f 71 0b 5b 2d
       -0.3275178 -0.02476832 0.6351634 1.2451249e-11
000390 51 88 03 40 ef f8 12 3c 14 36 95 bb df cb 9f be
       2.055195 0.008970483 -0.0045535658 -0.3121023
0003a0 b9 b1 3b 3c 52 35 fa bd 85 57 7b bc f4 2c ff bb
       0.011455947 -0.12217201 -0.0153406905 -0.0077873413
0003b0 17 51 17 be 73 41 43 bc 8d 41 96 bd 94 8c d2 3e
       -0.14777027 -0.01191746 -0.073367216 0.41122878
0003c0 81 c8 86 bd f9 ea 46 be 69 c5 8a 3f 1e 1e 16 b8
       -0.06581212 -0.19425572 1.0841495 -3.5790836e-05
0003d0 89 6b 72 ba bf d5 60 3f 04 ff 1f b7 5c 18 4a bc
       -0.00092475914 0.8782615 -9.536514e-06 -0.012334909
0003e0 b9 69 30 be 7e fe 10 be 74 a6 f6 3d 75 24 fd bb
       -0.1722783 -0.14159581 0.12043467 -0.0077252933
0003f0 ba 28 a9 bb df 75 84 be 5c 98 ef 3b e5 e9 e0 3e
       -0.0051623257 -0.25871179 0.007311864 0.43928447
