experiments/grail_wn_v3/graph_classifier_chk.pth (torch, 102542 bytes, 21 tensors)

weight f4 [11, 32]
0	0xbe56a7be	-0.20962426
1	0x3e90c4a8	0.28275037
2	0x3e88f469	0.2674897
3	0xbe572289	-0.21009268
4	0x3e89f62e	0.26945633
5	0x3e758f52	0.23980454
6	0x3e421ef8	0.18957126
7	0x3e90bc2f	0.28268573
8	0xbe746601	-0.23867036
9	0x3ea3ef72	0.3201862
10	0x3e955a4f	0.29170462
11	0xbe92db98	-0.28683162
12	0x3e81a489	0.25320843
13	0xbe4aa393	-0.19788961
14	0x3e874c08	0.26425195
15	0x3e7630be	0.24042031
16	0x3e45bb7e	0.19309804
17	0x3e5cdd45	0.21568783
18	0xbe619704	-0.22030264
19	0x3e88c4d3	0.26712665
20	0xbe4aacb8	-0.1979245
21	0x3d9a9310	0.07547581
22	0xbe7442ae	-0.23853561
23	0xbe2aabc5	-0.16667087
24	0x3e73192b	0.2374007
25	0x3e441c43	0.19151406
26	0xbe8413ed	-0.25796452
27	0xbe7ccf3f	-0.24688433
28	0xbe19bc0b	-0.15013139
29	0x3d9ef815	0.07762162
30	0xbe926fcc	-0.2860092
31	0xbe0c086b	-0.13675086
32	0x3ed28bbf	0.41122243
33	0xbf1eb2cd	-0.6199158
34	0xbf044783	-0.5167162
35	0x3f4a13ea	0.78936636
36	0xbf29a509	-0.6626745
37	0xbf3c84bf	-0.73640054
38	0xbecaa799	-0.39580992
39	0xbf27ca09	-0.65542656
40	0x3ede089c	0.43365943
41	0xbf0d26e4	-0.5513747
42	0xbf0d6436	-0.55231035
43	0x3ef98144	0.48731434
44	0xbf3b310c	-0.73121715
45	0x3f4f44cc	0.8096435
46	0xbf099cd2	-0.53754914
47	0xbf389f1c	-0.7211778
48	0xbf4f6e49	-0.81027657
49	0xbf489953	-0.78358954
50	0x3ed3c678	0.41362357
51	0xbf29c41e	-0.66314876
52	0x3f064d15	0.5246137
53	0xbebe35e2	-0.37150484
54	0x3f3ca3c4	0.73687387
55	0x3f1589ae	0.5841321
56	0xbf41c378	-0.75688887
57	0xbf4ff445	-0.812321
58	0x3f38b150	0.7214556
59	0x3f086dea	0.53292716
60	0x3f1a14ab	0.60187787
61	0xbebf40d5	-0.3735415
62	0x3f19d900	0.6009674
63	0x3f1df927	0.617083
64	0xbdaf1261	-0.085484274
65	0x3dad96f2	0.08476056
66	0x3da5e52b	0.08100351
67	0xbd811889	-0.06303508
68	0x3d9b95df	0.07596945
69	0x3d74c2b8	0.05975601
70	0x3daa2a7d	0.08308885
71	0x3dc14e21	0.0943873
72	0xbdb14e2d	-0.08657489
73	0x3dcc0b2d	0.09963069
74	0x3dbc783d	0.09202621
75	0xbda3a19d	-0.0798981
76	0x3da2f5d6	0.07957046
77	0xbd40164b	-0.04689626
78	0x3db4f71d	0.088361956
79	0x3d80d337	0.06290286
80	0x3d2c3f54	0.042052582
81	0x3d4a1644	0.04933764
82	0xbdae3cee	-0.08507715
83	0x3da4df98	0.080504596
84	0xbd8ffe50	-0.07030928
85	0x3d9c41b4	0.076297194
86	0xbcc7ccbd	-0.024389619
87	0xbd8e0d81	-0.069361694
88	0x3d9778b2	0.07396068
89	0x3d2bc1fa	0.041933037
90	0xbda8c8e5	-0.082414426
91	0xbd929fca	-0.071593836
92	0xbd80e79d	-0.06294177
93	0x3da53132	0.08066024
94	0xbdb4480f	-0.088028066
95	0xbd6b6621	-0.057470445
96	0x3e9cc1aa	0.30616504
97	0xbe802a1e	-0.25032133
98	0xbe84e87f	-0.2595863
99	0x3e523085	0.20526321
100	0xbe473c4f	-0.194566
101	0xbe35adb0	-0.17742038
102	0xbe9f5c54	-0.31125128
103	0xbe2d03cc	-0.1689598
104	0x3e994eac	0.29942834
105	0xbe553bee	-0.20823643
106	0xbe638c16	-0.22221407
107	0x3e8bd0f9	0.2730787
108	0xbe3edde6	-0.18639335
109	0x3e414bac	0.18876523
110	0xbe83e0da	-0.25757486
111	0xbe4e357f	-0.20137595
112	0xbe2b97cb	-0.16757123
113	0xbe3407e1	-0.1758113
114	0x3e9c2060	0.3049345
115	0xbe6932ae	-0.22773239
116	0x3e8bf853	0.27337894
117	0xbeae6ca3	-0.34067258
118	0x3e834ef0	0.25646162
119	0x3e89d8ff	0.26923367
120	0xbe7b6de4	-0.24553639
121	0xbe29fe23	-0.16600852
122	0x3e41c7a3	0.18923812
123	0x3e8683f7	0.26272556
124	0x3e87bac7	0.26509687
125	0xbeb293f9	-0.3487852
126	0x3e5f7e1d	0.21825452
127	0x3e85fb1b	0.2616814
128	0x3ccc5bfa	0.024946202
129	0xbd19a51b	-0.037510972
130	0xbd12558b	-0.03572611
131	0x3d31c4fb	0.043400746
132	0xbd2b7b4b	-0.04186563
133	0xbd4287fd	-0.04749297
134	0xbcbcdb41	-0.023053767
135	0xbd067509	-0.032826457
136	0x3ce2344c	0.027612828
137	0xbcb837a1	-0.022487463
138	0xbd02946a	-0.03187982
139	0x3d0f9aa8	0.0350596
140	0xbd1f5cbc	-0.038906798
141	0x3d4af69a	0.049551584
142	0xbd0b2e2f	-0.03397959
143	0xbd3ff4d0	-0.04686433
144	0xbd51efbf	-0.05125403
145	0xbd4cba4d	-0.049982358
146	0x3cd1d905	0.025616178
147	0xbd2238de	-0.039605014
148	0x3d1fab00	0.038981438
149	0xbbb55caf	-0.0055347304
150	0x3d7c0311	0.06152636
151	0x3d249d68	0.040189177
152	0xbd2d9b5a	-0.042384483
153	0xbd51bc7f	-0.051205155
154	0x3d1ad110	0.037797034
155	0x3d232b35	0.039836127
156	0x3d2c646e	0.042087965
157	0xbbd1b228	-0.0063994117
158	0x3d0fb4b1	0.03508443
159	0x3d332e8d	0.043745566
160	0x3e9ec592	0.3101011
161	0xbecd1221	-0.40052894
162	0xbec32cd7	-0.38120148
163	0x3ec1551a	0.3776024
164	0xbeca389a	-0.3949631
165	0xbec6f78a	-0.38860732
166	0xbe9a01b6	-0.3007943
167	0xbec97270	-0.3934512
168	0x3eaa909a	0.33313447
169	0xbecf6826	-0.40509146
170	0xbecdfa7f	-0.40230176
171	0x3ecc5fe6	0.39916915
172	0xbec4c54d	-0.3843178
173	0x3ec5376c	0.38518846
174	0xbec11fe3	-0.3771964
175	0xbec6503c	-0.3873309
176	0xbec5f0ae	-0.38660187
177	0xbec5d23c	-0.3863696
178	0x3ea1bbf3	0.31588706
179	0xbec79cab	-0.38986716
180	0x3eb3d74a	0.3512519
181	0xbe8e22ed	-0.2776102
182	0x3ecfd45a	0.405917
183	0x3eb4e380	0.3532982
184	0xbec29fae	-0.3801245
185	0xbec5efe7	-0.38659593
186	0x3ec53c04	0.3852235
187	0x3ebe1dd1	0.37132123
188	0x3eb7c417	0.35891792
189	0xbe8d808a	-0.2763713
190	0x3eccc7ba	0.3999613
191	0x3eba64a5	0.3640491
192	0x3cccd47c	0.025003664
193	0x3b19f1a2	0.0023489972
194	0x3c3225f9	0.010873311
195	0xbaa8fbbd	-0.0012892407
196	0x3bc1e3a9	0.005917032
197	0x3c0ff2fb	0.008785958
198	0xbcae5450	-0.021280438
199	0xba497029	-0.00076842547
200	0x3ccf4629	0.02530201
201	0xbb8a6aca	-0.004224156
202	0x3b66f054	0.0035238462
203	0xbc22d32b	-0.009938042
204	0x3aa084d4	0.0012246617
205	0xbbe30114	-0.0069276188
206	0x3bffadcd	0.007802701
207	0x3af6d722	0.0018832425
208	0x3bcdce67	0.0062807086
209	0x3c081ce7	0.008307672
210	0x3cb4e753	0.02208296
211	0x3a0da1d2	0.0005402836
212	0xbcac8697	-0.021060271
213	0x39dba70a	0.0004189539
214	0xbb19aa91	-0.0023447613
215	0x3c77ace2	0.015116902
216	0x3a35ff9f	0.00069426926
217	0x3bd07a03	0.006362201
218	0xba340a3f	-0.0006867982
219	0xbcac4c2d	-0.021032417
220	0x3c6478e1	0.013944835
221	0xb81b50aa	-3.7030004e-05
222	0xbb6030c8	-0.0034208763
223	0x3c5d3362	0.01350102
224	0xb98fa6c4	-0.00027399336
225	0xb6ed8650	-7.0787864e-06
226	0xb9c0b657	-0.00036756948
227	0xb8882436	-6.49173e-05
228	0xb9db9e7c	-0.00041889015
229	0xba00707e	-0.0004899575
230	0x398ae2a5	0.00026490274
231	0xba0095a5	-0.0004905111
232	0xb9b766ba	-0.00034981017
233	0xb9857f50	-0.00025462592
234	0xb9a46520	-0.00031355862
235	0xb998996c	-0.00029106007
236	0xba1d6ca5	-0.0006005264
237	0x3a0f9afd	0.0005478112
238	0xb72f8026	-1.046065e-05
239	0x39199f3d	0.00014650538
240	0xba1c7c30	-0.0005969433
241	0xba10eab6	-0.0005528139
242	0xb976b00a	-0.00023525968
243	0x38d95a82	0.00010364225
244	0x3917ba7e	0.00014469956
245	0xb854ba7a	-5.071841e-05
246	0xb962edcf	-0.0002164163
247	0x39c0047a	0.0003662443
248	0x38fd44f1	0.000120768214
249	0xba102a5b	-0.00054994755
250	0x3a19920f	0.0005858251
251	0x393b3b6c	0.00017855846
252	0x39f44535	0.0004659087
253	0xb907e850	-0.00012961146
254	0x398c6748	0.0002677983
255	0x3a00d53e	0.0004914588

weight f4 [4, 8, 32]
0	0x3f783482	0.9695512
1	0x39954e66	0.00028477906
2	0x8000bbdd	-6.7393e-41
3	0x22ac9ba7	4.6785497e-18
4	0x3e0450d3	0.12921457
5	0xbed90aba	-0.42390996
6	0x35b5b996	1.3539563e-06
7	0x3e050e8d	0.12993832
8	0x11a0973f	2.5336762e-28
9	0x3f08dbcf	0.534604
10	0x3d532b9b	0.051555257
11	0x3e478e95	0.19487984
12	0xbdefcdd6	-0.11709182
13	0xba14d1d4	-0.0005677019
14	0xbf945b03	-1.1590275
15	0xbc38531f	-0.011250286
16	0xbe47cb95	-0.19511254
17	0xbe422e4a	-0.1896297
18	0x0025ffbe	3.489656e-39
19	0xbf4a50ae	-0.7902936
20	0xbca0f53d	-0.019648189
21	0x381e6c42	3.777096e-05
22	0x38aa5199	8.1214304e-05
23	0x28ee9e99	2.6492089e-14
24	0xbf10e903	-0.5660555
25	0x3d448293	0.047976088
26	0x28211363	8.941499e-15
27	0x3ef285e0	0.47367764
28	0xbf25d08c	-0.6477134
29	0xb900822c	-0.00012255524
30	0x2f45c60e	1.7987409e-10
31	0x3e958f95	0.29211107
32	0x3edf078f	0.43560454
33	0xb3284304	-3.91765e-08
34	0xa83556cb	-1.0066339e-14
35	0x1c3ef849	6.318663e-22
36	0x3e85f918	0.26166606
37	0x3f3eca45	0.7452739
38	0xb4421a3e	-1.8077205e-07
39	0xbc73f8a1	-0.014890821
40	0xa85b2188	-1.2164213e-14
41	0x3ea2d3ec	0.3180231
42	0xbc7a48c9	-0.015276142
43	0x3e4056b7	0.18783079
44	0x3c73c617	0.014878771
45	0x3a157a93	0.0005702164
46	0xbfaf0ac6	-1.3675163
47	0x3e97b7d6	0.29632443
48	0x39012da7	0.00012319406
49	0x3cf9d05b	0.03049486
50	0x004751c8	6.549658e-39
51	0xbf05797b	-0.5213849
52	0x3eb7d762	0.35906512
53	0x39d19c69	0.0003998012
54	0xb2860e8a	-1.5606265e-08
55	0x365171e2	3.1209715e-06
56	0xbee2fd4e	-0.4433388
57	0x3d73dcb9	0.05953667
58	0xac5e64fe	-3.160416e-12
59	0x3c50db99	0.012747669
60	0xbf92728f	-1.144121
61	0xbac7e17e	-0.0015249697
62	0xb124dc18	-2.399025e-09
63	0x3e9351b5	0.28773275
64	0x3dccb4f5	0.09995452
65	0xbac8e602	-0.0015327337
66	0x27054405	1.8494331e-15
67	0x1ae17fad	9.326409e-23
68	0x3e750756	0.2392858
69	0xbc8b2da9	-0.016989546
70	0xb319072e	-3.562962e-08
71	0x3eebe9f3	0.46076927
72	0x80003b58	-2.1289e-41
73	0x3f0b8177	0.5449442
74	0x3c931e59	0.017958807
75	0x3ee5deec	0.44896638
76	0xbccd3a4a	-0.025052208
77	0x399452f3	0.00028290562
78	0x3f831020	1.0239296
79	0x3e9ee5ea	0.31034786
80	0x34eff9c3	4.4698945e-07
81	0x3db12d97	0.08651274
82	0x8000f719	-8.8642e-41
83	0xbf0ad812	-0.5423595
84	0x3b7348f4	0.003712234
85	0x369257c0	4.3613545e-06
86	0xaddfff67	-2.5465586e-11
87	0xb7dcb512	-2.6310361e-05
88	0x3e833a5d	0.25630465
89	0x3972d372	0.00023157688
90	0x00009204	5.238e-41
91	0xbdc8bc4f	-0.09801542
92	0x3f1905dc	0.59774566
93	0xb3d8ebe4	-1.0101192e-07
94	0x80009644	-5.3905e-41
95	0x2e9bed98	7.090789e-11
96	0xbd81c137	-0.06335681
97	0x3b8650ed	0.0040990026
98	0x8000500d	-2.8717e-41
99	0x0000682f	3.7374e-41
100	0xb94b6d69	-0.00019400347
101	0xbe307f78	-0.17236125
102	0x28731d10	1.3495512e-14
103	0xbe8b85ad	-0.27250424
104	0x80002f0b	-1.6876e-41
105	0xbec5bf56	-0.3862254
106	0x3b6be3c1	0.0035993906
107	0xa1b2b1ac	-1.2108779e-18
108	0x3a1366e5	0.00056229375
109	0x800049cf	-2.6478e-41
110	0x3f10e876	0.5660471
111	0xbd956d33	-0.07296219
112	0x30a8ccfd	1.228187e-09
113	0xbe0e879a	-0.13918915
114	0x80004e85	-2.8168e-41
115	0x3f279df2	0.6547538
116	0x3b9b285a	0.004735035
117	0x8012a40a	-1.711885e-39
118	0x00007375	4.1418e-41
119	0x39c4d767	0.0003754452
120	0x3d7f12b7	0.062273707
121	0x0000da02	7.8206e-41
122	0x9ae0131a	-9.267509e-23
123	0xbbee54f7	-0.007273312
124	0x3e7cd64b	0.24691121
125	0x00008ab4	4.9757e-41
126	0x0000bed8	6.8462e-41
127	0x00009dbc	5.6584e-41
128	0x3e558dec	0.2085492
129	0x0000292f	1.4774e-41
130	0x9fdab3e2	-9.262418e-20
131	0x07960d0a	2.2577155e-34
132	0x3e8805c5	0.26566902
133	0x3c63aa2e	0.0138955545
134	0xad9056ff	-1.6409539e-11
135	0xbf5df26d	-0.8669804
136	0xa4d921c6	-9.416596e-17
137	0x3e288970	0.16458678
138	0x37f897e7	2.9634639e-05
139	0x3ea180c2	0.31543547
140	0x360dffdf	2.1159574e-06
141	0x2119164b	5.186792e-19
142	0xc030547a	-2.755156
143	0x35d96025	1.6195742e-06
144	0x8a6d5289	-1.1426658e-32
145	0x34818b53	2.4129494e-07
146	0x80012ff0	-1.09032e-40
147	0xbfdd9dc3	-1.731377
148	0x390f24f7	0.00013651313
149	0x000cc179	1.171431e-39
150	0xb19d81d7	-4.5840625e-09
151	0x9fc3d3b0	-8.293592e-20
152	0x3e0e4a15	0.13895448
153	0x38f85fe0	0.000118434196
154	0x80011cee	-1.02214e-40
155	0x00003899	2.0303e-41
156	0x3d873b6f	0.06603133
157	0x3a6667e7	0.00087892864
158	0x80000785	-2.697e-42
159	0x2074b443	2.0727248e-19
160	0x3f7d315a	0.9890343
161	0xb9f6872b	-0.00047021484
162	0x280cc27e	7.813735e-15
163	0x2c06dfe3	1.9166827e-12
164	0x3e604ac9	0.21903528
165	0xbe895e1d	-0.26829615
166	0x39d32e49	0.0004027954
167	0x3f2ffb91	0.68743235
168	0x21691c10	7.898061e-19
169	0xbe036e4a	-0.1283504
170	0x3ddb8731	0.10719145
171	0x3ec7de54	0.3903681
172	0xbdce39ff	-0.100696556
173	0x3be9fecd	0.0071409703
174	0x3fca5d4d	1.5809723
175	0xbe215856	-0.15756354
176	0xbe456247	-0.19275771
177	0xbe155923	-0.14584784
178	0x0af077e2	2.3156254e-32
179	0x3f0795d5	0.52963
180	0x3e17ba5d	0.14817186
181	0x38b5bf26	8.666357e-05
182	0xb79404fc	-1.7645296e-05
183	0x3b58b890	0.0033068992
184	0x3eaf60d6	0.34253567
185	0x3d54408a	0.05181936
186	0x30359bb8	6.6068706e-10
187	0x3ef40832	0.47662503
188	0x3d799e91	0.060942236
189	0x3c647bd6	0.01394554
190	0x31c0f3b1	5.61564e-09
191	0x3e9954a2	0.29947382
192	0x3d8866af	0.0666021
193	0x39734ef8	0.00023203704
194	0x0a4ffd14	1.0014286e-32
195	0x00013186	1.09601e-40
196	0x3e758255	0.23975499
197	0x3ea004a5	0.31253543
198	0xada1b2f2	-1.8383049e-11
199	0xbd2d8545	-0.042363424
200	0x800026d4	-1.3929e-41
201	0x3ea74ec5	0.32677284
202	0x3be0a477	0.0068555432
203	0x3e34bf04	0.17650992
204	0x3d188ebf	0.03724551
205	0x3922e666	0.00015535354
206	0xbf2fc69b	-0.6866242
207	0x3c151e0c	0.009101402
208	0xb18267f8	-3.795318e-09
209	0x3cd34e6f	0.025794236
210	0x13a284d6	4.1025536e-27
211	0xbe00ed75	-0.12590583
212	0x3df81cb8	0.12114853
213	0x8ba625bc	-6.399765e-32
214	0x00001993	9.174e-42
215	0x363b6b70	2.7927708e-06
216	0xbef3ef4b	-0.47643504
217	0x000007ef	2.846e-42
218	0xa9faa3c1	-1.1130637e-13
219	0xbb0a3cb8	-0.002109332
220	0xbf8bce65	-1.0922362
221	0x000181b0	1.38359e-40
222	0x80000f40	-5.47e-42
223	0x0006096e	5.54396e-40
224	0x3ca5359e	0.020167168
225	0x00001d75	1.0567e-41
226	0x0000c0fe	6.9233e-41
227	0x8000649b	-3.609e-41
228	0xb61f6494	-2.375139e-06
229	0x3d5c0813	0.053718638
230	0x0000775e	4.2821e-41
231	0x3ec1724d	0.37782517
232	0x80008bdc	-5.0172e-41
233	0x3ecc98a6	0.39960212
234	0x3ae27b8d	0.0017279253
235	0x3e9f5e0d	0.31126443
236	0xbcd602f1	-0.02612445
237	0x2afef3f5	4.5288743e-13
238	0x3e63d0d2	0.22247627
239	0x32b27f6f	2.0779877e-08
240	0x800096f4	-5.4152e-41
241	0x0013494d	1.77117e-39
242	0x000008bd	3.135e-42
243	0x3ec6be47	0.38817045
244	0x35b4d11c	1.3471904e-06
245	0xb91f4e8b	-0.00015192681
246	0x80004db6	-2.7877e-41
247	0x8000e0b0	-8.0603e-41
248	0xbe6a6a84	-0.22892195
249	0x3dad896d	0.084734775
250	0x000122ad	1.04275e-40
251	0x80003c8c	-2.172e-41
252	0xbeb5d735	-0.35515752
253	0x3a3214a3	0.0006793236
254	0x800072df	-4.1208e-41
255	0x3e810b6c	0.25204027

w_comp f4 [11, 4]
0	0xbf7cc0a7	-0.98731464
1	0x3f1defec	0.61694217
2	0xbdb4bd8d	-0.088252164
3	0xbde77ffe	-0.113037094
4	0xbf4cefbe	-0.8005332
5	0x3ee5a6c9	0.4485381
6	0x3e13f3ea	0.14448515
7	0x3db44956	0.0880305
8	0x3e62217b	0.22083084
9	0x3ee736d2	0.45159012
10	0x3d87a1f5	0.06622688
11	0xbf1129d8	-0.56704473
12	0xbf6ffd89	-0.9374624
13	0x3e6bff1e	0.23046538
14	0x3ec5bac2	0.38619047
15	0xbe54feb4	-0.20800287
16	0xbf188009	-0.59570366
17	0xbdbdcc63	-0.09267499
18	0x3e8d3a43	0.27583513
19	0x3cc125d5	0.02357761
20	0xbfda34a2	-1.7047312
21	0xbf1dc391	-0.61626536
22	0xbdfba01b	-0.12286397
23	0xbe98efc8	-0.2987044
24	0xbfc4ec1d	-1.5384556
25	0xbe3c5f5e	-0.18395755
26	0xbf20f7ef	-0.62878317
27	0xbeb48bae	-0.35262817
28	0x3ebf3b76	0.37350053
29	0xbe8679e8	-0.26264882
30	0xbea5e3f7	-0.32400486
31	0x3df6ee6d	0.12057195
32	0xbdb755e5	-0.0895193
33	0x3c0d7a3a	0.008635098
34	0xbba1a476	-0.0049329353
35	0xbcd97e9d	-0.026549632
36	0x3e089528	0.13338149
37	0xbd798a6e	-0.060923032
38	0x3d41935b	0.04725967
39	0x3db9227d	0.09039781
40	0xbe848b84	-0.25887692
41	0x3e79292d	0.24332114
42	0x3e0b3e00	0.1359787
43	0xbeb3ac6d	-0.35092488

self_loop_weight f4 [8, 32]
0	0x0001654f	1.28178e-40
1	0x389e381b	7.5444776e-05
2	0xb3431710	-4.542295e-08
3	0xa6871fcc	-9.376125e-16
4	0xbde5b26a	-0.112156704
5	0xbdb13d35	-0.086542524
6	0xbd3a6425	-0.04550566
7	0xbf042d07	-0.51631206
8	0xb32fb1c4	-4.090704e-08
9	0xbea8cdd2	-0.32969528
10	0xbdddd169	-0.108309574
11	0xbcdc8089	-0.02691676
12	0xbdf35233	-0.11880913
13	0xbc492537	-0.012276939
14	0x3eaea622	0.34111124
15	0xbe9e2870	-0.30890226
16	0xbe1025bb	-0.14076893
17	0xbd1116bc	-0.03542207
18	0x00008bcd	5.0151e-41
19	0x3de9fa0a	0.11424644
20	0xbce14e29	-0.02750309
21	0x800061cf	-3.5087e-41
22	0x800053ed	-3.0107e-41
23	0xbc5b18e7	-0.013372636
24	0x0000ad08	6.2072e-41
25	0xbd23052d	-0.039799858
26	0x0001095f	9.5197e-41
27	0x80000463	-1.574e-42
28	0xbea204a3	-0.31644163
29	0x3b9b9231	0.004747652
30	0x00008fee	5.1632e-41
31	0x37b105a0	2.1102664e-05
32	0x3f00ea98	0.5035796
33	0xbd254a0e	-0.040353827
34	0xb30d29ca	-3.2867128e-08
35	0xb642091d	-2.8913557e-06
36	0xbe421960	-0.18954992
37	0x3c831938	0.016003236
38	0xbbc43e24	-0.005988853
39	0xbdbe79bc	-0.09300563
40	0xac9bd359	-4.4288293e-12
41	0xbf8a15ff	-1.0787963
42	0xbe105254	-0.14093906
43	0xbeb4f454	-0.35342658
44	0xbe44a2fd	-0.192028
45	0xbc87b28b	-0.016564628
46	0x3dc18df2	0.09450902
47	0xbe80c55a	-0.25150567
48	0x3df0f184	0.117648154
49	0xbe82d598	-0.25553584
50	0xaa9757a5	-2.6883804e-13
51	0xbda22283	-0.07916739
52	0xbea264f2	-0.3171764
53	0xbd9074bb	-0.070535146
54	0xb97f9a59	-0.00024376194
55	0xb93a6c46	-0.00017778677
56	0xbd37a442	-0.044834383
57	0xbdedceb9	-0.11611695
58	0xbb22a9f3	-0.0024820536
59	0xbe4d7c66	-0.20066985
60	0x3e8c4e15	0.27403322
61	0xb9aed46d	-0.00033346136
62	0xb9446a8e	-0.00018731711
63	0xbe9b6cf3	-0.3035656
64	0xbe432e40	-0.19060612
65	0xbc7fe12d	-0.015617651
66	0xb1a5073c	-4.8029545e-09
67	0xb9c24b1c	-0.00037058524
68	0x3da2311b	0.079195224
69	0x3e5c8299	0.21534194
70	0xbce56ed2	-0.028006945
71	0xbf985515	-1.1900965
72	0xabcca3c2	-1.4540524e-12
73	0x3f93d92c	1.1550651
74	0xbd501e84	-0.050810352
75	0xbeb4cbfd	-0.3531188
76	0xbd310277	-0.04321524
77	0xbcd09ef1	-0.025466414
78	0xbefa928b	-0.48939928
79	0xbe2a9e56	-0.16661963
80	0xb932444e	-0.00017000848
81	0x3e41bfff	0.18920897
82	0x80009fde	-5.735e-41
83	0xbe8649e0	-0.26228237
84	0xbd542274	-0.05179067
85	0x38884b0d	6.498965e-05
86	0x9cbf66bd	-1.2665877e-21
87	0xbacd43f2	-0.0015660508
88	0xbee18a81	-0.44050983
89	0xbda4eedf	-0.080533735
90	0xbc016ebe	-0.007899938
91	0xbde55860	-0.11198497
92	0xbeb07dc5	-0.34470955
93	0xbb1e4d3d	-0.0024154924
94	0xb6aa1d97	-5.0698395e-06
95	0x3e61ea89	0.22062124
96	0xbd99fb32	-0.07518615
97	0xbce01a6f	-0.027356355
98	0x84005789	-1.5086522e-36
99	0xaad86f05	-3.8446343e-13
100	0xbbd75f67	-0.006572652
101	0xbd9d847b	-0.07691284
102	0xbb2a1f5c	-0.0025958633
103	0x3dd0c770	0.1019429
104	0x00008620	4.8115e-41
105	0xbeb683ea	-0.35647517
106	0xbd38865e	-0.045050018
107	0x3deed5c1	0.11661864
108	0xbe5421e8	-0.20716059
109	0xb464c837	-2.1306992e-07
110	0xbfbebe32	-1.4901793
111	0x3e09b81c	0.13449138
112	0x351a0b29	5.738571e-07
113	0x3d40d1bc	0.04707502
114	0x94dfe003	-2.2605603e-26
115	0xbee3536f	-0.44399592
116	0x3d55e619	0.05222139
117	0xb89f0b42	-7.583808e-05
118	0xae7ffc96	-5.820463e-11
119	0x3c08e9c9	0.00835652
120	0x3e4d979f	0.2007737
121	0x3e5725ec	0.2101056
122	0xb2a1612f	-1.878706e-08
123	0xbe2eda32	-0.17075422
124	0xbe9c04ce	-0.30472416
125	0x34fa5f20	4.663534e-07
126	0x0000bb46	6.7181e-41
127	0xaddfd67c	-2.5447415e-11
128	0x3f537018	0.82592916
129	0xbd2c803e	-0.04211449
130	0x80009588	-5.3642e-41
131	0xb25c3280	-1.2817168e-08
132	0xbe9318cb	-0.28729853
133	0x3e93885c	0.2881497
134	0xb8ff8892	-0.00012184786
135	0x3e4db8a2	0.20089963
136	0x0001389a	1.1214e-40
137	0x800115a1	-9.9594e-41
138	0x3d884783	0.06654265
139	0xbeb0a18e	-0.34498256
140	0xbcf544a9	-0.029939966
141	0xbb86367b	-0.00409585
142	0xbf70c599	-0.9405151
143	0xbe461c51	-0.1934674
144	0x3e228985	0.15872772
145	0x3ceba8dd	0.028767044
146	0x9e81baa1	-1.3735594e-20
147	0x3e4d81a0	0.2006898
148	0x3d17d187	0.037065055
149	0x39a8d06c	0.00032198743
150	0xb97ff0e8	-0.0002440844
151	0xba7bbdda	-0.000960318
152	0x4009e8b8	2.154829
153	0xbda93fa6	-0.08264093
154	0xb5bb50e9	-1.3956134e-06
155	0xbdd4766d	-0.103741504
156	0x402d22d5	2.705251
157	0xb75cf83a	-1.3170817e-05
158	0xb7475194	-1.1880318e-05
159	0xbe73ee88	-0.23821461
160	0xbf1a050b	-0.60163945
161	0xbd015a67	-0.031580355
162	0xb4c2187e	-3.6153136e-07
163	0xb5a80613	-1.2518743e-06
164	0x3e064afd	0.13114543
165	0xbeee665b	-0.46562466
166	0xbc928a2c	-0.017888151
167	0xbf97984e	-1.1843355
168	0xb4b2c5ab	-3.3298906e-07
169	0xbfc9a436	-1.5753238
170	0xbed59f75	-0.4172322
171	0xbe3f2061	-0.18664695
172	0xbea3801c	-0.31933677
173	0xbd94e0e9	-0.07269461
174	0x3fabd7ca	1.3425229
175	0xbec317b4	-0.38104022
176	0xbe0ef75c	-0.13961548
177	0xbe9e0202	-0.30860907
178	0xa6208f34	-5.570523e-16
179	0xbe99b8cb	-0.30023798
180	0xbe7fd5d2	-0.2498391
181	0xbd955207	-0.07291036
182	0x34b0be77	3.2921136e-07
183	0xbcca1fbc	-0.024673335
184	0xbf80fa5e	-1.0076406
185	0xbd54dd78	-0.05196902
186	0xbbe2c546	-0.0069204895
187	0xbe62a381	-0.22132684
188	0xbf554d29	-0.8332086
189	0x3bbb3b31	0.0057138433
190	0xb33d7313	-4.410965e-08
191	0xbb8d6656	-0.004315178
192	0xbe21ed28	-0.15813124
193	0xbd17141a	-0.036884405
194	0xb29fcbcf	-1.8602718e-08
195	0xb9692420	-0.00022234069
196	0xbdedf159	-0.11618299
197	0xbd1d831f	-0.038455125
198	0xb5205bf7	-5.973847e-07
199	0x3fce5cbd	1.6122051
200	0xaefd7e4b	-1.1527542e-10
201	0x3f4c00e5	0.79688865
202	0xbbdc902a	-0.006731053
203	0xbdaa490e	-0.08314715
204	0xbe6086f4	-0.2192648
205	0xbe44322c	-0.19159764
206	0x3fb1a256	1.3877666
207	0xbe8801d6	-0.265639
208	0xb83b0044	-4.458452e-05
209	0xbe90183c	-0.2814349
210	0x979956d7	-9.909315e-25
211	0xbe923e58	-0.2856319
212	0xbd3a6f92	-0.045516558
213	0x3888cb08	6.522803e-05
214	0xae9826a7	-6.919026e-11
215	0xbc3d1c9a	-0.011542464
216	0xbdbee76f	-0.09321486
217	0x3dbb8a8c	0.09157285
218	0xbae70f13	-0.0017628394
219	0xbe66d978	-0.22543895
220	0xbf197cab	-0.59955853
221	0xbb4b1550	-0.0030988045
222	0x33c64f82	9.234556e-08
223	0x3e6370d9	0.22211017
224	0xbe4721da	-0.19446507
225	0xba2b69e1	-0.00065389095
226	0xb2c333df	-2.2724576e-08
227	0x00008f75	5.1463e-41
228	0x3d12114e	0.035661034
229	0xbdb71b6d	-0.08940778
230	0x82611d0f	-1.6538729e-37
231	0xbf103d8c	-0.56343913
232	0x0000a3cf	5.8763e-41
233	0xbcb8fd51	-0.022581728
234	0xbcbd9831	-0.02314386
235	0xbe9ed499	-0.31021574
236	0xbb42a601	-0.0029700997
237	0x3ab71554	0.0013968148
238	0xbda15053	-0.07876649
239	0x3ab4ef74	0.0013804273
240	0x0000ae74	6.2582e-41
241	0x3d24d95e	0.04024636
242	0x8000b240	-6.3944e-41
243	0xbea074b9	-0.31339052
244	0x2fb128d0	3.2225111e-10
245	0x8e523058	-2.5907775e-30
246	0x00004ae0	2.686e-41
247	0x800039f7	-2.0794e-41
248	0xbcd3f17b	-0.025871983
249	0x00016420	1.27754e-40
250	0xb91eba2e	-0.00015137412
251	0x0001621c	1.2703e-40
252	0xbe866081	-0.26245502
253	0x80007a65	-4.3907e-41
254	0xa01928d2	-1.297311e-19
255	0x8000d061	-7.4752e-41

weight f4 [8, 80]
0	0xbf1233f5	-0.5711053
1	0xbe838f2b	-0.25695166
2	0x3eaa96f8	0.33318305
3	0x3e94fb0c	0.29097784
4	0x00013417	1.10522e-40
5	0xbe9b3034	-0.30310214
6	0xba5c976b	-0.0008414897
7	0x80008941	-4.9237e-41
8	0x3d4e18d1	0.050316636
9	0xbf1e0cb2	-0.6173812
10	0xbe8fd5fc	-0.28092945
11	0x3e995074	0.29944193
12	0xbebfc09f	-0.37451646
13	0xbee40aa0	-0.44539356
14	0x3ea6c54d	0.32572404
15	0x80002305	-1.2563e-41
16	0xbcfd6b90	-0.030935079
17	0x3d43f2cb	0.047838967
18	0x3d132c39	0.035930846
19	0xbd718c10	-0.058971465
20	0x3d42bebd	0.047545183
21	0x3d423862	0.047417052
22	0x3cede4d0	0.02903977
23	0x3d70d084	0.058792606
24	0xbd06a39e	-0.03287088
25	0x3d3f57f4	0.046714738
26	0x3d32ccd9	0.04365239
27	0xbcfea43f	-0.031084178
28	0x3d73c935	0.059518058
29	0xbd507b34	-0.050898746
30	0x3d2bb1b3	0.041917514
31	0x3d435c9a	0.047695734
32	0x3d45c4c6	0.04828336
33	0x3d436ffa	0.04771421
34	0xbcfc76ee	-0.030818429
35	0x3d50f5c1	0.05101562
36	0xbd1f31d3	-0.038865875
37	0x3ca3c8c0	0.019993186
38	0xbce15c47	-0.027509822
39	0xbd46df94	-0.048553064
40	0x3d7102a2	0.0588404
41	0x3d46f818	0.048576444
42	0xbd759c52	-0.05996353
43	0xbd0fb955	-0.035088856
44	0xbd4774ac	-0.04869525
45	0x3cbb71d3	0.022881424
46	0xbd41016b	-0.047120493
47	0xbd4755a8	-0.048665673
48	0xbd759862	-0.059959777
49	0x3db6f1a9	0.08932812
50	0x3d9797b2	0.074019805
51	0xbdd4fd6f	-0.10399901
52	0x3db9add2	0.09066357
53	0x3dbcec5f	0.09224772
54	0x3d5f674b	0.054541867
55	0x3dd880b7	0.105714254
56	0xbd88403f	-0.06652879
57	0x3dcce202	0.10004045
58	0x3daf07f4	0.08546439
59	0xbd94ca6c	-0.072651714
60	0x3dd89eed	0.10577188
61	0xbdc81cd3	-0.09771123
62	0x3d9f34c1	0.07773734
63	0x3db688bb	0.08912798
64	0x3dbf1a5b	0.09331199
65	0x3dc10bd6	0.09426086
66	0xbd793f52	-0.060851403
67	0x3dbdf6de	0.09275602
68	0xbd82f930	-0.06395185
69	0x3d4ccbcd	0.049999047
70	0xbd9bc9d5	-0.07606856
71	0xbd929462	-0.07157208
72	0x3dd35b80	0.103201866
73	0x3dbfae51	0.0935942
74	0xbdd914f7	-0.10599702
75	0xbd8f5419	-0.06998462
76	0xbd8fe3e7	-0.07025891
77	0x3d55a0f1	0.05215544
78	0xbdb611bb	-0.088901006
79	0xbd8d9286	-0.06912713
80	0x800117b4	-1.00339e-40
81	0xb8b8364e	-8.783919e-05
82	0xadb9e846	-2.1135215e-11
83	0x92b50196	-1.1423097e-27
84	0x3283c2b5	1.533895e-08
85	0xafe5dc64	-4.1811454e-10
86	0xb87b72e9	-5.995008e-05
87	0x8000871a	-4.8465e-41
88	0x338e17a3	6.61669e-08
89	0xb997ac04	-0.00028929126
90	0x149ca2b9	1.5816157e-26
91	0x0000829e	4.6857e-41
92	0xb9053d81	-0.0001270678
93	0xb49fb0a3	-2.9744578e-07
94	0xa04b941d	-1.7243775e-19
95	0x0000b07c	6.331e-41
96	0x2143fecd	6.6405796e-19
97	0x28a8c094	1.8735264e-14
98	0x0cc38889	3.0126681e-31
99	0x08ffe76b	1.540166e-33
100	0x1710c3fd	4.677628e-25
101	0x1811ef34	1.8861577e-24
102	0xa8468ec2	-1.1022164e-14
103	0x11454bf1	1.5563961e-28
104	0x2115e599	5.0787034e-19
105	0x88f5890a	-1.4777619e-33
106	0x236d1eec	1.2854344e-17
107	0xa4c9685e	-8.734666e-17
108	0x110b68d4	1.0997469e-28
109	0x95bf9760	-7.7383113e-26
110	0x2e45d540	4.4982018e-11
111	0x0dda1df3	1.3442497e-30
112	0x11dbe5ff	3.4693854e-28
113	0x179cfca0	1.0145035e-24
114	0x27bb5cc7	5.2003516e-15
115	0x14d74bb3	2.173931e-26
116	0x9a582a46	-4.47019e-23
117	0xaf3920dc	-1.6837326e-10
118	0x2986bd3f	5.9836244e-14
119	0x273c1214	2.6100041e-15
120	0x2cfc7c64	7.176081e-12
121	0x10e713f3	9.114417e-29
122	0x90a1af82	-6.3773715e-29
123	0x9b8c9473	-2.325699e-22
124	0x26530ab3	7.321983e-16
125	0x21a98f14	1.1489758e-18
126	0x9f5c414a	-4.6640818e-20
127	0x25e31b5e	3.9396768e-16
128	0x17bc60a1	1.2173608e-24
129	0x229f7c9c	4.322897e-18
130	0x80001f3f	-1.1209e-41
131	0x8faa769d	-1.6808982e-29
132	0x147309dc	1.2270309e-26
133	0x1a83576b	5.432156e-23
134	0x96ab8f83	-2.7717109e-25
135	0x12d4eb72	1.3437123e-27
136	0x15a98555	6.846892e-26
137	0x12aeec95	1.1039266e-27
138	0x0859b163	6.550958e-34
139	0x9ccc9492	-1.3537992e-21
140	0x146f4340	1.2079679e-26
141	0x98441467	-2.5342707e-24
142	0x20b43989	3.053126e-19
143	0x030b1248	4.0869415e-37
144	0x1b0b8ac0	1.1542643e-22
145	0x1a3d714e	3.917581e-23
146	0x134de48c	2.598732e-27
147	0x00003481	1.8835e-41
148	0x9f2b15b9	-3.6228627e-20
149	0x1bbfa76a	3.1706488e-22
150	0x8f0ca75f	-6.9347674e-30
151	0x20beb7c7	3.2308866e-19
152	0x9650a252	-1.6853325e-25
153	0x1a9bf78c	6.450643e-23
154	0x94183c2e	-7.685907e-27
155	0x9bed0b49	-3.9215654e-22
156	0x216e7061	8.078627e-19
157	0x002b1a5e	3.958385e-39
158	0x00004c6b	2.7414e-41
159	0x214540a9	6.6831773e-19
160	0x000062d9	3.546e-41
161	0x8000d8cd	-7.7773e-41
162	0x927d76c5	-7.997912e-28
163	0x8007f39c	-7.30239e-40
164	0x0000ac37	6.1779e-41
165	0x9638d5db	-1.4930883e-25
166	0x800069c7	-3.7946e-41
167	0x00005257	2.9538e-41
168	0x8001180a	-1.00459e-40
169	0x0c3c2a82	1.4495785e-31
170	0x0000ef87	8.5926e-41
171	0x0000c41a	7.0348e-41
172	0x8000dac2	-7.8476e-41
173	0x8000a744	-6.0004e-41
174	0x9229ed91	-5.361982e-28
175	0x000163bd	1.27615e-40
176	0x80007c7a	-4.4654e-41
177	0x80006918	-3.77e-41
178	0x00011be5	1.01842e-40
179	0x80015e28	-1.25612e-40
180	0x80003c77	-2.169e-41
181	0x8000228a	-1.239e-41
182	0x800069d8	-3.797e-41
183	0x80004ddc	-2.793e-41
184	0x8000ffb0	-9.1723e-41
185	0x00002d68	1.6289e-41
186	0x80007d9a	-4.5057e-41
187	0x800033e0	-1.8609e-41
188	0x8001123e	-9.838e-41
189	0x80018aca	-1.41624e-40
190	0x80010c98	-9.6353e-41
191	0x80001b86	-9.874e-42
192	0x800152b8	-1.2151e-40
193	0x00016752	1.289e-40
194	0x800045ac	-2.4994e-41
195	0x80007fc1	-4.583e-41
196	0x8001291e	-1.06586e-40
197	0x80002a81	-1.5248e-41
198	0x800118b7	-1.00702e-40
199	0x8000253e	-1.336e-41
200	0x00002788	1.4181e-41
201	0x8000814a	-4.638e-41
202	0x0000d1c8	7.5255e-41
203	0x80010392	-9.3116e-41
204	0x8000f634	-8.8321e-41
205	0x8000ba46	-6.6822e-41
206	0x00006539	3.6312e-41
207	0x800134a0	-1.10714e-40
208	0x0000d075	7.478e-41
209	0x00007d6a	4.499e-41
210	0x0000bf1a	6.8554e-41
211	0x00010fcd	9.7504e-41
212	0x8000173b	-8.334e-42
213	0x8000e1f9	-8.1064e-41
214	0x0001221b	1.0407e-40
215	0x0000e508	8.2161e-41
216	0x800024a1	-1.314e-41
217	0x00016899	1.29358e-40
218	0x0000db5a	7.8689e-41
219	0x80010ef6	-9.7202e-41
220	0x80007a8d	-4.3963e-41
221	0x8000ef57	-8.5859e-41
222	0x0000df71	8.0156e-41
223	0x80013ee4	-1.14396e-40
224	0x00003402	1.8657e-41
225	0x8001a477	-1.50834e-40
226	0x80011fe4	-1.03276e-40
227	0x0000b18e	6.3695e-41
228	0x0000a7e2	6.0225e-41
229	0x80000c2c	-4.366e-42
230	0x00011d1c	1.02278e-40
231	0x8000e589	-8.2342e-41
232	0x0000f457	8.7653e-41
233	0x80007275	-4.106e-41
234	0x000134a5	1.10721e-40
235	0x0000b662	6.5427e-41
236	0x80015170	-1.2105e-40
237	0x8000cf58	-7.4381e-41
238	0x000050a4	2.8928e-41
239	0x00010396	9.3122e-41
240	0xbe9f873a	-0.31157857
241	0x3e4dca3c	0.20096678
242	0xbe731327	-0.23737775
243	0x3de6f1ef	0.11276614
244	0x3ecbd545	0.3981115
245	0xbe802804	-0.2503053
246	0x3d90c41a	0.070686534
247	0xbd36d7e6	-0.04463949
248	0x3f032d26	0.51240766
249	0xbf5bb547	-0.8582348
250	0xbdc85918	-0.09782618
251	0x3e81efdd	0.25378314
252	0xbeae2529	-0.34012726
253	0xbed04d67	-0.40684053
254	0x3f0a5feb	0.5405261
255	0x9c435d60	-6.464077e-22

bias f4 [8]
0	0xbe999563	-0.29996786
1	0xb898e1c0	-7.289974e-05
2	0x8fb4f3c5	-1.7843267e-29
3	0xbec56a39	-0.38557604
4	0xb735abb6	-1.082842e-05
5	0x3def1c48	0.11675316
6	0xbe761670	-0.24031997
7	0x9dcae6ee	-5.370773e-21

weight f4 [1, 8]
0	0x3e666cca	0.22502437
1	0x3a89c221	0.0010510125
2	0xbe5f39b0	-0.2179935
3	0x3dbf5460	0.09342265
4	0x39aeb90e	0.00033325743
5	0x3f04a57f	0.51815027
6	0xbd898d51	-0.06716407
7	0xb9d56bc4	-0.00040706818

weight f4 [4, 32, 32]
0	0xbd527993	-0.051385473
1	0xab9f5e90	-1.1323876e-12
2	0xbda73dd8	-0.08166093
3	0x06e6c5c5	8.680698e-35
4	0xbeb208b1	-0.34772256
5	0x80001bfe	-1.0042e-41
6	0xb51441c2	-5.5229987e-07
7	0x90c55391	-7.7831554e-29
8	0x33c2d7c3	9.073076e-08
9	0x8c253129	-1.2725931e-31
10	0x0c9b47fc	2.3924855e-31
11	0x3cb90e8c	0.022589944
12	0x3e9d4a84	0.30720913
13	0xbe4aa5da	-0.1978983
14	0x3e24b99d	0.16086431
15	0xbe617c0a	-0.22019973
16	0x1ba287d9	2.6888441e-22
17	0x3c48c1d9	0.012253248
18	0xbe9e8f85	-0.30968872
19	0x0bb094e8	6.8016783e-32
20	0x0bfab23e	9.6564686e-32
21	0xbee01201	-0.43763736
22	0x90b8b6f0	-7.2857063e-29
23	0x39be7863	0.0003632932
24	0x3d390255	0.04516824
25	0xb8c56b0e	-9.4136325e-05
26	0x2f8f1f0c	2.6033609e-10
27	0x8c67320a	-1.7810651e-31
28	0x36534249	3.1480033e-06
29	0x38fd334f	0.00012073537
30	0xb56bad49	-8.7796485e-07
31	0x3d7f0f02	0.062270172
32	0x8000fa52	-8.9798e-41
33	0x1c3576bf	6.004135e-22
34	0x32b834ab	2.144437e-08
35	0x800346f0	-3.00954e-40
36	0x3467c703	2.1585952e-07
37	0x8000fc5b	-9.0528e-41
38	0x80007dbd	-4.5106e-41
39	0x8005ba2e	-5.25966e-40
40	0x23cf08ae	2.2446661e-17
41	0x80012bda	-1.07566e-40
42	0x0000f371	8.733e-41
43	0x217ec311	8.6316716e-19
44	0x0000d1c5	7.5251e-41
45	0x80006f0b	-3.9835e-41
46	0x0325b42f	4.8695983e-37
47	0xa4818e8f	-5.6186336e-17
48	0x80006ad5	-3.8324e-41
49	0x00001172	6.258e-42
50	0x800c4e05	-1.130014e-39
51	0x197cecfa	1.3075952e-23
52	0x01850792	4.8867347e-38
53	0x9f8dc088	-6.003434e-20
54	0x00015bbf	1.24748e-40
55	0x80013b4f	-1.13111e-40
56	0x800040d3	-2.3255e-41
57	0x1e679d61	1.2261583e-20
58	0x0000c2e0	6.9908e-41
59	0x000112fc	9.8646e-41
60	0x800078f9	-4.3397e-41
61	0x22eb4d94	6.3779017e-18
62	0x80005a2b	-3.2346e-41
63	0x8000d384	-7.5878e-41
64	0x800037cc	-2.0016e-41
65	0x0000ac10	6.1724e-41
66	0x00007fe6	4.5881e-41
67	0x8000635c	-3.5643e-41
68	0x02d93c5d	3.191993e-37
69	0x0000647b	3.6046e-41
70	0x8001a042	-1.49325e-40
71	0x80008daf	-5.0826e-41
72	0x80008326	-4.7047e-41
73	0x8000f9ed	-8.9656e-41
74	0x8001a0be	-1.49499e-40
75	0x800135a0	-1.11073e-40
76	0x00003abd	2.1071e-41
77	0x8000347d	-1.8829e-41
78	0x000017b4	8.503e-42
79	0x000087ab	4.8668e-41
80	0x00007737	4.2766e-41
81	0x000133fc	1.10484e-40
82	0x000001dc	6.67e-43
83	0x800055a1	-3.0718e-41
84	0x8000774c	-4.2796e-41
85	0x80004380	-2.4214e-41
86	0x0000874d	4.8537e-41
87	0x00159784	1.982899e-39
88	0x0001a285	1.50137e-40
89	0x00001fd9	1.1425e-41
90	0x00015e50	1.25668e-40
91	0x00001e73	1.0923e-41
92	0x000015c7	7.812e-42
93	0x80004856	-2.5949e-41
94	0x80013a52	-1.12757e-40
95	0x00009179	5.2186e-41
96	0x80006391	-3.5718e-41
97	0x0000822d	4.6698e-41
98	0x00003d89	2.2075e-41
99	0x80017df1	-1.37015e-40
100	0x373cd0c3	1.1254279e-05
101	0x8000be56	-6.828e-41
102	0x0000a920	6.067e-41
103	0x8000dbc9	-7.8844e-41
104	0x0000491a	2.6224e-41
105	0x8000e290	-8.1275e-41
106	0x00004cc5	2.754e-41
107	0x80012fe8	-1.09021e-40
108	0x80001428	-7.23e-42
109	0x80008d8c	-5.0777e-41
110	0x000141f7	1.15499e-40
111	0x000095b5	5.3705e-41
112	0x8000156f	-7.689e-42
113	0x00006ca7	3.8977e-41
114	0x800197a1	-1.4623e-40
115	0x00015612	1.22712e-40
116	0x8000dae6	-7.8526e-41
117	0x2fb5aa61	3.304477e-10
118	0x800089b1	-4.9394e-41
119	0x8000a83b	-6.035e-41
120	0x80012f99	-1.0891e-40
121	0x80019659	-1.4577e-40
122	0x80005518	-3.0526e-41
123	0x000013d6	7.116e-42
124	0x80008043	-4.6012e-41
125	0x80014cb1	-1.19347e-40
126	0x0000569f	3.1074e-41
127	0x80001570	-7.69e-42
128	0x3b007beb	0.001960511
129	0x2cc57c3e	5.6128704e-12
130	0x3c9b14bd	0.018930787
131	0x0760eb73	1.6921079e-34
132	0x3dd8968e	0.10575591
133	0x31613408	3.2771386e-09
134	0x0e5e3e1e	2.7393521e-30
135	0x10a4e61f	6.504115e-29
136	0x35ca7ec3	1.5087065e-06
137	0x800048bc	-2.6092e-41
138	0x80dd0461	-2.0297216e-38
139	0x3ab369fd	0.0013688203
140	0xba9c4910	-0.001192363
141	0x3afdaa77	0.0019353171
142	0x3c8e38c7	0.017361058
143	0x3a0ac15a	0.0005293094
144	0x92e14e1a	-1.421875e-27
145	0x349d29c3	2.9273914e-07
146	0xba6be51b	-0.0008998678
147	0x3ac31030	0.0014882144
148	0x8285b213	-1.9644803e-37
149	0x3d0af3ef	0.03392404
150	0x2ac3cc7f	3.4780856e-13
151	0x346631c3	2.1438522e-07
152	0xb9db9b63	-0.00041886707
153	0x90455e8d	-3.892424e-29
154	0x343dd16f	1.7678188e-07
155	0x8c458b42	-1.5218234e-31
156	0xb7787a0d	-1.4810369e-05
157	0x9304ebc9	-1.6776993e-27
158	0xb5ab481b	-1.2761478e-06
159	0x385b83f3	5.2336556e-05
160	0xbd810d7b	-0.06301399
161	0x9ad8740e	-8.9523e-23
162	0xbea82be2	-0.3284598
163	0xad87f1c2	-1.5455085e-11
164	0xbea33736	-0.3187806
165	0x9fc70d44	-8.4301724e-20
166	0xb8bca03e	-8.994386e-05
167	0x1194555b	2.3402887e-28
168	0xb490980c	-2.693272e-07
169	0x8c6b6f11	-1.8137164e-31
170	0x0d569b64	6.6130886e-31
171	0x3e893fd7	0.26806518
172	0x3eb36e3b	0.35045037
173	0xbd99d63d	-0.07511566
174	0x3e90d700	0.28289032
175	0xbe86a011	-0.26293996
176	0x36658ce7	3.4205675e-06
177	0x3bbe90a7	0.0058155837
178	0xbeac0311	-0.3359609
179	0x10be6e2c	7.511153e-29
180	0x8b8123f8	-4.974311e-32
181	0xbef543a1	-0.4790316
182	0xa40dc1f3	-3.0738783e-17
183	0x3891b069	6.946998e-05
184	0x3dadebde	0.08492254
185	0xb502e3f3	-4.8760484e-07
186	0x90fd38e1	-9.987854e-29
187	0x8fc4bb2a	-1.9399185e-29
188	0x35f2217f	1.8040154e-06
189	0x3aa49517	0.0012556639
190	0x32a6091a	1.9329082e-08
191	0x3ecc8a6c	0.39949358
192	0x00002cfb	1.6136e-41
193	0x8014c087	-1.905776e-39
194	0xa94b10ff	-4.5089797e-14
195	0x8001a96c	-1.52613e-40
196	0xa07476db	-2.070693e-19
197	0x0001a05c	1.49362e-40
198	0x00003dfb	2.2234e-41
199	0x80013c0c	-1.13376e-40
200	0x9e1289ea	-7.757696e-21
201	0x00006599	3.6446e-41
202	0x800004cc	-1.721e-42
203	0x80009c59	-5.6087e-41
204	0x00004e4a	2.8085e-41
205	0x9c936063	-9.752559e-22
206	0x00016b29	1.30277e-40
207	0x8000247f	-1.3092e-41
208	0x00009955	5.5005e-41
209	0x00040b60	3.71423e-40
210	0x00001ff7	1.1467e-41
211	0x80000b1d	-3.987e-42
212	0x000183bf	1.39097e-40
213	0x08176530	4.5558855e-34
214	0x00018dbe	1.42683e-40
215	0x8039cde0	-5.308477e-39
216	0x000178ec	1.35214e-40
217	0x0000708e	4.0377e-41
218	0x000091cd	5.2303e-41
219	0x0000ba55	6.6843e-41
220	0x0000911a	5.2053e-41
221	0x8000f6c1	-8.8519e-41
222	0x8000ed7f	-8.5198e-41
223	0x0000e568	8.2295e-41
224	0x3df18bdf	0.117942564
225	0xba8bc70d	-0.001066418
226	0x3f10e8b9	0.56605107
227	0x2b053a1b	4.733173e-13
228	0x3dc94fb3	0.098296545
229	0xb6ecac30	-7.0533933e-06
230	0xa3a9a78d	-1.8393977e-17
231	0x10c299be	7.6756385e-29
232	0x3d678326	0.056521557
233	0x0ce78879	3.5673322e-31
234	0x337cee1f	5.8889892e-08
235	0x3692e5da	4.3778973e-06
236	0xbe89fbf7	-0.26950046
237	0xbcd5f564	-0.026117988
238	0x3ea38958	0.31940722
239	0xbca619a5	-0.0202759
240	0xbac05419	-0.00146735
241	0xbe3ff90e	-0.1874735
242	0x3e0bdc46	0.13658246
243	0x3cba1e6f	0.02271959
244	0x37d540b5	2.542171e-05
245	0xbd7cd04c	-0.061722085
246	0x366af1c3	3.500944e-06
247	0x3bed7c4f	0.0072474848
248	0xbd17bdfa	-0.03704641
249	0xb6b16b01	-5.287468e-06
250	0x3431a314	1.6543737e-07
251	0x35387d46	6.872764e-07
252	0x36cc438b	6.087537e-06
253	0x38f0a4bc	0.00011474776
254	0xb39ba353	-7.2474585e-08
255	0x3e202e51	0.15642668

w_comp f4 [11, 4]
0	0xbe91ff58	-0.28515124
1	0x3decd40e	0.11563884
2	0x3e494ab3	0.19657402
3	0x3f0859dd	0.5326212
4	0x3bf9cb3d	0.007623105
5	0xbe572f58	-0.21014154
6	0x3d9d1f9e	0.07672046
7	0x3e596538	0.21230018
8	0x3f0bb313	0.5457012
9	0x3c942a2d	0.018086517
10	0xbd87c874	-0.0663003
11	0x3e5244ed	0.20534106
12	0x3f1f42f3	0.6221153
13	0xbe6e5f38	-0.2327851
14	0x3e468531	0.19386746
15	0x3eae0c2f	0.3399367
16	0x3d0d8279	0.034548257
17	0x3e949049	0.2901633
18	0x3d22763c	0.03966354
19	0x3f42b65f	0.76059526
20	0xbdd1f9a8	-0.10252696
21	0xbe4d8485	-0.20070083
22	0x3e33c07f	0.175539
23	0xbed84c26	-0.42245597
24	0xbebd54ce	-0.36978763
25	0xbe065e58	-0.13121927
26	0x3ed3486b	0.41266188
27	0xbf60d54c	-0.87825465
28	0x8001819b	-1.38329e-40
29	0x8000ca8f	-7.2664e-41
30	0xb7f82cd3	-2.9584777e-05
31	0x000056cd	3.1138e-41
32	0xbe32c64d	-0.17458458
33	0xbb896800	-0.004193306
34	0xbb0bd66f	-0.002133753
35	0x3e2d9faa	0.16955438
36	0x0000d578	7.6578e-41
37	0x00005b97	3.2856e-41
38	0xba75bcaa	-0.00093741214
39	0x8000ea1a	-8.398e-41
40	0xbee061a3	-0.4382449
41	0xbebc0f43	-0.36730394
42	0x3ea1f37b	0.31631073
43	0xbe9ade5d	-0.30247775

self_loop_weight f4 [32, 32]
0	0xbf68468c	-0.90732646
1	0xbded2f86	-0.1158133
2	0x3ef11854	0.47088873
3	0x079e3635	2.3805058e-34
4	0xbe51d96a	-0.20493093
5	0x39adaaea	0.00033124472
6	0xb7b90707	-2.2056991e-05
7	0xb9fb66f0	-0.00047951145
8	0xbd9df667	-0.07713013
9	0xb78c0072	-1.6689508e-05
10	0xb97b11e2	-0.00023943887
11	0xbb1d1939	-0.0023971333
12	0xbe79bd91	-0.2438872
13	0xbcc62836	-0.024189096
14	0xbf849ae6	-1.0359771
15	0x3e7a7862	0.24459985
16	0xbe491a24	-0.19638878
17	0xbf5bb3f1	-0.85821444
18	0x3f7f1c49	0.99652535
19	0x3c4368da	0.011926854
20	0x800027b4	-1.4243e-41
21	0x3e2ec3d7	0.17066894
22	0x1891f275	3.772644e-24
23	0xbe4ad2a1	-0.19806911
24	0xbe92d83f	-0.28680608
25	0x3d7ed1a1	0.062211636
26	0x3c5241b3	0.012833047
27	0xbcf302db	-0.029664448
28	0xb1c7b8b4	-5.8126606e-09
29	0xbd21657b	-0.03940342
30	0xbb20f0cb	-0.0024557586
31	0xbe9c48c2	-0.3052426
32	0x28eeea25	2.6524852e-14
33	0x9185e33f	-2.1123751e-28
34	0xba1fae64	-0.0006091355
35	0x8000b234	-6.3927e-41
36	0x39b73c70	0.0003494951
37	0x33d798dd	1.0039523e-07
38	0x80045fed	-4.01754e-40
39	0x80049891	-4.22072e-40
40	0xa528d1ba	-1.4642735e-16
41	0xb0be5215	-1.3847649e-09
42	0x80001f54	-1.1238e-41
43	0x3a79feb8	0.0009536552
44	0xb6dd497e	-6.594869e-06
45	0xb8ea28fb	-0.00011165623
46	0x103b8ce5	3.698779e-29
47	0x381d10f4	3.7447506e-05
48	0x80011b40	-1.01611e-40
49	0x000018d1	8.902e-42
50	0xb51855c2	-5.6749207e-07
51	0x36285343	2.5082416e-06
52	0x26313c13	6.1490627e-16
53	0xbb9fb6f4	-0.0048741046
54	0x00000da0	4.888e-42
55	0xb50977df	-5.121091e-07
56	0x00010875	9.487e-41
57	0x22b4cfbf	4.9009057e-18
58	0x360bc5cc	2.0827747e-06
59	0x00008263	4.6774e-41
60	0x8b231c02	-3.141373e-32
61	0x32186929	8.871475e-09
62	0x00000a8b	3.782e-42
63	0xb73e662f	-1.1348674e-05
64	0x8000866d	-4.8223e-41
65	0x0000f0b6	8.6351e-41
66	0xb1fd4535	-7.371137e-09
67	0x800090cd	-5.1945e-41
68	0xab00169f	-4.550613e-13
69	0x8000338e	-1.8494e-41
70	0x00010649	9.409e-41
71	0x0001a063	1.49371e-40
72	0x00008898	4.9e-41
73	0x800075c5	-4.2248e-41
74	0x0001916b	1.44002e-40
75	0x022cf940	1.2708096e-37
76	0x80012eab	-1.08577e-40
77	0x800056f3	-3.1192e-41
78	0x80002d8a	-1.6336e-41
79	0x80008ab3	-4.9756e-41
80	0x00009b28	5.566e-41
81	0x8000bcc4	-6.7716e-41
82	0x00015935	1.23837e-40
83	0x80004f0f	-2.8361e-41
84	0x8000e9ea	-8.3913e-41
85	0x1a0e2e5e	2.9402367e-23
86	0x0000e7f9	8.3216e-41
87	0x800062fb	-3.5508e-41
88	0x80010020	-9.188e-41
89	0x80001e93	-1.0968e-41
90	0x0000f705	8.8614e-41
91	0x80005acf	-3.2576e-41
92	0x8000d8b9	-7.7745e-41
93	0x000013bd	7.081e-42
94	0x0000b186	6.3683e-41
95	0x00008e2c	5.1002e-41
96	0x0001510a	1.20907e-40
97	0x00001c9a	1.026e-41
98	0xb5e3f583	-1.6984271e-06
99	0x8358e06d	-6.3734323e-37
100	0x33067a1b	3.131036e-08
101	0x8000f716	-8.8638e-41
102	0x80014951	-1.18136e-40
103	0x80007e85	-4.5387e-41
104	0xa7aec969	-4.851307e-15
105	0x00007cfb	4.4835e-41
106	0x80016152	-1.26747e-40
107	0x0ad84cab	2.0828883e-32
108	0x8000c01b	-6.8914e-41
109	0x80017ca8	-1.36554e-40
110	0x80003e43	-2.2335e-41
111	0x0e472fd7	2.4551678e-30
112	0x0000f707	8.8617e-41
113	0x0000dd7a	7.9451e-41
114	0x000066f1	3.6928e-41
115	0x8000323b	-1.8019e-41
116	0x80005e2f	-3.3787e-41
117	0x1c0c7e7d	4.6485597e-22
118	0x0000d4a1	7.6277e-41
119	0x00003fa4	2.283e-41
120	0x000045db	2.506e-41
121	0x8000870f	-4.845e-41
122	0x80004cef	-2.7599e-41
123	0x0001356f	1.11004e-40
124	0x800015e5	-7.854e-42
125	0x80011961	-1.0094e-40
126	0x0de936d6	1.4372935e-30
127	0x00008754	4.8547e-41
128	0xbe3a7048	-0.18206894
129	0xba039a36	-0.00050202326
130	0xbe96099e	-0.29304212
131	0x802f22db	-4.328772e-39
132	0x3d1a828d	0.03772216
133	0xb2a3ca12	-1.9067588e-08
134	0x1ca3dbdf	1.0843271e-21
135	0xb08a140d	-1.004652e-09
136	0xbc95bc86	-0.018278372
137	0xb0221db6	-5.897748e-10
138	0x8af4d919	-2.3578008e-32
139	0xbb2b6f54	-0.0026158886
140	0x3ad2e5a7	0.001609017
141	0x3e09a372	0.13441256
142	0xbd4b9029	-0.04969803
143	0xbd661e51	-0.056181256
144	0x90506cd3	-4.1104602e-29
145	0x3ba3efa1	0.005002931
146	0x3d87c222	0.06628825
147	0x36b43680	5.3707627e-06
148	0x85cd4942	-1.9305018e-35
149	0x3d80e522	0.062937036
150	0xb3110c6e	-3.3771748e-08
151	0xbc40e4de	-0.011773316
152	0x3aaab74c	0.0013024597
153	0x98b93103	-4.787087e-24
154	0xb4455ca7	-1.8380761e-07
155	0x8aa6ab84	-1.6049736e-32
156	0x1520d64d	3.2480796e-26
157	0x12a1bf48	1.0207683e-27
158	0xa89931ad	-1.7007956e-14
159	0x3be18fc2	0.0068835923
160	0x3e9116d2	0.28337723
161	0x3d11b2f8	0.03557107
162	0x3ee7dd05	0.45285812
163	0x1f30cedc	3.744056e-20
164	0x3e6b933c	0.23005384
165	0x3a1a876a	0.0005894812
166	0xba502bef	-0.0007941117
167	0x3e17cd44	0.14824396
168	0xbc8f8d13	-0.017523324
169	0xb9927f5b	-0.00027942177
170	0xbb0a399a	-0.0021091462
171	0x36477ff0	2.972778e-06
172	0xbe00d204	-0.12580115
173	0xb6ad335a	-5.16178e-06
174	0x3e88372d	0.26604596
175	0x3efd436c	0.494655
176	0x300a3590	5.0280224e-10
177	0x3d84ebe1	0.06490303
178	0xbeba3508	-0.36368585
179	0x3cafdf72	0.021468852
180	0x90505638	-4.1087188e-29
181	0x3dc4ffbe	0.096190915
182	0x8f6c9e18	-1.1666146e-29
183	0xbd8e19e9	-0.06938536
184	0x3d55028a	0.052004375
185	0xbb84a9ab	-0.0040485463
186	0x3c9285bb	0.017886033
187	0xb9fcdd15	-0.00048229904
188	0xb841567a	-4.6095323e-05
189	0xbb323b04	-0.002719582
190	0xba19de1c	-0.00058695837
191	0xbd2e56ca	-0.042563237
192	0x373eed16	1.1380083e-05
193	0x0161f990	4.1505026e-38
194	0x318b90f3	4.0619113e-09
195	0x196157b0	1.1649936e-23
196	0x3c13d57e	0.0090230685
197	0x81efd096	-8.809404e-38
198	0x8000bbd0	-6.7374e-41
199	0x0000d83b	7.7569e-41
200	0x2c9ff23b	4.545945e-12
201	0x27f2a265	6.734456e-15
202	0x80165811	-2.051973e-39
203	0x379580d5	1.7822176e-05
204	0x96aab161	-2.7576923e-25
205	0x813f7aea	-3.5169346e-38
206	0x800034da	-1.896e-41
207	0xb7488769	-1.1952457e-05
208	0x91f28da2	-3.8268156e-28
209	0x804a4435	-6.820295e-39
210	0x8000438f	-2.4235e-41
211	0x0033c1dd	4.753155e-39
212	0x80001f8b	-1.1315e-41
213	0x3bde0930	0.0067759976
214	0x0000571b	3.1248e-41
215	0x80dc4426	-2.0228256e-38
216	0x003470d8	4.815927e-39
217	0x2dd2b394	2.3953985e-11
218	0xab6c39ce	-8.3924263e-13
219	0x349dfe5b	2.9428597e-07
220	0x000036bd	1.9636e-41
221	0xb16b21d8	-3.4216239e-09
222	0xb16be8fb	-3.4329435e-09
223	0x8001142c	-9.9072e-41
224	0xbe955c6f	-0.29172084
225	0xbca81868	-0.02051945
226	0x3eea7933	0.45795593
227	0x1d1e0829	2.0915345e-21
228	0x4000b811	2.0112345
229	0xbb8984c0	-0.0041967332
230	0xb9e197a9	-0.0004302834
231	0xbe8dfbb0	-0.27731085
232	0x3c017e47	0.007903642
233	0xbdc4bed6	-0.096067116
234	0xbb96f10e	-0.0046063727
235	0xbdaf56da	-0.085614875
236	0xbd9162d5	-0.07098929
237	0xbc11dedd	-0.008903232
238	0xbe09ac24	-0.13444573
239	0x3ed54c54	0.41659796
240	0xbcc4af22	-0.024009291
241	0xbe80c3f7	-0.2514951
242	0x3f491eb2	0.7856246
243	0x3e1dffb7	0.15429579
244	0xb8243fc2	-3.9160026e-05
245	0x3f54ebcf	0.83172315
246	0xb3a34473	-7.60273e-08
247	0x3c8d1fb6	0.017227035
248	0xbde3e737	-0.11128085
249	0xbdbdec6e	-0.09273611
250	0x3dda5de8	0.106624424
251	0xb9f850e6	-0.0004736252
252	0xba3ed5b3	-0.00072797685
253	0xbe66f4da	-0.22554341
254	0x3a956c72	0.0011400117
255	0x3e642054	0.22277957
