experiments/grail_nell_v1/best_graph_classifier.pth (torch, 103788 bytes, 21 tensors)

weight f4 [14, 32]
00000000: 7fe4 95bf e81b 5e3f b8c6 4ebf 8728 fb3e
00000010: 9ab7 143e 00d5 cd3e 52ba f3be 5bbd 6f3e
00000020: 92d6 eb3e 05f5 01bf c7e8 053f e27b 0abe
00000030: 15de f9be 1f76 f5be e1a7 fabd d13a adbe
00000040: de06 77bf a706 c9bd 468f d33e cc41 863f
00000050: eb5c 8a3e 73c7 35bf 54cf b1bf 2928 1f3f
00000060: 7695 babe 435f f9be ae1d 03bf d5c2 fdbe
00000070: 1ad2 1b3f f6ac 753f 9fb7 7b3e b3ac d13d
00000080: 0ba0 69bf 0ca2 213f 0e22 31c0 487d 7b3f
00000090: 6f84 253f 3d9f 823f bbed d33e c04c eb3d
000000a0: 1b17 633f af28 563e 9f23 b23e 6866 6cbe
000000b0: 276f cfbd 1e77 293f 83dc 9e3e e83c 48bf
000000c0: fa56 8cbf 4c43 803e dc32 26bd 67c4 083e
000000d0: e069 69bf f9de 19bf 8953 adbf 06ec 01bf
000000e0: 9cfa 8bbe 31b6 7e3d c91f 03bf bf00 823d
000000f0: 5dba ee3f d131 8a3f f5ab e03e 7c4d 963e
00000100: 8fc1 6dbf a831 fe39 7ca9 d4be d5f9 43bf
00000110: e47b 0dbe bdaf ca3e 83e6 c5bd 9bfd 49bf
00000120: 1202 c3bf 73ed b3bf 13c4 a23f c917 b5bf
00000130: 8485 083f 5776 a4be 853d a7bf 519a eb3c
00000140: 23d6 42bf 2188 f9be 9048 853f 09a2 1a3f
00000150: d481 abbe fab9 a6be ca64 1bbf 6874 db3e
00000160: 6c74 e6bf 261b aa3f 5871 97bf 62d6 713f
00000170: 00cc 30bf c610 c4bf dd55 2cbe d785 5abe
00000180: 3ed4 e23f 4ee1 64bf ea79 943d bec1 183f
00000190: d7cf debe c73c aebf 9916 c6bd e1b1 1c3e
000001a0: 3014 c93f 129f 833f 7b23 23bf a685 c93f
000001b0: 863b a9bf 5e87 073f 5ec1 0d40 0887 0cc0
000001c0: 38c6 c03d ccb5 9e3f 9584 64bf 94ce 34c0
000001d0: cbed 30bf 4b18 763f 1818 3f3f c483 023f
000001e0: aa56 fa3f b147 8cbf a647 983f 9ebd 8cbe
000001f0: 3cab 8b3f cf34 943f 5f56 0bc0 b3f6 843f
00000200: 631f 98bf 745d 7abf e1a2 cb3e cc1f 86be
00000210: c0a9 60bf b43e 553e a086 9f3d 1b90 dcbe
00000220: 6d22 6cbf 97ee dabe c49f 213e ed61 dcbf
00000230: d8c3 9d3e 2a50 e13d 8933 99bf 35a2 73be
00000240: c345 8b3e e0f8 3d3d 769d d43f 0c22 793f
00000250: 2a50 f7be 4340 2a3f ed7c b03e 5e23 5dbe
00000260: 582e a2bf 2834 543f 1f54 68be 05af 9e3e
00000270: 5977 adbe c6b8 3cbf 003d edbe 4079 873e
00000280: 9dac 4abe 1829 84be c447 d2bd 7348 8a3e
00000290: c89f a0be 2bbe d33e 8841 e0be 8a7d 7f3b
000002a0: 9fd4 adbe 40cc ebbe 06b1 263e 87d1 69be
000002b0: 7225 863a 393c 0fbf 42ab 1fbe 81b2 b5be
000002c0: 56c8 87be 3a00 46bb c06c 713f 1753 d2be
000002d0: 0415 9bbe aa5c 7cbc 9279 d23d 6352 71be
000002e0: f99d 9a3d eda4 fd3e d1a5 133d 535f 123f
000002f0: 052a f23d 36d7 8e3e 8e08 26bf 488f 533e
00000300: 786d 3ebe 6a76 723f 72f0 1d3e a62b 623c
00000310: 31bc 7c3f 7ea6 bc3f b959 053f a5aa e3bd
00000320: 2911 bd3c c485 963e 07b1 d2bf bf10 0240
00000330: 173d 72bd 7e92 8bbe 9be4 ac3e 6cdd 0e40
00000340: f1b1 fc3f afa7 63bf c0ac 0ec0 a825 1240
00000350: 5bc3 bb3f 0510 11be 0f0d 9d3e 2c52 3dbf
00000360: 5806 b83f d31b 4ebf a3a7 553f bd4f 13bf
00000370: 1d88 b5bf 7c01 23bf 27db 3d40 7a9b 80bf
00000380: afb2 f83e 99e5 923d 7d2c a6bd b6ac 10be
00000390: 5a19 aebf 64b5 073f 4b3f 0abf d242 443f
000003a0: 380f 503e 4314 26be a9cd b3be 823d 7abf
000003b0: 0d98 e1be ed8a 74bf 44b0 fb3e 8786 2abf
000003c0: ca9a e8bd 113e 9b3e a273 9e3f 0b8a 2fbf
000003d0: 1180 813e e99f 9f3e 699e a53d 5c2b 45bd
000003e0: f675 2ebf 381c 403f ba56 5a3e c430 d13d
000003f0: 7ac8 1b3f bedc 383f 89b0 fb3d 03f0 79bd
-1.1710356 0.8676133 -0.8077197 0.49054357 0.14523163 0.4020157 -0.4760309 0.23412077
0.46062142 -0.50764495 0.52308315 -0.1352382 -0.48802248 -0.47941682 -0.122390516 -0.33833936
-0.96494853 -0.09815722 0.41320246 1.048883 0.27024016 -0.7100746 -1.3891397 0.62170655
-0.36442155 -0.4870549 -0.5121716 -0.49562708 0.60867465 0.9596704 0.24581765 0.10238018
-0.9125983 0.6313789 -2.7677035 0.9823804 0.646552 1.0204846 0.4139231 0.11489248
0.8870713 0.20913957 0.34792802 -0.2308594 -0.101286225 0.66197383 0.31027612 -0.78217936
-1.0964043 0.25051343 -0.040575847 0.13356172 -0.9117718 -0.60105854 -1.3541118 -0.5075077
-0.27339637 0.06218547 -0.51220375 0.063477986 1.8650624 1.0796453 0.43881193 0.2935599
-0.9287347 0.00048483652 -0.41535556 -0.7655309 -0.13816792 0.39587203 -0.09663107 -0.78902596
-1.5235007 -1.4056839 1.2716087 -1.4147884 0.5332873 -0.32121536 -1.3065649 0.028760107
-0.76107997 -0.4873667 1.0412769 0.60403496 -0.33497488 -0.32563764 -0.60700667 0.42862248
-1.8004279 1.3289535 -1.1831465 0.9446775 -0.6906128 -1.5317619 -0.16829629 -0.21340118
1.7721021 -0.8940629 0.07249816 0.5967063 -0.43517944 -1.3612298 -0.09672279 0.1530223
1.5709286 1.028292 -0.63726014 1.5743911 -1.322129 0.5294093 2.2149272 -2.1957417
0.09412807 1.239923 -0.89264804 -2.8251085 -0.69112843 0.9613082 0.7464614 0.5098231
1.9557698 -1.0959378 1.1896865 -0.27488416 1.0911632 1.1578616 -2.1771467 1.0387787
-1.1884578 -0.9779885 0.39772704 -0.26196134 -0.8775902 0.208247 0.077893496 -0.43078694
-0.9224003 -0.42760155 0.15783602 -1.7217385 0.3081348 0.11001618 -1.1968852 -0.23792346
0.2720166 0.046379924 1.6610553 0.97317576 -0.48303348 0.66504306 0.3447031 -0.21595523
-1.2670393 0.82892084 -0.2268834 0.30992904 -0.33880118 -0.7371944 -0.46335602 0.26459694
-0.19792409 -0.25812602 -0.102675945 0.270084 -0.31371903 0.41356024 -0.43799996 0.003898474
-0.3395128 -0.46054268 0.16278467 -0.22833835 0.0010234548 -0.5595127 -0.15592673 -0.3548775
-0.26520032 -0.0030212537 0.94306564 -0.41079018 -0.3028947 -0.015402952 0.10277094 -0.23566584
0.07549662 0.4953989 0.036046807 0.57176703 0.11824421 0.27898568 -0.64856803 0.20660126
-0.18596447 0.94711936 0.15423754 0.013804352 0.9872466 1.4738309 0.5209003 -0.11116532
0.023079472 0.2939893 -1.6460274 2.032272 -0.05914029 -0.27260202 0.33768162 2.2322645
1.9741803 -0.8892774 -2.2292938 2.2835484 1.4668993 -0.14166267 0.30674025 -0.7395351
1.4376936 -0.80511206 0.8345892 -0.57543546 -1.4182163 -0.6367414 2.966501 -1.0047448
0.48573825 0.071726985 -0.08113954 -0.14128384 -1.3601487 0.53011155 -0.5400283 0.7666446
0.20318305 -0.16218667 -0.35117844 -0.97750103 -0.44061318 -0.95524484 0.49157917 -0.6661152
-0.11357649 0.3032079 1.2379038 -0.6857001 0.2529302 0.3117669 0.08086855 -0.048137054
-0.68148744 0.7504306 0.21322146 0.102143794 0.6085278 0.72211826 0.12289531 -0.06101991

weight f4 [4, 8, 32]
00000000: 493f c3be 1324 ffbe fbb5 dc3e 561e 26bf
00000010: 897d 94bf 163f 8bbf a692 c0bd d680 163e
00000020: 5930 963f 0c55 9a3d 42bd 133f 9a73 fd3d
00000030: f8f3 673f 003b 73be dce4 b1bf 19e4 46be
00000040: c032 393e 3666 9b3f 982d 85be abe9 373e
00000050: d429 283d 32df 823e ba13 74be f7c5 ae3e
00000060: 90ee 123f 6a6a 873f d0e3 a0bd 4f0c 04bf
00000070: 74b6 c5be 6710 dabd 9a42 42be 5fa4 083e
00000080: c0be 0c3f 9745 f5be c503 7abf 4d56 303f
00000090: e365 413f d026 943e fb6d 7a3f 4000 253d
000000a0: 41df 013f ad42 133f 3e64 dbbf 37ff 96be
000000b0: 5ace 7cbe 60b9 293e 530c 533f c6c0 21bd
000000c0: d37c 673e 7d7a 7d3e be46 f73f 85b2 733f
000000d0: 5a48 c43e 1699 233f 5602 063e 8de6 b4be
000000e0: ed28 11bf 8dd2 0f3f 59fd 043f 663b 9f3c
000000f0: c559 a2be d28c 923e 2aa2 30bd 0968 2abd
00000100: 9968 1e3e 4bf4 21bf 2de7 063e c876 f0be
00000110: 0b5d 62bf 902b 0fbf 7bfe babe 260e c93c
00000120: 4b7e 283e efe7 443f d7f4 0a3f 88f8 cf3e
00000130: 7b7d 8e3f 72cf 103f 9432 2a3f 7cec d53e
00000140: 5ba5 403e a776 64bd b4c2 9abf 02c2 d1be
00000150: 4ea8 96be 32f9 6b3e b2ab 40bd 636d c63e
00000160: 568a 003f 843e ce3d 745a 7dbd 2730 5c3e
00000170: db21 b4bd e2a7 c13f f253 4c3e 30a9 b43e
00000180: f5ef ba3d 6fea 993f 9644 4dbf cbd9 823f
00000190: 8e6b 573f e576 1cbd f436 713e 9be2 a6ba
000001a0: 4bac d6bc e896 96be de94 9dbe 4dee adbe
000001b0: d15c 0bbf 98e6 f5be 1383 08bd ab14 20bd
000001c0: 63dc 9ebd 6d59 4c3e eb24 8fbf b1ca c8be
000001d0: 50ec 8fbe c216 463d 853d 783d eb4a 263e
000001e0: ffe3 4fbf 74f8 6dbf 6109 dabd 705b 023e
000001f0: 7fba 9e3d 4651 11bf 6612 d73c f9e3 dfbe
00000200: 6bc6 cdbd 34a9 bf3e 348c b2bf 15e4 e73e
00000210: c3bd 903f 7519 dabe 51f0 5b3e 8a9f 353c
00000220: 2b6c 3a3f 43ad 3e3f 0fb1 7bbf 5e5e d73e
00000230: 0f22 d93f 7a3e 583f ff4c 393f ecfc b13e
00000240: 2454 783e fc9b c73e 8138 683f 7262 2bbf
00000250: 6dce 973e e9ba e4bf fed3 833e 0190 a83e
00000260: 68a9 34bd 5a7b 9f3e 8751 853f 75c4 b63d
00000270: d41f d63d 032f ae3e 0f06 e43e 511f a93e
00000280: faec 36bd 1ac9 1bbd e4a8 66bf 5859 8b3e
00000290: 2ba7 d6be d1cc 723e cc4d f43e 1572 1abe
000002a0: 7c36 783f 3836 fe3e a849 56bf cafc 263d
000002b0: 0adf 9a3e 39b5 f13e 9e09 3b3e f267 823e
000002c0: 47c8 313e 95d6 253f 3af2 b23f c23d f23d
000002d0: 5b6f c8bd 5149 7e3d 9af1 e93c 74b4 603f
000002e0: 746e 593e 6563 cbbf 8763 003f 544f 31bf
000002f0: edba a1be 38c6 f73f 3d26 ad3d 42ca b1bd
00000300: 5dfd aa3e d3ad c6be 9573 573e ce5b 633e
00000310: f00b b03e 58e1 a73e e08a 073f 6894 e73c
00000320: 3b73 093f 6965 cfbc 8649 a73b 1988 333e
00000330: 4340 353f a046 f9be 68a3 5a3f 9187 50bf
00000340: 167b d2bd ae55 ac3e 098b 7a3e 4926 8f3f
00000350: 99b2 ee3e e66a c13f e207 f7bb 06ed 82bf
00000360: 02cf 90bc d7dd 283f 6c27 6bbf 4752 03be
00000370: a86d af3d cb22 44bf 8952 ebbd f6f1 1b3f
00000380: c486 003f 68d0 733e f40a eb3e 20af 39bf
00000390: 089d 01bf 9cbd 86bf 01c6 d0be b383 103e
000003a0: e44b dfbe c219 203f f391 40bf 31c9 3cbe
000003b0: a39f a0bd 3320 11bf 5dc6 15be 28a9 5a3f
000003c0: 4ad6 c63d 9e76 2ebf 9163 ecbe 5011 96be
000003d0: 8a6a f7be 4b6c 363d 4766 fbbd f29a a6bd
000003e0: c389 44be 7209 26bd abac 283f ccbd 683d
000003f0: bdd0 0bbf adf2 b3bf d405 a33c 298e 16bf
-0.3813422 -0.4983221 0.4310759 -0.6489004 -1.160081 -1.0878627 -0.09402971 0.14697585
1.1733505 0.07535753 0.5771066 0.12375565 0.9060664 -0.23752975 -1.3897967 -0.1942295
0.18085766 1.2140567 -0.26011348 0.17960231 0.041055515 0.2556091 -0.2383565 0.3413541
0.5739527 1.057935 -0.07855952 -0.5158128 -0.38615763 -0.1064766 -0.18970719 0.13343953
0.5497856 -0.47904655 -0.97662 0.68881685 0.7554609 0.28935862 0.97824067 0.04028344
0.50731283 0.57523614 -1.7139966 -0.29491588 -0.24688092 0.16574621 0.8244068 -0.039490484
0.2260621 0.24753757 1.9318464 0.95194274 0.3833645 0.63905466 0.13086829 -0.35332146
-0.5670307 0.5618065 0.5194908 0.019437503 -0.31709114 0.28623062 -0.0431234 -0.041603122
0.15469588 -0.63263386 0.13174124 -0.46965623 -0.8842322 -0.55925846 -0.36522278 0.02454288
0.16454427 0.769164 0.54279846 0.40619302 1.1132044 0.56566536 0.66483426 0.41781986
0.18813078 -0.05577722 -1.2090669 -0.4096833 -0.2942528 0.23044279 -0.04703874 0.3875533
0.50211084 0.10070518 -0.06185384 0.21502744 -0.0879552 1.5129359 0.19953898 0.3528533
0.091277994 1.2024668 -0.8018278 1.0222715 0.8414849 -0.038199324 0.23556119 -0.0012732329
-0.026205203 -0.29412007 -0.3077764 -0.33970872 -0.544385 -0.48027492 -0.033328127 -0.03908221
-0.07756879 0.19955988 -1.1183141 -0.3921714 -0.2810998 0.048361547 0.060605545 0.16239516
-0.8120727 -0.92957234 -0.1064632 0.12730193 0.07750415 -0.5676464 0.02625389 -0.43728617
-0.10047611 0.3743378 -1.3949037 0.452912 1.1307911 -0.42597547 0.21478392 0.0110854
0.728213 0.74483126 -0.98317045 0.42064184 1.6963519 0.8447033 0.7238311 0.34763277
0.24250847 0.38986194 0.9071122 -0.6694709 0.29649678 -1.786954 0.25747675 0.32922366
-0.04410687 0.31148797 1.0415505 0.0892419 0.104552895 0.34020242 0.44535872 0.33031705
-0.044659592 -0.038033582 -0.90101457 0.272166 -0.41924414 0.23710944 0.47715604 -0.15082581
0.96958137 0.4965074 -0.8370614 0.040768422 0.3024829 0.47208574 0.18265387 0.2546993
0.17361556 0.6478055 1.3980172 0.118281856 -0.09786864 0.06208164 0.028557587 0.8777535
0.21233541 -1.5889708 0.50151867 -0.6926167 -0.31587926 1.9357367 0.08454559 -0.08681156
0.33396426 -0.38804492 0.21040185 0.2220299 0.34384108 0.3278911 0.5294628 0.028269008
0.5369145 -0.02531691 0.0051052 0.17532386 0.7080118 -0.48686695 0.8540559 -0.8145686
-0.10277383 0.33659118 0.244671 1.1183559 0.46620634 1.5110748 -0.0075387815 -1.0228584
-0.017676834 0.659635 -0.9185703 -0.12824355 0.08565837 -0.7661559 -0.11490352 0.6091608
0.50205636 0.2380997 0.45906794 -0.72532845 -0.50630236 -1.0526614 -0.40776065 0.1411274
-0.43612587 0.62539303 -0.752227 -0.18436123 -0.07842948 -0.5668976 -0.14626451 0.8541436
0.09708841 -0.68149745 -0.46169713 -0.29310083 -0.4832347 0.04453687 -0.12275367 -0.08135022
-0.19193177 -0.04053635 0.6588847 0.05682163 -0.54615384 -1.4058434 0.01990024 -0.5881067

w_comp f4 [14, 4]
00000000: 2c1a d4bd 5d9d 5fbf bca0 633f 9cf4 c4bd
00000010: cea2 6e3e fd55 423f a587 0ebf ccd4 a3bf
00000020: 9597 00be 1e6e 35be e3c7 80be 3fdc dabe
00000030: ecd8 06be 8c38 113e 579d 70be cfa0 c0be
00000040: 0ad2 263f 7718 723f 9235 f23e 0348 4abf
00000050: 8d24 8e3f 883b 223e 89c1 2f3e 3e8a 62be
00000060: 0a65 d1be 7acf b53e 00a5 ec3e 9f04 debe
00000070: dde3 babd 570d 86be 35ff 313f ce34 55bf
00000080: 5fe3 433f 030a ac3f a025 55bf 1da7 2dbf
00000090: b436 17be bce4 803f 2839 163f 6b35 89bf
000000a0: 32de fcbf f42e 353f f77a a33e aa0c 43bf
000000b0: e038 89bf 5c87 5d3f f0d6 883f dcd6 b63d
000000c0: 0d1d f13e c9fc 14bf ae94 33be 9f2d a3bf
000000d0: 6520 fd3e 0269 a63f cfe5 813f 820b d23c
-0.103565544 -0.8734949 0.88917136 -0.09616968 0.23304293 0.7591246 -0.5567573 -1.2799315
-0.12557824 -0.17717788 -0.251525 -0.4274616 -0.13168687 0.14181727 -0.2349752 -0.37622687
0.65164244 0.9456858 0.47306496 -0.7901613 1.1104904 0.15843022 0.17163672 -0.22123048
-0.408974 0.35509855 0.46219635 -0.433629 -0.09125493 -0.26182052 0.6953004 -0.832837
0.76518816 1.3440555 -0.83260536 -0.6783312 -0.14766961 1.0069804 0.58680964 -1.0719427
-1.9755309 0.7077477 0.31929752 -0.761912 -1.0720482 0.86534667 1.0690594 0.089277
0.47092476 -0.5819822 -0.17537186 -1.2748297 0.49438778 1.3000796 1.0148257 0.025640253

self_loop_weight f4 [8, 32]
00000000: eda6 a43d f7eb 38bf 66b3 b33e 280d 3abe
00000010: d508 4cbc 27df c6be ec15 cfbe 50bc fa3c
00000020: 453e d13d 6d58 e63e 0ae5 4d3f 6d15 e33c
00000030: 1a07 1dc0 d12a e03e cc22 e63e fe93 3fbe
00000040: f48c 82be acb7 a5bf 932b 79be cf66 1cbf
00000050: e0a3 38be 8a15 a13d 82d8 0d3e a22d 303e
00000060: f477 dbbf cbbd bb3e 3af8 98bd 0a40 7bbe
00000070: 3033 363f 05c1 4d3e 2783 9cbe 1e31 e5be
00000080: 41bc e9be 6c8a 57c0 477c 5abf 1b39 04be
00000090: 4e4e 3e3b 7751 2a3e 95fa 2abf f196 53bf
000000a0: 9083 2f3d a99f 87bf 76e6 5bbf dcb4 2ebf
000000b0: d03e 8b3f 8e67 7abf a5de 81be e985 37bd
000000c0: 1932 57bf a9fb 083e a1a2 dc3e d449 dfbe
000000d0: 4b71 3fbe 1574 2ebe 4900 09bf 111a d3bd
000000e0: f81d 443f b176 14c0 ea63 98bd d51c cebe
000000f0: df3c efbf 9bc2 123e 6ffa 2e3d 3848 80bd
00000100: 6e65 34bf a55d 913f 495e 63bf 6e9f 073e
00000110: 0d6f 2fbf 2a5f 13bf 9bbb ec3c f522 39be
00000120: 8980 a03e 17b0 b83e fbae 36be 3ec1 ae3d
00000130: 21d2 82bf 4a34 a7be a5f1 93bf 6473 22bf
00000140: d9f3 63bb 2dbd 23bf 6758 dbbf 2fe1 173e
00000150: 4e55 b6be 45c9 dfbe 6209 2f3e b83a 4c3f
00000160: edbb 14c0 0cc5 1b3f 21a8 ffbe 2f7b a8be
00000170: 9af4 153f 3199 6fbf 114c 403f aa74 aebb
00000180: 5d9f 3cbf 8491 593f 709d 073f 345e 0fbe
00000190: e304 813f 07b6 91bd 0dc7 19be c83f b3be
000001a0: 0db9 86bf 3190 4dbf fffe 10bf ba6a 2cbf
000001b0: 31f3 9bbe 0eb6 5cbf 881b 273f a8ce 7d3e
000001c0: 29a8 95be e983 2dbf d594 9d3d 67a3 4f3f
000001d0: 3060 563d 842d ebbf 7969 8bbe b470 703f
000001e0: a560 a33f f30f 19c0 6d76 1e3f cae5 cebe
000001f0: f448 733f d240 5ebf 009e 0f3b 6d14 cfbe
00000200: 2583 12bf fce0 a3bc 83a4 86be 1d1c 863f
00000210: ea58 a63f ad27 4c3f 6e78 2abf 5823 15be
00000220: fb63 a7be 5bb4 23bf 231e 50bf 6b87 943b
00000230: dfba 763e d590 60bd 2ee3 d53f d1f7 33bf
00000240: 3b08 9fbe efe4 8f3e c1e0 c93e c601 4eba
00000250: 5bc8 65be 9b7d 3d3f 5b2c 0bbd 4b46 823f
00000260: c302 d13e 6a05 3cbf 344c 853d ee0c 86be
00000270: 834f 1fbf 5368 c2bf 421d 8d3e 0f17 20bf
00000280: d61c 4abf e76d 18c0 5468 e83e b13c f3bf
00000290: e781 1bc0 a69c 87bf cd7c 04bf ee48 1bbe
000002a0: 5adb 40bf d5ab 5bbf 8e60 89be b060 3d3e
000002b0: 485c 103f 79f5 8abd 33eb d9bf a70d 43bf
000002c0: 220f 49bf 817f 8c3e 7bee e73e 31ae 2e3e
000002d0: c522 0cbf 15dc e2be ebad d3bd 6fbb 9ebe
000002e0: 570a 553e ffa9 fd3e 3968 8cbf acc8 65be
000002f0: 5255 0c3f d518 49bf a222 873c 8dd0 f7be
00000300: cbae aebe 7a5f 8e3d a1ba 743e cd40 65be
00000310: 5315 06be da48 5fbf ce0c a9be f358 06bf
00000320: 444b a7bf a7ed 0ebf 521a cb3c afde 7fbf
00000330: ce40 1bc0 c507 5cbf 5b2d 80bf 4a15 4ebf
00000340: 0dd9 5fbe f17a 9fbf 6859 1fbf e844 61bf
00000350: 6e6c 02bf 3063 82bf 19d2 553e aa8e bf3d
00000360: 207e bfbf f8ba 95bf 3aa4 25bd c9fa fcbe
00000370: 8cf7 07c0 4980 2b3f 229b 7cbe bab5 1dbf
00000380: f1a4 633f 3911 c83f 5f20 adbe 6877 cabe
00000390: db7f 39be 099d 73be 9ff6 923f 9fc8 003e
000003a0: 97cd 833f ba69 003f 2248 11c0 daa7 be3e
000003b0: 21e4 00c0 3898 b4be a9fc a0be a572 b33e
000003c0: 801c 1bbe 6f4d cebe 65c7 43bf 890a 803f
000003d0: 95a7 8ebe 498d 0abf 97fe 8bbe b584 64be
000003e0: a70c ce3e 68f5 ebbf fa2a 253f c418 f13d
000003f0: d16d 19bf a854 83bc 968b 573f f90d 093f
0.08039651 -0.72235054 0.35097808 -0.18169081 -0.012453278 -0.38842127 -0.40446413 0.030607373
0.10216955 0.4498934 0.8042761 0.027720178 -2.4535584 0.43782666 0.44948423 -0.18708798
-0.25498164 -1.2946677 -0.24333028 -0.61094373 -0.18031263 0.078654364 0.13852122 0.17204908
-1.7145982 0.36668238 -0.074692205 -0.24536148 0.71171856 0.20093162 -0.3056881 -0.44764036
-0.4565144 -3.3678236 -0.8534588 -0.12912409 0.0029038372 0.16632639 -0.6678861 -0.82652193
0.042850077 -1.05956 -0.8589853 -0.6824472 1.0878544 -0.9781426 -0.25365177 -0.04480544
-0.8406082 0.1337725 0.43092826 -0.43611014 -0.18695562 -0.1703647 -0.5351606 -0.10307706
0.7660823 -2.3197443 -0.07440932 -0.40256372 -1.8690451 0.14332049 0.0427193 -0.06263775
-0.7046727 1.1356703 -0.8881574 0.13244411 -0.68528825 -0.57567084 0.028898051 -0.18079741
0.31348065 0.36071846 -0.17840187 0.08532952 -1.0220376 -0.3265708 -1.1558119 -0.6345732
-0.0034782796 -0.63960534 -1.7136353 0.14831994 -0.35611957 -0.43708244 0.17093423 0.797771
-2.32397 0.60847545 -0.4993296 -0.32906482 0.5857636 -0.93593127 0.7511607 -0.005323966
-0.7368067 0.84987664 0.52974606 -0.1400078 1.0079616 -0.07114797 -0.15017338 -0.350096
-1.0525223 -0.80298144 -0.56639093 -0.6735035 -0.30458978 -0.86215293 0.65276384 0.24785864
-0.2922986 -0.67779404 0.07694403 0.8110871 0.052337825 -1.8373265 -0.27228907 0.9392197
1.2763869 -2.3915985 0.61899453 -0.4040969 0.9503319 -0.8681766 0.0021914244 -0.4044527
-0.5723136 -0.020004742 -0.26297387 1.047733 1.2995884 0.7974804 -0.6659001 -0.14564264
-0.32693467 -0.63947076 -0.81295985 0.0045327446 0.24094723 -0.054825623 1.6709955 -0.7030001
-0.31060967 0.2810435 0.39429286 -0.00078585406 -0.22439711 0.74019784 -0.033977848 1.0177702
0.4082242 -0.7344576 0.06508675 -0.2618174 -0.622307 -1.5188087 0.27561384 -0.62535185
-0.7895025 -2.381708 0.45392096 -1.9002897 -2.4298036 -1.059468 -0.5175293 -0.15164539
-0.75334704 -0.8580907 -0.26831478 0.18493915 0.5639081 -0.067851014 -1.7024902 -0.76192707
-0.78538716 0.27441028 0.45299134 0.17058636 -0.54740554 -0.44308534 -0.103359066 -0.31002375
0.20804726 0.4954376 -1.0969306 -0.22439831 0.5481769 -0.78553516 0.016496006 -0.484013
-0.3411773 0.069518045 0.23899318 -0.22388001 -0.13094072 -0.8722054 -0.33017582 -0.52479476
-1.3069844 -0.5583138 0.024792824 -0.99949163 -2.4258304 -0.85949355 -1.0013841 -0.80501235
-0.21860142 -1.2459394 -0.622458 -0.8799577 -0.509467 -1.018652 0.20880927 0.09353383
-1.4960365 -1.1697683 -0.04043982 -0.49410084 -2.124484 0.6699262 -0.24668553 -0.6160542
0.88923556 1.5630256 -0.3381376 -0.39544225 -0.18115179 -0.23790373 1.1481513 0.12576531
1.0297116 0.50161326 -2.2700276 0.37237436 -2.013924 -0.35272384 -0.31442764 0.35048404
-0.1514759 -0.40293452 -0.76476127 1.0003215 -0.2786223 -0.54121834 -0.27342674 -0.22316249
0.40244028 -1.8434267 0.645187 0.11772302 -0.5993319 -0.016031578 0.84197366 0.53536946

weight f4 [8, 80]
00000000: 837c 2cbf 7922 2ebf a9a8 48bf 5056 a5be
00000010: 2495 b4be ba80 6abf b88b c9be 22d9 2cbf
00000020: baf2 4abf 5597 53bf 15c3 8cbd 8da7 7d3e
00000030: 6f6a c7be 3651 95bf 2aa2 02be d48b 72bd
00000040: c5d2 d5be 61ff 513f 1447 3ebe 4306 b53d
00000050: 03c5 993f 0502 2b3f 2d7f 663f 1123 b0be
00000060: 1c74 803e d967 d23e 46a7 09bf 8966 9f3f
00000070: 9bc1 00be b012 d73e aa99 fa3d 8ea4 e13f
00000080: 9059 203f ad24 64bf 8896 d0bf 2167 de3f
00000090: d8be 2a3f 0d67 13bf 4e5e 99be a05e 88be
000000a0: 60ba 493f 0c8b 8abf d10e c1bc ea33 71bf
000000b0: 98f0 04bf 3c62 a2be 8108 eb3f 31ae 14bf
000000c0: d239 543f 4652 e0bd b75c 6e3f 49a7 35bf
000000d0: 8c19 20bd 9f65 223d 916a 093f 12f9 69be
000000e0: f0a9 b5be 8f10 093f d3b5 7abf 1a54 873f
000000f0: aecb 3c3f 1182 a93e 72ed d93e 88d0 c53e
00000100: 3488 ab3f ea1c 823e 4f4b 5dbf ee23 343c
00000110: 0ab5 2c3f b32a 1f3f eff8 6a3f 821f 13bf
00000120: 668b 183f 6cee 59be 8a85 5b3f fd6d 29bd
00000130: 95be a8bf e375 75bf 996f d83e 5d31 01bf
00000140: f73e c23f 06dc f3bf 36a1 353f 1d92 7f3f
00000150: 59cf d2bf f427 8b3e a014 25bf 2c24 843d
00000160: 70de 80bf 5552 393d a8b4 4e3f 5912 9fbe
00000170: 493c 24bf ea91 853f 09f6 38be 2844 0fbf
00000180: 1207 9bbf e97f 2dbe bd05 c8bd 2703 88be
00000190: a388 07be 39b9 643f e95a 16be 4193 03bf
000001a0: 876d 97bf 0c47 69bf 928d 613f 3ddc b5bf
000001b0: 9568 2b3f fdd5 b6be 9db9 b9bf 5978 e43d
000001c0: 571f 04bf f5cf 09bf 7958 923f 67b6 503f
000001d0: 3f9b b1be 36d4 c8be 3ddd a1be eea1 a5be
000001e0: 4683 bcbf 3578 ac3f 7158 72bf c954 643f
000001f0: 13ca dbbe 4eb6 89bf ab58 87be df8e 55be
00000200: 9648 06bc fa55 4c3f 6394 cebf f580 523f
00000210: 64dd 783f d68b a0bc 63ac a53e c986 cebe
00000220: d78a 8e3f 3818 b53e d40e a43e 62e9 7c3f
00000230: 1fbd d9be de34 2e3f 1130 943f 0c65 08bf
00000240: 45e4 67bf c03e b4bd 7798 52bf 8b01 5cbf
00000250: af00 fdbe c0db 66bf 5021 a5bf 9fe6 133e
00000260: c533 673f b3f1 7abf a2d2 c2be 8ced b7be
00000270: 6e6c 8b3f ef6b 1e3f 85b4 79be de7e 9e3e
00000280: 13f3 c0bd 2c84 db3e 8ce1 f33e a5df ddbf
00000290: d72e d83e 30bd e93e e705 87bf d30d c3be
000002a0: a114 243f 1279 02bf d250 77bf fc79 b23e
000002b0: d88e 59bf c6be 31bf a8bc b53e 5180 983f
000002c0: cd9a b63f 3067 3ebf 1de2 a13f 98fa c4be
000002d0: dacd 8ebe 0e83 9cbf 0454 f03d f5bd 963d
000002e0: 5110 033d 8466 013f 1bf1 05bf 8a5d 623f
000002f0: 31fc cbbc c7b8 9f3e e5f3 503f d55a 0cbf
00000300: e20c 1c3f 277d 153f 4533 02bf bfd3 b2bf
00000310: a822 abbe 5fdd 483f ed97 8b3f 1c00 283e
00000320: 0a9f 753f 2900 b9be 30a5 683f fa25 ca3e
00000330: d6d2 7ebe e86c 54bd 6813 8cbf f817 b83e
00000340: 2b55 73bf 7e4a 423f b13f 05be 308b aebe
00000350: 18c4 4c3e c168 803e 6ed1 9dbe 9f28 0ebf
00000360: d60f 48bf 7c6e 7cbf bd8d 053f 1d10 4cbe
00000370: 06f3 f1bd 060e 64bf 519e 6ebf be98 c43f
00000380: 97a5 d5be 3e12 82bf 9b07 813e 1e37 b43f
00000390: 39d6 b53e 81c4 52bf c9cb 54bf 8654 0e3f
000003a0: 16d4 b1be 8cb9 9a3d 109c 40bf f7c8 483d
000003b0: c4a3 4abf abcd 2abf 8647 4e3f f11e 92be
000003c0: f44f 13bf 54a8 34be e6e9 163f 0c55 94bc
000003d0: 0938 30be 3c59 dcbe 0f38 e1bd d40f 24bb
000003e0: 6bca b23e 7361 50bf 2bb8 593d 90da 19be
000003f0: c1f0 18bf 57f3 4dbd b994 3a3c 28a4 313c
-0.6737749 -0.6802135 -0.78382355 -0.32292414 -0.35270035 -0.9160267 -0.3936441 -0.6751882
-0.7927662 -0.8265279 -0.068731464 0.24770947 -0.3894839 -1.1665409 -0.12757173 -0.05921538
-0.41762367 0.820303 -0.18581802 0.08839085 1.2013248 0.66799957 0.90037805 -0.34401754
0.25088584 0.41094854 -0.53770864 1.2453166 -0.12573855 0.42006445 0.1223634 1.7628343
0.6263666 -0.8911846 -1.6295938 1.7375222 0.66697454 -0.5757912 -0.2995476 -0.26634693
0.7880001 -1.0823684 -0.023566635 -0.9421984 -0.51929617 -0.31715572 1.836197 -0.58078295
0.82900727 -0.109531924 0.9311022 -0.7095838 -0.039086863 0.039647695 0.5367823 -0.22848919
-0.35481215 0.5354089 -0.9793369 1.0572541 0.7374829 0.33107045 0.4256397 0.3863566
1.3400941 0.25412685 -0.86443037 0.010994894 0.67463744 0.6217453 0.9178609 -0.5746995
0.59587705 -0.21282357 0.8575064 -0.04136466 -1.3183161 -0.95883006 0.42272642 -0.5046595
1.5175465 -1.9051521 0.70949113 0.99832326 -1.6469527 0.2717892 -0.64484596 0.06452212
-1.0067883 0.045244534 0.8074441 -0.31068686 -0.6415449 1.0435154 -0.18062605 -0.55963373
-1.2111533 -0.16943325 -0.097667195 -0.26564905 -0.13235717 0.8934513 -0.14683117 -0.51396567
-1.18303 -0.91124034 0.88106644 -1.4207836 0.66956455 -0.35710135 -1.450977 0.11155767
-0.5161032 -0.5383294 1.143325 0.81528324 -0.34688756 -0.39224404 -0.31614104 -0.32350105
-1.4727561 1.3474184 -0.946662 0.8919187 -0.42927608 -1.075876 -0.26434836 -0.20855282
-0.008196017 0.7981869 -1.6139034 0.8222802 0.97212815 -0.019597929 0.32358083 -0.40337208
1.113612 0.3537004 0.32042563 0.98793614 -0.425271 0.6804942 1.1577169 -0.53279185
-0.90582687 -0.08801031 -0.8226389 -0.85939854 -0.49414584 -0.9017906 -1.2900791 0.14443444
0.9031337 -0.98025054 -0.38051325 -0.3592342 1.0892465 0.61883444 -0.24385269 0.30956167
-0.09421363 0.42874277 0.47633016 -1.7333876 0.42223236 0.4565215 -1.0548676 -0.38096485
0.6409398 -0.5096599 -0.96607697 0.34858692 -0.8498359 -0.6943172 0.35495496 1.1914159
1.4265991 -0.743762 1.2647129 -0.38472438 -0.27891427 -1.2227495 0.11734775 0.0736045
0.031997982 0.5054705 -0.5232102 0.8842398 -0.024900528 0.3119566 0.81622154 -0.548261
0.6095716 0.5839409 -0.5085948 -1.397087 -0.33424878 0.78462785 1.0905739 0.16406292
0.959458 -0.36132935 0.90877056 0.394821 -0.24885115 -0.051861674 -1.0943422 0.35955787
-0.9505183 0.75894916 -0.13012578 -0.34090567 0.19996679 0.2507992 -0.30823845 -0.5553073
-0.78149164 -0.98606086 0.521694 -0.19928022 -0.11813931 -0.890839 -0.9321032 1.5359113
-0.41727898 -1.0161817 0.25201115 1.407932 0.35515 -0.8233109 -0.8312345 0.5559772
-0.3473212 0.075549215 -0.7523813 0.04901978 -0.79156137 -0.66720074 0.80577886 -0.2853923
-0.57543874 -0.17642337 0.5895065 -0.01810696 -0.17208876 -0.4303683 -0.109970205 -0.0025033848
0.34920058 -0.81398696 0.053154152 -0.15024781 -0.5974236 -0.050280895 0.011387997 0.010842361

bias f4 [8]
00000000: aa97 80bf b517 4a3e b1d6 4bbf e80b 38bf
00000010: 4b26 04bf aca4 29bf cfac 6bbf 7002 18bf
-1.0046284 0.19735606 -0.7962447 -0.7189317 -0.5162093 -0.66266894 -0.9206056 -0.5937872

weight f4 [1, 8]
00000000: 96ce 7a3f dfc8 eebe 1c68 cb3e e5a8 82bd
00000010: f4cf 90be fcbd af3d d271 223e 65e1 443d
0.97971475 -0.46637627 0.39727867 -0.0637987 -0.28283656 0.085811585 0.15863732 0.048066515

weight f4 [4, 32, 32]
00000000: ec20 61af 3fb3 27b4 6815 8332 19b9 f227
00000010: 496a 6335 8706 11b7 94b2 2234 d289 60ba
00000020: fdeb 17a8 f88a efb2 6893 76b6 be0f 27b3
00000030: 0c0b fab3 6cef 83b2 c77d 2837 74a6 8cb7
00000040: 964e b133 41e4 87b3 af0a 452a 8258 0739
00000050: 9e30 6839 4058 4fb3 1bff 88b9 7717 d8ba
00000060: 344d 4b30 e0b4 313b 5d49 2d27 4e2c ffb3
00000070: d9e2 3437 bbe7 8f2d c18f 37b9 a142 142a
00000080: 4f75 113d 8fd0 6f3b cfe1 093e a999 16bb
00000090: 2c82 85be 6410 6fbe dd01 07bd 4074 32bf
000000a0: 4110 48bc 7eb0 b0bc 7512 7b3c bf19 45be
000000b0: b37b af3e 56b3 93be bf15 4cbe 7397 9abe
000000c0: 5938 66bd 2c42 b4be c249 9e3e c278 073e
000000d0: 6dab 453e 09c4 95bd 987f f3bc dc43 803e
000000e0: ef25 cfbe 899d 2dbe 70e8 3f3e 2ce2 11be
000000f0: 9354 813e 1f78 86be d229 8dbe b34d bd3d
00000100: 91c0 60b2 8ca9 593d 67a4 133c 480b b539
00000110: f268 65bd bf62 f3be e04a f9bc 0509 233f
00000120: e4c0 1e3d 621f 373a ccf4 483c 5256 1fbd
00000130: c5d0 f03c 1a98 6a3d b3d1 8e39 3042 803e
00000140: 1859 35be c3d0 96bb ff3d 3436 4a5d 033b
00000150: c180 80be f958 0dbe c0f4 833e a0d4 25bd
00000160: 46af f13d 9885 cabd 4e12 fcbd 6a28 6f3d
00000170: 1079 753e 31f1 d43d 4d9b 1bbe b1cb 0f3d
00000180: 56cd bd36 9d78 bd3a 7dd6 ad38 29a4 34bd
00000190: 3688 2837 9d7a 04be 5557 23bd 3b82 28bd
000001a0: 34f9 7e3b b6df 4038 ac7b ce37 84c7 e73c
000001b0: e2e3 1b3b 5be8 77b9 95b6 99bc 0544 0cbc
000001c0: 5baa cd3a f3cb 3439 6f1e 1535 cbbc 85bc
000001d0: 02d1 533c ce8f 7f3c e6b2 0dbd 00e4 a5bc
000001e0: c052 eabd a5db 84bd cd7a be38 4e08 a13b
000001f0: ed2d 6bbc 1a8b 7038 6ec8 c6bb 04e6 bf34
00000200: cd06 c237 08cf 6b3b 18f4 7d39 2e6a 4cbd
00000210: f0e2 0fb6 6148 e7bd f78e 983d bc78 1fbd
00000220: a3c9 c63b a7b4 0039 b1cd a239 34a6 1c3c
00000230: 0ec5 853c a251 57ba 62e7 4bbd 9da6 9c3c
00000240: 5a08 f33b 3469 993a 37d1 88b3 0f3d 32bd
00000250: 9752 153d a18b 103b 9859 dabb 4c72 60bd
00000260: be9b 5f3b 9aba 93bd 4532 613b 1ae1 ab3b
00000270: 6ca6 a9bb 7ca6 7b39 a195 43bc 2edc ae34
00000280: abe6 1436 77cd a13d ecd8 4b39 d8af 42bd
00000290: 502d 8e31 6840 29be 1050 89bd 8673 5ebd
000002a0: 2759 283b 4c6c 0238 1df2 96b9 c4ca 7f3c
000002b0: 6a11 473b 4e3c 31ba 212b 7dbc c614 9cb9
000002c0: 66d4 b53d e7e7 1c39 66e3 2fad 264d 53bc
000002d0: 92f3 b93c 7834 023c 6c70 3abd 1e4c 12bb
000002e0: a2b6 95bd 400b b7bd 6fb8 dcbb dec0 2c3a
000002f0: f1aa eabb 9d59 4c38 10b8 06bd 1394 9231
00000300: f375 9338 9096 e63b 6b56 a93e 11e0 9db9
00000310: 547c d9bc 30a7 453c 971c 023e 09e1 2dbe
00000320: 0a0f ccb9 7810 423e 7c38 eb3a 3ba9 bcbc
00000330: c148 113e ad29 93be 38d9 d93d a15b dcbd
00000340: 3019 e63d fe6b 47be 50e3 2f3e 2a86 6f3d
00000350: 64ef 633d c456 c737 f8c9 7cb9 7344 0d3c
00000360: b006 28bd df2a 9e3d c273 e5bb 792d 51b9
00000370: c1cc fbbc 3908 a5bd 394e 14bf c940 a63d
00000380: 0e32 e229 4d04 1433 5e78 4230 aba2 7ea9
00000390: 4355 321a 1203 0637 4afb f432 6f66 bbb9
000003a0: 2d80 0000 f887 2ca5 0124 1725 951a 47b1
000003b0: 79ca 24b0 6ecb 25ad 5cab b7b1 e2da 3f29
000003c0: e4b1 f130 24ea 5f14 3ab1 0000 4e99 f835
000003d0: 4fae 7bb7 1bb9 7b32 4292 8bb4 995f e02a
000003e0: 9562 08b7 8da9 27b7 914e 89ac 4bab a0b0
000003f0: 8123 4fb3 4735 cd2f 07d2 e5b6 00eb 10b5
-2.0475327e-10 -1.5618296e-07 1.5260142e-08 6.7369176e-15 8.4718755e-07 -8.644193e-06 1.5152392e-07 -0.00085654587
-8.433356e-15 -2.7886458e-08 -3.6742658e-06 -3.8897035e-08 -1.16435416e-07 -1.5359284e-08 1.0042865e-05 -1.6766811e-05
8.2564995e-08 -6.3279465e-08 1.7500821e-13 0.00012907575 0.00022143355 -4.8276206e-08 -0.0002613001 -0.0016486485
7.396068e-10 0.0027115867 2.4048343e-15 -1.1882422e-07 1.0781653e-05 1.6360127e-11 -0.00017505792 1.3168157e-13
0.035512265 0.0036592816 0.13465045 -0.0022979772 -0.26075876 -0.23346096 -0.03296076 -0.69708633
-0.0122109065 -0.021568533 0.015324225 -0.19248103 0.34274063 -0.2884776 -0.1993017 -0.30193672
-0.05620608 -0.35206735 0.30915648 0.13229659 0.19303675 -0.07312781 -0.029723927 0.25051773
-0.4045863 -0.16954626 0.18741012 -0.14246434 0.25259838 -0.2626352 -0.2757097 0.092433356
-1.3082301e-08 0.053140208 0.009011365 0.00034531415 -0.056008287 -0.47536275 -0.030431211 0.6368564
0.038758174 0.00069855724 0.012265395 -0.03890068 0.029396424 0.05727396 0.0002724059 0.25050497
-0.17709768 -0.004602523 2.6858177e-06 0.0020044618 -0.2509823 -0.13803472 0.25772667 -0.040485978
0.11801009 -0.09888762 -0.12308179 0.05838815 0.23971963 0.10397566 -0.15195961 0.035106365
5.656543e-06 0.0014455501 8.2892344e-05 -0.044101868 1.0045294e-05 -0.12937398 -0.03987821 -0.041139822
0.003890586 4.5984714e-05 2.4614703e-05 0.028293379 0.0023786952 -0.00023642315 -0.01876382 -0.008561139
0.0015691029 0.00017242115 5.555111e-07 -0.016325375 0.012928249 0.015598251 -0.03459444 -0.02025032
-0.114415646 -0.06487206 9.0827794e-05 0.00491432 -0.014354211 5.7350007e-05 -0.0060663735 3.574388e-07
2.3129769e-05 0.0035981555 0.00024218892 -0.04990595 -2.1440756e-06 -0.11293102 0.074491434 -0.0389335
0.0060665174 0.0001227433 0.000310523 0.00956111 0.016329315 -0.00082137634 -0.04978121 0.019122416
0.007416767 0.0011704327 -6.3710495e-08 -0.04351526 0.036455717 0.0022055882 -0.0066635124 -0.054796502
0.003411993 -0.07213326 0.0034362238 0.00524534 -0.0051773097 0.00023999246 -0.01193753 3.2570227e-07
2.2187985e-06 0.079005174 0.00019440398 -0.04753098 4.1378954e-09 -0.16528475 -0.06704724 -0.05430939
0.0025687905 3.1095275e-05 -0.00028790618 0.015612308 0.003037537 -0.0006761 -0.015452177 -0.00029770116
0.088784024 0.0001496371 -9.998091e-12 -0.012896812 0.022699151 0.00794708 -0.04551737 -0.0022323201
-0.07310225 -0.08937693 -0.0067358534 0.0006590019 -0.007161491 4.872085e-05 -0.03289038 4.2659933e-09
7.031476e-05 0.0070369914 0.33073744 -0.00030112316 -0.026548542 0.012063786 0.12706219 -0.16980375
-0.00038921117 0.18951595 0.0017945911 -0.023029914 0.1418791 -0.28742734 0.10637134 -0.10759664
0.11235273 -0.1947479 0.17176557 0.05847756 0.055648223 2.3763052e-05 -0.00024107832 0.008622277
-0.041022003 0.07723021 -0.007002325 -0.00019948733 -0.030737283 -0.08058209 -0.5793186 0.081178255
1.0045099e-13 3.4462847e-08 7.074784e-10 -5.654042e-14 3.687841e-23 7.987737e-06 2.8519612e-08 -0.00035743738
4.5981e-41 -1.496469e-16 1.3109361e-16 -2.8973421e-09 -5.9950583e-10 -9.424335e-12 -5.3454823e-09 4.260037e-14
1.7585617e-09 1.1304799e-26 6.3577e-41 1.8522057e-06 -1.500135e-05 1.4652211e-08 -2.5997184e-07 3.9856727e-13
-8.129185e-06 -9.993452e-06 -3.902497e-12 -1.1690217e-09 -4.8228234e-08 3.7327139e-10 -6.8491822e-06 -5.398615e-07

w_comp f4 [14, 4]
00000000: 314b f03e 94ba f43e 58d8 1a3f ebfb 46be
00000010: df7b 3dbc 7b64 3fbd e868 b33e 40d6 57be
00000020: a166 44be 0276 113e a6ef 9c3e e327 693e
00000030: 4fff 57bc 4c39 9dbd ea82 503e a75a 983d
00000040: 102e 093c e1f9 29be f705 853d 3428 303e
00000050: 8a4e 043e d004 1b3f 066c 00be 2267 933d
00000060: 6392 c13f c954 3a3f 0c23 913f 6215 dabf
00000070: 7d4c 943e dff6 843f bd57 c13e 47e5 c13f
00000080: 7fc5 5dbf 60df 213d 6a2f 9d3f e860 4ebf
00000090: 9f69 9bbd 0e84 24be e25c a93e 5c27 9ebf
000000a0: b233 8a3a 919d 9436 c2d4 da37 b707 edb9
000000b0: 1b2d 66bd 0e88 82bf 6669 453f dd81 c63d
000000c0: 2ea1 c03e 9825 30bf daee a43e 55ca 84bf
000000d0: f79d 3d3f c50d 683e 7555 fc3e d1a7 fe3d
0.46932366 0.47798598 0.60486364 -0.19432037 -0.011565178 -0.046726685 0.35040975 -0.21077824
-0.19179775 0.14205173 0.30651587 0.22769122 -0.013183429 -0.07676944 0.2036244 0.074391656
0.008372799 -0.16599227 0.06495278 0.17202836 0.12920585 0.6055422 -0.12541208 0.071974054
1.5122799 0.7278562 1.133882 -1.7037776 0.28964606 1.0387839 0.37762251 1.5148095
-0.8662948 0.039519668 1.2280095 -0.8061662 -0.07588505 -0.16066 0.33078676 -1.2355762
0.0010543971 4.429087e-06 2.6086698e-05 -0.0004520991 -0.05619536 -1.019777 0.7711395 0.09692738
0.3762297 -0.68807364 0.3221348 -1.0374247 0.7406916 0.22661503 0.4928395 0.12434352

self_loop_weight f4 [32, 32]
00000000: 31ad 2db8 b7ea 203f 3bc3 a2be b8e2 81be
00000010: 2005 dabc b83e 88be f0b9 033e 2e9c ba3d
00000020: 3c59 dfa9 f2bd 96bd 0a7f 8ebe f59a a8be
00000030: f917 293e 417c cfbc f8e0 33bf 5219 4ebd
00000040: 7ab0 1fbf e43d b7be 719d a23d d615 163f
00000050: e01e c7be 4dd7 24bf d793 92be 08d1 b7be
00000060: 3676 923d e0f7 9b3d f383 0cbb 804d 41be
00000070: e92b 9dbd 619c 18be 5333 f4bd 768e e9bc
00000080: d842 35bb 364d 46be 57fb 25be 272a 0fbf
00000090: a172 b5bd 2002 31bf 2cd2 29bf 4328 33bf
000000a0: 1047 27bd 606d b6be d133 9cbe c170 97bf
000000b0: 637a 5fbe 7cb2 40be 73d3 493f ee20 e9be
000000c0: 7116 d1be d7c9 3bbd cdce 39be ac58 b73f
000000d0: a397 41bd dfa1 81bf 2b88 b83e 2f91 febe
000000e0: 6dce 11bf cd56 a4be 13fe f8be aa87 64bf
000000f0: 2bc5 a23f 8c06 0dbf b2f6 113f 4f31 c8bd
00000100: 7090 29bc 7e27 dabe 5b6e 9bbe 68f5 53bf
00000110: 60f7 83bd f257 863e c3f7 09bf 6901 b8be
00000120: 776a 52bd d376 a6bd 1469 99be 6d1c 8fbf
00000130: c3d5 553e 757e 2fbd 03ae d63e ebd8 59be
00000140: c411 2cbf 3b49 c2be d9ef fbbc 2092 d4be
00000150: 6512 58bf 7a27 65bf aaf2 07bf a42d 8b3d
00000160: 6b38 89be 423e 2ebf 4f31 f1bd 3c22 f0bd
00000170: 62e3 33bf c98f 65be e393 45bf 3720 1f3d
00000180: 92d3 d2bb 33cb 76be 9574 d7bd 48d3 123e
00000190: e8ec 743c 08c6 063f cfa4 6cbc ff0b 803f
000001a0: fcb0 1cb6 4938 3838 d692 20bf c73d e7be
000001b0: f8e4 26be 5db0 99be 9488 ac3d 349a 20bc
000001c0: 901f 78be f6f6 9ebe 72e0 72bd ad57 28bf
000001d0: 76f8 f7be d243 c63d 9276 823e c88d b8be
000001e0: 7908 d4be 1398 9abf 1e4c d7be 1064 80be
000001f0: 614c b93d d031 79bd c551 bf3e d3a7 86be
00000200: 708b bcbc 9074 9f3d 296a 22bf 1dcd 01be
00000210: 30e7 b3bd ba51 87bf 7607 2cbe fa6d 9f3f
00000220: 1f28 2bbe a3ab 02be ce13 2ebe 6372 c1be
00000230: 5c4d 1ebe d702 81be fd21 ab3e f862 29be
00000240: 8dd4 fabe 267b e4be fe19 13be 7fde 65be
00000250: 9a82 23be df6c 5dbf 4a31 8ebd daf7 26bf
00000260: af25 15bf c035 b4bf 2b8e 09bf 68a9 db3d
00000270: 37cc 4abf bcf8 46be 5e22 193f 3fef e4bd
00000280: 83a5 bcbb d21f 923d 4f72 3dbb cf85 983e
00000290: 4494 2bb2 98f8 113e db30 89ba fe9c 833f
000002a0: 02e4 25b3 582c f839 546b d8be 0342 40be
000002b0: e05d 02be d75f eebd ac19 f5be 9101 b3bc
000002c0: cdf7 15be 7a35 b9be 63ea 0dbc 0a76 a6bf
000002d0: b350 fabe 03a7 abbc 46ee 2abe 4e7c e3bc
000002e0: 3ced 83be 66c1 89bc b55f 9bbe 1782 62be
000002f0: 5c41 06bf 5a5f 73bd 6efc 0f3f 06c2 27be
00000300: 9119 18b4 cf86 6bbf 41d8 c83e de7f 28be
00000310: 719f 7cbe 1751 13be f587 56be f7b5 be3e
00000320: 6019 f337 7f5a aabd fc94 0dbf c840 60be
00000330: 7c48 31bc b06a 313e 2c75 7abf cefd 5bbe
00000340: 9e34 75bd 0b3f 95be 4a80 14bd 6af5 a7bf
00000350: 7a79 d3be 82a5 4b3e a1d6 ffbd 663b dcbd
00000360: 74a9 89bd 655f 03bf 98cf c1be 2211 003f
00000370: 60df 13bf 9b0d 2fbe 8a3a ac3d 92b5 4cbe
00000380: 58ea e4a4 ea1c 5abd 3a7a 0dbd b91a 173d
00000390: 16a5 80bc bb67 05bd 603f 0b30 4312 93bd
000003a0: 878e 12b2 1346 5ea8 5c3b 84b1 1557 bbbc
000003b0: ed4a 0423 e349 c3b7 f3b1 df3d 01fd 96b3
000003c0: df73 b935 a4c9 43b0 40ed e1a2 c7c1 723b
000003d0: a08c f5ba 04a3 3bb2 7a2b 1dbe e1c1 8c3b
000003e0: 867e f53d 6855 1d38 5083 232d a944 40bd
000003f0: 84a6 01be e876 0100 53ce 28be fdf2 62b9
-4.140771e-05 0.62858146 -0.31789574 -0.25368285 -0.026613772 -0.2661035 0.12863898 0.0911182
-9.918669e-14 -0.07360448 -0.27831298 -0.32930723 0.16513051 -0.025327804 -0.7026515 -0.050317116
-0.62378657 -0.35789406 0.07940186 0.5862707 -0.38890743 -0.6439102 -0.28628418 -0.35901666
0.07151453 0.07615638 -0.0021440953 -0.1887722 -0.07674391 -0.14903404 -0.11923852 -0.028510313
-0.002765825 -0.19365391 -0.1620916 -0.55923694 -0.08859754 -0.6914387 -0.6633632 -0.6998331
-0.040839255 -0.35630322 -0.30508283 -1.1831285 -0.2182403 -0.18818086 0.7883827 -0.45532936
-0.40837434 -0.045846786 -0.18145294 1.4323936 -0.047263753 -1.0127524 0.36041388 -0.4972014
-0.56955606 -0.32097474 -0.48631343 -0.89269507 1.2716421 -0.55088115 0.5701705 -0.0977503
-0.010349378 -0.42608255 -0.30357632 -0.82796335 -0.064436674 0.26238972 -0.5389368 -0.35938576
-0.051371064 -0.08128133 -0.2996298 -1.118055 0.20882325 -0.04284521 0.41929635 -0.21274154
-0.6721461 -0.37946495 -0.030754017 -0.41517735 -0.8440307 -0.8951336 -0.5310465 0.06795815
-0.26800856 -0.6806375 -0.11776983 -0.1172528 -0.70268834 -0.22418131 -0.7717878 0.03884908
-0.0064339126 -0.24100952 -0.10520283 0.1433841 0.014949061 0.5264592 -0.01444359 1.0003661
-2.334883e-06 4.392144e-05 -0.62724054 -0.4516432 -0.16298282 -0.30017367 0.08424488 -0.00980239
-0.2423079 -0.3104779 -0.05929608 -0.6575878 -0.48431748 0.096809044 0.25481087 -0.3604567
-0.41412714 -1.2077659 -0.4205026 -0.25076342 0.09047771 -0.06083852 0.37367073 -0.26299915
-0.023015708 0.077859044 -0.6344324 -0.12675901 -0.0878433 -1.0571816 -0.16799721 1.2455437
-0.16714524 -0.12760787 -0.16999742 -0.37782583 -0.15459198 -0.2519748 0.33424369 -0.1654166
-0.48990288 -0.44625205 -0.14365384 -0.22448157 -0.1596779 -0.8649425 -0.06942995 -0.6522194
-0.58260626 -1.4078903 -0.53732556 0.10725671 -0.7921786 -0.19430822 0.59818065 -0.11178445
-0.005757035 0.071349755 -0.0028907245 0.29789588 -9.987222e-09 0.14254987 -0.001046683 1.0282285
-3.8624428e-08 0.00047335285 -0.42269385 -0.18775181 -0.12731123 -0.11639374 -0.4787115 -0.021851333
-0.1464531 -0.36173612 -0.008661839 -1.3004773 -0.48889694 -0.02095366 -0.16692457 -0.027769234
-0.25766933 -0.016815852 -0.30346456 -0.22119938 -0.5244348 -0.059417106 0.5624455 -0.16382608
-1.4165404e-07 -0.92002577 0.3922749 -0.16455027 -0.24670197 -0.14386402 -0.20950301 0.37248203
2.8979674e-05 -0.08318042 -0.5530546 -0.21899712 -0.010820504 0.17325854 -0.9783504 -0.21483538
-0.059864633 -0.2914966 -0.03625516 -1.312177 -0.41303617 0.19887355 -0.12492109 -0.10753517
-0.06721774 -0.51317436 -0.37853694 0.5002614 -0.5776272 -0.17095034 0.08409603 -0.19991139
-9.927623e-17 -0.05325023 -0.034540392 0.03689072 -0.01570372 -0.03256963 5.0657967e-10 -0.071812175
-8.5307255e-09 -1.23386705e-14 -3.848454e-09 -0.022868672 7.1716005e-18 -2.3280218e-05 0.10922613 -7.0309405e-08
1.3817297e-06 -7.1227135e-10 -6.123757e-18 0.003704177 -0.0018733926 -1.0921898e-08 -0.15348616 0.004295573
0.11987023 3.7511258e-05 9.2946345e-12 -0.04694048 -0.12661177 1.34491e-40 -0.16484956 -0.0002164356

weight f4 [32, 128]
00000000: eafc f72b 349c 3439 3054 033b 5d76 3e30
00000010: b204 65b1 38a8 332b 93ee 6530 47f3 44a2
00000020: 4c82 e830 91ed 9e2e 1ac8 fd3d be1d 182f
00000030: 93d5 09b8 2561 cb30 5a9a d03d 42f3 2e2d
00000040: a724 01ac 9324 bc3d c9ba 103a 2356 c83d
00000050: 5919 ae3d 9d78 0a3e 036a 13b1 f611 9830
00000060: 6785 e939 cbd9 f4b7 6673 542f fa16 d30a
00000070: 0708 5bbd 2632 55bc 93ca 1731 1999 07ad
00000080: 029c 2ca8 cdd5 82b8 8713 f5ac 8a66 0d3b
00000090: aec1 c2b9 8865 0f3b e1d3 3cb4 fdd8 c827
000000a0: cebe 94b5 781c d5b6 c4d8 baac de6d bdac
000000b0: ca35 cc39 44ff e1a9 0fcd b5bb 551d 5036
000000c0: 2995 442c 1b47 783a cf8b 0d3b 0cf4 2236
000000d0: 2dc6 2793 1c46 5d3a 9fb3 6131 2a46 4bbb
000000e0: ae8a 0d3b df22 4ebb 1a74 07b5 9c41 6989
000000f0: 5b9c 14ba f671 1431 1762 0132 1052 75b5
00000100: f9f4 ec3c 1565 f83c 89aa b0bd 889d 933c
00000110: 0414 893c 695a 083b 8557 243a 0e16 703c
00000120: df2c 0a3d 2e2b 923b a0ed eeba e3ec 003d
00000130: 15db 73ba 6e18 bf39 2765 073d 5b61 5bbc
00000140: dba7 09bd 2d6b 25ba 013b 03bd 3011 53bd
00000150: 2b8e d23b 3ecd 67bc a30c acbc e171 dc3a
00000160: a088 193d 28d1 d5bc 1983 e53b bb55 1cbc
00000170: 691e ad3d c114 8c3d 6055 c53b cdcc a9ba
00000180: 5004 f7bb 70f1 033c 66ba b4bc 5752 203c
00000190: 8d5e 733c 6562 0c3d 6a6e fb3b fec5 69ba
000001a0: 1dfb d638 a5de 0d3b c235 88bc 910f fd3c
000001b0: 01cf aab9 753d 69ba 77de a1bb 35a3 5f3d
000001c0: fcf3 d13c f3c6 87bc f6f1 27bd 680b 813d
000001d0: cdb6 b13b 03e6 76bb 5faf 5bbc 4183 55bc
000001e0: 5a3f b43c dbfd a4bb 1d0e 2abb a51f 00bc
000001f0: ea1e 37bc fbac 5f3b 839d 8f3d 8837 8ebc
00000200: 16e2 3327 0467 dcb7 f23a 2f3e df68 b339
00000210: 0fbb 8a3b 1e57 8639 55fa acae 0555 b320
00000220: 3710 ecad 4a28 7d2d a95e bc33 e32a e431
00000230: 92bc ac3d 316b 2d32 67e0 073c 6bd3 d6aa
00000240: 1fbe 48a5 477b 0f3c 0c6a fe3d 8978 413e
00000250: cdcc 5005 8437 1537 20b8 f0b0 d92b 8f3c
00000260: cce9 783e 4c95 4232 f483 68ad f87a 440c
00000270: 4fcb 503e 978e 95ad 1734 1c31 28eb cfad
00000280: 5845 ce23 7347 f1af 09a0 1e3e 02a9 7537
00000290: ea46 1dbb af3b 05b9 48f5 d3a9 c298 f4a4
000002a0: 3cbb ad37 3e27 672c 148c dc3d a240 fa3d
000002b0: 1a7c a13b d5dd 1bac b836 4cbc f9fe b230
000002c0: 49cd 723e 011b d2bb 321a 0abc 2b8b 5f3e
000002d0: 4b62 8e9a a18f 103d b26a b730 3183 b1b8
000002e0: 89da 09bc 3319 8a3e 0afd 1637 3c82 7015
000002f0: f368 113e ea42 3b2f 44f4 5fb3 3629 2d28
00000300: 0864 43bd c37d 5a3e 745d 2c3c 78cd b8ba
00000310: fc1c 7a3e bd4c 8b3e 456b 213e 4e77 91bb
00000320: 0664 103a 40ec ec3d 6833 9ebe ac7c a03e
00000330: 25d7 98bb 06eb 17bb 8961 a73d e5e1 b73e
00000340: da44 b33e 0df8 48be b420 b1be 046c b83e
00000350: 5b29 8f3e b4b5 fcbb 3f83 0b3d a058 1dbe
00000360: 91e1 8a3e 53fa 3cbe c19c 243e a83c 17be
00000370: aa6f 98be df72 37be d020 d23e 4ef1 60be
00000380: 1e6a f4bd 6804 e03d 3f65 2dbe 2019 e43d
00000390: 3065 9cb9 8d3a b13c 6582 b2bd ae0f 313d
000003a0: f0d9 113e 3b0e 98bd 0c85 e43d 03fd 65bc
000003b0: 8f2b 18be bff4 5ebd 04eb c33b 583d 1dbe
000003c0: ee89 3ebe 77ef f53b 18d1 5f3d 9531 393d
000003d0: faeb 9b3c 7b0a f0bd f55c 52be 8660 213e
000003e0: 9371 fcbc 3811 11be 6fae a7bd 7d65 dcbd
000003f0: 2aca 343e ec92 6a3e 5b22 f5bc a60c 9d3c
1.7620603e-12 0.00017224328 0.0020039193 6.92898e-10 -3.3326555e-09 6.3827025e-13 8.364875e-10 -2.6691743e-18
1.6917254e-09 7.2272084e-11 0.12391682 1.3834886e-10 -3.2862252e-05 1.4797804e-09 0.1018569 9.944769e-12
-1.8352349e-12 0.091866635 0.0005520997 0.09782054 0.085009284 0.13522573 -2.1451576e-09 1.106456e-09
0.00044540616 -2.9188484e-05 1.9322285e-10 2.0327204e-32 -0.053474452 -0.013012445 2.2088542e-09 -7.707856e-12
-9.581747e-15 -6.2387066e-05 -6.9654868e-12 0.002157601 -0.00037146866 0.0021880586 -1.7585945e-07 5.574641e-15
-1.1082391e-06 -6.351209e-06 -5.3105038e-12 -5.383901e-12 0.00038949988 -1.0036289e-13 -0.0055481265 3.1011489e-06
2.7936076e-12 0.0009471045 0.0021598225 2.4281935e-06 -2.1176072e-27 0.0008440928 3.2843912e-09 -0.0031017163
0.0021597552 -0.003145389 -5.046037e-07 -2.8077204e-33 -0.0005669051 2.1601614e-09 7.531091e-09 -9.138903e-07
0.028925406 0.030321637 -0.08626277 0.018019453 0.016733177 0.0020805842 0.0006269145 0.014653696
0.0337342 0.004460714 -0.0018228777 0.031475913 -0.000930236 0.0003644856 0.03305545 -0.013389911
-0.033607345 -0.0006310221 -0.032038692 -0.051530063 0.006425639 -0.014148055 -0.02100212 0.0016818607
0.03748381 -0.02610071 0.0070041534 -0.009541924 0.08453066 0.06839896 0.0060221404 -0.0012954712
-0.007538356 0.008053169 -0.022061538 0.009785256 0.014854086 0.034273524 0.0076730745 -0.0008917748
0.00010251089 0.00216476 -0.016627196 0.030891212 -0.00032579157 -0.00088974024 -0.00493985 0.054599006
0.025629036 -0.016574359 -0.041002236 0.06301004 0.005423403 -0.0037673719 -0.013408511 -0.013031782
0.022002865 -0.0050351447 -0.0025948354 -0.007820045 -0.011176804 0.0034130204 0.07012465 -0.017360464
2.4963802e-15 -2.6274014e-05 0.1711233 0.00034219676 0.004233725 0.0002562338 -7.866122e-11 3.038004e-19
-2.6837295e-11 1.4390331e-11 8.771651e-08 6.640549e-09 0.084344044 1.0094298e-08 0.008293248 -3.8160737e-13
-1.741165e-16 0.008757419 0.124225706 0.18893637 9.817729e-36 8.894018e-06 -1.751463e-09 0.017476963
0.24307936 1.1326232e-08 -1.3216973e-11 1.5136295e-31 0.20390056 -1.7002661e-11 2.2730597e-09 -2.3637606e-11
2.2363933e-17 -4.3888412e-10 0.15490736 1.4642488e-05 -0.0023998567 -0.00012706102 -9.412832e-14 -1.06076914e-16
2.0710395e-05 3.2848858e-12 0.10768905 0.12219359 0.004928124 -2.2149966e-12 -0.012464218 1.3023672e-09
0.23711123 -0.0064119105 -0.008429097 0.21830432 -5.8888624e-23 0.035293225 1.3345327e-09 -8.464454e-05
-0.008413919 0.2697235 8.999612e-06 4.857035e-26 0.14200191 1.7031324e-10 -5.2143392e-08 9.612365e-15
-0.04770282 0.21337037 0.010520328 -0.001409932 0.24425119 0.27206984 0.15763576 -0.004439271
0.0005508069 0.115684986 -0.30898595 0.31345117 -0.004664319 -0.0023180856 0.081729 0.3591453
0.35013467 -0.19625874 -0.34595263 0.3601991 0.2796124 -0.0077120904 0.034060713 -0.15365839
0.2712522 -0.18454866 0.16075422 -0.14769232 -0.29772693 -0.17914914 0.4104066 -0.2196705
-0.11934303 0.109383404 -0.16933154 0.11137605 -0.0002983003 0.021634365 -0.08716277 0.043227844
0.14243293 -0.07424589 0.11158189 -0.0140373735 -0.14860366 -0.054432627 0.005978944 -0.15355432
-0.18607304 0.007505353 0.054642767 0.0452133 0.01903342 -0.11720749 -0.20543273 0.15759477
-0.030815875 -0.14166725 -0.081875674 -0.10761545 0.17655244 0.22907609 -0.029923609 0.01917107

bias f4 [32]
00000000: b9ba b8bc 51fb 653e e33e 223f 610f 833e
00000010: 2d3f a2b8 72f2 0dbe b965 13bd 1fd3 483d
00000020: 3f19 5bbc fb84 4f3d b2c6 6a3f 7684 2dbe
00000030: b4dd 0cbe 00d2 193d 9471 ee3c 49ce 5c3e
00000040: f420 933a 2c49 5cba 04fe e33e d7b0 383f
00000050: a48f 273f 00d1 003e 9c20 833d 0e6e b43d
00000060: 5343 57ba 14fd fe3a 67cf 38bc 5d2d be3d
00000070: a787 be3d a11e ad3d b81f a3bd abff 0c3d
-0.022549974 0.22459151 0.6337721 0.2559767 -7.7365294e-05 -0.13862017 -0.035985682 0.049029466
-0.013372718 0.05066393 0.91709435 -0.16945061 -0.13756448 0.037553787 0.029106893 0.21563067
0.0011225031 -0.00084032374 0.44529736 0.72144836 0.65453553 0.12579727 0.06402704 0.08810054
-0.0008211631 0.0019454085 -0.011279917 0.09285996 0.093032174 0.084531076 -0.07965034 0.03442351

weight f4 [1, 32]
00000000: 5577 293e a25b 22bf 7bba 9abf b43a 34bf
00000010: 8360 84bc 9eed 13be b018 c6be ff16 11bf
00000020: 1d25 603d b3ea eabe 6499 e3bf 2c3f 713d
00000030: b511 6e3e 4eb4 70be f563 f2bd f43b 1dbf
00000040: 6c01 753c c77a abbd 2373 4fbf fc1e 85bf
00000050: 197a a6bf e734 0fbf 7086 0fbf e06c cbbe
00000060: 78a6 54bd 0bc3 e3bc 4e25 a6bb 5ab7 213e
00000070: 7da4 ecbe 4082 843e 1755 e1bd 1482 f7be
0.16549428 -0.6342107 -1.2088159 -0.70402074 -0.016159302 -0.14446113 -0.3869071 -0.56675714
0.054722894 -0.45882186 -1.7781186 0.058898136 0.23248942 -0.23506281 -0.118354715 -0.61419606
0.014953952 -0.08373027 -0.8103506 -1.0400081 -1.3006011 -0.559401 -0.5606451 -0.39731503
-0.05191657 -0.027802965 -0.005070365 0.157926 -0.46219245 0.25880623 -0.11002558 -0.4834143
