experiments/grail_nell_v1/graph_classifier_chk.pth (torch, 103758 bytes, 21 tensors)

weight f4 [14, 32]
0	0xbf974e16	-1.1820705
1	0x3f5b5f9f	0.8569278
2	0xbf4baefc	-0.7956388
3	0x3eed4d2b	0.46347937
4	0x3e09b877	0.13449274
5	0x3ed576df	0.41692254
6	0xbef33a14	-0.47505248
7	0x3e683b19	0.22678794
8	0x3eda085d	0.42584506
9	0xbf06236b	-0.52397794
10	0x3f06b571	0.5262061
11	0xbe20d9ed	-0.15708132
12	0xbef02a0b	-0.46907076
13	0xbefd3918	-0.49457622
14	0xbe14c0c1	-0.14526655
15	0xbea7447b	-0.32669434
16	0xbf740437	-0.9531893
17	0xbdde94c8	-0.108682215
18	0x3edfbfbc	0.4370097
19	0x3f882428	1.0636034
20	0x3e8c27ed	0.2737421
21	0xbf341a56	-0.70352685
22	0xbfb07d1c	-1.378818
23	0x3f1a835f	0.60356706
24	0xbec50e83	-0.38487634
25	0xbeeb37ea	-0.45941097
26	0xbf049dd1	-0.5180331
27	0xbef421c8	-0.47682023
28	0x3f1442ce	0.57914436
29	0x3f6c2e30	0.92257977
30	0x3e80d54d	0.25162736
31	0x3db789f0	0.08961856
32	0xbf66d632	-0.90170586
33	0x3f1ea315	0.61967593
34	0xc030e78b	-2.7641323
35	0x3f7c09d4	0.98452497
36	0x3f254350	0.64555836
37	0x3f812383	1.0088962
38	0x3ed60988	0.41804147
39	0x3e00e8f5	0.12588866
40	0x3f64ccba	0.8937489
41	0x3e603878	0.21896541
42	0x3ea9c237	0.33155987
43	0xbe64c4e6	-0.22340736
44	0xbdd8083d	-0.10548446
45	0x3f2b0788	0.66808367
46	0x3ea27286	0.31728
47	0xbf498436	-0.7871736
48	0xbf89f000	-1.0776367
49	0x3e864c23	0.26229963
50	0xbd4575bd	-0.048207987
51	0x3e02dada	0.12778798
52	0xbf682d74	-0.90694356
53	0xbf14f904	-0.5819247
54	0xbfab7c0b	-1.339723
55	0xbf025d81	-0.50923926
56	0xbe87c417	-0.26516792
57	0x3d5e4949	0.05426911
58	0xbefdcf73	-0.49572334
59	0x3d5753e7	0.05257025
60	0x3fef1fac	1.868154
61	0x3f8b2522	1.0870707
62	0x3edf507e	0.43616098
63	0x3e97aa2d	0.2962202
64	0xbf5a23b4	-0.8521073
65	0xbce13df4	-0.027495362
66	0xbf01fc36	-0.5077547
67	0xbf2a1998	-0.664453
68	0xbdc7a69c	-0.09748575
69	0x3eb04d0d	0.34433785
70	0xbd0fdeab	-0.035124462
71	0xbf40a055	-0.7524465
72	0xbfb223a5	-1.3917128
73	0xbfa6858a	-1.3009503
74	0x3f9ae5c8	1.2101374
75	0xbf9fcd2f	-1.2484492
76	0x3efac605	0.48979202
77	0xbe5b6e14	-0.2142871
78	0xbf977160	-1.1831474
79	0xbd5b0bc5	-0.05347802
80	0xbf410541	-0.7539864
81	0xbed40553	-0.41410312
82	0x3f69d352	0.91338074
83	0x3f0290a2	0.5100194
84	0xbeca5e0e	-0.39524883
85	0xbe96594e	-0.2936501
86	0xbf158aee	-0.58415115
87	0x3ec04bdb	0.37557873
88	0xbfd321ca	-1.6494687
89	0x3f93b14a	1.1538479
90	0xbf8efb2d	-1.1170403
91	0x3f620882	0.8829423
92	0xbf129c12	-0.57269394
93	0xbfb9655a	-1.4484055
94	0xbe68431f	-0.22681855
95	0xbe1c45ea	-0.15261045
96	0x3fe1dd46	1.7645652
97	0xbf631c94	-0.8871548
98	0x3d933701	0.071882255
99	0x3f182497	0.5943083
100	0xbedd8004	-0.4326173
101	0xbfad2492	-1.3526785
102	0xbdc579ad	-0.096423484
103	0x3e1b455a	0.15163174
104	0x3fc7db22	1.5613749
105	0x3f82ba46	1.0213096
106	0xbf229662	-0.63510716
107	0x3fc8a460	1.5675163
108	0xbfa86647	-1.3156213
109	0x3f05f687	0.52329296
110	0x400ce996	2.201757
111	0xc00bbeb6	-2.183515
112	0x3dbf9244	0.0935407
113	0x3f9d5802	1.2292483
114	0xbf6311bf	-0.88698953
115	0xc033fd50	-2.812336
116	0xbf30739f	-0.68926424
117	0x3f74c6b2	0.95615685
118	0x3f3e5c35	0.74359447
119	0x3f01a16f	0.50636953
120	0x3ff91eeb	1.946256
121	0xbf8b4665	-1.0880858
122	0x3f97aa24	1.1848798
123	0xbe8a7ba8	-0.27047467
124	0x3f8b2978	1.087203
125	0x3f938b68	1.1526918
126	0xc00ab059	-2.1670134
127	0x3f8422a3	1.032307
128	0xbfb52632	-1.4152281
129	0xbf59e9b9	-0.8512226
130	0x3ee46aab	0.4461263
131	0xbeea55ab	-0.45768484
132	0xbf6e38cd	-0.9305542
133	0x3ee2c8c8	0.4429381
134	0xbe25889f	-0.16165398
135	0xbf0ebf6e	-0.5576085
136	0xbf9cac47	-1.2240075
137	0xbf304de4	-0.6886885
138	0x3eb02fe7	0.34411547
139	0xc0000c8f	-2.0007665
140	0x3ed2e524	0.41190445
141	0xbdf70c4c	-0.12062892
142	0xbfbfa994	-1.4973626
143	0xbd9adebf	-0.07562017
144	0x3e2d663c	0.1693353
145	0xbe244dd3	-0.16045313
146	0x3ffcf007	1.976075
147	0x3f98834c	1.1915069
148	0xbebdda7b	-0.3708075
149	0x3effeea5	0.4998676
150	0x3e736d2d	0.23772116
151	0xbdf1b768	-0.1180256
152	0xbfc940d4	-1.5722909
153	0x3f8d8336	1.1055667
154	0xbedaf1c4	-0.42762578
155	0x3eefab59	0.46810415
156	0xbf099be2	-0.53753483
157	0xbf8060e1	-1.0029565
158	0xbeab0ac6	-0.33406657
159	0xbbfeda8e	-0.0077775186
160	0xbdd62b7a	-0.10457511
161	0xbe8519b9	-0.25996187
162	0xbdfff6c4	-0.12498239
163	0x3ea680e7	0.3252022
164	0xbe6dd98c	-0.23227519
165	0x3e9ece3a	0.31016713
166	0xbea71e71	-0.32640412
167	0xbc97999a	-0.01850586
168	0xbe4f2906	-0.20230493
169	0xbeb1c288	-0.34718728
170	0x3e15c609	0.14626326
171	0xbd44d1c8	-0.048051625
172	0xbd6b037c	-0.05737637
173	0xbec7ea86	-0.39046115
174	0x3cebe3e8	0.028795198
175	0xbef672af	-0.48134372
176	0xbe941428	-0.28921628
177	0x3d8f8967	0.07008629
178	0x3f476d2c	0.7790096
179	0xbf1726cd	-0.5904358
180	0xbec94232	-0.39308316
181	0xbcaa6a49	-0.020802634
182	0x3dbe144f	0.09281217
183	0xbe47632c	-0.19471425
184	0x3e7213d5	0.23640378
185	0x3eacd277	0.33754322
186	0x3d9b0f85	0.075713195
187	0x3f12f02a	0.5739771
188	0x3e666bfd	0.22502132
189	0x3eaae2ce	0.33376163
190	0xbf418ff2	-0.7561027
191	0x3ea8e3b7	0.32986233
192	0xbe3c2e14	-0.18376952
193	0x3f70e1a7	0.9409432
194	0x3e1d55c9	0.15364756
195	0x3c61371a	0.013746047
196	0x3f7b01b1	0.98049456
197	0x3fbaaf24	1.4584699
198	0x3f037fff	0.5136718
199	0xbddfb8ce	-0.109239206
200	0x3cbc6a3d	0.022999877
201	0x3e94af5c	0.2904004
202	0xbfd119e5	-1.6336027
203	0x4001734a	2.0226617
204	0xbd71036a	-0.058841147
205	0xbe89c150	-0.26905298
206	0x3eabb414	0.33535826
207	0x400e4d95	2.2234852
208	0x3ffb70c5	1.964379
209	0xbf60711e	-0.87672603
210	0xc00e0034	-2.2187624
211	0x4011712e	2.272533
212	0x3fba819d	1.4570805
213	0xbe100b99	-0.14066924
214	0x3e9c3a59	0.30513266
215	0xbf3ac4be	-0.72956455
216	0x3fb6fa83	1.42952
217	0xbf4d27e2	-0.8013898
218	0x3f538a24	0.8263266
219	0xbf12639c	-0.5718324
220	0xbfb4ed14	-1.413485
221	0xbf2258e7	-0.63416904
222	0x403d1862	2.9546132
223	0xbf7e9547	-0.9944653
224	0x3eeecf52	0.46642548
225	0x3e01df30	0.12682796
226	0xbdf64dac	-0.120265335
227	0xbdf83892	-0.12120165
228	0xbfaa04fa	-1.3282769
229	0x3f0cf246	0.5505718
230	0xbf0b8d21	-0.5451222
231	0x3f3f8b47	0.74821895
232	0x3e4edbd9	0.20201053
233	0xbe369484	-0.17830092
234	0xbeac309f	-0.33630845
235	0xbf7c06e0	-0.9844799
236	0xbee302ea	-0.4433816
237	0xbf7afeca	-0.9804503
238	0x3ef6c50e	0.48197216
239	0xbf22ac9e	-0.6354464
240	0xbe127697	-0.14303051
241	0x3e8eb5d7	0.27873108
242	0x3f9f1fcd	1.243158
243	0xbf2a6867	-0.66565555
244	0x3e85e28e	0.2614941
245	0x3e8f0d93	0.27940044
246	0x3d317506	0.043324493
247	0xbd1d3424	-0.038379803
248	0xbf30a429	-0.6900049
249	0x3f3fd7cf	0.7493867
250	0x3e4666ab	0.19375102
251	0x3db34240	0.087528706
252	0x3f1da198	0.615747
253	0x3f38022d	0.7187832
254	0x3e23c1f8	0.15991962
255	0xbd929419	-0.07157154

weight f4 [4, 8, 32]
0	0xbec38187	-0.3818476
1	0xbf0d82e7	-0.55277866
2	0x3eddea57	0.4334285
3	0xbf25c7c5	-0.6475795
4	0xbf94764c	-1.1598601
5	0xbf8a9439	-1.0826484
6	0xbea0ea93	-0.31428966
7	0x3e11c9ad	0.1423709
8	0x3f9466c8	1.1593866
9	0x3ebae274	0.36500895
10	0x3f13de35	0.57760936
11	0x3e074e03	0.13213353
12	0x3f58c3d3	0.84673804
13	0xbe6c351d	-0.23067136
14	0xbfb24625	-1.3927656
15	0xbe48d316	-0.19611773
16	0x3e364b8f	0.17802261
17	0x3f9ac98e	1.209276
18	0xbeafdf71	-0.3435016
19	0x3e82317b	0.25428376
20	0x3da0a4c2	0.07843925
21	0x3e6d1e81	0.23156168
22	0xbe65631a	-0.22401085
23	0x3eb14dbd	0.34629622
24	0x3f12ef4f	0.57396406
25	0x3fa033bb	1.2515787
26	0xbda615a5	-0.08109597
27	0xbf035408	-0.51300097
28	0xbebb7026	-0.36609
29	0xbd2f9693	-0.04286821
30	0xbe93e595	-0.28886095
31	0xbe4d36a5	-0.20040376
32	0x3f099919	0.53749233
33	0xbf0051e9	-0.50124985
34	0xbf7a53c0	-0.9778404
35	0x3f29cd04	0.66328454
36	0x3f3c47b5	0.73546916
37	0x3e85eebb	0.261587
38	0x3f753ce2	0.95796025
39	0x3d2214b5	0.03957053
40	0x3f0e5ccd	0.5561035
41	0x3f3c7af1	0.73625094
42	0xbfd8f39b	-1.6949342
43	0xbe8a7c1a	-0.27047807
44	0xbebb513b	-0.3658541
45	0x3e0b2238	0.13587272
46	0x3f4ea95f	0.8072719
47	0xbc353cde	-0.011061875
48	0x3e68d814	0.22738677
49	0x3e8a5fb9	0.27026156
50	0x3fee1d94	1.8602777
51	0x3f78f04b	0.9724166
52	0x3ee62670	0.449512
53	0x3f1f931b	0.6233384
54	0x3db2becb	0.08727797
55	0xbeb84419	-0.35989454
56	0xbf112c86	-0.5670856
57	0x3f20725b	0.6267449
58	0x3f02223f	0.50833505
59	0x3c9df83a	0.019283403
60	0xbec87d18	-0.3915794
61	0x3eec5e5a	0.46165735
62	0xbed5ad42	-0.41733748
63	0xbe27f64a	-0.16402546
64	0x3e342fec	0.17596406
65	0xbf20db57	-0.62834686
66	0x3da24698	0.07923621
67	0xbedd1683	-0.43181238
68	0xbf6967a7	-0.91173786
69	0xbf080a82	-0.53141034
70	0xbebbde31	-0.36692956
71	0x3cc63415	0.024194757
72	0x3e0a4f20	0.13506746
73	0x3f32d57f	0.6985702
74	0x3f05e123	0.52296656
75	0x3eac58f1	0.33661607
76	0x3f91f468	1.1402712
77	0x3f195993	0.59902304
78	0x3f370ed2	0.7150699
79	0x3ec9cb10	0.39412737
80	0x3e186a3a	0.14884272
81	0xbd497426	-0.049183033
82	0xbf9b2689	-1.2121135
83	0xbf14ba26	-0.5809654
84	0xbea27756	-0.3173167
85	0x3e1b5475	0.15168937
86	0xbd5c5cc2	-0.0537994
87	0x3ee53ea7	0.44774362
88	0x3ef62233	0.48072967
89	0x3d007296	0.031359278
90	0xbe097b56	-0.13425955
91	0x3e51adc5	0.20476444
92	0xbe474386	-0.19459352
93	0x3fc35a65	1.5261961
94	0x3f0a7fc7	0.5410122
95	0x3ebee2af	0.3728232
96	0x3db81764	0.089888364
97	0x3f979190	1.1841297
98	0xbf5cb5f6	-0.8621515
99	0x3f8166fc	1.0109553
100	0x3f5c4102	0.86036694
101	0xbb9aa1c6	-0.004718992
102	0x3e6dae5a	0.23211041
103	0xba84cddb	-0.001013215
104	0xbd1e0e82	-0.038588054
105	0xbe94a97e	-0.29035562
106	0xbeacc518	-0.3374412
107	0xbeb29d57	-0.34885666
108	0xbf08f5a9	-0.5349985
109	0xbee1d38e	-0.44106716
110	0xbd07c686	-0.03314831
111	0xbcdc136d	-0.026864732
112	0xbe0d5e2e	-0.13805458
113	0x3e48b690	0.19600892
114	0xbf8dfb1c	-1.1092257
115	0xbee3f9c8	-0.44526505
116	0xbe8b5c7d	-0.27219
117	0xbca65bd2	-0.020307455
118	0x3d2f6205	0.042818088
119	0x3e2acf6a	0.16680685
120	0xbf47a800	-0.7799072
121	0xbf80a551	-1.005045
122	0xbda4c1f7	-0.08044808
123	0x3de5dd75	0.1122388
124	0xbc36239d	-0.011116889
125	0xbf0d16fb	-0.5511319
126	0x3ed7a882	0.4212075
127	0xbed804d9	-0.42191198
128	0x3e1a6a04	0.15079504
129	0x3ee97802	0.4559937
130	0xbfbf66a6	-1.4953201
131	0x3ee9a9d6	0.45637387
132	0x3f906d0e	1.1283281
133	0xbecde2c0	-0.4021206
134	0x3e5edfc3	0.21765046
135	0x3a989abf	0.0011642798
136	0x3f4d4352	0.8018085
137	0x3f3ac895	0.72962314
138	0xbf85036e	-1.0391672
139	0x3ed4bf64	0.4155227
140	0x3fd55360	1.6666069
141	0x3f4da1b3	0.8032486
142	0x3f394885	0.7237628
143	0x3ebe4c69	0.3716767
144	0x3e77cbab	0.24198787
145	0x3ec774b9	0.3895624
146	0x3f67e1f0	0.9057913
147	0xbf2862c7	-0.6577572
148	0x3e945fbd	0.28979293
149	0xbfe29801	-1.7702638
150	0x3e7f8bf8	0.24955738
151	0x3ea8fa51	0.33003476
152	0xbd83b0ce	-0.06430207
153	0x3e725e56	0.23668799
154	0x3f840d5a	1.0316575
155	0x3dacc9ea	0.084369496
156	0x3c087591	0.008328811
157	0x3f05310f	0.5202798
158	0x3eb30c31	0.3497024
159	0x3df5ef0a	0.12008484
160	0xbddfe4b1	-0.10932291
161	0xbd2d78ab	-0.042351406
162	0xbf68bc1f	-0.9091205
163	0x3e75575f	0.2395911
164	0xbeed39f6	-0.46333283
165	0x3e4ff67f	0.20308875
166	0x3ed601fc	0.4179839
167	0xbe186889	-0.14883627
168	0x3f73c78a	0.9522635
169	0x3f20c51d	0.6280077
170	0xbf53b999	-0.82705075
171	0x3d21bf14	0.039488867
172	0x3e8658c6	0.26239604
173	0x3f03f8a7	0.5155129
174	0x3e163221	0.1466756
175	0x3e644ddc	0.22295326
176	0x3ded9939	0.116014905
177	0x3f22dee6	0.63621366
178	0x3fa3b694	1.2790093
179	0x3a9964ea	0.0011703048
180	0xbd9dd34f	-0.077063195
181	0x3b83b362	0.004019187
182	0xbd94f8e5	-0.07274035
183	0x3f671cda	0.902784
184	0x3e40815e	0.1879935
185	0xbfbb1836	-1.4616764
186	0x3ef59630	0.47966146
187	0xbf3061e7	-0.6889939
188	0xbeda5d31	-0.42649224
189	0x3fff96c8	1.996789
190	0xbd8212cd	-0.06351242
191	0xbe413990	-0.18869615
192	0x3eaaed01	0.33383945
193	0xbec0f7bd	-0.3768901
194	0x3ea3bbdd	0.31979266
195	0x3e7370d8	0.23773515
196	0x3eb8490b	0.35993227
197	0x3ead1cc7	0.33811018
198	0x3eff7d40	0.49900246
199	0x3ce36cae	0.027761783
200	0x3f0e1099	0.55494076
201	0x3d83bf2b	0.06432947
202	0x3cc572ad	0.024102533
203	0x3e232306	0.15931329
204	0x3f1ee31d	0.620653
205	0xbef1c4fb	-0.47220597
206	0x3f63738e	0.888482
207	0xbf4efc2e	-0.80853546
208	0xbdc5550e	-0.096353635
209	0x3ebe7096	0.3719527
210	0x3e4c1cd9	0.1993288
211	0x3f9402d8	1.1563368
212	0x3f0f4d19	0.55977017
213	0x3fc3c4e5	1.5294462
214	0x3db68caa	0.08913548
215	0xbf830067	-1.0234498
216	0x3c1fada6	0.009745991
217	0x3f351dc6	0.70748556
218	0xbf713a62	-0.9422971
219	0xbe02078b	-0.1269819
220	0x3d51b16d	0.051194597
221	0xbf412bc3	-0.754574
222	0xbe8f308d	-0.2796673
223	0x3f02da1f	0.51114076
224	0x3ef39006	0.4757082
225	0x3e922e01	0.28550723
226	0x3ee69ee9	0.45043114
227	0xbf43fb14	-0.7655499
228	0xbf105cf2	-0.56391823
229	0xbf8e6600	-1.1124878
230	0xbed004ea	-0.4062875
231	0x3e07bf82	0.13256648
232	0xbef81904	-0.48456585
233	0x3f068938	0.5255313
234	0xbf339311	-0.7014628
235	0xbe3a4d04	-0.18193442
236	0xbd897697	-0.06712072
237	0xbf0c874e	-0.5489396
238	0xbe4b7949	-0.19870485
239	0x3f65b9bc	0.89736533
240	0x3de1ff59	0.11035032
241	0xbf274dca	-0.6535307
242	0xbefdfe56	-0.49608105
243	0xbea85900	-0.32880402
244	0xbf020180	-0.5078354
245	0xbc8a2335	-0.016862491
246	0xbe1e5c29	-0.15464844
247	0xbda87e0c	-0.082271665
248	0xbe480871	-0.1953447
249	0xbd254350	-0.040347397
250	0x3f1a9a3a	0.6039158
251	0x3d59d101	0.053177837
252	0xbf16226b	-0.5864627
253	0xbfb148a3	-1.3850292
254	0xbdcc6398	-0.099799335
255	0xbf121aae	-0.5707196

w_comp f4 [14, 4]
0	0xbd9ccf51	-0.0765673
1	0xbf5f8572	-0.87312996
2	0x3f688381	0.9082566
3	0xbdb35f3a	-0.087583974
4	0x3e5d6f9e	0.2162461
5	0x3f41ec5e	0.7575129
6	0xbf0b92a2	-0.5452062
7	0xbfa50175	-1.289107
8	0xbe373208	-0.17890179
9	0xbe430cbf	-0.19047831
10	0xbe8bdef9	-0.27318552
11	0xbecc14e3	-0.39859685
12	0xbe35cf9f	-0.17754982
13	0x3d883a5e	0.06651758
14	0xbe88302a	-0.26599246
15	0xbed2cf18	-0.41173625
16	0x3f1b326a	0.606238
17	0x3f656c6b	0.8961856
18	0x3ed1301b	0.40857014
19	0xbf49dca9	-0.78852326
20	0x3f910cf7	1.1332082
21	0x3ddb2d96	0.10702054
22	0x3e4455ea	0.19173399
23	0xbe8f087e	-0.27936167
24	0xbed84c41	-0.42245677
25	0x3ec106f0	0.37700605
26	0x3ec13e4f	0.3774285
27	0xbf042e56	-0.51633203
28	0xbdec5f0d	-0.11541567
29	0xbe881250	-0.2657647
30	0x3f26c400	0.6514282
31	0xbf54c418	-0.83111715
32	0x3f43cb0b	0.76481694
33	0x3fabb0da	1.3413346
34	0xbf54b7b4	-0.8309281
35	0xbf2d3aec	-0.6766803
36	0xbe11bebe	-0.14232919
37	0x3f9279a9	1.1443378
38	0x3f20b825	0.6278098
39	0xbf8b9c41	-1.090706
40	0xbffcad04	-1.97403
41	0x3f351ac6	0.7074398
42	0x3ea33a99	0.31880644
43	0xbf42e769	-0.76134354
44	0xbf814e50	-1.0102024
45	0x3f50b056	0.8151907
46	0x3f7cf5d4	0.98812604
47	0xbc55cf0b	-0.013049851
48	0x3ef0766b	0.46965346
49	0xbf144dea	-0.5793139
50	0xbe32f8ec	-0.17477769
51	0xbfa2cc24	-1.2718549
52	0x3f0321a8	0.5122323
53	0x3f97aab5	1.1848971
54	0x3f849fe1	1.0361291
55	0x3c435d5a	0.011924112

self_loop_weight f4 [8, 32]
0	0x3da363fe	0.07978056
1	0xbf3883bd	-0.72076017
2	0x3ea73842	0.3266011
3	0xbe33602b	-0.17517154
4	0xbc4a95cd	-0.012364817
5	0xbebf4308	-0.37355828
6	0xbecb4063	-0.3969756
7	0x3cf702d1	0.03015271
8	0x3d90624b	0.07049998
9	0x3ee48757	0.44634506
10	0x3f4ecaff	0.807785
11	0xbcc4f148	-0.024040833
12	0xc01c5a7f	-2.4430234
13	0x3ed75eda	0.42064553
14	0x3ee58cba	0.44833928
15	0xbe3f3712	-0.18673351
16	0xbe70e194	-0.23523551
17	0xbfa538b0	-1.2907925
18	0xbe427e70	-0.18993545
19	0xbefed5a3	-0.49772367
20	0xbe2c9e9d	-0.16857381
21	0x3d9ea067	0.07745438
22	0x3e07f058	0.13275278
23	0x3e4e0a69	0.20121159
24	0xbfdb3738	-1.7126226
25	0x3ec89357	0.3917491
26	0xbd96a4fc	-0.07355687
27	0xbe7143bd	-0.23560996
28	0x3f48c7e3	0.7843
29	0x3e7a7a5d	0.2446074
30	0x3e1322af	0.143687
31	0xbee25dd4	-0.4421221
32	0xbf2525dd	-0.645109
33	0xc0579afe	-3.368835
34	0xbf57b8c6	-0.84266317
35	0xbd05a78e	-0.032630496
36	0x3dc14eee	0.09438883
37	0x3e84d7f7	0.25946018
38	0xbf2407b5	-0.6407426
39	0xbf4e9e32	-0.80710137
40	0x3c65ebef	0.014033302
41	0xbf88618b	-1.0654768
42	0xbf775947	-0.966206
43	0xbf2ed602	-0.682953
44	0x3f9487a5	1.1603895
45	0xbf79f9b8	-0.97646666
46	0xbe3c0f10	-0.18365121
47	0xbd90a63a	-0.07062955
48	0xbf215ccd	-0.6303223
49	0x3e12a57f	0.14320944
50	0x3ede26b7	0.43388912
51	0xbec522c4	-0.38503087
52	0xbe2a8628	-0.16652739
53	0xbe62e551	-0.2215779
54	0xbf075623	-0.5286581
55	0xbd8db210	-0.06918728
56	0x3f44f150	0.76930714
57	0xc014a3ea	-2.3225045
58	0xbd8ff67e	-0.070294365
59	0xbecd1b4f	-0.40059897
60	0xbfed77dd	-1.8552204
61	0x3d6a8a1e	0.057260625
62	0x3e0ce373	0.1375864
63	0x3d6150cb	0.05500869
64	0xbf2fd15f	-0.6867885
65	0x3f98ba5c	1.1931872
66	0xbf74eb7f	-0.9567184
67	0x3e25b57c	0.16182512
68	0xbf5ab906	-0.85438573
69	0xbf3cf85b	-0.7381646
70	0x3d2b8ea8	0.041884094
71	0xbe34bf51	-0.17651106
72	0x3e9d0362	0.30666643
73	0x3ed051ee	0.40687507
74	0xbe2b6b62	-0.16740182
75	0x3d9d716e	0.076876506
76	0xbf98b107	-1.1929024
77	0xbeb26446	-0.34842128
78	0xbf931865	-1.149182
79	0xbf22b067	-0.6355042
80	0xbc7f91be	-0.0155987125
81	0xbf15ac23	-0.58465785
82	0xc004d57a	-2.0755296
83	0x3d2434e7	0.040089514
84	0xbe8e978b	-0.27849993
85	0xbed5b565	-0.41739956
86	0x3e661517	0.22468983
87	0x3f3eabf6	0.7448114
88	0xc016f9a2	-2.3589864
89	0x3f1227ff	0.5709228
90	0xbefcf2f2	-0.49404103
91	0xbea6d51d	-0.32584468
92	0x3f052c06	0.520203
93	0xbf836ad2	-1.0266974
94	0x3f49b5a8	0.7879281
95	0xbca29d8b	-0.019850513
96	0xbf3860ff	-0.72023004
97	0x3f4cdb1b	0.8002183
98	0x3f057698	0.52134085
99	0xbe0cf629	-0.13765778
100	0x3f69e82e	0.91369903
101	0xbd8d615d	-0.06903336
102	0xbe14fc7a	-0.14549437
103	0xbeb102ff	-0.34572598
104	0xbf861148	-1.0474024
105	0xbf493808	-0.7860112
106	0xbf0fb914	-0.5614178
107	0xbf2a869f	-0.66611665
108	0xbea245aa	-0.31693774
109	0xbf5a049d	-0.8516329
110	0x3f197891	0.59949595
111	0x3e24e3a4	0.16102463
112	0xbe7edee2	-0.2488971
113	0xbf2c8ec7	-0.6740536
114	0x3d885bde	0.06658147
115	0x3f5c6f01	0.8610688
116	0x3d52e054	0.051483467
117	0xbfe8b563	-1.8180355
118	0xbec15b70	-0.37765074
119	0x3f738f6d	0.95140725
120	0x3f9ac345	1.2090842
121	0xc0187c8a	-2.3826013
122	0x3f1b833d	0.6074713
123	0xbec2b13e	-0.3802585
124	0x3f75828a	0.9590231
125	0xbf542049	-0.82861763
126	0x3d44ef9f	0.048080083
127	0xbec857e0	-0.39129543
128	0xbf2837e0	-0.6571026
129	0xbc8e56fd	-0.017375464
130	0xbe863a47	-0.26216337
131	0x3f9273dc	1.1441607
132	0x3fb2fc4d	1.3983246
133	0x3f64d358	0.89384985
134	0xbf28daf4	-0.65959096
135	0xbe0e9693	-0.13924627
136	0xbe9af36a	-0.30263835
137	0xbf1dd239	-0.616489
138	0xbf4f5515	-0.809892
139	0x3b93bbcb	0.0045084707
140	0x3e986ff5	0.29772916
141	0xbd6727df	-0.05643451
142	0x3fdff1cc	1.7495666
143	0xbf309dc3	-0.68990725
144	0xbe9a7160	-0.30164623
145	0x3e8e42b7	0.27785274
146	0x3ed0b80f	0.40765426
147	0x3c30e467	0.010796643
148	0xbe5142de	-0.20435664
149	0x3f2f7b05	0.6854709
150	0xbd07ee94	-0.03318651
151	0x3f8714fd	1.055328
152	0x3ecda8de	0.40167898
153	0xbf3b6d35	-0.7321351
154	0x3d69d5e0	0.057088733
155	0xbe8565df	-0.26054284
156	0xbf1d8411	-0.6152964
157	0xbfc08d52	-1.5043128
158	0x3ee57f18	0.44823527
159	0xbf2201e3	-0.6328413
160	0xbf48b5ff	-0.78402704
161	0xc0141d20	-2.3142776
162	0x3edc4d23	0.430276
163	0xbfeec9be	-1.8655317
164	0xc0227747	-2.53853
165	0xbf971c7f	-1.1805571
166	0xbf0e432a	-0.55571234
167	0xbe1908da	-0.14944783
168	0xbf42471c	-0.75889754
169	0xbf3b8c19	-0.7326065
170	0xbe8b289d	-0.27179423
171	0x3e0af25a	0.13569012
172	0x3f14f897	0.5819182
173	0xbdb80dfa	-0.08987041
174	0xbfd9dd1e	-1.7020605
175	0xbf48f24e	-0.7849473
176	0xbf40f165	-0.7536834
177	0x3e9a034b	0.30080637
178	0x3eeb32c2	0.45937163
179	0x3e3d20bf	0.18469523
180	0xbeb8b4c5	-0.36075416
181	0xbedc7e2a	-0.43065006
182	0xbdf9aae2	-0.121907964
183	0xbeb48416	-0.35257024
184	0x3e5079ea	0.20359007
185	0x3ef2749f	0.473546
186	0xbf8b3938	-1.0876837
187	0xbe63a809	-0.22232069
188	0x3f08bc60	0.5341244
189	0xbf561026	-0.8361839
190	0x3f11326a	0.5671755
191	0xbeea7191	-0.4578977
192	0xbeae388a	-0.3402751
193	0x3d94ad63	0.072596334
194	0x3e64b065	0.22332914
195	0xbe4f1237	-0.20221792
196	0xbe33db70	-0.17564178
197	0xbf602812	-0.8756114
198	0xbea8dab1	-0.32979348
199	0xbf04abb7	-0.51824516
200	0xbfa72e42	-1.3060992
201	0xbf0a6d4d	-0.5407303
202	0xbd4acbe2	-0.049510844
203	0xbf876fe4	-1.0581021
204	0xc01b1031	-2.4228632
205	0xbf5b0357	-0.8555197
206	0xbf826004	-1.0185552
207	0xbf494ab0	-0.7862959
208	0xbdc08772	-0.09400834
209	0xbf9fbdaa	-1.2479756
210	0xbf1f71d0	-0.6228304
211	0xbf47ac66	-0.77997434
212	0xbf012d17	-0.50459427
213	0xbf81db42	-1.0145037
214	0x3ea21a2c	0.31660593
215	0x3da6512f	0.08120953
216	0xbfc9015a	-1.5703537
217	0xbf974821	-1.1818887
218	0xbd5365e5	-0.051610846
219	0xbef72398	-0.48269343
220	0xc007a0fb	-2.1192005
221	0x3f156227	0.58352894
222	0xbefce2d7	-0.49391815
223	0xbf198413	-0.59967154
224	0x3f20fd27	0.6288628
225	0x3fc69ac0	1.5515976
226	0xbea73bc7	-0.32662794
227	0xbedcb032	-0.43103176
228	0xbe70b51c	-0.23506588
229	0xbebf61f1	-0.3737941
230	0x3f9975d1	1.198908
231	0x3dfc9061	0.123322256
232	0x3f66f551	0.90218073
233	0x3eff8c70	0.49911833
234	0xc00db364	-2.2140741
235	0x3ed05dbb	0.4069651
236	0xc00060fa	-2.005919
237	0xbeafbaeb	-0.34322295
238	0xbea242fb	-0.31691727
239	0x3e8eece3	0.27915105
240	0xbe1bbd4c	-0.1520893
241	0xbec98429	-0.39358643
242	0xbf3ebcf4	-0.7450707
243	0x3f78dc64	0.9721129
244	0xbe8ae107	-0.27124807
245	0xbf06e2ac	-0.52689624
246	0xbe85b984	-0.261181
247	0xbe9e4f5f	-0.3091993
248	0x3edf7990	0.43647432
249	0xbfeb0611	-1.8361226
250	0x3f2899cb	0.6585967
251	0x3dd33740	0.103132725
252	0xbf0f0274	-0.5586312
253	0xbc3c54e9	-0.0114948535
254	0x3f6078cc	0.8768432
255	0x3f249dfc	0.64303565

weight f4 [8, 80]
0	0xbf2be5a4	-0.6714728
1	0xbf2d0432	-0.67584527
2	0xbf468517	-0.7754683
3	0xbea04c5e	-0.31308264
4	0xbeb32402	-0.3498841
5	0xbf69c8de	-0.91322124
6	0xbec2cb1e	-0.3804559
7	0xbf299cbe	-0.66254795
8	0xbf49785d	-0.78699285
9	0xbf52f2a6	-0.824015
10	0xbd6ab4cd	-0.05730133
11	0x3e7f6e33	0.24944381
12	0xbec69e48	-0.38792634
13	0xbf94bece	-1.1620729
14	0xbded3140	-0.11581659
15	0xbd6ceb05	-0.05784132
16	0xbed7219d	-0.42017832
17	0x3f5251e5	0.8215621
18	0xbe42090b	-0.18948762
19	0x3dbc81be	0.09204434
20	0x3f995608	1.197938
21	0x3f2b2e79	0.66867787
22	0x3f64b042	0.8933145
23	0xbeade012	-0.33960015
24	0x3e82a2d0	0.2551484
25	0x3ed053f0	0.4068904
26	0xbf086e7b	-0.5329358
27	0x3f9eb5f2	1.2399275
28	0xbe044f18	-0.12920797
29	0x3ed56e13	0.41685542
30	0x3df9a6af	0.121899955
31	0x3fe0ddfe	1.7567747
32	0x3f1ee776	0.6207193
33	0xbf63779c	-0.88854384
34	0xbfcfcc68	-1.6234255
35	0x3fde3bf5	1.7362047
36	0x3f29b377	0.66289467
37	0xbf13c579	-0.57723194
38	0xbe9b6fe4	-0.30358803
39	0xbe862b9e	-0.26205152
40	0x3f484b04	0.78239465
41	0xbf8a122a	-1.0786793
42	0xbcd30883	-0.025760895
43	0xbf705199	-0.9387451
44	0xbf0356d6	-0.51304376
45	0xbe9ef005	-0.31042495
46	0x3fea9fb1	1.8329984
47	0xbf132870	-0.5748358
48	0x3f54f29a	0.8318268
49	0xbde98df4	-0.114040285
50	0x3f6f432d	0.9346188
51	0xbf34cbe5	-0.7062362
52	0xbd30e27e	-0.04318475
53	0x3d132ef0	0.035933435
54	0x3f087326	0.533007
55	0xbe6166cb	-0.22011869
56	0xbeb3cf35	-0.35119024
57	0x3f0a2b9a	0.5397278
58	0xbf7af63f	-0.9803199
59	0x3f8725de	1.0558431
60	0x3f3c5418	0.73565817
61	0x3eab0137	0.33399364
62	0x3edaea7b	0.4275702
63	0x3ec3e364	0.38259423
64	0x3fab993d	1.340614
65	0x3e8468f0	0.2586131
66	0xbf5ce5e8	-0.8628831
67	0x3be60dae	0.0070206737
68	0x3f2c4d54	0.67305493
69	0x3f204803	0.6260988
70	0x3f6c170e	0.9222268
71	0xbf13769e	-0.5760287
72	0x3f1893cb	0.59600514
73	0xbe5924d8	-0.21205461
74	0x3f5c6468	0.8609071
75	0xbd2b97fc	-0.04189299
76	0xbfa7fcb9	-1.3124
77	0xbf736dd2	-0.9508945
78	0x3ed6b7a3	0.4193698
79	0xbf0062da	-0.50150836
80	0x3fbbbb19	1.4666473
81	0xbfe70c6a	-1.8050663
82	0x3f3afa94	0.730386
83	0x3f800bfe	1.000366
84	0xbfce4b6d	-1.6116768
85	0x3e7257f6	0.23666367
86	0xbf0a50de	-0.54029644
87	0x3d9b3f9b	0.07580491
88	0xbf7fea6b	-0.9996707
89	0x3de88ba6	0.11354761
90	0x3f42e5b9	0.7613178
91	0xbe8947a1	-0.2681246
92	0xbf18b77a	-0.59654963
93	0x3f8b433b	1.0879892
94	0xbe2951ad	-0.16535063
95	0xbf21eb9c	-0.63250136
96	0xbfa76bd2	-1.3079779
97	0xbe50be0d	-0.20384999
98	0xbd234250	-0.039858162
99	0xbecdd8df	-0.40204522
100	0xbe421ffd	-0.18957515
101	0x3f617bfd	0.88079816
102	0xbe4cf289	-0.20014395
103	0xbf17cee2	-0.59300053
104	0xbfa71b09	-1.3055125
105	0xbf866efd	-1.0502621
106	0x3f6a5072	0.91529
107	0xbfc1bc27	-1.5135545
108	0x3f2a03ea	0.6641222
109	0xbece56ca	-0.4030059
110	0xbfc69f9c	-1.5517459
111	0x3dfa9f9d	0.12237475
112	0xbefb5c5f	-0.4909391
113	0xbf137d8c	-0.57613444
114	0x3f9da684	1.2316442
115	0x3f642574	0.8911965
116	0xbeb0d554	-0.34537756
117	0xbeb4953b	-0.35270104
118	0xbea286b3	-0.31743392
119	0xbe311602	-0.17293552
120	0xbfc91dad	-1.5712181
121	0x3fb2f492	1.3980887
122	0xbf81dafb	-1.0144953
123	0x3f688a0c	0.9083564
124	0xbefbb3bc	-0.49160564
125	0xbf94c624	-1.1622968
126	0xbe90877b	-0.28228363
127	0xbe4a07c8	-0.19729531
128	0x3c63b9a7	0.013899243
129	0x3f4f66e1	0.81016356
130	0xbfcf50ef	-1.6196574
131	0x3f53ff4c	0.8281143
132	0x3f709628	0.9397912
133	0x3c599873	0.013280976
134	0x3e5cca1d	0.21561475
135	0xbebc942f	-0.36831805
136	0x3f89a595	1.0753657
137	0x3e84f9aa	0.2597173
138	0x3eb4ca54	0.35310614
139	0x3f815e8c	1.0106978
140	0xbee84415	-0.45364442
141	0x3f101ab0	0.5629072
142	0x3f964fdf	1.1743125
143	0xbf0e3bd1	-0.5556002
144	0xbf71baf2	-0.9442588
145	0xbddf363f	-0.108990185
146	0xbf470502	-0.77742016
147	0xbf7051cd	-0.9387482
148	0xbefcaf31	-0.4935241
149	0xbf6f9593	-0.9358761
150	0xbfa4dbd1	-1.2879583
151	0x3e158bac	0.14604062
152	0x3f701454	0.9378102
153	0xbf6cd3c0	-0.92510605
154	0xbec04fe0	-0.3756094
155	0xbe8a3d17	-0.26999733
156	0x3f8ba4cb	1.0909666
157	0x3f2640cf	0.6494264
158	0xbe90d2b0	-0.28285742
159	0x3e964dae	0.2935614
160	0xbd170ae9	-0.03687564
161	0x3ecc4f0a	0.39904052
162	0x3f0c2e0d	0.5475777
163	0xbfe3154e	-1.7740877
164	0x3ed4cbfe	0.41561884
165	0x3f126134	0.5717957
166	0xbf8e30f2	-1.1108687
167	0xbec63c93	-0.3871809
168	0x3f30b21a	0.6902176
169	0xbef742d2	-0.48293167
170	0xbf891c05	-1.0711676
171	0x3f02c64f	0.51083845
172	0xbf4c46d0	-0.7979555
173	0xbf383eb8	-0.719707
174	0x3ed0bd5b	0.40769467
175	0x3f96c5db	1.1779131
176	0x3fb4dfb0	1.4130764
177	0xbf48c7d1	-0.78429896
178	0x3f9ff707	1.2497262
179	0xbe85b9a9	-0.2611821
180	0xbe9122e8	-0.28346944
181	0xbf931dd8	-1.1493483
182	0x3d9d54a4	0.076821595
183	0x3dc60203	0.096683525
184	0x3c34f85d	0.011045543
185	0x3efab25c	0.48964202
186	0xbf02ed3c	-0.5114324
187	0x3f641135	0.89088756
188	0xbc8e96b7	-0.01740585
189	0x3e84ab04	0.25911725
190	0x3f4ab634	0.7918427
191	0xbf0e582f	-0.5560331
192	0x3f17b3e6	0.5925888
193	0x3f12bc15	0.5731824
194	0xbee9da51	-0.45674375
195	0xbfb50a02	-1.4143679
196	0xbec5ed96	-0.38657826
197	0x3f461e98	0.7739043
198	0x3f8e1c8b	1.1102461
199	0x3d3acb1c	0.045603856
200	0x3f817291	1.0113088
201	0xbe9dcef9	-0.3082197
202	0x3f6e670f	0.93126005
203	0x3ef35e57	0.47532913
204	0xbe7344fb	-0.23756783
205	0xbb3d66d2	-0.0028900397
206	0xbf912318	-1.1338835
207	0x3eb2d3f1	0.34927323
208	0xbf7f7322	-0.99785054
209	0x3f2aa7c0	0.66662216
210	0xbdcc1e6d	-0.09966741
211	0xbeb2b095	-0.34900346
212	0x3dc83461	0.097756155
213	0x3e83c8fc	0.25739276
214	0xbe88ce12	-0.2671972
215	0xbf117acf	-0.56828016
216	0xbf50b23e	-0.81521976
217	0xbf79810a	-0.97462523
218	0x3ef9e1bf	0.48805043
219	0xbe8f5f48	-0.2800238
220	0xbda3e8e6	-0.08003406
221	0xbf58b0a5	-0.8464454
222	0xbf7dc876	-0.99134004
223	0x3fbf8275	1.4961687
224	0xbeb9ad5d	-0.36265078
225	0xbf78e14f	-0.97218794
226	0x3eac6d2d	0.33677045
227	0x3fbb9ab0	1.4656582
228	0x3ea0d5aa	0.31413013
229	0xbf3cda68	-0.7377076
230	0xbf49b9a3	-0.78798884
231	0x3efa7175	0.48914686
232	0xbecd15ff	-0.40055844
233	0x3df1b984	0.118029624
234	0xbf3c2975	-0.7350076
235	0x3d57e754	0.052710846
236	0xbf4cf89b	-0.8006684
237	0xbf30499c	-0.6886232
238	0x3f432639	0.762302
239	0xbe4812ca	-0.19538417
240	0xbf11d64e	-0.5696763
241	0xbe3289ca	-0.17435375
242	0x3f108fae	0.5646924
243	0xbcafbe0d	-0.021452928
244	0xbe2dba3e	-0.16965577
245	0xbeda7437	-0.4266679
246	0xbde1d555	-0.11027018
247	0xbb09f974	-0.0021053227
248	0x3ea7c81e	0.32769865
249	0xbf4e9e23	-0.8071005
250	0x3d3dc225	0.04632773
251	0xbe138810	-0.14407372
252	0xbf17767a	-0.59165156
253	0xbd49a291	-0.0492273
254	0x3c1bde5c	0.009513464
255	0x3c1598e9	0.009130695

bias f4 [8]
0	0xbf7f87fa	-0.9981686
1	0x3e821527	0.25406763
2	0xbf412deb	-0.7546069
3	0xbf36c4a3	-0.71393794
4	0xbf0636ce	-0.52427375
5	0xbf26385a	-0.64929736
6	0xbf65dcfe	-0.8979033
7	0xbf152653	-0.58261603

weight f4 [1, 8]
0	0x3f7bf124	0.98414826
1	0xbf1a9129	-0.60377747
2	0x3ec8c88b	0.39215502
3	0xbd80407b	-0.06262299
4	0xbe8d57da	-0.27606088
5	0x3dafa76f	0.08576857
6	0x3e2257c1	0.15853788
7	0x3d44bb00	0.0480299

weight f4 [4, 32, 32]
0	0xae49f0d9	-4.5916024e-11
1	0xb3a04336	-7.462806e-08
2	0x31eca6d9	6.8874724e-09
3	0x26c5e4fe	1.3731689e-15
4	0x35018667	4.8251826e-07
5	0xb6a678e4	-4.961259e-06
6	0x33a2334c	7.553044e-08
7	0xba2fc62c	-0.000670525
8	0xa6fb626a	-1.7443299e-15
9	0xb2564aff	-1.2473492e-08
10	0xb612a3af	-2.1850972e-06
11	0xb2b0c9eb	-2.0580918e-08
12	0xb37b9671	-5.8577317e-08
13	0xb1e3f0c7	-6.6339427e-09
14	0x36ea23c5	6.9779076e-06
15	0xb730cadc	-1.0537649e-05
16	0x332d5708	4.0358856e-08
17	0xb2f4c0e8	-2.8493062e-08
18	0x2933c627	3.9917854e-14
19	0x38b4d483	8.622652e-05
20	0x39242e6e	0.00015657555
21	0x3496c066	2.8079666e-07
22	0xb94fbf22	-0.00019812261
23	0xbaa56295	-0.0012617881
24	0x2fa309ef	2.9656586e-10
25	0x3b0e363c	0.0021699807
26	0x34815962	2.4093157e-07
27	0xb3747427	-5.6916317e-08
28	0x36da8046	6.5118393e-06
29	0x2c013c6e	1.8365548e-12
30	0xb9000fa0	-0.00012212852
31	0x28ffdef6	2.8407381e-14
32	0x3cfcfaa9	0.030881243
33	0x3b563e80	0.0032691061
34	0x3e098cec	0.13432664
35	0xbb026b79	-0.0019900484
36	0xbe819f1e	-0.2531671
37	0xbe637e6c	-0.22216195
38	0xbd03b8e9	-0.032158766
39	0xbf30fe83	-0.69138354
40	0xbc27a57b	-0.010232325
41	0xbcb0010f	-0.02148488
42	0x3c693295	0.014233251
43	0xbe402bcc	-0.18766707
44	0x3eadb7c4	0.33929265
45	0xbe92af6d	-0.28649464
46	0xbe49886b	-0.19680946
47	0xbe98591f	-0.29755494
48	0xbd6348af	-0.05548924
49	0xbeb31048	-0.3497336
50	0x3e9d7bea	0.307586
51	0x3e014c76	0.12626824
52	0x3e409371	0.18806244
53	0xbd8b692f	-0.068071716
54	0xbcdabe8b	-0.026702186
55	0x3e776b1d	0.24161954
56	0xbecc42bf	-0.39894673
57	0xbe273989	-0.16330542
58	0x3e3961b1	0.18103673
59	0xbe0955e5	-0.13411672
60	0x3e7a0222	0.24414876
61	0xbe83388d	-0.25629082
62	0xbe8cb338	-0.27480483
63	0x3dba0444	0.09082845
64	0xb1aa5c73	-4.9581614e-09
65	0x3d3f2fc7	0.046676423
66	0x3be6ddd5	0.0070454874
67	0x39745a7c	0.00023303361
68	0xbd4e4d1c	-0.050366506
69	0xbef03f41	-0.4692326
70	0xbcf50d8c	-0.029913686
71	0x3f1face4	0.62373185
72	0x3d1090fb	0.035294514
73	0x3a09818b	0.00052454387
74	0x3c32edbf	0.010920941
75	0xbd1d0a60	-0.038339972
76	0x3cc5f08e	0.024162557
77	0x3d65e4a8	0.056126267
78	0x393c9307	0.00017983849
79	0x3e77ecd5	0.24211438
80	0xbe2b0d9d	-0.16704412
81	0xbb805d53	-0.003917375
82	0x35c784a4	1.4865259e-06
83	0x3af0de5d	0.0018376816
84	0xbe790df3	-0.24321727
85	0xbe091f98	-0.13390958
86	0x3e750980	0.23929405
87	0xbd1805c4	-0.037114874
88	0x3de23161	0.110445745
89	0xbdc213af	-0.094764106
90	0xbdee881f	-0.11647057
91	0x3d5d8fb5	0.054092128
92	0x3e6944c6	0.22780141
93	0x3dba5b59	0.090994544
94	0xbe14ce7c	-0.14531893
95	0x3cfbe658	0.030749485
96	0x3660676a	3.3438796e-06
97	0x3a9226b2	0.0011150448
98	0x386dfc1b	5.6739995e-05
99	0xbd1b211f	-0.037873384
100	0x36d64043	6.385178e-06
101	0xbdfa3e1e	-0.12218879
102	0xbd144123	-0.03619493
103	0xbd170d86	-0.03687813
104	0x3b483d64	0.003055417
105	0x37fd8679	3.0222569e-05
106	0x3781ba28	1.5464684e-05
107	0x3ccefe4d	0.025267744
108	0x3aefdcdc	0.0018300074
109	0xb93683c9	-0.00017405966
110	0xbc80839e	-0.01568776
111	0xbbedc5a8	-0.0072562285
112	0x3aac0f57	0.001312713
113	0x38f96a47	0.00011893041
114	0x348830ba	2.5367427e-07
115	0xbc5c1598	-0.013432883
116	0x3c2f96c2	0.010717096
117	0x3c60781c	0.013700511
118	0xbcf17572	-0.029474948
119	0xbc8e8af2	-0.017400239
120	0xbddbbd52	-0.10729469
121	0xbd7543e1	-0.059879187
122	0x38a247b6	7.738119e-05
123	0x3b8043cf	0.0039143334
124	0xbc4d54c8	-0.01253242
125	0x381fbaaa	3.80824e-05
126	0xbb9faf2f	-0.0048731784
127	0x3425b949	1.5434229e-07
128	0x3779258c	1.4850299e-05
129	0x3b3a972a	0.0028471448
130	0x393a29c9	0.00017753908
131	0xbd38c2c6	-0.045107625
132	0xb5a4f706	-1.2290845e-06
133	0xbddca91c	-0.107744426
134	0x3d914def	0.07094943
135	0xbd12b23f	-0.03581452
136	0x3ba5b841	0.005057365
137	0x38af9743	8.372825e-05
138	0x3964da59	0.00021825115
139	0x3c0f6309	0.008751639
140	0x3c5d534f	0.013508632
141	0xba2e7d05	-0.00066562026
142	0xbd329e09	-0.043607745
143	0x3c8967b6	0.016773086
144	0x3bce91e3	0.006304012
145	0x3a69753d	0.00089057145
146	0xb2cc96b5	-2.381726e-08
147	0xbd1ad748	-0.037802964
148	0x3d015da6	0.03158345
149	0x3b0115e2	0.001969688
150	0xbbc88569	-0.0061194194
151	0xbd466011	-0.04843146
152	0x3b5159cc	0.0031944392
153	0xbd8b04cc	-0.06788024
154	0x3b3c70a8	0.0028753672
155	0x3b8abe37	0.004234101
156	0xbb93d735	-0.0045117387
157	0x39387778	0.00017592113
158	0xbc2302b7	-0.009949378
159	0x34306e63	1.6431436e-07
160	0x35af6b49	1.306974e-06
161	0x3d91e63a	0.0712399
162	0x390b64c3	0.0001329361
163	0xbd28bb5a	-0.041194297
164	0x30f16e9c	1.7566495e-09
165	0xbe1ff7a8	-0.15621817
166	0xbd7a1c93	-0.061062407
167	0xbd45d541	-0.048299078
168	0x3b04b14a	0.0020247274
169	0x37a65716	1.9829295e-05
170	0xb958786e	-0.00020644229
171	0x3c642a10	0.013926044
172	0x3b199c93	0.0023439273
173	0xba03f42c	-0.0005033638
174	0xbc50ea2b	-0.0127511425
175	0xb974d780	-0.00023349933
176	0x3da7d3c4	0.08194688
177	0x38db073e	0.00010444083
178	0xac3f6175	-2.7196832e-12
179	0xbc2d1809	-0.010564812
180	0x3c9c174d	0.01905408
181	0x3be55bcc	0.0069994684
182	0xbd1fbd34	-0.038998798
183	0xbaf269c5	-0.0018494657
184	0xbd8ce51d	-0.068796374
185	0xbda909ce	-0.08253823
186	0xbbbdd2ee	-0.005792967
187	0x3a0b4c96	0.00053138414
188	0xbbc33bae	-0.005958042
189	0x380a7ed9	3.30199e-05
190	0xbce9a65c	-0.02852171
191	0x30ebab81	1.7147245e-09
192	0x3822596a	3.8707083e-05
193	0x3bc52352	0.0060161734
194	0x3ea6916e	0.3253283
195	0xb952f9e2	-0.00020120249
196	0xbcb9ea26	-0.022694658
197	0x3c34ca30	0.011034533
198	0x3df4a346	0.119452044
199	0xbe25717a	-0.16156569
200	0xb994fc1f	-0.00028416605
201	0x3e3d1b14	0.1846736
202	0x3ac00fed	0.0014653184
203	0xbcadacb0	-0.021200508
204	0x3e07b62e	0.1325309
205	0xbe8cf484	-0.275303
206	0x3dc8440c	0.09778604
207	0xbdc980ec	-0.09839043
208	0x3dd2acd1	0.10286868
209	0xbe3e8f26	-0.18609294
210	0x3e29e4fc	0.16591257
211	0x3d614af6	0.05500313
212	0x3d46bdea	0.04852096
213	0x37a2f241	1.9424713e-05
214	0xb9441da1	-0.00018703054
215	0x3bf68629	0.0075233174
216	0xbd1cf45e	-0.038318984
217	0x3d93f096	0.072236225
218	0xbbd3988b	-0.0064573935
219	0xb91af8ee	-0.00014779318
220	0xbcea920b	-0.028634092
221	0xbd9577af	-0.072982185
222	0xbf116584	-0.56795526
223	0x3d94e5dc	0.07270405
224	0x28b784c8	2.0374666e-14
225	0x328a04ea	1.6067549e-08
226	0x2f09a70c	1.2519424e-10
227	0xa85112e8	-1.160593e-14
228	0x17fcd283	1.6338259e-24
229	0x36a07289	4.7817052e-06
230	0x32629a2f	1.3189989e-08
231	0xb980c41a	-0.0002456017
232	0x0000802d	4.5981e-41
233	0xa3cbd485	-2.209931e-17
234	0x2397185b	1.6381768e-17
235	0xb030488a	-6.413151e-10
236	0xaf6d7184	-2.1595353e-10
237	0xa9a739ef	-7.42634e-14
238	0xb038e276	-6.726063e-10
239	0x282b48c5	9.508186e-15
240	0x2eea938f	1.06673e-10
241	0x10dc2880	8.68371e-29
242	0x0000b13a	6.3577e-41
243	0x3590773d	1.0763539e-06
244	0xb7193d5d	-9.133798e-06
245	0x31995386	4.4623816e-09
246	0xb412946e	-1.3651308e-07
247	0x29c80bbe	8.883821e-14
248	0xb6a5eedd	-4.9451905e-06
249	0xb6cb0778	-6.050741e-06
250	0xab882e95	-9.67631e-13
251	0xaea65d9d	-7.565435e-11
252	0xb2526ced	-1.2248376e-08
253	0x2e60a913	5.108187e-11
254	0xb6972983	-4.5049833e-06
255	0xb49b8e50	-2.8974546e-07

w_comp f4 [14, 4]
0	0x3eee47f9	0.46539286
1	0x3ef28a99	0.47371367
2	0x3f195baf	0.59905523
3	0xbe45b871	-0.1930864
4	0xbc3bfda6	-0.011474049
5	0xbd3eb80f	-0.04656225
6	0x3eb2ba97	0.34907982
7	0xbe56e6e1	-0.20986511
8	0xbe4450bc	-0.19171423
9	0x3e11700c	0.14202899
10	0x3e9ce4a3	0.30643186
11	0x3e69131b	0.22761194
12	0xbc57e1a7	-0.013176358
13	0xbd9d19c8	-0.07670933
14	0x3e503e89	0.20336355
15	0x3d983e16	0.07433717
16	0x3c08d59d	0.008351711
17	0xbe2a006b	-0.16601722
18	0x3d8508dd	0.06495831
19	0x3e2fcbd6	0.17167601
20	0x3e040fbc	0.12896627
21	0x3f1ab876	0.60437715
22	0xbdffdff7	-0.1249389
23	0x3d92f8b0	0.071763396
24	0x3fc0a110	1.5049152
25	0x3f3900d0	0.72266865
26	0x3f8faa4e	1.1223848
27	0xbfd6e603	-1.6788944
28	0x3e9350e7	0.2877266
29	0x3f84457d	1.0333706
30	0x3ec01fc7	0.37524244
31	0x3fc07e62	1.5038569
32	0xbf5d52c9	-0.86454445
33	0x3d20a78c	0.039222285
34	0x3f9c8fec	1.2231421
35	0xbf4debda	-0.80438006
36	0xbd99c599	-0.07508392
37	0xbe23412c	-0.1594283
38	0x3ea68b4b	0.32528147
39	0xbf9d597a	-1.2292931
40	0x3a4a2ee1	0.0007712674
41	0x36205013	2.3888467e-06
42	0x3788b1fe	1.6295347e-05
43	0xb9a6cf09	-0.0003181624
44	0xbd644c8a	-0.055737056
45	0xbf81e82a	-1.0148976
46	0x3f4458bd	0.76697904
47	0x3dc4789a	0.095933154
48	0x3eb8b801	0.36077884
49	0xbf2c1d76	-0.67232454
50	0x3e9da7c8	0.3079207
51	0xbf831ac8	-1.0242548
52	0x3f39c0f4	0.7256005
53	0x3e5bce56	0.2146543
54	0x3ef259e4	0.47334206
55	0x3df6aa6a	0.12044223

self_loop_weight f4 [32, 32]
0	0xb78a09d6	-1.6455462e-05
1	0x3f1140af	0.56739324
2	0xbdebc6e3	-0.11512544
3	0xbe81fc5f	-0.25387856
4	0xbcb1d98e	-0.021710183
5	0xbe879f37	-0.2648866
6	0x3e024b3a	0.12724009
7	0x3da0dcb0	0.07854593
8	0xa8c9386e	-2.2339955e-14
9	0xbd85f576	-0.065409586
10	0xbe8d829d	-0.27638713
11	0xbea359aa	-0.31904346
12	0x3e2065c8	0.15663826
13	0xbcbc4634	-0.022982694
14	0xbf32c7ef	-0.69836324
15	0xbd59c6cb	-0.0531681
16	0xbf1b3599	-0.6062866
17	0xbeb55213	-0.3541418
18	0x3d97ebd2	0.07418026
19	0x3f17b7e7	0.5926499
20	0xbec508e1	-0.38483337
21	0xbf26bc1e	-0.65130794
22	0xbe8f4dea	-0.2798913
23	0xbeb01b3a	-0.34395772
24	0x3d90f774	0.07078448
25	0x3d9a3f46	0.075316
26	0xbad042ce	-0.001588905
27	0xbe3f8e63	-0.1870666
28	0xbd9c8e05	-0.076442756
29	0xbe122b35	-0.14274295
30	0xbe03bee4	-0.12865788
31	0xbcc4c959	-0.024021791
32	0xbb1fadaf	-0.0024364998
33	0xbe619ec2	-0.22033218
34	0xbe221a07	-0.15830241
35	0xbf096953	-0.53676337
36	0xbdb31752	-0.08744682
37	0xbf2f5b99	-0.6849914
38	0xbf1bada2	-0.6081182
39	0xbf320646	-0.6954082
40	0xbd152a79	-0.03641746
41	0xbea8b0f2	-0.329475
42	0xbe9b27c9	-0.3030379
43	0xbf9404fc	-1.1564021
44	0xbe4b94ca	-0.19880977
45	0xbe621afe	-0.22080609
46	0x3f4a9c8b	0.79145116
47	0xbee4239e	-0.44558424
48	0xbecd9ee5	-0.4016029
49	0xbd77e429	-0.060520325
50	0xbe2c54ad	-0.16829176
51	0x3fb9af8d	1.4506699
52	0xbd56329a	-0.05229435
53	0xbf707c32	-0.93939507
54	0x3ebe5dff	0.37181088
55	0xbef2cc0e	-0.47421306
56	0xbf0ffdcb	-0.5624663
57	0xbf0053d6	-0.50127923
58	0xbef3cd55	-0.47617593
59	0xbf6073ad	-0.8767651
60	0x3fa391cd	1.277887
61	0xbf00bc7b	-0.502876
62	0x3f0f89d7	0.560697
63	0xbdd814d4	-0.10550848
64	0xbc079ddc	-0.008277383
65	0xbed86303	-0.4226304
66	0xbe9788ee	-0.29596657
67	0xbf53e842	-0.8277627
68	0xbd69ea1a	-0.057108022
69	0x3e986568	0.29764867
70	0xbf08697b	-0.5328595
71	0xbeb7d81f	-0.35907075
72	0xbd354a15	-0.044260103
73	0xbda51c2f	-0.08062016
74	0xbe97b1e2	-0.296279
75	0xbf8e6736	-1.1125247
76	0x3e546e14	0.20745116
77	0xbd2cb450	-0.042164147
78	0x3ec1e429	0.37869385
79	0xbe4dea0d	-0.20108815
80	0xbf294c8c	-0.66132426
81	0xbec00c7b	-0.37509522
82	0xbcced1ae	-0.025246467
83	0xbed39b83	-0.41329584
84	0xbf52fff7	-0.8242182
85	0xbf5c60ce	-0.8608521
86	0xbf0589b8	-0.5216327
87	0x3d8acef7	0.06777757
88	0xbea6e449	-0.32596043
89	0xbf2db1c4	-0.67849374
90	0xbdd9b458	-0.10630101
91	0xbdee6b99	-0.116416164
92	0xbf328271	-0.6973029
93	0xbe5c63d5	-0.21522458
94	0xbf4653fc	-0.774719
95	0x3d099adb	0.033594947
96	0xbb91c64e	-0.0044486886
97	0xbe7797c7	-0.24178992
98	0xbdc04e4f	-0.09389936
99	0x3e507264	0.20356137
100	0x3c3c46e2	0.011491509
101	0x3f08bc93	0.5341274
102	0xbc4e684e	-0.01259811
103	0x3f899284	1.0747838
104	0xb5a560e2	-1.2321655e-06
105	0x380ba25a	3.3291384e-05
106	0xbf2043e0	-0.6260357
107	0xbee4b3e0	-0.44668484
108	0xbe0ec76c	-0.13943261
109	0xbe92ec5c	-0.28695953
110	0x3d96cfaf	0.07363831
111	0xbc025bdc	-0.007956471
112	0xbe694b20	-0.22782564
113	0xbe9a5b3b	-0.30147728
114	0xbd5f5463	-0.054523837
115	0xbf250eab	-0.64475507
116	0xbef62a09	-0.48078945
117	0x3dc36b00	0.09541893
118	0x3e84a599	0.2590759
119	0xbeb614aa	-0.3556264
120	0xbecbe872	-0.3982578
121	0xbf9a98e3	-1.2077907
122	0xbecc2d41	-0.39878276
123	0xbe794d88	-0.24345982
124	0x3de75c55	0.11296908
125	0xbd62c398	-0.055362314
126	0x3f079f00	0.5297699
127	0xbe789e95	-0.24279244
128	0xbc933594	-0.017969884
129	0x3e01512f	0.12628625
130	0xbf1e104a	-0.61743605
131	0xbdf342b3	-0.11877956
132	0xbd9f4336	-0.07776491
133	0xbf863f24	-1.0488019
134	0xbe1fa500	-0.15590286
135	0x3fa660fb	1.2998346
136	0xbe1f3d79	-0.15550794
137	0xbdf568c0	-0.1198287
138	0xbe2dea2e	-0.16983864
139	0xbebdad51	-0.37046292
140	0xbe13ea34	-0.1444481
141	0xbe78c7dd	-0.24294992
142	0x3ea053e6	0.3131401
143	0xbe234598	-0.15944517
144	0xbef5c23c	-0.47999752
145	0xbee14b03	-0.44002542
146	0xbe0c5a24	-0.13706261
147	0xbe6302c3	-0.22169022
148	0xbe24d3d5	-0.16096433
149	0xbf56d999	-0.8392578
150	0xbd77c2be	-0.060488455
151	0xbf266110	-0.64991856
152	0xbf12b047	-0.5730023
153	0xbfb3803b	-1.4023508
154	0xbf052b8a	-0.5201956
155	0x3ddabb23	0.10680225
156	0xbf44417a	-0.7666241
157	0xbd8fb102	-0.070161834
158	0x3f3b3b9f	0.7313785
159	0xbe007ee6	-0.12548408
160	0xbb814650	-0.0039451495
161	0x3dda0cc9	0.1064697
162	0x3d03f459	0.03221545
163	0x3eabf6e8	0.33586812
164	0xb18f4c12	-4.170496e-09
165	0x3e25b469	0.16182102
166	0xba4fd85e	-0.00079286646
167	0x3f8e05b3	1.1095489
168	0xb28deabd	-1.6521307e-08
169	0x39b41c8e	0.0003435355
170	0xbed8027a	-0.4218939
171	0xbe35eeb8	-0.17766845
172	0xbde90045	-0.113770045
173	0xbda49a2c	-0.080372185
174	0xbf01ad6b	-0.5065524
175	0xbc96dc14	-0.018415488
176	0xbe07a246	-0.13245496
177	0xbeb383c0	-0.35061455
178	0xbbfff6fa	-0.0078114243
179	0xbfa683b1	-1.3008939
180	0xbef8564d	-0.48503342
181	0xbc9b13b2	-0.01893029
182	0xbe29cecd	-0.16582794
183	0xbce05ecf	-0.027388958
184	0xbe75c7cc	-0.24001998
185	0xbc88f430	-0.016718
186	0xbe93ee1f	-0.2889261
187	0xbe583a80	-0.21116066
188	0xbf0499a1	-0.5179692
189	0x3b85a378	0.004078325
190	0x3f39b1e1	0.72537047
191	0xbe1b0ce5	-0.15141638
192	0xb37e0b94	-5.9149514e-08
193	0xbf689a7a	-0.9086071
194	0x3ed5d966	0.41767424
195	0xbe56b728	-0.20968306
196	0xbe6ea709	-0.23305906
197	0xbd6e23bd	-0.05813955
198	0xbe4ad5ea	-0.19808164
199	0x3e98ec5e	0.29867834
200	0x37a50517	1.9671903e-05
201	0xbd97c3e2	-0.074104086
202	0xbf0d1385	-0.5510791
203	0xbe5cf1a6	-0.21576557
204	0xbc0f6036	-0.008750966
205	0x3e247196	0.16058955
206	0xbf7c4d7c	-0.9855573
207	0xbe5097e0	-0.20370436
208	0xbd5d2700	-0.05399227
209	0xbe8de14d	-0.27710953
210	0xbd04efb1	-0.03245515
211	0xbfa71b01	-1.3055116
212	0xbed16d61	-0.40903762
213	0x3e3c27ef	0.18374608
214	0xbdeaa2ce	-0.11456834
215	0xbdd52602	-0.1040764
216	0xbd7a2d83	-0.06107856
217	0xbefc720d	-0.49305764
218	0xbeb94788	-0.36187387
219	0x3efcd656	0.49382275
220	0xbf10f75b	-0.56627434
221	0xbe28b66b	-0.16475837
222	0x3daa961e	0.08329414
223	0xbe406c8a	-0.18791404
224	0xa35af6b9	-1.1870049e-17
225	0xbd329d8f	-0.04360729
226	0xbca9ecfb	-0.020742884
227	0x3cac45fa	0.021029461
228	0xbc2ee930	-0.010675713
229	0xbd0388d8	-0.032112926
230	0x2f581fe8	1.9656421e-10
231	0xbd869094	-0.06570545
232	0xb1919392	-4.236832e-09
233	0xa72fa818	-2.4377252e-15
234	0xb0cab99e	-1.475019e-09
235	0xbcb812be	-0.022469874
236	0x218f3ac9	9.705617e-19
237	0xb769a42c	-1.39261065e-05
238	0x3dd3ba2a	0.10338242
239	0xb311d325	-3.3952478e-08
240	0x355e9e16	8.293149e-07
241	0xae7d6ac2	-5.762036e-11
242	0xa1592f4b	-7.358505e-19
243	0x3b6b32bf	0.0035888401
244	0xbac4ca35	-0.0015013876
245	0xb13d7aaf	-2.7572857e-09
246	0xbe12a5ac	-0.14321011
247	0x3b765256	0.0037585697
248	0x3de3cd0d	0.11123095
249	0x37cfe9c3	2.4785177e-05
250	0x2c370ff3	2.6014718e-12
251	0xbd2c4300	-0.042056084
252	0xbdfbb261	-0.122898825
253	0x000176e8	1.34491e-40
254	0xbe1f1a42	-0.1553736
255	0xb90dccda	-0.00013523121
