experiments/grail_wn_v2_ind/best_graph_classifier.pth (torch, 102316 bytes, 21 tensors)

weight f4 [10, 32]
-0.35515052 -0.57730407 0.6183672 -0.22807373 -0.48884958 0.4268177 0.66697854 0.40487742
-0.12768005 0.097656175 -0.33938405 -0.36895186 0.718042 -0.82066476 0.69731456 -1.0396143
0.15890954 0.04319558 -1.3345308 0.71070504 -0.03201766 0.23425151 -0.5610002 0.66258216
0.6718426 -0.8454305 0.045736708 -0.08753779 0.4899203 -0.6713461 0.71109384 -0.1713141
-0.92350936 -0.75984985 -0.40863928 0.28247413 -0.14472675 0.6293092 -0.46858323 0.5076807
0.47560406 0.329471 -0.57710785 -0.68026745 0.43726945 -0.34151688 -0.02100863 0.57885295
0.7270735 0.4236061 -0.036754675 0.5351069 0.8911824 -0.5249693 -0.5601221 0.3603483
0.3041029 -0.11854193 -0.37558836 0.4539753 0.1859605 -0.5125347 -1.0433891 0.40573248
-0.49285126 -0.06481776 -0.42678052 0.30594546 -0.052279226 -0.00018740876 -0.5054661 0.15579073
0.29273042 0.18559948 -0.57142335 -0.039795525 -0.04633238 0.3082926 -0.099805444 1.1811683
0.54741347 0.27214012 0.21363433 0.1433464 0.60187054 -0.95358455 0.0029548027 -0.07600895
-0.045686428 0.1791778 -0.26774606 0.26008034 0.1310241 -0.21747878 -0.71176255 0.124878176
0.166854 0.34173897 -0.20693903 -0.030522544 0.1668381 0.018320138 -0.15732303 -0.104445376
-0.07680257 -0.43129092 0.35509542 0.049364947 -0.4908946 0.0748596 -0.47713864 0.31665814
-0.13354048 -0.16463475 0.29874426 -0.43473074 -0.053946678 0.023523524 0.49617532 -0.5002378
-0.16558178 0.6267629 0.066176124 0.050988376 -0.11442758 0.4231911 -0.10539012 0.12659971
0.002888941 -0.086761065 0.16976061 -0.094304584 -0.05024551 0.020503692 0.2115371 0.017880594
-0.10475972 0.04576414 0.012049149 -0.030343203 0.13038094 -0.07102442 0.12554513 -0.42374575
-0.043108813 0.0026191657 -0.16345526 0.09177845 -0.14508928 0.24487387 -0.10464283 0.13544519
0.081549086 -0.13670757 0.07021537 -0.09162871 0.047010195 -0.07184561 0.30986062 -0.081138924
0.3419427 0.37844774 0.26460773 -0.13540699 -0.3039851 0.075081155 0.2132304 0.15245292
-0.12832004 -0.2218949 0.36232448 0.040880397 -0.5461186 -0.26239467 -0.09550371 -0.23781838
-0.31865472 -0.08048117 -0.06643526 -0.37324592 -0.53694075 0.2734622 0.5176169 -0.54437834
0.095950834 0.5048659 0.10918186 -0.05925638 0.161218 0.29146242 0.47015095 -0.3220446
-0.07229899 -0.25470248 0.33589667 -0.18789001 -0.28579125 0.09764867 0.22732945 0.17655946
-0.17152846 0.061193276 -0.10273154 -0.18166435 0.2513715 -0.30850995 0.30136642 0.04308927
0.022909984 0.044345297 -0.5447793 0.23981273 0.011891221 -0.06599778 -0.1861931 0.25622362
0.3752079 -0.25064623 0.12563057 -0.21449968 0.3096813 -0.19043979 0.019539552 -0.2402956
-0.43691233 -0.15472601 -0.42330837 0.4493726 0.04214372 0.007163202 -0.57060874 0.109115034
0.541232 0.4352802 -0.551978 -0.0530776 0.18621327 0.26201463 0.084867224 0.7107934
0.52956057 0.33272234 0.2915249 0.19983295 0.6764935 -0.6293325 -0.2734518 0.16683923
-0.122137345 -0.31331939 -0.42631477 0.3988879 -0.10655755 -0.2755793 -0.75738984 0.28706458
00000000: 4ad6 b5be 33ca 13bf 504d 1e3f 298c 69be
00000010: 7e4a fabe d987 da3e 1bbf 2a3f 184c cf3e
00000020: 8fbe 02be f6ff c73d bfc3 adbe 42e7 bcbe
00000030: 9ad1 373f 1617 52bf 3583 323f 1512 85bf
00000040: 2fb9 223e d9ed 303d e8d1 aabf c4f0 353f
00000050: f324 03bd a1df 6f3e b69d 0fbf fc9e 293f
00000060: e0fd 2b3f 226e 58bf 6a56 3b3d 0347 b3bd
00000070: d5d6 fa3e 57dd 2bbf 3f0a 363f f76c 2fbe
00000080: 1c6b 6cbf 8585 42bf 2b39 d1be 73a0 903e
00000090: 4033 14be 681a 213f 24ea efbe 5df7 013f
000000a0: 6082 f33e 6cb0 a83e 57bd 13bf 0226 2ebf
000000b0: c8e1 df3e 4ddb aebe 4a1a acbc b52f 143f
000000c0: 7d21 3a3f e6e2 d83e 128c 16bd c4fc 083f
000000d0: 8824 643f 6364 06bf 2964 0fbf 937f b83e
000000e0: 60b3 9b3e 1dc6 f2bd 1e4d c0be 736f e83e
000000f0: 6e6c 3e3e 7935 03bf c68d 85bf 2bbc cf3e
00000100: 0057 fcbe 2cbf 84bd fa82 dabe e2a4 9c3e
00000110: be22 56bd 2883 44b9 3a66 01bf 9b87 1f3e
00000120: c3e0 953e ca0d 3e3e cd48 12bf a200 23bd
00000130: 06c7 3dbd 87d8 9d3e cc66 ccbd 8630 973f
00000140: 4a23 0c3f f355 8b3e f5c2 5a3e 66c9 123e
00000150: 3014 1a3f 1e1e 74bf 5da5 413b 95aa 9bbd
00000160: b121 3bbd 637a 373e 0316 89be 4029 853e
00000170: 2f2b 063e c2b2 5ebe 1236 36bf 21c0 ff3d
00000180: c6db 2a3e 69f8 ae3e d3e7 53be 6a0a fabc
00000190: 9bd7 2a3e 1d14 963c 4a19 21be 75e7 d5bd
000001a0: aa4a 9dbd 2ad2 dcbe 11cf b53e e632 4a3d
000001b0: 8956 fbbe fd4f 993d 844b f4be 0421 a23e
000001c0: d6be 08be 0396 28be 02f5 983e 0795 debe
000001d0: 31f7 5cbd 68b4 c03c b10a fe3e 960f 00bf
000001e0: 458e 29be 8973 203f 5987 873d 30d9 503d
000001f0: 0259 eabd 81ac d83e c6d6 d7bd 5ba3 013e
00000200: 6354 3d3b c9af b1bd bad5 2d3e c322 c1bd
00000210: 3cce 4dbd 5cf7 a73c 2e9d 583e 537a 923c
00000220: 448c d6bd 2e73 3b3d cb69 453c 4f92 f8bc
00000230: 9582 053e 4075 91bd e78e 003e 34f5 d8be
00000240: de92 30bd 4fa6 2b3b d160 27be 57f6 bb3d
00000250: 4992 14be 37c0 7a3e fb4e d6bd 25b2 0a3e
00000260: 3503 a73d 12fd 0bbe 13cd 8f3d d5a7 bbbd
00000270: c38d 403d cb23 93bd 0da6 9e3e 2a2c a6bd
00000280: 1d13 af3e e7c3 c13e aa7a 873e 21a8 0abe
00000290: efa3 9bbe 26c4 993d 1259 5a3e 9e1c 1c3e
000002a0: 5466 03be 6b38 63be 9882 b93e 3472 273d
000002b0: 6ece 0bbf 9858 86be 7397 c3bd a986 73be
000002c0: b626 a3be 50d3 a4bd 360f 88bd 171a bfbe
000002d0: f374 09bf 3d03 8c3e 8b82 043f 615c 0bbf
000002e0: df81 c43d e43e 013f bd9a df3d d1b6 72bd
000002f0: 5516 253e 903a 953e a0b7 f03e 08e3 a4be
00000300: 7e11 94bd 5d68 82be a6fa ab3e 3d66 40be
00000310: 3b53 92be 07fc c73d 0dc9 683e 01cc 343e
00000320: 28a5 2fbe cda5 7a3d ea64 d2bd 3806 3abe
00000330: c4b3 803e 04f5 9dbe b34c 9a3e 607e 303d
00000340: b8ad bb3c 6aa3 353d a876 0bbf 7891 753e
00000350: 65d3 423c d829 87bd 67a9 3ebe be2f 833e
00000360: 401b c03e b454 80be 4da5 003e cea5 5bbe
00000370: 8c8e 9e3e a602 43be 6911 a03c 0d10 76be
00000380: f9b2 dfbe 7f70 1ebe e0bb d8be 2a14 e63e
00000390: e59e 2c3d 4bb9 ea3b 6a13 12bf b477 df3d
000003a0: 2e8e 0a3f 0cdd de3e 6e4e 0dbf e667 59bd
000003b0: b1ae 3e3e c826 863e dece ad3d 8ef6 353f
000003c0: 4891 073f 955a aa3e c042 953e 02a1 4c3e
000003d0: ae2e 2d3f ef1b 21bf e001 8cbe e7d7 2a3e
000003e0: 2523 fabd 666b a0be ee45 dabe 093b cc3e
000003f0: d83a dabd bb18 8dbe 4de4 41bf 21fa 923e

weight f4 [4, 8, 32]
-0.15312901 0.0076266867 0.3039165 -0.4702608 -7.6969605e-05 0.10391854 -0.67291594 -0.22518803
0.025124239 0.051724877 0.026691968 0.017075164 0.6210113 -0.057862878 0.18350774 -0.12656021
0.40935948 0.28631276 0.097305 0.061831415 -0.015061811 -0.008011271 -0.2882396 0.0011107639
1.0023738 0.00089007715 -0.15573789 0.5715583 -0.2483185 0.011802756 -0.26880857 0.009597666
0.33623952 0.6875683 0.04737266 -0.4959315 -0.00012517409 0.3805672 -0.16604164 0.5569787
0.49960253 0.007664668 -0.14973311 -0.010490701 -0.6391132 0.25426844 -0.27062893 0.86990225
0.30335748 1.198415 0.025077214 0.6860042 0.07393774 0.46030155 0.122150764 0.033046406
-0.22653848 0.011625241 0.7048956 -0.65452313 1.0187879 0.0927367 -0.20674965 -0.07172655
0.028852383 -0.007222315 0.0011636363 -0.65034765 -1.9979793e-31 -0.006260744 -0.10565144 -0.13912
0.13668859 -0.002034389 -0.055322997 -2.405656e-06 0.397932 0.3323758 0.39562917 0.18276012
0.06708849 0.16028862 -0.0039644944 0.3215314 -0.010558095 -0.09318836 -0.1947387 -3.844386e-08
0.21580109 -1.8913018e-22 0.17679521 -0.36318722 0.10290619 -0.0008781635 0.00094655337 0.08330058
8.4996746e-11 -5.3741832e-08 0.0032195316 -2.8285674e-06 -7.0176e-41 1.8925813e-05 -1.07352e-40 -3.0039542e-05
4.3771564e-10 1.0186569e-05 -5.4698e-41 2.8099e-41 0.014349472 1.6404136e-12 -3.2374162e-06 0.0027044252
0.0022502735 0.0011143459 1.9725643e-12 0.00029571238 -8.3882e-41 7.02e-42 -8.9462e-41 -1.1619585e-22
0.0047376887 -7.0625e-41 -1.1504394e-24 1.17959e-40 4.0531613e-05 5.3192e-41 7.3773e-41 2.8693856e-09
0.0536222 0.6919174 -0.051489577 -0.13755365 -3.2885243e-11 0.38991678 -0.03241422 0.2979031
0.36080575 -0.00029071225 -0.12791118 4.3533932e-18 -0.5844294 0.01648816 0.041314103 1.2541803
0.26083854 0.84547913 0.026352305 0.5138664 0.12617877 0.112761594 0.19690187 0.0006313065
-0.22032963 7.22405e-05 0.592619 -0.3480678 0.4092107 -0.0059956736 0.00022436233 0.030419752
0.09077431 -0.055572107 0.3081537 -0.82228523 -0.0003845194 0.10647297 -0.7627352 0.14235102
0.19031796 0.030020848 0.027675388 0.02600932 0.4033829 0.20743051 0.103250556 -0.22608285
0.27037382 -0.06938188 0.02261878 0.10283461 -0.06804218 -0.24905813 -0.566501 -0.0010629006
0.5059532 -0.0039627496 0.22466704 0.23990622 0.3533667 -0.10549303 -0.4143176 -0.16184638
-0.071544595 0.12022365 0.2949747 0.3080174 -1.7805896e-05 0.16200313 -0.014804035 -0.0049030078
0.002141473 -0.0014692314 0.03364825 -0.010016191 1.1169659 0.28561187 0.08719361 0.25887302
0.5215003 0.95518595 0.005634235 0.4367824 -0.027632823 0.5354352 0.26316926 0.029427573
0.5103798 0.00062817254 -0.0103473775 0.6663349 0.1966763 0.21121624 -0.03103083 0.28344285
0.1271284 -0.00420323 0.14994705 -0.1950682 4.7365e-41 0.00073870894 0.0013761959 0.04293526
-0.0012482726 5.7903476e-06 0.14386228 -7.113128e-16 -0.2742188 0.08554113 -0.24200393 0.01385872
-0.07959832 0.00066206005 -3.032641e-06 0.071105435 -1.1789e-41 0.00010496476 0.26300764 -1.6266762e-15
0.08650131 -2.263949e-17 -3.8384936e-05 0.20083776 0.13326494 -2.8198865e-05 1.9429473e-05 -0.013469175
00000000: dacd 1cbe 49e9 f93b f29a 9b3e 06c6 f0be
00000010: be6a a1b8 3ed3 d43d 3844 2cbf b197 66be
00000020: 59d1 cd3c 77dd 533d 1da9 da3c 37e1 8b3c
00000030: 99fa 1e3f a001 6dbd 74e9 3b3e 0099 01be
00000040: 9197 d13e 9697 923e d847 c73d f042 7d3d
00000050: d0c5 76bc b541 03bc 2494 93be 0d97 913a
00000060: c94d 803f 1154 693a c179 1fbe a551 123f
00000070: 3447 7ebe 5960 413c 47a1 89be 873f 1d3c
00000080: 9627 ac3e 7a04 303f d609 423d bcea fdbe
00000090: 2a41 03b9 b4d9 c23e d206 2abe 2896 0e3f
000000a0: e7cb ff3e e527 fb3b a353 19be 30e1 2bbc
000000b0: ec9c 23bf 792f 823e e08f 8abe eab1 5e3f
000000c0: ac51 9b3e aa65 993f bb6e cd3c f99d 2f3f
000000d0: ab6c 973d a5ac eb3e 2e2a fa3d ab5b 073d
000000e0: b4f9 67be cb77 3e3c 0a74 343f d48e 27bf
000000f0: a467 823f bdec bd3d 2eb6 53be 5fe5 92bd
00000100: d55b ec3c 2ba9 ecbb 2885 983a 2f7d 26bf
00000110: 20ad 818c ed26 cdbb c85f d8bd 7975 0ebe
00000120: 18f8 0b3e 6253 05bb 5e9a 62bd db70 21b6
00000130: bebd cb3e 292d aa3e e88f ca3e 7825 3b3e
00000140: b165 893d b322 243e 97e8 81bb c39f a43e
00000150: dcfb 2cbc 8ad9 bebd 9569 47be 791d 25b3
00000160: f6fa 5c3e f5a4 649b ce09 353e adf3 b9be
00000170: 7bc0 d23d 8e34 66ba 1f22 783a 7f99 aa3d
00000180: eae8 ba2e c5d1 66b3 c7fe 523b 6bd2 3db6
00000190: 9fc3 0080 e0c2 9e37 412b 0180 6dfd fbb7
000001a0: 00a3 f02f fbe6 2a37 7a98 0080 544e 0000
000001b0: 0c1a 6b3c 21de e62b 6342 59b6 ba3c 313b
000001c0: 5379 133b 3e0f 923a 8fce 0a2c d809 9b39
000001d0: d4e9 0080 9213 0000 62f9 0080 e078 0c9b
000001e0: 9d3e 9b3b e0c4 0080 9a05 b297 d248 0100
000001f0: 7d00 2a38 4794 0000 a6cd 0000 c42e 4531
00000200: f4a2 5b3d 8021 313f bce6 52bd ddda 0cbe
00000210: 7ea1 10ae 2ca3 c73e c6c4 04bd c186 983e
00000220: 88bb b83e bd6a 98b9 26fb 02be a39c a022
00000230: 2a9d 15bf 2d12 873c fa38 293d fb88 a03f
00000240: a18c 853e 5271 583f cae0 d73c c08c 033f
00000250: 0235 013e 8def e63d a5a0 493e 437e 253a
00000260: 179e 61be d37f 9738 e1b5 173f f135 b2be
00000270: 1184 d13e 5b77 c4bb ce42 6b39 d832 f93c
00000280: e2e7 b93d 949f 63bd 52c6 9d3e 4981 52bf
00000290: 5299 c9b9 800e da3d 9d42 43bf 77c4 113e
000002a0: b6e2 423e 48ee f53c 7fb7 e23c 7f11 d53c
000002b0: 3488 ce3e aa68 543e 0775 d33d 4382 67be
000002c0: 706e 8a3e 1618 8ebd 054b b93c f49a d23d
000002d0: b359 8bbd 1809 7fbe 3606 11bf 0751 8bba
000002e0: 2686 013f f4d9 81bb 1e0f 663e faa9 753e
000002f0: 7bec b43e bb0c d8bd 7021 d4be 0fbb 25be
00000300: f985 92bd d137 f63d ed06 973e 75b4 9d3e
00000310: df5d 95b7 26e4 253e a08c 72bc 69a9 a0bb
00000320: f557 0c3b 3a93 c0ba bfd2 093d f31a 24bc
00000330: bdf8 8e3f b83b 923e 9092 b23d 018b 843e
00000340: 0b81 053f 1187 743f 649f b83b f1a1 df3e
00000350: 3b5e e2bc 4812 093f 1fbe 863e 1812 f13c
00000360: 40a8 023f f2ab 243a 0c88 29bc ed94 2a3f
00000370: 8365 493e 1249 583e 5e34 febc 6c1f 913e
00000380: f32d 023e 40bb 89bb b88b 193e f5bf 47be
00000390: 0984 0000 eba5 413a 7961 b43a e2dc 2f3d
000003a0: 149d a3ba b54a c236 a250 133e 9f05 4da6
000003b0: 6866 8cbe 3030 af3d e1cf 77be af0f 633c
000003c0: 7204 a3bd 198e 2d3a 6084 4bb6 ba9f 913d
000003d0: dd20 0080 8720 dc38 f0a8 863e c26d eaa6
000003e0: 9927 b13d fccf d0a3 83ff 20b8 6aa8 4d3e
000003f0: 9b76 083e 9a8c ecb7 7afc a237 d1ad 5cbc

w_comp f4 [10, 4]
0.18409427 0.16603513 -0.06341513 0.58811074 -0.32453063 -0.4448942 0.093625866 0.31118518
-0.1858858 -0.7007912 0.17731732 -1.2193086 0.6095689 -0.4649264 0.19705868 -0.33873716
-0.14067191 0.16450067 0.24099953 -0.043234617 0.71670836 1.190892 0.63608086 0.1911157
0.7088811 -0.5082012 -0.44171092 -0.9240416 -0.97612894 0.91247034 -0.64868724 0.49490622
-0.04367254 -0.54329807 -0.5550745 0.7112077 0.123079024 0.93724006 0.33460963 -0.0526843
00000000: 3583 3c3e 1d05 2a3e cbdf 81bd 6d8e 163f
00000010: e128 a6be 2cc9 e3be ebbe bf3d aa53 9f3e
00000020: d958 3ebe 0d67 33bf ac92 353e 4e12 9cbf
00000030: b50c 1c3f d50a eebe c0c9 493e f56e adbe
00000040: 4c0c 10be dd72 283e 95c8 763e c816 31bd
00000050: 337a 373f 266f 983f 32d6 223f d6b3 433e
00000060: 3b79 353f 7919 02bf ef27 e2be fe8d 6cbf
00000070: 96e3 79bf a897 693f 5e10 26bf 5964 fd3e
00000080: fae1 32bd 9515 0bbf 5d19 0ebf b511 363f
00000090: db10 fc3d f7ee 6f3f f451 ab3e 7ecb 57bd

self_loop_weight f4 [8, 32]
-0.015964305 -0.027966386 0.4266082 0.70280343 -3.4799786e-17 -0.0013214445 -0.047452122 0.041683894
0.37206748 -0.2720038 0.014597627 -0.0038403943 0.05141118 0.23509039 -0.033297762 0.4781894
-0.6022767 0.38373744 -0.09465836 0.24096388 -0.032164793 -0.007723166 -0.22234133 -0.06761997
0.4772362 -0.01687847 -0.2004813 0.66798574 0.2068467 0.07870476 -0.21203178 -0.036824945
-0.37285325 -0.71858466 0.15574189 0.01987344 -0.0101561835 -0.60499716 -0.41884813 -0.5468711
-0.63921285 -0.22880252 0.5175121 -0.14304377 0.020183338 0.06618303 -0.6412918 -1.7048559
-0.6973472 -0.5068348 -0.24197444 -1.0267854 -0.39278543 -0.45649475 -0.26082155 -0.16386056
0.21819974 -0.23638584 -0.75012416 0.7166738 -0.44994166 -0.5197523 -0.49168634 -0.5591958
0.2761021 0.204707 -0.21150415 0.09737999 -0.00014348337 0.12437424 0.07016469 0.69746083
-0.13378595 0.63874346 -0.13711119 -0.004990312 0.619444 0.02856679 0.55344075 0.6750295
-0.0770889 0.16203731 0.07070581 0.17628482 -0.016684398 -0.19298242 -0.19153786 0.035137024
-0.09220038 0.0060370197 -0.3935957 -1.3850672 0.49358493 0.119241856 -0.11161032 0.027347984
3.5190117e-06 4.1553e-41 0.5749351 0.27664214 -4.422517e-29 -3.948841e-14 0.00025426186 0.41114983
-1.6942361e-12 -0.019859962 -7.913765e-09 -1.2801e-41 0.5874919 0.001777943 -1.4165007e-09 0.5592726
0.51308036 0.5197076 1.36410256e-17 0.49372035 0.0001228354 -7.814864e-08 -0.0011970927 2.2580624e-29
0.5884721 7.2776e-41 0.0035639391 -0.00028859483 0.0023030555 1.24231e-40 -6.190906e-17 6.0392e-41
-0.3722294 -0.11636059 -1.3103545 0.89903504 -0.010553069 -0.13231146 0.23129092 0.16793692
-0.28579083 -0.11177406 1.2040296 -0.14070529 -1.2082855 -0.7441147 -0.13931917 -0.283547
-0.33094975 0.90301955 -0.20768778 0.013557148 -0.21585391 0.1310956 -0.5994916 -0.0095821265
-0.3372561 -0.0773054 -0.21462242 2.3007147 -0.6132156 -0.12722541 0.16401221 -0.21077171
-0.4962244 -0.32368 0.7768865 0.72142035 -0.0030711684 -0.16920322 -0.38304466 0.169548
-0.29441217 0.07386349 -0.16457766 -0.037525475 1.5960635 -0.2154671 -0.1673591 0.26121095
0.41481894 -0.020059695 -0.2236406 0.07734573 -0.16986445 -0.2703877 -0.6862553 -0.06984741
1.0315372 -0.08007673 -0.17123032 -1.0944465 -0.11468618 -0.3379158 -0.5426879 -0.21568906
1.6396277 -0.19552685 0.92484915 0.57836956 -0.00011439826 -0.11847574 -0.21594584 0.8108905
-0.12790737 -0.16524859 0.10016366 -0.00096119975 -0.5835148 0.6758271 0.1582156 -0.044439424
-0.073275074 -0.19702211 -0.10711342 0.028719872 0.016526664 0.21149382 0.75542843 -0.15102158
0.80043876 -0.015694212 -0.06988032 -0.1951458 1.1982262 -0.18676326 -0.04912445 -0.1727567
-0.018343473 -3.236924e-06 -0.38227186 -0.122704245 -4.2670737e-15 0.089750655 0.13201685 -0.002535521
-3.2301e-41 1.8199026e-10 -0.007560459 -7.4740964e-16 0.24850498 0.14762338 -0.26792648 0.48850766
0.09800242 -0.007510322 0.071176 0.025425214 -5.3535447e-14 -2.5828971e-05 -0.43367457 9.8812205e-05
0.17347737 -8.665735e-06 -8.700035e-28 0.2633343 -0.042701226 0.04881028 -0.0009955207 0.0009042407
00000000: 93c7 82bc c319 e5bc 646c da3e edea 333f
00000010: 567c 20a4 5234 adba 285d 42bd bbbc 2a3d
00000020: a17f be3e 1544 8bbe e32a 6f3c 20af 7bbb
00000030: 8894 523d 89bb 703e 3c63 08bd 3ed5 f43e
00000040: ce2e 1abf 3c79 c43e 3edc c1bd 3cbf 763e
00000050: 3bbf 03bd 9d12 fdbb 72ad 63be 577c 8abd
00000060: 4e58 f43e b844 8abc f84a 4dbe 1d01 2b3f
00000070: 9fcf 533e f62f a13d dc1e 59be c1d5 16bd
00000080: 9fe6 bebe 2af5 37bf cd7a 1f3e a0cd a23c
00000090: 1f66 26bc 18e1 1abf 4373 d6be bfff 0bbf
000000a0: 74a3 23bf 354b 6abe ac7b 043f 117a 12be
000000b0: 8757 a53c f88a 873d b32b 24bf b838 dabf
000000c0: 5985 32bf edbf 01bf 26c8 77be b46d 83bf
000000d0: 2c1b c9be aeb9 e9be 678a 85be 10cb 27be
000000e0: c16f 5f3e 210f 72be 2308 40bf ef77 373f
000000f0: c15e e6be 7d0e 05bf 50be fbbe 7527 0fbf
00000100: 415d 8d3e b69e 513e 8b94 58be 296f c73d
00000110: 0674 16b9 ecb7 fe3d 81b2 8f3d cb8c 323f
00000120: 2fff 08be b184 233f e066 0cbe c585 a3bb
00000130: e293 1e3f e704 ea3c 4bae 0d3f bcce 2c3f
00000140: c9e0 9dbd 1ced 253e 35ce 903d 0284 343e
00000150: b8ad 88bc 2f9d 45be 8022 44be d7eb 0f3d
00000160: 8ed3 bcbd 31d2 c53b 6085 c9be e249 b1bf
00000170: 2ab7 fc3e 1335 f43d f493 e4bd e108 e03c
00000180: 2928 6c36 d573 0000 f22e 133f 0aa4 8d3e
00000190: 8e3f 6090 09d7 31a9 734e 8539 3b82 d23e
000001a0: 4a71 eeab 5cb1 a2bc 1bf5 07b2 af23 0080
000001b0: df65 163f de09 e93a b0ae c2b0 7d2c 0f3f
000001c0: 3c59 033f 8f0b 053f eca1 7b23 eac8 fc3e
000001d0: 60cd 0039 abd2 a7b3 c4e7 9cba a7fe e40f
000001e0: 1ca6 163f dfca 0000 fa90 693b 8b4e 97b9
000001f0: dcee 163b 4e5a 0100 a9c0 8ea4 59a8 0000
00000200: da94 bebe 764e eebd b2b9 a7bf 2927 663f
00000210: c8e6 2cbc a87c 07be 87d7 6c3e a8f7 2b3e
00000220: 2d53 92be cce9 e4bd a41d 9a3f 0c15 10be
00000230: 19a9 9abf 4d7e 3ebf afa9 0ebe 132d 91be
00000240: 3f72 a9be 4a2c 673f 1bac 54be cd1e 5e3c
00000250: cf08 5dbe ed3d 063e 4878 19bf 5afe 1cbc
00000260: d5ac acbe 4b52 9ebd fbc5 5bbe e93e 1340
00000270: b3fb 1cbf 6147 02be d1f2 273e 8ad4 57be
00000280: 2011 febe 63b9 a5be 09e2 463f 01af 383f
00000290: a845 49bb 9c43 2dbe 6e1e c4be fe9d 2d3e
000002a0: 31bd 96be be45 973d 0c87 28be 50b4 19bd
000002b0: cf4b cc3f 68a3 5cbe 2f60 2bbe 71bd 853e
000002c0: 2663 d43e 3b54 a4bc 0b02 65be 7067 9e3d
000002d0: f2f0 2dbe 4270 8abe 6dae 2fbf 290c 8fbd
000002e0: 6909 843f 45ff a3bd 0057 2fbe d316 8cbf
000002f0: 97e0 eabd 4d03 adbe 98ed 0abf 98dd 5cbe
00000300: 52df d13f 3138 48be eac2 6c3f 0710 143f
00000310: 19e9 efb8 69a3 f2bd e820 5dbe 8596 4f3f
00000320: 26fa 02be ed36 29be 9b22 cd3d 06f9 7bba
00000330: 3a61 15bf 0103 2d3f 4503 223e 1d06 36bd
00000340: 3e11 96bd 2ac0 49be 485e dbbd f045 eb3c
00000350: ed62 873c d691 583e c263 413f 67a5 1abe
00000360: 8ee9 4c3f 2691 80bc 6a1d 8fbd 4dd4 47be
00000370: 7a5f 993f de3e 3fbe b836 49bd 22e7 30be
00000380: 0d45 96bc ee39 59b6 23b9 c3be 5d4c fbbd
00000390: cfbc 99a7 31cf b73d 6d2f 073e fc2a 26bb
000003a0: 0b5a 0080 b419 482f babd f7bb 196d 57a6
000003b0: 1778 7e3e 952a 173e a92d 89be ad1d fa3e
000003c0: 7eb5 c83d 2619 f6bb b9c4 913d 8a48 d03c
000003d0: 2b1a 71a9 4bab d8b7 980a debe 6639 cf38
000003e0: 0da4 313e 0c63 11b7 89db 8992 c1d3 863e
000003f0: 7be7 2ebd 4aed 473d 227c 82ba 910a 6d3a

weight f4 [8, 80]
0.20348032 -0.620303 -0.0011176924 -4.9940607e-38 -0.459363 -0.022598848 -0.00046371654 -5.113524e-20
-0.4921488 -0.10054789 0.00039399197 -4.3334e-41 0.09379475 -0.49191442 -0.0066236565 -0.00040257024
-0.064765505 -0.060409486 0.0081474325 0.015107808 -0.03307934 0.027214633 -0.014110574 0.015766475
0.06801413 0.09425706 -0.040279616 -0.036598742 0.025076006 -0.071267895 0.111170776 -0.031551912
0.053123105 0.06848736 0.041487034 -0.016533945 0.106649436 -0.0014984414 -0.06820046 0.064313084
0.013774901 -0.050131503 -0.051742528 0.009257956 -0.024399765 0.020594768 -0.11808202 0.0089674285
-0.022958271 0.07367446 0.0039972574 0.018149115 0.0041176393 -0.017413344 -0.017159937 -0.022280108
0.048103604 0.0593729 -0.0028251822 0.029789565 -0.048913226 -0.013416711 0.06956903 0.045114547
0.019903125 0.026410118 0.07093293 -0.0997894 0.06009108 -0.00083428225 0.036312893 5.820982e-08
-0.018034907 -0.020374667 -0.03682767 0.005171188 -0.038771905 0.09532441 -0.12270752 -0.010041959
-0.4395757 -0.15452662 -0.019422581 1.6975017e-37 0.08248326 -0.7402389 0.03916431 -1.24313e-40
0.2497821 -0.65608203 -0.02910224 -1.1920916e-19 -0.52522796 -0.20292264 6.91023e-05 2.1189e-41
-0.10641192 0.021061895 -0.28108793 0.14856154 0.27508178 -0.028744156 -0.2322644 -0.097000904
0.14051981 0.026726892 -0.045655765 -0.01238542 -0.1082479 0.16185974 -0.01597164 0.16746302
0.14868447 -0.04627312 0.28182325 -0.09192529 0.2513334 -0.101669684 0.016651716 -0.07415195
-0.12843987 -0.08843041 -0.113387726 0.09969545 -0.13556473 0.057205647 -0.3593962 0.32748273
0.3175058 0.31533834 -0.0933703 0.13111934 0.21483329 -0.09313171 -0.05689011 -0.23815905
0.094230846 0.014433332 0.14035225 0.049196992 -0.26550564 0.27155483 -0.099689424 -0.18391901
-0.13358292 0.02229025 0.049687378 -0.25692174 -0.16280274 0.041340552 0.320467 -0.32941046
-0.05134933 0.22129327 -0.0956646 0.08222803 -0.08685346 0.20093833 0.12626128 0.17991494
-0.009044897 -0.045203466 -9.477834e-09 1.05004324e-32 -0.050952997 -0.008756539 4.9124734e-05 -3.7249805e-36
-0.03992229 -0.017018143 -8.7643775e-07 1.8316e-41 -0.008931927 -0.042056993 -0.0001909877 -1.95028e-39
-0.009186979 -0.009544872 0.0005876663 -0.0021239056 -9.39968e-05 -0.00042541887 0.0012007864 0.0028609186
-0.0015840965 -0.0007075803 -0.007849349 0.00016539481 0.006458766 -0.0039448813 -0.000150671 0.0032323233
0.012441696 -0.0005304837 -0.00033221222 0.0038995205 0.034081228 -0.008147525 -0.01003766 0.011145901
2.6216327e-05 -0.0018585315 0.0021539773 -0.0017667908 0.00031800737 -0.0005794874 -0.033664007 -0.00047976675
-0.0024416319 -0.0032814075 -0.0011459761 -0.0019426016 -0.00023187484 -0.00033377213 -0.0007362059 0.0013534826
-0.0015955196 -0.0009660061 0.000983117 6.492843e-05 0.0017542718 -0.002771433 -0.00018919907 0.007818978
0.0040549478 -0.00056430214 0.00049155665 -0.0010349156 0.017232383 -0.003617003 -0.0024467574 0.004788702
0.00036666702 0.001142363 0.0019995521 -0.0016418719 0.00024897736 0.002173988 -0.034111477 -0.0002611496
0.008369471 -0.20494679 2.503655e-10 3.23e-41 -0.15118617 0.00959575 -4.386868e-08 -0.0003820448
-0.11907121 -0.010306689 -1.28989806e-08 1.14008e-40 -0.008751072 -0.1293422 0.0033882237 -1.9923507e-05
00000000: 255d 503e 2dcc 1ebf 897f 92ba 86f3 8781
00000010: a131 ebbe 3821 b9bc fb1e f3b9 b67a 719f
00000020: edfa fbbe 0dec cdbd b590 ce39 cc78 0080
00000030: 7617 c03d 35dc fbbe 420b d9bb 1010 d3b9
00000040: c7a3 84bd f06f 77bd cf7c 053c bd86 773c
00000050: 347e 07bd 39f1 de3c 0930 67bc b228 813c
00000060: fe4a 8b3d d809 c13d 3dfc 24bd 90e8 15bd
00000070: 326c cd3c e7f4 91bd 81ad e33d 943c 01bd
00000080: 9d97 593d 1a43 8c3d 4fee 293d 3272 87bc
00000090: 056b da3d 5a67 c4ba afac 8bbd 94b6 833d
000000a0: 1fb0 613c b156 4dbd f9ef 53bd afae 173c
000000b0: 04e2 c7bc 5cb6 a83c fcd4 f1bd 1fec 123c
000000c0: fc12 bcbc a3e2 963d 6dfb 823b 74ad 943c
000000d0: 43ed 863b 6ea6 8ebc ff92 8cbc c684 b6bc
000000e0: 4908 453d ff30 733d b126 39bb 3f09 f43c
000000f0: 3c59 48bd c4d1 5bbc 357a 8e3d 08ca 383d
00000100: e10b a33c 085a d83c 4945 913d 635e ccbd
00000110: 1022 763d bcb3 5aba d4bc 143d 6002 7a33
00000120: f1bd 93bc c6e8 a6bc 9cd8 16bd 1273 a93b
00000130: 4acf 1ebd 7239 c33d 154e fbbd 0787 24bc
00000140: 1110 e1be 3a3c 1ebe 1b1c 9fbc 4d0d 6702
00000150: fcec a83d 4c80 3dbf c16a 203d 895a 0180
00000160: e1c6 7f3e fef4 27bf d267 eebc c2bc 0ca0
00000170: 5775 06bf f4ca 4fbe 04eb 9038 113b 0000
00000180: 7eee d9bd ff89 ac3c c2ea 8fbe 8420 183e
00000190: 85d7 8c3e dd78 ebbc b8d6 6dbe 69a8 c6bd
000001a0: 6de4 0f3e 5bf2 da3c 8a01 3bbd 37ec 4abc
000001b0: 13b1 ddbd 8fbe 253e f5d6 82bc 6d7b 2b3e
000001c0: be40 183e e288 3dbd 234b 903e 5443 bcbd
000001d0: c5ae 803e 3238 d0bd 2e69 883c fadc 97bd
000001e0: be85 03be 011b b5bd d337 e8bd 212d cc3d
000001f0: 7bd1 0abe 7850 6a3d c702 b8be d1ab a73e
00000200: 1f90 a23e 0774 a13e ee38 bfbd 2644 063e
00000210: 42fd 5b3e d7bb bebd 9b05 69bd f7df 73be
00000220: 1afc c03d c879 6c3c 80b8 0f3e c982 493d
00000230: 5bf0 87be 3c09 8b3e f829 ccbd 4455 3cbe
00000240: f6c9 08be 0b9a b63c fe84 4b3d 3f8b 83be
00000250: c3b5 26be b654 293d 4014 a43e 7da8 a8be
00000260: ad53 52bd b49a 623e cdeb c3bd 2b67 a83d
00000270: 3ae0 b1bd c7c2 4d3e a34a 013e 9f3b 383e
00000280: 0c31 14bc 4527 39bd f4d3 22b2 e015 5a0a
00000290: 17b4 50bd 9677 0fbc 480b 4e38 7271 9e84
000002a0: 8e85 23bd a269 8bbc 5844 6bb5 0f33 0000
000002b0: 3857 12bc f443 2cbd df43 48b9 963c 1580
000002c0: fc84 16bc 1862 1cbc 9e0d 1a3a 3931 0bbb
000002d0: 2620 c5b8 c10a dfb9 b563 9d3a 407e 3b3b
000002e0: 75a1 cfba e97c 39ba 8e9a 00bc d56d 2d39
000002f0: 0ea4 d33b 1044 81bb 70fd 1db9 63d5 533b
00000300: 41d8 4b3c 2910 0bba c52c aeb9 198f 7f3b
00000310: c298 0b3d 327d 05bc ff74 24bc 4c9d 363c
00000320: 22eb db37 f899 f3ba be29 0d3b a993 e7ba
00000330: 3aba a639 bee8 17ba 45e3 09bd 3489 fbb9
00000340: c903 20bb e20c 57bb 9434 96ba e59e feba
00000350: 6e23 73b9 23fe aeb9 f1fd 40ba 5767 b13a
00000360: c120 d1ba 923b 7dba efdb 803a 2f2a 8838
00000370: 98ef e53a eea0 35bb bd63 46b9 2c1b 003c
00000380: 5edf 843b aded 13ba cfdb 003a 01a6 87ba
00000390: ed2a 8d3c 3e0b 6dbb c759 20bb 8bea 9c3b
000003a0: 373d c039 57bb 953a eb0a 033b 1434 d7ba
000003b0: 2d89 8239 7779 0e3b 7ab8 0bbd e8ea 88b9
000003c0: 1b20 093c 92dd 51be d0a3 892f 0a5a 0000
000003d0: 8cd0 1abe 7e37 1d3c 206a 3cb3 2f4d c8b9
000003e0: 9bdb f3bd 63dd 28bc 519a 5db2 cf3d 0100
000003f0: a860 0fbc 4872 04be f60c 5e3b 6821 a7b7

bias f4 [8]
-0.4693346 -0.74167377 -0.14279826 -0.18343858 -0.11410901 -0.57195836 -0.02744643 -0.28259745
00000000: a04c f0be 55de 3dbf b539 12be 53d7 3bbe
00000010: fcb1 e9bd dd6b 12bf 56d7 e0bc 9db0 90be

weight f4 [1, 8]
-0.06768171 0.2831116 0.059915986 -0.065166794 -0.027296511 -0.079951346 -1.0445411 0.016764622
00000000: b59c 8abd 01f4 903e 776a 753d 2b76 85bd
00000010: ef9c dfbc 88bd a3bd 86b3 85bf f655 893c

weight f4 [4, 32, 32]
-1.77648e-40 -3.9173e-41 0.07132453 -0.27002913 -5.7842605e-15 1.81e-43 3.643687e-21 0.26795015
-8.396332e-08 -0.32581255 -4.7137397e-13 -1.0239434e-11 0.0031245186 5.1900296e-17 -5.9852e-41 -6.8355e-41
-9.139807e-28 7.7175e-41 -0.000121964345 -1.82445e-40 -0.15223701 -2.53055e-40 1.11527e-40 -0.0788955
5.9017e-41 -0.00013526545 0.045711778 -0.2866824 -0.25604385 -0.11771151 -2.007175e-08 1.4948e-41
-4.8001553e-35 -4.855e-41 0.00054321566 0.0063328827 -1.5392061e-06 3.1221e-41 -0.00021412759 -0.0032672386
-1.1942123e-19 9.133681e-08 2.4040795e-18 -8.318959e-09 -7.8209e-41 1.5142652e-16 3.6361518e-38 -4.4207e-41
4.870804e-25 -9.4599e-41 0.0012170054 -7.1375e-41 3.8483513e-06 1.4195006e-25 -1.0166e-41 -8.628875e-05
1.00345e-39 8.123912e-05 -3.7862246e-22 -0.0005359418 -4.4713328e-15 -3.88185e-06 6.322709e-05 1.17764e-40
6.0474814e-10 6.996327e-16 -0.16075055 -0.70543903 0.008111153 -4.0685875e-16 0.08880755 -0.20711766
0.00012343757 -0.32340154 -4.240062e-07 0.0012592978 0.008436501 4.7183157e-08 -1.9677025e-10 -3.0458356e-28
9.409306e-08 2.028633e-14 0.22582437 1.7171654e-08 -0.09100565 1.2375789e-09 7.490652e-23 -0.4117868
-7.400655e-12 0.09082538 0.04928916 -0.31256524 -0.21629351 0.7034037 0.4240678 -3.030978e-13
1.30653235e-30 -3.9357e-41 -8.218901e-05 -0.11909686 9.952139e-30 -3.008e-41 -4.3925685e-38 0.24983795
-1.9402897e-07 -0.13560973 -1.0369851e-21 1.2190626e-27 0.009544725 1.01633e-40 -1.18714e-40 -8.4568e-41
2.7317e-41 -3.6327e-41 0.026230374 1.555133e-39 0.027262386 -3.92e-43 -1.00057e-40 -0.0025527463
8.636e-42 0.009993348 0.0006261419 -0.14057949 -0.12145387 0.28572625 0.14036842 3.3352e-41
-1.0314325e-24 1.03302e-40 -1.4018067e-19 5.153236e-23 -1.858993e-39 -4.313e-42 -1.5690065e-23 2.7531936e-19
4.35418e-40 -2.6812222e-31 -2.0717e-41 -7.266e-42 1.47066e-40 1.8071793e-28 -1.9647684e-37 -9.0685e-41
2.0149981e-38 2.5143e-41 4.8411924e-23 -1.3536778e-25 -2.671468e-39 -1.31687e-40 -7.6678e-41 3.7469808e-34
-4.4186732e-35 6.0869806e-21 -7.186922e-38 -6.629376e-39 -4.7897255e-29 -3.7249584e-30 -1.8234e-41 1.2836478e-34
8.5758034e-20 -7.0293e-41 -0.006913317 0.0016871386 -4.0141206e-19 1.5989e-41 3.7325323e-10 0.0010685459
6.769901e-21 1.0729139e-08 -4.8313225e-13 -1.3798921e-17 2.2025875e-27 1.7061934e-14 7.551803e-11 -4.893e-41
-6.875625e-11 -4.6973e-41 1.9138633e-06 -1.0907615e-18 -0.0056570545 3.2737128e-23 -9.7295e-41 -1.0396196e-06
-8.9823e-41 9.747184e-07 -2.8768508e-13 -3.002652e-08 -0.0002023855 2.8389656e-27 0.00012897028 2.9267394e-34
8.0038556e-14 -4.108e-41 0.29081494 -0.0030051873 -0.008212882 -9.3524e-41 -2.868e-42 -0.058613926
-0.0110584 -6.6985625e-23 0.00019124874 -2.6511056e-11 8.7465e-41 -1.6124218e-08 7.404e-41 8.303635e-39
-1.15363e-40 6.1743e-41 -0.053917523 -5.2636e-41 0.030904744 -1.8762e-41 -0.00031351883 0.071669556
-9.8824e-41 -0.025901075 -4.4296257e-06 -0.002009193 9.6751e-41 -0.02657825 -0.08846075 1.756e-42
3.2888155e-14 -1.9354968e-15 -0.024866275 -0.33576235 -1.8602613e-08 1.1254018e-23 0.0007251997 -0.17645633
-0.009125396 -0.08853878 -2.8399388e-06 -2.01111e-06 -4.6050263e-07 7.242076e-08 -4.1176434e-11 1.7193553e-24
2.216799e-08 5.853473e-15 0.006784512 9.575309e-13 -0.21365055 1.1589172e-07 7.945e-41 -0.14232126
7.914816e-17 0.0038293963 0.0011399136 -0.013585517 -0.029453259 0.062384885 0.19678545 -8.313452e-16
00000000: 36ef 0180 336d 0080 9812 923d 4241 8abe
00000010: 6366 d0a7 8100 0000 94a7 891d c330 893e
00000020: 534f b4b3 e7d0 a6be 13ae 04ab 5022 34ad
00000030: b9c4 4c3b 0e59 6f24 d8a6 0080 8cbe 0080
00000040: 76d3 9092 22d7 0000 1cc7 ffb8 95fc 0180
00000050: 05e4 1bbe 6ac1 0280 e436 0100 f793 a1bd
00000060: 84a4 0000 0bd6 0db9 463c 3b3d 09c8 92be
00000070: 2e18 83be bb12 f1bd 3f6a acb2 ab29 0000
00000080: 5438 7f86 5687 0080 9666 0e3a 1284 cf3b
00000090: b896 ceb5 0857 0000 7087 60b9 2b1f 56bb
000000a0: dafc 0ca0 f124 c433 c763 3122 2beb 0eb2
000000b0: 04da 0080 3895 2e25 8ff8 4501 3b7b 0080
000000c0: 7cbe 1617 b407 0180 ed83 9f3a f7c6 0080
000000d0: 1621 8136 c5b9 2f16 571c 0080 ebf5 b4b8
000000e0: 36ed 0a00 ec5e aa38 fddc e49b 727e 0cba
000000f0: c418 a1a7 d640 82b6 c998 8438 4748 0100
00000100: 5e3b 2630 c8a7 4926 cb9b 24be a797 34bf
00000110: a4e4 043c c189 eaa5 bce0 b53d a716 54be
00000120: 056f 0139 e394 a5be f8a2 e3b4 060f a53a
00000130: 4039 0a3c 6ea6 4a33 e759 58af 820d c191
00000140: 3510 ca33 18b9 b628 813e 673e de80 9332
00000150: 2c61 babd 7017 aa30 e41c b51a b8d5 d2be
00000160: 9631 02ad a802 ba3d 6ee3 493d 8d08 a0be
00000170: 0c7c 5dbe 4412 343f 6a1f d93e ffa0 aaaa
00000180: 3bff d30d b66d 0080 e45c acb8 0ee9 f3bd
00000190: 76da 490f da53 0080 7827 6f81 85d5 7f3e
000001a0: 4756 50b4 47dd 0abe 6bb4 9c9c 0e2b c112
000001b0: 7a61 1c3c 501b 0100 ed4a 0180 beeb 0080
000001c0: 264c 0000 4465 0080 15e1 d63c 14ef 1000
000001d0: 5e55 df3c 1801 0080 eb16 0180 fa4b 27bb
000001e0: 1318 0000 24bb 233c ac23 243a 12f4 0fbe
000001f0: cebc f8bd b64a 923e bdbc 0f3e f95c 0000
00000200: 409b 9f97 f71f 0100 027f 25a0 f931 791a
00000210: 1e3e 1480 060c 0080 b8be 9799 1685 a220
00000220: c5bd 0400 7205 ae8c c039 0080 4114 0080
00000230: f699 0100 5216 6511 18b7 8582 cbfc 0080
00000240: f369 db00 1746 0000 0f1b 6a1a c393 2796
00000250: f716 1d80 176f 0180 bfd5 0080 9307 f907
00000260: ddef 6a86 aaf5 e51d 89a5 c381 0130 4880
00000270: 31de 7290 2e1a 978e d432 0080 45a0 2a07
00000280: 8d7d ca1f f3c3 0080 1b89 e2bb fa22 dd3a
00000290: adf3 eca0 922c 0000 b932 cd2f 730e 8c3a
000002a0: 77c2 ff1d 4153 3832 59fd 07ab 908b 7ea3
000002b0: c881 2e13 24ae 9928 df10 a62e 6688 0080
000002c0: 5432 97ae f182 0080 ec6f 0036 cef7 a0a1
000002d0: d05e b9bb 9a4e 1e1a 380f 0180 0f89 8bb5
000002e0: 64fa 0080 12d3 8235 caf3 a1aa 82f6 00b3
000002f0: 7237 54b9 10ed 6013 323c 0739 e483 c207
00000300: 163b b429 8472 0080 b2e5 943e adf2 44bb
00000310: 538f 06bc b504 0180 ff07 0080 2815 70bd
00000320: 4b2e 35bc 18f6 a19a f189 4839 9731 e9ad
00000330: d1f3 0000 8881 8ab2 65ce 0000 286b 5a00
00000340: 9641 0180 1dac 0000 9fd8 5cbd ba92 0080
00000350: f22b fd3c 4d34 0080 c95f a4b9 7dc7 923d
00000360: 7b13 0180 7e2e d4bc 32a2 94b6 aaac 03bb
00000370: b40d 0100 a1ba d9bc e92a b5bd e504 0000
00000380: 761d 1429 9d77 0ba7 5cb4 cbbc 0be9 abbe
00000390: 94cb 9fb2 33af 5919 541b 3e3a f8b0 34be
000003a0: af82 15bc d253 b5bd c795 3eb6 9bf6 06b6
000003b0: 003b f7b4 bc85 9b33 8b18 35ae 5707 0518
000003c0: ed6b be32 c2e4 d227 9d50 de3b b0c2 862b
000003d0: 36c7 5abe 26e0 f833 79dd 0000 aabc 11be
000003e0: d480 b624 9cf6 7a3b 2769 953a ca95 5ebc
000003f0: f647 f1bc 4b87 7f3d 2082 493e 739e 6fa6

w_comp f4 [10, 4]
-0.37242177 0.15887183 -0.081532285 0.09737167 0.23805979 0.1249213 0.52214366 0.2274164
0.13975191 -0.135931 -0.0741453 -0.15157011 0.0036683767 -0.0032585317 -0.08484524 -0.0646264
0.4997906 -0.4855983 0.61850846 0.30930442 -0.6630283 0.41012192 -0.18570735 -0.28304183
0.6937774 -0.7639267 -0.46781048 -0.40285182 0.05683569 0.03778617 -0.01652731 -0.042120285
-1.4485e-40 -5.1666e-41 -2.93e-41 -1.2742e-40 -1.6856481e-34 8.4808405e-35 -1.3388742e-05 1.3056578e-31
00000000: 11ae bebe 4caf 223e 66fa a6bd cc6a c73d
00000010: f2c5 733e bdd6 ff3d 35ab 053f d8df 683e
00000020: 201b 0f3e 7f31 0bbe 7ed9 97bd 3235 1bbe
00000030: 2669 703b 178d 55bb 57c3 adbd d95a 84bd
00000040: 8ee4 ff3e 57a0 f8be 9256 1e3f 265d 9e3e
00000050: 39bc 29bf 80fb d13e 112a 3ebe dcea 90be
00000060: 659b 313f b390 43bf db84 efbe 9842 cebe
00000070: 8acc 683d acc5 1a3d 4864 87bc 5286 2cbd
00000080: c893 0180 0690 0080 ad51 0080 3263 0180
00000090: a20f 6087 9c75 e106 36a0 60b7 ec7b 290c

self_loop_weight f4 [32, 32]
-5.841347e-07 -3.882355e-11 -0.21995573 -0.13826808 -1.3184468e-08 1.6678667e-33 0.44126147 -0.6346989
-0.04141394 0.028563024 0.006801619 0.16685748 -0.0033576707 -0.11418156 4.1875063e-09 -1.7153442e-28
-1.9372088e-05 -2.8546351e-08 -0.104416005 0.027332215 0.38282 -5.448642e-13 -3.5722587e-05 -0.09518013
-2.8038646e-22 -0.12698713 -0.0047571003 0.08554701 -0.5852371 1.1170365 0.026755728 -6.4701795e-09
-0.00041166827 -1.2805775e-06 -0.22154659 -0.12949634 -0.00034389697 -9.4777403e-23 -0.12346457 0.21681236
-0.005099794 -0.15083884 -7.124423e-09 -0.08032921 0.00044869405 0.0014888219 -0.0014621199 -2.0576136e-34
-0.0039638155 -2.893896e-17 -0.11797398 -0.00066919945 -0.04740895 7.8401047e-10 -4.7368285e-20 -0.0144210765
1.3323369e-16 -0.029142475 -8.506867e-14 -0.00013740828 0.35395467 -0.21175452 -0.40340528 -2.093737e-16
0.00051688176 -4.1943324e-05 -0.70047766 -0.1458194 -0.010604009 -3.1940381e-09 -0.09149766 0.43205082
-0.32418182 -0.09180654 -0.042705633 -0.23336878 -0.29391927 0.0039017603 -0.011847215 -2.5119724e-20
-0.010802854 -2.0339189e-10 0.14386682 -0.016809247 -0.60127586 -3.691515e-07 -2.6824074e-09 -0.4635984
-0.0006907806 -0.23426831 -0.0010988239 -0.40212443 -0.11395029 0.1521861 -0.006938561 -9.511463e-07
-1.9607705e-05 -3.903508e-18 0.35161868 0.10566805 -3.1309673e-07 6.6294e-41 -0.04259797 0.0038697
-0.15784015 -0.63200694 -4.3276938e-09 -0.21300586 -0.085847 0.009160544 -0.00018604474 9.2966e-41
-7.2317317e-09 -3.3938522e-05 -0.7816275 -0.0054978193 -0.51441175 -1.2867951e-09 -1.2544421e-23 -0.21339439
-2.360517e-14 -0.59764904 -0.002263507 0.4044582 0.121143006 0.12633823 -1.0011564 -3.512467e-27
2.3822143e-14 -1.2253126e-20 -0.0001012184 6.2202776e-09 2.2003134e-14 -1.915708e-37 -1.3613325e-08 -0.00013508029
-1.4553376e-11 1.888957e-12 5.993195e-18 2.6234006e-35 -5.1288e-41 3.6755234e-13 1.4418595e-22 -1.16871e-40
-3.5406213e-18 3.2459718e-35 1.4202991e-09 -4.5985507e-11 -5.804761e-36 -5.61286e-24 1.37e-40 -3.9245077e-07
-4.0192466e-26 -6.2672874e-11 1.2826402e-19 -1.8442836e-07 -9.6607415e-08 -9.128783e-08 1.2153325e-17 -4.921191e-16
-7.02687e-06 -2.2873552e-19 -0.15067343 -0.23660703 -0.01598381 -3.6626e-41 5.133976e-06 0.22873764
-0.005044671 -0.069691695 7.203412e-15 -0.001312147 3.856711e-06 0.0007891606 0.0116083305 9.7861e-41
-0.008788256 -2.950255e-39 -0.0055877273 -0.00028172508 -4.7338177e-05 1.5442478e-31 -2.0058185e-19 -0.025583949
-0.00026442765 0.0029174811 -2.5119142e-20 -0.0018107245 -0.18170528 -0.052990153 -0.13588555 -1.1529575e-14
-1.0030062e-18 -5.2769e-41 -0.028748667 -0.0029664782 -0.016194621 -1.2016119e-23 -0.039448086 0.26336703
0.34749535 -0.38016778 -0.04605644 -0.60928863 0.26072103 -0.00034690235 -8.5985323e-07 -2.67e-42
-0.01706313 1.02618e-40 -0.005203275 -2.3807144e-07 -0.051094413 7.6606e-41 -1.7883803e-35 0.22909848
-9.706647e-10 -0.12446979 -0.0085186055 0.06893311 0.23983568 0.27521148 -0.13834515 -2.7655635e-11
-0.0005312882 -1.8838325e-06 -0.5528791 -0.27099645 -0.00021731471 -1.2118864e-14 -0.19932963 0.02020232
0.037140094 -0.23033339 -5.2407995e-05 -0.08643858 -0.009046373 -0.014477245 -0.009847808 -8.003743e-22
-0.009598417 -3.7723714e-06 -0.39809796 -0.026790509 -0.397495 9.953757e-09 -0.00051588594 -0.29174373
-0.00016396036 -0.2928498 -0.0068813516 -0.24527936 -0.1120291 -0.27471423 -0.77341497 -7.210847e-09
00000000: 6ecd 1cb5 6ebf 2aae 133c 61be 2696 0dbe
00000010: e781 62b2 9a8f 0a09 06ed e13e a17b 22bf
00000020: aaa1 29bd 01fd e93c 1ee0 de3b b0dc 2a3e
00000030: 5e0c 5cbb 06d8 e9bd b2e1 8f31 1a72 5991
00000040: 3e81 a2b7 1736 f5b2 0fd8 d5bd cfe7 df3c
00000050: fc00 c43e 9a5d 19ab d6d4 15b8 cded c2bd
00000060: b47b a99b ea08 02be 73e1 9bbb 4533 af3d
00000070: 19d2 15bf 0dfb 8e3f d42e db3c 4d50 deb1
00000080: 2ed5 d7b9 4fe0 abb5 1cdd 62be b09a 04be
00000090: 124d b4b9 5f28 e59a feda fcbd 0f04 5e3e
000000a0: 2c1c a7bb 7f75 1abe 16cb f4b1 a483 a4bd
000000b0: b23e eb39 9324 c33a 9aa4 bfba 7bc0 8887
000000c0: e5e2 81bb 1875 05a4 589c f1bd 376d 2fba
000000d0: e32f 42bd d581 5730 beb0 5f9f 6146 6cbc
000000e0: a59b 1925 33bc eebc c08e bfa9 4115 10b9
000000f0: 8c39 b53e 2dd6 58be 238b cebe 3564 71a5
00000100: 597f 073a 4dec 2fb8 8152 33bf ae51 15be
00000110: 70bc 2dbc 1d7e 5bb1 2063 bbbd c435 dd3e
00000120: 29fb a5be 1105 bcbd 1aec 2ebd 3af8 6ebe
00000130: 967c 96be adb4 7f3b d21a 42bc c43f ed9e
00000140: 74fe 30bc baa1 5faf d351 133e 8cb3 89bc
00000150: 37ed 19bf cc2f c6b4 6955 38b1 c55c edbe
00000160: 8015 35ba 08e4 6fbe 6906 90ba 41e3 cdbe
00000170: c55e e9bd acd6 1b3e de5c e3bb 4752 7fb5
00000180: 3a7b a4b7 9703 90a2 5d07 b43e 7e68 d83d
00000190: b017 a8b4 cdb8 0000 367b 2ebd cb9a 7d3b
000001a0: d9a0 21be 35cb 21bf ccb2 94b1 351e 5abe
000001b0: 8dd0 afbd 1b16 163c 0115 43b9 2703 0100
000001c0: fc7a f8b1 3659 0eb8 bd18 48bf 0d27 b4bb
000001d0: 7db0 03bf 14db b0b0 f7a4 7299 0f84 5abe
000001e0: d19d d4a8 87ff 18bf 5957 14bb 2515 cf3e
000001f0: d319 f83d cf5e 013e e525 80bf a624 8b93
00000200: 1f92 d628 7b74 679e 3745 d4b8 24ba d531
00000210: c62f c628 5760 8282 09e0 69b2 57a4 0db9
00000220: 4a03 80ad 6dec 042c 201c dd22 e17b 0b06
00000230: f88e 0080 e0e9 ce2a 644f 2e1b ca45 0180
00000240: 39a0 82a2 e195 2c06 5534 c330 143f 4aae
00000250: 40e8 f684 1323 d998 e67d 0100 06b2 d2b4
00000260: 0106 4795 b1d1 89ae 6c6d 1720 4807 46b4
00000270: 7d76 cfb3 040a c4b3 7430 6023 fbd7 0da6
00000280: 5bc8 ebb6 8905 87a0 234a 1abe 1d49 72be
00000290: 7bf0 82bc 1966 0080 8544 ac36 333a 6a3e
000002a0: c44d a5bb 85ba 8ebd e0c3 0128 59fc abba
000002b0: e568 8136 acdf 4e3a de30 3e3c cc10 0100
000002c0: 9efc 0fbc 1c20 2080 4119 b7bb 80b4 93b9
000002d0: fb8c 46b8 6f74 480c 25ce 6ca0 6e95 d1bc
000002e0: e1a2 8ab9 3633 3f3b 5c3e ed9e d555 edba
000002f0: f310 3abe 340c 59bd 9525 0bbe c8b2 4fa8
00000300: 8104 94a1 1993 0080 5382 ebbc 3f69 42bb
00000310: 95aa 84bc f06c 6899 5194 21bd 0bd8 863e
00000320: e9ea b13e 5aa5 c2be ada5 3cbd 57fa 1bbf
00000330: 3a7d 853e 72e0 b5b9 aad0 66b5 7107 0080
00000340: fac7 8bbc 0f1e 0100 3c80 aabb 94a0 7fb4
00000350: 6048 51bd 8cd5 0000 582c be85 cb98 6a3e
00000360: 3a68 85b0 04ea febd 9f91 0bbc cd2c 8d3d
00000370: 7c97 753e 85e8 8c3e 5aaa 0dbe f442 f3ad
00000380: 2646 0bba fed7 fcb5 7c89 0dbf 0cc0 8abe
00000390: f9de 63b9 6550 5aa8 111d 4cbe 567f a53c
000003a0: 3620 183d 84dc 6bbe a8d0 5bb8 b606 b1bd
000003b0: 3d37 14bc f731 6dbc b358 21bc f6e5 719c
000003c0: ae42 1dbc d928 7db6 7fd3 cbbe c577 dbbc
000003d0: 7784 cbbe 1601 2b32 853c 07ba 6f5f 95be
000003e0: c6ec 2bb9 69f0 95be f67c e1bb 832a 7bbe
000003f0: 836f e5bd 58a7 8cbe 86fe 45bf 48c3 f7b1

weight f4 [32, 128]
1.1689443e-18 7.3491004e-20 9.478722e-19 -8.1034575e-18 -9.561e-41 -2.841279e-20 8.3541e-41 -1.1192077e-19
-1.8843994e-25 3.7557883e-26 -5.594669e-17 2.0724e-41 6.6791542e-18 1.594928e-19 -6.967453e-18 3.1959257e-20
-3.3675063e-19 5.9811957e-20 1.3057e-40 -2.7545801e-21 -4.3519e-41 2.355752e-18 2.1809603e-17 -7.0181e-41
-1.3909721e-18 -9.73e-41 2.783967e-24 7.2434446e-17 -1.0215496e-20 -2.468517e-18 -7.1765e-41 -1.5100867e-18
4.2532004e-19 -3.9395826e-19 -6.6942734e-19 1.9840083e-17 1.3654661e-37 -1.8837681e-19 2.9237e-41 1.3814638e-18
9.6227604e-24 1.8545917e-26 3.3407817e-17 -5.6422e-41 1.8606296e-17 1.2717014e-18 9.8184635e-18 -6.1863726e-19
8.34092e-20 -2.8637264e-20 1.4949568e-38 3.6690814e-19 1.8472635e-32 4.5006e-19 -7.34201e-18 4.4931e-41
-6.594178e-19 -3.2472e-41 5.1647936e-25 -1.8724157e-15 -1.2021808e-18 -3.6817887e-19 -4.3414e-41 7.4655997e-19
-1.2846483e-17 -1.7339445e-19 9.731772e-18 -3.0269847e-18 -6.372916e-19 3.065341e-19 -3.748901e-18 5.5165812e-18
-1.8151387e-18 -2.7447683e-19 -1.5153634e-17 8.654326e-19 5.9306265e-18 -6.677899e-18 7.787225e-18 4.792774e-17
-1.4343633e-17 -1.3455825e-18 -3.3444962e-18 -2.480017e-18 6.8567483e-18 3.607752e-17 -9.7943e-19 7.024868e-18
-4.525552e-19 1.0498043e-17 -3.0951297e-18 -1.1497295e-18 -1.1095962e-17 5.479034e-18 2.846642e-17 1.2382013e-18
1.4028905e-17 -2.4923662e-17 -6.464648e-18 1.0157468e-17 2.0678993e-17 4.618275e-18 3.2676275e-17 -1.392402e-17
-7.041739e-19 -4.269613e-18 1.4391619e-17 2.1797205e-17 3.0465982e-17 2.4781676e-17 -8.554113e-18 -4.5922474e-17
-4.62867e-18 -1.5344797e-19 -6.193842e-17 5.012296e-18 -9.154075e-19 -8.338448e-18 -1.5703231e-17 2.1501731e-17
-2.5124188e-17 -3.0188645e-17 2.4556176e-18 2.8778616e-18 1.4451927e-17 -1.403194e-17 1.641651e-17 -2.5248576e-18
-1.4723386e-12 -1.449809e-14 -8.3000325e-12 -9.929946e-09 2.636e-41 -1.4551065e-11 -8.905308e-17 -7.662096e-09
-6.1015083e-25 2.7052999e-14 -0.0009345563 9.6566e-41 -3.2446539e-09 -2.2398503e-11 -1.182871e-13 -1.3428814e-09
3.816158e-12 -6.0528658e-09 -1.014099e-16 -5.920602e-10 1.3274237e-29 -2.419456e-13 -6.449978e-11 -5.1669366e-36
-2.4331406e-08 1.45533e-40 -6.2254967e-30 0.008230833 -1.4719526e-10 -1.9380684e-13 -0.0002709622 -1.3300969e-17
6.587668e-13 -7.738316e-09 1.9693575e-08 -1.6146258e-08 -4.0443393e-37 2.910421e-13 1.6992e-41 -4.6964007e-07
-6.8496384e-20 3.7911267e-12 3.6566803e-08 1.27074e-40 -3.72751e-06 4.5970346e-12 5.96778e-12 -4.2846255e-09
-2.2670204e-11 -1.8863085e-10 5.1519993e-14 -8.0026744e-08 -1.5422362e-28 2.5480212e-13 -3.451848e-11 -2.7158956e-28
-1.4428615e-06 3.115e-41 -1.7856583e-19 -0.00031101386 -6.944919e-07 -2.027503e-13 -1.2523182e-13 -4.801901e-14
-5.2909886e-08 1.4075035e-08 -2.385908e-07 -1.6593894e-08 -1.6507301e-09 -1.3917976e-08 -1.1083324e-06 -9.791731e-09
-9.218268e-09 -7.894653e-09 2.5263173e-08 1.2996958e-08 -7.437493e-09 -1.1347986e-08 3.6225076e-10 5.1212326e-05
6.775387e-08 -7.2888584e-09 4.6810658e-07 -9.101989e-09 1.4072929e-06 4.447637e-06 9.644474e-09 -6.2256107e-09
-3.0187324e-09 2.4247317e-09 7.624574e-09 -8.714087e-09 -3.1147163e-09 9.103875e-09 -5.2082716e-05 -4.683936e-08
-5.100308e-09 -5.5880456e-09 -3.1523967e-05 7.216769e-11 9.533429e-09 -2.8032093e-10 -6.344978e-05 1.8425111e-09
1.3655092e-09 6.0886807e-10 1.0654118e-08 -1.0651431e-09 9.333988e-10 5.9742193e-09 2.344712e-09 0.00046388523
2.3697426e-07 1.2560988e-09 9.797678e-05 3.508078e-09 4.227263e-06 -5.5125697e-06 2.2535547e-09 9.167208e-10
-1.05930145e-08 3.344558e-08 -1.1453224e-09 -9.0329033e-10 1.9845003e-09 1.6160373e-09 -0.00020938877 1.3837771e-06
00000000: 7881 ac21 9686 ad1f 99e1 8b21 7f7b 15a3
00000010: 860a 0180 f52c 069f e1e8 0000 fa21 04a0
00000020: 0047 6996 46fa 3915 1901 81a4 c539 0000
00000030: d46a f622 be4b 3c20 de86 00a3 5fec 161f
00000040: 51c8 c6a0 1c3a 8d1f fa6b 0100 5421 509d
00000050: 5079 0080 e6d2 2d22 7828 c923 a3c3 0080
00000060: 7145 cda1 3c0f 0180 2666 5718 c005 a724
00000070: 1cf7 409e f824 36a2 0dc8 0080 76d9 dea1
00000080: 8c10 fb20 4a8d e8a0 8094 45a1 12fe b623
00000090: 8ddb 3902 6665 5ea0 8051 0000 3ade cb21
000000a0: 9a21 3a19 7cab b714 fd10 1a24 489d 0080
000000b0: e09c ab23 85ab bb21 621e 3523 e996 36a1
000000c0: c5f1 c41f 543c 079f 50c9 a200 9795 d820
000000d0: b0d4 bf0a 92d5 0421 a96f 07a3 407d 0000
000000e0: 33a0 42a1 855a 0080 b6d7 1f17 f9eb 06a7
000000f0: 1b69 b1a1 9e55 d9a0 0579 0080 7a58 5c21
00000100: cdf9 6ca3 42b5 4ca0 fe84 3323 205a 5fa2
00000110: 6418 3ca1 20f2 b420 5e4f 8aa2 a386 cb22
00000120: 00ef 05a2 c405 a2a0 82c4 8ba3 3d6e 7f21
00000130: 2fcd da22 f95e f6a2 21a6 0f23 1707 5d24
00000140: f24b 84a3 ab92 c6a1 bfc7 76a2 32fe 36a2
00000150: 28f8 fc22 d160 2624 d289 90a1 0096 0123
00000160: 1b92 05a1 9ba7 4123 5961 64a2 8dab a9a1
00000170: 33af 4ca3 0324 ca22 3847 0324 ecb9 b621
00000180: d164 8123 55e1 e5a3 e080 eea2 495f 3b23
00000190: e4ba be23 6062 aa22 56b1 1624 2a6d 80a3
000001a0: e0d5 4fa1 5b85 9da2 40bd 8423 320b c923
000001b0: e27f 0c24 1492 e423 a8cb 1da3 b0c7 53a4
000001c0: 8dc4 aaa2 ce28 35a0 fdd1 8ea4 cceb b822
000001d0: 1e17 87a1 35d1 19a3 35d6 90a3 8751 c623
000001e0: d0ba e7a3 7638 0ba4 4e31 3522 4559 5422
000001f0: a64b 8523 fb6b 81a3 636a 9723 364d 3aa2
00000200: 9736 cfab 5296 82a8 0604 12ad 5d98 2ab2
00000210: 7b49 0000 2cfc 7fad a957 cda4 41a2 03b2
00000220: 21d5 3c97 f8ab f328 03fd 74ba 300d 0100
00000230: 8ef8 5eb1 f204 c5ad ef2d 05aa 7090 b8b0
00000240: e544 862c 92f9 cfb1 d7d5 e9a4 88be 22b0
00000250: e49d 860f 0934 88aa 26d6 8dae f5c6 db84
00000260: 5401 d1b2 b095 0100 4189 fc8e 9eda 063c
00000270: c8d7 21af 0535 5aaa ee0f 8eb9 0d5c 75a3
00000280: 276d 392b 79f1 04b2 a12a a932 ffb1 8ab2
00000290: 2a9f 0983 96d7 a32a 5e2f 0000 d722 fcb4
000002a0: 86bb a19f 6f63 852c a00d 1d33 3b62 0100
000002b0: 2226 7ab6 68be a12c fcf8 d12c f737 93b1
000002c0: c368 c7ad dd66 4faf 8206 6829 2bdb abb3
000002d0: 6d80 4391 db70 8f2a 5ad0 17ae ed23 ac91
000002e0: 58a8 c1b5 d556 0000 36d0 52a0 930f a3b9
000002f0: 1f6d 3ab5 cc46 64aa 9dff 0caa 2642 58a9
00000300: 093f 63b3 a9ce 7132 ab17 80b4 5c8a 8eb2
00000310: e7df e2b0 e81b 6fb2 03c2 94b5 7d38 28b2
00000320: 5f5e 1eb2 0da1 07b2 4e02 d932 3a49 5f32
00000330: e18c ffb1 f8f4 42b2 4326 c72f d1cc 5638
00000340: 1580 9133 7a71 fab1 1450 fb34 f95e 1cb2
00000350: 37e2 bc35 e93c 9536 d8b0 2532 0de9 d5b1
00000360: 1a72 4fb1 55a0 2631 3bfd 0232 f6b4 15b2
00000370: ab0a 56b1 4467 1c32 6473 5ab8 6c2c 49b3
00000380: c93e afb1 f800 c0b1 9a38 04b8 ccb2 9e2e
00000390: 77c8 2332 aa1b 9aaf 5710 85b8 993b fd30
000003a0: 95ac bb30 485d 2730 4e09 3732 6464 92b0
000003b0: 0d49 8030 ca45 cd31 9c20 2131 9f35 f339
000003c0: fd72 7e34 0ca3 ac30 e278 cd38 c312 7131
000003d0: ead7 8d36 9df8 b8b6 f4dc 1a31 7efc 7b30
000003e0: 92fc 35b2 cea5 0f33 7369 9db0 684b 78b0
000003f0: b35f 0831 421b de30 5f8f 5bb9 38ba b935

bias f4 [32]
-6.3161092e-18 -0.00018660954 -0.06004273 -0.00038110086 -0.030715575 -6.20109e-13 1.0633458 -4.3406235e-16
-0.0764328 0.11450158 -0.007920112 -0.1739186 -1.5409873e-05 -4.395803e-31 -0.009868519 0.45309535
-0.20500372 -3.136312e-05 -0.000991972 -2.1173807e-09 -2.1431632e-15 -5.1063473e-11 -0.00022628439 0.13205819
-0.0032258118 -0.05772262 -0.064913034 -3.2482822e-13 -2.878248e-18 -2.0066336e-06 0.05168604 0.02741507
00000000: f705 e9a2 9eac 43b9 5eef 75bd 7ece c7b9
00000010: 3b9f fbbc 908b 2eab b71b 883f 4c38 faa5
00000020: cd88 9cbd ce7f ea3d 5cc3 01bc b817 32be
00000030: 7344 81b7 e7a6 0e8d 92af 21bc 1dfc e73e
00000040: 7fec 51be e58b 03b8 0f05 82ba 5b81 11b1
00000050: 626e 1aa7 5c94 60ae c146 6db9 433a 073e
00000060: 2468 53bb 8e6e 6cbd 20f1 84bd aedc b6aa
00000070: 9160 54a2 b4a9 06b6 beb4 533d 9295 e03c

weight f4 [1, 32]
-0.0005779722 -0.025292566 0.07863182 0.060660493 0.036505766 -0.013738895 -1.5193509 -2.403379e-08
-0.07847951 -0.3808652 -0.17178477 -0.15627412 -0.033365402 -3.8145225e-19 -0.1865855 -0.74196744
0.37275395 0.001218509 0.005737733 0.016687518 -1.8562636e-09 0.0006797246 0.061907057 -0.44117454
-0.037155304 -0.011415074 0.064459294 -0.0010056422 0.012284624 0.005505917 0.53716904 -0.06460967
00000000: 0f83 17ba 5b32 cfbc b809 a13d 2377 783d
00000010: 1287 153d 1a19 61bc 177a c2bf dd72 ceb2
00000020: deb9 a0bd c300 c3be 59e8 2fbe 5306 20be
00000030: 29aa 08bd 6f2b e1a0 4510 3fbe 94f1 3dbf
00000040: 9bd9 be3e 61b6 9f3a 9803 bc3b 43b4 883c
00000050: 781f ffb0 8c2f 323a 4192 7d3d a1e1 e1be
00000060: 2930 18bd 4a06 3bbc 3c03 843d c1cf 83ba
00000070: 7345 493c fb6a b43b e983 093f 1352 84bd
