experiments/grail_wn_v2_ind/graph_classifier_chk.pth (torch, 102286 bytes, 21 tensors)

weight f4 [10, 32]
000000 19 07 a3 be 76 3b 0a bf a2 13 1f 3f 61 15 7a be
       -0.31841353 -0.5399698 0.6213933 -0.24422218
000010 92 11 ef be 5b 81 d6 3e ba 7a 2d 3f f2 fa c7 3e
       -0.46693093 0.41895565 0.6776539 0.39058644
000020 87 9a 0f be 41 38 8a 3d be 0b 93 be 71 19 bc be
       -0.14023791 0.06749011 -0.28719896 -0.3673816
000030 10 73 25 3f fd b6 4f bf 90 0a 28 3f 49 3d 88 bf
       0.64628696 -0.8113859 0.6564112 -1.0643703
000040 a6 64 f9 3d 2f ea d1 3c 22 f3 a1 bf f3 b9 24 3f
       0.121774 0.025624363 -1.2652323 0.64346236
000050 fc e4 93 bd 6c b2 8c 3e de d8 00 bf 87 e7 17 3f
       -0.0722141 0.27479875 -0.50330913 0.5933766
000060 a0 78 25 3f 03 fb 42 bf ac d5 81 3d 40 4a db bd
       0.64637184 -0.76164263 0.06339583 -0.107075214
000070 7e 29 e2 3e 12 e8 1a bf eb 5c 3d 3f 6c 35 3c be
       0.4417228 -0.6051036 0.73969907 -0.18379754
000080 43 d9 66 bf 46 da 49 bf 6f b7 9b be 7b 59 59 3e
       -0.90175265 -0.78848684 -0.30413386 0.2122554
000090 c3 fa 66 be c7 7d 1d 3f e7 97 bf be 6d 06 02 3f
       -0.22556596 0.61520046 -0.3742058 0.50791055
0000a0 04 e5 d6 3e 6c a1 c1 3e 8e 46 12 bf a7 70 2d bf
       0.419716 0.37818468 -0.5713891 -0.6775002
0000b0 3d 9c 04 3f 1a de d1 be f9 c2 d2 3d 9a d7 f9 3e
       0.518009 -0.40989763 0.10291094 0.48797303
0000c0 d3 67 32 3f cc 59 d4 3e 19 17 1e be df c1 17 3f
       0.69689673 0.4147476 -0.15438499 0.592802
0000d0 78 ae 58 3f b8 ee ec be c7 ad 1e bf f4 34 e6 3e
       0.8464122 -0.46275878 -0.61983913 0.44962275
0000e0 ac bb c2 3e 72 b7 71 be 3f e9 a7 be 66 58 c3 3e
       0.38033807 -0.23605135 -0.3279514 0.3815338
0000f0 f4 65 67 3e fb 54 0f bf 70 32 78 bf c9 c6 a5 3e
       0.22597486 -0.55989045 -0.9695196 0.32378224
000100 5e d2 f0 be 21 f7 7e bd 2d b6 d0 be 5a ee 92 3e
       -0.47035497 -0.0622474 -0.4076399 0.28697473
000110 06 54 4a bd f5 93 bf 39 9b 6a fa be 07 e8 12 3e
       -0.049396537 0.00036540595 -0.4890946 0.14346324
000120 c6 40 8e 3e 35 db 35 3e 90 41 0d bf b4 3b 19 bd
       0.27783793 0.17759402 -0.55178165 -0.037410453
000130 c0 09 32 bd ad d2 8f 3e cd b5 bd bd 7f 17 95 3f
       -0.04346633 0.2809042 -0.09263191 1.1647795
000140 fd 61 06 3f d5 52 83 3e 13 28 50 3e f9 48 0d 3e
       0.5249327 0.25649133 0.20327787 0.13797368
000150 ea 37 16 3f 15 77 6e bf f9 9c fe 3a 7d 2b 92 bd
       0.5867907 -0.93150455 0.0019425444 -0.07137201
000160 4c 40 2d bd 5e 79 2f 3e ad 91 80 be 32 ba 77 3e
       -0.042297646 0.17136142 -0.25111142 0.24192122
000170 60 20 fa 3d 01 e2 55 be 18 42 33 bf eb e3 ef 3d
       0.12213206 -0.20886995 -0.70022726 0.11713394
000180 c2 ea 61 be e4 ca d6 3e bb 3b 08 bf 0c db a1 3e
       -0.22062209 0.41951668 -0.5321614 0.31612432
000190 a6 c6 d8 3e b1 46 86 be ec d4 fa be d3 f2 16 be
       0.42339057 -0.26225808 -0.48990571 -0.14741068
0001a0 17 a7 8d 3e 22 d1 33 bd 47 13 3b bd 1e d3 b3 3e
       0.27666542 -0.043900616 -0.04567268 0.35122007
0001b0 a6 0f 03 bf e8 49 cf 3e 23 0f 38 bf 6d 67 28 3f
       -0.5119575 0.40486073 -0.71898097 0.65782815
0001c0 d9 6a 7d 3e 62 1b 63 3e 8e 53 14 3f 11 6a 92 be
       0.2474779 0.22178414 0.57939994 -0.28596547
0001d0 df ce 9e 3e 6c ea aa be d8 99 d2 3e 6b e5 18 bf
       0.31017205 -0.33381975 0.41132998 -0.59725064
0001e0 85 9a ef be 3e ea 1c 3f 3a 57 97 be 35 a1 ca 3e
       -0.46797577 0.61294925 -0.29558736 0.39576116
0001f0 ac b1 99 be b4 01 00 3e ee e7 e5 be f3 2c e4 3e
       -0.30018365 0.1250065 -0.4490351 0.44565544
000200 5f 55 06 3c 01 7d a0 bd 4f db 22 3e 8e f1 a5 bd
       0.008199065 -0.078363426 0.15903972 -0.081027135
000210 43 94 2d bd 5d f1 44 3c cf c5 4d 3e b2 d1 2f 3c
       -0.04237772 0.012020436 0.20094989 0.010731148
000220 85 a3 b8 bd c5 67 1b 3d f2 b4 47 3c ff 35 9e bc
       -0.09015564 0.03794076 0.012189137 -0.019312857
000230 f2 81 01 3e 3c 5a 85 bd 2e 4a ef 3d 4c 91 d3 be
       0.12647226 -0.065113515 0.116840705 -0.4132179
000240 08 52 2b bd 74 30 83 bb 71 69 21 be c0 fb b4 3d
       -0.041826278 -0.004003579 -0.15762879 0.0883708
000250 be ad 04 be 74 28 69 3e 31 f1 cd bd bd 5c 05 3e
       -0.12956902 0.22769338 -0.10055769 0.13023658
000260 7a b4 94 3d b0 88 0a be 28 b4 70 3d 32 f4 9c bd
       0.07260986 -0.13528705 0.05876556 -0.07663764
000270 bd 2d 1e 3d bd 04 8c bd 44 ca 98 3e 8f e3 8d bd
       0.03861784 -0.06836841 0.29841816 -0.06928169
000280 81 6d a8 3e 13 e9 9e 3e e3 8b ae 3e 51 16 37 be
       0.32896045 0.31037197 0.340911 -0.17879607
000290 19 72 b3 be 96 42 ad 3d f5 fc 92 3e 93 eb 3c 3e
       -0.35047987 0.08459966 0.28708616 0.1844924
0002a0 3e 2a 26 be 6c 9c fe bd a4 75 ab 3e 2a ae df 3b
       -0.16227052 -0.12432179 0.3348819 0.006826182
0002b0 fa d0 ed be c0 b4 a2 be 8a 56 11 3b 54 de 9f be
       -0.464485 -0.31778526 0.0022176825 -0.3122431
0002c0 6e c4 a4 be d1 15 45 bd e6 15 17 be c8 b7 99 be
       -0.32181114 -0.04811651 -0.14754447 -0.30023026
0002d0 11 36 0f bf ff a8 a5 3e 2c 4e e0 3e fd c7 ea be
       -0.55941874 0.32355496 0.4380964 -0.45855704
0002e0 60 e8 2a 3e 59 0b d5 3e 9b 62 0c 3e 66 44 ea bd
       0.16690207 0.4161022 0.1370949 -0.11438827
0002f0 76 a2 54 3e df 71 66 3e c8 d5 06 3f 2c b8 bb be
       0.20765099 0.22504376 0.52669954 -0.3666395
000300 b8 44 72 3e e5 0d 98 bd 21 c7 1c 3f 9f f2 eb be
       0.23659027 -0.07424525 0.61241347 -0.46083543
000310 dc b1 fe bc 3c 90 a2 3d 3e a2 05 3f df aa 01 be
       -0.03109067 0.07937667 0.52200687 -0.12662838
000320 24 11 e5 be 47 e8 52 be 58 03 54 3e da bb bd bc
       -0.4473964 -0.2059642 0.207044 -0.023160864
000330 74 61 08 3e bb e2 0f bf 87 26 c4 3e c5 75 89 be
       0.13318425 -0.5620534 0.38310644 -0.26847664
000340 c2 b2 92 be 97 db 85 be a8 57 40 bf f5 84 8c 3c
       -0.28652006 -0.26144096 -0.7513375 0.017153243
000350 cc fb 97 be 13 31 7e 3e 6a 93 cd bc df f2 41 3e
       -0.29684293 0.24823408 -0.025094707 0.18940304
000360 63 21 e0 3e bc a2 16 be c9 97 cb 3e 31 05 f0 be
       0.43775472 -0.14710516 0.3976424 -0.4687896
000370 4a 0f 37 bc 87 e6 8c 3d 47 aa a8 3e 07 10 e9 be
       -0.011173079 0.06879907 0.3294241 -0.4552004
000380 01 a5 bb be d8 bb f0 bd c8 f5 bd be d1 b5 bd 3e
       -0.36649325 -0.11754578 -0.3710158 0.37052777
000390 79 37 ec 3c 30 04 9c 3b 2a 79 05 bf c2 60 85 3d
       0.028835045 0.0047612414 -0.52138007 0.06512596
0003a0 4a 97 ec 3e d9 ee ba 3e 5f be f5 be 2f 7d 0f bd
       0.46209174 0.3651035 -0.47996804 -0.035031494
0003b0 04 0b 1a 3e d0 95 45 3e c2 4d 8a 3d 80 ed 2e 3f
       0.15043265 0.1929543 0.067531124 0.68331146
0003c0 00 c2 eb 3e a1 31 87 3e d0 e3 77 3e bd 1e 21 3e
       0.46046448 0.2640505 0.24207997 0.15734382
0003d0 4b 8c 20 3f ec 34 17 bf 78 4b 65 be 11 db 0a 3e
       0.6271407 -0.5906513 -0.2239207 0.1356013
0003e0 75 aa b9 bd 3f e4 85 be 24 eb b1 be 5f 36 a3 3e
       -0.09065715 -0.261507 -0.3474971 0.3187742
0003f0 90 75 98 bd ee c6 5e be a5 08 39 bf 5d 8e 67 3e
       -0.07444298 -0.21755573 -0.72278816 0.22612901

weight f4 [4, 8, 32]
000000 47 01 79 be 13 57 ac 3b c7 1c 83 3e 2b 4d d0 be
       -0.24316894 0.0052594035 0.25607893 -0.40683874
000010 da ad cd b7 8c ff ad 3d 44 51 27 bf d6 bc 89 be
       -2.451886e-05 0.08496007 -0.65358377 -0.26901883
000020 50 36 34 3d 7a 50 f2 bc c5 41 dd bc 1d 9a 43 3c
       0.04399711 -0.02957939 -0.0270089 0.011938599
000030 9d da 39 3f f1 28 26 be ee 1d 3c 3e d6 0c c3 bd
       0.725992 -0.16226555 0.18370792 -0.09523933
000040 6b 10 bb 3e da 2c a1 3e 99 18 a5 3d 8a 9a 46 bd
       0.36535963 0.31479532 0.08061332 -0.048487224
000050 52 e0 2e bc ed 77 ec bd c7 49 9c be 39 42 10 3a
       -0.010673599 -0.115463115 -0.30525038 0.0005503032
000060 f3 05 88 3f ae 6f 2c 3a 21 0b f7 bd 48 86 05 3f
       1.0626816 0.0006577921 -0.120626695 0.5215802
000070 dc c9 9c be e5 5a 1c 3c 18 c6 83 be c8 a0 04 3c
       -0.30622756 0.009543155 -0.2573707 0.008094974
000080 86 2e b6 3e 85 a8 2d 3f b3 24 53 3e 92 e3 1c bf
       0.3558237 0.67835265 0.20619468 -0.61284745
000090 19 ab 3d b8 bd 7d a4 3e 97 bb 13 be be e1 16 3f
       -4.522046e-05 0.3212718 -0.14427029 0.58938205
0000a0 1e b1 3c 3f 25 40 68 be e8 34 09 3d bb 9d 8b bb
       0.7370776 -0.22680719 0.03349772 -0.0042607463
0000b0 d6 76 e2 be 83 5c 8a 3e da 61 6f be eb 1a 84 3f
       -0.4423129 0.27023706 -0.23377171 1.0320715
0000c0 98 3f b4 3e 81 2c aa 3f 09 1e a4 3c dc 06 60 3f
       0.35204768 1.3294832 0.020033853 0.87510467
0000d0 04 e7 6e 3d d4 2b 1b 3f 05 06 e8 3d a0 2e bf 3c
       0.058325782 0.6061375 0.11329273 0.023337662
0000e0 d2 46 04 be 73 55 c7 3b 09 11 25 3f d7 08 14 bf
       -0.12917641 0.0060831844 0.6447912 -0.5782599
0000f0 30 1c 88 3f cf 27 ad 3e 64 27 28 be ad 25 b3 3d
       1.0633602 0.33819434 -0.16421276 0.087474205
000100 38 5e 60 3d e3 05 7e ba c4 81 18 3d 96 46 16 bf
       0.054777354 -0.0009690208 0.03723313 -0.58701456
000110 a7 2f 61 82 b7 a4 36 bb 38 68 a1 bd d5 61 f4 bd
       -1.6544065e-37 -0.0027869174 -0.07881206 -0.119327225
000120 78 f6 39 3e 99 49 83 be 51 5a be 3d a8 94 cc b4
       0.18160427 -0.25642088 0.0929457 -3.8106123e-07
000130 b1 8c c6 3e 05 23 b3 3d 4c 14 b1 3e a1 de 71 3e
       0.38779214 0.08746914 0.34585798 0.23620082
000140 3e d1 59 3d ea ef 4f 3e e7 1d 1f bb 2d b3 ae 3e
       0.053178065 0.20306364 -0.0024279298 0.34121075
000150 71 52 14 bb 23 28 91 bd b6 b6 0a bd b6 2f 44 b1
       -0.0022632147 -0.070877336 -0.033865653 -2.8548874e-09
000160 76 0d 7e 3e 3c 5a 83 93 b1 9e 11 3e ce 8f 26 be
       0.24809822 -3.3158027e-27 0.14220692 -0.16265795
000170 d5 92 11 3e 1f 65 47 b9 26 36 8f 39 dd 23 70 3d
       0.14216168 -0.0001901579 0.0002731543 0.058627952
000180 2d 75 13 3e ec 0b ae 29 1d 77 34 be a7 e7 81 3b
       0.14400168 7.7292204e-14 -0.17623563 0.0039643827
000190 9f c3 00 80 9d 44 7e bd 41 2b 01 80 ef b8 91 3c
       -7.0176e-41 -0.062077153 -1.07352e-40 0.017788379
0001a0 20 37 47 a8 6b 1a cc 3d 7a 98 00 80 54 4e 00 00
       -1.10586724e-14 0.09965976 -5.4698e-41 2.8099e-41
0001b0 e1 01 6d be 36 1c 09 28 84 61 c4 3d 59 6a 2a be
       -0.23145248 7.611145e-15 0.09588912 -0.16642131
0001c0 7e b1 1c be 01 37 a7 bd b2 f3 7e 27 0f cc 82 bd
       -0.15302083 -0.08164788 3.5381689e-15 -0.06386577
0001d0 d4 e9 00 80 92 13 00 00 62 f9 00 80 22 56 c7 10
       -8.3882e-41 7.02e-42 -8.9462e-41 7.862437e-29
0001e0 a6 25 53 be e0 c4 00 80 de d6 7b 8d d2 48 01 00
       -0.2061983 -7.0625e-41 -7.7603984e-31 1.17959e-40
0001f0 4a c9 23 3c 47 94 00 00 a6 cd 00 00 37 d0 ca 27
       0.0099967215 5.3192e-41 7.3773e-41 5.629201e-15
000200 2b 75 2d 3d 1c 19 21 3f 5c a4 b1 bc 1c b0 60 be
       0.04234807 0.6292894 -0.021684818 -0.2194218
000210 4d ab 99 ab bb 7a a2 3e ce 4a c5 bc 5f b3 89 3e
       -1.0918849e-12 0.3173426 -0.024083521 0.26894662
000220 b7 9c 99 3e 79 5d b9 b8 44 82 12 be 94 ca d9 1d
       0.30002376 -8.838898e-05 -0.14307505 5.7648883e-21
000230 a6 5e 09 bf f6 ff a5 bb 05 08 65 3d bf af 99 3f
       -0.5366005 -0.0050659133 0.05591585 1.2006758
000240 14 82 69 3e 0b 64 4e 3f 90 b3 a4 3c ee a6 f4 3e
       0.22803527 0.80621403 0.020105153 0.47783607
000250 0c 59 9f 3d 84 a5 70 3d ca 03 41 3e 76 ef 78 39
       0.07780656 0.058751598 0.18849102 0.00023740329
000260 da 52 41 be b7 fd 04 37 c6 a2 04 3f 54 02 c2 be
       -0.18879262 7.926886e-06 0.5181087 -0.378924
000270 d1 0b c7 3e 4f 51 e4 3d a9 fd ee 38 62 b4 83 3c
       0.38876203 0.11148321 0.00011395972 0.016077224
000280 0d 35 33 3d 63 4b 3d bd 23 87 c9 3e 94 a9 48 bf
       0.043751765 -0.046214473 0.39360914 -0.78383756
000290 80 77 36 b9 41 2f b6 3d 65 b9 3d bf da 1a f7 3d
       -0.0001740139 0.08895732 -0.74111015 0.120656684
0002a0 d8 78 f2 3e ec 8d 62 bd 59 9e e9 bb 26 94 97 3c
       0.4735782 -0.05531113 -0.007129472 0.01850326
0002b0 ba 21 14 3f 9a c4 3c 3e 89 8c ce 3d af bc 7b bc
       0.5786396 0.18434373 0.10085399 -0.01536481
0002c0 28 70 74 3e 0a c4 99 bc 0d 6f 9b 3c 60 5f 61 3e
       0.23870909 -0.018770237 0.018973852 0.22009039
0002d0 5d ee 4e bd 15 a6 b2 be c3 3d 10 bf 23 eb 30 ba
       -0.05052029 -0.34892336 -0.5634424 -0.0006748905
0002e0 4f a8 16 3f 65 14 44 bb 25 38 50 3e bb 47 3f 3e
       0.5885057 -0.0029919383 0.20333917 0.18679707
0002f0 56 b5 b5 3e a0 86 b7 bd b8 4f cb be 7c f6 12 be
       0.3548991 -0.089612246 -0.39709258 -0.14351839
000300 8b b8 35 bd de f2 5f 3e 95 4a 79 3e 93 73 cf 3e
       -0.044365447 0.2186999 0.24344857 0.40517864
000310 90 78 75 b6 e6 0b d1 3d 7f 7c 3f bc 8b 1b 8b 3d
       -3.6578022e-06 0.102073476 -0.011687397 0.06792363
000320 cf f1 53 3a 41 48 c1 be c8 01 9d 3e df 1d 55 bb
       0.00080850435 -0.37750438 0.3066542 -0.0032519025
000330 5a 80 99 3f 35 b7 29 3c 9e 54 e7 3d d5 c4 93 3e
       1.1992295 0.010358621 0.11295436 0.28861108
000340 90 50 0d 3f 44 d6 74 3f 6b 3c 1b 3b 76 f8 00 3f
       0.55201054 0.95639443 0.0023687135 0.5037912
000350 a2 3e a5 bc 3b 8a 34 3f 6c 61 be 3e bd eb 96 3c
       -0.020171467 0.7052342 0.37183702 0.018422956
000360 9b c3 e3 3e 66 f1 26 39 ba 80 bf bb 7c cb 7c 3f
       0.44485173 0.00015920922 -0.005844203 0.9874799
000370 a4 0f 7f 3e 6e 65 d1 3e 12 50 94 bc 9a ae de 3e
       0.2490831 0.40897697 -0.018104587 0.43492585
000380 5b e4 19 3d 57 ec 21 b7 95 02 77 3d ad 19 e0 bd
       0.037571292 -9.651375e-06 0.060305197 -0.10942397
000390 09 84 00 00 0e 17 88 36 be cb 00 3a e8 93 4a 3b
       4.7365e-41 4.0557998e-06 0.00049131725 0.0030910913
0003a0 60 33 d4 b4 c7 0e d5 2c 8a 2f d0 3d 1c 13 55 1b
       -3.9525457e-07 6.0554647e-12 0.10165317 1.7625122e-22
0003b0 4b f2 77 be 78 a3 7e 3c 10 14 46 be 3c 84 ea 3b
       -0.24213521 0.015541904 -0.1934359 0.007156877
0003c0 37 a8 1e bd ad 52 60 b3 9d 74 b4 b1 61 65 1c 3c
       -0.03873464 -5.2229257e-08 -5.251947e-09 0.009545655
0003d0 dd 20 00 80 07 be de 37 78 80 70 3e cc 69 54 a2
       -1.1789e-41 2.655295e-05 0.23486507 -2.8787366e-18
0003e0 ed 24 bf 3c 71 06 83 9e df f9 a4 2d e1 9a 39 3e
       0.023333037 -1.3872829e-20 1.8755606e-11 0.18125488
0003f0 70 e7 30 3d 10 6d 83 b4 09 01 74 36 b1 9a 29 bb
       0.043189466 -2.4480005e-07 3.6359436e-06 -0.0025879557

w_comp f4 [10, 4]
000000 27 7a 4d 3e fa 23 2e 3e ea 87 f2 bd a8 72 14 3f
       0.20066129 0.17005911 -0.1184233 0.5798745
000010 e0 7d f8 be e7 ea dd be 9b ed 7d 3e 1f 62 ef 3e
       -0.48533535 -0.4334328 0.2479767 0.46754548
000020 a4 e4 ae be 22 3b 3e bf 8a d6 10 3d ea 28 9f bf
       -0.34158814 -0.7430898 0.03536085 -1.2434361
000030 9b 98 1d 3f 94 cb 06 bf cd a2 a0 3d 4a d1 c8 be
       0.6156098 -0.52654386 0.07843552 -0.39222175
000040 be 46 d8 bd 68 cb f5 3d bf 56 90 3e 72 c8 9b bc
       -0.10560368 0.12001687 0.28191182 -0.019016478
000050 89 e3 33 3f d9 fc 97 3f 8c fd 21 3f 9a 0a 52 3e
       0.70269066 1.1874038 0.63277507 0.20511857
000060 a7 05 56 3f b8 7b 0d bf 14 11 f0 be fe a8 79 bf
       0.83602375 -0.55266905 -0.4688803 -0.97523487
000070 d1 4f 92 bf 9d 21 64 3f 8b f5 3b bf a7 b7 e6 3e
       -1.1430608 0.8911379 -0.73421544 0.4506199
000080 9a a1 31 bd e8 b0 07 bf d5 7f 09 bf 5b 20 30 3f
       -0.043367006 -0.5300431 -0.5371068 0.6879937
000090 c5 71 ea 3d 4f fe 69 3f bc c6 87 3e d7 8d 5d bd
       0.11447481 0.9140367 0.2651881 -0.054090347

self_loop_weight f4 [8, 32]
000000 2b fc fc 3d cb 4b e2 bc 66 6d 03 3f 7c f0 23 3f
       0.12352785 -0.027624032 0.51338804 0.64038825
000010 1b a7 b8 9f e8 66 a6 ba b2 47 0c bd a4 84 14 3e
       -7.8203484e-20 -0.0012695463 -0.03424806 0.14503723
000020 6f f9 97 3e a9 5c 4f be 28 e5 21 3e 5c 22 05 bb
       0.2968249 -0.20250191 0.15810072 -0.002031467
000030 9e 58 be 3d d2 c9 bc 3e 96 49 b2 bd dc 89 0e 3f
       0.09294246 0.36872727 -0.08705442 0.55679107
000040 a8 67 17 bf 23 2e e7 3e 93 3b b8 bd 51 57 9d 3e
       -0.5914254 0.45152387 -0.08995738 0.3073068
000050 40 06 fc bc f6 d8 90 bb 63 50 46 be f0 8d 4c bd
       -0.030764699 -0.004420395 -0.19366603 -0.04994005
000060 27 09 0d 3f 39 7e 5b bc e2 66 4a be 3f da 3b 3f
       0.5509209 -0.013396793 -0.19765809 0.7337989
000070 34 47 aa 3e aa b0 d4 bd 58 f0 41 be 61 9a 12 bd
       0.3325745 -0.103852585 -0.1893934 -0.03579176
000080 72 71 ac be f2 08 28 bf 84 2d d9 3d a8 4c cd bb
       -0.33680302 -0.6563865 0.106043845 -0.0062652417
000090 72 0d d2 bb a5 03 21 bf 09 ca d8 be 20 b3 fc be
       -0.006410294 -0.62896186 -0.4234164 -0.49355412
0000a0 c9 ea 1b bf 05 e0 ec bd e2 4f ed 3e 72 fc f4 bd
       -0.6090513 -0.11566166 0.46350008 -0.119622126
0000b0 63 d7 e0 bd c4 78 fd 3d c1 9c 1a bf 54 60 db bf
       -0.10978582 0.1237655 -0.6039544 -1.7138772
0000c0 bd 99 2f bf 69 0a 0b bf 47 20 67 be 18 fb 8b bf
       -0.6859396 -0.5431276 -0.22570907 -1.0936003
0000d0 62 70 b9 be de 3c 0f bf 4c c7 65 be 99 35 07 be
       -0.36218554 -0.5595225 -0.22439307 -0.1320404
0000e0 de db 65 3e c5 30 44 be d6 05 2f bf 58 ae 44 3f
       0.22447154 -0.19159229 -0.6836828 0.7682853
0000f0 84 7d ae be 83 d0 0b bf 1a 37 f7 be f7 1c 1a bf
       -0.34080136 -0.5461504 -0.48284227 -0.60200447
000100 02 ef 70 3e c7 63 79 3e 71 f0 6f be 39 7e d8 3d
       0.23528674 0.24354468 -0.23431565 0.1057095
000110 0e 22 16 b8 18 b9 27 3e c7 12 66 3d 6f 67 35 3f
       -3.5794503e-05 0.16379201 0.05617025 0.7086095
000120 06 3f 16 3d e1 82 11 3f 52 62 f8 bd a9 c6 42 ba
       0.036681198 0.5684033 -0.12128128 -0.00074301154
000130 18 ac 24 3f d4 5d 31 be 0b 1f 0f 3f a1 81 3c 3f
       0.64325094 -0.17320949 0.5590674 0.736353
000140 10 1f d3 ba bc 91 6f 3e 26 a4 84 3d 7d d8 8c 3e
       -0.001610728 0.23395437 0.06476621 0.27508917
000150 3c 8c b9 bc 52 22 1a be 8d d1 06 be 62 90 f4 3c
       -0.022649877 -0.15052155 -0.13165875 0.029854003
000160 d5 bc fc bd de ad 40 3b ce fb b4 be d5 fd ab bf
       -0.12340704 0.0029400508 -0.35348362 -1.3436838
000170 ca 74 04 3f fd 96 72 3e 2e 2d ac bd eb 1d 01 3e
       0.51740706 0.2369041 -0.08407055 0.12609069
000180 b1 80 f7 34 d5 73 00 00 32 54 08 3f 12 cd 40 3e
       4.610097e-07 4.1553e-41 0.5325347 0.18828228
000190 2a c1 14 86 b1 6c f5 a5 7f ac 92 38 7f 91 a2 3e
       -2.797762e-35 -4.2574377e-16 6.9939524e-05 0.3175163
0001a0 49 97 70 a8 2e 0b 93 b9 07 1a e4 af af 23 00 80
       -1.3355481e-14 -0.00028046354 -4.1491452e-10 -1.2801e-41
0001b0 2b 3b 0e 3f 0f 72 32 3a bf 9f 6e ae b5 b8 03 3f
       0.55559033 0.0006807157 -5.4256818e-11 0.51453716
0001c0 cb 63 e1 3e 59 f7 ed 3e 36 37 ed 1e b2 69 d8 3e
       0.44021448 0.46477774 2.5116186e-20 0.4226814
0001d0 47 65 f6 37 bb 23 a3 b1 f2 59 e1 b9 55 c2 28 85
       2.9372646e-05 -4.7479864e-09 -0.0004298236 -7.935015e-36
0001e0 df f3 0b 3f df ca 00 00 d8 11 cb 3a 3a e2 c9 b8
       0.5466899 7.2776e-41 0.0015492989 -9.626565e-05
0001f0 1f cd 71 3a 4e 5a 01 00 36 ca bc 9f 59 a8 00 00
       0.0009223986 1.24231e-40 -7.995563e-20 6.0392e-41
000200 7b 61 b1 be 88 0b ca bd c9 79 a1 bf 91 52 63 3f
       -0.34644684 -0.09865481 -1.2615291 0.8879786
000210 4d fe c2 bb 43 c8 72 be 65 ed 61 3e b2 77 27 3e
       -0.005950725 -0.23709206 0.22063215 0.16354254
000220 0f 8a 8a be 29 94 3a 3d 54 6b 9f 3f 55 0c f0 bd
       -0.27058455 0.045551453 1.2454629 -0.11721102
000230 d1 81 a2 bf d5 9d 26 bf 77 5a 0c be 56 57 ec be
       -1.2695867 -0.6508458 -0.13706385 -0.46160382
000240 3d bd 93 be 04 54 5b 3f 01 9e 1e be ad 34 09 be
       -0.28855315 0.8567507 -0.15489961 -0.13399
000250 f4 75 4a be 43 4f 01 bd 89 32 13 bf 6c dc 9d bb
       -0.19771558 -0.03156973 -0.57498986 -0.004817536
000260 43 b9 8f be 7e 46 6f bd 81 c1 32 be 40 5b 18 40
       -0.2807103 -0.058416836 -0.17456628 2.3805695
000270 95 40 14 bf b7 9c 3f be d6 ea 24 3e bb 99 91 be
       -0.57911044 -0.18712126 0.16105208 -0.284376
000280 df dc 78 be f3 34 9c be 53 c6 4b 3f 63 1d 27 3f
       -0.24303006 -0.30509147 0.79599494 0.65279216
000290 4b ce dd ba 11 e5 f1 bd c6 f9 b1 be 23 42 87 3e
       -0.0016922442 -0.11811269 -0.34760875 0.26417646
0002a0 83 dc b5 be b4 7f 10 be 8f 16 56 be 97 b8 b9 bc
       -0.355198 -0.14111215 -0.20907043 -0.022671027
0002b0 9a c2 c2 3f d9 bd 46 be a2 4c 3b be 91 45 b7 3e
       1.5215638 -0.19408359 -0.18290952 0.35795262
0002c0 b6 27 e2 3e fa 9d 8c 3d 53 f3 5b be 67 27 28 3e
       0.44170922 0.06866069 -0.2147954 0.16421281
0002d0 95 d0 26 be c7 78 4b be 40 9a ea be 97 29 7b bd
       -0.16290505 -0.19870292 -0.45820808 -0.06131896
0002e0 ec 88 82 3f 68 92 87 bd b6 ff 2c be f0 50 85 bf
       1.0198035 -0.06619722 -0.16894421 -1.0415325
0002f0 30 e1 b4 3c 23 f4 c6 be b0 bb ff be f3 1c 37 be
       0.022080034 -0.38858137 -0.49947882 -0.17882137
000300 93 5c d2 3f e4 16 6c be 41 b2 6f 3f 20 c9 12 3f
       1.6434501 -0.23055607 0.9363137 0.5733814
000310 66 5c d3 b7 a5 a5 49 be f5 67 50 be 36 b2 5e 3f
       -2.5196186e-05 -0.19692095 -0.20352156 0.8699068
000320 af 2a 9a bd 39 ef f5 bd 67 56 98 3d 58 77 ab b9
       -0.075276725 -0.12008519 0.07438355 -0.0003270458
000330 08 04 3d bf 76 26 38 3f 11 1b 81 3e 45 30 13 be
       -0.73834276 0.71933687 0.25215963 -0.14373882
000340 c6 94 74 bd 89 cf a6 be aa a8 a7 bd dd 9a a1 bd
       -0.059712194 -0.32580212 -0.08186467 -0.07890866
000350 8e be 25 bb fb 33 a7 3e 0d b2 40 3f 88 8c df bd
       -0.0025290581 0.32656845 0.75271684 -0.10915476
000360 7d 10 52 3f bc 50 20 bc a1 36 2d bd 48 18 4f be
       0.8205641 -0.009784874 -0.042288426 -0.20224106
000370 24 50 a4 3f 9c 50 31 be f8 0d 32 bd 4c c7 6e be
       1.2836957 -0.17315906 -0.043470353 -0.23318213
000380 97 22 21 bc b0 a9 17 b5 ef de b2 be a5 2a 9f be
       -0.009834907 -5.649881e-07 -0.3493571 -0.31087223
000390 05 82 e9 a2 50 7c 4d 3d 26 99 f5 3d e4 8b 72 ba
       -6.329244e-18 0.05016738 0.11992101 -0.0009252413
0003a0 0b 5a 00 80 98 8c 89 3e 62 f2 f1 bd 4a 48 2f 1c
       -3.2301e-41 0.26865077 -0.11813809 5.7996074e-22
0003b0 ae 7f 91 3e 5f 20 98 3e f4 70 54 be 93 bf e0 3e
       0.28417724 0.29712197 -0.20746213 0.4389616
0003c0 42 55 64 3d 9b 24 9f bb 71 dd 21 3d 7d b7 7d 3c
       0.05574537 -0.0048566586 0.039517824 0.015485642
0003d0 3b 9e f5 a5 43 fe a9 b6 a0 bf ff be 63 1d b7 37
       -4.2607946e-16 -5.0661924e-06 -0.49950886 2.1828984e-05
0003e0 41 3f 56 3e e4 0b 95 b5 cf 35 77 08 b8 c8 10 3e
       0.20922567 -1.1104826e-06 7.439211e-34 0.14139068
0003f0 15 28 10 bd b8 ef e0 3c a9 e5 b3 b9 10 6f 37 38
       -0.035194475 0.027458057 -0.0003431265 4.3734035e-05

weight f4 [8, 80]
000000 db af 31 3e 38 77 10 bf a2 9c f4 b9 65 49 00 80
       0.1735224 -0.56431913 -0.00046656007 -2.6329e-41
000010 b1 86 cf be 2e 6d a3 bc 20 a3 2d b9 d2 4e 6d 95
       -0.4053245 -0.019949522 -0.00016559334 -4.7923947e-26
000020 b7 8f de be a9 af b2 bd 02 9a ff 38 cc 78 00 80
       -0.4346902 -0.08724911 0.00012188034 -4.3334e-41
000030 87 b1 a1 3d 75 b9 df be ad 72 6d bb 81 84 16 b9
       0.07895189 -0.4369618 -0.0036231682 -0.00014354476
000040 7b a8 5b bd 98 b9 5a bd 8c 03 ca 3b 3c 4c 35 3c
       -0.053627472 -0.053399652 0.0061649736 0.011065539
000050 2a cf cc bc 9d 54 9b 3c 49 bc 29 bc ef df 4d 3c
       -0.025001127 0.018961245 -0.010359832 0.012565597
000060 9e 67 38 3d 4d 78 9c 3d a5 cb 07 bd 8b 7f da bc
       0.045020692 0.07640133 -0.033153195 -0.026672145
000070 a9 d1 b7 3c 6c 83 6a bd f2 13 bc 3d cb 5a d8 bc
       0.022438841 -0.05725424 0.09183492 -0.026410481
000080 28 fc 2a 3d f0 f1 3a 3d 68 61 0f 3d bc f3 6d bc
       0.04174438 0.045640886 0.035005003 -0.014523443
000090 ee 47 b8 3d 60 7f e8 b9 9e ba 79 bd 0e 2a 6d 3d
       0.089980945 -0.0004434539 -0.060968988 0.057901435
0000a0 4e fa 1b 3c ae 31 35 bd e7 49 0b bd c9 b6 dd 3b
       0.0095201265 -0.04423683 -0.034006026 0.0067661745
0000b0 c5 7d 58 bc 92 bb 91 3c 75 1c c5 bd 03 4f d5 3b
       -0.01321358 0.017789636 -0.096245684 0.006509663
0000c0 0e 9d 99 bc 76 3e 80 3d 95 e0 36 3b 8e ba 45 3c
       -0.018751647 0.062619135 0.0027904857 0.012068404
0000d0 f8 c0 3b 3b 07 60 32 bc 29 5c 3e bc 45 50 89 bc
       0.0028648954 -0.0108871525 -0.011618652 -0.016761908
0000e0 ef 9d f4 3c 22 d2 39 3d 02 e2 06 bb 90 28 a5 3c
       0.029860465 0.045366414 -0.0020581488 0.020160943
0000f0 52 55 2c bd d3 d2 28 bc b9 0d 5a 3d 7a 03 14 3d
       -0.042073555 -0.010304171 0.053235743 0.036136128
000100 b5 64 7a 3c 7d 53 89 3c 4d 9a 64 3d 2c 8e ac bd
       0.0152827995 0.016763443 0.055811215 -0.08425555
000110 e0 97 4c 3d dc 5d 01 38 3f 80 ff 3c 30 2c 4c 38
       0.049949527 3.084341e-05 0.031189082 4.8678543e-05
000120 76 ed 33 bc d7 da 8b bc 7f 8a b8 bc ab 1e 68 3b
       -0.010981908 -0.017072124 -0.022526978 0.003541867
000130 12 0c b0 bc df f2 a0 3d fd 24 d0 bd 60 ab cf bb
       -0.02149013 0.07858824 -0.10163305 -0.006337568
000140 73 e1 c3 be 18 c1 15 be 41 1c 41 bc 5d 1e 00 80
       -0.38257942 -0.1462444 -0.011786521 -1.0892e-41
000150 17 1a 9e 3d 29 aa 2a bf 77 6c fe 3c 89 5a 01 80
       0.0771982 -0.66665894 0.03105758 -1.24313e-40
000160 bd 3d 68 3e 83 09 1c bf 2e 5b 92 bc b1 a0 24 99
       0.22679801 -0.60952014 -0.017865743 -8.511053e-24
000170 15 8a f0 be bc 0b 42 be d9 3b b7 37 11 3b 00 00
       -0.46980348 -0.18949789 2.1843169e-05 2.1189e-41
000180 81 6f c4 bd b5 f4 9f 3c ec d9 6b be 06 6d fb 3d
       -0.0959158 0.019525865 -0.2303235 0.12276654
000190 c2 07 70 3e 2d 83 b9 bc bf 55 3e be 46 4c ab bd
       0.2344046 -0.022645557 -0.18587397 -0.083641574
0001a0 ef 18 e3 3d e9 0f bf 3c 5c 28 28 bd ed 59 26 bc
       0.1108874 0.023323016 -0.041054115 -0.010153276
0001b0 91 f4 ce bd 57 81 11 3e ab fb 61 bc de 11 15 3e
       -0.10105241 0.14209495 -0.0137929125 0.14557597
0001c0 11 b2 06 3e db 90 14 bd 73 e1 78 3e e1 44 ad bd
       0.13153864 -0.036270957 0.24304752 -0.08460403
0001d0 cd be 6c 3e 96 8e b1 bd 9c bd 7e 3c c7 57 8e bd
       0.2311966 -0.08669774 0.015548136 -0.06950336
0001e0 f3 ea ca bd 0a ef a6 bd e4 3a ba bd 04 22 a5 3d
       -0.09908094 -0.08151062 -0.09093264 0.080631286
0001f0 13 51 d3 bd d3 23 54 3d 82 f5 a4 be 8b fe 89 3e
       -0.10318198 0.051791977 -0.32218558 0.26952013
000200 38 02 91 3e 67 48 94 3e 95 a7 9e bd de 9f cb 3d
       0.28322005 0.2896149 -0.077468075 0.099426016
000210 2b b8 3a 3e 75 00 94 bd 07 85 3d bd 08 c4 4f be
       0.18234317 -0.0722665 -0.046269443 -0.20289624
000220 4f 05 89 3d 60 88 4d 3c 64 00 00 3e ac 68 23 3d
       0.06690466 0.012544721 0.12500149 0.039894745
000230 f3 c3 7b be bf a9 6d 3e 27 7e ad bd de 3e 24 be
       -0.24586467 0.23209284 -0.08471327 -0.16039607
000240 16 b5 ef bd ec 33 91 3c ca 9a 31 3d e3 e8 6f be
       -0.11704461 0.017724954 0.04336051 -0.23428683
000250 26 89 18 be 62 25 0f 3d 0c ff 97 3e 03 c4 9c be
       -0.14896068 0.03494776 0.29686773 -0.30618295
000260 e6 52 28 bd 84 69 4f 3e 78 a2 8e bd f3 77 79 3d
       -0.041094683 0.20255095 -0.06964582 0.060905408
000270 5f 32 89 bd a8 d6 38 3e e5 38 e9 3d a2 30 18 3e
       -0.06699061 0.18050635 0.11387805 0.14862302
000280 c9 21 81 bb 8a c5 04 bd 8c ee 3b 28 10 ac 85 01
       -0.003940795 -0.03241495 1.0432312e-14 4.910338e-38
000290 df b1 14 bd a9 06 82 bb f0 1d 27 36 fd 3a 15 80
       -0.036302444 -0.003968079 2.4902365e-06 -1.949706e-39
0002a0 3e 3c ea bc 7e 76 11 bc 68 cc 3c b3 0f 33 00 00
       -0.028593179 -0.008878348 -4.3958067e-08 1.8316e-41
0002b0 32 de 7e bb 02 f1 f1 bc af 1d 91 b8 a5 79 18 00
       -0.0038889763 -0.029533867 -6.919668e-05 2.24769e-39
0002c0 8e d3 b7 bb 93 79 b9 bb 0b d7 67 39 34 71 45 ba
       -0.005609936 -0.0056602447 0.00022109986 -0.0007531822
0002d0 1d d9 3c b7 c0 bd df b6 e6 a6 08 3a bf ed a9 3a
       -1.1256224e-05 -6.6680077e-06 0.0005212858 0.0012964531
0002e0 d3 55 fb b9 85 17 e2 b8 27 0d 9a bb 5e fb a7 37
       -0.00047938395 -0.000107809006 -0.004701275 2.0025003e-05
0002f0 d1 22 77 3b 9a c3 e1 ba 40 64 0e b8 28 65 01 3b
       0.0037709961 -0.0017224432 -3.3948803e-05 0.0019744132
000300 ab a6 fd 3b e3 f8 4a b8 b7 c8 0d b8 f2 b7 07 3b
       0.0077408156 -4.8392347e-05 -3.380395e-05 0.0020709005
000310 fd 4f c7 3c ac 73 a4 bb 04 68 c3 bb 16 c3 e2 3b
       0.024330134 -0.005018672 -0.0059633274 0.0069202287
000320 a0 7a 16 36 ec d0 66 ba 37 40 59 3a a9 e9 1d ba
       2.242312e-06 -0.00088049355 0.0008287462 -0.0006023893
000330 8b 6d 73 38 58 64 86 b9 76 df c0 bc 08 2e 0f b9
       5.8037735e-05 -0.00025633234 -0.023544054 -0.0001365469
000340 a0 a9 c3 ba 71 e9 02 bb 14 c5 fe b9 b5 66 36 ba
       -0.0014927872 -0.0019975568 -0.0004859349 -0.00069580536
000350 d7 07 52 b8 1b 33 b5 b7 5c 7d b1 b9 31 4c 21 3a
       -5.0075203e-05 -2.160068e-05 -0.0003385347 0.0006153016
000360 e4 51 ff b9 05 e8 87 b9 f6 5a 1a 3a 04 f7 20 37
       -0.00048698403 -0.00025922075 0.0005888188 9.594256e-06
000370 70 a2 8d 3a f7 51 a0 ba 24 b7 97 b8 7d d0 97 3b
       0.0010805856 -0.0012231459 -7.234354e-05 0.004633008
000380 55 bf 24 3b 94 a4 88 b8 2b 60 71 39 36 ce 1c ba
       0.0025138457 -6.5156404e-05 0.00023019376 -0.00059816556
000390 9a 23 49 3c 6a 3b 0c bb 60 22 c7 ba 5f ed 49 3b
       0.0122765545 -0.0021397718 -0.001519274 0.003081165
0003a0 fb 98 a3 38 1f 18 29 3a 10 b3 49 3a fd f5 13 ba
       7.8009405e-05 0.00064504327 0.0007694224 -0.000564426
0003b0 d2 6b 1d 38 20 db 94 3a 91 18 c4 bc 73 03 a8 b8
       3.7532132e-05 0.0011356808 -0.023937495 -8.011507e-05
0003c0 a5 ad af 3b 56 00 25 be 5c 1d fc 2c 0a 5a 00 00
       0.005361276 -0.1611341 7.1655303e-12 3.23e-41
0003d0 6c 3c ec bd 5e 0b d6 3b 5a d4 72 b1 a8 b8 fb b8
       -0.11534962 0.006532117 -3.5336343e-09 -0.000120030076
0003e0 ea da b6 bd 61 1d f6 bb 02 60 64 b0 cf 3d 01 00
       -0.08928473 -0.0075108265 -8.308235e-10 1.14008e-40
0003f0 53 6a b8 bb dc 31 c9 bd 45 99 f1 3a 6a 4b 84 b6
       -0.005627909 -0.09823963 0.0018432519 -3.942686e-06

bias f4 [8]
000000 b5 03 dc be 2a 32 34 bf c5 83 d6 bd fb ab 18 be
       -0.42971578 -0.70389044 -0.10474352 -0.14909355
000010 7a 08 03 be 5f d3 07 bf ff 09 24 bd 79 43 7a be
       -0.12796202 -0.530569 -0.040048596 -0.24439801

weight f4 [1, 8]
000000 d1 79 89 bd b8 45 90 3e 20 01 6e 3d 61 67 83 bd
       -0.06712688 0.2817819 0.05810654 -0.06416202
000010 e4 b4 0b ba dc fa a2 bd 4a 10 84 bf 6e d7 87 3c
       -0.0005329384 -0.07958004 -1.0317471 0.016582217

weight f4 [4, 32, 32]
000000 c9 bb 00 00 33 6d 00 80 f6 31 53 3d fc f5 79 be
       6.7365e-41 -3.9173e-41 0.05156132 -0.24410242
000010 69 a5 1d a3 81 00 00 00 04 91 01 14 fa 5c 80 3e
       -8.546014e-18 1.81e-43 6.541435e-27 0.25070935
000020 17 1c 9a b1 65 a2 9f be 76 a0 ea a6 22 32 b6 a9
       -4.4851833e-09 -0.31178585 -1.6280505e-15 -8.09112e-14
000030 fa 89 2b 3b 01 e4 00 1f d8 a6 00 80 81 78 9f 1e
       0.002617477 2.7293655e-20 -5.9852e-41 1.6884619e-20
000040 a0 47 37 88 22 d7 00 00 a4 c9 08 b8 87 d7 00 80
       -5.5153754e-34 7.7175e-41 -3.261272e-05 -7.7317e-41
000050 b2 19 03 be e6 e5 00 80 e4 36 01 00 b8 bd 68 bd
       -0.1280277 -8.2472e-41 1.11527e-40 -0.056821555
000060 84 a4 00 00 33 4d 4c b8 0f d3 ef 3c 9b 40 71 be
       5.9017e-41 -4.8709288e-05 0.029275445 -0.23559801
000070 e7 54 67 be ce f1 e5 bd 6d ce 39 b0 8c 2d 36 2d
       -0.22590981 -0.11227761 -6.7595957e-10 1.0355616e-11
000080 bc fc 02 00 56 87 00 80 15 8e 93 39 e7 ea 5f 3b
       2.74335e-40 -4.855e-41 0.00028143884 0.0034167112
000090 f9 6e 92 b4 08 57 00 00 c6 0f 93 b8 1e cd d3 ba
       -2.7275362e-07 3.1221e-41 -7.012444e-05 -0.0016159152
0000a0 53 eb 83 14 a5 0e 50 31 90 f0 eb 1d ac 60 cd af
       1.3320439e-26 3.0276308e-09 6.2452718e-21 -3.7357972e-10
0000b0 04 da 00 80 28 0b e8 1f d6 4a 01 80 3b 7b 00 80
       -7.8209e-41 9.827428e-20 -1.18682e-40 -4.4207e-41
0000c0 f3 ff 5a 0f b4 07 01 80 97 f4 d4 39 f7 c6 00 80
       1.0797524e-29 -9.4599e-41 0.00040618025 -7.1375e-41
0000d0 14 32 cc 34 3a 91 1a 0e 57 1c 00 80 95 6b 9d b7
       3.8034398e-07 1.905189e-30 -1.0166e-41 -1.8765955e-05
0000e0 da 2d 00 00 50 a7 b4 37 92 62 84 95 3b e6 2a b9
       1.6448e-41 2.1535583e-05 -5.346989e-26 -0.00016298231
0000f0 66 1c 29 9e 0b 0d e4 b4 07 b7 1b 37 47 48 01 00
       -8.952658e-21 -4.24778e-07 9.281334e-06 1.17764e-40
000100 2e 2d f7 2d 4c ec 83 22 7f 84 1f be fd 8d 2a bf
       2.8100713e-11 3.575781e-18 -0.15577887 -0.66622907
000110 f0 2e ae 3b a6 23 2f a2 38 2f 98 3d 81 07 4b be
       0.005315654 -2.3735795e-18 0.07430881 -0.19827081
000120 ef 74 3d 38 bb 10 9f be 6f 9b 2d b3 94 10 04 3a
       4.5170014e-05 -0.31067452 -4.0421067e-08 0.0005037871
000130 29 a7 f2 3b aa 79 94 31 77 c8 76 ac 3c 68 39 a1
       0.007405181 4.3211985e-09 -3.5069983e-12 -6.281839e-19
000140 50 97 ce 31 c4 92 3b 25 d5 67 38 3e 0d 97 a4 30
       6.0125913e-09 1.626939e-16 0.18008359 1.1975502e-09
000150 66 9e b0 bd 05 aa 91 2e 78 fc c2 13 d0 21 c6 be
       -0.08623962 6.624038e-11 4.922144e-27 -0.38697672
000160 66 db 87 aa 5c 6a 89 3d 2c 30 05 3d a5 fd 91 be
       -2.4133056e-13 0.067097396 0.032516643 -0.28513828
000170 8b d2 44 be c5 a0 2c 3f ee db c3 3e 86 b8 ab 2e
       -0.19220941 0.67432815 0.3825373 7.8089576e-11
000180 54 71 03 03 b6 6d 00 80 91 f5 f8 b7 96 d0 c4 bd
       3.8627534e-37 -3.9357e-41 -2.9678255e-05 -0.09610097
000190 f1 3f 29 05 da 53 00 80 b4 04 00 00 f3 5d 64 3e
       7.958086e-36 -3.008e-41 1.687e-42 0.22301464
0001a0 bc 2e d4 b1 71 15 f8 bd 90 1b 1f 96 c4 3a d4 07
       -6.175325e-09 -0.121134646 -1.2852615e-25 3.1932754e-34
0001b0 29 2d e9 3b 50 1b 01 00 ed 4a 01 80 d7 9e 4d a7
       0.007115979 1.01633e-40 -1.18714e-40 -2.8535572e-15
0001c0 26 4c 00 00 44 65 00 80 97 62 78 3c 91 48 00 00
       2.7317e-41 -3.6327e-41 0.015160224 2.6032e-41
0001d0 b1 a2 a7 3c 18 01 00 80 eb 16 01 80 3c 89 60 ba
       0.02046332 -3.92e-43 -1.00057e-40 -0.00085653714
0001e0 13 18 00 00 a1 8c 99 3b c4 b9 19 39 87 1d cf bd
       8.636e-42 0.0046859537 0.0001466042 -0.10113054
0001f0 d4 04 b2 bd ce cb 7c 3e f6 e6 db 3d 8b d8 cc 2f
       -0.08692327 0.2468712 0.10737412 3.7261247e-10
000200 ae 75 2b 90 f7 1f 01 00 8c 0f 61 99 72 b6 a4 12
       -3.381446e-29 1.03302e-40 -1.1635367e-23 1.0394831e-27
000210 2c 2e 01 00 06 0c 00 80 f8 3c 9a 92 28 88 eb 1a
       1.08399e-40 -4.313e-42 -9.733796e-28 9.7413694e-23
000220 41 5d 00 80 14 1e 2f 82 c0 39 00 80 41 14 00 80
       -3.3453e-41 -1.2865601e-37 -2.0717e-41 -7.266e-42
000230 f6 99 01 00 10 93 9c 07 38 94 01 80 cb fc 00 80
       1.47066e-40 2.3558707e-34 -1.45006e-40 -9.0685e-41
000240 3d 23 00 00 17 46 00 00 e9 9f 93 12 1f 73 00 8e
       1.2641e-41 2.5143e-41 9.316425e-28 -1.5832647e-30
000250 c5 3f 00 80 17 6f 01 80 bf d5 00 80 73 1f 00 00
       -2.2876e-41 -1.31687e-40 -7.6678e-41 1.1282e-41
000260 46 b4 00 80 2d 46 41 17 27 c4 00 80 83 3f 00 80
       -6.467e-41 6.245024e-25 -7.0366e-41 -2.2784e-41
000270 a2 ef 74 06 81 2a d4 03 fd 1a 00 00 37 a3 02 00
       4.6067354e-35 1.24699985e-36 9.682e-42 2.42221e-40
000280 96 b4 3b 1a f3 c3 00 80 5a 92 6a bb 2c 9a 1f 3a
       3.881657e-23 -7.0293e-41 -0.0035792799 0.0006088342
000290 74 d1 d9 9a 92 2c 00 00 80 23 af 2c ae 25 e6 39
       -9.0087486e-23 1.5989e-41 4.9777404e-12 0.00043897092
0002a0 72 e1 2f 94 00 2f 65 2f 3a 91 a4 a7 fb a0 9c 9d
       -8.8797034e-27 2.0844126e-10 -4.56766e-15 -4.1459306e-21
0002b0 22 c7 25 89 da 2f 50 24 fc 1c 18 2c 2b 9c 93 9c
       -1.9954784e-33 4.5143342e-17 2.1616589e-12 -9.768012e-22
0002c0 da 66 0c ac f1 82 00 80 ae 56 69 34 82 70 d7 9c
       -1.995229e-12 -4.6973e-41 2.173135e-07 -1.4256589e-21
0002d0 e6 71 15 bb 18 2e 51 13 38 0f 01 80 ae 64 bb b3
       -0.0022803484 2.6402235e-27 -9.7295e-41 -8.7261796e-08
0002e0 64 fa 00 80 3b b1 51 34 f2 b3 77 a7 08 1e 86 b0
       -8.9823e-41 1.9529118e-07 -3.4375684e-15 -9.758319e-10
0002f0 25 1b 87 b8 0b 93 3e a5 2f d3 b7 37 1e 98 09 00
       -6.442358e-05 -1.6529693e-16 2.191364e-05 8.81089e-40
000300 ea b5 27 26 84 72 00 80 66 a2 80 3e 0f 2a 2e bb
       5.8186304e-16 -4.108e-41 0.251239 -0.0026575362
000310 09 2b 92 bb b5 04 01 80 ff 07 00 80 4a 10 2e bd
       -0.0044606966 -9.3524e-41 -2.868e-42 -0.042496003
000320 6c 4a af bb 6f 1f 04 0f 15 d9 7e 38 f0 b9 bb aa
       -0.005349448 6.514156e-30 6.0760492e-05 -3.3346893e-13
000330 d1 f3 00 00 7c b8 f7 af 65 ce 00 00 39 e8 67 10
       8.7465e-41 -4.5060122e-10 7.404e-41 4.5735615e-29
000340 96 41 01 80 1d ac 00 00 71 c0 14 bd ba 92 00 80
       -1.15363e-40 6.1743e-41 -0.03631634 -5.2636e-41
000350 25 6a ab 3c 4d 34 00 80 c2 fe c0 b8 fb dd 60 3d
       0.020924637 -1.8762e-41 -9.202726e-05 0.054899197
000360 7b 13 01 80 73 b0 68 bc 08 4c 15 b5 c5 60 a6 ba
       -9.8824e-41 -0.014202225 -5.5617465e-07 -0.0012693634
000370 b4 0d 01 00 4f 3f 95 bc cb 93 8b bd e5 04 00 00
       9.6751e-41 -0.018218664 -0.06815299 1.756e-42
000380 91 f8 9e 25 7d 6d 6d a3 6b 52 a4 bc 5a b8 8c be
       2.7577066e-16 -1.2870981e-17 -0.020058831 -0.274844
000390 da 14 8f b0 ab ad 0c 13 ea f7 77 39 fd a5 10 be
       -1.0410546e-09 1.775611e-27 0.00023648111 -0.1412582
0003a0 5d 97 83 bb 07 42 96 bd ba 95 14 b5 99 8d a3 b4
       -0.0040158466 -0.073368125 -5.535218e-07 -3.0464142e-07
0003b0 b5 22 a0 b2 16 cc ee 31 df 47 2c ab 73 30 73 a0
       -1.8642234e-08 6.9499135e-09 -6.1206416e-13 -2.0598931e-19
0003c0 d6 41 a5 30 ac f2 2b 24 78 e5 49 3b 66 3b 7a 28
       1.2024042e-09 3.7285265e-17 0.003080694 1.3890668e-14
0003d0 12 01 35 be a8 48 50 32 79 dd 00 00 57 9e d6 bd
       -0.1767619 1.2123714e-08 7.945e-41 -0.1047942
0003e0 a1 1d a4 20 db 42 d3 3a 9d ce b1 39 66 c2 ce bb
       2.7802287e-19 0.0016117947 0.0003391401 -0.006309795
0003f0 d1 f1 8b bc 46 31 5b 3d 8a 59 18 3e af de e8 2d
       -0.01708308 0.053513788 0.14877906 2.6474238e-11

w_comp f4 [10, 4]
000000 80 ea bd be 52 f0 21 3e 02 f2 a5 bd d8 79 c6 3d
       -0.37092972 0.15814331 -0.081028 0.096912086
000010 9a 9a 72 3e 83 41 fe 3d 4e 07 05 3f 80 97 67 3e
       0.23691788 0.12414839 0.5196427 0.22616386
000020 0b 21 0d 3e 71 c0 09 be 0f 25 95 bd 49 df 18 be
       0.13782136 -0.13452317 -0.07282459 -0.14928927
000030 cd da 12 bd fb 91 c0 3d 0f 47 61 bd 94 a6 4e bd
       -0.035853196 0.094028436 -0.054999407 -0.05045183
000040 f4 5b f5 3e 6d d0 e8 be b8 a6 19 3f c7 f6 92 3e
       0.47921717 -0.45471516 0.6002002 0.287039
000050 67 88 28 bf db 4e d0 3e 12 c4 3c be 7c d1 8f be
       -0.65833133 0.40685162 -0.1843417 -0.2808951
000060 23 ca 28 3f 34 3b 3c bf a0 20 df be 56 e9 b9 be
       0.65933436 -0.73527837 -0.43579578 -0.36310834
000070 42 e1 59 3d 81 c9 11 3d 99 91 73 bc 01 cd 1c bd
       0.05319334 0.03559256 -0.014866256 -0.038281444
000080 c8 93 01 80 06 90 00 80 ad 51 00 80 32 63 01 80
       -1.4485e-40 -5.1666e-41 -2.93e-41 -1.2742e-40
000090 ae 8d e7 00 79 9b 97 00 4a 21 b1 ad c4 c1 88 02
       2.1264825e-38 1.3922933e-38 -2.0137354e-11 2.009462e-37

self_loop_weight f4 [32, 32]
000000 39 a4 bc b3 2e 9a 8e ab fc 0c 2b be 21 35 15 bd
       -8.784304e-08 -1.01325e-12 -0.16704172 -0.03642762
000010 25 24 3f b0 96 af 0e 00 61 3c c7 3e 68 fc 19 bf
       -6.953676e-10 1.348685e-39 0.38913253 -0.60150766
000020 81 37 ff bc a4 37 b6 3c 42 42 99 3b f8 e7 11 3e
       -0.031154396 0.022243328 0.004677088 0.14248645
000030 9d 87 b1 ba 11 9b b8 bd 3e bb 51 2f 5a 69 79 37
       -0.0013544444 -0.090139516 1.9074961e-10 1.4866086e-05
000040 c5 74 85 b6 eb 9c 1a b1 41 d7 8c bc ad 71 94 3c
       -3.9773026e-06 -2.2499147e-09 -0.017192485 0.018120611
000050 92 5a b7 3e 67 f5 0b a8 35 37 0f b7 78 e0 a5 bd
       0.35811287 -7.769263e-15 -8.536318e-06 -0.08099455
000060 ba 61 1f 95 55 d0 db bd ef 94 28 bb 9e ea 9d 3d
       -3.2186887e-26 -0.107330956 -0.0025723537 0.07710765
000070 1f 9b 08 bf cc 32 8e 3f 3f 56 99 3c 58 94 24 be
       -0.53361696 1.1109252 0.018717883 -0.16072214
000080 50 56 2f b9 e6 0b 54 b4 8c 33 39 be dd c0 fe bd
       -0.00016721454 -1.9748367e-07 -0.1808607 -0.124391295
000090 ee 95 01 b9 37 c9 52 94 81 50 c9 bd f6 65 60 3e
       -0.00012358252 -1.0641973e-26 -0.09829808 0.21913895
0000a0 95 67 3b ba 90 00 cf bd 4e b5 aa af 25 bd 2e bd
       -0.0007148919 -0.10107529 -3.1051645e-10 -0.04266085
0000b0 ee 08 25 39 9e 5e 50 3a 47 db a3 b9 2b 4d 01 80
       0.00015738953 0.00079486694 -0.00031253157 -1.19518e-40
0000c0 7f 48 e7 ba 78 14 a6 9f 54 f7 c3 bd 6f ab 75 b9
       -0.0017645507 -7.03376e-20 -0.095686585 -0.00023428885
0000d0 87 1c 30 bd 86 8e 4d 2e f7 e0 9b 99 a8 23 c1 bb
       -0.042995956 4.673819e-11 -1.6117487e-23 -0.005894143
0000e0 0f ee c7 20 7e fc cc bc 0b 33 86 a6 c1 35 a6 b7
       3.3869445e-19 -0.025022741 -9.311953e-16 -1.9813773e-05
0000f0 34 22 ab 3e 76 a3 47 be 2c 91 b1 be c1 f6 73 a1
       0.33424532 -0.19495949 -0.3468107 -8.265818e-19
000100 e4 0e c3 39 0f aa 9a b7 79 7c 0f bf ba 35 52 be
       0.00037204393 -1.843742e-05 -0.56049305 -0.20528308
000110 f8 0e c9 bb 7e 61 4b af e0 1c af bd 0f 63 d1 3e
       -0.0061358176 -1.8497379e-10 -0.08550429 0.40895888
000120 21 ad 98 be 95 15 b4 bd 04 03 eb bc ce 73 4b be
       -0.29819587 -0.08793179 -0.028687961 -0.19868395
000130 fc e2 87 be 9c 09 49 3b 71 20 b1 bb ca aa 45 bc
       -0.26540363 0.0030675894 -0.0054054786 -0.012064645
000140 b2 04 f9 bb f3 b7 07 ad bd 8a 10 3e 25 82 3c bc
       -0.0075994367 -7.7147065e-12 0.14115424 -0.011505638
000150 c7 80 14 bf 3d b5 3e b3 40 23 0f af b9 63 dc be
       -0.58009 -4.4402658e-08 -1.3018298e-10 -0.43044832
000160 f9 85 87 b9 e6 50 89 be 5e 7a af b9 b0 a2 c0 be
       -0.00025849024 -0.26819533 -0.00033469772 -0.3762412
000170 29 cc 80 be 22 3b 1d 3e 56 17 e1 bb b9 bc 33 be
       -0.25155762 0.15354589 -0.006869237 -0.1755246
000180 7d c3 9e b6 9b 65 d7 9d f3 c0 d1 3e a8 46 95 3b
       -4.7315248e-06 -5.7015084e-21 0.4096752 0.004555542
000190 e9 20 59 b3 cd b8 00 00 ef a0 ec bc 30 21 32 bd
       -5.055418e-08 6.6294e-41 -0.028885333 -0.04348868
0001a0 5b 71 20 be be e8 1c bf 58 a9 6b af c3 f3 38 be
       -0.15668242 -0.61292636 -2.1433288e-10 -0.18061738
0001b0 0c 90 99 bd 10 54 f5 3b 5e fc b8 b5 99 05 a8 bb
       -0.07498178 0.0074868277 -1.3782517e-06 -0.0051276204
0001c0 f0 da e2 af b5 27 1d b7 cf 0d 4e bf 2e 74 13 bb
       -4.1264725e-10 -9.367174e-06 -0.8048982 -0.0022499668
0001d0 3c e8 01 bf 18 56 9b ae 67 42 e7 91 71 e3 55 be
       -0.50744987 -7.063877e-11 -3.6486297e-28 -0.20887543
0001e0 18 37 f3 a2 50 79 20 bf b2 51 83 ba 7d f0 b2 3e
       -6.5923615e-18 -0.6268511 -0.0010018854 0.34949103
0001f0 f7 8b aa bc 1c f6 05 3e 6a a5 78 bf bf c2 52 bd
       -0.020818694 0.13082165 -0.971274 -0.051455256
000200 5d 25 6e 25 48 eb a6 98 88 a7 82 b7 49 d1 a1 2f
       2.0655869e-16 -4.3147568e-24 -1.557522e-05 2.9434435e-10
000210 c7 eb 77 25 2a 07 00 00 9b ef 6f b0 d4 a1 93 b7
       2.150372e-16 2.57e-42 -8.7288193e-10 -1.7599123e-05
000220 5f 78 01 aa 26 e6 20 29 79 63 35 1e 92 dd 00 80
       -1.1499264e-13 3.572676e-14 9.602631e-21 -7.9484e-41
000230 f8 8e 00 80 50 4d b7 27 45 71 25 13 ca 45 01 80
       -5.1288e-41 5.0876526e-15 2.0881774e-27 -1.16871e-40
000240 d6 29 92 9d f1 28 01 00 34 b3 a3 2e 54 58 84 ab
       -3.8689136e-21 1.06523e-40 7.444215e-11 -9.40368e-13
000250 85 3e 00 80 7d cf c8 91 e6 7d 01 00 c6 60 9c b2
       -2.2428e-41 -3.168231e-28 1.37e-40 -1.8204798e-08
000260 75 76 a3 8d a1 56 44 ac 7c 0d ef 1a 8c 72 1f b2
       -1.0074168e-30 -2.7901364e-12 9.886987e-23 -9.281063e-09
000270 36 45 d6 b1 fc 35 0f b1 68 92 e3 1e 57 12 25 a2
       -6.236088e-09 -2.0839925e-09 2.4095112e-20 -2.2371379e-18
000280 78 ba 17 b6 a3 3d 2d 9b a4 4b e2 3d b5 90 7e be
       -2.2609293e-06 -1.433014e-22 0.110495836 -0.24859889
000290 2c a6 16 bc 19 66 00 80 e7 93 68 35 2f 0a 99 3e
       -0.009194892 -3.6626e-41 8.664196e-07 0.29890582
0002a0 81 42 e9 ba 4a 07 1b bd 31 d4 a0 23 15 8b 1e b9
       -0.0017796309 -0.03784875 1.7437101e-17 -0.00015119866
0002b0 19 49 bb 34 40 3c ca 39 7c 82 c8 3b e9 f8 54 35
       3.488465e-07 0.00038573332 0.0061190706 7.9338366e-07
0002c0 54 43 79 bb a7 0d 01 80 70 52 01 bd d9 2b 9e b8
       -0.0038034515 -9.6733e-41 -0.03157276 -7.542194e-05
0002d0 5d 3b 10 be 09 ab ad 01 21 aa e1 99 e1 cf 72 bc
       -0.14085145 6.3795587e-38 -2.333317e-23 -0.01482007
0002e0 af b7 de b8 a0 75 1b 3b e5 36 35 98 05 7b 35 ba
       -0.00010619999 0.0023721233 -2.3421416e-24 -0.00069229334
0002f0 08 2e 16 be 6b 6e f7 bc bd 50 d6 bd 46 ea 9c a4
       -0.14665997 -0.030204019 -0.10464618 -6.805109e-17
000300 29 dd 83 9c 19 93 00 80 ce 1f 1c bc 88 1f 32 bb
       -8.726021e-22 -5.2769e-41 -0.009529067 -0.0027179439
000310 25 f1 15 bc 2f 4a a3 91 d8 fa 05 bd f1 be 80 3e
       -0.009151732 -2.5762585e-28 -0.032709926 0.25145677
000320 02 a0 ae 3e 48 15 c0 be d0 98 04 bd 90 f5 11 bf
       0.3410645 -0.37516236 -0.032372296 -0.57015324
000330 ee c6 4a 3e 9c 77 b6 b8 12 38 6e b4 71 07 00 80
       0.19802448 -8.700715e-05 -2.2185876e-07 -2.67e-42
000340 0d 46 29 bc 0f 1e 01 00 82 9a 9a bb 80 1e a3 b2
       -0.010331643 1.02618e-40 -0.004718126 -1.8989567e-08
000350 92 7c 4e bd 8c d5 00 00 68 31 00 80 42 22 62 3e
       -0.05041177 7.6606e-41 -1.7724e-41 0.22083381
000360 df c3 79 ad f2 6d d9 bd b2 43 72 bb 22 03 84 3d
       -1.4197503e-11 -0.106166735 -0.003696662 0.0644591
000370 d4 f7 62 3e 71 61 8b 3e 86 85 f1 bd b1 fc 61 3e
       0.22164851 0.2722278 -0.11793046 0.2206905
000380 dc ec 8d b9 5d c2 b3 b4 0a 41 00 bf 17 54 50 be
       -0.0002707009 -3.3482766e-07 -0.5009924 -0.20344578
000390 43 e2 82 b8 ba 62 a4 a4 0c f5 32 be aa d8 d4 3d
       -6.2410276e-05 -7.129091e-17 -0.1747629 0.10392888
0003a0 f6 7a be 3c 83 7f 57 be 31 3f 47 b7 47 2d 94 bd
       0.023251992 -0.21044736 -1.1876037e-05 -0.072351985
0003b0 d8 8a d8 bb ac c7 32 bc 88 8d 8d bb 22 19 fb b9
       -0.0066083483 -0.010911863 -0.0043198504 -0.00047893176
0003c0 54 5c c9 bb 97 fc 36 b5 06 9f ca be d5 9c 69 bc
       -0.0061450396 -6.816785e-07 -0.3957445 -0.014258583
0003d0 4c 3b c2 be 5b 5b 78 30 fb 9f 33 b9 71 81 79 be
       -0.37935865 9.03517e-10 -0.00017130368 -0.24365784
0003e0 a6 5f 41 b8 a9 0c 8e be 56 c7 3c bb 1d 03 4c be
       -4.6103865e-05 -0.27744034 -0.0028805337 -0.19923063
0003f0 f8 2c 86 bd 85 d2 83 be 64 28 41 bf 7a 06 2c be
       -0.06551546 -0.2574655 -0.75452256 -0.16799346
