experiments/grail_wn_v1_ind/best_graph_classifier.pth (torch, 101740 bytes, 21 tensors)

weight f4 [8, 32]
0.08554427 0.003470166 -0.4250972 0.3471119 -0.20302759 0.88474846 0.15396234 -0.06819381
-0.16132697 -0.16199657 0.22803436 -1.0479236 0.098655805 -0.17886637 -0.045120142 0.17837349
-0.15325263 -0.042902265 -0.11881638 0.1937569 -0.29031798 0.029648585 -0.4664057 -0.17102607
-0.16577809 -0.19443445 0.09709243 0.17616843 0.31779703 0.15363178 -0.29186982 0.025319189
-0.2292141 0.15572065 0.70201004 0.039165024 0.02360842 -0.6981127 0.32432687 -0.0032736952
0.14309205 -0.25000265 -0.24707383 0.6742131 -0.17309065 0.22366065 0.03675735 -0.060908575
0.27668512 0.14118852 0.064981304 -0.4198112 0.12667929 0.18633585 0.3632476 0.23588929
0.17139654 0.028877147 -0.21026261 -0.36266172 -0.6523522 -0.31464952 0.050191224 -0.09862462
0.33722404 0.05611916 -0.062083285 -0.4500692 0.36207575 0.32024 -0.616112 0.33188424
-0.005022086 0.7489022 0.15907763 -0.247507 -0.12316624 -0.14794081 -0.42950732 -0.21868584
-0.30257562 0.26590428 -0.29104242 0.35469005 0.15737057 -0.19643311 0.07849816 -0.04827454
-0.18904814 0.3009159 0.5467961 0.7907324 0.53062886 0.6476271 0.25718957 0.24173607
0.078151025 -0.047116905 -0.12804922 0.0013041943 -0.044639125 0.14391981 0.0036701495 -0.012989041
-0.055567794 -0.007705337 0.099983975 -0.15781231 0.023325419 -0.079501554 0.001909128 0.06393631
-0.0853602 -0.03750853 -0.059257038 0.12585656 -0.084967084 0.0017807874 -0.12048845 -0.079447694
-0.113134205 -0.03969799 0.09107977 0.12685835 0.13818863 0.11395519 -0.077650316 0.059339978
-0.11628801 0.09253061 0.054159317 -0.10907095 0.10898613 -0.10308744 0.03853347 0.08721917
0.1313489 -0.04730859 -0.15375175 0.22403774 -0.12823617 0.15440543 0.041002024 -0.08697395
0.13915856 0.09106417 0.15199547 0.025635026 0.11573595 -0.0035079452 0.11140519 0.12862259
0.18508172 0.1225844 -0.088766254 -0.0072031077 -0.029964672 -0.11121754 0.0951977 -0.063533165
0.088050835 -0.024475789 -0.00912394 0.17133127 -0.11777741 -0.16838531 0.0026652112 -0.096778944
0.04948082 0.010285415 -0.08271976 0.17123295 0.1716159 -0.33687666 -0.04232412 0.0855638
-0.075152434 -0.1705123 -0.16420083 -0.11206871 0.090246655 0.041348435 -0.06113002 -0.0064399694
0.047750488 -0.062100913 0.044737898 -0.31950337 -0.102992006 -0.35283288 0.02355861 0.057251688
-0.081727155 0.04251973 0.1159264 -0.014173464 0.023688858 -0.13864061 0.055313695 0.009999719
0.09367504 -0.07961862 -0.09356944 0.25298932 -0.045081973 0.1407781 0.058788486 -0.025319856
0.11110177 0.060403258 0.13480367 -0.17794372 0.027102107 0.006213717 0.08035402 0.08253694
0.09810689 0.03766849 -0.12240273 -0.15655291 -0.18476513 -0.20437984 0.016006382 -0.070831135
-0.09007589 0.014348334 0.1642432 -0.0066626407 0.011066001 -0.13674383 0.15572414 -0.0016398297
0.059655506 -0.15223609 -0.06907031 0.19306855 -0.034266487 0.10791874 0.10341848 -0.011094652
0.112684384 0.04184208 0.035820942 -0.15372984 0.009362924 0.0018359154 0.11111527 0.10634414
0.02389107 0.020820761 -0.09694939 -0.17354307 -0.21148193 -0.18265271 0.002785534 -0.062217858
00000000: d631 af3d b96b 633b 57a6 d9be a7b8 b13e
00000010: 77e6 4fbe e07e 623f 4ea8 1d3e 32a9 8bbd
00000020: e632 25be 6ee2 25be d781 693e 5c22 86bf
00000030: 0e0c ca3d bf28 37be e6cf 38bd 8aa7 363e
00000040: 42ee 1cbe 49ba 2fbd 0156 f3bd 3568 463e
00000050: 8fa4 94be 97e1 f23c bacc eebe 7521 2fbe
00000060: bbc1 29be d319 47be 65d8 c63d 7f65 343e
00000070: 4bb6 a23e a651 1d3e f66f 95be 306a cf3c
00000080: 1ab7 6abe 3c75 1f3e eeb6 333f 816b 203d
00000090: 7266 c13c 84b7 32bf 2c0e a63e 7e8b 56bb
000000a0: b986 123e 5900 80be ec00 7dbe 3b99 2c3f
000000b0: ad3e 31be 4c07 653e e08e 163d 457b 79bd
000000c0: aca9 8d3e b993 103e eb14 853d 7ef1 d6be
000000d0: 37b8 013e d3ce 3e3e 97fb b93e f68c 713e
000000e0: 9382 2f3e c48f ec3c 154f 57be ccae b9be
000000f0: 8e00 27bf be19 a1be 5095 4d3d b4fb c9bd
00000100: a1a8 ac3e 34dd 653d 0b4b 7ebd 786f e6be
00000110: fe61 b93e 7ff6 a33e 84b9 1dbf bbec a93e
00000120: 5090 a4bb 0eb8 3f3f 3fe5 223e 7a72 7dbe
00000130: 953e fcbd cc7d 17be 62e8 dbbe 2eef 5fbe
00000140: 31eb 9abe 9b24 883e 8303 95be ef99 b53e
00000150: c025 213e c325 49be a5c3 a03d 86bb 45bd
00000160: d695 41be a611 9a3e d4fa 0b3f 706d 4a3f
00000170: 4bd7 073f e4ca 253f 5aae 833e a989 773e
00000180: a50d a03d a8fd 40bd 561f 03be 80f1 aa3a
00000190: 84d7 36bd b75f 133e e486 703b fdcf 54bc
000001a0: 0e9b 63bd 0d7d fcbb 66c4 cc3d 8d99 21be
000001b0: f314 bf3c b6d1 a2bd b53b fa3a 0af1 823d
000001c0: 54d1 aebd 8ba2 19bd 82b7 72bd 8be0 003e
000001d0: 3903 aebd 4f69 e93a a6c2 f6bd 79b5 a2bd
000001e0: e8b2 e7bd 5c9a 22bd 0888 ba3d 28e7 013e
000001f0: 5281 0d3e 5761 e93d 2107 9fbd 7a0e 733d
00000200: 6828 eebd b080 bd3d 29d6 5d3d 9760 dfbd
00000210: 1f34 df3d 821f d3bd 46d5 1d3d f79f b23d
00000220: 5380 063e a7c6 41bd 1971 1dbe 266a 653e
00000230: 5850 03be 751c 1e3e bdf1 273d 661f b2bd
00000240: 957f 0e3e da7f ba3d b3a4 1b3e 8c00 d23c
00000250: f806 ed3d 8ee5 65bb 6728 e43d a4b5 033e
00000260: 1086 3d3e 880d fb3d 15cb b5bd 0c08 ecbb
00000270: 7978 f5bc 06c6 e3bd 03f7 c23d ad1d 82bd
00000280: ff53 b43d 7381 c8bc 947c 15bc 7771 2f3e
00000290: 4835 f1bd 336d 2cbe d3aa 2e3b 0a34 c6bd
000002a0: 66ac 4a3d 2884 283c fa68 a9bd b157 2f3e
000002b0: 14bc 2f3e 197b acbe 0e5c 2dbd 133c af3d
000002c0: 85e9 99bd c79a 2ebe 4324 28be 4884 e5bd
000002d0: 3dd3 b83d fa5c 293d 7963 7abd 6106 d3bb
000002e0: 0496 433d 875d 7ebd 163f 373d f295 a3be
000002f0: 79ed d2bd 83a6 b4be fcfd c03c bf80 6a3d
00000300: 9160 a7bd 2b29 2e3d d26a ed3d d137 68bc
00000310: 230f c23c cef7 0dbe 9d90 623d ddd5 233c
00000320: b3d8 bf3d 160f a3bd 56a1 bfbd d187 813e
00000330: e0a7 38bd 2228 103e 32cc 703d 966b cfbc
00000340: 5389 e33d 6869 773d f909 0a3e e136 36be
00000350: 3d05 de3c 709c cb3b a690 a43d 2109 a93d
00000360: 44ec c83d 464a 1a3d 48ae fabd 684f 20be
00000370: 1233 3dbe f348 51be d11f 833c ea0f 91bd
00000380: b579 b8bd 4615 6b3c 5f2f 283e 4852 dabb
00000390: 2c4e 353c 9306 0cbe 2676 1f3e 8eef d6ba
000003a0: 5559 743d c7e3 1bbe bc74 8dbd c3b3 453e
000003b0: 045b 0cbd 8004 dd3d 11cd d33d 58c6 35bc
000003c0: 12c7 e63d 9a62 2b3d fbb8 123d 5b6b 1dbe
000003d0: f366 193c 19a3 f03a 6790 e33d f5ca d93d
000003e0: 35b7 c33c 4d90 aa3c 678d c6bd 46b5 31be
000003f0: b88e 58be 5009 3bbe 818d 363b 27d8 7ebd

weight f4 [4, 8, 32]
0.019112306 -0.28521717 -0.40174258 -0.065100096 -0.0841829 0.19222504 -0.34565753 -0.70129925
0.014601739 0.17225918 -0.1380391 0.079278514 -0.11021603 0.28446925 -0.19227374 -0.15222178
-0.5504179 0.020770103 -0.00234951 -0.39371586 -0.22157064 -0.3566305 0.018943291 -0.0876409
0.25323743 0.14891048 -0.03938034 0.103506416 -0.2625005 -0.314712 0.103802696 0.2512782
-0.02896525 0.103484005 -0.22106925 -0.1504459 -0.042102605 0.11639152 0.4455742 -0.2714558
0.5314208 0.34977645 0.029772311 -0.34677938 -0.32340446 -0.07712227 0.12159693 -0.060112733
-0.011954781 0.005841599 0.39639947 -0.41165602 -0.36946574 -0.05423066 -0.18541938 -0.06794119
0.26083463 0.08494771 -0.060730692 0.19982338 -0.11916936 -0.36612806 0.021182852 -0.3347001
0.066623844 0.08172521 0.68151945 -0.005740157 0.23041654 0.2206942 -0.0039090705 0.38447917
-0.02993725 0.14247644 0.11600477 0.48642048 0.12090279 0.031184213 0.3155716 0.10521401
0.4766779 0.12744361 0.1151047 0.35326678 -0.0588817 0.2918323 0.03221978 0.14670186
-0.16215847 -0.023724899 0.37025845 0.2295561 0.5714815 0.27718103 -0.09315346 0.28054103
-0.00443549 -0.018783795 0.04292817 0.15007569 0.19558467 0.20474978 -6.885e-41 -0.011558273
-9.5374176e-35 9.7138e-40 0.20646687 0.049273457 0.0008284238 -8.437932e-08 -0.07788653 6.5133947e-35
-0.020604623 1.3243065e-35 -0.08218813 0.006932243 -8.557124e-19 0.200103 0.17753085 -0.005231037
2.2011636e-10 0.19883524 -0.23280866 0.23298427 -0.11285706 0.045351718 5.861095e-07 1.7504693e-31
0.21375078 0.5477731 0.49916282 -0.0047513884 0.98808014 0.49837282 0.37666178 0.4247767
-0.24956667 0.22856578 0.5601139 0.6456701 -0.10483377 -0.04976324 0.39085856 0.0032676433
0.70012647 -0.04135821 0.1435958 0.107821375 -0.1466888 0.83841705 0.14516792 0.006220218
-0.14643535 0.1925951 0.2891809 0.52609134 0.6142167 0.43689233 0.08089316 -0.062853806
-0.10915861 -0.63445485 -0.1722625 -0.049189575 -0.53793424 -0.28237402 -0.21606998 0.10561473
-0.15736648 0.07335218 -0.11220795 -0.22750641 -0.14066753 -0.04846139 -0.09686902 -0.088264525
-0.116444044 0.109294 0.072029315 -0.4193984 -0.044251457 -0.4953815 -0.17664814 -0.011292638
-0.07245438 0.113324896 -0.2860727 -0.037743937 0.024980247 -0.14465381 -0.07888113 0.51797473
-0.19312066 -0.14845268 -0.4537196 -0.06300974 -0.20204128 0.29932955 0.08686803 -0.74719334
0.33886614 -0.20216022 0.06642117 -0.33172217 -0.13250372 -0.07936066 -0.0910117 -0.007981217
-0.8608717 0.013355533 0.083557025 -0.7779846 -0.41846386 -0.18183571 0.034400642 0.17502159
0.093899354 -0.02594761 -0.27905613 -0.23925878 -0.57590735 -0.21623285 0.26753396 -0.2382372
1.0954695e-06 -0.03618701 -0.06769115 0.0010825351 0.012624185 0.06035141 0.022606155 -0.005205499
0.31796575 0.1931558 0.04125038 -0.026145443 -0.0019298191 0.03405718 -0.008871889 -0.05511281
-0.122192025 -0.011189752 0.20137906 -0.07527259 -0.008691252 0.018002836 0.0021338663 0.026066924
-0.05300381 0.00604848 0.03502943 -0.0154449195 -0.12225938 -0.027626311 0.09401945 0.02495644
00000000: 6991 9c3c fc07 92be 34b1 cdbe 3353 85bd
00000010: 1668 acbd a4d6 443e 06fa b0be 5988 33bf
00000020: 223c 6f3c b664 303e 1f5a 0dbe c65c a23d
00000030: f1b8 e1bd f4a5 913e 68e3 44be 07e0 1bbe
00000040: 30e8 0cbf 1026 aa3c 3dfa 19bb 2095 c9be
00000050: 6ae3 62be 4698 b6be f62e 9b3c 127d b3bd
00000060: 56a8 813e fd7b 183e 484d 21bd 2cfb d33d
00000070: 7766 86be ee21 a1be 8296 d43d 89a7 803e
00000080: 8848 edbc 6cef d33d fa5f 62be 7d0e 1abe
00000090: c873 2cbd ad5e ee3d 4d22 e43e 41fc 8abe
000000a0: 320b 083f e615 b33e 10e5 f33c 118d b1be
000000b0: 4595 a5be 48f2 9dbd d007 f93d c538 76bd
000000c0: fcdd 43bc e26a bf3b dff4 ca3e 94c4 d2be
000000d0: 9d2a bdbe f820 5ebd 94de 3dbe c024 8bbd
000000e0: 1e8c 853e 11f9 ad3d bfc0 78bd 809e 4c3e
000000f0: 110f f4bd 2375 bbbe a987 ad3c d05d abbe
00000100: 1572 883d 8c5f a73d 0f78 2e3f ed17 bcbb
00000110: 50f2 6b3e a9fd 613e a917 80bb 74da c43e
00000120: f73e f5bc 58e5 113e e993 ed3d 1b0c f93e
00000130: e29b f73d 0976 ff3c 9a92 a13e 717a d73d
00000140: 200f f43e 9480 023e 03bc eb3d 62df b43e
00000150: f02d 71bd 0b6b 953e e3f8 033d 0339 163e
00000160: df0c 26be b85a c2bc 8492 bd3e c110 6b3e
00000170: 9d4c 123f acea 8d3e 3ec7 bebd 13a3 8f3e
00000180: 9657 91bb 79e0 99bc 73d5 2f3d 71ad 193e
00000190: 5947 483e eda9 513e edbf 0080 e95e 3dbc
000001a0: 4d8c fd86 d093 0a00 0d6c 533e f7d2 493d
000001b0: 952a 593a 0634 b5b3 f982 9fbd de27 ad06
000001c0: 07cb a8bc 0dd3 8c05 4052 a8bd de27 e33b
000001d0: cd8f 7ca1 cde7 4c3e a6ca 353e 1e69 abbb
000001e0: 3f05 722f 779b 4b3e 6565 6ebe 6e93 6e3e
000001f0: 9a21 e7bd b9c2 393d 2355 1d35 5239 630c
00000200: 7ce1 5a3e dc3a 0c3f 4592 ff3e 89b1 9bbb
00000210: d2f2 7c3f b92a ff3e d0d9 c03e 557c d93e
00000220: 688e 7fbe 260d 6a3e a063 0f3f a34a 253f
00000230: 16b3 d6bd 8ad4 4bbd 9d1e c83e f525 563b
00000240: 7d3b 333f 3a67 29bd c70a 133e 74d1 dc3d
00000250: 9735 16be 80a2 563f e6a6 143e f8d2 cb3b
00000260: 26f3 15be a637 453e 850f 943e ecad 063f
00000270: 4e3d 1d3f 5ab0 df3e 50ab a53d 7fb9 80bd
00000280: 8d8e dfbd a26b 22bf 9565 30be 027b 49bd
00000290: 0fb6 09bf 5493 90be 7341 5dbe 894c d83d
000002a0: ae24 21be ab39 963d 48cd e5bd 71f7 68be
000002b0: 260b 10be 737f 46bd 4463 c6bd 08c4 b4bd
000002c0: 377a eebd 88d5 df3d 1b84 933d 63bb d6be
000002d0: 0441 35bd a5a2 fdbe 40e3 34be c204 39bc
000002e0: f662 94bd e216 e83d 1f78 92be 6399 1abd
000002f0: 60a3 cc3c 2120 14be 6e8c a1bd fe99 043f
00000300: 6cc1 45be fb03 18be ef4d e8be 400b 81bd
00000310: e9e3 4ebe b941 993e dee7 b13d 1048 3fbf
00000320: dd7f ad3e 1703 4fbe d307 883d 7dd7 a9be
00000330: 0eaf 07be d787 a2bd 5864 babd a6c3 02bc
00000340: 1662 5cbf 2ad1 5a3c f21f ab3d 002a 47bf
00000350: e540 d6be 2433 3abe b0e7 0c3d dc38 333e
00000360: 4e4e c03d 1590 d4bc 72e0 8ebe 4100 75be
00000370: aa6e 13bf 256c 5dbe 36fa 883e 74f4 73be
00000380: 0c08 9335 d538 14bd a8a1 8abd dae3 8d3a
00000390: abd5 4e3c 0a33 773d 8b30 b93c e492 aabb
000003a0: 68cc a23e a2ca 453e 29f6 283d f82e d6bc
000003b0: fcf1 fcba 8b7f 0b3d 665b 11bc f8bd 61bd
000003c0: d03f fabd 3955 37bc 5036 4e3e 8428 9abd
000003d0: c165 0ebc af7a 933c 56d8 0b3b 4d8a d53c
000003e0: 861a 59bd 5432 c63b 057b 0f3d b00c 7dbc
000003f0: 2063 fabd 9350 e2bc 458d c03d 7371 cc3c

w_comp f4 [8, 4]
0.39677557 0.14613144 0.4529095 0.024554787 -0.6244221 0.4010111 0.7808861 0.15735301
0.33620456 0.63384765 0.3533893 -0.21684116 0.09325195 0.67527205 -0.07006928 -1.0702065
0.56787175 -0.44248828 0.023745745 0.29256663 0.19329152 0.66471535 -0.023781149 -0.55347717
0.2973748 -0.8942588 -0.13333997 0.16384724 -0.095397696 0.07007672 -0.19110693 -0.020041915
00000000: 2b26 cb3e 7ba3 153e c1e3 e73e 1f27 c93c
00000010: 20da 1fbf 5451 cd3e 27e8 473f 2621 213e
00000020: 0123 ac3e d743 223f 71ef b43e 9c0b 5ebe
00000030: e1fa be3d a1de 2c3f 7c80 8fbd 87fc 88bf
00000040: 0b60 113f d38d e2be 7086 c23c 4bcb 953e
00000050: 36ee 453e c92a 2a3f afd0 c2bc aeb0 0dbf
00000060: 8341 983e 25ee 64bf 468a 08be 92c7 273e
00000070: de5f c3bd 6284 8f3d 89b1 43be f12e a4bc

self_loop_weight f4 [8, 32]
0.14720644 -0.32700115 0.09560398 -0.07012272 0.24687037 0.16483898 -0.15070659 0.35087946
-0.1685741 0.009736633 0.09341654 0.3411572 -0.28865334 0.003537035 -0.2505823 0.0016797447
0.44665712 -0.19179146 -0.035335913 -0.2527325 -0.09099013 0.5294153 -0.14060389 0.32179612
-0.26362506 -0.005480603 0.24206144 0.40229696 -0.15309249 0.2510186 -0.3485846 -0.30255863
-0.12739615 -0.9340313 0.09089613 -0.19656505 -0.77585375 -0.116239816 -0.4338472 0.2609717
-0.2138446 -0.22196926 0.017808994 0.3697672 -0.044058803 -0.075280726 0.56241477 -0.0547365
-0.6674716 0.028645407 -0.50510156 0.20949371 -0.30975136 -0.73024 -0.5899971 -0.0880265
0.03982633 -0.6223561 0.46096823 -0.89133424 0.8383626 0.3291378 -0.018396204 0.07711325
-0.015706029 0.44550052 0.64879125 0.37379384 -0.26655167 0.20887142 0.17120348 -0.9774227
-0.036707964 -0.024605937 -0.26809564 -0.9239943 -0.037458513 -0.046735387 -0.26729763 -0.035377342
-0.92612976 -0.23748535 0.3352124 0.4332962 -0.22053887 -0.43308115 -0.016728725 -0.119106725
0.30964828 0.28625572 -0.9290145 0.3566373 0.4096277 -0.6244583 -0.4267161 -0.47023937
-0.00033540212 -0.27689773 -0.08676352 -1.540771e-39 -0.116729386 0.19926739 -0.00021644314 -0.17713237
-0.017859833 0.06884626 0.007840327 -0.15046316 -0.080136634 -0.0013885428 -0.50188386 -3.6055675e-17
-0.11954673 -0.012945607 0.85339135 -0.22874464 -0.020907383 0.17152134 -0.026331143 0.001593588
-0.030704632 0.007587138 -0.15585707 -0.0058199065 -0.13312677 -0.28081226 -3.1242073e-37 -0.12384047
-0.32615188 -0.29357225 -0.68107694 0.0047743 -0.44196126 0.5500915 -0.1607608 -0.6551241
-0.05753987 0.20642836 -0.16386764 -0.48130697 -0.38888997 -0.11488103 -0.10344547 -0.12013994
0.060104042 -0.34568605 -0.13217425 -0.5022481 -0.03276269 -0.75683033 -0.4145129 0.00020513512
0.34076548 0.17103963 -0.7112931 -0.20826955 -1.1547478 -0.4279119 0.70932925 -0.57838607
-0.32377112 0.17902112 0.9662829 -0.46428797 -0.37275553 -0.33152944 -0.3397409 -0.4674877
-0.40016744 -0.52623874 0.16457953 0.4676981 -0.13319416 -0.02243707 0.84888023 -0.15098584
-0.27951038 -0.18922812 0.35293707 0.06233357 -0.68411005 -0.097944856 -0.25523347 -0.36745965
-0.3516203 -0.44350436 -0.32712495 -0.45365897 1.2069616 -0.018881481 -0.95735437 -0.15728267
-0.20819938 -0.612808 -0.32583755 -0.055388942 0.631932 -0.4170228 -0.5055692 0.82099843
-0.22162867 0.1262688 0.110857576 0.86762285 0.02732146 0.028469805 0.18884288 -0.014670938
0.87301683 -0.04328399 -0.4385877 0.6094652 -0.22377554 0.4233778 0.26041123 -0.1305869
-0.3847642 0.34029558 0.7792661 0.7782791 0.16820188 0.45332867 -0.37843296 0.28948164
-0.06304468 0.33397716 -0.15554802 -0.01737174 0.040066686 -0.16058896 0.06143975 -0.45281526
-0.2710821 0.09458081 -0.1753834 -0.4122973 -0.13768597 -0.011846789 -0.61718947 0.020070786
-0.058263868 -0.11172835 0.058737636 -0.19543189 -0.13391039 -0.040908754 -0.005415856 -0.08504602
-0.44713518 -0.2734044 -0.5594268 -0.12444981 -0.87664366 -0.38361192 0.27143228 -0.57811636
00000000: 49bd 163e b26c a7be 05cc c33d 809c 8fbd
00000010: 96cb 7c3e 8dcb 283e d452 1abe 79a6 b33e
00000020: b09e 2cbe 6686 1f3c 2c51 bf3d 28ac ae3e
00000030: 5fca 93be 9acd 673b 534c 80be e12a dc3a
00000040: 3eb0 e43e fb64 44be 64bc 10bd 2766 81be
00000050: 0959 babd c387 073f 77fa 0fbe 76c2 a43e
00000060: ddf9 86be a196 b3bb f4de 773e def9 cd3e
00000070: 47c4 1cbe 8385 803e ae79 b2be f7e8 9abe
00000080: 2374 02be ad1c 6fbf c027 ba3d 5948 49be
00000090: 5a9e 46bf 240f eebd 3821 debe 159e 853e
000000a0: 14fa 5abe e94b 63be 2be4 913c 2052 bd3e
000000b0: 0177 34bd c82c 9abd 6afa 0f3f 6133 60bd
000000c0: 6bdf 2abf c6a9 ea3c 564e 01bf 8585 563e
000000d0: bb97 9ebe 02f1 3abf 0d0a 17bf 3d47 b4bd
000000e0: ef20 233d bb52 1fbf 0704 ec3e 7b2e 64bf
000000f0: ee9e 563f c084 a83e a3b3 96bc 8ded 9d3d
00000100: eea9 80bc a518 e43e 2f17 263f e861 bf3e
00000110: 7679 88be 64e2 553e f74f 2f3e 6038 7abf
00000120: 175b 16bd 6492 c9bc d543 89be e48a 6cbf
00000130: 196e 19bd 9b6d 3fbd 3cdb 88be d5e7 10bd
00000140: d716 6dbf 5c2f 73be f6a0 ab3e 00d9 dd3e
00000150: f1d4 61be d0bc ddbe ae0a 89bc 3aee f3bd
00000160: 388a 9e3e 1c90 923e e5d3 6dbf 2a99 b63e
00000170: b9ba d13e 80dc 1fbf 887a dabe 37c3 f0be
00000180: e9d8 afb9 8ac5 8dbe 13b1 b1bd 0bc7 1080
00000190: d10f efbd c00c 4c3e 03f5 62b9 3062 35be
000001a0: c94e 92bc 45ff 8c3d b774 003c 0413 1abe
000001b0: ad1e a4bd c4ff b5ba 767b 00bf 0747 26a4
000001c0: ead4 f4bd d019 54bc db77 5a3f 093c 6abe
000001d0: f645 abbc 4aa3 2f3e 69b4 d7bc f1df d03a
000001e0: 4888 fbbc 879d f83b ff98 1fbe eab4 bebb
000001f0: 6252 08be a0c6 8fbe 5e9f d482 13a0 fdbd
00000200: 61fd a6be 1a4f 96be 0f5b 2ebf bb71 9c3b
00000210: bf48 e2be ccd2 0c3f 7b9e 24be 37b6 27bf
00000220: edae 6bbd f561 533e ebcc 27be de6d f6be
00000230: 961c c7be bf46 ebbd 38db d3bd ee0b f6bd
00000240: a82f 763d c3fd b0be b058 07be 5593 00bf
00000250: 2c32 06bd a2bf 41bf 093b d4be 8a19 5739
00000260: d078 ae3e 0325 2f3e 4e17 36bf 9d44 55be
00000270: c7ce 93bf 4517 dbbe 9a96 353f 1c11 14bf
00000280: 54c5 a5be 5051 373e 515e 773f 27b7 edbe
00000290: d0d9 bebe 3abe a9be 85f2 adbe 8c5a efbe
000002a0: bfe2 ccbe 95b7 06bf 8987 283e 2076 ef3e
000002b0: 0d64 08be f2cd b7bc 3750 593f 089c 1abe
000002c0: fc1b 8fbe 04c5 41be 2bb4 b43e 7c51 7f3d
000002d0: d621 2fbf 5097 c8bd f6ad 82be ac23 bcbe
000002e0: 9307 b4be 0113 e3be ec7c a7be fd45 e8be
000002f0: b87d 9a3f 56ad 9abc 2d15 75bf b50e 21be
00000300: 3832 55be fce0 1cbf 2ed4 a6be 84df 62bd
00000310: 4cc6 213f 0384 d5be fc6c 01bf f42c 523f
00000320: a0f2 62be 9c4c 013e 4c09 e33d 881c 5e3f
00000330: 41d1 df3c 8239 e93c 0760 413e 605e 70bc
00000340: 087e 5f3f 8e4a 31bd 918e e0be e905 1c3f
00000350: 6a25 65be fac4 d83e 9f54 853e 93b8 05be
00000360: d0ff c4be 393b ae3e fc7d 473f 4d3d 473f
00000370: 1d3d 2c3e b21a e83e f7c1 c1be f036 943e
00000380: 921d 81bd 0eff aa3e fb47 1fbe 2e4f 8ebc
00000390: f71c 243d 6f71 24be 3fa8 7b3d 67d7 e7be
000003a0: 46cb 8abe 95b3 c13d b597 33be a218 d3be
000003b0: 8dfd 0cbe 0919 42bc 2100 1ebf 7d6b a43c
000003c0: 18a6 6ebd d5d1 e4bd e096 703d 4c1f 48be
000003d0: ce1f 09be f08f 27bd 7e77 b1bb 9c2c aebd
000003e0: e7ee e4be a9fb 8bbe 9836 0fbf 8bdf febd
000003f0: b86b 60bf c868 c4be 2cf9 8a3e 6fff 13bf

weight f4 [8, 80]
-0.28145418 0.12671155 -0.0052502793 1.331313e-22 0.22374901 -0.41516677 0.04696025 0.010339252
0.12785305 -0.19518632 0.0030280363 -0.0020193947 -0.10626424 -0.024876358 0.007756858 1.2335847e-08
0.030153776 0.0013679978 -0.0058642616 0.0038328548 -0.010599316 -0.013549689 -0.06427058 -0.003221304
-0.03318303 0.06907559 -0.013289317 -0.02102934 0.06985246 -0.0022312514 -0.043224946 0.011914839
0.0018578027 0.026790757 -0.036981218 0.044012565 0.075938985 0.017385257 -0.033537485 0.023787033
0.01244482 -0.016196547 0.017832229 0.13857806 0.03005911 0.012734235 0.093746 -0.0246673
0.004350613 0.021207185 -0.025039202 0.008729595 0.040418964 0.029512744 -0.01551702 0.0060934275
0.0034976625 0.06234262 -0.027177528 -0.13423674 0.05975448 -0.023032052 0.008195627 -0.023588276
0.01193627 0.0135311745 -0.056119412 0.062006555 0.0106785195 -0.01524533 0.0177801 0.009227763
0.08165553 0.03901204 0.01685642 0.061391514 0.10262904 0.050914474 0.054747142 -0.042807743
0.2879308 -0.09864721 -0.06826713 -0.028343992 -0.16339953 0.36421955 -0.32042766 -0.08657485
0.15542412 -0.015442649 0.022819059 -0.27962694 -0.00023126579 0.1964968 -0.029861191 -0.0040321434
0.07909598 -0.074285775 0.03932879 0.052762512 -0.072245486 0.050820995 0.098572835 -0.057946783
-0.09737398 -0.13980612 0.12537658 -0.12583195 0.09222097 -0.009276538 0.04920525 0.07700541
-0.020878576 -0.08987172 -0.009760056 0.06906934 -0.16568793 0.0019597304 -0.006333495 -0.061296307
-0.12845951 -0.061957028 0.047410276 0.028463563 -0.06570135 0.08694992 -0.12459526 0.022337675
-0.12907821 0.09286682 0.4575201 -0.07369299 0.11925704 -0.64240986 0.21494077 0.058591843
0.21541204 -0.17708409 -0.341511 0.6036839 -0.13294186 0.19246212 0.045804173 -0.21602842
0.26674065 0.06233934 0.11525919 -0.3118133 0.2139599 -0.048234276 0.34395394 0.3044604
0.21414593 0.12623242 -0.12068084 -0.4706593 -0.4345972 -0.36385778 0.09790589 -0.026402451
0.69284075 -0.4445901 -0.10296981 -0.01991409 0.003697962 0.69220626 -0.6075972 0.029446544
0.010375178 0.37200418 0.0021681553 -0.2767701 0.17257248 0.12351878 -0.24105617 0.002112265
-0.014805666 -0.03231677 -0.015349848 -0.032465734 -0.017740926 -0.021830952 0.086060405 -0.02445723
0.0505182 -0.18805903 -0.022140117 0.10863364 0.048465755 0.113351256 0.13893957 0.010116824
0.07307833 -0.025185773 0.13895014 -0.023338526 -0.018842569 0.021692421 -0.05706869 0.014540771
0.0068303323 0.017507736 -0.07144465 -0.10705585 -0.12414921 -0.11713901 -0.06600972 -0.036162987
-0.3264017 0.18265693 0.4585661 -0.17495489 0.21178997 -0.5994495 0.11185939 0.16621222
0.3247448 -0.13437827 -0.38980183 0.7215526 -0.36506724 0.3691344 0.08464049 -0.1682967
0.34295315 0.19702946 0.36089438 -0.522989 0.23735477 -0.037568156 0.38457015 0.32656112
0.3950149 0.21663815 -0.35568005 -0.559353 -0.63303983 -0.477978 0.24192567 -0.16322693
-0.48069102 0.7939655 0.051769804 0.03558909 0.8658398 -1.2911562 0.7925449 0.0033575925
0.69325453 -0.4883231 0.13172877 0.28161606 -0.14674461 0.3279051 0.28078818 0.00035946898
00000000: c31a 90be acc0 013e 890a acbb 24f2 201b
00000010: 761e 653e bd90 d4be 6459 403d f765 293c
00000020: e9eb 023e ecde 47be 0572 463b d257 04bb
00000030: 11a1 d9bd 81c9 cbbc 3e2d fe3b a1ed 5332
00000040: 0d05 f73c 644e b33a fe28 c0bb a230 7b3b
00000050: c1a8 2dbc 84ff 5dbc 4ba0 83bd 831c 53bb
00000060: eeea 07bd 8177 8d3d 6fbb 59bc b945 acbc
00000070: ce0e 8f3d 303a 12bb a40c 31bd 7536 433c
00000080: 8481 f33a 4a78 db3c 9e79 17bd 8546 343d
00000090: e685 9b3d 876b 8e3c 9a5e 09bd 06dd c23c
000000a0: 5ce5 4b3c 9fae 84bc e514 923c 68e7 0d3e
000000b0: 863e f63c 41a3 503c e7fd bf3d 1413 cabc
000000c0: 968f 8e3b b1ba ad3c 031f cdbc 9306 0f3c
000000d0: 5b8e 253d b6c4 f13c 193b 7ebc 60ab c73b
000000e0: 0a39 653b fa5a 7f3d 68a3 debc 5b75 09be
000000f0: 1dc1 743d b7ad bcbc f346 063c 333c c1bc
00000100: 5890 433c dcb1 5d3c 78dd 65bd 96fa 7d3d
00000110: f5f4 2e3c 8cc7 79bc 93a7 913c 0b30 173c
00000120: 043b a73d 17cb 1f3d 7a16 8a3c ab75 7b3d
00000130: 2d2f d23d b28b 503d 8a3e 603d 2c57 2fbd
00000140: aa6b 933e 8c07 cabd a3cf 8bbd a931 e8bc
00000150: 3552 27be fc7a ba3e 180f a4be 284e b1bd
00000160: 8027 1f3e 2a03 7dbc 09ef ba3c 432b 8fbe
00000170: f07f 72b9 7536 493e 759f f4bc 1220 84bb
00000180: 13fd a13d 2423 98bd 3a17 213d 811d 583d
00000190: 71f5 93bd ad29 503d 8ee0 c93d 9b59 6dbd
000001a0: 026c c7bd 5629 0fbe b862 003e 17da 00be
000001b0: 59de bc3d 9ffc 17bc 728b 493d 03b5 9d3d
000001c0: 8c09 abbc aa0e b8bd a4e8 1fbc 3a74 8d3d
000001d0: 19aa 29be d26e 003b 3589 cfbb d611 7bbd
000001e0: e48a 03be a7c6 7dbd 4731 423d 6b2c e93c
000001f0: 6e8e 86bd cd12 b23d cd2b ffbd 80fd b63c
00000200: 142d 04be f630 be3d 1340 ea3e 5aec 96bd
00000210: 093d f43d f974 24bf 6f19 5c3e 00fe 6f3d
00000220: f994 5c3e 8855 35be 88da aebe 078b 1a3f
00000230: e921 08be ca14 453e 289d 3b3d 8e36 5dbe
00000240: 3b92 883e 8957 7f3d 030d ec3d fea5 9fbe
00000250: 4e18 5b3e 4e91 45bd bb1a b03e 3ce2 9b3e
00000260: 1249 5b3e 1243 013e 8427 f7bd 41fa f0be
00000270: 8683 debe 914b babe e282 c83d f449 d8bc
00000280: 035e 313f 50a1 e3be d6e1 d2bd e022 a3bc
00000290: 8259 723b 6e34 313f 7d8b 1bbf e139 f13c
000002a0: a7fc 293c 5577 be3e 9c17 0e3b d0b4 8dbe
000002b0: d7b6 303e 6af7 fc3d 6ed7 76be ed6d 0a3b
000002c0: 7793 72bc 975e 04bd ee7d 7bbc cafa 04bd
000002d0: 6b55 91bc d3d6 b2bc 7040 b03d 875a c8bc
000002e0: 2cec 4e3d 8c92 40be 315f b5bc 507b de3d
000002f0: 0784 463d b424 e83d 2d46 0e3e 09c1 253c
00000300: 17aa 953d 6552 cebc f248 0e3e 7030 bfbc
00000310: bb5b 9abc 4eb4 b13c dcc0 69bd 6a3c 6e3c
00000320: fbd0 df3b 626c 8f3c 9351 92bd 1940 dbbd
00000330: f141 febd 94e6 efbd 1b30 87bd a41f 14bd
00000340: 201e a7be 6b0a 3b3e 2dc9 ea3e 6027 33be
00000350: 78df 583e 8675 19bf 8916 e53d 8933 2a3e
00000360: f344 a63e 759a 09be 1b94 c7be acb7 383f
00000370: 18ea babe 2fff bc3e fe57 ad3d f855 2cbe
00000380: 8e97 af3e 17c2 493e 26c7 b83e 9be2 05bf
00000390: 210d 733e 11e1 19bd 61e6 c43e 0533 a73e
000003a0: 653f ca3e 64d6 5d3e b21b b6be c231 0fbf
000003b0: e60e 22bf 88b9 f4be 5dbb 773e f624 27be
000003c0: 221d f6be 5341 4b3f 930c 543d dec5 113d
000003d0: ada7 5d3f 9b44 a5bf 39e4 4a3f 0e0b 5c3b
000003e0: 2179 313f 7c05 fabe e8e3 063e fb2f 903e
000003f0: 3844 16be 2de3 a73e 78c3 8f3e 1c77 bc39

bias f4 [8]
-0.10281458 0.16351128 0.3491152 0.23636739 -0.031159062 -0.07739063 -0.0898586 0.099647045
00000000: 7390 d2bd 806f 273e 3abf b23e 4b0a 723e
00000010: 4a41 ffbc fb7e 9ebd c907 b8bd c013 cc3d

weight f4 [1, 8]
0.023204146 -0.4214462 -0.3991075 0.3094162 0.04881598 0.019478617 -0.14521988 -0.36612764
00000000: 9f16 be3c ccc7 d7be d157 ccbe cd6b 9e3e
00000010: 44f3 473d 9f91 9f3c 85b4 14be 1575 bbbe

weight f4 [4, 32, 32]
-0.014121189 -0.03314941 -0.14063986 -0.076427855 -0.20251024 -0.09389443 -0.06965869 -0.08539111
-5.78416e-08 -0.009690811 0.020081323 -0.021330731 -0.0005495131 -0.027426517 -0.024408989 0.003167235
-0.007820942 -0.06729972 -0.027508862 -0.23218864 -0.03713056 -0.011120124 -0.022241257 -0.033177253
-0.0045389147 0.0008913765 -0.2057703 0.02768581 -0.026888946 -0.027218381 -0.24100226 -0.018532934
0.045734502 0.008256628 0.005481274 0.050969888 0.12509958 -0.007171834 0.008087872 -0.06355775
0.00014717066 -0.0076202415 -0.0016238865 -0.02060022 -0.00056658237 -0.01950307 0.059381526 0.0034169818
-0.24306123 -0.02213213 -0.0588356 0.5040469 -0.12964317 -0.0112133315 -0.0072346856 -0.017611267
-0.00096957554 -0.046264175 -0.033662945 0.021156507 -0.031025285 -0.2126582 -0.14674088 -0.03692206
-0.022463227 -0.19055969 -0.13182767 -0.05733142 -0.13083379 -0.17021014 -0.23981516 -0.56764024
-0.0078927465 0.10320049 0.00043128128 -0.22247618 -0.039068524 0.16493882 0.018869095 -0.04794741
0.15091565 0.0039337506 -0.13371316 -0.009757388 -0.028511865 -0.03370171 -0.2110909 -0.16511586
-0.28937542 -0.7034122 -0.11661568 0.029759448 -0.10047418 -0.35518587 -0.5261397 -0.18051928
-0.02462844 0.01822187 -0.049484782 -0.018295335 0.007859493 0.0037948715 0.011336376 1.2191481e-05
-6.655394e-20 4.143998e-31 0.0002475143 -0.004708231 -0.00076744147 1.6978318e-11 0.13628013 0.009520004
0.17900258 0.025172481 0.004449644 0.053379737 0.025143782 0.00083311077 0.0020954441 -0.00015644876
0.036695287 -0.04575626 -0.11977018 -0.04736414 0.0023673398 -0.021682803 0.0019421625 -0.008559101
-0.0140137505 -0.11276248 -0.11537317 -0.123193964 -0.26960063 -0.06465748 -0.03415962 -0.18538497
-3.194263e-05 -0.0705345 0.076601095 -0.13013925 -0.0015955227 -0.05440057 0.27526277 -0.016048916
0.1567152 0.011210565 -0.005201238 -0.3531041 -0.023374632 0.018174563 -0.08569339 -0.049546946
-0.06211178 -0.26209146 -0.31578153 0.06132877 -0.0425943 -0.050553903 -0.2909968 -0.06711968
-0.08106118 0.09568308 0.19063552 0.07941947 -0.04862427 -0.11269423 0.09246464 -0.15459108
-0.00017393366 -0.07195025 0.02940107 -0.10629708 -0.028310696 -0.1666004 0.022939721 0.07130687
0.36915037 0.018129956 0.042543896 0.33102635 0.0012186094 -0.017971467 -0.15837707 -0.0184042
0.061571788 0.07094675 0.28278902 -0.0054726154 -0.020339122 -0.059553213 0.031940453 -0.03560577
0.0015381576 0.0006652078 -0.018474791 -0.0005058391 -0.016669994 0.0004186421 -0.00041124097 0.00017866076
-1.4538911e-28 -4.4131583e-38 -9.491247e-06 1.2652172e-05 -9.384222e-11 -1.1773842e-06 0.0019242724 7.832299e-06
-0.047434922 -2.2582242e-08 -0.00039441773 0.036027357 -0.0006729582 1.2475872e-27 4.525519e-05 -1.5391928e-08
-9.328108e-24 1.2658374e-05 -0.033657618 1.9955082e-06 -7.927278e-05 2.190858e-06 -0.03978672 7.785738e-09
0.18941763 -0.038801752 -0.10402282 -0.019159507 -0.3468092 -0.039241508 -0.034482975 -0.23661155
-0.00032697697 -0.11936013 -0.086820796 0.0016574218 -0.000909411 -0.11496734 -0.051970266 -0.024701778
0.04154372 -0.09743186 0.03368186 -0.05587206 0.35262868 -0.03835772 -0.021878466 -0.031541776
-1.417932e-07 -0.1022211 -0.06991352 -0.156896 -0.13239674 -0.20601062 0.099879205 -0.04884769
00000000: 8f5c 67bc adc7 07bd e503 10be 3586 9cbd
00000010: d85e 4fbe b94b c0bd 37a9 8ebd 89e1 aebd
00000020: 836d 78b3 35c6 1ebc 9681 a43c c9bd aebc
00000030: 330d 10ba 93ad e0bc 5cf5 c7bc 6391 4f3b
00000040: 6923 00bc 70d4 89bd 445a e1bc dcc2 6dbe
00000050: 3716 18bd 2e31 36bc 4c33 b6bc dfe4 07bd
00000060: 2dbb 94bb 44ab 693a 73b5 52be 5acd e23c
00000070: 3546 dcbc 15f9 debc 4cc9 76be 61d2 97bc
00000080: 1a54 3b3d cf46 073c 429c b33b cdc5 503d
00000090: 1b1a 003e b401 ebbb fe82 043c 912a 82bd
000000a0: d351 1a39 38b3 f9bb 97d8 d4ba cbc1 a8bc
000000b0: b386 14ba e7c4 9fbc 0b3a 733d 71ef 5f3b
000000c0: 0be5 78be 714e b5bc 99fd 70bd 3809 013f
000000d0: 2ec1 04be 1fb8 37bc f110 edbb 8145 90bc
000000e0: 1d2b 7eba 817f 3dbd 28e2 09bd 6950 ad3c
000000f0: bd28 febc 12c3 59be 3e43 16be 963b 17bd
00000100: cd04 b8bc 1422 43be d5fd 06be 5ad4 6abd
00000110: 4bf9 05be 914b 2ebe 1b92 75be df50 11bf
00000120: 9450 01bc c75a d33d 981d e239 ccd0 63be
00000130: 5106 20bd b9e5 283e 5c93 9a3c 8164 44bd
00000140: a289 1a3e b1e6 803b 1aec 08be 74dd 1fbc
00000150: b791 e9bc ce0a 0abd 3628 58be 2214 29be
00000160: 0429 94be d212 34bf 34d4 eebd 16ca f33c
00000170: 68c5 cdbd ecda b5be 17b1 06bf 0cda 38be
00000180: 95c1 c9bc 0846 953c 8eb0 4abd 19e0 95bc
00000190: 1ac5 003c 61b3 783b 35bc 393c 038a 4c37
000001a0: 6325 9d9f fd7a 060d cfc4 8139 8147 9abb
000001b0: 202e 49ba c657 952d 058d 0b3e caf9 1b3c
000001c0: 744c 373e 8536 ce3c 52ce 913b b6a4 5a3d
000001d0: 55fa cd3c 1e65 5a3a b853 093b 650c 24b9
000001e0: cc4d 163d eb6a 3bbd 114a f5bd e700 42bd
000001f0: 5f25 1b3b 22a0 b1bc 2990 fe3a 793b 0cbc
00000200: ee99 65bc 04f0 e6bd c548 ecbd 1e4d fcbd
00000210: 1809 8abe 246b 84bd f5ea 0bbd 8fd5 3dbe
00000220: 23fa 05b8 6474 90bd 09e1 9c3d 3943 05be
00000230: dc20 d1ba 22d3 5ebd 3eef 8c3e 0479 83bc
00000240: f379 203e 85ac 373c 266f aabb 10ca b4be
00000250: 287c bfbc d2e2 943c 0480 afbd bdf1 4abd
00000260: ec68 7ebd da30 86be 1eae a1be e033 7b3d
00000270: 5c77 2ebd 9c11 4fbd 88fd 94be 0b76 89bd
00000280: 6703 a6bd 7ef5 c33d f535 433e ada6 a23d
00000290: 3e2a 47bd 3ccc e6bd 1a5e bd3d 204d 1ebe
000002a0: f661 36b9 a75a 93bd 83da f03c 49b2 d9bd
000002b0: d5eb e7bc 4c99 2abe 15ec bb3c 5609 923d
000002c0: 4701 bd3e 4685 943c 8242 2e3d 497c a93e
000002d0: bfb9 9f3a e638 93bc 992d 22be 68c4 96bc
000002e0: b332 7c3d 884c 913d b9c9 903e a053 b3bb
000002f0: 3b9e a6bc 12ee 73bd fed3 023d 5bd7 11bd
00000300: 019c c93a 5761 2e3a 7258 97bc 4a9a 04ba
00000310: 838f 88bc 317d db39 d49b d7b9 e256 3b39
00000320: 774d 3891 7346 7081 983c 1fb7 aa44 5437
00000330: 795c ceae 9d06 9eb5 de37 fc3a 7867 0337
00000340: 1f4b 42bd e0fa c1b2 dac9 ceb9 6c91 133d
00000350: 7669 30ba 26b0 c512 64d0 3d38 3537 84b2
00000360: 8e6e 3499 4d5f 5437 92dc 09bd 92ea 0536
00000370: 403f a6b8 a706 1336 66f7 22bd 0ac2 0532
00000380: b2f6 413e 96ee 1ebd eb09 d5bd 66f4 9cbc
00000390: fa90 b1be b4bb 20bd 053e 0dbd 4c4a 72be
000003a0: 1b6e abb9 1573 f4bd 1acf b1bd d93d d93a
000003b0: 8a65 6eba ff73 ebbd c6de 54bd 625b cabc
000003c0: bf29 2a3d 5b8a c7bd fdf5 093d 1ada 64bd
000003d0: bf8b b43e fc1c 1dbd 783a b3bc f331 01bd
000003e0: d13f 18b4 4c59 d1bd d22e 8fbd 58a9 20be
000003f0: 0393 07be 73f4 52be 788d cc3d 8414 48bd

w_comp f4 [8, 4]
0.2240493 -0.22895299 -0.024071455 0.099213704 0.26892024 0.102446906 -0.4115767 0.3680987
0.5391011 0.8011464 0.060952686 -0.5959185 -0.21096061 0.09968164 -0.99169135 0.07047839
-0.2951263 0.16946095 -0.7174697 -0.20639168 0.18419261 -0.30106264 0.26984134 0.32747805
3.315e-41 4.275e-41 -1.04838e-40 1.7483e-41 -9.6108e-41 1.704e-41 -9.9702e-41 1.3445526e-07
00000000: 2e6d 653e a772 6abe 8031 c5bc 8e30 cb3d
00000010: eaaf 893e afcf d13d 2eba d2be 6f77 bc3e
00000020: 8802 0a3f ee17 4d3f 86a9 793d 1d8e 18bf
00000030: 0f06 58be e325 cc3d 7cdf 7dbf f956 903d
00000040: cb1a 97be 2c87 2d3e 18ac 37bf 5758 53be
00000050: fd9c 3c3e e224 9abe a528 8a3e 34ab a73e
00000060: 695c 0000 2b77 0000 3f24 0180 bc30 0000
00000070: e90b 0180 802f 0000 ee15 0180 c85e 1034

self_loop_weight f4 [32, 32]
-0.08737997 0.213492 -0.29689127 -0.02432106 0.058947615 -0.20960678 0.045678675 0.12540373
-0.0048816786 -0.00068100006 -0.0704177 -0.14983937 -0.06760592 -0.014375645 -0.0016986519 0.073704995
0.33826724 0.014457414 0.014386595 -0.11883467 -0.35709965 -0.00489971 -0.030255174 -0.11167135
-0.009804169 -0.10500271 0.034946322 0.03138225 -0.08995019 -0.10328125 0.09951711 0.015425554
-0.1751609 0.1251961 0.36882457 0.03846028 0.02939293 0.0029540455 -0.109319784 0.17052966
0.014874486 0.0073792515 -0.11511506 -0.19496989 -0.025763791 -0.18047923 -0.44088694 0.00080324925
0.4671852 -0.300357 -0.27840534 0.42865548 -0.7447447 1.2439973e-05 -0.16440916 -0.062239897
0.035319947 -0.36328512 -0.009653093 -0.22066377 -0.013349292 -0.28926882 0.2853717 -0.063904844
-0.30298504 0.16480206 0.2831713 -0.23001707 -0.035044268 -0.35900283 0.010986925 -0.2491568
-0.021770254 -0.17140774 -0.07458195 -0.72075427 -0.17126611 -0.36812314 -1.078897 -0.21886706
0.24744932 -0.32191554 -0.2742675 0.8506094 -0.3676721 -0.14402771 -0.018862912 -0.16608518
-0.16174227 -0.2049219 0.3095742 -0.22367585 0.011027493 -0.31168875 0.4321674 -0.16702898
0.16890185 0.13672172 0.020364074 0.16621411 -0.11252153 0.022844547 -0.208495 0.046347924
0.003096758 -0.0022024955 -0.04729949 -0.13278283 -0.01215272 0.029817209 -0.02253079 -0.06472228
-0.2907587 0.1536493 0.10379732 -0.2312796 0.19816089 -0.00440674 0.12491213 -0.052768074
0.065251775 -0.013710625 -0.09248342 0.020160647 -0.19160858 -0.04289981 -0.02720877 0.06750072
-0.065482184 0.4010651 0.4411676 0.19403231 -0.19230698 0.22313304 -0.25634998 0.11868646
0.00018936908 -0.06530954 0.058254436 -0.14519835 -0.075952165 -0.32277006 -0.19946218 -0.06408188
0.7775613 0.22726077 0.11561514 0.30258423 0.12724955 -0.022326058 0.2828929 -0.058528755
0.058819663 -0.14974722 0.2638846 0.18326648 -0.18354873 -0.25139922 0.38229528 0.22302304
-0.19286203 -0.05354769 0.31547794 0.38187703 -0.2733966 0.19395535 -0.04520656 0.36922976
-0.08281233 -0.22497796 -0.28900757 -0.21532941 -0.18751751 0.27347907 0.6658811 0.016301982
0.050546728 -0.4760168 -0.11209918 -0.22400692 0.17096683 -0.09380966 0.20220825 -0.35984617
-0.24178013 -0.19119349 0.09046236 -0.18041101 0.03647679 -0.055358537 -0.08405263 -0.07555718
-0.060165342 0.10283518 0.32085484 0.14985766 -0.05506542 0.02186299 0.0029240437 0.02985831
1.1311752e-06 -4.5607314e-05 -0.042320475 -0.035983533 0.0021201104 -0.13892035 0.1487944 0.035832573
0.28916264 -0.04078667 -0.00512394 0.37809733 -0.046831895 9.8544e-41 0.14234467 -0.024573164
-5.195428e-05 -0.09587971 0.39264637 -0.086735465 -0.021506818 -3.0988598e-05 0.38866726 -0.08602103
-0.1160068 -0.0529856 -0.2926814 0.030927414 0.46617314 -0.19381864 -0.078053355 -0.3307997
-0.0017037239 -0.0042064115 -0.37790588 -0.19602773 0.043057952 -0.20539875 -0.3279991 0.009587478
-0.63970137 -0.20817573 -0.11107083 0.8722509 -0.4624309 -0.05260459 -0.04629584 -0.08908237
0.030378984 -0.03396309 -0.21619275 -0.21022062 -0.3321322 -0.39030915 -0.36156192 -0.19754358
00000000: 45f4 b2bd a69d 5a3e 2202 98be f63c c7bc
00000010: 0e73 713d 29a3 56be 9019 3b3d d669 003e
00000020: 7df6 9fbb 2485 32ba 2837 90bd 7e6f 19be
00000030: f974 8abd d387 6bbc 4da5 deba a5f2 963d
00000040: 5d31 ad3e cade 6c3c c1b5 6b3c 975f f3bd
00000050: c4d5 b6be bf8d a0bb b3d9 f7bc f3b3 e4bd
00000060: aaa1 20bc a90b d7bd e023 0f3d ad8a 003d
00000070: ce37 b8bd 1f85 d3bd a0cf cb3d 76bb 7c3c
00000080: 615d 33be 6833 003e 93d6 bc3e 8788 1d3d
00000090: 71c9 f03c a998 413b 0de3 dfbd 549f 2e3e
000000a0: 1eb4 733c a6cd f13b 72c1 ebbd 30a6 47be
000000b0: 960e d3bc 8ccf 38be efbb e1be 2591 523a
000000c0: e632 ef3e 65c8 99be 258b 8ebe bb78 db3e
000000d0: 97a7 3ebf 47b5 5037 e05a 28be 43ef 7ebd
000000e0: a6ab 103d 8200 babe 0228 1ebc aff5 61be
000000f0: fdb6 5abc 0b1b 94be 3d1c 923e 8be0 82bd
00000100: db20 9bbe dfc1 283e d4fb 903e 9889 6bbe
00000110: 948a 0fbd 38cf b7be 8102 343c f622 7fbe
00000120: 8857 b2bc 8385 2fbe 6cbe 98bd 5a83 38bf
00000130: 6260 2fbe a37a bcbe 4c19 8abf b01e 60be
00000140: 5b63 7d3e 1dd2 a4be ca6c 8cbe 8ac1 593f
00000150: 843f bcbe 007c 13be 6586 9abc 3c12 2abe
00000160: c49f 25be 0cd7 51be 8280 9e3e 480b 65be
00000170: a8ac 343c ab95 9fbe 0c45 dd3e a509 2bbe
00000180: 9bf4 2c3e c700 0c3e 8fd2 a63c 0834 2a3e
00000190: b071 e6bd 7d24 bb3c b77f 55be 52d7 3d3d
000001a0: faf2 4a3b be57 10bb 1cbd 41bd 39f8 07be
000001b0: 341c 47bc 3843 f43c 7e92 b8bc 1d8d 84bd
000001c0: 53de 94be 3e56 1d3e b093 d43d 8fd4 6cbe
000001d0: b0ea 4a3e 6a66 90bb eed1 ff3d 5623 58bd
000001e0: b9a2 853d 87a2 60bc f367 bdbd f127 a53c
000001f0: 0a35 44be b6b7 2fbd ede4 debc d13d 8a3d
00000200: 861b 86bd 6858 cd3e b8e0 e13e 68b0 463e
00000210: 1fec 44be fd7c 643e 4e40 83be e311 f33d
00000220: 6091 4639 02c1 85bd 349c 6e3d e0ae 14be
00000230: cf8c 9bbd 1e42 a5be d03f 4cbe 5c3d 83bd
00000240: 420e 473f 0cb7 683e a1c7 ec3d 52ec 9a3e
00000250: b54d 023e 23e5 b6bc 57d7 903e d9bb 6fbd
00000260: e3ec 703d 5657 19be e21b 873e 35aa 3b3e
00000270: 33f4 3bbe 66b7 80be 35bc c33e 2760 643e
00000280: a07d 45be d354 5bbd 5386 a13e 6385 c33e
00000290: a4fa 8bbe 3b9c 463e 842a 39bd af0b bd3e
000002a0: 8399 a9bd 9f60 66be cdf8 93be 507f 5cbe
000002b0: 9704 40be 7305 8c3e 2f77 2a3f bc8b 853c
000002c0: 160a 4f3d 79b8 f3be 4194 e5bd 1262 65be
000002d0: ee11 2f3e 471f c0bd ae0f 4f3e c23d b8be
000002e0: 3695 77be 3ac8 43be 5444 b93d aabd 38be
000002f0: b068 153d a2bf 62bd c923 acbd b9bd 9abd
00000300: ef6f 76bd 409b d23d 1647 a43e 4974 193e
00000310: 478c 61bd 031a b33c 50a1 3f3b 6a99 f43c
00000320: e2d2 9735 7b4a 3fb8 3c58 2dbd 7863 13bd
00000330: 8df1 0a3b 2341 0ebe 8f5d 183e 2dc5 123d
00000340: 200d 943e ec0f 27bd b9e6 a7bb f995 c13e
00000350: cdd2 3fbd b312 0100 cdc2 113e a94d c9bc
00000360: 7ce9 59b8 955c c4bd f208 c93e 5da2 b1bd
00000370: 112f b0bc c1f9 01b8 65ff c63e cb2b b0bd
00000380: f994 edbd 6e07 59bd 56da 95be 7d5b fd3c
00000390: 3fae ee3e 6578 46be 70da 9fbd 945e a9be
000003a0: 7d4f dfba f0d5 89bb e17c c1be 7ebb 48be
000003b0: 895d 303d 0d54 52be 7fef a7be cc14 1d3c
000003c0: 78c3 23bf 052c 55be 1a79 e3bd d64b 5f3f
000003d0: bec3 ecbe e977 57bd b5a0 3dbd d170 b6bd
000003e0: 59dd f83c e21c 0bbd a261 5dbe 1344 57be
000003f0: 3b0d aabe 9ad6 c7be a51e b9be dd48 4abe

weight f4 [32, 128]
8.898906e-10 -0.0013272532 -0.033495404 -0.008992426 -0.024340814 -0.00027631712 -2.6153471e-05 -0.009230744
-0.00031950427 -0.004848213 -0.0121790115 -0.011122252 0.00029569972 -1.1305897e-17 0.0071668723 -5.0353e-41
-9.6294265e-05 -5.2328903e-07 0.041109256 -0.022673288 -1.960976e-06 -0.0028369878 -0.053520262 -1.3179036e-05
-0.04250699 -0.10455176 -0.0290032 -0.049408022 -0.01833734 -0.01365686 -0.015805429 -0.0074588754
4.211174e-08 -3.9213035e-05 -0.020274276 -3.4872878e-07 -0.00027984614 -0.029112224 -1.3095236e-07 -0.0015227441
-0.00588571 -0.07415491 -0.0043175872 -0.018312098 1.5284499e-05 -1.30917e-13 -0.031393286 -1.30558e-40
-0.0002563301 -8.969812e-08 -0.15617812 -0.007623724 3.665446e-06 -0.00028893029 -4.3231794e-05 -0.0010190882
-0.054650716 -4.2615146e-05 -0.008835791 -0.0012512533 -0.03916385 -0.00831133 -0.00344484 -0.011270152
-0.004911492 -0.0005801698 0.006669835 -0.032794133 0.013822287 -0.01804048 -0.007763056 0.004936605
0.018245406 0.008506608 -0.013807572 0.016495254 -0.008431192 -0.012514503 -0.00034929535 -0.0062823365
0.0029801966 0.005806214 0.0008874798 -0.014228648 0.016110033 -0.0023972944 0.01112428 0.008323161
0.007915688 0.014335371 -0.004139053 -0.012134572 -0.0115815215 -0.00854983 0.0127895 0.00012000753
0.019968243 -0.009295281 -0.0061805733 0.0003700402 -0.0039069755 -0.049879834 -0.013542361 -0.0010749989
-0.011506927 0.011734686 0.004267973 0.05478565 0.012453585 -0.0019384539 -0.005179313 -0.0031209418
-0.01078129 -0.014559974 -0.003811557 0.01792357 0.003092232 -0.0067441505 0.0052009546 -0.008693325
-0.003061065 -0.004500944 0.018370282 0.018469995 0.018489432 0.01489389 0.004915076 0.009113768
-2.9083942e-28 2.4646606e-05 0.00063788745 2.2160194e-09 -2.3477972e-10 -0.030801287 -7.3003e-41 -0.001035592
2.168012e-09 -0.017662028 0.0019224733 0.0009937056 -2.9626728e-11 9.1788e-41 -0.008900462 4.61289e-40
-0.01380499 -8.104311e-23 0.002209861 -0.0010339231 0.01046775 -0.0014218688 8.8757e-41 -1.3617532e-10
-0.05464342 1.05766e-40 -0.0013650695 0.0032764166 0.0019147529 -0.0015524689 -0.04432254 0.00027904683
-1.2489479e-14 7.437689e-05 -0.059613958 -5.381e-42 -8.517249e-10 0.0065398403 1.26906e-40 -1.5086762e-31
-2.3159746e-13 0.0052532754 -0.026058532 -0.048667796 -6.256801e-17 -2.9963e-41 -0.053813577 -3.2825e-40
-0.026925843 -1.8856439e-22 -0.02637463 0.0006065503 -0.005908604 -0.043823898 -4.5035e-41 -6.972548e-08
-0.0014512297 1.19451e-40 -2.5265906e-19 -0.009977423 -0.06997828 -0.019680662 0.005815063 -4.383992e-37
-0.004441081 -0.0045653065 0.022286633 -0.027079895 0.017144661 -0.038747977 -0.008730622 0.0059959255
0.009524633 0.009412298 -0.016656486 0.042701133 -0.004130885 0.008243012 0.002918708 -0.010606101
0.009580984 -0.013547624 0.007503282 -0.012237895 0.02005839 -0.0035730016 0.024387056 0.012274049
0.011129749 0.016286654 -0.0063558915 -0.011103693 -0.020462282 -0.010316345 0.018186098 -0.0016061781
0.02504602 -0.015354723 -0.050994866 0.0010662478 -0.0067086415 0.030231548 -0.029442243 -0.0024377161
-0.018020803 0.025863137 0.020572769 -0.027255338 0.018305853 -0.01695575 -0.008431604 0.0037963828
-0.0268811 -0.011070373 -0.009390576 0.045811653 -0.007969264 -0.008696625 -0.021368116 -0.023626132
-0.01103764 -0.0070985025 0.023344614 0.036793027 0.060777385 0.029915141 -0.0023329672 0.009044224
00000000: 7c9c 7430 3af7 adba 7a32 09bd f854 13bc
00000010: 6366 c7bc a8de 90b9 2764 dbb7 8c3c 17bc
00000020: 2383 a7b9 c2dd 9ebb 7a8a 47bc 1b3a 36bc
00000030: 2508 9b39 978e 50a3 15d8 ea3b 5d8c 0080
00000040: 97f1 c9b8 2678 0cb5 2e62 283d 55bd b9bc
00000050: 5099 03b6 c2ec 39bb 1038 5bbd 871b 5db7
00000060: cf1b 2ebd 3c1f d6bd 1e98 edbc 1160 4abd
00000070: 3038 96bc 06c1 5fbc 637a 81bc 9569 f4bb
00000080: 59de 3433 ad78 24b8 3d16 a6bc eb38 bbb4
00000090: 50b8 92b9 c27c eebc e99b 0cb4 d096 c7ba
000000a0: eadc c0bb 88de 97bd 8c7a 8dbb 4103 96bc
000000b0: 3637 8037 4266 13aa 3f96 00bd f16b 0180
000000c0: 0b64 86b9 10a0 c0b3 28ed 1fbe 6fd0 f9bb
000000d0: e2fb 7536 917b 97b9 c953 35b8 ed92 85ba
000000e0: 6ed9 5fbd aabd 32b8 fec3 10bc 1801 a4ba
000000f0: 466a 20bd 3f2c 08bc d3c2 61bb 72a6 38bc
00000100: 95f0 a0bb 8916 18ba a28e da3b 2453 06bd
00000110: e076 623c a1c9 93bc 3c61 febb 3fc3 a13b
00000120: 6477 953c 4d5f 0b3c 2839 62bc 0e21 873c
00000130: fb22 0abc a109 4dbc a121 b7b9 0fdc cdbb
00000140: 674f 433b 0e42 be3b c3a5 683a 461f 69bc
00000150: 30f9 833c ed1b 1dbb 9d42 363c de5d 083c
00000160: cdb0 013c e7de 6a3c e5a0 87bb 15d0 46bc
00000170: 6cc0 3dbc 9614 0cbc 0d8b 513c 8dac fb38
00000180: 7194 a33c 3c4b 18bc 6886 cabb f401 c239
00000190: 1606 80bb cc4e 4cbd c7e0 5dbc fae6 8cba
000001a0: 8d87 3cbc d742 403c 5ada 8b3b eb66 603d
000001b0: 1f0a 4c3c b813 feba 3ab7 a9bb b788 4cbb
000001c0: 02a4 30bc f58c 6ebc 51cb 79bb 73d4 923c
000001d0: 0ba7 4a3b 09fe dcbb c56c aa3b 736e 0ebc
000001e0: 269c 48bb a87c 93bb 467d 963c 634e 973c
000001f0: 2677 973c 8105 743c a50e a13b ea51 153c
00000200: 6557 b891 2fc0 ce37 e737 273a a048 1831
00000210: 4f12 81af fb52 fcbc 81cb 0080 b4bc 87ba
00000220: 12fc 1431 f5af 90bc 80fb fb3a 3a3f 823a
00000230: bb4c 02ae deff 0000 3ed3 11bc e305 0500
00000240: 532e 62bc 41f3 c39a 51d3 103b b484 87ba
00000250: ed80 2b3c 005e baba 6bf7 0000 f2b9 15af
00000260: c7d1 5fbd d526 0100 22ec b2ba 26b9 563b
00000270: 72f8 fa3a 367c cbba 8d8b 35bd 084d 9239
00000280: 8efd 60a8 cafa 9b38 c42d 74bd 000f 0080
00000290: d01e 6ab0 284c d63b c361 0100 5ed6 438c
000002a0: b660 82aa ab23 ac3b b478 d5bc e257 47bd
000002b0: a245 90a4 8653 0080 a06b 5cbd 0793 0380
000002c0: 9693 dcbc daf5 639b 9c0f d8bc e700 1f3a
000002d0: f69c c1bb b080 33bd 8a7d 0080 fdbb 95b3
000002e0: 3037 beba fb4c 0100 c224 95a0 5878 23bc
000002f0: c650 8fbd 5739 a1bc 498c be3b f52d 1583
00000300: 7d86 91bb 9198 95bb 7592 b63c a8d6 ddbc
00000310: f672 8c3c 33b6 1ebd e20a 0fbc 7879 c43b
00000320: 350d 1c3c 0a36 1a3c 2f73 88bc 62e7 2e3d
00000330: 605c 87bb b30d 073c cb47 3f3b 36c5 2dbc
00000340: 8ff9 1c3c dbf6 5dbc 17de f53b 7481 48bc
00000350: 7e51 a43c 0529 6abb 5dc7 c73c 1819 493c
00000360: 8d59 363c 976b 853c 1545 d0bb 44ec 35bc
00000370: 84a0 a7bc e305 29bc 03fb 943c 6586 d2ba
00000380: 502d cd3c 6092 7bbc fedf 50bd 57c1 8b3a
00000390: 2ad4 dbbb 27a8 f73c dc30 f1bc 17c2 1fbb
000003a0: 5da0 93bc eede d33c 3988 a83c 9646 dfbc
000003b0: 28f6 953c c9e6 8abc b624 0abc bccc 783b
000003c0: c135 dcbc 8260 35bc eeda 19bc 00a5 3b3d
000003d0: 8491 02bc 4a7c 0ebc 300c afbc 978b c1bc
000003e0: 38d7 34bc 8e9a e8bb 343d bf3c 49b4 163d
000003f0: b5f1 783d 9910 f53c b2e4 18bb 3a2e 143c

bias f4 [32]
-0.030928137 -0.04253062 -5.3235344e-06 -0.17848821 -0.050780017 -0.2308828 -1.8362757e-19 -1.1165849e-05
-4.0846348e-14 -5.855075e-08 -0.008401994 -0.03195168 1.0441286e-06 -0.00026253107 -0.00052780926 -0.11831015
-0.038318686 -0.0007613036 -0.00017468251 -0.06589043 4.084065e-21 -0.010233823 -0.0066460236 -0.105573304
-0.00018257278 -0.04998094 -0.000876314 -0.11765018 -1.3358742e-07 -1.167143e-11 0.21977206 -0.0022151573
00000000: 015d fdbc 9634 2ebd d0a0 b2b6 9dc5 36be
00000010: b5fe 4fbd 8a6c 6cbe 07ca 58a0 f554 3bb7
00000020: a2f4 37a9 3b79 7bb3 84a8 09bc c4df 02bd
00000030: fc23 8c35 53a4 89b9 ae5c 0aba 984c f2bd
00000040: 0ef4 1cbd 3892 47ba fb2a 37b9 90f1 86bd
00000050: a74a 9a1d c4ab 27bc e3c6 d9bb d136 d8bd
00000060: 0271 3fb9 d0b8 4cbd 70b8 65ba 94f2 f0bd
00000070: 3b70 0fb4 7353 4dad ed0b 613e 2c2c 11bb

weight f4 [1, 32]
0.059683293 0.0067632254 0.1599843 0.077040024 0.06753223 0.21295692 0.00081074814 0.109394506
-9.418838e-13 0.10484861 -0.02758717 -0.24071446 2.591112e-07 -0.0019643581 -0.0071710506 0.019613087
0.043415215 -0.0064347875 -0.017204897 -0.124901935 -2.0795623e-17 0.0054114023 -0.00023811811 -0.53864783
0.014495821 0.10716143 0.215681 -0.09050448 1.3751815e-06 -1.001005e-06 0.67843884 -0.01090517
00000000: 7876 743d 0c9e dd3b edd2 233e 29c7 9d3d
00000010: 564e 8a3d 6111 5a3e 6388 543a 3a0a e03d
00000020: f18e 84ab deba d63d 7dfe e1bc da7d 76be
00000030: f91b 8b34 76bc 00bb 22fb eabb a0ab a03c
00000040: 27d4 313d e9da d2bb 49f1 8cbc 96cc ffbd
00000050: 47ce bfa3 2252 b13b 58af 79b9 d3e4 09bf
00000060: e17f 6d3c 7477 db3d 7bdb 5c3e 6a5a b9bd
00000070: e092 b835 455a 86b5 2bae 2d3f 99ab 32bc
