experiments/grail_wn_v1_ind/graph_classifier_chk.pth (torch, 101710 bytes, 21 tensors)

weight f4 [8, 32]
00000000: d6e7 bc3d 57e0 4bbc cde6 dbbe 62e6 ae3e
00000010: e10c 4fbe abda 623f 44f2 1e3e a6a6 8fbd
00000020: 6c7f 29be 81f3 27be 0d04 713e ea1c 86bf
00000030: fe3e dc3d 5f00 3abe 06da 21bd 24dd 3b3e
00000040: 58f0 21be cbcd 61bd a257 f1bd 12b9 4b3e
00000050: 7287 97be a3e1 a33c 3360 f0be 982d 35be
00000060: 444f 33be ce10 46be 9bd9 ce3d 4f44 363e
00000070: 6278 a33e 4602 213e e001 97be 7ceb ec3c
00000080: c70f 58be c74f 143e 299a 3c3f fc8f 023d
00000090: de57 ac3c 4b25 3dbf 88b7 aa3e 6676 ac3b
000000a0: 2e0b 0b3e 15b8 83be 9bb5 87be 5f26 373f
000000b0: a99d 25be dd54 893e 349e 5c3d c0a4 d2bd
000000c0: c1b5 993e 8be3 ee3d bed1 b23d 350f dcbe
000000d0: 02e3 073e e773 0c3e b8ee d03e 3bfb 823e
000000e0: 0f1f 303e f136 cf3c 200e 4bbe b0df b9be
000000f0: 3453 2dbf 1227 9fbe 107c 1d3d 9f6e b0bd
00000100: c5af a23e 11ee 523d 101a 78bd 27dd e2be
00000110: 7e12 b53e ed83 a13e 1f05 1bbf 122d a43e
00000120: 5c11 9ebb 19c5 3c3f 795c 1c3e c694 7abe
00000130: a516 f1bd 07e6 0fbe 0309 d3be bf5f 59be
00000140: 8ca1 91be 67f3 803e 1cdd 8bbe dbf1 af3e
00000150: aa68 1d3e 4df1 2cbe a33c 9d3d a2d2 3cbd
00000160: 4f11 36be 813b 963e a8fb 063f bd55 443f
00000170: 94f8 033f ed80 203f a7f9 803e db02 633e
00000180: d7b7 8c3d 607e 25bd f1c2 f2bd c7d2 6f3a
00000190: 1303 1dbd ac63 093e 5b4d 083b 637b 27bc
000001a0: 53e2 45bd 0d02 aebb 9894 b93d 542f 16be
000001b0: 0c6d 9e3c 052a 90bd 0406 5f3a f47c 673d
000001c0: c368 9cbd 86fe ffbc 57fe 4fbd e290 eb3d
000001d0: 61f6 9bbd 2633 903a 99d5 e2bd 01f9 91bd
000001e0: df22 d3bd 37b4 08bd 2efc a43d fa3c ed3d
000001f0: 5474 023e 5977 d53d 509e 8cbd 7682 4f3d
00000200: ab6a e1bd c594 ab3d 7dda 743d 963c c7bd
00000210: b95a c83d 0ae8 dbbd 7eb9 333d ca43 9b3d
00000220: 668c ff3d 06c6 54bd 8103 17be 39c3 633e
00000230: d296 f5bd a762 193e 0c7e 2e3d 6b70 9dbd
00000240: f87e 0a3e e744 a63d cb9f 153e 1695 9d3c
00000250: dd56 d23d 992d 8bbb c225 e23d 04bf fe3d
00000260: b057 313e 5f50 e33d 5bbb b1bd 23bf 66bc
00000270: 1b77 16bd a401 e5bd 29f9 a73d c9f0 72bd
00000280: bb7c b43d d357 d1bc c87c 95bc 9030 223e
00000290: 9c29 e4bd 54a9 1dbe b2a5 4cbc 3141 b7bd
000002a0: 158f 2a3d bbf3 cb3c 5e25 97bd f9b4 213e
000002b0: 1532 263e 55cc a9be 5394 4dbd 7599 ad3d
000002c0: 7717 a3bd a899 1bbe 67f0 26be db0f cdbd
000002d0: c89c ab3d e442 113d 8a38 88bd 1a34 4cbc
000002e0: 4d92 1f3d ddbe 7ebd 9210 4d3d 5172 98be
000002f0: 3d8a b4bd bea2 a9be 8146 a73c c485 643d
00000300: ad54 95bd 9fae 0e3d 146b d93d fbbb 20bc
00000310: 5f10 8c3c 20cc 01be 4be1 483d a681 bb3b
00000320: 03be a83d 68cd 93bd 440a a7bd 984c 723e
00000330: 9363 19bd 15bc 013e 007d 573d 6fb0 81bc
00000340: c084 cb3d 66ae 573d 6554 fa3d 9d11 2cbe
00000350: 6c69 9d3c d6da 9a3b a033 8f3d fada 933d
00000360: 7aa3 ab3d 43de f03c de92 e6bd 8bca 16be
00000370: 2b22 32be 47d6 41be 7093 323c 451f 80bd
00000380: 5e84 a7bd f0bd 313c 6cd2 1e3e a243 92bb
00000390: b53d 033c e335 03be 6777 163e 6210 a1ba
000003a0: 4153 523d 7262 13be 639f 7fbd a3b5 393e
000003b0: ecd1 e7bc f671 c73d f829 c23d c359 02bc
000003c0: f308 d33d 8731 133d b11b f13c b89a 13be
000003d0: 3fb7 cc3b ae57 a73a 8346 cd3d 329a c63d
000003e0: 0eb0 9c3c 0ee9 853c 1f43 b5bd 4add 27be
000003f0: 6c55 4ebe 853d 2dbe 80c5 fe3a b9d8 60bd
0.09223907 -0.0124436235 -0.42949525 0.34160143 -0.20219757 0.8861491 0.15522105 -0.070142075
-0.16552514 -0.16401483 0.23536702 -1.0477574 0.10754202 -0.18164204 -0.039514564 0.18346077
-0.1581434 -0.0551279 -0.11784293 0.19894817 -0.29595524 0.020005053 -0.46948394 -0.17693174
-0.17510706 -0.19342348 0.10100099 0.17799495 0.31927782 0.15723523 -0.29493618 0.028920881
-0.21099769 0.14483558 0.7367273 0.031875595 0.021037992 -0.7388503 0.33343148 0.0052631376
0.13578483 -0.2572638 -0.2650574 0.71542925 -0.16173424 0.26822558 0.05386181 -0.1028533
0.3002148 0.11664494 0.087314114 -0.42980352 0.1327019 0.13716088 0.40807128 0.255823
0.17199348 0.025294753 -0.19829607 -0.36303473 -0.6770508 -0.31084496 0.038448393 -0.08614849
0.31774727 0.05149657 -0.06057173 -0.4430935 0.3536567 0.31545964 -0.6055469 0.32065636
-0.0048238467 0.7373825 0.1526965 -0.24470815 -0.11771897 -0.14052592 -0.41217813 -0.2122793
-0.28443563 0.251857 -0.2731713 0.3436421 0.15371957 -0.16888924 0.07677581 -0.046099313
-0.1778004 0.29342273 0.52727747 0.76693326 0.51551175 0.62696725 0.2519047 0.22169058
0.06871002 -0.040403724 -0.11853588 0.0009148535 -0.03833301 0.13416928 0.002079806 -0.010222289
-0.048311543 -0.005310303 0.09061545 -0.14666492 0.019339107 -0.070392646 0.00085076713 0.05651565
-0.07637169 -0.031249296 -0.050779667 0.115022436 -0.076153524 0.0011001572 -0.11075897 -0.07127572
-0.103093855 -0.03337499 0.08055912 0.11583896 0.12739688 0.104231544 -0.06866133 0.050661527
-0.110066734 0.08377985 0.05977868 -0.09728353 0.09782929 -0.10737617 0.04387807 0.07581289
0.12477951 -0.051946662 -0.1474743 0.2224244 -0.11991657 0.14979039 0.042600676 -0.07687458
0.13524997 0.08118611 0.14611737 0.019236129 0.10270474 -0.004247379 0.11042358 0.12438777
0.17318606 0.11099314 -0.08678313 -0.0140836565 -0.03673468 -0.111819535 0.082018204 -0.059311662
0.08812853 -0.025554573 -0.018247977 0.15838838 -0.11140749 -0.15396625 -0.012490677 -0.08947981
0.04164036 0.024896493 -0.07380174 0.15791692 0.16230042 -0.33163705 -0.05019028 0.08476535
-0.0796346 -0.15195334 -0.16302644 -0.1001279 0.08379513 0.035464182 -0.06651409 -0.012463594
0.038957883 -0.06219374 0.05006463 -0.29774716 -0.08815429 -0.33131975 0.020419361 0.05579163
-0.07291541 0.0348345 0.10616127 -0.009810443 0.01709765 -0.12675524 0.04904298 0.0057222424
0.08239367 -0.072169125 -0.08156255 0.2366203 -0.037448477 0.12669404 0.052609444 -0.0158312
0.099374294 0.052656554 0.12223128 -0.16803594 0.019215308 0.0047257943 0.069922686 0.07219501
0.0838079 0.029402858 -0.112584814 -0.14725702 -0.17395847 -0.18929397 0.01089941 -0.06255964
-0.08179544 0.010848507 0.15509957 -0.004463629 0.008010318 -0.12813525 0.14693986 -0.0012288208
0.05134893 -0.14393023 -0.062407862 0.18135695 -0.02829834 0.09738533 0.09480661 -0.007955971
0.10304441 0.035935905 0.02943215 -0.1441449 0.0062474306 0.001276722 0.10023215 0.09697379
0.019126918 0.01634648 -0.08850693 -0.16393009 -0.20149773 -0.16917999 0.0019437522 -0.054894183

weight f4 [4, 8, 32]
00000000: d400 9a3c 7673 90be 75d9 ccbe 44c8 83bd
00000010: dfb8 a8bd 471f 443e 57a8 a7be 08ee 31bf
00000020: aace 6c3c b58f 2e3e b2bf 0cbe 97b7 a13d
00000030: 0612 e0bd f787 903e abc0 43be e75a 16be
00000040: 7c3e 0bbf e28e a83c 55a1 1abb 26f4 c7be
00000050: 8a35 62be 755a b2be 05ee 953c e74d b2bd
00000060: e2af 813e cb07 173e c664 20bd 8ccc d13d
00000070: d814 86be 1acf 9fbe 3196 d13d 2170 803e
00000080: b506 eabc 4e09 d23d 701b 61be 6e97 15be
00000090: 7dc2 29bd 3184 ed3d f826 e23e 3d94 8abe
000000a0: 3124 073f 6e4e b23e 602e fe3c 75f8 b0be
000000b0: 83fe a2be d355 97bd 0a3c f53d 0484 64bd
000000c0: 4bdb 40bc 816b bc3b b710 ca3e 8d9a d1be
000000d0: c6a2 bbbe 2bac 54bd 9ad7 3abe dc9d 89bd
000000e0: e6a3 843e 1347 aa3d e9b0 78bd 2f3f 4c3e
000000f0: 1f2e f4bd d74f b9be 8d98 ac3c 075c a9be
00000100: aa01 853d 5597 a33d b2bf 2b3f 10ba 93bb
00000110: 0416 683e 988a 5e3e c04d 3bbb ea47 c03e
00000120: 1a31 ecbc 2298 0c3e 650e e93d 8fc0 f33e
00000130: 4e07 f33d bd85 f63c 4234 9d3e c9bb c63d
00000140: bdd9 f03e 8e05 ff3d 36f6 e53d 0f7c af3e
00000150: f6e9 69bd c904 933e e83e fa3c d040 133e
00000160: ca1a 21be 73b5 bdbc 9a05 ba3e dfc8 673e
00000170: a5ba 0f3f b7d5 8a3e da7b b6bd b80d 8c3e
00000180: 8a5a 74bb 6ce6 84bc 5697 273d c688 053e
00000190: fbcf 423e 84e5 483e edbf 0080 b8a4 1bbc
000001a0: 2fef ca82 5e78 2e80 bfde 4a3e c552 423d
000001b0: 5ce3 8b39 825a 2ab3 953f 96bd a191 e184
000001c0: 1f5a 5fbc 6461 6b81 3610 95bd d2d6 b43b
000001d0: 15f5 ee34 d5f8 473e a3cf 223e 91a3 94bb
000001e0: 60e6 852e 3997 3a3e 90b2 5ebe a09a 663e
000001f0: d416 e0bd e41a 2e3d a1d6 7d31 8ab6 fa88
00000200: 4ec8 573e a060 0b3f b530 fe3e a2af 84bb
00000210: 283a 7b3f 7bf5 fc3e eceb be3e a0c7 d73e
00000220: 9041 72be 12ee 663e 38e6 0d3f 122e 243f
00000230: b2d3 d3bd 26cf 3fbd 2765 c63e 8d74 283b
00000240: 384e 323f 0dc6 26bd a5b1 103e c36f d83d
00000250: 8b0e 0fbe 81f8 543f d9fb 0f3e 3b12 c93b
00000260: 9b82 13be fc80 3c3e b6fc 923e 888e 053f
00000270: 147b 1c3f 16bc dc3e 540f a13d 1642 7bbd
00000280: 9f51 ddbd a53f 21bf 9868 2ebe 89a1 47bd
00000290: ad0b 09bf 5346 90be ce61 59be 0e2f d63d
000002a0: 801f 20be eb2d 933d 62ec e2bd b24c 67be
000002b0: aa18 0fbe 6b02 45bd 2986 c4bd 03d6 adbd
000002c0: c55a ecbd 6813 de3d af13 943d 4263 d5be
000002d0: 91e4 34bd 0b42 fbbe f7ce 31be 2dfb 37bc
000002e0: 8ffc 92bd 2c54 e63d dff0 91be d8ba 18bd
000002f0: 67e9 d03c 7b2c 12be ea3a a3bd e15c 043f
00000300: 7121 40be 4280 16be 9231 e6be feb8 68bd
00000310: 4b75 49be 8d03 973e f859 aa3d 4209 3dbf
00000320: 4f04 ab3e 29bb 4bbe aefc 843d cd49 a9be
00000330: 8bc0 04be 2689 96bd c1ab c1bd fc82 dfbb
00000340: 924d 59bf d207 563c d6a5 a73d aaf1 44bf
00000350: 44c9 d2be d999 35be de38 033d dfac 2f3e
00000360: 5b13 b83d d957 cfbc a8b7 8dbe 1149 70be
00000370: 8865 13bf bc3b 59be 288a 873e 405a 6ebe
00000380: 3af2 e634 150f 0dbd cfcd 85bd 8c5a 14bc
00000390: 1d0a 6c3c 43e0 6f3d 0c56 a23c dd75 95bb
000003a0: 74ac 983e 58ab 3b3e f210 243d 3414 d0bc
000003b0: 90dd a6ba b978 f53c 1baf 11bc 70d0 49bd
000003c0: 0884 f4bd d4b6 27bc 29a1 433e c763 92bd
000003d0: b6d8 aabb e874 933c a478 163c 90c8 bd3c
000003e0: 39e8 55bd 5ad5 0a3c 5a68 053d 5565 2ebc
000003f0: f4c7 f5bd 80ce d5bc 1e0e bc3d 55ff c43c
0.018799223 -0.2821309 -0.40009657 -0.06434682 -0.08238386 0.19152556 -0.3274562 -0.6950383
0.014453569 0.17047007 -0.13745001 0.07896345 -0.10940938 0.28228733 -0.19116466 -0.14683114
-0.5439222 0.020575944 -0.0023594697 -0.39053458 -0.22090736 -0.34834638 0.018301973 -0.08706265
0.253295 0.14749067 -0.039158605 0.10244092 -0.26187778 -0.31212693 0.10233725 0.25085548
-0.028567651 0.10255681 -0.21983123 -0.14608547 -0.041445244 0.11597479 0.44170356 -0.27066222
0.527896 0.34825462 0.031027973 -0.34564558 -0.31834802 -0.073894165 0.11974342 -0.055789962
-0.0117710335 0.00575012 0.39465877 -0.40938225 -0.36647624 -0.051922005 -0.18246308 -0.067195624
0.25906295 0.083143376 -0.06071559 0.19945978 -0.119228594 -0.36193725 0.021068836 -0.33078024
0.06494458 0.07987849 0.6708938 -0.0045082644 0.22664648 0.21732557 -0.0028580278 0.37554866
-0.028832007 0.13729909 0.11379699 0.47607848 0.11866628 0.030093068 0.30703932 0.09703786
0.4704112 0.12452231 0.11228602 0.34274337 -0.05710789 0.28714588 0.030547574 0.14380193
-0.15732875 -0.02315781 0.363324 0.2263522 0.5614417 0.27116176 -0.089103416 0.27354217
-0.003728541 -0.016223155 0.04091581 0.13040456 0.19024651 0.19618803 -6.885e-41 -0.009499721
-2.9818517e-37 -4.267612e-39 0.19811533 0.047442216 0.00026681542 -3.9663526e-08 -0.07336346 -5.3030985e-36
-0.013632326 -4.3232558e-38 -0.072784826 0.0055187726 4.4509275e-07 0.19528516 0.1589952 -0.0045361
6.0890626e-11 0.1822175 -0.21747804 0.22519922 -0.10941854 0.042506114 3.6938348e-09 -1.5089242e-33
0.21072504 0.54444313 0.49646536 -0.0040492574 0.98135614 0.49406037 0.3728937 0.4214449
-0.23657823 0.22551754 0.5542941 0.641328 -0.10343112 -0.04682841 0.38749048 0.0025704235
0.696506 -0.04071622 0.14130266 0.10568192 -0.13970391 0.83191687 0.14060916 0.0061362064
-0.14405291 0.18408579 0.28708428 0.5217061 0.611253 0.43112248 0.07864252 -0.06134232
-0.108065836 -0.6298774 -0.17032087 -0.048738036 -0.5353344 -0.28178653 -0.21228716 0.10458194
-0.15637016 0.071864925 -0.11080243 -0.2258785 -0.13974252 -0.04809801 -0.095959015 -0.08488085
-0.115407504 0.10843545 0.07230317 -0.4167729 -0.04416329 -0.49073824 -0.17364107 -0.011229319
-0.07177078 0.11246523 -0.28504083 -0.037287563 0.02550192 -0.1427478 -0.07970221 0.5170422
-0.18762757 -0.14697364 -0.44959694 -0.056817047 -0.1967365 0.29494897 0.083179414 -0.7384225
0.33401725 -0.19895615 0.06493507 -0.33064118 -0.12964074 -0.07350378 -0.094565876 -0.0068210345
-0.8488399 0.013063388 0.081859276 -0.7693125 -0.41169178 -0.1773447 0.032036655 0.17155789
0.08988067 -0.025310444 -0.2767918 -0.23465373 -0.575768 -0.21214193 0.26472592 -0.23276615
4.3017081e-07 -0.03443821 -0.065333955 -0.009054791 0.014406708 0.058563482 0.019816421 -0.0045611695
0.2981907 0.18327081 0.040055223 -0.025400259 -0.0012730826 0.029964792 -0.008891846 -0.049271047
-0.119392455 -0.010236461 0.19104446 -0.07147937 -0.0052138222 0.018000081 0.009184036 0.023166925
-0.052223418 0.008473719 0.03257022 -0.010644277 -0.12001029 -0.026099443 0.0918238 0.024047533

w_comp f4 [8, 4]
00000000: 4f90 ca3e 8f53 143e e849 e63e e587 c53c
00000010: b84e 1fbf d043 cd3e 1ac7 473f d7fa 1f3e
00000020: 75b2 ab3e 8cf6 213f 9359 b43e a5aa 5dbe
00000030: 1261 bc3d 8c54 2b3f 7114 8ebd 1499 87bf
00000040: f1f5 103f 62aa e1be 36d9 c93c 3bd4 953e
00000050: 6ce4 443e 5738 2a3f 77b5 c3bc a81c 0dbf
00000060: 9cf5 963e 2b91 63bf 9a91 06be e354 253e
00000070: e8ea bfbd 8153 8a3d a910 41be 328c 9bbc
0.39563224 0.14485 0.4497826 0.024112651 -0.6222949 0.400908 0.7803818 0.15623032
0.3353459 0.63266826 0.3522459 -0.21647127 0.09198202 0.66925883 -0.06937493 -1.0593591
0.56625277 -0.44075304 0.024639707 0.29263481 0.19227761 0.6649222 -0.02389024 -0.5512185
0.2948426 -0.88893384 -0.1314148 0.16145663 -0.09370977 0.06754208 -0.18854012 -0.018987749

self_loop_weight f4 [8, 32]
00000000: fed4 153e b821 a7be 9245 4a3d 10e8 86bd
00000010: 716e 7c3e bd66 283e 40c7 19be b23b b33e
00000020: 9585 29be 83c3 1d3c d88f 853d 575e 9e3e
00000030: 71de 90be a949 663b 27ec 8fbe c4aa ac3a
00000040: cf57 d63e 652c 38be 8be1 a9bd fd1b 81be
00000050: 8f97 abbd f917 fa3e 4f5b 0dbe 2ab1 a33e
00000060: 456f 86be 8a15 92bb e087 773e 474e cc3e
00000070: 93fe 43be 8d20 6a3e 2889 abbe 29f2 98be
00000080: 9e34 01be 17cd 6cbf 1f05 ae3d 4bbb 47be
00000090: 5144 45bf 40c6 e7bd 85ae d9be cad7 833e
000000a0: 0cd0 59be 869f 77be 2558 c43c aca3 b33e
000000b0: cc88 33bd ce42 99bd a648 0c3f 42eb 5bbd
000000c0: 71b0 2abf 3cb1 e83c b805 01bf dd6b 3f3e
000000d0: 05d5 9ebe 3bb6 38bf 21ce 14bf ed2c b3bd
000000e0: 7a29 163d 15c5 1dbf bfcd e93e 9283 62bf
000000f0: 2bee 503f 0b03 a63e 85ef a1bc d5d1 953d
00000100: b902 79bc 0937 e83e 618f 2d3f 24f9 b23e
00000110: c5f4 42be 4784 553e c6f2 2e3e 627b 74bf
00000120: c1ed 11bd bded e43b d712 87be 291a 68bf
00000130: 03a1 17bd 402c 30bd fa97 72be 0979 febc
00000140: 1255 65bf d825 69be a247 b53e 7fb6 e43e
00000150: e88f 57be 684f c6be 792e 7d3c 55d0 e7bd
00000160: 8d0f 9d3e 9685 983e 9dfb 69bf 590a c63e
00000170: 8cd0 e23e 7500 1abf 5677 d9be 52e0 e9be
00000180: 6cd5 67b9 1909 89be 5d22 afbd ff90 1180
00000190: 122d debd 6159 423e f350 25b9 22c1 2dbe
000001a0: d0e3 74bc 8d71 803d 3385 eb3b 7fb8 17be
000001b0: 3593 98bd fbbc 81ba 4452 f7be 3927 19a2
000001c0: 1133 ecbd 697b 28bc 7066 563f ff56 57be
000001d0: 2ab3 87bc 83fa 263e 6364 b8bc 39ec 9e3a
000001e0: 6e10 d8bc 474f cc3b 1005 1bbe 90f7 a7bb
000001f0: d21f 07be f606 89be a691 0800 2fdb efbd
00000200: ed41 a4be 9cc7 92be b214 2dbf 3b14 9b3b
00000210: f74f debe 185b 0d3f 24a1 20be 96c4 26bf
00000220: 5a63 6abd 3469 3e3e 2d82 26be 4575 f5be
00000230: ecee c4be b7e0 e9bd 9627 debd 77e5 f1bd
00000240: 8deb 733d dd1d afbe 14f4 06be c7c2 febe
00000250: 68c1 0abd f7e4 3dbf c2b7 ccbe b8bc 5539
00000260: d480 ac3e 504b 2d3e 8237 35bf fc39 51be
00000270: 802a 93bf 94de d9be ddd1 363f 47c1 13bf
00000280: 0ed5 a4be 43fe 393e 5cc3 6d3f 04f6 eabe
00000290: 8593 bebe d465 a9be aa62 adbe f1d6 eebe
000002a0: 05fc c9be 43a2 05bf 59e0 0c3e c01e df3e
000002b0: 14a0 07be d1a6 b6bc 3f18 533f dfe4 0fbe
000002c0: f61f 9dbe 8402 3fbe bcfd a53e eb42 6d3d
000002d0: 1a81 2cbf e67f 0dbe 5fc1 80be d0f2 babe
000002e0: b992 b3be 0fe9 dfbe d035 a8be 53df e8be
000002f0: edd1 963f 0a61 28bd f2bf 71bf b157 20be
00000300: 0f7d 52be 23ef 19bf f7c0 a0be ab8f a8bd
00000310: c273 2a3f 02a2 cfbe 9413 fcbe 756e 503f
00000320: 7ec6 5dbe f1e0 173e 5ead fb3d 30b0 5f3f
00000330: 3ec7 dd3c 456b e23c 1a8d 403e 3ff4 41bc
00000340: 384c 5e3f 6de5 2dbd bcf4 dabe 9eb5 243f
00000350: 9006 5bbe 32f1 de3e c6e0 923e ebda fabd
00000360: 34f8 bdbe a601 b63e 1660 463f 4c6d 4f3f
00000370: 6214 343e 629e e63e 4f35 babe 533f 8e3e
00000380: decc 68bd fc11 ae3e 88b9 0ebe f164 44bc
00000390: 3db1 0a3d fd59 20be d395 873d 901d dfbe
000003a0: 4454 86be 30db c13d e390 2abe d962 27bf
000003b0: e199 04be 4763 28bc 72c3 1bbf af84 983c
000003c0: 7bfc 60bd 6c82 d9bd 5b82 973d 62a9 d9be
000003d0: c22e f9bd 23f1 18bd 6c25 9fbb 92c3 9ebd
000003e0: 0d31 dfbe 9cd8 8bbe 1190 0dbf 8186 08be
000003f0: 8859 87bf 6fe7 babe 3c8c 6a3e dc7a 0fbf
0.14632031 -0.32642913 0.049382754 -0.06587231 0.24651505 0.16445442 -0.15017414 0.3500648
-0.16554864 0.009629133 0.06521577 0.3093135 -0.2829471 0.003513912 -0.28109857 0.0013173451
0.41863868 -0.17985685 -0.08294972 -0.25216666 -0.08378517 0.48846415 -0.13804363 0.31971103
-0.26256767 -0.004458134 0.24172926 0.3990347 -0.19140081 0.2286398 -0.3350308 -0.29872254
-0.12617728 -0.9250044 0.084970705 -0.1950504 -0.7705737 -0.1131711 -0.4251596 0.2575057
-0.2127077 -0.24181947 0.023967812 0.3508581 -0.04383163 -0.07483445 0.5479835 -0.053691156
-0.6667548 0.028404824 -0.5039935 0.1869349 -0.31021896 -0.7215306 -0.5812703 -0.08748803
0.03666065 -0.6162885 0.45664784 -0.8848201 0.81613415 0.32424197 -0.019767532 0.07315413
-0.015198403 0.45354488 0.67796904 0.34955704 -0.19038685 0.20851241 0.17084798 -0.9550077
-0.03562713 0.0069863484 -0.2638156 -0.9066492 -0.037018787 -0.04301095 -0.23690787 -0.031063573
-0.8958293 -0.22768342 0.35406214 0.44670483 -0.2105099 -0.38732457 0.0154529745 -0.11319033
0.30675927 0.29789418 -0.91399556 0.3867977 0.44299734 -0.6015695 -0.4247386 -0.45678955
-0.00022109383 -0.26764753 -0.08551476 -1.613218e-39 -0.1084844 0.18979408 -0.00015765782 -0.16968206
-0.014946893 0.06271658 0.0071875094 -0.14816473 -0.074499525 -0.000989824 -0.4830495 -2.075613e-18
-0.11533178 -0.0102833295 0.8375006 -0.2102928 -0.016564924 0.163065 -0.022508806 0.0012124843
-0.026375022 0.0062350365 -0.1513865 -0.0051259473 -0.13195732 -0.26763123 7.86933e-40 -0.11711728
-0.32081547 -0.28667915 -0.67609704 0.0047326363 -0.43420383 0.55217123 -0.1568647 -0.65143716
-0.057223655 0.1859482 -0.16260596 -0.47941032 -0.38463533 -0.11419814 -0.10847394 -0.11811345
0.05955081 -0.3420247 -0.13179046 -0.49757978 -0.033875853 -0.741775 -0.39983946 0.00020383566
0.33692038 0.1692326 -0.70787823 -0.20432276 -1.1497345 -0.42552626 0.71413976 -0.5771679
-0.32193798 0.181634 0.9287622 -0.4589082 -0.37221923 -0.330855 -0.33864337 -0.46648362
-0.39450088 -0.52200717 0.13757457 0.43578148 -0.13244659 -0.022296341 0.8245887 -0.14052151
-0.30688447 -0.18653303 0.32420146 0.057925146 -0.67384493 -0.1381832 -0.2514753 -0.36513376
-0.35072878 -0.43732497 -0.32853556 -0.45482883 1.1782814 -0.04110817 -0.9443351 -0.15658452
-0.20555519 -0.6013052 -0.3139722 -0.082305275 0.6658288 -0.4055329 -0.49233687 0.81418544
-0.2165775 0.14831902 0.122889265 0.87378216 0.027072545 0.02763904 0.18803826 -0.011838018
0.8683505 -0.042455126 -0.42764843 0.64339626 -0.21389222 0.43543392 0.28687114 -0.122487865
-0.37103426 0.35548133 0.77490366 0.8102615 0.175859 0.45042711 -0.36368796 0.27782688
-0.056836 0.33998096 -0.13937962 -0.011986957 0.033860434 -0.15659328 0.066203736 -0.43577242
-0.26236165 0.09465635 -0.16656832 -0.65385205 -0.12949325 -0.010277576 -0.608451 0.018617956
-0.054928284 -0.10620579 0.0739791 -0.4251204 -0.121671215 -0.03733934 -0.004856756 -0.07752146
-0.4359211 -0.27313697 -0.5529795 -0.13332559 -1.0574198 -0.36504695 0.22905058 -0.56046844

weight f4 [8, 80]
00000000: 742d 8dbe 10d7 fa3d f3d3 80bb 70ff 8d96
00000010: 93b3 5a3e f7b7 d0be 5eb5 243d 5325 fe3b
00000020: e301 f73d f615 44be 0ba1 303b 3913 aaba
00000030: 9c4f d5bd 8f27 ccbc 267e d83b 76e6 0a31
00000040: c942 e63c 9817 aa3a 57f5 b1bb f694 363b
00000050: de54 1ebc fb63 60bc 5c87 7fbd 2813 2dbb
00000060: 4ada fdbc 6d9f 883d 40e2 55bc 656f a6bc
00000070: 890d 853d b958 03bb 4071 28bd 96bf 3b3c
00000080: 2f54 ff3a 2bc4 cb3c 384a 0ebd 9bbd 2b3d
00000090: 9f6f 973d 6733 833c 4e2d 05bd e736 bc3c
000000a0: 9949 483c e3fe 76bc d5be 873c b434 083e
000000b0: 6433 ed3c 19a5 443c 2d33 bb3d 6a60 b9bc
000000c0: 8fab 903b 943e 9f3c d9db cbbc 2231 003c
000000d0: aa1c 1b3d ff65 f03c e014 7bbc b3c8 b23b
000000e0: f3f4 4a3b 41ae 773d 7c53 d5bc 5cb4 07be
000000f0: 43a5 653d ad4a b8bc 60f5 fe3b dc25 bbbc
00000100: 7e18 373c 859b 483c 5a7b 59bd 57c2 753d
00000110: cd18 283c 7919 6cbc 3a80 8c3c 8c2b 0c3c
00000120: a31a a23d 30b0 163d 1706 843c 2b90 733d
00000130: d258 cd3d 98fa 483d bdce 593d 74f7 1ebd
00000140: ce32 8d3e 7444 96bd 8ab5 00bd 8d2e cdba
00000150: a557 0cbe 2eec b83e 477f 88be 0009 b1bd
00000160: 6de4 333e 3583 95b9 ed9c b13c 3ddc 71be
00000170: 18ee eebb e30a 633e 1905 89bc 7f5f 653d
00000180: 607a 9f3d 7345 8bbd 7345 d83c 9962 cc3d
00000190: 11bf b4bd 0588 943d 8abe cf3d f0c1 73bd
000001a0: eec2 dcbd c343 12be 5329 083e 83a2 1abe
000001b0: 5ed4 b93d d61b 6dbc e8b7 3a3d c84d a83d
000001c0: 3622 d9bc 08a7 a7bd 54fc 8bbc 8e3e 9c3d
000001d0: f769 33be cc95 7e3b d059 b2bc b7de 8bbd
000001e0: b9bb 06be 6982 a0bd e890 563d 2eaa 273d
000001f0: 6181 58bd c43a c53d f7ba 09be 0feb aa3c
00000200: 16dd 13be 4dbc d13d 192d f03e b439 71bd
00000210: 764d e73d 6b4c 26bf 6e06 613e 6838 5e3d
00000220: 2f8a 5a3e c4fb 39be a313 afbe bebd 1c3f
00000230: 5d0e 17be 85ff 4a3e 58b1 3a3d 2fd6 56be
00000240: 3144 8b3e 0725 a53d 5a03 ed3d ebe7 a3be
00000250: a7a8 573e 344b 05bd 14f9 b23e 42ce 9c3e
00000260: 3796 5d3e 728a f33d c8da 07be fd79 f0be
00000270: 16fc e3be 049b babe 4e61 c33d 6084 07bd
00000280: 9064 2e3f a58f d9be f168 8fbd 4134 beb9
00000290: 54c4 a13c a2a5 2f3f 2927 13bf 4eca 863c
000002a0: 49d3 fa3c 73c9 bf3e e134 533b 9f8d 6dbe
000002b0: 968b 2a3e fde1 193e 2d1e 66be dbf6 b23d
000002c0: c4dd 32bc ecc6 efbc bd62 d0bc 3cb6 b13b
000002d0: 2ac3 03bd f7f8 bcbb f4f7 b63d 277f e3bc
000002e0: 1730 243d e600 42be 19f5 5abc 8887 b53d
000002f0: 77de 4b3d 83ad d83d ffcf 063e ef48 7d3c
00000300: 4fbe 863d d36c c7bc 21a9 033e ee4b 61bc
00000310: 0940 f7bc a4b6 b73c 43c3 8bbd 9147 f23b
00000320: 914b 1e3a f23e 2f3b 88a0 83bd 8c89 c6bd
00000330: f66c e7bd 8806 d7bd 701c 9cbd 1be3 06bd
00000340: eb42 a7be 20a3 3d3e 86ae f03e 5b28 20be
00000350: 8d00 4e3e 3dba 1abf 848f f53d 9a58 1d3e
00000360: ad0e a33e 6245 0fbe 1a83 c6be 6c66 393f
00000370: 0388 b8be 3c24 bd3e a6d9 a93d 78ef 29be
00000380: 397e b03e 120a 4b3e cc60 b43e c505 06bf
00000390: 06cf 6f3e eb86 92bc 3872 c63e a90d a73e
000003a0: 7185 c73e 3046 533e e8f8 b4be d43c 0ebf
000003b0: 975e 23bf 90ce f2be b894 703e 0210 26be
000003c0: 0250 f4be ab27 483f 0f8d 433d 6a9c c03c
000003d0: d975 5a3f 8041 a4bf 7bb0 483f d6c8 183b
000003e0: 0ff4 2c3f 66da f7be 3848 033e 18a1 713e
000003f0: 9cfd 13be 9260 a43e c26c 8a3e 738a 5f39
-0.2757374 0.12248051 -0.0039315163 -2.2940982e-25 0.21357565 -0.40765354 0.040212028 0.0077559142
0.12060907 -0.19149002 0.0026951458 -0.00129757 -0.10415575 -0.024921207 0.006606835 2.0212645e-09
0.028108018 0.0012977002 -0.005430858 0.0027859784 -0.009663789 -0.013695712 -0.062384948 -0.0026409123
-0.030987877 0.06671033 -0.0130544305 -0.020316789 0.06496722 -0.0020041896 -0.04112363 0.011459252
0.0019480045 0.024873814 -0.03473875 0.04192887 0.07394337 0.016015721 -0.03251391 0.022975398
0.012224578 -0.015075418 0.016570488 0.13301355 0.028955169 0.012002253 0.091406204 -0.022628982
0.0044149826 0.01943902 -0.024885105 0.007824214 0.037869133 0.02934551 -0.015324801 0.005456054
0.0030968755 0.060468916 -0.026040785 -0.13252395 0.05606581 -0.022496546 0.007780716 -0.022845201
0.011175273 0.01224411 -0.053096153 0.05999979 0.010259819 -0.01441037 0.017150987 0.008555304
0.07915237 0.03678912 0.016116185 0.05946366 0.10026707 0.04906711 0.053175677 -0.03881021
0.27577823 -0.07337275 -0.03142313 -0.0015654132 -0.13705309 0.3611769 -0.26659605 -0.08644295
0.17567606 -0.00028517251 0.021681273 -0.2361917 -0.0072915666 0.22172122 -0.016726064 0.055999275
0.07787013 -0.06800356 0.026400303 0.099797435 -0.088255055 0.07252506 0.10143764 -0.059511125
-0.107793674 -0.14283662 0.13297014 -0.15101056 0.09073709 -0.014471969 0.045585543 0.082179606
-0.02650557 -0.081861556 -0.017088093 0.07629119 -0.17520891 0.003884661 -0.021771342 -0.06829589
-0.13157548 -0.07837374 0.052384287 0.04093378 -0.05285776 0.09630349 -0.13450228 0.020864038
-0.14439806 0.10240994 0.46909407 -0.05889292 0.112940714 -0.64960355 0.21975109 0.054253012
0.21341775 -0.18162447 -0.3419467 0.61227024 -0.14751573 0.19824035 0.045579284 -0.20980142
0.27200463 0.08063703 0.11572905 -0.32012877 0.2106043 -0.032542422 0.34955657 0.30626112
0.21639334 0.11891641 -0.13267052 -0.4696807 -0.44528264 -0.36446393 0.09540044 -0.033085227
0.68122196 -0.42492405 -0.07002438 -0.00036278556 0.019746937 0.6861211 -0.5748163 0.016453888
0.030618327 0.3745838 0.0032227563 -0.23198555 0.1665481 0.15027614 -0.22472449 0.0873849
-0.010917131 -0.029269658 -0.025437707 0.0054233354 -0.032168545 -0.0057669836 0.08934012 -0.027770592
0.040084925 -0.18945655 -0.0133641 0.08863741 0.049772706 0.1057997 0.13165282 0.015459283
0.06579267 -0.024343884 0.12857486 -0.013751013 -0.030181902 0.022425957 -0.068243526 0.0073937853
0.0006038482 0.00267404 -0.06427103 -0.09694204 -0.113000795 -0.104992926 -0.076226115 -0.03293143
-0.32668242 0.18519258 0.4700815 -0.15640394 0.20117398 -0.6044043 0.11990264 0.1536583
0.31847134 -0.13991311 -0.38771898 0.7242191 -0.3604127 0.36941707 0.08293466 -0.16595256
0.344713 0.1982806 0.352301 -0.52352554 0.23418817 -0.0178866 0.38759017 0.3262761
0.38968995 0.20632243 -0.3534615 -0.55561566 -0.6381621 -0.4742322 0.23494232 -0.16217044
-0.4771729 0.7818553 0.047741946 0.023512084 0.8533607 -1.2832489 0.7839429 0.0023313067
0.67559904 -0.48408812 0.12820518 0.23596609 -0.14452213 0.32104927 0.270361 0.00021318514

bias f4 [8]
00000000: 74f8 cfbd 534b 3d3e a20a b83e 00fe 6d3e
00000010: 86b7 e4bc e3b3 91bd bd68 9abd 0941 003e
-0.101548105 0.18485765 0.35945612 0.23241425 -0.027919542 -0.07114389 -0.075395085 0.12524809

weight f4 [1, 8]
00000000: e10b bd3c 8acd debe 9199 d2be adee 9d3e
00000010: 4f84 423d 07c9 9e3c 5ca3 1cbe a4f0 c0be
0.023076953 -0.4351619 -0.41132787 0.30846158 0.04748946 0.019382967 -0.15296692 -0.37683594

weight f4 [4, 32, 32]
00000000: dfd0 57bc d312 ffbc ffdd 07be 6442 92bd
00000010: a2fc 3fbe c0f7 b3bd 967d 85bd 42ca a3bd
00000020: 3738 c2b2 4952 ecbb 18ef 923c 6c15 9ebc
00000030: 9d47 c5b9 f1ef cabc 0577 bcbc 24da 403b
00000040: d4ee e6bb 4991 80bd ceed cfbc ea6a 62be
00000050: 0cf0 0bbd c768 f3bb eade a6bc 08db f7bc
00000060: 0bfe 6ebb c21f 553a f8a8 45be 5a81 ce3c
00000070: 71cd cbbc b7de cebc 96c8 66be 15d5 89bc
00000080: 67ee 263d f58a f53b 2dbc c8bc 3c12 403d
00000090: ed49 043e 5c0c d2bb 47e1 ec3b 46ce 6dbd
000000a0: ee45 c038 b7a7 b2bb 4948 baba 44f9 8bbc
000000b0: 2c71 c6b9 74e8 89bc 64d9 613d e13c 453b
000000c0: a68a 77be d9d3 91bc f922 51bd 478a f73e
000000d0: 0763 f4bd 7603 edbb c4aa cdbb f0b0 74bc
000000e0: 12fa 2aba b3f1 1fbd b03d 30bd 720b 933c
000000f0: fabf e2bc befe 48be 31f7 27be 0e6a febc
00000100: 7794 3cbd f573 3cbe bec9 06be bf40 63bd
00000110: f02c cdbd 44dd 26be 804b 74be c2e2 0fbf
00000120: c67c d9bb 15e8 cc3d c498 c93b 0efb 5cbe
00000130: 30a5 0bbd 94f6 0f3e 5d1a 5a3d 9b7d 3bbd
00000140: 5650 033e 57eb d63b 29c6 18be 4e87 05bc
00000150: 34d1 85bb 0fe4 03bd 58a7 4cbe c77a 1fbe
00000160: 65c6 8cbe 3f32 2fbf 4a6c d6bd cb43 293d
00000170: 29c3 c4bd 8063 b0be 3e58 0bbf 7bd0 23be
00000180: bf24 97bc 2d2b 823c 0078 2fbd fcca 84bc
00000190: 2cf7 8bba cd36 4f3b 5718 1c3c b8f2 f936
000001a0: b06a 109d 3376 4789 9d92 2e39 2ae9 6dbb
000001b0: 0679 1cba 1898 6e2c b9b9 0b3e 8abe ff3b
000001c0: f72f 223e bc42 a13b f2d1 683b 1355 393d
000001d0: e563 f83c a030 1f3a 2176 d53a 17a8 efb8
000001e0: f432 163d 93b3 85bd d7b0 e2bd 8ef2 1fbd
000001f0: 8770 f73a 8b9b 7bbc c718 f23b 8ea4 d2bb
00000200: e062 5cbc 452e d9bd fd2b d5bd 59cb edbd
00000210: 27e4 84be e8ed 77bd 31d7 03bd 79c2 34be
00000220: 761f abb7 01a1 85bd 7bd7 903d ae22 f0bd
00000230: 5318 8aba e886 4cbd f417 8b3e a27e 73bc
00000240: 0e4c 1b3e 7d61 2d3c 5987 9bbb 3e3b afbe
00000250: 9545 95bc f8e5 803c f4cc a1bd 3be4 37bd
00000260: 554f 5bbd ad00 80be 7e2f 96be fb1b 753d
00000270: cb60 23bd 41a4 40bd cbd9 8abe 9b2b 78bd
00000280: d4d7 9cbd db56 be3d 9c53 3c3e e181 9e3d
00000290: bbba 60bd 8e4c debd 4571 b53d fe5e 15be
000002a0: 9cdd f0b8 610d 7bbd a788 e13c 1ebc d2bd
000002b0: 7e17 aabc 0186 1fbe b9fc 653c 2bb6 8b3d
000002c0: 02f0 b53e 9fcc 613c 3bf3 243d 68fc a33e
000002d0: 09f1 88bb 11de 7dbc e4b9 1abe d908 8dbc
000002e0: 9a5c 693d fd07 6f3d a57b 8d3e 6a4b 9ebc
000002f0: 04ec 9dbc 8cec 65bd 50f8 f53c 2919 09bd
00000300: edbd 8c3a 52ec f739 319d 5cbc e814 c4b9
00000310: f162 51bc 2486 8f39 d80a 8eb9 5061 dd38
00000320: f713 168d 3967 0680 13a7 7bb6 337c a036
00000330: a20b 17ad fa3d 0cb5 0892 9a3a 43bc 8c36
00000340: 26f5 08bd 899d 7cb1 f223 43b9 60e5 f73c
00000350: 4bee e6b9 cbbf 5b0e 93dd c137 1c91 bfb1
00000360: 8e74 1994 cf32 bf36 642b debc 0e63 6235
00000370: c20b 30b8 bfc7 9335 d27d fcbc 4597 5331
00000380: 15e3 413e 9c2f 13bd 5f49 14be 65da 8fbc
00000390: 40f1 abbe 1283 14bd 5a83 02bd 8635 61be
000003a0: cb44 82b9 4cd1 dabd a7f5 a5bd d9f2 c13a
000003b0: 17d5 2fba 008d d3bd a148 4fbd 842b b8bc
000003c0: 5e0c d93c 156e c5bd cb18 05bd 323e d8bd
000003d0: 069d bc3e 9e6e f7bc 66b6 9ebc 07fc e6bc
000003e0: 5d8e 34b3 4cd7 bbbd 9283 85bd 1161 17be
000003f0: ea12 fdbd 437a 43be bdef 8d3d 78e8 31bd
-0.013172357 -0.031136906 -0.13268279 -0.07141569 -0.18748716 -0.08787489 -0.06518094 -0.07997562
-2.2610136e-08 -0.0072119576 0.017936274 -0.019297324 -0.00037628124 -0.024772616 -0.023005972 0.0029426897
-0.0070475135 -0.06277711 -0.025381949 -0.22111097 -0.034164473 -0.007428262 -0.020369966 -0.03025581
-0.003646734 0.00081300375 -0.19302738 0.025208164 -0.024878236 -0.025252683 -0.22537455 -0.016825238
0.040754702 0.0074933716 -0.024503792 0.04689239 0.12918825 -0.0064101648 0.0072290036 -0.058058046
9.168299e-05 -0.005452122 -0.0014212216 -0.017086633 -0.00037849823 -0.016834475 0.05513896 0.00300961
-0.24173984 -0.017801212 -0.051058743 0.48347685 -0.119329505 -0.0072330786 -0.0062764604 -0.014934763
-0.0006522249 -0.03904886 -0.04302758 0.017949793 -0.027679432 -0.19628426 -0.1640289 -0.03105643
-0.046040025 -0.18403609 -0.13162896 -0.05548167 -0.10018337 -0.16295344 -0.23856926 -0.5620538
-0.0066371886 0.10005204 0.0061522443 -0.21580145 -0.034093082 0.14058906 0.0532478 -0.045774084
0.12823614 0.0065588164 -0.14919342 -0.008149935 -0.004083777 -0.032199915 -0.19985712 -0.1557418
-0.27495113 -0.68436044 -0.10469873 0.041324418 -0.09607536 -0.34450912 -0.5443152 -0.15997498
-0.01845014 0.015889728 -0.04283905 -0.016210072 -0.0010678521 0.0031618357 0.009527287 7.4490345e-06
-1.9113397e-21 -2.400933e-33 0.00016648551 -0.0036302307 -0.00059689616 3.3906263e-12 0.13645066 0.0078046964
0.1583861 0.0049212854 0.0035525528 0.04524715 0.03032107 0.00060726143 0.0016285816 -0.00011427717
0.036669686 -0.06528392 -0.11068886 -0.039049678 0.001887814 -0.015356909 0.0073882076 -0.006428308
-0.013451308 -0.10604528 -0.10408781 -0.11611051 -0.25955316 -0.06052962 -0.032187644 -0.1765231
-2.0399439e-05 -0.0652485 0.0707235 -0.117253646 -0.0010535814 -0.049933344 0.27166712 -0.014861735
0.15165731 0.010582325 -0.0047463593 -0.34224886 -0.018221656 0.015734658 -0.0790042 -0.044895392
-0.053542454 -0.25000516 -0.2933311 0.059841137 -0.03988723 -0.047031645 -0.27119288 -0.06058846
-0.076583534 0.0929391 0.1839127 0.07739616 -0.05486558 -0.108544454 0.08859495 -0.14587018
-0.0001148537 -0.061292056 0.027530981 -0.10289787 -0.020763155 -0.15578462 0.014037305 0.06821855
0.35534674 0.013781696 0.040271025 0.32028508 -0.0041791243 -0.015494839 -0.15109974 -0.017216133
0.056973077 0.058357228 0.27633396 -0.01932307 -0.01927758 -0.05613379 0.030025631 -0.03347126
0.0010737755 0.00047287584 -0.013465212 -0.0003739961 -0.012779937 0.00027375028 -0.0002709243 0.00010556227
-4.624635e-31 -5.88042e-40 -3.7499165e-06 4.7828303e-06 -8.585939e-12 -5.224425e-07 0.0011792788 4.1942417e-06
-0.033436917 -3.6760375e-09 -0.0001861004 0.030260742 -0.0004404656 2.7086179e-30 2.3110571e-05 -5.5753286e-09
-7.747512e-27 5.6981585e-06 -0.0271203 8.4335704e-07 -4.197262e-05 1.1010487e-06 -0.030821715 3.0790528e-09
0.18934281 -0.035934076 -0.14481114 -0.017560193 -0.33582497 -0.03625781 -0.031863548 -0.21993074
-0.00024846787 -0.106844515 -0.08103495 0.0014797106 -0.0006707473 -0.10329628 -0.050606374 -0.022481687
0.026495155 -0.09640137 -0.032494348 -0.10558738 0.3683855 -0.030204114 -0.019374084 -0.028196348
-4.2038995e-08 -0.09171924 -0.06519236 -0.14783122 -0.12357123 -0.19089608 0.06930492 -0.04343459

w_comp f4 [8, 4]
00000000: 0a5d 6a3e 95c9 7abe 677c 97bc 6e7b d63d
00000010: 0219 893e 55d6 c73d 3d1a c2be b244 bd3e
00000020: a395 093f 6069 4c3f c746 783d 861e 18bf
00000030: c370 57be 299a cb3d 41f5 7cbf cab2 8f3d
00000040: 3a1c 96be 8c2c 2c3e f2f5 35bf d21b 4fbe
00000050: 8de5 393e 3ce9 98be 5b84 883e 13ca a43e
00000060: 695c 0000 2b77 0000 3f24 0180 bc30 0000
00000070: e90b 0180 802f 0000 ee15 0180 e138 83b0
0.22887054 -0.2449096 -0.018491937 0.10472761 0.26776892 0.097576775 -0.37910643 0.36966473
0.5374395 0.7984829 0.060614374 -0.59421575 -0.21039109 0.09941513 -0.9881173 0.07016523
-0.2931841 0.16813868 -0.7107841 -0.20225456 0.18153973 -0.29865444 0.2666348 0.3218542
3.315e-41 4.275e-41 -1.04838e-40 1.7483e-41 -9.6108e-41 1.704e-41 -9.9702e-41 -9.54767e-10

self_loop_weight f4 [32, 32]
00000000: 7e49 a7bd dfb9 553e dd8b 95be 517f c2bc
00000010: 1805 6b3d 169c 4fbe 1684 343d 9da3 f23d
00000020: f3d3 7fbb 48da c4b9 cd48 86bd c869 12be
00000030: f09e 80bd c87d 51bc 7132 d1ba 4994 913d
00000040: 665d a43e f8a9 553c fed0 5f3c 41cd efbd
00000050: dbfe afbe 52fc 69bb 5f7c efbc 18ab d5bd
00000060: 69de 10bc 368c ccbd 1a0e 0d3d cf13 ed3c
00000070: e8f3 afbd ae24 c6bd ee53 c83d 1a37 6d3c
00000080: a22e 26be fc19 fb3d 1d91 bd3e 9b79 193d
00000090: b917 aa3d 8e8c 393b 1225 d8bd 40a8 283e
000000a0: ae38 483c 1cb4 b53b ba76 e8bd 9984 3bbe
000000b0: 8128 b7bc 15e1 26be f03b dbbe d842 493a
000000c0: 4aec e23e 7a01 91be 2463 86be 9eeb e03e
000000d0: 68df 3abf 3f92 a836 306c 22be b3da 6fbd
000000e0: 6430 003d 7998 b2be 4d32 4c3d 2d87 5cbe
000000f0: 976b 52bc 45d2 8dbe 2d33 993e f8ca 8dbd
00000100: 3959 96be 1e33 273e e331 8b3e 5156 6abe
00000110: fb8c 6f3c 522c b4be ecc8 313c 8e95 75be
00000120: 4598 a6bc 06f0 23be 419b 84bd b824 36bf
00000130: b419 26be b6f1 b5be ce6c 88bf 9480 5cbe
00000140: 455b 133e 8420 9cbe 13b8 7fbe 08e5 523f
00000150: 8bf0 babe d9aa 00be c86f 98bc 6f03 25be
00000160: 0f36 21be 1f5e 6ebe 961a a23e f012 58be
00000170: 5da4 313c 1cb9 9dbe c23b cb3e 48c9 19be
00000180: a1df 273e e667 043e 29b0 463d 7772 213e
00000190: 2103 ddbd a399 b23c a1ce 4cbe 4633 3d3d
000001a0: d242 223b 7872 fbba cdb5 83bc af31 01be
000001b0: 3552 39bc 90f0 ee3c fbd1 b4bc 4fbb 7bbd
000001c0: 9345 7dbe c942 2b3e 67c5 103e 4639 4bbe
000001d0: 1dd3 423e 8ba7 49bb b256 f43d 05a0 41bd
000001e0: 04df 6d3d 00b3 4ebc 4d77 b6bd f8c6 123d
000001f0: 5f5b 39be 804e 24bd c223 06bd 0d2e ca3d
00000200: 55d0 76bd 59d8 c93e b3e4 e33e d6fe 433e
00000210: 19db 42be 866a 5e3e 35e1 7ebe 8f74 e63d
00000220: 1d31 2339 c045 63bd f815 933d 764d 0fbe
00000230: 7e23 8ebd 31a7 9dbe 8691 42be ef31 7fbd
00000240: bf06 493f f5a0 6e3e 675e 0b3e 92c5 9d3e
00000250: 8e5c fe3d b68c 92bc d0b0 8d3e 68fc 59bd
00000260: 618f 643d 0d02 12be 3344 863e 450a 483e
00000270: fa7d 35be 669c 74be b1e9 c03e b42b 703e
00000280: 0d2d 51be d29f 58bd 5f57 a03e 0086 c13e
00000290: 1311 8bbe a62b 453e 0b05 67bd fb4d b63e
000002a0: 9683 9bbd 231b 62be 21c8 91be 473c 58be
000002b0: a7d0 38be d3bd 873e 263b 2c3f 0426 833c
000002c0: c4ed 3e3d 521e efbe 1ea5 32be 6763 64be
000002d0: e55f 4b3e 1398 bdbd e95e 4c3e eaeb b2be
000002e0: 905c 71be dbca 3fbe da37 b83d f764 36be
000002f0: 7acb 123d b5ab 5dbd 5bcd aabd 1190 96bd
00000300: 37c6 53bd c7ec be3d 691b 9d3e 36e8 0c3e
00000310: 0328 59bd 2ede 923c 9220 2d3b 911f e93c
00000320: e087 0535 0c63 93b7 7797 20bd 1cf1 febc
00000330: 1099 d53a 4edd fdbd a9b0 0f3e 84a5 f73c
00000340: c9ed 883e 4b00 07bd 8f23 86bb 415c bd3e
00000350: 3e56 3abd b312 0100 1b8a 043e 39f2 9ebc
00000360: d8e2 e9b7 e448 9abd 5eef c23e 0895 9dbd
00000370: 8d86 99bc 4a36 c4b7 9025 c03e 0280 9ebd
00000380: deb3 e2bd 3b56 55bd 2760 93be e711 f83c
00000390: 8ddc e73e 9088 3fbe 03b5 9bbd 2409 9fbe
000003a0: b4f0 c3ba 454a 70bb 757c b9be 633b 41be
000003b0: ff4e 243d 2494 45be b449 a0be e593 173c
000003c0: 8cea 23bf 4f62 4abe 05d5 d6bd 9b02 5a3f
000003d0: 76a4 e5be 4617 42bd eba7 36bd 4346 a9bd
000003e0: 64b7 df3c a6ae 07bd 3c3e 5dbe a01e 48be
000003f0: 655c a2be e5a7 c1be a808 b6be d343 3fbe
-0.081683144 0.20871685 -0.2920827 -0.02374235 0.057377905 -0.20274386 0.04407128 0.11847613
-0.0039036244 -0.00037546665 -0.065568544 -0.14298165 -0.06280315 -0.012786336 -0.0015960467 0.07108361
0.32102507 0.013041012 0.013660667 -0.11709071 -0.34374127 -0.0035703373 -0.02923411 -0.10433024
-0.008842089 -0.099876806 0.034437276 0.02894011 -0.08591443 -0.09674965 0.09781633 0.014478469
-0.16228727 0.122608155 0.37024775 0.037469488 0.08305306 0.0028312537 -0.105539456 0.16470432
0.012220545 0.0055451524 -0.1135077 -0.183123 -0.022358181 -0.162968 -0.42819166 0.0007677502
0.443209 -0.2832144 -0.26247513 0.43929762 -0.7299714 5.0238154e-06 -0.15861583 -0.058558177
0.03129615 -0.34881952 0.049852658 -0.2153594 -0.012843034 -0.27699485 0.29921857 -0.06923479
-0.29364946 0.16328093 0.27186498 -0.2288449 0.014621015 -0.35190064 0.010851126 -0.23982832
-0.02033628 -0.1600953 -0.06474925 -0.7114978 -0.16220742 -0.35535973 -1.0658205 -0.21533424
0.14390285 -0.30493557 -0.24972562 0.82380724 -0.36511645 -0.12565173 -0.018607989 -0.16114591
-0.15743278 -0.23278092 0.31660908 -0.21100974 0.01084241 -0.3080529 0.3969403 -0.15018189
0.16393901 0.12930259 0.048507843 0.15766321 -0.107916124 0.021801775 -0.20000698 0.046191476
0.0024759066 -0.0019183895 -0.0160779 -0.12616609 -0.011311104 0.029167444 -0.022072783 -0.06145793
-0.24733572 0.16724695 0.14137803 -0.19846067 0.19025846 -0.003077003 0.11930598 -0.047271747
0.058074012 -0.012615919 -0.089094736 0.035834283 -0.18101262 -0.040113926 -0.032748945 0.09872065
-0.060257275 0.39422873 0.4451042 0.19140181 -0.19028892 0.21720323 -0.24890597 0.112527005
0.00015563187 -0.05548644 0.071819246 -0.13994393 -0.06940363 -0.3079162 -0.19000825 -0.06230348
0.7852592 0.23303588 0.1361023 0.30814797 0.12419997 -0.017889362 0.2767396 -0.05321923
0.0558008 -0.14258595 0.26223907 0.19535168 -0.17723837 -0.23887786 0.37678292 0.23454171
-0.20427342 -0.05288679 0.3131666 0.37797546 -0.27161464 0.19254932 -0.056401294 0.3560637
-0.075934574 -0.22080664 -0.28473 -0.21116744 -0.18048345 0.26512012 0.67277753 0.016009338
0.04661347 -0.4670282 -0.174458 -0.22303544 0.198608 -0.092575215 0.1995808 -0.34945613
-0.23570466 -0.18729727 0.08995028 -0.17811953 0.03583858 -0.05411883 -0.0833995 -0.07351697
-0.051702704 0.093225054 0.30684975 0.13760456 -0.053016674 0.01792821 0.0026417118 0.028457435
4.9744085e-07 -1.7569888e-05 -0.039206948 -0.03112083 0.0016296227 -0.12395726 0.14032234 0.030230291
0.26743916 -0.032959264 -0.0040935944 0.36984447 -0.045492403 9.8544e-41 0.12943308 -0.01940261
-2.7881397e-05 -0.07533434 0.38073248 -0.07694441 -0.018740917 -2.3390301e-05 0.37528658 -0.07739259
-0.11069463 -0.05208419 -0.28784296 0.030281974 0.45285454 -0.18704438 -0.076028846 -0.3106166
-0.0014949054 -0.0036665362 -0.36227766 -0.1887031 0.0401144 -0.19294792 -0.3130623 0.009251569
-0.64029765 -0.19764064 -0.10489849 0.85160226 -0.44852036 -0.047385477 -0.044593733 -0.082653545
0.027309127 -0.033125542 -0.21605772 -0.19542933 -0.31711116 -0.37823406 -0.3555348 -0.18678217

weight f4 [32, 128]
00000000: e7ac 812f 8d1d b6b9 b730 e0bc 51eb c7bb
00000010: 2d55 4cbc 4447 89b9 4657 67b7 332f e4bb
00000020: e60a 6eb9 dfbd 7dbb 663d 27bc 3a85 07bc
00000030: d75d 3539 4d8d 6ba1 a2cd d13b 5d8c 0080
00000040: ae33 0db7 6367 5fb4 52b3 1d3d c8a9 8ebc
00000050: 9ea5 c9b1 834f 95ba 07b2 c939 4f28 d1b6
00000060: e047 21bd 8516 2aba c69f d1bc 455e e5bc
00000070: 5896 88bc e940 2dbc feb3 4fbc f2d2 cbbb
00000080: 83e8 6e32 abfd 7fb6 ec25 83bc bc27 00b1
00000090: 1f42 13b9 5b02 d6bc c416 f8b2 ea02 2bba
000000a0: ccff 8dbb c4a6 87bd 222a 45bb 738f 64bc
000000b0: 0d18 0337 14bb 35a6 d724 d2bc f16b 0180
000000c0: 2dca c3b8 fec0 0ab3 4d41 15be ca8d aabb
000000d0: f05d 3233 0d24 1bb9 e602 d0b6 20d5 3cba
000000e0: 5245 54bd fb8f 4bb6 3c73 e7bb 6957 52ba
000000f0: a887 ffbc 596d b6bb fcaa 52bb 074c 24bc
00000100: 4758 2bbb 9397 cfb8 738f ba3b 5b38 32bc
00000110: e92a f03b 4cbb 75bc 2a7a b8bb fd98 313b
00000120: 4adf 873b 0704 d23b e185 f6bb 2b56 6a3c
00000130: 8192 5bbb 55c6 23bc 64d6 26b9 67c8 97bb
00000140: 82ba 1b3b 2949 5e3a 1e2a 5f3a 0132 cfbb
00000150: efd6 1e3c b0c0 b9ba 8780 123c 10c4 aa3b
00000160: 6b9f a13b ddd6 e43b 70d1 29bb 62c2 b8bb
00000170: 0610 06bc a551 9bbb 8092 123c 5e86 fc37
00000180: 7617 f43b e075 9abb 9441 bdbb c504 1839
00000190: 88ae 00bb 0d89 2dbd 4ca9 27bc 6593 1cba
000001a0: 22b1 babb ad51 073c 8df1 633b 9665 403d
000001b0: 62da cc3b 7d72 ecba 1589 23bb 324c 15bb
000001c0: 33cf f1bb e21b 73bb 169a 1dbb 87fd 423c
000001d0: 087b 083b e0af 25bb 4ce0 723b 7663 c7bb
000001e0: f17d 20bb 6200 0ebb 23a6 e73b 666c 3e3c
000001f0: 967d 633c 237d 203c 3f3a 693b 4bcc 1e3b
00000200: 9ead 1d0e ccf7 05b5 0774 5aba 3b00 4e30
00000210: 7c24 81ad e5f2 9ebc 81cb 0080 5da4 41b8
00000220: 147d 2430 fd46 ccbb e21d db39 0619 08ba
00000230: 5b72 c0ac deff 0000 563c afbb 3a45 0500
00000240: 8200 91b8 0532 1c97 bdd7 9f3a 9f24 a9b9
00000250: 1030 bcb8 279e eab9 6bf7 0000 2db8 02ae
00000260: 163a 60bc d526 0100 042a 1137 d7a3 9239
00000270: b95f 91b9 b93a 12ba 184e e1bc 934c 1335
00000280: 610e cca6 102c 1fb5 08c7 fdbc 000f 0080
00000290: ec67 64af 2024 c03a c361 0100 49ce 1e09
000002a0: 904f 0ca9 9284 313a c25f fbbb 42f1 d0bc
000002b0: bc3d d1a2 8653 0080 6167 9abc 3ac0 0380
000002c0: 0b5f 70b9 6ed2 2f98 d5f9 0fbc 3431 2f39
000002d0: a6b4 6738 80d9 59bc 8a7d 0080 5013 d1b2
000002e0: 55cc 42b9 fb4c 0100 058f b19d 39e0 2fbb
000002f0: 9710 f5bc acb2 98bb 160d 4f3b f86c 1c00
00000300: b362 65b9 2f66 9bb8 a8b2 333c 3d1b 86b9
00000310: 25b5 fc3a 2dfa b8bc 2597 8dbb df73 543a
00000320: 4468 bb38 14bf 913b f381 86bb 9be1 d53c
00000330: 4e79 af37 df5f 9b3b 0e77 873a c49b a0bb
00000340: 85f2 6d3b 724d 11b7 ed2a 453b 6ec5 94ba
00000350: c1b6 db3b a11c 2fba e9d7 493c 446e 483b
00000360: ec02 773b 900b 9b3a 2aac 6eba 25d9 81ba
00000370: 2cf3 dabb 970c c8ba 27a0 f43b 6ef3 c1b9
00000380: 97d0 5639 de89 35b9 fa16 93bc d70d b336
00000390: 2c0f 01ba b419 913c cc2e 32bc 73e6 b1b8
000003a0: 8b32 68ba 3977 e23b 7e1a bc3b 3b61 88bc
000003b0: ddf5 f4b8 2a3b d1bb 2c01 c4b9 dcbb e13a
000003c0: e05a a8bb 1599 16b7 f5ba b0ba 95e2 0b3b
000003d0: 233e 46bb bd2c 3eb8 a297 1ebc da13 87bb
000003e0: 72b2 8cbb f0d8 deb9 674b 5239 63ca a43b
000003f0: 5ec3 383c cf2e ba3b b109 82ba 180b 5fb8
2.3587818e-10 -0.00034735762 -0.027366979 -0.00610105 -0.012471479 -0.00026183773 -1.3788993e-05 -0.0069636344
-0.00022701509 -0.0038717908 -0.01020751 -0.00827151 0.00017296463 -7.9808107e-19 0.006402687 -5.0353e-41
-8.4162875e-06 -2.0806105e-07 0.03850109 -0.017414942 -5.8686984e-09 -0.0011391494 0.00038470348 -6.233378e-06
-0.039375186 -0.0006488341 -0.025588881 -0.027999053 -0.016673252 -0.010574558 -0.012677191 -0.006220215
1.390629e-08 -3.8145615e-06 -0.016009293 -1.8649038e-09 -0.00014043644 -0.02612417 -2.8881352e-08 -0.00065235666
-0.004333472 -0.06623605 -0.0030084928 -0.013950217 7.813808e-06 -6.305053e-16 -0.025652332 -1.30558e-40
-9.335983e-05 -3.2306154e-08 -0.14575692 -0.005204891 4.152929e-08 -0.00014795382 -6.1992205e-06 -0.0007203389
-0.05182392 -3.0333165e-06 -0.0070632976 -0.00080238894 -0.031192616 -0.0055672345 -0.0032145372 -0.010027892
-0.0026145147 -9.898762e-05 0.00569337 -0.010877694 0.007329334 -0.014998268 -0.0056297975 0.0027099245
0.004146491 0.0064091715 -0.007523284 0.014302771 -0.0033504071 -0.0099960165 -0.0001591086 -0.004632044
0.002376229 0.00084795296 0.0008513051 -0.0063230996 0.009694799 -0.0014171805 0.008941776 0.0052113608
0.004932334 0.0069836215 -0.0025912188 -0.0056384066 -0.008182531 -0.0047399574 0.008946061 3.010331e-05
0.007449086 -0.004713759 -0.00577564 0.00014497626 -0.0019635279 -0.04236703 -0.010233235 -0.0005972891
-0.0056973854 0.008259219 0.0034781427 0.04697188 0.006251619 -0.0018039491 -0.0024953533 -0.0022781012
-0.0073794364 -0.0037095477 -0.0024048141 0.011901266 0.0020825285 -0.0025281832 0.003705996 -0.0060848547
-0.002448913 -0.0021667709 0.0070693656 0.011622524 0.0138849225 0.00979546 0.0035587696 0.0024230655
1.9435338e-30 -4.9906953e-07 -0.00083333295 7.494269e-10 -1.4681804e-11 -0.01940293 -7.3003e-41 -4.616786e-05
5.98406e-10 -0.0062340484 0.000417932 -0.0005191717 -5.4696642e-12 9.1788e-41 -0.005347769 4.84011e-40
-6.9142334e-05 -5.046945e-25 0.0012195032 -0.00032261477 -8.973491e-05 -0.0004474979 8.8757e-41 -2.972216e-11
-0.013685724 1.05766e-40 8.652456e-06 0.0002796936 -0.00027727874 -0.00055782084 -0.027503058 5.48732e-07
-1.4159241e-15 -5.9296235e-07 -0.030978695 -5.381e-42 -2.07734e-10 0.0014659204 1.26906e-40 1.9115553e-33
-3.1155254e-14 0.00067717687 -0.0076713273 -0.025505666 -5.6714927e-18 -2.9963e-41 -0.018848123 -3.44464e-40
-0.0002292359 -2.272446e-24 -0.008787592 0.0001670763 5.5242934e-05 -0.013296485 -4.5035e-41 -2.4339585e-08
-0.00018577401 1.19451e-40 -4.699939e-21 -0.0026836528 -0.029915137 -0.004659971 0.0031593493 2.610485e-39
-0.0002187591 -7.410009e-05 0.010967888 -0.00025578766 0.001928006 -0.02258023 -0.0043209963 0.00081044243
8.936276e-05 0.004447827 -0.0041048466 0.026108554 2.0918113e-05 0.0047416533 0.0010335164 -0.004901381
0.0036307883 -8.660705e-06 0.00300854 -0.0011350343 0.0067051356 -0.0006679986 0.012319543 0.0030583302
0.003769095 0.0011829007 -0.0009104634 -0.0009906633 -0.0066818204 -0.0015262541 0.0074653807 -0.00036993198
0.00020486336 -0.00017312865 -0.017955292 5.336227e-06 -0.000492322 0.017712452 -0.010875415 -8.482942e-05
-0.0008857629 0.006911185 0.005740463 -0.016647926 -0.00011680622 -0.0063852267 -0.00037384906 0.0017222124
-0.0051377863 -8.976339e-06 -0.0013483452 0.002134477 -0.0030249439 -4.5341196e-05 -0.009679707 -0.0041222395
-0.0042937333 -0.0004250477 0.0002005525 0.005029009 0.011277048 0.0056818496 -0.0009921101 -5.3177675e-05

bias f4 [32]
00000000: 55c7 e1bc 26ae d2bc def5 21b6 7f0f 9cbd
00000010: 5fc8 28bd 2394 75be 5380 61b8 705e a6b6
00000020: 7d1a 9a26 d994 9cb1 6cb4 ecbb 64a2 d5bc
00000030: f286 8f3c b247 2db9 4c78 aab9 59ae abbd
00000040: 7235 fdbc 4d1d 05bc dfd3 e2b8 69b9 76bd
00000050: 9587 0a9a 57b2 efbb e215 69bb 5115 733c
00000060: ae57 98b8 db35 2dbd 13c8 1bba 9ace 1bbe
00000070: c69d f3b0 a0fd ee37 3790 863e 1f7e 82ba
-0.02756087 -0.025717806 -2.4133983e-06 -0.07620143 -0.041206714 -0.23982291 -5.376369e-05 -4.9581795e-06
1.0693076e-15 -4.5571196e-09 -0.0072236564 -0.02607841 0.017520402 -0.00016525274 -0.00032514555 -0.083828636
-0.030909274 -0.008124662 -0.00010815984 -0.060235415 -2.8647253e-23 -0.007314961 -0.0035566022 0.014836625
-7.2642564e-05 -0.04228769 -0.0005942594 -0.15215531 -1.7725419e-09 2.8489914e-05 0.26281902 -0.00099558

weight f4 [1, 32]
00000000: 9bd7 713d 4b6f c03b bcf8 1e3e f3d7 9b3d
00000010: f866 883d d9fc 433e 5540 073a 08b8 d93d
00000020: d889 fba9 a35b bc3d d8ab ddbc e382 73be
00000030: 4d7c 32be 645c d8ba 291a e2bb c0c9 103d
00000040: 869e 2d3d 5867 1cbb 1f19 87bc 720b febd
00000050: a00a cfa1 64a1 ab3b 43c0 4438 89ff 02bf
00000060: 862d 623c 6576 d83d a8f9 583e 2412 0d3d
00000070: 0d34 1435 99a9 bbb9 acc6 2d3f 06a5 27bc
0.059043508 0.005872642 0.15524572 0.076095484 0.06660265 0.19139422 0.00051594275 0.10630804
-1.1170551e-13 0.09197166 -0.02705948 -0.23780398 -0.1743023 -0.0016507027 -0.006900091 0.035348654
0.042387508 -0.0023865309 -0.01649147 -0.12404527 -1.4029678e-18 0.005237745 4.69091e-05 -0.51171166
0.013804799 0.10569457 0.21188986 0.03444113 5.521004e-07 -0.0003579378 0.67881274 -0.010232216
