experiments/grail_fb_v2/best_graph_classifier.pth (torch, 173996 bytes, 21 tensors)

weight f4 [200, 32]
00000000: a835 e5be 2b5e 3fbe fda7 3b3e aec6 84bd
00000010: c379 64bf 8c1f 0f3e 12fd f63e de71 42be
00000020: 54ea eabe 8cb5 f5bd d87f 34be 6092 99be
00000030: 4bb5 77be 5c42 e3be 71d4 28bf 4a0f b7be
00000040: f629 93be f8be a5bf ceb9 ff3e 5f82 91be
00000050: e8ee 6d3f 64ea ffbe b465 973c f26e cd3e
00000060: 7a83 173e 1b91 b83c a786 10be b7d3 823d
00000070: b5d3 01bf ef99 b2be 9aa9 cf3e 5c4c 073d
00000080: 79c6 96bf 7ae9 b5bf f183 c3bf d026 0fbf
00000090: 33af 2cbf 95b5 253f 6490 9ebf c8ce ba3f
000000a0: 0774 83bd 59d2 ddbe 2d2a babe c75a bc3e
000000b0: 90ad 3cbf a67b 3cbf 592d 8c3f 9ffe 85bf
000000c0: c455 68bf be64 c3bf 6239 0040 e142 c3bf
000000d0: c11d 1140 9207 4f3f ef13 cf3e eb76 27bf
000000e0: 38ea 62be afd0 0e40 75ba 92bf bb48 fd3f
000000f0: 1eb4 493f 6905 f7be 23e3 fc3e 876d 203f
00000100: 70d5 4cbd 73b7 4ebf f511 d33d 3034 9cbf
00000110: 3ccc d43c 51ad a43e 8756 a53e e77f 28be
00000120: a8bb 44bf 1157 acbf 06fe ffbd 8cae 7a3e
00000130: 6af3 863e d022 a3bf 7664 24bf 7ba5 643f
00000140: ecb8 aebf c11b 70bf 5e63 c63e ba9a 18bf
00000150: d826 06bf 7e37 403f 0808 633f 1e6a 4a3f
00000160: 7525 d1be 962e d83e 4050 45be e6a3 043f
00000170: 9d08 c1bf 26ec d8bf e288 cf3e c0c5 b83e
00000180: 0a31 00be 2a62 e53e 4642 c1bf 18b9 463f
00000190: 159b aebf f482 7bbe 4aee 903f fadc 84bf
000001a0: a65c 233f a7e2 e93e 88f4 dcbe 6477 ccbe
000001b0: 0b68 c63e b619 c3bd ca6a fe3e 3a4e 803f
000001c0: a7bf 15bf 7ccd 21c0 5816 853f 25cc 12be
000001d0: 2247 2740 ffed cbbf ba44 93be c6da 96be
000001e0: 51a8 a2be a694 01c0 a8ad 163f 7049 163f
000001f0: a23e a7bf d635 f6be fbd0 c43f e3a5 9fbf
00000200: a0d9 2d3f 5c23 cabe 09eb 93bf 4ca6 cd3e
00000210: b490 20bf 838e b9bd 4eeb f13d 6f2b 0ebf
00000220: 0d96 26bf 2cff cdbe 73fd 843e 6bac 5c3e
00000230: c2e0 aa3e 2a0e 8fbe 9aa3 49be 9759 053f
00000240: 183d cabe a2cb 56bf 540a 563f 58d5 913f
00000250: da83 2d3e 6b37 22be 2798 ccbd bef9 6bbf
00000260: 4518 183d bb16 9cbf e0ce d3be ca5d 27be
00000270: 90bb 2c3e 6210 263d 317a 4b3f 47ea debd
00000280: d559 303f df0d 053f e17b dd3c 2aed fd3c
00000290: a760 143e 67ab 93be c294 55be da94 ffbe
000002a0: df76 4abd c763 6dbf 66fa b5be e5c4 a7be
000002b0: bf30 db3d 1d5e 55be 6bf7 553f f6c4 dcbe
000002c0: db3c 8ebd 9413 803e 20b1 9bbd c94c 113f
000002d0: fcea d2be d11a b13e 1200 9d3e 90db 573e
000002e0: 5535 adbe 0820 96bc 5b9f 2abd 8250 35bd
000002f0: 3fa5 2a3f f8f5 803e ab79 a4be 8f70 2ebe
00000300: f628 0080 2ca3 0000 6c09 0000 8dc8 0080
00000310: e078 0080 4c1a 0080 6716 0000 204c 0000
00000320: 2980 0080 34ba 0080 6263 0080 0757 0000
00000330: 9110 0080 9f62 0080 563f 0080 b691 0080
00000340: e596 0080 d531 0100 9c07 0000 8324 0080
00000350: a09b 0100 0a71 0000 768a 0000 75a2 0000
00000360: e661 0180 ae29 0100 a318 0100 4331 0080
00000370: 293f 0a80 6b5b 0000 2bfa 0080 fad4 0080
00000380: 1017 a4be 2f02 d93e 7608 653f b2f2 f1be
00000390: 119c 0fc0 e653 8fbf d670 7dbf 6c38 293d
000003a0: b22b 65be 241d b2bf 9086 41bf bcd2 85bf
000003b0: 7231 1dbf 57b9 c3bf e8dd b9be dc36 9cbf
000003c0: 1734 f8be 9c45 7bbf a543 d13f f989 5abf
000003d0: 53ec b73f 31e4 8d3f 9404 aabf 5c9c c73f
000003e0: fa9a 7cbf 1ba8 763f 0ec3 503f 50e5 c9bb
000003f0: 2ff5 d73e 942d e93e c093 7f3e 76ca afbf
-0.447675 -0.18688266 0.18325801 -0.06483208 -0.89248294 0.13976878 0.48239952 -0.1898875
-0.45881903 -0.11997518 -0.17626894 -0.29994488 -0.24190252 -0.44386566 -0.6594916 -0.35753852
-0.2874295 -1.2948904 0.49946445 -0.28419778 0.92942667 -0.49983513 0.018481113 0.40123707
0.14796248 0.02253013 -0.14113866 0.06388038 -0.50713664 -0.34883067 0.40559083 0.033031806
-1.1779319 -1.4211876 -1.527464 -0.559186 -0.6745483 0.647302 -1.2387815 1.4594355
-0.06418615 -0.43324545 -0.36360303 0.36788008 -0.73702335 -0.7362617 1.0951339 -1.0468329
-0.9075587 -1.5265119 2.0035024 -1.5254785 2.267441 0.80870926 0.40444896 -0.6541583
-0.2215966 2.231487 -1.1463152 1.978782 0.7879046 -0.48246315 0.49392042 0.62667125
-0.050008237 -0.8074867 0.103061594 -1.2203426 0.025976293 0.3216348 0.32292578 -0.16455041
-0.7684884 -1.346407 -0.12499623 0.24480647 0.26357585 -1.2744999 -0.6421579 0.89315003
-1.3650184 -0.9379235 0.38747686 -0.59611094 -0.5240302 0.75084674 0.8868413 0.7906817
-0.4084889 0.42223042 -0.19268894 0.5181259 -1.5080754 -1.6947067 0.4053412 0.3608837
-0.12518707 0.44801456 -1.509835 0.7762618 -1.3641077 -0.24561673 1.132272 -1.0379937
0.63813245 0.45680735 -0.43155313 -0.39934838 0.38751253 -0.09526388 0.4969085 1.0023873
-0.58495563 -2.5281668 1.0397444 -0.14335687 2.6137166 -1.5932006 -0.28763372 -0.29463786
-0.3176904 -2.0246978 0.5885873 0.58705807 -1.3065989 -0.4808795 1.5376276 -1.24725
0.67910194 -0.39480102 -1.1556102 0.40165937 -0.627208 -0.09060385 0.11812459 -0.55535024
-0.6507271 -0.40233743 0.25974616 0.21550147 0.33374602 -0.27940494 -0.19691315 0.5208983
-0.39499736 -0.8390447 0.8360951 1.1393232 0.16944829 -0.15841453 -0.09989958 -0.9217795
0.03713252 -1.2194437 -0.4136877 -0.16344371 0.16868424 0.040542968 0.79483324 -0.108845286
0.6888707 0.5197429 0.02703661 0.030996878 0.14489995 -0.28841707 -0.20857528 -0.49918252
-0.04942977 -0.92730373 -0.355426 -0.32767406 0.10702657 -0.20836683 0.83580655 -0.4311902
-0.06945201 0.25014937 -0.07602143 0.5675779 -0.41194904 0.34590772 0.30664116 0.2107985
-0.33829752 -0.01832582 -0.04165588 -0.04426623 0.66658396 0.2518766 -0.32124075 -0.17035125
-1.4694e-41 5.8535e-41 3.38e-42 -7.1944e-41 -4.3362e-41 -9.434e-42 8.036e-42 2.7309e-41
-4.5975e-41 -6.6797e-41 -3.5652e-41 3.122e-41 -5.943e-42 -3.5379e-41 -2.272e-41 -5.2271e-41
-5.4131e-41 1.09712e-40 2.73e-42 -1.3098e-41 1.47663e-40 4.0551e-41 4.967e-41 5.8279e-41
-1.26955e-40 1.06787e-40 1.00673e-40 -1.7672e-41 -9.41013e-40 3.2795e-41 -8.9743e-41 -7.6402e-41
-0.32048845 0.42384478 0.89466035 -0.47255474 -2.2439005 -1.1197479 -0.990003 0.041313574
-0.2237995 -1.3915143 -0.7559595 -1.0454936 -0.6140357 -1.5290936 -0.36302114 -1.2204242
-0.4847724 -0.9815309 1.6348768 -0.8536678 1.4368995 1.1085263 -1.3282647 1.5594592
-0.98673975 0.9635026 0.8154763 -0.0061613694 0.42179248 0.45542586 0.24958706 -1.3733661

weight f4 [4, 8, 32]
00000000: 9bbe c33e d458 e1bf aa17 b43f f2e3 2ebe
00000010: 8b97 0a40 31d5 94bd 2d8f 243e b946 18bf
00000020: 111f 8a39 420c 0e3f 5248 d5be e348 a13e
00000030: 6828 ffbe 6d49 ac3f 5488 543e 6cf5 8c3f
00000040: ce05 d4bf 847b ae3e a739 c5bf 3637 70bf
00000050: 4aed a9be 2fc8 ccbc e73f 0b3b c568 27bf
00000060: 9564 82bf 5d2b 3abf 34a5 c63e f0eb 273f
00000070: e467 49be 3fe1 49bf 04a1 babe 6854 2c3e
00000080: a97e 28bf 31a5 c5bf 974c a4bf 103b 0d3f
00000090: 2535 c8bf bcc8 30bf 82ee d03c 335f dabf
000000a0: 0a75 353e 5ac8 06bf 2ef1 d13e 0ae0 8dbf
000000b0: 98e6 b2bf 2f8d fcbc 527c 993f 0b3f d43f
000000c0: 64ab 7f3d c672 b3bf 5d48 9c3f 0398 00c0
000000d0: bfcc 17bf 2bd4 9fbe fc0c cd3e b92b 21bf
000000e0: 494a 023f 7626 7540 768d e73f 28ea e43e
000000f0: b4d0 c83e e9c4 b3bf cafc a63d 201c 89bf
00000100: 4593 123f a9cd 47bf b421 bd3f ac5b e43d
00000110: 6c9e ab3e 5fd8 89bf 11b0 9abf 2ff5 4940
00000120: 81d3 b83d 78f0 293e 5ca6 01bf c060 44bd
00000130: 3c5d aebf e8f9 5fbe 207e a53e a9b7 42bf
00000140: ee49 933f 199c 103f beb5 bc3e 67b8 98be
00000150: 2214 9abe 63f7 303e 7d5f 023e c3b2 03bf
00000160: 0702 063f 74b8 2ebf e0a3 293c d85d f4bd
00000170: 830a a73e 4dd1 8bbf 0397 683f 96f5 443f
00000180: ef5d 043e 166a bd3f 8b51 713e d18c b8be
00000190: b7eb ad3f c5e0 25bf 8894 013f bffb 1a40
000001a0: 74f7 cf3d 10f4 8e3f 3f27 4a3f b5b7 023f
000001b0: 0809 b63f b2bb 083e 1bf3 4c3f db6a 493f
000001c0: e51b f93f bfa6 703f 40d3 53be f642 1440
000001d0: 4ab9 45bd b33f ff3e 1c52 4f3d 0d00 323f
000001e0: 6aa9 91be ebc4 4f3f 34c3 b03e bd0f ccbf
000001f0: ab90 0440 3190 153f b08d 093f 4d84 953e
00000200: 434b 033f 4e5c bbbf 076d afbd 2772 473e
00000210: 9410 6dc0 7fd9 6ebf 0dcd 25bf 6d21 073e
00000220: ff77 9c9f 1a41 503f 3679 e8bd 7791 f53f
00000230: f6a6 24c0 f1a5 0ebf ae02 a53e 40b9 8ebe
00000240: 3c62 8940 711f 5ac0 36b4 013f 89f8 95c0
00000250: c1f0 5dbe 09a7 fdb7 6193 f1b4 fdc0 6bbf
00000260: 202d 20be 2073 6bbe 7bf9 963e 6082 bfbf
00000270: 7f82 fcbd 2ffe b4c0 5e90 2bbe 3618 b33d
00000280: 853b 09c0 ca89 0cbd 9adb fb3f 1b68 7e3f
00000290: 41e5 8d3e 1e51 67bf bbfb 9abf e504 4a40
000002a0: 5621 593d e37a d4bf 3fc4 0ebf 3598 59bf
000002b0: dbb3 a6bf 257e babd a633 fe3e ca77 c03f
000002c0: 172d dbbe e882 893e 5bc6 3b3f 99b6 c8bd
000002d0: 5628 42bf 79d0 023f b786 a13e bed1 40bf
000002e0: ea77 803e add3 f73f f347 1e40 3a1d 5e3f
000002f0: a4a2 ba3f a36d 8abe f8b0 973e 9331 db3f
00000300: 85ab e53f 47af e4bf 159e cc3e a729 40bf
00000310: 5b2d a53e f486 e1bc 80f1 de3d d60d 70be
00000320: 8f4b 9e3d 0a6a 4d3f cdbf 333e d3c1 07bf
00000330: 75f4 b9be a9a5 2940 fbef f03f b1f6 513f
00000340: 673a 0ebf 569f 9b3f 40b0 59bf a8db 503f
00000350: 8584 3b3f 94a2 823e 4ac6 503d c58f afbe
00000360: 5e6c 47bf 1911 3f3f ffc7 e63e 7079 c43e
00000370: ba56 f23e 6148 d13e 17b4 3e3f 3b61 9bbf
00000380: 40b6 4d3e 4f4f e43e 8422 9fbf 8836 043f
00000390: 01bb 2c3d 3381 243e 21b2 003e 9742 3dbf
000003a0: 6313 2bbe ee34 2bbd b8a2 4b3e 55dc d13f
000003b0: 7d08 b53f 3c10 18c0 2ef9 f6bf 69a6 89bf
000003c0: 6c8d 783f 4169 923f d805 483e 7183 463f
000003d0: 2e01 e23e 1c58 80ba 6f3e 8a3e 21d9 5e3f
000003e0: 7cd5 543f 6999 d73f d239 b43e b610 d2bf
000003f0: 2bce 5f3e 01fe 8a3f 2965 463f 8969 23bf
0.38231358 -1.7605233 1.4069722 -0.17079142 2.1654994 -0.072672255 0.16070242 -0.59482914
0.00026344557 0.55487454 -0.4165674 0.3150092 -0.49835515 1.3459908 0.2075513 1.1012397
-1.6564271 0.3407861 -1.5408219 -0.93834245 -0.3318885 -0.024997799 0.0021247806 -0.6539424
-1.0186945 -0.7272242 0.38797915 0.6559439 -0.19668537 -0.78859323 -0.3645097 0.16829073
-0.6581827 -1.5441037 -1.2835873 0.5516825 -1.5641218 -0.69056296 0.025504354 -1.7060302
0.17720428 -0.5264946 0.41004318 -1.1083996 -1.3976622 -0.03082904 1.1991065 1.6581739
0.06241931 -1.4019401 1.2209584 -2.009278 -0.5929679 -0.3121656 0.4004897 -0.6295734
0.508946 3.8304725 1.8090045 0.44709897 0.39221728 -1.4044467 0.081536844 -1.0711708
0.57255965 -0.7804819 1.477591 0.111502975 0.33519304 -1.0769156 -1.2084981 3.1555898
0.09024716 0.16595638 -0.5064447 -0.04794383 -1.3622203 -0.21872675 0.32322788 -0.76061493
1.1506937 0.56488186 0.36857408 -0.29828188 -0.30093485 0.1728187 0.12731738 -0.51444644
0.52346843 -0.68250203 0.010354012 -0.11931962 0.32625207 -1.0923249 0.90855426 0.76937234
0.12926458 1.4798 0.23566262 -0.36044934 1.358756 -0.64796096 0.50617266 2.4216154
0.1015462 1.1168232 0.78966135 0.51061565 1.4221506 0.1335285 0.8005845 0.78678674
1.9461638 0.94004434 -0.20686054 2.316587 -0.04827241 0.49853286 0.050615415 0.6953133
-0.28449565 0.8115985 0.34523928 -1.5942303 2.0713298 0.58423144 0.5373182 0.292025
0.51286715 -1.4637544 -0.08565717 0.1947714 -3.7041368 -0.9330062 -0.6476601 0.13196345
-6.626709e-20 0.8134934 -0.11351244 1.9185017 -2.5726905 -0.55721956 0.32228607 -0.2787571
4.2932415 -3.408169 0.50665605 -4.686589 -0.21673872 -3.0237732e-05 -4.499698e-07 -0.9209135
-0.15642214 -0.22993135 0.29487213 -1.4961662 -0.12329578 -5.6560283 -0.1675429 0.08744852
-2.1442578 -0.034311093 1.9676392 0.993776 0.2771397 -0.9035815 -1.2108072 3.1565487
0.053010307 -1.6600002 -0.557682 -0.84997874 -1.3023638 -0.091060914 0.4964878 1.5036557
-0.42807838 0.26857686 0.7334954 -0.09800453 -0.758428 0.51099354 0.31548092 -0.7532004
0.25091487 1.9361473 2.4731414 0.86763346 1.4580884 -0.2703677 0.29627204 1.7124504
1.7942969 -1.786599 0.39964357 -0.75063556 0.32261166 -0.027530171 0.10885906 -0.23442778
0.077292554 0.8023993 0.17553635 -0.5303013 -0.36319318 2.650736 1.8823236 0.82017046
-0.55557865 1.2158 -0.8503456 0.8158517 0.73249084 0.25514662 0.050970353 -0.34289375
-0.7789973 0.74635464 0.4507446 0.383739 0.47331792 0.40875533 0.74493545 -1.2139047
0.20089054 0.44591758 -1.2432408 0.5164571 0.04217053 0.1606491 0.12567951 -0.73929733
-0.16706614 -0.041798525 0.19886291 1.6395365 1.4143215 -2.3759909 -1.9294794 -1.0753909
0.9709079 1.1438371 0.19533479 0.77544314 0.44141525 -0.0009791884 0.27000758 0.8705006
0.8313825 1.6843692 0.35200363 -1.641135 0.2185599 1.0858766 0.7749811 -0.6383291

w_comp f4 [200, 4]
00000000: 205b bfbf 0e9b 97bf cb98 40be 0eb6 ee3e
00000010: e408 a5be 47ae c8be 8571 f1be 334d f2be
00000020: d6d4 643f a005 19c0 c3ea e2be a700 f13e
00000030: 8427 e9bf 4fbc 56bf 732a b33f 4841 01c0
00000040: 3974 843d 0873 e8bf 6d9e 90bf 7544 ecbf
00000050: eca7 b9be ceaf eb3e 8c65 99bf 9bf8 f6bf
00000060: f604 4bbe a026 463f b9d8 05bf 35fc 8cbe
00000070: f5cd 7fbf 9dd7 a7be 7b01 1bc0 344c 383e
00000080: c9ca bbbe 76b1 1dc0 ea91 d03f f971 cdbf
00000090: cffb 83bf 256b c9bf ad02 993e e127 d3bf
000000a0: cba1 47bd 816e 8a3f 48a8 9cbe a96a aebf
000000b0: 6b60 65bf 7b29 7d3e 7df2 cebf 5511 47bf
000000c0: 8584 65be e126 32bf 2580 f2be 7e8b a43d
000000d0: 2c8b c6bf 5d4f 82bf 8d4e d3bf ac31 133f
000000e0: 2ae4 f4be 9d0c b5be a221 cabf 6493 00bf
000000f0: 26dc cb3e e516 7bbf 84d9 6fbf f9e5 2fbf
00000100: 8f81 42bf faaa 3b3e d3ff 943f ed17 8bbf
00000110: fbea e2be d166 8b3f b91e ae3f bf65 93be
00000120: 02dd ddbf 5f68 c1be 01e7 973d ef82 05c0
00000130: eeea 90bf fded 25bf 208c 913e a9b6 bdbf
00000140: 95c4 d5bf 8ffc 9fbf 7ce0 5a3f 6a26 7c3d
00000150: 19ef c53e f006 bfbc c5e3 65bf 37bb ddbe
00000160: ed61 5fc0 7de1 ce3e ac67 91bf 74e2 b13f
00000170: e643 e83d fd6e 02c0 3b5c 933f 0591 c13e
00000180: 85db 61bf 866d 60bf 8aef 87bf 293a c6bf
00000190: 1c66 d43e 20c1 adbc 1754 8ebf c535 34c0
000001a0: 0ba0 8dc0 b206 dbbf 6a68 0dc0 9f88 493e
000001b0: a5c2 343f 5744 efbe 5790 31c0 c2da 47bf
000001c0: 2690 0bc0 541c 31bf a33e 203f 6e02 1dbf
000001d0: 0d7a 9dbe 23e8 993e 8d5b 96be fa28 a03e
000001e0: 4537 95bf 1e43 f33e c3e7 9abf c3b6 243f
000001f0: 8f30 0ec0 2df3 653f a1b1 21c0 eea0 f53f
00000200: 44ff aac0 6dec 04bf 6b4d c6bf 962e d83f
00000210: 79da 08bf c2f7 87bd 2e79 bbbb b414 13bf
00000220: 9b19 87bf 3e65 7c3f 4cca 7bbf 115c 16c0
00000230: 7c71 b73d 7a97 bdbe 601e 32bf 2763 f3bd
00000240: 9817 77be 1239 e8bf 3229 de3e 6920 57bf
00000250: b626 913e 463f 653f ab3d 90bf c2e6 8ebd
00000260: e516 ccbf 7ee5 9dbf b84a 3dbf e4b2 e3bf
00000270: 0f0f 0d3f 800d 9abf 3ee2 12c0 0fef 3140
00000280: f8e1 cabe 758c 85bd 2115 28bf e142 90be
00000290: 5996 ed3e b822 8bbf fcd3 debf 7521 5ebf
000002a0: ad0e 3dbf 7980 94bf 3091 703f b938 b3be
000002b0: 8f0a d3bf 4f9e 703e 64d9 1cbf 00f5 553e
000002c0: 637d d4bf ffe8 43bf 4406 e1bf e02a 86bf
000002d0: c417 11c0 5120 2bc0 9def 813f a0b4 8f3f
000002e0: 9e98 663f 3548 863f 703a 6c3e 78cf 8cc0
000002f0: aa6f 50bf c11d c0bf cc32 a73f 8c7b 0bc0
00000300: 869b 96be 6987 e0bd cdb0 d23f f1f3 5bbf
00000310: 1ae6 0ebf 4cd1 cfbf 2df5 2a3f 8a03 f1bf
00000320: 55a3 9b3d 75d7 c5bf 075e 4fc0 8de3 533f
00000330: a7cf d23f d7d0 35c0 96f0 1ebe c312 3ebf
00000340: 53e4 d3bb 6da1 533e 1940 23bf d31b 203e
00000350: 6346 403f aed0 62c0 ae03 98bf 2d60 cf3d
00000360: 26c9 a73e 5b6d d1bf 3f99 ab3e c291 58bf
00000370: ab3a 883e b5d8 9abf 82c4 04bf 8e4f 5ebf
00000380: e0ef 43bd 00a6 d1bd 35c4 713d 7adf 0b3d
00000390: 2e35 3a3f f4a6 633e 0b68 b8bf f8b0 61be
000003a0: ce42 11bf 015d a03f 54c3 06c0 65fd 82bf
000003b0: 6f65 88be 05e3 a93e b942 a9be d64d 3e3e
000003c0: cef5 0d3f d06e abbf 3eb6 81bf 659c 1e3e
000003d0: e8f3 413f b96a 8fbf f5a7 203e 8c4f 95bf
000003e0: c29b 92be bfd9 0bbf 131a b7be ae4c 41bf
000003f0: 487c e7bf 1b60 fbbf e35e 80bf a91e 8a3f
-1.4949684 -1.1844194 -0.18808286 0.46623272 -0.32233346 -0.39195463 -0.4715692 -0.47324523
0.8938726 -2.3909683 -0.44319734 0.4707081 -1.8215184 -0.83881086 1.399733 -2.0196095
0.0646748 -1.8160105 -1.1298348 -1.8458391 -0.36260927 0.46032566 -1.1984115 -1.9294618
-0.19826111 0.7740269 -0.5228382 -0.2753617 -0.9992364 -0.32781687 -2.4219654 0.17997819
-0.3667815 -2.4639564 1.629453 -1.6050407 -1.0311221 -1.5735823 0.29884854 -1.6496545
-0.048738282 1.0814973 -0.30597138 -1.36263 -0.8960025 0.24722855 -1.6167752 -0.7776082
-0.22413833 -0.69590575 -0.47363392 0.080344185 -1.5511222 -1.018047 -1.6508347 0.5749767
-0.47830325 -0.35361186 -1.5791514 -0.502249 0.39816397 -0.9808181 -0.9369128 -0.68710285
-0.7597894 0.18326941 1.1640571 -1.0866677 -0.443199 1.0890752 1.3603126 -0.28788564
-1.7333071 -0.3777494 0.074171074 -2.0861166 -1.1321695 -0.64816266 0.2842722 -1.4821368
-1.6700617 -1.249895 0.85498786 0.061560072 0.3865898 -0.023318738 -0.89800674 -0.43306896
-3.490352 0.4040641 -1.1359763 1.3897233 0.113410756 -2.0380242 1.1512522 0.37805954
-0.88225585 -0.8766712 -1.0619977 -1.5486499 0.41484153 -0.021210253 -1.1119412 -2.8157818
-4.4257865 -1.7111418 -2.209498 0.19681023 0.70609504 -0.46731827 -2.7744348 -0.7806817
-2.1806731 -0.6918385 0.62595576 -0.6133183 -0.3075718 0.3005992 -0.29366723 0.31281263
-1.1657492 0.47512144 -1.2101978 0.6434137 -2.2217138 0.8982418 -2.5264666 1.9189737
-5.3436604 -0.5192326 -1.5492376 1.6889217 -0.5345836 -0.06639053 -0.005721233 -0.57453465
-1.0554689 0.98591983 -0.98355556 -2.3493693 0.08957192 -0.3702963 -0.695776 -0.11884146
-0.24130094 -1.8142416 0.43390805 -0.8403383 0.28349847 0.8954967 -1.126882 -0.06977607
-1.5944487 -1.233566 -0.73942137 -1.7788968 0.551011 -1.203537 -2.2950587 2.780216
-0.39625525 -0.06520931 -0.6565724 -0.28176025 0.4640377 -1.086997 -1.7408442 -0.867698
-0.7385052 -1.1601707 0.9397154 -0.35004213 -1.6487597 0.2349789 -0.6126921 0.20894241
-1.6600765 -0.765274 -1.7580037 -1.0481834 -2.2670755 -2.6738474 1.0151249 1.1226997
0.90076625 1.0490786 0.23069167 -4.400326 -0.81420386 -1.500908 1.3062377 -2.1794157
-0.2941553 -0.109633274 1.6460205 -0.859191 -0.5581986 -1.6235747 0.6678036 -1.8829205
0.075995125 -1.5456377 -3.240114 0.8276909 1.646962 -2.8408716 -0.15521464 -0.7424738
-0.0064664274 0.20667048 -0.6376968 0.15635614 0.751074 -3.5439868 -1.1876123 0.10125766
0.32770652 -1.6361498 0.33515355 -0.8459741 0.2660726 -1.2097384 -0.5186235 -0.8684014
-0.047836185 -0.1023674 0.05902501 0.03414867 0.72737396 0.22231656 -1.4406751 -0.22040164
-0.5674256 1.2528383 -2.105672 -1.023358 -0.26639888 0.33181015 -0.33058718 0.1858438
0.55453193 -1.3393192 -1.0133741 0.15489347 0.75762796 -1.1204444 0.1568907 -1.1664901
-0.2863446 -0.5462913 -0.3576208 -0.7550763 -1.8084803 -1.9638704 -1.0028957 1.0790607

self_loop_weight f4 [8, 32]
00000000: e76f a53e 3964 e7be e63f 67be 2f29 cc3e
00000010: afe8 243f 3738 753f 08b3 08c0 d8d8 0a33
00000020: 4f0d ccbc b892 f8be 10db cd3e f3fd 843f
00000030: 1422 eabd 806a 58be 2375 c8be 57d3 8cbf
00000040: 945f e2be 2917 b63f a1a0 493f 4f82 403f
00000050: 4ae9 263e 2f23 a83d c936 66be aeef acbf
00000060: 2ff1 80be cde7 90a4 b60e e73d dd9c a83f
00000070: 6f62 873e 13c4 2b3e 6198 cbbe 4ccb fc3d
00000080: bd81 08bd 1f08 a3bf 1132 abbe 547f 32bd
00000090: ff2e 6dbf 7a1d 41bf fdd4 3e3f a69a 82bf
000000a0: 6346 74be c35c 6e3c 6927 39c0 e58a c7bf
000000b0: be99 37bf fac4 85bf d5f7 a2bf a106 c7bf
000000c0: c726 43be c330 1cc0 31d9 f23e 778c 0ac0
000000d0: 74f1 d2bf 9371 71bf fccb a1be 5ddb b83e
000000e0: 95e7 b5be 4898 c7bd a1b2 5bbf 12e6 b7bf
000000f0: b657 debf 573e 96bf ca13 b5bf 2254 103f
00000100: fed4 0bbf abd4 263e 3a1c 1dbf 00e7 c73d
00000110: 5fa6 0ac0 1d91 a4bf 6fcb 4ec0 cac9 973f
00000120: d744 01be 040b 6fbf a141 0dc0 3daa f3bc
00000130: 653d c4bf 2338 6cbf e682 19bf 83c8 e43e
00000140: 10d9 943f 57c8 48bf b400 26bf c658 33bf
00000150: 1065 edbf 8720 d5bd fe49 8dbe eb66 94bf
00000160: d07d f1bd 6a96 953f b682 e5bf abd7 403f
00000170: 83eb b5bd 985f 13bf db02 bc3c f231 13be
00000180: 2508 b2bf 6e4b 28c0 af01 e63e 4b8a 48bf
00000190: 9092 733f 527e 803b a675 8ebf 31b5 9abf
000001a0: 68f7 dcbd 162c f1bf c213 eb3e 0f47 02c0
000001b0: bc79 24be 3cfc e4be 358e 33bf 9631 aebf
000001c0: ad84 2dc0 c5c4 bebe 37e4 b5bd d677 ebbe
000001d0: ce29 3e3f 1406 e7be 2859 c3bd 0293 edbf
000001e0: 3b80 3cbf 2a4b e4ba 1ba4 d33e 36c9 9b3f
000001f0: b3bb 703f 03b8 b6bf 0a65 88bf 92b7 3e3f
00000200: 5cfa 583e bec2 2cc0 53b6 5d3f 2ae8 c83f
00000210: aa33 d23f 30a1 b03f 3b1b 8b3e a1c2 da3e
00000220: a0e7 24be 04dc 9f3e 624b a8b3 ceaf 8dbf
00000230: 95b7 75be 4824 833e b5cf 943e 87ea 033f
00000240: 6fa9 68bf ef29 d93d b11a 4940 9cae f7bd
00000250: 4663 ef2b c0d6 c0bd b43e 58be 7111 903d
00000260: af69 173f 8881 0840 dded 013f bb89 423f
00000270: ab35 b5be ebab 2f3e 3aa4 99be 29a4 2540
00000280: 788e 04bf b411 f73d 2f61 29bf fd21 99bf
00000290: 5b8c ecbe f939 4abf 6e4d d43e dcf6 1bc0
000002a0: 8288 03bf 2ab4 cdbf 6257 0ebf 4c9a f1bd
000002b0: ba67 14bf 5493 bfbf 7dfe b0bf 438e 68bf
000002c0: ada0 e7be d1e7 543e 34d2 aebf 2ce3 96be
000002d0: 3e2c 81bf fc58 8dbf d151 fabe 5cb9 b9be
000002e0: 648c 78bf d089 1bc0 655e 6abf a996 01c0
000002f0: fde0 b6bf 5f41 763d 3313 54bf e18f 0fc0
00000300: 6372 0fbe 48ff e2be 05ac 23bf 073f 98bf
00000310: 614b b8bf 1b8f 83bf 51d3 86bf d485 49bd
00000320: ff8b ffbe 5cd9 263f 0c45 d0be 1b05 88bf
00000330: 7e6b 863d 1fe0 03bf 28fc 37bf fc35 87be
00000340: 4ec1 503f 2e80 35bf 06bb efbf 4039 86bf
00000350: ea2d 2cbf 24e1 2ebf 5d25 bbbe 0028 ebbe
00000360: 600c e0be cf62 5abd 91a7 96bf d78f 16c0
00000370: 0abf 5a3f b5d5 b9be c54b 0cbf 8fd4 78bf
00000380: 54a2 98bf 4703 26c0 5fbc 10bf 000d 18bf
00000390: 978b 163f f6a1 0abf a58b afbf 543b 76be
000003a0: ebfe 95bd 80b4 e5bf 3c80 ca3e 5653 5fbf
000003b0: c248 4bbf 7284 8bbd f6e5 1a3f 5398 82bf
000003c0: ef5b 11c0 6e38 c53d 5a6d cbbf 4ff2 4ebe
000003d0: f5ba 0ebc eb33 c9be 1b22 18be b5fd c1be
000003e0: bc4f 36bf e139 abbf f002 0bbf 3d54 ed3e
000003f0: 445d b1be efc9 a8bf bb0c 34bf 8ab4 a0bf
0.32311937 -0.4519365 -0.22582969 0.3987517 0.64417547 0.957889 -2.1359272 3.2327847e-08
-0.02490869 -0.48549438 0.40206194 1.0389999 -0.11432281 -0.21134377 -0.39151868 -1.1001996
-0.44213545 1.4225818 0.78760725 0.75198835 0.1629993 0.08209836 -0.22481836 -1.3510644
-0.25184008 -6.284273e-17 0.11282103 1.3172871 0.26442286 0.16774015 -0.39764693 0.12343463
-0.033326853 -1.2736853 -0.33436635 -0.04357846 -0.92649835 -0.754356 0.74543744 -1.0203445
-0.23854975 0.014548483 -2.8930304 -1.5589262 -0.71718967 -1.0450737 -1.2731882 -1.5548898
-0.19057761 -2.4404762 0.4743133 -2.1648233 -1.6479936 -0.94313926 -0.3160094 0.3610486
-0.35528246 -0.09745842 -0.8581944 -1.4367087 -1.7370517 -1.1737775 -1.4146664 0.56378376
-0.54621875 0.16292064 -0.61371195 0.09760857 -2.1664045 -1.2856785 -3.2311666 1.1858456
-0.12623917 -0.93376184 -2.2071307 -0.029744262 -1.5331236 -0.9227316 -0.5996536 0.44684228
1.1628742 -0.78430694 -0.6484482 -0.7005733 -1.8546467 -0.10406595 -0.27595514 -1.1593908
-0.11791575 1.1686528 -1.7930515 0.75329083 -0.08882811 -0.5756774 0.02295058 -0.14374521
-1.3908736 -2.6296039 0.4492316 -0.7833602 0.9514551 0.0039213086 -1.1129653 -1.2086545
-0.107893765 -1.8841579 0.45913512 -2.035587 -0.16062063 -0.4472369 -0.70138866 -1.3608882
-2.711223 -0.37259498 -0.08881419 -0.45989865 0.7428254 -0.45121825 -0.095384896 -1.8560488
-0.73633164 -0.001741742 0.4133614 1.217078 0.94036406 -1.4274906 -1.0655835 0.74498856
0.21189255 -2.6993861 0.8660633 1.5695851 1.6422017 1.379919 0.27169213 0.42726615
-0.16103983 0.31222546 -7.836822e-08 -1.1069276 -0.23995812 0.25613618 0.29064718 0.51529735
-0.90883535 0.10603701 3.142254 -0.12093851 1.7009525e-12 -0.0941596 -0.2111767 0.07034577
0.59145635 2.132906 0.50753576 0.7599141 -0.35392508 0.17155425 -0.30008107 2.5881445
-0.5177989 0.120639235 -0.66163915 -1.1963497 -0.46200833 -0.7899471 0.41465324 -2.436942
-0.5138017 -1.6070607 -0.55602086 -0.11797008 -0.57970774 -1.4966836 -1.3827664 -0.90842074
-0.45239773 0.20791556 -1.3657899 -0.29470193 -1.0091627 -1.1042781 -0.48890546 -0.3627423
-0.9708922 -2.4302864 -0.91550285 -2.0248206 -1.4287411 0.060120936 -0.82841796 -2.2431567
-0.14008479 -0.4433539 -0.63934356 -1.1894234 -1.4398004 -1.0278047 -1.0533239 -0.049199894
-0.49911496 0.65175414 -0.4067768 -1.0626558 0.06563471 -0.51513857 -0.71869135 -0.26408374
0.8154496 -0.7089871 -1.872895 -1.0486221 -0.6725756 -0.6831229 -0.36551943 -0.45928955
-0.4375944 -0.053316887 -1.1769887 -2.3525293 0.8544775 -0.36295858 -0.54803115 -0.9719934
-1.1924539 -2.59395 -0.5653743 -0.59394836 0.5880675 -0.5415338 -1.3714491 -0.2404607
-0.07324012 -1.7945709 0.3955096 -0.87236536 -0.79407895 -0.06812371 0.6050714 -1.0202736
-2.2712362 0.09629904 -1.5892746 -0.20209621 -0.008711566 -0.39297423 -0.1485676 -0.37888876
-0.71215415 -1.3377038 -0.5430136 0.4635333 -0.3464147 -1.3186625 -0.70331925 -1.2555096

weight f4 [8, 80]
00000000: 7b92 1abe b2a9 72bf b197 6abe 9490 55bd
00000010: 2bc3 b0be 2cf4 e7be 5e9e 98bd 5a87 5abe
00000020: bc27 8bbe 9d31 82bf 608f 81be da27 fe39
00000030: b78e 17bf f9c8 28bf 963a 1ebe 5a4e 363b
00000040: 4596 42be 6907 023e c7e8 bbbe 25ca 29be
00000050: 018f c33e b87b 35bd de91 0abf 8f51 c53e
00000060: 69c4 143e e9e1 b7bc cf31 883e 0814 3cbe
00000070: 7b1b bdbd 2fc9 333e 57e0 d13d df71 0b3e
00000080: 5c2a 07bd a17b 26be 95bb 3e3e 6045 eabe
00000090: 4939 81be 63ea 0cbe 4e3f 933d cd7e 7abe
000000a0: f6aa 47be 7537 6f3e 25c6 783a 1d9e 81bd
000000b0: a3c2 91bd aefc 98be 34af 1fbe 6527 c6bd
000000c0: e8af b03d 613d 3b3d 31ee 9cbe d4bd 3dbd
000000d0: 26c8 263e 42f4 8c3d 84aa aabe ed41 963e
000000e0: c43c cabc e7f4 c1bd fa3b 3e3e ca9e 263e
000000f0: 903e 5ebe b3e9 193e c3d7 3c3e ff38 a4bb
00000100: 0052 d6bd d1f0 b13d 48cd 213e 381a 043e
00000110: c6da 87be 4c04 dfbd 8195 8e3e 279f 34be
00000120: 6beb 8dbe c9c0 81be 5fae 09bd 38ff 78be
00000130: e5fa 4c3d 1ad1 d43d ce9b b8be 4908 833e
00000140: 6c90 bebe b736 d5bf 45b5 1ac0 08be 8cbf
00000150: cd64 60bf 3109 4fc0 88ee 84be dcd5 a23e
00000160: ef49 adc0 759c 58bf 881c f33f 68a9 febf
00000170: d383 abbf 94ad 66c0 92ac 06be 8717 a03e
00000180: 7d2c 7e3f a514 1f40 f5ca 933e 46c5 7e3e
00000190: 96fd 9cbf c2a5 efbf 29c9 493f 836f 793f
000001a0: 492f 54be 4223 4cbf dc4f 21bf cf38 ffbe
000001b0: 4b44 34bf 3081 1ec0 f58d b6bf 20ea bdbe
000001c0: ae1e dd3e 2d89 9fbf f4c6 4fbe 09e1 013e
000001d0: d185 1240 e47a b6bf 226b 32bf 675d d33d
000001e0: 992d 18bf b1a6 2cc0 618f 283f 5eae 61bf
000001f0: 698b c7be d8db 0140 cc36 453e a8ca bbbf
00000200: 8673 7ebf 7639 dabf 9583 703f 2a47 45bf
00000210: 2718 e83f 7cc3 d73f 3882 db3d c4e9 ea3e
00000220: acc0 0e3e 720b 283f bab0 833f e844 d93f
00000230: e0f0 c3be 28ee 0f3f 3d54 64bf 5dfa 5dbf
00000240: 2379 aabe 811f 533f 38dd 873e 4173 43bf
00000250: 4377 35bf de59 4e3f 43d4 113f 3b99 4dbf
00000260: ff1c d33e 053b b83f aeef 1ec0 7d47 573f
00000270: 1ea2 d73e a2fb ecbe 4df9 64bf b889 e73f
00000280: d4fb dbbf e619 fbbf a7fe 0fc0 5daa 49be
00000290: b55c c3bf d42e 8cbf 8bac 30c0 fc8b f5be
000002a0: 6cb4 a7bf 7128 03c0 2129 6ebf 3edd e5bf
000002b0: 614a 05c0 73b6 b8bf 367c 45c0 0405 833e
000002c0: de5d ddbd 51a6 0d3f e139 41be 67d8 4e3e
000002d0: bf7c 5e3f fe6d e13e d1d9 0bc0 c1b1 bcbe
000002e0: 4074 733f 9fab f03e 9ac3 cebd 0ab4 c1bf
000002f0: b5d5 7f3f ae6e 493f 0301 1ebf 5548 5dbe
00000300: d114 0f3f a48a 35bf 270a fbbc 46d3 013b
00000310: d4a7 a53f b4e4 b4bf f53c 83bb 487e 23bf
00000320: fc6b 813f 495f c9be c301 b43e 86db 553f
00000330: 80d9 a2be 98d6 6d3e f878 f0bd e216 84bf
00000340: 49e4 ba3f 311d 39bf c4c3 853e 46cd 25be
00000350: 9412 e03e f9da 49bf a035 95bf 18ea e83f
00000360: e869 763d c661 c23d f64e 8c3e 07f5 fc3f
00000370: 8af9 f5be 9aff 88bd a007 79be 936e f43f
00000380: 2fd3 92be 7205 833f c4af 30bf a81d 99bd
00000390: 5f8f fabf 242b 63be 848f 02be 0c81 32bd
000003a0: 523b 8b3e 40b9 363f 6c86 f63f adbc 9dbf
000003b0: e177 cabf cd38 af3e 61b9 18bf 72fd 953e
000003c0: c1dd a1c0 6833 07bf b6b9 b4bf 5486 9d3f
000003d0: 1101 9cc0 0930 afbf 886a 92bf 389a b53f
000003e0: a16e 20c0 51fe c03e 25c1 03c0 30f5 14c0
000003f0: 3c0e 0cbf 76ad 64c0 e512 4dbf c1aa f03f
-0.1509494 -0.94790184 -0.22909428 -0.052139834 -0.345239 -0.45303476 -0.07452081 -0.21340695
-0.27178752 -1.0171391 -0.253047 0.00048476347 -0.5920214 -0.6593166 -0.15452036 0.0027817697
-0.19002636 0.12698139 -0.36701033 -0.16581018 0.3819504 -0.04430744 -0.54128826 0.38538787
0.1452805 -0.02244659 0.266005 -0.18367016 -0.09233757 0.17557214 0.102478676 0.13617657
-0.03299938 -0.16258098 0.18626244 -0.45756054 -0.25239018 -0.13761286 0.07189809 -0.24462433
-0.1949881 0.23360999 0.0009489975 -0.06328986 -0.07117202 -0.2988028 -0.15594178 -0.09675483
0.086273015 0.045712832 -0.30650476 -0.046323612 0.16287288 0.06882526 -0.33333218 0.29347172
-0.024687178 -0.094705395 0.18577567 0.1627151 -0.21703553 0.15030555 0.18441682 -0.0050116773
-0.10464859 0.0868851 0.15800965 0.12900627 -0.26534098 -0.108894914 0.27848437 -0.17638837
-0.27718672 -0.25342396 -0.03361356 -0.24316108 0.05004396 0.103914455 -0.3605637 0.2559226
-0.3721956 -1.6657323 -2.4173138 -1.0995493 -0.8765381 -3.234936 -0.25963235 0.31803787
-5.415275 -0.84613734 1.8993082 -1.9895449 -1.3399605 -3.6043444 -0.13151768 0.3126795
0.99286634 2.485635 0.2886578 0.24879941 -1.2264888 -1.872246 0.7882257 0.9743578
-0.20721163 -0.797413 -0.6301248 -0.4984803 -0.70416707 -2.476635 -1.4262072 -0.37092686
0.4318747 -1.2463738 -0.20290738 0.126835 2.2894175 -1.4256253 -0.6969472 0.103205495
-0.59444577 -2.697674 0.6584378 -0.8815669 -0.3897355 2.0290432 0.19259185 -1.4671221
-0.99395025 -1.7048786 0.9395078 -0.7706171 1.8132371 1.6856532 0.10718197 0.45881474
0.13940686 0.65642464 1.0288308 1.6974154 -0.3826971 0.5622277 -0.8919104 -0.8671015
-0.33295545 0.82469946 0.26535964 -0.7634774 -0.70885104 0.80605876 0.5696451 -0.80311936
0.4123306 1.4393011 -2.483379 0.8409346 0.42115873 -0.4628573 -0.894429 1.8088903
-1.7186227 -1.9617279 -2.2499177 -0.19693895 -1.5262667 -1.0951791 -2.7605312 -0.47958362
-1.3101935 -2.0493433 -0.9303151 -1.7958143 -2.0826647 -1.4430679 -3.0857062 0.25589764
-0.10808919 0.55331904 -0.18869735 0.20199738 0.869091 0.4402923 -2.1851695 -0.36854365
0.9509926 0.47005937 -0.10095902 -1.5133069 0.99935466 0.7868451 -0.61720294 -0.21609624
0.5589114 -0.70914674 -0.03064449 0.0019809767 1.2941842 -1.4132295 -0.0040050694 -0.63864565
1.0111079 -0.3933051 0.35157594 0.8353809 -0.31806564 0.23226392 -0.11741823 -1.0319483
1.4600917 -0.7231017 0.2612592 -0.16191587 0.43764174 -0.7884975 -1.165699 1.819644
0.060159594 0.09491305 0.27403992 1.9762276 -0.48041946 -0.06689377 -0.24319315 1.9096245
-0.28676745 1.0236037 -0.690182 -0.074763596 -1.9575003 -0.22184426 -0.1275006 -0.0435801
0.27193695 0.7137642 1.9259772 -1.2323204 -1.5817834 0.34223023 -0.59657866 0.29294926
-5.0583196 -0.52812815 -1.4119174 1.2306619 -4.87513 -1.3686534 -1.1438761 1.4187689
-2.5067523 0.37694028 -2.0586636 -2.327465 -0.5470922 -3.5730872 -0.80106956 1.880211

bias f4 [8]
00000000: 261d f5bf 610e 15c0 1c49 41c0 9329 c7bf
00000010: 2fdc 63c0 eef1 d1bf 10e5 1ac0 a97d cdbf
-1.914952 -2.3290026 -3.0200872 -1.5559562 -3.560314 -1.6401956 -2.4202309 -1.6053973

weight f4 [1, 8]
00000000: f16b 973d 3a78 52be 2674 97be 678c 66be
00000010: 692d 773e 5905 25bd 2d22 14bd 0447 a3be
0.07393635 -0.20553675 -0.29580802 -0.22514497 0.24138416 -0.040288303 -0.036165405 -0.31890118

weight f4 [4, 32, 32]
00000000: d651 02bf 675e 803f 6962 813e e4da 98be
00000010: d971 61be ba7c 6f3e 96eb a23e 7e06 123d
00000020: 587a 823e 4fe8 b13e 4b81 00bf 1b0c 84be
00000030: 2181 1e3e 8e50 03bf 6c8c a8bf 0299 843f
00000040: d543 06be 7699 683e 9451 b5bf 6676 c53e
00000050: af4e b2bf 715e 513f ab81 bfbf ada3 ec3f
00000060: c52c eebe 16dd c1be 508e 253d 86a5 0f3e
00000070: f0e7 853e d199 0640 0e18 62bf 763d 0b3f
00000080: b2ec 9d3f da9e fb3f d57a b43d f85b 4a3f
00000090: c631 ecbd 3285 993e ab5f 82bd 3ecb 0f3f
000000a0: 11d8 94bf 8d04 b2bd a263 93be cd76 a5be
000000b0: 7a6a e23e 14ca 343f 460e fa3f 082c 513f
000000c0: 9c29 103f a80d 163d 7896 95bf ec4b e2be
000000d0: 5606 173f ba88 a63d 8a21 7a3f 1e25 29bf
000000e0: b1bf 8c3e aeb1 933f ccb2 b53d 46a8 b43f
000000f0: 800e 053d f7e2 563f 0d4a 303f 8951 4e3f
00000100: 7297 b33c 5ed6 6ebc 227c 45be 341b d6be
00000110: 802a 43bf 9738 24bf dc49 bebd 4506 64bf
00000120: ef44 02be 5c7c 98be 8e0d 8fbe 91f1 293e
00000130: c878 90be 56e9 e93b 99bc da3e e0ae 13bc
00000140: c935 e9be 3e19 24bd 1f63 8cbd 08d6 983d
00000150: 4504 29bf 6cc0 e0be a364 9abe 022a 0ebf
00000160: 30dd 91bd 3cd0 2b3e 31fe 203e 9915 efbd
00000170: 7801 0dbf 41e4 f5be 1289 973d a0e1 163f
00000180: c7e1 e9be 74f0 3bbf 6c71 8a3a 1bf1 c8bd
00000190: ba43 a0be 2c0d 913e 1c77 f8be 101a 163e
000001a0: e294 58bf 5f20 bf3e 06c1 4ebe b77c 943b
000001b0: 8c98 75be 812f a43e 1ebf 31bf 2111 fb3e
000001c0: e997 93be c6eb b13c 968d 00bf 0827 11be
000001d0: c315 3bbe 7546 463e 1123 5cbf d422 1a3e
000001e0: 4112 30be 016b 0b3f ecc4 153f fe05 003f
000001f0: b8b3 c4be f836 373e 5662 48bf 7a26 9c3e
00000200: 3f35 26bf 2cc5 cbbe 9f30 e63e 83c9 86be
00000210: b916 973e bc1f b33f 621e 913e a105 3b3d
00000220: 0081 903e 6f8d 183c 50b5 0bbd c8df 36bd
00000230: 7a5d dfbe 3585 233d 7a78 4d3d 0696 0ebf
00000240: a44d ad3e 01d5 033e 74f7 0d3d 7d0d 233f
00000250: 0d62 af3d b1d0 723e d75d 383f 6808 e1bd
00000260: 8b39 96be d558 5b3f d33e 103f 6fd2 d03d
00000270: 157e 8a3e c28e d7bd 351b d1be ee8a 2d3f
00000280: e54c 02bf 2f91 f1be fa30 363e 273a f4be
00000290: f3cf c1be d5e7 a93f c426 32bf 62a9 74be
000002a0: c153 92be 3d89 e43d d2a9 02bf 94a7 01bf
000002b0: 130d 2fbf 42f8 543e f150 90be f718 f33e
000002c0: 21fb 383e 8d22 853e f649 213e a75c 633d
000002d0: e81d cd3e b8b5 c13d 82fb 4ebf 0d7b 2c3f
000002e0: 4561 82be e139 5bbf 63d4 423e 41b2 89be
000002f0: c0de cfbd e4cf 53be 8b25 7a3d 6503 363e
00000300: 4cb0 d93f 0893 1d3f 8afe 0cbf 8cfb e9be
00000310: 86e5 fd3d 406f 6c3f cc8f d9be bf50 b53e
00000320: c8f2 163f ee3f 603e ffe4 f9be dad5 d23e
00000330: a643 c33e e5e1 003f 5b0a 653f f6e3 0a3f
00000340: 09f1 263f 18e3 ba3e 1132 103f 7a2e 823f
00000350: c171 8dbf ad52 473e 17ea 9b3f 33bc 903f
00000360: f819 6f3f 651e 0a3f a2ae 263f 9ee5 113f
00000370: 1948 a23f a110 a43f fb14 993e 21e4 14bf
00000380: 19b1 b6be 0cfd c8bf f1da e2bc b132 50bd
00000390: ac5a 1d3f b98e 853d 5735 2dbf 7d0d 193d
000003a0: 9cfe c8bf 4110 52be 1382 943e de27 4a3e
000003b0: 5eb5 b23b a3e3 7e3e 5945 3f3f ef00 dfbe
000003c0: 7f11 93be f17d 2ebd 4193 0a3e 6bf8 39be
000003d0: daea 313f d056 673e 77e8 70bf b56c 49bf
000003e0: 4266 58be a55d fc3d 5fa8 3a3e 0439 d83e
000003f0: a773 373d 3a3f bebe cea4 153e bab1 27be
-0.5090612 1.0028809 0.25270393 -0.298545 -0.22016086 0.23387423 0.31820363 0.035650723
0.25483966 0.3474755 -0.50197285 -0.25790486 0.15478946 -0.5129479 -1.3167853 1.0359194
-0.13111813 0.2271479 -1.4165521 0.38566893 -1.3930262 0.8178473 -1.4961447 1.848745
-0.4651853 -0.37863988 0.040418923 0.14027986 0.26153517 2.1031382 -0.88317955 0.54390657
1.2337859 1.9657853 0.08812491 0.79046583 -0.11532931 0.29984432 -0.063659035 0.561695
-1.1628438 -0.08692274 -0.2878695 -0.323172 0.4422186 0.70620847 1.9535606 0.8170781
0.5631349 0.036634117 -1.1686544 -0.4419855 0.5899404 0.08131547 0.97707427 -0.6607226
0.2749 1.1538599 0.088719934 1.4113853 0.03248453 0.8394007 0.6886299 0.8059316
0.0219228 -0.014577476 -0.19285634 -0.4181763 -0.76236725 -0.6414885 -0.09291431 -0.89072067
-0.12721609 -0.2978238 -0.2794003 0.16596057 -0.2821715 0.0071384115 0.42722014 -0.009013861
-0.45548847 -0.040063135 -0.06854843 0.07462698 -0.6602214 -0.43896806 -0.30154905 -0.5553285
-0.07122266 0.16778654 0.15721966 -0.11674041 -0.55080366 -0.48025706 0.07399191 0.58938026
-0.45680067 -0.7341378 0.0010562367 -0.09811612 -0.3130167 0.28330362 -0.48528373 0.1465838
-0.8460218 0.37329385 -0.2019082 0.0045314687 -0.23983973 0.32067493 -0.69432247 0.49036506
-0.28826836 0.02171887 -0.50216043 -0.14175045 -0.1827002 0.19362815 -0.8599101 0.15052348
-0.17194463 0.5446015 0.58503604 0.50009143 -0.38418365 0.17892063 -0.7827505 0.30498105
-0.64925 -0.39798868 0.4495897 -0.26325616 0.29509524 1.399406 0.28343493 0.045659665
0.2822342 0.009311064 -0.03410846 -0.04464701 -0.43626004 0.039921958 0.050163724 -0.5569767
0.33848298 0.12874223 0.034659818 0.63692456 0.085636236 0.23712422 0.7201819 -0.109879315
-0.29340777 0.8568242 0.5634586 0.10196387 0.27049318 -0.10525276 -0.4084107 0.67790115
-0.5089858 -0.4718108 0.1779212 -0.47700617 -0.37853965 1.3273875 -0.695904 -0.2389274
-0.28579524 0.111589886 -0.51040375 -0.5064633 -0.68379325 0.20797828 -0.28186753 0.47479984
0.18064548 0.26002923 0.1575087 0.055508282 0.4006188 0.09458488 -0.8085252 0.6737526
-0.25464836 -0.8563519 0.19026332 -0.2689381 -0.10149908 -0.20684773 0.06107096 0.17774732
1.7006927 0.61552477 -0.55075896 -0.45699728 0.12397294 0.92357254 -0.4249252 0.35413167
0.58964205 0.21899387 -0.48807523 0.4117878 0.3813755 0.5034469 0.89468926 0.5425409
0.6521154 0.36501384 0.56326395 1.0170434 -1.105034 0.19465132 1.2180814 1.1307434
0.93399 0.5395263 0.6511022 0.56990993 1.2678252 1.2817575 0.2989882 -0.581606
-0.3568199 -1.5702224 -0.02769229 -0.050829593 0.6146648 0.06521363 -0.67659515 0.03736638
-1.5702701 -0.20514013 0.2900549 0.1974177 0.0054537496 0.24891524 0.7471519 -0.435554
-0.28724286 -0.042600576 0.13532735 -0.1816117 0.6949898 0.2259171 -0.94104713 -0.786815
-0.21132758 0.12322549 0.18228291 0.42231 0.04478803 -0.37157613 0.14613649 -0.16376391

w_comp f4 [200, 4]
00000000: 3b50 62c0 0d9c 46bf 1643 81bf 1be6 f0bf
00000010: 6b1e 0bbf d03b 6b3e 76ae 1fbc 6c5c 9dbe
00000020: cc6b 1dbe 95a7 593e 27d1 1d3f 4c00 28bc
00000030: e45b ef3e 2aa8 1b3f f6e9 17bf c011 4ebe
00000040: 5e31 853e dc8d ac3e d7b5 fe3f 2699 b03f
00000050: 057f da3f b3fc b33f 4828 133f 49f9 793f
00000060: b7e3 0080 6a12 23b3 dfda 2f2c 6673 0731
00000070: c219 28bf e145 79bf 904c 12bf c55a 7fbf
00000080: 6008 edbc fab5 ef3e a1c2 443f 12d7 9bbf
00000090: 9e96 643f 34da a23e ec00 83be 14e5 dabf
000000a0: 486a c63d d26a d63e 175e 7abf a4eb edbe
000000b0: 9034 b6bb 5572 213f 3eed e7be 2a6f 59bf
000000c0: 58f2 9bbf d9ea a83f 87b9 613e 4b06 c6be
000000d0: 02c7 b1be 9bc0 18be 1021 bd3e b03a 36be
000000e0: 3f61 a8be 4325 1cbd a99f b23d c7bd 82be
000000f0: de49 3ebf e113 f03e 7919 403f 83d2 d8bd
00000100: c5fa 8c3e 8d72 783f 63fa f13f 0445 36bf
00000110: 677b 70bf 81a2 c4be 8f16 bebe bc84 a3be
00000120: d78f 803e 4adf b03e 5394 05bf 22bc cfbc
00000130: 6ecd 3ac0 4c58 0dc0 3f21 0abf 44bd 0fbe
00000140: 082b b33e 3c69 4b3f 3708 82be ee25 bb3c
00000150: 1e47 033f ba8e 143e 0f24 c5bf c088 a93e
00000160: 950c ecbd 4419 c13e bba4 553f 2c03 0c3e
00000170: 06cc f0bf 14ca 4ebf b100 27bf 9a17 2ebf
00000180: a480 1a3c 6eb2 5f3e 9866 5bbf ecd1 0bbf
00000190: 7a06 33bf 2530 1640 929f 08be c8f2 d43f
000001a0: e138 fdbe 2505 d03d 470a 943f 7935 27bf
000001b0: 5aa3 933d b9b0 2b3e ca4d 593e 6b8d abbf
000001c0: c8b2 12bf ee80 ef3f 8674 b1be 0b56 8bbf
000001d0: 55de 8736 8a80 f9b9 1c42 01b1 4d6c 6a3a
000001e0: 5b9d 883f 2a94 b3be 1da9 23bf f9f9 3cbd
000001f0: b89b 90bf 21c7 f83f 6c9c 9f3e c344 98bf
00000200: 9f65 6a3f 2c72 7e3e 0998 863f 86c0 fdbe
00000210: 5b83 a93e 560d aebe c607 80be a480 803e
00000220: aca8 2e3f 0cd6 2a3f 616f d2bb 9c80 3d3e
00000230: 3f6c 20bf e797 b9bc e16e 533e b7aa 72bf
00000240: 22b7 19be c70b f93f 0ff2 823f c48b 2dbf
00000250: bfa8 1dbe 5826 ab3e 13fa 2e3f e181 1e3f
00000260: d3f5 9d3d 4d5b 503f 2031 b53d 7900 d13e
00000270: d907 0bc0 e745 3bbe f72c 78bf 914f 50be
00000280: f04b ca3e c497 e43f c739 5fbf 1d35 6b3c
00000290: 4fc9 913f 7eeb f83e 136d b33d 0a38 cabe
000002a0: 044d 233f 6fb1 133f c802 e23e 172f 553f
000002b0: 3028 993d 33d4 e03e 664e 9dbd 659e 06bf
000002c0: 55b7 cc3e 97ae 0f3f 3439 f83f febc b7be
000002d0: 74cb 59b4 0c2f 0080 f550 0100 c3cd 55b5
000002e0: 4d52 aebe aeb7 38bf baa9 c3be b8b9 2fbe
000002f0: f8bf 403f 658f 82bf 386f 803f f5f2 753e
00000300: a6ae 823e 283a 693f 0e1c 023f 50ab d4bc
00000310: ee2a 0a3f 6685 073f 0e6c dc3d 14b9 a53d
00000320: 78a4 da3e 2923 4dbd 31e0 9c3e 9d93 04bf
00000330: ad8c 143f 4b55 613f 045b 163f 2a28 76be
00000340: db54 4a3e 925b a9be 07a8 babd 7ac4 b2be
00000350: 9703 8dbe 4f6c 763e e7f2 61be e608 8dbe
00000360: cd17 513f cf2b 703f 4c19 6d3f 95b9 803f
00000370: 1c40 143d 7e9d 37bf d77e 11be ca33 21bf
00000380: 5401 0ab5 f4d1 813c e98a 253d 0d53 25be
00000390: a129 d4bd 6538 2b3f f05a edbd afc1 93be
000003a0: 1234 873d decc e7bd ca5d 9dbf 1c4a a83e
000003b0: d8fd 8c3e 7213 6e3f 1ed1 2d3c b98b 693f
000003c0: 906a 1fbf e58e 9cbf e0f7 a93f a4eb e6be
000003d0: 4ab1 2d3f 0e9e fcbc 1cf2 f73e 1838 73bf
000003e0: 4590 633e 9001 0a3e 8e88 ef3d 3633 8caa
000003f0: 32a1 89be a420 ab3f dbf5 e53e 9b8e a63c
-3.5361469 -0.77581865 -1.0098598 -1.8820223 -0.5434329 0.22972035 -0.009746185 -0.30734575
-0.15373152 0.21255334 0.61647266 -0.010253977 0.46749794 0.60803473 -0.5934137 -0.20123959
0.26014227 0.3370198 1.9899243 1.3796737 1.7070013 1.4061493 0.5748334 0.97646004
-8.1689e-41 -3.7968142e-08 2.4990494e-12 1.9710682e-09 -0.65664303 -0.9737225 -0.57148075 -0.9974788
-0.028934658 0.46818525 0.7685948 -1.2175009 0.89292324 0.318071 -0.2558664 -1.7101159
0.0968824 0.41878372 -0.9779982 -0.46468842 -0.005560465 0.6306508 -0.4529819 -0.8493525
-1.2183332 1.319667 0.2204343 -0.38676676 -0.34722143 -0.14917223 0.36939287 -0.17795825
-0.32886693 -0.038121473 0.08721859 -0.25535414 -0.7433146 0.46890166 0.7503887 -0.10587027
0.27535072 0.9704979 1.8904537 -0.7119906 -0.939383 -0.3840523 -0.37126586 -0.31937206
0.2510974 0.34545356 -0.5217945 -0.025358263 -2.9187884 -2.2085142 -0.5395698 -0.14037043
0.34993768 0.7945745 -0.25396892 0.022845235 0.5128039 0.14507571 -1.5401629 0.33112144
-0.11525837 0.3771459 0.83454484 0.13673085 -1.8812263 -0.80777097 -0.6523543 -0.68004763
0.009430084 0.2184541 -0.8570342 -0.5461719 -0.6993176 2.3466885 -0.13342121 1.6636591
-0.49457458 0.10157231 1.1565636 -0.6531597 0.07208891 0.16766633 0.2122108 -1.3402532
-0.5730405 1.8711221 -0.34659213 -1.0885633 4.0491964e-06 -0.0004758875 -1.880955e-09 0.00089425297
1.0673021 -0.35073978 -0.6392992 -0.04613683 -1.1297522 1.9435769 0.31174028 -1.1895984
0.9156131 0.2484824 1.0515147 -0.49560946 0.3310803 -0.3399455 -0.2500593 0.25098145
0.6822612 0.6673286 -0.006421969 0.18506092 -0.6266517 -0.02265544 0.20647766 -0.9479174
-0.15011266 1.9456719 1.023012 -0.6779139 -0.15396403 0.3342769 0.6835033 0.6191693
0.07712903 0.81389314 0.088472605 0.40820673 -2.172354 -0.18288384 -0.9694361 -0.20342852
0.3951106 1.7858815 -0.87197536 0.014355925 1.138956 0.48617166 0.08761039 -0.3949588
0.6378939 0.5769262 0.44142747 0.8327498 0.07478368 0.43911895 -0.07680969 -0.5258544
0.3998362 0.5612578 1.9392457 -0.35886377 -2.0283716e-07 -1.6877e-41 1.20877e-40 -7.9648106e-07
-0.34047166 -0.7215527 -0.3821543 -0.1716069 0.7529292 -1.020001 1.0033941 0.24018462
0.2552387 0.91104364 0.5082406 -0.025960594 0.53971756 0.52937925 0.10762797 0.080919415
0.42703605 -0.05008236 0.30639794 -0.5178774 0.58027154 0.8802077 0.5873263 -0.24038759
0.19758932 -0.33077675 -0.0911408 -0.34915525 -0.275418 0.24064754 -0.22065316 -0.2754585
0.8167694 0.93816847 0.92616725 1.0056635 0.036193952 -0.7172469 -0.14208542 -0.6296965
-5.141094e-07 0.015847184 0.04041568 -0.16144963 -0.103595026 0.66882926 -0.115896106 -0.28858706
0.066017285 -0.11318372 -1.2294247 0.3286904 0.27537417 0.9299842 0.010608939 0.91228825
-0.62271976 -1.2231108 1.327877 -0.45101655 0.67848647 -0.030837085 0.48426902 -0.9500747
0.22223003 0.13477159 0.116959676 -2.490453e-13 -0.26880795 1.3369336 0.44914135 0.020331671

self_loop_weight f4 [32, 32]
00000000: d113 b7be 5be1 183f e171 8abf da99 8abf
00000010: a69c 03bf 27ca 063f 20d7 e93b 643a a6bf
00000020: 4c92 c3bf 14df 5abf 79c5 78bf ca12 2cbf
00000030: c404 a2bf a40e 1cbf 0041 02c0 91a9 89bf
00000040: 6a2e d5be ab03 38bd c199 8cbf c0e2 2abf
00000050: 445c e4bf 7c61 96be dbd2 90bf 2c1e cfbf
00000060: dfcf dcbe c422 c0bf c41a 07bf 4f65 c0bf
00000070: 1a0b 353f a70d 88bf 0737 5fbf 3638 59bf
00000080: 904b c03e 124f 2540 9530 29bf 3d12 19bf
00000090: 92f3 ccbe 2b88 5f3f e074 1340 3e8a 9c3d
000000a0: 263e f1bf 044d c9be 53ee 203d da2a 753f
000000b0: 9b31 6ebe 50ac 42be 922e 24c0 8d3e f13f
000000c0: 55df 42bd f942 f0bd 0354 3abf 55d1 e8be
000000d0: 4dd0 21bf 8819 23be 8f6e 81c0 15d0 4840
000000e0: 9fb3 013d 00b5 05c0 3c29 fdbe 3bd7 1e3f
000000f0: ffaf d0bc 84cf 823f ebaf 2abf 3db5 153e
00000100: 5883 c1be c8fc 1abe d720 e5bd 59e1 d0be
00000110: 1c36 41bc 548f ec3e 0bcf ebbe 5e49 bb3e
00000120: 813c aebc 89e1 22be 5fc6 29be 4028 6abb
00000130: abe7 70be f73e d7bd 6481 b1bf 4200 e4be
00000140: 6462 64be 2578 83be 4fc7 88bd 4dcc 07be
00000150: bf57 f7bf e881 1ebe d7e7 713f 87ff 6bbf
00000160: 8183 cabd b334 8b3e 901b f03d d381 12bd
00000170: 5620 513f 421e 923e 8c41 cfbe 05f3 73be
00000180: 7deb 04bf 08e4 a8bf 8058 c2be 0d3a 80bf
00000190: 85cf 9dbe e049 10be 3731 2fc0 9b4a 83bf
000001a0: dd04 edbd a8fe e1be 3774 d4be 3902 16bf
000001b0: 94ff 62bf e245 03bf bacf d83e 0f5d 8ebd
000001c0: 2cf5 acbe 4ed2 94be d69c a5be a518 a5be
000001d0: 1318 d13e 1eea 4fbf 6ba3 cfbf fd79 c8bf
000001e0: d154 96be 694a 05bf 8559 fabe e046 35bf
000001f0: f6c1 58be 76eb b0be 7fb7 d8bd 310e 8abe
00000200: 14fe 113f cb9c 05c0 2968 0ebf 119a acbd
00000210: 6613 09bf 2d02 bebd 70a9 a5bf 9065 66bf
00000220: f9fa babe c5df 55bf 16eb 3abf 1571 ae3e
00000230: ba42 4bbe 49d0 ecbe 4bd8 a4be 7321 ddbf
00000240: f323 0bbf a141 9bbe b2e9 3fbf a336 0ebf
00000250: f1af c6bf f7cf 55bf e877 2340 d32d 16c0
00000260: 9566 7bbe 1a1a a73e bd4f 913c 421b a93e
00000270: aa0d aabe 6338 6ebf df56 263e 3f14 1ebf
00000280: 77b0 cfbe a083 cdbf 03d1 10bf f728 42bf
00000290: 23c3 fcbe f375 663f e92e 7ebf 74d1 8cbf
000002a0: 6cae 0f3f f1e6 47bf aa3f 7bbe 72e9 543e
000002b0: ebdd 853d 1779 36bf 48cd 643f 74c5 89bf
000002c0: be2a f5be a39f 59be ec55 8ebf 1bf3 9cbe
000002d0: 5ec1 6d3e 1b56 34bf e350 89bf bd1b 40c0
000002e0: c852 43be 4d8c 05bf 8918 98be 80a8 84bf
000002f0: 6dcc 393f 9335 5ebf 9939 613e f5a1 fbbe
00000300: fa93 f4be 0553 b63e 2ae1 b2be dc90 823d
00000310: 2192 9abe 35e1 a63f 210f f7bf 95dc 66bf
00000320: 2c83 953f 9b06 3fbe e428 e8be d13a 69be
00000330: 94ee 22be e81e 6abf 3b0d af3e e44b 01c0
00000340: 89d9 8bbe 1b1d 9a3c 9d2f 5d3e 9609 bebe
00000350: 6377 47bf 4c26 9c3e b15f 3d40 6e0f 16c0
00000360: 8b8e a3be afcb 92bf 37e6 45bf a414 3cbf
00000370: 6108 633f da46 4bc0 21f0 38be 61eb 0abf
00000380: 0ccd a8bf 503e 1ec0 2a0f 17be 315a bcbd
00000390: 0d0d 3f3e 27f1 7cbf 3250 17c0 0fd0 e1be
000003a0: 73ad 623f 4c31 96be ded8 24bf 5781 f33e
000003b0: 0435 1dbf 2501 0c3e a0fb ed3f c29e 0ac0
000003c0: 5a47 b8be fe36 23bf 9dcc c6be fa20 10be
000003d0: 472e 64bf 33c9 f4bd f4ae 0e40 afb6 c9bf
000003e0: 4117 9cbe 7377 a83f 68e5 033d 7200 3dbf
000003f0: cb73 81bf 4414 1fc0 b8c0 72be 5a2e 8bbe
-0.35757306 0.59718865 -1.0816003 -1.0828202 -0.514109 0.5265221 0.0071362406 -1.298657
-1.5279021 -0.8549664 -0.9717632 -0.6721617 -1.2657704 -0.6095984 -2.0352173 -1.0754873
-0.41636974 -0.044925373 -1.0984422 -0.66752243 -1.7840657 -0.2937125 -1.1314348 -1.6181083
-0.43127343 -1.501061 -0.52775216 -1.5030917 0.70720065 -1.0629166 -0.8719334 -0.84851396
0.3755765 2.582951 -0.66089755 -0.59793454 -0.4002958 0.8731715 2.3040085 0.07643555
-1.8847091 -0.3931657 0.039289784 0.9576851 -0.2326111 -0.19011045 -2.5653424 1.8847214
-0.047576267 -0.11731524 -0.7278444 -0.45472208 -0.63208467 -0.15927708 -4.044746 3.1377003
0.03166544 -2.0891724 -0.49445522 0.62047166 -0.025474546 1.0219579 -0.6667468 0.14619918
-0.3779552 -0.15135491 -0.11187904 -0.40796927 -0.011792686 0.462031 -0.460564 0.36579412
-0.021269085 -0.15906347 -0.16579579 -0.0035729557 -0.23525874 -0.105100565 -1.3867612 -0.44531447
-0.22303158 -0.256776 -0.0667864 -0.13261528 -1.9323653 -0.15479243 0.94494385 -0.9218678
-0.09888364 0.27188644 0.11724007 -0.03576834 0.81689966 0.2853871 -0.40479696 -0.23823173
-0.51921827 -1.319459 -0.37958145 -1.0017716 -0.30822387 -0.14090681 -2.7373788 -1.0257143
-0.11573193 -0.441396 -0.41494915 -0.5859714 -0.8867123 -0.5127851 0.42345983 -0.06951343
-0.337808 -0.290667 -0.3234622 -0.32245365 0.4083868 -0.8121661 -1.6221746 -1.5662228
-0.29361585 -0.52066666 -0.48896423 -0.7081127 -0.2116774 -0.34554642 -0.10581874 -0.26963952
0.5702832 -2.087695 -0.55627686 -0.08427823 -0.53545225 -0.09277759 -1.2942333 -0.8999872
-0.36519602 -0.8354457 -0.7301496 0.3407065 -0.19849673 -0.4625266 -0.32196268 -1.7275833
-0.5435173 -0.30323508 -0.74965966 -0.5555212 -1.5522443 -0.83520454 2.5541935 -2.346547
-0.2455085 0.326371 0.017738217 0.3302861 -0.3321355 -0.9305479 0.16244076 -0.61749643
-0.4056432 -1.6055794 -0.56568927 -0.7584376 -0.49367628 0.90023726 -0.9929033 -1.100142
0.5612552 -0.78086764 -0.24536005 0.20792177 0.06536468 -0.7127852 0.89375734 -1.0763383
-0.47884172 -0.21252303 -1.1119971 -0.30654225 0.23218295 -0.70443887 -1.072781 -3.001693
-0.19074547 -0.52167207 -0.2970622 -1.0363922 0.72577554 -0.868005 0.21994628 -0.49147
-0.47769147 0.35610214 -0.34937412 0.06375286 -0.30189613 1.3037478 -1.9301492 -0.9018033
1.1680655 -0.18654864 -0.45343697 -0.22776343 -0.15911323 -0.9145341 0.34189782 -2.020257
-0.27314404 0.018812707 0.21600194 -0.37116688 -0.77916545 0.30497968 2.9589655 -2.3446918
-0.3194469 -1.1468409 -0.77304405 -0.73468995 0.8868466 -3.1761994 -0.18060352 -0.5426541
-1.3187575 -2.4725533 -0.14751878 -0.0919689 0.18657322 -0.9880547 -2.3642697 -0.4410405
0.8854591 -0.29334486 -0.64393413 0.47559616 -0.6140902 0.13672312 1.8592415 -2.1659398
-0.35991937 -0.63755786 -0.38827983 -0.1407508 -0.89133114 -0.11952438 2.2294283 -1.5758876
-0.3048649 1.3161453 0.0322012 -0.73828804 -1.0113462 -2.485612 -0.23706329 -0.271838
