experiments/grail_fb_v2/graph_classifier_chk.pth (torch, 173966 bytes, 21 tensors)

weight f4 [200, 32]
000000 9c 3c 56 be 97 fd a2 be cf 61 0a 3e 3a d2 cf 3d
       -0.20921558 -0.318341 0.13513874 0.101475194
000010 6d de 35 bf c8 fc 6d 3e 1a d9 30 3f ac 53 a1 be
       -0.7104252 0.2324096 0.6908127 -0.3150915
000020 b9 a8 05 be 1a 38 35 3e dd 64 e4 bd 50 9d 6f be
       -0.13052644 0.17697182 -0.11152051 -0.23399854
000030 46 9d b1 3d a0 55 00 be c5 d4 30 bf bc 26 de bd
       0.08672576 -0.12532663 -0.6907466 -0.10847232
000040 30 0d 4c 3d d6 01 9b bf d0 72 50 3e 2f 77 44 bc
       0.049817264 -1.2109935 0.20356297 -0.011991306
000050 02 22 3c 3f 81 79 44 bf d3 d8 5b 3e 65 f6 25 3e
       0.7348939 -0.767479 0.2146943 0.16207273
000060 57 b9 da 3e 08 e1 69 be 73 52 30 be d6 3c 9c bd
       0.42719528 -0.22839749 -0.17218952 -0.07628791
000070 98 29 2c bf 9a 5f b7 be de 99 ee 3e 1d 15 22 3d
       -0.6725097 -0.35815126 0.46601766 0.039570916
000080 d4 5c 8e bf c1 83 ad bf f5 98 bb bf 57 1b 12 bf
       -1.1122079 -1.3555833 -1.4656054 -0.5707297
000090 85 31 2b bf 6c 2b 0b 3f e2 eb a4 bf 5d ed b4 3f
       -0.66872436 0.5436313 -1.2884486 1.4134938
0000a0 9a 7f 13 bd be 32 0c bf da c7 e5 be 41 b6 b9 3e
       -0.036010362 -0.54764926 -0.44879037 0.3627186
0000b0 51 dd 3e bf 5b 79 3f bf 12 59 8f 3f 55 63 88 bf
       -0.7455645 -0.7479455 1.1199057 -1.0655314
0000c0 23 d4 55 bf c2 b4 af bf 2d bb f6 3f 01 fe bd bf
       -0.8352682 -1.3727038 1.9275872 -1.4843141
0000d0 41 58 0e 40 a9 ac 5c 3f 38 d2 c9 3e e0 19 1b bf
       2.2241366 0.8620096 0.39418197 -0.6058636
0000e0 be 0d 9b be 45 a6 0f 40 5f 36 89 bf 63 7a fb 3f
       -0.30283922 2.2445233 -1.0719718 1.9646724
0000f0 49 07 66 3f 6d cb 6c be b5 cf d2 3e a8 07 17 3f
       0.89854866 -0.23124476 0.41174093 0.5899606
000100 a1 81 af be f1 3b 9d bf 89 9a a1 3e 27 3e b4 bf
       -0.34278587 -1.2283918 0.31563213 -1.4081467
000110 b3 be 18 3f a6 a9 45 3f b3 87 f1 3e 6e a3 11 bd
       0.59665984 0.7721199 0.47173843 -0.03555625
000120 64 82 03 bf c6 c0 87 bf 2d 93 bf 3e 00 0b 17 3f
       -0.51370835 -1.0605705 0.37416974 0.5900116
000130 4c 75 8b 3e 65 97 78 bf 72 47 65 bf f2 62 0f 3f
       0.27237928 -0.9710601 -0.8956214 0.56010354
000140 d4 4e af bf f8 9d 38 bf 71 97 bc 3e ad 03 38 bf
       -1.3695931 -0.7211604 0.3683429 -0.7188061
000150 d3 e3 30 bf c4 65 56 3f b2 47 a2 3f f7 68 c5 3e
       -0.6909763 0.8374903 1.267813 0.38556644
000160 6f 8f 23 be af 8c 14 3f 14 1b 3d bf 93 74 3c 3f
       -0.15972684 0.58027166 -0.7386944 0.7361538
000170 65 64 b9 bf c1 da f6 bf 37 c1 56 3e 69 59 5f 3f
       -1.4483763 -1.9285508 0.20972143 0.87245804
000180 08 ab d3 bd e7 4f fe 3e 9c 55 c0 bf e0 cf 4d 3f
       -0.10335356 0.49670336 -1.5026126 0.8039532
000190 09 6e ac bf e8 d9 87 be ab 63 9b 3f 02 c4 86 bf
       -1.347108 -0.26533437 1.2139791 -1.0528567
0001a0 85 49 1c 3f e9 a8 e0 3e 57 8e e8 be 11 bd f0 be
       0.6104968 0.43878868 -0.45421097 -0.47019246
0001b0 96 00 dd 3e a3 f7 a6 bd 30 98 ef 3e a1 57 84 3f
       0.4316451 -0.08152702 0.46795797 1.0339242
0001c0 6e 8c dd be d1 4b 20 c0 be 7c 6a 3f c7 9f 85 bd
       -0.43271202 -2.5046275 0.9159659 -0.06524616
0001d0 a3 6c 25 40 78 15 d0 bf 2d 67 9b be a6 a1 9a be
       2.5847557 -1.6256552 -0.30352154 -0.30201453
0001e0 1e 29 98 be 0b 6a 06 c0 49 d2 17 3f e0 2e fa 3e
       -0.2971887 -2.1002223 0.59305245 0.48863888
0001f0 25 89 a9 bf f9 57 ef be 65 3b c7 3f 5e 55 a2 bf
       -1.3244978 -0.46746805 1.5565001 -1.2682302
000200 3b 87 7f 3f 77 e9 8e be de 38 78 bf 69 2b b3 3e
       0.9981572 -0.27912495 -0.9696177 0.34994057
000210 7b 82 1e bf a0 6f 70 be 09 07 de 3e f3 ea 31 bf
       -0.6191785 -0.23480082 0.43364742 -0.6949913
000220 d1 9f 0a bf f1 bc bb be 28 6d 03 3e 42 3a 9e 3e
       -0.5415011 -0.36667588 0.12834609 0.30903822
000230 42 26 c1 3e c7 9a 87 be 99 2e c8 be 15 05 39 3f
       0.377245 -0.26485273 -0.3909805 0.7227338
000240 09 2e 55 be 1f 0c 3b bf cd 06 27 3f 0e 5a c3 3f
       -0.20818342 -0.7306537 0.6524475 1.5261858
000250 da 8b b5 3d e9 38 aa be 0d 87 73 bd 5d 49 6c bf
       0.08864565 -0.33246544 -0.059454966 -0.92299443
000260 3b 08 a7 3d eb f6 c0 bf b4 31 ba be 28 c3 a8 be
       0.08155867 -1.5075353 -0.36366045 -0.32961392
000270 b7 fe e1 3d 28 c8 64 3e 9d fc 24 3f 59 21 7b be
       0.11034911 0.22341979 0.6444796 -0.2452444
000280 3d 5b 3d 3f 54 28 dc 3e 54 bf d3 3c 14 0d a2 3d
       0.73967344 0.42999518 0.025848068 0.07912651
000290 db fe 4a 3e 4c c8 84 be 9f dc 0e be 4a 5f 08 bf
       0.19823782 -0.25934064 -0.13951348 -0.532704
0002a0 95 34 85 3d be ba 3e bf 69 89 a4 be 3c bd 8d be
       0.0650417 -0.74503696 -0.32136086 -0.27683437
0002b0 d8 2c 47 3e c2 89 d7 bc 53 32 51 3f 2b 92 8f be
       0.194507 -0.026310805 0.81717414 -0.28041205
0002c0 09 67 2d bc 9b a8 8b 3e ee 7c 20 be 45 9a 32 3f
       -0.0105836475 0.27277073 -0.15672657 0.69766647
0002d0 14 00 fc be fd 78 8c 3e 77 70 cf 3e 07 8f 12 3e
       -0.4921881 0.27436057 0.4051549 0.14312373
0002e0 b0 cb 80 be 47 3b 92 bd 0b 93 48 bd f7 b7 cd bd
       -0.251554 -0.071402125 -0.048968356 -0.10044854
0002f0 5f c1 1f 3f 54 22 80 3e 02 28 98 be 87 55 18 be
       0.62404436 0.2502619 -0.29718024 -0.14876376
000300 f6 28 00 80 2c a3 00 00 6c 09 00 00 8d c8 00 80
       -1.4694e-41 5.8535e-41 3.38e-42 -7.1944e-41
000310 e0 78 00 80 4c 1a 00 80 67 16 00 00 20 4c 00 00
       -4.3362e-41 -9.434e-42 8.036e-42 2.7309e-41
000320 29 80 00 80 34 ba 00 80 62 63 00 80 07 57 00 00
       -4.5975e-41 -6.6797e-41 -3.5652e-41 3.122e-41
000330 91 10 00 80 9f 62 00 80 56 3f 00 80 b6 91 00 80
       -5.943e-42 -3.5379e-41 -2.272e-41 -5.2271e-41
000340 e5 96 00 80 d5 31 01 00 9c 07 00 00 83 24 00 80
       -5.4131e-41 1.09712e-40 2.73e-42 -1.3098e-41
000350 a0 9b 01 00 0a 71 00 00 76 8a 00 00 75 a2 00 00
       1.47663e-40 4.0551e-41 4.967e-41 5.8279e-41
000360 e6 61 01 80 ae 29 01 00 a3 18 01 00 43 31 00 80
       -1.26955e-40 1.06787e-40 1.00673e-40 -1.7672e-41
000370 1d 5e 07 00 6b 5b 00 00 2b fa 00 80 fa d4 00 80
       6.7661e-40 3.2795e-41 -8.9743e-41 -7.6402e-41
000380 34 cd a5 be d8 81 c1 3e 0d f3 62 3f f2 a6 ef be
       -0.3238312 0.37794375 0.88652116 -0.46807057
000390 e0 69 0c c0 3f 37 86 bf 0d 9f 78 bf 2e d0 d8 3c
       -2.193962 -1.048561 -0.9711769 0.026466455
0003a0 8e aa 56 be 26 9e ae bf 4b e2 37 bf 4e fb 81 bf
       -0.20963499 -1.3642013 -0.7182967 -1.0154817
0003b0 70 b7 15 bf 4a 7c be bf 9e 13 b5 be ec f9 97 bf
       -0.5848303 -1.488168 -0.3536653 -1.1873145
0003c0 90 2b f7 be 3c 8d 75 bf 28 34 cc 3f f0 06 56 bf
       -0.48275423 -0.9591863 1.5953417 -0.83604336
0003d0 1a 2f b2 3f 9e b2 8c 3f e2 39 a6 bf c5 fd c4 3f
       1.3920624 1.099201 -1.2986414 1.5389944
0003e0 1d 67 75 bf dc e9 78 3f 00 93 4a 3f 01 d9 c1 3b
       -0.95860463 0.9723184 0.79130554 0.0059157615
0003f0 b0 65 ce 3e 88 4f d6 3e 74 83 7d 3e 90 58 a6 bf
       0.40311956 0.41857553 0.24757177 -1.2995777

weight f4 [4, 8, 32]
000000 4e df 05 3d 6f 85 dc bf 5c 37 83 3f 63 eb 78 3e
       0.032683663 -1.7228221 1.0251269 0.24308543
000010 5e 36 09 40 9b 12 cb 3d db 5f 75 be fd 97 13 bf
       2.1439433 0.09915658 -0.23962347 -0.5765379
000020 4d a3 52 36 5f 86 1a 3e b2 41 1c bf 2c af 8e 3e
       3.1387492e-06 0.15090321 -0.61037743 0.2786802
000030 96 75 5e bf 47 22 92 3f 15 b1 9f 3d 2b 23 ae 3f
       -0.8689817 1.1416711 0.077974476 1.3604482
000040 23 bd e4 bf 74 49 a7 3e 0c eb 95 bf 4a 72 60 bf
       -1.787022 0.32673228 -1.1712356 -0.8767439
000050 79 d9 04 be 54 56 42 bc c7 b3 03 39 a6 a2 1e bf
       -0.12973584 -0.011861403 0.00012560106 -0.6196693
000060 1e 6d 6a bf e0 d4 87 be 22 91 be 3e 0e 79 3f 3f
       -0.9157275 -0.26529598 0.37220103 0.7479409
000070 5e 8d 1a be e5 2a 22 bf 1e 21 b3 be e4 88 fb 3e
       -0.1509299 -0.633467 -0.34986204 0.49127877
000080 76 00 64 bf 62 58 9f bf 85 d7 c2 bf 98 23 27 3f
       -0.89063203 -1.2448847 -1.5222021 0.65288687
000090 9d 12 da bf 71 8e 07 bf 05 5d 27 3e 20 15 02 c0
       -1.703693 -0.52951723 0.16344078 -2.0325394
0000a0 cd 47 1b 3e 69 ad 3a bf b3 8a c3 3e a5 58 7a bf
       0.15164109 -0.7292085 0.38191757 -0.9779151
0000b0 45 7c c0 bf 92 b3 df be 05 a1 80 3f f3 fc cc 3f
       -1.5037924 -0.4369169 1.0049139 1.6014694
0000c0 c9 7b 40 3e 8b bf af bf e4 aa b8 3f ae 26 f8 bf
       0.1879722 -1.3730329 1.4427152 -1.9386804
0000d0 7c 2f 0b bf 7f 79 98 be 56 6c a2 3e 79 e4 e4 be
       -0.5436933 -0.29780194 0.3172328 -0.4470556
0000e0 89 d6 e6 3e b7 bb 61 40 ca 85 d9 3f 77 50 a9 3e
       0.45085552 3.5270822 1.6993954 0.33069202
0000f0 0f 7c b2 3c 09 09 b9 bf d9 ee b4 3e b4 c5 b1 bf
       0.021787671 -1.4455882 0.35338476 -1.3888459
000100 3c bf 07 3f 22 b0 32 bf be 04 bb 3f 1b b1 1f 3d
       0.53026175 -0.6980001 1.4610822 0.03898726
000110 ef 34 b3 3e 9f 88 65 bf 15 54 84 bf 30 38 49 40
       0.35001323 -0.8966159 -1.033816 3.1440544
000120 29 4c 73 3d a4 3f 47 3c c7 87 1a bf 3d 29 4a be
       0.059398804 0.012161169 -0.6036343 -0.19742294
000130 be 6a a5 bf c0 a8 c6 be 33 cd c7 bc e6 85 3b bf
       -1.29232 -0.3880062 -0.024389839 -0.7325119
000140 ba 90 91 3f d4 a3 2a 3f c3 cb 97 3e c4 8b 15 be
       1.1372292 0.6665623 0.29647645 -0.14604098
000150 5b 2d eb be 1c 3a 22 3e 72 5f d2 3d 2e 50 16 bf
       -0.4593304 0.1584248 0.10272111 -0.58716094
000160 2d 93 07 3f 9a 68 09 bf 42 80 c0 b8 9e 7b 3b be
       0.5295895 -0.53675234 -9.179163e-05 -0.18308875
000170 89 2b 12 3f dc 0e 82 bf bf 0b 64 3f 7a 07 1b 3f
       0.5709768 -1.0160785 0.89080423 0.60558283
000180 b2 61 27 be 84 5e d0 3f e7 ab 6c 3e bf 0b 04 bf
       -0.16345862 1.6278844 0.2311245 -0.51580423
000190 e2 cd b9 3f a2 0e 34 bf 13 ef 16 3f 2f 6c 20 40
       1.4515955 -0.7033483 0.5895855 2.506603
0001a0 9d 2c 9c 3d a3 fb 7e 3f 43 32 82 3f 6c 26 12 3f
       0.07625697 0.9960272 1.0171589 0.5708988
0001b0 bb 05 bf 3f 07 ad 03 3e 50 45 49 3f e4 ee 39 3f
       1.4923624 0.12858973 0.7862139 0.72630143
0001c0 ce 85 f9 3f 2c 4e 75 3f 44 4b 32 be 48 a2 10 40
       1.9493959 0.95822406 -0.17411524 2.2599049
0001d0 a8 c8 07 3e 91 9e f4 3e ab 89 27 3d 8a 73 3a 3f
       0.13260138 0.47777227 0.040902775 0.7283255
0001e0 9e 3a 8f be c8 37 57 3f 34 11 98 3e 49 36 b6 bf
       -0.2797441 0.8406949 0.29700625 -1.4235317
0001f0 21 c3 09 40 10 2f 24 3f e4 8c 01 3f 17 59 c6 3e
       2.1525347 0.6413431 0.5060561 0.38739845
000200 be 80 7c 3e 87 54 af bf 83 d4 b2 bd 46 eb b8 3d
       0.24658486 -1.3697671 -0.0873194 0.0902925
000210 42 90 74 c0 c2 a0 2a bf 57 24 23 bf e6 bc c2 bd
       -3.8213048 -0.66651547 -0.63727325 -0.09508686
000220 7c 87 09 10 1e 06 c9 3e 3e 0d 26 be 4f 4c ff 3f
       2.712286e-29 0.3926248 -0.16215989 1.9945163
000230 e7 9b 27 c0 9e 54 ff be 3a f1 28 3e b4 35 35 3d
       -2.6188905 -0.49869245 0.1649827 0.04424067
000240 36 08 78 40 cf e8 5a c0 dd c2 d4 3e 02 0a 97 c0
       3.8755012 -3.4204595 0.4155492 -4.7199717
000250 0e 9f d1 be b4 7f 4c b6 4d 71 16 ad 27 b8 3c bf
       -0.40941662 -3.0472702e-06 -8.551671e-12 -0.73718494
000260 18 21 68 be c6 8d 36 be fa 1b 09 3e d1 fd c8 bf
       -0.22668874 -0.1782752 0.13389578 -1.5702459
000270 67 21 2b bd 5d 6b ba c0 e2 45 d8 bd 1f 66 88 be
       -0.0417799 -5.825606 -0.10560204 -0.26640412
000280 a6 de 23 c0 29 28 f0 3c 09 b9 d2 3f 9c 27 a8 3f
       -2.5604644 0.029316025 1.6462718 1.3137088
000290 85 de c5 3e da ba 34 bf 2b a5 a6 bf 43 32 41 40
       0.3864633 -0.7059761 -1.3019155 3.0186927
0002a0 3c 98 da 3c 1d ab 02 c0 cf 5b e2 be b1 da 72 bf
       0.02668392 -2.041694 -0.4421067 -0.94864947
0002b0 98 c0 a9 bf 05 24 85 be 01 1d c7 3e 2c 1c da 3f
       -1.32619 -0.26004043 0.38889316 1.7039847
0002c0 12 f0 0b bf d3 65 b8 3e 30 46 87 3f f2 f8 ed 3c
       -0.54663193 0.36015186 1.0568295 0.02904937
0002d0 56 cd 0e bf 98 67 f7 3e 26 ad 63 3e 7f 93 3c bf
       -0.5578207 0.48321223 0.2223402 -0.7366256
0002e0 95 35 bb 3e 18 3b 13 40 c5 d1 1a 40 3c 5d 78 3f
       0.36564317 2.3004818 2.4190533 0.97017264
0002f0 4c 42 b6 3f c4 76 1a be ad cb 91 3e 7c d6 fb 3f
       1.4238982 -0.15084368 0.28475705 1.967483
000300 3e 48 e9 3f 2a 88 c3 bf 06 bd 17 3f 27 a1 91 bf
       1.8225172 -1.5275929 0.592728 -1.1377305
000310 e0 2a 7c 3e ed 35 3f 3e a4 c9 83 3e e2 e8 f2 be
       0.2462573 0.18672915 0.25739777 -0.474433
000320 50 4a 82 3d 8c 62 55 3f 8d 7b e7 3d 16 f5 e5 be
       0.0636183 0.83353496 0.11302862 -0.44913548
000330 de 78 ce be 79 82 23 40 32 25 e7 3f 14 bc 4c 3f
       -0.4032659 2.5548384 1.8058226 0.79974484
000340 4c 8e ca be ea d9 92 3f 0d f2 8b bf 22 79 66 3f
       -0.3956169 1.1472752 -1.0933243 0.90028584
000350 54 3e 1c 3f 46 8a 7e 3e 30 c7 3a 3d ab 84 c3 be
       0.61032605 0.24857435 0.045600116 -0.38187155
000360 40 6a 57 bf 41 5d 24 3f a5 0a aa 3e 09 85 b7 3e
       -0.841465 0.64204794 0.33211246 0.35843685
000370 ea 67 e1 3e 92 e7 d4 3e 4a d3 2d 3f 00 27 b7 bf
       0.44024593 0.41582924 0.67900527 -1.4308777
000380 ad 2a 69 be 22 e1 2c 3f 9f 18 d2 bf 96 07 4a 3f
       -0.22770186 0.67531025 -1.6413764 0.78917825
000390 97 e7 c8 bd 17 18 ea 3d 15 6d 7f 3e 87 a2 33 bf
       -0.09809797 0.11430376 0.24943955 -0.7016987
0003a0 68 15 0d be d6 a3 01 bf 4b 19 48 3e 3b e4 ee 3f
       -0.13777697 -0.5064062 0.19540899 1.86634
0003b0 6d d9 c6 3f 60 d0 33 c0 cf 25 11 c0 c7 4b 90 bf
       1.5535103 -2.8095932 -2.2679327 -1.1273125
0003c0 6a fd 85 3f 72 2e 9a 3f b9 d1 23 3f 41 68 4e 3f
       1.0467961 1.2045424 0.63991886 0.8062783
0003d0 33 f3 17 3f 34 d0 9a b8 99 7a 6c 3e 96 1c 74 3f
       0.5935547 -7.382073e-05 0.23093642 0.9535612
0003e0 86 39 47 3f cb e2 ca 3f 9d 69 c1 3e 43 cd d7 bf
       0.7782215 1.5850462 0.3777589 -1.6859516
0003f0 85 ba 43 3e 34 3f 8b 3f f8 84 8d 3f 8b 3f 2c bf
       0.1911412 1.0878663 1.1056204 -0.6728446

w_comp f4 [200, 4]
000000 0d 5d be bf 8e 0f 94 bf 78 b3 f6 bd f8 46 d4 3e
       -1.4872147 -1.1567247 -0.1204595 0.41460395
000010 5d 8e d4 be de f0 c9 be 06 67 f1 be 9d 58 1f bf
       -0.41514865 -0.3944158 -0.47148913 -0.6224459
000020 1a a1 50 3f db 95 26 c0 32 57 ae be f9 99 b1 3e
       0.8149582 -2.6028965 -0.340509 0.34687784
000030 a5 5f e1 bf 31 39 64 bf ec f2 b1 3f 85 58 05 c0
       -1.7607313 -0.8914977 1.3902259 -2.0835278
000040 de e6 3c be f1 3a de bf 1a 28 ac bf 48 53 ed bf
       -0.18447444 -1.7361737 -1.3449738 -1.854104
000050 45 c5 b3 be 48 85 0b 3f 46 fc 97 bf 68 c1 f6 bf
       -0.35111442 0.54500246 -1.1873863 -1.9277773
000060 eb 7d 45 be 8f 2d 40 3f 25 9b 01 bf 1f ab 8a be
       -0.19286315 0.75069517 -0.50627357 -0.2708368
000070 0c 4a 83 bf 33 f3 98 be 88 56 1a c0 b8 a7 69 3e
       -1.0256972 -0.29873046 -2.4115314 0.22817886
000080 28 49 28 be 53 c3 1e c0 c3 63 fc 3f 8b f7 e0 bf
       -0.16434157 -2.4806716 1.9717945 -1.7575544
000090 34 1f 8c bf 93 6a cb bf 20 74 8f 3e 26 f5 dc bf
       -1.0947022 -1.5891899 0.28018284 -1.7262313
0000a0 1f 6c 89 be 90 e4 88 3f 59 5f 65 be 3d b2 b7 bf
       -0.26840302 1.0694752 -0.22399653 -1.4351269
0000b0 e9 10 75 bf f0 73 13 3f 50 7b cc bf dc 8f 1b bf
       -0.9572893 0.5759878 -1.5975132 -0.60766387
0000c0 a3 ac 62 be ac 6f 2d bf 6e 0c f5 be d1 86 a6 3d
       -0.22136168 -0.6774852 -0.47861046 0.08131183
0000d0 f7 b6 e8 bf 34 c4 69 bf 6c 8a a4 bf 41 8c 2f 3f
       -1.8180836 -0.9131501 -1.2854743 0.68573385
0000e0 14 a2 2a bf 09 df 11 be 04 5b bf bf 2b e2 b1 be
       -0.6665356 -0.14245237 -1.4949651 -0.34742865
0000f0 ec 9c 0c 3f 1d e4 99 bf a2 ad 19 bf f4 3c e9 be
       0.54926944 -1.202274 -0.6003057 -0.45554316
000100 61 b5 4b bf b8 96 a9 3c 71 29 82 3f e0 e1 b2 bf
       -0.7957364 0.020701751 1.0168897 -1.3975182
000110 b6 f8 d9 be 28 58 89 3f 29 7a a8 3f 0e 01 c6 be
       -0.42572564 1.0730028 1.316228 -0.3867268
000120 e7 b0 d8 bf 8f 81 d0 be f8 10 cd bb ef 4f 05 c0
       -1.6928986 -0.40723845 -0.0062581263 -2.0830038
000130 24 4c a3 bf b5 af 3f bf c5 d1 94 3e f4 29 d5 bf
       -1.2757611 -0.7487748 0.2906629 -1.6653428
000140 a5 7e d6 bf 13 31 96 bf e8 17 4f 3f 53 a5 f6 3d
       -1.6757399 -1.1733726 0.80895853 0.12043252
000150 1a 2f 12 3f 62 b7 21 be 60 60 73 bf 2b 6d 8b be
       0.5710312 -0.15792611 -0.9506893 -0.27231726
000160 ee 1a 6b c0 20 f1 5d 3e d2 ca b8 bf 33 63 a7 3f
       -3.6735187 0.21674013 -1.4436896 1.3077148
000170 3f 5d e6 3d 9a a0 04 c0 5c 3e 98 3f a8 03 94 3e
       0.11248254 -2.0723023 1.189403 0.2890904
000180 39 ba 8e bf 79 87 54 bf 02 cc 82 bf dc 01 d3 bf
       -1.1150581 -0.83019215 -1.0218508 -1.6484942
000190 e4 8f de 3e e3 f6 07 bd 6c e1 95 bf 87 28 34 c0
       0.43469155 -0.033194434 -1.1709418 -2.8149736
0001a0 96 6a 92 c0 d1 71 c6 bf ee de 06 c0 82 80 d2 3e
       -4.575511 -1.5503484 -2.1073565 0.4111367
0001b0 cc 89 38 3f 3d f3 00 bf 17 2f 32 c0 08 ee 4a bf
       0.7208526 -0.5037115 -2.7841241 -0.79269457
0001c0 02 e6 0f c0 5b 91 1a bf 4c 07 40 3f d8 8f 19 bf
       -2.2484136 -0.60378045 0.75011134 -0.59985113
0001d0 d7 83 99 be 67 57 93 3e a9 50 8d be 50 3a 9e 3e
       -0.29983398 0.2877762 -0.276006 0.30903864
0001e0 32 20 8b bf 5a 25 0d 3f 83 8a a6 bf 56 fc 41 3f
       -1.08692 0.5513512 -1.301102 0.7577566
0001f0 7d 89 11 c0 21 6f 81 3f cf 6f 1c c0 ea 0e fe 3f
       -2.2740166 1.0112039 -2.4443243 1.9848301
000200 81 35 ab c0 3f ee e8 be aa df c1 bf ef 16 e6 3f
       -5.3502812 -0.45494267 -1.5146382 1.7975749
000210 e0 fd 07 bf 38 a3 86 bd e0 8f b8 bb d2 e6 11 bf
       -0.5312176 -0.065741 -0.0056323856 -0.5699283
000220 a1 49 88 bf 92 0b 9a 3f 8d a5 84 bf 2e e7 1f c0
       -1.064747 1.2034781 -1.0363022 -2.498485
000230 bc d4 d8 bd 53 31 ed be d8 40 5e bf 8c c6 6e be
       -0.10587451 -0.46326694 -0.86817694 -0.23317927
000240 a5 db 0f 3d ff 56 dd bf 38 4c 14 3f 91 d2 64 bf
       0.03512158 -1.7292174 0.579288 -0.893838
000250 e9 3f a1 3e 01 87 46 3f 1e 57 8e bf df 73 35 be
       0.31494072 0.7754975 -1.1120336 -0.17719983
000260 27 ce d7 bf 05 7f 98 bf 5b 52 60 bf c9 44 f5 bf
       -1.6859788 -1.1913763 -0.87625664 -1.9161617
000270 6b aa e7 3e ff 42 9c bf d1 6e 15 c0 18 af 33 40
       0.45247206 -1.2207946 -2.3348887 2.8075619
000280 f1 dc b5 be 6b 56 4c bd 6c 0d 2d bf 1e 9e 91 be
       -0.35520127 -0.049887102 -0.67598605 -0.28440946
000290 51 89 b7 3e 64 a5 81 bf 8a b6 d9 bf fc 12 46 bf
       0.35846952 -1.0128598 -1.7008832 -0.7737272
0002a0 70 cb 28 bf 2d 25 a5 bf ac d0 7c 3f f2 8b d2 be
       -0.6593542 -1.290197 0.9875591 -0.41122395
0002b0 da 3b cf bf 46 70 1d 3e dc 74 f0 be 5b 3d 47 3e
       -1.619014 0.1537486 -0.46964157 0.19456999
0002c0 e5 af ee bf 8b 68 50 bf e3 ae fb bf d5 c6 8c bf
       -1.8647429 -0.8140952 -1.9662746 -1.0998179
0002d0 2b ff 05 c0 a0 b5 1f c0 e1 b3 99 3f 68 df a3 3f
       -2.0936992 -2.4954605 1.200802 1.2802553
0002e0 9a 32 9d 3f 65 f9 99 3f 47 e4 db 3e 8e a1 8f c0
       1.2281067 1.2029234 0.429476 -4.488471
0002f0 71 35 39 bf cd d6 c6 bf 7c 3e 98 3f f4 dc 07 c0
       -0.7234717 -1.5534302 1.1894069 -2.122861
000300 f0 90 10 be 5e f2 cf bd 6a 57 e8 3f 78 d6 2a bf
       -0.1411779 -0.1015365 1.8151677 -0.66733503
000310 fe 6f e5 be 2d c0 fb bf a3 d7 39 3f 24 4a ef bf
       -0.44812006 -1.9668022 0.7259466 -1.8694501
000320 27 55 d1 3b bc 54 c1 bf 1e f1 4e c0 36 85 39 3f
       0.006388325 -1.5103984 -3.2334666 0.7246889
000330 e6 c7 e2 3f cc 73 39 c0 2f 21 7d be 9a 47 5c bf
       1.7717254 -2.8976927 -0.2471969 -0.86046755
000340 88 9d b2 bd 88 1f a6 3e 98 67 07 bf 99 ee 49 3d
       -0.08721453 0.3244593 -0.52892447 0.04929981
000350 40 7f 75 3f 1f b3 63 c0 62 74 92 bf 97 64 9d 3d
       0.95897293 -3.5578077 -1.1441767 0.076852016
000360 68 d4 d8 3e d7 95 c9 bf ee 28 a4 3e 18 81 4d bf
       0.42349553 -1.5748852 0.32062477 -0.80275106
000370 90 83 94 3e 76 d9 95 bf b2 79 09 bf 01 e8 7d bf
       0.29006624 -1.1706989 -0.5370132 -0.99182135
000380 46 4c af be dc 94 cc be 64 ec b9 3e 26 ad 8f be
       -0.3423788 -0.3995732 0.36313164 -0.2806179
000390 a8 b1 80 3f 68 0f 4d bb 9a e2 88 bf 85 da da be
       1.0054216 -0.00312897 -1.0694153 -0.42744842
0003a0 66 ac 12 bf d0 e9 b6 3f 39 ca 06 c0 de 3d 8b bf
       -0.5729431 1.4290104 -2.1060927 -1.0878255
0003b0 47 94 86 be 42 e5 a7 3e ae 3e a8 be 1d e4 3c 3e
       -0.26285002 0.32792097 -0.3286032 0.18446393
0003c0 36 9d 32 3f 7f fd b2 bf c6 78 8e bf 6e 7e b0 3e
       0.69771135 -1.3983611 -1.1130607 0.34471458
0003d0 d4 28 3b 3f 1d 56 8f bf 79 85 24 3e 44 30 8c bf
       0.73109174 -1.1198155 0.16066541 -1.095223
0003e0 b8 6c 92 be 6a 2c 04 bf 81 f2 a3 be 12 a6 40 bf
       -0.2859857 -0.5163027 -0.32020953 -0.75253403
0003f0 9a ac dc bf dc e7 ed bf 25 93 89 bf 0b aa a3 3f
       -1.7240174 -1.8586383 -1.074803 1.2786268

self_loop_weight f4 [8, 32]
000000 68 19 7d 3e ea df d5 be 8d c7 61 be fc e4 d4 3e
       0.24716723 -0.41772395 -0.22048779 0.4158095
000010 64 92 17 3f 87 6c 3d 3f 2e dc 08 c0 2a bb 58 30
       0.5920775 0.73993725 -2.1384387 7.884632e-10
000020 48 38 47 bc 96 11 cf be 6f 34 8a 3e bd b8 87 3f
       -0.012159415 -0.40443105 0.2699313 1.0603253
000030 0d 75 06 be 52 aa 54 be cb 01 bd be 9d 54 8c bf
       -0.13130589 -0.20768097 -0.3691543 -1.0963322
000040 b6 e4 bf be 9a 6b c7 3f fd ca 22 3f a6 8c 55 3f
       -0.3747918 1.5579712 0.63590986 0.8341774
000050 0c 3b 43 3e 93 9f 9f 3d a0 dd 4b be 5a c3 a9 bf
       0.19065493 0.07794108 -0.19908762 -1.3262742
000060 96 aa 67 be 93 d7 4d 9d f1 05 de 3d 0a 0e ac 3f
       -0.22623667 -2.7242973e-21 0.10840977 1.3441784
000070 eb f7 84 3e 17 be 38 3e 94 33 ce be 9e 90 d2 3d
       0.25970396 0.18041264 -0.40273726 0.1028149
000080 84 22 d6 3d 29 5b a6 bf 06 c2 30 bf 31 1c 2c be
       0.10455802 -1.299657 -0.69046056 -0.16807629
000090 bb be 8c bf 26 08 44 bf 46 b3 46 3f b9 52 80 bf
       -1.0995706 -0.76574934 0.776173 -1.0025245
0000a0 4f 7b 1c be b8 7f 11 3e b5 63 3e c0 56 db bd bf
       -0.15281413 0.14208877 -2.9748356 -1.4832561
0000b0 82 b6 26 bf 28 ec 63 bf d5 7b 90 bf 77 8c ad bf
       -0.65122235 -0.8903222 -1.128779 -1.3558491
0000c0 46 c5 15 bd 5d 56 19 c0 f4 7a e7 3e 1b 32 0b c0
       -0.036565088 -2.3958962 0.45210993 -2.1749332
0000d0 e5 8a d9 bf 05 d8 4d bf 7f 05 59 be 02 e9 b5 3e
       -1.6995512 -0.80407745 -0.21193503 0.35529333
0000e0 c0 f4 84 be c1 c6 77 be 75 3a 39 bf 2f 48 b6 bf
       -0.2596798 -0.24196912 -0.72354823 -1.4240779
0000f0 75 b7 d7 bf 8b 32 85 bf 56 5c cc bf 74 3f 02 3f
       -1.6852862 -1.040605 -1.5965679 0.5087807
000100 ea 93 25 bf 42 39 8e 3e 43 97 02 bf b5 0f 47 3e
       -0.64678824 0.2777806 -0.5101206 0.19439586
000110 e3 8d 0b c0 27 63 a4 bf 88 e6 4e c0 2d 4f b4 3f
       -2.180535 -1.2842759 -3.2328205 1.4086663
000120 9f b6 ee bd 8e 04 9c bf 50 4e 08 c0 c7 7e 1c be
       -0.11655926 -1.218889 -2.1297798 -0.15282737
000130 9e 31 c6 bf a1 e0 3f bf e8 7b d0 be 77 65 d9 3e
       -1.5483892 -0.7495213 -0.40719533 0.42460224
000140 28 e2 76 3f 4c b1 46 bf f4 2e 1e bf b1 0f 32 bf
       0.9643884 -0.77614284 -0.61790395 -0.69555193
000150 60 24 e9 bf ba 74 d0 bd e3 d2 81 be bb f5 a2 bf
       -1.8214226 -0.10178514 -0.25356206 -1.2731241
000160 d6 ca 31 be aa 5e 9f 3f 8b f0 e4 bf e1 65 5e 3f
       -0.17362532 1.2450764 -1.7885908 0.86874205
000170 33 10 0f 3e 46 fc 22 bf 07 58 8c 3d da ba 4a be
       0.13971023 -0.6366619 0.068527274 -0.1979784
000180 fc 55 9b bf 74 4c 29 c0 9c 2c f9 3e 27 83 49 bf
       -1.2135615 -2.6452913 0.48666847 -0.7871575
000190 7b 23 54 3f 2b 27 cc 3c c0 ea 85 bf 12 b8 94 bf
       0.8286664 0.02492102 -1.0462265 -1.1618674
0001a0 3a dd cd bd fe 87 e5 bf 81 5b 0b 3f 8a e4 03 c0
       -0.10051961 -1.7932127 0.544365 -2.060824
0001b0 4d 94 c4 be e2 9c da be c9 21 2a bf c4 65 86 bf
       -0.38394395 -0.42697817 -0.664578 -1.0499806
0001c0 91 8a 29 c0 56 01 c7 be 9c 8d e8 bd 62 2f f0 be
       -2.6490824 -0.38868207 -0.11355135 -0.4691115
0001d0 2f 92 3c 3f 3f 87 d1 be b7 51 7b bd f7 b1 ed bf
       0.7366056 -0.40923497 -0.061357226 -1.8569936
0001e0 8d a2 38 bf 88 9c 52 3d f8 4a d2 3e 3d c4 86 3f
       -0.7212303 0.05141881 0.41072822 1.0528637
0001f0 e5 fc 63 3f b8 09 b6 bf 00 78 79 bf 32 2e 31 3f
       0.8905776 -1.4221716 -0.9744873 0.69211113
000200 6b 02 8f 3e 96 0e 2c c0 26 e6 fe 3e 41 c5 b7 3f
       0.27931532 -2.6883903 0.49784964 1.4357072
000210 44 9f d3 3f 3f b4 b3 3f 21 a3 96 3e 16 8a b0 3e
       1.6532979 1.4039382 0.29421332 0.3448035
000220 0e 45 d2 bd 25 75 be 3e b5 77 d2 b0 aa 05 7d bf
       -0.102670774 0.3719875 -1.5313534e-09 -0.9883677
000230 45 97 8d bd 51 28 da 3e d0 93 aa 3e 58 3e 09 3f
       -0.06913618 0.42608884 0.33315897 0.53610754
000240 1d c3 41 bf 84 7c af 3d 0f f4 46 40 f3 41 e8 bd
       -0.75688344 0.08568671 3.1086462 -0.11340704
000250 56 dc 0a 27 43 4e 70 bd dd 49 0a be e6 ef 72 3d
       1.9270792e-15 -0.058668386 -0.13504739 0.059310816
000260 d5 27 34 3f 3f 8e f6 3f ca 91 21 3f 43 fc 56 3f
       0.7037328 1.926216 0.6311308 0.8397867
000270 02 d0 a4 be 27 74 36 3e 4a c3 03 bf af fb 1e 40
       -0.32189947 0.17817746 -0.5146986 2.4841115
000280 4f d6 00 bf 05 06 67 3e ff e0 23 bf f6 8a 93 bf
       -0.5032701 0.2256089 -0.6401519 -1.1526783
000290 54 91 16 bf b9 9a 7a bf 32 77 fb 3e e9 d4 1b c0
       -0.58815503 -0.9789234 0.49114376 -2.43487
0002a0 98 22 fa be 08 24 d6 bf 93 0e 0d bf b4 9f 03 be
       -0.48854518 -1.6729746 -0.55100363 -0.1285389
0002b0 1c ba 10 bf 3e af bc bf 56 e1 ae bf f1 e3 32 bf
       -0.5653398 -1.474098 -1.3662517 -0.6987906
0002c0 09 95 04 bf c1 8d a1 3e 7c b5 b7 bf 1e 8c 5b be
       -0.5178991 0.31553462 -1.435226 -0.21440169
0002d0 21 69 92 bf ad 3a 8a bf d0 45 e5 be 2e 09 32 be
       -1.1438333 -1.0799156 -0.44779825 -0.17386314
0002e0 68 e5 75 bf 96 23 1b c0 a6 2a 68 bf bf 88 ff bf
       -0.9605317 -2.424047 -0.90690076 -1.9963607
0002f0 7d d8 b2 bf 3f a7 84 3d 9e d7 53 bf 71 7b 11 c0
       -1.3972317 0.06477212 -0.8275088 -2.2731593
000300 60 0a 8a bd b8 3e ce be 06 cc 0d bf 48 ea 89 bf
       -0.0674026 -0.40282226 -0.5538944 -1.0774622
000310 25 c5 ca bf 3c b6 89 bf 3a 63 8c bf 82 1a 3c 3e
       -1.5841414 -1.0758739 -1.0967782 0.18369487
000320 8c 8b e9 be c4 2a 40 3f cf 2d a1 be 26 6b 93 bf
       -0.45614278 0.75065255 -0.31480262 -1.1517074
000330 b1 21 ff bd ac 44 e7 be cc f1 2a bf b2 34 fd be
       -0.12457598 -0.4516958 -0.667752 -0.49454266
000340 fd b9 4c 3f aa 57 2c bf 64 e2 ec bf 39 f5 83 bf
       0.79971296 -0.67321265 -1.8506589 -1.0309211
000350 d2 95 10 bf 62 30 27 bf d0 1a 9a be 0d 1a 11 bf
       -0.5647861 -0.653082 -0.3009858 -0.56680375
000360 b2 05 f8 be e2 39 1c 3d 79 83 93 bf ec 51 0b c0
       -0.48441845 0.03814114 -1.1524497 -2.176875
000370 16 08 83 3f 78 31 88 3b 98 c3 e5 be c5 e1 4b bf
       1.0236843 0.0041562878 -0.4487579 -0.7964137
000380 b1 02 95 bf a4 25 22 c0 93 03 05 bf a1 6e 11 bf
       -1.1641446 -2.5335474 -0.5195858 -0.5680943
000390 f1 26 5d 3e 95 c3 32 bf f8 34 b4 bf 38 c1 28 be
       0.21596886 -0.69829684 -1.4078665 -0.16479957
0003a0 37 bc 7a bd af 1e e3 bf 6d e6 91 3e 0a e5 6b bf
       -0.061214652 -1.7743739 0.28496113 -0.9214636
0003b0 26 3e 47 bf 0a 11 39 bd 5a ad 72 3f 48 27 5b bf
       -0.77829206 -0.045182265 0.94795763 -0.85606813
0003c0 f6 23 0d c0 c2 28 b7 3d c4 0d c8 bf 02 da 49 be
       -2.20532 0.08943321 -1.5629201 -0.1971207
0003d0 1e 8d 27 3d 28 29 ba be 00 6c f4 bd 9f 34 cb be
       0.040906064 -0.36359525 -0.11934662 -0.39688584
0003e0 33 4a 26 bf 76 cc aa bf b3 28 f6 be 3d e8 05 3f
       -0.6495697 -1.3343647 -0.48077926 0.5230749
0003f0 42 55 45 be d4 12 c5 bf bf ac 13 bf e9 a7 b3 bf
       -0.19270805 -1.5396371 -0.57685465 -1.4035617

weight f4 [8, 80]
000000 4c d0 02 be e1 f6 5e bf f0 13 1a be e3 6e d1 bc
       -0.12774771 -0.8709546 -0.15046668 -0.02556557
000010 9f 59 93 be 33 50 c8 be 9d b4 85 bd 5c b7 4c be
       -0.28779313 -0.39123687 -0.0652859 -0.19991821
000020 69 56 77 be c9 b4 65 bf d5 9c 44 be e5 12 ea 38
       -0.24154057 -0.8972898 -0.19200452 0.00011161509
000030 42 0e 05 bf ab 1e 17 bf 07 88 d4 bd 58 3f ad 39
       -0.5197488 -0.5903117 -0.10377508 0.00033044326
000040 ce 97 2d be c2 1b ec 3d f3 ce a0 be 33 4c 15 be
       -0.1695244 0.11528732 -0.3140789 -0.14579849
000050 9e 2d bc 3e e0 04 1f bd d2 be ff be 27 36 b4 3e
       0.36753553 -0.03882301 -0.49950272 0.35197565
000060 ff b2 ed 3d 68 1e a9 bc e1 00 67 3e e7 b4 2c be
       0.116064064 -0.020644382 0.22558929 -0.16865884
000070 3e 64 9c bd 67 a2 1a 3e 95 31 bb 3d eb 0d e9 3d
       -0.07636307 0.15101014 0.091403164 0.11379608
000080 00 9e d1 bc 57 b8 1e be 91 3d 2f 3e cc 0f d9 be
       -0.025588036 -0.15500008 0.1711333 -0.42394865
000090 fd c5 77 be 00 dd 04 be 66 a8 88 3d 82 a2 60 be
       -0.2419662 -0.1297493 0.066727445 -0.21936992
0000a0 9d 94 1d be 0d 7c 60 3e 59 03 3f 3a 3e 2d 67 bd
       -0.15388723 0.21922322 0.00072865706 -0.05643963
0000b0 74 08 85 bd 7e 1e 7b be 98 15 0c be 15 02 b7 bd
       -0.06495753 -0.2452335 -0.13680112 -0.08935944
0000c0 94 c7 a0 3d 57 f4 2e 3d ab 8f 89 be 80 30 2a bd
       0.078505665 0.04271349 -0.26867422 -0.04155016
0000d0 d3 b4 21 3e 5f 49 81 3d d8 52 9d be ae 69 8a 3e
       0.15791635 0.063128226 -0.30727267 0.27033752
0000e0 bc d5 a6 bc 9a 0a b0 bd 8c e9 28 3e 14 87 1a 3e
       -0.020365588 -0.08595772 0.16495341 0.1509059
0000f0 de 5a 3f be fd 64 0a 3e fb 1b 2c 3e ad 8c 75 bb
       -0.18687007 0.13515086 0.16807549 -0.0037467883
000100 89 a5 a0 bd 03 b9 a9 3d 9c 6d 14 3e 83 3b f7 3d
       -0.07844073 0.08287241 0.14494938 0.12071898
000110 3e 7d 82 be 56 a9 d2 bd 09 67 85 3e 46 ab 27 be
       -0.25486177 -0.102862045 0.26055172 -0.1637393
000120 20 62 7a be c2 73 73 be 70 a8 fb bc e4 6c 64 be
       -0.24451494 -0.23774627 -0.030719966 -0.22307163
000130 b9 91 38 3d 23 fa c1 3d 2d af 9f be 34 71 74 3e
       0.045060847 0.09471538 -0.31188336 0.23871309
000140 a2 ee b5 be 68 a0 cc bf 8a 98 1f c0 80 47 42 bf
       -0.35533625 -1.5986452 -2.4936852 -0.7589035
000150 54 bc 27 bf e5 ac 58 c0 f9 ae 89 bc 5f 63 0c 3e
       -0.6552174 -3.3855526 -0.016807066 0.13709782
000160 09 cb b5 c0 a5 c9 2d bf 97 cb f6 3f 7c 57 db bf
       -5.6810346 -0.6788581 1.9280881 -1.7136073
000170 c2 8c a2 bf 19 d4 66 c0 ea d1 f4 bd c3 42 e5 3e
       -1.2699206 -3.6066954 -0.119541004 0.44777498
000180 b7 de 45 3f 07 14 16 40 3b 09 8d 3e 9c 78 8e 3e
       0.7729296 2.3449724 0.27546105 0.27826393
000190 cb 40 94 bf 01 54 d1 bf 3c ca 71 3f 97 7c 81 3f
       -1.1582273 -1.6353761 0.9444921 1.0116147
0001a0 f2 2c a9 bd 33 96 07 bf e9 b7 d7 be d5 2d bb be
       -0.08260526 -0.5296356 -0.421325 -0.36558405
0001b0 d0 06 01 bf a5 43 0b c0 2c 04 ca bf 75 aa 10 be
       -0.5040102 -2.1760037 -1.5782523 -0.14127524
0001c0 18 cd 04 3f c2 e0 a2 bf 8a 35 53 be 3e bb 9e 3e
       0.5187545 -1.2724841 -0.20625892 0.3100223
0001d0 b4 22 10 40 d5 ac c6 bf 69 eb 01 bf 44 7e 29 bd
       2.252118 -1.5521494 -0.5074983 -0.041380182
0001e0 6e 85 d1 be 98 95 2f c0 d8 b6 dd 3e 66 ba 59 bf
       -0.4092211 -2.7435055 0.4330356 -0.85050046
0001f0 83 41 e1 be c5 8f ea 3f f8 6d c0 3e f0 81 ac bf
       -0.43995294 1.8325125 0.375839 -1.3477154
000200 91 87 87 bf d5 89 fe bf c0 b6 4e 3f e7 79 81 bf
       -1.0588247 -1.9885813 0.80747604 -1.0115327
000210 f6 ca fc 3f 55 43 f2 3f 11 cf 79 3e 8d 6b c4 3e
       1.9749439 1.8926798 0.24395396 0.38363305
000220 7c c5 f8 3b 54 d6 fa 3e 1d ab 85 3f 22 58 d7 3f
       0.0075919013 0.48991644 1.0442845 1.6823771
000230 57 c0 74 be 05 2c fb 3e 6b 92 82 bf 2e 10 3f bf
       -0.23901497 0.49057022 -1.0200933 -0.74634063
000240 55 82 1e bf 12 b6 65 3f 6d a0 9b 3e 8b 04 44 bf
       -0.6191762 0.8973094 0.30395833 -0.7656943
000250 13 46 6a bf 48 b9 74 3f b3 5a 71 3f 92 ce 55 bf
       -0.91513175 0.95595217 0.9427902 -0.83518326
000260 fe db b2 3e 2e df c2 3f e8 c6 28 c0 c1 b8 5a 3f
       0.34933466 1.5224359 -2.6371403 0.8543816
000270 4b 5a 82 3d 49 1e 3e bf 24 b1 4b bf 13 84 04 40
       0.06364878 -0.7426496 -0.7956717 2.0705612
000280 be 42 e5 bf 91 fc 05 c0 4d 11 11 c0 5b 24 20 be
       -1.7910993 -2.0935404 -2.266681 -0.15638869
000290 b6 bd df bf 04 dd 98 bf 48 b7 31 c0 4a b9 c2 be
       -1.747977 -1.1942449 -2.7768116 -0.3803199
0002a0 6c 5a a4 bf 4c d3 07 c0 92 5e 91 bf 17 b8 f3 bf
       -1.2840095 -2.1222715 -1.1356986 -1.9040555
0002b0 e4 fd 03 c0 3e 39 c5 bf a5 03 50 c0 a4 bf d8 3e
       -2.0623713 -1.5408094 -3.2502224 0.4233371
0002c0 68 10 a4 be 29 df 22 3f 21 75 f0 bd 51 df d0 3e
       -0.32043767 0.63621765 -0.117410906 0.40795377
0002d0 30 29 46 3f 7c d7 05 3f 85 5e 0f c0 74 47 fb be
       0.774066 0.5228193 -2.240144 -0.49077952
0002e0 1f 87 61 3f af 78 bd 3e 69 a1 10 bd 6d 34 d6 bf
       0.88096803 0.37006137 -0.035310183 -1.6734749
0002f0 f5 8a 82 3f 52 e0 4f 3f 53 14 29 bf 29 59 a7 be
       1.0198656 0.8120166 -0.6604664 -0.3268521
000300 86 8d 31 3f c7 23 4a bf fd 4e 29 bd 43 39 d3 bd
       0.6935657 -0.7896084 -0.041335095 -0.10313656
000310 a2 53 aa 3f 33 90 ab bf 0f ad 82 be 51 97 03 bf
       1.3306773 -1.3403381 -0.25522658 -0.51402766
000320 88 c8 74 3f 99 48 cf be 1d 4d 9c 3e 4b 43 3a 3f
       0.95618486 -0.40485075 0.30527583 0.7275893
000330 37 e2 9a be c1 ba 46 3e be c5 96 bd a8 d9 88 bf
       -0.30250713 0.19407178 -0.07361935 -1.0691423
000340 2d 06 b0 3f 3f c1 4d bf 2e 55 be 3e 9c 26 f4 bd
       1.3751885 -0.80372995 0.37174362 -0.11921427
000350 18 d4 f8 3e e5 b2 0f bf 0b 74 85 bf 74 47 d0 3f
       0.48599315 -0.56132346 -1.0426039 1.6271806
000360 14 01 f8 3d 92 0e a7 bd fa 7c c3 3e 0e 66 fc 3f
       0.12109581 -0.08157076 0.38181287 1.9718645
000370 8f 77 db be 34 e4 7c be 11 d3 f6 be 8d da dc 3f
       -0.42864653 -0.24696428 -0.48207906 1.7254196
000380 45 7c 82 be 51 8e 60 3f 33 91 0e bf 53 2b cc bd
       -0.25485435 0.8771716 -0.55690306 -0.09969201
000390 a1 97 f3 bf fb a6 73 be d8 28 d4 3b d7 df 83 bd
       -1.9030648 -0.23794167 0.0064745955 -0.064391784
0003a0 ff ab 93 3e 54 1d 0f 3f 31 6d e0 3f 8a 49 92 bf
       0.2884216 0.55904126 1.7533323 -1.1428692
0003b0 42 1f d0 bf 84 50 90 3e 50 55 2e bf 86 ba bc 3e
       -1.6259539 0.2818643 -0.68098927 0.36861056
0003c0 2c 7a a8 c0 97 b2 f1 be cb 26 c0 bf 6a fb 84 3f
       -5.2649136 -0.47206566 -1.5011839 1.0389225
0003d0 ff 58 95 c0 c1 6d b2 bf 89 81 98 bf 98 18 ac 3f
       -4.667114 -1.3939744 -1.1914531 1.3445005
0003e0 c0 8d 17 c0 c5 94 a8 3e 83 29 0f c0 b4 7e 1f c0
       -2.3680267 0.32926002 -2.2369087 -2.4921083
0003f0 af cb 11 bf 0a ae 67 c0 8b ba 58 bf 1e 51 d8 3f
       -0.5695142 -3.6199975 -0.8465964 1.6899755

bias f4 [8]
000000 02 10 e2 bf d2 50 10 c0 f4 d9 49 c0 bf b5 d0 bf
       -1.7661135 -2.2549329 -3.1539278 -1.6305465
000010 07 b5 5d c0 d5 05 b4 bf 85 d0 14 c0 0b 86 e0 bf
       -3.464174 -1.406428 -2.325227 -1.7540907

weight f4 [1, 8]
000000 72 d8 96 3d c8 4f b0 be d8 78 9d be 25 08 58 be
       0.073655024 -0.34435868 -0.3075626 -0.21096857
000010 96 18 77 3e 58 34 2a bd 69 32 15 bd 98 24 aa be
       0.24130473 -0.041553825 -0.036425028 -0.33231044

weight f4 [4, 32, 32]
000000 73 2f 05 bf 3f 7f a2 3f 13 2a 50 3e 7c 38 92 be
       -0.52025527 1.2695082 0.2032855 -0.2855872
000010 0d 85 61 be e5 15 75 3e 29 5a ca 3e 79 00 64 3d
       -0.22023411 0.23934133 0.39521912 0.055664513
000020 6d a0 40 3d 6f 61 9d 3e 2e 52 fb be 81 4a 7b be
       0.047027994 0.30738398 -0.49086136 -0.2454014
000030 2b b2 0c 3e e5 5b 01 bf 02 26 b7 bf 56 31 b0 3f
       0.1373984 -0.50530845 -1.4308474 1.3765056
000040 f0 fb 24 be db 3c 35 3e 6e 52 b6 bf 38 5b af 3e
       -0.16111732 0.17698996 -1.4243906 0.34249282
000050 5a 3f b3 bf 74 d9 4e 3f 31 01 c7 bf dc af 00 40
       -1.4003708 0.8080056 -1.5547239 2.0107336
000060 3e 9c f2 be 8c 04 0c bf 00 06 99 3c 3f 6d 14 3e
       -0.47384828 -0.5469444 0.018679619 0.14494799
000070 04 ca d6 3e 02 5a 0f 40 bb da 3f bf 1a f6 08 3f
       0.41951 2.2398686 -0.7494313 0.5350052
000080 06 e1 8e 3f e3 95 11 40 de 1f 0e 3e 92 74 4b 3f
       1.1162422 2.2747734 0.13879344 0.7947475
000090 43 6e e7 3d 87 98 5e 3d 70 64 39 be bd 8a 10 3f
       0.11300328 0.05434468 -0.1810472 0.564617
0000a0 b3 d7 94 bf f9 91 97 be 55 71 ae 3d 49 48 94 be
       -1.1628326 -0.29603556 0.0851771 -0.289614
0000b0 40 40 b1 3e ae c1 f9 3e 54 cc d5 3f f5 56 5f 3f
       0.3461933 0.48780578 1.6702981 0.8724206
0000c0 40 fc 44 3f 50 d1 25 3d 69 5d 97 bf f7 e7 00 bf
       0.769474 0.04048282 -1.1825382 -0.5035395
0000d0 bc f0 24 3f 15 7e a9 3d d9 7c 43 3f ec f6 16 bf
       0.6442983 0.08276001 0.7636238 -0.5897052
0000e0 9c ba 9d 3e 98 bd 91 3f 55 e3 66 3d 90 6a ab 3f
       0.30806434 1.1385984 0.056369144 1.3391895
0000f0 eb 6f d5 bd e3 28 4f 3f 1e c1 31 3f 31 9a 57 3f
       -0.10421737 0.80921763 0.694353 0.8421965
000100 ec 50 99 3c 32 de b2 3e 7d 48 0a be 0a 6d 04 bf
       0.018715344 0.34935147 -0.13504215 -0.5172888
000110 88 1c 38 bf 79 fe 1e bf 3f ef cb bd 9d 05 5f bf
       -0.71918535 -0.62107044 -0.09957742 -0.8711794
000120 c7 8d 42 bd 9a 44 8e be 73 a7 7d be 60 51 0e 3e
       -0.04749849 -0.27786714 -0.24770908 0.1389823
000130 33 10 d7 be c1 55 9d 3b e5 6c ce 3e 8d 5d 85 3e
       -0.42004547 0.0048014824 0.40317455 0.26047936
000140 ae ec c9 be 3f fe ea bc f3 e9 5e bd b8 a0 19 bd
       -0.39438385 -0.028685687 -0.05442233 -0.03750679
000150 a8 db 26 bf 83 41 d3 be 43 07 ae be 25 1c 04 bf
       -0.6517892 -0.4126092 -0.33989915 -0.51605445
000160 8c 86 22 3d 58 fc f0 3d 5f ad 31 3e 36 6c d4 bd
       0.039679095 0.11766881 0.17351292 -0.10372202
000170 24 0a fe be 49 f8 e1 be ab 10 f7 bd 18 ae 12 3f
       -0.49617112 -0.4413474 -0.12063726 0.57296896
000180 d3 f7 28 bf 15 7a 28 bf 55 cb b2 bb d7 49 34 bd
       -0.6600315 -0.6581128 -0.005456368 -0.04401573
000190 fa 7c b2 be 07 f4 a1 3e 1d 9a 1a bf 84 e1 1a 3e
       -0.34860975 0.3163149 -0.6039141 0.1512509
0001a0 a2 ac 56 bf f6 ba 69 3d 55 a3 16 be 63 18 08 3c
       -0.83857167 0.057063065 -0.14710744 0.0083065955
0001b0 46 91 8d be d7 66 8c 3e 6a 66 2e bf 2f 98 eb 3e
       -0.27649897 0.2742221 -0.6812502 0.46014544
0001c0 07 b6 1c be 1f cd d4 3c 9d 5e ea be b9 1a 17 3c
       -0.15303813 0.025976716 -0.4577531 0.00922268
0001d0 24 19 16 be 6f 9b f0 3d 26 c9 33 bf 06 0c 29 3e
       -0.14658028 0.117483966 -0.70228803 0.16508493
0001e0 35 e2 00 bd e8 fd 1d 3f 7d ea e2 3e 69 32 f2 3e
       -0.031465728 0.61715555 0.44319525 0.47304085
0001f0 34 df 9d be 17 63 4f 3e db c0 3c bf 8e f0 74 3e
       -0.30834353 0.20252644 -0.73731774 0.2391989
000200 60 9c 50 bf 03 47 e2 be 4d 3f c6 3e 8b f8 1b be
       -0.8148861 -0.44194803 0.3872017 -0.1523153
000210 fb c6 83 3e f2 7e 86 3f 6c 6f 13 3e f3 c2 85 3d
       0.25737748 1.0507491 0.14397973 0.06531324
000220 61 01 98 3e 26 32 1c be d1 81 13 3d 59 67 7e bd
       0.29688552 -0.15253505 0.036012474 -0.06211028
000230 5a 9a f6 be 68 e4 54 bd 25 51 03 3e a9 c9 68 bf
       -0.48164636 -0.051975638 0.12823923 -0.9093271
000240 45 65 95 3e 20 f2 00 3e 2a e9 4d 3d 78 78 2b 3f
       0.29178825 0.12592363 0.05027119 0.66980696
000250 4a ba 8e 3d 71 17 6a 3e b3 c6 45 3f 9c 4d d0 bd
       0.069691256 0.22860505 0.77256316 -0.10171053
000260 0c 7f 8b be 62 4b 65 3f ef 2a fc 3e dc ed 81 3d
       -0.27245367 0.8956815 0.49251506 0.06344196
000270 bc c8 11 3e 3d 30 11 be 8a 0b 96 be e1 92 31 3f
       0.1423673 -0.14178558 -0.2930568 0.69364744
000280 f5 dc fd be 42 92 71 be 6c 7b 2a 3e 08 e6 27 bf
       -0.4958264 -0.23590949 0.16648644 -0.65585375
000290 ed f5 9d be 14 7c 9a 3f ab ba 2a bf 68 77 48 be
       -0.3085169 1.2069116 -0.6669108 -0.195768
0002a0 7e d8 64 3d 41 2f f1 3d 79 4f b6 be b8 05 4c bf
       0.055870526 0.11776591 -0.35607508 -0.79696226
0002b0 e7 e4 65 bf 69 8a 14 3e f6 fd 87 be 6b 6a 13 3f
       -0.898024 0.14505924 -0.26560944 0.57584256
0002c0 88 d2 4e 3e 51 07 8e 3e 18 b8 24 3e e4 e7 74 3d
       0.20197499 0.27739957 0.16085851 0.05979146
0002d0 34 1b 8e 3e 9a 80 9c 3d 0e 55 39 bf f2 82 49 3f
       0.2775513 0.07641716 -0.7239541 0.7871543
0002e0 82 6d 40 be 44 4c 73 bf 14 6f 5d 3e 95 f2 85 be
       -0.18791774 -0.9503825 0.21624404 -0.26161638
0002f0 d6 70 17 3d bc 18 21 be 1e 4f f6 bd 70 7f 0b 3e
       0.036972843 -0.15732092 -0.12026809 0.13622832
000300 b4 19 d6 3f d1 4f 1f 3f cd aa 03 bf 2e 2c 2f be
       1.6726594 0.62231165 -0.51432496 -0.17106697
000310 e7 f6 3c be 23 f4 57 3f a7 f9 41 bf 87 2e b3 3e
       -0.18453561 0.843569 -0.75771564 0.34996435
000320 2a b6 e6 3e 68 e8 31 3e ed 25 16 bf c0 3a b6 3e
       0.45060855 0.17373812 -0.5865162 0.35591698
000330 ad 91 ca 3e 4a ff f1 3e 1f eb 65 3f bc 71 23 3f
       0.39564267 0.47265083 0.8981189 0.6384542
000340 f8 d4 20 3f 0e 3d b7 3e d8 36 15 3f c3 f7 81 3f
       0.62824965 0.3578877 0.5828681 1.0153736
000350 bd 4e 82 bf fa 9c 3c 3e e7 0d 9d 3f 27 70 a2 3f
       -1.0180279 0.18419257 1.2269868 1.2690476
000360 f0 61 6f 3f 69 ec 06 3f f6 89 3c 3f f5 a5 20 3f
       0.93508816 0.52704483 0.7364801 0.6275323
000370 86 8c ab 3f 10 f6 aa 3f e9 ea ec 3e b0 dc b2 be
       1.3402259 1.3356342 0.46272972 -0.34933996
000380 48 9d 96 be d1 83 af bf 7f 9a df bc 3f 55 dd bb
       -0.2941687 -1.3712102 -0.02729535 -0.006754547
000390 cd 05 10 3f 0a 4c 14 3d 22 69 06 bf c7 f2 5e 3d
       0.5625885 0.03620533 -0.5250417 0.05443075
0003a0 eb d2 c5 bf b7 95 c0 bd 11 53 b6 3e 79 63 da 3d
       -1.5454992 -0.09403556 0.3561025 0.10663504
0003b0 2b d5 bb 3d 92 0c 2f 3e 8b 98 1f 3f fd 40 dd be
       0.09171518 0.17094639 0.6234214 -0.43213645
0003c0 57 54 88 be 54 62 5b 3c a2 1d 24 3e 22 1d 93 be
       -0.26626846 0.0133901425 0.16026929 -0.28733164
0003d0 3c 64 1b 3f 54 ea cd 3d d4 80 57 bf 46 e9 77 bf
       0.6069982 0.1005446 -0.8418095 -0.9684032
0003e0 c0 4d 13 b7 ca a8 6f 3d 51 ae 51 3d 19 db c2 3e
       -8.779985e-06 0.05851058 0.05119163 0.38057783
0003f0 8c 00 f8 3b b1 ad ff be 0c bd a9 3d de 65 1c be
       0.0075684246 -0.49937204 0.08288011 -0.15273234

w_comp f4 [200, 4]
000000 a9 2b 61 c0 c4 dd 23 bf 60 ba 6f bf 3e 28 e1 bf
       -3.5182898 -0.6401026 -0.9364376 -1.7590406
000010 2c b1 40 bf 77 eb 19 3e 4c 35 df bc 5a a9 63 be
       -0.7527034 0.15031229 -0.027247094 -0.22232571
000020 30 a2 e8 bd d0 65 29 3e 8a 5d 23 3f df 09 37 be
       -0.1135906 0.16542745 0.63814604 -0.1787486
000030 70 ee b3 3e b4 9d 06 3f 09 30 fc be f1 52 84 be
       0.3514285 0.52584386 -0.49255398 -0.2584453
000040 dc 8b a1 3e 50 56 a6 3e 37 f2 fc 3f 9b 49 bb 3f
       0.31552017 0.32487726 1.9761418 1.4631838
000050 10 cc d0 3f aa 7f a5 3f 14 0e f3 3e 94 82 85 3f
       1.6312275 1.2929585 0.47471678 1.0430474
000060 b7 e3 00 80 90 dd a9 ab 5b ae 97 2f 80 e1 cc 31
       -8.1689e-41 -1.2069668e-12 2.7590627e-10 5.962818e-09
000070 b0 fa 04 bf c4 77 84 bf f6 38 27 bf 67 ae 67 bf
       -0.5194502 -1.034905 -0.6532129 -0.9050049
000080 a4 58 8e bd 7e 8a 9e 3e a5 1c 71 3f 02 96 c2 bf
       -0.069505006 0.30965036 0.94184333 -1.5202029
000090 c9 c5 59 3f fb 9a d5 3e 57 fe 5d be c9 d2 c8 bf
       0.8506742 0.41719803 -0.21679054 -1.5689327
0000a0 50 8d e9 3d d0 6d 00 3f a3 a8 88 bf d8 80 0d bf
       0.11403906 0.5016756 -1.0676464 -0.55274725
0000b0 9b 20 0a be ed 51 12 3f 24 da e4 be c1 fa 5a bf
       -0.13489 0.5715626 -0.44697678 -0.8553887
0000c0 b3 1c a7 bf ba ea aa 3f 9b 8e 8c 3e 5c c5 9e be
       -1.3055633 1.3352883 0.2745255 -0.31009948
0000d0 11 39 86 be 3b e4 9f be cc 2f 9e 3e 17 38 27 be
       -0.26215413 -0.31228814 0.3089584 -0.1632999
0000e0 e7 62 e7 be 81 03 47 3d bc 79 c6 3d b1 ba b4 be
       -0.45192644 0.048587326 0.09691188 -0.35298684
0000f0 7f 4b 1d bf e9 68 5a 3e aa 36 84 3f c2 24 d7 3d
       -0.6144332 0.21329083 1.0329182 0.10505058
000100 c8 25 83 3d cf 62 8c 3f 4c 32 d6 3f ce 9b 53 bf
       0.064036906 1.0967654 1.6734099 -0.82659614
000110 4f 44 76 bf 2b 16 d4 be f3 68 0e bf c8 61 4f be
       -0.9619798 -0.41423163 -0.5562889 -0.20252144
000120 64 aa 18 bc 85 1c 40 3e 52 b3 00 bf f4 04 3d bc
       -0.009317968 0.1876088 -0.5027362 -0.011536825
000130 6a 30 38 c0 01 3e 0c c0 d4 7b 07 bf df 85 0e be
       -2.877955 -2.1912844 -0.5292332 -0.13918255
000140 5b be ca 3e 1d f3 da 3e d0 14 2d be f4 9a 17 3e
       0.39598355 0.42763606 -0.1690247 0.14805204
000150 e8 a4 0d 3f e4 cc ae 3d 63 fa ca bf 57 0e c1 3e
       0.5532975 0.085351735 -1.5857662 0.37706253
000160 4c 49 49 bd 51 90 c1 3e ea fc 84 3f 22 22 f1 3d
       -0.049142167 0.37805417 1.0389683 0.117740884
000170 2f c3 ed bf 47 12 42 bf 99 d6 21 bf 25 76 2a bf
       -1.857519 -0.7580914 -0.63218075 -0.66586524
000180 53 77 03 3e 87 c2 86 3e b1 69 69 bf 89 2d 23 bf
       0.12838487 0.26320288 -0.911769 -0.63741356
000190 85 2f 30 bf 71 9a 15 40 a0 50 e6 bd 68 3b d4 3f
       -0.6882251 2.3375514 -0.11245847 1.6580629
0001a0 6d fb dc be c4 e0 86 3d 8f e5 63 3f fb d5 4a bf
       -0.43160573 0.065858394 0.89022154 -0.7923276
0001b0 b2 25 4d 3e f7 ea 28 3c f1 61 e5 3d b9 b1 a7 bf
       0.20033911 0.010309926 0.112003215 -1.3101112
0001c0 a8 c2 14 bf 49 44 e9 3f a1 92 af be 8b e8 7d bf
       -0.5810952 1.8223964 -0.34291556 -0.9918296
0001d0 0c ac cb 38 dc 23 96 34 80 5a 6d 32 84 88 df ac
       9.7118405e-05 2.7965768e-07 1.3815793e-08 -6.3531975e-12
0001e0 63 dd 96 3f 4d f7 f2 be 05 bd 51 bf 94 22 b8 bd
       1.1786312 -0.474543 -0.81929046 -0.0899097
0001f0 96 e3 91 bf 61 6b fb 3f 5e b6 d1 3e 35 f6 85 bf
       -1.1397579 1.9642144 0.40959448 -1.0465761
000200 ad ce 88 3f 70 68 73 3e ad 06 81 3f e2 de b4 be
       1.0688072 0.23770308 1.0080162 -0.35326296
000210 20 37 a8 3e 9c b0 a9 be e4 ae 7e be 38 b2 7e 3e
       0.32854557 -0.33142555 -0.24871403 0.24872673
000220 f5 94 17 3f 9e 15 18 3f 33 e3 96 bc 7e f3 76 3e
       0.59211665 0.59407985 -0.018418884 0.24116322
000230 a8 f0 ee be af b5 13 be ab df f6 bc 63 97 7f bf
       -0.4666798 -0.14424776 -0.03013595 -0.9984037
000240 3e e6 bb bd be e0 f2 3f 70 ea 84 3f c4 d6 15 bf
       -0.091747746 1.8974836 1.0384045 -0.5853083
000250 fb b9 bb bd d3 1c 67 3e 23 32 58 3f ce 8a 13 3f
       -0.09166332 0.2256959 0.844515 0.57633674
000260 84 7e c6 3c 76 66 6b 3f b0 3b f9 3d 55 6c 03 3f
       0.02423025 0.9195322 0.121695876 0.51337177
000270 fa cb 08 c0 ab de 37 be 91 aa 70 bf 3c cf 33 be
       -2.1374497 -0.17956035 -0.94010264 -0.17559522
000280 a9 b8 c6 3e 2c 87 e1 3f f1 2b 59 bf e7 68 94 3c
       0.3881276 1.7619376 -0.84832674 0.018116428
000290 16 68 94 3f 0a 2f 0e 3f db ad 1f 3d b8 77 bc be
       1.1594265 0.55540526 0.03898416 -0.36810088
0002a0 62 78 21 3f 40 6e e7 3e de 16 ee 3e bc 92 76 3f
       0.63074315 0.45201302 0.4650182 0.9631765
0002b0 76 56 92 bd f1 38 07 3f 7d 33 da 3d 7d 25 14 bf
       -0.07145397 0.5282126 0.10654352 -0.578697
0002c0 3f fe 16 3f 3b 51 d5 3e 4d 88 de 3f d0 5e c4 be
       0.589817 0.41663536 1.7385346 -0.38353586
0002d0 88 6d 9d ac 0c 2f 00 80 f5 50 01 00 68 71 da ab
       -4.474369e-12 -1.6877e-41 1.20877e-40 -1.5521308e-12
0002e0 25 76 88 be a9 da 0f bf 78 b1 02 bf a9 69 87 be
       -0.26652637 -0.56193024 -0.51052046 -0.264478
0002f0 87 a5 5c 3f cb e8 83 bf 0c bd 73 3f fd 7f 82 3c
       0.86190075 -1.0305418 0.9521034 0.01593017
000300 b8 e3 19 3f 38 3d 75 3f b7 98 27 3f 55 9e b1 bd
       0.60113096 0.9579654 0.654674 -0.086727776
000310 88 cd ef 3e 8a 58 0d 3f fb 5a 2c 3d 3a 65 43 3d
       0.46836495 0.55213225 0.042078953 0.04770396
000320 02 94 f3 3e 37 4d c1 bc 5b e6 71 3e 29 ac 0b bf
       0.47573858 -0.02359639 0.2362303 -0.5455957
000330 24 89 21 3f 13 f0 5c 3f f1 fc 1f 3f 4b 55 40 be
       0.63099885 0.86303824 0.6249533 -0.18782537
000340 d4 d2 ab 3e 41 78 e4 be 16 21 af be d8 3a 9e be
       0.33559287 -0.44622996 -0.3420493 -0.3090427
000350 7c 7c 85 be 7d 76 5d 3e f8 63 44 be 76 83 85 be
       -0.26071537 0.21627231 -0.1917876 -0.2607686
000360 2f ed 57 3f 4f 02 60 3f d4 73 7b 3f 15 83 7f 3f
       0.8434629 0.8750352 0.98223615 0.9980939
000370 f4 b7 b6 3d 0b 76 4e bf 4a a6 8a be 05 28 21 bf
       0.08921805 -0.8064887 -0.27079993 -0.6295169
000380 48 89 a2 3e 4f 3e a7 3e 47 aa 92 be da c5 eb be
       0.31745362 0.32664725 -0.28645536 -0.46049386
000390 c0 cf ac be b0 cf bf 3e 14 14 6a 3c dd 60 c8 be
       -0.3375225 0.3746314 0.014287014 -0.391364
0003a0 72 f6 79 bd e9 b4 08 bd 1b 4c 99 bf fd fc 17 3f
       -0.061026044 -0.033375654 -1.197635 0.59370404
0003b0 18 b1 8b 3e 10 17 68 3f a7 74 29 3c a5 e0 61 3f
       0.2728355 0.9066019 0.0103427535 0.88233405
0003c0 25 47 28 bf bb 4c a0 bf ac b9 a1 3f ae 1d e6 be
       -0.6573356 -1.2523416 1.2634788 -0.4494452
0003d0 6d 2f 2a 3f ee fb 41 be 90 1c e7 3e 14 c0 7e bf
       0.66478616 -0.1894376 0.4513898 -0.9951184
0003e0 59 a1 4e 3e 89 e0 da 3d 4c c8 b6 3d f4 a3 72 a4
       0.20178737 0.10687358 0.08924922 -5.261426e-17
0003f0 b0 b4 ad be e0 33 b9 3f 0a fb bb 3e 95 12 43 bd
       -0.33926916 1.4468956 0.36714965 -0.047625143
