experiments/grail_wn_v1/best_graph_classifier.pth (torch, 101996 bytes, 21 tensors)

weight f4 [9, 32]
000000 71 a4 8a bd d0 0a b7 3d e2 6c 46 3c bf 8c 98 be
       -0.06769646 0.08937609 0.012110921 -0.2979488
000010 26 c2 76 3e 61 c2 ae 3e 69 41 be be a8 ec 08 be
       0.24097499 0.34132674 -0.3715928 -0.13371527
000020 07 79 95 be 07 fa 51 3e b8 9e 24 3d 72 ee ab 3e
       -0.291939 0.20505534 0.04019043 0.33580357
000030 59 0c 82 3e 1e 92 b2 be 14 41 08 be 2f b6 a4 3d
       0.25400046 -0.34877104 -0.13306075 0.08042561
000040 ef 63 e8 3e 56 d6 b7 3d a6 ff 92 bd de 03 bb be
       0.45388743 0.08976428 -0.07177667 -0.36526388
000050 4f a2 64 3e 4d df aa be b6 c4 25 be 54 42 50 3e
       0.22327541 -0.3337349 -0.1618832 0.20337802
000060 12 65 a7 3e 0a cf 3c be e0 86 b6 3e f6 fe c2 be
       0.32694298 -0.18438354 0.35649776 -0.38085145
000070 0f 94 b6 3e c4 88 35 3e 28 41 84 be 4c 63 6a be
       0.35659835 0.17727953 -0.2583096 -0.22889441
000080 52 d4 a5 be a5 24 7d be 2f 1a 39 3f 54 66 81 bc
       -0.3238855 -0.2472101 0.7230558 -0.015795864
000090 9b 1e 4f 3e 1e 73 84 bb 0c 57 88 bd 21 17 82 be
       0.20226519 -0.0040420434 -0.06657228 -0.2540827
0000a0 74 f1 18 bd b8 78 2a bc 30 9a 16 3f ba 80 1e 3d
       -0.037339643 -0.010404758 0.5882902 0.038696982
0000b0 f7 12 ab 3a 8c 3c 8e bc 5e bd 98 be 3e e0 68 3e
       0.0013051917 -0.017362855 -0.29831976 0.22741792
0000c0 76 33 88 3c 91 75 2b 3f 91 fe ec be 37 84 90 be
       0.016626101 0.6697627 -0.4628797 -0.28225872
0000d0 de 55 aa bf 5d 47 52 bd f6 74 07 3f 09 33 5e 3d
       -1.3307455 -0.05133759 0.52912843 0.05424789
0000e0 8e e0 40 3e 89 20 b6 3f 4d c5 dc 3d e6 66 ed bd
       0.18835661 1.4228679 0.1077982 -0.11591892
0000f0 09 8a 81 3e 5e 30 05 3f ec 19 cb 3d 98 15 70 be
       0.25300625 0.5202693 0.099170536 -0.23445737
000100 f7 91 b3 bc da 34 be 3e 29 04 bc be 68 66 fd bd
       -0.021920187 0.37149698 -0.36721924 -0.12373048
000110 30 0e cb 3d db 3d 59 3e 3d 16 bf bd 6f d9 d6 3c
       0.099148154 0.21215002 -0.093304135 0.026226727
000120 95 c8 87 bd bf 26 1f 3e 80 ad 21 bf b6 b9 f2 3c
       -0.06630055 0.15542124 -0.63155365 0.02962957
000130 1a 83 65 3e 21 43 73 bc 25 9b 02 bd d1 95 42 be
       0.22413293 -0.014847548 -0.03188624 -0.19002463
000140 59 57 80 3e fe 6a 04 bf fe 5d d7 3e d6 e1 92 bb
       0.2506664 -0.5172576 0.42063898 -0.004482488
000150 d6 51 0f 3f 05 27 f5 bd d5 4d c6 be 28 88 2f 3e
       0.55984247 -0.11970333 -0.38731256 0.17141783
000160 0c 79 ec 3c 6d 99 21 bf 22 b2 f2 3c 99 96 d1 bc
       0.028866313 -0.63124734 0.029625956 -0.025584506
000170 2f 56 b0 3c 8b 52 df be 95 bc 3b be a3 01 83 bd
       0.02152547 -0.43617663 -0.18333657 -0.063967966
000180 b2 59 bf 3e 90 e8 bc 3e 6e 12 a4 be 38 a6 f4 3e
       0.3737312 0.3689618 -0.3204531 0.47783065
000190 08 d2 cd be 59 1b 05 bf 78 a6 dc 3e 13 30 d6 3e
       -0.40199304 -0.51994854 0.43095756 0.41833553
0001a0 a6 15 db 3e 88 3c 0a bf 68 dd 8c be 4a dd aa 3e
       0.42789954 -0.53998613 -0.2751267 0.33371955
0001b0 fa 9b f5 be f0 21 a6 be 1e ac cb 3e f9 a6 c2 be
       -0.47970563 -0.32447767 0.39779752 -0.38018015
0001c0 6b 00 fa be c6 64 ac be 35 23 4b 3e dc be c3 3e
       -0.48828444 -0.33670634 0.19837649 0.38231552
0001d0 cf e3 17 3e 6b 5d f0 3e 2f 70 8c be 55 81 01 bf
       0.14832996 0.46946272 -0.2742934 -0.5058797
0001e0 f4 ce c2 be d4 f1 1d be 08 93 ce be 6a 5d cd 3e
       -0.38048518 -0.15424281 -0.4034655 0.40110332
0001f0 9e 96 d2 be 1e 06 ae be 1c da 11 3f 14 ce bc 3e
       -0.41130537 -0.33989042 0.56973433 0.36875975
000200 cc 87 d6 3d 5a 8b dc 3d 81 75 09 bf 90 2e ef 3d
       0.1047512 0.10768767 -0.5369492 0.11678803
000210 71 a0 1f 3c 27 f3 65 3d d8 d9 14 3d a9 fd 5e 3e
       0.009742842 0.05614009 0.036340564 0.21776451
000220 ad 77 24 3c d7 d2 4c 3e 22 9c d7 be f9 2d 45 3e
       0.010038299 0.20002304 -0.42111307 0.19255818
000230 4f 4f 02 3d 5a ad 3d be dc 63 98 bc 36 68 c4 bd
       0.031813916 -0.1852316 -0.018602304 -0.09590189
000240 d5 82 79 3c 98 cc 05 bf 15 1b f0 3e f5 0f 43 be
       0.015228947 -0.5226531 0.46895662 -0.19049056
000250 be bd 30 3f ed 9a f4 bc 05 26 68 be 85 f0 5c 3e
       0.69039524 -0.02985903 -0.22670753 0.21576126
000260 a1 ed f1 bd a5 61 37 bf 28 9d 51 3d 1f d2 7c bd
       -0.11812902 -0.7163337 0.051175267 -0.061723825
000270 a2 62 6e 3e e0 f4 de be 78 ee dd bd d1 01 a9 3c
       0.23279813 -0.435462 -0.108365 0.020630749
000280 0e 9a 25 3f 5c 98 ff 3e fb c5 9e be a4 80 3b 3f
       0.64688194 0.49920928 -0.31010422 0.73243165
000290 b8 c3 1c bf 60 0d 40 bf 58 e3 2e 3f 91 e5 60 3f
       -0.61236143 -0.7502041 0.6831565 0.8785029
0002a0 d5 46 1f 3f 9f fc 43 bf d6 22 88 be 86 95 ae 3e
       0.62217456 -0.76557344 -0.26589078 0.34098452
0002b0 5c 1d 6a bf 6b c6 aa be cf 49 3b 3f 00 96 e0 be
       -0.9145105 -0.33354506 0.731595 -0.4386444
0002c0 22 4c 32 bf f4 88 9f be a3 ec 8d 3e eb e9 8d bd
       -0.6964742 -0.31159174 0.27719602 -0.06929382
0002d0 c9 1b 30 3e fc c4 4f 3f 7c 13 99 be fd c6 38 bf
       0.17198099 0.8115995 -0.29897678 -0.7217863
0002e0 b2 6c f2 be 5d 6b 3c be 06 29 ee be d6 74 04 3e
       -0.47348553 -0.18400331 -0.46515673 0.12935194
0002f0 c1 1a 8f 3d b9 d5 b4 be 4b ce 3d 3f ee 8e 39 3f
       0.06987525 -0.35319307 0.74142903 0.7248372
000300 8b ff 97 be 59 0c 99 be 74 2b a8 3e 68 b6 0c bd
       -0.2968715 -0.29892233 0.32845652 -0.034353644
000310 45 c4 94 3e 8b 6b 37 be 23 a8 8b be df 8c a4 be
       0.29055992 -0.17912118 -0.27276716 -0.32138726
000320 3a 52 85 be 8b cc 89 be ad c2 a7 3e f7 97 7d bc
       -0.26039296 -0.26913866 0.32765713 -0.015478126
000330 6a b5 11 3e c9 bb b3 3d e6 e6 99 be b5 be 99 3e
       0.1422936 0.087760516 -0.30058974 0.3002831
000340 17 bc 89 be 44 42 a8 3e 7c 43 a8 be a4 a0 84 be
       -0.26901314 0.32863057 -0.32863986 -0.2590381
000350 81 c4 bd be 8f a3 7a be 4f 6e 92 3e 88 8d 63 3e
       -0.37063983 -0.24476455 0.28599784 0.22221959
000360 14 44 94 3e d4 f2 bb 3e 07 5d 98 3e dd 19 a9 be
       0.2895819 0.367087 0.29758474 -0.33027545
000370 a8 f1 39 3e 35 f6 a0 3e 93 19 b1 3e f8 cf 9b be
       0.18158591 0.3143784 0.34589824 -0.30432105
000380 c1 5a 80 3e 22 ec 73 3e 6f 1f 90 be 15 3d 6b 3c
       0.2506924 0.23820546 -0.28148982 0.014357825
000390 03 5e 5b be f5 aa c3 3d ef 3f 36 3e 0e 34 3e 3e
       -0.21422581 0.09554092 0.17797826 0.18574545
0003a0 5d 3b 47 3e 86 c3 43 3e da 75 7a be 6c c8 09 be
       0.19456239 0.19117555 -0.2445902 -0.13455361
0003b0 63 5f b9 bd 37 21 f2 3d 5e eb 61 3e e6 e9 74 be
       -0.09051397 0.118227415 0.22062442 -0.2391735
0003c0 42 5f 26 3e d7 69 7a be 29 f9 7c 3e 2b 36 ed 3d
       0.16247275 -0.24454437 0.24704422 0.11582597
0003d0 b2 c7 87 3e 7a 5a 08 3e a3 db 7e be 1b f0 32 bd
       0.26519543 0.13315764 -0.24888472 -0.043686014
0003e0 25 da 59 be 57 b7 7b be 94 34 2d be 29 d8 18 3e
       -0.21274622 -0.24581657 -0.16914588 0.14926209
0003f0 5e 3d ca bd 6c bd 7e be 45 0a f7 bd 32 0e 74 3e
       -0.09874986 -0.24876946 -0.12062506 0.2383354

weight f4 [4, 8, 32]
000000 52 21 0d bf 37 75 cc 23 b8 ac 00 80 70 30 2e 3c
       -0.5512897 2.2167367e-17 -6.196e-41 0.010631666
000010 51 e2 49 3e 35 d8 1f bd ee 96 dd bb 0e 8c 90 3e
       0.19715239 -0.03902455 -0.006762377 0.28231853
000020 e9 59 79 3f 3b e0 47 3b 19 4d e7 3b 88 67 df 30
       0.97402817 0.0030498642 0.0070587513 1.6254811e-09
000030 22 f1 3e 3c ba 7a f0 2c dc 42 47 a7 fc dd 65 30
       0.01165417 6.8348356e-12 -2.7653042e-15 8.3625173e-10
000040 7e 5e 40 3e ec 8b 17 3d b7 a0 cb b7 e0 31 ba 3d
       0.18786046 0.036998674 -2.4274324e-05 0.09091544
000050 6b 05 f6 3c 45 94 4b bf f1 36 6e 3a 14 1c 00 00
       0.03003188 -0.79523116 0.00090871664 1.0073e-41
000060 d2 09 01 80 30 14 01 80 dc 40 4d ac 8a 16 6f be
       -9.5358e-41 -9.9077e-41 -2.9168256e-12 -0.23348442
000070 75 97 7f be bf 24 86 32 65 70 4b 3f b0 2e 6d 3e
       -0.2496012 1.5616363e-08 0.79468375 0.23162341
000080 95 40 98 bd be 3b 6c 15 be a5 00 80 6b 7a 1e 3d
       -0.07434193 4.770695e-26 -5.9457e-41 0.038690966
000090 51 90 e0 3e 6d 37 8e 3e 60 90 eb 3e be 99 a1 3d
       0.43860105 0.27776662 0.46008587 0.07890652
0000a0 c3 5f b3 3c 50 6d 0f 3d db a9 5c bd f6 4a de 9b
       0.021896249 0.035016358 -0.053872924 -3.6775262e-22
0000b0 b3 49 6a 3c e0 14 77 31 b9 e6 04 26 15 a6 5e 1b
       0.014299798 3.5955097e-09 4.6109387e-16 1.8417074e-22
0000c0 02 41 d3 3c 1f 38 f8 bd 65 a6 29 2f 0f c6 64 bf
       0.025787834 -0.12120079 1.5429576e-10 -0.89364713
0000d0 45 6c c1 bd 60 47 02 bf e9 02 34 3d 2b 35 01 80
       -0.09444479 -0.5089016 0.043948088 -1.10909e-40
0000e0 72 6f a4 0b 73 5f 01 80 a1 9e 09 29 9f 6e d4 3e
       6.3338186e-32 -1.26076e-40 3.05577e-14 0.41490647
0000f0 8d 91 6e bd cd a4 f4 bd 57 10 93 be f5 b5 11 3e
       -0.058244277 -0.11945496 -0.28723404 0.14229567
000100 77 b0 83 be 4b 01 fc 10 ea 7f 00 80 e7 d1 d9 38
       -0.2572057 9.9398466e-29 -4.5887e-41 0.00010386464
000110 bd 37 33 3f 0f 75 41 bc fb 78 99 be 38 93 20 3e
       0.70006925 -0.011807694 -0.29975113 0.1568116
000120 6b d3 87 3c 27 d4 33 3d 7d 4b bf be 88 ff 0c 1c
       0.016580304 0.043903496 -0.3736228 4.665238e-22
000130 75 4c d7 3c ab e5 6a 30 13 37 8e 16 78 7f af 1a
       0.026281575 8.545508e-10 2.2976094e-25 7.258424e-23
000140 5b 69 25 3d 63 65 6c 3e 5b 2f d6 b0 0f 38 2a 3d
       0.040383678 0.23085551 -1.5584009e-09 0.041557368
000150 b1 b1 06 ba 24 3f dc be c7 fc e6 3d 79 05 00 00
       -0.00051381724 -0.43016922 0.11278682 1.963e-42
000160 78 89 00 00 ac 4e 00 80 ca 14 d0 2e 13 ef e2 3e
       4.9314e-41 -2.8222e-41 9.462438e-11 0.44323024
000170 45 87 a3 be 9f f3 3f 3e cc d5 86 bf 71 4b 4a b1
       -0.3193914 0.18745278 -1.0533996 -2.9437752e-09
000180 73 a0 ca 3d 01 40 00 00 2e 1c 01 80 7b 50 d4 35
       0.098938845 2.296e-41 -1.01944e-40 1.5818654e-06
000190 72 36 e2 bd 5b 49 34 3b b6 5e 29 3b 7b 60 b7 3e
       -0.11045541 0.0027509544 0.0025843806 0.35815796
0001a0 f3 68 4c 27 d2 d5 81 a3 9d 81 1a be 86 6f b5 9b
       2.836758e-15 -1.4076764e-17 -0.15088506 -3.0016009e-22
0001b0 cf fd 47 b4 09 1e 7c 89 00 84 00 80 80 97 10 15
       -1.8625654e-07 -3.034752e-33 -4.7353e-41 2.920008e-26
0001c0 e7 01 12 bd 89 6d 61 3e 34 4d 85 9c 57 b2 1f 3c
       -0.035646345 0.2201444 -8.821158e-22 0.009747109
0001d0 33 91 be 3a d4 c5 38 bd 66 b6 f9 b1 c1 21 01 80
       0.0014539122 -0.04511054 -7.26759e-09 -1.03944e-40
0001e0 aa 85 00 80 7a 37 00 80 e9 20 00 80 83 f0 d6 3d
       -4.795e-41 -1.9901e-41 -1.1806e-41 0.10495093
0001f0 f7 4b d6 3d 16 6a fe 3d 33 e0 a2 be b0 a3 8f a0
       0.10463708 0.12422578 -0.31811675 -2.4333462e-19
000200 0a 58 79 bf eb 14 cb 87 9d 44 00 80 c4 33 4e b4
       -0.9739996 -3.055634e-34 -2.4614e-41 -1.9204077e-07
000210 bc 05 52 3e 37 91 19 3e a2 aa 89 39 d4 91 88 bc
       0.2051 0.14996801 0.00026257808 -0.016671099
000220 c4 7a 87 3c 9d 60 66 3c d9 eb 90 3e 3f cf 00 80
       0.016538031 0.01406112 0.28304937 -7.4346e-41
000230 7d 8f 61 aa bd 84 4c 25 44 6a 0b 90 d7 42 01 00
       -2.0033797e-13 1.7739153e-16 -2.749478e-29 1.15813e-40
000240 2d e6 36 94 89 2e 99 bd 64 7d 00 80 90 dd 72 bf
       -9.234046e-27 -0.07479579 -4.4982e-41 -0.9486933
000250 7e 6d c3 bd 76 7e 9e bf 6c bc b0 3d fa 30 01 00
       -0.09542368 -1.2382343 0.086296886 1.09405e-40
000260 21 5d 94 00 3b 09 00 00 64 b1 dd 89 8c cc 70 3e
       1.3625062e-38 3.311e-42 -5.3370632e-33 0.23515528
000270 fb af 7f bf 90 b3 8e 3c 1d 6c ab bf 49 d3 12 3e
       -0.998779 0.017419606 -1.3392369 0.14338411
000280 77 1a 5e 3e c8 d6 fb 2a b7 e7 00 80 d8 f0 86 3c
       0.21689783 4.473559e-13 -8.3124e-41 0.016472265
000290 c0 b3 1e 3f 9f 5a 6f ba 45 af 47 3e 6e 43 fc 3e
       0.61993027 -0.000913063 0.19500454 0.49270195
0002a0 1c 21 77 3f 81 e9 b2 3d 76 f0 5c be 13 7b 51 b2
       0.96534896 0.087359436 -0.21576104 -1.2193385e-08
0002b0 c0 fa b2 3b 85 9f 01 37 33 66 60 2e ca 37 d2 34
       0.0054620206 7.72614e-06 5.1022474e-11 3.915614e-07
0002c0 cd 12 7a 3e e6 30 9c 3e 41 80 76 b6 85 bd 64 3e
       0.24421234 0.30506057 -3.673151e-06 0.22337921
0002d0 e2 24 b5 3d ad 59 8d 3e 7b 00 28 3e 12 64 01 00
       0.088449255 0.2760748 0.16406433 1.27734e-40
0002e0 da b2 17 18 ae e8 24 8b 98 69 9f 32 49 a5 f1 3e
       1.960659e-24 -3.17603e-32 1.8558055e-08 0.47196415
0002f0 c1 e6 1c 3f 49 5a 74 3e 74 3f 8d 3e 34 d7 60 3e
       0.612896 0.23862566 0.27587473 0.21957093
000300 0e ca b6 bd 9a 92 40 1e f6 a5 01 00 9f 39 69 3d
       -0.089252576 1.0194712e-20 1.51371e-40 0.056939717
000310 2f e4 1e 3f 5e 1c 47 3d 28 8f 17 be 67 82 ad 3d
       0.6206693 0.048611037 -0.14800704 0.08472138
000320 08 2b 87 3c 06 89 c0 b2 e4 ad e9 be 00 62 bb 18
       0.016500011 -2.2414053e-08 -0.4564048 4.843732e-24
000330 45 51 0e bc 63 a2 c8 2e 70 a6 40 8e db 83 d7 1b
       -0.008686368 9.123793e-11 -2.3745964e-30 3.5653976e-22
000340 b5 6b 06 3e cd 70 3d 3e 60 f2 b8 24 da 59 26 3e
       0.13127024 0.18500061 8.020788e-17 0.16245213
000350 cf b5 97 3d 4d 90 24 bf 15 71 48 be 8a 1d 01 80
       0.07407724 -0.64282686 -0.19574387 -1.02432e-40
000360 3a c2 30 8a e6 56 00 00 48 e8 99 a8 ae c7 32 3e
       -8.510622e-33 3.1173e-41 -1.7087148e-14 0.17458984
000370 ce ff 6a be 08 a9 04 3e ec fc cc be fa 42 6c b1
       -0.22949144 0.12955105 -0.40036714 -3.4380592e-09
000380 fc 4b fa 35 39 78 01 80 3f 66 00 00 68 7c 00 80
       1.8648566e-06 -1.34963e-40 3.6679e-41 -4.4629e-41
000390 f1 a3 91 bc ab 2d 95 3d 19 ba 31 3e c3 a0 ab 3c
       -0.017778369 0.07284101 0.17356147 0.02095068
0003a0 9e 5d 8c 32 5b a9 01 80 d4 ec 51 bd 05 0b 00 80
       1.6340717e-08 -1.52589e-40 -0.051251248 -3.953e-42
0003b0 42 54 01 80 98 89 00 80 f1 21 01 00 39 19 01 80
       -1.22062e-40 -4.936e-41 1.04011e-40 -1.00884e-40
0003c0 da d1 0d 3b 39 ba ac 3c f9 18 35 13 fb 88 ec b5
       0.0021639974 0.021084892 2.2857724e-27 -1.7623237e-06
0003d0 28 f7 17 ab e5 53 68 bd 6f d1 8f bb 40 11 10 00
       -5.3988975e-13 -0.056720633 -0.00438898 1.475556e-39
0003e0 ce 8a 00 80 2a 3d 00 80 0b d2 00 80 c8 6b 48 bc
       -4.9794e-41 -2.1942e-41 -7.5349e-41 -0.012232728
0003f0 7f 92 8d 3d 16 bf 17 3d 69 98 9e be 8c cf 13 1a
       0.069127075 0.037047468 -0.30975655 3.0566543e-23

w_comp f4 [9, 4]
000000 bb 3c a0 bd a8 9f cd 3e 7b cf 90 3f 6a c0 92 3d
       -0.078240834 0.4016087 1.1313318 0.07165606
000010 4f 26 53 bf 89 15 6f 3f 64 97 5e 3f a3 7c e7 be
       -0.8248033 0.93392235 0.86949754 -0.45212278
000020 83 55 38 3e 16 9a f1 bd 58 87 48 3f ec 36 50 bf
       0.1800137 -0.11796968 0.7833152 -0.81333804
000030 be 59 44 3d 64 b2 2a 3e 82 3d b9 3e 78 de 18 bf
       0.047937147 0.16669613 0.3617974 -0.5971446
000040 88 ae c3 be a5 8f dd 3f 65 c1 85 bf 09 fa 9c bf
       -0.38219094 1.7309462 -1.0449644 -1.2263805
000050 82 43 f0 3e 74 3b 80 bf 23 06 08 40 20 ad af 3e
       0.46926504 -1.0018144 2.1253746 0.3431177
000060 db 84 10 3f 6d 19 0d bf 2d 98 37 bf 3b 9a 1d bf
       0.5645272 -0.5511692 -0.71716577 -0.6156346
000070 cd 6d 48 3f c4 d5 44 bf 09 dc 0f bf fc cb 03 be
       0.7829254 -0.7688868 -0.5619512 -0.12870783
000080 0e b3 70 39 76 e9 34 bc 17 70 d2 3c f6 ca ac 3a
       0.00022954887 -0.01104199 0.025688214 0.0013183046

self_loop_weight f4 [8, 32]
000000 a3 98 10 3d e1 0b ae b1 d3 06 5b 82 24 96 08 bb
       0.035301816 -5.065417e-09 -1.6091537e-37 -0.0020841444
000010 92 92 1f bf a6 1c 23 3c 0b 98 00 00 fc 78 88 3d
       -0.62333024 0.009955561 5.4543e-41 0.06663701
000020 d3 43 45 be 80 83 74 bd 96 1d 00 00 92 b5 00 80
       -0.19264154 -0.05969572 1.0613e-41 -6.5135e-41
000030 8f b7 40 bd 61 2d bd 39 9c f9 53 ba ec 21 b3 1f
       -0.047050055 0.000360827 -0.0008086206 7.586557e-20
000040 0f 09 95 be 32 ac e5 3e 18 c2 a6 2c 1e 11 51 bd
       -0.29108474 0.44857937 4.7395525e-12 -0.051041715
000050 b7 26 05 bd b7 17 5e 3f 13 0f 90 a6 36 ec b1 b7
       -0.032507624 0.86754936 -9.996093e-16 -2.1210039e-05
000060 a5 a6 05 0b 28 40 01 00 ee 6b b4 b8 36 be 9f bf
       2.5740238e-32 1.1485e-40 -8.603172e-05 -1.2479923
000070 37 69 8b bc 3e e0 87 bd a2 ff ac 3f ca 8f 30 b5
       -0.017017944 -0.06634568 1.3515513 -6.577435e-07
000080 5c 19 a1 be 8c 97 21 bb d8 e6 fc aa 89 ff 0a bd
       -0.3146466 -0.002465698 -4.4924372e-13 -0.033935104
000090 05 e5 8c 3f 17 91 8b bd 8b 5c 09 bf 04 8e de be
       1.1007391 -0.06814783 -0.53656834 -0.43467724
0000a0 6b e4 0d bd b8 44 af be f4 02 45 3f 02 f0 f4 b8
       -0.034641664 -0.34232116 0.7695763 -0.000116795316
0000b0 06 9f 00 be 94 0b a3 ba aa 42 cb ba 8b ed 3a bc
       -0.12560663 -0.0012439364 -0.0015507538 -0.011409174
0000c0 db a2 d1 be e0 b5 67 bf d0 84 d3 b9 dc 18 4e bf
       -0.4094456 -0.90511894 -0.0004034401 -0.8050668
0000d0 89 92 5f be 06 96 01 c0 fb 55 bc be f0 4f 96 a6
       -0.21833242 -2.0247817 -0.36784348 -1.0430008e-15
0000e0 aa d4 11 b6 02 46 9a b1 b0 84 35 bc 8f 5d 43 3f
       -2.173047e-06 -4.489949e-09 -0.011078998 0.76314634
0000f0 94 8b 63 bf 0a 22 2e bf 55 4f bf 3e fc 8c b5 be
       -0.88884854 -0.6802069 0.37365213 -0.35459125
000100 96 c9 13 3f 90 35 0b ba 41 86 00 00 b4 7b 4e bd
       0.5772947 -0.00053104106 4.8161e-41 -0.05041094
000110 26 00 86 bf f4 5c c3 be aa 30 66 bd d3 81 93 3c
       -1.0468795 -0.38156855 -0.056198753 0.018006241
000120 4b ba 89 be 32 15 9d be 9a 3b ab bf c8 13 44 b3
       -0.26899943 -0.30680233 -1.3377564 -4.5652797e-08
000130 6d fb 4e bd ce 35 84 b7 40 a9 69 b5 78 14 3f 9d
       -0.050532747 -1.5760681e-05 -8.7045555e-07 -2.5289222e-21
000140 cc a3 72 3d 57 d5 0f 3f 7b da 2c bb 18 ee 42 3d
       0.05923824 0.56184906 -0.0026375342 0.047590345
000150 c1 ff 63 bd 2c 5c 12 3f ec 47 fb be cb 5f b0 af
       -0.055663828 0.57171893 -0.4907831 -3.2082279e-10
000160 b4 21 eb b5 2f 37 0a 94 c2 60 13 ba 9e 05 2c 3e
       -1.7518673e-06 -6.9781026e-27 -0.0005622023 0.16799018
000170 ab 6e 00 3f 88 97 e3 bd b2 70 d8 bf 2c d0 1d b8
       0.50168866 -0.11112887 -1.6909392 -3.7625592e-05
000180 a8 43 46 3f 9d 56 2e b5 03 ff 56 ad b6 02 25 bb
       0.77446985 -6.494609e-07 -1.2221116e-11 -0.0025178618
000190 96 41 30 3e c1 67 b1 be da bc 74 3f d2 05 15 3f
       0.17212519 -0.3464947 0.95600665 0.58212006
0001a0 1b 2b 34 be ca cc 11 3e dd 2d d3 bf ce 94 34 b8
       -0.17594568 0.14238277 -1.6498371 -4.305393e-05
0001b0 29 38 32 3d 11 38 36 35 19 f8 6e b6 3e 99 c9 15
       0.04351059 6.788187e-07 -3.5609175e-06 8.142503e-26
0001c0 c4 ce 13 3d 81 47 59 3f db 16 76 b6 d2 7f 11 3c
       0.03608586 0.8487473 -3.667016e-06 0.008880572
0001d0 72 b7 4d bd 35 40 31 bc 0d 00 be be 9a 12 0d ad
       -0.050223775 -0.010818531 -0.37109414 -8.0190524e-12
0001e0 3b 64 f0 b2 8b d1 1e 90 85 5b 3e b9 d1 c5 83 3f
       -2.7985257e-08 -3.1321432e-29 -0.00018153906 1.0294744
0001f0 54 66 ac 3e 5b d9 8d be d4 2e 0f c0 cf 6d 12 25
       0.3367182 -0.27704892 -2.2372332 1.2700686e-16
000200 0d 96 23 bf 84 52 bb b1 2a 13 01 00 05 71 c3 bb
       -0.63900834 -5.4517972e-09 9.871e-41 -0.0059644007
000210 cf 9e c6 bf 1a 03 87 bd 5b f3 1e 3f 49 cb d6 3c
       -1.5517215 -0.065923885 0.6209008 0.02621998
000220 b2 bb 93 bd 93 cc bd b0 ca ed 69 bf 06 0c 21 b8
       -0.072135344 -1.3809703e-09 -0.9137846 -3.839659e-05
000230 34 65 23 be d8 fa 05 a7 d1 c8 97 08 26 ee 0a bc
       -0.15956575 -1.859344e-15 9.135194e-34 -0.008479631
000240 0b df 84 3e a5 28 01 00 73 62 78 b9 1b 5c 03 be
       0.25951418 1.06416e-40 -0.00023687798 -0.12828104
000250 9a ab c5 bc 35 37 f1 be 6c 67 39 be 33 22 91 a6
       -0.024129678 -0.47112432 -0.18105859 -1.0070666e-15
000260 77 2f 50 8c d7 e0 0a a7 47 4f c4 ba fe 0d 79 bf
       -1.603802e-31 -1.9273233e-15 -0.001497724 -0.97286975
000270 9a 78 00 bf c8 d9 5e be 7a f6 0c bf 5b eb 17 be
       -0.50184023 -0.21762764 -0.55063593 -0.14835875
000280 87 d0 18 3f b1 7d 3c bb 26 21 92 a3 11 ff ab be
       0.5969319 -0.0028761441 -1.584339e-17 -0.33593038
000290 64 86 18 3f e9 f8 07 bf c6 e1 1a bf 5a cf b3 be
       0.59580064 -0.5311418 -0.6050075 -0.35119134
0002a0 ae 71 96 be fd 1c b1 be 41 ad b7 bf 84 1a 15 ba
       -0.29383606 -0.3459243 -1.4349748 -0.000568785
0002b0 9a 46 99 be 7a 1d 67 bb 5c ed 0f bb a5 fb 0d b0
       -0.29936677 -0.0035265372 -0.0021961546 -5.165311e-10
0002c0 4c 46 d0 be 5a 20 22 bf 45 ec 86 ba ab a4 18 be
       -0.40678632 -0.63330615 -0.0010293802 -0.14906566
0002d0 00 c0 b6 be 67 81 1a 3f a4 a9 1c bf 04 31 b0 b7
       -0.3569336 0.603537 -0.6119635 -2.100366e-05
0002e0 11 bc e6 a6 50 2e bc ac 53 5b ae bb 4e 32 91 3f
       -1.6010431e-15 -5.348423e-12 -0.0053209453 1.1343477
0002f0 4a f3 8d 3e 87 6f 3c be 69 97 8a bf 78 7a c7 be
       0.27724677 -0.1840192 -1.0827457 -0.38960624
000300 94 06 4d bf 46 76 ad b5 60 21 a4 b0 5e 1c 6b bd
       -0.8008816 -1.2923927e-06 -1.1942056e-09 -0.0574001
000310 03 bd 4b 3f d1 29 b6 3e e1 8f 63 3e f5 fe 44 3f
       0.79585284 0.35578778 0.22222854 0.76951534
000320 45 58 0c bd cc 41 1d be 54 7a c2 3f 5c a1 c5 b3
       -0.034263868 -0.15357131 1.5193582 -9.2028785e-08
000330 82 81 a7 bd ec b4 e0 b9 e2 8c 5a b7 9e 95 a0 b1
       -0.081789985 -0.00042859407 -1.3026614e-05 -4.6736224e-09
000340 1a 2c 8a 3e e3 9a 92 3f 28 46 c7 ba a3 c8 c3 be
       0.26986772 1.1453518 -0.0015203403 -0.3823901
000350 af d2 9d be 40 f5 4e bf 96 78 7b 3e 03 fa fe b3
       -0.308248 -0.8084297 0.24557719 -1.18732736e-07
000360 2c 63 29 b7 27 a8 15 ac 00 50 93 b8 a8 95 e3 3e
       -1.0096275e-05 -2.1267517e-12 -7.0244074e-05 0.44450116
000370 84 1d be be 40 2e d6 3d b7 e7 0e 40 fb e8 22 ba
       -0.37131894 0.1045804 2.2328928 -0.00062145264
000380 bd 72 26 bf 6e 49 07 9a a9 11 01 80 d4 14 5f 34
       -0.65018827 -2.7976662e-23 -9.8171e-41 2.077607e-07
000390 61 ac 89 3d 91 1f 95 be 45 75 21 bc fa 68 27 be
       0.06722332 -0.29125646 -0.009854619 -0.16348639
0003a0 e7 72 d9 be 49 6a 00 00 03 29 3f bf 2f 96 00 00
       -0.42470476 3.8128e-41 -0.74671954 5.3876e-41
0003b0 ac 95 b5 38 46 5b 05 90 c1 62 de 97 3e 44 00 80
       8.658631e-05 -2.629994e-29 -1.4371343e-24 -2.448e-41
0003c0 b2 86 94 3e 06 4e 84 3e 8c b5 d7 30 d4 e4 4a be
       0.29009014 0.25840777 1.5694908e-09 -0.19813854
0003d0 61 aa 05 3b c4 96 88 be b1 2e c4 3d a0 21 01 80
       0.0020395743 -0.26677525 0.09579218 -1.03898e-40
0003e0 f5 75 45 ae 76 a9 01 00 82 18 24 38 db 8c 44 bf
       -4.489738e-11 1.52627e-40 3.912347e-05 -0.7677743
0003f0 a8 43 10 3f b7 98 8c be 63 5f c1 3e 69 7e 01 00
       0.56353235 -0.27460262 0.37768087 1.37183e-40

weight f4 [8, 80]
000000 dc 53 10 bd d2 3b 8b bc 82 b1 c3 9a be 78 fe 88
       -0.035236225 -0.016996298 -8.093689e-23 -1.5315455e-33
000010 ce d4 11 3c a4 10 43 bd ca 68 49 a6 e7 c9 00 96
       0.008900834 -0.04762329 -6.98779e-16 -1.0403467e-25
000020 cf f9 05 bc 37 73 45 bd 78 60 d0 17 57 46 e3 09
       -0.008177235 -0.04820558 1.3466037e-24 5.471441e-33
000030 1d 36 0d bd d4 5b 76 bc e1 8c 5c b4 1d 24 5a b3
       -0.034475435 -0.015036542 -2.0540348e-07 -5.0789925e-08
000040 59 cd 24 3c c4 11 7a 3a ae 96 08 bb 12 96 6d 38
       0.010058724 0.00095393904 -0.0020841765 5.6644967e-05
000050 70 9a 0b bc 41 74 82 ba 9d 2b f8 3b a0 b7 89 bb
       -0.0085207075 -0.0009952859 0.0075735585 -0.004202798
000060 b7 56 38 3a 61 64 8c 37 78 2d 85 bb 05 74 6c bb
       0.00070319645 1.6736043e-05 -0.004064258 -0.0036079895
000070 1d a7 bd bb 02 44 87 3b fc 33 fb 3a 83 e4 e1 ba
       -0.0057877437 0.00412798 0.0019165273 -0.001723424
000080 9b 51 a3 2e 28 07 d2 3a 8c 2c c8 3a 70 66 20 3a
       7.426878e-11 0.0016023861 0.0015272065 0.000611878
000090 02 f7 dd 3b ef a7 91 3b 0a 7c 17 bc ac 59 a4 b8
       0.0067738304 0.004445068 -0.009245882 -7.836832e-05
0000a0 a2 c1 03 bc 5b 18 21 bb c1 eb 37 bb 86 89 8d 3b
       -0.008041771 -0.0024581167 -0.0028064104 0.0043193726
0000b0 37 b1 ce b8 04 fd 08 3b b2 92 8f b5 fd fb d0 ba
       -9.855854e-05 0.0020902762 -1.0697024e-06 -0.0015944239
0000c0 12 6d 39 3c 97 61 af 3a e4 31 8c bb 64 83 c5 38
       0.011317508 0.0013380524 -0.0042784084 9.4181654e-05
0000d0 f3 02 1a bc 00 a1 8f ba 48 05 0d 3c 7f 96 3f bb
       -0.009400117 -0.0010958016 0.008607216 -0.002923399
0000e0 da 39 4d 3a 3b 2e 9a 37 7c 48 cd bb a7 6a 79 bb
       0.000782875 1.8379758e-05 -0.0062647443 -0.0038057955
0000f0 fd 66 ce bb a6 7b 8c 3b 42 7c 16 3b b7 23 03 bb
       -0.0062988983 0.004287201 0.0022962247 -0.0020010301
000100 94 40 93 2e a5 58 5f b9 17 e6 6f 3b 6e fe c7 38
       6.6962574e-11 -0.0002129996 0.003660565 9.536451e-05
000110 bf bc 18 3c c5 dd a2 3b 4a 0c 31 bc a8 c2 a0 b8
       0.009322344 0.0049702846 -0.010806153 -7.665652e-05
000120 66 ee 19 bc d7 24 9c bb 1d 33 55 bb 77 5d 99 3b
       -0.0093952175 -0.004765134 -0.0032531687 0.0046803313
000130 6b c9 2f 39 d4 09 c4 39 14 bb 69 36 85 ff a6 ba
       0.00016764335 0.00037391356 3.48286e-06 -0.0012740946
000140 c2 86 40 be 7e a2 96 3d ca 99 9a be 02 f8 15 bc
       -0.18801406 0.07355212 -0.30195457 -0.009153368
000150 7b b7 ee 3d f6 1c 1b bf 6b 6b 46 be 09 15 b8 3d
       0.1165609 -0.60591066 -0.19376914 0.08988387
000160 bf a5 ba bd 2e cb d6 bd 1f 02 8d be e9 5b 25 bd
       -0.09113645 -0.10487972 -0.2754068 -0.040370855
000170 7d 4d d6 bc bf 4f d1 bc 77 eb e9 bd fc 81 57 bc
       -0.026159996 -0.025550721 -0.114218645 -0.013153549
000180 4c 71 da 3c 2b 9e be 3b 6b 22 d8 3d 9b 60 0b be
       0.026665352 0.005817195 0.1055344 -0.13611071
000190 8d bb 90 bc 84 6c 34 3d 67 c9 ee bc e4 4b 39 be
       -0.017667556 0.0440488 -0.02914877 -0.18095356
0001a0 ec 82 bd bc 40 60 21 bd d9 c4 bf 3c 9b fe f9 bd
       -0.023133717 -0.03939843 0.023409294 -0.12206765
0001b0 0e 76 97 3d b7 fc 05 3e cc d1 bb 3c 4e 56 80 bc
       0.07395564 0.13084684 0.022927187 -0.015666153
0001c0 ea 72 e1 3c d7 ce dd 3d 92 5c 16 be be 87 19 3e
       0.027520616 0.10830467 -0.1468375 0.14993188
0001d0 74 7f ce bc 72 a3 35 bd e1 59 91 bd 09 91 4e bd
       -0.025207259 -0.044345327 -0.07097221 -0.050431285
0001e0 54 6c 9e bb 6b ca 72 3c 5c 24 99 bc 07 1c 2b 3d
       -0.004834691 0.014818768 -0.018694095 0.041774776
0001f0 ed 2b 01 be a3 12 86 3d 42 57 59 3c b9 4a 5f 3a
       -0.12614413 0.065465234 0.013265433 0.00085179094
000200 2d c6 29 3e 35 f9 20 3e d7 53 7e be 1b 39 5d be
       0.16579504 0.15720065 -0.2483667 -0.21603815
000210 b8 71 1b be 90 98 13 3e 9d fe 14 3d d9 db ea bd
       -0.15180099 0.14413667 0.03637563 -0.11467714
000220 39 85 03 3d f0 cc 43 3e 04 6d 94 be 69 74 51 be
       0.032109473 0.19121146 -0.28989422 -0.20454563
000230 83 86 ae 3c dd 02 4e 3e f7 42 20 3e aa a4 11 be
       0.021304375 0.2011828 0.15650545 -0.1422297
000240 a6 28 47 3e 4f a9 4a be e5 16 3c 3e 67 d2 3c 3e
       0.194491 -0.19791149 0.18368109 0.18439637
000250 0b ed 93 3e ca bf 40 3c cf 52 20 be 71 e3 cb bd
       0.28891787 0.011764476 -0.15656589 -0.099554904
000260 9a a7 21 be 79 a6 a5 be a7 1a a1 bd 63 02 a7 3d
       -0.15786591 -0.3235357 -0.07866412 0.08154752
000270 f0 12 2f be bc 5c 60 be dc 26 5d be aa 03 2f 3e
       -0.17097068 -0.21910375 -0.21596855 0.17091241
000280 5e 72 dc 04 b9 b4 cd a1 da 26 01 80 97 4c 00 00
       5.182678e-36 -1.3939177e-18 -1.05773e-40 2.7475e-41
000290 83 0a e9 82 00 c6 6f a9 89 7b 01 80 ac 7b 01 00
       -3.4242306e-37 -5.3240398e-14 -1.36152e-40 1.362e-40
0002a0 57 86 2c a6 32 c9 1f 05 00 07 00 80 89 5b 00 80
       -5.985655e-16 7.513098e-36 -2.511e-42 -3.2837e-41
0002b0 f0 3f 00 00 7e 18 87 aa a6 13 01 00 aa a0 01 00
       2.2936e-41 -2.3997812e-13 9.8884e-41 1.49471e-40
0002c0 74 1a 01 80 a1 81 00 80 db af 9d 19 51 1e 00 80
       -1.01325e-40 -4.6502e-41 1.6304447e-23 -1.0875e-41
0002d0 03 ed 00 80 a1 17 01 80 17 82 00 00 01 1b 37 9b
       -8.5024e-41 -1.00312e-40 4.6667e-41 -1.5146131e-22
0002e0 d4 6a 01 00 7e 25 00 80 4e cf 00 00 ee 15 01 80
       1.30158e-40 -1.345e-41 7.4367e-41 -9.9702e-41
0002f0 43 a9 00 80 ba 19 00 80 0a 8e 01 00 04 a7 00 00
       -6.072e-41 -9.229e-42 1.4279e-40 5.9914e-41
000300 54 45 01 80 0e 08 00 80 70 39 00 00 c7 51 00 00
       -1.16706e-40 -2.89e-42 2.0605e-41 2.9336e-41
000310 a4 47 a8 20 94 bd 00 00 d1 04 54 8b f9 6f 00 00
       2.8507715e-19 6.8008e-41 -4.0833338e-32 4.0168e-41
000320 46 2b 00 80 59 da 48 a2 91 af 00 80 a5 17 01 00
       -1.5524e-41 -2.7220647e-18 -6.2981e-41 1.00318e-40
000330 ee 0e 00 80 a9 24 00 00 38 0f 00 80 48 57 00 00
       -5.356e-42 1.3151e-41 -5.46e-42 3.131e-41
000340 4f 03 00 00 4e 92 01 80 64 7a 83 92 b1 33 00 00
       1.187e-42 -1.4432e-40 -8.297434e-28 1.8543e-41
000350 95 69 00 00 67 6c 00 80 68 05 00 00 f1 03 04 16
       3.7876e-41 -3.8887e-41 1.94e-42 1.0664119e-25
000360 cb 1e 00 00 cc cd 00 80 76 49 00 00 36 8f 00 00
       1.1046e-41 -7.3826e-41 2.6353e-41 5.1374e-41
000370 ba 63 00 80 20 45 01 00 38 5c 00 80 d6 82 00 00
       -3.5775e-41 1.16633e-40 -3.3082e-41 4.6935e-41
000380 6f 8d 00 80 05 06 5f 82 b0 fe 69 88 50 23 00 00
       -5.0737e-41 -1.638518e-37 -7.041527e-34 1.2668e-41
000390 0b 8f eb 1b 9e ad 00 00 83 3f 00 80 d1 95 00 00
       3.8969928e-22 6.2282e-41 -2.2784e-41 5.3744e-41
0003a0 c3 06 00 80 5a dd 97 9d cb 86 00 00 35 73 00 00
       -2.426e-42 -4.019824e-21 4.8355e-41 4.1328e-41
0003b0 68 6a 00 80 09 4f 00 80 c1 50 00 80 a8 6c 00 80
       -3.8171e-41 -2.8352e-41 -2.8969e-41 -3.8979e-41
0003c0 ed f3 c3 3d 17 c8 ff be 90 d8 38 3e 93 27 78 30
       0.095680095 -0.49957344 0.18051362 9.027811e-10
0003d0 02 a0 06 bd da 26 f3 3d 97 b7 60 3d 30 2c 89 bd
       -0.03286744 0.11872645 0.054862585 -0.06697881
0003e0 b3 2c 50 be 3d f7 b7 bd 70 86 7d bb 57 32 3f 3d
       -0.20329551 -0.08982704 -0.0038684867 0.046678867
0003f0 eb 41 ea 3d 35 42 89 be e7 49 76 bd e6 f2 b7 3c
       0.11438354 -0.26808324 -0.060129073 0.02245469

bias f4 [8]
000000 6b 2e 7e bd f5 29 8b be ef 53 ae ac 43 f9 9f be
       -0.062055986 -0.27180448 -4.954696e-12 -0.3124486
000010 8d ac 93 99 d1 4b 0f 3f c3 de 9f bd 85 ab 6f 3f
       -1.5269136e-23 0.5597506 -0.0780616 0.93621093

weight f4 [1, 8]
000000 dd 3f ce bc 09 f7 0b 3e 6e ca 34 ba 9a 96 d7 be
       -0.025176937 0.13668455 -0.00068966195 -0.42107087
000010 be 93 1e b6 bb 39 f9 be b6 14 a0 3d 1b 0e 95 bf
       -2.3629832e-06 -0.48676857 0.0781645 -1.164493

weight f4 [4, 32, 32]
000000 2a 61 ee bd 70 8e b0 bb 3a 9e 48 bf fe b0 ad 3d
       -0.11639626 -0.0053880736 -0.78366435 0.08481024
000010 3d 90 15 3e 56 a0 08 3b dd 98 f3 be 19 18 ae bd
       0.14605804 0.002084752 -0.47577563 -0.0850069
000020 6d 57 c7 3d ed a3 09 be 9d 23 5f 3c 76 93 10 bc
       0.09733472 -0.13441439 0.013619331 -0.00882422
000030 30 3c cd 3d 20 44 0a be 79 7d fc bd 11 8c 81 be
       0.100212455 -0.1350255 -0.123286195 -0.25302175
000040 a1 47 a9 3d 99 5c 22 be 70 aa 96 be 3d 54 5e be
       0.08265615 -0.15855636 -0.29426908 -0.21711822
000050 d3 85 8b 3d ba 82 de be 91 23 a3 be 3b c5 30 be
       0.06812634 -0.4345911 -0.31863073 -0.17262737
000060 51 29 0d 3e 3b 8d 7d 3c 24 62 17 3c 80 4e 66 3d
       0.13785292 0.0154755665 0.009239707 0.056227207
000070 54 4a 84 be ad 18 0c bf 2c a2 2c bf 87 0f 8c 3c
       -0.25837958 -0.5472515 -0.67434955 0.017097248
000080 6e 4d 00 80 61 24 6c 12 70 b4 00 80 9c 7c 00 80
       -2.7777e-41 7.451331e-28 -6.4729e-41 -4.4701e-41
000090 14 8c 00 00 bd 61 01 80 65 7d 00 80 33 b6 00 80
       5.025e-41 -1.26897e-40 -4.4983e-41 -6.5361e-41
0000a0 b6 cf 00 80 85 23 00 80 b6 3a 01 00 e5 3d 00 80
       -7.4513e-41 -1.2742e-41 1.12897e-40 -2.2204e-41
0000b0 97 50 01 00 08 09 01 00 e6 b6 00 00 51 3b 00 80
       1.20746e-40 9.5075e-41 6.5612e-41 -2.1279e-41
0000c0 90 38 00 80 01 4a 00 00 78 a1 00 80 2c 7a 00 80
       -2.0291e-41 2.6548e-41 -5.7924e-41 -4.3827e-41
0000d0 36 64 00 00 15 48 00 80 93 08 01 80 8b 18 38 aa
       3.5949e-41 -2.5858e-41 -9.4911e-41 -1.6350998e-13
0000e0 90 44 00 00 bf a5 00 00 9c 6e 00 80 d4 1d 00 80
       2.4596e-41 5.9458e-41 -3.9679e-41 -1.07e-41
0000f0 f9 4d 00 80 73 83 00 00 55 82 00 80 cf 8d 00 80
       -2.7971e-41 4.7155e-41 -4.6754e-41 -5.0871e-41
000100 fe 9b 00 00 2e 28 01 00 7e 3e 00 80 58 3d 0d 80
       5.596e-41 1.06249e-40 -2.2418e-41 -1.215867e-39
000110 8f 23 00 80 5b 4c 00 80 9a 68 00 00 1e 16 01 80
       -1.2756e-41 -2.7391e-41 3.7524e-41 -9.977e-41
000120 93 41 01 00 ea 3d 00 80 7b 33 00 80 37 d3 00 00
       1.15359e-40 -2.221e-41 -1.8468e-41 7.577e-41
000130 d9 4c 00 00 ff 10 00 80 dc 7a 00 80 00 0a 00 80
       2.7568e-41 -6.097e-42 -4.4074e-41 -3.587e-42
000140 5d 56 01 00 e5 17 00 00 89 8e 00 00 52 1f 01 80
       1.22817e-40 8.572e-42 5.1132e-41 -1.03071e-40
000150 e8 86 01 00 29 a3 01 80 21 1e 00 80 3f 89 01 00
       1.40231e-40 -1.50366e-40 -1.0808e-41 1.4107e-40
000160 ef e3 00 80 bb de 0b 00 ff 63 00 00 19 ed 03 00
       -8.1767e-41 1.090091e-39 3.5872e-41 3.60561e-40
000170 b9 1b 00 00 7c 03 00 80 c4 69 01 80 e2 46 00 80
       9.945e-42 -1.25e-42 -1.29777e-40 -2.5428e-41
000180 ad 3e d5 06 7a f5 d5 ac 92 7e ca 9a 73 b2 00 80
       8.021379e-35 -6.0810775e-12 -8.374973e-23 -6.4016e-41
000190 f3 8c b4 32 fe 3c 9c 14 6e 0d 41 aa 3e 4d 00 80
       2.1018854e-08 1.5776032e-26 -1.7146503e-13 -2.7709e-41
0001a0 26 33 00 80 72 c3 17 b5 a0 4d 42 ab 54 e7 3a 86
       -1.8349e-41 -5.6536294e-07 -6.903037e-13 -3.5152665e-35
0001b0 5a 7a 3a 2f c1 bb 00 00 ab a1 ea 35 57 97 01 80
       1.696007e-10 6.7353e-41 1.748141e-06 -1.46126e-40
0001c0 78 29 00 80 75 9d 96 a4 6b c2 00 80 c9 2d 12 ad
       -1.4876e-41 -6.531887e-17 -6.9744e-41 -8.3093055e-12
0001d0 d2 21 63 0b 87 b5 76 2f 46 5e 00 00 d4 3b 14 b7
       4.3744053e-32 2.2438061e-10 3.3819e-41 -8.835417e-06
0001e0 86 06 01 00 a6 51 00 00 74 cc 00 00 76 74 ea 22
       9.4176e-41 2.929e-41 7.3344e-41 6.3549135e-18
0001f0 e9 6d 75 10 d1 7b 3a ae e2 d1 cf 9e 79 0b 00 00
       4.8402402e-29 -4.2401475e-11 -2.2003783e-20 4.116e-42
000200 71 ab a7 3d ad a7 19 3e 8a 9d b3 3d 60 30 62 bd
       0.08186997 0.1500537 0.087702826 -0.055221915
000210 ef c7 05 3d 65 9c f3 ba 5b c4 76 bd 7a f4 95 3e
       0.032661375 -0.0018586038 -0.060245853 0.29288083
000220 03 c2 e3 3d 2e ff c5 be 54 ab 04 3e cc 89 70 3e
       0.11120989 -0.3867125 0.12955981 0.23490065
000230 9b 6d 04 3e 5f 47 4e 3e 02 f9 27 3e 14 11 62 3e
       0.12932436 0.20144413 0.16403583 0.22076827
000240 a7 30 8b 3e 73 b8 a6 be a3 c5 0a 3f 9c 15 81 bd
       0.27185556 -0.325626 0.5420782 -0.0630295
000250 bc 6c e2 3d 1b 90 4c 3e 04 e9 f4 bd 9b 22 84 be
       0.11055896 0.19976847 -0.11958507 -0.25807652
000260 90 5a 34 bd b6 44 2e 3e 4b 25 32 3e c2 54 97 3e
       -0.04403168 0.17018399 0.17397039 0.29556853
000270 35 cc 98 be 74 95 e7 bd 94 9e 86 be 88 45 e5 3d
       -0.29843298 -0.11307803 -0.2629286 0.11194903
000280 4b 29 82 3d b1 3c bc 3d a6 8f 80 3e 9c 1b 8a 3b
       0.06355532 0.091912635 0.25109595 0.004214717
000290 ea 87 7c 2f f7 1f 01 80 38 31 8e bb 54 cf 29 3c
       2.2967553e-10 -1.03302e-40 -0.0043393634 0.010364372
0002a0 4f 11 0d 33 fd 2d 86 3e 74 81 8a 35 36 3c af 34
       3.2844863e-08 0.2620696 1.0319477e-06 3.26401e-07
0002b0 67 6a 45 3d a1 4d 74 3c 80 92 36 3d f6 36 9a 3d
       0.048197176 0.014911086 0.044573307 0.07530014
0002c0 e2 28 08 38 6a b4 4b 39 18 14 b1 3d 00 53 3f 3d
       3.2463002e-05 0.00019426798 0.08646411 0.046710014
0002d0 e9 06 00 80 a0 84 1a 3e 25 16 27 3e fc 15 5d 3e
       -2.479e-42 0.15089655 0.16317041 0.21590418
0002e0 17 62 66 39 e7 d4 10 39 ed 73 d9 33 88 9c 3d 3d
       0.0002197105 0.00013812222 1.0125937e-07 0.046291858
0002f0 6d 51 73 3e 29 44 53 3d e5 d8 8a 3e ac 06 8a a2
       0.2376153 0.051578674 0.27118602 -3.741204e-18
000300 22 74 c6 bb f5 f9 2d bd 5d 82 65 be 62 93 18 3b
       -0.0060563246 -0.042474706 -0.22413011 0.0023281206
000310 1d 75 53 39 46 4b 00 00 0c 22 25 be 83 67 0a b9
       0.00020166156 2.7003e-41 -0.16126269 -0.00013199267
000320 5c 61 00 b9 2d 98 2a 3e 60 89 05 3b 46 f5 28 3b
       -0.000122433 0.16659613 0.0020376071 0.002578096
000330 50 50 12 38 c5 6f 45 be 81 63 35 bd d6 23 95 3d
       3.488391e-05 -0.19280918 -0.044284347 0.07282226
000340 90 50 6c 3e c1 7c 85 bc 4d 14 6a b7 13 80 83 3b
       0.23077607 -0.016294839 -1.39522135e-05 0.0040130704
000350 d6 fe 41 2a 1f c0 5d bd da 39 ec bc c5 65 65 be
       1.7230257e-13 -0.0541383 -0.02883618 -0.22402103
000360 86 f4 e3 38 fa f8 fa 3b b7 ac d1 39 e4 93 90 ba
       0.000108697495 0.007659075 0.0003999227 -0.0011030403
000370 4c fa e1 b5 11 99 9f bd 6a a6 a6 be ad 91 a0 b5
       -1.6836652e-06 -0.07792867 -0.3254884 -1.1963326e-06
000380 0f 73 81 3e f3 2a 98 3e a2 00 9a 3c a5 b2 c1 3c
       0.25283095 0.29720268 0.01879913 0.023644755
000390 0b 6c 5f 37 95 97 6a 1e 93 32 49 3d 23 ea 9c 3c
       1.33169915e-05 1.2419203e-20 0.049120497 0.019154614
0003a0 fa 85 88 ba 5a ef 57 3e 1e ed 32 bc cc 44 a5 38
       -0.0010415905 0.21087399 -0.010920791 7.8806275e-05
0003b0 59 a4 48 3d ff ec c1 3c 16 7b bd 3d a9 7b 8b 3d
       0.04898486 0.023672579 0.092519924 0.06810696
0003c0 cb 4c 22 3a b6 c4 c2 36 78 7d 83 3e 88 d8 fe 3c
       0.00061912526 5.8045507e-06 0.25681663 0.03110911
0003d0 66 fc af 2d a8 33 9c bc 42 f2 22 3e 44 44 0e 3e
       2.0007284e-11 -0.0190676 0.15912727 0.13893229
0003e0 e4 1e 94 3b 0a 8a c5 3a b6 db 83 38 f8 96 a0 3d
       0.004520284 0.0015071046 6.287491e-05 0.07841295
0003f0 80 c5 97 3e 18 99 13 3d 6a 17 d6 3e 48 62 1a a0
       0.29642868 0.036034673 0.4181474 -1.3076826e-19

w_comp f4 [9, 4]
000000 09 57 2c be 19 7c 3e 3d b1 30 16 3e 5b e6 91 3c
       -0.16830076 0.046505067 0.14667012 0.017810037
000010 5d 94 3e bd e3 58 fe 3e e9 38 e9 3d 55 62 b2 3d
       -0.04652821 0.4967719 0.11387808 0.087101616
000020 da 56 07 be 48 52 a3 3e 94 52 f8 3c eb 43 3b bf
       -0.13216725 0.31898713 0.030312814 -0.7315051
000030 35 ba eb 3e ad ac 34 be 86 20 05 be c1 4e b6 be
       0.46040502 -0.17643996 -0.13000688 -0.3560696
000040 31 ab 78 3e 89 4d 08 3f 89 4d ae bd 09 6c 76 3d
       0.24284054 0.5324331 -0.085108824 0.060161624
000050 e0 8c a8 bf 49 85 05 bf f2 4f 9d bf 45 ad db bd
       -1.3167992 -0.521565 -1.2290022 -0.10726408
000060 4f 38 00 80 6f 1b 00 80 f5 63 00 00 69 aa 00 00
       -2.02e-41 -9.841e-42 3.5858e-41 6.1132e-41
000070 3c 26 af b8 75 41 00 00 38 bd f9 ad c1 61 00 80
       -8.351772e-05 2.3482e-41 -2.8392053e-11 -3.5067e-41
000080 9b 3d 01 80 c1 00 00 00 1e 17 01 80 cf e6 00 80
       -1.13935e-40 2.7e-43 -1.00128e-40 -8.2799e-41

self_loop_weight f4 [32, 32]
000000 b4 51 c1 be 31 26 d4 3e 5d 86 17 3f 95 0d 72 be
       -0.37757647 0.41435388 0.591894 -0.23637994
000010 6b d9 cb be 2e 64 e7 b8 7a 88 de 3e 4a 87 f7 be
       -0.39814314 -0.00011033598 0.43463498 -0.48345405
000020 87 49 97 3b e7 fe a6 bf 44 3b a4 bd 5c 31 0e be
       0.0046169194 -1.304654 -0.080191165 -0.13886017
000030 ea 03 6a be 0b 10 22 be ba 22 58 bf cb 7c 8f be
       -0.22853056 -0.15826432 -0.8442799 -0.28024897
000040 9c e9 af be ab 06 81 be db d9 09 bf 3d 84 c3 be
       -0.34357917 -0.252004 -0.53848046 -0.38186827
000050 8c 26 96 be eb a8 84 3e 94 9d ce be 94 43 12 3f
       -0.29326284 0.25910124 -0.40354598 0.57134366
000060 9c 14 5f be 23 fe 54 bd cc d9 7b be 98 5c ac be
       -0.21785206 -0.052000176 -0.24594802 -0.33664393
000070 d6 48 39 bb d9 0e 8b bd 1a 37 bd 3e 0e ab 09 be
       -0.0028272173 -0.06789941 0.36956102 -0.13444158
000080 24 99 00 00 a7 42 cc 2a 3b c9 b6 2d 93 1f 00 00
       5.4937e-41 3.628393e-13 2.0780369e-11 1.1327e-41
000090 23 94 01 80 fd be 00 00 8c e0 03 16 ae 8c 01 80
       -1.44977e-40 6.8514e-41 1.065295e-25 -1.42302e-40
0000a0 02 86 00 80 92 ea 94 a5 1b bc 00 00 c4 f3 99 14
       -4.8073e-41 -2.5832858e-16 6.748e-41 1.55452e-26
0000b0 66 c0 00 00 90 97 00 00 30 00 00 00 a6 45 00 80
       6.902e-41 5.437e-41 6.7e-44 -2.4985e-41
0000c0 de 06 00 00 a6 69 46 9d c5 10 00 80 79 8f 00 80
       2.463e-42 -2.62597e-21 -6.016e-42 -5.1468e-41
0000d0 11 f6 00 80 c3 ff 0e ad c6 39 00 00 ef d8 04 35
       -8.8272e-41 -8.128556e-12 2.0725e-41 4.948951e-07
0000e0 64 73 00 00 55 54 00 80 21 c2 00 80 ee 88 72 02
       4.1394e-41 -3.0253e-41 -6.964e-41 1.7818649e-37
0000f0 54 46 00 80 72 da 00 80 d6 47 cb 28 f4 4d 01 80
       -2.5229e-41 -7.8363e-41 2.2568681e-14 -1.198e-40
000100 fa b9 00 80 fb 1c 01 00 4d 07 01 00 88 df 0c 00
       -6.6716e-41 1.02232e-40 9.4455e-41 1.182214e-39
000110 0d 19 00 80 ff 73 00 00 cc 64 01 00 5c 0b 01 80
       -8.987e-42 4.1612e-41 1.27995e-40 -9.591e-41
000120 d5 db 00 00 cf 38 00 00 8a 0a 00 80 06 c8 00 80
       7.8861e-41 2.0379e-41 -3.781e-42 -7.1755e-41
000130 b4 df 00 00 c5 6f 01 00 40 66 01 00 c1 47 00 80
       8.025e-41 1.31931e-40 1.28516e-40 -2.574e-41
000140 3b ce 00 00 6a 60 00 00 6b 15 00 80 ce 29 00 00
       7.3982e-41 3.4587e-41 -7.683e-42 1.4997e-41
000150 67 01 00 00 c0 64 00 80 a0 4d 01 00 54 00 00 00
       5.03e-43 -3.6142e-41 1.19682e-40 1.18e-43
000160 a0 9c 00 00 47 8d 07 80 b0 06 01 00 29 76 00 00
       5.6186e-41 -6.93529e-40 9.4235e-41 4.2388e-41
000170 8b 3b 00 00 bd 16 00 00 80 40 00 80 7b 3c 00 80
       2.136e-41 8.157e-42 -2.3138e-41 -2.1696e-41
000180 59 7a 38 32 a1 d1 40 ba 41 53 7a bb a7 49 88 92
       1.0738028e-08 -0.0007355456 -0.0038196596 -8.600963e-28
000190 42 c4 8f 1f ff ca 00 80 7c d0 01 b8 51 f2 19 a4
       6.088754e-20 -7.2821e-41 -3.0950163e-05 -3.3381836e-17
0001a0 f4 87 34 a8 92 51 f8 3b c9 49 ab a6 2c bf f4 af
       -1.0021487e-14 0.0075780833 -1.1885508e-15 -4.4519177e-10
0001b0 af c4 2e a5 f5 e5 00 00 09 5f 5d 3d 49 1d 00 00
       -1.5158733e-16 8.2493e-41 0.05404571 1.0506e-41
0001c0 78 58 00 00 3d 79 a5 35 be 7b 5c b4 91 10 22 b1
       3.1737e-41 1.2328743e-06 -2.0534114e-07 -2.358352e-09
0001d0 b1 22 01 00 86 f9 fe 3a e0 59 00 80 c1 e5 de 3c
       1.0428e-40 0.0019453026 -3.2241e-41 0.027209165
0001e0 1c 21 b3 b3 33 e3 97 83 40 93 be b8 85 93 91 bc
       -8.3413596e-08 -8.927145e-37 -9.0873335e-05 -0.017770538
0001f0 49 0e a2 91 f2 5d 58 b6 1a 87 76 bb 88 35 00 00
       -2.5567897e-28 -3.2241192e-06 -0.0037617148 1.9203e-41
000200 a2 62 77 be ce a7 27 be c1 15 5c 3e ce 9e 02 be
       -0.24158719 -0.16372606 0.21492673 -0.12755892
000210 4f db 4a be 86 ac 21 bc c5 4a 74 bf 50 bd aa be
       -0.19810222 -0.009867793 -0.9542659 -0.3334756
000220 dc f4 8f be 20 56 89 3f dc 62 0d 3e 8c b4 b7 bd
       -0.281165 1.0729408 0.13807243 -0.089699835
000230 31 74 ba be c9 c6 93 3d 7d a9 64 3e 66 15 2f bc
       -0.36416772 0.0721565 0.2233028 -0.010686254
000240 26 97 9e be 02 7a 67 be d1 cd 19 bf a0 d8 4b be
       -0.30974692 -0.22605136 -0.60079676 -0.19906855
000250 e5 43 72 be 6f 91 cd 3e cf 96 b0 be 10 d1 b9 3f
       -0.23658712 0.4015002 -0.34490058 1.4516926
000260 b7 ad 40 be b0 d6 36 3b ab 96 4d be b3 54 1c 3a
       -0.18816267 0.002789896 -0.20077007 0.0005963549
000270 6e 03 bf bd 32 03 f9 be 8a 9b f9 3e 73 35 ad bd
       -0.09326826 -0.4863525 0.4875148 -0.0845746
000280 26 11 ac be 3c 86 3a bd 55 ca 90 bd 77 a4 dc 37
       -0.33606833 -0.045538172 -0.07069842 2.6302629e-05
000290 9c 1b 09 3e 1e 4a c6 ad 51 5b 83 bd d3 fb ce 3e
       0.13389438 -2.2542909e-11 -0.064139016 0.40426502
0002a0 55 03 43 bb e3 b1 a8 3e 9d a0 19 be e8 5a f6 3b
       -0.0029756625 0.32948217 -0.15002675 0.007518161
0002b0 a1 15 34 bd e6 db 3c be 5f 32 ff bd 56 c2 db bb
       -0.04396594 -0.1844326 -0.124607794 -0.0067065163
0002c0 c3 56 b9 36 e0 b3 08 be 01 55 a9 3e 91 5a 50 bd
       5.52353e-06 -0.13349867 0.33072665 -0.05086762
0002d0 f5 00 26 3e 8b 33 18 3e f1 2a 12 3b d9 de 1c 3e
       0.16211303 0.14863412 0.0022303427 0.15319385
0002e0 1b 5c 0e 3c 1f 6f 01 bc 16 8a b5 ba 21 25 af 3e
       0.008688952 -0.0079000285 -0.0013850357 0.34208015
0002f0 a2 01 ca bc cd 8e 21 3c d7 7c 67 be 2e eb f2 ba
       -0.024658982 0.0098607065 -0.22606216 -0.0018533224
000300 c2 68 05 3f aa ac 11 bf d3 aa 1e bf de 94 b1 be
       0.5211297 -0.5690409 -0.6197941 -0.3468389
000310 d4 bb ff be ac 83 6a bd 89 4e 79 be 63 9e 33 be
       -0.4994799 -0.05725448 -0.24346365 -0.17540888
000320 54 7b 41 be 4e ff 66 bf 6a 9b 66 be 96 9f 12 3c
       -0.18894702 -0.90233314 -0.22520223 0.008949181
000330 5d eb 08 be 4d 26 6e be 7b d7 2b be 8e 26 d6 3e
       -0.13371034 -0.23256798 -0.16781418 0.4182629
000340 fc b2 e7 be 34 5a 37 3e cc 1a fe 3e a5 04 b5 be
       -0.45253742 0.17905504 0.4962982 -0.35355106
000350 3a 44 cd be ad a3 09 3d d1 03 0a bf 9b 5a 49 be
       -0.40091115 0.03360336 -0.53912073 -0.1966347
000360 6e 39 8d 3e 04 26 33 bc 40 0c a4 3d 72 a9 05 3f
       0.27582878 -0.010934357 0.08010149 0.5221168
000370 d2 77 ee be 83 5c fe be 8c 5c 43 3e 24 0a 81 bd
       -0.4657579 -0.49679956 0.19078273 -0.06300762
000380 c2 32 26 bd 4c 47 e8 bd db c0 53 be 9c 48 0e bd
       -0.04057575 -0.11341724 -0.20679037 -0.034737214
000390 70 79 a3 bc e6 8f 87 b8 08 d6 dd bd ad 66 bc be
       -0.019955367 -6.464105e-05 -0.10831839 -0.36797085
0003a0 89 3a eb bc 21 0f 6d 3c b1 2d 23 bd c4 1a b8 bc
       -0.028714435 0.014468939 -0.039838497 -0.0224737
0003b0 e0 73 99 bd 01 ee e4 be c6 dd 99 3d 74 66 1b be
       -0.074928045 -0.44712833 0.07513003 -0.15175802
0003c0 2f 90 ee bc 5f 49 03 be a6 0c b5 be 2f 63 3f bd
       -0.029121486 -0.12820958 -0.35361212 -0.04672545
0003d0 0c 31 6e be 45 d7 62 bc 07 9d ae bc 9a 45 1e bf
       -0.23260897 -0.01384527 -0.02131511 -0.61824954
0003e0 7d 7c fb 3b 8c 7f 97 bc 8b 92 57 bd 03 73 ec 3d
       0.0076747523 -0.018493436 -0.05262999 0.11545374
0003f0 be 7a ec bd e5 31 a7 bc 2d 6d 6a be 07 00 36 bb
       -0.11546849 -0.020409534 -0.2289321 -0.0027771012
