experiments/grail_wn_v1/graph_classifier_chk.pth (torch, 101966 bytes, 21 tensors)

weight f4 [9, 32]
000000 dd 7d 91 3e 86 97 d7 3e 2f 73 af be 66 c0 fc ba
       0.2841634 0.4210779 -0.34267566 -0.0019283413
000010 71 6b e4 bd 67 87 45 3e 6d 41 f6 bc 03 2a 4e 3e
       -0.11153305 0.19289933 -0.030060494 0.20133214
000020 6a db f5 3c ec 11 23 3d 90 73 a0 be 44 1d 21 3f
       0.030011851 0.039812014 -0.31338167 0.6293528
000030 81 7a 98 bc 8f f8 3b bf 80 98 68 3e eb e4 85 be
       -0.018613102 -0.73426145 0.22714424 -0.26151213
000040 4f 16 96 3e 1c d5 86 be 57 2e 90 3e 1b c6 0b bc
       0.29313895 -0.26334465 0.28160354 -0.008531119
000050 e4 f6 11 3f c6 81 8d bc 9f 82 02 bf 52 36 ef bd
       0.5701735 -0.017273795 -0.5098056 -0.11680283
000060 69 b4 c4 bc ff 3d 08 bf a4 24 92 bc 78 0e 35 3b
       -0.024011808 -0.532196 -0.017839737 0.0027627032
000070 3e 2e 9c 3c c6 43 31 be b0 3e ec bd 45 0f 05 3e
       0.019065019 -0.1731101 -0.11535394 0.12994106
000080 19 71 a0 be d4 22 4f be d1 07 3c 3f 57 67 11 3d
       -0.31336287 -0.2022813 0.73449427 0.035498943
000090 36 1b 7d 3e fe e7 41 3e 1e fa a2 3a fd bf 5b be
       0.24717411 0.18936154 0.001243416 -0.21459956
0000a0 cb 6b 55 3d 32 ff 5a 3e 55 a0 8b 3e 64 f4 8f bc
       0.052104753 0.21386412 0.2727076 -0.01757259
0000b0 b5 7d 08 3d ea 6a ca bd f4 18 94 be d5 a6 02 3e
       0.03332301 -0.098836735 -0.28925288 0.12758954
0000c0 fe cd 04 3e 8f 57 df 3e 86 c8 b6 bd 17 5f ec 3c
       0.12969205 0.4362149 -0.089249656 0.028853936
0000d0 f8 f3 ca bf cb 8f 73 bd ee 5d 3e 3f bd 1b 17 3e
       -1.5855703 -0.059463304 0.74362075 0.14756675
0000e0 77 eb e0 3d 70 f6 d4 3f b4 75 e4 3c fa 35 4e 3c
       0.10982411 1.6637707 0.027888156 0.012586111
0000f0 43 6e 71 bb 46 98 6d 3e b7 c1 cc bd 4f 5e a7 be
       -0.0036839403 0.23202619 -0.09997886 -0.3268914
000100 d9 ba b3 bc a1 4f b7 3e 22 a7 b6 be d7 ce f6 bd
       -0.021939682 0.3580294 -0.35674387 -0.1205117
000110 23 f7 c5 3d a5 56 54 3e 4d aa ba bd f8 1a cc 3c
       0.09666278 0.20736177 -0.091145135 0.024915203
000120 e0 7a 86 bd 75 23 1b 3e 11 cc 19 bf 81 8e fe 3c
       -0.06566405 0.15150245 -0.60077006 0.03107381
000130 30 9f 5f 3e a3 50 8c bc 2e ae ff bc cd ce 39 be
       0.21838069 -0.017128294 -0.031210985 -0.18145294
000140 a7 bc 80 3e f9 c5 fe be 63 97 ce 3e 2f 41 f5 bb
       0.2514393 -0.49760416 0.40349874 -0.007484577
000150 60 78 0c 3f 37 40 ee bd 0b 31 be be 9e 84 28 3e
       0.5487118 -0.11633342 -0.37146792 0.1645684
000160 b3 a1 fd 3c 2c 96 1e bf 10 6f f5 3c da f0 de bc
       0.030960893 -0.61947894 0.029960185 -0.027214456
000170 bf 78 bd 3c 73 9d cf be 81 d5 36 be 6e 00 81 bd
       0.023128865 -0.40549812 -0.17854883 -0.0629891
000180 dc 50 bb 3e 87 69 ba 3e 4c e1 a0 be b4 e3 ef 3e
       0.36585128 0.36408636 -0.31421888 0.4685341
000190 2f 7a c8 be e2 de 01 bf 3f 1b d7 3e fa bd d1 3e
       -0.3915572 -0.5073072 0.42012975 0.40965253
0001a0 30 2d d6 3e c1 2c 07 bf 4a c4 88 be 67 c6 a2 3e
       0.4183135 -0.52802664 -0.26712257 0.31791994
0001b0 c4 ee ef be b0 59 9c be f3 17 c7 3e 03 65 bf be
       -0.4686185 -0.30537176 0.3888546 -0.37381753
0001c0 50 ef f3 be 3d 0a a9 be 72 00 3e 3e 45 5b bc 3e
       -0.47643518 -0.33015624 0.18554857 0.36788383
0001d0 37 d8 15 3e 10 4b ea 3e 5b 42 89 be c0 7f fc be
       0.1463326 0.45760393 -0.26808438 -0.49316216
0001e0 ed b8 bd be d5 e7 1b be 33 e0 c8 be 38 61 c7 3e
       -0.3705515 -0.15225156 -0.3923355 0.3894136
0001f0 f7 fe ca be f3 32 ab be f8 f3 0e 3f ee c9 b7 3e
       -0.39647648 -0.3343731 0.55841017 0.35896248
000200 b6 f3 d5 3d b4 b3 d9 3d a2 44 07 bf 0d b9 f3 3d
       0.10446875 0.10629979 -0.528391 0.1190053
000210 25 7d e4 3b 15 3d 4b 3d dd 5a 21 3d 19 e4 5b 3e
       0.006972926 0.0496188 0.039393295 0.21473731
000220 4b c8 5f 3c e9 ab 41 3e 21 3e d4 be a1 23 3d 3e
       0.013658593 0.18913235 -0.4145365 0.18470623
000230 b3 2f e0 3c 47 f0 34 be 97 b0 8a bc 12 a1 c3 bd
       0.027366495 -0.17669784 -0.016929908 -0.09552206
000240 04 2a 0f 3c d3 bb 03 bf cf 8f eb 3e 22 be 3c be
       0.008738045 -0.5145847 0.46008155 -0.18431905
000250 4f 9b 2e 3f 0b 3b d1 bc a8 1d 64 be 2b 1e 55 3e
       0.6820573 -0.02554085 -0.22276938 0.2081229
000260 d5 6e f3 bd 8a 38 35 bf 55 07 40 3d 59 53 67 bd
       -0.11886374 -0.70789397 0.046881992 -0.05647597
000270 d9 73 67 3e 6a ee db be 6a 6c cc bd 93 d0 b4 3c
       0.22602786 -0.42955333 -0.09981616 0.022072112
000280 b2 ba 24 3f 83 3a ff 3e db 70 9e be b4 e7 3a 3f
       0.64347374 0.49849328 -0.30945477 0.730098
000290 8b 49 1a bf ee 19 3e bf 89 26 2d 3f 3f f5 5f 3f
       -0.6026847 -0.74258316 0.67636925 0.8748359
0002a0 25 6f 1e 3f db c2 42 bf 5b f9 87 be f1 bf ad 3e
       0.61888343 -0.76078576 -0.2655743 0.33935502
0002b0 62 92 68 bf 51 6d aa be 75 11 3a 3f 39 19 e0 be
       -0.9084836 -0.33286527 0.7268289 -0.43769243
0002c0 ec 6d 30 bf 0e 27 9f be f4 84 8d 3e bf ad 8c bd
       -0.6891773 -0.31084484 0.27640498 -0.06869077
0002d0 f0 07 30 3e b8 8c 4d 3f 72 d0 98 be ce e0 36 bf
       0.17190528 0.80292845 -0.2984653 -0.71436775
0002e0 90 5e ee be 6d 56 3c be 99 2f e9 be c5 b7 02 3e
       -0.4655652 -0.18392344 -0.45544127 0.12765415
0002f0 f0 0b 8e 3d c5 5d b4 be e7 f5 3c 3f f0 86 35 3f
       0.06935871 -0.3522779 0.7381272 0.70909023
000300 c7 13 95 be 95 b0 97 be 02 59 a6 3e 6b ac f3 bc
       -0.2911665 -0.2962691 0.32489783 -0.029745301
000310 bb c4 8f 3e a3 e9 25 be 9b c0 84 be 1d 70 9f be
       0.2807978 -0.16202407 -0.25928196 -0.31140223
000320 a0 8b 80 be 48 60 84 be 7b 7a a6 3e 56 14 64 bc
       -0.25106525 -0.25854707 0.3251532 -0.013920864
000330 c5 9d 03 3e 41 3e 82 3d 55 3b 96 be 5a bd 97 3e
       0.12853153 0.0635953 -0.29342142 0.2963665
000340 59 79 82 be d6 54 a6 3e ca 16 a6 be ae a7 70 be
       -0.25483206 0.324866 -0.32439262 -0.23501465
000350 f8 e9 bc be 28 69 61 be 03 25 91 3e 58 b9 47 3e
       -0.36897254 -0.2201277 0.2834855 0.19504297
000360 7a 13 90 3e f1 1e bb 3e 1c 1e 91 3e fc 9c 9d be
       0.2813986 0.36547044 0.28343284 -0.30783832
000370 c2 b2 29 3e 8e 22 9f 3e ec b9 a3 3e 2b 83 97 be
       0.16572097 0.3108105 0.31977785 -0.2959226
000380 b1 d9 79 3e b1 65 70 3e 29 98 8d be eb 3b 95 3b
       0.24399449 0.23476292 -0.2765515 0.004554262
000390 31 11 52 be f7 60 ad 3d 21 29 2c 3e 3e 0f 30 3e
       -0.2051437 0.0846576 0.16812564 0.17193314
0003a0 00 5c 3c 3e 85 92 39 3e e9 75 77 be fc c0 01 be
       0.1839447 0.18122299 -0.24166073 -0.12671274
0003b0 cb e1 9c bd 18 48 df 3d 72 99 5b 3e 71 03 70 be
       -0.07660254 0.10902423 0.21445253 -0.23438813
0003c0 ba 93 1a 3e e8 4e 76 be 9b 42 78 3e ab 90 d9 3d
       0.15095416 -0.24053538 0.24244158 0.10623296
0003d0 78 b2 86 3e 75 f6 f9 3d e8 71 7b be fc 72 06 bd
       0.26308036 0.12205211 -0.2455517 -0.0328245
0003e0 58 90 52 be 84 c3 79 be 41 4c 25 be 46 36 10 3e
       -0.20562875 -0.2439099 -0.1614237 0.14083204
0003f0 7e 7e b6 bd 67 99 7a be a8 2d e0 bd 2a c7 6b 3e
       -0.08910845 -0.24472581 -0.10946208 0.23025194

weight f4 [4, 8, 32]
000000 f4 90 fc be 73 cb 00 22 b8 ac 00 80 6d 42 04 3c
       -0.4932934 1.745494e-18 -6.196e-41 0.008072478
000010 6d d7 bf 3e a2 2f 14 bd 35 a4 71 bd a2 36 78 3e
       0.37469044 -0.03617824 -0.05899449 0.24239591
000020 90 37 78 3f 88 d9 e2 3a a7 7f d3 3e c7 7b f0 2f
       0.9695978 0.0017307261 0.41308329 4.3743695e-10
000030 0c 60 30 3c dc 93 c7 2b 70 6b 3e a5 d9 e3 84 2f
       0.010765087 1.418084e-12 -1.6516274e-16 2.4172556e-10
000040 47 a4 3d 3e 7b c4 2a be c7 26 56 b7 64 4a a9 3d
       0.18519698 -0.16676514 -1.27644225e-05 0.08266142
000050 f6 01 d3 3c 85 4f 3d bf 3e ce 1f 3a 14 1c 00 00
       0.025757771 -0.7394946 0.0006096101 1.0073e-41
000060 d2 09 01 80 30 14 01 80 3f 16 1e ab ac ad 14 3c
       -9.5358e-41 -9.9077e-41 -5.616375e-13 0.00907461
000070 6f d1 3e be 3d b4 4d 31 e0 a7 4a 3f 45 3a 4c 3e
       -0.1863458 2.993388e-09 0.79162407 0.19944103
000080 54 d1 ab bd 7b 16 00 12 be a5 00 80 fb 0b 0a 3d
       -0.083895355 4.041739e-28 -5.9457e-41 0.03370283
000090 3c 7f 0e 3f 60 2b 87 3e a3 77 0b 3f b3 36 a9 3d
       0.55662894 0.2640028 0.54479426 0.08262386
0000a0 f0 f2 3b 3c 1a d7 e7 3c ad 9e ae bd 1c 95 40 17
       0.011471495 0.02830081 -0.08526359 6.222675e-25
0000b0 cd 56 16 3c f7 06 9e 30 2b 1b a1 23 5e be 19 17
       0.009175968 1.1497993e-09 1.7467161e-17 4.9677243e-25
0000c0 4b 22 1c 3c ec ee ad bd 46 08 19 2d 93 cd 60 bf
       0.00952966 -0.08492836 8.69888e-12 -0.8781368
0000d0 22 8e b6 bd fe 3e 01 bf 58 a3 2b 3d 2b 35 01 80
       -0.089138284 -0.50486743 0.041903824 -1.10909e-40
0000e0 fc b0 c0 86 73 5f 01 80 cf d4 ed 26 3d b8 10 3f
       -7.248243e-35 -1.26076e-40 1.650286e-15 0.56531125
0000f0 0d 8e 43 bd 3d c5 ed bd 05 30 9c be 74 26 a0 3d
       -0.047742892 -0.11609886 -0.30505386 0.07819834
000100 78 e0 99 bd dc 8d 75 0c ea 7f 00 80 4e 54 81 38
       -0.07513517 1.8916803e-31 -4.5887e-41 6.166902e-05
000110 1b 3b 16 3f 3e d4 01 bc fd 76 c2 be f5 ab ae 3d
       0.5868394 -0.007924138 -0.37981406 0.08528892
000120 5f d1 0c 3c 3f c2 08 3d bb bb ac be 22 f0 26 18
       0.00859484 0.033388373 -0.33736977 2.1576233e-24
000130 49 4f 9d 3c c3 c2 16 2f f7 dd 31 12 bb 09 02 16
       0.019202845 1.3711614e-10 5.6124945e-28 1.0504387e-25
000140 9f b8 36 3d d8 66 54 3d c2 9c 0e af 90 ae 26 3e
       0.044609662 0.051855892 -1.2970516e-10 0.16277528
000150 39 2e be b9 f8 50 74 be 0a 6d e1 3d 79 05 00 00
       -0.00036274063 -0.23859012 0.11007126 1.963e-42
000160 78 89 00 00 ac 4e 00 80 1e b9 50 2d 28 92 05 3f
       4.9314e-41 -2.8222e-41 1.1864535e-11 0.5217614
000170 94 f0 47 be 97 c7 37 3e 7f cc 82 bf 43 fe 20 ad
       -0.19525367 0.17947231 -1.0218657 -9.1514045e-12
000180 aa a2 b3 3e 01 40 00 00 2e 1c 01 80 25 12 3f 35
       0.3508504 2.296e-41 -1.01944e-40 7.117945e-07
000190 81 37 0a 3d a2 b7 61 3a bb 92 17 be e0 2f a3 3e
       0.03374434 0.0008610432 -0.14802067 0.31872463
0001a0 b9 ee a8 23 80 6d 0d 9f 35 eb 6b 3d 8e cb e7 96
       1.83157e-17 -2.9948488e-20 0.057597358 -3.7448524e-25
0001b0 6d 1d 70 b3 26 db 91 04 00 84 00 80 7c bb bb 11
       -5.5906117e-08 3.4290592e-36 -4.7353e-41 2.9618944e-28
0001c0 22 3a f5 bb 77 2f 43 3e 31 6d 01 98 ee cb 77 3e
       -0.0074837366 0.19061075 -1.6727987e-24 0.24198887
0001d0 f5 a9 75 3a b5 38 2b 3e 94 7f 1f b1 c1 21 01 80
       0.0009371334 0.16720851 -2.3210065e-09 -1.03944e-40
0001e0 aa 85 00 80 7a 37 00 80 e9 20 00 80 c2 0a 97 bd
       -4.795e-41 -1.9901e-41 -1.1806e-41 -0.07375099
0001f0 c5 7a aa 3e c4 7c e1 3d c0 a7 1f be 66 e3 c3 1d
       0.3329679 0.11010125 -0.15591335 5.1851195e-21
000200 77 2f 79 bf fc 58 89 83 9d 44 00 80 d4 9c ba b3
       -0.9733805 -8.072566e-37 -2.4614e-41 -8.689827e-08
000210 b2 2a ad 3e ac 27 07 3e f3 c3 33 39 e9 24 52 bd
       0.33821636 0.13198727 0.00017143767 -0.05130473
000220 77 e9 0b 3c cb 91 2a 3c 55 62 92 3e 3f cf 00 80
       0.008539549 0.010410736 0.28590646 -7.4346e-41
000230 b5 91 b5 a8 01 3e be 23 79 a0 a3 8b d7 42 01 00
       -2.0158227e-14 2.0626101e-17 -6.302677e-32 1.15813e-40
000240 3e fc 89 90 7c d8 b2 bd 64 7d 00 80 a2 01 69 bf
       -5.442561e-29 -0.08732697 -4.4982e-41 -0.91018116
000250 7f d8 a3 bd 5e fe 9e bf 35 85 9e 3d fa 30 01 00
       -0.08000278 -1.2421377 0.07740251 1.09405e-40
000260 a2 94 01 80 3b 09 00 00 66 86 bf 05 3c a8 c0 3e
       -1.45155e-40 3.311e-42 1.8010924e-35 0.37628353
000270 32 d8 7b bf 67 a6 3e 3c 6e 10 aa bf ae a2 a1 3d
       -0.9837676 0.011636353 -1.3286264 0.07892357
000280 18 89 a7 3e c2 fc a2 29 b7 e7 00 80 73 f6 5d 3c
       0.32721782 7.238092e-14 -8.3124e-41 0.013547528
000290 bc 2e 46 3f ea 2c f9 ba a6 f9 14 3e 28 3a d0 3e
       0.7741506 -0.0019010578 0.14548358 0.4066937
0002a0 56 01 76 3f 69 0a 95 3d a7 18 f3 3d d2 f8 65 b1
       0.9609579 0.07277376 0.118699364 -3.3465324e-09
0002b0 a1 0b a6 3b e8 69 6d 36 9c 11 04 2d 3a 6d f8 33
       0.0050673042 3.5377398e-06 7.507241e-12 1.1568268e-07
0002c0 0e c2 77 3e 6e 6c f4 3d cf 0e 09 b6 53 2e 88 3e
       0.2419512 0.11934744 -2.042321e-06 0.26597843
0002d0 98 8d a3 3d 94 bf c7 3e 17 bd 19 3e 12 64 01 00
       0.07985991 0.3901335 0.15013538 1.27734e-40
0002e0 d5 e7 43 15 a8 ea 46 06 56 c9 9f 31 57 e6 37 3f
       3.956282e-26 3.741206e-35 4.6503983e-09 0.71835846
0002f0 c6 6e 3a 3f 15 9f 69 3e 69 32 aa 3e 25 9c 41 3e
       0.72825277 0.22814591 0.33241585 0.1890722
000300 ad 26 0d bd 61 13 ee 1b f6 a5 01 00 30 38 4a 3d
       -0.034460712 3.938632e-22 1.51371e-40 0.04936999
000310 b2 8c 07 3f 2c 24 46 3d c1 ae 27 be ef 36 33 3e
       0.5294906 0.04837434 -0.16375257 0.17501424
000320 10 ef 0b 3c cd 4b 61 b0 0c 98 00 bf 0e cd f7 97
       0.008540884 -8.196224e-10 -0.50232005 -1.6013764e-24
000330 24 e5 5d bb 28 d9 58 2d a6 66 dc 09 df b2 02 17
       -0.0033858502 1.2326397e-11 5.3059604e-33 4.2231033e-25
000340 39 18 c6 3d 46 7b 8c 3e ee 97 39 a1 6c 98 59 3e
       0.09672589 0.274378 -6.2881515e-19 0.2124955
000350 b7 ba 8d 3d d3 1e 13 bf 03 99 43 be 8a 1d 01 80
       0.06920379 -0.5746891 -0.19101338 -1.02432e-40
000360 09 5d 4c 06 e6 56 00 00 60 60 0a a7 c8 66 5f 3e
       3.8436487e-35 3.1173e-41 -1.9203592e-15 0.21816552
000370 0a 9f 34 be 6c 03 fe 3d 50 b4 e0 be fb 91 1c ad
       -0.17638794 0.124029964 -0.43887568 -8.8999875e-12
000380 0b 4b ac 34 39 78 01 80 3f 66 00 00 68 7c 00 80
       3.2092098e-07 -1.34963e-40 3.6679e-41 -4.4629e-41
000390 37 c2 3b bc b1 4d 71 3d c3 5d 1b 3e 5a 0c 7f 3c
       -0.011459879 0.058911983 0.15172486 0.01556691
0003a0 1c 1f 00 2c 5b a9 01 80 10 15 3b bd 05 0b 00 80
       1.8207163e-12 -1.52589e-40 -0.045674384 -3.953e-42
0003b0 42 54 01 80 98 89 00 80 f1 21 01 00 39 19 01 80
       -1.22062e-40 -4.936e-41 1.04011e-40 -1.00884e-40
0003c0 75 ce b1 3a 12 38 83 3c 15 ad 25 8f 6b a8 df b4
       0.0013565557 0.016017947 -8.1684625e-30 -4.1659527e-07
0003d0 11 88 76 a9 6f 94 35 bd 89 e8 51 bb 0d ff 32 80
       -5.474099e-14 -0.04433101 -0.003202947 -4.68327e-39
0003e0 ce 8a 00 80 2a 3d 00 80 0b d2 00 80 98 d0 97 bb
       -4.9794e-41 -2.1942e-41 -7.5349e-41 -0.0046330206
0003f0 5a 82 64 3d 4d 9e 0c 3d 90 6c 8f be 52 59 02 95
       0.055788375 0.034330655 -0.28012514 -2.6323752e-26

w_comp f4 [9, 4]
000000 34 53 3a be a8 08 f4 3e 85 2b 83 3f 0d a7 7a 3e
       -0.18195802 0.47662854 1.0247656 0.24477787
000010 fa 63 57 bf de 76 79 3f f9 85 47 3f 78 9e b6 be
       -0.8413693 0.97447 0.779388 -0.35667777
000020 a3 69 35 3e f5 1b ef bd cf 00 46 3f e7 d0 4d bf
       0.17716078 -0.11675254 0.77344984 -0.80396885
000030 e7 60 42 3d b9 de 27 3e aa 24 b7 3e a6 cb 17 bf
       0.047455695 0.16393556 0.3577016 -0.5929512
000040 f8 28 c1 be cc df db 3f c1 1b 85 bf 09 4a 9b bf
       -0.3772657 1.7177672 -1.0399095 -1.2131969
000050 64 8f ea 3e 7a be 7e bf 16 c8 07 40 e2 7d ac 3e
       0.45812523 -0.99509394 2.1215873 0.3368979
000060 fe 94 0f 3f 75 32 0c bf f2 d7 35 bf 1e 69 1c bf
       0.5608672 -0.5476449 -0.7103263 -0.61097896
000070 b0 28 47 3f e0 92 43 bf 13 7d 0e bf 11 5c 02 be
       0.7779646 -0.7639599 -0.556596 -0.12730433
000080 26 af 12 39 be 16 10 bc 1b 8a b1 3c fb d1 6d 3a
       0.00013988893 -0.008794485 0.0216723 0.0009072122

self_loop_weight f4 [8, 32]
000000 9d 83 95 3d 98 25 d7 b0 e5 dc 02 00 98 55 d9 ba
       0.07300494 -1.5653994e-09 2.62913e-40 -0.0016581295
000010 d0 9e 21 bf ba c5 20 3c 0b 98 00 00 47 3d 86 3d
       -0.63132954 0.009812767 5.4543e-41 0.065546565
000020 93 dd 2e be 00 ec 5a bd 96 1d 00 00 92 b5 00 80
       -0.17076711 -0.053447723 1.0613e-41 -6.5135e-41
000030 b5 be 38 bd df 33 7d 39 2f ae 06 ba 96 42 e9 1b
       -0.045103747 0.00024147284 -0.000513765 3.8589647e-22
000040 96 b7 90 be 6c e9 40 3e d3 e0 85 2b eb dd 06 be
       -0.28265065 0.18839043 9.51262e-13 -0.13170592
000050 a8 d6 03 bd 54 ec 60 3f d8 45 04 a5 9f 24 3e b7
       -0.032187134 0.8786061 -1.1472839e-16 -1.1333409e-05
000060 85 92 81 86 28 40 01 00 84 1c 6d b8 e0 e0 9e bf
       -4.87397e-35 1.1485e-40 -5.653176e-05 -1.2412376
000070 6c 7a 9f 3a b5 d8 84 bd 49 fd ad 3f f9 55 13 b2
       0.0012167222 -0.06486646 1.3592921 -8.576074e-09
000080 12 d6 8c be 5e a0 ee ba 9c 02 a4 a9 a0 7a d9 bc
       -0.27507073 -0.0018205752 -7.283516e-14 -0.02654773
000090 ee 76 8a 3f d8 d7 a0 bd 38 df bd be d0 e1 e6 be
       1.0817544 -0.07853669 -0.37084365 -0.45094156
0000a0 86 cf 0d bd b9 59 a6 be eb 77 3a 3f 0f f0 93 b8
       -0.034621738 -0.32490328 0.7283923 -7.0542206e-05
0000b0 a4 1e f9 bd 14 70 53 ba d6 2b 96 ba 7b 9f 17 bc
       -0.12164047 -0.0008065712 -0.0011457156 -0.009254332
0000c0 cf 7f cf be 3d 16 67 bf 47 64 88 b9 9a c4 48 bf
       -0.40527198 -0.9026831 -0.00026014654 -0.7842499
0000d0 3b 44 44 be 5e 41 02 c0 24 9b b9 be b7 f2 ca a4
       -0.19166653 -2.0352397 -0.36251175 -8.801471e-17
0000e0 2a 7d a4 b5 7c 67 d4 b0 a6 fa 0c bc 96 24 30 3f
       -1.225538e-06 -1.5454442e-09 -0.008604681 0.68805826
0000f0 68 eb 67 bf d1 ac 2a bf dc f5 ed 3e 9b a1 b2 be
       -0.90593576 -0.66669947 0.46476638 -0.3488892
000100 60 3a 2a 3f 45 9b bd b9 41 86 00 00 56 10 47 bd
       0.66495323 -0.00036164574 4.8161e-41 -0.048599564
000110 ec a1 84 bf 18 4e bf be 34 35 80 be 04 91 17 3e
       -1.0361915 -0.37364268 -0.2504059 0.14801413
000120 01 4e 84 be 5a 2c 95 be 90 f5 9d bf 1e 1e 18 b1
       -0.25840762 -0.291354 -1.2340565 -2.213603e-09
000130 c2 b0 2f bd 2e e7 f8 b6 fb 30 bd b4 c6 41 22 18
       -0.04289318 -7.417889e-06 -3.523963e-07 2.0971216e-24
000140 02 39 d8 3d a5 e6 cb 3e ee 8e ff ba 52 ee 1a 3a
       0.105577484 0.39824405 -0.0019497552 0.0005910146
000150 f9 98 61 bd 3c 6a 3d 3f 88 34 f4 be 7a d1 9f ae
       -0.055077527 0.73990226 -0.47696328 -7.2676934e-11
000160 b8 de 52 b5 f0 d3 66 90 ab 53 c5 b9 8c b0 87 3e
       -7.8555195e-07 -4.5522773e-29 -0.00037637106 0.26501882
000170 7f c3 14 3f c8 b8 e0 bd d6 71 ce bf ed 2d 88 33
       0.58110803 -0.10972744 -1.612849 6.3413474e-08
000180 5c f1 27 3f 3f 45 ce b4 4c b5 34 ac 3e 49 02 bb
       0.6560266 -3.8420873e-07 -2.5680178e-12 -0.0019880082
000190 61 dd 31 3d af 8c ab be c1 c6 98 3f 6c 72 1d 3f
       0.043424014 -0.3350577 1.1935655 0.6150272
0001a0 1c 29 1c be 48 a8 0d 3e 19 8c f5 bf bd 6d e6 b7
       -0.15250057 0.13833725 -1.918338 -2.7469237e-05
0001b0 ff 98 18 3d 7d b5 74 34 4e d6 dc b5 a4 8e f3 92
       0.037255283 2.2790296e-07 -1.6453648e-06 -1.537062e-27
0001c0 ab de 87 3d c0 2c 8c 3f 8a 37 e9 b5 5e 49 08 3c
       0.066342674 1.0951157 -1.7376017e-06 0.008318273
0001d0 0d 2e 3c bd 6d 9d 03 be 52 92 ae be de ec e1 ab
       -0.045942355 -0.12853022 -0.3409601 -1.6052955e-12
0001e0 19 d2 29 b2 b8 b6 82 88 a0 d1 02 b9 fa 00 51 3f
       -9.884865e-09 -7.867047e-34 -0.00012475858 0.81642115
0001f0 4b b5 60 3e e3 f0 84 be fc 19 17 c0 c2 98 fb 20
       0.21944158 -0.25965032 -2.360961 4.262214e-19
000200 6f 9c 22 bf ef 99 eb b0 2a 13 01 00 f3 2c 7c bb
       -0.6351995 -1.7142251e-09 9.871e-41 -0.003847894
000210 2a b2 c5 bf 8c 99 85 bd ec df 48 3f 07 6c d3 3c
       -1.5444996 -0.06523427 0.7846668 0.025808347
000220 88 a5 93 bd 1f 23 b9 af 0b 2e 92 bf df 0a c3 b7
       -0.07209307 -3.367626e-10 -1.1420301 -2.3250874e-05
000230 32 44 1e be 57 e6 65 a5 31 9b 82 04 33 62 e1 bb
       -0.15455702 -1.9940626e-16 3.0705374e-36 -0.0068781613
000240 5e 84 83 3e a5 28 01 00 cb 4e 1e b9 05 24 f7 bd
       0.25686926 1.06416e-40 -0.00015097407 -0.12067417
000250 09 21 a5 bc 5c 50 f0 be 7a a2 2a be 44 57 c3 a4
       -0.020157354 -0.4693631 -0.16663542 -8.47156e-17
000260 b0 03 cf 07 11 17 74 a5 1e 62 87 ba 68 27 73 bf
       3.1148066e-34 -2.1171442e-16 -0.0010328924 -0.94982004
000270 dd 3a ff be 2a d9 58 be 77 c6 0c bf f0 7e 15 be
       -0.49849597 -0.21176592 -0.54990333 -0.14599204
000280 0b 59 27 3f 55 e8 16 bb 2f 25 64 a1 4a cf a5 be
       0.65370244 -0.0023026664 -7.7298617e-19 -0.32384712
000290 a0 09 0c 3f 34 06 06 bf e0 0f d7 be 31 90 aa be
       0.54702187 -0.52353215 -0.420043 -0.33313134
0002a0 43 6b 95 be 48 2f a9 be e2 1a bb bf e2 3f bf b9
       -0.29183397 -0.33043885 -1.4617579 -0.00036477955
0002b0 7f dc 92 be 05 a8 29 bb 97 77 df ba ac 29 72 ad
       -0.2868385 -0.00258875 -0.001704919 -1.376536e-11
0002c0 a1 ae cd be 4f 58 27 bf b9 f0 10 ba 64 00 7e be
       -0.40172294 -0.65369123 -0.00055290345 -0.24804837
0002d0 bf 68 b5 be 63 f6 25 3f d8 4b 18 bf 48 4f 3c b7
       -0.35431477 0.6482908 -0.5949073 -1.1224132e-05
0002e0 4d ee 40 a5 73 1b 98 ab b9 22 8d bb f2 30 8b 3f
       -1.6734085e-16 -1.0807868e-12 -0.004307118 1.0874312
0002f0 d3 bf 9c 3e ae fa 37 be d3 b1 89 bf 16 88 b7 be
       0.306151 -0.1796672 -1.0757393 -0.35846013
000300 a9 ee 48 bf 71 eb 1a b5 85 68 c5 af 6f 3d 4b bd
       -0.78489166 -5.7712083e-07 -3.5908357e-10 -0.049619135
000310 a1 76 19 3f eb ea a9 3e 4e ce 3c 3e 2e 36 53 3f
       0.5994664 0.3318704 0.18438074 0.82504547
000320 49 44 89 bc 30 92 19 be 3d 20 bd 3f 9a 91 ba b1
       -0.016756194 -0.14997172 1.4775463 -5.4298654e-09
000330 59 b6 97 bd 2a 43 89 b9 46 97 ed b6 b4 6f 2a b0
       -0.07407827 -0.00026180717 -7.080761e-06 -6.200438e-10
000340 2f 73 b4 3e 48 2a 9d 3f 8c f7 92 ba e8 c8 c0 be
       0.35244128 1.2278528 -0.0011212691 -0.3765328
000350 fd b0 96 be 64 f0 4d bf 52 0c 76 3e f4 ed 33 b3
       -0.29431906 -0.8044493 0.24028137 -4.1893102e-08
000360 dd 62 bc b6 83 e2 1b ab a2 1a 02 b8 68 57 a4 3e
       -5.614346e-06 -5.538141e-13 -3.101922e-05 0.32097936
000370 1a 88 e3 be 9a 61 d3 3d e2 c2 0d 40 60 72 35 b7
       -0.44439775 0.103213504 2.2150197 -1.0815071e-05
000380 00 75 23 bf 8e 20 7b 97 a9 11 01 80 91 e0 a2 33
       -0.638504 -8.1143564e-25 -9.8171e-41 7.584561e-08
000390 fe 7e 6b 3e 56 c4 8e be 38 5e f9 bb b5 0d 15 be
       0.22997662 -0.27884167 -0.0076101087 -0.1455601
0003a0 00 ed c8 be 49 6a 00 00 1f e8 e1 be 2f 96 00 00
       -0.39243317 3.8128e-41 -0.44122407 5.3876e-41
0003b0 8e 04 7d 38 9b db 7c 8b 8f 01 02 95 3e 44 00 80
       6.0324142e-05 -4.8698647e-32 -2.625452e-26 -2.448e-41
0003c0 16 1e 87 3e 54 15 7b 3e aa 8d 34 2f a4 cb 3f be
       0.2639014 0.24519855 1.6421234e-10 -0.18730026
0003d0 d7 0d b6 3a 3b 5e 82 be a2 00 c0 3d a0 21 01 80
       0.0013889623 -0.25462517 0.09375121 -1.03898e-40
0003e0 91 f1 3c ad 76 a9 01 00 d6 f4 c0 37 a0 40 41 bf
       -1.0740201e-11 1.52627e-40 2.3002194e-05 -0.75489235
0003f0 cc 25 0f 3f b2 56 89 be 70 af 08 3f 69 7e 01 00
       0.5591705 -0.26823956 0.53392696 1.37183e-40

weight f4 [8, 80]
000000 6f 35 0a bd 95 46 61 bc 5f f6 c1 16 6c 86 7e 05
       -0.033742364 -0.013749738 3.1336314e-25 1.1967712e-35
000010 73 88 eb 3b 18 d5 3a bd e3 65 22 a4 e1 12 7c 92
       0.007187897 -0.04561338 -3.5214452e-17 -7.954045e-28
000020 45 32 d2 bb b8 26 3d bd 58 20 5d 93 96 86 be 85
       -0.006414684 -0.046179503 -2.7910068e-27 -1.7916953e-35
000030 03 39 07 bd 66 85 4a bc a0 20 9d b3 91 b2 26 b2
       -0.033013355 -0.012360906 -7.316817e-08 -9.703073e-09
000040 3a cc 12 3c 3c 2b 48 3a 24 c6 fc ba ab 0b 15 38
       0.008959824 0.0007635837 -0.0019285125 3.5535235e-05
000050 6f a9 f2 bb 33 10 36 ba fc fd da 3b 2b 16 72 bb
       -0.007405452 -0.0006945163 0.0066831093 -0.0036939483
000060 d9 a3 fe 39 07 00 15 37 53 ee 75 bb e2 f2 41 bb
       0.0004856873 8.881098e-06 -0.0037526086 -0.0029594232
000070 8b 5d 98 bb d1 61 5a 3b 9b 16 d8 3a 9d 24 ae ba
       -0.004649823 0.0033322463 0.0016486229 -0.0013286058
000080 45 54 cd 2c 38 d1 c2 3a 28 f2 b7 3a 5b 49 09 3a
       5.8358062e-12 0.0014863377 0.001403396 0.0005237066
000090 fd 06 d4 3b c6 cc 7a 3b d6 27 0c bc 31 09 44 b8
       0.0064705596 0.0038269027 -0.0085544195 -4.67386e-05
0000a0 bb 3c ed bb 73 61 1a bb e8 42 23 bb d9 c9 73 3b
       -0.0072399057 -0.002355662 -0.0024911705 0.0037199168
0000b0 11 a1 9c b8 16 79 fb 3a 16 27 1a b5 e9 f5 b5 ba
       -7.4686606e-05 0.0019185867 -5.742635e-07 -0.0013882491
0000c0 80 2b 25 3c 2c 63 8c 3a 1a b9 81 bb 8c 92 77 38
       0.010081172 0.0010710708 -0.0039588334 5.902587e-05
0000d0 f2 da 05 bc 4f 74 48 ba 20 e1 f8 3b 73 61 28 bb
       -0.008169876 -0.0007646726 0.0075951964 -0.002569285
0000e0 d4 bf 0d 3a 81 c4 23 37 9d 8a bd bb 62 95 4c bb
       0.0005407308 9.761309e-06 -0.0057843463 -0.0031216969
0000f0 bc d2 a5 bb d2 ce 62 3b 71 73 01 3b d3 33 ca ba
       -0.005060522 0.0034608138 0.0019752646 -0.0015426822
000100 51 7a b5 2c 6d 2b 4f b9 a0 72 5c 3b 41 2c ab 38
       5.1579093e-12 -0.00019757236 0.0033637658 8.162158e-05
000110 2c e6 11 3c 6c 37 8c 3b d5 ce 23 bc 95 ba 3f b8
       0.008904975 0.0042790677 -0.009998043 -4.5711717e-05
000120 ff 94 0a bc c3 a2 95 bb 75 40 3d bb d0 14 84 3b
       -0.008458375 -0.004566522 -0.002887753 0.0040308014
000130 a5 2f 05 39 5e ef b3 39 45 9e fa 35 2f 67 91 ba
       0.00012701617 0.00034319883 1.8672514e-06 -0.0011093373
000140 2c 07 2d be 03 12 92 3d e5 21 94 be 65 01 d1 bb
       -0.16897267 0.07132342 -0.2893211 -0.00637834
000150 56 4a df 3d e7 3c 16 bf 63 20 3b be 86 e8 82 3d
       0.1090285 -0.5868668 -0.18274073 0.063920066
000160 29 86 b4 bd 55 55 cc bd 68 79 82 be bf db 03 bd
       -0.088146515 -0.09977213 -0.2548325 -0.032191988
000170 d0 71 ba bc 1c cc cc bc 31 98 cd bd c9 f1 1c bc
       -0.022759348 -0.02499967 -0.10038794 -0.00957913
000180 ef 0f a0 3c a1 2a a3 3b 34 e3 c6 3d e9 96 f8 bd
       0.019538848 0.004979447 0.09711304 -0.12138159
000190 e6 95 60 bc 58 11 1d 3d a4 2a bf bc e1 c4 26 be
       -0.013707614 0.03834662 -0.023335762 -0.16286041
0001a0 74 d0 9c bc df 7d 14 bd 95 b8 ad 3c 8c 08 db bd
       -0.019142367 -0.036252853 0.02120618 -0.106949896
0001b0 dc 9b 83 3d 70 2d ed 3d a8 9b 9b 3c 75 ef 51 bc
       0.06426212 0.11580932 0.018995121 -0.012813439
0001c0 d4 f1 c2 3c 1d 12 ca 3d ae e9 08 be f9 d4 0c 3e
       0.023796953 0.09866736 -0.13370392 0.13753118
0001d0 bd 3b c5 bc 63 32 1a bd 53 88 7c bd 73 d3 37 bd
       -0.024076337 -0.03764571 -0.061653446 -0.044879388
0001e0 14 ef 6d bb 6f c6 68 3c 8e 92 7e bc 92 19 0f 3d
       -0.0036305832 0.0142074665 -0.015537871 0.034936495
0001f0 9c 6b ef bd 34 53 6d 3d d4 1a 45 3c 68 63 2e 3a
       -0.11690447 0.057940677 0.012030322 0.0006652386
000200 d3 24 20 3e 3c 37 15 3e 17 57 73 be 85 1c 50 be
       0.15639047 0.14571851 -0.23763691 -0.2032338
000210 09 02 0e be 4c f5 ff 3d 3d a3 f4 3c fd 9a d0 bd
       -0.13867964 0.124979585 0.029862994 -0.10185812
000220 c7 d0 dd 3c 72 a6 39 3e e6 f6 8d be 41 53 45 be
       0.027077092 0.181299 -0.2772743 -0.1927004
000230 44 ea 87 3c 21 fd 42 3e 5f 59 16 3e 31 43 05 be
       0.016591199 0.19041874 0.1468253 -0.13013913
000240 38 20 36 3e dc d4 41 be 94 6f 31 3e 4a a0 34 3e
       0.17785728 -0.18928856 0.1732772 0.1763927
000250 74 ea 90 3e a4 7d 1b 3c 2d 54 1a be fa 59 b4 bd
       0.28303874 0.009490404 -0.15071173 -0.08806224
000260 5a 57 13 be c7 7d a2 be 3f 92 8c bd 64 31 92 3d
       -0.1438879 -0.31736585 -0.06863832 0.07138327
000270 56 4e 27 be b2 33 54 be b4 a0 4f be 91 a8 22 3e
       -0.16338477 -0.20722845 -0.20276147 0.15884615
000280 9d 2e f6 80 8b f0 c8 9f da 26 01 80 97 4c 00 00
       -2.2608254e-38 -8.510124e-20 -1.05773e-40 2.7475e-41
000290 7b e6 07 00 b3 46 01 a8 89 7b 01 80 ac 7b 01 00
       7.25529e-40 -7.176269e-15 -1.36152e-40 1.362e-40
0002a0 c7 61 8b a4 9c 01 0c 81 00 07 00 80 89 5b 00 80
       -6.044728e-17 -2.5715094e-38 -2.511e-42 -3.2837e-41
0002b0 f0 3f 00 00 27 fa 22 a9 a6 13 01 00 aa a0 01 00
       2.2936e-41 -3.61882e-14 9.8884e-41 1.49471e-40
0002c0 74 1a 01 80 a1 81 00 80 03 9d e9 16 51 1e 00 80
       -1.01325e-40 -4.6502e-41 3.7742269e-25 -1.0875e-41
0002d0 03 ed 00 80 a1 17 01 80 17 82 00 00 65 53 af 98
       -8.5024e-41 -1.00312e-40 4.6667e-41 -4.5320647e-24
0002e0 d4 6a 01 00 7e 25 00 80 4e cf 00 00 ee 15 01 80
       1.30158e-40 -1.345e-41 7.4367e-41 -9.9702e-41
0002f0 43 a9 00 80 ba 19 00 80 0a 8e 01 00 04 a7 00 00
       -6.072e-41 -9.229e-42 1.4279e-40 5.9914e-41
000300 54 45 01 80 0e 08 00 80 70 39 00 00 c7 51 00 00
       -1.16706e-40 -2.89e-42 2.0605e-41 2.9336e-41
000310 64 a9 b5 1e 94 bd 00 00 50 15 15 07 f9 6f 00 00
       1.9234179e-20 6.8008e-41 1.1215777e-34 4.0168e-41
000320 46 2b 00 80 95 e3 71 a0 91 af 00 80 a5 17 01 00
       -1.5524e-41 -2.0488795e-19 -6.2981e-41 1.00318e-40
000330 ee 0e 00 80 a9 24 00 00 38 0f 00 80 48 57 00 00
       -5.356e-42 1.3151e-41 -5.46e-42 3.131e-41
000340 4f 03 00 00 4e 92 01 80 f7 88 81 8e b1 33 00 00
       1.187e-42 -1.4432e-40 -3.1932848e-30 1.8543e-41
000350 95 69 00 00 67 6c 00 80 68 05 00 00 84 fe a7 12
       3.7876e-41 -3.8887e-41 1.94e-42 1.0601925e-27
000360 cb 1e 00 00 cc cd 00 80 76 49 00 00 36 8f 00 00
       1.1046e-41 -7.3826e-41 2.6353e-41 5.1374e-41
000370 ba 63 00 80 20 45 01 00 38 5c 00 80 d6 82 00 00
       -3.5775e-41 1.16633e-40 -3.3082e-41 4.6935e-41
000380 6f 8d 00 80 9f 18 04 00 ed e0 bc 85 50 23 00 00
       -5.0737e-41 3.76174e-40 -1.776206e-35 1.2668e-41
000390 c2 a7 44 19 9e ad 00 00 83 3f 00 80 d1 95 00 00
       1.0166841e-23 6.2282e-41 -2.2784e-41 5.3744e-41
0003a0 c3 06 00 80 c2 f8 20 9b cb 86 00 00 35 73 00 00
       -2.426e-42 -1.3315268e-22 4.8355e-41 4.1328e-41
0003b0 68 6a 00 80 09 4f 00 80 c1 50 00 80 a8 6c 00 80
       -3.8171e-41 -2.8352e-41 -2.8969e-41 -3.8979e-41
0003c0 6c 42 bb 3d 3d 12 fe be 80 af 2f 3e 5e 33 5c 2b
       0.09143528 -0.4962329 0.17156792 7.8230987e-13
0003d0 7f b2 05 bd bb 81 eb 3d a3 ed 14 3d e2 40 58 bd
       -0.03264093 0.114993535 0.03635944 -0.052796252
0003e0 fa ca 4e be 41 3c af bd e0 e8 36 bb e2 fa fa 3c
       -0.20194617 -0.085564144 -0.00279098 0.030637208
0003f0 ca d3 df 3d 9d 54 88 be 9e 17 52 bd 9c 73 e7 3a
       0.109290674 -0.26627055 -0.051292054 0.0017658356

bias f4 [8]
000000 39 a9 73 bd fb 5c 88 be 3b d4 82 ab ba e3 9e be
       -0.059487555 -0.26633438 -9.295961e-13 -0.31033117
000010 8a 36 a2 96 62 4c 13 3e 14 0b 85 bd b2 13 8a 3f
       -2.620693e-25 0.14384606 -0.064962536 1.078726

weight f4 [1, 8]
000000 b9 f4 cd bc 29 98 0b 3e 22 cb 0a ba ee dc d5 be
       -0.025141107 0.13632263 -0.00052945514 -0.41770118
000010 54 aa bc b5 e2 3b aa bd 11 8c 8b 3d b0 5d 8f bf
       -1.4056664e-06 -0.08312203 0.06813825 -1.1200466

weight f4 [4, 32, 32]
000000 47 18 9f bd b3 ef 88 3c 78 86 3d bf fe db 80 3d
       -0.077683024 0.01671586 -0.7403331 0.0629196
000010 e5 15 12 3e a9 a9 c1 3a a7 1f d2 be 6e 5e ab bd
       0.14266165 0.0014775294 -0.41039774 -0.083676204
000020 69 24 bc 3d c5 b7 81 3d 19 c2 37 3c 53 e0 0d bd
       0.09186632 0.063338794 0.01121571 -0.03463776
000030 22 f5 d9 3d 70 e2 d6 bd 3f f9 3f 3c 04 ab 12 bd
       0.106424585 -0.10492408 0.01171714 -0.035807624
000040 a4 04 9a 3d ab 6c 0f be 42 12 81 be a3 0e 4d be
       0.075204164 -0.14006297 -0.25209242 -0.20025115
000050 80 b5 85 3d e7 44 ed be 76 11 94 be f6 7b 14 be
       0.06528759 -0.4634163 -0.28919572 -0.14500412
000060 d7 e1 02 3e 51 b8 ac bc 8e d9 d7 bc d3 a1 1a bc
       0.12781464 -0.021083983 -0.026348855 -0.009437996
000070 ac 39 5d be 76 3c 08 bf a5 91 22 bf 1d 27 f1 3d
       -0.21604031 -0.53217256 -0.63503486 0.117750384
000080 6e 4d 00 80 94 69 6c 0e 70 b4 00 80 9c 7c 00 80
       -2.7777e-41 2.914008e-30 -6.4729e-41 -4.4701e-41
000090 14 8c 00 00 bd 61 01 80 65 7d 00 80 33 b6 00 80
       5.025e-41 -1.26897e-40 -4.4983e-41 -6.5361e-41
0000a0 b6 cf 00 80 85 23 00 80 b6 3a 01 00 e5 3d 00 80
       -7.4513e-41 -1.2742e-41 1.12897e-40 -2.2204e-41
0000b0 97 50 01 00 08 09 01 00 e6 b6 00 00 51 3b 00 80
       1.20746e-40 9.5075e-41 6.5612e-41 -2.1279e-41
0000c0 90 38 00 80 01 4a 00 00 78 a1 00 80 2c 7a 00 80
       -2.0291e-41 2.6548e-41 -5.7924e-41 -4.3827e-41
0000d0 36 64 00 00 15 48 00 80 93 08 01 80 c5 ee 03 a9
       3.5949e-41 -2.5858e-41 -9.4911e-41 -2.9294943e-14
0000e0 90 44 00 00 bf a5 00 00 9c 6e 00 80 d4 1d 00 80
       2.4596e-41 5.9458e-41 -3.9679e-41 -1.07e-41
0000f0 f9 4d 00 80 73 83 00 00 55 82 00 80 cf 8d 00 80
       -2.7971e-41 4.7155e-41 -4.6754e-41 -5.0871e-41
000100 fe 9b 00 00 2e 28 01 00 7e 3e 00 80 32 a1 04 00
       5.596e-41 1.06249e-40 -2.2418e-41 4.25168e-40
000110 8f 23 00 80 5b 4c 00 80 9a 68 00 00 1e 16 01 80
       -1.2756e-41 -2.7391e-41 3.7524e-41 -9.977e-41
000120 93 41 01 00 ea 3d 00 80 7b 33 00 80 37 d3 00 00
       1.15359e-40 -2.221e-41 -1.8468e-41 7.577e-41
000130 d9 4c 00 00 ff 10 00 80 dc 7a 00 80 00 0a 00 80
       2.7568e-41 -6.097e-42 -4.4074e-41 -3.587e-42
000140 5d 56 01 00 e5 17 00 00 89 8e 00 00 52 1f 01 80
       1.22817e-40 8.572e-42 5.1132e-41 -1.03071e-40
000150 e8 86 01 00 29 a3 01 80 21 1e 00 80 3f 89 01 00
       1.40231e-40 -1.50366e-40 -1.0808e-41 1.4107e-40
000160 ef e3 00 80 9d b8 08 80 ff 63 00 00 1c 2d 04 00
       -8.1767e-41 -8.00911e-40 3.5872e-41 3.83524e-40
000170 b9 1b 00 00 7c 03 00 80 c4 69 01 80 e2 46 00 80
       9.945e-42 -1.25e-42 -1.29777e-40 -2.5428e-41
000180 ae 34 41 82 cc 8b 42 ab 84 98 2b 15 73 b2 00 80
       -1.4194519e-37 -6.911665e-13 3.465349e-26 -6.4016e-41
000190 e8 30 a1 31 32 01 a1 0f 8e 84 65 a8 3e 4d 00 80
       4.6912767e-09 1.5876286e-29 -1.2740797e-14 -2.7709e-41
0001a0 26 33 00 80 d1 e3 4b b4 76 e1 0e aa 14 93 b5 01
       -1.8349e-41 -1.8988727e-07 -1.2690356e-13 6.6699946e-38
0001b0 8d 04 fe 2d c1 bb 00 00 78 c6 72 35 57 97 01 80
       2.8878478e-11 6.7353e-41 9.0440835e-07 -1.46126e-40
0001c0 78 29 00 80 af 1e cc a2 6b c2 00 80 53 01 87 ab
       -1.4876e-41 -5.53268e-18 -6.9744e-41 -9.592694e-13
0001d0 b7 da 0c 85 5f 2e 3f 2e 46 5e 00 00 4a 3d 7a b6
       -6.62294e-36 4.3469558e-11 3.3819e-41 -3.7288578e-06
0001e0 86 06 01 00 a6 51 00 00 74 cc 00 00 ff 9e 2f 20
       9.4176e-41 2.929e-41 7.3344e-41 1.4875684e-19
0001f0 41 37 af 8b f5 87 bc ac 49 2d 1a 9b 79 0b 00 00
       -6.7490685e-32 -5.3583756e-12 -1.2753214e-22 4.116e-42
000200 05 f3 a6 3d e7 05 71 bd 1e d0 70 be b4 b3 5b bd
       0.08151821 -0.05884352 -0.2351689 -0.053638175
000210 e1 43 03 3d cb 48 c2 ba a3 a8 8f be d9 f9 91 3e
       0.032047156 -0.0014822719 -0.28058347 0.2851093
000220 89 e2 d3 3d 64 5e bb be e8 f3 f0 3d 68 ff 66 3e
       0.103459425 -0.36595452 0.117652714 0.22558367
000230 72 9f 34 3e a4 c7 4c 3e 38 7a f3 3a 3f 51 84 3e
       0.17638949 0.19998032 0.0018575853 0.25843236
000240 ac 25 85 3e 7b 81 b9 be 1e 4e 0a 3f 1b 96 79 bd
       0.26005304 -0.36231598 0.5402545 -0.060934167
000250 19 c6 d7 3d fc 7a 49 3d 3f 53 11 be f8 1a ac be
       0.10535831 0.049189553 -0.14191912 -0.33614326
000260 23 69 3f bd e7 f5 19 3e 60 18 2a 3e 8a 62 91 3e
       -0.046731126 0.1503521 0.16610861 0.28395492
000270 57 a7 89 be 2f 53 84 be d5 15 d5 be ee 94 db 3d
       -0.26885483 -0.25844714 -0.4161822 0.107217655
000280 16 c7 44 3d 4a 6e 89 3d 4d 58 65 3e bc 8c c9 3a
       0.048041426 0.06710489 0.22396965 0.0015377025
000290 fd 4c 05 2e f7 1f 01 80 d7 3a cd bc 62 a9 cf 3b
       3.0309078e-11 -1.03302e-40 -0.025052471 0.0063373307
0002a0 c3 49 80 31 a1 fd 88 3e 24 1c 7d ba f1 c9 74 33
       3.733676e-09 0.26756003 -0.00096553774 5.699434e-08
0002b0 68 4b 00 3d ca 7b 24 3c f3 08 21 be 8a ff 17 3d
       0.031321913 0.010039279 -0.1572607 0.037108935
0002c0 18 a9 ac b3 bb f8 19 bc 0a 8f 8a 3d 63 4c 9f 3c
       -8.040132e-08 -0.009397681 0.06765564 0.019445604
0002d0 e9 06 00 80 92 10 8b 3d 92 50 b4 3d 94 2e 8b 3e
       -2.479e-42 0.0679027 0.0880443 0.27183974
0002e0 19 de 9f 38 e9 25 c9 37 aa 64 27 32 96 06 0a 3d
       7.62308e-05 2.397872e-05 9.743568e-09 0.033697687
0002f0 53 7d cd 3d 5c 14 06 3d d4 00 71 3e 40 3b f6 9f
       0.10033669 0.03273426 0.23535472 -1.04283073e-19
000300 ad 6d 7b 3d cd 78 67 bd b5 d9 4f be 97 f7 3c 3a
       0.06138389 -0.05651169 -0.20297892 0.00072085246
000310 e7 fe a8 38 46 4b 00 00 78 51 05 be 81 df 32 b8
       8.0583435e-05 2.7003e-41 -0.13019359 -4.264666e-05
000320 0a 3d 34 b8 91 ad 57 3e 1b 6c 23 39 2d 1a c7 3a
       -4.297219e-05 0.21062304 0.00015585164 0.0015190296
000330 ab 66 48 37 98 ba 30 be cb cd 38 3e 1a 73 f5 3d
       1.1944833e-05 -0.1725868 0.18047254 0.119848445
000340 4a 20 5f 3e e9 c6 1e bc 7b 26 9c b6 30 74 21 3b
       0.21789661 -0.009690979 -4.653642e-06 0.0024635904
000350 95 3e f6 27 23 4a 21 bd 8d f2 83 bc 09 6f 50 be
       6.8346568e-15 -0.039377343 -0.016106868 -0.20354857
000360 9d e8 02 38 99 76 2d 3b 20 91 31 39 bd fb d0 bd
       3.1211053e-05 0.0026468395 0.00016934099 -0.10204265
000370 c1 d4 09 b1 d3 08 5c bd 4a 63 99 be dd 14 23 b5
       -2.005706e-09 -0.053719353 -0.29958564 -6.075259e-07
000380 7c e0 53 3e 5e e6 9d 3e 7d 4e 6e bd f4 45 c8 3b
       0.20691103 0.3083982 -0.05818032 0.0061118547
000390 bc c2 e7 35 7c d3 8b 1b 81 08 86 3d 76 1a 4c 3c
       1.7267516e-06 2.313229e-22 0.06544591 0.012457481
0003a0 d3 df 0c ba 95 0f 2d 3e c9 ee ef ba 78 f8 0d 38
       -0.00053739286 0.16900475 -0.0018305416 3.3848424e-05
0003b0 70 36 e2 3c bf b1 72 3c 13 c7 f7 bd f3 02 06 3d
       0.027613848 0.014812886 -0.12098517 0.032717656
0003c0 8f bb c6 36 c9 57 4f bd c8 93 6a 3e d1 b2 a1 3c
       5.9226945e-06 -0.050620828 0.22907937 0.019738587
0003d0 04 e1 a2 2b 63 64 23 be 32 80 0e 3e c0 84 0d 3e
       1.1573247e-12 -0.15956263 0.1391609 0.13820171
0003e0 5c 9c 20 3b de 0a eb 39 75 e4 66 37 c4 fe 8d 3d
       0.002450726 0.0004483079 1.376226e-05 0.06933358
0003f0 bb 2d 89 3e 58 09 b2 3c eb 9a a5 3e 81 58 48 9d
       0.26792702 0.021732971 0.32344756 -2.6515535e-21

w_comp f4 [9, 4]
000000 9f 51 36 be 4a 7e 38 be ac b8 68 3d 61 b1 47 bd
       -0.17804573 -0.18016925 0.05681674 -0.048753146
000010 0e bc 23 3e 5a d4 16 3f de 47 37 3e 21 d2 f5 3a
       0.15989706 0.5891777 0.17898509 0.001875464
000020 5e 6d 04 be 2b c9 a4 3e 34 31 f5 3c c7 4b 3a bf
       -0.12932345 0.3218473 0.029930688 -0.7277188
000030 01 c0 e7 3e db 3c 34 be 76 c6 04 be 7e 9b b3 be
       0.45263675 -0.1760134 -0.12966332 -0.3507957
000040 bc c2 75 3e a5 a4 09 3f 1d 9d a5 bd af f4 78 3d
       0.24000067 0.5376685 -0.080866076 0.060780223
000050 dc 09 ad bf 5a 6a 17 bf 4d 2b a2 bf 4a 0b 27 be
       -1.3518634 -0.59146655 -1.2669464 -0.163129
000060 4f 38 00 80 6f 1b 00 80 f5 63 00 00 69 aa 00 00
       -2.02e-41 -9.841e-42 3.5858e-41 6.1132e-41
000070 ae 17 90 b5 75 41 00 00 00 99 55 ab c1 61 00 80
       -1.0735728e-06 2.3482e-41 -7.588513e-13 -3.5067e-41
000080 9b 3d 01 80 c1 00 00 00 1e 17 01 80 cf e6 00 80
       -1.13935e-40 2.7e-43 -1.00128e-40 -8.2799e-41

self_loop_weight f4 [32, 32]
000000 74 34 b9 be bc a9 eb 3e 25 03 dc 3e 4d 6e 64 be
       -0.3617283 0.46027935 0.4297115 -0.22307701
000010 e4 03 c4 be d0 6b 8d b8 6f 1b f4 3e ed 32 ee be
       -0.38284218 -6.7434856e-05 0.4767718 -0.46523228
000020 5d 5d 8d 3b d8 48 bf bf e5 8d 8b bd 9f 5e f8 bd
       0.0043141083 -1.4944105 -0.068141736 -0.121274225
000030 55 4b 52 be 1b 1b 58 be c0 b2 4f bf ae dd 89 be
       -0.2053655 -0.2110409 -0.81132126 -0.2692694
000040 3c 65 a9 be d4 4d 77 be 6d dc 03 bf a9 6d ba be
       -0.33085048 -0.24150783 -0.5150822 -0.3641179
000050 e3 1c 8f be 86 08 44 3e 23 9f c8 be 06 e7 1e 3f
       -0.27951726 0.19143876 -0.39183912 0.62071264
000060 52 7f 40 be 51 4d 2c bd 4f 9a 63 be 19 f2 a3 be
       -0.18798569 -0.042065922 -0.22226833 -0.32020643
000070 b1 7e 31 bb 23 1e ae 3d fa fd b0 3e 5e e5 ed bd
       -0.002708357 0.08501842 0.3456877 -0.11616014
000080 24 99 00 00 c7 cc 8b 29 b9 04 a7 2c 93 1f 00 00
       5.4937e-41 6.208363e-14 4.74695e-12 1.1327e-41
000090 23 94 01 80 fd be 00 00 8e a0 d5 12 ae 8c 01 80
       -1.44977e-40 6.8514e-41 1.348177e-27 -1.42302e-40
0000a0 02 86 00 80 07 85 d1 a3 1b bc 00 00 cd 4b 3c 11
       -4.8073e-41 -2.2716165e-17 6.748e-41 1.4853943e-28
0000b0 66 c0 00 00 90 97 00 00 30 00 00 00 a6 45 00 80
       6.902e-41 5.437e-41 6.7e-44 -2.4985e-41
0000c0 de 06 00 00 22 ac cc 9a c5 10 00 80 79 8f 00 80
       2.463e-42 -8.465052e-23 -6.016e-42 -5.1468e-41
0000d0 11 f6 00 80 78 2e fe ab c6 39 00 00 35 42 6b 34
       -8.8272e-41 -1.8060683e-12 2.0725e-41 2.1910166e-07
0000e0 64 73 00 00 55 54 00 80 21 c2 00 80 4d ca 02 00
       4.1394e-41 -3.0253e-41 -6.964e-41 2.56243e-40
0000f0 54 46 00 80 72 da 00 80 8b 93 6c 27 f4 4d 01 80
       -2.5229e-41 -7.8363e-41 3.2831562e-15 -1.198e-40
000100 fa b9 00 80 fb 1c 01 00 4d 07 01 00 55 78 20 00
       -6.6716e-41 1.02232e-40 9.4455e-41 2.981903e-39
000110 0d 19 00 80 ff 73 00 00 cc 64 01 00 5c 0b 01 80
       -8.987e-42 4.1612e-41 1.27995e-40 -9.591e-41
000120 d5 db 00 00 cf 38 00 00 8a 0a 00 80 06 c8 00 80
       7.8861e-41 2.0379e-41 -3.781e-42 -7.1755e-41
000130 b4 df 00 00 c5 6f 01 00 40 66 01 00 c1 47 00 80
       8.025e-41 1.31931e-40 1.28516e-40 -2.574e-41
000140 3b ce 00 00 6a 60 00 00 6b 15 00 80 ce 29 00 00
       7.3982e-41 3.4587e-41 -7.683e-42 1.4997e-41
000150 67 01 00 00 c0 64 00 80 a0 4d 01 00 54 00 00 00
       5.03e-43 -3.6142e-41 1.19682e-40 1.18e-43
000160 a0 9c 00 00 55 00 08 80 b0 06 01 00 29 76 00 00
       5.6186e-41 -7.34803e-40 9.4235e-41 4.2388e-41
000170 8b 3b 00 00 bd 16 00 00 80 40 00 80 7b 3c 00 80
       2.136e-41 8.157e-42 -2.3138e-41 -2.1696e-41
000180 0d 88 c2 30 31 c6 fa b9 c6 0c 32 bb 5b 70 1b 0e
       1.4154026e-09 -0.0004783138 -0.0027168258 1.9159322e-30
000190 35 23 09 1d ff ca 00 80 f8 e4 8a b7 a4 b5 37 a1
       1.815e-21 -7.2821e-41 -1.6557504e-05 -6.224321e-19
0001a0 70 5c d2 a5 c0 0f a9 3b 60 19 f9 a4 e3 77 9d ae
       -3.649183e-16 0.0051593482 -1.0802952e-16 -7.1608296e-11
0001b0 47 c1 ec a2 f5 e5 00 00 02 91 37 3d 49 1d 00 00
       -6.417257e-18 8.2493e-41 0.044816025 1.0506e-41
0001c0 78 58 00 00 5f 5f c7 34 cb 9e 8f b3 fd c2 1c b0
       3.1737e-41 3.713603e-07 -6.687841e-08 -5.7029564e-10
0001d0 b1 22 01 00 74 9f b0 3a e0 59 00 80 24 aa b8 3c
       1.0428e-40 0.0013475255 -3.2241e-41 0.022542067
0001e0 4e 45 73 b2 fa 34 00 00 f5 9c 16 b8 5c ff 52 bc
       -1.416022e-08 1.9004e-41 -3.5908964e-05 -0.012878265
0001f0 47 54 b1 0c a3 2a af b5 e2 4b 31 bb 88 35 00 00
       2.732189e-31 -1.3050925e-06 -0.0027053286 1.9203e-41
000200 26 58 71 be 38 2d eb bd f4 31 78 3d ac df 10 be
       -0.23568782 -0.11483234 0.060594514 -0.14147824
000210 10 af 40 be 1a 90 f1 bb 95 73 8a bf 90 16 a1 be
       -0.18816781 -0.0073719146 -1.0816523 -0.31462526
000220 64 05 81 be dc 75 7a 3f 96 7b 0c 3e 22 d5 b0 bd
       -0.25199425 0.9783609 0.1371902 -0.08634402
000230 bc db ab be f7 e7 8e bd 52 60 9f 3e f1 a1 03 bd
       -0.33566082 -0.069778375 0.31128174 -0.03213686
000240 1d d0 94 be f9 eb 30 be aa a8 0f bf 57 15 43 be
       -0.29065028 -0.17277516 -0.56116736 -0.19051109
000250 e6 7f 5e be 00 3c 75 3e 7b 05 87 be cc c0 b0 3f
       -0.21728477 0.2394867 -0.2637137 1.3808837
000260 5b bf 32 be 5b 4c 1e 3b e7 50 3d be bf 35 c3 3c
       -0.17455809 0.0024154398 -0.18487893 0.02382934
000270 97 3c b9 bd 84 a9 ec be 99 5b b6 3e b8 b8 8f bd
       -0.0904476 -0.4622308 0.35616758 -0.07017654
000280 7e 55 a4 be 31 d4 29 bd e2 12 8a bd ca 7a 30 36
       -0.32096475 -0.041462127 -0.06741883 2.6297516e-06
000290 1b 88 04 3e 6a e2 8a ac 18 65 6d bd ff 70 c4 3e
       0.12942545 -3.947333e-12 -0.05795774 0.3836746
0002a0 9b e2 ce ba 17 ea 85 3e 29 42 0e be 7c 08 d1 3b
       -0.0015784086 0.2615516 -0.13892426 0.0063791852
0002b0 2f 4b fe bc 18 58 36 be fc 7a 07 be c8 e2 5e bb
       -0.03104171 -0.17807043 -0.13230509 -0.0034009684
0002c0 b1 76 5e 34 11 ee d6 bd ec c0 a0 3e 88 d1 18 bd
       2.0718541e-07 -0.10494626 0.31397188 -0.0373092
0002d0 14 7f 1f 3e ac 73 07 3e 4c 44 bd 3d 85 bd 0c 3e
       0.1557582 0.13227719 0.09241542 0.13744171
0002e0 bf 37 e2 3b 52 c3 e3 bb 26 fb 82 ba 26 bf aa 3e
       0.006903618 -0.006950774 -0.0009993061 0.3334896
0002f0 6b c8 29 bc 7e d5 3e 3d 9d 2a 43 be 5a 4e 6c ba
       -0.010362725 0.04659032 -0.19059224 -0.0009014361
000300 cb 28 f3 3e 7b 07 53 bf 00 30 4c bf bf 21 a7 be
       0.4749206 -0.8243329 -0.7976074 -0.32642934
000310 4e 6d f5 be 15 7d 4e bd 37 fd 17 bf fe 53 2e be
       -0.47934955 -0.050412256 -0.5937075 -0.17024228
000320 eb 42 33 be f1 92 92 bf f9 82 60 be 0c c1 06 3d
       -0.17505996 -1.1451093 -0.21924962 0.032898948
000330 fe 16 19 be ca 83 6d be e3 b7 9b be 31 cf b2 3e
       -0.14950177 -0.23194805 -0.30413732 0.349237
000340 07 37 df be 1e 05 ec 3d 64 1e 04 3f bc 5f b0 be
       -0.4359667 0.115244135 0.5160887 -0.3444804
000350 7a 3f c0 be 38 16 12 3c 41 b8 44 bf 05 3d 5d be
       -0.3754843 0.00891643 -0.7684365 -0.21605308
000360 b0 3a 9f 3e 7b 7e ba 3c 38 76 26 3e 14 c5 0d 3f
       0.31099463 0.022765389 0.16256034 0.5537884
000370 0e 5e ec be ff f0 19 bf 8e 92 16 3e c5 e7 dc bd
       -0.46165508 -0.60133356 0.14704344 -0.10786394
000380 22 b7 d2 bd c4 ba 2d be dd ae b5 be 9a 15 e4 bc
       -0.10288836 -0.16965777 -0.35484973 -0.027842332
000390 99 b5 90 bc 81 13 32 b8 a6 02 1d be 5a 0d b2 be
       -0.017664718 -4.245667e-05 -0.15333042 -0.3477581
0003a0 d1 5a a3 bc 41 9a 0a 3d 07 7e 10 bd ce ce 87 bc
       -0.019940766 0.033838514 -0.03527644 -0.016578104
0003b0 80 62 81 bd e0 bc e1 be 72 d2 20 bd 47 26 70 be
       -0.063176155 -0.44089413 -0.039263196 -0.23452102
0003c0 b5 a3 a5 bc 3b f2 b8 bd 9e 93 a7 be 5b 49 22 bd
       -0.020219663 -0.09030577 -0.3272981 -0.03962074
0003d0 dc 4a 58 be 9b d5 89 bd fe d5 17 3c 36 29 24 bf
       -0.21122307 -0.06730195 0.009267328 -0.6412538
0003e0 e6 72 c6 3b f5 31 82 bc 58 ca 43 bd fa e9 c7 3d
       0.0060561774 -0.015892962 -0.047800392 0.09761424
0003f0 c7 8b b5 bd 5b f2 13 bb ab d7 8e be 91 d6 b2 ba
       -0.08864551 -0.0022574875 -0.27898917 -0.0013644268
