experiments/grail_fb_v1_ind/best_graph_classifier.pth (torch, 151596 bytes, 21 tensors)

weight f4 [142, 32]
00000000: 78bb dd3e bafe 88be b680 3abe 991f 2bbf
00000010: a495 85bc af98 ddbe 7b93 80bf 9877 5e3f
00000020: f6d0 85be 4bc8 e8be 6950 933e 1c25 043e
00000030: c842 563d 2cb2 6cbf 7ae6 13bf 4428 c33e
00000040: 1fc0 05bf 28f2 a0bd 8548 833d 1061 f0be
00000050: d4a6 2b3f b543 fc3e 2f1b 0abf c07a dc3e
00000060: 053a 083d 704b f0be d255 063e 73de f6bb
00000070: f4a7 0ac0 75f6 773e ade2 b03e 209d bb3f
00000080: 5684 e6bf 59e5 45bf e068 37bf dc5c 8fbe
00000090: 3dba a3be 0a3e 2eba 8deb debd acee 6ebe
000000a0: e360 413f 8c40 cb3d a251 9c3c 7f45 953e
000000b0: b659 a4bd d959 b03d 94a3 21bf dddd 643f
000000c0: c8d6 27bf ff4f 31be 5b9f 153f d973 43bf
000000d0: dc17 3bbf 6dbb 62bf 59ac 983e fa6e 003f
000000e0: e247 f23e a444 103f 9d7f 9fbf d9c5 d73f
000000f0: 3d47 703f 6965 febd 617c f1bd 6f57 80bc
00000100: 7cbb b1bf a2f1 2bbe 0262 783f deec 2f3f
00000110: 239c a7bf 2831 773f e63b bebf f52a 953e
00000120: ac02 a93e 38e0 b83e d399 8f3f f164 1bbf
00000130: 309a 7f3e 23a9 79bf 37a9 c73f 8ba7 ab3f
00000140: 13fe 1ebe 1f59 e73f 3b48 953e 34a5 573f
00000150: d202 0a3f 52cc d7bd 9573 6cbe d20f 66bf
00000160: 233d 313f 8e50 63bc a22c 4bbf ccc4 07bf
00000170: 5550 9bbf 94e2 91bf c65a 12bd 13f6 a83f
00000180: 532e 11bf 52b5 0cbe f192 02bf b23c 563e
00000190: 8312 153e d1cc 943e 5fe0 cabe 6aa3 25be
000001a0: 71b6 633e 6673 063f 5dab 473f 02b6 0b3e
000001b0: 44df 93be 9d51 08bf 4fb2 153d 3fa6 1a3f
000001c0: adec 80be 82b1 08be 4039 0c3f ca36 0d3e
000001d0: e35c e73e 5c59 abbe ad09 903e bce5 26be
000001e0: 9d28 273f 1988 10be bef5 ec3e 13d7 413f
000001f0: e664 c4bd 39d7 23be a60b e9be bb45 debe
00000200: 9870 e8bd 635a b33d 3d9b dcbe 0fe6 643e
00000210: 7491 c63f a896 92bf 45f7 f83e 6ac6 103f
00000220: 8dbc 393f 6ed1 343e 68df 833e fff3 90be
00000230: c577 913f ddef 593f 808c 49bf 12c1 f1be
00000240: fc73 7a3e 1a60 d7be a407 fbbe 311c 03be
00000250: 1d30 b4bf ae9b 7a3f 263c a13e 9573 453e
00000260: f98d d9be 4578 94bf 325d 443d 962a 043e
00000270: 9eba 48bd 2ce9 6f3f a972 073f 45be b7be
00000280: 4ec0 ff3e 518a 9d3f f17b 973f 4033 333f
00000290: 1933 7ebe 0711 93bf 34d9 223f 7b5e 7d3e
000002a0: ddda c5be 0dc0 07bf 118c e5be 0482 d13d
000002b0: 6d16 7e3e 0cb4 b63f 6f9d 44bf 8003 56bf
000002c0: 1f9b 06bd 2662 8cbe c90a a2bf 7bf6 d73f
000002d0: e9a3 ab3d 857e 9d3f 058b 0f3d 4601 023f
000002e0: 1c6f a6be af14 cebe c69f b23e 059b a1bf
000002f0: 8f68 643f ef82 de3e 5fe0 f23f 2862 0a3f
00000300: ad19 023e e580 ff39 695a e03c adc2 cabc
00000310: debd 503e b073 5dbe a866 3d3e c606 dd3c
00000320: d9e5 033d aa10 13be 90a9 53be 4c8f fabd
00000330: 1fe5 3c3e 2fbf e23d 09a0 53be 285b d4bd
00000340: a8cd 193e fa86 39be 0e97 0ebe 4a56 34be
00000350: e260 48be 3800 113e b2f2 91bd 2b6e 043e
00000360: 507d 13be 99fb d9b7 a6c9 2a3e eded 8dbc
00000370: 24c4 963d 6813 353e 8b2d de3c 0dc1 38be
00000380: d3a2 79be fb8a 913d 993a 23bf 2c27 05be
00000390: 8ede 66bd f3b2 2c3f ce24 5fbd 9de5 4ebe
000003a0: 13d3 353e d055 b6be dc0e a43f 55f3 63bf
000003b0: 8cec b3be c7c1 0ebf c5f7 03bf 652d 923e
000003c0: 72cd 3c3f d80c 4dbe 7836 7c3f b8d5 cf3d
000003d0: ed66 893e b3e3 403c aa65 1ebf 62c7 0bbd
000003e0: 90e1 04bf 0ca1 953d ffbe 48be 8059 b63f
000003f0: 4add 6e3d 2791 f43c 0c96 debd a43a 35bf
0.4330709 -0.2675684 -0.18213162 -0.6684509 -0.016306706 -0.4328055 -1.0045007 0.86901236
-0.26135987 -0.4546531 0.28772286 0.12904781 0.05230978 -0.9245937 -0.57773554 0.38116658
-0.5224628 -0.07858688 0.064103164 -0.46949053 0.67051435 0.49270406 -0.5394773 0.430624
0.033258457 -0.46932554 0.13118675 -0.007533842 -2.166501 0.2421511 0.3454794 1.4657326
-1.8009136 -0.7730308 -0.716444 -0.28000534 -0.31978026 -0.0006646818 -0.108847715 -0.23333234
0.7553846 0.09924421 0.019081894 0.29154584 -0.080249235 0.08610887 -0.63140225 0.89401037
-0.65562105 -0.17315672 0.5844628 -0.76348644 -0.7308328 -0.8856724 0.2981899 0.50169337
0.47320467 0.5635474 -1.246082 1.6857253 0.938587 -0.12421686 -0.117913015 -0.015666692
-1.3885341 -0.16791394 0.9702455 0.68720806 -1.3094524 0.9655938 -1.486203 0.29134336
0.3300985 0.36108565 1.1218818 -0.607009 0.24961162 -0.9752371 1.5598515 1.3410505
-0.15526609 1.8074073 0.2915667 0.84236455 0.53910553 -0.10537018 -0.23090966 -0.8986789
0.6923391 -0.013874186 -0.7936498 -0.53034663 -1.213389 -1.1397271 -0.0357311 1.3200096
-0.5671131 -0.13741043 -0.51005465 0.20921591 0.14557843 0.29062513 -0.39624307 -0.16175619
0.22237565 0.52519834 0.77995855 0.13643649 -0.28881276 -0.5324953 0.036547 0.6040992
-0.2518057 -0.13348964 0.54774857 0.13790432 0.45188054 -0.33466613 0.28132382 -0.16298574
0.65296346 -0.14114417 0.46281236 0.757188 -0.09589557 -0.1600007 -0.455167 -0.43412575
-0.113496006 0.08757474 -0.43087187 0.22353385 1.5513139 -1.1452227 0.48626152 0.56552756
0.7255333 0.17658016 0.25756383 -0.28311154 1.1364676 0.8513163 -0.7873001 -0.47217613
0.24458307 -0.42065507 -0.49029267 -0.12803723 -1.4077183 0.978938 0.31491202 0.19282372
-0.4249113 -1.1599203 0.04794044 0.1290687 -0.049006097 0.9371517 0.5290933 -0.35887352
0.49951404 1.2307836 1.1834699 0.70000076 -0.2482418 -1.1489571 0.63612676 0.24743073
-0.38643542 -0.5302742 -0.44833425 0.10229877 0.24813242 1.4273696 -0.76802725 -0.8359909
-0.03286278 -0.2741863 -1.2659541 1.6872095 0.08380873 1.2304236 0.03504469 0.50783193
-0.32506645 -0.40250155 0.34887522 -1.2625433 0.89222044 0.4345927 1.8974723 0.54056025
0.12705107 0.00048733424 0.02738686 -0.024751032 0.20384929 -0.21626163 0.18496192 0.026980769
0.03220162 -0.14361826 -0.20670152 -0.12234363 0.18446778 0.110716216 -0.20666517 -0.10368949
0.15019858 -0.18117896 -0.1392481 -0.17611042 -0.19568208 0.1416024 -0.071263686 0.1293265
-0.14403272 -2.5985575e-05 0.16678485 -0.017325366 0.073616296 0.17683184 0.027121326 -0.18042393
-0.24378519 0.071065865 -0.6376129 -0.13003224 -0.05636459 0.67460555 -0.05447846 -0.20204778
0.177563 -0.35612345 1.2817035 -0.8904317 -0.35141408 -0.5576443 -0.5154994 0.28550258
0.73750985 -0.20024431 0.9852061 0.101481855 0.2683634 0.011773038 -0.6187388 -0.034125693
-0.5190668 0.07306108 -0.19604109 1.4246063 0.058316506 0.02985437 -0.10868463 -0.70792603

weight f4 [4, 8, 32]
00000000: a84b 71be 113b aa3e 5066 4f3e badb 04bf
00000010: 31fa 76be ec1d fbbd 71a3 44be 1be0 86be
00000020: 5df5 df3e 3a02 503f 3a39 27bf a823 553e
00000030: 6fbd 5e3e 6856 14bf e99e d5bd f5ad 03bf
00000040: 4db3 05bf 87e5 00be 33c9 7cbe 4d0d ec3e
00000050: 009e 083f bbd0 793f a1d6 313c f2cf af3d
00000060: 0f3a a93e c944 6b3e 2ba6 563e abe3 2dbe
00000070: 1f02 593f cc3d cfbe d084 6dbc 7969 1f3f
00000080: a881 31bf df44 483e 67dd 6ebe b6b0 c8be
00000090: 56bd 7f3f c8c5 7bbe 07f0 aa3e 4e52 e03e
000000a0: 9774 263d 5666 64bc 67ee 773f 9430 683e
000000b0: 6ec3 00be f25c efbe dc2a 3cbf 0650 04bf
000000c0: dc05 bbbe df27 f9be db61 88be 1e57 1a3f
000000d0: 0052 e63e 4df0 83bf 7277 363e 01a4 b03f
000000e0: 475b 1fbe dbe7 823e 1eff 8d3e df8a 133f
000000f0: 9d83 61bf 440e b1be 57c6 5cbe 672e 0d3f
00000100: c543 9d3c 030f 183f 826e f33e b9fe 9f3e
00000110: 24d6 053e cd0f 753e b000 94bf 5d37 e1bd
00000120: c58a 103e d8fc 853d 942f c63d d70a e33d
00000130: e312 dd3e dcf5 6d3f 1d07 953f 0333 463f
00000140: 68b2 0cbf 3301 d93e 38cd 8e3f 54f0 dd3e
00000150: 9e8d 85bf 1be9 c23f 8c4e 303e ec38 12bf
00000160: 9f89 973f 5f85 f63e 2405 62be d279 e4bd
00000170: 18a5 5e3f 8dd9 313f f3e6 b63f 5e1a da3e
00000180: 4ef7 ad3d fe63 0abf c359 be3d bd39 bc3e
00000190: 8050 d33f a6cc 453f dede 47be 1683 b03e
000001a0: ff7d f93d 1c22 b2be c5d0 963e 1630 b83e
000001b0: 9020 f33e e49a 21be 1e12 863d 3caf ccbc
000001c0: 8c36 05be 3b23 fdbe 2e23 223d ee13 55be
000001d0: fb42 49bf 1244 ffbe f695 3a3f 1613 f33f
000001e0: ef1c e93d 4401 aebe 4ad6 8f3e b387 ba3b
000001f0: 2857 8e3d 34fb bd3d 8c9d aa3e 611c a13e
00000200: fc3a 9bbe aa16 c0bc 8bdc 52bf 0817 87bf
00000210: 4103 9cbc 7108 d23e c017 3e3c cc94 183f
00000220: 168f 54be 4a66 823e f1e5 143f 38e7 febe
00000230: 3ee8 e6bd 89d0 c43e 8b40 6c3e f0d0 d63e
00000240: bf3a 6cbd c65c e5be 4cf0 26be 6bab 993e
00000250: c4c0 aabe ca3c 25bf 51e9 37be e555 c13d
00000260: 4ecc 01bf 4215 093f c8a1 013f bbe8 aabd
00000270: 17b3 c2bf 0a0e 47be b7fa f43e 9adc 1c3f
00000280: ddbe 05be 35cc 893e 4202 05bd 96b2 11bf
00000290: b437 a33e 2cf7 e63d 11f2 aebe f20a 03be
000002a0: 1b53 243f 802a 8a3f 0110 5f3d c565 58bd
000002b0: cb07 303f 9d68 30be d211 a1bb 746d d9be
000002c0: 63f7 8fbe 128d 403f 0469 dc3d 9c85 8b3e
000002d0: 7783 c7be d474 b23c f85b 193f ca72 503e
000002e0: 97d7 343f 0d17 02be 2158 a83e d548 163e
000002f0: cf73 5d3f 5dae df3e 1c9e 943f e6f2 153f
00000300: 22e5 803c 2234 6bbe 8196 af3e f4bf 1d3f
00000310: 08a8 a93f a1d1 c9bd aff5 45be 6f4f be3e
00000320: 1959 c4be 7783 79bf 5a22 bebe 95f0 9a3e
00000330: 3c66 04bf f89e 39bf d469 d6be 5a00 54bf
00000340: 0694 20bf 7052 98bf ec0e cd3d 4553 f3bb
00000350: ca80 283e 860e 853e 3519 5a3f ad9b bf3e
00000360: f0b6 bcbe 469c 5c3e 67ee 4dbd 286e c7be
00000370: 0fa6 9ebe d605 063e 86e4 59be 5504 6c3e
00000380: 8bdd 1abf e129 3b3f 0128 be3e d909 f73d
00000390: c2f8 fa3d 37a5 b93e c876 243e 4438 dd3e
000003a0: 11e0 cb3e 330b 02be 3817 703f b8bf 933f
000003b0: 80c5 2c3e a7c6 d33e 1809 233d 745a 923e
000003c0: ee24 393f 94c8 cf3d 5510 823f 0e1d 863f
000003d0: 8d33 833f 52d1 99be 2d1c 76be ba87 443f
000003e0: 8866 ec3e 51c7 a93d e43f 09bd 8863 d83e
000003f0: 4e66 403f f704 f73e d98f 81be 5a00 983d
-0.23564017 0.3324819 0.20253873 -0.51897776 -0.24118878 -0.122615665 -0.19202973 -0.26342854
0.43741885 0.812534 -0.65321696 0.20814383 0.2175195 -0.57944345 -0.104307 -0.5143731
-0.52226716 -0.12587558 -0.24686126 0.46103898 0.5336609 0.9758412 0.010854394 0.08584584
0.33052108 0.22975458 0.20961826 -0.1698138 0.8476886 -0.40476835 -0.014496997 0.62270314
-0.69338465 0.19557522 -0.23326646 -0.3919732 0.9989828 -0.24587166 0.3338625 0.43812793
0.040638532 -0.013940414 0.9684815 0.22674781 -0.1257455 -0.467506 -0.735029 -0.51684606
-0.36527908 -0.48663232 -0.26637158 0.6028918 0.44984436 -1.0307709 0.17819002 1.380005
-0.15562163 0.25567517 0.277337 0.57633775 -0.8809145 -0.34581196 -0.21560036 0.5514893
0.019197354 0.59397906 0.47545248 0.31249025 0.1306997 0.23931809 -1.156271 -0.10996888
0.14115436 0.06542367 0.096770436 0.11086052 0.43178472 0.92953277 1.1642796 0.7742159
-0.54959726 0.42383727 1.1156378 0.43347418 -1.0433843 1.5227388 0.17217463 -0.57118106
1.1838874 0.4814863 -0.22072273 -0.11156048 0.86970663 0.6947258 1.428923 0.42598242
0.08494435 -0.54058826 0.092944644 0.367628 1.6508942 0.77265394 -0.19518611 0.3447501
0.12182235 -0.34791648 0.29456154 0.35974187 0.4748578 -0.15781742 0.06546424 -0.024985902
-0.13009089 -0.4944094 0.03958433 -0.20808384 -0.7861783 -0.4985662 0.7288507 1.89902
0.11382472 -0.3398534 0.28093177 0.005692446 0.069502175 0.09276429 0.33323324 0.31466964
-0.3031844 -0.023448307 -0.8236777 -1.0553904 -0.01904452 0.41022065 0.011602342 0.59602046
-0.20757708 0.25468665 0.5816336 -0.4978578 -0.112747654 0.3844035 0.23071496 0.41956282
-0.057673212 -0.44797343 -0.16302603 0.30013594 -0.33350194 -0.6454588 -0.17960097 0.09440211
-0.5070237 0.5354806 0.50637484 -0.08345171 -1.5210904 -0.19438949 0.4784753 0.6127411
-0.1306109 0.2691361 -0.032472856 -0.56913126 0.31878436 0.11277613 -0.34169057 -0.12797144
0.6418931 1.079422 0.054458622 -0.05283143 0.6876189 -0.17227407 -0.0049154544 -0.4246632
-0.2811843 0.75215256 0.10762218 0.27250373 -0.38967487 0.021784224 0.5990596 0.20356289
0.70641464 -0.12704106 0.32879737 0.1467622 0.86504835 0.43687716 1.1610751 0.5857376
0.015734259 -0.22969106 0.34294513 0.6162102 1.3254404 -0.09854437 -0.19332002 0.37169978
-0.38349226 -0.97466224 -0.37135583 0.30261675 -0.517185 -0.7250819 -0.41877615 -0.82813036
-0.62725866 -1.1900158 0.10012612 -0.007425698 0.16455379 0.25987643 0.8519471 0.3742346
-0.3685832 0.21543989 -0.050276186 -0.3895123 -0.30986068 0.13088164 -0.21278581 0.23048528
-0.604943 0.7311078 0.37139896 0.12062425 0.12254478 0.3625886 0.16060936 0.4320699
0.39819387 -0.12699585 0.9378543 1.1542883 0.16872215 0.41362497 0.039803594 0.28584635
0.72321975 0.10145679 1.0161234 1.0477617 1.0250107 -0.3004251 -0.24034186 0.767696
0.46171975 0.0828997 -0.033508196 0.42263436 0.75156105 0.48245975 -0.2530506 0.07421942

w_comp f4 [142, 4]
00000000: 25ec 03bd 7172 28bd d7a6 a2be 8679 42be
00000010: a18d 8bbd 1c1f 1ebf 732e 3dbf 3304 48be
00000020: fb50 853e f6b1 d53b 6cb8 b9ba d8db 96bf
00000030: bc0c 58be 208a 8cbe 5ecf 3c3e 9e26 733f
00000040: 3ed1 a83e 457a 64bf 785c febc 4a30 0ebf
00000050: 8ec9 31bf 6fba a53d 1d20 723e ef08 1c3c
00000060: df23 523e 38a8 d1be be9e 363e 84ca de3e
00000070: b0c7 e63e bc79 bebe 53af 9fbe 75e5 c03e
00000080: 069c d93e 49a7 903e 5a2b 77be 63a6 01bd
00000090: bf88 0dbf 8815 433f 11c1 a4bf 7597 45bf
000000a0: ba99 b2be c23d e93d 632f 7cbf 90b1 45bf
000000b0: 94f4 14bf bfc7 c1bd bf07 a53f 260d b63e
000000c0: c075 163f 1c3c d13e ba92 863f f0e3 4a3f
000000d0: 603b 0939 7b49 f63e 16f2 1c3f cac4 c63d
000000e0: a23e 3dbe 2de9 3e3e 97bd df3e 40d2 863e
000000f0: d009 d03d 86c2 673e a010 cb3e 66fa 6e3e
00000100: 3f67 58bf 1730 c2be 0258 11bf e32a 813f
00000110: 531e 49bf a171 f13d a8dd 753f 1686 4a3f
00000120: 2691 71be 60b9 633e 2be7 c83e 3de0 a8be
00000130: 3560 11bf c1a4 823e 0b9e 08bf be32 5abf
00000140: 73d5 343f 7eba 26bf c5ab d3be 723a 2f3e
00000150: 3f39 d6be 476a e6be bcb0 9c3d 1fe2 9a3e
00000160: e92c ce3c 03d5 d1bd e0b3 a63e 1631 d4bd
00000170: 89ba 3abe 3d8f 363f 4a21 96be e250 be3d
00000180: ccf1 1c3f 048f aebe 051c 9c3f 23c0 d7be
00000190: 9eef 49bf e4b2 3d3d 47c7 e13e b73f 333f
000001a0: 07a2 ae3d 2228 b7bd 1526 133e 2de2 75bd
000001b0: 7220 e0bd 90c1 36be e2b2 0dbf ab44 b7be
000001c0: aaf1 bcbc 0d13 cebe b3e6 c53e bd8c 95be
000001d0: 33f6 70bf ff3c e13e c1e8 ba3e 96e4 b7bc
000001e0: 86da a9be 84d6 e23d fe72 a23e 5eeb 57be
000001f0: e151 8b3e df4f 94bf ea48 a3bf 973d 2b3f
00000200: b34a 863f 517a 593e ce9e 30bf 4c00 d1bf
00000210: 852c 01bf 6811 90be 9db7 a8bc 11af f63e
00000220: e367 60bf e3be 7dbf 256f bebe 021e 8ebe
00000230: 8459 c3be 3f1f 8ebe eda7 60be e506 b8be
00000240: 029c 47bf 0a15 59bf 7830 8abd d546 e3bc
00000250: c2d8 e1be f324 e73e 69b3 ae3e 0a5c 5ebe
00000260: dc41 d73e 22f9 95bf 43c4 4f3f 6809 89be
00000270: b890 97bd c7f4 733e 44e3 b3be b466 34bf
00000280: a270 cb3e 3353 3e3f 8819 223e b9a1 073f
00000290: 76e8 783d cc6f e53e dac1 563e 5c9d 9e3e
000002a0: 061b 1d3e dc47 22bf 5e5c 8d3e 7cfd 043f
000002b0: 3e1c 0abf ecf8 963e 775c d23e d3f0 0e3d
000002c0: 7f8a fabe 8df7 97bf 95e7 4a3f 340d 8c3e
000002d0: 37df c0bd 1536 563f dfd5 3fbf 7583 dfbe
000002e0: 53e8 c33e 62a9 92bc caf3 313f 2e73 4e3f
000002f0: c374 fbbe 9e26 dbbe 90f3 03bf 2634 44bf
00000300: 72fb 0080 058d 0000 ff4e 0080 d4dc eab1
00000310: 5749 0b3f b7e5 313f 0875 05bf 7039 9abf
00000320: 672c 6cbe 05fa 0e3f ddc1 843e 3963 f63e
00000330: 1340 42bf c0f3 3abf 5e88 1a3f 19b2 433f
00000340: 7f3d d53e cbf6 02be 5b5d 03bd 155f 803f
00000350: b107 473f 1522 f33e a5af f43d e155 e93e
00000360: 2e55 ffbe 06a5 12bd cf27 123f dfb0 c33e
00000370: 784b 57bf 053f 1d3e 1ffc 6c3e 7c6d 08be
00000380: 2098 b93d e055 d73e 3641 6abf 7a30 5abd
00000390: 6904 babe 1762 423d c929 6dbe 1767 acbe
000003a0: aa58 e2be 91ca f1bd c19d 44be ef36 83bf
000003b0: 6883 44bf bf5d febd 873f 13bf 17d3 e0be
000003c0: 7a50 b2be b8c0 10bf b372 6ebe 66e6 283f
000003d0: 088b 74bf 90c7 833c 473a acbe 6a23 48bf
000003e0: 7a21 debe 52d2 823d 809f b1bf bcd8 0abf
000003f0: f012 5cbf fe37 bfbc b4ec 60bf 33a3 aabe
-0.032207627 -0.041124765 -0.31767914 -0.1899167 -0.06814123 -0.6176622 -0.73899 -0.19532852
0.26038346 0.0065214587 -0.0014169342 -1.1785841 -0.21098608 -0.2744913 0.1843848 0.949808
0.3297214 -0.8924907 -0.031049952 -0.55542433 -0.69448173 0.080922 0.23645063 0.009523614
0.20521496 -0.40948653 0.17833993 0.43513882 0.45074224 -0.3720225 -0.3118845 0.37675062
0.4250185 0.28252628 -0.24137631 -0.03165282 -0.5528678 0.7620473 -1.2871419 -0.7718423
-0.3488291 0.113887325 -0.98509806 -0.77224064 -0.58185697 -0.09461927 1.2892989 0.35556906
0.5877342 0.40866172 1.0513527 0.79254055 0.00013087457 0.48102936 0.61306894 0.09705503
-0.18480924 0.18643637 0.43699333 0.26332283 0.101581216 0.22632799 0.3966112 0.23337707
-0.8453254 -0.37927315 -0.56774914 1.0091213 -0.78561896 0.11789251 0.96041346 0.7911085
-0.23590526 0.22238684 0.39238867 -0.3298358 -0.56787425 0.25516322 -0.53366154 -0.85233676
0.706382 -0.65128314 -0.41341987 0.17112139 -0.4184055 -0.45002958 0.07650897 0.30250642
0.0251679 -0.10245707 0.3255911 -0.10360925 -0.1823522 0.71312314 -0.29322273 0.09292771
0.6130645 -0.34093487 1.2196051 -0.42138776 -0.7888125 0.04631318 0.4409735 0.70019096
0.08526998 -0.089432016 0.14369996 -0.06003015 -0.109436885 -0.17847276 -0.5535108 -0.35794577
-0.023064453 -0.4024891 0.38652572 -0.29208937 -0.9412567 0.4399185 0.36505702 -0.022447865
-0.33174533 0.11076072 0.31728357 -0.21085879 0.27210906 -1.1586875 -1.2756627 0.66890854
1.0491546 0.21238066 -0.68992317 -1.6328216 -0.50458556 -0.2813828 -0.020595366 0.4818044
-0.8765852 -0.99119395 -0.37194172 -0.2775727 -0.38154233 -0.27758214 -0.21939059 -0.3594276
-0.77972424 -0.8479773 -0.06747526 -0.027743736 -0.44110686 0.45145378 0.34121254 -0.21714798
0.42042434 -1.1716654 0.81158847 -0.2676499 -0.0740065 0.23823844 -0.35134327 -0.7046921
0.3973437 0.743457 0.15830052 0.52981144 0.060768567 0.44811857 0.20972386 0.3097943
0.1534234 -0.633909 0.27609533 0.51949286 -0.53949344 0.29486787 0.4108617 0.034897637
-0.4893379 -1.1872422 0.79259616 0.27353823 -0.09417575 0.8367627 -0.74935716 -0.4365498
0.38263187 -0.017903034 0.6951262 0.806445 -0.4911252 -0.428029 -0.5154352 -0.7664207
-9.0202e-41 5.0588e-41 -2.8338e-41 -6.8354016e-09 0.5440878 0.6949114 -0.521317 -1.2048779
-0.23063813 0.5585025 0.25929156 0.48122576 -0.7587902 -0.73028183 0.6036433 0.7644363
0.4164848 -0.12789457 -0.032071453 1.0029017 0.7774611 0.4748694 0.11947564 0.45573333
-0.49869674 -0.03580191 0.57091993 0.3822088 -0.8409953 0.15356071 0.23143052 -0.13323015
0.09062219 0.42057705 -0.91505754 -0.053268887 -0.3633149 0.047456827 -0.23160471 -0.336724
-0.4420827 -0.118062146 -0.19200803 -1.0251139 -0.7676301 -0.124202244 -0.5751881 -0.4391105
-0.34827024 -0.56544065 -0.23285942 0.6597656 -0.95524645 0.01608637 -0.33638212 -0.7817904
-0.43384916 0.06387772 -1.38768 -0.5423696 -0.85966396 -0.023342129 -0.8786118 -0.33327636

self_loop_weight f4 [8, 32]
00000000: be52 5bbd 6b45 af3e 5447 063e d72d 423e
00000010: 2a99 f3be f6f7 22bf 9248 6a3e d6af 543e
00000020: a6da cc3d 72e6 ef3e 47c9 52bf a66a 6fbe
00000030: e896 e9be 7d43 173f e3ab 29bf f87e 4bbe
00000040: 148d 59be 9d8a 71bf f2f1 133f 7763 433f
00000050: 3ecc 84be 320f c13e 2020 47be cadf f03e
00000060: 0f63 4e3f 835b 1abf 70be 283f 716a cdbe
00000070: cefc 96bd 87a6 c3bd e1fb 8bbf f62d 533e
00000080: e5d1 003f bd57 bcbf e316 a8be 824f a0bd
00000090: a67f 97bd dc2c 0abe fda0 42be 1931 0abf
000000a0: bf50 09bf c67c 06bf 7407 f2bf cb78 b7bf
000000b0: 55b8 31bf 9252 15bf d940 c3be eec3 14bf
000000c0: 7520 79bf 5d13 9e3e 5af3 aabf 6c41 4ebd
000000d0: e616 a93f dabd d1be feac 4dbf 3ee4 8ebf
000000e0: 0c4e 39bf 3081 56bf 818e 5bbf 5032 36be
000000f0: f4a6 b2bf 29a7 7fbe 8d3c 85be bcb3 1bbe
00000100: 45ab 7fbf 9168 a23e 5ef2 62bf e4e3 11c0
00000110: 64ee e83e 4fa8 ccbf fc15 4ebf 79e6 59bf
00000120: b875 e4be ef0d 90bf 4848 313f 7573 bc3c
00000130: 14f6 9fbf 624a 90bf eed0 91bf 91ba 51bf
00000140: 46d3 1fbf 3639 71be ee8d a6bf 25cd 753e
00000150: 6b86 b1bf d280 04bf 73a5 78bf e2b5 64bf
00000160: 6022 bb3e 22b5 3e3e c11d 81bf 342f 99bf
00000170: a4f4 d53e 01de 83bd b359 fdbe 4792 2cbf
00000180: c27a 30bf a178 42bf c779 113f 4be3 27bf
00000190: f968 15be 30fb 4b3f 354c 98bf 088f 4fbf
000001a0: ce46 fabe aa13 8dbf e9a5 d63f d5c8 8fbe
000001b0: 44b9 33bf 9469 53be 226f be3f a30a a63f
000001c0: a167 d93d b211 58bf 150f 7d3f 0f6f 83bf
000001d0: 6d80 5abe e5fb 313f 9a56 0cbf fa94 f2be
000001e0: 45eb 70bf 76e3 bfbe 0e25 7fbd 98b5 0abf
000001f0: bee2 a3ba 8fc2 a9bf b0de d73f 9890 343e
00000200: c13b f33e 20a8 20bf 6598 4e3f 3a0b 8fbd
00000210: be06 943f 1d3b b63f 728c a8be 7a9d 7dbe
00000220: b293 55be f319 473c 806e b0bc 50ec 15bf
00000230: 72d5 bebd c56a 363e 7f7e ac3c 87cf 623e
00000240: 6989 a9be 2534 48bf 4fde 08be e00a 23be
00000250: a525 14be aa43 693e 4ab7 f1be 39ed 603e
00000260: 6d66 183e a671 bfbe b0c6 2ebf 2397 a1bf
00000270: 5466 4dbd c3d2 d0bf 9b59 ab3f b5d4 0ebf
00000280: 14d2 34bf d22b 64be 97d2 58bf f4d5 64be
00000290: 2fbc 0ebf 4655 b7bf dfca 49bf 8cd9 88be
000002a0: 1e90 2abe 83ea 80be 98b6 94bf 0899 d5be
000002b0: 894e d1bf 7156 0cbd e6fa 69bf d1be b1be
000002c0: b566 49bf 2f52 473f be72 cb3e 9b5a ed3e
000002d0: 5fb4 803f 1920 b53d 0b10 7ebf 7a13 f9be
000002e0: 5ad1 de3e 2c7b f9bc a13d 283e 6409 58bf
000002f0: 97fe f03e 5b31 b73e 0c08 263e 2fcb 28bf
00000300: c956 c5bf cfbf 85bf 80cd 8cbf 65b1 743f
00000310: 2d7a 37bf 3a84 b9be a9d1 4a3f 6d09 eabe
00000320: 5fb2 3bbf 60f5 1abe e39a 7b3f 9fd3 07bf
00000330: 0480 bd3e 308f 2bbf 165d 59bf b710 28bf
00000340: 69cb 87be edf9 d4be 6890 e2be 309c 3c3f
00000350: 3dd4 d4bf fe42 bcbf f374 d1be a410 b1be
00000360: 59ad 82bf 8817 a1bf 6b67 e3be f329 bd3e
00000370: 1208 72bf 2606 70bf 1207 e3be 1a84 8a3e
00000380: 2339 6cbf 4491 b5be 92db cdbf 52d7 5fbf
00000390: 247b 32bf 8278 48bf 6874 ff3d 06b7 fbbe
000003a0: a258 15bf 753c 203d ef23 6a3e 9e97 ddbd
000003b0: 7365 9fbe d901 83bf ef7a 8f3f 692d 2abf
000003c0: 0477 273e 4a11 70bf a6dc 0fbd aeef 87bd
000003d0: 59ef 74bf 2a56 80bf 435b 0abf e770 98bf
000003e0: 3968 70bf 65d9 a5be 5f99 48bf 8ce7 c5be
000003f0: d803 5cbf cccf 43bf 3dd1 90be 937b 3a3e
-0.053545706 0.3423265 0.13113147 0.18962799 -0.47577792 -0.6365961 0.22879246 0.20770201
0.100026414 0.46855503 -0.82338375 -0.23380527 -0.45622945 0.59087354 -0.66277903 -0.19872653
-0.21245223 -0.9435213 0.57791054 0.76323646 -0.25937074 0.37706906 -0.19445848 0.47045738
0.806199 -0.60295886 0.65915585 -0.4012027 -0.073724374 -0.09553247 -1.0936242 0.20623001
0.50320274 -1.4714276 -0.3282996 -0.07827665 -0.07397394 -0.13493675 -0.19006725 -0.5398117
-0.53638834 -0.5253414 -1.8908525 -1.4333738 -0.69421893 -0.5832912 -0.38135412 -0.58111465
-0.9731515 0.30874148 -1.3355515 -0.05035536 1.3210113 -0.40965158 -0.8034209 -1.1163404
-0.72384715 -0.83790874 -0.8576432 -0.1779263 -1.39572 -0.2496611 -0.2602276 -0.15205282
-0.9987071 0.31720403 -0.8865107 -2.2795343 0.45494378 -1.5988864 -0.80502295 -0.851173
-0.44621062 -1.1254252 0.6925092 0.023004273 -1.2496972 -1.12727 -1.1391885 -0.819253
-0.6243175 -0.2355698 -1.3012064 0.24004038 -1.3869146 -0.51759064 -0.97127455 -0.8934003
0.36549664 0.18623784 -1.0087205 -1.196753 0.41788208 -0.06438828 -0.49482498 -0.674107
-0.68937314 -0.75965315 0.5682644 -0.65581197 -0.14590825 0.79680157 -1.1898257 -0.81077623
-0.48882145 -1.1021626 1.6769382 -0.2808291 -0.7020457 -0.20645744 1.4877665 1.2971996
0.10615469 -0.84402 0.9885114 -1.0268267 -0.21338053 0.69524986 -0.54819643 -0.47379285
-0.9410899 -0.37478226 -0.062291197 -0.5418334 -0.0012503488 -1.32625 1.6864834 0.17633283
0.47506526 -0.6275654 0.80701286 -0.06984563 1.1564558 1.423679 -0.3291965 -0.24767104
-0.20857123 0.012152183 -0.021537066 -0.5856371 -0.09318055 0.17814167 0.021056412 0.22149478
-0.33112648 -0.78204566 -0.13366054 -0.15922117 -0.14467485 0.22779718 -0.4721015 0.21965493
0.14882822 -0.37391394 -0.68271923 -1.2624248 -0.050146416 -1.6314319 1.338672 -0.55793315
-0.70633054 -0.22282341 -0.84696335 -0.22347242 -0.55755895 -1.4322898 -0.7882518 -0.26728475
-0.16656539 -0.25178918 -1.1618223 -0.41718316 -1.6352092 -0.034262124 -0.91398466 -0.34715894
-0.78672343 0.7785978 0.3973598 0.4635819 1.0055045 0.08844013 -0.9924323 -0.48647672
0.43519098 -0.03045424 0.1642976 -0.8438933 0.47069237 0.35779843 0.16214007 -0.65935034
-1.541711 -1.044916 -1.1000214 0.9558318 -0.716708 -0.36233693 0.79226166 -0.45710316
-0.7331905 -0.15132666 0.98283213 -0.53057283 0.3701173 -0.6701536 -0.8490766 -0.65650505
-0.26522377 -0.41596928 -0.44250798 0.73675823 -1.662727 -1.4707944 -0.40909538 -0.34583008
-1.0209152 -1.2585306 -0.4441484 0.36946067 -0.94543564 -0.9375938 -0.44341332 0.2705391
-0.92274684 -0.3546239 -1.6082633 -0.8743793 -0.6971915 -0.7830888 0.124733746 -0.49163073
-0.5833837 0.039120156 0.2286527 -0.10819934 -0.31132087 -1.0234939 1.1209391 -0.6647554
0.16353995 -0.9377638 -0.035122536 -0.06637512 -0.95677716 -1.0026295 -0.54045504 -1.1909455
-0.9390903 -0.3239242 -0.78359026 -0.3865322 -0.85943365 -0.7648895 -0.28284636 0.18211202

weight f4 [8, 80]
00000000: 623b 863e ee5f 71bf 61fe edbc c402 acbe
00000010: b135 3cbe 53f8 f5be cd34 f6be 5e0c 0cbf
00000020: fe85 e5be c04c 43bf 5835 eb3e 43a5 95be
00000030: 6fd6 12bf 7de3 0dbf 2526 1abf 3f6d ab3e
00000040: b0c0 82be 0dce 9abe d5b8 37be 2ece b7be
00000050: 46c7 7d3d 0a93 a23e 029a c0be f913 e1bc
00000060: a028 8ebe 8b0e b9bd 7176 5c3e 189d 90be
00000070: 4d63 0cbf 09ab 063c de8e 883e 9f96 4e3e
00000080: 5f50 193c a391 363e a0c2 043f edfa 29bf
00000090: 64a0 8ebd 98f1 17bd 1c5e 483d c1e8 02be
000000a0: 1af3 d8be 7eba 1d3e 912d 3c3e ff20 0d3f
000000b0: 73c4 2bbf 2022 72be 057e 0f3f ce66 703d
000000c0: 3840 3abe 04eb b93e 8161 bc3e ba34 dc3b
000000d0: 790a 0abf 7223 94be 2e4d 03bf dc34 e2be
000000e0: bd0b 18bf 4fef e0bc 2720 1dbe f347 ea3e
000000f0: b683 48bf f4e0 1dbf 745a 5b3e 3126 053f
00000100: 4d60 923e 63e4 9f3c d5c3 7e3c 0c91 0c3f
00000110: b56d 7bbe 051b b3bd f846 563d 837e b7be
00000120: de0e e63e f826 c93e 2890 d43e c1ed 903e
00000130: 09c6 243e 6bef b5be 6595 e1bd ad2b c33e
00000140: 7c6d fdbc 4284 f53e d6be 47bf 39e1 dcbf
00000150: 7dc9 223f 0f0f 33bf bd8a 493e 8e51 cabe
00000160: 6780 98bf f036 033e 6dd2 b8bc 8c1e d4bd
00000170: 8947 52be 8686 b1bf 826a b7be cc96 cd3f
00000180: 6c16 32be 464b 8ebf a677 173e 7b75 e0be
00000190: 3c01 433e f560 483f 200c b0bf d9e9 313f
000001a0: 5585 eb3e c1b6 2fbf 5575 653f 9291 783e
000001b0: 2ec2 113d 3630 80be 9561 b4bc 5482 643f
000001c0: 2319 2e3d 6b8c 23bf 81b9 a43f 8712 89bf
000001d0: a84b 223f 27e8 6ebe 4baa aabf 8a99 803b
000001e0: 923c 3e3f 6dbc ea3d 4d17 8abf d6fc b63f
000001f0: 29db 8cbf 0f12 d63d e0c3 28bd 7c5a 273f
00000200: 801c b13e 6c72 e23e 893e d93e 62c9 a13e
00000210: b199 0ebe 75b3 9d3f 0b5b 67bf f7ca 8a3d
00000220: d8ac c0be ac1f c4be cb42 943f 6583 88bf
00000230: 2e52 f2be ea99 ce3c 1ec0 903e 79bf bf3e
00000240: a7f4 373f 08f6 a93e 77fe 8a3f 17dd 683f
00000250: 041d 843f 5b6a e5be 92ce 01bf f47f 67bf
00000260: c9be 1dbf f538 a53d cf51 50bf 873a 093f
00000270: 3f20 5a3e a721 60bf 4490 0bbf 1b17 c6be
00000280: c111 85be bb95 2dbf 9450 8cbe 330e f1be
00000290: 2e46 a1be 8626 fcbe 9824 6dbf 119a 18bf
000002a0: 659a 0abe 3bd7 4bbf 73ca 86bf 9e94 e23d
000002b0: e1cf 58bf 9579 13bf d7b7 8abe 78e6 d5be
000002c0: e909 a93e d5ea d13d 061e 5c3f afba fcbe
000002d0: bbf1 44be da39 29be 5022 0fbe 2c44 16bf
000002e0: d419 cbbe 0f89 4dbf 1a8f 163e a51e 1cbe
000002f0: 4548 52bf 1712 82be bd96 d9bc deae 7cbd
00000300: 97a0 903e 157d 6d3d 9153 9b3d 67fb 233f
00000310: 779e 77be 32ab 21be 74da 90be db78 77bf
00000320: f612 16bc cd35 cc3e e2eb cd3e f4e8 b93e
00000330: 490a 9fbd 7504 67bf 0877 e23d 6c6d 03bb
00000340: 58a8 773e 3495 02bf d680 c8bd 955b a63e
00000350: 9568 b6be bcf1 b63e 4de6 f13c 23b2 9a3e
00000360: b2aa 32be ae54 03bc 0275 413e d8fa 493d
00000370: 10cf ed3d 5e40 9e3e 096b 103e a288 273e
00000380: 0d52 d4be 99b3 82be 35c5 783d 4d70 a3be
00000390: 8c76 6abe 187c f93e fc34 4fbd 382b aabe
000003a0: ac93 423e 36dd 98bd 4fec f5bd bcab 173f
000003b0: 06a8 823d 9da9 833e b378 91be 84eb f0bc
000003c0: e0b3 40bf 17dd e2be 5655 7abf cab8 ae3e
000003d0: 15d9 263f 9ee1 25bf 46db 6bbf 5c4b adbf
000003e0: fefb 1340 9268 06c0 e447 c3bf bc1d 9b3f
000003f0: c79c 62bf 3b48 673f a6a4 25c0 e7b3 64bf
0.2621718 -0.94287 -0.029051961 -0.3359586 -0.18379857 -0.4804102 -0.4808716 -0.5470637
-0.4482879 -0.76288986 0.45939136 -0.29227647 -0.5735845 -0.55425245 -0.60214454 0.33481786
-0.25537634 -0.3023533 -0.17941602 -0.3589949 0.06195762 0.31752807 -0.376175 -0.027475344
-0.2776537 -0.09035977 0.21529557 -0.28244853 -0.5483902 0.008219489 0.266715 0.20174645
0.009357541 0.17828993 0.51859474 -0.6639851 -0.06964186 -0.037095636 0.048917875 -0.12784101
-0.42372972 0.15403172 0.18376757 0.55128473 -0.6709663 -0.2364583 0.56051666 0.058691792
-0.1818856 0.36312115 0.3679314 0.0067201527 -0.5392223 -0.28933293 -0.5128964 -0.44180954
-0.5939291 -0.027457861 -0.15344296 0.45758018 -0.78325975 -0.61671376 0.21421224 0.520114
0.28589097 0.019518083 0.01554962 0.54908824 -0.24553569 -0.08745388 0.052313775 -0.35838708
0.44933218 0.39287543 0.41516232 0.28306392 0.1609117 -0.35534224 -0.11014823 0.3811926
-0.030935995 0.47952467 -0.7802557 -1.7256233 0.63588697 -0.6994485 0.1968183 -0.39515346
-1.1914185 0.12813926 -0.022561276 -0.10357389 -0.20535101 -1.3869178 -0.35823447 1.6061645
-0.17391366 -1.1116722 0.14791736 -0.4383963 0.1904344 0.78272945 -1.37537 0.6949745
0.46000162 -0.68638235 0.8963216 0.2427428 0.035585575 -0.25036782 -0.022019187 0.89261365
0.04250444 -0.63886136 1.2869111 -1.0708779 0.6339669 -0.23330747 -1.3333219 0.0039245533
0.7431117 0.114617206 -1.0788361 1.429591 -1.1004382 0.10452663 -0.041202426 0.65372443
0.34592056 0.44227922 0.42430523 0.31598955 -0.13925816 1.2320391 -0.90373296 0.06776994
-0.3763187 -0.38305414 1.1582884 -1.0665098 -0.47328323 0.025219876 0.28271574 0.3745077
0.71857685 0.3319552 1.0858907 0.90962356 1.0321355 -0.44807705 -0.50705826 -0.90429616
-0.6161924 0.08067504 -0.8137483 0.5360493 0.21301363 -0.8755135 -0.54517007 -0.38689503
-0.25990108 -0.67806596 -0.27405226 -0.47081146 -0.31498855 -0.4924814 -0.9263396 -0.59610087
-0.1353546 -0.7962529 -1.0530533 0.11063503 -0.846922 -0.57607394 -0.27093384 -0.41777396
0.33015373 0.10249869 0.8598331 -0.49361178 -0.19232838 -0.16525975 -0.13977933 -0.5869777
-0.39668143 -0.8028726 0.14703026 -0.15246065 -0.82141525 -0.25404426 -0.026561135 -0.061690204
0.2824752 0.057980616 0.075842984 0.64055485 -0.24181543 -0.15787962 -0.28291667 -0.96668786
-0.009159794 0.39884797 0.40219027 0.36310542 -0.077656336 -0.90241176 0.1105786 -0.0020054234
0.24185312 -0.51008916 -0.097901985 0.32491747 -0.35626665 0.35731304 0.029528761 0.30214033
-0.17447928 -0.008015795 0.18892291 0.04931149 0.1161176 0.30908483 0.1410333 0.16360715
-0.4146885 -0.25527647 0.060734946 -0.31921616 -0.22896785 0.4872749 -0.05058764 -0.33236098
0.19001645 -0.07464068 -0.12007963 0.5924642 0.06379704 0.25715342 -0.284124 -0.029409178
-0.7527447 -0.44309303 -0.9778646 0.34125358 0.6517499 -0.6479739 -0.9213146 -1.3538623
2.3122554 -2.1001325 -1.5256314 1.2118449 -0.88520473 0.9034459 -2.5881743 -0.8933701

bias f4 [8]
00000000: a4bc 5abf db8c bebe 1b32 5dbf b69c b9bf
00000010: db21 a2bd 2f52 69bf 8379 b5bf ffe1 84bf
-0.8544409 -0.3721684 -0.8640458 -1.4500949 -0.07916614 -0.9114103 -1.4177707 -1.0381469

weight f4 [1, 8]
00000000: 62cf c7bc 76fb babe f21f fbbc 7482 073e
00000010: 6dd2 d3be a3d3 fdbb 904a 683e 4633 e6be
-0.02439088 -0.36519974 -0.030654881 0.13233358 -0.4137148 -0.0077461763 0.22684693 -0.44960994

weight f4 [4, 32, 32]
00000000: 64bf b5bf 9be7 98be c5b6 24bf 8f4e aebd
00000010: d2f5 be3e ebd2 abbf 4e97 103f 9031 bfbe
00000020: c39a 423f 18f2 f8be 5981 6f3f a95f 2b3e
00000030: 2912 1e3e 7320 7a3f 48a1 bcbf 499f ad3f
00000040: e4b5 b3bc eeb1 093f d11e c83e 30cd d33f
00000050: d9ad 7f3d b411 463f b750 863e 6f9a ea3e
00000060: 2d83 ee3e 22f4 25be 9a9a cdbe c761 063e
00000070: b824 8b3e d763 84bf bf6d 0e3f c273 9d3e
00000080: 209f 5dbf b025 83bd 7b0b 92bd 1c66 be3e
00000090: 8c89 b03d ce68 b6be 6aa2 d03d 1cae 2dbf
000000a0: e379 16bf 808f 113e 80f8 46bf e47c e1be
000000b0: 703c 03be 1e8c c53e 8909 183d 82ce 09bf
000000c0: 437d 4c3d ee68 39bf ef6a a23f fdeb 0cbf
000000d0: 459f 32be ab60 97be 0df8 843d 0368 1f3e
000000e0: 4a77 98be 1b69 913d 4ebd dcbe e9b4 0dbf
000000f0: e097 ce3c 1b5a 523f b7d4 7cbf 094a 71be
00000100: 7864 2abf ce2a 7b3e 55f3 563d 074f 013f
00000110: a9df 4e3f 53de 72bc a3c6 043f 5d82 71be
00000120: 7ec8 c23e fa55 0cbf 4f30 52bd cd97 513e
00000130: 7556 36bf da04 4ebe 17eb 5ebf 4520 e33e
00000140: 38a5 a03d 8278 b93d 64a8 603f b605 673f
00000150: 5aba e43e cda5 5f3d 2232 f43d 3fa1 28bc
00000160: 4f4f f53e 684b c93d 5630 dbbe 058d dbbc
00000170: cb8b 1a3f 779f 8abf 179d 53be cba9 a13e
00000180: db28 37be f798 e1bd 469c ebbe a951 183f
00000190: f603 f4be c9df 8abf 592c 8d3e e29c 12be
000001a0: 3d57 d03e eb82 a83e 19f9 093c 435c 1cbe
000001b0: c743 17be d6c9 97bd d775 1d3f 7e3e bf3e
000001c0: 13fb 49be dd1f 58be 1d9f 05bf d554 abbe
000001d0: ff4d 983e 925b 2bbe c140 d3be 2ac5 c83c
000001e0: 0c68 0e3f 85a7 c1bd 2028 08bf 3198 1dbf
000001f0: fc59 073f c551 89be 9815 be3e b092 0f3f
00000200: 76d5 45bf 0f2e f8ba d909 f13d 38f5 7ebd
00000210: d761 ab3f 107e 68bf a41c 8a3f ff67 ecbe
00000220: f4db bbbd 52bd 27bf e23b 843f 334e 47be
00000230: fdfe 3c3f 5637 e5bd 9192 41bf dd4f 9d3f
00000240: 765e 973d b35d 1a3f 1e1b e03e e464 ca3f
00000250: 4a2d 69be 2254 4d3f 0c3e f53e dbb3 663e
00000260: 5a1a 9f3e 7ce8 6b3e f17e 863d 7fef 253f
00000270: 7a6e 9e3d 4844 92bf 8f44 0a3f 3652 8f3e
00000280: 994c a3bf 4f6e ba3d bf66 2cbe cb31 833f
00000290: 5837 473f bccc a2bf 0984 0a3f 50c5 fb3e
000002a0: eae2 8b3e 800b 20bf f897 903e b1eb a3bd
000002b0: 5888 2dbf 138b abbe 6258 babf 70bf 433f
000002c0: 1e72 98bd 9e0e 16be dcf5 3d3e 0c76 0040
000002d0: 2c03 603f 0027 623f fa5f 1e3f 2186 d43d
000002e0: 3990 e13d 7d33 623e a337 32bf 54e6 1abe
000002f0: afe9 413e 56b3 02c0 7ae2 a9bd 3756 a13d
00000300: 60bd ef3e d16b b4bc 1731 55be 53bd c63e
00000310: c5c1 9f3e 9484 40bf 08b4 923f 919c 633f
00000320: 3450 aabe 975d c13e 25f2 ac3e e646 203e
00000330: 9b89 85bf 8579 ec3e 8d32 433f 313c 233e
00000340: cc78 a53d a1f6 143f ef27 20bf 4d44 873e
00000350: 751e f0be ada1 adbe 3df0 3abe 0c69 013f
00000360: c6f9 5b3e 3449 0dbc 6958 7d3e 1d28 20bd
00000370: c377 e03e 182d 883e 9aee a23e 5605 bd3e
00000380: e97c 69bf dbb1 e9bc 2193 dfbe cdea 983f
00000390: 9ea0 1a3f 373e d8bd 2d0f 3cbd 6085 dfbe
000003a0: 5e15 5dbe a8b7 89bd bfe1 fabe e9b9 e4be
000003b0: 48d2 dd3e 5148 573f 0016 853f d18c 6dbe
000003c0: 0fb5 a63e fc81 30bf 4283 a2bd 72d9 81be
000003d0: 3679 043f 17c3 243f e612 983f c731 f73e
000003e0: 6079 fd3d 4150 ad3d db6e 883e d1c9 3bbe
000003f0: 6ca6 a2be a15b 353f 75d2 073e 7fe7 38bd
-1.4199033 -0.298642 -0.64341384 -0.085110776 0.3729692 -1.3423742 0.5648087 -0.373425
0.760174 -0.48622203 0.93556744 0.1673571 0.15436615 0.97705764 -1.4736719 1.3564235
-0.021937318 0.53787124 0.3908601 1.6546993 0.062421653 0.7737076 0.26233456 0.45820948
0.46584454 -0.1620641 -0.40157014 0.13123237 0.27176452 -1.0342969 0.5563621 0.3075238
-0.8657093 -0.06403673 -0.07131096 0.37187278 0.08619985 -0.35626835 0.10187228 -0.67843795
-0.58779734 0.14214897 -0.7772293 -0.44040596 -0.12816024 0.38583463 0.03711847 -0.5383073
0.049924146 -0.72425735 1.2688884 -0.5504759 -0.17443569 -0.2956594 0.064926244 0.15567021
-0.2977851 0.071001254 -0.43113178 -0.5535417 0.025218904 0.8216874 -0.9876208 -0.23563398
-0.66559553 0.24528047 0.052478153 0.5051121 0.8081003 -0.014823514 0.51865596 -0.23584886
0.38043588 -0.5481869 -0.051315602 0.20468064 -0.7122567 -0.20119038 -0.8707747 0.44360557
0.07844013 0.09056188 0.87756944 0.9024309 0.44673425 0.05460148 0.119236246 -0.01029235
0.4791207 0.09828836 -0.42810315 -0.026800642 0.6036956 -1.0829915 -0.20665394 0.31574854
-0.17886679 -0.11015504 -0.46017665 0.59499604 -0.47659272 -1.0849544 0.27572897 -0.14317659
0.40691558 0.32912382 0.008421206 -0.1526957 -0.14771949 -0.07411544 0.61507934 0.37352365
-0.19724683 -0.21105905 -0.5219591 -0.3346316 0.29747006 -0.1673415 -0.4126034 0.024508078
0.5562751 -0.0945578 -0.53186226 -0.6156035 0.5287168 -0.26820198 0.3712585 0.560832
-0.7727884 -0.0018934625 0.117694564 -0.062245578 1.3389233 -0.90817356 1.078999 -0.46173093
-0.09172812 -0.65523255 1.0330775 -0.19463424 0.7382658 -0.11192195 -0.7561427 1.2289997
0.07391064 0.60299224 0.4377069 1.5812039 -0.22771183 0.802065 0.478989 0.22529547
0.31074792 0.23037905 0.06567181 0.6481857 0.077359155 -1.1427088 0.5401086 0.2799241
-1.2757751 0.09103071 -0.1683607 1.0249571 0.7781882 -1.271873 0.5410772 0.49173975
0.2732156 -0.6251755 0.28240943 -0.08003939 -0.6778617 -0.33504543 -1.4558222 0.76463985
-0.07443641 -0.14654014 0.18550819 2.007205 0.8750484 0.8834076 0.618652 0.103771456
0.110138364 0.22089954 -0.69616145 -0.15126926 0.189368 -2.0421958 -0.0829515 0.07877772
0.4682417 -0.022024067 -0.20819508 0.38816318 0.31202522 -0.752023 1.1461191 0.88910776
-0.33264315 0.37766716 0.33778492 0.15652046 -1.0432619 0.46186462 0.7624901 0.1594093
0.08079681 0.58188826 -0.62560934 0.26419297 -0.46898237 -0.3391241 -0.18255706 0.50550914
0.21482 -0.00862341 0.24740757 -0.039100755 0.4384137 0.26596904 0.31822664 0.36918133
-0.9120622 -0.02852719 -0.43666938 1.1946656 0.6040133 -0.105587415 -0.04591291 -0.43656445
-0.21590182 -0.06724483 -0.49000356 -0.44673088 0.43324494 0.8409472 1.0397339 -0.23198248
0.32560012 -0.6894834 -0.07935192 -0.2536121 0.51747453 0.64360183 1.1880767 0.48280165
0.12376666 0.08462573 0.26647076 -0.18338706 -0.31767595 0.7084294 0.13263877 -0.045142647

w_comp f4 [142, 4]
00000000: 0f14 1e3f 42e7 d3bd 988e a5be f72a 873c
00000010: 88b8 e23e 8a72 4b3e 0912 7a3d b80a 923e
00000020: 3e2d 0dbe 1f35 f8be 0176 aabc 8c4d 20bf
00000030: 4f9a 28bf 126f 29bf 143f 1a3f 5625 eebe
00000040: 22b4 f9be f231 94bf 4dbe b03e 5c13 e33d
00000050: 1b07 873d 0bed 0d3e dda5 a1be f574 a83d
00000060: 78b8 1ebe 6282 053e a778 d1bd 1cf4 3e3d
00000070: bdef 9a3f 2232 fdbe bc14 623e 2fd9 96bf
00000080: d206 853f b0f3 39be 1c54 813d b767 9bbf
00000090: c6ff 473f e347 173f 16e9 95bf 8179 e0be
000000a0: 86d6 fc3e b630 9fbf 51de 51be a989 18bf
000000b0: bf1d 38bf a770 263f f669 16bf bcf7 a93d
000000c0: 10f7 a43e bce3 143f 06ab 923e de82 ef3e
000000d0: f345 0180 3319 0100 f51a 5f27 2047 0080
000000e0: de7f 033e 50cd 3fbf 582e 0e3e 8633 7b3f
000000f0: 465d fe3e 9798 3f3d af71 3ebe af98 073f
00000100: 180e 03bf 5a4c 9c3f 2795 a43d 0694 b83f
00000110: 08d7 243e 7b4e 44bf 12e9 c33e 81a4 0e3f
00000120: 2239 d8be 4514 fa3d a709 6ebf 66ea 29be
00000130: a8c1 473f f9f0 9b3d c50f ccbe 9b4e 5cbd
00000140: 9acd d2be dfe5 e9bc 2be7 b23e dfc2 203f
00000150: 6d34 093f 81a0 043f 50e1 79be c3ed b03e
00000160: 16e4 5abe b38e 95bd 4f5e e8bd a37e cc3d
00000170: 6bf7 3100 7996 ee37 04bb 4139 5919 c620
00000180: 23bf 483d 7d68 cf3e f607 0abe 93c7 9c3d
00000190: d8d9 ffbc 9ec5 f93e 6384 92bf 8e56 e43c
000001a0: 9639 373f 1b21 4a3e 10a6 0b3e 8c5d 8fbe
000001b0: 642f 9ebf 2688 a6be 19b6 a0bd d55b 86be
000001c0: 18e4 25be 26af 7e3d fc61 23be 46e8 fe37
000001d0: fa20 81bf 8c41 48bf b8b3 e9bf a710 c6bf
000001e0: d7d6 f6be 9b90 3b3c 7d02 963d 766d f73e
000001f0: 6e1d 553f f6a4 903e c279 9e3f 6cb7 debe
00000200: d0c8 6e3f 5783 a43f 370c c4be 86e1 553e
00000210: 7382 da3e c3cd 8e3e a39c e23e 25b6 7a3e
00000220: 684d 8c3e 0c05 c5bd 3c4d abbf d0b4 97bf
00000230: 016e 493e d07a 8fbe 0ee3 38bd a205 e9b8
00000240: d806 52bf 4043 b7be f4c6 413d 4cf0 d6bc
00000250: a7fa 0dbe a91f 523f 5af6 493e 2357 4abd
00000260: 1c41 6fbe 674b bd3e 689a 12be 6f5b 7abe
00000270: bf02 cdbe fe6a f2bc a499 f8be 55da 963d
00000280: 1f46 0000 e207 0000 2270 3800 50e4 dc2c
00000290: fa51 f53c ea1f 0cbf cfb7 a8be a304 d13d
000002a0: 6019 0000 fe2f 0180 fca7 0180 e2bc 0080
000002b0: af36 313f c306 6f3c 7fc1 babe 0b3a 543f
000002c0: a2cf 9abf 5163 98be 3c26 62bf f8dd 383f
000002d0: f9ae 2a37 4f0e 0000 b99b 0080 8885 b92e
000002e0: 8d3b 0180 a3db 1600 522e 1500 1776 0000
000002f0: c648 7cbf 75c6 f7be ef34 1f3e d325 2c3f
00000300: 6a3b 0000 f888 c7ac 61eb baaa dd0d 0080
00000310: 91f2 1480 074c 0100 846b 0180 19ac 0080
00000320: 9ce3 b238 cc66 88bd b811 8f3d 6fd7 5f9d
00000330: b8e6 77bf 2235 abbe 369d dcbe 929d edbe
00000340: dbee 523e bf98 0b3f 00c5 d33e ec70 af3e
00000350: f5c6 e937 8885 3e80 f3a3 28bb e567 0100
00000360: 4f35 3abf e1d9 6a3f 3f0d bdbe bf3e b73e
00000370: 3d67 1dbf f0dc 1bbf e2dc db3b 1024 1cbf
00000380: da1b fc3e 59a6 e4be 5f9c 8fbd 0779 053f
00000390: 4d9d 0936 9184 0100 25b9 0080 2da5 0180
000003a0: dea0 4234 6efe 72b1 59d1 0000 b4a6 9799
000003b0: b7b6 1380 3796 4000 cf2e 0080 604b 0000
000003c0: 73d5 0080 529e 0180 5920 5000 ae44 0080
000003d0: 8110 1abe 2a0c 65be d97e 3f3e 24e3 d23e
000003e0: 2bc1 c9be 9524 77be bcb7 a2be ed82 f9be
000003f0: 5bb0 a83f 9728 d2bf e8ea bf3f 4003 bd3e
0.61749357 -0.10346843 -0.32335353 0.01649998 0.4428141 0.19867912 0.061052356 0.28523803
-0.1378679 -0.48478028 -0.020808222 -0.6261833 -0.65860456 -0.66185105 0.602525 -0.4651286
-0.48770243 -1.1577742 0.34520188 0.11087677 0.06593152 0.13859956 -0.31571856 0.08225433
-0.15500057 0.13038018 -0.10228091 0.04661952 1.2104412 -0.4945231 0.22078222 -1.1785029
1.0392706 -0.18159366 0.06314871 -1.2141026 0.78124654 0.59094065 -1.1711757 -0.438427
0.49382418 -1.243674 -0.20494963 -0.5958505 -0.7192039 0.65015644 -0.58755434 0.08299205
0.32219744 0.58159995 0.28646106 0.4677953 -1.16929e-40 1.00875e-40 3.096208e-15 -2.5515e-41
0.12841746 -0.74922657 0.13884866 0.98125494 0.49680537 0.04677638 -0.18598054 0.5296735
-0.5119338 1.2210801 0.08036261 1.4420173 0.16097653 -0.7668225 0.38263756 0.55719763
-0.4223109 0.12210897 -0.9298348 -0.16593322 0.7802987 0.07614321 -0.3985578 -0.0537859
-0.41172487 -0.028551994 0.34941992 0.6279735 0.5359562 0.5180741 -0.24402356 0.34556398
-0.2137607 -0.07302608 -0.11346113 0.099850915 4.588696e-39 2.844188e-05 0.00018475583 3.3559278e-19
0.049010407 0.40509406 -0.134796 0.07655253 -0.031231806 0.48783582 -1.1446651 0.027873304
0.71572244 0.19739191 0.13637567 -0.28001058 -1.2358212 -0.32525748 -0.07847232 -0.26241937
-0.16200292 0.062178753 -0.15955347 3.038732e-05 -1.0088189 -0.78225017 -1.8257971 -1.5473832
-0.48210785 0.011448051 0.07324693 0.483257 0.8324803 0.28250855 1.2380908 -0.43499315
0.93275166 1.2852582 -0.3829057 0.20886812 0.4267765 0.2789136 0.4426013 0.24483545
0.27402806 -0.09620103 -1.3382945 -1.1852055 0.1967087 -0.28023386 -0.04513841 -0.00011111355
-0.8204169 -0.35793495 0.047308877 -0.02623763 -0.13865148 0.8207956 0.19722882 -0.049399506
-0.23364681 0.3697159 -0.14316714 -0.24448942 -0.40041158 -0.029592033 -0.48554718 0.07365862
2.5155e-41 2.828e-42 5.183013e-39 6.278124e-12 0.029946316 -0.54736197 -0.32952735 0.102059625
9.103e-42 -1.09052e-40 -1.52097e-40 -6.7758e-41 0.69224066 0.014589014 -0.3647575 0.82901067
-1.2094615 -0.29763272 -0.8833959 0.722137 1.0173529e-05 5.133e-42 -5.5863e-41 8.436546e-11
-1.13198e-40 2.099172e-39 1.945162e-39 4.2363e-41 -0.98548543 -0.48393598 0.15547536 0.67245215
2.1314e-41 -5.6711268e-12 -3.3203564e-13 -4.973e-42 -1.923726e-39 1.19109e-40 -1.30405e-40 -6.1737e-41
8.530097e-05 -0.06660232 0.069858015 -2.962518e-21 -0.96836424 -0.33438975 -0.43088692 -0.4640928
0.20598929 0.5452995 0.41361237 0.3426584 2.7868411e-05 -5.741703e-39 -0.0025732487 1.29106e-40
-0.7273759 0.91738707 -0.36924168 0.3579006 -0.61485654 -0.60884 0.006709681 -0.60992527
0.4924 -0.44658163 -0.07012247 0.521378 2.0506152e-06 1.39391e-40 -6.6417e-41 -1.5109e-40
1.8126181e-07 -3.5360261e-09 7.51e-41 -1.5680365e-23 -1.81042e-39 5.931359e-39 -1.6792e-41 2.704e-41
-7.6571e-41 -1.4863e-40 7.358444e-39 -2.4638e-41 -0.15045358 -0.22367921 0.18700732 0.4118892
-0.39405188 -0.24135049 -0.31780803 -0.487327 1.317882 -1.6418637 1.4993563 0.36916542

self_loop_weight f4 [32, 32]
00000000: 354c 173f 675c 83be cefe 96bd b5ab 16bf
00000010: 7037 02bf 2721 c7be 734d c0be d8cd 693f
00000020: d702 2cbd 1abf 9e3f bb7c 62bc 81b2 9b3f
00000030: be11 5dbf 9272 913e 51a7 f1be cdaf 703e
00000040: a9c6 20bf 0e47 babd 0fd2 b0bd b6eb 87be
00000050: 4142 ce3d 9557 843d 7872 ffbe 1995 ec3e
00000060: a5ae 12bf 718f c5be c729 ea3d 3b08 5b3f
00000070: 8ff3 c1be 6e04 bfbe 965c 36be 02cf b73e
00000080: 4785 fd3d b32e 303f 5dd3 30be 347f 41bf
00000090: 6b9f 5b3f 50e6 2f3e fd32 453f 3be3 fdbe
000000a0: 9bce 7abe cc7d c0be c003 81bd 2a86 863f
000000b0: a3d4 cbbe 4b8c 7d3f 5d37 6d3f 4449 db3e
000000c0: 42fb a1be 5670 9e3e 6a45 943f 83b7 03be
000000d0: 163e 5b3e d34d 21bf e26d 613c 707e 2cbf
000000e0: 59b8 c3bc 9b36 d0be 4fa1 d7be 9017 c43e
000000f0: 7c1e c6be fcff afbe 24f1 8cbe b938 cfbd
00000100: bd3c 373f 6509 183f b7a2 b6bd 0fde 34bf
00000110: 9a79 3fbe e1aa 80bf 2f32 ff3d 75c7 08be
00000120: 661c b6be 97e6 993e fbdc ac3e 90ff 833f
00000130: f1b1 643e 8360 f23d a729 99bf 9bb5 b1bc
00000140: b567 23bf 6375 f83e bb00 f2be aa66 333e
00000150: 6893 053d 42dc 43bf 79fe 943d ab1b 683f
00000160: 8c87 bfbd e4f4 24bf a498 933e b87a 73ba
00000170: dd0c 74be 8e78 c0be ea3a 8f3e 4f07 603e
00000180: be8e 383f 7492 4dbf 13f6 c03d cbf3 fcbf
00000190: 2b86 2e3f 55af f7be 8b00 0340 990a ca3d
000001a0: f98e 12bf 2cdf d13e 17ff 323f 1441 653e
000001b0: 7ce8 edbc efdd bdbe 4895 a0bf 82eb c43e
000001c0: 223d b8be a95d b33f 85a4 a4bf 7cb7 1a3f
000001d0: 2342 afbd af01 28bf 7b8a 2e3f d9d6 17bf
000001e0: 7802 f1bc 4b70 2bbf 0845 dcbe 5b9f d13e
000001f0: a48a 51bf 572d 163e 84e9 6b3f 1d46 4bbd
00000200: 9ba2 ec3e 6937 d53e 3905 f03d e931 febe
00000210: d75f 2e3e 14d3 ae3c 9c34 3b3e 1af2 c13e
00000220: 885d 88bf 48dd f43d 07dc abbe 245e a2bd
00000230: e130 5fbf 645f 7c3d 9608 853f 0912 74bf
00000240: b9a7 08bf 5cef 5fbf a9af 2cbf 7d93 35be
00000250: 4970 d3be 3c4e 62bf 95a1 093f f5a7 85bd
00000260: c64b 51bf 2e69 cbbe d708 293f a6f8 12bd
00000270: 4ec3 49be 2da8 e4be 76d1 9ebe 7d30 54be
00000280: ac0b 59bd cbc4 813e 6049 3a3e 3c89 01bf
00000290: f442 a0bf 0577 88be e57e 99be 1eec 9b3e
000002a0: 9667 fdbe 3239 4b3f e36b 75bf 5076 ce3f
000002b0: da20 3bbf 6382 53bd 5de1 d7bf 32b0 62bf
000002c0: 8368 5abf 480a adbf e5cf 8abe 9d1d 17bf
000002d0: 9b89 08bf e7f9 edbe c765 9ebf c33d 723f
000002e0: 30bc 67bf d7b4 9cbe 06b4 36bd aa60 2e3f
000002f0: 0286 cfbe 8003 dcbe bf90 efbd ae5c 863e
00000300: 0776 c5bf c516 e1be 58eb e6be 2653 5bbf
00000310: c6b9 233f 86bc 19bf 3cd2 e93e 1abd f53e
00000320: fd60 25be 5c58 a83e 7e06 b03c 9afc 19bf
00000330: 8581 15bf a37d 69be 543f 1dbf e55c 85be
00000340: a70f 203e 0632 243e 17bb 5a3e 1d2d 303f
00000350: f9b9 edbe fa85 0fbf 8066 6f3d 65bc dbbe
00000360: 3ee0 03bf 9c25 39bf 0084 a0bc 8b9a c4be
00000370: 4a2d 33bf dcb5 09bf b463 e0be 7562 3abe
00000380: 773c b7be 8b84 2bbf 06a6 2dbf ea56 003c
00000390: c7e5 97bd 2180 1b3e 0a2b 7a3e 4549 3e3e
000003a0: ff79 a1be dea0 2c3f 1281 35bf 7b93 bdbe
000003b0: f2f7 86bf 6aeb aabf 51d0 bebe b250 f8be
000003c0: eb91 27be a90b d93e b4ed c73e 4514 bfbe
000003d0: bae2 523e 4cca 42bf 66fd 6cbf 2082 0ebf
000003e0: 53a0 ca3c 33d2 a1be 35ed 44be 015f 40be
000003f0: 7b9a 9abf b8f0 48bf de78 8abf 5d80 38bf
0.5910066 -0.25656435 -0.07372819 -0.58855754 -0.5086584 -0.3889248 -0.3755909 0.9132972
-0.041994896 1.240207 -0.013823683 1.216385 -0.863552 0.28407723 -0.47197965 0.23504563
-0.6280313 -0.09095584 -0.086338155 -0.2654702 0.10071231 0.064620174 -0.4989202 0.46207502
-0.57297736 -0.38586 0.1143375 0.85559434 -0.37881133 -0.37308067 -0.17808756 0.35900122
0.12378936 0.6882126 -0.17268129 -0.7558472 0.8579013 0.17177701 0.77030927 -0.49587426
-0.24492876 -0.37595975 -0.062995434 1.0509694 -0.39810666 0.99042195 0.926626 0.42829335
-0.31637007 0.3094508 1.1583683 -0.12862973 0.21410403 -0.63009375 0.013759108 -0.6738043
-0.023891615 -0.4066666 -0.42115256 0.38299227 -0.38695133 -0.34374988 -0.27527726 -0.10118241
0.71577054 0.59389335 -0.08917754 -0.70651335 -0.18698731 -1.0052148 0.12460744 -0.13357337
-0.3556854 0.3005874 0.33762345 1.0312366 0.22333504 0.118348144 -1.1965836 -0.021693042
-0.6383012 0.4852706 -0.47266182 0.17519632 0.03261128 -0.7650796 0.07275099 0.9066722
-0.093520254 -0.64436173 0.28827393 -0.0009288001 -0.23833032 -0.37591976 0.27974635 0.21877788
0.7209281 -0.80301595 0.09421935 -1.97619 0.68173474 -0.48375955 2.0469081 0.098653026
-0.5724941 0.4099058 0.69920486 0.22388107 -0.029041521 -0.37083384 -1.2545557 0.38460928
-0.3598414 1.4012958 -1.2862707 0.60436225 -0.085575365 -0.6562757 0.68180054 -0.59312207
-0.029420123 -0.6696822 -0.43021417 0.4094189 -0.81852174 0.14665733 0.9215319 -0.049627412
0.46217808 0.41643837 0.11719746 -0.49647453 0.17028747 0.021340884 0.18281788 0.3788002
-1.0653543 0.119562685 -0.33566305 -0.07928112 -0.8718396 0.06161441 1.0393245 -0.9534002
-0.53380924 -0.8747461 -0.67455536 -0.17732044 -0.41296604 -0.88400626 0.5376218 -0.06526176
-0.81756246 -0.39728683 0.66029114 -0.03588166 -0.19703409 -0.44659558 -0.3101918 -0.20721622
-0.052989647 0.25345454 0.18192053 -0.5060003 -1.2520432 -0.26653305 -0.29979625 0.3045358
-0.49493092 0.7938415 -0.9586775 1.6129856 -0.73097 -0.05163802 -1.686565 -0.885501
-0.8531572 -1.3518763 -0.27111736 -0.5902956 -0.5333497 -0.46479723 -1.237481 0.9462549
-0.90521526 -0.3060672 -0.044605277 0.6811625 -0.40531927 -0.4297142 -0.1169753 0.26242584
-1.5426644 -0.43962684 -0.45101428 -0.8567375 0.6395534 -0.6005329 0.4566821 0.47995836
-0.1615028 0.32879913 0.02148747 -0.60151064 -0.58400756 -0.22801833 -0.61424756 -0.26047435
0.15630971 0.16034707 0.21360432 0.6881884 -0.46430948 -0.56063807 0.05844736 -0.4291717
-0.5151404 -0.7232301 -0.019594193 -0.38399157 -0.6999098 -0.5379312 -0.43826067 -0.18201621
-0.3578832 -0.6699912 -0.67831457 0.007833222 -0.074168734 0.15185596 0.2443048 0.18582638
-0.31538388 0.67432964 -0.7090007 -0.3702658 -1.0544417 -1.3353093 -0.37268308 -0.48499066
-0.16364257 0.42391708 0.3904854 -0.37320152 0.20594302 -0.7608993 -0.92574155 -0.55667305
0.024734652 -0.31605682 -0.19231112 -0.18786241 -1.2078394 -0.7849231 -1.0818136 -0.72070867
