experiments/grail_fb_v1_ind/graph_classifier_chk.pth (torch, 151566 bytes, 21 tensors)

weight f4 [142, 32]
000000 a6 40 ef 3e a3 f0 a5 be dd c2 cf bd 88 7e 4e bf
       0.4672901 -0.32410154 -0.10144589 -0.8066182
000010 51 dc 82 be 0c f0 d0 be d0 63 80 bf 0b 50 56 3f
       -0.25558713 -0.4080814 -1.003046 0.83715886
000020 f9 c7 8f be 11 5a df be ed 15 a5 3e 2b d7 b1 3c
       -0.28082255 -0.43623403 0.3224329 0.021709045
000030 a1 fd b5 bc 73 b9 87 bf 49 9a f6 be a2 64 a3 3e
       -0.022215666 -1.060347 -0.48164585 0.31912714
000040 8b ee 16 bf 23 f3 12 3d ef fa 1b 3d bc a9 ca be
       -0.5895774 0.035876404 0.038081106 -0.39582622
000050 61 c2 27 3f 2e a6 d3 3e 2a a2 e6 be 38 e7 a3 3e
       0.65530974 0.41337723 -0.45045596 0.32012343
000060 16 f3 2d bd e8 b8 07 bf 19 d7 1d 3e b8 c8 c5 bd
       -0.042468153 -0.5301652 0.15414084 -0.09657425
000070 66 46 07 c0 55 28 57 bd 77 81 a3 3e d4 33 be 3f
       -2.1136718 -0.052528698 0.3193471 1.4859567
000080 5d f5 ec bf 7b 3e 15 bf eb b8 60 bf 27 81 b4 bd
       -1.8512379 -0.5829846 -0.8778216 -0.08813696
000090 9b c0 6f be f1 ed e2 bd 3d e4 d6 3d 93 a8 d8 be
       -0.23413317 -0.1108054 0.10492752 -0.42316112
0000a0 9c 30 55 3f 77 ba 33 3e ac 5c 06 be 55 56 c8 3e
       0.832773 0.175516 -0.13121289 0.39128366
0000b0 48 4b b8 3c 73 5c d2 3e df 36 39 bf 0e 04 42 3f
       0.022496834 0.41086158 -0.7234935 0.75787437
0000c0 f3 3f 28 bf 71 80 74 be e1 1c e1 3e 33 42 44 bf
       -0.6572258 -0.23877122 0.43967345 -0.7666351
0000d0 2e d3 62 bf 1e 5f 36 bf 7f a4 03 3f f7 c7 1e 3f
       -0.88603485 -0.7123889 0.51422876 0.6202387
0000e0 dc ae b8 3e 33 84 1b 3f 7a 17 90 bf 2d 02 c1 3f
       0.36070907 0.60748595 -1.1257164 1.5078789
0000f0 3d 3f 97 3f 0d 8e 9c 3d b9 36 ca bc a9 67 2f be
       1.1816174 0.076442815 -0.024684297 -0.17129387
000100 d4 37 af bf b3 94 90 bd 8d e1 77 3f e5 2d 39 3f
       -1.3688912 -0.07059612 0.9682854 0.72335654
000110 22 eb a8 bf 59 7a 6f 3f 15 dd ac bf ff c8 71 3e
       -1.3196757 0.9354606 -1.3504969 0.2361183
000120 35 8a 87 3e 44 c8 c9 3e 80 ca 89 3f d4 d3 1f bf
       0.2647263 0.39410603 1.0764923 -0.624326
000130 1b 32 76 3e 29 be 73 bf f3 22 c5 3f d1 7b a2 3f
       0.24042551 -0.95212036 1.5401291 1.2694036
000140 40 57 18 be 7f a5 eb 3f ba ef 6d 3e d5 e3 6f 3f
       -0.14877033 1.840988 0.2323598 0.9370702
000150 0f 9e fa 3e 2e 3c b7 bd a8 a7 b8 bd 8d 78 65 bf
       0.48948714 -0.08947025 -0.09016353 -0.8963707
000160 04 53 16 3f ac 08 41 bd 5d 01 3f bf 66 3f 20 bf
       0.5872042 -0.04712741 -0.74611455 -0.6259674
000170 6a 62 91 bf 46 71 92 bf d7 4f cb bc 9e cc a1 3f
       -1.1358159 -1.1440818 -0.024818344 1.2640569
000180 0c 51 0a bf 2a f9 cd bd e4 f5 df be b7 90 36 3e
       -0.5402992 -0.1005729 -0.43742287 0.17828642
000190 e8 d0 11 3e 07 73 8f 3e 07 f0 c1 be e5 b0 16 be
       0.14239848 0.28017446 -0.3787844 -0.14715917
0001a0 fb c4 49 3e 0f 9a fd 3e 0d 9c 40 3f 44 03 03 3e
       0.19704048 0.495316 0.75238115 0.12794214
0001b0 90 26 8e be b5 2b fe be 71 e8 08 3d 31 35 0f 3f
       -0.27763796 -0.4964272 0.0334248 0.5594054
0001c0 48 58 75 be 2a 8c 03 be 7e 3f 04 3f 3b 90 07 3e
       -0.23959458 -0.12846437 0.5165938 0.13238613
0001d0 03 70 dd 3e 22 7a a2 be f8 49 86 3e 66 ee 1a be
       0.4324952 -0.31733805 0.2622831 -0.15130004
0001e0 8b 08 1c 3f 98 c9 d6 bd f6 2c e5 3e c0 81 23 3f
       0.60950536 -0.1048767 0.44760865 0.6386986
0001f0 82 42 a4 bd 31 0a 1c be e6 32 c6 be 02 36 d6 be
       -0.08020498 -0.15238263 -0.38710707 -0.4183808
000200 13 af d6 bd c0 03 e0 3d c0 92 fb be e4 a1 88 3e
       -0.104826115 0.10938215 -0.491354 0.26686013
000210 6b 88 cd 3f 60 ab 9d bf 78 57 0e 3f f4 7b 09 3f
       1.6057256 -1.2317924 0.55602217 0.5370476
000220 8c e2 38 3f f4 90 3f 3e 6a 3b f7 3d fb c8 92 be
       0.72220683 0.18707639 0.12071879 -0.2866896
000230 d6 b9 92 3f d0 89 5f 3f 96 f2 57 bf e0 b0 04 bf
       1.1462963 0.8731966 -0.8435453 -0.5183239
000240 a5 f9 86 3e 88 df de be 17 a9 09 bf 4e d9 01 be
       0.2636234 -0.43529916 -0.53773636 -0.12680551
000250 5e 3a b8 bf fe f0 7d 3f 5a 7d ac 3e 99 18 61 3e
       -1.4392812 0.9919585 0.33689386 0.2198204
000260 f8 4a 06 bf c0 7d 8f bf 24 82 b3 3d 04 d1 9b 3d
       -0.52458143 -1.1210251 0.08765057 0.07608226
000270 a4 a9 e2 3c 64 b0 7a 3f c6 17 05 3f ca e3 d9 be
       0.027668782 0.979254 0.519894 -0.42556602
000280 3d ea 02 3f 70 1e 99 3f a2 b0 90 3f c9 7a 27 3f
       0.5113867 1.1962414 1.1303904 0.6542173
000290 a5 83 1c be 76 05 92 bf 84 7b 33 3f 19 a7 71 3e
       -0.15284593 -1.1407917 0.70110345 0.23598899
0002a0 b9 c2 9b be e0 8e ff be d5 3c ec be 9d fd ca 3d
       -0.30422 -0.49913692 -0.4614016 0.09911654
0002b0 25 50 a7 3e af a5 bc 3f 89 ca 49 bf 52 d3 68 bf
       0.32678333 1.4738063 -0.7882467 -0.9094745
0002c0 ae e3 2e bd af 78 c0 be 05 81 9a bf 4c da c5 3f
       -0.0426976 -0.37592074 -1.2070624 1.5457244
0002d0 d3 b1 0f bd bb 77 a0 3f 94 b4 bf 3c d4 9d 0d 3f
       -0.035081696 1.2536539 0.023401536 0.5531895
0002e0 9b 4c b7 be 6a dd cd be dd 7a ab 3e a4 68 90 bf
       -0.35800633 -0.40207988 0.33492175 -1.1281934
0002f0 ee 20 75 3f fd 7f 03 3f 18 29 ec 3f 09 3b eb 3e
       0.9575337 0.5136717 1.8450041 0.45943478
000300 1d c8 d3 3d 3e be 96 38 e5 7f 68 3c 19 4a 44 bc
       0.10340903 7.187993e-05 0.014190649 -0.011980557
000310 7f a4 32 3e e2 ee 46 be df eb 20 3e b2 c4 56 3c
       0.17445563 -0.19427064 0.15714978 0.013108419
000320 f2 3a 87 3c 1f fa e9 bd 83 99 38 be 43 d3 bd bd
       0.0165076 -0.1142466 -0.1802731 -0.092688106
000330 3d 88 21 3e d3 be a5 3d 74 9d 39 be 44 7e 9a bd
       0.15774627 0.080930375 -0.1812647 -0.075436145
000340 b9 e1 f7 3d 1b f1 1d be bc a7 e2 bd 8f 7b 14 be
       0.121036 -0.15424006 -0.11067149 -0.14500259
000350 44 d6 2b be 47 f4 e6 3d c5 d8 3d bd 73 8f c9 3d
       -0.16780955 0.11277061 -0.046349306 0.09841814
000360 e4 6b ea bd 53 4a de b5 bf 92 0c 3e 36 52 ff bb
       -0.1144636 -1.656192e-06 0.13727854 -0.0077917827
000370 86 11 44 3d 72 57 18 3e 9c f6 5a 3c c4 41 18 be
       0.047868274 0.14877108 0.01336446 -0.14868838
000380 88 8b 08 bf b9 d1 1d bd 9b cb 3f bf d2 a1 3f be
       -0.5333791 -0.038530085 -0.7492005 -0.18714073
000390 6f 26 e2 be 6a a2 6c 3f 06 a4 a5 be 0e eb d8 be
       -0.44169948 0.92435324 -0.32351702 -0.42366832
0003a0 ac 6e 41 bd 81 fa 40 be d6 5d bb 3f 94 1c 3e bf
       -0.047224686 -0.1884556 1.4638011 -0.74262357
0003b0 2d 4b 1e bf 95 22 d3 be bd 72 80 be 81 bc 15 3f
       -0.6183346 -0.41237321 -0.25087538 0.5849076
0003c0 5b 0a 21 3f a1 27 ac 3d 37 4f 98 3f 65 9f 8f 3e
       0.62906426 0.08405996 1.1899174 0.28051296
0003d0 fe 1a ff 3e 7e c1 62 be 6e 43 3f bf ae 77 77 be
       0.4982528 -0.22144124 -0.74712265 -0.24166748
0003e0 f6 c7 81 be f1 fe bc 3e 72 87 eb be 9e d9 c3 3f
       -0.2534787 0.36913255 -0.46001774 1.5300786
0003f0 f3 d7 57 bd 94 5f 3d be f6 2c 0a be 14 d9 e0 be
       -0.05269618 -0.18493491 -0.13493714 -0.43915617

weight f4 [4, 8, 32]
000000 34 a3 83 be 99 30 df 3e 0c a4 6a 3e ff 30 13 bf
       -0.25710452 0.43591765 0.22914141 -0.5749664
000010 ce 19 f2 be 0d dd 82 be 24 05 50 be d5 c2 89 be
       -0.47285312 -0.25559273 -0.20314461 -0.26906458
000020 bc 58 cd 3e 1c 88 0c 3f db c9 3c bf 57 44 5f 3e
       0.4010676 0.54895186 -0.73745507 0.21803413
000030 06 50 42 3e 0b d7 eb be 62 da f8 bd 16 0f 00 bf
       0.18975839 -0.46062502 -0.12151028 -0.5002302
000040 28 0f 0a bf 54 df 10 be 2a a6 62 be a2 b4 cd 3e
       -0.53929377 -0.14147693 -0.22133699 0.40176874
000050 ca 51 10 3f a2 c8 5e 3f 44 a6 25 3c a9 26 c8 3d
       0.563748 0.8702489 0.010110442 0.09772999
000060 28 71 87 3e e0 93 9a 3e 89 0e 9d bd 51 6e 26 be
       0.2645352 0.30190945 -0.07668788 -0.1625302
000070 5c a2 83 3f a4 cf b4 be 0e 35 93 bd 84 fc cf 3e
       1.0283923 -0.35314667 -0.07187854 0.40622342
000080 a5 c8 1c bf b0 33 db 3d da 48 68 be 8a 74 93 be
       -0.6124366 0.10703218 -0.2268404 -0.2879985
000090 ce d5 8c 3f a1 88 b5 be 4e 17 dc 3e 59 72 1d 3f
       1.1002748 -0.35455802 0.4298653 0.61502606
0000a0 d1 d7 f6 3d ab 7a f5 bd 73 d3 86 3f f2 ff 8f 3e
       0.120528825 -0.11986288 1.0533279 0.28124958
0000b0 56 49 c7 bd 4d 09 91 be e6 1c 3a bf 0a a1 3f bf
       -0.097307846 -0.28327408 -0.72700346 -0.748551
0000c0 53 1f b2 be a4 c0 d2 be 64 39 46 be 33 45 15 3f
       -0.34789523 -0.41162598 -0.1935783 0.58308715
0000d0 fd 5d 01 3f 59 f3 60 bf 84 7b 33 3e fd b4 c0 3f
       0.5053404 -0.8787132 0.17527586 1.5055233
0000e0 ef d9 6f be 85 56 e3 3c 95 8e ef 3e 7d 6c 08 3f
       -0.23422979 0.027751217 0.4678847 0.5329054
0000f0 13 38 89 bf 7a e7 b4 be 34 d5 10 bf 06 86 18 3f
       -1.0720237 -0.35332853 -0.5657532 0.59579504
000100 ec 1e e0 bc 77 a5 cb 3e c9 6c 00 3f dd b9 b1 3e
       -0.027358495 0.39774677 0.5016599 0.34712115
000110 6d 4c 97 bd 4d 86 b1 3e d6 c9 b1 bf ae 3a af 3c
       -0.07387624 0.34672776 -1.388972 0.021390285
000120 27 70 11 3e 44 f9 90 3e 7e dc b6 ba 0f ee 1e 3e
       0.14202939 0.28315175 -0.001395121 0.155205
000130 1b 9d f8 3e 26 ca 6c 3f f5 cb 8f 3f 04 1c 3c 3f
       0.48557362 0.92495954 1.1234118 0.7348025
000140 2f 5b ce be 7b 91 b1 3e 13 b9 8d 3f 68 28 eb 3d
       -0.40303943 0.34681305 1.1072105 0.11482316
000150 4f a3 7e bf c8 19 c6 3f 50 af 01 3e cc ca 1c bf
       -0.9946794 1.5476618 0.12664533 -0.61246943
000160 08 41 9c 3f 97 df 24 3f 03 ad b2 be e0 7e 4d be
       1.2207346 0.6440367 -0.34897622 -0.2006793
000170 e2 37 73 3f 4c 31 26 3f 09 d1 c7 3f db 6c f9 3e
       0.95007145 0.6491897 1.5610667 0.48715863
000180 74 fa c3 3e 1b ae 2c bf ea 77 04 3c 80 5b ae 3e
       0.38277018 -0.67453164 0.00808523 0.34054184
000190 ab d4 c8 3f 1d b1 40 3f b6 cf 8a be f8 5e f3 3e
       1.5689901 0.75270253 -0.27111596 0.47533393
0001a0 5c ec ed 3d ca a1 a3 be 9a 46 0e 3f 08 0b b4 3e
       0.116173476 -0.31959373 0.5557648 0.35164666
0001b0 3c 3f 5c 3e 80 2e 0a 3c d5 bb fb bd 00 78 b4 be
       0.21508497 0.008433938 -0.122916855 -0.35247803
0001c0 4f f8 02 3d d8 14 ca be 4f 78 2a 3c ec c8 a8 bd
       0.031975087 -0.39469028 0.01040466 -0.08241448
0001d0 c0 7e 73 bf 11 8d c2 be 90 b7 16 3f e5 20 df 3f
       -0.9511528 -0.3799825 0.58873844 1.7431914
0001e0 df 88 3b 3e 43 24 75 be b8 96 28 3e b9 ab 2d bd
       0.18313931 -0.23939614 0.16463745 -0.042400096
0001f0 b7 66 7a bd 4d 1e ef 3d 26 d8 8e 3c a9 92 e8 3e
       -0.061133113 0.11675701 0.017437052 0.45424393
000200 6d d5 47 be 44 2e ef 3c 6a 5b 50 bf b4 8a 98 bf
       -0.19515009 0.029196866 -0.81389487 -1.1917329
000210 eb 30 60 3e 92 ae cb 3e 65 0a 25 3d 8d 7c 39 3f
       0.2189366 0.39781624 0.040293116 0.72455674
000220 6a 5a 69 bb 1b 58 86 3e 68 d4 0e 3f c0 0d ef be
       -0.003560687 0.26239094 0.55792856 -0.46690178
000230 04 6f eb bd d4 e6 c3 3e 10 8e 3c 3e 55 3c d5 3e
       -0.11495784 0.38262045 0.18413568 0.41647592
000240 a7 ef 9b bd 8d a0 91 be 2f eb 1e be fc 59 00 3f
       -0.076140694 -0.28442803 -0.15519403 0.50137305
000250 43 4d 07 be 66 ce 07 bf fe 90 26 be de 68 bb 3d
       -0.13213067 -0.53049314 -0.16266248 0.09150861
000260 27 67 cd be 9b 1d 02 3f 22 2b 2c 3f 26 94 17 bd
       -0.40117761 0.50826424 0.67253315 -0.03700652
000270 12 ea bc bf 9f 0f 22 3c 93 9e f8 3e 66 01 49 3f
       -1.4758933 0.00989142 0.48558483 0.7851776
000280 f6 1f 6b 3d a2 d1 e0 3b 00 a0 e7 3b 8e 1b f4 be
       0.057403527 0.0068609277 0.007068634 -0.47677273
000290 0b 55 b5 bd 9a ef 07 3c 80 d2 0d bf eb 17 87 bb
       -0.08854111 0.008296872 -0.5539932 -0.0041227243
0002a0 69 6c 1d 3f 6a ea 96 3f f5 31 92 3d fd 5c 2a bd
       0.61493546 1.1790287 0.07138435 -0.041592587
0002b0 ad bc 35 3f d1 04 a3 3d b5 bc 4e bd f6 54 f5 be
       0.7099102 0.07959903 -0.050472934 -0.47916383
0002c0 16 47 b1 3c ae 98 37 3f ff e1 56 3e 56 88 62 3c
       0.021640342 0.71717346 0.20984648 0.01382645
0002d0 85 85 c2 be f7 bd 1a 3e a5 3f b6 3e a0 92 0c 3e
       -0.37992492 0.15111528 0.35595432 0.13727808
0002e0 5f a5 3f 3f 7a 15 7e bd eb ac 8a 3e 0b 24 25 3d
       0.7486171 -0.0620322 0.2708505 0.040317576
0002f0 32 64 65 3f 98 ff db 3e da 3d 70 3f a7 8e 1b 3f
       0.8960601 0.4296844 0.9384438 0.60764545
000300 4d 0b b2 bd 61 5e 78 be cf 80 a6 3e 85 13 da 3e
       -0.08693562 -0.24254753 0.32520148 0.42593017
000310 12 b7 a7 3f 59 c6 70 be 1c 84 5d be d7 7a ba 3e
       1.3102744 -0.23513164 -0.21632427 0.36421844
000320 44 eb a9 be 28 11 89 bf b2 c0 b4 be 65 bb 82 3e
       -0.33187306 -1.0708361 -0.35303265 0.25533596
000330 2e ec 01 bf b8 6f 34 bf c1 b3 07 bf 71 0c 88 bf
       -0.50751007 -0.7048297 -0.5300866 -1.0628797
000340 9c 0f 2f bf 27 07 a1 bf 69 4b 61 3d db 48 41 be
       -0.68383193 -1.2580308 0.055003557 -0.18875448
000350 17 13 9f 3d bd ad 59 3e 20 d0 51 3f 10 81 e9 3e
       0.07767313 0.21257682 0.819582 0.4560628
000360 69 d6 2b bf b6 a2 7d 3e b2 45 ed be c1 9f ca be
       -0.6712404 0.247691 -0.46342236 -0.39575008
000370 15 eb fe be ca b3 c3 3d c0 17 bb bd 8d 3e a1 3e
       -0.49788728 0.095557764 -0.09135389 0.31493035
000380 53 45 1f bf 21 ae 38 3f 2a 99 aa 3e b7 bc 64 3e
       -0.62215155 0.721407 0.3331998 0.22337614
000390 d3 ce 59 3e 12 15 bc 3e 57 d0 1c 3e f0 a7 22 3f
       0.21270303 0.36734825 0.1531385 0.635375
0003a0 79 63 c2 3e 2b ce 5d be 69 5c 85 3f c1 22 ab 3f
       0.37966517 -0.21660678 1.0418826 1.3369981
0003b0 7c 21 21 3e 4b ae d0 3e 59 ae 29 3e 8e 45 96 3e
       0.1573543 0.40757975 0.16570415 0.2934994
0003c0 84 42 3d 3f 32 5c ab 3d ac f8 a6 3f a6 e5 99 3f
       0.7392962 0.08367194 1.3044639 1.2023208
0003d0 d4 62 60 3f 37 c5 39 be 7c 89 6e be af 72 45 3f
       0.876508 -0.18141638 -0.23294634 0.7712812
0003e0 ee d8 df 3e 31 98 78 3d 4c 03 06 bd 8a 8c c8 3e
       0.43720192 0.060692016 -0.032717988 0.39169723
0003f0 63 f7 3a 3f df 44 ee 3e 23 7e 13 bf aa e6 9a bd
       0.7303373 0.4653692 -0.57614344 -0.07563527

w_comp f4 [142, 4]
000000 1b cc 01 be dd 7b 44 be 28 e2 d9 be 76 b6 65 be
       -0.12675516 -0.19187875 -0.42555356 -0.22432885
000010 1a 1f 16 3e 6b d7 63 bf 8c 5b 66 bf 6e 36 aa bd
       0.14660302 -0.89000577 -0.8998344 -0.08311163
000020 87 00 86 3e ac 67 d5 3c a5 bf 75 bd d9 5c 9c bf
       0.26172277 0.026050411 -0.05999722 -1.2215835
000030 1c 44 5c be 01 f7 8a be 36 18 45 3e 9b 41 70 3f
       -0.21510357 -0.27141574 0.19247517 0.93850106
000040 da 14 ce 3e 73 f7 71 bf c5 bd 98 bc e3 8d de be
       0.40250283 -0.945182 -0.018645177 -0.43467626
000050 82 68 41 bf c9 6c 23 3e 35 e0 cb 3d a2 84 d2 bd
       -0.7555009 0.15959467 0.099548735 -0.10279204
000060 8d a6 0b 3f fd c9 5b bf 07 5a 8d be aa 4f 12 3f
       0.5455101 -0.85855085 -0.27607748 0.5715281
000070 c4 0b db 3e b4 f3 bb be fb 1c 9b be 98 69 b6 3e
       0.42782414 -0.36709368 -0.30295548 0.35627437
000080 a1 32 db 3e d2 b9 94 3e 78 11 74 be 53 a7 e2 bc
       0.42812064 0.2904802 -0.23834789 -0.027667677
000090 98 49 fc be 47 3e 5f 3f f5 ce ac bf 44 6b 31 bf
       -0.49274898 0.872044 -1.3500658 -0.693043
0000a0 e8 9b 17 bf 0a 0c 0b 3e 3e 6b af bf c2 2f 4c bf
       -0.5922227 0.13578811 -1.3704603 -0.7976037
0000b0 bb 6e 29 bf 6c 48 a2 bd d0 4b ad 3f 8a e9 d2 3e
       -0.66184586 -0.079239696 1.3538761 0.411938
0000c0 d9 74 13 3f b6 7a d6 3e 45 8f 92 3f c7 05 45 3f
       0.5760017 0.41890496 1.1449972 0.7696194
0000d0 1a b1 db be f6 e6 4c 3f 51 80 85 3f c0 a5 80 3e
       -0.42908555 0.8003992 1.0429784 0.25126457
0000e0 b3 ac 18 be a8 3a 88 3e 2c 20 0a 3f 13 47 8b 3e
       -0.1490963 0.2660725 0.5395534 0.27202663
0000f0 c4 9d 8d 3d a7 b4 8b 3e 2f e2 d1 3e 53 3a 88 3e
       0.06914857 0.27286264 0.40992877 0.26606998
000100 5d b7 54 bf ac b4 d0 be a1 2a 0e bf ff a5 8b 3f
       -0.8309229 -0.40762842 -0.55533797 1.0910033
000110 59 c4 ac be b0 cd f5 be 82 9d 67 3e ce 75 e5 3e
       -0.3374355 -0.4800849 0.22618678 0.4481644
000120 a1 ac 46 bd df e6 bb 3d 33 64 4c 3e ed 56 d7 be
       -0.048504476 0.091748945 0.19960098 -0.42058507
000130 03 47 29 bf 5d 7c 9d 3e 04 24 df be e3 91 40 bf
       -0.6612398 0.30758944 -0.43582165 -0.75222605
000140 eb 3b 50 3f 60 a5 0e bf ce 5f bb be 9c 64 31 3e
       0.8134143 -0.5572109 -0.3659653 0.17323536
000150 a6 5a e1 be b4 81 ed be b5 a4 b8 3e ee a0 c5 3e
       -0.44014472 -0.46388018 0.36063161 0.38599342
000160 a4 1a 35 3e cd 02 16 be 78 3c 03 3f 48 53 be bc
       0.17685944 -0.14649506 0.51264143 -0.023233071
000170 10 65 fe bd 35 bd 53 3f b4 b2 40 be f6 c8 3e 3e
       -0.1242162 0.8271058 -0.1881817 0.18631348
000180 70 d3 27 3f e6 af 78 be 95 63 97 3f 7a 52 af be
       0.65557003 -0.2428585 1.1827265 -0.34242612
000190 4c ea 08 bf f6 91 23 3e 91 cd f9 3e ba 18 21 3f
       -0.5348251 0.15973648 0.48789647 0.62928355
0001a0 a1 6f 93 3d a9 a3 b1 bd 65 76 1a 3e 2f 70 70 bd
       0.07199026 -0.08673794 0.15084226 -0.058700737
0001b0 3a b5 99 be b2 6f b1 3d a0 3a bc be 26 38 fc be
       -0.30021077 0.08663882 -0.36763477 -0.49261588
0001c0 1e 82 f0 bc cb 62 c4 be 2e 52 cd 3e 97 f3 8d be
       -0.02935892 -0.38356623 0.4010176 -0.27724907
0001d0 43 f9 3e bf 20 d7 36 3f e4 89 5b 3e 24 8f 6e 3e
       -0.74599093 0.71422005 0.2143932 0.23296791
0001e0 67 ad a4 be 1b 78 db 3d 04 90 9e 3e bd 5e 4d be
       -0.32163545 0.10716268 0.3096925 -0.20055671
0001f0 46 dc ff 3d 1a b9 8c bf b1 13 9d bf cb a6 2a 3f
       0.12493186 -1.0993989 -1.2271634 0.66660756
000200 7d 19 5c 3f 1a 5b 79 3e d8 4d 0f bf 0a f0 de bf
       0.8597639 0.24351159 -0.55978155 -1.7417004
000210 00 c0 fb be 6b 55 7d be 9b a5 80 bc 05 27 ed 3e
       -0.49169922 -0.24739616 -0.015703967 0.46318832
000220 5b 83 4f bf b1 90 b2 bf 13 15 ff be 7c 84 62 be
       -0.8105981 -1.3950406 -0.49820766 -0.22120851
000230 e9 71 96 be 93 0b bf be a9 ef 0a be 2c e8 b8 be
       -0.29383782 -0.37313518 -0.13567986 -0.36114633
000240 a1 cd 45 bf ef e3 57 bf a8 80 80 bd ef 81 dd bc
       -0.7726689 -0.84332174 -0.06274539 -0.027039496
000250 29 4e e0 be 0b 68 e7 3e fb a0 ad 3e 1f 20 5f be
       -0.4380963 0.45196566 0.3391188 -0.21789597
000260 c5 b2 52 3f d1 d6 be bf 73 62 18 3f ba 3a bd 3d
       0.8230403 -1.4909307 0.5952522 0.09239717
000270 13 20 93 be 7b 77 5b 3f 8f 3b f9 3e 9d d4 4b be
       -0.28735408 0.8572919 0.48678252 -0.19905324
000280 47 01 dd 3e 6f 4b 47 3f 50 75 05 3e d3 82 14 3f
       0.43165037 0.7784948 0.13033032 0.5801212
000290 ed 27 49 bc 80 4e 21 3f 14 ba ba 3e 45 48 a4 3e
       -0.012277585 0.63010406 0.3647009 0.32086387
0002a0 e8 53 1f 3e 2e dc 4d bf 3b 29 c6 3e a7 6f 06 3f
       0.15559351 -0.8041409 0.3870333 0.5251412
0002b0 7f be 07 bf 30 75 b9 3e 30 21 b5 3e d5 cf 1f 3d
       -0.5302505 0.3622222 0.35376883 0.039016563
0002c0 49 de d6 be 43 74 1b bf 4d 1c 17 3f 09 84 44 3e
       -0.41966465 -0.60724276 0.5902756 0.19190992
0002d0 3d 47 c2 bd f0 a7 37 3f 80 b5 42 bf 79 49 e3 be
       -0.09486244 0.7174063 -0.760582 -0.44391993
0002e0 25 ee 12 3e f2 7f 0f 3e a6 ea 6f 3f 36 8e 5b 3f
       0.14348657 0.14013651 0.9371742 0.8576387
0002f0 a3 d4 25 bf 10 56 b8 be 37 c5 16 bf bd f9 3a bf
       -0.6477758 -0.3600316 -0.58894676 -0.7303732
000300 72 fb 00 80 05 8d 00 00 ff 4e 00 80 68 8b a5 39
       -9.0202e-41 5.0588e-41 -2.8338e-41 0.00031575118
000310 82 3b ad 3e a4 2b 7c 3f f1 5b eb bd 02 13 68 bf
       0.33834463 0.9850409 -0.11492146 -0.90654004
000320 c8 f5 ae be 43 1c 0e 3f 2e 4d b0 3e fd bf 09 3f
       -0.3417189 0.55511874 0.34433883 0.53808576
000330 59 4e 84 bf fb ef 2e bf 08 93 6c 3f 68 64 74 3f
       -1.033641 -0.6833493 0.9241185 0.9546571
000340 7d a6 15 3e 92 c9 66 3e 04 6e 3e 3d c1 22 5e 3f
       0.14614291 0.2253783 0.046491638 0.8677178
000350 dc a2 f3 3e 63 a7 34 3f 2a 45 f3 3e dd 3a 19 3f
       0.4758519 0.7056791 0.47513705 0.59855443
000360 e6 36 38 bf e2 2f dc 3d 5f 2f 47 3f 6b 9d 02 3f
       -0.7195877 0.107513204 0.7780666 0.5102145
000370 98 50 81 bf 7b 68 72 3e 22 3a d6 3e d4 cd 68 bd
       -1.010272 0.23672669 0.41841227 -0.056836918
000380 5d 5d e4 3d 01 d4 d3 3e 95 1b 8c bf 87 4b c5 bd
       0.1115062 0.41372684 -1.0945917 -0.09633546
000390 d1 fb 6e be 15 4c 49 3e ca ec 9e be 96 6b a6 be
       -0.23338248 0.19657929 -0.3104003 -0.32503957
0003a0 77 20 f3 be a9 b7 be bd cf a7 06 be 78 42 74 bf
       -0.47485706 -0.09312374 -0.13149951 -0.95413923
0003b0 68 ea 2e bf 7b 1c 41 be 65 7f 30 bf 5c 0a 0f bf
       -0.68326426 -0.1885852 -0.6894439 -0.5587518
0003c0 e6 02 20 bf ab 14 7d be 22 b2 cd bd 53 a3 de 3e
       -0.6250442 -0.24714915 -0.10043742 0.43483981
0003d0 c7 f3 60 bf b0 b2 a8 be 5e d2 e8 be d8 94 76 bf
       -0.87871975 -0.32948828 -0.45472997 -0.9632087
0003e0 2a 87 cf be 19 63 d3 3d 0c df bc bf d4 e0 1d bf
       -0.4053281 0.10321636 -1.4755569 -0.61671185
0003f0 3e e8 4f bf e1 a2 99 bd 09 f5 84 bf b8 bd ed be
       -0.8121375 -0.0750177 -1.0387279 -0.46433806

self_loop_weight f4 [8, 32]
000000 9c a5 a5 be b7 7c ae 3e 6a 43 c4 bd 2f 06 23 3e
       -0.32352912 0.34079525 -0.09583171 0.15920328
000010 d5 7c f5 bc 6d a4 1b bf 94 55 8d 3e 82 87 1b 3e
       -0.029966751 -0.6079777 0.27604353 0.15188411
000020 38 00 cc 3d 23 03 2c 3e aa 78 26 bf 4a d7 6b be
       0.09960979 0.16798072 -0.6502787 -0.23031345
000030 b5 82 e8 be 80 67 28 3f dd 29 28 bf 22 1b 24 be
       -0.45412222 0.6578293 -0.6568888 -0.16025975
000040 5e c9 ff be 4c af 71 bf 56 b6 15 3f f2 08 38 3f
       -0.49958318 -0.94408107 0.5848135 0.7188865
000050 4a 32 69 be 91 6a d2 3e 8f a3 3f be 47 84 19 3e
       -0.2277309 0.4109693 -0.18714736 0.14991866
000060 d8 9e 3a 3f 27 a9 18 bf c9 98 05 3f d7 88 e5 be
       0.72898626 -0.59633106 0.52186257 -0.44830963
000070 e2 25 8c be 52 7b 9c be d3 1c 8b bf 9b ac 1c bd
       -0.27372652 -0.30562836 -1.0868171 -0.038250547
000080 a9 49 93 3e 22 da bd bf 1a a9 b3 be 7c 25 ed 3d
       0.28767136 -1.4832194 -0.35089952 0.11579415
000090 d4 45 4a be 61 d6 87 be ab ea c9 bd c0 43 01 bf
       -0.197532 -0.26530746 -0.098592125 -0.50494003
0000a0 f3 81 ee be c1 a9 f2 be b4 cb f5 bf ba 5e ab bf
       -0.46583518 -0.47395137 -1.920279 -1.3388283
0000b0 66 e2 0e bf 25 fb 34 bf b1 df 11 bf f4 a0 1d bf
       -0.55814207 -0.70695716 -0.5698195 -0.6157372
0000c0 0d bf 68 bf 83 e8 de 3d 2c 9c a5 bf d9 4b 5f be
       -0.9091652 0.10884192 -1.2938285 -0.21806277
0000d0 d7 61 9b 3f 0d 06 00 bf 2c 02 4a bf 6a 70 91 bf
       1.2139233 -0.5000923 -0.78909564 -1.1362431
0000e0 01 71 36 bf 23 fd 45 bf eb 35 1c bf d6 46 58 be
       -0.7126618 -0.7733938 -0.6101977 -0.21120772
0000f0 48 4b a4 bf 1c 5b b4 be fd 76 82 be 1f 16 83 bc
       -1.2835474 -0.3522576 -0.25481406 -0.01600176
000100 eb be 86 bf 27 d1 e3 3e 91 da 59 bf fe 09 04 c0
       -1.0527014 0.44495508 -0.8509913 -2.0631099
000110 8a 84 ba 3e 4b a2 c1 bf 41 fe 54 bf e7 13 56 bf
       0.36429244 -1.5127653 -0.8320046 -0.8362412
000120 1d 20 1e bf 48 16 6b bf 8d 15 32 3f 89 3a 27 3d
       -0.6176775 -0.91830873 0.69564134 0.040827308
000130 69 33 8e bf 27 97 92 bf 2c b1 8e bf c8 78 4d bf
       -1.1109439 -1.1452378 -1.1147819 -0.8026242
000140 2b 47 37 bf 31 f2 09 be 9d 44 a5 bf 06 2e a0 3e
       -0.7159297 -0.13471295 -1.2911564 0.31285113
000150 60 be a2 bf 48 6e 00 bf 1c 52 71 bf 31 f7 44 bf
       -1.2714348 -0.50168276 -0.94265914 -0.76939684
000160 12 24 0a 3f 64 bb 80 3e c3 5f 7e bf 7c 99 95 bf
       0.5396129 0.25142968 -0.9936487 -1.1687465
000170 65 4b 15 3f f4 52 91 3d 68 c1 37 bf 60 c2 18 3d
       0.5831817 0.070959 -0.7177949 0.037294745
000180 91 57 2d bf 13 fa 82 bf c2 a0 06 3f 82 b2 44 bf
       -0.6771174 -1.0232567 0.52589047 -0.7683488
000190 51 53 3d be 31 6d 60 3f 53 ed 96 bf 28 d3 46 bf
       -0.18488814 0.8766661 -1.1791176 -0.7766595
0001a0 62 bf c0 be 7d 8f 86 bf 85 d2 ce 3f dc f5 83 be
       -0.37646013 -1.0512539 1.6157995 -0.25773513
0001b0 e4 85 48 bf 35 d5 eb bd 24 73 d3 3f 34 eb 93 3f
       -0.783293 -0.115152754 1.6519513 1.1556153
0001c0 e3 9c c7 3d c0 4c 3d bf 8c ca 80 3f 32 b2 87 bf
       0.09746721 -0.73945236 1.0061812 -1.0601256
0001d0 29 99 ab bd a6 a0 48 3f 33 10 27 bf 4c 25 0f bf
       -0.08378822 0.7837013 -0.65259093 -0.55916286
0001e0 71 8b 6e bf 22 e6 e4 be 8e 8c 04 bf ef fb 42 bf
       -0.9318152 -0.44706827 -0.5177697 -0.7616567
0001f0 6d c1 2c bd 24 a9 a4 bf bc 9d da 3f 91 29 e0 3e
       -0.042176653 -1.2864118 1.7079387 0.43781713
000200 46 07 93 3e 12 bd 1f bf 5a 16 49 3f 77 d1 ba 3d
       0.28716487 -0.62397873 0.7854973 0.091219835
000210 3f 7a 84 3f 55 1b a9 3f 76 1d 6b be c1 7f 6e be
       1.0349807 1.3211466 -0.22960457 -0.23290922
000220 11 41 bd bd ee 8d a2 3d a6 7a ad bc 6a f1 f6 be
       -0.09240926 0.07937227 -0.021176647 -0.4823106
000230 e7 02 17 bd 4a 17 ab 3c f9 e1 3f 3c b2 c9 3c 3e
       -0.036868002 0.020885129 0.011711591 0.18436316
000240 7e dd a6 be d9 ab 54 bf 69 9c 04 be 50 67 99 be
       -0.3259086 -0.8307472 -0.1295029 -0.29961634
000250 2c 2f a2 bd cb 07 08 3e 06 49 ea be 2f ad 41 3e
       -0.079191536 0.13284223 -0.45758837 0.1891372
000260 0c ae c5 3e fa a6 b0 be 5f fb 28 bf ad 0c 95 bf
       0.3860935 -0.34502393 -0.6600856 -1.1644493
000270 de 91 47 bc a9 6d ca bf f2 f4 9b 3f 64 87 db be
       -0.012180774 -1.5814716 1.2184126 -0.42876732
000280 0e dc 82 bf cb 48 af bd 70 72 75 bf 58 fb 07 be
       -1.0223405 -0.08558806 -0.9587774 -0.13279474
000290 30 50 0d bf c3 17 b5 bf b1 9b 1d bf af 12 a2 be
       -0.5520048 -1.4147877 -0.6156569 -0.3165488
0002a0 5f 05 96 be 80 79 0c bf 32 03 a6 bf 2e f2 b7 be
       -0.29300973 -0.54872894 -1.2969725 -0.35926956
0002b0 ed 58 d0 bf 59 c3 19 3d d7 97 33 bf 32 55 84 be
       -1.6277138 0.037539814 -0.70153564 -0.2584625
0002c0 7f 20 81 bf 02 85 28 3f b2 10 e0 3e 7d 93 bc 3e
       -1.0088042 0.65827954 0.43762738 0.36831275
0002d0 6c 00 7a 3f 16 dc 1a 3e f3 85 7c bf 42 74 44 bf
       0.97656894 0.15123019 -0.9864189 -0.76739895
0002e0 7c d9 bf 3e 39 6d 7f 3d fe 3b 34 bd ce da 64 bf
       0.37470615 0.062360022 -0.044002526 -0.8939637
0002f0 18 32 dd 3e 20 03 85 3e 79 bd f5 3e a5 d1 3b bf
       0.4320228 0.25978947 0.4799612 -0.7336677
000300 8e bd c7 bf bc c7 62 bf 05 4c 8e bf f4 62 6f 3f
       -1.5604722 -0.8858602 -1.1116949 0.93510365
000310 55 f5 4d bf 75 bf c8 be ce df 4a 3f 94 f9 bc be
       -0.8045247 -0.3920857 0.7924775 -0.36909163
000320 a5 dd 32 bf 73 76 f8 bc 80 12 82 3f 63 6f 03 bf
       -0.6986945 -0.030329918 1.0161896 -0.5134184
000330 75 2c ea 3e 52 25 27 bf 7f 04 6d bf 2f 38 99 bf
       0.45737043 -0.6529132 -0.92584985 -1.1970271
000340 9e aa 9c be e4 a3 9d be f2 3b fd be 46 92 39 3f
       -0.3059892 -0.307891 -0.49459797 0.7248882
000350 f3 f3 e4 bf ba 4f b1 bf 68 76 2f bf 15 0e d5 be
       -1.7886947 -1.3852456 -0.6854005 -0.41612306
000360 e8 79 50 bf 04 e9 9e bf ef 67 f5 be 77 49 9f 3e
       -0.81436014 -1.2414861 -0.47930858 0.31110737
000370 7d 26 39 bf cb 99 83 bf 51 b3 3d bf f2 44 e9 3e
       -0.72324353 -1.0281309 -0.7410174 0.45560414
000380 44 9d 4e bf 53 32 19 bf 5b a8 c6 bf 14 35 5a bf
       -0.8070872 -0.59842414 -1.5520128 -0.8523724
000390 15 4b 29 bf 89 04 44 bf 4b 81 0f 3d 8d b7 de be
       -0.6613019 -0.7656942 0.035035413 -0.43499413
0003a0 90 7c d9 be a0 ba 05 bd 36 e6 69 3e 1b ce 1b be
       -0.42477846 -0.032648683 0.22841725 -0.15215342
0003b0 98 cf 97 be 9f 90 6f bf 7f 5f 65 3f 8d eb 0e bf
       -0.2965057 -0.9358005 0.8959884 -0.5582817
0003c0 74 92 ea 3d b1 2d 75 bf c6 5f 09 bd b9 34 44 3d
       0.11453715 -0.95772845 -0.033538602 0.047901843
0003d0 b9 69 73 bf e1 db 73 bf e5 4d fe be 12 f8 95 bf
       -0.95083195 -0.95257384 -0.49668804 -1.171633
0003e0 35 0f 09 bf 8b ed e3 be 07 7d 3d bf 99 b6 a0 be
       -0.5353883 -0.44517168 -0.740189 -0.3138931
0003f0 bd 02 50 bf 4b b4 3f bf 77 e4 13 bf 35 c2 09 3f
       -0.8125418 -0.7488448 -0.57770485 0.5381196

weight f4 [8, 80]
000000 56 3e 7f 3e f3 ef 6b bf 97 58 6c bd 83 97 9c be
       0.24926123 -0.9216301 -0.057701673 -0.30584344
000010 c8 75 2c be c7 f9 f9 be 75 88 ea be 77 e6 01 bf
       -0.16841805 -0.48823377 -0.45807233 -0.50742286
000020 79 e8 ed be 72 cd 3e bf 5c 48 df 3e cc d2 84 be
       -0.46466425 -0.74532235 0.43609893 -0.25942075
000030 29 40 0d bf 05 30 10 bf 9c 38 12 bf ee f7 95 3e
       -0.55176026 -0.5632327 -0.5711763 0.29290718
000040 a1 9b 81 be 4a 89 91 be 25 90 2c be 54 96 a9 be
       -0.25314048 -0.28425056 -0.16851862 -0.33122504
000050 11 26 81 3d dc 84 a2 3e 8f e4 ab be 5f 98 3a bd
       0.06306089 0.3174199 -0.33572814 -0.04555547
000060 00 e6 85 be 4a 32 9d bd cf 96 4d 3e 82 1c 8e be
       -0.2615204 -0.076756075 0.2007706 -0.27756125
000070 a0 98 05 bf 1a 53 cf 3c da 69 8c 3e 40 4b 3b 3e
       -0.5218601 0.02530818 0.27424508 0.18290424
000080 c1 7c e9 3c 7b 05 32 3e bb 10 00 3f 68 81 22 bf
       0.02850187 0.17384903 0.5002553 -0.6347871
000090 df 28 af bd 50 20 3b bd e1 cc 78 3d 98 76 0c be
       -0.085527174 -0.045685112 0.060742263 -0.13717115
0000a0 d0 01 d3 be db 01 23 3e 22 97 35 3e 06 53 07 3f
       -0.4121232 0.15918677 0.17733434 0.5286106
0000b0 67 dd 1f bf 49 52 6f be d3 62 0a 3f c5 e2 a6 3c
       -0.6244721 -0.23371233 0.54057044 0.020371804
0000c0 9f dc 49 be a4 3b a7 3e c9 e6 b1 3e b8 2b 0b 3c
       -0.19713067 0.3266269 0.34746388 0.00849431
0000d0 e3 fa 06 bf 8f e7 88 be ed 44 01 bf 16 fc d7 be
       -0.5272657 -0.26739165 -0.504958 -0.42184514
0000e0 c9 56 13 bf aa 8f 91 bc 96 55 01 be 23 0b e0 3e
       -0.575543 -0.0177687 -0.12630305 0.43758497
0000f0 c9 4d 41 bf aa 6d 1b bf 7b 38 64 3e 66 1a 09 3f
       -0.75509316 -0.6071421 0.2228717 0.53555906
000100 4f 89 7b 3e 7f fb f6 3c 18 54 3a 3d 17 0f 06 3f
       0.24564098 0.03014922 0.045490354 0.52366775
000110 b8 e9 6f be 81 0e d3 bd 7e e0 6b 3d c1 8c b4 be
       -0.23429 -0.10305501 0.05758714 -0.35263637
000120 33 ad de 3e b1 f9 bf 3e eb 03 bb 3e d3 a9 97 3e
       0.43491516 0.37495187 0.36526427 0.29621753
000130 95 d3 21 3e 13 f7 ad be 55 03 00 be 95 e3 bf 3e
       0.15803368 -0.33977565 -0.12501271 0.3747832
000140 f7 2b a5 be ca b1 7d 3e 0b 64 47 bf 67 8f be bf
       -0.32260105 0.24774852 -0.7788703 -1.4887513
000150 3c a1 4b 3f 0a 84 48 bf d2 4c 66 3e a6 41 3b bf
       0.795429 -0.78326476 0.22490242 -0.73147047
000160 8f e8 94 bf 16 bb 34 be 22 05 7b 3b 0c 29 c7 bc
       -1.1633471 -0.17649493 0.003830262 -0.024311565
000170 e2 0f 1d bf d6 43 b3 bf 62 d6 a7 be 7d e4 df 3f
       -0.6135236 -1.4005077 -0.3278075 1.7491604
000180 d3 64 01 bc fc 5b 61 bf b9 09 94 3d a9 10 c0 be
       -0.0078975735 -0.8803098 0.07228417 -0.3751271
000190 4f af 88 3e 16 cf 35 3f c8 30 9b bf c2 4a 39 3f
       0.2669625 0.71019113 -1.2124262 0.72379696
0001a0 68 3f db 3e 71 f1 17 bf 12 51 4c 3f dd fb 42 3e
       0.42821813 -0.59352785 0.79811203 0.1904139
0001b0 88 d7 43 3d 08 dd 88 be c0 d6 c9 3c cf d3 4d 3f
       0.04781297 -0.26731133 0.024638534 0.8040132
0001c0 f9 39 4a 3e f0 07 3f bf 24 4f 8c 3f b4 8c 72 bf
       0.19748677 -0.74621487 1.0961652 -0.94745946
0001d0 5e fb 24 3f 8c f6 0e be a1 b5 a8 bf a0 b1 e8 3d
       0.64446056 -0.13961238 -1.3180429 0.11362004
0001e0 98 fa 5c 3f ad 51 8d 3d 32 f0 58 bf b8 2f 99 3f
       0.86319876 0.06900344 -0.8474151 1.1967688
0001f0 e3 48 8c bf 1c 07 2e 3e 1a 9d 21 3d ed 7d 0d 3f
       -1.0959743 0.169949 0.039456464 0.5527027
000200 d1 5c ce 3e a6 c3 3c 3e cc 49 0b 3f 2a 24 d2 3d
       0.40305188 0.18434009 0.5440948 0.10260804
000210 f9 15 e6 bc bb 8e ad 3f 90 dc 89 bf fd 57 73 3e
       -0.02808665 1.3559183 -1.0770435 0.23764034
000220 ec 47 19 bf ae d9 a3 be ae 58 95 3f 62 a3 b2 bf
       -0.5987537 -0.32002014 1.1667688 -1.395611
000230 a4 e3 02 bf 16 64 b5 3c db e1 e4 3e 83 1a ef 3e
       -0.511286 0.022142451 0.44703564 0.46699914
000240 7e 32 26 3f 7c 42 f7 3e 21 c9 a7 3f 0f 60 38 3f
       0.64920795 0.4829291 1.3108255 0.72021574
000250 86 88 98 3f 88 7e 1b bf f1 df 1c bf 5a 2c 89 bf
       1.1916664 -0.60739946 -0.6127921 -1.071666
000260 b5 ce 57 bf 54 4a 06 3e fc c7 8a bf 83 fa 29 3f
       -0.84299785 0.13114291 -1.084228 0.66397876
000270 d4 a8 6c 3e e5 d4 82 bf 08 6b 2d bf 5a 15 04 bf
       0.23111278 -1.022122 -0.6774144 -0.5159508
000280 d1 2e 82 be c2 5a 3b bf 6b ad 8d be 57 64 da be
       -0.25426343 -0.7318536 -0.2767137 -0.42654678
000290 e7 44 9a be 98 a3 0b bf a1 89 68 bf 0d 8b 13 bf
       -0.30130693 -0.545465 -0.90835005 -0.5763405
0002a0 e8 0d 5a be 9e 71 48 bf fe 55 81 bf 0d 4f a0 3d
       -0.21294367 -0.78298366 -1.0104368 0.07827578
0002b0 e6 f4 55 bf 74 57 21 bf 9b 73 87 be 66 98 b7 be
       -0.8357681 -0.6302407 -0.26455387 -0.35858458
0002c0 19 f5 82 3e ac 30 af 3d ef 47 42 3f 90 a7 e9 be
       0.2557762 0.08554205 0.7589101 -0.45635653
0002d0 9b 4b 50 be 45 bf ea bd 16 9b 1f be 89 67 10 bf
       -0.20341341 -0.11462263 -0.15586504 -0.5640798
0002e0 be 6b ca be 43 87 49 bf 4f 8c 40 3e 5b 9e 3e be
       -0.39535326 -0.7872202 0.18803523 -0.18615095
0002f0 94 66 49 bf 40 d2 80 be 72 f7 70 3c a7 a2 82 3d
       -0.78672147 -0.25160408 0.014707433 0.0637868
000300 3b d9 6c 3e f5 e3 e5 3d 33 d7 08 3e 8d e3 14 3f
       0.23129742 0.1122512 0.13363342 0.58159715
000310 e1 9d 65 be 17 99 49 be 59 a5 8c be c6 e7 74 bf
       -0.22423507 -0.19687305 -0.274699 -0.9566616
000320 20 2d 1d 3b a1 67 bf 3e 1b fc 9b 3e 45 43 d9 3e
       0.0023983195 0.3738375 0.3046578 0.42434135
000330 be 48 b1 bd cc cc 58 bf f0 80 c4 3d 84 8f 80 bb
       -0.086564526 -0.84687495 0.095949054 -0.0039233584
000340 55 c3 28 3e 6e bd 04 bf 20 2f cc bd 13 dd bc 3e
       0.16480763 -0.51851547 -0.09969926 0.36887416
000350 3a 16 bd be 70 85 b2 3e ef 8e 16 3c d1 aa 98 3e
       -0.3693102 0.3486743 0.009189351 0.29817823
000360 b4 e1 4b be 31 b3 27 bd 92 4f 45 3e e4 20 c3 3d
       -0.19910318 -0.040942375 0.19268635 0.09527758
000370 55 19 c1 3d fb f1 89 3e 2b 3d ab 3d f0 4b 2e 3e
       0.0942866 0.2694243 0.08361276 0.17021155
000380 73 24 d5 be 86 34 86 be 97 ac a2 3d f7 f4 b9 be
       -0.4162937 -0.26211947 0.07943075 -0.36319706
000390 e1 a5 2c be 5c d0 e3 3e cb a6 a0 bd 2e 48 a7 be
       -0.16860153 0.44494903 -0.07844313 -0.32672256
0003a0 d5 13 5c 3e 70 b5 c9 bc f2 73 0f be c2 1e 19 3f
       0.2149194 -0.024622649 -0.14009073 0.5981256
0003b0 8c 07 60 3d 72 4b 84 3e 8c cf a0 be d3 f2 e9 3c
       0.054694697 0.2583881 -0.31408346 0.02855817
0003c0 40 03 2c bf 0a cb a0 be 53 26 87 bf d3 7c a2 3e
       -0.6719246 -0.31404907 -1.0558571 0.31735858
0003d0 86 66 25 3f 20 59 1d bf 9d 3e 68 bf 4a da a9 bf
       0.64609563 -0.6146412 -0.9072054 -1.3269742
0003e0 02 29 13 40 70 b9 04 c0 2d c3 bf bf 9a 19 9f 3f
       2.299378 -2.0738182 -1.4981438 1.2429688
0003f0 d8 66 58 bf cd 1e 6d 3f 60 e5 24 c0 48 bb 6e bf
       -0.8453193 0.92625123 -2.5765 -0.9325452

bias f4 [8]
000000 ea e6 5a bf 32 e0 02 bf f9 5c 66 bf fc 0d b5 bf
       -0.85508597 -0.51123345 -0.89985615 -1.4144893
000010 3e e0 f4 bd 59 c8 69 bf 29 22 db bf 70 8b 79 bf
       -0.11956833 -0.9132133 -1.71198 -0.9747839

weight f4 [1, 8]
000000 7d 96 09 bb 34 6c b1 be a0 8d 43 3c b2 2b 32 3e
       -0.002099424 -0.34652865 0.0119356215 0.17399481
000010 03 0a d7 be 74 f1 4c 3d 0f ac 96 3e 3b 88 03 bf
       -0.41999826 0.050034955 0.29428145 -0.51379746

weight f4 [4, 32, 32]
000000 74 81 8f bf ba 16 48 be a7 d7 05 bf b0 da cb 3d
       -1.1211381 -0.1953992 -0.52282184 0.09953821
000010 90 6c 97 3e 68 28 ae bf 3b 01 ea 3e ec 3c 8e be
       0.29575014 -1.3606081 0.45704064 -0.27780855
000020 ac fc 20 3f 6b 5b fb be a7 48 21 3f 9f 86 d6 3e
       0.62885547 -0.49093184 0.63001484 0.41899583
000030 91 1d 55 3e c9 14 3d 3f f6 4e c0 bf e3 00 8e 3f
       0.2081206 0.7385984 -1.5024097 1.1094021
000040 51 0b fe bd 6d 06 d8 3e dc df 53 3e 78 a8 ad 3f
       -0.12404502 0.42192402 0.20690864 1.3567038
000050 3e d9 c0 3d 4b ce 51 3f 99 74 7c 3e de fd 12 3f
       0.09416436 0.81955403 0.24653853 0.5741862
000060 d2 0b 05 3f 6c 4e 8e bd 21 f8 95 be a9 24 f4 3d
       0.5197116 -0.069485515 -0.2929087 0.11921055
000070 82 89 87 3e e0 19 83 bf d0 b2 e3 3e 46 b6 be 3e
       0.26472098 -1.0242271 0.4447236 0.3724844
000080 b7 72 8f bf 1a a9 f7 3c a2 da 76 bd 3a b5 28 3f
       -1.1206883 0.030232001 -0.0602671 0.6590153
000090 d4 06 77 3d 3d 9b 9d 3d bb 6d c4 bd 05 c9 75 bf
       0.060309246 0.07695625 -0.09591242 -0.96009856
0000a0 a6 1f 1c bf e6 e2 01 bb 3c f3 67 bf f8 d7 4a be
       -0.6098579 -0.001981908 -0.9060552 -0.19808948
0000b0 d5 97 72 bd 96 2f 2e 3f f6 51 86 3d c5 21 6b bf
       -0.05922683 0.6804136 0.065586016 -0.91848403
0000c0 23 57 09 be 1c 2e 5b bf 00 e1 99 3f d9 fc 61 bf
       -0.13412146 -0.8561723 1.202179 -0.8827644
0000d0 59 b6 f3 be cb ad bc be 2e 43 1d 3d 65 a2 55 3d
       -0.47600058 -0.36851344 0.038394146 0.052156825
0000e0 ce f5 45 be 0b 46 a8 3e e5 a9 af bd 90 43 91 be
       -0.19332048 0.3286594 -0.08577327 -0.2837186
0000f0 5d 3e 9b bd 4c f5 4d 3f 5d 7f 5b bf fb 17 92 be
       -0.07580254 0.8045242 -0.85741216 -0.2853392
000100 7d 1e 39 bf db 26 df 3d 18 70 00 bd 2e 34 29 3f
       -0.72312146 0.10896083 -0.0313569 0.66095245
000110 82 a5 c8 3e e2 04 42 bd f0 fd 28 3d 1b 8b 69 be
       0.39188772 -0.047367938 0.0412578 -0.22806971
000120 8d 77 95 3e 44 11 10 bf fa c4 78 be d4 eb 50 3e
       0.29192773 -0.56276345 -0.2429389 0.20402461
000130 2b 17 36 bf 14 9b d2 be 7a c5 70 bf a4 f8 a5 3e
       -0.711291 -0.4113394 -0.94051325 0.3241626
000140 76 7f 03 3b 35 71 35 bd 5f 1b 63 3f 73 dd ff 3e
       0.0020064986 -0.044297416 0.8871364 0.4997364
000150 6d 56 f9 3e 4b 17 72 3e 51 dc 85 bd fb dc 3c 3d
       0.4869875 0.23641698 -0.06536163 0.04610918
000160 1b 4d 78 3e ac a9 a8 3c 93 22 e1 be b4 24 28 be
       0.24248163 0.020588718 -0.4397169 -0.16420251
000170 f4 2c 25 3f 89 85 89 bf ae fd c4 be 08 69 10 3e
       0.6452172 -1.0743877 -0.38474792 0.14102566
000180 6b 5f 11 be a7 89 b4 bd cc 9f bf be 11 b1 8e 3e
       -0.14196555 -0.088153176 -0.37426603 0.27869466
000190 78 72 8e be 0f 8f 8d bf fe b9 64 3e 02 bb 52 be
       -0.27821708 -1.1059283 0.22336575 -0.2057915
0001a0 51 1c 6e 3e ef 77 8c 3e 23 5e c8 bd 5f 84 8d be
       0.2325299 0.27435252 -0.0978358 -0.27640054
0001b0 01 30 8d be 83 e9 3c be 8a 01 1e 3f 86 09 db 3e
       -0.27575687 -0.18448453 0.617211 0.42780703
0001c0 1a e4 8a be 80 c4 39 be 38 21 b8 be 1a 62 25 bf
       -0.27127153 -0.18141365 -0.35962844 -0.64602816
0001d0 3e d3 a6 3e 54 83 7b be 05 84 c1 be 09 cb 52 bd
       0.3258304 -0.24561816 -0.37796035 -0.05146316
0001e0 f8 7c db 3e 20 28 a2 be ff 7c 19 bf a7 42 29 bf
       0.4286878 -0.31671238 -0.59956354 -0.6611733
0001f0 d6 f0 e2 3e 7f 06 9b be 53 5a b6 3e 51 10 a8 3e
       0.44324368 -0.30278394 0.35615787 0.32824948
000200 fb 8c 24 bf a6 33 51 be 89 ac 56 3e b3 6c b0 bc
       -0.6427762 -0.20429859 0.20964254 -0.021536207
000210 89 13 82 3f a5 10 5f bf cd b7 39 3f bc b9 89 be
       1.0162212 -0.8713477 0.7254608 -0.26899517
000220 fb 90 7d be dd 78 18 bf 2a 94 5d 3f 38 dc 2e 3d
       -0.24762337 -0.5955942 0.86554205 0.042690486
000230 74 a6 42 3f ff c5 3f be bd 3d 44 bf a5 92 97 3f
       0.7603524 -0.18727873 -0.76656705 1.1841627
000240 e5 50 5b 39 04 4e fa 3e 91 dc a8 3e fa 14 91 3f
       0.00020915603 0.48887646 0.3298078 1.1334527
000250 5a b3 7c be cd 14 62 3f 36 ab 5a 3e 70 8e 53 3e
       -0.24677792 0.8831299 0.21354374 0.20659804
000260 2c 0f eb 3d 03 9a 2c 3e f3 f2 01 3d 7a 63 09 3f
       0.11477503 0.16855626 0.031725835 0.53667414
000270 cc a6 85 3e 11 87 8e bf a4 2a f8 3e e4 34 a5 3d
       0.26103818 -1.1134969 0.48470032 0.08066729
000280 87 62 a4 bf 70 c7 39 3d 01 65 3d be 9c f2 92 3f
       -1.2842568 0.045356214 -0.18495561 1.1480289
000290 00 05 b2 3e c7 97 a7 bf 23 60 3e 3e 1c e6 f5 3e
       0.3476944 -1.3093194 0.18591361 0.48027122
0002a0 8b bd 33 3e 35 68 23 bf 51 7c 7e 3d ce 38 48 3d
       0.17552774 -0.6383088 0.062130276 0.0488823
0002b0 8d 06 1a bf 2f 34 13 bf 3a c5 be bf 8c 21 0f 3f
       -0.60166246 -0.575015 -1.4903939 0.55910563
0002c0 b7 55 21 be 06 6c 99 be ee 7f 5d 3d 35 9b cd 3f
       -0.15755354 -0.29965228 0.05407708 1.606299
0002d0 3e b2 69 3f 7f 21 81 3f 61 04 06 3f 75 3c 1d 3e
       0.912876 1.0088347 0.5235043 0.15355094
0002e0 a1 e4 c9 bc 27 7f 3a 3e 4b 8d 20 bf b4 0d 60 be
       -0.024645152 0.18212567 -0.62715596 -0.21880227
0002f0 53 c5 37 3e 58 4d 02 c0 70 c1 3a be 8b 87 64 bd
       0.17946367 -2.0359707 -0.18237853 -0.055793326
000300 ad 34 bb 3d e8 68 ef 3d 4d 81 2c be 12 b5 f8 3e
       0.091409065 0.11689931 -0.168462 0.48575646
000310 d6 a4 cd 3e ed 11 49 bf 8b 95 9b 3f 26 97 03 3f
       0.40164822 -0.7854298 1.2155012 0.5140251
000320 f2 98 86 be f8 1d 57 3e 99 f9 d2 3e 5f 64 88 3d
       -0.26288563 0.21007526 0.41206053 0.06659769
000330 90 55 96 bf 66 a2 23 3f 68 a6 4d 3f 7f 69 a9 bd
       -1.1744862 0.63919675 0.8033204 -0.08272075
000340 10 e2 01 bd 23 ca 1b 3f 3e 91 0d bf 20 54 4e 3e
       -0.03170973 0.6085531 -0.55299747 0.20149279
000350 21 05 28 bf dd 72 08 bf 41 5d 85 bc f7 fa d0 3e
       -0.65632826 -0.5330027 -0.016279818 0.4081647
000360 03 1e 61 3e 90 0f 37 3e df 98 17 3f ed bb 81 bc
       0.21984105 0.1787703 0.5921764 -0.01583668
000370 7b d9 67 3e 22 89 78 3e db 2f b7 3e 6f d5 b4 3e
       0.22641556 0.24271062 0.35778698 0.35319087
000380 b1 ca 62 bf 67 24 13 bd dd 57 cb be 42 9f 96 3f
       -0.8859053 -0.035923388 -0.39715472 1.1767352
000390 f0 53 14 3f 98 35 c6 bd b6 77 32 bd 64 e7 d5 be
       0.5794058 -0.09678191 -0.043571196 -0.417781
0003a0 da 27 4c be 0f 1a 84 bd 1b 0c e5 be b5 86 e0 be
       -0.19937077 -0.06450283 -0.44735798 -0.43852773
0003b0 3b d7 d5 3e 71 22 50 3f 30 ed 81 3f 40 2c 5c be
       0.4176577 0.81302553 1.0150509 -0.21501255
0003c0 ab ee 98 3e a9 13 27 bf 52 35 9e bd 1a 0b 70 be
       0.2986959 -0.65264374 -0.07725014 -0.23441735
0003d0 17 90 00 3f ad 5e 1a 3f f9 77 91 3f 79 c8 f4 3e
       0.50219864 0.60300714 1.1364738 0.47809198
0003e0 cf 99 e8 3d a0 40 a3 3d d1 28 87 3e 79 9a 31 be
       0.11357462 0.079713106 0.26398328 -0.17344083
0003f0 69 22 9a be 0f b1 2f 3f 96 53 fb 3d b3 49 2c bd
       -0.30104378 0.68629545 0.12271802 -0.042062473

w_comp f4 [142, 4]
000000 2c 2e 2b 3f b6 22 81 bd 3f 82 80 be 45 a8 fb 3d
       0.6686733 -0.06305449 -0.2509937 0.12287954
000010 fe c0 79 3e 54 cd 7a 3e 28 97 05 be c6 b2 b2 3d
       0.24390027 0.24492389 -0.13045943 0.087255046
000020 f2 56 34 be 88 f7 1f bf f8 31 b4 3c 06 25 04 bf
       -0.17611292 -0.6248708 0.021996483 -0.51618993
000030 76 04 25 bf f6 cf 20 bf 33 3d 16 3f 8c 29 e7 be
       -0.6445993 -0.62817323 0.5868713 -0.45148885
000040 08 80 fb be 8f ac 93 bf bd 4b b3 3e db e4 c0 3d
       -0.49121118 -1.1537036 0.3501872 0.09418651
000050 67 d3 ed 3d 4a 6c 30 3e 08 11 84 be b2 18 82 3e
       0.116125874 0.17228809 -0.25794244 0.25409466
000060 6d 6d 14 be b2 2e f1 3d 54 32 b4 bd aa 35 0c 3d
       -0.14494868 0.117764845 -0.08798662 0.034230866
000070 f0 b1 c0 3f 80 65 88 be 82 03 05 3f 43 38 aa bf
       1.5054302 -0.26639938 0.5195848 -1.329842
000080 7f cb 7e 3f 3b bb 33 be fc 12 74 3d 4c 06 99 bf
       0.9952926 -0.17551892 0.059588417 -1.1955047
000090 81 60 19 3f 5b 88 0c 3f b3 eb 7d bf 88 dd b5 be
       0.5991288 0.5489556 -0.99187773 -0.35520577
0000a0 3e 23 25 3f e1 c0 95 bf 64 25 7c be 29 05 0e bf
       0.645069 -1.1699487 -0.24623638 -0.55476624
0000b0 3f bc 29 bf 54 dd 44 3f 0b 70 08 bf 94 c7 8d 3d
       -0.66302866 0.7690022 -0.53295964 0.06922832
0000c0 d0 b0 94 3e 6d 1b 19 3f fe 47 6d 3e 7c f5 f1 3e
       0.29041147 0.59807473 0.23171994 0.47257602
0000d0 f3 45 01 80 33 19 01 00 10 59 b8 b5 20 47 00 80
       -1.16929e-40 1.00875e-40 -1.3734989e-06 -2.5515e-41
0000e0 40 b1 72 3e 55 69 50 bf 90 2d af 3d 73 fa 8b 3f
       0.23700428 -0.81410724 0.08553612 1.0935806
0000f0 58 c8 77 3e b7 36 d9 3d 7a 3f ea 3c 10 49 1c 3f
       0.24197519 0.10606139 0.028594721 0.61048985
000100 b6 33 1f bf 7f a9 ac 3f 6a b2 c1 bc 20 47 a4 3f
       -0.6218828 1.3489226 -0.023644645 1.2834206
000110 7f b8 56 3e 4a cf 6b bf 0e b8 08 3f fc 8e 21 3f
       0.20968817 -0.92113173 0.53405845 0.631088
000120 f7 ed 6c be 1b 7d 82 3e b3 34 2d bf af 16 47 bd
       -0.23137651 0.25486073 -0.6765854 -0.048605617
000130 18 a6 32 3f 4d 71 35 be 17 44 93 be ca 85 dd bb
       0.6978469 -0.17719002 -0.28762886 -0.0067603337
000140 7d 63 0d bf bf 87 ac bd e9 74 28 3e 40 a1 2d 3f
       -0.5522993 -0.08424329 0.16450848 0.6782417
000150 33 10 04 3f 03 39 f3 3e c2 38 88 be 3a 80 bb 3e
       0.5158722 0.47504434 -0.26605803 0.36621267
000160 02 71 ad be 08 c8 5a be 94 91 82 be 1c 0b 29 bc
       -0.3387528 -0.21365368 -0.25501692 -0.01031759
000170 f6 91 17 80 5b 93 71 ab e5 e6 27 ad b7 34 50 b1
       -2.164577e-39 -8.5824896e-13 -9.54412e-12 -3.0297949e-09
000180 d8 b3 a2 bd c3 d0 df 3e a0 78 25 3d 3e 63 70 3e
       -0.07944459 0.4371396 0.04039824 0.23475358
000190 0b fa 8e be 4b ad 10 3f c3 2d b5 bf 89 b5 8e bd
       -0.27925143 0.56514424 -1.415459 -0.06968219
0001a0 c2 c0 34 3f c9 18 48 3e de 0e 0b 3e 7e 91 8e be
       0.70606625 0.19540705 0.1357989 -0.27845377
0001b0 35 43 9c bf 85 47 a5 be fc ea 9e bd 02 dd 83 be
       -1.220801 -0.32281128 -0.077596635 -0.25754553
0001c0 d0 2d 19 be 9b 69 3e 3d 73 07 14 be dd c7 b9 36
       -0.14958882 0.046487432 -0.14455967 5.536697e-06
0001d0 8c 9c 80 bf df ea 47 bf 2e 35 e8 bf e7 b3 c5 bf
       -1.0047774 -0.7809276 -1.8141229 -1.5445527
0001e0 d0 65 f4 be 38 14 34 3c d2 06 92 3d d6 98 f2 3e
       -0.47733927 0.010991149 0.07130207 0.4738223
0001f0 56 3e 4f 3f 9e c6 41 3e c1 ed 84 3f 9d e9 e4 be
       0.8095449 0.18923423 1.0385057 -0.44709483
000200 e5 24 69 3f bc 1d a2 3f 7e 5f c0 be cf d9 50 3e
       0.9107192 1.2665324 -0.37572855 0.20395587
000210 f9 c4 d6 3e 98 ba 8d 3e bf 97 e0 3e ff 5e 78 3e
       0.41947153 0.27681422 0.43865773 0.24254988
000220 db fd 8b 3e 60 68 c4 bd d3 d6 aa bf 4f 50 97 bf
       0.27342114 -0.095902205 -1.3346809 -1.1821383
000230 18 0a c0 3e bc b6 25 be 33 6e 07 3e c3 e5 2f be
       0.375077 -0.16182989 0.13225631 -0.17177491
000240 6e b9 4e bf cd e4 ae be 5e f3 3e 3d 7c 9a d0 bc
       -0.80751693 -0.34158936 0.04661881 -0.025464289
000250 a9 5d 4f 3d 9c b2 46 3f a9 da 5d 3d 6e 3d 82 3d
       0.05062643 0.77616286 0.05416361 0.06359373
000260 e8 3c 69 be 2d 6a b8 3e 7e 76 0c be 0b ac 69 be
       -0.2277714 0.36018506 -0.13717076 -0.22819535
000270 c8 ad bd be df 87 4c 3d 13 ee f7 be 52 6a 60 3e
       -0.37046647 0.049934264 -0.48423824 0.21915558
000280 1f 46 00 00 e2 07 00 00 57 5a 98 00 fa 07 11 a2
       2.5155e-41 2.828e-42 1.3991403e-38 -1.9655387e-18
000290 9b 4e 9c 3d 68 82 28 bf 01 32 c9 be 0a ee 61 3e
       0.0763218 -0.65823984 -0.39295962 0.22063461
0002a0 60 19 00 00 fe 2f 01 80 fc a7 01 80 e2 bc 00 80
       9.103e-42 -1.09052e-40 -1.52097e-40 -6.7758e-41
0002b0 62 1f 3a 3f 63 6b 2f be bc 41 00 bf a7 3e 73 3f
       0.72704136 -0.17130809 -0.501003 0.95017475
0002c0 43 e9 73 bf 7e df a3 be 93 3f 54 bf 40 8b 05 3f
       -0.95277804 -0.32006449 -0.82909507 0.52165604
0002d0 6b 51 a0 2a 4f 0e 00 00 b9 9b 00 80 98 3b 79 a2
       2.8478204e-13 5.133e-42 -5.5863e-41 -3.3777341e-18
0002e0 8d 3b 01 80 d7 71 ee 00 7d 07 13 80 17 76 00 00
       -1.13198e-40 2.1897686e-38 -1.747561e-39 4.2363e-41
0002f0 24 db 7a bf 90 ba d0 be f8 ce 2e 3e 5d 5b 1c 3f
       -0.9799063 -0.40767336 0.1707114 0.6107691
000300 6a 3b 00 00 b1 e9 b3 21 e8 ea 6c 30 dd 0d 00 80
       2.1314e-41 1.2191369e-18 8.619012e-10 -4.973e-42
000310 19 52 12 00 07 4c 01 00 84 6b 01 80 19 ac 00 80
       1.68249e-39 1.19109e-40 -1.30405e-40 -6.1737e-41
000320 ab a4 88 37 68 8d 50 bd d4 e2 5c 3d 10 e2 ab 94
       1.6289143e-05 -0.050916106 0.053927258 -1.7355753e-26
000330 4a e2 74 bf 7d f6 a2 be 62 6e d4 be a1 2d e7 be
       -0.9565779 -0.3182868 -0.41490465 -0.45152
000340 3d 6a 04 3f 7c 69 45 3f cf de 23 3f d8 cd d7 3e
       0.51724607 0.7711408 0.64011854 0.42149234
000350 08 e7 12 2b 8a 76 00 04 46 56 09 ae e5 67 01 00
       5.219024e-13 1.5100758e-36 -3.122682e-11 1.29106e-40
000360 e3 d5 39 bf 67 37 6a 3f 0f 55 bc be 29 98 b6 3e
       -0.7259199 0.9149079 -0.36783645 0.35662964
000370 85 fe 1e bf 44 a0 1d bf 82 bb 64 3c 7c b6 1d bf
       -0.62107116 -0.6157267 0.013960721 -0.61606574
000380 99 6c c8 3e 2b 71 29 bf 48 9c 26 be 67 78 02 3f
       0.39145353 -0.66188306 -0.16270554 0.5096497
000390 dc 99 94 a8 91 84 01 00 25 b9 00 80 2d a5 01 80
       -1.6498027e-14 1.39391e-40 -6.6417e-41 -1.5109e-40
0003a0 40 8b 58 ad 90 54 8d 2e 59 d1 00 00 3e 80 74 b3
       -1.2309098e-11 6.426959e-11 7.51e-41 -5.6927313e-08
0003b0 7c fb 56 80 c0 9f 4b 00 cf 2e 00 80 60 4b 00 00
       -7.988068e-39 6.94497e-39 -1.6792e-41 2.704e-41
0003c0 73 d5 00 80 52 9e 01 80 ec a5 5d 00 ae 44 00 80
       -7.6571e-41 -1.4863e-40 8.600223e-39 -2.4638e-41
0003d0 6e 7d 17 be 32 b2 63 be 94 0f 3c 3e 3b 4c d0 3e
       -0.14793941 -0.22235945 0.18365318 0.4068316
0003e0 12 03 29 be 3e 1c ce be cd 8a 88 bd e6 07 03 bf
       -0.16505077 -0.40255922 -0.06667099 -0.5118393
0003f0 28 e7 a5 3f 16 97 ce bf 85 a0 bc 3f fb 68 b9 3e
       1.2961168 -1.6139858 1.4736487 0.36212906
