experiments/grail_fb_v3_ind/best_graph_classifier.pth (torch, 167468 bytes, 21 tensors)

weight f4 [183, 32]
00000000: a600 8f3f e950 acbe c296 44bf 54e3 143f
00000010: 7594 fe3d 3ef9 ddbe a95f c23e 6fd2 bd3e
00000020: d0f5 3ebd 4bd2 7ebe c350 bd3e 2f5b bdbd
00000030: e15b adbe b0c2 0cbb e08b 7e3d b134 9bbe
00000040: d5a7 0cbe 76a4 73be 3d6d 843f 3a07 7e3e
00000050: 4008 91be 0894 263f a7ed 3f3d 059f c2bd
00000060: 9e89 ba3e 7c0e c03d 11d0 a7bd 8b2f d83e
00000070: f897 da3d 0748 a53e 813e 453e b064 5e3f
00000080: 9c8e 6b3f ba0b 243f 6466 c1be 0c40 a23e
00000090: 0b25 af3e 85b2 95be baeb 31bf 9b37 223f
000000a0: 61ef 95bd 2ed0 28bf 3a0d 8bbf 1963 21bf
000000b0: c9c2 7e3f 5c03 103f ff42 8f3f 6df5 323d
000000c0: e96e efbd 2993 1b3f 63de 3d3e 02fb c5be
000000d0: 8135 a73f faa7 1dbd 7c52 663e 5834 ee3d
000000e0: 9e06 36bf d1e3 e1be 5a3c 033f 3627 28be
000000f0: fc99 eebd b14a 80bd b53d 543f ebf8 c9be
00000100: ec73 ba3f 4a44 f03e 6648 a1bf 45e2 5f3f
00000110: b170 82bf 5247 a33e 3a3a a43e 96f6 893e
00000120: b595 4b3e b3c7 45be 3a3b d73f 7378 09bf
00000130: e3e1 603e 88fa 9ebf 152a 223d aadb 1d3f
00000140: ebbf 9dbf 625a b2bf 1fe0 443f cc46 d53e
00000150: b20c dbbe dd42 863f 3f1f 1b3f 60cc 14bf
00000160: 1a20 29be 89dc f1be 87fb 283f 9a77 b63f
00000170: 1ebb 1abf 1547 06bf 30d4 21bf ba18 3b3f
00000180: fbbc 903e cabc 6ebe 3c3d e8be 1716 923f
00000190: b8a8 3bbf c2d2 d13b 553c f83e 58a9 113f
000001a0: 912b 483e ddd2 473d 893c 343e faa3 b33e
000001b0: 3a03 a0be a312 13bf 1c2c 35bf bfd6 f53d
000001c0: 9353 9c3e 7e7d c2be bf3f 593f 21b6 0d3f
000001d0: eb1b 83bf 30ac 9f3f 7111 f7be b1ca 51bf
000001e0: a3d9 b23e ddb2 91be defe 37be 6a23 303f
000001f0: 733e 143f 3c1c d0bd a1e8 29bf bc21 0d40
00000200: d157 30bf 5063 193f c4d2 7f3e f721 813f
00000210: 36e8 bfbe 5dbb f53c e8df 0d3e 0e6b cebe
00000220: 233b 19ba f7b8 53be 5249 b4bf c45a 9e3e
00000230: 8d5c 39bd f04e c73e 7517 4b3f d175 0b3f
00000240: d26f d63e cc89 493f 2563 2fbf ad72 b13d
00000250: 8f74 283f f1e0 11bf 1cf5 0ebf 0eb9 5d3f
00000260: 3331 00bf 0d40 14bf e6a9 a6bd 1a82 7bbe
00000270: 342c 0abd 601b f0be 67b4 d13d af8c 4cbe
00000280: d1b9 7dbf 562c 563e e024 343f daa3 51bd
00000290: 7d77 40bc c842 b0bb 073b 42bf e6ad 24bf
000002a0: 1483 a9be 7b7f 413f 5327 a6bf d890 6cbd
000002b0: e572 863e 30e8 243f 105c 573f e331 ba3d
000002c0: 206f 2e3f 9694 6a3f 6ffd 73bf e211 8dbf
000002d0: 6e04 153f 4965 95be d116 54bf 4497 7f3e
000002e0: 6bb3 95bd 2863 06bf 8221 10bf a05e 15bf
000002f0: 7ac0 f63e 47d3 e0be d1cb f4be b0ef ffbe
00000300: de0c 0100 fb8c 0080 9807 0080 11a5 0080
00000310: 963e 0000 407f 0080 1c81 0080 4162 0000
00000320: 6824 0080 cb3d 0100 7174 0000 8e0e 0000
00000330: 0936 0180 0486 0000 8207 0180 6bcc 0000
00000340: c655 0100 86e7 0000 5131 0080 cf2d 0000
00000350: 93b6 0080 5183 0080 b89d 0000 e344 0080
00000360: f48b 0100 423c 0080 af9b 0180 9912 0000
00000370: 6cf9 0000 f04f 0080 1051 0000 f55d 0080
00000380: 53b5 61bf ed59 80bf a797 703e 36b1 a23e
00000390: bba1 263e 9850 d73e f50c 2c3f 0380 78bf
000003a0: 234a 1b3e f1f5 a93e 6b42 65bf ce0e c13f
000003b0: d23e dabf 3f53 af3e 8ee7 8ebf bdb9 5d3e
000003c0: 7895 7c3e 7f95 5d3e 23d8 873f 458d cebe
000003d0: 7b93 3fbf 720d 7d3f ae80 f1be e5dc 9f3f
000003e0: bcb6 a13f 24a1 a1be fc5b 71bd 855d acbb
000003f0: a98a 6fbe 3c51 72bd 3e20 6e3f 761e 633f
1.1172073 -0.3365548 -0.7679254 0.58159375 0.1243066 -0.4335422 0.37963608 0.3707461
-0.046621144 -0.24884908 0.3697568 -0.092459075 -0.3385916 -0.0021478347 0.062145114 -0.30313638
-0.13735898 -0.23793206 1.0345837 0.24807444 -0.28326607 0.6506963 0.046857502 -0.09502987
0.3643312 0.09377763 -0.081939824 0.42223772 0.10673517 0.32281515 0.19262125 0.86872387
0.9201448 0.64080393 -0.3777343 0.3168949 0.3420795 -0.29237762 -0.69500315 0.633661
-0.073210485 -0.65942657 -1.0863411 -0.63041836 0.9951597 0.56255126 1.119232 0.043691088
-0.11691076 0.60771424 0.18541865 -0.38668066 1.3063203 -0.038490273 0.22492403 0.116310775
-0.7110385 -0.44119123 0.51263964 -0.16421208 -0.11650464 -0.06264246 0.8290666 -0.39447722
1.4566627 0.469271 -1.2600219 0.87454635 -1.0190641 0.3189035 0.32075673 0.26945943
0.19881327 -0.1931446 1.681495 -0.53699416 0.21961169 -1.2420206 0.039590914 0.61663306
-1.2324194 -1.3933833 0.7690448 0.41655576 -0.42783123 1.0489155 0.6059455 -0.5812435
-0.16516152 -0.47238567 0.660088 1.425525 -0.6044177 -0.5245221 -0.632144 0.73084605
0.2826918 -0.23314205 -0.45359218 1.1412991 -0.7330432 0.006403298 0.4848353 0.56899023
0.1954787 0.04878508 0.17601217 0.35086042 -0.31252462 -0.5745031 -0.7077043 0.1200385
0.30532512 -0.37986368 0.84862894 0.5535603 -1.0242895 1.2474422 -0.48255494 -0.8194991
0.3493167 -0.28456774 -0.17968318 0.6880404 0.5790779 -0.10161635 -0.6637059 2.205184
-0.68884 0.59917164 0.24982744 1.008849 -0.3748185 0.029996568 0.13854945 -0.4031605
-0.0005845299 -0.20676027 -1.4084876 0.30928624 -0.04525428 0.38927412 0.7933267 0.5447665
0.41882187 0.78725886 -0.6851066 0.08664451 0.65802854 -0.5698386 -0.5584276 0.86610496
-0.5007507 -0.57910234 -0.08137874 -0.24561349 -0.03373356 -0.46895885 0.10239487 -0.19975542
-0.9911166 0.2091535 0.70368767 -0.05118165 -0.011747238 -0.0053790547 -0.7587132 -0.6432785
-0.33107817 0.75585145 -1.2980751 -0.05775532 0.26259533 0.6441679 0.8412485 0.090915464
0.68138313 0.91632974 -0.95308584 -1.1021082 0.58209884 -0.29178837 -0.82847315 0.24960047
-0.07309612 -0.5249505 -0.5630113 -0.5834751 0.48193723 -0.43911192 -0.4781175 -0.49987555
9.6451e-41 -5.0574e-41 -2.724e-42 -5.9215e-41 2.2452e-41 -4.5649e-41 -4.6316e-41 3.5247e-41
-1.306e-41 1.14003e-40 4.1771e-41 5.221e-42 -1.1122e-40 4.8076e-41 -9.4529e-41 7.3331e-41
1.22605e-40 8.3055e-41 -1.7691e-41 1.6433e-41 -6.5495e-41 -4.7107e-41 5.6579e-41 -2.4712e-41
1.42041e-40 -2.1616e-41 -1.47684e-40 6.672e-42 8.9476e-41 -2.8676e-41 2.908e-41 -3.3705e-41
-0.88167304 -1.0027443 0.23495351 0.31775826 0.16272633 0.42053676 0.6720727 -0.9707033
0.15165 0.3319545 -0.8955447 1.5082643 -1.7050421 0.342432 -1.1164415 0.21652885
0.24666393 0.2163906 1.0612835 -0.40342155 -0.7483441 0.9884864 -0.47168487 1.2489287
1.2633891 -0.31568253 -0.058925614 -0.005260172 -0.23392738 -0.059159502 0.9301795 0.88718355

weight f4 [4, 8, 32]
00000000: dd6f 1bbf ca2d 8f3d 5a6e 453f 40ee 063f
00000010: 4a72 0abf 6dfc be3f 8589 233f b69b 2b3f
00000020: 89b6 04bf 661e 953f fbda 1ebf 4e98 9c3e
00000030: 03a4 f2be e92b 1a40 aee0 d53e 7082 25bf
00000040: 0117 e2bf b769 d6be 2240 77bd fae5 bbbf
00000050: a1bb 573f f808 4ebd e532 d43f 2a80 8d3d
00000060: 0c1e a13f 28ad 22be b42f a43e b9d5 293d
00000070: 6a48 bd3f d64a c23e 8769 d43e eee7 a53f
00000080: 4a7a 423f 148f 45be b02f 663f 9271 403f
00000090: ac26 463f 6a61 9fbf 4aff c3bd ba3c e43f
000000a0: b079 0b3f a5e8 2140 6c6c 423e f580 ddbd
000000b0: ed99 9fbe 228a 24bf d199 243f bf5f 503f
000000c0: 3b42 643f 9dc8 b43e c419 da3e d765 1a3f
000000d0: 4a66 bcbf e44a f63e c476 683f a0f1 903f
000000e0: 6cb3 123e a8ac 1140 9d51 eabe 9574 3dbe
000000f0: ac4c b53f 6188 5c3e c983 703f d866 d33f
00000100: 0cd1 0240 ac09 923f 256a 95bf 147f c1bd
00000110: 95b9 b0bf b58e a03f b47a 013e 96ef e43e
00000120: 2ea9 5b3f c66a cbbf 37d9 f8bd 463b 723f
00000130: 30df 9c3f 7d83 5140 eaaa a6bf 0554 5c3f
00000140: 1f0d 66bf f8c2 d03e c610 38bf 9e77 f9bf
00000150: b625 ed3f c112 fabf 6ffe 16c0 c639 4d3e
00000160: 6cd2 bfbf 6b01 24c0 1c88 773f ea00 16bf
00000170: 1598 c6bf 9b4a c13f 19b1 c2bf e9dc c5bf
00000180: 26e3 403f 7664 8cbe 2912 1640 0e17 06c0
00000190: b295 9a3f 7c5d d6bd 2910 34be 6b27 bfbf
000001a0: c4e4 a8be 3bac c23e 7702 98bf e5ea 4fbf
000001b0: feca bbbe 3a91 3fc0 2f8b 6abf ed71 6abf
000001c0: b04e 9dbe 637f 42bf 3f43 88be 1501 043f
000001d0: 55c5 b4be 15ff 03bf 65aa 453f 700b 24be
000001e0: 1f45 8bbf d4bc f83f 6694 8ebe 7f35 4d40
000001f0: 68ef cfbf 974c f4bf b5d4 c2bf 3f57 493e
00000200: 6e0f b53f 8b2a d93e ffb5 56bd 82dc db3c
00000210: cd73 8dbf 7d53 0f3f b211 2c3e c747 a23f
00000220: ec76 0340 0f89 e13d 78c9 3cbe ae18 0bbe
00000230: 735c e9bf 93bf 61bf 20f8 67bf 01f4 b43e
00000240: 49e9 06bf a363 cc3e 3ce3 9d3e 4c42 17c0
00000250: a2c1 503f 1691 11bf b0fa a83f ee79 a93d
00000260: 40b3 883f deec 143e 9f68 45bf ec0d 48be
00000270: 50a4 cfbe efb4 2c3f 6bb7 9dbf d46b 6abf
00000280: 5b7f 7dbf 4cec 8bbf 1f41 ab3f f88b 94bf
00000290: b1fd 7a3f 56f5 48bf 8db3 8bbf a2c8 1abf
000002a0: 1352 0a3f c318 1b40 23ff 1e3d 4d27 823d
000002b0: e2fe 3f3f 51dc 1bbe 00e2 46be 6d57 0940
000002c0: ea6c f7bf 92b5 9c3c f25a 54be bb57 813f
000002d0: 6a8e 1ebf 747a 82bf 1428 bd3f 8294 0fbd
000002e0: 243b 72bf 3bba cd3f 5da1 f83e 0685 c03e
000002f0: e5f0 9dbf 655e 40be ad14 4abf 7e67 023f
00000300: ea0a 853e dad5 603f 5cea c1be e491 d73f
00000310: bc18 abbf 968d 863f bed9 ce3f 5b54 db3f
00000320: bc7e 9f3f e25d 3dbf bed5 0abe 9ccf 39be
00000330: 541b 91bf e4c7 723f 622d ec3f 1213 57bf
00000340: b227 48bf 03f7 80bf b58a c2be 0e48 87bf
00000350: 77cb 3c3f 65c2 92be 8ff1 95bf 7c46 773f
00000360: 4f3b 07be d6a3 20bf 6c73 24be 40ad 283f
00000370: ced3 4840 2a7a 05bf 99a6 4540 9ad2 763f
00000380: 0e74 893f 943c 17bf 2dc0 803f 1cbc 42bf
00000390: 9522 8f3f 7763 8e3e 94ba efbe 4d4a f0be
000003a0: fb82 3ac0 dfac 553f 8cd1 fabe a513 013f
000003b0: 4c3a 4b3f d1ac 463f 9900 21bf 7b46 8cbf
000003c0: 89af 0c40 160a 9a3e bdf2 cd3d 2499 a03f
000003d0: d39b 213f dcd4 a73f cb69 5640 0f6e 8dbe
000003e0: a54d 1a40 6661 9c3f ea59 313f 6142 b03e
000003f0: d19a 11be 0ecb fd3f e5fc c2bf 0371 9f3f
-0.60717565 0.069911554 0.7712151 0.5270729 -0.5408064 1.4920784 0.63881713 0.6703447
-0.51841027 1.1649902 -0.6205289 0.3058495 -0.47390756 2.40893 0.4177298 -0.64652157
-1.766327 -0.4187753 -0.060363896 -1.4679558 0.84270674 -0.050301522 1.6578032 0.06909211
1.2587295 -0.15886366 0.32067645 0.041463587 1.4787724 0.3794772 0.4148676 1.2961404
0.7596785 -0.19292861 0.89916515 0.75173295 0.7740276 -1.2451603 -0.09570177 1.7831032
0.54482555 2.5298245 0.18986672 -0.10815612 -0.31172124 -0.64273274 0.64297205 0.81396097
0.8916356 0.35309306 0.42597783 0.60311645 -1.4718716 0.48104012 0.9080622 1.1323738
0.14326257 2.276163 -0.4576539 -0.18501504 1.4164023 0.215364 0.9395109 1.651576
2.0440092 1.1409202 -1.1673018 -0.09448066 -1.3806635 1.2543551 0.12644464 0.4471404
0.8580502 -1.589196 -0.121508054 0.94621694 1.2255611 3.2736504 -1.3020909 0.86065704
-0.8986377 0.4077375 -0.71900594 -1.9489629 1.8527133 -1.9536973 -2.3592794 0.2004157
-1.4986091 -2.5625865 0.9669206 -0.58595145 -1.5515162 1.5100893 -1.5210296 -1.5458041
0.753466 -0.27420396 2.3448584 -2.0951571 1.2076933 -0.104670495 -0.1758429 -1.4933904
-0.32987034 0.38022026 -1.1875752 -0.81217796 -0.36678308 -2.993239 -0.9161863 -0.91580087
-0.30724096 -0.75975627 -0.26613805 0.5156415 -0.35306802 -0.515611 0.77213126 -0.16019988
-1.0880469 1.9432626 -0.27847594 3.2063901 -1.6244936 -1.9085873 -1.5221163 0.19662188
1.4145334 0.4241527 -0.05241966 0.026838545 -1.1050965 0.5598677 0.16803625 1.2678155
2.0541334 0.1101247 -0.18436229 -0.13583633 -1.8231338 -0.88182944 -0.90612984 0.3534241
-0.52699715 0.39919767 0.3083743 -2.3634214 0.8154546 -0.5686201 1.3201504 0.08275209
1.0679703 0.14543483 -0.77112764 -0.19536561 -0.40555048 0.6746358 -1.23216 -0.9157078
-0.99022454 -1.0931487 1.3379248 -1.1605215 0.9804335 -0.7849935 -1.091417 -0.6046239
0.54031485 2.4233863 0.038817536 0.06355152 0.74998295 -0.15220763 -0.1942215 2.145961
-1.9330113 0.019129548 -0.20737818 1.0104898 -0.61936057 -1.019362 1.4777856 -0.035053737
-0.9462149 1.6072458 0.4856061 0.3760149 -1.233914 -0.18786009 -0.789378 0.50939167
0.2598489 0.8782631 -0.37874115 1.6841397 -1.3366923 1.0511959 1.61602 1.7135118
1.2460551 -0.7397138 -0.13558099 -0.18145603 -1.1336465 0.9483626 1.845135 -0.84013474
-0.7818557 -1.0075382 -0.3799645 -1.0568864 0.7374796 -0.28663936 -1.1714343 0.96591926
-0.13206218 -0.62749994 -0.16059655 0.6588936 3.1379275 -0.5213953 3.0882933 0.964151
1.0738542 -0.5907681 1.0058647 -0.7606828 1.1182429 0.2781026 -0.46822035 -0.46931687
-2.9142444 0.83466905 -0.48987997 0.504206 0.7938583 0.77607447 -0.62891537 -1.0959009
2.1982138 0.3008582 0.10056064 1.2546735 0.63128394 1.3111835 3.350207 -0.2762303
2.410989 1.2217224 0.6927782 0.34425643 -0.14219214 1.9827592 -1.5233427 1.2456363

w_comp f4 [183, 4]
00000000: dfc4 9c3f 1ded 6bbf a16e aa3d b23c 88bf
00000010: 1708 bb3e edef 91bf 1cc4 1c3f b4b5 8b3f
00000020: 4217 f83e bf45 a7bf 22a6 a2be e23b 8c3f
00000030: bc72 eb3f 36b7 b4bf 858d 6ebf 3dd1 123d
00000040: cc74 663f ca81 ba3f 7798 18bf cf68 b1be
00000050: d6b0 c4be 06fe 28bf 8103 773f 768c 63bf
00000060: 16ec 55be caff fb3d c22f 473e 58c9 9d3c
00000070: a12c 573f 7eff 7cbf 5513 ad3e da7e 59be
00000080: deaa cc3e f95e e3bf 8fce 373e ea76 aabf
00000090: 4cc6 c3bf 6828 9fbf ecaa 123d ecb8 933f
000000a0: 079e 493f f99e 69bf 5941 a3be 224b 12bf
000000b0: bbe7 2bbf 2881 30bf 39d7 02c0 c27f 703d
000000c0: 38a7 d23f 7cd0 c1bf a397 453f b7b2 903f
000000d0: 12a7 043f 7f86 a2bf dd0f b13f 850b e7bf
000000e0: f93e 963e 6d09 5ebf fe60 19bf 8467 00bf
000000f0: 7e03 19bf 30b6 97bf a9ba dd3f 7eaf e9bd
00000100: 6efb c83f 6fe4 36be bfd3 0f3f 88fd 4abf
00000110: ea4f 8abf 99b7 a23e 440e 963f 2061 dc3f
00000120: 3c87 a03f 1e9e 2ebf 59f9 7e3f 83c6 2a3e
00000130: 568a 9abe 71e3 333f 7c56 a33f a7c8 17c0
00000140: e532 51bf f461 fcbf af22 10bf 92b8 cdbe
00000150: 49b0 03bf bb8e 3f3f 6d1b 2e3f b664 d8be
00000160: 8c4d 6a3d a628 863e 06d1 333f 3142 063b
00000170: 1709 aa3e 30a1 e1bf f6ae e63f d2f8 dd3e
00000180: 6176 8dbf fc0e 20bf 2062 9f3f 3b1d ca3f
00000190: b0ef 0140 5707 0fbf deb0 08bf b099 8abf
000001a0: 1efa c0bf 8785 ab3f a268 ebbf a6a9 9bbf
000001b0: 7dec b5bf 11f1 2cbf 884b 753e e697 0c3f
000001c0: 2cc2 1cc0 bb8a 52bf ad20 e23e 0ca5 4a40
000001d0: 1ce2 0b40 7938 0ec0 e106 033e 5d0b 82bf
000001e0: a74c 04bf 17dd 193d daeb 853f 95ee ddbd
000001f0: a8ae 1dbf 9cc6 c73f a64b c73d 17f5 d5be
00000200: c89f 0cbf d072 b03f 58a9 4dbe 176d 84bf
00000210: 7181 893f 2b5f 2b3f 0bba 603e eea8 debe
00000220: d288 d13e 0040 403e 23ac f3be e7b6 20bf
00000230: 4817 143d a1ba 943f c3e8 813f 025a 713f
00000240: b6fc de3f db1b f73d 1e48 cb3f 2fea 8bbf
00000250: 1442 023f 2eed df3d 558e cbbe 754f 5fbe
00000260: d161 1740 9f65 06c0 b6a8 d73e d6bb 413f
00000270: 6d44 37bf 3c3e ecbf af07 ac3f 4111 1d40
00000280: df4b f7bc 6be2 6e3f 9020 85bf 63fa 603e
00000290: 30fa 16bf 6314 94be ff25 2d3e 1549 29be
000002a0: 2faf 2dbd edce 1b3c 6187 d73f 7b1d 13be
000002b0: 26b8 9a3f 85f0 00c0 a962 c63f 0306 8f3f
000002c0: 6f52 95bf 622f e93e b343 0b3e 52b7 19c0
000002d0: 493d cd3d 6314 01be 58a9 f33e 7968 ecbc
000002e0: 4eab 6dbe 8f65 cd3f 82dc 733f 99b6 41bc
000002f0: 67fd ec3f 0ac8 993f 175b 89bf 4782 15be
00000300: 5a43 15bf 9fec d83d affc cbbb 989e 98bf
00000310: 50ae e6be f187 bdbe a03f 043f d3f2 c3bf
00000320: 5e22 603f 61c1 b3be f29a 223d 07f1 b6bb
00000330: 391f 3abd 11c0 013f ed6a df3f 4564 d3bf
00000340: 5cc7 9bbe bd44 3abf 44ba 0e3f 1361 d5be
00000350: bb03 003f 3730 26be b294 f83c 0118 ee3f
00000360: 975a b4bf 3bd5 89bf 1d0f 773f ae31 cebf
00000370: 553d 1cbf 8f9d 0c3f 80d3 0a3f de3f 80be
00000380: abb3 aabf 2dde be3e 95c2 a63e 6a0e aabd
00000390: a462 3040 4045 ddbf f91b 283f e948 84be
000003a0: 7861 efbe b7fa 11bf 31d9 093f c6c9 25bf
000003b0: dbf7 e03e bfb3 d03f de3d b5bf 6543 f33f
000003c0: 5896 d73c 61d6 5bbf 4a92 c83f e6da ff3f
000003d0: 6d07 323f c8dc 15c0 913a 873f f18e d03f
000003e0: 44d0 05bf 304a 273f e9bd 813f 5ea1 f6bf
000003f0: 7b34 803e ba9e d63e 6372 26bf 9f88 dfbf
1.224758 -0.9215868 0.08321882 -1.0643523 0.3652961 -1.1401345 0.6123674 1.0914826
0.48455244 -1.306816 -0.31767374 1.0955775 1.8394389 -1.4118412 -0.9318469 0.035844076
0.9002197 1.4570858 -0.5960764 -0.34650275 -0.38416165 -0.6601261 0.9648972 -0.888862
-0.20890841 0.12304647 0.19451812 0.019261047 0.84052473 -0.9882735 0.33803812 -0.21239796
0.3997411 -1.7763358 0.1794989 -1.331754 -1.529489 -1.2434206 0.035807535 1.1540809
0.78756756 -0.912582 -0.31885794 -0.57145894 -0.6715047 -0.68947077 -2.0443861 0.05871559
1.6457281 -1.5141749 0.77184504 1.130454 0.5181743 -1.2697295 1.3832966 -1.805039
0.2934492 -0.8673313 -0.59913623 -0.5015795 -0.59770954 -1.1852474 1.7322589 -0.114104256
1.570173 -0.17860578 0.56182474 -0.7929311 -1.0805638 0.317807 1.1723104 1.721714
1.254127 -0.6821002 0.99599224 0.16677289 -0.30183667 0.70268923 1.2760768 -2.3716218
-0.81718284 -1.9717393 -0.5630292 -0.40179878 -0.51440865 0.74827164 0.680106 -0.42264336
0.05720286 0.26202887 0.7024082 0.002048623 0.3321006 -1.7627316 1.8022144 0.43353897
-1.1051751 -0.62522864 1.245182 1.579017 2.0302544 -0.55870575 -0.5339488 -1.0828152
-1.507633 1.3400124 -1.8391306 -1.2161148 -1.4212795 -0.6755534 0.23954594 0.5491928
-2.4493513 -0.82242936 0.44165555 3.1663237 2.1856756 -2.2221968 0.12795593 -1.0159718
-0.5167946 0.037564363 1.0462601 -0.108365215 -0.6159463 1.5607486 0.09731226 -0.4178855
-0.54931307 1.3785038 -0.20084131 -1.0345792 1.0742627 0.6694209 0.2194597 -0.43488258
0.40924698 0.18774414 -0.47592267 -0.62779087 0.036155015 1.1619455 1.0149158 0.94277966
1.7420871 0.1206586 1.5881383 -1.0930842 0.5088208 0.1093391 -0.39757028 -0.21807654
2.3653452 -2.0999525 0.42120904 0.7567724 -0.71588784 -1.8456492 1.3439845 2.454178
-0.030187545 0.93314236 -1.0400562 0.21970515 -0.58975506 -0.28921804 0.16909026 -0.16531785
-0.042403396 0.009509784 1.6838189 -0.14366715 1.2087448 -2.0146801 1.5498859 1.117371
-1.1665782 0.45543963 0.13600044 -2.401814 0.10021455 -0.12605433 0.47590137 -0.02885841
-0.23209879 1.6046618 0.95258343 -0.01182332 1.8514832 1.2014172 -1.0730923 -0.14600478
-0.58305895 0.10592007 -0.0062251906 -1.1923399 -0.45054865 -0.37017778 0.51659584 -1.5308479
0.8755244 -0.35108474 0.03969855 -0.005582932 -0.045439932 0.50683695 1.7454506 -1.6514975
-0.30425537 -0.72761136 0.5575297 -0.41675624 0.5000569 -0.1622933 0.030344341 1.8601075
-1.4090146 -1.0768198 0.96507436 -1.6108911 -0.61031085 0.54927915 0.54228973 -0.25048727
-1.333608 0.37278882 0.3257033 -0.083035305 2.7560205 -1.7286758 0.6566768 -0.25836876
-0.4675405 -0.57023185 0.5384703 -0.64761007 0.439391 1.6304854 -1.4159505 1.9004942
0.026316807 -0.8587399 1.5669644 1.9988678 0.6954258 -2.3416004 1.0564748 1.6293622
-0.52270913 0.65347576 1.0136081 -1.9267995 0.2504004 0.41917974 -0.6501829 -1.7463568

self_loop_weight f4 [8, 32]
00000000: 6cd7 ae3e 28bb d13c a2f7 983f 0029 8cbf
00000010: 0f56 86bf df6e 2e3f ee44 9e3e a15b 9dbf
00000020: 3254 073f ff84 4c3e 1d22 85bd fcc4 adbd
00000030: 68b6 093f 31c0 ffbe 66bd dabe 1d49 e2bd
00000040: 11e2 c8bf be17 9cbe b844 01bf 0fc8 b7bf
00000050: d274 053f 4026 7cbf 79c0 5fbf 8c85 e8be
00000060: c219 193f 55e0 6e3f 03f8 b93e d879 163f
00000070: e18a c4bf de7b 1bbf 9ca6 7fbf 68fc ed3e
00000080: 085d 9ebf e392 30bf b928 813e 53ab f9bd
00000090: 91fa 8cbf 11a7 c1bf 63d5 08bf db25 90bf
000000a0: 1488 49be 8ff1 48bf 3eff c73e 1f67 3ebf
000000b0: 06dd 443e 4fed 60c0 d5b6 d3bf 0796 1e3e
000000c0: fdf8 02bf 3d7a 1abf d281 34bf 3c4c debd
000000d0: 62d4 57c0 a4f2 133f b4a8 f2bd bca5 62bf
000000e0: 17cf f93e 1b53 03c0 8f7a c7bf d45b 03be
000000f0: 0a46 85bf e3b4 2e3e f0c6 30be e8f1 d53e
00000100: 9d6b f6bf 0ee8 313f 48e7 b33e e164 9fbf
00000110: 4a7a 24bb 22c8 99bf 90e2 8abf 0b18 293f
00000120: 0b8f 0dbf 11af 093f be09 1ac0 598c 35bf
00000130: d445 e7bf a823 6e3f ce04 d9be 14d8 a2bf
00000140: 250f 44bf fa00 9fbf 82d1 5ebf fa1a ae3b
00000150: c32e 733e 285c 1cc0 9393 fa3e 0db0 16bf
00000160: 8072 cc3e 3877 6fbf 5a8c dd3c 000b f8be
00000170: 9b22 ccbe d6a2 fcbf 974d f1bd 7beb 12c0
00000180: 0edd b6bf 2705 43bf 010d 823f b9cd 503e
00000190: 12f6 ef3e 86e9 00be 3f00 273f 9a34 b1bf
000001a0: 96fd 76bf e409 243f 07ad 93bf 2731 00bf
000001b0: feae 6fbf 2431 c5bf 8aad 99bf a035 f1be
000001c0: efdf 59bf 5fd2 f63d cfe6 b53e 937a a7bf
000001d0: 604a 0cbf ed06 033f 35af 19bf 1e25 7b3e
000001e0: 5213 57be 523c 30bf edb6 ce3d 0667 1e40
000001f0: de99 f8bf 95bd 993e ecad 02bf b495 96bf
00000200: 68d4 78be 8b14 4fbe 733c 2540 83b2 0abf
00000210: 742b 77bf be7f 66b9 ba1d 7f3f 40a2 f0bf
00000220: ce17 15c0 3676 a93f 2479 cc3e 5bd0 64bf
00000230: b7f3 34bf 47a5 82bf f4ac 93bf dd84 e73c
00000240: 3ea8 45bf 4812 b5be 7b56 0abe 2cff 3dbf
00000250: 057d a7bf 0145 663f 5924 8f3f 1d43 f7bd
00000260: d2cf d23f 3168 96bf 8362 dc3e 5d01 363f
00000270: f43d 2dbe fbee 993f 221f debe 0f4c 1fbf
00000280: d2ff c8bf 0552 6dbe 304c 22c0 00d6 c6bc
00000290: 76b7 ad3d d38f d6bd 77da efbf 5659 9b3e
000002a0: a7ad 433f b847 f6bf b510 b6bf f556 1ebe
000002b0: 4624 25c0 8972 b43e 0eb1 26bf 7edf 83bf
000002c0: 7dfe 1bbf 6f65 a1bf b0e6 19bf b1c5 153f
000002d0: d4dd 283e aeb2 a0be b983 1ac0 9603 313e
000002e0: 0ca8 41bc 0722 72be 4961 0fbf 31bb 7dbe
000002f0: bb98 15c0 80b9 b2be 8bca 2fbf 38ec 0c3f
00000300: 35ee 06bf 072b 62bf 9714 a6bd b867 be3d
00000310: dd6c efbe f08e b1bf 8c14 5b3e 08a3 7cbf
00000320: 19f8 253f b1e7 aa3e eee8 29c0 25e5 4cbf
00000330: 0299 fb3e 4393 46be 5885 55bf 1807 6c3f
00000340: aab8 bcbe 5bdf 2bbf b244 e0be f2fd f93e
00000350: 1c44 68be 519d 1cc0 e4a8 6cbf a344 8abe
00000360: 8989 20bf 043f e7bd 8f0e 27bf 816c 1f3e
00000370: 308e 65bf 4151 14c0 b963 69be 9b3a 6ebf
00000380: d12d 8ebf 740b a2bf 5046 b83e 5f39 93bf
00000390: d326 fcbd 9102 1bbf 9edb f23d 8f95 c8bf
000003a0: 1ec6 66bf e979 9c3f cdc9 3dbf cc8d ddbf
000003b0: 3251 3e3f 5b26 3dbf d22a 83bf 434c 99bf
000003c0: 2855 babe fc51 da3d 51eb 3fbf e6ec fdbf
000003d0: c847 cdbf 5ea1 0fbf a1ff 053f 0785 2ebe
000003e0: 609a fbbf f565 fb3e e8db 68bf 77dc 583f
000003f0: b49a 80bf b653 89bf 7bb7 a4bf 9a41 46bf
0.3414873 0.025601938 1.1950572 -1.0950012 -1.0495013 0.68137926 0.30911964 -1.2293588
0.52862847 0.19972609 -0.06500647 -0.084848374 0.53793955 -0.49951318 -0.42722625 -0.110491015
-1.569399 -0.30486864 -0.5049548 -1.4357928 0.5213138 -0.98495865 -0.87403065 -0.45414388
0.5980493 0.93311054 0.3632203 0.5877967 -1.5354882 -0.6073588 -0.998636 0.46481633
-1.2372141 -0.6897413 0.2522638 -0.121908806 -1.1013967 -1.512911 -0.534506 -1.1261553
-0.19680816 -0.7849359 0.39061922 -0.743761 0.19224939 -3.5144842 -1.6540171 0.15486918
-0.51161176 -0.6034277 -0.7051059 -0.10854384 -3.3723378 0.57792115 -0.11848584 -0.8853414
0.4879081 -2.0519474 -1.5584277 -0.12827998 -1.0411999 0.1706119 -0.17263389 0.41786122
-1.9251591 0.6949471 0.3513739 -1.2452661 -0.0025097304 -1.2014201 -1.0850391 0.6605231
-0.5529639 0.53782755 -2.4068446 -0.7091728 -1.8068185 0.9302316 -0.42386478 -1.2722192
-0.7658561 -1.2422173 -0.87038434 0.0053132745 0.23748307 -2.4431248 0.48940715 -0.5886238
0.39931107 -0.9354129 0.027044464 -0.48445892 -0.39870152 -1.9737194 -0.11782377 -2.2956226
-1.428621 -0.76179737 1.0160218 0.20390977 0.46867424 -0.12589082 0.6523475 -1.3844178
-0.9648069 0.6407759 -1.1537179 -0.50075 -0.9362639 -1.5405622 -1.2006085 -0.47111225
-0.8510732 0.12051844 0.35527655 -1.3084282 -0.5480099 0.5118244 -0.6003297 0.24525878
-0.21003464 -0.6884204 0.10093484 2.475038 -1.9421957 0.30027452 -0.51046634 -1.1764436
-0.24299777 -0.2022268 2.5818145 -0.5417864 -0.9655068 -0.00021982097 0.99654734 -1.8799515
-2.329578 1.32392 0.39936173 -0.89380425 -0.7068438 -1.0206689 -1.1537156 0.028261596
-0.7720984 -0.3536551 -0.13509552 -0.74217486 -1.3085028 0.8994904 1.1182967 -0.12073348
1.6469672 -1.1750547 0.43043908 0.7109583 -0.16918164 1.2026056 -0.43383127 -0.6222543
-1.570307 -0.23175819 -2.5359 -0.024271965 0.08482258 -0.10476651 -1.8738545 0.30341595
0.7643685 -1.9240637 -1.4223849 -0.15462859 -2.580339 0.35243633 -0.65113914 -1.0302579
-0.60935193 -1.260908 -0.60117626 0.5850478 0.1649087 -0.31386322 -2.4142897 0.17286524
-0.011819851 -0.23645793 -0.5600782 -0.24778439 -2.337447 -0.3490715 -0.6866843 0.5504794
-0.52707225 -0.88346905 -0.08109396 0.092971265 -0.46762744 -1.3871746 0.21394557 -0.98686266
0.6483169 0.33379892 -2.654842 -0.80037147 0.49140173 -0.19392113 -0.8340659 0.92198324
-0.36859637 -0.6713769 -0.4380241 0.48826557 -0.22682232 -2.4471018 -0.92445207 -0.2700549
-0.6270986 -0.11291316 -0.6525659 0.15568735 -0.89670086 -2.3174593 -0.22791947 -0.93058175
-1.1107732 -1.2659745 0.35991144 -1.1501883 -0.12312093 -0.6055079 0.11858295 -1.5670642
-0.9014605 1.2224704 -0.7413605 -1.7308898 0.74342644 -0.7388665 -1.0247443 -1.1976398
-0.36393094 0.106601685 -0.7496844 -1.9837921 -1.6037531 -0.561056 0.52343184 -0.17042933
-1.9656487 0.49101225 -0.9096055 0.847114 -1.0047212 -1.0728672 -1.2868494 -0.7744385

weight f4 [8, 80]
00000000: d1a9 b0bf ecc6 733f d89b 10c0 7323 26c0
00000010: dfd9 0140 56b0 0bc0 d44c 8c3c cbd9 58c0
00000020: 6a54 1740 25ba f3bf 56be 2ac0 ce41 0ec0
00000030: 8c3e c73e 995a f83e da76 3cc0 1426 d4bf
00000040: bf4b 95bf 81fd 8c3e a8be ac3d af75 c4bf
00000050: e781 bfbd 039c 9b3e 005d 413e f104 2dbe
00000060: 3956 143e 8458 dc3d 8608 d43f 8524 2f3d
00000070: 922b 0ebf 90c5 7fbe ca42 d5be db94 e63d
00000080: cfc8 7fbf d937 aebe 03a3 4abf 6f13 803d
00000090: 16e5 f7be a250 29bf f76c c53e 56da 1a3e
000000a0: fa6b bb3d c9d3 e43b bbf2 663e 5c44 1d3f
000000b0: bca6 c4be 8d27 aebe 8a88 253e 6aaf aebf
000000c0: 2053 733f 9277 acbd 8c88 55bd 070d d6be
000000d0: 4f98 ff3e 881e c4be 7f03 47bf 69d2 6f3e
000000e0: 69a4 a2be 0ea6 6dbd 16cd 2cbf 76f9 f83e
000000f0: 304e 983f 4a0d 193f 7d07 293f fc8a ddbe
00000100: 4a66 583f 6fc5 523f 6ff3 a93e a810 e6bd
00000110: 06d7 c73f af10 2fbf 099a 1ebf 53df e83d
00000120: 640b ddbe 0a6a 353f 2f24 f53a 3670 8ebf
00000130: 4117 31bd f109 133f 35a7 9e3e 1e91 0dbf
00000140: 3543 08bf 76c2 d93e 3e0d f7bf 9748 0ac0
00000150: 3327 0cc0 205b 45c0 401f 5fbe 455f c03f
00000160: e20d 64c0 2e5f 20be 69e9 abbf 933b a0bd
00000170: 5109 3f3f 0c3f a8c0 08f6 c53d 8c0f 07be
00000180: 2571 db3f c863 273f defb a6bf 6fb4 643e
00000190: 9893 c4be affc 803e a8e1 51be 8766 573e
000001a0: 2a7d c23d 0b96 58bf d18a bb3f 2244 34bf
000001b0: d23d 9d3f 8612 3dbf 9797 2cbe df7c 063f
000001c0: f9b0 a6bf 1edf 75bf 5801 a03e be25 9d3e
000001d0: 7fac d53e cc74 963e 85a6 8a3f 9326 16be
000001e0: 0094 15be 2f40 d1be c020 633f 5dbb 9b3f
000001f0: b16c 3bbf 2784 60bf 3463 7dbe ab5d dabe
00000200: c569 04c0 904d 6ebf 3c5d 2f3f cb44 51bf
00000210: 343d 623f 58bb aa3c 30b7 b13d 4a61 283e
00000220: fb67 513e 48c7 07bd 1b30 aabf ec4f 9b3f
00000230: 688a e9be cf89 953f c5d9 5bbf acdf a93c
00000240: 5765 5b3f a31d 9d3f a9a7 b0be d8ce 853e
00000250: a8f9 1f3e 5157 93bf 4347 78be 8c34 763f
00000260: 3f13 bbbd ebc5 743f 356f 783e a65d c6bf
00000270: d1e0 b6bd 7fb2 a83e d153 853f a073 40bf
00000280: 8002 9fbf 6774 11c0 0535 2dbf 95f2 8c3e
00000290: c6d1 bebe 46b2 e9bf 467e b0b9 e1ef 9dbf
000002a0: 3b57 76bf 7b81 17c0 ce26 c6bf ec41 813f
000002b0: c1fe 81bf 2f80 35c0 fb2f 05bf 300e 333f
000002c0: be3d 7b3c 917a 7b3f 0e58 e33c f2a0 4fbd
000002d0: 3810 9f3d 4d78 01bf c46c 85be f33d a23e
000002e0: b7d2 5fbe 1922 a8be 2349 2dbf aef7 63bf
000002f0: bb24 0e3e 8d77 a43f 30f4 5a3f b7c3 863e
00000300: 7434 96be 9cb6 553f eade e6be aed4 483e
00000310: c6ca 9a3f e224 5dbf 94ea a93f 87b8 05be
00000320: b102 25bf 87e4 63bd dd3e a33e 37b8 bebe
00000330: 0d54 6ebd 8321 afbe 10c3 013f 1adf d0bf
00000340: cb4a f8bf 774e fabe 81ea 433e 675b 9fbf
00000350: ebb3 7d3f acdd b83e 66da 31bf 2957 7c3d
00000360: f7ad 6d3d ef84 a0bf f816 8b3f 91ba b03f
00000370: 572d 043f 3a41 583e 9b80 4bc0 29a5 15be
00000380: c977 1a3e 9cb2 1c3b 5c9d 3abf ad9f 953e
00000390: dbc3 86bf a25c bdbf 0be2 043f 9247 853e
000003a0: f0bb 623d e857 5e3f 7849 1a3f 5956 43bf
000003b0: 9928 df3d 4229 063e 64b7 743f 370d ddbe
000003c0: 52dd c2bf 4d4d 26bf af8a 5cbf 37fb 82bf
000003d0: 4a22 d0bf b488 8fc0 93e5 cc3f f191 b13e
000003e0: 1011 77c0 5efa b6be 751b 41bd 3b66 a53e
000003f0: b5be 8abf b202 49bf bbe0 51c0 8c95 683e
-1.3801824 0.95225406 -2.259512 -2.5959136 2.0289228 -2.1826377 0.017126478 -3.388293
2.3645272 -1.9041182 -2.6678672 -2.2227664 0.38914907 0.4850662 -2.9447541 -1.657412
-1.1663741 0.27537158 0.08434802 -1.5348414 -0.09350949 0.30392465 0.18883133 -0.16896416
0.14486016 0.107590705 1.6565101 0.042759437 -0.55535233 -0.24977708 -0.4165252 0.11258861
-0.99915785 -0.34026983 -0.79154986 0.06253707 -0.48416966 -0.6613866 0.38559696 0.15122351
0.09151454 0.0069832546 0.22553532 0.61432433 -0.38408458 -0.3401455 0.16165367 -1.3647282
0.95048714 -0.08421244 -0.052132174 -0.41806814 0.4992089 -0.38304543 -0.7773971 0.23420109
-0.3176606 -0.05801969 -0.67500436 0.48627824 1.1898861 0.597859 0.6602705 -0.432701
0.8453108 0.8233251 0.33193538 -0.11233646 1.5612495 -0.6838483 -0.6195379 0.11370721
-0.43172753 0.7086493 0.00187028 -1.1127994 -0.043235067 0.57437044 0.30986944 -0.55299556
-0.5322755 0.42531174 -1.9300916 -2.1606805 -2.1898925 -3.0836868 -0.21789265 1.5029074
-3.5633473 -0.15661308 -1.3430606 -0.07823863 0.7462359 -5.257696 0.09666067 -0.13189524
1.7143904 0.6538663 -1.3045614 0.22334455 -0.38393855 0.25192782 -0.20496237 0.21035205
0.094965294 -0.8460395 1.4651738 -0.7041646 1.2284491 -0.7385639 -0.16854702 0.5253429
-1.3022758 -0.96043575 0.31251025 0.30692858 0.41733167 0.29385984 1.0832068 -0.14663152
-0.14607239 -0.4086928 0.8872185 1.2166554 -0.73212725 -0.8770165 -0.24744874 -0.42649588
-2.0689557 -0.930871 0.6850164 -0.81745595 0.8837464 0.020841286 0.08677518 0.16443363
0.20449822 -0.033149034 -1.3295931 1.2133765 -0.45613408 1.1682681 -0.85879165 0.020736538
0.8570151 1.227467 -0.34502915 0.26134372 0.1562258 -1.1511022 -0.24245934 0.9617393
-0.0913453 0.956145 0.24261172 -1.5497329 -0.08929599 0.32948682 1.0416204 -0.7517643
-1.2422638 -2.2727296 -0.67659026 0.27528825 -0.3726942 -1.825753 -0.00033663417 -1.233883
-0.96226853 -2.3672779 -1.5480592 1.0098243 -1.015587 -2.8359487 -0.5202634 0.69943523
0.015334545 0.98233896 0.027751949 -0.0506906 0.07766765 -0.5057419 -0.26059544 0.31687889
-0.21857725 -0.32838514 -0.6768972 -0.89049804 0.13881199 1.2848984 0.8552885 0.26321194
-0.29336894 0.83481765 -0.45091945 0.19612381 1.2093132 -0.86384404 1.3274713 -0.13058673
-0.6445723 -0.055637863 0.31883898 -0.3724992 -0.058185626 -0.34205255 0.50688267 -1.6318085
-1.9397825 -0.4888799 0.19132425 -1.2449769 0.9910266 0.36106622 -0.69473875 0.06160656
0.058027234 -1.2540568 1.0866385 1.3806936 0.51631683 0.21118632 -3.1797245 -0.14613785
0.15084757 0.002391017 -0.7289636 0.29223385 -1.052852 -1.4793894 0.51907414 0.26031166
0.055355012 0.86852884 0.60268354 -0.7630363 0.10896415 0.13101676 0.9559233 -0.43174145
-1.5223792 -0.649617 -0.86149114 -1.0232915 -1.6260464 -4.4854374 1.600756 0.34681657
-3.8604164 -0.3573789 -0.047145326 0.32304558 -1.0839449 -0.7851974 -3.2793415 0.22713298

bias f4 [8]
00000000: c80f 15c0 2ded 19c0 4da8 17c0 ed86 b9bf
00000010: 278f 7bb9 a9e7 f3be 1692 febf 2b6b 65bf
-2.3290882 -2.405101 -2.3696473 -1.4494301 -0.00023990554 -0.4763768 -1.9888332 -0.8961665

weight f4 [1, 8]
00000000: 2e7b a33e 105b 21bf 17d3 ffbe 8ed5 96be
00000010: baa1 89bd b4b4 893d 9b08 e5be a938 f13b
0.31929916 -0.63029575 -0.49965736 -0.29459804 -0.067203 0.067239195 -0.44733128 0.0073614907

weight f4 [4, 32, 32]
00000000: 855c 983d 9a0a e1b5 a84a 5f00 7ffb 7536
00000010: 98b6 bf39 ca61 c43c 61e3 ea29 7e94 8d34
00000020: f9e9 d322 0937 9fa0 246f 563d 2d46 a00f
00000030: 53cf 9eb9 dd42 32bc 05eb 6d3a 7d4a 26be
00000040: ca62 fc09 c2cd 302c 58d0 88a2 9aaf 3c23
00000050: ce4f 083d be8c 113d 8b98 313c 4b41 08a5
00000060: 027a 563d b076 473d ec21 bf2d 6961 003d
00000070: 99aa fbbd 71ef 663e 2881 2b3c c673 b32e
00000080: dd5a 353c d75f 6bb7 09ce f6a5 fa50 6abc
00000090: 5317 1fbe 00a9 a5be 40e5 d1b9 f792 f431
000000a0: aa8b 2ebb 1dd0 b79e 3266 9c36 31b4 e323
000000b0: c514 a23a 337d 41be 220e 29be 435f 4cbb
000000c0: 47d8 523e 87ff adbb 94b6 e4bc 15a9 69b7
000000d0: c16a 18bd c499 04be 125a cfbb d01a d5aa
000000e0: 52d9 adbd a143 d937 6a03 cebd 9480 88be
000000f0: 4604 933e 79cd 1f3f fb2a 13bc 2a08 ecb9
00000100: 4f5c 293e ceee a8be ea1c 12a7 54b9 7dbe
00000110: 18ea da3c 333c 093e fe05 b83d 0db9 b53d
00000120: 1a94 0c3e c4ae aba4 00f9 dfbb 8321 ee3a
00000130: c24c 9b3d 8f11 09bf 4463 c1bd 56af 17bf
00000140: e291 a73e c4cd 03bd 0a3f 86bc 2161 bcbb
00000150: c133 4cbe 5cdf 2dbe 372b f7be 2d64 0c31
00000160: d764 1dbe d625 683d 22e3 d4bd 21e6 a03d
00000170: ee10 3cbe 7a80 d83e c984 58bd a5de d836
00000180: 1d86 493a 800b 1537 54d1 641e a44a 7fba
00000190: 6295 f1b6 006d 05bd a2af ad39 1dc7 4135
000001a0: 3b37 912c c6fe 2da2 d07a 4e36 0310 9cad
000001b0: 6d37 123d 0522 9dbd ee60 1ab8 5f95 812c
000001c0: b2ae 05b6 faf4 0837 dbac 8fb4 e255 992f
000001d0: 45d2 ae2b f94d 81b8 fc3f deb9 f029 852d
000001e0: 6cd8 8cbc 58a5 0f26 acba a539 cf65 1bbc
000001f0: db7f 3e3b 8421 29bd 2dab 9eba d3d8 83b9
00000200: a68e 3d3d 86d3 753c 95b5 be26 9e6f 1f3d
00000210: 382b a2b8 200d 623c 0ef3 8e25 2678 a33a
00000220: 3b45 d52b bd1d 178d 95e0 f636 c684 2b9f
00000230: c5c5 a73c 99df 38b8 c35f 3635 8f07 c8bd
00000240: c160 1e3b 3203 393a 06ac 82ba c0ae f13b
00000250: acfc 8737 076b ab3d 898f b5bb 5ab5 da2a
00000260: 0571 3bba e052 3235 6f3e 0c3e e80f 1dbb
00000270: b82f c739 86ad 3a3d ac04 4622 5fb7 2d3c
00000280: 91ff 44ba 5efb 8d3c 46dc 0080 6472 3fbe
00000290: 11ec 493c 7ec4 fabd 4c26 8436 d60b f7ac
000002a0: face 7a21 12d4 1795 075b 12ad 8f10 d92a
000002b0: 04ac 5437 2beb e5bc 1a76 2339 f3c9 e6bc
000002c0: b714 763d ee3a 46ac ff1e f2ba 7e81 9434
000002d0: 7c93 d337 ed04 34bd 1a98 31b6 ac1c 7bab
000002e0: 5923 d43b 55da dc36 3e2b e535 3e5b c13c
000002f0: e262 4a3e 2b76 2abe ed99 eeba 664e 88be
00000300: f014 62aa 0dc5 bc2d 0a1e 369d e9df 08b8
00000310: 3d40 85ba 3670 02bd 2275 3224 2573 83a9
00000320: d494 412e 6de2 6b16 d9fe b936 fefb 0025
00000330: dc25 382b fd76 963a d7e6 0dbb 2977 97a3
00000340: b0c2 1e98 7ccd 28ac 304e bb2c 4392 d72d
00000350: ce69 d825 6810 0fbc 2a69 a9b3 bf61 632d
00000360: 15d3 8ebd 48b0 272b bd87 d4a5 5075 2cbd
00000370: 1ef7 143c d280 7a3d 2044 8bbc e1f3 10ae
00000380: e8b8 d13d 0132 55b5 473d 8fa7 f59c 6abc
00000390: f487 8b38 8582 bcbd 8f16 41b8 b055 6fb2
000003a0: 4d31 0da9 a876 5c9e b659 be38 40ce 9820
000003b0: 5542 f5bd 4f60 183e 5ab4 17b5 0f17 b53b
000003c0: 3784 2abb 036a 0736 45e6 4536 002e 10b3
000003d0: 6371 6d39 ff0a e43b 1a10 a8b8 c796 b5ad
000003e0: 1e7b 40b6 2e6a 6338 e59a 403e 89d1 6abd
000003f0: b46a 153c 3a57 893e bd44 4c2d ec42 7dbd
0.07439522 -1.6766892e-06 8.751154e-39 3.6654235e-06 0.00036566402 0.02397241 1.04311315e-13 2.637134e-07
5.7439393e-18 -2.6972067e-19 0.052352086 1.5804249e-29 -0.00030290577 -0.010880199 0.0009075853 -0.16239353
6.0759694e-33 2.5125323e-12 -3.7083466e-18 1.02286855e-17 0.033279233 0.035534613 0.010839592 -1.1818242e-16
0.05236245 0.048697174 2.172925e-11 0.031342898 -0.12288398 0.22552277 0.010467805 8.160543e-11
0.011069027 -1.4029406e-05 -4.2813812e-16 -0.014301533 -0.15536241 -0.323555 -0.0004003439 7.1180426e-09
-0.002663354 -1.9461952e-20 4.6610594e-06 2.4687703e-17 0.0012365809 -0.18895416 -0.16509297 -0.003118471
0.20590316 -0.0053100022 -0.027919091 -1.392725e-05 -0.037211183 -0.12949282 -0.006327876 -3.7855006e-13
-0.08488716 2.5899908e-05 -0.10059245 -0.26660597 0.28714198 0.624229 -0.008982415 -0.0004501951
0.16539119 -0.32994694 -2.0277245e-15 -0.24777728 0.026722953 0.1340187 0.08985518 0.08873186
0.13728371 -7.445549e-17 -0.006835103 0.0018167946 0.07583 -0.5354242 -0.094427615 -0.59251916
0.32728487 -0.032178655 -0.016387481 -0.0057488834 -0.19941618 -0.16979736 -0.48275158 2.0429625e-09
-0.15370499 0.05667671 -0.10394885 0.078563936 -0.18365833 0.4228552 -0.05286101 6.463221e-06
0.0007687526 8.88377e-06 1.21135075e-20 -0.00097386003 -7.19975e-06 -0.032574654 0.00033127988 7.218785e-07
4.1272797e-12 -2.3580748e-18 3.0767878e-06 -1.7742257e-11 0.03569739 -0.07672504 -3.6806734e-05 3.682984e-12
-1.992023e-06 8.16327e-06 -2.6761595e-07 2.789156e-10 1.2421805e-12 -6.165723e-05 -0.00042390812 1.5138973e-11
-0.017193042 4.9837174e-16 0.00031610334 -0.009484722 0.0029067907 -0.04129173 -0.0012105458 -0.00025147814
0.04627862 0.015004044 1.3233116e-15 0.038924806 -7.732812e-05 0.013797075 2.4797774e-16 0.001247172
1.5153776e-12 -4.6566264e-31 7.357516e-06 -3.6320486e-20 0.020480046 -4.407726e-05 6.7939635e-07 -0.09767067
0.0024166557 0.0007057666 -0.000996948 0.007375568 1.6210914e-05 0.08370023 -0.0055407924 3.8850417e-13
-0.0007150325 6.6430766e-07 0.13695692 -0.002396578 0.0003799179 0.04557564 2.6836477e-18 0.010602801
-0.0007514889 0.017331775 -7.9019e-41 -0.1869598 0.012324349 -0.12244509 3.938365e-06 -7.0214763e-12
8.4977226e-19 -3.06615e-26 -8.319351e-12 3.8558433e-13 1.2676235e-05 -0.028066238 0.00015588888 -0.028172469
0.06007835 -2.8170205e-12 -0.0018472372 2.7661366e-07 2.5221838e-05 -0.04395001 -2.646359e-06 -8.9212904e-13
0.0064739403 6.581928e-06 1.7074415e-06 0.023603078 0.19764283 -0.1664664 -0.0018203832 -0.26622313
-2.0080096e-13 2.1460634e-11 -2.410303e-21 -3.263346e-05 -0.0010166239 -0.031845294 3.8696813e-17 -5.837543e-14
4.4015305e-11 1.9054596e-25 5.543098e-06 1.1187609e-16 6.542247e-13 0.0011479553 -0.0021652484 -1.6421919e-17
-2.0519313e-24 -2.3988303e-12 5.3235402e-12 2.4507623e-11 3.7541723e-16 -0.008731939 -7.888805e-08 1.292516e-11
-0.069738545 5.957496e-13 -3.6868118e-16 -0.042104065 0.00909212 0.06115801 -0.017000258 -3.2958417e-11
0.10240346 -7.942145e-07 -3.975691e-15 -0.014319648 6.65336e-05 -0.09204582 -4.6035795e-05 -1.3931114e-08
-3.135105e-14 -1.16712406e-20 9.076616e-05 2.5886286e-19 -0.119755425 0.14880489 -5.651433e-07 0.0055264304
-0.0026018748 2.0178275e-06 2.9489322e-06 -3.356945e-08 0.00022644321 0.0069593186 -8.0138634e-05 -2.0644276e-11
-2.8681893e-06 5.4219905e-05 0.18809088 -0.057328735 0.009119678 0.2682436 1.161132e-11 -0.0618314

w_comp f4 [183, 4]
00000000: 9cfe 949a 6541 2f9a e0c4 0d1b cee6 3025
00000010: 7472 3435 c9d8 0835 d5d2 f633 5e97 8834
00000020: 776f 04ba 312b 05ba 9d63 5aba 5602 87ba
00000030: 27e5 66bc 61b0 30bc 8289 fcbb 3aee cdba
00000040: 5ccb 963e 422b 863e a59b 833e 8a4b 883e
00000050: 514d 493e a1ff 5a3e b5bb b3bc 1b47 5a3e
00000060: 8f8b 0080 d100 1a30 48dd 2a2f 2b12 0100
00000070: a0d3 46bd 5e63 69bd 753d ce3d 347d db3d
00000080: c3d0 a434 b260 d534 a4d5 cf36 86b3 3db9
00000090: 8631 113e 4013 473e b641 2f3d 71bc 903e
000000a0: 3f0f 953e 9962 943e 9b30 973e 1f08 953e
000000b0: ef92 ec3c e06e a93d b122 69bc 203a c0bb
000000c0: 44de bc3a 0ac5 e9b9 27ed 9d39 dd35 003b
000000d0: ff90 13ba 37df e1b9 decd b035 cd58 27b6
000000e0: c9a4 5f2f b27b 0e2f 3136 cbae 8128 61ae
000000f0: 43ad 81be 6a13 48be f2b4 b6be a1a0 75be
00000100: a213 0100 ebb4 0080 3570 0080 1f25 0000
00000110: c095 0935 dcb0 0435 ba9d 62b2 c24f 69b6
00000120: d234 58ba 8491 12bd bc75 093e 85c6 7a3b
00000130: 9486 e53d 4efa f93d 99f4 1d3d 1895 383d
00000140: eb79 013e 31a4 bc3e 7075 a33e 72e6 d3bd
00000150: 8831 8ebe df37 9dbe 15a7 f6bd 1c0e c2be
00000160: 1108 0000 3a02 b1b2 ae5e 362a dc17 4f32
00000170: 3c95 853d 43e7 8b3d b576 a83d 677e 803d
00000180: 2e16 57b3 ade9 00b8 f20b 4dba 75ba 9eb8
00000190: b1af b534 fa47 c2b4 f462 1d34 7bf5 1d34
000001a0: 687c e02f 9125 5134 7871 3d27 c359 babb
000001b0: 523c 81b8 762d a7b8 35de 43ba e1a4 b136
000001c0: bf62 0c89 6655 de08 f0f4 6b08 0020 4387
000001d0: ef2a 43be ca3f 47be aa4d dfbd 5cb6 0cbe
000001e0: c892 5521 9aca ce21 54b6 d1a1 ecb3 0aa1
000001f0: 55b3 08b5 b131 0080 1eba 0000 d357 d731
00000200: 5cc2 22b3 64a6 a7b3 48f1 1c35 5c6d 2e34
00000210: 402c 0100 e8e5 dd38 d685 0100 4cda 0080
00000220: ecda ab3a 736f 633a d8fd a6b6 09f2 273b
00000230: 1629 023c 8025 33ba 0a62 463c 09ca d63d
00000240: f407 d02e a551 a4b1 3870 afb1 b06c c8b1
00000250: f05b 032d 6a9d dfad 42ee 052d c289 1c2e
00000260: 99f1 623d cfe0 7b3d 40bf e3bc e987 cd3d
00000270: 0040 6d94 aec3 8a14 d020 4c93 489b 5594
00000280: dbe3 cd28 38ca 8128 4eec 5926 1f9f 6031
00000290: 983b 7da1 c760 aba1 d91e 8921 62d3 3c26
000002a0: 3068 fa3e fc81 fd3e 4ad9 153f eb42 843e
000002b0: b73f d1ae 01af 32ae 9fa6 c9ae c747 43af
000002c0: e45c abad 9bb3 8c2f b3e8 5d2e ed8a 94ac
000002d0: 09ac 0080 702a 7835 2753 1238 504d 93ae
000002e0: 207a e43a e3d1 4f3b 82d7 3c3d 2ac7 893d
000002f0: 7fa1 94bd 4f88 abbd 1bf8 0cba 70f3 87bd
00000300: 8650 e826 3b40 29a7 141e 22a7 7e42 2127
00000310: ad02 edbe 26df 76be ce61 8cbe 2fd3 51be
00000320: d404 2d2c 3e83 10af 909b 6634 66ef e4b7
00000330: 64ec b62a 6ea1 2d36 58a5 f929 719a cab0
00000340: b729 8ab9 6b0e 8c38 9d40 ba39 cabe 3fb4
00000350: 93de 86bb 9d50 94bb 5997 babb 6574 b4bb
00000360: 2181 2a3a 0b3f 81bc 8a78 90bd 3f2d 673e
00000370: b404 d93e 57d8 ce3e 68f7 073e 0e50 f93d
00000380: c4be 113e 50dc ed3d d43e 7dbd f8d8 8b3e
00000390: 4b09 78ab d4e3 73ab 75c6 0eab 1e67 50ab
000003a0: d7d8 0000 ce04 0080 c784 0080 de54 0000
000003b0: dcbf 0080 8ea7 0100 7a64 0080 720f 0180
000003c0: d66d 92a5 8815 6124 dd5e ae25 d3c0 4325
000003d0: 4271 0080 5822 0180 4897 4e0d 364b 04b1
000003e0: 2ca6 0d3e 7bac 493e 8ec2 5f3e 899b de3e
000003f0: 6557 d0bd d5d7 f0bc 3a72 2fbc 8d3e 15be
-6.162271e-23 -3.6241977e-23 1.172686e-22 1.5343766e-16 6.7221777e-07 5.097941e-07 1.1493618e-07 2.5442108e-07
-0.000505201 -0.00050799834 -0.00083308836 -0.0010300379 -0.01409272 -0.0107842395 -0.007706822 -0.0015711256
0.29452026 0.26204878 0.25704685 0.26620132 0.196584 0.21386577 -0.021940092 0.21316187
-5.0064e-41 5.6026034e-10 1.5540025e-10 9.8353e-41 -0.048541665 -0.05697953 0.10070316 0.1071724
3.0699275e-07 3.9744697e-07 6.193952e-06 -0.00018091322 0.14179048 0.19440937 0.042787276 0.2826877
0.29113194 0.28981474 0.2952927 0.29107758 0.028878657 0.08273101 -0.0142294625 -0.005866304
0.0014409502 -0.0004458803 0.00030122066 0.0019563355 -0.0005629211 -0.00043081652 1.3172937e-06 -2.4936628e-06
2.0340275e-10 1.295877e-10 -9.2409976e-11 -5.119505e-11 -0.253275 -0.19538656 -0.35684925 -0.23987056
9.8878e-41 -6.4901e-41 -4.0252e-41 1.3317e-41 5.125439e-07 4.9431196e-07 -1.3190794e-08 -3.476613e-06
-0.0008247617 -0.035783306 0.13423818 0.00382653 0.11207309 0.12205945 0.038563345 0.045064062
0.12644164 0.36844018 0.31925535 -0.10346688 -0.27772164 -0.3070669 -0.12043587 -0.3790139
2.894e-42 -2.0606524e-08 1.6197696e-13 1.2054411e-08 0.06522605 0.06831219 0.082257666 0.06274109
-5.007876e-08 -3.0735206e-05 -0.00078219094 -7.5687574e-05 3.384171e-07 -3.6187686e-07 1.4657763e-07 1.471107e-07
4.0833759e-10 1.9478308e-07 2.629053e-15 -0.00568697 -6.162435e-05 -7.971648e-05 -0.0007471771 5.2942055e-06
-1.6898317e-33 1.3381216e-33 7.1005663e-34 -1.4679573e-34 -0.19059347 -0.19457927 -0.10903485 -0.1374144
7.236147e-19 1.4012731e-18 -1.4210653e-18 -4.6994343e-19 -5.092491e-07 -1.7826e-41 6.6766e-41 6.267308e-09
-3.7895333e-08 -7.80681e-08 5.846564e-07 1.6244798e-07 1.0771e-40 0.000105809246 1.39847e-40 -7.831e-41
0.0013111508 0.000867597 -4.976737e-06 0.0025626442 0.007944366 -0.0006833896 0.012108335 0.10487754
9.460158e-11 -4.78231e-09 -5.105928e-09 -5.8331224e-09 7.466902e-12 -2.542207e-11 7.613079e-12 3.5592647e-11
0.055406187 0.06149369 -0.027801156 0.100356884 -1.1978064e-26 1.4011621e-26 -2.5764598e-27 -1.0784376e-26
2.2858389e-14 1.4409575e-14 7.560725e-16 3.268674e-09 -8.5798606e-19 -1.1613027e-18 9.291646e-19 6.551208e-16
0.48907614 0.49513233 0.5853468 0.25832304 -9.515538e-11 -4.062795e-11 -9.1700196e-11 -1.7760647e-10
-1.9481701e-11 2.559347e-10 5.045626e-11 -4.221837e-12 -6.1715e-41 9.2448954e-07 3.4886554e-05 -6.6985195e-11
0.0017431416 0.0031710796 0.04610396 0.06727441 -0.072573654 -0.08375608 -0.0005377547 -0.06638229
1.612006e-15 -2.348828e-15 -2.2498322e-15 2.2379284e-15 -0.46291104 -0.24108562 -0.2741837 -0.20490716
2.4587459e-12 -1.314335e-10 2.1477013e-07 -2.7291197e-05 3.2493723e-13 2.5872973e-06 1.1086504e-13 -1.4741329e-09
-0.0002635249 6.678406e-05 0.00035524825 -1.785767e-07 -0.0041158884 -0.0045262114 -0.0056943116 -0.0055070394
0.0006504227 -0.015777132 -0.07054241 0.22575854 0.423864 0.4039943 0.13277972 0.12173472
0.14232928 0.11614287 -0.061827496 0.27313972 -8.8120196e-13 -8.664712e-13 -5.072395e-13 -7.403955e-13
7.7787e-41 -1.724e-42 -4.7632e-41 3.0445e-41 -6.8826e-41 1.51943e-40 -3.6044e-41 -9.7376e-41
-2.540139e-16 4.8807335e-17 3.024847e-16 1.6978885e-16 -4.0629e-41 -1.04156e-40 6.366075e-31 -1.925128e-09
0.13832921 0.19694702 0.2185156 0.4347804 -0.10172919 -0.029399792 -0.010708386 -0.14574642

self_loop_weight f4 [32, 32]
00000000: 6450 0d3f acd8 bf3e ff13 eebe 64d8 49bf
00000010: 7c77 cabe 68b7 643f e9c1 973f 8326 60bf
00000020: 2ea9 07bf fb8a 08be 79ee 1ebe 465b ccbb
00000030: 170b 28bf 95a8 1dbe 6648 9fbe 4787 8f3e
00000040: 5554 dfbe f7a6 0dbf c64c 9abe 9135 78be
00000050: 4ab4 75be 9f2f 523e 0380 04bf c3f2 a1be
00000060: 812e eebe 6819 31be 4a0b 00bf 9793 12bf
00000070: 0213 22be 8a06 4b3d 39c7 c5be 18a6 973d
00000080: 68c0 17bb 2b0d 2d3e 2c1c 81be a93f 233e
00000090: 0949 393c 3c08 42bf eccc 28be 1dd7 0abf
000000a0: 905b 64bf c595 6abe c885 c8be 1541 c0be
000000b0: 0cfc eebc 932c 81bf 9321 70bf 94a4 213f
000000c0: 5ac7 03be 0584 c3bf 5e81 563d efd4 37be
000000d0: 8e44 01bf 6964 21bf 7163 febe 7ba2 ebbe
000000e0: 0593 dfbe 57c4 52bc 0524 61be 1cdb 81be
000000f0: 02a2 4dbf dd25 a5bf 914d 2abf 8453 763e
00000100: 9635 0ebf 9854 20bf 8d0b 02be 3c65 5dbd
00000110: 61aa 21bf 2fbe 96bf 08cc 293f 5c66 e6bf
00000120: 28b1 48bf 381f fbbe a31e c9be 1513 58be
00000130: bab3 94bf 4deb a8bf 5d9d 2fbf 6c77 ddbe
00000140: 0ee5 7abe f1fe 4fbe 43b6 28bf 1910 b6bf
00000150: d42f 9cbf f2de 75bf bfbd 393f 0765 35bf
00000160: ad67 25bf 15a5 98be c432 a6be 5fd3 fbbf
00000170: a45c 9fbf 1cfb 333e ca7c 01bf 2b99 37bf
00000180: bd2d b9be 6bf0 553e d6ef a8bc d8c1 ddbe
00000190: 5d77 b4bd 4a67 a73e 2a90 abbf 99fb 64bf
000001a0: 050d f2be 648a b0be a7a5 c4bd cdc0 13be
000001b0: 4a74 afbf 7391 2dbf 5643 8e3e 1ef7 43bf
000001c0: 1c4d eebe 9d80 11bf e0ea d03e 8a44 6fbf
000001d0: 9a76 37be 7fb4 8fbe 5170 abbf 9dcf 56be
000001e0: 698c 3abe 68d5 39bd 7735 9abf d7a4 6fbe
000001f0: 0001 bbbe 12a2 90bf a0e5 cc3d 7d5d 01bf
00000200: 7a9d 2f3f 2129 19bf e76a d5bc 7981 8c3d
00000210: db02 19bf 6e52 91bd 9021 2a3f 53f1 9d3f
00000220: b232 95bf ead6 063e cf58 37be 5b13 a3bd
00000230: 4c3c aebf 6b3f 16be 5832 25be 90fa 4f3e
00000240: f89d b4be 26c7 603f ab6c 923d f735 273f
00000250: 4fea c9bd dd3a 433e 4799 0bbf 240a d9be
00000260: 9e0e 89be 8f2e 41be 3632 96be 8ab3 28bf
00000270: ba65 6a3f 3264 c43e 6434 26be f1dd 42bf
00000280: 668a d13e 51a1 9bbe 6b2a 52be 81f6 11bf
00000290: 85b4 99be 897d a33e b4fa 36be 32f3 61bf
000002a0: 8518 e2be 91b7 51bd dc21 45be dbcf a6bc
000002b0: 7434 9a3f c172 33bf a1bb 14be 4041 3dbf
000002c0: 9256 f9bb bc4b 863d 9240 3dbe 93f3 7dbe
000002d0: 1fcf 2dbf 1a37 9cba 598b 5bbf d43c 4dbe
000002e0: ef45 493d c176 a4b8 384a a5be 448f 213f
000002f0: 2c90 d5bd d4a5 8ebc ac1e 07bf 868b e4bf
00000300: d79a f43e aee8 a9be 4504 30be 013c a7be
00000310: 293c b3bd 9bdf 133f 8683 223f c5c7 a1bd
00000320: 91f4 953e 0e59 c638 06b9 4b3e 8b4e 59bd
00000330: 126f 86bc 84a4 33be e029 a4be dfcb 20bf
00000340: 0798 27be 5af3 e43e ce2e b13e c9ef 643b
00000350: 4f35 2fbf 47c2 a4bb b671 8f3f 8b4b 26bf
00000360: d345 76be 20e8 683c d116 103f b2c8 d63e
00000370: c5fe 1c3e e2c3 4abf 0bf0 28be 815f f4be
00000380: 2b4c 98bf 8e18 07bd ceea 0abd 2a48 223f
00000390: c68f 19bf 1f4e 81bf 00e1 373f 9630 2cbf
000003a0: ceb5 dabe 9b29 fbbd 7e89 1abf 1848 f5be
000003b0: 3e73 0ebf e07b a8bf 3df3 d3be 6bd8 40bf
000003c0: 99e2 943d a311 3ebf b877 32bd 4a39 063f
000003d0: fd5e 283f 5972 d0be 43c7 c6bf c9d5 3abe
000003e0: a0c2 72bd 84a1 e0bc 8c26 6abf b1d5 a2be
000003f0: 9cee e8be fec3 51be 97e5 4bbe d847 a6be
0.5520079 0.37469995 -0.4649963 -0.7884581 -0.39544284 0.89342356 1.1856052 -0.87558764
-0.5299252 -0.13334267 -0.15520658 -0.0062364666 -0.6564192 -0.1539634 -0.31109923 0.28032896
-0.43619028 -0.55332893 -0.30136698 -0.24239184 -0.23994556 0.20525979 -0.5175783 -0.31630525
-0.46519855 -0.17294848 -0.50017226 -0.57256454 -0.15827563 0.049566783 -0.38628557 0.07404727
-0.0023155455 0.16899554 -0.25216806 0.15942253 0.011308917 -0.75793815 -0.16484421 -0.54234487
-0.89202213 -0.22908695 -0.39164567 -0.37549654 -0.02917292 -1.0091728 -0.9380123 0.6314175
-0.12869015 -1.5274664 0.052369468 -0.17952321 -0.5049523 -0.6304384 -0.49685243 -0.460224
-0.43666855 -0.012864194 -0.21986397 -0.2536248 -0.8032533 -1.290218 -0.66524607 0.24055296
-0.55550516 -0.6262908 -0.12699719 -0.054051623 -0.631506 -1.177679 0.6632695 -1.7999988
-0.7839532 -0.49047256 -0.39281186 -0.21101029 -1.1617348 -1.3196808 -0.6859949 -0.43255174
-0.2450144 -0.20312096 -0.6590311 -1.4223663 -1.2202096 -0.9604331 0.72555155 -0.7085728
-0.6461132 -0.29813448 -0.32460606 -1.967388 -1.2450147 0.1757626 -0.5058104 -0.7171809
-0.36167708 0.20892493 -0.020622175 -0.43311954 -0.08811829 0.3269599 -1.340337 -0.8944641
-0.47275558 -0.34480584 -0.09601908 -0.14429016 -1.3707364 -0.6780006 0.27785748 -0.76548946
-0.46543205 -0.56836873 0.40804195 -0.9346396 -0.17916337 -0.28067395 -1.3393651 -0.20977636
-0.18217625 -0.045369536 -1.2047566 -0.23402725 -0.365242 -1.129946 0.10004735 -0.50533277
0.68599665 -0.5982838 -0.026051952 0.068606324 -0.5976998 -0.070958 0.6645746 1.2339271
-1.1656096 0.1316792 -0.17904972 -0.07962676 -1.3612151 -0.1467263 -0.16132486 0.20310426
-0.3527677 0.87803876 0.07149633 0.6531672 -0.09859144 0.19065423 -0.5453076 -0.4239055
-0.26768965 -0.18865417 -0.29335183 -0.65898955 0.9156147 0.38357693 -0.16230923 -0.76119906
0.40925902 -0.30396512 -0.20523994 -0.5701676 -0.30020538 0.31931713 -0.17869073 -0.8826171
-0.44159332 -0.051200453 -0.19251198 -0.020362785 1.2047257 -0.70096976 -0.145247 -0.7392769
-0.007609197 0.06557414 -0.18481663 -0.24799947 -0.67894167 -0.0011918277 -0.857595 -0.20042735
0.04913896 -7.842249e-05 -0.32283187 0.6310923 -0.10427889 -0.017413057 -0.52781177 -1.7855079
0.47774383 -0.33185333 -0.17189129 -0.32662967 -0.08751709 0.5776307 0.6348194 -0.07899431
0.29288152 9.4579635e-05 0.198948 -0.05305342 -0.016410384 -0.17543226 -0.32063198 -0.6281108
-0.16366588 0.44716913 0.34606022 0.0034932962 -0.6844072 -0.0050280425 1.1206577 -0.6495902
-0.24050073 0.014215499 0.56284815 0.41949993 0.15331562 -0.79205143 -0.16497819 -0.47729114
-1.1898245 -0.0329824 -0.033915333 0.63391364 -0.59985006 -1.0101966 0.718277 -0.67261636
-0.4271683 -0.12263795 -0.60366046 -0.47906566 -0.55644596 -1.3162804 -0.41396514 -0.7533023
0.072697826 -0.7424566 -0.043571204 0.52431166 0.6576994 -0.4071224 -1.552956 -0.18245615
-0.05926764 -0.027420767 -0.9146507 -0.3180366 -0.45494545 -0.20484921 -0.199118 -0.32476687
