experiments/grail_fb_v3_ind/graph_classifier_chk.pth (torch, 167438 bytes, 21 tensors)

weight f4 [183, 32]
00000000: 295b 023f 4a9e 403d 310a 51be 8285 c93e
00000010: c16d 543d ae49 6fbc 01e6 bebc 1e60 f23e
00000020: a153 153e 74db dfbe 201f cebc ef1a 2cbe
00000030: 5382 5f3e 80bd 063d 379e 8a3b 18e5 553e
00000040: 9297 01bc 059e 743e d528 db3e 68ab 2e3f
00000050: 3a35 733d 6df0 843d e025 ef3e 4c12 9dbe
00000060: a046 a7bd dc51 f7bd a8b5 773e dca1 c63d
00000070: dfd9 13be 4345 36be 0578 8c3e 343d 953e
00000080: d595 683f 41fe 1a3f 74f5 bcbe bf33 9e3e
00000090: 6c2e b03e c6aa 8fbe e8fa 2dbf f05b 1e3f
000000a0: ed4d 88bd 8bd1 21bf d3db 89bf 228a 1bbf
000000b0: d031 7b3f f83b 0f3f a37e 8b3f 90ba 183d
000000c0: 6b5e d0bd e7bf 1a3f c0b1 403e 05d8 bfbe
000000d0: 75e1 a53f 83ed 22bd 91db 5c3e 08a9 063e
000000e0: b425 32bf 090c d9be 52a5 f63e 47ef 30be
000000f0: b745 f0bd 6e4d 64bd 6300 4f3f 799c c7be
00000100: 1e98 cf3f 2123 073e fe95 abbf f5e4 7d3f
00000110: f8b9 1dbf d046 adbb e3b7 1e3f 1fd4 8cbd
00000120: 6379 a23c 4919 2bbe 0e59 dd3f 9299 8cbe
00000130: da55 90bd 0591 89bf 64b6 12be c696 a03e
00000140: 6a31 92bf 4112 b5bf 9eb6 813f 5977 df3d
00000150: 4a1e 30bf 14a4 a23f fe1e dd3e 5cbf 14bf
00000160: d189 773e 6c71 53be b56c 253f eacb ac3f
00000170: 565c efbe 4e67 8cbe a208 98be 0eda 873f
00000180: 2854 e93e a834 f6be 5ab3 20bf 5f39 8e3f
00000190: c3dd 02bf d7dc 4d3e 05d3 303f 1409 e63e
000001a0: 2257 c83e cdd6 13bc cb1c db3e 4c8a 133f
000001b0: 3d4a dabe 97d4 49bf 6988 71bf ece7 3bbd
000001c0: 0b57 463e 5598 1cbf 598e 8e3f 24de d33e
000001d0: 71e7 a2bf 9e57 ba3f 34a0 0cbf 1dfd 5ebf
000001e0: 7f97 d43e 0071 a5bc 3853 2cbe 60b8 293f
000001f0: 10b6 bb3e 4132 3b3e 1c2c 17bf 301c 1940
00000200: 5582 22bf 4d92 f43e 9f59 343e 643d 383f
00000210: 0fee b2bd 80ad d33d 9609 5a3d 6f4f d4be
00000220: ed2b 87bd f9c3 2dbd 47ca 86bf 47d8 e93e
00000230: 7a78 febd d09e e43e 4dbe 3d3f 7698 a03e
00000240: a7aa 883e 445d 453f 4073 18bf 96e9 57bb
00000250: 5869 243f b6e4 14bf 47fb c0be 5e68 583f
00000260: 918c f7be 5200 e0be e3df de3d c35d 87be
00000270: 6bf6 66be de32 c2be fa0e a23e 19a9 a0be
00000280: 7fdf 68bf 065c 973e ead4 153f 7d09 aabd
00000290: 13d5 5d3c 6e81 a93b 225d 3dbf bd5d 36bf
000002a0: e0cd abbe 7dd1 223f 32e8 a0bf f3b3 e0bd
000002b0: 542c 043e 6d7a 293f 2c22 5e3f 8243 6c3d
000002c0: 1193 1e3f 6ad9 673f 48dd 58bf 6022 99bf
000002d0: 4829 0c3f c494 63be 9adf 53bf 5aed ba3e
000002e0: 530b e5ba f46c 12bf 4ef2 b8be 883e febe
000002f0: 9d23 d13e 157d f4be 752c 90be db0a 04bf
00000300: de0c 0100 fb8c 0080 9807 0080 11a5 0080
00000310: 963e 0000 407f 0080 1c81 0080 4162 0000
00000320: 6824 0080 cb3d 0100 7174 0000 8e0e 0000
00000330: 0936 0180 0486 0000 8207 0180 6bcc 0000
00000340: c655 0100 86e7 0000 5131 0080 cf2d 0000
00000350: 93b6 0080 5183 0080 b89d 0000 e344 0080
00000360: f48b 0100 423c 0080 af9b 0180 9912 0000
00000370: 6cf9 0000 f04f 0080 1051 0000 f55d 0080
00000380: c15c 44bf c8e8 2cbf fc2a 1e3e 61ce 2d3d
00000390: 4bf8 5c3e 2ab2 503d dc10 aa3e 1bb3 2ebf
000003a0: 1ab3 44be 5988 203f 3eed 76bf c969 a23f
000003b0: a4cf b3bf f5cc f13e 6eca 27bf 1d77 1cbe
000003c0: e7ba db3e b676 033f 6dc8 893f bb0a 10bf
000003d0: f260 42be 9330 453f 4377 3dbf 6e94 903f
000003e0: 9329 4f3f 73e1 39bd 0040 0cbe 3198 1dbe
000003f0: dc76 2fbf 3501 3b3e c9a3 593f 00ea e43e
0.5092035 0.047025956 -0.20414044 0.3935967 0.051862482 -0.014604969 -0.023303034 0.47338957
0.14582683 -0.43722117 -0.025161326 -0.1680715 0.21827058 0.032895565 0.0042302865 0.20888174
-0.007909672 0.23888405 0.4280459 0.68230295 0.059376933 0.0649117 0.46708584 -0.30678022
-0.081677675 -0.1207616 0.2419039 0.09698841 -0.1443858 -0.17799859 0.27435318 0.29148257
0.90853626 0.6054421 -0.36906016 0.30898854 0.34410417 -0.28059977 -0.6796098 0.61859035
-0.06655488 -0.6321036 -1.077021 -0.6075765 0.9812288 0.5595088 1.0898021 0.037287295
-0.10174259 0.6044907 0.18817806 -0.37469497 1.2959429 -0.03977729 0.21568133 0.13150418
-0.6958878 -0.42391995 0.48173004 -0.17278777 -0.11732047 -0.055737905 0.80859965 -0.38986567
1.6218297 0.13196994 -1.3405149 0.99177486 -0.6161189 -0.0052879825 0.6199934 -0.068763964
0.019833272 -0.16708864 1.7292802 -0.27460915 -0.07047625 -1.0747381 -0.14327389 0.3136503
-1.142133 -1.4146196 1.0133855 0.10911436 -0.6879622 1.2706323 0.43187708 -0.5810449
0.24173667 -0.20648736 0.64619 1.349973 -0.46750134 -0.27422565 -0.29694086 1.061342
0.4557202 -0.4808705 -0.6277367 1.1111258 -0.5111963 0.20103775 0.6907199 0.449288
0.39128977 -0.0090233805 0.42795405 0.576329 -0.42634764 -0.7884001 -0.9434877 -0.045875475
0.19369142 -0.6116994 1.1137191 0.41380417 -1.272688 1.4557989 -0.5493195 -0.8710497
0.41521832 -0.020195484 -0.1682862 0.6629696 0.3666234 0.18280889 -0.5905168 2.3923454
-0.6348012 0.4776787 0.17612313 0.71968675 -0.08736812 0.10335827 0.053231798 -0.41466853
-0.06600175 -0.042423222 -1.053048 0.4567282 -0.12425323 0.44652414 0.741185 0.31366318
0.26692697 0.7709544 -0.5955086 -0.0032945625 0.6422324 -0.58161485 -0.3769171 0.8453425
-0.4834943 -0.43750244 0.10882547 -0.26438722 -0.22554938 -0.37929434 0.3165205 -0.3137901
-0.9096603 0.29562396 0.58528006 -0.08302591 0.01353957 0.0051729 -0.73970234 -0.71236783
-0.33555508 0.63600904 -1.257086 -0.109718226 0.12907535 0.6620243 0.8677089 0.057681568
0.61943156 0.9056612 -0.8471265 -1.1963615 0.5475049 -0.22224718 -0.82763064 0.3650921
-0.0017474688 -0.571975 -0.36122364 -0.49657083 0.40847483 -0.4775168 -0.28158918 -0.51579064
9.6451e-41 -5.0574e-41 -2.724e-42 -5.9215e-41 2.2452e-41 -4.5649e-41 -4.6316e-41 3.5247e-41
-1.306e-41 1.14003e-40 4.1771e-41 5.221e-42 -1.1122e-40 4.8076e-41 -9.4529e-41 7.3331e-41
1.22605e-40 8.3055e-41 -1.7691e-41 1.6433e-41 -6.5495e-41 -4.7107e-41 5.6579e-41 -2.4712e-41
1.42041e-40 -2.1616e-41 -1.47684e-40 6.672e-42 8.9476e-41 -2.8676e-41 2.908e-41 -3.3705e-41
-0.7670403 -0.67542696 0.15446085 0.042433146 0.21579091 0.05095116 0.33215988 -0.68242043
-0.19208947 0.6270805 -0.9645575 1.2688533 -1.4047742 0.47226682 -0.6554326 -0.15279813
0.42916033 0.51353014 1.076429 -0.56266373 -0.18982294 0.77027243 -0.74010104 1.1295297
0.8092281 -0.04538102 -0.13696289 -0.15390088 -0.6854074 0.18262179 0.8501554 0.44709778

weight f4 [4, 8, 32]
00000000: 65b8 a4be be9f 163d 96b1 853f df8d 7b3f
00000010: 2e8e 2dbf befa ce3f a883 4b3f 893e 2b3f
00000020: 444c 55be 026a 9b3f aeb9 99be f56d 883e
00000030: dee4 b3be d71c 0d40 109b 9b3d 10b2 0fbf
00000040: 8de9 d5bf 711c 76be 6d2a 9fbd 5c5d bcbf
00000050: 8a04 5d3f 13ba b23d 0a09 bf3f f908 ce3d
00000060: 6d31 943f 4ea2 9cbe e510 8d3e 714d 673d
00000070: a697 c53f 44bc ec3e d456 e23e 05cd ab3f
00000080: 024c 4c3f 29e9 2cbe 2cda 493f b4e3 233f
00000090: b3da 923f da90 65bf 38a0 91bc 66ce e03f
000000a0: 3241 7a3f 633f 2340 9ae0 af3e 6a67 c2bc
000000b0: fb6b 6bbe 8d5b fdbe 936f 263f 3c30 2a3f
000000c0: 58df 9f3e ddc0 8e3e 49c5 933e a94a 2a3f
000000d0: e69d b6bf 5593 3b3e 387a 0c3f 2672 ab3f
000000e0: f7de b1be 7124 e83f 06a1 25bf 5518 2fbe
000000f0: b952 d53f c5b4 0dbe 7eab ed3e 16f3 e23f
00000100: 05a9 0340 8654 803f 7ae6 87bf 7d4a 6a3e
00000110: 0599 a9bf ed88 9b3f a08f 0abd ed22 373f
00000120: 5196 893f 0b32 c1bf e78b 23bf bf5d 703f
00000130: f876 913f 23e8 5240 9284 9fbf 7a1a 893f
00000140: 6055 47bf 882f 823e 54b0 dbbe 9250 fabf
00000150: 2a13 ed3f 1ccb dcbf 3571 1cc0 8e4d 12be
00000160: dcea c2bf 0e26 29c0 7585 7e3f 635b d8be
00000170: 6459 e4bf 73ee cb3f bbbc eabf 0882 c8bf
00000180: c5ea 973f d7ec aabe e115 1140 987c f7bf
00000190: 8ddf 683f 780a dcbd 59b1 0cbe d30d cdbf
000001a0: c8e0 13be 600d ff3e f812 87bf 934e 70bf
000001b0: 9206 8dbe ece3 41c0 af18 80bf 55ae 4dbf
000001c0: d58e f9be 0cc4 39bf 7158 76be 3626 123f
000001d0: d8b8 98be 40ac f6be 162a 223f 03ba a1bd
000001e0: 5a61 79bf 9781 f93f 0186 75be 614e 5440
000001f0: 4d18 cebf d861 fbbf 1da8 b7bf eac2 a03e
00000200: 4fb7 af3f 9bea a23e 0777 57bb f15b b23d
00000210: 6bd0 92bf 1613 e33e 352e e23d 6cab a73f
00000220: 4630 0240 d924 c43e 75e3 40be 868b 65bd
00000230: a674 fdbf 3451 53bf ca53 67bf 47ef 163e
00000240: 41c4 19bf 341c c43e 2fd6 9f3e a848 11c0
00000250: 6c6f 353f b995 22bf 64f9 c33f 36a7 35bd
00000260: f486 4c3f 5a00 8a3c 2df6 43bf d0f8 cbbd
00000270: 439f f8be 6b48 cb3e ee65 d9bf 9ac4 68bf
00000280: 5699 22bf 5257 99bf 1931 c33f 750e 49bf
00000290: 0874 463f b2e3 4abf 4ad5 7abf 5bd6 1abf
000002a0: 9fc5 673f bdcf 2440 f3ab aa3e 1474 8fbd
000002b0: f675 473f f2a0 b5be f647 7abe 1f82 1040
000002c0: 5653 0bc0 90a7 973c 02c0 66be 1a25 813f
000002d0: f0b0 0fbf 0ae0 81bf 285b a03f 10a2 6a3c
000002e0: 9c43 8fbf 022c ad3f ddef 063f 9f37 c83e
000002f0: 80f2 91bf 94be 83be 9795 41bf fdbd 123f
00000300: 70a1 653e 7df4 493f 3233 01bf 62c8 cb3f
00000310: 8266 75bf 66b3 9c3f 4d4b be3f 0a7a cc3f
00000320: 0dd6 a83f 7247 47bf 6103 7fbe 3f9a a2bd
00000330: 1701 82bf 2876 8f3f a6d5 ea3f 5198 35bf
00000340: bf5c 7fbf 58e5 95bf 6cf3 9dbe 9377 8ebf
00000350: aba3 4a3f 9334 88be d722 cbbf d7c8 4f3f
00000360: b93b f8be 205e 41bf 0d4a dbbe 20a3 623f
00000370: 327e 4e40 bf8f 01bf 9771 3240 9a84 813f
00000380: 5be6 9e3f 237f eabe 7abb 873f 264a cebe
00000390: 9bf2 b93f ea23 183f a8a8 97be 7c03 4bbe
000003a0: ac9b 1bc0 09c1 213f 3bf3 1dbf 2e45 073f
000003b0: dc2a 593f a874 4e3f 95a5 21bf 31f3 6cbf
000003c0: 417f 1340 a4b0 933e aaf5 aa3e 35f3 dc3f
000003d0: e455 1e3f 6c93 be3f dbf4 5740 73be c4be
000003e0: 534c 0940 e564 6f3f 1592 2e3f a993 703e
000003f0: 0abc 43be 73e2 e93f e3fa f4bf 5561 bd3f
-0.32171932 0.036773436 1.044482 0.98263353 -0.67795074 1.617027 0.79497766 0.66892296
-0.20829874 1.2141726 -0.30024475 0.2664639 -0.3513555 2.2048852 0.07597935 -0.56131077
-1.6711899 -0.24034287 -0.07771764 -1.4715991 0.8633505 0.08726897 1.4924634 0.10060305
1.1577584 -0.3059258 0.27551952 0.05647034 1.5436904 0.46237385 0.4420687 1.3421942
0.7980348 -0.16885819 0.7884853 0.6401932 1.1472992 -0.8967415 -0.017776594 1.7562988
0.9775573 2.5507438 0.34351045 -0.023730952 -0.2299041 -0.4948391 0.65014 0.6647985
0.31225085 0.27881518 0.28861454 0.6652017 -1.4266937 0.18317921 0.5487399 1.339421
-0.3474042 1.8136121 -0.6469883 -0.17099126 1.666587 -0.1383849 0.464199 1.7730434
2.0571911 1.0025795 -1.0617211 0.22879978 -1.3249823 1.2151161 -0.033828378 0.7153767
1.0748998 -1.5093397 -0.6388535 0.93893045 1.1364431 3.2954185 -1.2462332 1.0711205
-0.77864647 0.25426888 -0.42907965 -1.9555838 1.8521473 -1.7249484 -2.4444096 -0.14287397
-1.5227923 -2.6429477 0.9942239 -0.42257223 -1.783978 1.5932144 -1.8338846 -1.5664682
1.1868521 -0.3338382 2.2669604 -1.9334898 0.9096611 -0.10744184 -0.13739528 -1.6019844
-0.14441216 0.49814892 -1.0552664 -0.93869895 -0.27544075 -3.0295362 -1.0007533 -0.80344135
-0.48741785 -0.7256477 -0.24057175 0.57089555 -0.29828525 -0.4817829 0.6334547 -0.07896807
-0.9741417 1.9492673 -0.239769 3.3172839 -1.6101166 -1.9639235 -1.4348179 0.31398708
1.3727816 0.31819615 -0.0032877342 0.08708943 -1.1469854 0.443505 0.110439695 1.3099189
2.0341964 0.38309363 -0.18836768 -0.056041263 -1.9801223 -0.8254578 -0.90362227 0.14739715
-0.60065085 0.38302767 0.31218097 -2.2700596 0.7087314 -0.6350971 1.5310483 -0.044348918
0.7989342 0.01684587 -0.7654751 -0.099595666 -0.48559007 0.39703688 -1.6984231 -0.9092499
-0.6351522 -1.1979773 1.5249358 -0.78537685 0.775208 -0.79253685 -0.97981703 -0.6048333
0.9053592 2.5751793 0.33334312 -0.07004562 0.7791437 -0.35474354 -0.24441513 2.257942
-2.1769614 0.018512517 -0.22534183 1.0089447 -0.5612936 -1.0146496 1.2527819 0.014320865
-1.1192508 1.3529055 0.5270975 0.39104936 -1.140213 -0.25731337 -0.7561888 0.5732115
0.22424865 0.78888685 -0.5046874 1.5920527 -0.9585954 1.2242248 1.486673 1.5974743
1.3190323 -0.7784339 -0.24903633 -0.07939576 -1.0156583 1.1207933 1.834645 -0.7093554
-0.99750894 -1.1710615 -0.3084978 -1.1130241 0.7915599 -0.2660261 -1.5870007 0.8116583
-0.48483065 -0.7553425 -0.42829934 0.8853016 3.2264524 -0.50609964 2.788183 1.0118592
1.2414049 -0.45800123 1.0604088 -0.40290946 1.4527162 0.594298 -0.29620862 -0.19825548
-2.4313765 0.63185173 -0.61699265 0.52839935 0.84831023 0.80646753 -0.63143283 -0.9255858
2.304642 0.28845704 0.33390552 1.7261721 0.6184981 1.488874 3.3743198 -0.3842655
2.1452835 0.9351333 0.68191653 0.23493828 -0.191147 1.8272232 -1.9139065 1.4795328

w_comp f4 [183, 4]
00000000: c708 943f cfb8 5ebf 9c65 493d 27ea 89bf
00000010: 75a8 b93e 09b8 8fbf 82cf 193f 59f8 8c3f
00000020: bb40 0b3f 0846 a0bf f998 a3be 44c7 673f
00000030: 2b12 ef3f f5d6 9dbf ff54 88bf f631 be3b
00000040: a26d 413f 8861 cb3f dfc3 70bf 88e7 93be
00000050: deee 63be 005e 23bf 0430 6e3f 2383 67bf
00000060: e710 48be 5f17 d83d 867c 383e bb15 8f3c
00000070: dba5 463f 52e9 49bf 8572 373d d14c ddbe
00000080: 6c27 203e 7163 05c0 113a 983e a959 82bf
00000090: be6a dbbf 5d1d a1bf 231c 0abe 7c7c 9a3f
000000a0: 28ef 473f 0dbd 66bf ce44 9fbe dbf2 11bf
000000b0: 5628 d2be b96a 3abf dd50 06c0 2e22 5a3c
000000c0: 11c4 d43f a7a9 c1bf 12ba 593f 09c0 7d3f
000000d0: 2559 253f 9ecf abbf 3d86 b83f cee4 e5bf
000000e0: d905 c83e 8ce9 3dbf 1a80 2fbf d39b 35bf
000000f0: 299a 36bf e3ba 83bf 10e4 e23f 4152 9abe
00000100: 4be8 c63f 3c7d 32be 47fa 0e3f f6e5 49bf
00000110: 6e5c 7fbf a190 963e 5c55 953f c1a9 d93f
00000120: ccb2 9a3f b211 35bf e91a 943f 5e86 a73d
00000130: c16f 89be 1730 433f c041 a03f 3d22 24c0
00000140: 83b9 15bf 7037 f9bf e248 ddbe 9c5a c7be
00000150: 362b b3be 40f5 143f ccb2 233f de23 babe
00000160: 1c70 5a3d 511b 793e 6c78 2b3f 11a9 fb3a
00000170: cabc 433e fc8d eebf 53d8 f33f 71e8 e63e
00000180: bb0a 82bf 084b 32bf 8054 b03f 935a bc3f
00000190: 688a 1240 bb1a 7fbe 2579 05bf 30e6 afbf
000001a0: d362 cdbf f44f e83f af4f 04c0 8796 ddbf
000001b0: 092a c1bf 6625 37bf f58c f33d db0f 953e
000001c0: 9bef 1fc0 4846 60bf af65 0d3f d25e 5640
000001d0: 8dac 1240 5527 08c0 5a45 6b3e c783 a0bf
000001e0: 78df 1cbf 3a0d 58bd bde3 9f3f fbae a9bd
000001f0: eeda 17bf 155c e33f 7694 9c3e 2219 2abf
00000200: 85c8 0bbf 5795 b73f 0b31 c5be 3e74 6fbf
00000210: b21d 9b3f 8de7 543f 2db3 1cbb 9021 3bbf
00000220: 9db4 ca3e bb59 763e 1012 e4be 021f 1bbf
00000230: 15cb bc3c 1cba 913f c1db 933f 5e85 593f
00000240: bb1f e53f 7a74 283e 069e bf3f 6f89 99bf
00000250: 8578 e13e 9463 5d3d 8684 aabe 4ce7 3cbe
00000260: 1f7e 1f40 5450 07c0 68d2 b63e 23b4 303f
00000270: fdc8 33bf ced0 e8bf fa51 ab3f 9cce 1b40
00000280: ac8f f0bc b55c 6d3f 1a44 82bf 0a49 5c3e
00000290: f20a 47bf 9cb6 53be dd29 b73e 2067 51be
000002a0: 2ff2 063e f873 d53d b8ee cd3f 0942 6ebe
000002b0: b61c a33f f480 08c0 312a d33f 959f 743f
000002c0: 3a95 94bf 6326 d93e 837f 153e dea5 17c0
000002d0: 1c25 d6bd 6303 a43d d7ac fb3e 2e7c 273e
000002e0: 27a6 adbe 8ec9 cc3f 1ea2 8a3f e808 eabb
000002f0: a601 e33f 541a 963f 439f 7ebf c220 29be
00000300: 67db 00bf 198f 063e 2b6c 59bb 8f3c 98bf
00000310: 25b2 99be 0080 e4be e5b9 153f 8fe2 d2bf
00000320: e0cf 563f e07f b6be 3ad4 343d 6ecd 43bb
00000330: c2e5 84bd 71be 0e3f 00d6 df3f b708 d7bf
00000340: fa70 9abd bb64 82bf fb87 8e3e 1b5c f1bd
00000350: cf52 c53e 9d94 64bd 0333 8c3d 6a1c ff3f
00000360: f0d8 bbbf 5b9d 89bf a344 693f e26f d3bf
00000370: 44f5 1ebf e2af 1a3f 6099 f23e 0a31 99be
00000380: 4e53 a7bf 0531 8b3e 6a92 d43e b211 3bbe
00000390: ea4c 2f40 f64e 06c0 a2cb 2b3f 8100 993d
000003a0: 40fb 0dbf deef f0be f424 0a3f 19df 17bf
000003b0: d6a6 da3e 48e7 cc3f ef6e b2bf 8f8b ef3f
000003c0: cde2 0d3e 07ee 62bf 7f1d cd3f ee7e ec3f
000003d0: 69fd 143f 9ace 0dc0 3543 8e3f 6ab3 da3f
000003e0: a0bc c7be 51e8 223f 163b 8e3f 49b1 02c0
000003f0: 453c 553e 8350 483f 3aba 1bbf ae48 0bc0
1.1565179 -0.87000746 0.049169168 -1.0774583 0.36261335 -1.1228038 0.60082257 1.101329
0.54395646 -1.2521372 -0.31952646 0.9053843 1.867742 -1.2331225 -1.0650939 0.0058042957
0.7555791 1.5889139 -0.94048876 -0.28887582 -0.2225909 -0.6381531 0.93042016 -0.90434474
-0.19537698 0.10551333 0.18016252 0.017466417 0.77596825 -0.78871644 0.04478695 -0.4322267
0.15640038 -2.0841944 0.297318 -1.0183612 -1.714195 -1.2587086 -0.13487296 1.206924
0.780993 -0.9013222 -0.3110718 -0.57011193 -0.410464 -0.72819096 -2.0986855 0.013313813
1.6622335 -1.5129899 0.85049546 0.9912115 0.6458915 -1.3422735 1.4415966 -1.7960451
0.3906696 -0.7418449 -0.6855484 -0.70940894 -0.7132898 -1.0291408 1.7725849 -0.3014088
1.553964 -0.17430586 0.5585064 -0.7886652 -0.9975041 0.29407218 1.1666675 1.700493
1.2085814 -0.70730126 1.1570712 0.081799254 -0.26843074 0.76245254 1.2520065 -2.5645897
-0.58486193 -1.9470043 -0.43219668 -0.38936317 -0.34993905 0.5818672 0.639447 -0.3635549
0.053329572 0.24326827 0.66980624 0.0019200166 0.19114986 -1.863708 1.9050392 0.45099214
-1.0159525 -0.6964574 1.3775787 1.4715141 2.2896976 -0.2491254 -0.52137977 -1.3742123
-1.6045784 1.81494 -2.0673635 -1.7311562 -1.5090953 -0.7154144 0.1189212 0.2911366
-2.4989994 -0.8760724 0.5523328 3.3495374 2.2917817 -2.1274006 0.22975674 -1.2540215
-0.61278486 -0.05274699 1.2491375 -0.08285328 -0.59318435 1.7762476 0.30582017 -0.664446
-0.54602844 1.434245 -0.3851398 -0.93536747 1.2118437 0.8316582 -0.0023910508 -0.7309809
0.39590922 0.24057667 -0.4454503 -0.6059419 0.023046056 1.1384921 1.1551439 0.8496913
1.7900308 0.16450682 1.49701 -1.1995066 0.44037262 0.054050043 -0.33304232 -0.18447608
2.4920728 -2.1142778 0.35707402 0.69024867 -0.7022856 -1.8188722 1.3384392 2.4344854
-0.029365383 0.92719585 -1.0177033 0.21512237 -0.77751076 -0.20675129 0.35774127 -0.20449495
0.13178323 0.1042251 1.6088476 -0.23267378 1.2743137 -2.1328707 1.6497251 0.95556
-1.160804 0.424121 0.14599423 -2.3694987 -0.10456297 0.080084585 0.49155304 0.16355965
-0.33915827 1.599901 1.0830724 -0.007142175 1.7734878 1.1726785 -0.99461764 -0.16516402
-0.5033478 0.13140525 -0.0033176045 -1.1893481 -0.30018726 -0.44628906 0.5848678 -1.647539
0.8391094 -0.35644436 0.044147708 -0.0029877084 -0.06489135 0.5575934 1.7487183 -1.6799535
-0.0754108 -1.018699 0.2783812 -0.11785146 0.3853974 -0.05580579 0.06845667 1.9930546
-1.4675579 -1.0751146 0.91120356 -1.6518519 -0.62092996 0.60424626 0.4738264 -0.29920226
-1.3072298 0.27185836 0.41517955 -0.18268469 2.7390695 -2.0985694 0.67107594 0.07470799
-0.554615 -0.47058004 0.53962636 -0.59324795 0.4270541 1.6008081 -1.3940104 1.8714465
0.13856049 -0.8864445 1.6024626 1.8476236 0.58199173 -2.215735 1.111426 1.7086003
-0.39011097 0.63635737 1.1111782 -2.0420706 0.20823772 0.7824785 -0.60831034 -2.176311

self_loop_weight f4 [8, 32]
00000000: 9b69 f83e 454c c73c a51b 913f f5bd 8ebf
00000010: 2da4 98bf 1c64 563f 011b ec3e 41bf 9dbf
00000020: ddfa 013f 3f6f 803e 638e 7fbd 6c62 7fbd
00000030: 9ad2 023f c532 fdbe 52fe d6be b075 86be
00000040: ec95 c7bf d20b 9fbe dd42 e4be 4a81 d0bf
00000050: 248c 123f 4ab7 7bbf a76e 5cbf 0718 4dbf
00000060: 8a78 ff3e 7138 793f d882 c83e e728 103f
00000070: ac7a b8bf ae06 1fbf 110c 7dbf c2b7 033f
00000080: d559 92bf 6362 26bf 5857 e33e 46ac 24be
00000090: 1117 92bf d551 a4bf 69bb 7abe d123 95bf
000000a0: d211 94be c38b 42bf 1993 113e 48d6 2bbf
000000b0: 7e6e 8b3e fbdb 51c0 bd65 ebbf 78c3 303e
000000c0: e147 fdbe a0f4 2abf 4b0f 46bf f116 533c
000000d0: b4e7 41c0 ea84 3f3f 9e0d 493d dd1e 72bf
000000e0: b373 103f 581d 10c0 fd24 b2bf 5d47 6dbe
000000f0: 5b0b 54bf 562d a23e 12dd b8ba 41a8 113f
00000100: 54f5 ebbf f0b9 143f e5ec b33e abed 8ebf
00000110: 9b8d 26be d829 9ebf 131e a9bf cad7 223f
00000120: 3bf5 06bf f5d7 353f e872 21c0 9b6c 3fbf
00000130: 84b7 dbbf 06db 543f b43d 35bf eb20 a4bf
00000140: e824 4bbf 55ce a8bf 86e5 57bf 13fb 7cbe
00000150: 82ad 323e d89a 25c0 e3e2 db3e d0e9 11bf
00000160: f951 0b3f a224 67bf 08d6 a03d 27f7 7dbe
00000170: 85c1 87be c1da f2bf 84c5 5cbe c911 1bc0
00000180: 49b2 a2bf 4ccb 90bf 51d7 5b3f 6d86 13be
00000190: ad73 543f 0fd7 a7be 1171 083f 02c3 b6bf
000001a0: 18a3 a0bf 6e56 143f 4013 8dbf 1363 2cbf
000001b0: bd6b 70bf a21f c3bf 106e a4bf 58e3 0cbf
000001c0: a890 45bf 1f11 353e a3b2 893e 0dbe 9fbf
000001d0: 840e 3fbf 6925 0f3f 0028 06bf 3801 2a3f
000001e0: 853f 76be a960 29bf 2425 dfbd 3233 1e40
000001f0: 8d5f ebbf c343 22bd d836 d8be db05 93bf
00000200: 5c03 1ebe ef18 5abe afd1 2b40 b28a 21bf
00000210: 1bbf a5bf d224 a63c 9737 a83f 4f02 f5bf
00000220: 2de2 14c0 b41b b13f 5d4d 533e 1132 49bf
00000230: 04fe 3ebf 1e12 76bf 4590 89bf 1fa5 8f3d
00000240: 5421 61bf 14e1 82be aaab 81be cae8 33bf
00000250: 89ab afbf c046 6b3f 5e8b a43f 47d6 823d
00000260: fac0 d93f ca23 b9bf b67e a23e f9fb 013f
00000270: 510b 683d 7d09 a73f 1db2 b2be 372d 1fbf
00000280: f415 bdbf 8316 86be 057e 24c0 ffc2 a0bd
00000290: bf60 753e 9249 563d 6100 e3bf b6c7 9a3e
000002a0: a5f7 243f 785b cdbf c6b6 c3bf d70d 22be
000002b0: 1d02 25c0 28f2 7b3e e7b1 5bbf ef51 a7bf
000002c0: 34f0 09bf 0a2f a4bf 639d 0dbf 52fd 183f
000002d0: c65a 523e a9b3 12be f144 16c0 4d45 393d
000002e0: 5209 4fbd 0f24 32be 7b4c e0be 851d abbd
000002f0: b51a 13c0 8aa9 12be 7206 52bf 49c8 323f
00000300: 9042 ccbe 0057 6fbf d94a 483d d475 7b3d
00000310: aff7 16bf 4db5 a9bf 6059 493c 097c 95bf
00000320: 7678 313f b452 cf3e 447b 19c0 4229 36bf
00000330: f5b5 083f 62f7 51be b615 6fbf 8d00 763f
00000340: d2b1 a0be 202a 50bf 9a88 0ebf 1f8f db3e
00000350: 4951 8fbe b661 1ac0 b47e 81bf 1c71 68be
00000360: 9a8b b2be fecb d8bd 995a 1dbf bddb 9a3e
00000370: 1a81 5bbf 60b1 22c0 7298 15bd fdde 7bbf
00000380: cc86 8dbf 5c13 8bbf 67fc a23e bcba 77bf
00000390: d2a5 90be ea0e 03bf 98d2 85bd c6a7 cebf
000003a0: f61b 47bf 6da1 863f 9058 7abf a122 d9bf
000003b0: 5faf 7c3f e5f5 0cbf c32f 7ebf 1080 94bf
000003c0: c82d 11bf 9e9c 5b3d 3b49 38bf 89e6 f3bf
000003d0: 42ec c1bf dfd2 0abf f1ee e53e 0160 36be
000003e0: 31a6 febf 64be a23e f94a 27bf 8541 403f
000003f0: f0d5 6bbf cc32 58bf 8073 94bf 913a 51bf
0.4851807 0.02432836 1.1336561 -1.115172 -1.1925102 0.83746505 0.46114352 -1.2323991
0.5077341 0.25084874 -0.06239165 -0.06234972 0.511026 -0.49452797 -0.41990906 -0.26261663
-1.5592628 -0.31063706 -0.44582263 -1.6289456 0.5724509 -0.9832655 -0.8610634 -0.8011479
0.49896652 0.9735175 0.39162326 0.5631241 -1.4412436 -0.6211957 -0.98846537 0.5145227
-1.1433665 -0.64993876 0.44402575 -0.16081342 -1.1413289 -1.2837473 -0.24485554 -1.1651555
-0.28919846 -0.7599451 0.1421627 -0.6712384 0.27232736 -3.2790515 -1.8390423 0.17262065
-0.49468902 -0.6677952 -0.77367085 0.012883888 -3.029767 0.74812186 0.049085252 -0.94578344
0.56426543 -2.251791 -1.3917538 -0.23171754 -0.8282983 0.31675214 -0.001410397 0.5689736
-1.8434243 0.5809622 0.35141674 -1.116628 -0.16264956 -1.235652 -1.3212303 0.6361052
-0.5271794 0.7103265 -2.5226383 -0.74775094 -1.716538 0.83146703 -0.70797276 -1.2822546
-0.7935319 -1.3187968 -0.843346 -0.24705152 0.17449 -2.587576 0.42946538 -0.56997395
0.54421955 -0.9029027 0.07853323 -0.24801312 -0.2651483 -1.8973008 -0.21559721 -2.4229605
-1.2710658 -1.1312041 0.8587542 -0.14406748 0.8298901 -0.32781264 0.53297526 -1.4278262
-1.2549772 0.5794438 -1.10215 -0.67338675 -0.93914396 -1.5244029 -1.2846088 -0.550344
-0.7717385 0.17682312 0.26894102 -1.2479874 -0.74631524 0.5591646 -0.52404785 0.6640811
-0.24047668 -0.66163117 -0.10895756 2.4718747 -1.8388535 -0.039615404 -0.42229342 -1.1486162
-0.15430969 -0.21298574 2.684673 -0.6310226 -1.2948946 0.02028123 1.3141965 -1.914133
-2.3263047 1.3836579 0.2063498 -0.7859202 -0.7460635 -0.96121395 -1.0747153 0.07013916
-0.8794148 -0.25562346 -0.25326282 -0.7027708 -1.3724223 0.9190483 1.2855031 0.063885264
1.7012017 -1.4464047 0.31737298 0.50775105 0.056651417 1.304977 -0.34901515 -0.6217837
-1.4772325 -0.2618905 -2.5701916 -0.078496926 0.23962687 0.052316256 -1.7734491 0.30230492
0.64440376 -1.6043539 -1.5290153 -0.15825592 -2.578254 0.24604094 -0.8581833 -1.3071879
-0.53882146 -1.2826855 -0.5531828 0.59761536 0.2054244 -0.14326347 -2.3479578 0.045232106
-0.050545998 -0.17396568 -0.4380835 -0.0835524 -2.298505 -0.14322487 -0.82041085 0.6983686
-0.39894533 -0.93492126 0.048899505 0.061391667 -0.58971685 -1.3258454 0.012289375 -1.1678478
0.69324434 0.40492785 -2.3981485 -0.71156704 0.53402644 -0.20504525 -0.93392503 0.9609459
-0.31385666 -0.8131428 -0.5567719 0.4288263 -0.27991703 -2.4122138 -1.0116792 -0.22699398
-0.34872133 -0.105857834 -0.61466366 0.30245772 -0.8574387 -2.542076 -0.036522336 -0.9838713
-1.1056762 -1.0865283 0.31833193 -0.9676931 -0.2825151 -0.5119463 -0.06534308 -1.614495
-0.7777704 1.0518013 -0.97791386 -1.6963693 0.98705095 -0.55062705 -0.9929163 -1.1601582
-0.5671048 0.05361616 -0.7198674 -1.9054729 -1.5150225 -0.54228014 0.4490886 -0.1781006
-1.9894468 0.31785882 -0.65348774 0.75099975 -0.9212332 -0.8445251 -1.1597748 -0.8172999

weight f4 [8, 80]
00000000: 3da7 8ebf d5ba 9f3f e0c5 1bc0 f83c 2dc0
00000010: 6bad 0240 8dc3 f9bf b8c1 c43e 1c69 53c0
00000020: 3fbe 0940 6b82 c0bf c1b2 1cc0 4774 0cc0
00000030: a8d1 3f3f d06d 2b3f 9bf5 38c0 3a7f d1bf
00000040: ed81 cdbf 1854 bb3d 5412 cf3e b510 05c0
00000050: f751 863e dd16 8b3e 30d0 cd3e ce25 053d
00000060: 59eb 4e3e 2976 803e a4c5 de3f bf24 c73e
00000070: f2fd 76bf 2f75 233e aafb 06bf 1899 aabe
00000080: 2154 93bf 94ae e5bd fbd0 75bf 8f84 cd3c
00000090: ee68 2ebf 68af 6cbf 3590 123f 7d85 9d3e
000000a0: fc17 2e3e fde1 c53e dc98 b03e df53 ee3e
000000b0: 6816 b4be 2fc2 4abd 3732 fa3e 20e5 d9bf
000000c0: adac 4e3f 8f05 bfbe 4517 a83d ccce d5be
000000d0: 11e7 2f3f 4a3e 7abe a1fe 04bf aa65 75bd
000000e0: 7d1e a3bd 8435 263e f59e 5cbf bcbe 403f
000000f0: dde2 893f 8e39 393f 3092 2b3f 2faf 85be
00000100: e861 813f fc59 783f 48c9 e83e 52a3 62be
00000110: 4fc3 da3f f1fb 1bbf ed53 2abf 5610 e03e
00000120: 20a2 2bbe ffec 413f 0631 2f3c 8a15 a4bf
00000130: 2eee c5be 4b4a 113f 9a61 d53e db5f 0cbf
00000140: c0c7 24bf 8237 fb3d 4206 07c0 1321 f2bf
00000150: 7b20 0dc0 6d94 41c0 80b9 07bf 2029 a03f
00000160: ba11 55c0 f4fa 1abf ef29 a7bf 7fda 0cbd
00000170: 195e ff3e 8eed a6c0 c02f 13be b548 eebd
00000180: 346d ec3f d91a 3d3f 2232 afbf 8403 ec3e
00000190: 2ed6 e4be 3cbe f23d 1c05 ccbe 2364 a23e
000001a0: 43db a73d 6600 65bf 6bfd a43f 444f 3ebf
000001b0: 91cb c13f 03d0 3dbf 954f b53d f30d 413f
000001c0: b783 8fbf 8476 66bf b080 d93e a038 023f
000001d0: a01b 333f 51a2 a03e 3deb 613f 9020 54be
000001e0: b25f 01bf 798b babe 052f 423f 801d 913f
000001f0: c45c 61bf 956b 71bf 0996 e0be 752a adbe
00000200: 61db f6bf 8be2 59bf 2ce3 103f d6c8 61bf
00000210: d198 6b3f fdf1 b3bd 7155 8abe 879a d73d
00000220: 74c9 853d f57b 8ebe 9923 99bf f81e 8d3f
00000230: 05af 51bd 8e6d 993f b975 5cbf a5ba 51bd
00000240: dd33 673f cefa 9f3f 0877 f4be 34ec 7f3e
00000250: 524e d73e 4a58 b0bf c2ad d3bd a870 713f
00000260: 624c 47be 4515 913f a328 7e3e a9e3 e2bf
00000270: ce4e afbd 97d2 c03e 9d70 803f c9aa 73bf
00000280: b50d babf a083 06c0 f231 2abf ee97 143f
00000290: 4498 05be c046 09c0 06e1 913e 935e 88bf
000002a0: 4e67 84bf adf2 1ac0 623b 98bf bba3 813f
000002b0: 82d8 a2bf 838f 29c0 e69a 2abe 75c9 2d3f
000002c0: 17bd 8b3d 7960 663f a8d6 c83c 16eb 1cbe
000002d0: 7791 e53d 4cdf 02bf 5bda b0be d841 293e
000002e0: 4f65 cebe 053a 75be 5bd5 64bf d152 77bf
000002f0: 1611 ab3e 8e53 b83f 182e 643f 7d19 6d3e
00000300: d0ff 8dbc 06df 863f 77a2 e6be fae8 00be
00000310: 0b3e ac3f e6af 5bbf e2a3 9b3f f8fe 8a3d
00000320: 04c2 96be 5a97 94be b297 283e 142a ddbe
00000330: be32 903e 0016 67be 2203 a23e 86fc d5bf
00000340: 54f9 e5bf c253 3bbf 0f74 24bd 8003 a5bf
00000350: 8dd2 613f 0a90 ef3e b13f 0dbf 728b e33c
00000360: 484d a83e 6e8c a6bf 5d08 a33f 7396 ba3f
00000370: c19c a73e a828 1e3e 1b66 56c0 dfc7 78be
00000380: de41 a23c 0aac 50be 0430 f9be 8817 aa3e
00000390: 0592 a4bf 3167 a1bf 217f ac3e 8dcf 783d
000003a0: 7cb5 263e dd82 8c3f ca0b 503f ba94 38bf
000003b0: 1e82 b1bc 4e67 673e 9309 853f 4114 52be
000003c0: 0413 bfbf f249 7abf ff68 f7be 442a 8ebf
000003d0: f680 c6bf 9f0b 93c0 c216 c93f 2611 e33e
000003e0: 0b83 83c0 eecf 69be eae0 04be 1594 a33e
000003f0: 83e7 a7bf 5ee0 77bf eba3 48c0 7cce 1e3f
-1.1144787 1.2478892 -2.4339523 -2.7068462 2.0418346 -1.9512802 0.38429046 -3.3032904
2.1522367 -1.50398 -2.4484103 -2.194597 0.74929285 0.66964436 -2.8899906 -1.6366951
-1.6055275 0.09146899 0.4044367 -2.0791447 0.2623441 0.2716588 0.40197897 0.032506756
0.20206966 0.2509015 1.7404065 0.38895223 -0.9648124 0.1596267 -0.5272776 -0.33319926
-1.1510049 -0.11214939 -0.96022004 0.025087623 -0.6812886 -0.9245515 0.5725129 0.30765906
0.17001337 0.38648978 0.34491622 0.46548364 -0.35173345 -0.049501594 0.48866436 -1.7023048
0.8073223 -0.37308928 0.08207563 -0.41759336 0.68711954 -0.24437824 -0.5195103 -0.059911408
-0.079647996 0.16231352 -0.8618005 0.7529104 1.0772358 0.72353446 0.6701994 -0.26110217
1.0108004 0.97012305 0.45466065 -0.22132614 1.7090853 -0.6093131 -0.6653431 0.43762463
-0.16761065 0.7575225 0.01069284 -1.2819073 -0.3865828 0.5675399 0.41676027 -0.54833764
-0.64367294 0.12266447 -2.109757 -1.8916343 -2.2051075 -3.0246842 -0.53017426 1.251255
-3.329207 -0.60539174 -1.3059672 -0.03438806 0.49876478 -5.2164984 -0.14373684 -0.116349615
1.8470826 0.7386909 -1.3687174 0.46096432 -0.44694656 0.118526906 -0.39847648 0.31717023
0.08196118 -0.8945373 1.2889837 -0.743397 1.5140249 -0.74145526 0.0885307 0.7541191
-1.1212071 -0.9002459 0.42480993 0.5086765 0.6996403 0.31373838 0.8824957 -0.20715547
-0.50536644 -0.36434534 0.75852996 1.1337128 -0.88032174 -0.9430478 -0.43864468 -0.33821455
-1.9285699 -0.851113 0.56596637 -0.88197076 0.92030054 -0.0878639 -0.27018312 0.105275206
0.06532565 -0.27828947 -1.1963989 1.1025076 -0.051192302 1.1986558 -0.8611713 -0.05120339
0.9031351 1.2498415 -0.47747064 0.24992448 0.4205194 -1.3776944 -0.10335876 0.94312525
-0.19462731 1.1334616 0.24820189 -1.7725726 -0.08559953 0.37660667 1.0034367 -0.9518247
-1.4535433 -2.1017838 -0.6648246 0.58044326 -0.13046366 -2.1449432 0.28491992 -1.0653862
-1.0344026 -2.4210618 -1.1893122 1.0128092 -1.2722323 -2.6493843 -0.16660652 0.67885524
0.068231754 0.89990956 0.024516419 -0.15324053 0.11209386 -0.51121974 -0.34541592 0.16529024
-0.40311667 -0.23947914 -0.89388055 -0.9661074 0.33411473 1.4400499 0.89132833 0.23154254
-0.017333895 1.0536811 -0.45045826 -0.12588874 1.3456434 -0.85815275 1.2159388 0.06786913
-0.29444897 -0.29021722 0.16464117 -0.43196166 0.28163713 -0.22566986 0.31643015 -1.6717689
-1.7966714 -0.7317468 -0.040149745 -1.2891693 0.882119 0.4678958 -0.5517531 0.027776454
0.3287146 -1.3011606 1.2736927 1.4577163 0.3273678 0.15445197 -3.349982 -0.24294995
0.019806799 -0.20378128 -0.48669446 0.33221078 -1.2857062 -1.2609617 0.33690742 0.06074481
0.16280168 1.0977436 0.8126799 -0.7210194 -0.02166849 0.22598001 1.0393547 -0.20515539
-1.4927678 -0.9776908 -0.48322293 -1.1106648 -1.5508106 -4.5951686 1.571007 0.4434902
-4.1097465 -0.22833225 -0.12976423 0.31948915 -1.3117527 -0.9682673 -3.1350048 0.6203382

bias f4 [8]
00000000: aef8 00c0 f5d9 29c0 edf3 0dc0 4943 c6bf
00000010: acda f0be 96ff fcbe 702b 09c0 6702 65bf
-2.0151782 -2.653928 -2.218013 -1.5489284 -0.47041833 -0.49413747 -2.1432762 -0.8945679

weight f4 [1, 8]
00000000: 8bf9 d33e e36a 03bf fddc 16bf 6caa 9cbe
00000010: 34d8 b8bc b51d 11be 6615 adbe 7e3f 95bb
0.41401324 -0.5133497 -0.5893095 -0.30598772 -0.022564031 -0.14171489 -0.33805388 -0.004554688

weight f4 [4, 32, 32]
00000000: 4e7e 223d 7f54 ecb1 1d51 ce93 3229 2933
00000010: dbf3 e937 5476 1a3c 83a3 4a28 ceef 2231
00000020: ba15 2c1a 69c5 3595 fef1 013d 3847 9c90
00000030: 838d 21b8 fdaa 08bb 2289 cb38 ed74 c4bd
00000040: 34cc ec20 1591 091d 34b1 7a99 eda9 30a8
00000050: 7645 5d3c 722d 3a3c 01b4 203b a998 0123
00000060: 3a72 db3c 4d65 cb3c 0d26 94aa e53a 5d3c
00000070: 8e3a d9bd 9f0f 493e e37d 3d3b ba10 232d
00000080: 7e1e 5a3b ef0b 7a38 1483 591f c596 23bb
00000090: 802e 0fbe a1d1 9cbe 2b4c 2ab8 c1ff 29b0
000000a0: 679a b2b9 9050 8611 1aa3 8332 cf5b e323
000000b0: 99e3 a939 a43d 1bbe 27b8 f6bd 86f0 c8b9
000000c0: 5130 1d3e b0f7 71ba a475 3fbc a467 0138
000000d0: d1cf 56bc 7c8a babd a1a4 c5ba 9450 6baa
000000e0: 7705 15bd 1f68 3b35 40ac 94bd 316b 82be
000000f0: 50d3 833e 0ec4 173f 5f86 01bb f345 ecb7
00000100: 4fd7 103e 8159 79be 7e02 a8a8 d147 4dbe
00000110: 146b d73c 0338 083e d467 a03d 5212 933d
00000120: b24f f73d 0b37 e825 d9ad c7bb d802 c639
00000130: 700b 7b3d f1f5 02bf 6b0d b9bd 1821 07bf
00000140: 2259 a03e 3661 b2bc f3a0 71bc c0f8 d6ba
00000150: b274 41be e7f3 20be 8f30 e2be 0c9a 922d
00000160: f55b 11be 34e2 453d 1054 d1bd 80d1 9f3d
00000170: d5d2 34be f26e d73e 7edb 39bd bac8 f234
00000180: 4347 8838 4313 c933 e43f 4b23 b48f 8ab8
00000190: 4b8d 13b4 6eda 3dbc 65e0 8ca9 96fe 3032
000001a0: f6aa 1aa4 5832 2095 4490 ac2e 3865 c9a2
000001b0: c261 ad3c d229 4fbd 5a51 98b5 ad37 a3ac
000001c0: db3a 41b2 a48f 00ad 4c1e 11b0 f1c2 bbae
000001d0: 4806 e7a7 66ac 13b6 6cce aab5 12c1 9da3
000001e0: 9c56 bfbb eab8 a216 3555 b534 84b6 21bb
000001f0: 9478 073a a690 83bb 84c9 1eb9 d1da 43b7
00000200: 9625 c73c 4c83 843b c5de 3d21 292c 963c
00000210: 2b53 2ab6 5ce3 583b 41ac 49a9 b8bb ee38
00000220: 99c6 7e28 ab2c 0580 8577 43b3 e0d8 1122
00000230: 1ce0 473c 7fae 0bb6 55be f630 189e 8dbd
00000240: 9eb3 e339 3454 8d38 0e34 bbb8 8d6a c63a
00000250: ac87 2a34 b4fd 453d 209a e2ba 5adf d029
00000260: 79f1 84b8 4122 1031 78bf 9e3d 42c9 d9b9
00000270: 1226 a437 6192 973c ff91 1b96 c5d8 253b
00000280: 8fb1 31b8 3b7e 853b 9416 d728 e0a8 15be
00000290: 80cd ca3b fe7f d9bd 8ee7 a638 202d a930
000002a0: 6e19 1c1e fa11 141b aaf0 9f2f f7ce ec1c
000002b0: bca0 3737 b355 a7bc d752 8d37 1606 0bbc
000002c0: 9bb8 f43c ae70 34a0 d8bb 52b9 aa87 e035
000002d0: 06d7 cd34 7696 9fbc 3636 2ab8 3c7a c31c
000002e0: 10ca c93a 4a22 c333 53e3 c138 5bad 933c
000002f0: e402 233e b0d1 01be ea69 43b9 8c3f 48be
00000300: e023 ce26 6682 da2d 3794 c824 52b1 f9b4
00000310: 5a18 eab8 5cdc 61bc e0fc d3a5 8ad9 60b0
00000320: 7497 5e26 d94e 0e14 b4d0 a233 ee04 7a9a
00000330: b4e8 469e b08e 2a39 4904 afb9 319e 81aa
00000340: 6e9f 1724 2d38 871d 4201 df9f 88a9 9328
00000350: c944 a924 7f08 25bb 61e7 90b0 4061 ab24
00000360: bb8f 21bd 5f51 c321 ca74 b8b0 c962 9fbc
00000370: 9cd1 983b af66 053d fd95 b8bb 8ce2 1cb0
00000380: f29c 643d ebb3 c8ad b4d8 2ba3 fc52 3ebb
00000390: 2f4f 0237 d787 4dbd 8d33 ae2a 5856 67ac
000003a0: 5fd4 12a7 31b2 7f0f 95ca 2436 45d7 c024
000003b0: a449 c2bd 1685 e83d a568 59b0 68a1 313b
000003c0: ede1 94b9 86f3 c932 a77d 312c ef22 0a38
000003d0: 33d9 1237 49fb a43a 7914 312e 1ca6 7029
000003e0: 06b1 16b3 31e5 9b35 ca20 f93d 3a68 e1bc
000003f0: df75 163b 61ab 743e 3abd 1a25 2b8d 1dbd
0.039671235 -6.87811e-09 -5.2081695e-27 3.9385846e-08 2.7889319e-05 0.009427626 1.12487085e-14 2.3710416e-09
3.5586317e-23 -3.6708388e-26 0.031724922 -6.164088e-29 -3.8517184e-05 -0.002085387 9.705337e-05 -0.09592614
4.0115085e-19 1.8206805e-21 -1.2960483e-23 -9.806809e-15 0.01350533 0.011363374 0.0024521353 7.025431e-18
0.026787866 0.024828577 -2.6316484e-13 0.013502811 -0.106068715 0.19634865 0.0028914146 9.269191e-12
0.0033282335 5.961576e-05 4.6059963e-20 -0.0024961692 -0.13982582 -0.30628684 -4.0602095e-05 -6.184529e-10
-0.00034065844 2.1191123e-28 1.5324577e-08 2.4650272e-17 0.00032403765 -0.15160233 -0.12046843 -0.00038326177
0.15350462 -0.0009230329 -0.011685763 3.085252e-05 -0.013111071 -0.09108445 -0.001507897 -2.0900149e-13
-0.036382165 6.9814445e-07 -0.072594166 -0.25472406 0.25747156 0.5928353 -0.001976393 -2.8165965e-05
0.14144634 -0.2435055 -1.8652828e-14 -0.20046927 0.026296176 0.13302617 0.07832304 0.07181229
0.120757475 4.0282883e-16 -0.0060937223 0.00037767622 0.061290205 -0.51156527 -0.090357624 -0.5278487
0.31318003 -0.02177487 -0.014747846 -0.0016401038 -0.18892172 -0.15718041 -0.44177672 1.6666689e-11
-0.14195235 0.048311427 -0.10221112 0.07803631 -0.17658551 0.42076832 -0.04537534 4.522206e-07
6.498259e-05 9.3632956e-08 1.10181814e-17 -6.6071196e-05 -1.3741844e-07 -0.011587722 -6.256175e-14 1.03024345e-08
-3.3538236e-17 -3.2351457e-26 7.847281e-11 -5.458833e-18 0.021164779 -0.050576992 -1.1348559e-06 -4.63892e-12
-1.1247461e-08 -7.307852e-12 -5.2793747e-10 -8.538404e-11 -6.412219e-15 -2.2005056e-06 -1.2726064e-06 -1.7103743e-17
-0.005839182 2.6289209e-25 3.3775873e-07 -0.0024675438 0.0005167809 -0.004015046 -0.00015143125 -1.1673853e-05
0.024309915 0.004043972 6.4330524e-19 0.018331604 -2.5380384e-06 0.00330945 -4.4780372e-14 0.0001138369
1.4142896e-14 -4.75201e-40 -4.5510678e-08 1.9765977e-18 0.012199428 -2.0814184e-06 1.7952951e-09 -0.069149196
0.0004343064 6.739088e-05 -8.926551e-05 0.0015137956 1.5881841e-07 0.048337653 -0.0017288364 9.275801e-14
-6.339228e-05 2.097423e-09 0.077513635 -0.00041539414 1.9568051e-05 0.018502416 -1.2566869e-25 0.0025306207
-4.2365453e-05 0.0040738857 2.3879587e-14 -0.14615202 0.0061890483 -0.10620116 7.958627e-05 1.2309194e-09
8.26383e-21 1.2248082e-22 2.9092934e-10 1.5670669e-21 1.0945074e-05 -0.020426607 1.6847085e-05 -0.008485338
0.029873183 -1.5283876e-19 -0.00020097138 1.6728784e-06 3.8340676e-07 -0.019480925 -4.0581646e-05 1.2935614e-21
0.0015395302 9.086632e-08 9.2452996e-05 0.018026998 0.15919071 -0.12677646 -0.00018636105 -0.19555491
1.4303845e-15 2.484164e-11 8.698726e-17 -4.6508882e-07 -0.00011162525 -0.013785448 -3.677402e-16 -8.1799867e-10
7.722698e-16 7.184718e-27 7.581676e-08 -5.170277e-23 -1.0530155e-20 0.00016265619 -0.00033381794 -2.302477e-13
3.2877948e-17 3.5792287e-21 -9.4446254e-20 1.6393801e-14 7.3408593e-17 -0.0025182066 -1.0543141e-09 7.4324177e-17
-0.039443713 1.3235253e-18 -1.3420955e-09 -0.019456284 0.0046636593 0.03256863 -0.0056331144 -5.707441e-10
0.055813737 -2.2817267e-11 -9.315817e-18 -0.0029041162 7.76704e-06 -0.050178375 3.094438e-13 -3.2875005e-12
-2.0376697e-15 1.2606789e-29 2.4555823e-06 8.363141e-17 -0.09486702 0.11353509 -7.909285e-10 0.0027104262
-0.00028397088 2.3510221e-08 2.5222964e-12 3.29343e-05 8.752849e-06 0.0012587096 4.0263324e-11 5.3434782e-14
-3.50856e-08 1.1615103e-06 0.12164457 -0.02751552 0.002295844 0.23893501 1.3421483e-16 -0.038464706

w_comp f4 [183, 4]
00000000: def6 afab 11a4 93ab dd73 102a 3a01 7ea8
00000010: 3cf6 3030 84b1 be30 0b1e a02f 94de 40b0
00000020: 1e4c af29 a871 de29 2779 36ab bf55 39b3
00000030: d6e6 e9bb 7bf5 a6bb faef 71bb 44ab fdb9
00000040: 2d1e 8f3e 49ba 7d3e 4e41 743e 983e 803e
00000050: 8929 493e a8d8 5a3e 028b b3bc 711b 5a3e
00000060: 8f8b 0080 6f38 43b3 a840 bfb4 2b12 0100
00000070: 2341 19bd b93a 2dbd e6fc a53d a2b0 a83d
00000080: 3225 2834 e6f5 5d34 a113 73b4 1714 10b7
00000090: f173 0b3e 91f1 3e3e cc06 273d 0143 8c3e
000000a0: d536 153e 2469 113e 0032 273e 4708 1b3e
000000b0: c29e 9b3b 7b5d e03c 484c a5bb beee 22bb
000000c0: 9148 de39 6454 16b9 64ce 4338 9450 293a
000000d0: 78a9 dbb8 abdc 71b8 8fba b632 ae60 89b3
000000e0: 3b6f 85b2 5c8e a2b2 aed3 0d32 5146 3432
000000f0: 906d 77be c032 3ebe 8a92 afbe fb49 68be
00000100: a213 0100 ebb4 0080 3570 0080 1f25 0000
00000110: b61e 0d39 4c52 11b8 38be 0db7 eef5 4b37
00000120: dc73 55ba 6ec9 10bd 1ed1 063e a2c6 763b
00000130: 0fc5 6a3d 0905 843d a4c0 4d3c b98f 153d
00000140: 403f e63d dcb5 a83e 556e 933e b38a c6bd
00000150: f520 8ebe 9e25 9dbe ec7e f6bd bbf4 c1be
00000160: 1108 0000 c213 8a2c a609 4a2f 70b3 bfb5
00000170: 9845 6e3d 7d11 7a3d 48ab 9c3d 2763 623d
00000180: 353b 0c32 5943 4db5 d359 a6b8 2fa0 3bb6
00000190: 6e98 beb1 e371 9fb2 0cf2 14af 11c0 4fb2
000001a0: ded0 2cb3 c864 86b3 20dd e2b2 4d57 76ba
000001b0: dbdf 86b6 be93 8fb6 4ec7 cbb8 9609 e832
000001c0: e0f5 608d 0342 c20c 0d60 cf0d 1829 b20d
000001d0: 6ac7 18be 1cb1 1dbe 1fb9 98bd 700d d3bd
000001e0: 6b50 75ab 19fc b529 6c4a fb2a 36fb 16a9
000001f0: 2af7 05b8 b131 0080 1eba 0000 300c 602b
00000200: a7fd 0936 36fa 9bb6 d6a1 b835 fe7b 94b6
00000210: 402c 0100 8ff0 86ae d685 0100 4cda 0080
00000220: 7985 ab39 e702 5139 befd 75b4 ca29 433a
00000230: 0af2 463b e0c6 adba 9ec5 943b 7969 7e3d
00000240: 80ee 2929 a0b1 96ab 6aa0 f3a6 8c44 20a8
00000250: 3016 5b1e 2027 451d d4e6 049e 9ff5 259f
00000260: e6ea 533d c16c 693d 9560 d1bc 4438 c03d
00000270: 1066 8884 c25e 6105 e89a ce84 ced3 b184
00000280: e323 0934 04fc 8233 6c7c 64b2 3212 74b6
00000290: 4349 8b33 2642 cf33 7c6a 9a32 9486 5733
000002a0: 6b57 ef3e f8e6 f23e 72b8 0e3f c876 7e3e
000002b0: 08e8 95ad 8252 61ad 898d 0fae d9a4 5bae
000002c0: f401 9824 f143 3fa8 71af 152a 38e2 8a24
000002d0: 09ac 0080 f78a 35b9 242c ccad 9e07 dfb1
000002e0: e952 7839 ec3f 113a 32a1 b43c cfad 1a3d
000002f0: c22e 2bbd 5a12 51bd 8569 44b8 9acf 16bd
00000300: b6f7 95a6 a8de c024 4448 96a6 b3dc f125
00000310: fece eabe 5b76 74be af10 8bbe 9912 50be
00000320: bc83 14b0 7e01 622e b0d4 5438 ccf3 e139
00000330: 8bf0 fe2b 439e a433 29b8 522b 13c9 9c2c
00000340: 46e3 57b8 b668 9f37 f355 a238 4300 c5b0
00000350: 96b9 bc2b 2341 4bac 545e 98ab 0238 602c
00000360: 1760 0a3a 5cda 3fbc b804 66bd f9d2 f93d
00000370: 2f6f d53e 9649 cb3e 4b98 053e 7360 f53d
00000380: 9336 0a3e 7e5f e23d 36b7 71bd 6d24 853e
00000390: 221f 8221 f6f2 1ca2 f029 0f23 dc8c 2c22
000003a0: d7d8 0000 ce04 0080 c784 0080 de54 0000
000003b0: dcbf 0080 8ea7 0100 7a64 0080 720f 0180
000003c0: 1ca0 db2d 97d8 8f2e c630 c0ad d039 79ae
000003d0: 4271 0080 5822 0180 799d 0580 df92 7fab
000003e0: d5d1 093e 7d4a 443e e13a 573e 7d45 d83e
000003f0: 438e 88bd 296b 46bc 44ce 45bb 0c26 e0bd
-1.2503017e-12 -1.0490516e-12 1.2829967e-13 -1.4100098e-14 6.4378347e-10 1.3874772e-09 2.9125177e-10 -7.0165496e-10
7.7847654e-14 9.878497e-14 -6.482752e-13 -4.3151655e-08 -0.0071381135 -0.0050951815 -0.0036916719 -0.00048383523
0.2795271 0.24778093 0.23853037 0.25047755 0.1964475 0.2137171 -0.02191687 0.2129953
-5.0064e-41 -4.54533e-08 -3.5623566e-07 9.8353e-41 -0.037415635 -0.04229233 0.08104877 0.08236815
1.5659751e-07 2.0671686e-07 -2.263828e-07 -8.587746e-06 0.13618447 0.18646838 0.040777966 0.2739487
0.14571698 0.14200264 0.16327667 0.15139876 0.00474915 0.027388325 -0.005044494 -0.002486154
0.00042397206 -0.00014336553 4.668384e-05 0.00064588455 -0.000104743 -5.766439e-05 2.1272426e-08 -6.3971456e-08
-1.553382e-08 -1.892402e-08 8.255411e-09 1.0493367e-08 -0.24162889 -0.18574047 -0.34291488 -0.22684471
9.8878e-41 -6.4901e-41 -4.0252e-41 1.3317e-41 0.00013458249 -3.464734e-05 -8.448544e-06 1.2157003e-05
-0.00081425696 -0.03534835 0.1316571 0.0037655015 0.057316836 0.06446273 0.012558136 0.036514018
0.11242533 0.32951248 0.28795114 -0.096944235 -0.2775952 -0.30692762 -0.12035927 -0.37882027
2.894e-42 3.9243895e-12 1.8375221e-10 -1.4282832e-06 0.05817184 0.061051834 0.07649857 0.05527034
8.162535e-09 -7.6466455e-07 -7.932228e-05 -2.795841e-06 -5.547057e-09 -1.8561826e-08 -1.3546514e-10 -1.2092657e-08
-4.0236834e-08 -6.258193e-08 -2.6410419e-08 -0.0009397164 -4.0195714e-06 -4.2789316e-06 -9.716918e-05 2.7012714e-08
-6.932129e-31 2.9930162e-31 1.2780483e-30 1.097999e-30 -0.1491982 -0.15399593 -0.07457184 -0.103052974
-8.715309e-13 8.081747e-14 4.4638197e-13 -3.352458e-14 -3.193986e-05 -1.7826e-41 6.6766e-41 7.95977e-13
2.0562236e-06 -4.6484884e-06 1.3756169e-06 -4.4251783e-06 1.0771e-40 -6.136346e-11 1.39847e-40 -7.831e-41
0.00032715106 0.00019932874 -2.2909714e-07 0.0007444887 0.003035667 -0.0013258122 0.0045401594 0.062112305
3.7732404e-14 -1.0707442e-12 -1.6904993e-15 -8.896648e-15 1.1598352e-20 2.609296e-21 -7.035756e-21 -3.5143282e-20
0.05173769 0.05698848 -0.02555875 0.09385732 -3.2067176e-36 1.05968534e-35 -4.8572626e-36 -4.1807012e-36
1.2772175e-07 6.099438e-08 -1.3299637e-08 -3.6369424e-06 6.486018e-08 9.651221e-08 1.7976383e-08 5.0180986e-08
0.46746382 0.4744184 0.5575019 0.24849999 -1.7042381e-11 -1.280809e-11 -3.2640144e-11 -4.994125e-11
6.59228e-17 -1.0617362e-14 1.3294727e-13 6.023119e-17 -6.1715e-41 -0.00017313274 -2.3211717e-11 -6.49102e-09
0.0002368201 0.0005540836 0.02204952 0.037763413 -0.04179264 -0.051042892 -4.6828314e-05 -0.036819078
-1.0406094e-15 8.364392e-17 -1.0427928e-15 4.1956387e-16 -0.45861048 -0.23873274 -0.27161166 -0.20319594
-5.402929e-10 5.1387776e-11 5.074282e-05 0.00043096987 1.811455e-12 7.665633e-08 7.486256e-13 4.4561104e-12
-5.147166e-05 1.9003037e-05 7.740771e-05 -1.4333711e-09 1.3409714e-12 -2.8884193e-12 -1.0826431e-12 3.1863405e-12
0.0005278601 -0.011709776 -0.056156844 0.12198443 0.4168639 0.3970458 0.13046376 0.11981287
0.13497381 0.1105337 -0.059012614 0.26004353 8.817383e-19 -2.1270565e-18 7.760926e-18 2.3384917e-18
7.7787e-41 -1.724e-42 -4.7632e-41 3.0445e-41 -6.8826e-41 1.51943e-40 -3.6044e-41 -9.7376e-41
2.496852e-11 6.541361e-11 -2.1849533e-11 -5.6667393e-11 -4.0629e-41 -1.04156e-40 -5.15668e-40 -9.0798023e-13
0.13458951 0.1916904 0.21018554 0.42240515 -0.06667759 -0.01211051 -0.0030182758 -0.10944757

self_loop_weight f4 [32, 32]
00000000: 360b 173f 6102 9b3e 8b0b d4be 399a 2dbf
00000010: ce6f c8be c348 2a3f 1bb0 853f c5d1 6cbf
00000020: 21b9 1abf d647 c1bd 76f8 a13c 774e f8ba
00000030: d5e6 1fbf 395c 19be 6117 9dbe e443 b73e
00000040: 8a03 d1be c56c 39bf 7273 99be a571 6bbe
00000050: 4d0e 80be 95a6 4e3e 9aae 27bf 5558 92be
00000060: 7dc7 bfbe 3b90 f9bd 18be 1cbf ee00 09bf
00000070: f882 a8be c375 013e d7ed 99be 355c 70be
00000080: 5cea 3ebe 1f3a 063e c585 65be 6bf2 6a3e
00000090: d052 233c 7715 34bf 999c 90be 8989 16bf
000000a0: 62ed 43bf bd1d 25be 4e08 9bbe eccc 94be
000000b0: b948 03bd 1ec3 61bf 603e 6cbf 2736 1d3f
000000c0: 0edb 29be 7f82 cbbf 690d 86bd 1769 a3be
000000d0: 3c4c 08bf ab7e 1bbf da2b febe 45f1 02bf
000000e0: d7c6 cabe 1dfd bcbb 458e 9fbe 756e 79be
000000f0: f84d 46bf 77de aabf 9729 27bf 4f7d 993d
00000100: 5d1a 31bf ebdd 13bf 28f7 febd 2327 173e
00000110: 1cab 1fbf eedb 91bf 9323 403f 28ba f6bf
00000120: 492c 1ebf 01ac d9be 834c d6be 3bd0 69be
00000130: fdf0 8abf b9fc 97bf a760 2abf e18c dfbe
00000140: b506 7abe e53a 84be aace 24bf 9d91 b2bf
00000150: f257 97bf c6e4 5fbf c698 6b3f c6be 3abf
00000160: a6a6 1fbf 3961 8bbe a0af 3cbe d164 f9bf
00000170: 16d5 d2bf 5e24 913e 107c f5be e13a 24bf
00000180: 63e3 6ebe b60b 883c 48f6 ac3d 39fb cabe
00000190: 2d89 adbd 6f4b 2d3d 4b58 aebf 54d1 2ebf
000001a0: 18aa b5be 7c48 88be aaee 413e 1263 91bd
000001b0: 72d7 aabf e212 27bf 73ef 803e 8430 2ebf
000001c0: 2221 dabe c194 18bf 978a 8b3e a7dd 72bf
000001d0: e16a afbd 9ed8 75be 94b6 8abf 63c1 34be
000001e0: 8188 1bbe 7341 acbc 8bc4 9abf a80e e3bb
000001f0: 700c 34bf c664 90bf efc0 ca3d 64d2 37bf
00000200: f021 6f3f 8dc0 1bbf d3d4 94bc 1f1f 0d3e
00000210: 5858 15bf bcf7 c2be 5d86 2b3f 1dbd 9d3f
00000220: 6452 b1bf c2ea e93d 0b02 40bd 00f0 5b3d
00000230: 99c5 b2bf ac22 aabe 0a79 44be 886a 293e
00000240: ef4d afbe 1ce6 183f ed41 98bd a461 fb3e
00000250: b6f3 3abe 8b9a 5e3e 13c9 3fbf 106f c1be
00000260: 6ae4 7dbe d48e fbbd b2c9 72be 0a62 2dbf
00000270: 5795 413f 1b44 0c3e 71c3 1bbe 158e 2ebf
00000280: b1b3 653e 45f6 a5be 0b2d 18be 26be d0be
00000290: 5b2f 91be 56d6 b93e 3cd1 25be e1b2 7abf
000002a0: 2c0b cebe 0f44 ebbc 6a64 0dbe fbc5 d5ba
000002b0: 67c2 a43f a39f 29bf 5f71 16be b2a0 37bf
000002c0: e758 18bd 4a9e 313e 67c2 02bf 53a9 73be
000002d0: 9113 35bf 3331 b2b9 af22 66bf d114 48be
000002e0: d8dc 373d d5d0 8ab7 fb8d b5be ea92 4b3f
000002f0: d5fe 82bd 2c50 4cbe 835e edbe 3e53 f0bf
00000300: dc25 f03e d61c c5be ea9f 13be aa38 95be
00000310: d3b5 33bd bf43 fd3e f4b3 283f aa31 8abe
00000320: ddc0 b33e b938 0236 2a41 5e3e 1e09 f9bc
00000330: 4ef2 cd3e 527a ed3d 2f74 9fbe 0396 1dbf
00000340: 6286 1ebe 998c da3e eedc 0e3e ca26 433a
00000350: 5e91 30bf 4139 a8ba 4eb5 9a3f f56a 0fbf
00000360: 09ec 34be f2e2 e53b ac1b 313f e66e 0e3f
00000370: 0a32 c7be 5b26 16bf 5d7f dfbd 3c45 77be
00000380: 3f05 94bf b4fa 67bd f64e 023c 9210 103f
00000390: 6510 16bf a070 64bf 8212 383f eab0 54bf
000003a0: d719 27bf 0f6f aebd de3f 03bf b4a1 bcbe
000003b0: c25c 18bf f41e a1bf de26 cebe 7a03 78bf
000003c0: 113f 963d 2e72 84bf 40d0 00bd 9c7d c43e
000003d0: 8adb 133f 4ab4 c2be e986 dabf 1449 54be
000003e0: f7b4 5ebd ae34 7fbc 8e1c 41bf 3297 75be
000003f0: 3c9d bebe 79a6 93bd 9d37 4abe 41a6 93be
0.5900148 0.30275252 -0.41415057 -0.6781345 -0.391478 0.66517276 1.0444368 -0.9250758
-0.60438734 -0.0943753 0.019771796 -0.0018944283 -0.62461597 -0.14976586 -0.306819 0.35793984
-0.40823013 -0.72431594 -0.2997089 -0.2299257 -0.2501091 0.20180734 -0.65500796 -0.28583017
-0.37456885 -0.12185713 -0.6122756 -0.53517044 -0.3291242 0.12642579 -0.3006427 -0.23472674
-0.18644089 0.13108109 -0.2241431 0.22944038 0.0099684745 -0.7034525 -0.28244475 -0.5880361
-0.7653409 -0.16124626 -0.30279773 -0.29062593 -0.032051776 -0.8818835 -0.92282677 0.61410755
-0.16587469 -1.5899199 -0.065455265 -0.31916115 -0.53241324 -0.60740155 -0.4964283 -0.511494
-0.39604828 -0.005767478 -0.3116323 -0.24358542 -0.7746272 -1.3349141 -0.65297836 0.07494604
-0.6918085 -0.57760495 -0.12449485 0.14761023 -0.6237047 -1.1395242 0.7505428 -1.927556
-0.61786324 -0.4251404 -0.4185525 -0.2283334 -1.0854794 -1.1874 -0.6655373 -0.4366217
-0.24416621 -0.25826183 -0.64377844 -1.3950688 -1.1823714 -0.87458456 0.9202999 -0.7294735
-0.6236366 -0.27222613 -0.1842637 -1.9483892 -1.6471279 0.28348058 -0.47946215 -0.6415234
-0.23328929 0.016607147 0.08445412 -0.39644793 -0.0847343 0.042308267 -1.3620695 -0.6828816
-0.35481334 -0.266178 0.189387 -0.07098974 -1.3346999 -0.6526319 0.25182685 -0.6804278
-0.42603403 -0.5960198 0.27254173 -0.94869465 -0.085653074 -0.24008414 -1.0836968 -0.17651896
-0.15188791 -0.021027302 -1.209123 -0.0069292374 -0.7033148 -1.1280754 0.099000804 -0.71805406
0.9341116 -0.60840684 -0.018167889 0.13781403 -0.58337927 -0.3807963 0.670019 1.2323338
-1.3853269 0.114217296 -0.04687695 0.05369568 -1.3966552 -0.33229578 -0.19186798 0.16544545
-0.34239146 0.5972612 -0.07434449 0.4909793 -0.18257031 0.21738641 -0.7491619 -0.37780046
-0.24794164 -0.12283102 -0.23709753 -0.6772772 0.756185 0.13697855 -0.15211274 -0.6818555
0.22431828 -0.3241445 -0.14860933 -0.40770072 -0.28356442 0.36296338 -0.16193098 -0.979292
-0.40242898 -0.028718976 -0.13807836 -0.0016309613 1.2871827 -0.6625921 -0.14691685 -0.71729577
-0.03719416 0.17345539 -0.51077884 -0.23795061 -0.7073298 -0.00033987462 -0.8989667 -0.19539191
0.044888347 -1.6548127e-05 -0.35459885 0.7952105 -0.063962616 -0.19952458 -0.4636117 -1.8775403
0.46903884 -0.38498563 -0.14416471 -0.29144794 -0.043874573 0.4946575 0.65899587 -0.26991016
0.3510808 1.9404526e-06 0.21704546 -0.030399855 0.40223926 0.115955964 -0.3114333 -0.61557025
-0.1548095 0.42685392 0.13951465 0.00074444397 -0.6897181 -0.0012834446 1.208658 -0.5602258
-0.17668165 0.0070155794 0.6918285 0.5563797 -0.38905364 -0.58652276 -0.109129645 -0.24147505
-1.1564101 -0.056635574 0.007953396 0.56275284 -0.58618766 -0.8923435 0.7190324 -0.8308245
-0.65273803 -0.085172765 -0.5126933 -0.3684212 -0.5951654 -1.2587571 -0.40264028 -0.96880305
0.07336248 -1.0347345 -0.031448603 0.38377082 0.57756865 -0.38028175 -1.7072421 -0.20731002
-0.0543718 -0.015576525 -0.75434196 -0.23983458 -0.37229335 -0.072094865 -0.19747777 -0.2883778
