experiments/grail_nell_v2/best_graph_classifier.pth (torch, 129324 bytes, 21 tensors)

weight f4 [88, 32]
-0.19211292 -1.2098818 -1.1284711 0.4118794 -0.7528323 0.160255 -0.34052372 0.22085567
1.0118846 -0.07028379 -0.5983283 0.34521398 1.2814002 -0.2876841 1.0904648 -1.2945758
-0.57639307 -0.34360173 -0.7219474 0.8301081 -3.229672 -0.4698347 -0.97855306 0.031443913
0.7794577 0.8028158 -0.09907843 -0.5813421 0.071951345 0.08165955 0.5809876 2.1367817
2.289103 -0.5591277 -0.86943215 2.17982 -0.2923817 -1.1587027 -1.3317579 0.1653157
0.7489265 0.7384915 -0.88386136 -0.4095412 -0.63447076 0.773712 0.34226578 2.5931506
0.30976093 0.6522295 0.49282062 2.4394214 -0.49456987 -0.2492649 0.5781372 -0.31286576
1.3308622 -0.53062147 -1.6583622 -0.82056934 -0.18625624 -1.1791121 0.34795594 0.3397032
-0.32899055 0.66576326 0.5484108 0.104378775 0.14314467 0.13960376 -1.5830684 -1.0156022
0.18527555 1.270706 -0.3803642 -1.4553027 -1.3863943 0.35668787 -0.046843782 2.1930993
-0.24677292 0.38144273 -0.1939138 -0.4035738 0.21832694 0.12075843 0.15805647 -0.0500208
-0.14031224 0.46726847 -0.8964635 -0.15836677 -0.31981137 0.1786882 -0.4593482 -1.8033823
0.19819286 0.2669641 -0.48284727 -0.9602683 0.0017119882 0.2491857 -0.25942752 0.0010594403
0.93816864 0.0730988 -0.09139607 0.2011504 0.74629945 -0.007164936 -0.12427092 -0.03873454
0.46903142 0.46773037 0.14501332 -0.21546414 -0.15924895 -0.7283755 -0.2382816 0.072674654
-0.23376541 0.44660714 -0.50126547 -0.1786876 -0.07284753 -0.26999012 0.20465182 0.0025880742
-0.02117017 0.44263816 0.69391584 0.18028636 0.560829 0.04877982 -0.9944068 -0.37841198
-0.63265485 0.8290494 -0.45930243 -1.1785101 0.5047287 -0.030812602 0.26334208 0.08865596
-0.39049745 -0.06613207 -0.1835449 0.7722566 -1.7095506 0.285549 -0.225166 0.192711
-0.12627897 -0.18184769 -0.047965672 -1.3438538 -0.31714028 0.3344246 -0.44759035 -0.23106928
-0.16695975 0.49059263 -0.13400413 -0.3649175 -0.054340463 0.12063555 -1.8025048 -0.013877348
-0.6703125 1.0428005 -0.19925502 -1.2439195 -0.8625565 -0.5877434 0.09018541 -0.8350442
0.44960243 0.5918577 -0.5483244 0.0041357246 -1.1442672 -0.3442541 0.7347624 0.19922721
0.20753135 0.76340854 -0.35284767 -2.4194558 -0.14465477 -0.03901619 -0.36559954 0.07078695
0.19024134 0.16592374 0.3797369 -0.14431088 -0.45466742 -0.20879094 -0.34829712 0.1334378
-0.33758616 -0.28877422 0.36385435 -0.13282944 0.447915 0.06993362 0.16872507 0.4277233
-0.007278634 -0.29670414 -0.36323896 -0.4100399 -0.027598482 0.2572025 0.07828994 0.24091172
0.11095357 -0.18126012 -0.050578352 -0.19866575 -0.0002467223 0.17892 -0.118684635 -0.23727442
0.34628546 -0.13458675 0.38507852 -0.2589398 0.2902056 0.75622 -0.8166414 0.31729743
0.35781622 -0.08689043 1.0198572 -0.57054615 0.41381454 0.5898272 -0.40214783 -0.8785499
-0.1627939 -0.60253054 0.15321618 0.122832164 0.2266871 -0.33974057 -0.20545414 1.4768171
-0.21069282 -0.13943328 -0.5307223 0.28101322 -0.34404346 -1.3809543 0.021836 -0.8002414
00000000: 40b9 44be 68dd 9abf be71 90bf dbe1 d23e
00000010: 9eb9 40bf e319 243e 2059 aebe fd27 623e
00000020: 6f85 813f f3f0 8fbd 0b2c 19bf e3bf b03e
00000030: ec04 a43f 554b 93be 5a94 8b3f a9b4 a5bf
00000040: 7f8e 13bf 91ec afbe 8bd1 38bf f781 543f
00000050: f2b2 4ec0 2c8e f0be 7482 7abf 55cb 003d
00000060: 8a8a 473f 5685 4d3f a2e9 cabd d6d2 14bf
00000070: 3a5b 933d 1f3d a73d 9abb 143f 08c1 0840
00000080: aa80 1240 fe22 0fbf 1b93 5ebf 2c82 0b40
00000090: 0eb3 95be 5f50 94bf 0b77 aabf 8548 293e
000000a0: a6b9 3f3f c70d 3d3f bd44 62bf 62af d1be
000000b0: ad6c 22bf fd11 463f 763d af3e 2ef6 2540
000000c0: fc98 9e3e 83f8 263f fc52 fc3e 7b1f 1c40
000000d0: 4338 fdbe 4c3f 7fbe cd00 143f f12f a0be
000000e0: b159 aa3f cfd6 07bf 3645 d4bf d510 52bf
000000f0: f5b9 3ebe 25ed 96bf 4827 b23e 94ed ad3e
00000100: 7371 a8be 766f 2a3f a664 0c3f 8ac4 d53d
00000110: 8494 123e 4af4 0e3e fca1 cabf 41ff 81bf
00000120: e0b8 3d3e 7fa6 a23f 19bf c2be 5c47 babf
00000130: 5e75 b1bf cb9f b63e 44df 3fbd bd5b 0c40
00000140: 0ab2 7cbe 764c c33e 5791 46be 3aa1 cebe
00000150: 1991 5f3e 3250 f73d 8ed9 213e 9ce2 4cbd
00000160: 03ae 0fbe d03d ef3e a27e 65bf e62a 22be
00000170: 51be a3be 0afa 363e b02f ebbe 3bd5 e6bf
00000180: 12f3 4a3e 85af 883e c237 f7be 25d4 75bf
00000190: cb64 e03a 892a 7f3e afd3 84be ebdc 8a3a
000001a0: d22b 703f d3b4 953d dd2d bbbd 5ffa 4d3e
000001b0: 7b0d 3f3f d7c7 eabb c181 febd 1ca8 1ebd
000001c0: e324 f03e 5b7a ef3e 5f7e 143e a2a2 5cbe
000001d0: 2812 23be d176 3abf 1700 74be 73d6 943d
000001e0: 3360 6fbe b1a9 e43e ef52 00bf e2f9 36be
000001f0: 1631 95bd 253c 8abe 3f90 513e ae9c 293b
00000200: 106d adbc 78a1 e23e 78a4 313f fd9c 383e
00000210: 7d92 0f3f 59cd 473d 7291 7ebf 37bf c1be
00000220: abf5 21bf 953c 543f b029 ebbe 6bd9 96bf
00000230: e635 013f b66a fcbc c6d4 863e 4291 b53d
00000240: 48ef c7be 4070 87bd 32f3 3bbe 9cb2 453f
00000250: 8ed2 dabf 7b33 923e ea91 66be 0856 453e
00000260: 464f 01be 4836 3abe a777 44bd 6703 acbf
00000270: 3660 a2be b339 ab3e 902a e5be 6d9d 6cbe
00000280: 7ff7 2abe f52e fb3e 6138 09be 77d6 babe
00000290: 1b94 5ebd c50f f73d 7ab8 e6bf d15d 63bc
000002a0: 9a99 2bbf 7d7a 853f 8209 4cbe c138 9fbf
000002b0: 81d0 5cbf 5a76 16bf 21b3 b83d 75c5 55bf
000002c0: 4a32 e63e fc83 173f fd5e 0cbf f984 873b
000002d0: 5977 92bf 1342 b0be 6319 3c3f 3802 4c3e
000002e0: 1983 543e be6e 433f 73a8 b4be 5dd8 1ac0
000002f0: 6120 14be 71cf 1fbd dd2f bbbe c0f8 903d
00000300: a0ce 423e eae7 293e e06c c23e 3bc6 13be
00000310: 2bca e8be 4bcd 55be 0054 b2be eba3 083e
00000320: 18d8 acbe 37da 93be 1e4b ba3e 7104 08be
00000330: 1d55 e53e 5c39 8f3d 44c6 2c3e 8cfe da3e
00000340: 9b81 eebb 9be9 97be 75fa b9be c0f0 d1be
00000350: 3616 e2bc 0cb0 833e 7a56 a03d 90b1 763e
00000360: a03b e33d 419c 39be 3f2b 4fbd 096f 4bbe
00000370: 825a 81b9 ce36 373e ee10 f3bd 11f8 72be
00000380: 544c b13e 1cd1 09be 0329 c53e c293 84be
00000390: d495 943e a297 413f 690f 51bf cf74 a23e
000003a0: b033 b73e 9cf3 b1bd ae8a 823f 500f 12bf
000003b0: 80df d33e eafe 163f 52e6 cdbe a5e8 60bf
000003c0: 72b3 26be 713f 1abf b4e4 1c3e 6e8f fb3d
000003d0: aa20 683e 7af2 adbe 9262 52be 5808 bd3f
000003e0: dcbf 57be 99c7 0ebe 6bdd 07bf f7e0 8f3e
000003f0: 7726 b0be 1cc3 b0bf 69e1 b23c 9fdc 4cbf

weight f4 [4, 8, 32]
1.3963073 1.2534183 -1.7832364 0.11081567 -0.5339864 -0.2522917 0.6464082 0.87172335
-0.47529978 -0.28367394 0.8923111 3.2664216 -1.0952334 1.2072265 2.2198558 -0.9645404
-0.077174775 -0.7586447 -1.9577802 0.10318069 -0.37856704 -0.24739605 -0.35653716 -0.72590834
-0.5056445 -0.014441205 0.08523154 0.093717836 0.06740441 0.6959812 0.1638284 -0.34574434
0.11215723 -4.050046 -0.41387215 0.024685264 -0.7897306 1.9221857 -1.3182305 -0.46787986
-0.20853755 -1.2067554 1.1341239 -0.59695673 -0.6140922 -0.9146043 -0.68633336 0.3805918
-1.1567459 0.27470872 -0.08126933 -0.63046765 0.12610364 -0.12455992 -0.89492285 -1.6613292
-0.84062594 0.6673265 -0.1848954 0.10314564 0.0058600875 -1.4951339 -2.2488377 -0.34441584
-1.499282 -0.8003683 0.5273265 2.2600815 1.5188414 -1.0771105 0.24081254 -0.19919166
-1.0845561 -1.282734 0.081698224 -1.0198452 0.22168654 -3.0730128 0.18426308 -2.342848
-0.3376388 -1.7047278 -0.4474607 0.1369016 -0.8861718 -0.2784217 -0.010845248 -1.3490669
-0.44959238 -0.5932585 -0.014970845 -0.34930432 -0.025417324 1.652054 -1.8780943 1.1676631
-1.4091606 -0.006999675 -0.30646297 -0.8463559 -3.1077707 -0.6900504 -0.7919795 0.083838336
0.7679456 -0.8952248 -0.19275665 -0.7894585 -0.17069238 -1.4603565 -2.177033 0.9058004
-0.13237719 -1.1995593 -0.3760219 -0.29181278 0.29418513 -0.2992583 0.82995325 -1.5903515
0.3006766 -0.15284893 0.24133624 -0.35510138 -1.3078569 -2.4114192 -1.0280687 0.07762636
-0.5886826 -0.8965082 1.0235987 2.6881022 1.9587961 -4.674455 2.8129034 0.017738197
-0.59086907 -0.38034648 0.26910868 0.15500991 -0.18028487 0.8178516 0.8460779 -1.6512793
-0.4498436 1.685275 -0.3110763 -0.30002302 -0.39359936 -0.06605752 2.3919532 -0.72908026
1.0867823 0.5100661 2.8777401 0.34845015 -0.027328392 2.276061 -1.6480567 -0.10932962
-1.9045098 -0.9287013 -1.4748356 -0.7019906 -0.95227224 1.5537109 -1.1912014 -0.16020079
-0.09931741 -1.1475363 2.1188376 -0.13583751 0.5022482 -0.44376796 -0.034255955 0.36430475
-0.4580009 -1.0084625 -0.6949961 0.39644885 -0.6066939 -0.60316163 0.4846871 -1.4958509
-1.1958283 -0.026190847 1.0275764 -0.8952456 0.82949656 0.03304157 -2.484855 0.010000448
0.4072431 -0.38399705 0.57991105 2.3253338 0.026486643 -0.13500625 -1.1252892 -0.8617797
-0.9777741 -1.4256345 -0.3934364 0.8545219 -0.23580511 -3.2754257 -1.118881 -0.4897249
-0.71045196 -0.14000177 -0.74187803 -0.40719748 0.577023 0.034923967 -1.2508205 -1.244264
0.7107435 -0.19114755 -2.3080952 -0.14427345 0.7467208 -1.2948133 0.10573387 -0.28060794
-0.34726334 -0.7250019 -0.52289873 -2.5949728 -1.0770781 -0.22985214 -0.78972447 0.26416698
0.15189382 -0.39644372 -0.231401 0.2900496 -1.517312 -0.43564597 2.7735457 -1.2264419
0.012723271 -1.2451167 -1.5521389 -0.7365042 -1.0583698 0.04793409 -0.9293277 -0.5963607
-2.0087085 -1.0448583 -0.4812138 0.19370227 -4.3273406 -1.4796658 -0.8760256 -0.38360083
00000000: 33ba b23f 0370 a03f 1741 e4bf 53f3 e23d
00000010: 55b3 08bf 612c 81be 027b 253f 4329 5f3f
00000020: 7e5a f3be b63d 91be 806e 643f 0d0d 5140
00000030: 9c30 8cbf 6686 9a3f 1e12 0e40 1fec 76bf
00000040: cf0d 9ebd 8a36 42bf 8b98 fabf 6650 d33d
00000050: 8ad3 c1be 6455 7dbe 0a8c b6be 21d5 39bf
00000060: eb71 01bf ce9a 6cbc e08d ae3d 23ef bf3d
00000070: 530b 8a3d d32b 323f a2c2 273e 6705 b1be
00000080: b1b2 e53d fa99 81c0 0de7 d3be c038 ca3c
00000090: c92b 4abf 2e0a f63f c7bb a8bf f38d efbe
000000a0: de8a 55be f676 9abf f92a 913f 28d2 18bf
000000b0: 2535 1dbf 8223 6abf 8bb3 2fbf eedc c23e
000000c0: 4010 94bf 9fa6 8c3e 8970 a6bd 5466 21bf
000000d0: 5021 013e 4519 ffbd aa19 65bf 6fa6 d4bf
000000e0: 4333 57bf e9d5 2a3f 3855 3dbe 053e d33d
000000f0: fa05 c03b 8c60 bfbf f5ec 0fc0 4657 b0be
00000100: 79e8 bfbf f0e4 4cbf dffe 063f 2da5 1040
00000110: 6569 c23f c2de 89bf 9097 763e e6f8 4bbe
00000120: bcd2 8abf a130 a4bf 6651 a73d 4a8a 82bf
00000130: cc01 633e 3eac 44c0 76af 3c3e 39f1 15c0
00000140: fede acbe 8534 dabf 9219 e5be ef2f 0c3e
00000150: 28dc 62bf 4a8d 8ebe 44b0 31bc 39ae acbf
00000160: f930 e6be cadf 17bf 4648 75bc 04d8 b2be
00000170: fe37 d0bc 8176 d33f 6565 f0bf fc75 953f
00000180: 605f b4bf 885d e5bb b7e8 9cbe c8aa 58bf
00000190: b7e5 46c0 25a7 30bf 2bbf 4abf 6fb3 ab3d
000001a0: 1598 443f 742d 65bf 0062 45be f419 4abf
000001b0: fcc9 2ebe f6ec babf 8254 0bc0 89e2 673f
000001c0: e38d 07be 298b 99bf f185 c0be 7c68 95be
000001d0: 6f9f 963e 6238 99be d177 543f a390 cbbf
000001e0: 49f2 993e 6e84 1cbe d920 773e d9cf b5be
000001f0: db67 a7bf b154 1ac0 c197 83bf 92fa 9e3d
00000200: e7b3 16bf 9081 65bf 4805 833f de09 2c40
00000210: d5b9 fa3f 2395 95c0 9c06 3440 b24f 913c
00000220: 3243 17bf c6bc c2be 9dc8 893e ebba 1e3e
00000230: 999c 38be b95e 513f 9098 583f 1f5d d3bf
00000240: e651 e6be 17b7 d73f 6545 9fbe 9e9c 99be
00000250: db85 c9be 2a49 87bd c315 1940 01a5 3abf
00000260: af1b 8b3f b193 023f e52c 3840 0f68 b23e
00000270: cbdf dfbc fcaa 1140 86f3 d2bf 35e8 dfbd
00000280: fac6 f3bf 5ebf 6dbf 6ac7 bcbf a8b5 33bf
00000290: 1dc8 73bf 00e0 c63f 4a79 98bf ad0b 24be
000002a0: ed66 cbbd 78e2 92bf 099b 0740 fd18 0bbe
000002b0: 5793 003f 8e35 e3be f94f 0cbd 2786 ba3e
000002c0: 187f eabe 4d15 81bf 44eb 31bf 58fb ca3e
000002d0: 4b50 1bbf cd68 1abf e828 f83e 0b78 bfbf
000002e0: e710 99bf 308e d6bc a087 833f d12e 65bf
000002f0: e359 543f 9956 073d dd07 1fc0 ebd8 233c
00000300: 2b82 d03e 439b c4be 0d75 143f 45d2 1440
00000310: 84fa d83c 143f 0abe 7a09 90bf 989d 5cbf
00000320: 674f 7abf 317b b6bf 7f70 c9be f2c1 5a3f
00000330: e576 71be 93a0 51c0 7e37 8fbf 39bd fabe
00000340: 2ee0 35bf a05c 0fbe b8eb 3dbf 307c d0be
00000350: c8b7 133f 6f0c 0f3d e31a a0bf 0b44 9fbf
00000360: 49f3 353f 2fbc 43be d5b7 13c0 6bbc 13be
00000370: 1829 3f3f 71bc a5bf 008b d83d d8ab 8fbe
00000380: 80cc b1be b999 39bf b1dc 05bf 0914 26c0
00000390: b2dd 89bf 5c5e 6bbe 622b 4abf e540 873e
000003a0: 0e8a 1b3e acfa cabe 62f4 6cbe 6281 943e
000003b0: 4837 c2bf fd0c dfbe c681 3140 0cfc 9cbf
000003c0: 4475 503c fc5f 9fbf 7dac c6bf 8a8b 3cbf
000003d0: a978 87bf 8956 443d 6ce8 6dbf 18ab 18bf
000003e0: ae8e 00c0 ebbd 85bf a861 f6be e359 463e
000003f0: 9379 8ac0 b065 bdbf 3743 60bf 5467 c4be

w_comp f4 [88, 4]
0.6851048 2.6587996 -0.5902062 -0.15992923 -0.36885402 0.47213215 0.51166195 0.028696945
0.7666297 0.24330996 -0.044890437 2.9577975 0.29222426 0.25528094 -0.24046245 -0.36893255
1.4767855 0.64996266 0.91152793 0.4284541 0.10577939 2.4467382 0.24063362 0.78128356
3.6973765 3.2392006 2.6895373 -3.4983346 0.7515972 0.45066905 -0.77083254 1.1553661
-2.1641982 2.3882143 -0.09100349 -1.4347378 1.5704486 0.8742473 0.8965101 0.5917848
2.5301065 -0.07718094 -0.8097878 -1.0146716 0.3300158 -0.50415486 -3.2208598 2.2825603
-0.008017431 3.016159 -1.1828171 -1.576392 -0.02670995 1.0527817 -0.86936975 1.4055254
0.956408 1.0546584 0.6091036 0.82770574 0.08805455 3.1588109 0.6646864 -1.251507
0.23336719 1.2587408 0.54566795 1.5858641 -0.92830586 0.1690282 1.15236 0.96395546
1.3308105 -2.1731908 -1.0757768 -1.7956381 0.1179018 0.89223415 0.5646373 -0.16690964
2.2781224 0.34202576 1.313523 0.19160284 2.1708915 0.20617007 0.18102461 -1.6181825
1.1150964 1.5259184 1.829922 0.099770926 -1.001151 1.4688652 -0.36148992 -1.4109449
-1.190055 -0.80811864 1.3505218 -1.4869415 2.0019333 0.54345894 -1.2651814 -1.2120057
-0.67489374 1.929152 -1.1133422 0.0052377265 -2.889625 -1.1178135 1.8366901 -0.14564769
-2.057077 -0.5366291 0.6677707 -1.123388 0.84160745 -0.46885464 0.534511 1.9089689
2.0120993 0.219545 -1.866995 0.64585805 -0.29429013 0.123490855 0.6666358 0.021080641
2.4139986 -0.7029625 -1.230651 1.8642812 0.88612586 -1.3898312 -2.5105073 -2.7008536
1.730809 0.45351398 -1.0137442 0.018560339 0.1084318 2.3771033 -1.9244279 0.38300267
2.093663 -0.83438885 1.17454 -0.94150686 -1.0645213 2.0269454 1.4134488 -0.35920933
0.0366611 1.8028097 0.07626651 0.73223776 1.1512054 1.5942507 1.7488202 -0.4411624
1.3465332 0.78558016 -0.62231636 -1.9937173 2.2758079 0.6289077 0.03137265 1.4565827
0.8476993 -1.51554 2.6977158 -0.894821 1.5059909 -0.15189762 1.3800057 -1.1348395
-0.29130846 3.2248538 0.16344939 -1.982256 -0.88275117 0.68528783 0.990138 3.2099552
-0.7653319 -2.340608 -1.1084155 -3.8857055 -0.04484976 0.8768007 0.88997257 -0.037092403
0.4488787 0.55978096 1.2581376 0.3323576 0.64474934 1.797409 1.1010562 3.2649822
2.1331465 -1.8923885 -0.97375554 1.0422585 -3.675949 2.3015707 -1.0884207 -0.5199665
-1.3949671 2.4331462 -3.0060403 2.1298206 -0.31221226 -0.4103443 -0.02017202 0.3542063
0.10083801 0.034080874 -1.1710143 -1.5744667 -1.5320336 0.86806506 0.6680026 1.4480939
1.7751602 0.034161158 2.5967627 0.26871672 -1.695015 -2.0906494 -1.8989286 -1.5260496
1.7321402 2.5021935 -0.5134529 -3.1299622 0.854679 0.098513044 -0.12585616 -1.1379998
0.14199036 0.94932187 1.2870622 0.79967326 1.4865967 2.3349965 1.3793143 -2.5177524
-1.3013035 1.3914973 2.1913557 -0.60479915 0.86017627 -2.048833 -0.53399193 0.32119694
00000000: 0763 2f3f c629 2a40 c117 17bf 7dc4 23be
00000010: 6fda bcbe 4ebb f13e 47fc 023f db15 eb3c
00000020: d841 443f 3f26 793e 09df 37bd 8e4c 3d40
00000030: 6b9e 953e 2fb4 823e ca3b 76be bae4 bcbe
00000040: 4f07 bd3f f463 263f e559 693f 565e db3e
00000050: dda2 d83d 5c97 1c40 a968 763e 3302 483f
00000060: d1a1 6c40 104f 4f40 6121 2c40 b7e4 5fc0
00000070: ad68 403f 18be e63e 4855 45bf 09e3 933f
00000080: 3982 0ac0 81d8 1840 0a60 babd 7da5 b7bf
00000090: 7604 c93f acce 5f3f b081 653f 357f 173f
000000a0: 44ed 2140 0a11 9ebd 414e 4fbf c2e0 81bf
000000b0: d5f7 a83e 4b10 01bf 9122 4ec0 7815 1240
000000c0: 8b5b 03bc c008 4140 8d66 97bf 37c7 c9bf
000000d0: d3ce dabc 8dc1 863f 048f 5ebf 42e8 b33f
000000e0: 28d7 743f 0cff 863f 37ee 1b3f 86e4 533f
000000f0: f255 b43d f529 4a40 e328 2a3f 6231 a0bf
00000100: cff7 6e3e 6b1e a13f e5b0 0b3f 98fd ca3f
00000110: 74a5 6dbf ba15 2d3e 8880 933f c9c5 763f
00000120: 0058 aa3f 8f15 0bc0 0eb3 89bf 78d7 e5bf
00000130: 8076 f13d 7569 643f 128c 103f 5cea 2abe
00000140: c2cc 1140 001e af3e 8621 a83f 8933 443e
00000150: e3ef 0a40 3f1e 533e 845e 393e 9b20 cfbf
00000160: 7bbb 8e3f 4b51 c33f e23a ea3f b354 cc3d
00000170: b725 80bf c603 bc3f 3515 b9be d899 b4bf
00000180: b953 98bf dde0 4ebf e6dd ac3f 1954 bebf
00000190: ad1f 0040 2020 0b3f 77f1 a1bf 0123 9bbf
000001a0: d6c5 2cbf 74ee f63f ff81 8ebf 3ca1 ab3b
000001b0: 9eef 38c0 8314 8fbf a918 eb3f ab24 15be
000001c0: 26a7 03c0 8660 09bf 05f3 2a3f 2ecb 8fbf
000001d0: 9673 573f b70d f0be b7d5 083f 1859 f43f
000001e0: 3cc6 0040 68d0 603e b1f9 eebf f456 253f
000001f0: 32ad 96be c6e8 fc3d a5a8 2a3f 4fb1 ac3c
00000200: f47e 1a40 5af5 33bf f985 9dbf c4a0 ee3f
00000210: 25d9 623f fde5 b1bf 27ac 20c0 c9da 2cc0
00000220: 268b dd3f fc32 e83e 5fc2 81bf da0b 983c
00000230: 7e11 de3d 7622 1840 a753 f6bf ed18 c43e
00000240: 93fe 0540 829a 55bf 5457 963f 9806 71bf
00000250: 3c42 88bf 79b9 0140 e4eb b43f 49ea b7be
00000260: f329 163d 78c2 e63f 9e31 9c3d ef73 3b3f
00000270: b35a 933f 6810 cc3f 57d9 df3f 0ae0 e1be
00000280: 335b ac3f c81b 493f 2050 1fbf 2132 ffbf
00000290: d6a6 1140 1800 213f 9c80 003d 4d71 ba3f
000002a0: d202 593f 37fd c1bf 60a7 2c40 fd12 65bf
000002b0: 4fc4 c03f 0d8b 1bbe 07a4 b03f 6c42 91bf
000002c0: 6226 95be 0164 4e40 475f 273e 91ba fdbf
000002d0: fbfb 61bf 066f 2f3f af79 7d3f e86f 4d40
000002e0: cbec 43bf 85cc 15c0 8fe0 8dbf 66af 78c0
000002f0: 62b4 37bd 0376 603f 3ed5 633f 34ee 17bd
00000300: 6ed3 e53e ce4d 0f3f a70a a13f c62a aa3e
00000310: 4b0e 253f 8011 e63f 69ef 8c3f 78f5 5040
00000320: 7985 0840 c939 f2bf 0b48 79bf ba68 853f
00000330: c042 6bc0 ef4c 1340 5f51 8bbf 861c 05bf
00000340: 488e b2bf abb8 1b40 f762 40c0 fb4e 0840
00000350: 49da 9fbe a618 d2be cb3f a5bc 875a b53e
00000360: 2984 ce3d 6398 0b3d cce3 95bf 2088 c9bf
00000370: ad19 c4bf 8339 5e3f 3802 2b3f 245b b93f
00000380: 7338 e33f 92ec 0b3d 5c31 2640 3d95 893e
00000390: 40f6 d8bf 33cd 05c0 1810 f3bf 9855 c3bf
000003a0: c5b6 dd3f f023 2040 a671 03bf 4d51 48c0
000003b0: 3ecc 5a3f 35c1 c93d 70e0 00be faa9 91bf
000003c0: ec65 113e c206 733f 74be a43f 63b7 4c3f
000003d0: cd48 be3f 9570 1540 5f8d b03f db22 21c0
000003e0: 1d91 a6bf 951c b23f 2c3f 0c40 1ed4 1abf
000003f0: 8334 5c3f 1420 03c0 b2b3 08bf ed73 a43e

self_loop_weight f4 [8, 32]
1.1394627 -0.46366677 -0.55377716 0.7261012 0.19863452 1.2667378 0.07258029 0.34783643
-0.58707607 -0.23557536 -0.8376694 0.30852765 -0.5864062 0.5350117 -1.5461434 -0.74703467
-0.19847149 0.1211352 -0.1792946 -0.06591595 -1.1259065 -0.5627065 0.61847126 1.4508512
-0.8478232 -0.33449903 0.7555997 -0.11146425 -1.1563257 0.43745592 -0.12482967 -1.011151
-1.6764768 -0.16331695 -0.29379964 0.25757146 -1.9920336 -0.13656941 -2.352683 -1.2144723
-2.2153234 -0.33715886 1.2027745 -1.1637673 0.049999315 -3.4036157 -1.2798501 0.90685123
-0.8967857 1.0637637 0.19653088 -0.47630864 -2.9358368 -0.8681689 -0.9032144 -1.4542705
-1.5020076 -1.2771546 -1.0319861 -0.27605954 0.64596474 -3.747075 -0.184289 -1.0612464
0.21022977 0.29314584 -0.063109234 -0.6079773 0.473406 -1.8081459 -0.8665351 -0.7368336
-0.33780578 -3.0121465 -3.5432425 -2.0864093 -1.0827554 1.1464773 0.5447344 0.100595966
-0.17974566 -2.0581992 -0.14362916 -0.6886386 0.25683802 -0.3496173 1.2133033 0.97436386
0.3508525 -0.016883522 -2.6862235 -0.17681262 -3.26971 0.43461218 -0.77934986 0.9209714
-2.0750651 -0.6924263 0.16659406 -0.61684585 0.04530486 -0.30464646 -0.8603149 -0.6118807
0.023170289 0.9694285 -1.7846869 0.70812386 -0.6332566 -2.6674929 -1.8382695 1.0096787
-0.2417389 0.0640322 -0.8956647 -0.4133996 -0.24980414 -0.24278872 -0.15517756 -0.8464297
-0.5949823 -0.17896768 -0.061856586 0.16225228 -0.70979667 0.37107825 0.6518776 -0.90663546
-0.96203375 1.4792309 0.56320816 -0.74119294 0.35656703 1.5451785 0.14535041 -0.7927827
-1.5104665 0.12371995 0.8421228 -0.2989648 -1.692942 -1.8626374 -0.48756406 2.8294623
-0.82587886 -0.035571862 0.8534443 -0.41872427 -1.5055122 -0.7203773 1.1661346 1.1580033
-0.5063831 -0.26503083 0.3534356 0.858217 -0.9314366 -2.6806421 0.69449836 -0.90474856
0.008492633 -0.8514849 -0.8369406 -0.26086396 0.81372 -0.96816885 -0.18959068 -1.1896577
-0.40042254 -1.8659915 0.22203667 -1.89851 -0.7607285 0.711191 -0.36619264 -1.9449767
-0.5207766 0.5098231 -2.5068262 -0.6914266 -0.34746978 -0.9295854 -0.45884192 -4.225546
-3.5535398 -1.5920488 0.062153146 -0.51579314 -2.1425574 0.5498029 -1.8560785 0.3146765
-1.1523274 -2.929268 -0.19247419 0.34807 -0.5218502 -0.57270384 -0.3877632 -0.09471669
0.5474656 -1.1700766 -5.178062 0.3738697 0.43409064 -2.164005 -0.81823075 -0.28969815
-0.44949344 -0.014214861 0.3334889 -0.39746988 -1.7749866 -0.20246372 -1.9582866 0.20693497
0.47765863 -0.14415763 -0.920445 -1.0210686 1.2323452 -3.2594016 0.2503254 -0.9344127
0.18086918 -1.7180176 -1.1629615 0.7444162 -0.5109476 -0.15376486 -1.036182 -0.0018134328
-0.44308314 0.5784278 -2.2898872 -0.3214852 -1.0949897 -1.9620472 -2.0930786 0.023339683
0.21394357 -0.6770387 -1.0366179 -0.31733155 0.5674323 -0.34857908 0.96073645 0.37077978
-2.4660068 -0.36178607 -1.5318149 -0.52076185 -0.9374264 -0.6232906 0.11813385 -1.2403874
00000000: ead9 913f bb65 edbe 57c4 0dbf c5e1 393f
00000010: d966 4b3e 7724 a23f faa4 943d 9e17 b23e
00000020: 9e4a 16bf ab3a 71be 8071 56bf 56f7 9d3e
00000030: b71e 16bf 87f6 083f 07e8 c5bf aa3d 3fbf
00000040: 1c3c 4bbe bb15 f83d 0199 37be f1fe 86bd
00000050: b41d 90bf 880d 10bf 2254 1e3f 7eb5 b93f
00000060: f10a 59bf 7543 abbe fb6e 413f 5e47 e4bd
00000070: 7b02 94bf 39fa df3e b3a6 ffbd 656d 81bf
00000080: cb96 d6bf 8f3c 27be e86c 96be 68e0 833e
00000090: f5fa febf dad8 0bbe 5c92 16c0 d473 9bbf
000000a0: dcc7 0dc0 16a0 acbe 84f4 993f 54f6 94bf
000000b0: 15cc 4c3d d7d4 59c0 21d2 a3bf 6727 683f
000000c0: bf93 65bf 6929 883f 643f 493e bade f3be
000000d0: c0e4 3bc0 5140 5ebf 0f39 67bf 8925 babf
000000e0: c941 c0bf cd79 a3bf 1f18 84bf ad57 8dbe
000000f0: f25d 253f 14d0 6fc0 41b6 3cbe ecd6 87bf
00000100: 7946 573e 3617 963e 6a3f 81bd 66a4 1bbf
00000110: 4562 f23e 5371 e7bf 3fd5 5dbf 20a1 3cbf
00000120: e1f4 acbe 02c7 40c0 7cc4 62c0 bb87 05c0
00000130: bb97 8abf c5bf 923f b773 0b3f 4205 ce3d
00000140: 3f0f 38be 89b9 03c0 8613 13be 9f4a 30bf
00000150: 4680 833e 0a01 b3be 864d 9b3f e96f 793f
00000160: f0a2 b33e 504f 8abc 16eb 2bc0 5e0e 35be
00000170: ee42 51c0 7d85 de3e 7983 47bf c8c4 6b3f
00000180: decd 04c0 da42 31bf a297 2a3e 9ce9 1dbf
00000190: 9791 393d 9ffa 9bbe 993d 5cbf 37a4 1cbf
000001a0: 9ecf bd3c 772c 783f 9f70 e4bf 9b47 353f
000001b0: 1b1d 22bf 34b8 2ac0 6a4c ebbf 273d 813f
000001c0: 678a 77be 5023 833d 484a 65bf 1da9 d3be
000001d0: a8cc 7fbe 9b9d 78be dee6 1ebe 9eaf 58bf
000001e0: c350 18bf 4e43 37be 555d 7dbd 7625 263e
000001f0: 3cb5 35bf f8fd bd3e 73e1 263f 4319 68bf
00000200: d847 76bf 7057 bd3f 692e 103f d2be 3dbf
00000210: f48f b63e 69c8 c53f bdd6 143e cff3 4abf
00000220: f756 c1bf e360 fd3d 5c95 573f ea11 99be
00000230: 53b2 d8bf e76a eebf ffa1 f9be e915 3540
00000240: cc6c 53bf cdb3 11bd 537b 5a3f 0763 d6be
00000250: a0b4 c0bf a66a 38bf e643 953f 7439 943f
00000260: 53a2 01bf 1fb2 87be 83f5 b43e 1cb4 5b3f
00000270: a172 6ebf a48f 2bc0 a5ca 313f 9a9d 67bf
00000280: af24 0b3c eafa 59bf bd41 56bf f68f 85be
00000290: f44f 503f ead9 77bf 0f24 42be b446 98bf
000002a0: 2f04 cdbe cfd8 eebf 955d 633e 6002 f3bf
000002b0: 1abf 42bf 9d10 363f 9a7d bbbe fff4 f8bf
000002c0: 9e51 05bf c483 023f d76f 20c0 5501 31bf
000002d0: 8fe7 b1be 4ff9 6dbf 54ed eabe ac37 87c0
000002e0: 326d 63c0 41c8 cbbf 4c94 7e3d 050b 04bf
000002f0: a91f 09c0 e2bf 0c3f fb93 edbf 471d a13e
00000300: 777f 93bf 2079 3bc0 f417 45be 3b36 b23e
00000310: fa97 05bf b89c 12bf e688 c6be d3fa c1bd
00000320: b526 0c3f 12c5 95bf afb2 a5c0 d96b bf3e
00000330: 2141 de3e 0f7f 0ac0 9277 51bf 5153 94be
00000340: 0124 e6be 73e5 68bc 0fbf aa3e 2c81 cbbe
00000350: c332 e3bf a652 4fbe 23a9 fabf c3e6 533e
00000360: ac8f f43e 0f9e 13be 49a2 6bbf 60b2 82bf
00000370: 7dbd 9d3f 099a 50c0 a72a 803e ac35 6fbf
00000380: c535 393e 00e8 dbbf ecdb 94bf 0f92 3e3f
00000390: 76cd 02bf 8974 1dbe 9da1 84bf b5b0 edba
000003a0: cbdb e2be d813 143f 838d 12c0 b599 a4be
000003b0: 9f28 8cbf 5d24 fbbf 00f5 05c0 dd32 bf3c
000003c0: 0614 5b3e 6952 2dbf e5af 84bf 4879 a2be
000003d0: 3e43 113f f578 b2be d3f2 753f d9d6 bd3e
000003e0: 0ed3 1dc0 063c b9be 8312 c4bf a650 05bf
000003f0: 2dfb 6fbf f98f 1fbf 29f0 f13d 04c5 9ebf

weight f4 [8, 80]
-3.0359542 -6.272146 1.9790708 2.6814528 -5.4900846 1.6019899 0.08499945 -3.1393635
0.5682375 -4.1354446 -1.5597862 1.8691118 -4.9346676 1.9714178 -2.5633137 0.2591839
0.012334183 -0.0172371 -0.06176214 -0.680898 0.3524936 -0.012973905 -0.3402745 0.6340556
-0.84788376 0.029166542 0.26255447 1.3491973 0.58565897 -0.6656163 0.34554788 -0.9548772
0.7162467 0.47770125 0.12770237 0.15077399 -1.108816 -0.28209364 0.90252346 -0.3193896
-0.28808507 -0.26364863 0.49847585 -1.2398131 0.53672993 -0.17979376 0.107785486 0.9703619
0.19601226 -0.038475856 -0.56937295 -0.4863624 0.16104802 -0.39082658 0.71234995 0.07281906
0.67796683 -0.4933963 -0.10520965 0.39812168 0.28835383 0.3773703 -0.9325593 0.8862174
0.65046245 0.19918504 0.70647585 -1.1086253 3.5204318 -0.37845182 -0.28727004 0.022594163
0.0667647 0.062117476 0.012774767 1.8042551 -0.20826648 -0.12657234 0.031166349 -0.5189866
-1.52267 -0.7912274 -1.9703755 -0.4754189 -1.6450478 -1.6619067 -0.5638999 -0.2959786
-2.6610694 -1.7630594 -2.6094217 1.2125227 -2.2747843 -1.9047529 -1.3329455 1.8371785
0.99402744 -0.7075857 -1.7874799 1.494884 0.028223256 -0.5742551 -0.4386021 0.21492344
0.36748102 0.7676588 -1.3036253 0.060351506 -0.59562045 0.25148368 -0.11694735 1.3247005
-0.08198079 0.47508815 0.8690146 1.7629136 0.48139054 -0.336702 0.37891793 -0.4606083
1.2106756 -0.36126631 -1.2373544 0.009109499 -0.44859213 -0.6859562 -0.20732524 0.6759233
-1.6348293 0.3903261 0.56946856 -1.257792 0.7108472 0.9850983 0.6084501 -0.025559705
-1.2665826 -0.013825333 0.75576884 0.6481994 0.17493357 -0.9950343 -0.527843 -2.2529576
-0.35123706 -0.07478587 0.09381539 -0.88853216 0.22031297 -0.06935324 0.2134035 0.4519369
-0.44341004 0.649769 1.0256963 -0.26083776 -0.18951935 0.49991944 -0.75907874 -0.3742136
-0.1974869 0.43813697 -2.262344 -1.2392097 4.2874413 -4.7339334 -2.1572437 -1.0620112
1.731425 -4.873564 -0.9117521 0.11518348 -2.6173272 0.1998827 -1.5169883 -0.47778636
-0.004786657 -0.40216583 -0.59714305 -0.020571947 -0.17909002 -0.5401911 0.34700984 0.33342433
-0.27813098 -0.24111144 0.17216963 1.0991808 -0.13709074 -0.33341542 0.2496916 -1.5333607
0.58671314 -0.05689971 0.22578186 -0.10903453 0.1492405 -0.17199016 0.7457584 -0.054974064
0.0855312 -0.10448027 0.5003953 0.21964265 0.15984263 -0.39305335 0.16261576 1.0845317
0.049969796 -0.34739587 0.26660556 0.8914836 0.20053145 -0.16391216 0.703959 0.33744985
-0.641614 -1.3372725 0.3787741 0.8165385 0.15846331 0.07557276 -0.36874676 -2.0335855
-0.6060778 -0.3563516 -0.057418626 0.41127393 0.5447141 0.32805485 0.3903128 0.4224023
-0.10325578 -0.41722685 0.121968396 0.6999597 0.19083396 -0.7469534 -0.28351608 0.07745879
-2.853882 -0.9052795 -1.9260678 -1.1803292 -0.78535986 -4.492688 -0.01225912 -0.83550674
-3.4654448 -1.322699 -0.718079 0.92457825 -2.2657716 -1.7593497 0.8042035 -0.49653387
00000000: 134d 42c0 6cb5 c8c0 3152 fd3f ec9c 2b40
00000010: c6ae afc0 010e cd3f 3114 ae3d 55eb 48c0
00000020: 0378 113f 9055 84c0 13a7 c7bf 0e3f ef3f
00000030: cce8 9dc0 6b57 fc3f 550d 24c0 c1b3 843e
00000040: 5015 4a3c d234 8dbc 4cfa 7cbd 554f 2ebf
00000050: 0b7a b43e 8090 54bc 7638 aebe 7851 223f
00000060: e90e 59bf acee ee3c 8a6d 863e 7fb2 ac3f
00000070: bfed 153f d465 2abf a7eb b03e d572 74bf
00000080: f25b 373f 4295 f43e 69c4 023e 7f64 1a3e
00000090: afed 8dbf 946e 90be c70b 673f 0987 a3be
000000a0: e37f 93be f4fc 86be 3a38 ff3e 32b2 9ebf
000000b0: 2267 093f db1b 38be a3be dc3d a369 783f
000000c0: 70b7 483e dc98 1dbd 6dc2 11bf 7e04 f9be
000000d0: c6e9 243e 6c1a c8be 915c 363f 2922 953d
000000e0: 3c8f 2d3f 719e fcbe 2878 d7bd 9bd6 cb3e
000000f0: 1da3 933e ae36 c13e 35bc 6ebf 25df 623f
00000100: b584 263f 2af7 4b3e 9adb 343f 6fe7 8dbf
00000110: c14e 6140 70c4 c1be 0f15 93be 6517 b93c
00000120: eebb 883d e56e 7e3d 424d 513c d5f1 e63f
00000130: cf43 55be 2e9c 01be 9250 ff3c 4edc 04bf
00000140: dae6 c2bf e18d 4abf 4435 fcbf 1b6a f3be
00000150: ed90 d2bf 5cb9 d4bf be5b 10bf 828a 97be
00000160: f64e 2ac0 eeab e1bf c400 27c0 f233 9b3f
00000170: 1196 11c0 f1ce f3bf f59d aabf aa28 eb3f
00000180: 9578 7e3f 5624 35bf 24cc e4bf 5c58 bf3f
00000190: 7534 e73c 6202 13bf 7490 e0be e414 5c3e
000001a0: 7926 bc3e 4a85 443f 32dd a6bf 2433 773d
000001b0: 957a 18bf 78c2 803e 1882 efbd c98f a93f
000001c0: 8be5 a7bd c13e f33e be77 5e3f 27a7 e13f
000001d0: d278 f63e 3464 acbe 8801 c23e dad4 ebbe
000001e0: 6bf7 9a3f e6f7 b8be a161 9ebf 0240 153c
000001f0: dead e5be d39a 2fbf 114d 54be 4f09 2d3f
00000200: 1642 d1bf d3d8 c73e b1c8 113f 54ff a0bf
00000210: 15fa 353f 672f 7c3f 63c3 1b3f 9662 d1bc
00000220: 611f a2bf a683 62bc 117a 413f 65f0 253f
00000230: c921 333e 91ba 7ebf b820 07bf 7530 10c0
00000240: 58d5 b3be 5629 99bd 4822 c03d d876 63bf
00000250: b999 613e 1209 8ebd 7286 5a3e 4664 e73e
00000260: a406 e3be 4357 263f 044a 833f 878c 85be
00000270: 5c11 42be 71f5 ff3e fc52 42bf ed98 bfbe
00000280: 023a 4abe 7d53 e03e 3eca 10c0 6c9e 9ebf
00000290: b832 8940 627c 97c0 4810 0ac0 fcef 87bf
000002a0: 569f dd3f 3cf4 9bc0 9668 69bf 51e5 eb3d
000002b0: 4a82 27c0 0dae 4c3e ac2c c2bf 6aa0 f4be
000002c0: 64d9 9cbb aee8 cdbe 5ede 18bf 8086 a8bc
000002d0: 6063 37be f749 0abf 46ab b13e 98b6 aa3e
000002e0: 2f67 8ebe ebe5 76be 3c4d 303e f5b1 8c3f
000002f0: 8461 0cbe 6db5 aabe 28af 7f3e 2a45 c4bf
00000300: d532 163f ac0f 69bd 5c33 673e 7f4d dfbd
00000310: 80d2 183e 301e 30be 06ea 3e3f 7c2c 61bd
00000320: fb2a af3d c0f9 d5bd e819 003f 01ea 603e
00000330: c9ad 233e 4a3e c9be bf84 263e efd1 8a3f
00000340: 21ad 4c3d dfdd b1be 8680 883e 4538 643f
00000350: 1e58 4d3e 97d8 27be a836 343f 3ac6 ac3e
00000360: d140 24bf bf2b abbf aeee c13e ab08 513f
00000370: 3544 223e e4c5 9a3d 60cc bcbe 4426 02c0
00000380: ea27 1bbf b873 b6be cb2f 6bbd 7f92 d23e
00000390: 6272 0b3f cef6 a73e 14d7 c73e 1d45 d83e
000003a0: c477 d3bd c29e d5be 91ca f93d 8f30 333f
000003b0: fa69 433e 5738 3fbf 0529 91be b7a2 9e3d
000003c0: 01a6 36c0 66c0 67bf 6489 f6bf 0715 97bf
000003d0: 580d 49bf 1ac4 8fc0 7ada 48bc c5e3 55bf
000003e0: d9c9 5dc0 334e a9bf 06d4 37bf 29b1 6c3f
000003f0: 6702 11c0 5f32 e1bf 48e0 4d3f b039 febe

bias f4 [8]
-1.054117 -2.9880247 -2.400456 -2.7949517 -2.919979 -2.3304088 -3.8893604e-23 -2.3386817
00000000: 4eed 86bf cc3b 3fc0 12a1 19c0 7de0 32c0
00000010: f0e0 3ac0 6b25 15c0 f313 3c9a f6ac 15c0

weight f4 [1, 8]
-0.4397852 -0.46736726 0.21531267 -0.6775208 0.1339434 -0.11634233 -0.051531024 -0.028222611
00000000: 872b e1be c34a efbe ed7a 5c3e 0172 2dbf
00000010: 7528 093e e344 eebd 3212 53bd 1b33 e7bc

weight f4 [4, 32, 32]
-0.29200155 0.51862174 -0.09393858 -0.08134206 -0.095724545 -0.13077371 0.022901999 -0.45944905
0.22971755 -0.13122691 -0.05016645 -0.24480347 0.4352769 -0.15588263 -0.22574936 -0.23002249
0.38075468 -0.045891404 -0.7251581 -0.10696923 -0.4409775 -0.29385665 -0.096174926 -0.19558783
-0.04612523 0.056015655 0.060573038 -0.2949229 -0.37158093 0.21710132 -0.019640923 -0.56173956
-0.049926348 0.021547168 0.013495342 0.0048069214 -0.0010785257 0.0013692479 -0.007528438 -0.11311507
0.10885023 0.0098139 0.0019216349 -0.00017589252 -9.425479e-05 -0.0016571152 -0.026576135 0.0002646035
0.0015722623 -0.0055300407 -0.024856672 0.0840131 -0.010194676 -0.034355793 -0.056214467 0.07291561
-0.06282622 -0.0012092828 -0.01178546 0.11020088 -0.07483877 -0.012361234 -0.00040024426 0.17666668
-0.00088168454 0.39426824 -0.20405637 0.0092228325 -0.00040648403 0.11285428 -0.022722466 -0.70149475
0.2275526 0.08721334 0.25752863 -0.0041493955 0.033933833 -0.050434656 -0.2687954 0.01597437
0.22194079 -0.17968425 -0.53097475 0.24183618 -0.035405774 0.2212049 0.2031139 0.29141873
-0.19550769 0.029589063 0.048235 -0.49106288 -0.41014028 0.13013424 0.0030952974 0.45278302
-0.035735805 0.46756744 0.79455715 0.3946972 -0.104247905 0.14662875 -0.40811005 0.353465
-0.16787732 0.2894444 0.43475267 -0.36883414 0.291378 0.25307742 -0.19672732 0.46731335
0.35140622 -0.23479812 1.6543179 0.079251476 -0.06571883 0.08155736 0.0783335 -0.17659496
0.01101751 0.15896887 0.37894523 0.2998722 -0.6873254 0.29273665 0.21046484 -0.82218474
-0.31772456 0.50484765 -0.40638813 -0.057283267 -0.6984322 -0.4865534 -0.12974869 -0.8067313
-0.6065124 -0.79365015 -0.1541186 -0.07874096 0.51746786 -0.76042825 -0.41423094 -0.15044786
0.20170492 -0.48614585 -0.82856816 -0.1011026 -0.69220746 -0.33652306 -0.6445151 -0.5938826
0.012418639 -0.43190983 0.3310276 -1.2877392 -0.0043168967 0.4325269 -0.50203496 0.42354736
-0.1937073 0.07064316 0.15867199 0.008362736 -0.042104967 -0.1350947 -0.017257461 -0.13895825
0.119029365 0.0018750833 0.08903783 -0.24885058 0.3306471 -0.064803004 -0.24614808 -0.3172363
0.016021961 0.0037173608 -0.3046386 -0.06631627 -0.10278721 -0.1652872 -0.12500644 -0.06866229
-0.26918966 0.017837428 0.025421593 0.121180855 -0.07623948 0.09915144 -0.028296532 -0.15008816
-0.024098866 -0.019312777 0.00040886804 -0.0004091443 -1.3407526e-06 -0.002548373 8.0460995e-06 -0.0030833052
0.055366956 3.1115233e-05 1.0569689e-05 -0.019725306 0.0021531235 -0.0014961034 -0.000346377 -0.059399456
-0.0056869574 0.0036219584 -0.028023034 -0.00017878361 -0.0015510655 -4.584615e-06 -0.0044226497 -0.00373737
-2.0844172e-05 -8.9178184e-07 0.007021942 -0.0681026 -0.01348372 0.006697301 -0.0005518412 0.0040592337
-0.008234946 0.033996325 2.3720766e-06 -1.16634595e-08 -7.913465e-24 1.3875548e-22 4.4784656e-07 8.067319e-06
-0.0011303473 1.8621775e-05 -3.146396e-07 5.19891e-13 1.4177905e-23 5.190632e-05 3.007879e-06 0.0019101392
0.0041823867 -7.120032e-20 0.016063025 2.173983e-09 -1.8276706e-20 -8.184309e-09 -0.0006088233 5.0533436e-07
1.675534e-23 1.1148463e-13 0.0040776664 0.006546364 -0.000283806 5.79129e-24 0.0005474329 0.00018484541
00000000: 3a81 95be 65c4 043f df62 c0bd aa96 a6bd
00000010: 3b0b c4bd 8be9 05be f99c bb3c e83c ebbe
00000020: 143b 6b3e 5960 06be 567b 4dbd c3ad 7abe
00000030: 9ddc de3e b29f 1fbe d72a 67be 048b 6bbe
00000040: 47f2 c23e a0f8 3bbd f6a3 39bf af12 dbbd
00000050: cec7 e1be 6174 96be 5cf7 c4bd 2d48 48be
00000060: cfed 3cbd ac70 653d 6f1b 783d 2200 97be
00000070: db3f bebe cf4f 5e3e 00e6 a0bc 2ace 0fbf
00000080: 927f 4cbd b083 b03c 911b 5d3c 6183 9d3b
00000090: 515d 8dba 5678 b33a 1db1 f6bb e0a8 e7bd
000000a0: dfec de3d 7bca 203c 5edf fb3a ca6f 38b9
000000b0: a8aa c5b8 8f33 d9ba 32b6 d9bc 7bba 8a39
000000c0: 5e14 ce3a 5835 b5bb 38a0 cbbc 0f0f ac3d
000000d0: 9207 27bc a9b8 0cbd 2441 66bd c854 953d
000000e0: 09ab 80bd cc80 9eba cd17 41bc 00b1 e13d
000000f0: 1245 99bd c686 4abc e0d7 d1b9 1ce8 343e
00000100: d920 67ba 87dd c93e 27f4 50be 5d1b 173c
00000110: 5d1d d5b9 2520 e73d 7724 babc 2995 33bf
00000120: 8c03 693e e89c b23d cbda 833e a7f7 87bb
00000130: 34fe 0a3d 9294 4ebd 8d9f 89be afdc 823c
00000140: 7244 633e 26ff 37be f6ed 07bf e7a3 773e
00000150: a505 11bd 8a83 623e 17fd 4f3e d634 953e
00000160: 2b33 48be c364 f23c 1092 453d 986c fbbe
00000170: e8fd d1be e941 053e 79da 4a3b 2dd3 e73e
00000180: b55f 12bd 0065 ef3e 1968 4b3f c015 ca3e
00000190: ed7f d5bd d925 163e cdf3 d0be 5df9 b43e
000001a0: 08e8 2bbe 0e32 943e e797 de3e d4d7 bcbe
000001b0: 7f2f 953e 5d93 813e e372 49be b243 ef3e
000001c0: 84eb b33e eb6e 70be b0c0 d33f 994e a23d
000001d0: 9897 86bd 8c07 a73d 506d a03d 4fd5 34be
000001e0: c982 343c bcc8 223e 1c05 c23e d988 993e
000001f0: 8ff4 2fbf 94e1 953e 1884 573e b37a 52bf
00000200: cbac a2be b23d 013f 1b12 d0be dca1 6abd
00000210: 74cc 32bf 871d f9be d7dc 04be f185 4ebf
00000220: 6644 1bbf a82c 4bbf 44d1 1dbe f142 a1bd
00000230: c678 043f 6dab 42bf 1416 d4be 010f 1abe
00000240: bc8b 4e3e 1ce8 f8be 0b1d 54bf e10e cfbd
00000250: 8234 31bf c04c acbe f1fe 24bf b108 18bf
00000260: 8c77 4b3c 4923 ddbe 737c a93e a3d4 a4bf
00000270: c174 8dbb 2a74 dd3e 5d85 00bf 33db d83e
00000280: 355b 46be 5cad 903d e97a 223e db03 093c
00000290: 4276 2cbd 4456 0abe 855f 8dbc 124b 0ebe
000002a0: abc5 f33d 5bc5 f53a 7759 b63d b0d2 7ebe
000002b0: 944a a93e 70b7 84bd 3e0e 7cbe cc6c a2be
000002c0: 7d40 833c f79e 733b 97f9 9bbe d3d0 87bd
000002d0: 1a82 d2bd 0c41 29be b001 00be d19e 8cbd
000002e0: 3ad3 89be cc1f 923c f240 d03c ab2d f83d
000002f0: 7223 9cbd e90f cb3d 21ce e7bc b6b0 19be
00000300: fc6a c5bc d435 9ebc 575d d639 6b82 d6b9
00000310: e9f3 b3b5 9b02 27bb bcfd 0637 4711 4abb
00000320: 76c8 623d ba81 0238 7854 3137 f796 a1bc
00000330: 6b1b 0d3b e618 c4ba ef99 b5b9 d84c 73bd
00000340: a859 babb 615e 6d3b 9090 e5bc dc77 3bb9
00000350: 1f4d cbba 8bd5 99b6 e0eb 90bb aaee 74bb
00000360: 85da aeb7 c862 6fb5 5218 e63b 6079 8bbd
00000370: d2ea 5cbc 0875 db3b 70a9 10ba 5203 853b
00000380: deeb 06bc bb3f 0b3d f72f 1f36 7060 48b2
00000390: 9511 1999 bebe 271b 906f f034 df58 0737
000003a0: 2928 94ba f535 9c37 bdeb a8b4 1856 122b
000003b0: cb1e 8919 fdb5 5938 f8da 4936 a35d fa3a
000003c0: 670c 893b f41d a89f 9b96 833c 1d65 1531
000003d0: 5d9e ac9e f99a 0cb2 7199 1fba 50a6 0735
000003e0: 360c a219 840a fb29 f29d 853b e282 d63b
000003f0: cccb 94b9 280a e018 9a81 0f3a 10d3 4139

w_comp f4 [88, 4]
0.73592585 0.90567815 0.71122026 0.5462977 0.5115768 0.30256385 -0.14113307 0.535464
0.2312883 -0.80344653 0.3776391 0.34963256 -0.0472474 0.18292704 0.57794774 -0.36836457
-2.5477e-41 5.1089e-41 1.11828e-40 -3.2346e-41 -0.5221789 -0.15178971 -0.133205 0.70895195
0.1628029 -0.040959843 -0.17124115 -0.09749669 -0.4414761 0.7718862 0.27312338 -0.7995071
5.1711915e-08 7.8094345e-08 -2.513674e-07 4.921247e-08 0.24056275 0.51867557 -0.6739746 0.5873079
0.36404732 -0.0933121 0.10805787 0.24433541 -1.2527891 -1.6751782 -1.1403596 0.099288285
0.37222522 -0.1382858 -0.086390756 0.030794436 0.12734033 0.5206461 -1.0975006 -0.55969465
-0.74852616 0.21825199 -0.11595495 0.45610073 -0.3395123 1.3839446 -0.26584384 0.50092
0.5927387 -0.19099665 -0.9366165 0.3541732 -0.47264415 0.14515348 1.5279328 0.13937579
-0.3617871 -0.39950994 -0.30375704 0.31681255 0.29609203 0.34074116 -1.3630661 0.1132213
-0.23110749 -0.2211393 0.27351424 0.1749957 -0.31495053 -0.7995053 0.4432564 -0.01306739
0.032137714 -0.28329402 1.2667089 0.4525974 -0.5376559 0.76204646 0.14446609 0.7935086
-0.16092825 -0.24250862 0.2212271 0.006782293 -0.38117763 -0.6750493 0.29087555 -0.11574856
-0.06719663 -0.0043427665 0.45996848 0.2542035 0.20977308 -0.0370123 -0.026097357 -0.1705775
0.51473475 0.8404716 -0.5973572 0.62022734 -0.04646903 -0.80307764 0.32701805 -0.4875329
-1.3898083 -1.3389684 -0.74824536 0.18585983 -6.9939e-41 1.42645e-40 7.0669e-41 -7.4279e-41
0.05987032 0.092648 -0.15488021 0.49826023 0.3405531 0.63690025 0.06483102 -0.19622153
-0.13899882 0.14617664 -0.40493032 -0.44330215 -0.09908786 1.1333466 -0.60994846 0.12947324
0.0041260705 -0.0062025427 -0.11544008 0.03530055 0.43828356 1.2278568 0.5805764 1.0168388
0.020572526 0.0004209547 0.09532558 0.11879917 -2.5648e-41 -4.67166e-40 9.94963e-40 3.6546e-41
0.007573805 -0.0060846694 0.02607208 -0.045083966 0.25693655 0.8157489 -0.13536647 0.7185314
-0.0069676777 -7.227429e-05 0.00036453738 -0.00091978983 -0.30571973 0.32166904 -0.59385407 -0.017657463
0.4277976 1.2507305 -0.28412142 0.3266139 -0.32584226 -0.39580378 0.13858277 0.38868013
-0.14466846 0.042339332 -0.10092935 0.082257286 -3.0841488e-26 -4.5063e-41 2.9221e-41 -1.26111e-40
-3.932482e-35 -1.1992818e-34 1.6273571e-34 4.2489965e-35 0.011310436 0.00033893107 -0.017761774 -0.051908225
4.889861e-31 3.2785109e-31 -2.6450819e-31 5.716961e-32 -0.053945888 0.33242932 -0.1383677 -0.14663227
0.59754694 0.95854986 -0.27345666 0.20142716 0.3136233 -0.3117543 0.31329805 -0.30849501
-3.9002e-41 7.2107e-41 -9.585e-42 1.03442e-40 -0.26531816 0.0064430838 1.2412033 0.24761951
-0.032131344 -0.40575004 1.3138146 0.09120245 -0.031656053 -0.14960207 0.18024606 -0.12664652
-0.4589557 0.084118806 -0.13373172 0.09394496 9.727716e-06 1.4137312e-17 -0.0005730316 -0.0001628443
-0.10812672 -0.0054496625 -0.059202395 -0.0027772752 -0.12357741 0.055340458 0.018493202 -8.75627e-05
0.16567287 0.3427257 -0.42382333 0.35859248 -5.942637e-22 -1.9537653e-23 1.6860647e-22 -1.9522159e-22
00000000: a365 3c3f 86da 673f 8812 363f 2bda 0b3f
00000010: b2f6 023f a6e9 9a3e 3085 10be 2b14 093f
00000020: d7d6 6c3e acae 4dbf ea59 c13e 0a03 b33e
00000030: 7d86 41bd 3a51 3b3e 62f4 133f 489a bcbe
00000040: 0547 0080 6a8e 0000 bb37 0100 2b5a 0080
00000050: 84ad 05bf c36e 1bbe e466 08be e07d 353f
00000060: ceb5 263e 82c5 27bd d759 2fbe 58ac c7bd
00000070: 2809 e2be 569a 453f d4d6 8b3e 7fac 4cbf
00000080: da19 5e33 d2b4 a733 acf3 86b4 af5d 5333
00000090: 1556 763e ecc7 043f 9989 2cbf cf59 163f
000000a0: 6964 ba3e 6a1a bfbd 724d dd3d 1033 7a3e
000000b0: 655b a0bf 3d6c d6bf 4ef7 91bf a857 cb3d
000000c0: 4e94 be3e cb9a 0dbe a3ed b0bd 9d44 fc3c
000000d0: 8165 023e 1049 053f e67a 8cbf 2648 0fbf
000000e0: 699f 3fbf 737d 5f3e ca79 edbd 0986 e93e
000000f0: 8ed4 adbe 1925 b13f af1c 88be 4b3c 003f
00000100: b9bd 173f a094 43be 19c6 6fbf 3156 b53e
00000110: 6afe f1be 1da3 143e 4d93 c33f 87b8 0e3e
00000120: 293c b9be 918c ccbe 0b86 9bbe 4135 a23e
00000130: 6099 973e a075 ae3e f378 aebf 92e0 e73d
00000140: 71a7 6cbe 5772 62be 0f0a 8c3e 1332 333e
00000150: 3241 a1be 61ac 4cbf 81f2 e23e 9b18 56bc
00000160: d6a2 033d ea0b 91be 8423 a23f d9ba e73e
00000170: d1a3 09bf 7a15 433f ebee 133e 6123 4b3f
00000180: 60ca 24be 2e54 78be 5b89 623e ff3d de3b
00000190: b729 c3be 08d0 2cbf a4ed 943e 950d edbd
000001a0: 639e 89bd c44d 8ebb fd80 eb3e f626 823e
000001b0: c1ce 563e 369a 17bd 20ca d5bc deab 2ebe
000001c0: a8c5 033f 2629 573f 67ec 18bf 38c7 1e3f
000001d0: 4f56 3ebd 7f96 4dbf e96e a73e ea9d f9be
000001e0: 3de5 b1bf 5163 abbf 028d 3fbf 0a52 3e3e
000001f0: f6c2 0080 a38d 0100 ffc4 0000 0fcf 0080
00000200: 953a 753d 3cbe bd3d eb98 1ebe f71b ff3e
00000210: fa5c ae3e e50b 233f 20c6 843d 4cee 48be
00000220: b555 0ebe 54af 153e 0753 cfbe 80f8 e2be
00000230: 93ee cabd 8011 913f 9525 1cbf a294 043e
00000240: fd33 873b b33e cbbb d96b ecbd 4f97 103d
00000250: b466 e03e 692a 9d3f a8a0 143f c627 823f
00000260: b787 a83c 95b3 dc39 0f3a c33d fb4c f33d
00000270: 7f47 0080 4516 0580 8dd5 0a00 e065 0000
00000280: ae2d f83b e861 c7bb 1d95 d53c f7a9 38bd
00000290: 308d 833e ebd4 503f 829d 0abe adf1 373f
000002a0: 1e51 e4bb f791 97b8 611f bf39 0d1e 71ba
000002b0: 4c87 9cbe ceb1 a43e d206 18bf 62a6 90bc
000002c0: 4908 db3e f017 a03f 5d78 91be f039 a73e
000002d0: ccd4 a6be cba6 cabe a4e8 0d3e 1501 c73e
000002e0: f823 14be 026c 2d3d 0cb4 cebd 8276 a83d
000002f0: 3bb8 1895 9e7d 0080 7551 0000 8c5f 0180
00000300: 2c16 5186 7269 1f87 1850 5807 58ea 6106
00000310: 684f 393c 8fb2 b139 2481 91bc b89d 54bd
00000320: 60af 1e0d 9bc9 d40c f6ac ab8c b96b 940b
00000330: 5df6 5cbd 2d34 aa3e 43b0 0dbe c526 16be
00000340: d6f8 183f 8663 753f 8302 8cbe ec42 4e3e
00000350: 3c93 a03e 429e 9fbe 9a68 a03e 0ff3 9dbe
00000360: b96c 0080 01c9 0000 b81a 0080 5b20 0100
00000370: c8d7 87be 8120 d33b c0df 9e3f f88f 7d3e
00000380: 289c 03bd 78be cfbe 142b a83f 5ac8 ba3d
00000390: c7a9 01bd 4931 19be 6c92 383e a0af 01be
000003a0: 3efc eabe 7b46 ac3d f8f0 08be 3766 c03d
000003b0: 3934 2337 c964 8223 8037 16ba 2fc1 2ab9
000003c0: 8b71 ddbd 1593 b2bb 367e 72bd f202 36bb
000003d0: 2716 fdbd adac 623d 0e7f 973c dea1 b7b8
000003e0: 26a6 293e be79 af3e 5fff d8be 6f99 b73e
000003f0: ed9a 339c e3f4 bc99 2dd5 4b1b 2802 6c9b

self_loop_weight f4 [32, 32]
-0.33742702 -0.0026611988 -0.41396502 -0.65543765 -0.28716373 -0.06291837 -0.41359726 0.9593187
-0.910188 0.07194984 -0.63512504 -0.5304689 -0.23327737 -0.4441421 -0.99083596 -1.0647836
-0.52442616 0.22633615 0.6980188 -0.81244034 0.58064944 -0.36716822 0.2732349 -0.24859704
-0.21100327 0.46732315 -0.45618513 1.2188498 0.69459623 -0.40974993 -0.27260837 -0.96239936
-0.24666989 -0.3248394 -0.2340177 -0.2665081 -0.29132673 -0.042308733 -0.14761928 0.51572245
-3.4988506 -0.10159596 0.8546732 0.21780276 -0.12837712 -0.30052936 -0.45854762 -2.6772034
-0.41478857 0.046995793 1.0068274 -0.5627685 -0.3379573 -0.2427435 -0.33922425 0.00072129245
0.046408378 0.25437683 0.12227398 0.38806397 2.0199883 -0.1450193 -0.0292368 -0.78296334
-0.1483902 -0.18265975 -0.67450815 -0.17530735 0.10612051 -0.38236544 -0.15896234 0.47814673
0.26856378 -0.6701869 0.03329942 -0.01722139 -0.09487013 -0.42920378 -1.0517267 0.9019354
-0.95913184 -0.1931642 0.37223512 -0.4373409 -0.009211265 -0.5184404 -0.494957 -0.34599984
-0.038077813 0.015766898 -0.16850762 0.5513353 -0.32476962 -0.25350976 0.080510095 -0.24749161
-1.5134479 -0.11254159 -0.021570722 -0.7014388 -0.11163291 -0.22438201 -0.32294708 -0.3624055
-1.5813507 -0.039400607 -0.69466835 0.10473016 -1.5099909 -0.88514584 0.52487034 -0.26910168
-0.18945082 -1.0451891 0.9147566 -1.1766025 -0.943393 -1.2242509 -0.2250914 -0.4076202
-0.7374489 -0.5068242 0.1560805 1.1987314 -0.48581108 -0.26075372 -0.9162186 -0.7221386
-1.407863 -0.09932811 -0.5179602 -0.60166687 0.040769294 -0.21949138 0.123910666 0.4991079
-1.1479672 -0.835993 -0.69592166 0.46727726 -0.30384767 -0.14732821 -1.9809157 -1.332594
0.09372942 -0.43759787 0.528314 -0.7001815 0.2167639 -0.059172172 -0.6810715 -0.10920414
-0.37846732 -0.56403303 -0.37452316 0.6363934 -0.19057581 -0.08272979 -0.1932204 -1.0231994
-0.7480963 -0.54719615 -1.1023135 -0.89456636 0.029934779 -0.77642256 -0.23695377 -0.4590235
0.38256744 -0.45809397 -0.80029327 -1.011606 -0.29015055 -0.5881248 -0.83825177 -1.5083295
-0.034142293 -0.9981582 -1.7230556 0.50304246 -0.575255 -0.753705 -0.18436146 -0.31009653
-0.6255505 -0.013811999 -0.5236672 -1.2686114 -0.57474065 -0.15035617 -0.2904677 -0.029019793
-0.1742609 -0.017989805 0.17013432 -0.20931397 -0.23924617 -0.035194654 -2.276999e-06 -0.4579651
-0.6686606 0.109182216 0.5228204 -0.04345536 -0.20413163 -0.038591832 -0.6028452 -0.6238266
-0.0697735 0.41873246 -1.4626775 -0.6176672 0.09913925 0.1710109 0.025498135 0.01043466
0.34059656 0.82672524 -0.36018062 -1.064903 0.5315088 -0.062019546 -0.028538072 0.06547603
-0.35632247 0.07239455 -0.16337407 -0.2020259 -0.12386267 0.14992924 0.013222958 -0.35805655
0.7842369 -0.026880082 -0.63338995 0.12345174 -0.17847337 -0.38925982 -1.0780839 0.16084541
0.22730157 -0.04679434 -1.1617223 0.28424707 -0.4395731 -0.13193507 -0.3114836 -0.0958014
-0.015700905 0.56378037 0.21706253 -1.0221518 -0.9002317 0.2095926 -0.12203737 -0.44678134
00000000: 3cc3 acbe 8267 2ebb 39f3 d3be c3ca 27bf
00000010: 2007 93be 59db 80bd 05c3 d3be e995 753f
00000020: 1502 69bf 705a 933d 8e97 22bf cfcc 07bf
00000030: 43e0 6ebe 9866 e3be 6da7 7dbf d44a 88bf
00000040: cb40 06bf aac4 673e 5cb1 323f 17fc 4fbf
00000050: 71a5 143f 79fd bbbe 72e5 8b3e 3990 7ebe
00000060: 3e11 58be fb44 ef3e 1991 e9be 4503 9c3f
00000070: 0fd1 313f beca d1be 5393 8bbe ce5f 76bf
00000080: 0897 7cbe 5a51 a6be 56a2 6fbe c073 88be
00000090: c728 95be ec4b 2dbd 8229 17be 6306 043f
000000a0: 2bed 5fc0 8b11 d0bd ddcb 5a3f b007 5f3e
000000b0: 4b75 03be fcde 99be c1c6 eabe 4d57 2bc0
000000c0: 2b5f d4be a97e 403d b8df 803f 9911 10bf
000000d0: bd08 adbe c191 78be cdae adbe 1e15 3d3a
000000e0: b616 3e3d ae3d 823e c86a fa3d 52b0 c63e
000000f0: 7d47 0140 f07f 14be 0382 efbc 4970 48bf
00000100: 9af3 17be 280b 3bbe 91ac 2cbf c583 33be
00000110: b655 d93d 67c5 c3be 06c7 22be a6cf f43e
00000120: 3181 893e 5e91 2bbf f964 083d df13 8dbc
00000130: 454b c2bd 99c0 dbbe fb9e 86bf 3de5 663f
00000140: aa89 75bf d6cc 45be 9a95 be3e 25eb dfbe
00000150: d8ea 16bc 83b8 04bf 016b fdbe e426 b1be
00000160: 7bf7 1bbd 9529 813c 438d 2cbe 4f24 0d3f
00000170: 3448 a6be 08cc 81be 7ae2 a43d 716e 7dbe
00000180: a9b8 c1bf 357c e6bd 15b5 b0bc 7e91 33bf
00000190: cc9f e4bd 66c4 65be 5259 a5be 378d b9be
000001a0: b369 cabf 8862 21bd c9d5 31bf c47c d63d
000001b0: 6247 c1bf eb98 62bf e75d 063f b2c7 89be
000001c0: 65ff 41be c2c8 85bf 7d2d 6a3f e99a 96bf
000001d0: 3482 71bf 41b4 9cbf 5c7e 66be 98b3 d0be
000001e0: 73c9 3cbf 3bbf 01bf 91d3 1f3e 0870 993f
000001f0: 3bbc f8be 8381 85be 4d8d 6abf 13de 38bf
00000200: db34 b4bf 896c cbbd 0a99 04bf d706 1abf
00000210: b4fd 263d 59c2 60be e0c4 fd3d 128b ff3e
00000220: 97f0 92bf a303 56bf ec27 32bf f73e ef3e
00000230: ec91 9bbe 35dd 16be a58e fdbf 7192 aabf
00000240: 36f5 bf3d d40c e0be 963f 073f 183f 33bf
00000250: 5bf7 5d3e 855e 72bd b45a 2ebf 6ca6 dfbd
00000260: 78c6 c1be 7864 10bf 80c1 bfbe aeea 223f
00000270: 4e26 43be 3c6e a9bd 92db 45be 33f8 82bf
00000280: 3d83 3fbf 0c15 0cbf 9c18 8dbf 4d02 65bf
00000290: c839 f53c a1c3 46bf 02a4 72be 2105 ebbe
000002a0: e1df c33e 4b8b eabe 05e0 4cbf 4e7c 81bf
000002b0: 9d8e 94be 598f 16bf ab97 56bf f110 c1bf
000002c0: cad8 0bbd 4c87 7fbf 168d dcbf 64c7 003f
000002d0: e943 13bf d0f2 40bf 40c9 3cbe f9c4 9ebe
000002e0: 1424 20bf b94b 62bc 0e0f 06bf dc61 a2bf
000002f0: 3422 13bf f8f6 19be 2fb8 94be ebba edbc
00000300: 7371 32be 5b5f 93bc b137 2e3e 6756 56be
00000310: f3fc 74be 4528 10bd 8cce 18b6 677a eabe
00000320: 572d 2bbf ed9a df3d 8fd7 053f 3ffe 31bd
00000330: e207 51be 7812 1ebd 1054 1abf 1ab3 1fbf
00000340: 69e5 8ebd 1a64 d63e 0439 bbbf 701f 1ebf
00000350: 8509 cb3d 7b1d 2f3e 77e1 d03c 23f6 2a3c
00000360: ac62 ae3e 44a4 533f 9869 b8be be4e 88bf
00000370: f610 083f 3508 7ebd adc8 e9bc 4c18 863d
00000380: e66f b6be 9843 943d 884b 27be e1df 4ebe
00000390: b6ab fdbd 0d87 193e 1ba5 583c 3053 b7be
000003a0: c0c3 483f 9e33 dcbc d825 22bf 44d4 fc3d
000003b0: b9c1 36be 104d c7be a7fe 89bf a9b4 243e
000003c0: bec1 683e 6cab 3fbd 51b3 94bf d588 913e
000003d0: ba0f e1be fd19 07be c77a 9fbe 8633 c4bd
000003e0: 2f9f 80bc e953 103f a445 5e3e dfd5 82bf
000003f0: 9675 66bf 719f 563e bbee f9bd 86c0 e4be
