experiments/grail_nell_v2/graph_classifier_chk.pth (torch, 129294 bytes, 21 tensors)

weight f4 [88, 32]
00000000: 2b09 5fbe 07c0 9cbf 0810 92bf 8994 bd3e
00000010: 1f79 43bf e696 193e 8fcb 96be 648e 8c3e
00000020: a4d7 7f3f 62a8 05be 2335 14bf 1833 ce3e
00000030: d9c5 ab3f ecfd a3be cb02 923f b7a9 afbf
00000040: 4f09 12bf 6fcc bbbe bded 3cbf 4775 4f3f
00000050: 15b1 52c0 dbe1 f2be e5c5 7dbf 3c62 a93c
00000060: d156 413f f32d 483f 6687 dcbc c2fd 17bf
00000070: e9fd f23d 2a40 f33d 061b 1c3f 5ff6 0b40
00000080: 6d0c 1040 9cef 0abf b401 60bf c81e 0e40
00000090: cf53 afbe 4397 8bbf 7a31 b4bf 5d17 c63d
000000a0: 027f 303f 6a9f 563f a6fd 74bf 1f70 ddbe
000000b0: bf9e 2ebf a670 2c3f 1c7d ec3e fa26 2440
000000c0: 88a4 803e 8ff6 273f 98a5 c13e 024d 2140
000000d0: a166 20bf 9e72 87be 7ee9 143f 6a8c aebe
000000e0: eaa7 a73f d157 01bf f7b0 ddbf f528 79bf
000000f0: 9152 c3bd 6498 8ebf 12ba b13e 18fc ce3e
00000100: 3774 b5be 8e45 103f 7dba d53e ffcb be3d
00000110: 37df fc3d 249b a23d e8cc c4bf 1742 81bf
00000120: 0ced 833e 0b49 a03f dc6c fbbe 616c b5bf
00000130: 556f a9bf 219a a33e 1089 debd 4491 0c40
00000140: 1ae6 61be 6847 bc3e b4da 29be 6212 ccbe
00000150: 2ba4 813e 6ac8 293d 6e81 c43d ce29 64bd
00000160: af47 3dbd e60e 083f cd4f 77bf cf5d ffbd
00000170: 6585 cdbe 759a 253e acc9 05bf e8b7 debf
00000180: cde0 1a3e 7fc4 803e 130d a8be faed 4dbf
00000190: d294 39bd b3d6 8b3e 4626 b1be 5ca3 14bc
000001a0: 8bab 433f 9858 643d b876 79bd d3d6 3f3e
000001b0: d5f6 073f 1cdd 41bd 77ff 5b3d 2b1b cebd
000001c0: cbae 8a3e b63a a63e d0d3 95bd cd99 093e
000001d0: ef0f eabe bfdb 04bf efb6 3bbe 4145 163e
000001e0: baf5 84be c5b6 a23e f755 04bf 7b55 cdbe
000001f0: c1c7 9dbc 4799 92be 8a0a e93d f4fb 9a3c
00000200: 5b28 a5bc 8d72 d93e 3542 2a3f 1534 353e
00000210: 7d80 0a3f 90a4 433d 1644 77bf 9703 bdbe
00000220: 2e2a 1ebf e59d 4e3f 057e e4be 8962 95bf
00000230: 732d fd3e 8b67 f3bc 9afd 813e b1d9 b53d
00000240: 6eec c3be 28ac 83bd c5dd 34be de0e 3c3f
00000250: ba5f d8bf 3481 8c3e fa27 62be 5ca9 3e3e
00000260: b8fb f7bd 4bde 30be 34c1 3ebd 267d a9bf
00000270: 0225 9ebe 0aa6 a63e 4a2d dbbe ed96 68be
00000280: facb 48be 0ef1 053f a394 a4bc 7024 8dbe
00000290: c6d6 51be b032 293e 2df5 e2bf c0b7 3dbe
000002a0: 200a 06bf 61a0 813f 8537 68be 872e b8bf
000002b0: e632 72bf 2e5c e1be a179 963d 0a99 3bbf
000002c0: 7a49 9e3e 5697 dc3e 04a3 1fbf f054 50bd
000002d0: a9e8 8abf 1a7d 55be c3c8 023f aa56 823e
000002e0: a21c 663e 48b2 463f a6a3 debe 2505 11c0
000002f0: 8dcd 46be dbb8 0c3c 826c acbe 7806 fabd
00000300: caef 1e3e 1611 683e 82aa a83e ce3d 6dbe
00000310: 83ae b3be 2055 30be c408 bcbe cb11 003e
00000320: 9625 b0be b052 87be bdcc b33e 734a 97bd
00000330: 736c e53e 3f6a 283d 9ce1 ad3d 3ea8 e53e
00000340: 925a d63d 039e 50be 9b14 8bbe 8220 10bf
00000350: 9a6d ad3d 60ad f43d 94a6 eb3d d804 573e
00000360: ff49 0dbc d122 d1bd a7ac 55bd d728 43be
00000370: 64fe 5d3d 3430 263e 6a8f 01be 0721 8abe
00000380: 092a ad3e 2aa5 43be 4525 de3e d9e2 3dbe
00000390: 99d2 053f 6ddf 2a3f 529c 1dbf a8f1 d83e
000003a0: fea0 5f3e 1538 9dbe fa21 943f bc87 c9be
000003b0: f5f7 cc3e 800f 1a3f 9351 13bf 1cf0 7ebf
000003c0: 18ec 33be b2d6 2abf 409e 7c3e 4d4e b13d
000003d0: ca78 b43e 37f4 89be 0c95 98bd 4097 c63f
000003e0: 40ed 8dbe 1376 8abe 1ff9 d1be 6662 dd3e
000003f0: b589 9fbe 2c01 bdbf 54b7 71bc acc3 53bf
-0.21780841 -1.2246102 -1.1411142 0.37027386 -0.7635669 0.1499897 -0.29452178 0.27452385
0.99938416 -0.13052514 -0.5789358 0.40273356 1.3419753 -0.32029665 1.1407102 -1.3723668
-0.57045454 -0.36679408 -0.7380026 0.81038326 -3.2920582 -0.4743794 -0.9913009 0.020676725
0.75523096 0.7819511 -0.026920032 -0.5937158 0.11864836 0.11877473 0.60978734 2.1869123
2.2507584 -0.54271865 -0.875026 2.2206287 -0.34243628 -1.0905536 -1.4077599 0.09672425
0.689438 0.83836997 -0.95699537 -0.43249604 -0.6821098 0.6735939 0.461892 2.564879
0.25125527 0.65610594 0.3782165 2.5203252 -0.626566 -0.26454633 0.5816878 -0.34091502
1.3098118 -0.5052462 -1.731963 -0.9732812 -0.09537233 -1.1140256 0.34712273 0.40426707
-0.35440227 0.5635613 0.41743842 0.09316253 0.12347262 0.07939747 -1.5375032 -1.0098294
0.2576679 1.2522291 -0.4910649 -1.41737 -1.3237101 0.3195353 -0.10865986 2.1963663
-0.22060433 0.3677323 -0.16587335 -0.39857775 0.25320563 0.041450895 0.09594999 -0.05570393
-0.04621094 0.53147733 -0.9660614 -0.124690644 -0.40140834 0.16172202 -0.5226085 -1.7399874
0.15124817 0.25149915 -0.32822475 -0.8044125 -0.04530794 0.2731224 -0.34599513 -0.009072151
0.7643363 0.055748552 -0.060904235 0.18734293 0.5311101 -0.047330007 0.053710427 -0.10063776
0.2708648 0.32466668 -0.07315791 0.13437577 -0.4571528 -0.51897806 -0.18331502 0.14674856
-0.25968724 0.31780067 -0.5169367 -0.4010428 -0.01926029 -0.28632566 0.11378963 0.018918969
-0.020160845 0.42470208 0.66507274 0.17695649 0.5410231 0.04776436 -0.96588266 -0.369168
-0.6178311 0.8070968 -0.44627395 -1.1670696 0.49448738 -0.02971246 0.25388795 0.08879412
-0.3826632 -0.064293206 -0.17662723 0.73460186 -1.6904213 0.27442324 -0.22085562 0.18619293
-0.121085584 -0.17272298 -0.04657097 -1.3241317 -0.3088761 0.32548553 -0.4280799 -0.22713824
-0.19609061 0.52320945 -0.020090407 -0.27566862 -0.20492086 0.16523242 -1.7731072 -0.18527126
-0.523592 1.0127069 -0.22677429 -1.4389199 -0.94608915 -0.4401564 0.073474176 -0.73280394
0.30915433 0.4308421 -0.6235812 -0.050862253 -1.0852252 -0.20848504 0.5108759 0.25456744
0.2247186 0.77615786 -0.4348423 -2.265939 -0.19414349 0.008588995 -0.33676535 -0.12208265
0.1552116 0.22662768 0.32942587 -0.23168108 -0.3509408 -0.17219973 -0.36725438 0.12506787
-0.34403676 -0.26430273 0.3511714 -0.07387247 0.44809303 0.04111695 0.08490297 0.4485492
0.10466494 -0.20372777 -0.27164158 -0.56299603 0.084681705 0.11947131 0.11506382 0.20997941
-0.008623599 -0.10211719 -0.052166607 -0.19058548 0.054197684 0.16229326 -0.12652364 -0.26978323
0.33821133 -0.19105974 0.4338781 -0.18543567 0.5227447 0.6674717 -0.6156665 0.4237187
0.21838757 -0.3070685 1.1572869 -0.3936137 0.40032926 0.601799 -0.5754635 -0.9958513
-0.17570531 -0.6673385 0.24669743 0.08657513 0.35248405 -0.26944134 -0.074503034 1.5514908
-0.2772007 -0.27043208 -0.41010377 0.43239135 -0.3115975 -1.4765983 -0.0147531815 -0.82720447

weight f4 [4, 8, 32]
00000000: d62f a93f 5688 983f f434 e1bf 19c5 e13d
00000010: 9ca9 c5be 25ce 7ebe 7d30 1a3f b95e 5c3f
00000020: 5fb9 ddbe 0c6b b5be cd81 603f 0d93 4d40
00000030: a670 7bbf fe5f a23f eae4 1340 b72d 7fbf
00000040: c9e8 6dbc c011 4dbf 44c1 f0bf 5144 b63d
00000050: b164 cbbe 61cb 41be 67fa b4be 24dd 21bf
00000060: 1673 fcbe 967e 27bc 2325 453c 69d4 ac3d
00000070: be39 603c 06f0 4f3f 173f 4b3e eb3c a9be
00000080: ad77 c03c 30a5 88c0 85ca babe ea88 08bb
00000090: 32e9 34bf 26e9 e23f ed0e b9bf fe5e eabe
000000a0: 0e9d 5cbe 39dd 6fbf 8dbf 9d3f fa0a 0dbf
000000b0: 0771 1cbf ffaa 4fbf 5737 4bbf c705 563e
000000c0: 8147 94bf 2f27 8d3e 8553 7fbd 543c 29bf
000000d0: 99e2 703d a284 08be b0c7 3fbf 14a0 c3bf
000000e0: 3fad 8abf 7494 3d3f 8b2b ddbd 665a 0b3e
000000f0: f939 a8bd bb39 abbf c88a 0bc0 35ce 75be
00000100: 39f0 bdbf 8d05 54bf 1c34 123f 8e96 0740
00000110: d365 ca3f 4c1b 8fbf 6fd5 853e b588 5bbe
00000120: 2415 9bbf 0e9a adbf 832e 4c3e 6568 7dbf
00000130: 8cae a33e ec7f 42c0 7685 903e e369 29c0
00000140: c65e babe 31a4 d6bf 6493 c3be e52f fa3d
00000150: 42a8 8cbf 272c acbe 15ae 893e 5a6d afbf
00000160: 7b06 00bf 0f1f fbbe 5438 7bbd e5f1 bbbe
00000170: 44c5 443e eaf5 ea3f 7e44 eabf 4741 7a3f
00000180: 5721 9bbf d0ae a7bb 6afc 9abe 9d7b 66bf
00000190: 6c55 5bc0 7caa 2cbf 5100 73bf 0c1d 9f3d
000001a0: e0a0 433f f6a5 50bf d037 bfbe bbec 60bf
000001b0: 413f 2bbe 0ff2 bebf 743e 0fc0 3f9b 753f
000001c0: 1454 96bd bb4c a8bf 04eb ffbe 32df 9dbe
000001d0: 480e aa3e a78b 9cbe bfa4 1b3f 3802 c3bf
000001e0: b561 8f3e de79 3ebe 4a5a ba3e 3636 b9be
000001f0: 3525 aabf 58c7 24c0 765c 6dbf 1848 bebd
00000200: 42ed 06bf f9c7 75bf 4178 893f 3d25 3f40
00000210: 5e84 0940 7b2e 9bc0 db37 3540 7df5 293d
00000220: 65e5 14bf a4d3 adbe c7de c53e af3a 543e
00000230: 28f4 4cbe d9b5 7c3f 16c9 333f 86fb dfbf
00000240: e328 d0be 2735 df3f 1971 d0be 8033 94be
00000250: 293b bdbe 2989 9abd 80f5 2b40 ce9e 38bf
00000260: 7f41 873f 84d9 f63e a25b 3a40 53b2 aa3e
00000270: ec63 00bd 122c 2440 4fbc d0bf f902 c2bd
00000280: 1508 dcbf 815e 82bf 3759 afbf 31ac 58bf
00000290: 5840 51bf be4a c33f 9d3d b4bf 2fd4 1bbe
000002a0: 444a 0abe 7411 9fbf b11f 0840 4da2 47be
000002b0: b341 193f b08a b3be 6f0d e13d a368 743e
000002c0: 8fea c3be 8e58 8dbf 52ab 1abf 6cf9 b83e
000002d0: 24a3 27bf ef01 38bf 209f 133f 9a4a 99bf
000002e0: 2acb abbf 7708 9e3d 1c74 883f a594 5fbf
000002f0: 03b9 503f 03f1 363e cff3 16c0 07e6 3fbe
00000300: 33ca 183e ad47 00bf 7078 0f3f ff9b 0c40
00000310: 0587 c4bd 80f0 a0be 46cf 78bf e632 62bf
00000320: 93d4 79bf 1dbb 98bf 18fa 9abe a6fb 693f
00000330: 6ce3 96be 6ac3 56c0 bfd3 9ebf 7b66 2abf
00000340: 51b0 38bf ce64 08be 106a 3ebf 76e9 d2be
00000350: f47f ba3e b357 d63c 4a99 a0bf 8f58 98bf
00000360: 7997 223f 4634 ffbd 00e7 19c0 2c85 01be
00000370: 6ba8 403f c8ad b5bf 70b5 003e 1993 91be
00000380: 1945 fcbe f0ad 4abf 698c eabe 2bc5 2cc0
00000390: 05ad 89bf 9226 84be bc4c 6fbf 7d18 8c3e
000003a0: aab6 073e 5a96 3fbe 19e6 43be 58c7 9a3e
000003b0: fab7 acbf c7fd 09bf a6b9 2f40 fe5a 9abf
000003c0: 7ead 3dbc e6be 99bf 37e4 bfbf 589a 4abf
000003d0: c14c 8cbf 8a42 473d ef7c 55bf 31c3 12bf
000003e0: 2249 05c0 0aeb 81bf 6330 0bbf c4e9 533e
000003f0: d118 8ac0 83cd bdbf fda1 55bf 9a92 bdbe
1.3217723 1.1916606 -1.7594285 0.110239215 -0.38605964 -0.24883325 0.6023024 0.86082035
-0.4330549 -0.35433233 0.8769806 3.2121003 -0.9821876 1.2685544 2.3108468 -0.9967913
-0.014520832 -0.8010521 -1.880898 0.08899749 -0.3972526 -0.18925239 -0.35347292 -0.6322806
-0.49306554 -0.0102230515 0.01203278 0.084389515 0.013685642 0.8122562 0.19848286 -0.3305429
0.023494566 -4.2701645 -0.36482635 -0.002083356 -0.7066833 1.7727401 -1.445768 -0.45775598
-0.21544287 -0.93696934 1.2324082 -0.55094874 -0.61109966 -0.81120294 -0.79381317 0.20900641
-1.1584321 0.27568957 -0.06233551 -0.6610768 0.05880985 -0.13331845 -0.74914074 -1.5283227
-1.083412 0.74054646 -0.10799321 0.13608703 -0.082141824 -1.3376993 -2.1803455 -0.24004443
-1.4838935 -0.8282097 0.5711076 2.1185641 1.5812324 -1.1180205 0.261394 -0.21438868
-1.2115827 -1.3562639 0.19939618 -0.9898742 0.31969106 -3.0390577 0.28226823 -2.6470878
-0.3640043 -1.6768857 -0.38198388 0.122161664 -1.0988848 -0.33627436 0.26890627 -1.3705246
-0.5000989 -0.49047133 -0.061333016 -0.36707988 0.19215876 1.8356297 -1.8302152 0.97755855
-1.211955 -0.005117275 -0.30270702 -0.9003237 -3.4270887 -0.6744764 -0.9492236 0.07769212
0.7641735 -0.81503236 -0.3734727 -0.8786122 -0.16723348 -1.491762 -2.2381868 0.9594001
-0.073402554 -1.3148416 -0.4998399 -0.30834347 0.3321402 -0.30575296 0.6079826 -1.5235052
0.28004232 -0.18601176 0.3639701 -0.36174172 -1.3292605 -2.574667 -0.9271921 -0.092910945
-0.52705777 -0.9600826 1.0739824 2.9866478 2.148704 -4.849424 2.8315341 0.04149388
-0.5816253 -0.3395053 0.38646528 0.20725511 -0.20015013 0.9871498 0.7022871 -1.7498634
-0.40656194 1.7438096 -0.40711287 -0.2894554 -0.36959198 -0.075456925 2.6868591 -0.72117317
1.0566863 0.48212826 2.9118428 0.33339176 -0.031345293 2.5651898 -1.6307467 -0.09473223
-1.7189966 -1.018509 -1.3699101 -0.84637743 -0.81738806 1.5257185 -1.4081303 -0.1521766
-0.13504893 -1.2427201 2.1269343 -0.19495507 0.59865874 -0.35066748 0.109888904 0.2386804
-0.38264892 -1.104265 -0.60417664 0.36127794 -0.6548331 -0.7187795 0.5766468 -1.1975892
-1.3421376 0.07716458 1.0660434 -0.8733619 0.81532305 0.17865376 -2.358631 -0.18740092
0.14920883 -0.5010937 0.5604315 2.1970212 -0.095960654 -0.31433487 -0.97191274 -0.88358915
-0.9758999 -1.1932102 -0.3026893 0.9139961 -0.29470384 -3.3556771 -1.240837 -0.6656262
-0.7214404 -0.13319704 -0.7438059 -0.41193742 0.36425745 0.026164865 -1.254678 -1.1902026
0.6351238 -0.12461142 -2.4047241 -0.12648457 0.75256985 -1.4193659 0.12569213 -0.2843254
-0.49271467 -0.7917166 -0.4581025 -2.6995342 -1.0755926 -0.25810677 -0.9347646 0.27362433
0.13253275 -0.18709698 -0.19130744 0.30230212 -1.3493645 -0.5390286 2.745706 -1.2059019
-0.011577008 -1.2011383 -1.4991521 -0.7914176 -1.0960923 0.04864744 -0.8339376 -0.5732909
-2.0825887 -1.0149853 -0.5437071 0.20694643 -4.3155293 -1.4828342 -0.834503 -0.3702591

w_comp f4 [88, 4]
00000000: d71a 2b3f da6e 2440 0488 1abf b682 e1bd
00000010: 3288 f8be f0cb 933e d364 0e3f 0cd5 af3d
00000020: 540d 2c3f 6ed9 9d3e bd11 4ebd fe91 3540
00000030: 2319 2b3f 371c c33e 5010 49be 7373 b8be
00000040: 20b7 b43f d087 503f 5090 6d3f 4725 d33e
00000050: d636 ed3d 4379 2440 57d1 603e f172 5e3f
00000060: b25e 6d40 2531 5840 f55e 3940 2a24 5cc0
00000070: 4709 6e3f 9b4e 1c3f ba31 4bbf f207 ae3f
00000080: 1a3f 06c0 7798 2c40 1c37 053e da99 cfbf
00000090: 5e3d c33f 17a6 383f 94a3 713f e545 483f
000000a0: 1eed 2040 0e49 b6bd ba90 39bf dbaa 89bf
000000b0: b42c cd3e 0468 50bf 36a3 47c0 e348 2440
000000c0: af82 2abe dd40 2540 2aac 98bf 9a7b c7bf
000000d0: de3b 7e3c bba2 8e3f dfca 58bf 584b bd3f
000000e0: bebb 883f e03d 873f af07 113f fdec 763f
000000f0: d709 ed3d ff10 4f40 f643 253f eb52 acbf
00000100: c4c6 c73e b166 9e3f a41d 173f eba1 d03f
00000110: b1b9 5ebf 499a 3f3e 4a7c b63f 6878 7e3f
00000120: b87e af3f 9f41 10c0 f007 93bf 61e8 ddbf
00000130: d474 793e f7f3 803f c4f9 f73e e9a0 15bb
00000140: 2cac 0e40 8d90 0b3f 1bda 983f d9b9 223e
00000150: 0b00 0940 2020 2c3e ea3c 283d 3c25 e2bf
00000160: 38e9 953f 3bf1 c53f 0ed5 e93f f996 90bb
00000170: 8f21 76bf e225 c33f ca0d c4be 602a b9bf
00000180: 835d a5bf ffa1 61bf ece3 b43f 5d78 d1bf
00000190: 4fee f33f 1fd5 0b3f 3a98 a9bf fd06 99bf
000001a0: 221a 72bf b940 fc3f 6e31 94bf a530 09be
000001b0: b5c3 3cc0 3cd1 a0bf 5177 d83f 29ec 3ebe
000001c0: 57fa 02c0 edec 09bf bebd 2a3f 3aa0 8fbf
000001d0: d422 563f 4584 d4be e5ec 0f3f bddd 0040
000001e0: d8b8 0840 1cfd 8b3e 1352 dbbf c68a 193f
000001f0: e0a9 94be 635e fb3d 7d90 293f b5c9 ab3c
00000200: ea8f 1a40 ade2 3ebf 2602 9bbf fbc3 f23f
00000210: 5d3a 4e3f 25c6 dcbf 6042 35c0 5402 27c0
00000220: bcf3 dc3f 03b7 e13e 89f0 81bf 07c4 fd3c
00000230: 2ea8 5a3d c04d 1640 0f3f 03c0 82fb be3e
00000240: e375 0240 b557 6bbf e7ca 8e3f 7283 83bf
00000250: 57e3 86bf 69f8 0440 5f73 ad3f 3dc2 92be
00000260: eede bf3c e8a2 d93f 063d 963e 401c 6a3f
00000270: c7f4 913f 09f2 c93f 51c6 db3f 2885 e2be
00000280: 6aa5 af3f 7441 5e3f e497 12bf 4f9b 00c0
00000290: e918 1140 94a2 193f e029 0b3d 3131 c53f
000002a0: 4449 793f 1daa d9bf 495e 2240 0c96 2dbf
000002b0: fd93 973f d85a 96be fb93 cf3f 48bb 72bf
000002c0: f57c 9bbe 47a9 4b40 0abf 333e ac10 01c0
000002d0: d10e 60bf f51a 033f b963 543f 986e 5840
000002e0: b1da 46bf 4af0 19c0 f953 9ebf 92ad 72c0
000002f0: e0fb 50bd 2555 5e3f c42a 623f d290 35bd
00000300: a8b9 e83e 0091 0f3f 9a57 9f3f 35f8 a83e
00000310: 47f1 453f 3754 ee3f cad9 8f3f 0daa 5a40
00000320: e379 0740 48bd efbf 6c54 78bf c14a 853f
00000330: d25e 73c0 3e5b 1440 39ba 96bf 00b2 bdbe
00000340: 7182 b7bf df7b 2040 04f8 53c0 7329 0540
00000350: c2c2 abbe 9763 14bf 4700 14be 1cc2 b13e
00000360: 457b c33d d37e f33c 2a69 92bf ad61 c9bf
00000370: 9420 bdbf 6e8d 4b3f 9c20 563f 216f aa3f
00000380: 0c70 eb3f 7d34 283e 5347 2340 ab02 943e
00000390: f858 dabf 1697 06c0 5af8 f3bf 6e36 c2bf
000003a0: 3079 e73f 3a29 1f40 aa87 eebe 16bd 49c0
000003b0: 75cc 573f 8a86 bd3d 3370 f1bd ce30 92bf
000003c0: 3239 1b3e 7f10 743f 199a a33f c69a 513f
000003d0: 6dda b83f 68f4 1640 3555 ad3f 49a1 22c0
000003e0: 2e59 bfbf d505 983f 2fb7 1040 9ee2 4bbf
000003f0: 972a 673f fe66 00c0 c9ac fbbe 619b ad3e
0.6683783 2.5692658 -0.60363793 -0.11011259 -0.4854141 0.2886653 0.55622596 0.08585557
0.6720784 0.30829948 -0.050309885 2.8370357 0.6683523 0.38107464 -0.19635129 -0.3602558
1.4118385 0.81457233 0.9279833 0.41239378 0.11582725 2.5699012 0.21954857 0.86894137
3.7089047 3.3779995 2.8964207 -3.4397073 0.92982906 0.6105744 -0.7937275 1.3596175
-2.0976014 2.6968057 0.13009304 -1.6218827 1.5253103 0.72128433 0.94390225 0.7823165
2.5144725 -0.08900653 -0.7248646 -1.0755266 0.40073168 -0.81408715 -3.1193366 2.5669487
-0.16651414 2.582084 -1.192754 -1.5584595 0.015517203 1.1143411 -0.84684557 1.4788618
1.0682294 1.0565758 0.5665235 0.96455365 0.115741424 3.2354124 0.64556825 -1.3462805
0.39018834 1.2375089 0.59029603 1.6299413 -0.8700209 0.18711199 1.425668 0.99402475
1.3710546 -2.2540052 -1.1486797 -1.7336541 0.24360973 1.0074452 0.48432744 -0.0022831506
2.2292585 0.5451744 1.194156 0.15891208 2.1406276 0.1680913 0.041073717 -1.7667613
1.1711798 1.5464243 1.8268144 -0.0044125286 -0.96144956 1.5245936 -0.3829177 -1.4466057
-1.2919163 -0.8813781 1.4132056 -1.6364857 1.9057101 0.5462207 -1.3249581 -1.1955258
-0.94571126 1.9707252 -1.1577585 -0.13397463 -2.949445 -1.2563853 1.6911412 -0.18644775
-2.0465295 -0.53877145 0.66695774 -1.1220772 0.83646894 -0.41507164 0.5622085 2.0135338
2.136282 0.27341545 -1.7134422 0.59977376 -0.29035854 0.12273862 0.66236097 0.020970205
2.4150338 -0.7456463 -1.2110031 1.8966058 0.80557805 -1.7247969 -2.8321762 -2.609517
1.7261882 0.4408494 -1.015153 0.030977262 0.053383045 2.3484955 -2.0507238 0.3730126
2.0384452 -0.91930705 1.1155671 -1.0274489 -1.0538129 2.0776618 1.3550833 -0.28663817
0.02342173 1.700284 0.29343432 0.91449356 1.1402825 1.5776988 1.7169896 -0.44242215
1.3722355 0.86818624 -0.57263017 -2.0094793 2.2671454 0.600137 0.033975482 1.5405637
0.9737742 -1.700504 2.5370047 -0.6780708 1.1842037 -0.29366183 1.6217035 -0.9481702
-0.30368772 3.1822069 0.17553344 -2.0166426 -0.8752261 0.5121301 0.82964665 3.38175
-0.77677447 -2.405291 -1.2369376 -3.791844 -0.051021457 0.8684867 0.88346505 -0.044327565
0.45454144 0.5608063 1.2448609 0.33001867 0.77321285 1.861945 1.1238339 3.416629
2.1168144 -1.8729639 -0.9700382 1.0413438 -3.8026624 2.318069 -1.1775581 -0.37049866
-1.4336683 2.5075605 -3.3120127 2.0806549 -0.33547026 -0.5796446 -0.14453231 0.34718406
0.09544996 0.02972356 -1.1438344 -1.5732933 -1.4775567 0.7951268 0.8364351 1.3315164
1.8393569 0.16426273 2.5512283 0.28908285 -1.7058401 -2.1029716 -1.9060166 -1.5172861
1.8083858 2.4868913 -0.46587878 -3.152166 0.8429635 0.09254177 -0.117889784 -1.1421144
0.15158537 0.9533767 1.2781402 0.8187679 1.4441658 2.3586674 1.3541628 -2.541094
-1.494909 1.187678 2.2611806 -0.79642665 0.9029936 -2.0062861 -0.49155262 0.33907607

self_loop_weight f4 [8, 32]
00000000: 0ddc 923f 4d6d 8fbe 1d1c 19bf dc85 493f
00000010: 5d7c 393e f36a b53f da33 273c 6339 af3e
00000020: 6481 13bf d02a 49ba 6e21 22bf c80b cd3e
00000030: bb8d 1abf 89a3 053f 64f8 b6bf 644f 0cbf
00000040: 8019 3abe 529e ad3d 09c2 d1bd 01f6 b6bd
00000050: bb3f 90bf 8206 04bf 641b 583f d619 be3f
00000060: ddf0 55bf e61f 9cbe 32e8 623f d100 debd
00000070: d51a 92bf a31f 0f3f 19df 81be c8e0 84bf
00000080: e2f0 bcbf 612c 3cbe 99df 20be 9a25 533e
00000090: 5a3e ffbf b551 42be 4694 16c0 0290 8fbf
000000a0: cba3 0cc0 a94d ebbe 1e82 913f ba2d 98bf
000000b0: 8859 993d 295e 5cc0 5de2 99bf 4a89 443f
000000c0: 4100 6dbf dbe0 7a3f 84c1 8a3e e1a2 0dbf
000000d0: 4f77 30c0 196b 52bf 34a1 70bf 4617 d2bf
000000e0: f864 bfbf d6af a2bf fd64 86bf df4c e9be
000000f0: fb6f fe3e 3be8 6dc0 814b 13be 62bc 86bf
00000100: 9d41 003c 2187 ac3e 7e30 06bd f55d 28bf
00000110: 89c9 f33e 558b d0bf 0804 43bf c242 3abf
00000120: 371b a2be fae8 47c0 6d07 64c0 70d1 03c0
00000130: 6712 83bf 4c8a 933f 5134 133f 26a3 3c3e
00000140: 16ec 98bb 42bc 11c0 2b74 54be 93e1 23bf
00000150: 8531 f23d 2fb8 a7be 4bf8 993f c699 913f
00000160: 974f 9e3e 948e 473e 4ecc 2ec0 7202 00bd
00000170: f1fc 51c0 7cf3 e43e c94a 27bf 5f6d 6a3f
00000180: 97e7 02c0 9237 2ebf 4548 6d3e b982 1abf
00000190: 71ea 793d 5448 e0be 05a5 3dbf d351 25bf
000001a0: 7bfd 10bc b96d 6d3f 8965 dcbf d0ab 2e3f
000001b0: fd23 2dbd 868e 27c0 94d4 e3bf 5d48 753f
000001c0: 6711 5bbe 4c7a 993d c9f2 5bbf b3a1 afbe
000001d0: 9903 94be 7970 5fbe 6abf 1ebe d099 55bf
000001e0: 2a22 e6be 39e5 aabe b9a5 27be ac8e bb3c
000001f0: 6099 b0be ee56 e23e b9fd 143f b9f9 66bf
00000200: f467 6bbf 3767 b93f 2fd6 2b3f 1e97 56bf
00000210: b4d7 b43e 3171 b83f 7f5f 0f3e 0038 49bf
00000220: 4cb8 bfbf 5164 613c 4208 573f 3220 a9be
00000230: e67c cdbf 1197 eabf 19ac ccbe 2bcc 2c40
00000240: 35d7 4dbf f7fa f4bd c46d 6a3f 6d43 fdbe
00000250: 54d9 bdbf 584c 34bf e553 8c3f 217c 443f
00000260: 674b 00bf 955b 8abe e84b c03e 0057 2d3f
00000270: ca05 9bbf 7caa 26c0 7f95 373f 10cf 5fbf
00000280: 54f6 5ebd 8966 3ebf a329 65bf 4a40 49be
00000290: 1097 543f ddb5 4fbf 3ac5 75be c552 98bf
000002a0: 9789 a7be ab7f efbf 8ad8 773e 8db7 edbf
000002b0: 0fd7 25bf bd16 373f d572 96be 1f6f e8bf
000002c0: 31db c7be cf48 063f 50cf 1cc0 cba0 36bf
000002d0: 2847 bbbe 4164 4fbf ead0 babe 0515 86c0
000002e0: fdaa 6bc0 92ec c4bf 02e1 243e f618 c8be
000002f0: dd13 0ac0 f5e8 2c3f 3b65 edbf 1ca0 9d3e
00000300: f256 8bbf b3f9 3ac0 4200 743d bc64 b63e
00000310: ea23 febe 0c49 0fbf 27f3 e8be 013d 0cbe
00000320: 240a 023f af75 9dbf 8518 a7c0 cf4a b43e
00000330: 4fb7 083f 72e3 0ac0 c235 71bf 05ed aabe
00000340: 7ff0 fbbe 87c4 06bd 926d a93e cac9 c0be
00000350: f32b dabf 550e 27be 82f4 07c0 c543 783e
00000360: bf3c 013f 9c87 d33c f29f 82bf b368 7ebf
00000370: cf5d ab3f 989b 4ec0 f793 6b3e 1e80 72bf
00000380: 3b36 c23b b79d e4bf df5f 8abf fb85 2e3f
00000390: 945c 29bf 58a1 43bc cc78 72bf 30a7 5f3e
000003a0: 883d 9ebe e86c 0b3f 766c 13c0 f773 9fbe
000003b0: 069c 89bf 80d3 07c0 0216 02c0 0edb 8fbc
000003c0: 98bf 753e 66e5 24bf 6d3e 6fbf aaff 91be
000003d0: 269b da3e ec49 a6be 4daa 6c3f afa4 1e3f
000003e0: a427 0cc0 9b46 b7be 6102 c8bf aa8f 00bf
000003f0: 0aac 6dbf cdb6 32bf b05b f13d 58d9 99bf
1.1473404 -0.28013077 -0.5980852 0.7871988 0.18113847 1.4173263 0.0102052335 0.3422347
-0.5761931 -0.0007673921 -0.6333226 0.4004805 -0.60372514 0.5220266 -1.4294553 -0.5480864
-0.1817379 0.08477463 -0.102420874 -0.0893364 -1.1269449 -0.5157243 0.84416795 1.4851635
-0.83570653 -0.30493087 0.8863555 -0.108399995 -1.1414438 0.5590765 -0.25365523 -1.0381098
-1.4761012 -0.18376304 -0.15710296 0.20619813 -1.9940903 -0.18976481 -2.3528 -1.1215823
-2.1974971 -0.45957687 1.1367834 -1.1888955 0.0748778 -3.443247 -1.2022206 0.76771986
-0.9257851 0.9799935 0.27100766 -0.5532666 -2.757282 -0.8219467 -0.93995976 -1.6413352
-1.4952688 -1.2709911 -1.0499569 -0.4556646 0.4969481 -3.7172992 -0.14384271 -1.052624
0.007828143 0.33696845 -0.03276109 -0.6576837 0.47614697 -1.6292521 -0.76178026 -0.72758114
-0.31661388 -3.1235948 -3.5629532 -2.059658 -1.0239991 1.152658 0.57501704 0.18421611
-0.0046668155 -2.2771153 -0.2074744 -0.64016074 0.11825851 -0.32757708 1.2028898 1.1375053
0.30920097 0.19487983 -2.7312198 -0.031252332 -3.2810633 0.44717014 -0.6534849 0.9157314
-2.0453851 -0.68053544 0.231721 -0.60355717 0.061014596 -0.43805182 -0.74079925 -0.6457798
-0.008849497 0.9274555 -1.7218486 0.68230915 -0.04227065 -2.618074 -1.7799249 0.9581354
-0.21393357 0.074940294 -0.85917336 -0.34303054 -0.28908995 -0.21820249 -0.15502706 -0.83437824
-0.4494794 -0.33378008 -0.16371812 0.02289518 -0.34492016 0.44206947 0.5819965 -0.90224797
-0.91955495 1.4484624 0.67123693 -0.83824337 0.35320818 1.4409543 0.14001273 -0.78601074
-1.4978118 0.013756827 0.83996975 -0.33032376 -1.6053741 -1.8327352 -0.3997505 2.6999614
-0.80406505 -0.1196193 0.9157374 -0.49465504 -1.4831948 -0.7042899 1.0963103 0.76751906
-0.50115055 -0.27022997 0.37557912 0.67710876 -1.2111142 -2.6041555 0.7171249 -0.8742533
-0.054434136 -0.74375206 -0.8951666 -0.1965343 0.83043003 -0.81136876 -0.24001017 -1.1900259
-0.3272216 -1.8710836 0.24203697 -1.857164 -0.6478128 0.7151907 -0.29384485 -1.8158911
-0.39034417 0.5245485 -2.4501534 -0.713391 -0.36577725 -0.8101235 -0.36487514 -4.190066
-3.6823113 -1.5384696 0.16101459 -0.39081544 -2.1574624 0.67542964 -1.8546518 0.30786216
-1.0885909 -2.9214904 0.05957056 0.3562373 -0.49636775 -0.55970836 -0.4549801 -0.13695146
0.50796723 -1.2301539 -5.221743 0.35213324 0.53404707 -2.1701322 -0.9422265 -0.33383957
-0.4920692 -0.032902267 0.33091408 -0.37653953 -1.7044662 -0.16314061 -2.1242986 0.24244602
0.50483316 0.0258215 -1.0205061 -0.9937851 1.3388003 -3.2282467 0.23005663 -0.9472674
0.005926875 -1.7860631 -1.0810508 0.6817319 -0.6615689 -0.011940323 -0.9471557 0.2184112
-0.3090632 0.5446305 -2.303495 -0.31143162 -1.075074 -2.122284 -2.0325933 -0.017560508
0.23998868 -0.64412534 -0.9345463 -0.2851537 0.42696494 -0.32478273 0.9244736 0.6197004
-2.1899195 -0.35796055 -1.5625726 -0.50219214 -0.92840636 -0.6981018 0.11785066 -1.2019453

weight f4 [8, 80]
00000000: 4292 45c0 0b1d cbc0 5499 f33f d323 3240
00000010: fb4f afc0 7966 d13f 73fd b7bd 8558 4fc0
00000020: 8a72 163f 43a5 86c0 2fde d8bf a066 ef3f
00000030: cfac 9bc0 8387 f13f b946 1fc0 43db 843d
00000040: 3784 913b 864c f8bc a476 bfbd 9d9c 27bf
00000050: d51a b53e 8e15 a3bc de53 92be e8ca 1c3f
00000060: 77ec 48bf f82a 03bd 4042 5f3e 39eb b93f
00000070: 833b 233f f13e 06bf ab41 803e bef0 7bbf
00000080: 45bd 203f 476c 893e 90ad 853d 2837 753e
00000090: 02ae 90bf 906d 90be d6b3 593f 1d80 30be
000000a0: 17b8 8bbe 2b9f 93be 7184 b83e b17b 97bf
000000b0: 2770 f03e 3c06 69be 94b1 4a3d a6c5 7d3f
000000c0: 03dc 1e3e 6976 1cbe a219 01bf b215 ddbe
000000d0: e501 a03e fec9 80be b2c1 403f 853c 4b3e
000000e0: 7251 023f 2397 0bbf 1372 4e3d abdb dd3e
000000f0: 71bf 8c3e 1ebf d03e 6fbb 5cbf 7188 463f
00000100: 73c4 e93e b574 193e c87c 4b3f 3f7c 90bf
00000110: 5460 6040 5f1c 8dbe f869 4bbe 1a84 913d
00000120: 06ff b43d 6f64 013b 697a 053e d933 ee3f
00000130: 036b 34be 772a 35be ea69 683d c5ae 00bf
00000140: 1d06 debf 1ca7 4abf 2dd3 fdbf 170b d7be
00000150: bf7e d1bf 1740 eebf 1ff8 0cbf 1394 82be
00000160: 2dcf 2ac0 61e1 efbf a2d4 20c0 68b2 a13f
00000170: 8a49 18c0 03db eebf 6e28 a6bf 4618 e73f
00000180: ef2f 843f 7c0e 20bf 5390 e1bf 9f50 b83f
00000190: 6c3f ca3d 6836 0ebf 33c5 ebbe 2d2d 0d3e
000001a0: 0b91 d73e 66ec 543f 1ce4 acbf 8a6f c93c
000001b0: 8356 1ebf 7946 8e3e 8ad8 0cbe f6d2 bc3f
000001c0: 7e04 b4bc 2300 1f3f 9a5e 763f 33e0 da3f
000001d0: 1a21 0d3f 4db0 c3be e88e 973e 234d 15bf
000001e0: 12f8 983f 58fe aabe d905 a0bf 7cd6 383d
000001f0: 5fea f0be 255e 0fbf 080f 49be 740f 193f
00000200: b9ed c8bf 5c32 b23e ced9 0e3f 2b9d 8bbf
00000210: cda0 3b3f 96fd 833f 3dbd 363f 9c36 02be
00000220: 3152 9bbf 64b0 febd 57c0 263f 0fa7 1a3f
00000230: 0bbe d13d 459c 68bf 397f 2ebf 51ee 07c0
00000240: ce0d d8be f849 40be 2bb8 bd3d e595 67bf
00000250: 5f00 b03e e4be cb3b cb2c e93d cba3 fb3e
00000260: e41c ecbe 74d2 083f 9733 633f fbe1 04be
00000270: 4331 3ebe 0dd0 fb3e a96a 48bf c912 efbe
00000280: d679 77be 789d 143f 1231 11c0 b17d 94bf
00000290: 91c0 8e40 12f7 98c0 0ef5 06c0 055b 91bf
000002a0: 96eb ef3f 9da9 9ac0 8715 7dbf 459c 363e
000002b0: 4322 28c0 926b aa3e 7592 b3bf fc51 05bf
000002c0: 3156 b4bd 1420 ecbe f49e 09bf c7f9 8abc
000002d0: c74a d2bd b4c5 f8be ea45 813e 6afb bb3e
000002e0: 8cf5 62be d7a2 26be b0c5 7d3e 937e 733f
000002f0: ac46 b1bd 3c26 b6be 9619 513e 5f60 d0bf
00000300: 89d4 0c3f 82f1 87bd 5de8 393e c73c 3ebd
00000310: 88e8 f03d b948 24be 0449 443f 6e86 1abc
00000320: 6c6b 113e 5f46 893c fac3 ed3e 3a7f 593e
00000330: 484b 363d 7569 fdbe d8dd 573d a24b 8a3f
00000340: 4631 e93d 61ea a6be cc83 e43e 33da 673f
00000350: da0b a83e e076 903d 56a1 253f 624d aa3e
00000360: 63ae 1abf 7b2a b1bf b410 013f 1439 1f3f
00000370: c773 123e e637 963e 687a debe 5d08 03c0
00000380: e197 43bf c214 04bf 45e8 01bd 5b0d f63e
00000390: 901a 113f e8eb db3e 45e6 aa3e a766 173f
000003a0: f497 6abe aa9b 0abf 9b0e 823d 9710 493f
000003b0: 4efe 043d 338e 57bf c3ed 88be 25a3 01be
000003c0: 1fd6 33c0 ef10 3bbf b950 0bc0 bf59 b5bf
000003d0: d8f1 59bf a422 92c0 fdce 573d e084 57bf
000003e0: fed9 6dc0 358d 98bf 8c2b 26bf fb25 793f
000003f0: 1cea 01c0 ff81 f6bf 3851 3a3f 97f4 09bf
-3.0870519 -6.3472953 1.9031167 2.7834365 -5.4785132 1.6359397 -0.089838885 -3.2397778
0.5876852 -4.2076735 -1.6942805 1.8703194 -4.864845 1.886948 -2.4886916 0.06487133
0.00444081 -0.030309927 -0.09348801 -0.6547335 0.35372034 -0.019907739 -0.2857961 0.6124711
-0.78485817 -0.0320234 0.21802616 1.4524909 0.6376268 -0.5243979 0.250501 -0.9841422
0.627888 0.26840422 0.06527245 0.23946822 -1.1303103 -0.2820859 0.8504003 -0.17236371
-0.27288887 -0.28832373 0.36038545 -1.1834623 0.46960565 -0.22756284 0.049485758 0.9912971
0.15513615 -0.15279545 -0.5042974 -0.43180615 0.31251445 -0.25154108 0.75295556 0.19847305
0.50905526 -0.5452749 0.05040176 0.43331656 0.27489808 0.4077081 -0.862235 0.77551943
0.4565769 0.14985926 0.79487276 -1.1287917 3.5058794 -0.27560708 -0.19864643 0.071052745
0.08837704 0.00197437 0.13034977 1.8609573 -0.17618947 -0.1769198 0.056741633 -0.5026668
-1.7345616 -0.7916124 -1.9830071 -0.42000648 -1.6366805 -1.8613309 -0.550661 -0.25503597
-2.668895 -1.8740655 -2.512978 1.263257 -2.3794885 -1.8660587 -1.2981088 1.8054283
1.0327128 -0.625221 -1.7622169 1.4399604 0.09875378 -0.5555177 -0.4604889 0.13786764
0.42102847 0.83173215 -1.3507113 0.024589319 -0.61850756 0.2778814 -0.13754478 1.475188
-0.021974798 0.62109584 0.962381 1.709967 0.55128634 -0.38220444 0.29601216 -0.58320826
1.1950705 -0.33397174 -1.2501785 0.045126423 -0.4705381 -0.5600303 -0.1963464 0.59789205
-1.5697547 0.34804046 0.55801094 -1.0907339 0.7329224 1.0311763 0.71382505 -0.12716144
-1.2134458 -0.124359876 0.6513724 0.6041116 0.10241326 -0.9086345 -0.68162876 -2.1239207
-0.42198032 -0.18778217 0.09263643 -0.90463096 0.34375283 0.0062178243 0.11385497 0.49148402
-0.46115792 0.53446126 0.88750595 -0.1297683 -0.1857348 0.49182168 -0.7828775 -0.4669402
-0.2416757 0.5805278 -2.26862 -1.1600858 4.4610066 -4.78016 -2.108707 -1.1355902
1.874377 -4.8332047 -0.98860973 0.1783305 -2.6270912 0.33285195 -1.402907 -0.52078223
-0.08805502 -0.46118224 -0.5375817 -0.016964806 -0.10268169 -0.48588336 0.25248653 0.3671525
-0.22163981 -0.16273056 0.24782443 0.9511501 -0.08656058 -0.35576046 0.20419917 -1.627941
0.550118 -0.06637861 0.18155046 -0.04644468 0.11763102 -0.16043366 0.76673913 -0.009431465
0.14201134 0.016757188 0.4643858 0.2123994 0.044505388 -0.4949452 0.0527018 1.0804331
0.11386351 -0.32600692 0.44631803 0.9056732 0.32821542 0.070539236 0.64699304 0.33262163
-0.60422343 -1.3841089 0.5041611 0.6219647 0.14301978 0.29339522 -0.43452764 -2.0473855
-0.76403624 -0.51594174 -0.03171565 0.48057064 0.56681156 0.4295342 0.33378807 0.5914101
-0.22909528 -0.54143775 0.06350442 0.7854094 0.032469086 -0.84201354 -0.26743898 -0.12659891
-2.809944 -0.73072714 -2.176802 -1.4168013 -0.8513465 -4.5667286 0.052687634 -0.84187126
-3.7164302 -1.1918093 -0.649102 0.9732358 -2.029914 -1.9258422 0.7278018 -0.5388884

bias f4 [8]
00000000: 85f5 8fbf 55cc 42c0 cf4f 11c0 8d59 34c0
00000010: 0fe8 36c0 6931 14c0 eea2 8994 18a7 15c0
-1.1246802 -3.0437214 -2.2704961 -2.8179657 -2.8579137 -2.3155158 -1.389773e-26 -2.3383236

weight f4 [1, 8]
00000000: 820a c3be 74da fcbe 01c8 ed3e 3044 0ebf
00000010: 1040 5f3e ec71 b7bd bd7d 35bd 34fd c0bb
-0.38093954 -0.49385417 0.46441653 -0.55572796 0.21801782 -0.08957276 -0.044309366 -0.005889559

weight f4 [4, 32, 32]
00000000: 444d 8abe ea9b f33e ad3d afbd 1655 8dbd
00000010: 1b76 aebd 4310 e1bd 5013 793c 5510 d3be
00000020: de39 623e 41db eabd 3416 23bd 75ed 74be
00000030: 57b0 cf3e b042 07be 36ff 50be b2df 65be
00000040: 38df ab3e 1ed3 23bd d037 34bf 335b cebd
00000050: c342 d2be 3799 7dbe 857e b4bd 69b3 37be
00000060: 8916 1bbd f9b2 213d 5c9f 353d 2ba4 91be
00000070: d15d afbe c1e9 463e 57dc 7bbc c6a8 08bf
00000080: dee0 11bd 9f98 643c 379a 2b3c 62b7 a43a
00000090: f3e0 98b9 6dcf 003a 6c6a f6ba 44f8 c4bd
000000a0: 301a ab3d adef c83b 8ebc a73a 5bcb 77b7
000000b0: cdda ebb6 26d7 a3ba d948 bdbc 359e 8e37
000000c0: 590f 453a 9587 8dbb 939b b9bc b2b5 153d
000000d0: 2047 90bb e12c a9bc db3d 27bd fea2 f83c
000000e0: 0c49 01bd 44c6 fab9 fda0 8ebb d995 c73d
000000f0: e02f 70bd 1ac2 f1bb 2a25 5bb9 fee2 0d3e
00000100: 6345 4fba 2ea5 af3e 9470 27be ee80 873b
00000110: ed01 7bb7 908a b13d 0f7e 6ebc 3ed6 24bf
00000120: d7a2 653e 1e6b 513d 5086 6d3e 9af2 85ba
00000130: a72b 7c3c bace 10bd e579 81be eec2 c73b
00000140: 7507 313e 3371 1abe 8232 02bf 8b5c 303e
00000150: 4bd4 a3bc 1e61 583e 2585 453e b452 913e
00000160: e563 1dbe 8f5d 813c 1cbe fe3c c869 f1be
00000170: fb75 bdbe 32e3 e83d 7cd5 f33a 5694 e33e
00000180: d5cb 10bd d5b4 eb3e 4359 493f 7bec c23e
00000190: 90fd adbd 3e8d 0c3e bc1a c9be fbbd b33e
000001a0: d9b8 2abe 53d9 913e 5a1d da3e 93cd b3be
000001b0: 79d7 813e d8a8 7e3e 4bcc 44be 7117 e53e
000001c0: 515e ad3e 7cf4 6cbe 6af1 d23f ec0e 953d
000001d0: d8ee 83bd e888 a23d 02e0 9e3d f857 32be
000001e0: 73ae 2f3c 18c3 043e 2e93 b63e 18f2 983e
000001f0: d448 2ebf bed5 8d3e 38ef 423e b426 51bf
00000200: 6b7c 98be 7198 f43e e690 cebe edf1 55bd
00000210: 7045 30bf e38a e8be 01c9 c4bd 34be 4cbf
00000220: 60a8 16bf bc3f 45bf d0e9 14be 3727 a1bd
00000230: 5831 033f 5d2b 41bf caf0 cdbe cdb6 16be
00000240: 58a8 433e b8e8 f3be 5cee 52bf ec93 cebd
00000250: 6aee 2ebf 8a07 a1be afeb 1fbf d78e 15bf
00000260: 8525 4b3c 0075 dabe c4f1 9c3e e1b7 a3bf
00000270: 825f 8cbb f2c0 dc3e 2b34 fabe 668d d83e
00000280: 4a45 31be 69d7 733d 6cb8 083e 5f10 7e3b
00000290: c5ed 0abd cc99 bcbd b38e b1bb 0e77 febd
000002a0: 838d c53d d779 c13a 0ff2 613d fc78 74be
000002b0: ebe6 933e 4b0a 4fbd f182 67be dad3 9cbe
000002c0: 8a85 463c d4db 413b d0e9 94be 58ae 74bd
000002d0: 4ae9 b6bd 620f e7bd a605 e3bd d2d0 72bd
000002e0: 78a5 71be 0167 dd3b 91c0 813c 5e2d e43d
000002f0: a00b 8cbd d834 883d 5d56 96bc d542 0ebe
00000300: 6ec1 43bc 1fa6 4dbc 691a 7138 61c7 02b9
00000310: 63bc f6b3 9075 b2ba 226e a235 f2d3 7bba
00000320: b33a 2c3d 99a0 5235 3940 a934 dc10 21bc
00000330: 5980 163a 784b 27ba 8983 8bb8 b2ac 12bd
00000340: 2724 47bb 14d6 683a 2675 c0bc 4ffe fbb7
00000350: d96f 84b9 4227 b1b4 0986 8bba c9cf 5dba
00000360: 944b a3b5 4ef3 8cb3 1909 953b e0af 57bd
00000370: 812d ebbb 45a9 3d3b 71ec 7fb9 e212 3c3b
00000380: 3253 72bb 6df2 953c 75b4 ab33 f61b 4eaf
00000390: 8539 2210 a7f7 e692 78d3 7432 172a 8035
000003a0: f25c 1dba 3202 6635 8e4e cdb1 cbe4 0024
000003b0: a1f4 6a11 bf89 9836 6c9f 3034 6ad1 7d3a
000003c0: e6d3 9c3a 9714 3698 a9c2 ee3b d1c6 8a2c
000003d0: f017 8196 4936 62ae 0691 41b9 14f2 2632
000003e0: 1dc5 3a11 f40a 64a1 80e1 b73a 72de 363b
000003f0: 6b29 15b8 6281 c48e 6834 bf38 16ac cb37
-0.27012074 0.4757989 -0.085566856 -0.069009945 -0.085186206 -0.1098943 0.015202358 -0.41223398
0.22092387 -0.114676006 -0.039816096 -0.23918708 0.40564224 -0.13209033 -0.20409855 -0.22448614
0.3356874 -0.03999626 -0.70397663 -0.100759886 -0.4106656 -0.24765478 -0.08813194 -0.17939533
-0.037863288 0.039477322 0.04434143 -0.28445563 -0.34251264 0.19425108 -0.015372357 -0.5338253
-0.03561484 0.013952403 0.010473779 0.0012566859 -0.000291593 0.00049137214 -0.0018800027 -0.096176654
0.08354604 0.006132087 0.0012797283 -1.4769695e-05 -7.0290175e-06 -0.0012500032 -0.023106026 1.700139e-05
0.00075172406 -0.004319141 -0.022657191 0.03655023 -0.00440301 -0.020651283 -0.040830474 0.030351158
-0.031563804 -0.00047831435 -0.0043526874 0.09745378 -0.058639407 -0.007377875 -0.00020899312 0.13856122
-0.0007906763 0.3430571 -0.16351539 0.0041352427 -1.4961214e-05 0.08669007 -0.014556422 -0.6438941
0.224254 0.051127546 0.23195767 -0.0010219396 0.015391267 -0.0353534 -0.2528831 0.0060962355
0.17288001 -0.15082245 -0.5085832 0.17222802 -0.01999869 0.21130797 0.19289072 0.2838341
-0.15370138 0.015791683 0.03109651 -0.47151017 -0.37004074 0.11371459 0.0018603052 0.4444911
-0.03535064 0.460364 0.7865183 0.38071045 -0.08495629 0.13725755 -0.3927821 0.3510588
-0.16672076 0.28486118 0.42600518 -0.35117778 0.25359705 0.24869096 -0.19218557 0.44744447
0.3386102 -0.23140138 1.6479924 0.07278237 -0.0644204 0.07936269 0.0775757 -0.1741637
0.010722744 0.12965047 0.35659164 0.29872203 -0.68079877 0.27702135 0.19036567 -0.8169968
-0.29782423 0.47772554 -0.40344924 -0.05223267 -0.68855953 -0.45418462 -0.09608651 -0.79977727
-0.5885067 -0.77050376 -0.14542317 -0.07868808 0.5124717 -0.7545679 -0.4022277 -0.1471817
0.19107187 -0.47638488 -0.8239496 -0.100868076 -0.6833254 -0.31451064 -0.62469 -0.5842108
0.012399082 -0.4266739 0.30653203 -1.279049 -0.0042838464 0.43115956 -0.48867926 0.42295378
-0.17311588 0.059531603 0.13351601 0.0038767082 -0.03391816 -0.09209022 -0.0054186224 -0.12425052
0.09646132 0.0014761043 0.055162486 -0.23874277 0.28887114 -0.050546926 -0.22608544 -0.3063038
0.012116799 0.002958049 -0.29084635 -0.05973658 -0.08931215 -0.11282231 -0.11085062 -0.059281178
-0.23598278 0.006756664 0.015838893 0.111414656 -0.06838155 0.06650704 -0.018351728 -0.13892682
-0.011947973 -0.012551813 5.7483474e-05 -0.0001247204 -1.1489535e-07 -0.0013615359 1.2101993e-06 -0.00096064724
0.042048167 7.8464797e-07 3.152543e-07 -0.00983068 0.0005741171 -0.000638179 -6.652537e-05 -0.035809226
-0.0030386539 0.0008881998 -0.02349336 -3.0039953e-05 -0.00025260335 -3.2997383e-07 -0.0010644804 -0.00084614434
-1.2166443e-06 -6.563515e-08 0.0045482037 -0.05265796 -0.0071770553 0.0028940004 -0.00024406776 0.0028697778
-0.0036975858 0.018304074 7.995633e-08 -1.8745525e-10 3.1993178e-29 -1.4576092e-27 1.4250752e-08 9.548993e-07
-0.00060029246 8.568487e-07 -5.975216e-09 2.794937e-17 1.8534727e-28 4.5459888e-06 1.6449275e-07 0.0009682389
0.0011965006 -2.3533344e-24 0.007286389 3.944269e-12 -2.085618e-25 -5.1434666e-11 -0.0001845994 9.717514e-09
1.4733553e-28 -7.72639e-19 0.0014028996 0.0027903584 -3.556294e-05 -4.844232e-30 9.117351e-05 2.427962e-05

w_comp f4 [88, 4]
00000000: 317e 3a3f 5cc5 643f 153e 353f bd2e 0a3f
00000010: 8caf 023f e49f 9a3e fc56 10be 8ad2 083f
00000020: 0420 6c3e 6ceb 4cbf efbc c03e 98e8 b13e
00000030: 6850 3ebd 2306 393e 24c8 113f 8c7d babe
00000040: 0547 0080 6a8e 0000 bb37 0100 2b5a 0080
00000050: 209e 03bf ca03 1abe 481d 05be 8509 333f
00000060: 1491 163e 5b45 0fbd 06ac 10be 698e afbd
00000070: 36f6 e1be 2209 453f 10b7 8b3e 212a 4cbf
00000080: e576 a52c ed28 f0ac 3218 c1ac 58f5 f2a9
00000090: f012 503e beb7 013f fd21 29bf 195f 123f
000000a0: 9980 ad3e 0a10 b7bd ecd9 ca3d 49c7 683e
000000b0: 5554 a0bf d25e d6bf d8ee 91bf 8e4e cb3d
000000c0: 0e90 be3e dc8c 0dbe 5bdf b0bd 3f37 fc3c
000000d0: c635 023e 4514 053f 8b32 8cbf 0561 0ebf
000000e0: 5383 3fbf e142 5f3e 4450 edbd 9068 e83e
000000f0: 2dd3 a8be cf33 a63f c938 83be 360a ed3e
00000100: cc07 143f 104e 40be e3f0 6bbf 8ddf ae3e
00000110: b8a1 f0be fe04 143e 1108 c33f bf98 0d3e
00000120: 02cb b6be 78ba c8be 0014 98be 5531 9b3e
00000130: 08b1 963e 793e ad3e 2af4 acbf 6b6c e63d
00000140: c159 6bbe 6255 5fbe cf6c 8b3e 980b 313e
00000150: 5fb2 91be c826 46bf 07f5 dd3e 218a 4dbc
00000160: 539d 023d 92bf 90be fa98 a13f 1bdb e53e
00000170: 4563 09bf bc85 423f b9ac 133e 9e41 4a3f
00000180: 22a6 15be 9eee 6fbe d453 583e ac78 873b
00000190: 7f86 b3be f37f 1ebf a0a6 843e 8e87 d3bd
000001a0: 4fb9 85bd 6cec 8cbb fd18 e83e 560e 7e3e
000001b0: bd6d 3d3e 717b 0abd 827e bebc 66fb 18be
000001c0: 21f0 ff3e 3f34 543f 379a 16bf ffa8 1c3f
000001d0: 383a 3bbd f5e7 4abf e6c6 a53e 9537 f6be
000001e0: 617d b1bf ad6b aabf 7ceb 3ebf 8686 3d3e
000001f0: f6c2 0080 a38d 0100 ffc4 0000 0fcf 0080
00000200: c797 553d 9bcc b13d 0288 09be 9d5d eb3e
00000210: 8293 a93e e2c4 1f3f bec9 803d 4911 46be
00000220: e5de 0dbe 8d24 153e acd6 ccbe c95f e0be
00000230: 87cc c6bd 3e3a 8d3f 8a9f 19bf 3c7e fe3d
00000240: 49a6 e93a c57e 27bb c862 b2bd 0cfb 843c
00000250: 9cee de3e 7d0a 9c3f f277 133f 0433 813f
00000260: 9b24 8c3c 6b26 8839 82d4 9d3d 1df2 bb3d
00000270: 7f47 0080 8eac 0580 4a16 0c00 e065 0000
00000280: 91c9 b73b e20f 81bb 00a5 6d3c a77b 24bd
00000290: e328 713e fc9f 4d3f 70d1 07be 029f 333f
000002a0: 9d1b 37bb a064 2ab7 e1fa 8338 2706 6fb9
000002b0: d4cb 91be 3f64 a03e db8d 14bf a9ce 8ebc
000002c0: c4bd d93e dfaf 9f3f e209 91be a85e a63e
000002d0: 68e4 9ebe 824a c2be 1376 043e 6a8c b53e
000002e0: 9650 c9bd 54a4 973c e07a 93bd 4b21 7e3d
000002f0: 742f 3e8e 9e7d 0080 7551 0000 8c5f 0180
00000300: c69c 3480 cc31 2100 14d2 1f00 4b38 7b00
00000310: 279c f53b 6b7d 1739 e8fb 4bbc b032 2abd
00000320: b826 3484 b07d fe01 d62b b484 6775 f403
00000330: 0932 44bd 7d08 973e 1f4f f1bd bb03 08be
00000340: f2ff 103f 0686 703f d30b 84be 3df1 423e
00000350: d4ee 9f3e f0ac 9ebe d3b5 9f3e 237f 9cbe
00000360: b96c 0080 01c9 0000 b81a 0080 5b20 0100
00000370: 1145 7cbe 2681 cb3b 01c8 993f 34d6 6c3e
00000380: af3a 02bd 0ed3 ccbe 0733 a63f cc56 b73d
00000390: 9b30 cebc d6c9 10be 5ae7 2d3e 3a0c d1bd
000003a0: 7570 d2be 7727 983d ca7a f8bd a0b8 a63d
000003b0: 3d33 4f36 751a ec1f dc11 8fb9 9bf6 9ab8
000003c0: 459f b7bd 8cb3 71bb 3a5c 16bd f1c8 d3ba
000003d0: aef4 c0bd 37e6 093d e8c0 093c e09c 0ab7
000003e0: cf03 003e 3f4a 943e 8734 cabe 516c a03e
000003f0: 04cb a693 07ba a492 0e89 1313 0130 e492
0.728488 0.89363647 0.70797855 0.53977567 0.51049113 0.30200112 -0.14095682 0.5344626
0.23059088 -0.80046725 0.37644145 0.34747767 -0.0464634 0.18068747 0.56946015 -0.3642391
-2.5477e-41 5.1089e-41 1.11828e-40 -3.2346e-41 -0.51413155 -0.15040508 -0.12999451 0.699364
0.1470378 -0.034978252 -0.14128122 -0.085720845 -0.44133157 0.7696706 0.27288103 -0.79751784
4.702782e-12 -6.825754e-12 -5.488076e-12 -1.0789519e-13 0.20319724 0.50670993 -0.66067487 0.5717636
0.33887175 -0.08938606 0.099048465 0.22732271 -1.2525736 -1.6747687 -1.1401014 0.099270925
0.3721928 -0.13823265 -0.08636352 0.030788062 0.12715825 0.51984054 -1.0952924 -0.5561679
-0.7480976 0.21802856 -0.11587575 0.45392275 -0.32973614 1.2984561 -0.2562926 0.46296853
0.578244 -0.18779778 -0.9216444 0.3415493 -0.46998382 0.1445503 1.5236837 0.138278
-0.35701758 -0.39204764 -0.2970276 0.30311075 0.2943194 0.33836725 -1.3512013 0.11251148
-0.22983457 -0.21809915 0.27231452 0.17289579 -0.284564 -0.77402925 0.43351004 -0.0125451395
0.031888317 -0.28271157 1.262481 0.44893727 -0.536671 0.7598531 0.14421357 0.79006374
-0.14614156 -0.23430869 0.21125728 0.0041342583 -0.3506355 -0.61913985 0.25908375 -0.103285894
-0.065294854 -0.0043006446 0.45331565 0.24810156 0.18498893 -0.03380913 -0.023253683 -0.14939651
0.4998789 0.8289222 -0.58829063 0.6119537 -0.04570982 -0.7926019 0.3237831 -0.4808928
-1.3866388 -1.331411 -0.7457807 0.18508348 -6.9939e-41 1.42645e-40 7.0669e-41 -7.4279e-41
0.0521467 0.086816035 -0.13430789 0.4596986 0.33120352 0.62409794 0.06288479 -0.19342531
-0.13854559 0.14564724 -0.40007532 -0.43823078 -0.09706979 1.1033399 -0.6000906 0.12426421
0.0017826046 -0.0025557738 -0.08710247 0.01623299 0.4354142 1.2190701 0.576049 1.0093694
0.017107299 0.00025968565 0.07706548 0.09177039 -2.5648e-41 -5.21078e-40 1.110022e-39 3.6546e-41
0.0056087454 -0.003938661 0.014504671 -0.040156987 0.23550753 0.8032224 -0.13263488 0.701645
-0.0027940043 -1.0156218e-05 6.2932966e-05 -0.00022795108 -0.2847582 0.31326482 -0.58028954 -0.017432528
0.42527592 1.2475547 -0.28327852 0.32494092 -0.31033635 -0.3794747 0.12935667 0.3545869
-0.09829824 0.018510975 -0.07201171 0.06204347 -2.3442156e-30 -4.5063e-41 2.9221e-41 -1.26111e-40
-4.831686e-39 3.048435e-39 2.922262e-39 1.131596e-38 0.0074954215 0.00014447204 -0.012450196 -0.041552246
-2.1176677e-36 9.3485217e-38 -4.2358054e-36 1.4367985e-36 -0.04789928 0.29498664 -0.11782669 -0.13282673
0.5664054 0.93954504 -0.2579027 0.19037338 0.312369 -0.30991316 0.31193408 -0.30565748
-3.9002e-41 7.2107e-41 -9.585e-42 1.03442e-40 -0.24635722 0.006210464 1.2014161 0.23128587
-0.031794246 -0.40004772 1.2984322 0.08952102 -0.025169661 -0.14139494 0.16982785 -0.1020741
-0.41101423 0.07429402 -0.12132795 0.08140683 3.0875228e-06 9.999366e-20 -0.00027288392 -7.389226e-05
-0.08965925 -0.00368807 -0.036709048 -0.0016157908 -0.09421669 0.033666816 0.008407809 -8.261966e-06
0.12501453 0.28962895 -0.394932 0.3133264 -4.210448e-27 -1.0395714e-27 1.8621582e-27 -1.4400657e-27

self_loop_weight f4 [32, 32]
00000000: 3824 79be 4c6b 0abb 07ea d4be 1776 18bf
00000010: 2d2e 60be ec43 29be bca2 c3be 0d74 333f
00000020: 450e 83bf b351 a43d aedb 20bf f5f0 06bf
00000030: 88d3 62be 8c8e e0be 59e4 7dbf 5160 87bf
00000040: d91e 6bbe 5a70 793e 2398 1d3f b68d 6bbf
00000050: cf9f 133f 0236 b3be 4c1e ab3e 50cf 52be
00000060: 12e8 55be 47bf ba3e 2e0d debe 51f6 8e3f
00000070: d6ab 3d3f 3573 d0be bbaa 91be 1d50 81bf
00000080: 9b62 76be 43d9 9bbe 439a afbd 7df7 72be
00000090: b859 8ebe 6293 efbc 3687 a3bd 92ff 053f
000000a0: e693 5fc0 dce2 adbd 079b 593f 2ce8 5e3e
000000b0: 7b8f ffbd 6d44 97be 1e95 dfbe 8b66 29c0
000000c0: 001e d1be 5c6f 133d 6e03 853f 8a2c 11bf
000000d0: 8834 a9be 2239 6fbe f788 aabe 2313 363a
000000e0: a52c 2b3d 7904 823e 2dfb 183e 1389 d53e
000000f0: 1f1b 0240 4e92 f8bd d690 d5bc 8495 43bf
00000100: a67c 19be adce 1bbe fcb6 f9be 8d23 0bbe
00000110: f368 463d 4245 e3be 8927 b2be 1a09 053f
00000120: d11c 723e 28d1 20bf 155f 0b3d 2e10 b6bc
00000130: 9c0b c9bd ac14 dabe affa 84bf fb79 833f
00000140: f50e 6abf 6ff4 40be 277e dc3e 474f edbe
00000150: c311 93bd 22f9 fdbe 4a30 eebe c1bc a8be
00000160: 07f3 0abd 02fb 813c 266d 47be 0d86 2e3f
00000170: c2a7 b2be 16e2 98be 10f5 473d c43f 8abe
00000180: c417 aebf 930b dcbd 835b 02be b05c 2cbf
00000190: 7827 5fbe 34ee cabe a03f c5be 5955 15bf
000001a0: fd59 c4bf d3fb 21bd 2f30 30bf 583d 9f3d
000001b0: de77 bcbf d374 61bf dff3 f83e 4685 7bbe
000001c0: da61 5abe 189a 81bf d65d 513f cb59 8cbf
000001d0: 7441 6ebf 1797 8cbf cc29 6cbe 9966 bcbe
000001e0: 6e4f 39bf 7017 01bf 3ff5 073e aefe 923f
000001f0: d8ec 06bf 2f61 95be eaa4 63bf f642 3fbf
00000200: 97ec b1bf a80e babd 0268 03bf 97c9 0ebf
00000210: 3acc 9bbb 4919 17be 0aae 063e dee2 c63e
00000220: 12ea 90bf e866 51bf e269 31bf a5ab eb3e
00000230: 841e 9dbe c0c9 1dbe 637e f5bf 2a9b abbf
00000240: 89d6 d13d e9fe dbbe 867c 063f a643 31bf
00000250: 2e3a 713e 7ff6 66bd bcc7 2bbf 011d f1bd
00000260: 2db2 c0be bb7c 0fbf c78b b6be 873d 253f
00000270: 17cd 2cbe 1827 10be 0398 47be 93a1 83bf
00000280: 7a75 2dbf 443e 03bf 65cf 95bf e3f3 5ebf
00000290: f4e8 423d 97ed 48bf 66bb 7fbe 0f12 5abf
000002a0: 37df 9c3e d27b e3be 9af0 49bf 4a98 80bf
000002b0: 27e3 92be 4d98 0fbf 84d5 61bf ef5f acbf
000002c0: f4e3 07bd c2fa 77bf 2c2d f3bf 7587 0f3f
000002d0: 9b93 11bf 9ed4 3bbf 422f 68be 518e 99be
000002e0: dc5a 1dbf f370 ebbb 2e84 04bf 7751 b1bf
000002f0: d96d 1ebf f9fc 0bbe 629a 8abe 593b d3bc
00000300: dee7 2abe 5fc6 47bc d232 3a3e 1030 39be
00000310: 4c17 3cbe 279e a5bd f8bd 36bd acdb e4be
00000320: bbb4 27bf c7cf d63d 4840 043f a975 30bd
00000330: a5a7 4ebe 85e5 1cbd ad44 06bf 971d 23bf
00000340: 6820 86bd b928 bc3e 8071 aabf 53a1 1cbf
00000350: 6320 b53d e2ff 233e 76a4 c33c 02cd 7f3b
00000360: 3ccd a93e fba0 513f fa08 b4be d51c 86bf
00000370: 398e 073f 0f2e 73bd 981c c7bc 26e7 233d
00000380: 1a8c aebe e402 903d b97b 22be bd80 40be
00000390: 17b6 cbbd b0a2 163e 4df3 a63c 6345 b3be
000003a0: ecff 473f 281b bebc 7aa7 1dbf c056 f43d
000003b0: d07a 2fbe a14b c1be 377e 89bf 3bf1 223e
000003c0: 347b 673e d4f6 16bd a1a8 94bf b32a 8e3e
000003d0: ac85 d9be ac93 ccbd 1f7c 92be 9ac2 bdbd
000003e0: e9f8 32bc 4100 0e3f 9711 4e3e 3e23 83bf
000003f0: 8515 62bf a30c 4f3e 0cbc edbd 7e21 e3be
-0.24330223 -0.0021121083 -0.415848 -0.5955519 -0.21892615 -0.16529816 -0.38210094 0.70098954
-1.023873 0.080233954 -0.62835205 -0.5271142 -0.22151005 -0.43858755 -0.99176556 -1.0576268
-0.22960986 0.24359265 0.6156027 -0.9201311 0.57665724 -0.35002142 0.33421552 -0.20586896
-0.20889309 0.36474058 -0.4336943 1.116892 0.74090326 -0.40712896 -0.2845057 -1.0102574
-0.24061053 -0.30439195 -0.08574345 -0.23727222 -0.27802825 -0.029245082 -0.07984774 0.52343094
-3.493402 -0.084905356 0.8500218 0.21768254 -0.124785386 -0.29544392 -0.43668455 -2.6468837
-0.408432 0.035994872 1.0391672 -0.56708586 -0.3304789 -0.23361638 -0.3330762 0.00069456006
0.041790623 0.25394037 0.14939566 0.41706142 2.0329053 -0.121372804 -0.02607004 -0.7640002
-0.14988956 -0.1521556 -0.48772418 -0.1358778 0.04843993 -0.44388777 -0.34795788 0.5196701
0.23643805 -0.6281915 0.034026224 -0.022224512 -0.098166674 -0.42593896 -1.0389003 1.02716
-0.9142907 -0.18843244 0.43064997 -0.46349546 -0.07181122 -0.49604136 -0.46521217 -0.32956508
-0.033923175 0.01586676 -0.1947523 0.68173295 -0.34893614 -0.2985999 0.048817694 -0.27001774
-1.3601003 -0.10744395 -0.12730221 -0.6732893 -0.217924 -0.3963486 -0.38525105 -0.58333355
-1.5339962 -0.0395468 -0.6882352 0.07775372 -1.472408 -0.88068885 0.4862356 -0.24562559
-0.2132639 -1.0125151 0.8178381 -1.0964903 -0.93068624 -1.0983609 -0.23062819 -0.36797026
-0.72386825 -0.5042639 0.13277148 1.1483972 -0.52705145 -0.29175708 -0.88923514 -0.7471155
-1.3900326 -0.09084827 -0.5133058 -0.5577635 -0.0047545703 -0.1475574 0.13152328 0.3884496
-1.1321433 -0.8179765 -0.6930219 0.46029392 -0.30687344 -0.15408993 -1.9179195 -1.3406727
0.102459975 -0.4296792 0.5253376 -0.6924385 0.2355735 -0.05638742 -0.67101645 -0.1177311
-0.37635937 -0.560497 -0.35653517 0.6454701 -0.1687511 -0.14077413 -0.19491582 -1.0283684
-0.6775738 -0.51266885 -1.1703917 -0.8709089 0.047585443 -0.78487533 -0.2497383 -0.85183805
0.3063905 -0.44430405 -0.78882754 -1.0046475 -0.28688928 -0.5609177 -0.88216424 -1.3466777
-0.033176377 -0.96867 -1.899816 0.56066066 -0.56865853 -0.73371303 -0.22674277 -0.2999139
-0.61466765 -0.0071850955 -0.5176419 -1.3852986 -0.61886364 -0.1367072 -0.2707091 -0.025785135
-0.16690013 -0.012193291 0.18183449 -0.1808474 -0.18368262 -0.08086806 -0.044614762 -0.44698846
-0.6551015 0.10488849 0.51660585 -0.04308096 -0.20181139 -0.038304824 -0.5244854 -0.63717026
-0.0654915 0.3674982 -1.3315887 -0.6118366 0.08844068 0.1601558 0.023882132 0.0039032106
0.33164394 0.8188626 -0.351631 -1.0477549 0.5295139 -0.059370097 -0.024305627 0.040015362
-0.34091264 0.07031801 -0.15867509 -0.1879911 -0.0994684 0.14710498 0.020379687 -0.35013875
0.7812488 -0.023206308 -0.61583674 0.11930609 -0.17136693 -0.37753013 -1.0741643 0.15912335
0.22605592 -0.036856487 -1.1613961 0.27766952 -0.42484796 -0.09989104 -0.28610322 -0.09265633
-0.010923603 0.5546914 0.20123897 -1.024513 -0.88314086 0.20219664 -0.11608133 -0.4436149
