experiments/grail_wn_v4_ind/best_graph_classifier.pth (torch, 102060 bytes, 21 tensors)

weight f4 [9, 32]
0	0xbe838f10	-0.25695086
1	0xbe99c4f5	-0.3003308
2	0xbe5a59f2	-0.21323374
3	0x3e83caff	0.2574081
4	0xbda4d6d0	-0.08048785
5	0xbe8829a7	-0.26594278
6	0xbe9b9071	-0.30383638
7	0x3e865c39	0.26242235
8	0xbe437de5	-0.19090994
9	0xbe909fdc	-0.28246963
10	0xbe8f38a1	-0.27972892
11	0x3e531247	0.20612441
12	0xbe6ac901	-0.2292824
13	0x3e489ab6	0.19590268
14	0xbe2a107b	-0.1660785
15	0xbe86fb7f	-0.2636375
16	0x3db98eb8	0.090604246
17	0x3ef4848e	0.4775738
18	0x3e84d5bb	0.25944313
19	0x3e210296	0.15723643
20	0x3e247c5b	0.16063063
21	0x3e7f7512	0.24947003
22	0x3e1cbf3d	0.15307327
23	0xbde41940	-0.111376286
24	0xbdf92c8b	-0.12166699
25	0x3e82afd1	0.25524762
26	0xbe2e9561	-0.17049171
27	0x3e8e7529	0.2782376
28	0xbf00866d	-0.5020512
29	0xbcb4e614	-0.022082366
30	0x3de29ed7	0.110654525
31	0xbe2f2504	-0.17103964
32	0xbe0d9d30	-0.13829494
33	0xbde476be	-0.11155461
34	0xbedd248f	-0.43191954
35	0x3dd51800	0.10404968
36	0xbe21952f	-0.15779565
37	0xbe30ef88	-0.17278874
38	0xbed431b8	-0.41444182
39	0x3e3c226b	0.18372504
40	0xbe36cbc6	-0.17851171
41	0xbe3b800a	-0.18310562
42	0xbe23c244	-0.15992075
43	0x3e1ed0dd	0.15509363
44	0xbe31c941	-0.17361929
45	0x3e48663d	0.19570251
46	0xbe41f0b8	-0.18939483
47	0xbe313c6b	-0.17308204
48	0x3e2be143	0.1678515
49	0x3e9bc55f	0.3042402
50	0x3e089b5a	0.13340512
51	0x3e235f04	0.15954214
52	0x3e3f9fe8	0.18713343
53	0x3e0b8c65	0.13627775
54	0x3e1a8dd3	0.15093164
55	0xbe4cdba0	-0.20005655
56	0xbeaacb26	-0.33358115
57	0x3e09a3b2	0.13441351
58	0xbf071646	-0.5276836
59	0x3eeb30d1	0.4593568
60	0xbecc2969	-0.39875343
61	0xbe17716d	-0.14789362
62	0x3e1fee44	0.15618235
63	0xbe1ba14d	-0.1519825
64	0x3c370117	0.011169693
65	0xbd4e8a1b	-0.050424676
66	0x3de31141	0.11087275
67	0x3d37e99c	0.04490052
68	0x3d2af78f	0.041739997
69	0xbb0f115b	-0.0021830413
70	0x3d9ca100	0.07647896
71	0x3b8181e2	0.003952251
72	0x3b8b0281	0.004242242
73	0xbbb5515f	-0.005533382
74	0xbc211997	-0.009832761
75	0xbce82a4f	-0.028340487
76	0x3ad4111d	0.0016179417
77	0xbc84f8df	-0.016231952
78	0x3c92c092	0.01791409
79	0xbb0960d7	-0.0020962262
80	0xbd0c4748	-0.034247667
81	0x3dc63647	0.09678321
82	0xbc84a10c	-0.016190074
83	0xbd116950	-0.035500824
84	0xbc906b97	-0.017629428
85	0xbc951523	-0.018198555
86	0xbcffe330	-0.031236261
87	0xbcccb451	-0.024988325
88	0x3d097b58	0.033564895
89	0xbc4cb2f3	-0.012493837
90	0x3de1504f	0.11001646
91	0xbd9b261f	-0.075756304
92	0x3e318b8f	0.17338394
93	0x3d6ce017	0.057830896
94	0xbd2d955f	-0.04237878
95	0x3cf6519a	0.030068208
96	0xbe867350	-0.2625985
97	0xbe95666b	-0.291797
98	0xbecb2b35	-0.39681402
99	0x3e86ef65	0.2635452
100	0xbe50734c	-0.20356482
101	0xbe8fe7a2	-0.2810641
102	0xbec3be69	-0.3823121
103	0x3e8f8eb3	0.28038558
104	0xbe7cb026	-0.2467657
105	0xbe9373ed	-0.28799382
106	0xbe92cd49	-0.28672245
107	0x3e74867a	0.23879424
108	0xbe85cef7	-0.26134464
109	0x3e856245	0.26051536
110	0xbe7dfd12	-0.2480357
111	0xbe8ef322	-0.2791987
112	0x3e5c2261	0.2149749
113	0x3eca5213	0.39515743
114	0x3e84941b	0.25894246
115	0x3e6a0ab3	0.22855644
116	0x3e7b2530	0.24525905
117	0x3e8095c0	0.2511425
118	0x3e5a429c	0.21314472
119	0xbe841782	-0.25799185
120	0xbea3f59f	-0.32023332
121	0x3e859d21	0.26096442
122	0xbed5ac87	-0.4173319
123	0x3ecb967f	0.39763257
124	0xbedb26e8	-0.4280312
125	0xbe3900e0	-0.1806674
126	0x3e5aa9c4	0.21353823
127	0xbe616035	-0.22009356
128	0x3e297e3b	0.1655206
129	0x3e4cb41f	0.19990586
130	0x3e8fd130	0.28089285
131	0xbe339c44	-0.1754008
132	0x3da44e2a	0.08022721
133	0x3e4e631c	0.20154995
134	0x3e541c1f	0.20713852
135	0xbe5eeccb	-0.21770017
136	0x3e20a17b	0.156866
137	0x3e721524	0.23640877
138	0x3e4a7714	0.19771987
139	0xbe080166	-0.13281783
140	0x3e2e4582	0.17018703
141	0xbe53ccb4	-0.20683557
142	0x3e4428a4	0.19156128
143	0x3e4b4193	0.19849233
144	0xbdc4c559	-0.096079536
145	0xbe833c57	-0.25631973
146	0xbe207dbc	-0.15672964
147	0xbdeb3842	-0.1148534
148	0xbe3e1c85	-0.18565567
149	0xbe1a8c29	-0.1509253
150	0xbdce38e9	-0.100694485
151	0x3e24b308	0.1608392
152	0x3e748de8	0.23882258
153	0xbe28411c	-0.16431087
154	0x3e888303	0.26662454
155	0xbe6bef9e	-0.23040625
156	0x3e5a85e9	0.21340145
157	0x3cd23d97	0.025664134
158	0xbdaff2e3	-0.08591249
159	0x3de0babe	0.10973118
160	0xbe2d6188	-0.16931736
161	0xbe5ce561	-0.21571876
162	0xbe77ac20	-0.24186754
163	0x3e62cf0e	0.22149298
164	0xbdcee0eb	-0.101014934
165	0xbe2761aa	-0.1634585
166	0xbe7425d1	-0.23842551
167	0x3e13540d	0.14387532
168	0xbe2d4fcf	-0.16924976
169	0xbe04612d	-0.12927695
170	0xbe38e15b	-0.18054716
171	0x3dfa498f	0.122210614
172	0xbe33d54c	-0.17561835
173	0x3df35278	0.11880964
174	0xbdf7727a	-0.120823815
175	0xbe270633	-0.16310959
176	0x3e11db70	0.14243865
177	0x3a21ea9a	0.0006176621
178	0x3e1f7a54	0.15574008
179	0x3de8cb92	0.11366953
180	0x3e01559d	0.12630315
181	0x3e1e346c	0.15449685
182	0x3e01aad8	0.12662828
183	0xbe0ee181	-0.1395321
184	0xbe01d9da	-0.1268076
185	0x3e2ec545	0.1706744
186	0xbe3e1bb9	-0.18565263
187	0x3e88aa11	0.2669225
188	0xbde09da1	-0.10967565
189	0xbd7c0ee9	-0.061537657
190	0x3dcbf2ce	0.09958421
191	0xbe005022	-0.12530568
192	0xbe2ea63a	-0.17055598
193	0xbe453502	-0.19258502
194	0xbe8923b0	-0.2678504
195	0x3e14912b	0.14508502
196	0xbdf67770	-0.120345
197	0xbe461385	-0.19343384
198	0xbe80fe1c	-0.2519387
199	0x3e44c8b7	0.19217192
200	0xbe202d3b	-0.15642254
201	0xbe44c6ea	-0.19216505
202	0xbe482d0d	-0.19548436
203	0x3e23ff06	0.16015252
204	0xbe2c0da9	-0.16802086
205	0x3e2bda1f	0.16782425
206	0xbe1c64a8	-0.15272772
207	0xbe4415ba	-0.19148913
208	0x3e0177d9	0.12643375
209	0x3e95a473	0.29227027
210	0x3e344ecd	0.17608185
211	0x3e1b3762	0.15157846
212	0x3e1a0ac8	0.15043175
213	0x3e26b70f	0.16280769
214	0x3e0138b6	0.1261929
215	0xbe22d151	-0.1590016
216	0xbe54702f	-0.2074592
217	0x3e29a184	0.1656552
218	0xbe900458	-0.28128314
219	0x3e890516	0.26761693
220	0xbea60730	-0.3242736
221	0xbdb4ea52	-0.088337556
222	0x3e071102	0.13190082
223	0xbe0944ab	-0.13405101
224	0xb08bf839	-1.018413e-09
225	0xb09ec556	-1.1552099e-09
226	0xb0e90cde	-1.6956638e-09
227	0x30142bf2	5.3904536e-10
228	0x2f6b2135	2.1384923e-10
229	0xaf885e2e	-2.4805175e-10
230	0xafbb93dc	-3.4120162e-10
231	0xaeaa7812	-7.752034e-11
232	0x2ffe5fd7	4.627043e-10
233	0xb057d757	-7.852256e-10
234	0x2f61e43b	2.0544715e-10
235	0x302961d1	6.162085e-10
236	0xaee12604	-1.0238568e-10
237	0x2f72a35a	2.2067806e-10
238	0x2f167f6a	1.3687687e-10
239	0x300738b6	4.9193305e-10
240	0x300a01c8	5.020664e-10
241	0xafb9318a	-3.3686504e-10
242	0x301edd45	5.779451e-10
243	0x2f0d6aec	1.2861862e-10
244	0x2dcaa246	2.3036805e-11
245	0x2fd35e35	3.8447615e-10
246	0x2f576703	1.9590733e-10
247	0x2f25159a	1.5014337e-10
248	0xb053e1a5	-7.7082013e-10
249	0x2f4038fa	1.748254e-10
250	0xb0a8e666	-1.2289092e-09
251	0xa0ac82a7	-2.9224392e-19
252	0xb1025661	-1.896659e-09
253	0xaffd8f10	-4.6122084e-10
254	0xae5483da	-4.8320327e-11
255	0xae99f632	-7.0013675e-11

weight f4 [4, 8, 32]
0	0xb16a4363	-3.4089787e-09
1	0x9ca4c44c	-1.0903351e-21
2	0xbe4aa7d8	-0.1979059
3	0x000991b5	8.7879e-40
4	0x2ddd8356	2.5183116e-11
5	0xbb486c53	-0.0030582144
6	0x3d7e80a4	0.0621344
7	0x00002390	1.2757e-41
8	0xbccda291	-0.025101932
9	0xbe983bf3	-0.29733238
10	0x3ec9566e	0.39323753
11	0x3c830e82	0.015998129
12	0xbd438102	-0.047730453
13	0x3c9a8f5b	0.018867185
14	0xb1266f1d	-2.421934e-09
15	0x2e5c38a6	5.0072523e-11
16	0x3cea69d4	0.028614916
17	0xb8493c34	-4.7978203e-05
18	0xb051fec1	-7.6395784e-10
19	0x2c16f69c	2.1453178e-12
20	0x80053394	-4.7768e-40
21	0x3d27d7c0	0.04097724
22	0x80000ecf	-5.312e-42
23	0x3e8c2390	0.27370882
24	0xbc5aff83	-0.013366583
25	0x3dc16f52	0.09445061
26	0xbd1d05d1	-0.038335625
27	0xa24be95c	-2.763517e-18
28	0x2e16e3bb	3.4308317e-11
29	0x3f28a0e2	0.6587049
30	0x30e63791	1.6750495e-09
31	0x0000cefa	7.4249e-41
32	0x1afe6c4e	1.05226913e-22
33	0xb3d3bcc5	-9.85979e-08
34	0x3e8db2d4	0.27675498
35	0xb3f79516	-1.15289524e-07
36	0xb526ba49	-6.21109e-07
37	0xbcf981d2	-0.030457411
38	0xbd0ba212	-0.03409011
39	0x33b02ca4	8.203759e-08
40	0x9aca137d	-8.357673e-23
41	0x3db8d841	0.09025622
42	0x3de9a571	0.114085086
43	0xbbbb90fd	-0.005724071
44	0xba1fabba	-0.0006090958
45	0x3bd8ba4f	0.0066140066
46	0x8000d629	-7.6826e-41
47	0xb8c62d47	-9.449809e-05
48	0x37e5c370	2.7389935e-05
49	0xa3ea2391	-2.5385394e-17
50	0x1b2dbb0a	1.437066e-22
51	0x2d568940	1.2194967e-11
52	0x0000e28b	8.1268e-41
53	0x3d520f7d	0.051284302
54	0x8001a443	-1.50761e-40
55	0x3ed6495a	0.41852838
56	0x359404b3	1.1028227e-06
57	0x0008e5bd	8.17099e-40
58	0x3d0288ac	0.03186862
59	0xba8615cb	-0.0010229883
60	0xb7a3bd6b	-1.9519319e-05
61	0x3ddf4e30	0.10903585
62	0x8000637e	-3.5691e-41
63	0x00004687	2.53e-41
64	0x8000c999	-7.232e-41
65	0x000085af	4.7957e-41
66	0xbe01d937	-0.12680517
67	0xabc93ca4	-1.429874e-12
68	0x0000bd7c	6.7974e-41
69	0xb6890c85	-4.0843756e-06
70	0xbd3d7c45	-0.04626109
71	0xaec0c159	-8.7654946e-11
72	0x0aa94087	1.629838e-32
73	0xba18f063	-0.000583416
74	0xbd74da40	-0.059778452
75	0xb9a86660	-0.00032119732
76	0xa9fb3291	-1.1155411e-13
77	0xb1e5246a	-6.668917e-09
78	0x0000bbc2	6.7355e-41
79	0x000036f6	1.9716e-41
80	0x00059b15	5.1481e-40
81	0x1c5c2b32	7.2847723e-22
82	0xa4e9e494	-1.0143487e-16
83	0x80007f5e	-4.5691e-41
84	0x80007bbd	-4.4389e-41
85	0x34abc9d7	3.199809e-07
86	0x00016021	1.2632e-40
87	0xbd8cbe9d	-0.06872294
88	0xab717608	-8.57842e-13
89	0x80011efd	-1.02952e-40
90	0xbd18bd89	-0.03729013
91	0x28a08500	1.7821248e-14
92	0x8000d8ca	-7.7769e-41
93	0xa782065f	-3.6089156e-15
94	0x02f4bc8a	3.5960794e-37
95	0x80001310	-6.838e-42
96	0x00008cc0	5.0492e-41
97	0x00016872	1.29303e-40
98	0x2e0b6b51	3.1700257e-11
99	0x800101d7	-9.2496e-41
100	0x800049b9	-2.6447e-41
101	0xa1ceba90	-1.4008486e-18
102	0x36d745de	6.415633e-06
103	0x00006821	3.7354e-41
104	0x00003807	2.0099e-41
105	0x14428019	9.81976e-27
106	0xbc2e5c5e	-0.010642139
107	0x32ecde53	2.7575117e-08
108	0x0809adda	4.14313e-34
109	0x8000bf42	-6.861e-41
110	0x000004d1	1.728e-42
111	0x00002703	1.3995e-41
112	0x80011c44	-1.01975e-40
113	0x00006616	3.6622e-41
114	0x000042ec	2.4007e-41
115	0x8000d5f9	-7.6759e-41
116	0x0000bbe6	6.7405e-41
117	0xb4001fea	-1.1932539e-07
118	0x800155c7	-1.22607e-40
119	0xba00ba47	-0.000491057
120	0x80013eb4	-1.14329e-40
121	0x8000304e	-1.7328e-41
122	0x9915edf1	-7.751171e-24
123	0xa20862ec	-1.8483806e-18
124	0x0000e35b	8.156e-41
125	0x0000a51f	5.9234e-41
126	0x333efad4	4.446595e-08
127	0x2e0d99d8	3.219633e-11
128	0x0001a984	1.52646e-40
129	0x0000024d	8.25e-43
130	0xbd40f983	-0.047112953
131	0x218d95c5	9.594175e-19
132	0x001019b2	1.478586e-39
133	0xbab6e02a	-0.0013952304
134	0xbd625f8b	-0.055266898
135	0x0a7e4ec9	1.2244473e-32
136	0x0000b0ac	6.3378e-41
137	0xbd36959b	-0.04457627
138	0x3d7898eb	0.06069271
139	0xba9b1455	-0.0011831621
140	0xb980dabc	-0.00024577032
141	0x1a47f2f6	4.1348498e-23
142	0x000192f0	1.44547e-40
143	0x8000fb19	-9.0077e-41
144	0xae990201	-6.9579904e-11
145	0x8b0ddfdb	-2.7324022e-32
146	0x80001f5d	-1.1251e-41
147	0x800033ae	-1.8539e-41
148	0x00015992	1.23967e-40
149	0xbb9dcf17	-0.004815947
150	0x800003af	-1.321e-42
151	0x3d217827	0.039421227
152	0x8001a412	-1.50693e-40
153	0x8000c212	-6.962e-41
154	0xbd17abaa	-0.037028946
155	0xba751589	-0.0009349217
156	0xb70168c6	-7.713394e-06
157	0x2d060d5d	7.619985e-12
158	0x0000cd4f	7.3651e-41
159	0x80003324	-1.8346e-41
160	0xb38fc0e4	-6.694043e-08
161	0xb4a218eb	-3.0192982e-07
162	0xbc8322c0	-0.016007781
163	0x25c0cde3	3.3446205e-16
164	0xb34dad65	-4.7887983e-08
165	0xbba4e996	-0.0050327284
166	0xbd7a831f	-0.061160203
167	0xa65bc38d	-7.624591e-16
168	0xbc8dc8ee	-0.017307725
169	0xbe037443	-0.12837319
170	0xbdf574d5	-0.119851746
171	0x3c439371	0.011937008
172	0xbd3b7a94	-0.045771196
173	0x3c39a91f	0.0113318255
174	0xb078ec32	-9.055753e-10
175	0xb162c25b	-3.2997807e-09
176	0x3cb773cc	0.022394083
177	0xb84c0857	-4.8645157e-05
178	0xb3892cf1	-6.3877344e-08
179	0x2c08abf9	1.9422226e-12
180	0x000c80e8	1.148269e-39
181	0x3d2810e7	0.041031744
182	0x0000568b	3.1046e-41
183	0xbc9b79f4	-0.01897905
184	0xbc3ab3d8	-0.011395417
185	0x3dd6b8d6	0.104844734
186	0x3d956993	0.07295527
187	0xaba8cc75	-1.1993866e-12
188	0x30d0f19d	1.5202662e-09
189	0x3f2527fb	0.6451413
190	0x30de79eb	1.6187277e-09
191	0x80004b47	-2.7004e-41
192	0x14a39493	1.6517396e-26
193	0x24c16eea	8.3888303e-17
194	0x3e77ca19	0.24198188
195	0xa7ff5d0b	-7.0877595e-15
196	0x8000a0b6	-5.7652e-41
197	0xbb84aa65	-0.004048633
198	0xbc12c573	-0.008958208
199	0x8000197b	-9.14e-42
200	0x0680cff9	4.8453837e-35
201	0x3e4dc0e1	0.20093109
202	0x3e9ddda1	0.30833152
203	0xac06c2e7	-1.9150738e-12
204	0x122c2249	5.431589e-28
205	0x3bbde5d8	0.005795222
206	0x0000d004	7.4622e-41
207	0x2de50eee	2.6040916e-11
208	0x354732d1	7.4207225e-07
209	0x000075aa	4.221e-41
210	0x00011587	9.9558e-41
211	0xa7640803	-3.16457e-15
212	0x8000395c	-2.0577e-41
213	0x3d778e8d	0.06043868
214	0x8000a6cb	-5.9834e-41
215	0x3e9e86a8	0.3096211
216	0xac31cdf7	-2.5267546e-12
217	0x8000a7c9	-6.019e-41
218	0x3ddcd9c7	0.10783725
219	0x215d62de	7.500856e-19
220	0x80005326	-2.9828e-41
221	0x3e0ae8b8	0.13565338
222	0x80014766	-1.17448e-40
223	0xaf9c5a13	-2.8440236e-10
224	0x9adff722	-9.26299e-23
225	0x1c3f6336	6.3324826e-22
226	0xbe61ee44	-0.22063547
227	0xb35d460c	-5.151928e-08
228	0x80002050	-1.1592e-41
229	0xbaeccec8	-0.0018066997
230	0x3d53be0c	0.051694915
231	0x33abb627	7.995941e-08
232	0x8000cd0f	-7.3561e-41
233	0xbe1ecca0	-0.15507746
234	0xbd0fc9a1	-0.035104398
235	0x80001921	-9.015e-42
236	0xb4ef638e	-4.4589655e-07
237	0xbab03ebe	-0.0013446433
238	0x00006748	3.705e-41
239	0xb25474fa	-1.23666215e-08
240	0xb2aff1fa	-2.048272e-08
241	0x08a8ab12	1.0151351e-33
242	0x0000ab60	6.1478e-41
243	0x0005751c	5.01188e-40
244	0x0000db56	7.8683e-41
245	0xb7056d8d	-7.9529245e-06
246	0xaa349674	-1.603941e-13
247	0xbce2a659	-0.027667211
248	0x31270915	2.430686e-09
249	0x800001a5	-5.9e-43
250	0xbe3c129d	-0.18366475
251	0x1b5e84b0	1.8406283e-22
252	0x0001787c	1.35057e-40
253	0xba8f9570	-0.001095457
254	0x8001470f	-1.17327e-40
255	0x00005acf	3.2576e-41

w_comp f4 [9, 4]
0	0x3ce74bfa	0.02823447
1	0xbf0b3260	-0.5437374
2	0xbe54c766	-0.2077919
3	0x3fed39e6	1.8533294
4	0x3e8a20e2	0.26978213
5	0xbef44a74	-0.47713053
6	0xbf09bcbc	-0.5380361
7	0xbec15247	-0.37758085
8	0x3fa52094	1.2900567
9	0xbf1fbda7	-0.6239876
10	0xbe201190	-0.156317
11	0x3e94e6be	0.29082292
12	0x3eaaa5eb	0.3332971
13	0x3ebc2e5e	0.36754125
14	0x3e944335	0.28957525
15	0xbe826755	-0.2546946
16	0x3f2b0448	0.6680341
17	0xbf42f30f	-0.7615213
18	0xbe308b16	-0.17240557
19	0xbf5aef0f	-0.85521024
20	0xbdd52626	-0.10407667
21	0x3ea2775c	0.3173169
22	0x3f1e554f	0.6184892
23	0x3e1b860f	0.15187858
24	0x3dddb5c0	0.10825682
25	0x3f1eb0b6	0.6198839
26	0x3eaca328	0.33718228
27	0xbed9744a	-0.42471534
28	0x3df818bc	0.12114093
29	0xbe3040c7	-0.1721221
30	0xbdddc75a	-0.10829039
31	0x3e230761	0.15920784
32	0x3e456636	0.19277272
33	0x3e8838d5	0.2660586
34	0x3ec2accb	0.38022456
35	0xbe78b42a	-0.24287477

self_loop_weight f4 [8, 32]
0	0xa9737db0	-5.4065856e-14
1	0xb0b42f02	-1.3110084e-09
2	0x000007e0	2.825e-42
3	0xb87ceb71	-6.0300754e-05
4	0xb601d8c4	-1.9348672e-06
5	0x3d62356c	0.05522673
6	0x3f396687	0.7242207
7	0xbbdce502	-0.006741167
8	0xb617d6fa	-2.2625886e-06
9	0xb3fe38c8	-1.1838125e-07
10	0x3e2bbd2e	0.16771385
11	0xbda01117	-0.0781576
12	0xbcd3a7d7	-0.025836868
13	0xbe90f5b3	-0.28312454
14	0xb4dbba1b	-4.0927338e-07
15	0xbcc54680	-0.024081469
16	0xb3931f9f	-6.850973e-08
17	0xbc169ff9	-0.009193414
18	0xbcb54b32	-0.022130582
19	0xbcd6046e	-0.02612516
20	0xb19ea468	-4.617096e-09
21	0xbee01361	-0.43764785
22	0x8001009c	-9.2054e-41
23	0xbe3822a3	-0.17981963
24	0x8247f6da	-1.4691054e-37
25	0xa7e893f2	-6.455334e-15
26	0xbe3d07ce	-0.18460009
27	0xbddaf762	-0.10691716
28	0x3cab7bd5	0.020933071
29	0xbcfa7c86	-0.030576956
30	0x247c2c18	5.468114e-17
31	0x80002d06	-1.6151e-41
32	0xba52aff6	-0.00080370845
33	0xbd5488b8	-0.051888198
34	0x3e0bdd2e	0.13658592
35	0xbe16eb30	-0.14738154
36	0xbc88b6a7	-0.016688658
37	0xbe6a2636	-0.22866139
38	0xbf25e325	-0.6479972
39	0xbda715a7	-0.08158427
40	0xbd6e7ea3	-0.05822624
41	0xbd8f841c	-0.0700762
42	0x3e08cffa	0.13360587
43	0xbec80f9b	-0.39074406
44	0xbdf6c918	-0.12050074
45	0xbea6ee73	-0.32603797
46	0xbb0fd935	-0.0021949534
47	0xbe52d6bf	-0.20589732
48	0xbe2f61b8	-0.1712712
49	0xba6121e1	-0.0008588117
50	0xbb6fa4f7	-0.0036566833
51	0xbe0310cc	-0.12799376
52	0xb8134775	-3.511408e-05
53	0xbf32cb3e	-0.6984137
54	0xbb0248aa	-0.0019879737
55	0xbee7e2d1	-0.45290235
56	0xbe3dc59f	-0.18532418
57	0xbd9c6f8b	-0.07638463
58	0x3bc563fa	0.006023881
59	0xbe8e0585	-0.27738586
60	0xbb24dd2c	-0.0025156243
61	0xbed843d9	-0.42239264
62	0xba76f10c	-0.0009420074
63	0xba9b93bd	-0.0011869591
64	0xbbb5a9f3	-0.005543941
65	0xbdb1d127	-0.08682471
66	0xbf27d136	-0.65553606
67	0xbac4eab3	-0.0015023559
68	0xb30e6832	-3.3156716e-08
69	0xbe0aae6e	-0.13543102
70	0x3ee64cfb	0.44980606
71	0xbaadd17f	-0.0013261287
72	0xba8e8f07	-0.0010876366
73	0x3cc9123b	0.024544826
74	0x3ec5d7a9	0.38641098
75	0xbe00d5fb	-0.12581627
76	0xbc39d81d	-0.011343029
77	0xbc3867ae	-0.011255188
78	0xb6bc8e1d	-5.6193808e-06
79	0xbd2eecb7	-0.042706218
80	0xbbe5c849	-0.0070124012
81	0xbccfa716	-0.025348227
82	0xbb439987	-0.0029846148
83	0xbb0150fd	-0.001973211
84	0xb9912e6d	-0.00027691145
85	0x3f94e285	1.1631628
86	0xaf4bc4dc	-1.8532681e-10
87	0x3f441715	0.7659772
88	0xbbf16865	-0.007367181
89	0x3a52b1c1	0.00080373517
90	0xbe0b92b1	-0.13630177
91	0xb948a1b4	-0.00019133725
92	0x9275fd06	-7.7620244e-28
93	0xbc9a2b9b	-0.01881962
94	0xb4e55f04	-4.2723707e-07
95	0x80000bca	-4.229e-42
96	0xb86a198e	-5.5813747e-05
97	0x00008a98	4.9718e-41
98	0x3fd3d5e9	1.6549655
99	0xba948078	-0.001132979
100	0x00010bb3	9.6032e-41
101	0xbd22f71e	-0.03978645
102	0xbf0f1a7a	-0.55899775
103	0xbbf071e3	-0.007337795
104	0x3c3ba56e	0.011453016
105	0x3eeaf61e	0.45890898
106	0xbf39bf54	-0.7255757
107	0xbb8a04a6	-0.00421198
108	0xbd6f648a	-0.05844549
109	0x3cbc05f0	0.02295205
110	0x380d4eb6	3.3690325e-05
111	0xba30a7fc	-0.0006738899
112	0x80004dc1	-2.7893e-41
113	0x00017f74	1.37557e-40
114	0xba8a378a	-0.0010545116
115	0x357dd861	9.456472e-07
116	0x00017be3	1.36278e-40
117	0x3a03fa66	0.00050345657
118	0x8000a2d7	-5.8416e-41
119	0xbe41bd82	-0.18919948
120	0xbaa9d3a8	-0.0012956755
121	0x000057f6	3.1554e-41
122	0x80008b68	-5.001e-41
123	0x80011364	-9.8792e-41
124	0x00007764	4.2829e-41
125	0xb9dc4c57	-0.00042018548
126	0x0a4c837d	9.846973e-33
127	0x37497f71	1.2010206e-05
128	0xb55e5aba	-8.283347e-07
129	0xbacc4433	-0.001558429
130	0x3ffa42bd	1.9551617
131	0xbd2350e5	-0.03987207
132	0xbc910572	-0.017702792
133	0xbe14ba5f	-0.1452422
134	0x3ebc06b0	0.36723852
135	0xbbbf1665	-0.005831527
136	0xbb5406b2	-0.0032352624
137	0x3fda30f0	1.7046185
138	0xbf2cd5d1	-0.6751376
139	0xba5a389b	-0.0008324475
140	0xba258b64	-0.00063150213
141	0x3e80f49e	0.25186628
142	0xb3d828d2	-1.0065709e-07
143	0x3c80e9fa	0.015736569
144	0x3cd06041	0.025436522
145	0xba5d61fe	-0.0008445083
146	0xb12730a2	-2.4329343e-09
147	0x3bd67a87	0.006545368
148	0x9caa41b0	-1.1266636e-21
149	0xb6a48cd4	-4.9039754e-06
150	0x07ad5300	2.607893e-34
151	0xbdb1557b	-0.08658882
152	0x3de65888	0.11247355
153	0x3c6339c6	0.013868755
154	0x3ffda039	1.9814521
155	0xbe017921	-0.12643863
156	0xb997c6c3	-0.00028949053
157	0xbe80bd20	-0.2514429
158	0xad9628bc	-1.7071115e-11
159	0xb87b5b0d	-5.992786e-05
160	0xbc327484	-0.010892037
161	0xbc10e2dc	-0.00884315
162	0xbf15a81b	-0.58459634
163	0xbdca90ce	-0.098909006
164	0xb5543a5e	-7.906109e-07
165	0xbe2ec729	-0.17068161
166	0xbebb1dc7	-0.36546156
167	0xbd38638b	-0.045016807
168	0xbba7a557	-0.0051161456
169	0xbe8daa46	-0.2766897
170	0x3fb27fbe	1.3945234
171	0x3cb48f0a	0.022040863
172	0xbdcd1b22	-0.10014941
173	0xbe496247	-0.19666396
174	0xac69790d	-3.3178488e-12
175	0xbd576e03	-0.05259515
176	0xbe0df487	-0.13862811
177	0xbd21edcd	-0.039533425
178	0xbd6f1f58	-0.0583795
179	0xbd7b37cb	-0.061332505
180	0xb62d97e6	-2.5867425e-06
181	0x3e678bf9	0.22611989
182	0xb9030e1c	-0.0001249839
183	0x3f943cb2	1.1581023
184	0xb907bddc	-0.00012945331
185	0xbc833c42	-0.016019944
186	0xbf0bb3c9	-0.54571205
187	0xbe80c04b	-0.25146708
188	0xbd11ac29	-0.035564575
189	0xbd2542af	-0.040346798
190	0xb9e87a28	-0.00044341502
191	0xb4cb8304	-3.7907023e-07
192	0xbb9d6d2f	-0.0048042755
193	0xbdb1f7fc	-0.086898774
194	0xbecfb964	-0.4057113
195	0xbbeb75cd	-0.007185674
196	0xbb2494a8	-0.002511302
197	0xbde991d7	-0.1140477
198	0x3f99309b	1.1967958
199	0xbc52757d	-0.012845394
200	0xbd18a5da	-0.037267543
201	0xbc18f092	-0.0093347
202	0x3f5bb2f3	0.8581993
203	0xbbef1020	-0.0072956234
204	0xbdb05cca	-0.08611448
205	0xbd9fca7a	-0.07802291
206	0xbb0cd2b3	-0.0021487891
207	0xbd4a7391	-0.04942662
208	0xbb963e75	-0.004585082
209	0xb197fdaf	-4.423519e-09
210	0x393a79ca	0.00017783712
211	0xbb7b8ae0	-0.0038382336
212	0xb9672b8e	-0.00022046102
213	0xbeb8e4b6	-0.36111993
214	0xb997d53b	-0.00028959833
215	0x3aa66bcc	0.0012696921
216	0xbc845934	-0.016155817
217	0xbb43edc2	-0.0029896353
218	0xbf09989d	-0.53748494
219	0x9e2e4a92	-9.226904e-21
220	0x85427273	-9.142857e-36
221	0xbb8afb0e	-0.004241354
222	0xb488a3e3	-2.5451217e-07
223	0x80001911	-8.992e-42
224	0xb84270db	-4.635831e-05
225	0x3cf9ad78	0.030478224
226	0x3f72b62e	0.94809234
227	0xbb581f95	-0.0032977809
228	0x00008647	4.817e-41
229	0xbbdeeb74	-0.0068029705
230	0x3da71fb3	0.08160343
231	0xbc17cf9b	-0.009265806
232	0x03a18e5b	9.495413e-37
233	0xbdb66566	-0.08906059
234	0xbe91d5e7	-0.28483507
235	0x80003fd2	-2.2894e-41
236	0x33873eb5	6.297834e-08
237	0xbb7f59f0	-0.003896352
238	0xb5536ed1	-7.8764884e-07
239	0xb32f3174	-4.079034e-08
240	0xbd1fc096	-0.039002024
241	0x8e44f6d0	-2.4277701e-30
242	0xbac12221	-0.0014734903
243	0xb33b67aa	-4.3633612e-08
244	0xb833b82a	-4.284844e-05
245	0x3e8c81cd	0.2744278
246	0x80009f69	-5.7186e-41
247	0xbdc6cbd5	-0.097068466
248	0xba88283f	-0.0010387971
249	0xb9416593	-0.00018443754
250	0x3b67b20e	0.0035353932
251	0x1e7b51f8	1.330478e-20
252	0x00019f7e	1.4905e-40
253	0xbb19a3fe	-0.0023443694
254	0x1d6cd7aa	3.1345836e-21
255	0x800011f9	-6.447e-42

weight f4 [8, 80]
0	0x0000b192	6.37e-41
1	0xa44502b5	-4.271986e-17
2	0x0000935b	5.2861e-41
3	0x80002ab8	-1.5325e-41
4	0x803c73db	-5.551691e-39
5	0x9f406211	-4.07387e-20
6	0x8001482a	-1.17723e-40
7	0x80003e78	-2.241e-41
8	0xa2bf2138	-5.1805825e-18
9	0x000080ff	4.6275e-41
10	0x8000813d	-4.6362e-41
11	0x00008a14	4.9533e-41
12	0x000083a2	4.7221e-41
13	0xa27f3a7f	-3.4589912e-18
14	0x80000b06	-3.954e-42
15	0x00004a0a	2.656e-41
16	0x0000d8a9	7.7723e-41
17	0x800087f5	-4.8772e-41
18	0x8000d10b	-7.499e-41
19	0x0000ee1f	8.5422e-41
20	0x000005a0	2.018e-42
21	0x800103d7	-9.3213e-41
22	0x8000b90c	-6.6382e-41
23	0x80005456	-3.0254e-41
24	0x0000cda9	7.3777e-41
25	0x00003770	1.9887e-41
26	0x8001088e	-9.4904e-41
27	0x8000c4a1	-7.0537e-41
28	0x80016264	-1.27131e-40
29	0x00009edf	5.6992e-41
30	0x8000b6d6	-6.5589e-41
31	0x80012486	-1.04938e-40
32	0x00011be8	1.01846e-40
33	0x8084c6a1	-1.219354e-38
34	0x8000cd10	-7.3563e-41
35	0x8000d963	-7.7984e-41
36	0x0000c9fb	7.2457e-41
37	0x8000e721	-8.2913e-41
38	0x000099d7	5.5187e-41
39	0x0eb63824	4.4920525e-30
40	0x80014e6d	-1.1997e-40
41	0x8000aac8	-6.1265e-41
42	0x0000e1b4	8.0967e-41
43	0x000056a7	3.1085e-41
44	0x9535621e	-3.663006e-26
45	0x0001a183	1.49775e-40
46	0x8000de27	-7.9693e-41
47	0x80002e9c	-1.672e-41
48	0x000080bd	4.6183e-41
49	0x800099fb	-5.5238e-41
50	0x8000ce54	-7.4017e-41
51	0x00011e37	1.02675e-40
52	0x0000815a	4.6403e-41
53	0x00000a07	3.597e-42
54	0x0000bbee	6.7416e-41
55	0x0000f521	8.7936e-41
56	0x8000f1e1	-8.677e-41
57	0x8000da6c	-7.8355e-41
58	0x00003f42	2.2693e-41
59	0x800095e0	-5.3765e-41
60	0x00012c85	1.07806e-40
61	0x80013e95	-1.14286e-40
62	0x00019ae7	1.47404e-40
63	0x800039f7	-2.0794e-41
64	0x8001619d	-1.26853e-40
65	0x8000a657	-5.9671e-41
66	0x80008d5a	-5.0707e-41
67	0x80009381	-5.2914e-41
68	0x80018558	-1.3967e-40
69	0x80008aee	-4.9839e-41
70	0x80009bbe	-5.587e-41
71	0x0000ae64	6.256e-41
72	0x0000b939	6.6445e-41
73	0x800081a2	-4.6503e-41
74	0x0000930f	5.2755e-41
75	0x0000ac2c	6.1764e-41
76	0x8000bb01	-6.7084e-41
77	0x00002893	1.4555e-41
78	0x800091c8	-5.2296e-41
79	0x00009508	5.3462e-41
80	0x3df388c8	0.11891323
81	0xbe0d19e6	-0.1377941
82	0xbc8d8900	-0.01727724
83	0x3c9b2140	0.018936753
84	0xbc4b7b8f	-0.012419595
85	0x3f33bc75	0.7020944
86	0xbeba3ed5	-0.36376062
87	0xbe708c6d	-0.23491068
88	0x3e168f33	0.14703064
89	0xbdd4ee46	-0.103970096
90	0xbe87b041	-0.2650166
91	0x24969c71	6.531715e-17
92	0x3d9f4c2d	0.07778201
93	0x3e54f4e0	0.20796537
94	0xbf539310	-0.82646275
95	0x3d7c7d90	0.061643183
96	0x3e938465	0.28811947
97	0x3eb51c64	0.35373223
98	0x3d760588	0.06006387
99	0xbe968c34	-0.29403841
100	0x3e27cd41	0.16386892
101	0x3e8bf894	0.27338088
102	0x3d118db4	0.03553553
103	0xbe839596	-0.25700063
104	0x3e5c3b2b	0.21506946
105	0x3e89d390	0.26919222
106	0x3e9a4022	0.30127054
107	0xbe6a7707	-0.22896968
108	0x3e7b1ca3	0.24522643
109	0xbe52f893	-0.20602636
110	0x3e474004	0.19458014
111	0x3e8a8cfc	0.27060688
112	0xbe2c4d66	-0.168264
113	0xbebf0991	-0.37311986
114	0xbe95f4e2	-0.29288393
115	0xbe4ffe3a	-0.20311823
116	0xbe461914	-0.19345504
117	0xbe8eb464	-0.27872002
118	0xbe4eda06	-0.20200357
119	0x3dcb9883	0.09941199
120	0x3e112fed	0.14178438
121	0xbe958118	-0.29200053
122	0x3d0c6612	0.03427703
123	0xbcca55ee	-0.024699178
124	0x3e843721	0.2582331
125	0x3e081632	0.13289717
126	0xbe392551	-0.18080641
127	0x3e575ba9	0.2103106
128	0x3df1182a	0.11772187
129	0x3dcc88d6	0.09987037
130	0x3f61515b	0.88014764
131	0xbd9dc9d6	-0.07704513
132	0x3e9b891f	0.30378053
133	0x3ed84fc8	0.42248368
134	0x3f5bb15b	0.858175
135	0xbeee2e98	-0.46519923
136	0x3ed27611	0.41105703
137	0x3eeda532	0.46415097
138	0x3ea22fa5	0.31676975
139	0xbe8b7a7a	-0.2724188
140	0x3ecb287d	0.39679328
141	0xbef31d9f	-0.47483537
142	0x3ee79d70	0.45237303
143	0x3ed8080d	0.42193642
144	0xbeb1d7f1	-0.34735063
145	0xbf1fbd2a	-0.62398016
146	0xbdeecf0a	-0.11660583
147	0xbea4647d	-0.32107916
148	0xbee43fbe	-0.4457988
149	0xbdd86832	-0.10566749
150	0xbe6c31ad	-0.23065825
151	0x3f08cf18	0.53441
152	0x3f203b51	0.6259051
153	0xbdcd6773	-0.10029497
154	0x3f745549	0.95442635
155	0xbf6ad7ee	-0.9173573
156	0x3f5d406b	0.8642642
157	0x3e8128db	0.25226483
158	0xbe925c32	-0.28585964
159	0x3e707ee6	0.23485908
160	0xbe866229	-0.26246765
161	0x3d40ae23	0.04704107
162	0x3d644635	0.055731017
163	0x0000e1b6	8.097e-41
164	0xbda65554	-0.08121744
165	0xbf2a5755	-0.6653951
166	0x3d14b8ed	0.03630917
167	0x3e44e569	0.19228138
168	0xbe8ddcc6	-0.277075
169	0x3db79a21	0.08964945
170	0xbee9b50d	-0.45645943
171	0x8000947a	-5.3263e-41
172	0x3e6209c3	0.22074036
173	0x3cab8886	0.020939123
174	0xbc8a2942	-0.016865376
175	0xbded64b8	-0.11591476
176	0x3d85a45f	0.06525492
177	0x3ca4a20d	0.020096803
178	0x3e79d6ef	0.24398397
179	0xbd280869	-0.041023646
180	0x3d851bcd	0.06499443
181	0x3d345d05	0.044034023
182	0x3ecb70ee	0.39734596
183	0xbd1c3c28	-0.038143307
184	0x3d4ab79d	0.049491514
185	0x3d085ff9	0.03329465
186	0x3d2fc13f	0.042908903
187	0xbd81ab44	-0.063314945
188	0x3d5116a2	0.051046975
189	0xbd3c49c4	-0.045968786
190	0x3d4bb80b	0.049736064
191	0x3d317b5b	0.04333053
192	0xbd93db40	-0.07219553
193	0xbc2f6cbe	-0.0107070785
194	0xbd5934dd	-0.05302893
195	0xbd809d04	-0.06279948
196	0xbd50fb94	-0.051021174
197	0xbd838294	-0.0642139
198	0xbd5f3e28	-0.054502636
199	0x3dddfe0c	0.10839471
200	0x3d985c0f	0.07439434
201	0xbd845add	-0.06462643
202	0x3dd5d4f1	0.10441006
203	0xbeb79b28	-0.35860562
204	0x3e527ce4	0.20555454
205	0x3d9e2f60	0.0772388
206	0xbd8a9820	-0.06767297
207	0x3d713bdd	0.05889498
208	0xbc2b04e8	-0.010438181
209	0xbbbfeca1	-0.005857066
210	0x3c87685f	0.01652926
211	0x3b7fd884	0.0039038965
212	0xbbfb0b44	-0.007661255
213	0xbc44b476	-0.012005916
214	0x3d1f909b	0.038956266
215	0x3c954674	0.018222071
216	0xbbf28902	-0.0074015865
217	0xbcb4a5c1	-0.022051694
218	0xbc0e9f2a	-0.00870494
219	0x3c7bbee7	0.015365339
220	0xbbcb3a06	-0.0062019853
221	0x3c9f18c8	0.019420996
222	0xbc830245	-0.015992293
223	0xbc415072	-0.011798965
224	0x3b5e6fd0	0.0033941157
225	0x3d8f558d	0.069987394
226	0x3a96eb1d	0.0011514161
227	0x3beb5cba	0.0071826847
228	0x3c6e3c1d	0.014540699
229	0x3c339785	0.010961418
230	0x3b126a0c	0.002234104
231	0xbc7e17f5	-0.0155086415
232	0xbbf6cc41	-0.007531673
233	0x3b0da0c0	0.0021610707
234	0x3ab2209d	0.0013590042
235	0xbcdfc53e	-0.027315732
236	0x3c22215e	0.009895651
237	0xbbe2acc2	-0.006917567
238	0x3be14778	0.006874975
239	0xbbfd8f34	-0.0077380184
240	0xbabb1313	-0.0014272652
241	0xbc5be076	-0.013420215
242	0xb5592407	-8.0891226e-07
243	0xb4371386	-1.7050306e-07
244	0xb5ae2fb6	-1.2977896e-06
245	0x3c593f0a	0.013259659
246	0xb946bd90	-0.00018953369
247	0xac29d336	-2.413359e-12
248	0xbb4539e4	-0.003009432
249	0x390e820c	0.00013590622
250	0xb2ff682c	-2.9733279e-08
251	0x00001c1a	1.0081e-41
252	0xbbe2273e	-0.0069016507
253	0xbb060d4f	-0.002045471
254	0xa89ec527	-1.7627025e-14
255	0xa292bd87	-3.977405e-18

bias f4 [8]
0	0xa61bf4ac	-5.410802e-16
1	0x3e25965f	0.16170643
2	0x3daaf760	0.08347964
3	0xbd183d82	-0.037168033
4	0xbe2f2de7	-0.17107354
5	0xb7852db5	-1.587612e-05
6	0xbd1a008c	-0.037598178
7	0xbdce92f9	-0.100866266

weight f4 [1, 8]
0	0xb8081769	-3.244673e-05
1	0xbece19c0	-0.4025402
2	0x3e4fc814	0.20291167
3	0xbd04f870	-0.03246349
4	0xbd337fd6	-0.043823086
5	0xbbc2db86	-0.0059465794
6	0xbdac0466	-0.083992764
7	0xbe9e3bb4	-0.30904925

weight f4 [4, 32, 32]
0	0x9c5612d8	-7.0831015e-22
1	0x00007e7b	4.5373e-41
2	0x00011f41	1.03047e-40
3	0x921c299b	-4.9276203e-28
4	0x08796040	7.5043853e-34
5	0x1cb4b9a1	1.1959385e-21
6	0x85da1410	-2.0507991e-35
7	0x99a6137c	-1.7171867e-23
8	0x0000bd36	6.7876e-41
9	0x8000c472	-7.0471e-41
10	0x80016e64	-1.31436e-40
11	0x9c08f6de	-4.5317694e-22
12	0x9b673d26	-1.912763e-22
13	0x0000c468	7.0457e-41
14	0x0a5b0fbc	1.0547426e-32
15	0x9b8eb1b7	-2.3606775e-22
16	0x99b1b380	-1.837387e-23
17	0x1d16b55b	1.9946093e-21
18	0x1cb3d15b	1.1899343e-21
19	0x0000b2c1	6.4125e-41
20	0x2975d120	5.4582315e-14
21	0x8001a952	-1.52576e-40
22	0xb201e48e	-7.560756e-09
23	0x1ce73c03	1.530181e-21
24	0x1bd840b8	3.5776026e-22
25	0x1d831295	3.4694625e-21
26	0x80006f7d	-3.9994e-41
27	0x896e98b0	-2.8720001e-33
28	0x00004d98	2.7835e-41
29	0x9ba5f48d	-2.7454997e-22
30	0x3168f7e3	3.390135e-09
31	0x0000ab48	6.1444e-41
32	0x9cb82652	-1.2186004e-21
33	0x00010100	9.2194e-41
34	0x1da15175	4.270057e-21
35	0xa4440115	-4.2501642e-17
36	0x18becf94	4.932345e-24
37	0x9db7ba3a	-4.863225e-21
38	0x8001266e	-1.05621e-40
39	0x253d4452	1.6416285e-16
40	0x00012bf8	1.07609e-40
41	0x90b28283	-7.0409706e-29
42	0x00004e4c	2.8088e-41
43	0x9af11e27	-9.972398e-23
44	0x9ace6470	-8.536187e-23
45	0x0000b6ec	6.562e-41
46	0x19db7ee5	2.2695322e-23
47	0x1cb5e1bb	1.2035925e-21
48	0x1abac852	7.725143e-23
49	0x2cb82f17	5.2348226e-12
50	0x2eade7a4	7.908277e-11
51	0x0000156d	7.686e-42
52	0x2a2010e0	1.421671e-13
53	0x0000f946	8.9422e-41
54	0x8001a219	-1.49985e-40
55	0x1ddc665d	5.8339356e-21
56	0x1cea1a8c	1.5491683e-21
57	0x9b18a292	-1.2625675e-22
58	0x800118b5	-1.00699e-40
59	0x8003fe22	-3.66672e-40
60	0x00015719	1.2308e-40
61	0x9cff7de2	-1.6907024e-21
62	0x38e607e1	0.00010968722
63	0x80000d86	-4.851e-42
64	0x3f43e35f	0.76518816
65	0xbabc9c7a	-0.0014389895
66	0x3cc05bb7	0.023481233
67	0xbdb5ed94	-0.08883205
68	0xbe10cd84	-0.14140898
69	0x3e645db6	0.22301373
70	0xbc7a0463	-0.015259835
71	0xbb959d6c	-0.0045658853
72	0xab0307b8	-4.655126e-13
73	0xbd680d95	-0.056653578
74	0x3e71128a	0.23542228
75	0x3a06acf4	0.00051374664
76	0xbe85c963	-0.26130208
77	0xbb91f42a	-0.0044541555
78	0x3dfb314b	0.12265261
79	0x3cf5101f	0.029914914
80	0x3dd859a1	0.1056397
81	0x3f185bc4	0.59515023
82	0xbdb63a71	-0.088978656
83	0x36a7bdfa	4.999104e-06
84	0x3e991ee3	0.29906377
85	0xbca26f08	-0.019828334
86	0x3e553af3	0.20823269
87	0x3ef61231	0.48060754
88	0x3f4b629e	0.7944735
89	0xbd489f30	-0.048979938
90	0x89782ae5	-2.9872083e-33
91	0x3b4079d0	0.002936948
92	0xa2846524	-3.588576e-18
93	0xbee33b46	-0.4438116
94	0x3ef76f9a	0.48327333
95	0xb7e82a96	-2.7676386e-05
96	0x22671699	3.13183e-18
97	0x8000d360	-7.5827e-41
98	0x000089a6	4.9379e-41
99	0x99acfb4c	-1.7885881e-23
100	0x163ce1a8	1.5257724e-25
101	0x33853514	6.20295e-08
102	0x0ca1ad6a	2.4910347e-31
103	0x33ea396e	1.09069205e-07
104	0x800158fd	-1.23758e-40
105	0xab297f90	-6.021789e-13
106	0x80018941	-1.41073e-40
107	0x9da6c62b	-4.4144735e-21
108	0x9bf22ecb	-4.006578e-22
109	0x0000fb27	9.0096e-41
110	0x95d202c4	-8.482269e-26
111	0x359d7ef1	1.1734356e-06
112	0x9c205b22	-5.3057346e-22
113	0xb13b040d	-2.7214384e-09
114	0x3820f1e3	3.8372247e-05
115	0x0014d6b3	1.91373e-39
116	0x9ca126ca	-1.0664113e-21
117	0xb31b3693	-3.6138385e-08
118	0x00006948	3.7768e-41
119	0x21fe3ad8	1.7227285e-18
120	0x20406070	1.6294941e-19
121	0x2293af95	4.0030335e-18
122	0x2812c3a2	8.147049e-15
123	0x27063e08	1.8629863e-15
124	0xac7f2156	-3.6256185e-12
125	0x9b167fc2	-1.244899e-22
126	0xbc0dfba2	-0.008665951
127	0x00000131	4.27e-43
128	0x80014998	-1.18236e-40
129	0x00004c95	2.7472e-41
130	0x8000f707	-8.8617e-41
131	0x80149b90	-1.892515e-39
132	0x800cbfd2	-1.170838e-39
133	0x001ffb6b	2.937092e-39
134	0x0000721e	4.0938e-41
135	0x00001e36	1.0838e-41
136	0x00010c5a	9.6266e-41
137	0xb788c70c	-1.6305152e-05
138	0xb5842341	-9.845027e-07
139	0x3a87b2f5	0.0010353016
140	0xb851e8aa	-5.004617e-05
141	0x31bf3e0a	5.5658846e-09
142	0x80043a82	-3.8833e-40
143	0x80152c23	-1.944379e-39
144	0xb733e100	-1.0721618e-05
145	0x8000766a	-4.2479e-41
146	0x38123bc2	3.4864766e-05
147	0x800030c4	-1.7494e-41
148	0x800014f1	-7.512e-42
149	0x800078ea	-4.3376e-41
150	0x0000aa33	6.1056e-41
151	0x8011a68f	-1.620953e-39
152	0x800089c4	-4.9421e-41
153	0x37cb1ee0	2.4213863e-05
154	0x00011297	9.8504e-41
155	0x35a10f03	1.1999804e-06
156	0x8000c1b1	-6.9483e-41
157	0xbb17c274	-0.0023156675
158	0x80005827	-3.1623e-41
159	0x35685730	8.655361e-07
160	0xbd0ae200	-0.033906937
161	0x08a05902	9.650575e-34
162	0x0000a8aa	6.0505e-41
163	0x36dfe5c8	6.672668e-06
164	0x0f028685	6.435402e-30
165	0x3de8a3a9	0.11359341
166	0x33c10a44	8.98913e-08
167	0x3d924854	0.07142702
168	0xafca5244	-3.680204e-10
169	0x38207ea3	3.8264912e-05
170	0x39cdee13	0.00039278026
171	0xbc16f3e4	-0.0092134215
172	0xb4b67f5a	-3.3992802e-07
173	0x0b805c50	4.9442703e-32
174	0xb99759ec	-0.0002886796
175	0x3beef7a9	0.007292707
176	0x268c70ae	9.744993e-16
177	0x3d8ea0f5	0.06964294
178	0xbe89932c	-0.26870096
179	0x2dac3892	1.9579258e-11
180	0x37b3c415	2.142977e-05
181	0x319b3452	4.517042e-09
182	0xbc790fea	-0.015201548
183	0x3c150960	0.009096473
184	0xbd57e067	-0.05270424
185	0xb999f941	-0.00029368143
186	0x88100904	-4.334402e-34
187	0x3a1d25ac	0.0005994688
188	0x8d92239a	-9.006515e-31
189	0xbd421c1f	-0.0473901
190	0xbe7c6b23	-0.24650244
191	0x0057ab61	8.051167e-39
192	0x3df92f51	0.12167228
193	0xb8764080	-5.871104e-05
194	0x3baad846	0.00521377
195	0x3d415889	0.047203574
196	0x3caf0dca	0.02136888
197	0x3b305bca	0.002691018
198	0xba3aac04	-0.0007120969
199	0xbea1efa4	-0.31628144
200	0x0001065c	9.4117e-41
201	0xbe9bebc0	-0.304533
202	0x3ec56cf8	0.385597
203	0xbe649c8c	-0.22325343
204	0xbd378918	-0.044808477
205	0x3c9a76f5	0.018855551
206	0x3d3ec482	0.046574123
207	0xbf05341c	-0.5203264
208	0xbe6b5348	-0.22980988
209	0xbdaac635	-0.08338586
210	0xbea40962	-0.3203841
211	0xa0ae0ffa	-2.948732e-19
212	0x3e4b34c8	0.19844353
213	0xbbd59307	-0.006517771
214	0x3bbdd036	0.005792643
215	0xbed984b0	-0.42484045
216	0x3ebf39b8	0.37348723
217	0xbe917c8f	-0.28415343
218	0x89ecef26	-5.7039827e-33
219	0x3dbb7af5	0.091543116
220	0x0d852609	8.2059145e-31
221	0xbda0df12	-0.07855047
222	0xbe114260	-0.14185476
223	0xbdb3bdb2	-0.08776416
224	0x878b3348	-2.0944536e-34
225	0x80008a86	-4.9693e-41
226	0x00005bb8	3.2902e-41
227	0xaa613bcb	-2.0004759e-13
228	0x80014f59	-1.203e-40
229	0x25cb1750	3.5230684e-16
230	0x80014163	-1.15292e-40
231	0x32d42ba7	2.4699899e-08
232	0x0000eb30	8.437e-41
233	0x85c54201	-1.8550037e-35
234	0x8000e9eb	-8.3914e-41
235	0x8000a255	-5.8234e-41
236	0x85828d1b	-1.2276975e-35
237	0x0000d3ed	7.6025e-41
238	0xa595e84b	-2.6004788e-16
239	0x21357b50	6.148839e-19
240	0x20cde9fc	3.488319e-19
241	0x26743bba	8.473545e-16
242	0x35de8d71	1.6581454e-06
243	0x00002ad8	1.537e-41
244	0x2a65ab31	2.039868e-13
245	0x8000b69e	-6.5511e-41
246	0x80009413	-5.3119e-41
247	0x00000a58	3.71e-42
248	0x07c772b7	3.0009615e-34
249	0x0000e09b	8.0573e-41
250	0x0016f888	2.109537e-39
251	0x24121000	3.1672256e-17
252	0x0000f3df	8.7484e-41
253	0x80003751	-1.9844e-41
254	0x3971b8ad	0.00023052348
255	0xa7e2525d	-6.28169e-15

w_comp f4 [9, 4]
0	0xbd83ca0e	-0.06435023
1	0xbd18c9fe	-0.03730201
2	0xbe3eca2a	-0.18631807
3	0xbeba6743	-0.36406907
4	0xbdee1237	-0.11624568
5	0x3e4afd15	0.19823106
6	0xbe8e6bce	-0.27816623
7	0x3f0d4155	0.55177814
8	0xbf082ca3	-0.5319311
9	0x3d8cbffb	0.06872555
10	0xbe7d5ae8	-0.24741709
11	0xbf37f81e	-0.7186297
12	0xbe2da440	-0.16957188
13	0xb9d97ce7	-0.00041482525
14	0xbd785f46	-0.060637735
15	0xbee52dbf	-0.44761464
16	0x3ee9c040	0.45654488
17	0x3e309d64	0.1724754
18	0x3da3a7ba	0.07990976
19	0xbe6a8423	-0.22901969
20	0xbf455c85	-0.770943
21	0xbf1878d4	-0.5955937
22	0x3e8968a2	0.2683764
23	0xbf3e1f0a	-0.7426611
24	0x80016d0d	-1.30956e-40
25	0x00018555	1.39666e-40
26	0x00019e7b	1.48688e-40
27	0x0001291c	1.06583e-40
28	0xbe90f2a0	-0.28310108
29	0xbd95b3b4	-0.07309666
30	0x3dfb93d7	0.122840576
31	0xbe98e8c0	-0.29865074
32	0x80005b47	-3.2744e-41
33	0x800007a1	-2.737e-42
34	0x0000fa73	8.9844e-41
35	0x800180fb	-1.38105e-40

self_loop_weight f4 [32, 32]
0	0x9bf542d8	-4.0575047e-22
1	0x8000f356	-8.7292e-41
2	0x80008f35	-5.1373e-41
3	0x29e9182c	1.0351472e-13
4	0x80010ceb	-9.647e-41
5	0x9cfb9c49	-1.6650185e-21
6	0x00007792	4.2894e-41
7	0xaa6c1df3	-2.0971401e-13
8	0x8000f4bc	-8.7794e-41
9	0xb87d03f9	-6.03236e-05
10	0x80013626	-1.1126e-40
11	0x9a6a88a9	-4.850046e-23
12	0x1af9d92f	1.03334865e-22
13	0x8000418f	-2.3518e-41
14	0x0001198f	1.01004e-40
15	0x1c0556fb	4.411843e-22
16	0x000119a1	1.0103e-40
17	0x9de5b59e	-6.0803583e-21
18	0xb2259cc0	-9.639905e-09
19	0x0001456c	1.1674e-40
20	0x0000424d	2.3784e-41
21	0x0faec981	1.7235341e-29
22	0x80007a49	-4.3868e-41
23	0x9cdd0763	-1.4626463e-21
24	0x1bbbd514	3.1074253e-22
25	0x0001253f	1.05197e-40
26	0x8000df0c	-8.0014e-41
27	0xbbda9eb1	-0.0066717495
28	0x0763bc4e	1.713292e-34
29	0x1b968086	2.4898475e-22
30	0x359e049e	1.1773261e-06
31	0xb621bde6	-2.4101405e-06
32	0x335aee51	5.0973828e-08
33	0x80011e3e	-1.02684e-40
34	0x1071d5df	4.769363e-29
35	0x317174b6	3.5136458e-09
36	0x1a0c8c3d	2.9064605e-23
37	0xa65bad87	-7.621606e-16
38	0x800015fe	-7.89e-42
39	0xb67bbcd1	-3.751182e-06
40	0x000059be	3.2193e-41
41	0xacc5b248	-5.61887e-12
42	0x000052b4	2.9668e-41
43	0x1fa972b0	7.176402e-20
44	0x9c86bd50	-8.916312e-22
45	0x80001a38	-9.406e-42
46	0x178ab6ff	8.964236e-25
47	0xb7b4fb7c	-2.1574779e-05
48	0xacc40770	-5.5714808e-12
49	0x3394869a	6.916271e-08
50	0xb98d465c	-0.00026946038
51	0x80000efc	-5.375e-42
52	0x0000a471	5.899e-41
53	0x00008f3b	5.1381e-41
54	0x00007d08	4.4853e-41
55	0x9c141aaa	-4.9003555e-22
56	0x379faf5a	1.9035931e-05
57	0x000108ce	9.4994e-41
58	0x8000b046	-6.3235e-41
59	0x37a3e5ed	1.9538182e-05
60	0x00001db9	1.0662e-41
61	0xae1546ab	-3.3941443e-11
62	0x3bd7eb8a	0.0065893577
63	0xad605079	-1.2750794e-11
64	0xbdf8c730	-0.12147367
65	0xbcac8b07	-0.021062387
66	0xbc0e8907	-0.008699662
67	0xbe98ce0a	-0.29844695
68	0xbe113bbc	-0.14182943
69	0xbf1d176f	-0.6136388
70	0xbe3fb50b	-0.18721406
71	0x3e8deb0a	0.27718383
72	0x2831e356	9.874769e-15
73	0xbb864d92	-0.0040986026
74	0x3da51d13	0.08062186
75	0xbe155cbc	-0.14586157
76	0xbe381ef4	-0.17980558
77	0xbe82538a	-0.2545436
78	0xbdf77b1f	-0.1208403
79	0xbdaafd79	-0.08349127
80	0x3e0bcc10	0.13652062
81	0xbdde94c8	-0.108682215
82	0x3fbe628f	1.4873828
83	0xbdf2deaf	-0.1185888
84	0x3eab0076	0.3339879
85	0xbee1dd28	-0.4411404
86	0xbe23b989	-0.15988745
87	0xbf009d56	-0.50240076
88	0xbef73d31	-0.48288873
89	0x3f3554cf	0.7083253
90	0xb559aeb0	-8.1093003e-07
91	0xbcd9d7f2	-0.026592229
92	0xa2a02121	-4.3403163e-18
93	0xbe461208	-0.19342816
94	0xbf8784ef	-1.0587443
95	0xbdf33e35	-0.118770994
96	0x1ee1d48b	2.3910707e-20
97	0x9408b3fe	-6.9017425e-27
98	0x80002bf4	-1.5767e-41
99	0xb01af86e	-5.6377913e-10
100	0x9454093f	-1.0705088e-26
101	0xb7794f2c	-1.485999e-05
102	0x00000420	1.48e-42
103	0x38d9fa02	0.00010393934
104	0x00014c4f	1.1921e-40
105	0x2d8156a1	1.4704073e-11
106	0x23569081	1.1631563e-17
107	0xacc7b45c	-5.675944e-12
108	0x9a9785e6	-6.266846e-23
109	0x80008dc7	-5.086e-41
110	0x8d9d9652	-9.71206e-31
111	0x343489bc	1.6813914e-07
112	0x30a8adfd	1.2273059e-09
113	0xb7138aa2	-8.794161e-06
114	0xba660eae	-0.0008775991
115	0x3a805f00	0.0009793937
116	0x37dabef0	2.6076537e-05
117	0xa1b1689b	-1.2021675e-18
118	0x80007e4c	-4.5307e-41
119	0x2236a615	2.4753523e-18
120	0x1ee873a9	2.4611791e-20
121	0x22a7166a	4.5289173e-18
122	0x00005c2e	3.3068e-41
123	0x2e1927e0	3.482359e-11
124	0x8cfc8a8a	-3.8910128e-31
125	0xb6e5de78	-6.8506306e-06
126	0xbbcbe1a7	-0.006221968
127	0xb78473a4	-1.5789476e-05
128	0x397a6d5e	0.000238826
129	0x8000c746	-7.1486e-41
130	0x00004606	2.512e-41
131	0x0110d1da	2.6599184e-38
132	0x80010029	-9.1893e-41
133	0x3b1b8618	0.002373105
134	0x3a988238	0.0011635488
135	0x2e12e884	3.3403072e-11
136	0x0000e62a	8.2567e-41
137	0x80000d35	-4.738e-42
138	0x000019ec	9.299e-42
139	0x80006913	-3.7694e-41
140	0x8ff9c7e6	-2.4630294e-29
141	0x000076a7	4.2564e-41
142	0x90026daa	-2.5722462e-29
143	0x338fa6ba	6.689284e-08
144	0xbb02a818	-0.0019936617
145	0x37ad186e	2.0634583e-05
146	0x354333f1	7.2718746e-07
147	0x80016c9b	-1.30796e-40
148	0x00010de4	9.6819e-41
149	0xb6ecea40	-7.0606184e-06
150	0x9660e1fe	-1.8165886e-25
151	0xb9721a04	-0.0002308861
152	0x3ae83c48	0.001771816
153	0x8000463c	-2.5195e-41
154	0x8000ddba	-7.954e-41
155	0x2a6941ad	2.0717343e-13
156	0x80004a7a	-2.6717e-41
157	0xbb2fbeb4	-0.0026816549
158	0x38eaae29	0.00011190429
159	0x38fb5b65	0.00011985636
160	0x3e5e1b19	0.21690024
161	0x2bc0249f	1.3652585e-12
162	0xad0170af	-7.357822e-12
163	0x80004cfe	-2.762e-41
164	0x3ba7e835	0.005124117
165	0x3884e35d	6.3366e-05
166	0x9cb91e0d	-1.2250041e-21
167	0xbdddc561	-0.10828663
168	0x00003bbe	2.1431e-41
169	0xbc6aa5ee	-0.014321787
170	0xbdadab4f	-0.0847994
171	0xba911b79	-0.001107081
172	0x3b94ae55	0.0045373836
173	0x00005557	3.0614e-41
174	0xbd2a2e8e	-0.041548304
175	0xbe31923e	-0.17340943
176	0x25ee0eb4	4.1296382e-16
177	0xbc66156d	-0.014043194
178	0xbe69ba4b	-0.22824971
179	0x00008c2c	5.0284e-41
180	0xa1d9053f	-1.4705881e-18
181	0x294993db	4.475921e-14
182	0x3c510550	0.012757614
183	0xbd7811f3	-0.060563993
184	0x3dec5ce1	0.11541153
185	0xba0d9507	-0.000540093
186	0x800186f4	-1.40248e-40
187	0x3c43e9a4	0.01195756
188	0x8e0cca9b	-1.7353883e-30
189	0xbbc1e0a3	-0.0059166714
190	0xbe13bb9b	-0.14427035
191	0x801404df	-1.838457e-39
192	0xbd8f78da	-0.070054725
193	0xbbb60791	-0.005555101
194	0xbd7198e9	-0.058983717
195	0xbd2abe17	-0.04168519
196	0x3da19514	0.078897625
197	0x3ef89c4c	0.48556745
198	0xbddda62c	-0.108227104
199	0x3e51c274	0.20484334
200	0xb9d6a43b	-0.00040939622
201	0xbdbb432d	-0.09143672
202	0xbe8bb93a	-0.27289754
203	0xbe39d088	-0.18145955
204	0xbe0e175a	-0.13876095
205	0xbc4e567e	-0.0125938635
206	0x3d3d42cc	0.04620628
207	0x3ec3bf10	0.38231707
208	0x3cfbace1	0.030722084
209	0xbdc2c8c2	-0.09510948
210	0xbe82b7ec	-0.25530946
211	0xbb842aae	-0.004033408
212	0xbdb4dfbd	-0.08831737
213	0x3dcc5bd9	0.09978456
214	0xbd51d44e	-0.05122786
215	0xbd91ccb0	-0.07119119
216	0x3cb1e407	0.021715177
217	0xbed8cbff	-0.42343137
218	0x0b0b1cf4	2.6792208e-32
219	0xbcb9a1ba	-0.022660125
220	0x1883f478	3.4109557e-24
221	0x3d7101d2	0.058839627
222	0x3fc9a722	1.575413
223	0x3e2d936b	0.16950767
224	0x80002b1c	-1.5465e-41
225	0xb18275d0	-3.7968917e-09
226	0x80148856	-1.885618e-39
227	0xb61af4ae	-2.309021e-06
228	0x30996d90	1.1163355e-09
229	0xb11bad9d	-2.2654156e-09
230	0x9f207e31	-3.39857e-20
231	0xba4f71e3	-0.0007913394
232	0x0000da04	7.8209e-41
233	0x35811629	9.617698e-07
234	0x8000673b	-3.7032e-41
235	0x2b8b7146	9.907984e-13
236	0xb28af65b	-1.6177344e-08
237	0x80013a96	-1.12852e-40
238	0xad48bdfd	-1.141087e-11
239	0xb5bdde7d	-1.414635e-06
240	0x281cc482	8.7023504e-15
241	0x398d451e	0.00026945112
242	0x3ccfd7e1	0.025371494
243	0x80015d4c	-1.25304e-40
244	0xb016445e	-5.466684e-10
245	0x8000f68e	-8.8447e-41
246	0x00011d1a	1.02275e-40
247	0x882370e5	-4.9183735e-34
248	0x00002c81	1.5965e-41
249	0x00007f4c	4.5666e-41
250	0x000051af	2.9303e-41
251	0xb7379c2c	-1.0944012e-05
252	0x0000153e	7.62e-42
253	0x2e401231	4.3671903e-11
254	0x3c568ec7	0.013095564
255	0xb791f147	-1.73977e-05
