experiments/grail_wn_v4_ind/graph_classifier_chk.pth (torch, 102030 bytes, 21 tensors)

weight f4 [9, 32]
0	0xbe88b63b	-0.2670153
1	0xbeb000dd	-0.3437566
2	0xbdf6a1ab	-0.120425545
3	0x3e893a57	0.26802322
4	0xbd575224	-0.05256857
5	0xbe8684b3	-0.26273116
6	0xbe3cc98a	-0.18436256
7	0x3e7a9000	0.24468994
8	0xbe12ae17	-0.14324223
9	0xbe8c97c4	-0.27459538
10	0xbe97ee56	-0.29674023
11	0x3e2ac818	0.16677892
12	0xbe523baa	-0.20530573
13	0x3e0d51d1	0.13800742
14	0xbde0a630	-0.10969198
15	0xbe8420ee	-0.25806373
16	0x3d754dfc	0.059888825
17	0x3f06cf20	0.526598
18	0x3e897389	0.2684596
19	0x3dd911fb	0.105991326
20	0x3dd8c273	0.10583963
21	0x3e810aaf	0.25203463
22	0x3dcd0d34	0.10012284
23	0xbd5b6f1d	-0.053572763
24	0xbdc4a10e	-0.09601031
25	0x3e889d22	0.26682383
26	0xbdaf20ac	-0.085511535
27	0x3e28b21d	0.16474195
28	0xbeea2de8	-0.4573815
29	0xbcc55346	-0.02408756
30	0x3d8ab02e	0.06771885
31	0xbdf77aa1	-0.120839365
32	0xbe40bb24	-0.18821388
33	0xbe2a4b2b	-0.16630237
34	0xbf053f6c	-0.520499
35	0x3e22ad06	0.15886316
36	0xbe7845e8	-0.24245417
37	0xbe6ec110	-0.23315835
38	0xbf00faaa	-0.50382483
39	0x3e7a5d84	0.24449736
40	0xbe77b1c0	-0.241889
41	0xbe7653d6	-0.24055418
42	0xbe5f693b	-0.21817486
43	0x3e5669a3	0.20938735
44	0xbe6e6f6a	-0.23284689
45	0x3e851be9	0.25997856
46	0xbe82b63d	-0.25529662
47	0xbe6ecda7	-0.23320638
48	0x3e7fa874	0.24966604
49	0x3eb50011	0.35351613
50	0x3e3b7d5c	0.1830954
51	0x3e63530a	0.22199646
52	0x3e81d2ec	0.25356233
53	0x3e3a9d67	0.18224107
54	0x3e541cba	0.20714083
55	0xbe942c54	-0.2894007
56	0xbed76201	-0.4206696
57	0x3e3baa03	0.18326573
58	0xbf20644b	-0.62653035
59	0x3f0cc864	0.5499327
60	0xbef46b5d	-0.47738162
61	0xbe8a1ad3	-0.2697359
62	0x3e6822b4	0.22669488
63	0xbe52623f	-0.2054529
64	0x3d7cb7fc	0.0616989
65	0x3c83cac2	0.016087893
66	0xbd7b6804	-0.061378494
67	0xbcaed302	-0.02134085
68	0x3cb63b5a	0.022245098
69	0x3d3e9964	0.046533003
70	0xbd99f3a6	-0.075171754
71	0xbd131738	-0.035910815
72	0x3d2346b8	0.039862365
73	0x3d0b4766	0.034003638
74	0x3d3409eb	0.04395477
75	0xbd808774	-0.06275836
76	0x3d438636	0.047735415
77	0xbd2cee36	-0.042219363
78	0x3d10f0bf	0.035385843
79	0x3d3d12e3	0.04616059
80	0xbcb14784	-0.021640547
81	0xbb9bd4ee	-0.004755608
82	0xbd82f297	-0.063939266
83	0xbd6286eb	-0.05530445
84	0xbd0c0a78	-0.03418967
85	0xbd8705d4	-0.065929085
86	0xbd5adea5	-0.053434987
87	0xbd6fc596	-0.058538042
88	0x3bfc1124	0.007692473
89	0xbd81cde2	-0.06338097
90	0xbd3eca6a	-0.046579756
91	0x3d889485	0.06668953
92	0x3e322f40	0.17400837
93	0xbce31f9f	-0.027725039
94	0xbd2e831b	-0.0426055
95	0x3d6af31b	0.05736075
96	0xbddbb5b4	-0.107280165
97	0xbe0acf6a	-0.13555685
98	0xbe68cb7b	-0.22733872
99	0x3dec79a9	0.11546642
100	0xbd61d66a	-0.05513612
101	0xbdf3c15c	-0.11902115
102	0xbe609455	-0.21931584
103	0x3df37e88	0.11889368
104	0xbdb67d44	-0.08910611
105	0xbe009ac6	-0.12559041
106	0xbe006866	-0.12539825
107	0x3dab52e3	0.08365419
108	0xbdcd2b41	-0.10018016
109	0x3dcb7fcf	0.09936487
110	0xbdb22d54	-0.08700052
111	0xbdf0544e	-0.1173483
112	0x3d6f181a	0.058372594
113	0x3e850a00	0.25984192
114	0x3dd191c4	0.10232881
115	0x3d95dc69	0.073174305
116	0x3dacca9d	0.08437083
117	0x3dc6d732	0.09709014
118	0x3d827c81	0.063714035
119	0xbdca9f6e	-0.0989369
120	0xbe26a094	-0.16272193
121	0x3dd991f5	0.10623542
122	0xbe84417c	-0.2583121
123	0x3e716e71	0.23577286
124	0xbe96a7d4	-0.29424918
125	0xbd1844b5	-0.0371749
126	0x3d764898	0.060127825
127	0xbd8d4d72	-0.06899537
128	0x3df34456	0.118782684
129	0x3e14d178	0.14533031
130	0x3e827afb	0.25484452
131	0xbe0785fb	-0.13234703
132	0x3d727488	0.059193164
133	0x3e0a2fc2	0.1349478
134	0x3e527b55	0.2055486
135	0xbe0f76a4	-0.14010102
136	0x3dd63c0f	0.10460674
137	0x3e1c644a	0.15272632
138	0x3e0dd2e5	0.13849981
139	0xbdaef8e5	-0.085435666
140	0x3deac37c	0.11463067
141	0xbe016dea	-0.12639585
142	0x3de5bdae	0.11217819
143	0x3e082820	0.13296556
144	0xbd73e0e2	-0.059540637
145	0xbe612893	-0.21988134
146	0xbdd8e23d	-0.105900265
147	0xbd8bcfc4	-0.068267375
148	0xbddb9629	-0.10722
149	0xbdd64d26	-0.10463934
150	0xbd833c99	-0.064080425
151	0x3e109d3e	0.14122483
152	0x3e517f00	0.20458603
153	0xbdf2f7eb	-0.11863693
154	0x3e753fd4	0.2395013
155	0xbe63bb93	-0.22239523
156	0x3e437ff2	0.19091776
157	0x3d43f6fe	0.047842972
158	0xbd4ad163	-0.049516093
159	0x3d90a155	0.07062022
160	0xbe016b56	-0.12638602
161	0xbe3683cc	-0.17823714
162	0xbe5415dc	-0.20711464
163	0x3e3cc512	0.18434551
164	0xbd7b06cb	-0.061285775
165	0xbdf7db05	-0.121023215
166	0xbe5bc54b	-0.2146198
167	0x3dd0ff6b	0.10204967
168	0xbe01cffa	-0.12676993
169	0xbdb4cfd7	-0.08828705
170	0xbe0e20c0	-0.1387968
171	0x3da3c353	0.079962395
172	0xbe08a4a0	-0.1334405
173	0x3d9f9fae	0.07794128
174	0xbda32e1b	-0.07967778
175	0xbdf70281	-0.120610245
176	0x3dccbe44	0.09997228
177	0xb7e21469	-2.6950804e-05
178	0x3de66cf3	0.11251249
179	0x3d9482ba	0.072514966
180	0x3dad90be	0.08474873
181	0x3de36f27	0.11105185
182	0x3dac2c23	0.08406856
183	0xbdcb8ba7	-0.09938746
184	0xbdac9cc1	-0.08428336
185	0x3e02e48f	0.127825
186	0xbe162eee	-0.1466634
187	0x3e79e0ff	0.24402235
188	0xbd92a555	-0.07160441
189	0xbcfa250b	-0.030535242
190	0x3d76b96c	0.060235426
191	0xbda98a17	-0.08278292
192	0xbc73a613	-0.014871138
193	0xbcba93a3	-0.022775477
194	0xbd84a0a2	-0.06475951
195	0x3c15e059	0.009147727
196	0xbb8e889c	-0.004349781
197	0xbcb8bce3	-0.022551006
198	0xbd5b19da	-0.05349145
199	0x3cb446f9	0.022006499
200	0xbc3625ae	-0.011117382
201	0xbcb44991	-0.022007735
202	0xbcc0a691	-0.023516925
203	0x3c40c5ea	0.011765936
204	0xbc684cef	-0.014178499
205	0x3c62ec24	0.013850246
206	0xbc250535	-0.010072042
207	0xbcb2a2d7	-0.021806164
208	0x3baa7723	0.0052021905
209	0x3daa1099	0.08303947
210	0x3c85d65c	0.016337566
211	0x3c1df2d6	0.009640416
212	0x3c1cd02b	0.0095711155
213	0x3c4edd13	0.01262595
214	0x3bab5493	0.005228588
215	0xbc39a829	-0.011331596
216	0xbcece8ad	-0.028919542
217	0x3c5d5b14	0.013510484
218	0xbd98cbb7	-0.074607305
219	0x3d84453f	0.0645852
220	0xbde710dc	-0.112825125
221	0xbac0fd2c	-0.0014723889
222	0x3bc21389	0.005922739
223	0xbbd2f64f	-0.0064380537
224	0xa3bcc100	-2.046474e-17
225	0x240862e6	2.957407e-17
226	0xa79d3a28	-4.3639307e-15
227	0xa37f40d4	-1.3837306e-17
228	0xa2e45d71	-6.189846e-18
229	0x27ad06b9	4.8024435e-15
230	0xa7abf85b	-4.77313e-15
231	0x231bb8f0	8.441729e-18
232	0x234948eb	1.0911673e-17
233	0x26c12dde	1.3404498e-15
234	0x22d15259	5.6736752e-18
235	0x231c956f	8.488421e-18
236	0xa6c3cc74	-1.358626e-15
237	0xa6977c7e	-1.0511473e-15
238	0x2730e960	2.455142e-15
239	0xa79d7399	-4.3701585e-15
240	0xa39bcc96	-1.689178e-17
241	0x27961d98	4.166545e-15
242	0x2397910d	1.6432884e-17
243	0xa740dcc2	-2.6765026e-15
244	0x27478e90	2.769408e-15
245	0x23665259	1.2485763e-17
246	0x22b4dbb7	4.902173e-18
247	0x26c61016	1.374337e-15
248	0xa6fce1a3	-1.7547172e-15
249	0xa19032b6	-9.771243e-19
250	0x27b95aae	5.144613e-15
251	0x26aadfb9	1.185676e-15
252	0xa7a6b43f	-4.626968e-15
253	0xa7503572	-2.8894771e-15
254	0xa2ad6acc	-4.700482e-18
255	0xa63156ca	-6.152683e-16

weight f4 [4, 8, 32]
0	0xaec23a44	-8.832449e-11
1	0x94a2f625	-1.6454907e-26
2	0xbe48ce14	-0.19609863
3	0x00001185	6.285e-42
4	0x27f68680	6.842454e-15
5	0xbaa29df2	-0.001240669
6	0xbb4a8b19	-0.0030905663
7	0x00002390	1.2757e-41
8	0xbc920100	-0.017822742
9	0xbe98309d	-0.2972459
10	0x3ed456f1	0.4147258
11	0x3c3ac21f	0.011398821
12	0xbcf2a195	-0.029618064
13	0x3c855b21	0.016278805
14	0xae832b76	-5.9649105e-11
15	0x2aa92c43	3.0051143e-13
16	0x3c9169d1	0.017750653
17	0xb2c33fd2	-2.273001e-08
18	0xad9e823c	-1.8020356e-11
19	0x27dae372	6.075375e-15
20	0x80004293	-2.3882e-41
21	0x3c37cddb	0.011218513
22	0x80000ecf	-5.312e-42
23	0x3e927cd2	0.28610855
24	0xbc191129	-0.00934247
25	0x3ad83acf	0.0016497019
26	0xbd6f30f6	-0.058396302
27	0x162ce089	1.39649e-25
28	0x2b1b043e	5.507295e-13
29	0x3f1d21ba	0.6137959
30	0x2e5dc5ad	5.0425154e-11
31	0x0000cefa	7.4249e-41
32	0x0eb58004	4.474322e-30
33	0xafd0bcf7	-3.7969247e-10
34	0x3e6a4323	0.22877173
35	0xb172711c	-3.527993e-09
36	0x2881252d	1.4338e-14
37	0xbc4bec5f	-0.012446492
38	0xbde12db1	-0.10995043
39	0x317e338a	3.6991161e-09
40	0x0e6f4306	2.9491295e-30
41	0x3d2ccab8	0.042185515
42	0xbbe043fa	-0.006844041
43	0xbb17eb42	-0.0023180996
44	0xb9176057	-0.00014436372
45	0x3b3c4d4c	0.0028732596
46	0x8000d629	-7.6826e-41
47	0xb657c1c6	-3.2150288e-06
48	0x364be57c	3.0382935e-06
49	0xb53c171f	-7.0069103e-07
50	0x0d3c54d4	5.803408e-31
51	0x29ccd709	9.0967225e-14
52	0x0000e28b	8.1268e-41
53	0x3b755bdd	0.0037438788
54	0x8001a443	-1.50761e-40
55	0x3ef28411	0.47366384
56	0x33bfd99f	8.9337156e-08
57	0xbe8d626e	-0.27614158
58	0xbc434773	-0.01191889
59	0xb7b72e67	-2.1836908e-05
60	0xb66b4fe6	-3.5064236e-06
61	0x3dacbf36	0.08434908
62	0x8000637e	-3.5691e-41
63	0x00004687	2.53e-41
64	0x8000c999	-7.232e-41
65	0x000085af	4.7957e-41
66	0x3d39a5b9	0.04532406
67	0x1f803e95	5.431364e-20
68	0x0000bd7c	6.7974e-41
69	0xb32215a0	-3.7738232e-08
70	0xbe88bf80	-0.26708603
71	0xa968d640	-5.170018e-14
72	0x80042d96	-3.83695e-40
73	0x3e239b9c	0.15977329
74	0xbeb009d2	-0.34382492
75	0xbbaf7396	-0.005354355
76	0x9ceec0ad	-1.5799324e-21
77	0xab6e8f54	-8.4753493e-13
78	0x0000bbc2	6.7355e-41
79	0x000036f6	1.9716e-41
80	0x0000917f	5.2194e-41
81	0xb68bb24e	-4.16328e-06
82	0x9a0ae406	-2.8721927e-23
83	0x80007f5e	-4.5691e-41
84	0x80007bbd	-4.4389e-41
85	0x3191f85b	4.24829e-09
86	0x00016021	1.2632e-40
87	0xbe86b0fd	-0.26306906
88	0xa4458be9	-4.2836074e-17
89	0xbe947f55	-0.29003397
90	0xbc9ce45b	-0.019151857
91	0x9c31b15e	-5.879363e-22
92	0x8000d8ca	-7.7769e-41
93	0x3cc49cde	0.024000581
94	0x00007dee	4.5175e-41
95	0xb6993c3a	-4.5667666e-06
96	0x00008cc0	5.0492e-41
97	0x00016872	1.29303e-40
98	0x2a7f0cef	2.2653037e-13
99	0x800101d7	-9.2496e-41
100	0x800049b9	-2.6447e-41
101	0x16bdd7fb	3.06709e-25
102	0xbe3b1e49	-0.18273272
103	0x00006821	3.7354e-41
104	0x00003807	2.0099e-41
105	0x055832e8	1.0165621e-35
106	0xbe1fbedc	-0.15600151
107	0x3032ba32	6.502062e-10
108	0x80000e24	-5.073e-42
109	0x8000bf42	-6.861e-41
110	0x000004d1	1.728e-42
111	0x00002703	1.3995e-41
112	0x80011c44	-1.01975e-40
113	0x00006616	3.6622e-41
114	0x000042ec	2.4007e-41
115	0x8000d5f9	-7.6759e-41
116	0x0000bbe6	6.7405e-41
117	0xbe648d39	-0.22319497
118	0x800155c7	-1.22607e-40
119	0xbe5506c8	-0.20803368
120	0x80013eb4	-1.14329e-40
121	0xbc3ff847	-0.011716909
122	0x0b58e38f	4.1771283e-32
123	0x958d716d	-5.71284e-26
124	0x0000e35b	8.156e-41
125	0x0000a51f	5.9234e-41
126	0xa6fa115f	-1.7351943e-15
127	0x30f1df83	1.7598584e-09
128	0x0001a984	1.52646e-40
129	0x0000024d	8.25e-43
130	0x3e21b558	0.15791833
131	0x1a4476e4	4.062789e-23
132	0x0012d4bb	1.729352e-39
133	0xb91d5db9	-0.00015007601
134	0xbcecc7da	-0.02890389
135	0x0001d1e2	1.67127e-40
136	0x0000b0ac	6.3378e-41
137	0xbcdf15e7	-0.027232124
138	0xbde9050b	-0.11377915
139	0xb9ad8eb4	-0.00033103453
140	0xb85397c9	-5.044768e-05
141	0x8e11852c	-1.793675e-30
142	0x000192f0	1.44547e-40
143	0x8000fb19	-9.0077e-41
144	0xaabf7a43	-3.4013252e-13
145	0x34ad43b9	3.2273036e-07
146	0x80001f5d	-1.1251e-41
147	0x800033ae	-1.8539e-41
148	0x00015992	1.23967e-40
149	0xb9f9e519	-0.00047663672
150	0x800003af	-1.321e-42
151	0x3dc2d395	0.09513012
152	0x8001a412	-1.50693e-40
153	0xbe10de79	-0.14147367
154	0xbdb09bf6	-0.08623497
155	0xb7a7147d	-1.9917492e-05
156	0xb5ad9244	-1.2932073e-06
157	0x2982d50b	5.810117e-14
158	0x0000cd4f	7.3651e-41
159	0x80003324	-1.8346e-41
160	0xb0ef2025	-1.7398675e-09
161	0xb196a135	-4.3839017e-09
162	0xbcc66e39	-0.02422248
163	0x17c8fd50	1.2988642e-24
164	0xae2098c7	-3.651548e-11
165	0xbb0bef75	-0.0021352444
166	0xbe38f316	-0.1806148
167	0x9ba052cb	-2.6523283e-22
168	0xbc495bc5	-0.012289946
169	0xbe0e35c7	-0.13887702
170	0xbe0b2931	-0.13589932
171	0x3bf24a12	0.007394084
172	0xbce8bc58	-0.028410122
173	0x3c2012af	0.0097700795
174	0xadce6983	-2.3466345e-11
175	0xad96832c	-1.7111278e-11
176	0x3c646b95	0.013941665
177	0xb60ae9a3	-2.0699597e-06
178	0xb0d1a87b	-1.5254636e-09
179	0x27c32f0b	5.4174377e-15
180	0x8000147c	-7.348e-42
181	0x3c2762b0	0.0102164
182	0x0000568b	3.1046e-41
183	0xbbf65abe	-0.0075181415
184	0xbc029252	-0.007969456
185	0xbc258ecd	-0.010104847
186	0x3d1c7dfe	0.038206093
187	0x1ead5fd8	1.8356728e-20
188	0x2e5f6cd9	5.0801006e-11
189	0x3f1a10b0	0.60181713
190	0x2e558311	4.8547003e-11
191	0xb77f9c04	-1.523551e-05
192	0x875183fa	-1.5762197e-34
193	0x9888ba88	-3.5343524e-24
194	0x3e61d2d6	0.22053084
195	0x1a22eb34	3.369081e-23
196	0x8000a0b6	-5.7652e-41
197	0xba8809ec	-0.0010378934
198	0xbc8f968f	-0.017527847
199	0x8000197b	-9.14e-42
200	0x00009841	5.4618e-41
201	0x3e29edf3	0.16594677
202	0x3e113b98	0.1418289
203	0xa664d70a	-7.9394823e-16
204	0x05dba0a4	2.0653671e-35
205	0x3af9accd	0.0019048691
206	0x0000d004	7.4622e-41
207	0x2a2c163d	1.5284384e-13
208	0x32f9f2f8	2.9097905e-08
209	0x000075aa	4.221e-41
210	0x00011587	9.9558e-41
211	0xa23b2b4f	-2.5366153e-18
212	0x8000395c	-2.0577e-41
213	0xbe023a91	-0.12717654
214	0x8000a6cb	-5.9834e-41
215	0x3e5d3ae1	0.21604492
216	0xa83c488c	-1.04518275e-14
217	0xbe068339	-0.13135995
218	0x3db9961d	0.09061835
219	0x1354f2b0	2.6877816e-27
220	0x80005326	-2.9828e-41
221	0x3dd1d118	0.102449596
222	0x80014766	-1.17448e-40
223	0xa92fcf7b	-3.9037766e-14
224	0x8e457f67	-2.4343467e-30
225	0x8dd67248	-1.321628e-30
226	0xbe716085	-0.23571976
227	0xb0c23320	-1.4129888e-09
228	0x80002050	-1.1592e-41
229	0xb8d663ae	-0.00010222882
230	0xbd5aa074	-0.053375676
231	0x31b662e5	5.30814e-09
232	0x8000cd0f	-7.3561e-41
233	0xbe26893d	-0.1626329
234	0xbe92d0aa	-0.28674823
235	0x80001921	-9.015e-42
236	0xb1c154b3	-5.6266685e-09
237	0xb9a02aab	-0.00030549368
238	0x00006748	3.705e-41
239	0xa9da2a83	-9.6885194e-14
240	0xb02fb01d	-6.39149e-10
241	0x36abd77f	5.121284e-06
242	0x0000ab60	6.1478e-41
243	0x800023fc	-1.2909e-41
244	0x0000db56	7.8683e-41
245	0xbbcca7a2	-0.0062455693
246	0x31526809	3.061816e-09
247	0xbb8cfb66	-0.00430243
248	0x2eaed8c9	7.951113e-11
249	0xbe9e347b	-0.30899414
250	0xbe2f6ada	-0.17130604
251	0x8eda691a	-5.384236e-30
252	0x0001787c	1.35057e-40
253	0xb9d72f5b	-0.00041043278
254	0x8001470f	-1.17327e-40
255	0x00005acf	3.2576e-41

w_comp f4 [9, 4]
0	0xbccf1999	-0.02528076
1	0xbf101722	-0.562853
2	0xbe285bfb	-0.16441338
3	0x3fff0e95	1.9926325
4	0x3e88028a	0.26564437
5	0xbefbee52	-0.4920526
6	0xbf0be759	-0.54649884
7	0xbedcb203	-0.43104562
8	0x3f8f6b5f	1.1204642
9	0xbe822e73	-0.25426063
10	0x3e21fa79	0.15818204
11	0x3e193448	0.1496135
12	0x3ea452bb	0.32094368
13	0x3eba7153	0.36414585
14	0x3e93120d	0.2872471
15	0xbe7c13ab	-0.24616878
16	0x3f2e24a7	0.6802468
17	0xbf55ce8f	-0.8351831
18	0xbe783226	-0.2423788
19	0xbf5b3347	-0.8562512
20	0xbd2bb2d5	-0.041918594
21	0x3e866d39	0.26255205
22	0x3f12a006	0.57275426
23	0x3dfa64d8	0.12226266
24	0x3dbd8152	0.092531815
25	0x3f168187	0.58791393
26	0x3ea52cd8	0.32260776
27	0xbeb25f74	-0.3483845
28	0x3dcb57e6	0.09928875
29	0xbe150ce1	-0.14555694
30	0xbdac6113	-0.08416953
31	0x3e038bbe	0.12846276
32	0x3e33223f	0.17493533
33	0x3e84a16f	0.25904414
34	0x3ebdfec3	0.3710843
35	0xbe662f4f	-0.22478984

self_loop_weight f4 [8, 32]
0	0xa52ad6cc	-1.4817926e-16
1	0xae23d340	-3.7249537e-11
2	0x000007e0	2.825e-42
3	0xb7886e60	-1.626386e-05
4	0x299c33f6	6.9368055e-14
5	0x3d579bb1	0.052638713
6	0x3f284785	0.6573413
7	0xbb4dbd4d	-0.003139335
8	0xb480d536	-2.399699e-07
9	0xb20b9ea3	-8.126935e-09
10	0x3d54c2a3	0.051943433
11	0xbd9a460f	-0.07532894
12	0xbc8bc1fc	-0.017060272
13	0xbdbb1271	-0.09134377
14	0xb2f27854	-2.8227227e-08
15	0xbc7b1629	-0.015325108
16	0xb15c3021	-3.2041572e-09
17	0xbb90e162	-0.004421399
18	0xbc87d3bb	-0.016580453
19	0xbc850356	-0.016236942
20	0xaf137619	-1.3411529e-10
21	0xbec8a7e9	-0.39190605
22	0x8001009c	-9.2054e-41
23	0xbead0871	-0.33795503
24	0x0000d793	7.7333e-41
25	0xbe7e0811	-0.24807765
26	0xbe25d085	-0.16192825
27	0xbdc9c007	-0.098510794
28	0x3c596c5d	0.013270465
29	0x3e170469	0.14747776
30	0x1f33c63e	3.8068706e-20
31	0x80002d06	-1.6151e-41
32	0xb9639792	-0.00021704871
33	0xbd118321	-0.035525445
34	0x3e721aec	0.23643082
35	0xbdf8f7b1	-0.121566184
36	0xbbb64002	-0.0055618295
37	0xbe5cd08f	-0.21563934
38	0xbf459862	-0.7718564
39	0xbd8ada50	-0.06779921
40	0xbd12391a	-0.035698988
41	0xbe120a7f	-0.14261816
42	0x3dc40a27	0.09572249
43	0xbebbe0a3	-0.36694822
44	0xbdb5694e	-0.08857976
45	0xbe9aed22	-0.30259043
46	0xba4f56fb	-0.00079093844
47	0xbe24b88a	-0.16086021
48	0xbe2180b1	-0.15771748
49	0xb8fc2225	-0.00012022656
50	0xbaaaebca	-0.0013040241
51	0xbdb8258d	-0.08991537
52	0xb6bb694e	-5.5852934e-06
53	0xbf2ad46e	-0.6673039
54	0xba516ed9	-0.0007989235
55	0xbec2a160	-0.38013744
56	0xbe1e8079	-0.15478696
57	0xbe93faaf	-0.28902194
58	0xbc6a8d55	-0.014315923
59	0xbe70f595	-0.23531182
60	0xba7ac14b	-0.0009565546
61	0xbed3012a	-0.41211826
62	0xb98dd9a1	-0.00027055762
63	0xb9eb28b8	-0.0004485303
64	0xbb37e007	-0.0028057115
65	0xbd339c09	-0.04384998
66	0xbf182b60	-0.59441185
67	0xba8e90e4	-0.0010876921
68	0xb0452915	-7.1726564e-10
69	0xbdf4cb63	-0.119528554
70	0x3e6e4aa3	0.23270659
71	0xba766caa	-0.00094003475
72	0xb9da9e69	-0.00041698225
73	0x3c98b79a	0.018642236
74	0x3e291c35	0.16514666
75	0xbddf49be	-0.10902737
76	0xbbf1f454	-0.0073838625
77	0xbbd73d65	-0.006568598
78	0xb53186fb	-6.613406e-07
79	0xbcaa652e	-0.0208002
80	0xbb470207	-0.0030366199
81	0xbc81e5d7	-0.015856666
82	0xbafafb60	-0.0019148402
83	0xba4c8bde	-0.0007802824
84	0xb8ea32ac	-0.00011167428
85	0x3f8dffb7	1.1093663
86	0xac5994f4	-3.092024e-12
87	0x3f2c45b9	0.6729389
88	0xbb8451bb	-0.0040380633
89	0xbe3b18e1	-0.1827121
90	0xbe002042	-0.12512305
91	0xb5daefda	-1.6312072e-06
92	0x046255c8	2.6605561e-36
93	0x3e3327d2	0.17495659
94	0xb302b7e3	-3.0435228e-08
95	0x80000bca	-4.229e-42
96	0xb73615b8	-1.0853102e-05
97	0x00008a98	4.9718e-41
98	0x3fec1f9e	1.8447149
99	0xb89677c6	-7.174867e-05
100	0x00010bb3	9.6032e-41
101	0xbc679a24	-0.014135871
102	0xbf3e8fae	-0.7443799
103	0xbb0ce66b	-0.0021499644
104	0x3bfa7106	0.007642868
105	0x3f312af9	0.69206196
106	0xbf250914	-0.6446698
107	0xbe18078f	-0.14846633
108	0xbd25220d	-0.040315676
109	0x3c88faf0	0.016721219
110	0x37382757	1.0976414e-05
111	0xb930bcde	-0.00016855026
112	0x80004dc1	-2.7893e-41
113	0x00017f74	1.37557e-40
114	0xb9825b26	-0.00024863443
115	0x340d943b	1.3185574e-07
116	0x00017be3	1.36278e-40
117	0x39521e4e	0.0002003845
118	0x8000a2d7	-5.8416e-41
119	0xbe0dd7e7	-0.13851891
120	0xba46942e	-0.0007575181
121	0x3e51e40a	0.20497146
122	0x80008b68	-5.001e-41
123	0x80011364	-9.8792e-41
124	0x00007764	4.2829e-41
125	0x3e7826f1	0.24233605
126	0x8002cfa2	-2.58156e-40
127	0x3ad76da2	0.0016435871
128	0xb38f581b	-6.674983e-08
129	0xba29fcb2	-0.0006484493
130	0x3ff754e8	1.9322786
131	0xbd001038	-0.031265467
132	0xbbedaf2a	-0.007253547
133	0xbe03bc79	-0.12864865
134	0x3e4852b1	0.19562794
135	0xbb277259	-0.0025550334
136	0xbaaffad4	-0.0013426193
137	0x3fce19b0	1.6101589
138	0xbf227860	-0.6346493
139	0xb98aa8ea	-0.00026447262
140	0xb9eba2ff	-0.00044944134
141	0x3e6e9137	0.23297583
142	0xb1cc73f7	-5.950365e-09
143	0x3c48bb8b	0.012251745
144	0x3cbd82e9	0.023133712
145	0xb8c21f6e	-9.256495e-05
146	0xae867a69	-6.115359e-11
147	0x3b95a33c	0.004566578
148	0x94e9e3ba	-2.361681e-26
149	0xb51e4d37	-5.897195e-07
150	0x00005534	3.0565e-41
151	0xbd997626	-0.07493238
152	0x3dbf07ba	0.093276456
153	0xbec0e43b	-0.37674126
154	0x3ff391f7	1.902892
155	0xbd92fe4e	-0.07177411
156	0xb8abf169	-8.1988816e-05
157	0xbe7b2d97	-0.2452911
158	0xaa1a0c87	-1.3682294e-13
159	0xb74eb39a	-1.2320374e-05
160	0xbbae26b9	-0.0053146747
161	0xbb83a4ff	-0.004017472
162	0xbf102f74	-0.5632241
163	0xbd9a7590	-0.075419545
164	0xb33ca29e	-4.392006e-08
165	0xbe285b95	-0.16441186
166	0xbeee973b	-0.46599755
167	0xbd0afa3c	-0.03393005
168	0xbb072d6b	-0.0020626436
169	0xbe69eb2a	-0.22843614
170	0x3fa8eb3a	1.3196785
171	0x3cafd61a	0.021464396
172	0xbd9770b8	-0.07394546
173	0xbdc2c80a	-0.09510811
174	0xa8a95ba6	-1.8802515e-14
175	0xbd1938d0	-0.037407696
176	0xbdf012d0	-0.11722338
177	0xbcefb756	-0.029262226
178	0xbd358122	-0.044312604
179	0xbd2e2978	-0.042520016
180	0xb4924fee	-2.7252776e-07
181	0x3e7c6e09	0.2465135
182	0xb805b041	-3.187382e-05
183	0x3f8842ad	1.0645348
184	0xb7d11a1f	-2.4926905e-05
185	0xbe64f211	-0.22357966
186	0xbf0ac97a	-0.5421368
187	0xbe6b9ffa	-0.23010245
188	0xbcbd5bf6	-0.02311514
189	0x3e2ca6dc	0.16860527
190	0xb903bb4f	-0.00012562911
191	0xb2dcd36c	-2.5707514e-08
192	0xbaa5fcda	-0.0012663857
193	0xbd31d44e	-0.04341536
194	0xbe96b7cf	-0.2943711
195	0xbb998933	-0.004685545
196	0xba59835a	-0.0008297466
197	0xbdccf045	-0.10006765
198	0x3f9347da	1.1506302
199	0xbc25047e	-0.010071872
200	0xbcd6a155	-0.026199976
201	0x3e54e773	0.20791416
202	0x3f4f4730	0.80968
203	0xbe0ecbfc	-0.13945001
204	0xbd802308	-0.06256682
205	0xbd8529c8	-0.0650211
206	0xba5e89ec	-0.000848918
207	0xbcd041a0	-0.025421917
208	0xbaf967c7	-0.001902812
209	0xb82eee3b	-4.1706702e-05
210	0x38dca542	0.00010521199
211	0xbafd2492	-0.0019313267
212	0xb88c6185	-6.693885e-05
213	0xbef3ab62	-0.47591692
214	0xb8a04ebc	-7.64406e-05
215	0x3aa3421b	0.0012455614
216	0xbc2d3683	-0.010572079
217	0xbdb1418b	-0.086550795
218	0xbf03b850	-0.51453114
219	0x111a2884	1.2160943e-28
220	0x80007a7c	-4.3939e-41
221	0x3e379316	0.17927203
222	0xb2a10abe	-1.8747752e-08
223	0x39bdb8b5	0.00036186507
224	0xb72d4e96	-1.0329901e-05
225	0x3c9c567b	0.019084206
226	0x3f84d2b1	1.0376798
227	0xba94135b	-0.0011297272
228	0x00008647	4.817e-41
229	0xbb2426f7	-0.002504764
230	0x3d545855	0.051842052
231	0xbb81ed02	-0.003965021
232	0x8000664a	-3.6694e-41
233	0xbd74adef	-0.05973619
234	0xbf15fec5	-0.5859187
235	0x80003fd2	-2.2894e-41
236	0x31a099cf	4.674099e-09
237	0xbae37a18	-0.0017355112
238	0xb3f2539c	-1.12842116e-07
239	0xb0ca00d8	-1.4697674e-09
240	0xbcfb40db	-0.030670574
241	0x81dc54dc	-8.0937004e-38
242	0xba05e96f	-0.00051083317
243	0xb0db586c	-1.5959478e-09
244	0xb6f66658	-7.3432857e-06
245	0x3e6d0afb	0.2314872
246	0x80009f69	-5.7186e-41
247	0xbdbf591d	-0.09343169
248	0xb9ab7af6	-0.00032707275
249	0xbe9fa523	-0.31180677
250	0x3d058f26	0.03260722
251	0x92e93db2	-1.4719576e-27
252	0x00019f7e	1.4905e-40
253	0xba5f1016	-0.0008509172
254	0x30c41960	1.4268089e-09
255	0x800011f9	-6.447e-42

weight f4 [8, 80]
0	0x0000b192	6.37e-41
1	0x9eca7367	-2.1435311e-20
2	0x0000935b	5.2861e-41
3	0x80002ab8	-1.5325e-41
4	0x0000a3f7	5.882e-41
5	0x984f08c9	-2.6758558e-24
6	0x8001482a	-1.17723e-40
7	0x80003e78	-2.241e-41
8	0x9cf9ca8f	-1.6529798e-21
9	0x000080ff	4.6275e-41
10	0x8000813d	-4.6362e-41
11	0x00008a14	4.9533e-41
12	0x000083a2	4.7221e-41
13	0x9cb0d1a7	-1.1700897e-21
14	0x80000b06	-3.954e-42
15	0x00004a0a	2.656e-41
16	0x0000d8a9	7.7723e-41
17	0x800087f5	-4.8772e-41
18	0x8000d10b	-7.499e-41
19	0x0000ee1f	8.5422e-41
20	0x000005a0	2.018e-42
21	0x800103d7	-9.3213e-41
22	0x8000b90c	-6.6382e-41
23	0x80005456	-3.0254e-41
24	0x0000cda9	7.3777e-41
25	0x00003770	1.9887e-41
26	0x8001088e	-9.4904e-41
27	0x8000c4a1	-7.0537e-41
28	0x80016264	-1.27131e-40
29	0x00009edf	5.6992e-41
30	0x8000b6d6	-6.5589e-41
31	0x80012486	-1.04938e-40
32	0x00011be8	1.01846e-40
33	0x8000164c	-7.999e-42
34	0x8000cd10	-7.3563e-41
35	0x8000d963	-7.7984e-41
36	0x0000c9fb	7.2457e-41
37	0x8000e721	-8.2913e-41
38	0x000099d7	5.5187e-41
39	0x01d2117e	7.7166917e-38
40	0x80014e6d	-1.1997e-40
41	0x8000aac8	-6.1265e-41
42	0x0000e1b4	8.0967e-41
43	0x000056a7	3.1085e-41
44	0x891e787d	-1.9075212e-33
45	0x0001a183	1.49775e-40
46	0x8000de27	-7.9693e-41
47	0x80002e9c	-1.672e-41
48	0x000080bd	4.6183e-41
49	0x800099fb	-5.5238e-41
50	0x8000ce54	-7.4017e-41
51	0x00011e37	1.02675e-40
52	0x0000815a	4.6403e-41
53	0x00000a07	3.597e-42
54	0x0000bbee	6.7416e-41
55	0x0000f521	8.7936e-41
56	0x8000f1e1	-8.677e-41
57	0x8000da6c	-7.8355e-41
58	0x00003f42	2.2693e-41
59	0x800095e0	-5.3765e-41
60	0x00012c85	1.07806e-40
61	0x80013e95	-1.14286e-40
62	0x00019ae7	1.47404e-40
63	0x800039f7	-2.0794e-41
64	0x8001619d	-1.26853e-40
65	0x8000a657	-5.9671e-41
66	0x80008d5a	-5.0707e-41
67	0x80009381	-5.2914e-41
68	0x80018558	-1.3967e-40
69	0x80008aee	-4.9839e-41
70	0x80009bbe	-5.587e-41
71	0x0000ae64	6.256e-41
72	0x0000b939	6.6445e-41
73	0x800081a2	-4.6503e-41
74	0x0000930f	5.2755e-41
75	0x0000ac2c	6.1764e-41
76	0x8000bb01	-6.7084e-41
77	0x00002893	1.4555e-41
78	0x800091c8	-5.2296e-41
79	0x00009508	5.3462e-41
80	0x3d6c1811	0.05764014
81	0xbe864217	-0.26222298
82	0xbc842dae	-0.016135063
83	0x3b68169b	0.0035413865
84	0xbc3d2f9f	-0.011546998
85	0x3f1227f2	0.570922
86	0xbeadbccd	-0.33933106
87	0xbe624a28	-0.22098601
88	0x3ca1a5e3	0.019732421
89	0xbe173b2f	-0.1476867
90	0xbe76636b	-0.24061362
91	0x979e8553	-1.0244166e-24
92	0x3db17160	0.08664203
93	0x3da3a4d6	0.07990424
94	0xbf3ffaa1	-0.74991804
95	0x3d6f2ecf	0.05839425
96	0x3ec8856f	0.39164302
97	0x3eeb23be	0.45925707
98	0x3e3b69b0	0.18302035
99	0xbecc3d32	-0.39890438
100	0x3e89220e	0.26783794
101	0x3ec21dac	0.37913263
102	0x3e25e6d1	0.1620133
103	0xbeba8944	-0.3643285
104	0x3ea40a65	0.3203918
105	0x3ec18220	0.3779459
106	0x3ed00090	0.4062543
107	0xbeaae900	-0.3338089
108	0x3eb30ec9	0.34972218
109	0xbea14876	-0.31500596
110	0x3e9af75b	0.30266842
111	0x3ec0b0d0	0.37634897
112	0xbe8a84c5	-0.2705442
113	0xbefae877	-0.49005482
114	0xbecad611	-0.39616445
115	0xbe9c7c6f	-0.30563685
116	0xbe9a1122	-0.30091196
117	0xbec3b019	-0.3822029
118	0xbe9c5784	-0.3053552
119	0x3e626bf3	0.22111492
120	0x3e81a308	0.25319695
121	0xbeca2862	-0.39483935
122	0x3e1eac6e	0.15495464
123	0xbe19e5d7	-0.15029083
124	0x3ec2567d	0.3795661
125	0x3e71d6ab	0.23617046
126	0xbe9071c4	-0.28211796
127	0x3ea0f92a	0.31440097
128	0x3bec440e	0.007210261
129	0xbcab6dae	-0.020926323
130	0x3f791a3d	0.9730566
131	0x3d32b9e6	0.043634318
132	0x3e4b2728	0.19839156
133	0x3eab17ff	0.33416745
134	0x3f732391	0.94976145
135	0xbeda64d5	-0.42655054
136	0x3eb1e00f	0.34741256
137	0x3eddc545	0.43314567
138	0x3e40db23	0.18833594
139	0xbe1daef1	-0.15398766
140	0x3e9f2697	0.3108413
141	0xbef40e70	-0.47667265
142	0x3ee26eed	0.44225255
143	0x3eac3770	0.33636045
144	0xbe792113	-0.24329023
145	0xbf359a38	-0.70938444
146	0xbbf5a798	-0.0074967854
147	0xbe55ab1b	-0.20866053
148	0xbedb3ff4	-0.4282223
149	0x390c99cf	0.00013408739
150	0xbdfd4575	-0.123667635
151	0x3f0fa633	0.56112975
152	0x3f364827	0.71203846
153	0x3c0f12eb	0.008732538
154	0x3f86fea3	1.0546459
155	0xbf81964c	-1.0123992
156	0x3f749691	0.95542246
157	0x3e0ec113	0.1394084
158	0xbe315399	-0.17317046
159	0x3e0045a2	0.12526563
160	0xbe111c19	-0.14170875
161	0x3d56c2bd	0.05243181
162	0x3e6a0a49	0.22855486
163	0xbe9f7747	-0.3114569
164	0xbe83a1d1	-0.25709394
165	0xbedab436	-0.42715615
166	0xbea672d0	-0.3250947
167	0x3e718572	0.23586062
168	0xbdfb453e	-0.12269066
169	0x3e350a73	0.17679767
170	0xbf303200	-0.68826294
171	0xbe86d7b9	-0.26336458
172	0x3e8fca39	0.2808397
173	0xbd870c3a	-0.06594129
174	0xbd4fce8f	-0.0507341
175	0x3c5ede42	0.013602795
176	0x3d8f6cd6	0.07003181
177	0x3d084c19	0.033275697
178	0x3e7274da	0.23677388
179	0xbd60c856	-0.054878555
180	0x3da408f5	0.08009521
181	0x3d6bcacf	0.05756646
182	0x3eb0188f	0.34393737
183	0xbd6e06bf	-0.058111902
184	0x3dad214c	0.084536165
185	0x3d5455f2	0.051839776
186	0x3d58f249	0.052965436
187	0xbda1d6ea	-0.0790232
188	0x3d918b11	0.07106603
189	0xbdba7ed9	-0.091062255
190	0x3dd07bfc	0.10179898
191	0x3d6bbda2	0.057553895
192	0xbdbc6cde	-0.09200452
193	0xbc4f08a5	-0.012636338
194	0xbd6bdd50	-0.057584107
195	0xbdb92db5	-0.09041921
196	0xbdd233dc	-0.10263798
197	0xbd8d2b87	-0.06893068
198	0xbdade730	-0.08491361
199	0x3e0f7418	0.1400913
200	0x3e15a6e4	0.14614445
201	0xbd8e6d15	-0.069543995
202	0x3e321aa8	0.17392981
203	0xbea55816	-0.32293767
204	0x3e05f0f6	0.130802
205	0x3d0ea615	0.034826357
206	0xbdbebe4d	-0.09313641
207	0x3dad7de1	0.08471275
208	0xbd5fbcbc	-0.05462335
209	0xbdae125d	-0.08499596
210	0x3d802119	0.06256313
211	0x3d818ff0	0.06326282
212	0x3e3dc731	0.18533017
213	0xbd2dc04f	-0.042419728
214	0x3d7c2ec6	0.061568044
215	0x3d1b1ada	0.037867405
216	0x3ccef7f8	0.025264725
217	0xbd57bb40	-0.05266881
218	0xbd5f8028	-0.05456558
219	0x3c23c464	0.009995554
220	0xbc476627	-0.012170351
221	0xbcc57841	-0.024105193
222	0x3d61f9a2	0.05516971
223	0xbd263b22	-0.040583737
224	0xbe251490	-0.16121125
225	0x3e0095ba	0.12557116
226	0x3d58d05e	0.05293309
227	0xbd3e3a14	-0.046442106
228	0xbd77aee1	-0.060469512
229	0x3d54eeb1	0.051985446
230	0xbd5ff706	-0.05467894
231	0x3e628ae6	0.22123298
232	0x3e2ba19b	0.16760866
233	0x3d4b3882	0.049614437
234	0x3e2901c5	0.16504581
235	0xbd6f8295	-0.058474142
236	0xbd57b902	-0.05266667
237	0x3eb823db	0.35964856
238	0xbde5f7af	-0.112288825
239	0x3cf4c7db	0.029880455
240	0xba48e951	-0.00076641614
241	0xbbe2824a	-0.0069125043
242	0xb3825d7b	-6.070601e-08
243	0xb235d5c3	-1.058419e-08
244	0xb3f2dc78	-1.1309106e-07
245	0x3c057c57	0.008147321
246	0xb847b664	-4.761516e-05
247	0xa84911f6	-1.1161636e-14
248	0xba87693e	-0.0010331047
249	0x389d5d8f	7.50377e-05
250	0xb110b85e	-2.1059559e-09
251	0x00001c1a	1.0081e-41
252	0xbb7413d8	-0.0037243273
253	0xba3d0572	-0.0007210589
254	0xa3cd4d83	-2.2258972e-17
255	0x9c6cfa56	-7.84094e-22

bias f4 [8]
0	0xa0e9a578	-3.9581233e-19
1	0x3d12f240	0.03587556
2	0x3d73fb5d	0.05956589
3	0xbcb5758c	-0.022150777
4	0xbe2c921b	-0.1685261
5	0xb6073c95	-2.015183e-06
6	0xbccebcae	-0.025236454
7	0xbd65805c	-0.056030616

weight f4 [1, 8]
0	0xb6ede3a7	-7.0896526e-06
1	0xbea28205	-0.31739822
2	0xbe26b449	-0.16279711
3	0xbd021b53	-0.03176434
4	0xbd202c04	-0.039104477
5	0xbb9d43b3	-0.00479933
6	0xbda9945f	-0.08280253
7	0xbe9be4b3	-0.3044792

weight f4 [4, 32, 32]
0	0x0f8a1503	1.3615944e-29
1	0x00007e7b	4.5373e-41
2	0x00011f41	1.03047e-40
3	0x05426696	9.140678e-36
4	0x801959cd	-2.328102e-39
5	0x8fc7038b	-1.962428e-29
6	0x800046a8	-2.5347e-41
7	0x8e59e88a	-2.6859279e-30
8	0x0000bd36	6.7876e-41
9	0x8000c472	-7.0471e-41
10	0x80016e64	-1.31436e-40
11	0x8f78fece	-1.2276418e-29
12	0x8f8aef4d	-1.3700026e-29
13	0x0000c468	7.0457e-41
14	0x00047cf8	4.12172e-40
15	0x8f3374e7	-8.847896e-30
16	0x8f381b04	-9.0771034e-30
17	0x8ff457d4	-2.4094088e-29
18	0x10fe91cd	1.00409977e-28
19	0x0000b2c1	6.4125e-41
20	0x9d7b4aec	-3.3258307e-21
21	0x8001a952	-1.52576e-40
22	0x37755550	1.4623001e-05
23	0x8fb759ae	-1.8079737e-29
24	0x8f3daff6	-9.352308e-30
25	0x11018122	1.0216098e-28
26	0x80006f7d	-3.9994e-41
27	0x0000bc33	6.7513e-41
28	0x00004d98	2.7835e-41
29	0x0f213505	7.948124e-30
30	0x2b1ff411	5.682686e-13
31	0x0000ab48	6.1444e-41
32	0x8eeb27be	-5.7970243e-30
33	0x00010100	9.2194e-41
34	0x160d7f29	1.1430014e-25
35	0x9e996ca8	-1.6244444e-20
36	0x0ebe253a	4.6874464e-30
37	0x109a9750	6.0975424e-29
38	0x8001266e	-1.05621e-40
39	0x985786e6	-2.7856205e-24
40	0x00012bf8	1.07609e-40
41	0x83671cd8	-6.791791e-37
42	0x00004e4c	2.8088e-41
43	0x0e07d53f	1.6742709e-30
44	0x8fb22a1f	-1.756838e-29
45	0x0000b6ec	6.562e-41
46	0x10c0076b	7.5742076e-29
47	0x0fc54cc6	1.9455272e-29
48	0x0c6e9fa8	1.8382898e-31
49	0xa0a97082	-2.8704165e-19
50	0x26d47e43	1.4744678e-15
51	0x0000156d	7.686e-42
52	0x1ec1ed58	2.0532833e-20
53	0x0000f946	8.9422e-41
54	0x8001a219	-1.49985e-40
55	0x91084c94	-1.0752106e-28
56	0x10e32f48	8.960856e-29
57	0x0cc73da0	3.0697894e-31
58	0x800118b5	-1.00699e-40
59	0x00013e74	1.1424e-40
60	0x00015719	1.2308e-40
61	0x107b6fe8	4.958723e-29
62	0x3624b28e	2.4541837e-06
63	0x80000d86	-4.851e-42
64	0x3f380b13	0.718919
65	0x3ccd63dc	0.02507203
66	0x3bfe37c1	0.007758111
67	0xbda76ab2	-0.081746474
68	0xbe55554d	-0.20833321
69	0x3eb24754	0.34820044
70	0xbbf3f5bb	-0.007445065
71	0x3e2802f5	0.16407378
72	0xa581a607	-2.2490437e-16
73	0xbd27bb70	-0.04095024
74	0x3e897a4e	0.26851124
75	0x3998a629	0.00029115498
76	0xbe7041d3	-0.2346261
77	0x3deadcc3	0.11467888
78	0x3df8c726	0.121473595
79	0x3d303d9b	0.0430275
80	0x3e707571	0.234823
81	0x3f12107d	0.5705641
82	0x3e9c2d75	0.3050343
83	0x397e0ca2	0.00024228034
84	0x3ef6a347	0.48171446
85	0x3bee6d74	0.0072762314
86	0x3e39d9fb	0.18149559
87	0x3ef45fa9	0.47729233
88	0x3f489ac5	0.7836116
89	0x3e8a87e2	0.27056795
90	0x30f43257	1.7767644e-09
91	0x3e5377b5	0.20651133
92	0x95b65000	-7.363543e-26
93	0xbee794de	-0.45230764
94	0x3ec8db7f	0.39229962
95	0x3edfe4c3	0.4372922
96	0x948605b4	-1.3532792e-26
97	0x8000d360	-7.5827e-41
98	0x000089a6	4.9379e-41
99	0x8caab0f8	-2.6299156e-31
100	0x0b2fcf91	3.385993e-32
101	0x30823bb1	9.47571e-10
102	0x80150e71	-1.933726e-39
103	0x2ecaac5d	9.2165144e-11
104	0x800158fd	-1.23758e-40
105	0xa758fd88	-3.0113461e-15
106	0x80018941	-1.41073e-40
107	0x9096df11	-5.9508256e-29
108	0x8fc04898	-1.8960624e-29
109	0x0000fb27	9.0096e-41
110	0x0b1a6a9e	2.973953e-32
111	0x331eba6f	3.6956802e-08
112	0x0f4bd198	1.0049039e-29
113	0xaa45b000	-1.7558177e-13
114	0x359153de	1.082775e-06
115	0x8018cd29	-2.27765e-39
116	0x9075d8a9	-4.848464e-29
117	0x3982221a	0.0002482094
118	0x00006948	3.7768e-41
119	0x958e529a	-5.7483666e-26
120	0x95b709cd	-7.3928574e-26
121	0x96124d70	-1.1818221e-25
122	0x303ee6bc	6.944949e-10
123	0x1d4c1591	2.7010325e-21
124	0x3406786e	1.2523535e-07
125	0x0e98b956	3.7649365e-30
126	0xbb6e8b5d	-0.0036398985
127	0x00000131	4.27e-43
128	0x80014998	-1.18236e-40
129	0x00004c95	2.7472e-41
130	0x8000f707	-8.8617e-41
131	0x8018341e	-2.222748e-39
132	0x00735cf9	1.0594434e-38
133	0x00257127	3.438505e-39
134	0x0000721e	4.0938e-41
135	0x00001e36	1.0838e-41
136	0x00010c5a	9.6266e-41
137	0x2b01e15a	4.6142745e-13
138	0x28eee544	2.6522736e-14
139	0x2e755f94	5.579144e-11
140	0x2e9fa593	7.259895e-11
141	0x38edb8ea	0.000113354836
142	0x003394d4	4.737e-39
143	0x8004ce6e	-4.41395e-40
144	0xac489949	-2.85068e-12
145	0x8000766a	-4.2479e-41
146	0x2bb277c8	1.2680907e-12
147	0x800030c4	-1.7494e-41
148	0x800014f1	-7.512e-42
149	0x800078ea	-4.3376e-41
150	0x0000aa33	6.1056e-41
151	0x8014ae93	-1.899335e-39
152	0x800089c4	-4.9421e-41
153	0x38ae79a8	8.319627e-05
154	0x00011297	9.8504e-41
155	0xa9b6920e	-8.10776e-14
156	0x8000c1b1	-6.9483e-41
157	0x2fb268e0	3.245253e-10
158	0x80005827	-3.1623e-41
159	0xa998f7ef	-6.7931656e-14
160	0xbcc9a0db	-0.024612835
161	0x000014a0	7.399e-42
162	0x0000a8aa	6.0505e-41
163	0x336eeaca	5.5627233e-08
164	0x81a87023	-6.187436e-38
165	0x3d8ab4c8	0.067727625
166	0x2eaf3f43	7.969316e-11
167	0x3d2dbbd7	0.042415466
168	0xb9a2bc84	-0.00031039503
169	0x351a7cc3	5.755102e-07
170	0x38dab556	0.000104288265
171	0xbaed0945	-0.0018084428
172	0xad8810c9	-1.5468864e-11
173	0x8056c9cf	-7.970248e-39
174	0xb8722810	-5.7734607e-05
175	0x3b1c0da6	0.0023811846
176	0x9a190c48	-3.164958e-23
177	0x3d489f93	0.048980307
178	0xbe4b30d2	-0.19842842
179	0x31c68e24	5.778718e-09
180	0x3401a37b	1.2073535e-07
181	0xa5467151	-1.7212156e-16
182	0xbc1cd61c	-0.009572532
183	0x3b2de121	0.0026531892
184	0xbd00a424	-0.031406537
185	0xb63a8903	-2.7795911e-06
186	0x00002185	1.2025e-41
187	0x3888f420	6.530457e-05
188	0x00d53805	1.9581057e-38
189	0xbcce5054	-0.025184788
190	0xbe58a50d	-0.21156712
191	0x39c9f9b2	0.00038523745
192	0x3dd7c846	0.10536246
193	0x3d94a11a	0.0725729
194	0x3b18c881	0.002331287
195	0x3c4fd6ae	0.012685461
196	0x3c2318cc	0.0099546425
197	0x3c5ea580	0.013589263
198	0x3a569f81	0.000818722
199	0xbe51f3f0	-0.20503211
200	0x0001065c	9.4117e-41
201	0xbe2127b7	-0.15737806
202	0x3e967979	0.2938955
203	0xbe40dca1	-0.18834163
204	0xbda19790	-0.078902364
205	0xbe2f556d	-0.17122431
206	0xbc56dcb6	-0.013114145
207	0xbed0a9db	-0.4075459
208	0xbde5d5af	-0.112223975
209	0xbd8c1435	-0.06839792
210	0xbe9d5b06	-0.30733508
211	0x13d405b9	5.3521967e-27
212	0x3e9e30b5	0.30896536
213	0x3c8ba45e	0.01704615
214	0x3b353bd1	0.0027654062
215	0xbec48bdc	-0.38387954
216	0x3e8e60ac	0.2780813
217	0xbe72860a	-0.23683944
218	0xb1f2e989	-7.069677e-09
219	0x3d98471f	0.0743544
220	0x00d58231	1.9607665e-38
221	0xbe61616d	-0.22009821
222	0xbe2bfeb5	-0.16796382
223	0x3db801d9	0.089847274
224	0x80000377	-1.243e-42
225	0x80008a86	-4.9693e-41
226	0x00005bb8	3.2902e-41
227	0xa59e8637	-2.7499578e-16
228	0x80014f59	-1.203e-40
229	0x200c7c7a	1.1899647e-19
230	0x80014163	-1.15292e-40
231	0x304fe527	7.5631806e-10
232	0x0000eb30	8.437e-41
233	0x8000e3b9	-8.1691e-41
234	0x8000e9eb	-8.3914e-41
235	0x8000a255	-5.8234e-41
236	0x00009c4e	5.6072e-41
237	0x0000d3ed	7.6025e-41
238	0x9b13ec59	-1.2235923e-22
239	0x181f61ea	2.0599702e-24
240	0x18db2206	5.664453e-24
241	0x1b13262d	1.217189e-22
242	0x341df01d	1.4709117e-07
243	0x00002ad8	1.537e-41
244	0x25e67409	3.9977268e-16
245	0x8000b69e	-6.5511e-41
246	0x80009413	-5.3119e-41
247	0x00000a58	3.71e-42
248	0x000009bd	3.493e-42
249	0x0000e09b	8.0573e-41
250	0x80443a17	-6.265652e-39
251	0x1e09adc1	7.288651e-21
252	0x0000f3df	8.7484e-41
253	0x80003751	-1.9844e-41
254	0x3821d3f6	3.8582795e-05
255	0xa30d68ee	-7.665845e-18

w_comp f4 [9, 4]
0	0xbe5e4b15	-0.21708329
1	0xbe5ae993	-0.21378164
2	0xbe656218	-0.22400701
3	0xbea466d7	-0.3210971
4	0xbadd0b7f	-0.0016864388
5	0x3e890d97	0.2676818
6	0xbe20d6dd	-0.15706964
7	0x3f1005d0	0.5625887
8	0xbf0bbf36	-0.5458864
9	0x3d038c21	0.03211606
10	0xbe6f5840	-0.23373508
11	0xbf21f3fd	-0.6326292
12	0xbe0cf616	-0.1376575
13	0xb8540e27	-5.055792e-05
14	0xbd120ea5	-0.035658497
15	0xbed98210	-0.42482042
16	0x3f024112	0.5088054
17	0x3f0bc2ff	0.54594415
18	0xbbbe3daf	-0.005805693
19	0xbe319a76	-0.17344078
20	0xbef1c7ef	-0.4722285
21	0xbe917705	-0.28411117
22	0x3f121669	0.57065445
23	0xbed8a529	-0.42313507
24	0x80016d0d	-1.30956e-40
25	0x00018555	1.39666e-40
26	0x00019e7b	1.48688e-40
27	0x0001291c	1.06583e-40
28	0xbe8d3964	-0.27582848
29	0xbd568a47	-0.052377965
30	0x3dcaddbf	0.09905576
31	0xbe96cad9	-0.29451635
32	0x80005b47	-3.2744e-41
33	0x800007a1	-2.737e-42
34	0x0000fa73	8.9844e-41
35	0x800180fb	-1.38105e-40

self_loop_weight f4 [32, 32]
0	0x114ed470	1.6315997e-28
1	0x8000f356	-8.7292e-41
2	0x80008f35	-5.1373e-41
3	0x259afbb1	2.6885294e-16
4	0x80010ceb	-9.647e-41
5	0x8ffceafe	-2.4939634e-29
6	0x00007792	4.2894e-41
7	0x1e23e66a	8.676797e-21
8	0x8000f4bc	-8.7794e-41
9	0xb747a952	-1.1900747e-05
10	0x80013626	-1.1126e-40
11	0x8eda0efa	-5.375557e-30
12	0x0e4f6be8	2.5566675e-30
13	0x8000418f	-2.3518e-41
14	0x0001198f	1.01004e-40
15	0x8f34f370	-8.9215695e-30
16	0x000119a1	1.0103e-40
17	0x91483c68	-1.5795832e-28
18	0xafa54d79	-3.0068373e-10
19	0x0001456c	1.1674e-40
20	0x0000424d	2.3784e-41
21	0x82bb7f69	-2.755031e-37
22	0x80007a49	-4.3868e-41
23	0x9090b929	-5.708327e-29
24	0x0edcfa08	5.447496e-30
25	0x0001253f	1.05197e-40
26	0x8000df0c	-8.0014e-41
27	0xbb530de8	-0.0032204334
28	0x00004e22	2.8029e-41
29	0x102fb5fb	3.4652857e-29
30	0x31c5c127	5.7554135e-09
31	0xb4736508	-2.2667894e-07
32	0x2cf155f8	6.8591764e-12
33	0x80011e3e	-1.02684e-40
34	0x03353dc9	5.3262045e-37
35	0x2ee234a2	1.02866396e-10
36	0x0ec16566	4.7675816e-30
37	0x995aa3f7	-1.1303448e-23
38	0x800015fe	-7.89e-42
39	0xb2560cb1	-1.2459325e-08
40	0x000059be	3.2193e-41
41	0xa92a2887	-3.7782735e-14
42	0x000052b4	2.9668e-41
43	0x12f4e3b0	1.5454694e-27
44	0x9087bf5a	-5.3542935e-29
45	0x80001a38	-9.406e-42
46	0x0daaeedd	1.0534563e-30
47	0xb5394708	-6.9021235e-07
48	0xa90eefa7	-3.17382e-14
49	0x2d5f613a	1.2697671e-11
50	0xb8981e25	-7.25354e-05
51	0x80000efc	-5.375e-42
52	0x0000a471	5.899e-41
53	0x00008f3b	5.1381e-41
54	0x00007d08	4.4853e-41
55	0x8fdca29c	-2.175631e-29
56	0x33d64f63	9.979592e-08
57	0x000108ce	9.4994e-41
58	0x8000b046	-6.3235e-41
59	0x364fabc2	3.094538e-06
60	0x00001db9	1.0662e-41
61	0xa2433fcc	-2.6461202e-18
62	0x3ab543a4	0.0013829363
63	0xa9c5866d	-8.7718766e-14
64	0xbe957bdc	-0.2919606
65	0xbc505c83	-0.012717369
66	0xbb815cc1	-0.0039478247
67	0xbe88860f	-0.2666478
68	0xbe3fee03	-0.18743138
69	0xbf026732	-0.50938714
70	0xbe195941	-0.14975454
71	0x3e99848b	0.29983935
72	0x21d2edb2	1.4293071e-18
73	0xbd2a8f28	-0.04164043
74	0x3d71d813	0.059043955
75	0xbdfa4340	-0.12219858
76	0xbe1d6a39	-0.15372552
77	0x3e7eb143	0.24872307
78	0xbdeb9ccf	-0.11504518
79	0x3cab1d9d	0.020888144
80	0x3e7c2a4e	0.24625513
81	0xbe0b97e5	-0.13632162
82	0x3fc8fa1b	1.5701326
83	0xbd9f1805	-0.07768253
84	0x3e84b304	0.25917828
85	0xbecd6e2c	-0.40123117
86	0xbe1088c8	-0.14114678
87	0xbef1f734	-0.47258914
88	0xbf268762	-0.6505033
89	0x3f364c9d	0.7121065
90	0xb302d12c	-3.0458224e-08
91	0xbcbb558e	-0.022867944
92	0x9c5c6269	-7.2919086e-22
93	0xbebc67b6	-0.36797875
94	0xbf95d2ad	-1.1704918
95	0xbedd0eb1	-0.4317527
96	0x91c20267	-3.0609284e-28
97	0x074c7255	1.5380853e-34
98	0x80002bf4	-1.5767e-41
99	0xad72af35	-1.3795011e-11
100	0x062029a0	3.0123237e-35
101	0xb51b2918	-5.78018e-07
102	0x00000420	1.48e-42
103	0x3738c950	1.1014126e-05
104	0x00014c4f	1.1921e-40
105	0x299e095c	7.018233e-14
106	0x16c05933	3.1075566e-25
107	0xa30b2962	-7.543968e-18
108	0x0f08693e	6.7255866e-30
109	0x80008dc7	-5.086e-41
110	0x0310733a	4.245007e-37
111	0x2fbdd1f9	3.4528094e-10
112	0x2a381eec	1.6353211e-13
113	0xb3ceac50	-9.623966e-08
114	0xb9f00f33	-0.00045787691
115	0x2e8ad453	6.31323e-11
116	0x36188f9b	2.2733354e-06
117	0x95804cf5	-5.1820205e-26
118	0x80007e4c	-4.5307e-41
119	0x95c0be78	-7.784869e-26
120	0x91d0f8c1	-3.296992e-28
121	0x9487a65b	-1.3697132e-26
122	0x00005c2e	3.3068e-41
123	0x2aab980b	3.0481203e-13
124	0x807c4ff6	-1.1416286e-38
125	0xb40384bc	-1.2248614e-07
126	0xbb809757	-0.003924291
127	0xb658e798	-3.2321313e-06
128	0xac7ce47c	-3.5938188e-12
129	0x8000c746	-7.1486e-41
130	0x00004606	2.512e-41
131	0x8001041a	-9.3307e-41
132	0x80010029	-9.1893e-41
133	0xae33648b	-4.0789188e-11
134	0x2e58db7c	4.9307655e-11
135	0x279381b7	4.0941333e-15
136	0x0000e62a	8.2567e-41
137	0x80000d35	-4.738e-42
138	0x000019ec	9.299e-42
139	0x80006913	-3.7694e-41
140	0x82d8d313	-3.1859498e-37
141	0x000076a7	4.2564e-41
142	0x83dd9ad2	-1.3024758e-36
143	0x30268464	6.0578587e-10
144	0xadb81f80	-2.0932367e-11
145	0x3402dc55	1.218735e-07
146	0x32fabd09	2.9189794e-08
147	0x80016c9b	-1.30796e-40
148	0x00010de4	9.6819e-41
149	0xada8b39a	-1.9179148e-11
150	0x89e3f464	-5.4878086e-33
151	0x2d5253d1	1.1955729e-11
152	0x2e84771c	6.023823e-11
153	0x8000463c	-2.5195e-41
154	0x8000ddba	-7.954e-41
155	0x21916f83	9.855099e-19
156	0x80004a7a	-2.6717e-41
157	0x2e88ba6f	6.217681e-11
158	0x32556737	1.24217e-08
159	0xac810950	-3.6674344e-12
160	0x3e41a83d	0.18911834
161	0x25aa4ffa	2.9544493e-16
162	0xa7f0dbb2	-6.6851576e-15
163	0x80004cfe	-2.762e-41
164	0x3b150af6	0.002274213
165	0x3491e7db	2.7177052e-07
166	0x0cdb13f0	3.3754292e-31
167	0xbd899543	-0.067179225
168	0x00003bbe	2.1431e-41
169	0xbb5e16c9	-0.0033888093
170	0xbd4cb3dd	-0.04997622
171	0xb94f39eb	-0.00019762634
172	0x3aed57b8	0.0018107807
173	0x00005557	3.0614e-41
174	0xbcb06cae	-0.021536198
175	0xbe0bbbc0	-0.1364584
176	0x99dea970	-2.3022697e-23
177	0xbc45ace5	-0.012065147
178	0xbe4aec24	-0.19816643
179	0x00008c2c	5.0284e-41
180	0x14c43ee0	1.9815742e-26
181	0x9ca9fc7f	-1.1248751e-21
182	0x3c24f5a6	0.010068333
183	0xbd24c95b	-0.04023109
184	0x3dc6a2cd	0.096990205
185	0xb719c0c5	-9.164393e-06
186	0x800186f4	-1.40248e-40
187	0x3c09f90e	0.008421196
188	0x022b9f84	1.2608875e-37
189	0xba4235d0	-0.00074085314
190	0xbe0d13ef	-0.13777135
191	0x000ab107	9.8186e-40
192	0xbe0e891a	-0.13919488
193	0xbc3301b5	-0.0109257
194	0xbd1f3c30	-0.03887576
195	0xbc878860	-0.01654452
196	0x3daffb5e	0.08592866
197	0x3ee1704a	0.44030982
198	0xbdc25339	-0.0948853
199	0x3e42bc08	0.1901704
200	0xb8a14d5b	-7.691487e-05
201	0xbe517793	-0.2045577
202	0xbe6648bf	-0.22488688
203	0xbdcf1fc5	-0.101134814
204	0xb9be7057	-0.00036323324
205	0x3e883355	0.26601663
206	0xbd146802	-0.036232002
207	0x3e9c296d	0.30500355
208	0x3e0ac4a6	0.13551578
209	0xbe1c0faf	-0.15240358
210	0xbdb6b85b	-0.08921882
211	0x3d13efa8	0.036117226
212	0xbd8011db	-0.06253406
213	0x3c9d3599	0.019190596
214	0xbd418382	-0.047244556
215	0xbe1982a8	-0.14991248
216	0xbe61a1fd	-0.2203445
217	0xbea9da4b	-0.33174357
218	0xb3ec3d3f	-1.1000747e-07
219	0xbd83af13	-0.06429877
220	0x0b48320b	3.8556247e-32
221	0x3e4e70fb	0.20160286
222	0x3fbc5137	1.4712285
223	0xbe274c5c	-0.16337723
224	0x80002b1c	-1.5465e-41
225	0xad34f2f6	-1.02857636e-11
226	0x000012bc	6.72e-42
227	0xb477d37f	-2.308061e-07
228	0x2cd4261d	6.029634e-12
229	0xae0523e7	-3.0272587e-11
230	0x959e76f9	-6.40034e-26
231	0xb9734832	-0.00023201181
232	0x0000da04	7.8209e-41
233	0x33952d4d	6.946593e-08
234	0x8000673b	-3.7032e-41
235	0x258db0bb	2.4579358e-16
236	0xaf043e57	-1.2027478e-10
237	0x80013a96	-1.12852e-40
238	0xa722ad61	-2.2576005e-15
239	0xb38280d9	-6.077034e-08
240	0x23154854	8.092622e-18
241	0x3847b87c	4.761711e-05
242	0x3c87802a	0.016540606
243	0x80015d4c	-1.25304e-40
244	0xacd1c24c	-5.9617086e-12
245	0x8000f68e	-8.8447e-41
246	0x00011d1a	1.02275e-40
247	0x0000ebda	8.4608e-41
248	0x00002c81	1.5965e-41
249	0x00007f4c	4.5666e-41
250	0x000051af	2.9303e-41
251	0xb5a20351	-1.2070906e-06
252	0x0000153e	7.62e-42
253	0x2b075401	4.8078214e-13
254	0x3c128eb6	0.008945158
255	0xb6416f36	-2.8823974e-06
