experiments/grail_nell_v3_ind/best_graph_classifier.pth (torch, 141164 bytes, 21 tensors)

weight f4 [122, 32]
0	0xbf941e13	-1.1571678
1	0xc0033453	-2.0500686
2	0x3e004946	0.12527952
3	0x3d9a4a77	0.07533734
4	0x3ed0f1b8	0.40809417
5	0x3f5693b3	0.8381912
6	0x3f9e84e1	1.2384301
7	0xbf7fef63	-0.9997465
8	0xbee112ec	-0.4395975
9	0xbf2d7e54	-0.67770886
10	0x3dc0b429	0.09409363
11	0x3f86637e	1.0499113
12	0x3f20ab6e	0.6276158
13	0xbef24a87	-0.47322485
14	0xbf3704bb	-0.71491593
15	0xbf3d6446	-0.7398113
16	0xbf537185	-0.8259509
17	0x3f0a2359	0.53960186
18	0x3ed3d00c	0.41369665
19	0x3ed2aa60	0.4114561
20	0x3e6fadb7	0.2340611
21	0xbe266d69	-0.16252674
22	0xbfa3ba4c	-1.2791228
23	0xbf1b1c14	-0.6058972
24	0x3f11129e	0.5666903
25	0xbf2537d7	-0.6453833
26	0xbf00706c	-0.5017154
27	0xbf09e27e	-0.53861225
28	0xbf1ddf48	-0.61668825
29	0x3e8ed970	0.27900267
30	0x3f57233c	0.8403814
31	0xbdc66f4a	-0.096891955
32	0x3f16372b	0.5867793
33	0xbe397c0e	-0.1811373
34	0xbf7139aa	-0.94228613
35	0x3eabb257	0.335345
36	0x3f37db76	0.71819246
37	0x3fb8d23a	1.4439156
38	0x3f651376	0.8948282
39	0xc0079b00	-2.1188354
40	0x3ebf2c7d	0.3733863
41	0xbee99bea	-0.45626765
42	0x3ec1f9ec	0.37885988
43	0x3ee1695c	0.44025695
44	0x3f9506fa	1.1642754
45	0x3ec686d3	0.38774738
46	0xbf232acb	-0.6373717
47	0x3ee2da1f	0.44307038
48	0xbfce755e	-1.6129568
49	0x3fac2ef7	1.3451833
50	0xbf4138eb	-0.75477475
51	0x3ea0aa8d	0.3138012
52	0xbdcf51c6	-0.10123019
53	0x3f54ef07	0.83177227
54	0xbed9bbca	-0.42526084
55	0x3ee5df6f	0.4489703
56	0x3fd8a798	1.6926146
57	0xbf795097	-0.97388595
58	0xbf8c345a	-1.0953476
59	0x3f0ed743	0.55797213
60	0xbe29899a	-0.16556397
61	0x3e2ec7e6	0.17068443
62	0x3f8e402d	1.1113335
63	0x3e343fe0	0.17602491
64	0xbf7520bd	-0.9575308
65	0xbfac67a0	-1.3469124
66	0x3e1c3f2d	0.15258475
67	0x3fa5bfb9	1.2949134
68	0x3f88f9f2	1.0701277
69	0x3f8ba49e	1.0909612
70	0x405a3add	3.4098427
71	0xc03c9097	-2.946325
72	0x3ecef7ea	0.40423518
73	0x3d973ff9	0.07385249
74	0x3daae4fd	0.08344457
75	0x3edfea2d	0.4373335
76	0x3f335696	0.70053995
77	0xbe58d0bd	-0.21173377
78	0xbf6cdc0e	-0.92523277
79	0xbf3f737b	-0.74785584
80	0xbf5a453f	-0.8526191
81	0x3f77f328	0.968554
82	0xbe08d0e2	-0.13360932
83	0x3f35ee07	0.71066326
84	0xbf3a930b	-0.7288062
85	0x3e5ef202	0.21772006
86	0xbf4130ae	-0.75464904
87	0xbeac72c2	-0.33681303
88	0x3f7bc68d	0.9834984
89	0xbf1c5141	-0.61061484
90	0xbf816d2a	-1.0111439
91	0xbeb1086c	-0.34576738
92	0xbfc11f6e	-1.5087717
93	0x3e8f8320	0.28029728
94	0x3f0c6501	0.5484162
95	0x3edb561e	0.4283914
96	0x3e389b41	0.18027975
97	0xbd873ced	-0.066034175
98	0x3e46f27b	0.19428436
99	0xbd860de3	-0.065456174
100	0x3e9a1c04	0.300995
101	0x3e9e447f	0.30911633
102	0x3ea82a5f	0.32844827
103	0xbe966ca3	-0.29379758
104	0x3e5e1cd0	0.21690679
105	0xbe247350	-0.16059613
106	0x3ea95aee	0.33077186
107	0x3e624bf3	0.22099285
108	0x3e8eda14	0.27900755
109	0x3e8bc52a	0.27298862
110	0xbe8d6194	-0.2761351
111	0xbe853b42	-0.26021773
112	0xbe960046	-0.29297084
113	0xbd9ce7d8	-0.07661408
114	0xbe51026c	-0.2041108
115	0x3db4f8d3	0.08836522
116	0xbe815995	-0.25263658
117	0x3e85a38f	0.26101348
118	0xbe20b200	-0.15692902
119	0xbe6c0256	-0.23047766
120	0x3ea0d8af	0.31415316
121	0xbe80873f	-0.25103185
122	0xbe8bc00b	-0.27294955
123	0xbe352a54	-0.17691928
124	0xbe2ba0a5	-0.167605
125	0x3d79d01b	0.06098948
126	0x3e6990a1	0.22809078
127	0x3e5e1bc1	0.21690275
128	0x3ef4ab74	0.47787058
129	0x3ef377d1	0.4755235
130	0xbe252534	-0.16127473
131	0x3eb9db1c	0.3629998
132	0x3c86bb5f	0.016446767
133	0xbf194530	-0.59871197
134	0x3e959674	0.2921635
135	0x3d255c23	0.04037107
136	0xbe71a98f	-0.23599838
137	0xbf0096dd	-0.502302
138	0xbe16d88f	-0.14731048
139	0x3b8eee2e	0.0043618893
140	0xbe8086f3	-0.25102958
141	0xbd0a4f06	-0.03376677
142	0x3edb603c	0.42846859
143	0x3e01ef43	0.12688927
144	0x3f035017	0.5129408
145	0x3f28c7db	0.65929955
146	0xbf018861	-0.5059872
147	0xbdd39361	-0.10330845
148	0x3e2adac7	0.1668502
149	0x3e2c6119	0.16833915
150	0x3c38a4e8	0.011269785
151	0x3e8f329b	0.27968296
152	0xbefba365	-0.49148098
153	0x3e9adaf9	0.30245188
154	0x3eaa0afb	0.33211502
155	0x3dbfa3b3	0.09357395
156	0x3e341088	0.17584431
157	0x3e04824e	0.12940332
158	0x3ba3e5ce	0.00500176
159	0xbecf960e	-0.4054417
160	0xbe35f46f	-0.17769025
161	0xbeb512a1	-0.35365775
162	0x3ed37cf8	0.4130628
163	0x3f504a10	0.8136301
164	0x3f900517	1.1251553
165	0x3e83e0ec	0.2575754
166	0xbf07e62b	-0.53085583
167	0x3e4a92d7	0.19782577
168	0x3e8f9274	0.28041422
169	0xbe0ef45d	-0.13960405
170	0x3f313e87	0.69236034
171	0xbf66c319	-0.90141445
172	0x3df5cd28	0.12002021
173	0x3e7e6db9	0.24846543
174	0xbe73c998	-0.2380737
175	0xbf0e3a5e	-0.5555781
176	0xbe90be6e	-0.28270286
177	0x3f0be058	0.54639196
178	0x3e2a9014	0.16656524
179	0x3f052ef2	0.5202476
180	0xbf18a53f	-0.59627146
181	0xbf27ac5b	-0.6549737
182	0x3edebade	0.43501943
183	0xbf4f7a38	-0.81045866
184	0x3f06cdbf	0.52657694
185	0x3e256808	0.16152966
186	0xbebc55d5	-0.36784235
187	0xbf92adbe	-1.1459272
188	0xbecf7a12	-0.4052282
189	0xbe95a3dd	-0.2922658
190	0xbf74ce93	-0.9562771
191	0xbd9cfeb8	-0.07665771
192	0x3f9eb6f3	1.2399582
193	0x3f28061b	0.65634316
194	0x3e9eb6db	0.30998883
195	0x3fb64a9f	1.4241523
196	0x3e95a109	0.29224423
197	0xbf787c0f	-0.970643
198	0xbf85e858	-1.0461531
199	0xbdb386f7	-0.08765977
200	0x3f1db679	0.61606556
201	0xbe971bd2	-0.29513413
202	0xbe995a94	-0.29951918
203	0xbdf07166	-0.11740379
204	0xbf0f68f7	-0.5601954
205	0xbd2a7dd7	-0.041623916
206	0x3f32bbaa	0.698176
207	0x3e5161e8	0.20447505
208	0x3e9bc04a	0.30420142
209	0xbe6b8ec5	-0.23003681
210	0xbed7d6a0	-0.42155933
211	0xbf806597	-1.0031003
212	0x3d75dc29	0.060024414
213	0xbf5a18ed	-0.85194284
214	0xbe788a3a	-0.24271479
215	0xbf07bdc5	-0.5302394
216	0xbdb43bee	-0.08800493
217	0xbeba195d	-0.36347476
218	0xbd9df0d9	-0.07711954
219	0x3e1c9517	0.15291248
220	0x3e8f74b1	0.28018716
221	0x3f1928b6	0.59827745
222	0xbf109a3b	-0.56485337
223	0xbe7a0312	-0.24415234
224	0xbef182f9	-0.47170237
225	0xbf5a375e	-0.85240734
226	0x3ed16b74	0.40902293
227	0x3f85d290	1.0454884
228	0x3f340a5e	0.7032832
229	0xbe46ebee	-0.19425938
230	0x3e4ab657	0.1979612
231	0xbe8dad2a	-0.27671176
232	0x3f24826a	0.64261496
233	0x3d919f61	0.07110477
234	0x3ee34c42	0.44394118
235	0xbe6d2a06	-0.23160562
236	0xbef0f130	-0.4705901
237	0xbf1e0cb5	-0.6173814
238	0xbe0151d9	-0.12628879
239	0x3ef4baf2	0.47798878
240	0x3ec333e0	0.38125515
241	0x3f9882f5	1.1914965
242	0x3f8ba5f9	1.0910026
243	0x3e69e447	0.22840987
244	0xbde5126c	-0.11185154
245	0xbe544514	-0.20729476
246	0xbf086626	-0.53280866
247	0xbe83b2f6	-0.25722474
248	0xbdd67e0d	-0.10473261
249	0xbf1f2dfb	-0.62179536
250	0xbe0c4c08	-0.13700879
251	0xbead1788	-0.33807015
252	0xbebb7648	-0.3661368
253	0x3ea582b5	0.32326284
254	0xbf802b01	-1.0013124
255	0xbf157e95	-0.58396274

weight f4 [4, 8, 32]
0	0x3f11aadd	0.5690134
1	0x3e9afe35	0.3027207
2	0xbe0b41c7	-0.13599311
3	0xbfcab2fc	-1.5835872
4	0x3f40ab46	0.7526134
5	0xbf34db2b	-0.70646924
6	0x3f893f2c	1.0722404
7	0xbf760346	-0.96098745
8	0x3de09bd2	0.1096722
9	0x3f8ac498	1.0841246
10	0x3f2106da	0.6290108
11	0xbefede2f	-0.49778888
12	0xbf277d88	-0.6542592
13	0x3eb31bd0	0.34982157
14	0x3ee65226	0.4498455
15	0x3ea2f8a6	0.3183033
16	0xbf22a52e	-0.63533294
17	0x3cfec81c	0.031101279
18	0xbf3e8e16	-0.74435556
19	0xbf859a00	-1.0437622
20	0xbee19b89	-0.44063976
21	0x3d0c5557	0.034261074
22	0x3f01f39d	0.5076235
23	0xbf0689cf	-0.5255403
24	0xbf3f1a45	-0.7464946
25	0x3e3d2ee5	0.1847492
26	0xbece8070	-0.40332365
27	0x3f24663d	0.64218503
28	0x3f1244e6	0.5713638
29	0x3f0936f3	0.5359947
30	0xbf591186	-0.84792364
31	0xbf19af91	-0.6003352
32	0xbf8bceed	-1.0922524
33	0xbe68d836	-0.22738728
34	0xbfa090b6	-1.2544162
35	0x3fd1d09b	1.6391786
36	0xbfb98534	-1.4493775
37	0x3f7428b2	0.95374596
38	0xbd8ace93	-0.06777682
39	0x3effbf39	0.4995058
40	0xbdb34b23	-0.087545656
41	0xbf4bc508	-0.7959752
42	0xc04e186f	-3.2202413
43	0x3fd22d3d	1.6420056
44	0xbe8f63f2	-0.2800594
45	0xbfce8c25	-1.6136519
46	0xbef380d5	-0.4755923
47	0xbf2c367f	-0.67270654
48	0x3dbc7ca9	0.092034645
49	0xbf46c0a4	-0.77637696
50	0x3f2fa1fe	0.68606555
51	0x3e6e0e78	0.23247707
52	0xbfebac46	-1.8411949
53	0xbfdfc964	-1.7483335
54	0xbed4330e	-0.41445202
55	0x3fad4c9b	1.3539003
56	0xbddf2756	-0.108961746
57	0x3e943db1	0.28953317
58	0x3f3dc035	0.7412141
59	0x3de1ffbd	0.11035106
60	0xbf81dbda	-1.0145218
61	0xbfcfba87	-1.6228799
62	0xbfda2eaa	-1.7045491
63	0x3ed8b4ca	0.4232543
64	0xbfc4e626	-1.5382736
65	0x3fe9f1e7	1.8276948
66	0x3f8e37f5	1.1110827
67	0x3ef68d28	0.4815457
68	0x3fad8c2c	1.3558402
69	0x3e8b60d8	0.27222323
70	0x3f4621b0	0.77395153
71	0x3f5b8498	0.85749197
72	0x3f300026	0.68750226
73	0x3ff76bea	1.9329808
74	0x3e8d5e57	0.27611038
75	0xbf8e44ed	-1.1114784
76	0x3e2529bd	0.16129203
77	0x3e06bbc3	0.13157563
78	0xbe34369a	-0.17598954
79	0x3f33c13e	0.7021674
80	0x3e262b38	0.16227424
81	0xbdc3c219	-0.095585056
82	0x3f504a51	0.813634
83	0xbe6bccc3	-0.23027329
84	0x3fcce1d8	1.6006422
85	0x3f745b59	0.95451885
86	0x3f427e6b	0.7597415
87	0x3f076db2	0.52901757
88	0xbd1d908b	-0.038467925
89	0x3f2e103d	0.6799353
90	0x3e5c535c	0.21516174
91	0xbee2d25e	-0.44301122
92	0x3f20a759	0.6275535
93	0xbe710151	-0.23535658
94	0xbddacd57	-0.10683697
95	0xbcaa2f03	-0.02077437
96	0x3e02ec32	0.12785414
97	0xbdf574c2	-0.119851604
98	0x3e39d2f2	0.18146876
99	0xbbd46236	-0.006481434
100	0x3fc648ca	1.5490963
101	0xbf3510f4	-0.70728993
102	0x3e475be2	0.19468644
103	0xbf628e2a	-0.88498175
104	0xbd51da6f	-0.051233705
105	0xbebff2fb	-0.37490067
106	0x3f6acaa9	0.91715485
107	0xbe66823b	-0.22510616
108	0xbf70704d	-0.9392136
109	0x3ffd86dc	1.9806781
110	0xbf19071e	-0.59776485
111	0xbe5226c0	-0.20522594
112	0xbea0528d	-0.3131298
113	0x3d01aea6	0.0316607
114	0xbecc806a	-0.39941722
115	0x3f0f6d51	0.5602618
116	0xbe8afbb6	-0.27145165
117	0x3f83dc4f	1.0301608
118	0xbfdc3478	-1.7203512
119	0xbec2c46e	-0.3804049
120	0x3e8d6035	0.27612463
121	0x3e8024f9	0.25028208
122	0x3ea38c00	0.3194275
123	0x3de2e2c6	0.1107841
124	0xbe827813	-0.25482234
125	0x3fc57905	1.5427557
126	0x3fdbfd11	1.7186605
127	0x3e6b9c78	0.23008907
128	0xbf1e2726	-0.61778486
129	0x3f99bedd	1.2011372
130	0xbf5ea9d8	-0.8697791
131	0xbe89ed26	-0.26938742
132	0x401bf821	2.4370196
133	0xbe874f58	-0.26427722
134	0xbde32967	-0.11091881
135	0xbf252e22	-0.6452352
136	0xbe341a88	-0.17588246
137	0x3ed1d7a0	0.4098482
138	0xbfb6af71	-1.427229
139	0xbe780ea4	-0.24224335
140	0xbea59d61	-0.32346633
141	0xbeb5464d	-0.35405198
142	0x3fc69831	1.5515195
143	0xbec2569c	-0.37956703
144	0xbe5c1b9f	-0.21494912
145	0xbf2e491b	-0.680803
146	0x3eecaaa0	0.46223927
147	0xbe987de3	-0.29783544
148	0xbf0f22cc	-0.5591247
149	0xbf3c1f13	-0.73484915
150	0xbf357cdb	-0.7089364
151	0xbfb60e5a	-1.422313
152	0xbec652a6	-0.3873493
153	0x3e85ba4f	0.26118705
154	0xbe88f34d	-0.26748124
155	0x3eaae98a	0.333813
156	0x3e869724	0.26287186
157	0x3f1717be	0.590206
158	0xbe93e3ca	-0.28884727
159	0x3e9f423b	0.31105217
160	0xbf4b5cf7	-0.7943873
161	0xbe75295c	-0.23941559
162	0x3ee616a5	0.4493915
163	0x3f1ba5d6	0.6079992
164	0xbf360718	-0.71104574
165	0x3d205ea5	0.03915276
166	0x3f6a4e62	0.9152585
167	0x3e62638d	0.22108288
168	0xbd92bc6d	-0.071648456
169	0x3e2c2202	0.16809848
170	0xbf99e7c8	-1.2023859
171	0xbef6c949	-0.48200443
172	0x3d5bf500	0.053700447
173	0xbf206350	-0.6265154
174	0x3db2015c	0.086916655
175	0xbed9eb40	-0.42562294
176	0xbdc3efe4	-0.0956724
177	0xbee1e03b	-0.44116387
178	0x3edda182	0.43287283
179	0x3f10e14f	0.56593794
180	0xbefb6adc	-0.49104965
181	0x3f1736d6	0.5906805
182	0x3fa05cd8	1.2528334
183	0x3f461d6e	0.77388656
184	0x3f0439e2	0.5165082
185	0x3eeec657	0.46635696
186	0x3daf60d7	0.085633926
187	0x3c243b9c	0.010023978
188	0xbefa7b75	-0.48922315
189	0xbf2f4a3b	-0.6847264
190	0x3d4c8f0a	0.0499411
191	0x3e20db3c	0.15708631
192	0xbf1ca8ed	-0.6119526
193	0x3f92f8bd	1.1482159
194	0x3f1b5cde	0.6068858
195	0xbea7e859	-0.32794455
196	0x3f90bd1d	1.1307713
197	0x3e964889	0.29352215
198	0xbe02bd6f	-0.12767576
199	0xbec58f0b	-0.38585696
200	0x3e8122a4	0.2522174
201	0x3f45435e	0.7705592
202	0x3e9bbe67	0.30418703
203	0xbdafba4a	-0.08580454
204	0xbe4ec0a0	-0.20190668
205	0x401ce379	2.4513838
206	0x3e7dc5d5	0.24782498
207	0xbd429a2d	-0.047510315
208	0xbcf275da	-0.029597212
209	0x3efc35b5	0.49259725
210	0x3efc196e	0.4923815
211	0xbf338ff1	-0.7014151
212	0x3ea04058	0.3129909
213	0xbf5742ed	-0.84086496
214	0x3e470c2b	0.19438235
215	0x3f8369cf	1.0266665
216	0xbea735c2	-0.326582
217	0x3f9401de	1.156307
218	0x3d7083d2	0.058719464
219	0x3ec4382e	0.38324112
220	0x3fda86bf	1.7072371
221	0x3d447cb2	0.04797048
222	0x3eed6dd5	0.46372858
223	0xbe12450f	-0.14284156
224	0x3f388763	0.72081584
225	0xbf735947	-0.950581
226	0xbeac4b49	-0.33651188
227	0xbf22dce6	-0.63618314
228	0xbbb70abc	-0.0055859964
229	0x3d9a1c4b	0.07524928
230	0xbfd735ad	-1.6813256
231	0x3f213959	0.6297813
232	0xbe283ffb	-0.16430657
233	0x3e6cc46d	0.23121805
234	0x3f11d445	0.5696452
235	0x3f528a07	0.82241863
236	0xbfe1907a	-1.7622216
237	0x3e282f11	0.16424204
238	0x3ecad887	0.39618322
239	0x3e09b1fa	0.13446799
240	0xbf946e55	-1.1596171
241	0x3dc37504	0.09543803
242	0xbf81086a	-1.0080693
243	0xbea527e8	-0.3225701
244	0xbea60d28	-0.32431912
245	0x3f5080f8	0.8144679
246	0xbf15f86f	-0.58582205
247	0xbf21b63e	-0.63168705
248	0xbce2a526	-0.02766664
249	0x3fc071c5	1.503472
250	0x3e66f2dd	0.22553582
251	0xbee24b80	-0.44198227
252	0x3e9cbce8	0.30612874
253	0x3e47f3a8	0.19526541
254	0x3d705a46	0.05867984
255	0xbeab41cd	-0.3344864

w_comp f4 [122, 4]
0	0xbf85cfcf	-1.0454043
1	0xbf68714e	-0.9079789
2	0x3e24c6ff	0.16091536
3	0xbf20a3d3	-0.62749976
4	0xbf226fcc	-0.6345184
5	0xbe549ac3	-0.20762162
6	0xbcf3de2c	-0.029769026
7	0xbe8797da	-0.2648304
8	0xbf758a8b	-0.95914525
9	0x3ebf5c87	0.3737528
10	0x3f79c79a	0.9757019
11	0xbc48d8eb	-0.0122587485
12	0x3d482414	0.04886253
13	0x3de32d22	0.11092593
14	0x3f97e2b5	1.186606
15	0xbf3bb8ad	-0.7332867
16	0xbf091658	-0.5354972
17	0x3e6dfc26	0.23240718
18	0xbf857153	-1.0425209
19	0x3f458333	0.7715332
20	0x3db70680	0.08936787
21	0x3e5c062b	0.21486728
22	0x3f96abaa	1.1771138
23	0x3ec8a002	0.39184576
24	0xbe101a59	-0.14072551
25	0xbef6f7a9	-0.48235825
26	0x3f902531	1.126135
27	0xbf0504cd	-0.5196045
28	0x3e9388ee	0.28815407
29	0x3f4142bd	0.7549246
30	0x3ec6ca48	0.38826203
31	0xbf4e8a15	-0.80679446
32	0x3ef682cb	0.48146662
33	0x3e0c991e	0.13730285
34	0x3f849934	1.0359254
35	0x3e89597f	0.26826093
36	0xbe613004	-0.21990973
37	0xbe659521	-0.2242017
38	0x3eefcdf3	0.46836814
39	0x3e52119b	0.20514528
40	0x3c0c06d2	0.008546548
41	0x3dde2392	0.10846628
42	0x3f1d7d2c	0.6151912
43	0x3ea8f26b	0.3299745
44	0xbef442d2	-0.4770723
45	0x3ea10e00	0.31455994
46	0x3f17cb2d	0.59294397
47	0xbfb6f369	-1.4293033
48	0x3f9cba48	1.2244349
49	0xbebf2b4d	-0.37337723
50	0x3f848f99	1.0356323
51	0x3f4d5b78	0.80217695
52	0x3f0694a9	0.5257059
53	0xbf1cfdad	-0.6132458
54	0x3ea03c65	0.31296077
55	0x3d67308e	0.05644279
56	0x3d6d5ebd	0.057951678
57	0xbcc876e1	-0.024470748
58	0x3f906025	1.1279341
59	0x3eba914b	0.36438975
60	0x3e7a0994	0.24417716
61	0x3de60a95	0.11232487
62	0x3ef99dcb	0.487532
63	0x3fe1c282	1.7637484
64	0x3d453d7d	0.048154343
65	0x3f0de65a	0.55429614
66	0x3db744a1	0.08948637
67	0x3e698dee	0.22808048
68	0x3e523841	0.20529272
69	0xbf2bd9a8	-0.6712899
70	0x3fb4083c	1.4065013
71	0x3fbb6040	1.4638748
72	0x3f88c3e0	1.0684776
73	0xc00abab8	-2.1676464
74	0xbeee8508	-0.4658587
75	0xbf7cca2b	-0.98745984
76	0xbe8ff247	-0.2811453
77	0x3df099b9	0.1174807
78	0x3f2ac1f0	0.66702175
79	0xbdbe7089	-0.09298808
80	0x3e5df1c5	0.21674259
81	0x3eacc895	0.33746782
82	0x3feff822	1.8747599
83	0x3f9adcbb	1.2098612
84	0x3ff3c544	1.9044576
85	0xbf5a9ffc	-0.85400367
86	0x4009230f	2.1427648
87	0x3e822571	0.2541919
88	0x3f58137a	0.8440472
89	0xc029a999	-2.6509764
90	0x3e947b8f	0.29000518
91	0xbf9bfb2f	-1.218603
92	0x3e46a922	0.19400457
93	0x3c439236	0.011936715
94	0x3f97f9ca	1.1873105
95	0xbf879be0	-1.0594444
96	0xbd7dccaf	-0.06196278
97	0xc0075d68	-2.115076
98	0x3ebe0040	0.37109566
99	0x3f775862	0.96619236
100	0x3f259486	0.64679754
101	0x3f9eb107	1.2397774
102	0x3f64be99	0.8935333
103	0xbe011b91	-0.12608172
104	0xbe0f2a18	-0.13980901
105	0xbf124b3e	-0.5714606
106	0x3ee5c067	0.44873354
107	0x3d8b8882	0.06813146
108	0xbfb741d4	-1.4316964
109	0x3ec138b7	0.37738582
110	0x3f818a51	1.0120336
111	0x3e830be9	0.25595024
112	0x3f420cdf	0.7580089
113	0xbf0c6d7a	-0.5485455
114	0x4004a4a1	2.0725482
115	0xbdbcb5c8	-0.092143595
116	0xbe8895e4	-0.26676857
117	0xbef3a628	-0.47587705
118	0x3f8f1db3	1.1180938
119	0x3ee5b628	0.44865537
120	0x3f260636	0.6485323
121	0x3f17e26b	0.5932986
122	0x3fac8798	1.347888
123	0xbe99a2fb	-0.30007157
124	0xbeb54747	-0.35405943
125	0xbef8caba	-0.48592168
126	0x3f9b7d81	1.2147676
127	0x3f1641d1	0.5869418
128	0x3e7bbd30	0.24583888
129	0xbfb0096a	-1.3752873
130	0xbbf462ae	-0.0074580526
131	0x3e7dd858	0.2478956
132	0xbeb5a682	-0.35478598
133	0xbe966b8e	-0.29378933
134	0x3f6a985d	0.9163874
135	0xbf857aeb	-1.0428137
136	0x3ecdbf1c	0.40184867
137	0xbdda8747	-0.10670333
138	0x3ece29e9	0.4026635
139	0x3f9de28c	1.2334762
140	0x400ec92a	2.231028
141	0x3f8b3dfa	1.0878289
142	0xbe8db7ae	-0.276792
143	0x4009c3fa	2.1525865
144	0x3ee8790f	0.4540486
145	0x3f5edb5b	0.8705346
146	0xbef31629	-0.47477844
147	0x3f9d4272	1.2285903
148	0xbefa90f0	-0.48938704
149	0xbede249d	-0.4338731
150	0x3e42bdf1	0.1901777
151	0x3dce4e19	0.1007349
152	0xbfc7663a	-1.5578072
153	0x3f2ac688	0.66709185
154	0xbf7373cd	-0.9509857
155	0x3fe4e823	1.7883343
156	0xbef9364c	-0.48674238
157	0xbe5d3e31	-0.21605755
158	0xbf4c61d8	-0.798368
159	0x3fe46004	1.7841802
160	0x3f25da6c	0.6478641
161	0xbf8218bf	-1.0163802
162	0x3d4c859f	0.04993212
163	0xbef7d8c3	-0.48407564
164	0x3f27d9e6	0.6556686
165	0x3ee7f0f9	0.45301035
166	0x3f9ccf44	1.2250752
167	0x3f1a9993	0.60390586
168	0xbb8c9c56	-0.0042910976
169	0x3e527f92	0.20556477
170	0x3f1f74d4	0.6228764
171	0x3e7d8818	0.24758947
172	0xbfb7e015	-1.436526
173	0x3cfa324e	0.030541565
174	0x3f32fdd6	0.6991857
175	0xbe7c4433	-0.24635391
176	0x3fdcc04b	1.7246183
177	0xbeb0159d	-0.3439149
178	0xbfa8d3f0	-1.3189678
179	0xbd92041a	-0.071296886
180	0xbd275ede	-0.040861957
181	0xbf3385eb	-0.7012622
182	0x3ea5df5a	0.32396966
183	0x4016317a	2.3467698
184	0x3e9336a9	0.2875264
185	0x3d9249cb	0.07142981
186	0x3e95e952	0.29279572
187	0x3fddbdd9	1.7323562
188	0x3f07472c	0.52842975
189	0x3fb06c43	1.3783039
190	0x3e6482c4	0.22315508
191	0x3f119d1f	0.5688037
192	0xbf9240cc	-1.1426024
193	0x3f3a882b	0.72864026
194	0xbf37dd56	-0.71822107
195	0x3f519295	0.8186429
196	0xbfa0c0aa	-1.2558796
197	0x3e8aa07b	0.27075562
198	0x3f2fbaff	0.6864471
199	0x3fc6c532	1.5528929
200	0xbef42135	-0.47681585
201	0x3d7003e2	0.058597453
202	0x3f00caef	0.5030965
203	0x3f8b94e5	1.0904814
204	0xbfdaa332	-1.7081053
205	0x3efa2d71	0.48862794
206	0x3f79ad65	0.97530204
207	0x3fba1782	1.4538424
208	0xbe89005a	-0.2675808
209	0xbf76b604	-0.96371484
210	0x3f4e744c	0.80646205
211	0xbf2b4907	-0.66908306
212	0x3fb6e9c5	1.4290091
213	0x3d85299b	0.06502076
214	0x3fa51907	1.2898263
215	0x3eee7f15	0.4658133
216	0x3f99c0cc	1.2011962
217	0xbec0b360	-0.37636852
218	0x3eadcfc5	0.33947578
219	0x3f33cfa5	0.70238715
220	0x3f4f9d6b	0.81099576
221	0x3e412fd4	0.18865901
222	0x3fc9b69b	1.5758852
223	0xbf6694f1	-0.90071017
224	0x3f514eb7	0.81760734
225	0x3e806950	0.25080347
226	0x3ed7e05b	0.42163357
227	0x3f5bd6db	0.8587472
228	0xbf8b14ac	-1.0865684
229	0x3fa4ac10	1.2865009
230	0x3d954725	0.0728896
231	0x3f8d9b66	1.1063049
232	0x3e61e043	0.22058205
233	0x3e974cda	0.2955082
234	0xbee7cab9	-0.45271853
235	0x3f0e941c	0.55694747
236	0x3eab1f71	0.33422425
237	0x3f36c6f1	0.7139731
238	0x3fb2a5b2	1.3956816
239	0xbdae5c39	-0.08513684
240	0x3eeafcc6	0.45895976
241	0xbe84ed3d	-0.25962248
242	0x3e318213	0.17334776
243	0x3e96b1e2	0.2943259
244	0xbd9ab294	-0.07553592
245	0xbf86f7c9	-1.0544368
246	0x402074ea	2.5071359
247	0x3f1fbf84	0.62401605
248	0x3ef466dd	0.47734728
249	0xbedf41b4	-0.43604815
250	0x3f9e174a	1.2350857
251	0xbf8a8b52	-1.0823767
252	0xbdcd7e11	-0.10033811
253	0xbd9f4b6b	-0.07778057
254	0xbdf7ce94	-0.120999485
255	0xbfc5236e	-1.5401437

self_loop_weight f4 [8, 32]
0	0xbfb22c6c	-1.3919806
1	0xbf938d50	-1.15275
2	0xbf066273	-0.5249397
3	0x3ca92dac	0.02065166
4	0x3faa983a	1.3327706
5	0xbf528f5d	-0.82250005
6	0xbf16d4e9	-0.58918625
7	0xbf57e83f	-0.84338754
8	0xbf1900f6	-0.5976709
9	0xbe8d235c	-0.2756604
10	0xbf523518	-0.82112265
11	0xbf9a9c17	-1.2078885
12	0x3f298c41	0.66229635
13	0x3eb8ee3c	0.36119258
14	0xc002d305	-2.0441296
15	0xbeb1337a	-0.34609586
16	0xbedcafb9	-0.43102816
17	0xbeae40b1	-0.3403373
18	0x3fbd72c9	1.4800655
19	0x3e21193d	0.15732284
20	0xbf8f8c6a	-1.1214726
21	0xbeddc571	-0.43314698
22	0xbfca950a	-1.5826733
23	0xbe0a1e4b	-0.13488118
24	0xbf3e9734	-0.7444947
25	0xbecddc68	-0.4020722
26	0xbf2b0887	-0.66809887
27	0xbf8ec376	-1.11534
28	0xbf22da3c	-0.6361425
29	0x3f7a4a0e	0.9776925
30	0x3e1b8be7	0.15190087
31	0xbf427d0c	-0.75972056
32	0x4015428e	2.3321872
33	0x3fc4c71a	1.5373261
34	0xc00b8352	-2.1798902
35	0x3da33570	0.07969177
36	0xc0938470	-4.6099167
37	0xbf4d62f3	-0.8022911
38	0x3f2a9133	0.66627806
39	0xbf85b6c0	-1.0446396
40	0xbf9f2ed6	-1.2436168
41	0xc02b842b	-2.679942
42	0xbcb212cc	-0.021737479
43	0xbf9f8f40	-1.2465591
44	0xbfbf9a9c	-1.4969058
45	0xc029d88b	-2.6538417
46	0x40078d10	2.1179848
47	0xbfdb7197	-1.714404
48	0xbfa77ac7	-1.3084344
49	0xbfccbf74	-1.5995927
50	0xbfadfe07	-1.3593148
51	0x3ece6853	0.40313968
52	0xbf62124c	-0.8830917
53	0x3e8b431a	0.27199632
54	0x3f5f5c48	0.87250185
55	0xc02cdbc8	-2.7009144
56	0x3ef19224	0.4718181
57	0xbfd8c1af	-1.6934108
58	0xbfba78d0	-1.4568119
59	0x3e68b0d1	0.227237
60	0xbf693af1	-0.9110556
61	0xc01ab55a	-2.4173188
62	0x3f5d5f6f	0.86473745
63	0xbf880c21	-1.0628701
64	0xbf16522b	-0.5871913
65	0xc07b099c	-3.9224615
66	0xbc05e85a	-0.008173073
67	0x3ff1c6b9	1.888877
68	0xbf394b3a	-0.7238041
69	0xbd742b2d	-0.059611488
70	0xc0005cb8	-2.005659
71	0x3f56f31d	0.8396471
72	0xbe3ce367	-0.18446122
73	0x3f0a7891	0.5409022
74	0x3e1405a2	0.14455274
75	0xbe908956	-0.2822978
76	0x3ecd1279	0.40053156
77	0x3f781c02	0.96917737
78	0xc059473a	-3.3949723
79	0xbfa95d11	-1.3231527
80	0xbd8ca8f0	-0.0686816
81	0xbf17ef07	-0.593491
82	0xbef475c2	-0.47746092
83	0xbf898c74	-1.0745988
84	0xbeeb8679	-0.46001032
85	0xbd8d6a98	-0.06905097
86	0xc0386908	-2.8814106
87	0x3eb902c3	0.3613492
88	0x3decbc4b	0.115593515
89	0x3f7e77bc	0.9940145
90	0xbf25e217	-0.6479811
91	0xbf9058f4	-1.1277146
92	0x3e26e860	0.16299582
93	0x3ff7d88a	1.9362957
94	0x3ea2f6f6	0.3182904
95	0xbb8c9611	-0.0042903502
96	0x3f5d3821	0.8641377
97	0xc044a05d	-3.0722878
98	0x3ebdf1bf	0.370985
99	0xbfcbeb81	-1.5931245
100	0xbe9ae487	-0.30252478
101	0x3cc987c4	0.02460087
102	0x3f2d6145	0.67726547
103	0xbf87f874	-1.0622697
104	0x3e524db9	0.20537461
105	0xbe1351e6	-0.1438671
106	0xbf0553c0	-0.5208092
107	0xbe9eac00	-0.309906
108	0xbe241b3e	-0.16026017
109	0xbfcfa6c5	-1.6222769
110	0x3f997fe1	1.199215
111	0xbd109c1e	-0.035305135
112	0xbedf147b	-0.43570313
113	0xbedb8ba7	-0.42879984
114	0xbf8d1fb3	-1.1025299
115	0x400d024e	2.2032657
116	0x3ead44b0	0.33841467
117	0x3f1d6186	0.61476934
118	0x3ff81cbd	1.938377
119	0x4026b20b	2.6046169
120	0xc0025696	-2.0365348
121	0xbf8d0f86	-1.1020362
122	0x3e9db439	0.3080156
123	0xbf0deed6	-0.5544256
124	0xbfcbe3c2	-1.5928881
125	0xbfc3f3b9	-1.5308753
126	0xc087a2f1	-4.2386403
127	0xbda3cfaa	-0.07998593
128	0x406da204	3.7130136
129	0xc069e2fa	-3.6544785
130	0xbf7d4a70	-0.9894171
131	0x3fb023c4	1.3760915
132	0xc0659c6b	-3.587672
133	0xbf0a321f	-0.5398273
134	0xbe57da76	-0.2107943
135	0xbf6d010e	-0.92579734
136	0xbf957102	-1.1675112
137	0xbfd52d0a	-1.665437
138	0xc03d0e4f	-2.9539983
139	0xbfaab148	-1.3335352
140	0xbf7f3a83	-0.99698657
141	0xbfedd549	-1.8580714
142	0x3fe5d7ad	1.7956444
143	0xbfaab3ab	-1.333608
144	0xbe31b9d0	-0.17356038
145	0xbfbb7ac2	-1.4646838
146	0xbfa927c2	-1.3215258
147	0x3f00f89f	0.50379366
148	0xbed1eec8	-0.41002488
149	0x3eba51ca	0.36390525
150	0xbf85428c	-1.0410933
151	0xbf9663da	-1.1749222
152	0xc042a421	-3.0412676
153	0xbf70dd46	-0.94087636
154	0xbfb6f5b6	-1.4293735
155	0xc0103ff9	-2.2539046
156	0xbf588b5a	-0.84587634
157	0xc02ecf50	-2.7314034
158	0xbfa2f7b9	-1.2731849
159	0xbf64ec0d	-0.89422685
160	0xbf9fa4ac	-1.2472129
161	0xc0035a10	-2.052372
162	0xbf81009f	-1.0078315
163	0xbfe359a4	-1.7761731
164	0x3f231d05	0.63716155
165	0xbfd27c27	-1.6444138
166	0xbf3b5e3b	-0.7319066
167	0xbf970c31	-1.1800596
168	0xbee626e9	-0.4495156
169	0x3f35c1f3	0.7099907
170	0xbebf42c5	-0.3735563
171	0xbfe8dd35	-1.8192507
172	0xbf3cd0a2	-0.7375585
173	0x3f3d911f	0.7404956
174	0x3ed1b7d6	0.40960568
175	0xbf8ef1c6	-1.1167533
176	0xbf91ef90	-1.1401234
177	0xbfcc9ae6	-1.5984771
178	0x3fa73974	1.3064408
179	0xbf1797d8	-0.5921607
180	0xbfcb73b6	-1.5894687
181	0xbf983a31	-1.1892759
182	0xbf820340	-1.0157242
183	0xbee76d8d	-0.45200768
184	0xbe070647	-0.13185988
185	0x3ec125bc	0.37724102
186	0xbf8ce03e	-1.1005933
187	0xbfc5a37d	-1.5440518
188	0xbee1f00d	-0.44128457
189	0x3fee3562	1.8610041
190	0xbf71f79b	-0.9451844
191	0xbf941ed2	-1.1571906
192	0xc0157233	-2.3350952
193	0x4027ac20	2.6198807
194	0x3ef1157d	0.47086707
195	0xbe244826	-0.16043147
196	0xbd9e533b	-0.07730719
197	0x3f4167e0	0.75549126
198	0xbf65fb5f	-0.89836687
199	0x3eae19b7	0.34003994
200	0xbf3cef86	-0.73802984
201	0xbfccf708	-1.6012888
202	0x3fea5fc2	1.8310473
203	0xbdf8f45e	-0.12155984
204	0x3e6de770	0.23232818
205	0xbfb5be42	-1.4198687
206	0xc00b00d0	-2.1719246
207	0xbee40f0e	-0.44542736
208	0xbf07f9a5	-0.531153
209	0x3e8879ed	0.26655522
210	0xbf9c6133	-1.2217163
211	0x3f447c80	0.7675247
212	0x3f07a094	0.529794
213	0x3f01c754	0.50694776
214	0x3f8695e6	1.0514495
215	0x3fcdc6ae	1.6076257
216	0x3fe2f44e	1.7730806
217	0x3e13bb46	0.14426908
218	0xbf00b39a	-0.5027405
219	0x3fd4d668	1.6627932
220	0x3e2589a2	0.16165784
221	0xbf9704ff	-1.17984
222	0x4002b5fd	2.0423577
223	0xbf08d50b	-0.5345008
224	0x3fe31527	1.774083
225	0x3ee539d5	0.44770685
226	0xbf1dd0ff	-0.6164703
227	0xbf4c2981	-0.7975083
228	0xbfba2e63	-1.4545406
229	0x3d35d8dc	0.044396266
230	0x3e8c175e	0.27361578
231	0x3f2baf80	0.67064667
232	0x3d9bb9c3	0.076037906
233	0xbfa3af39	-1.2787849
234	0x3f49b1dc	0.78787017
235	0x3f1f3a58	0.621984
236	0x3f9be389	1.2178813
237	0xbe312714	-0.17300063
238	0xbf87d038	-1.0610418
239	0xbf28edc9	-0.6598783
240	0xbe4b369e	-0.19845054
241	0x3d883f89	0.06652743
242	0xbf716402	-0.94293225
243	0x3f3020d2	0.6880008
244	0x3da556b3	0.08073177
245	0x3e867ad8	0.26265597
246	0x3fd6fc20	1.6795692
247	0x3fd7e34e	1.6866243
248	0xbff9d63e	-1.9518507
249	0xbfab0960	-1.3362236
250	0xbe0407ac	-0.12893552
251	0x3e90a0c9	0.2824767
252	0xbfebd760	-1.8425102
253	0xbe7ebc61	-0.24876548
254	0xbf3ff23c	-0.74978995
255	0x3ee8697f	0.45392987

weight f4 [8, 80]
0	0xbe8d5174	-0.27601206
1	0xbe68fc7b	-0.22752564
2	0x3d988878	0.07447904
3	0xbe204021	-0.15649463
4	0x3e035755	0.12826283
5	0xbec2c402	-0.38040167
6	0xbedf55b1	-0.43620065
7	0x3e540ed9	0.20708789
8	0x3cdcbc21	0.026945176
9	0xbe3977dc	-0.18112129
10	0xbf01ba8b	-0.50675267
11	0xbdb1e54b	-0.08686312
12	0xbedfcc9d	-0.43710795
13	0xbef8b506	-0.4857561
14	0x3eca34da	0.39493448
15	0xbdcf3b5a	-0.10118742
16	0xbdecb29d	-0.11557505
17	0xbe83ca95	-0.25740495
18	0xbd1a5c42	-0.03768564
19	0x3e139529	0.14412369
20	0x3dbd5e88	0.09246546
21	0xbd95f57f	-0.07322215
22	0xbe32975f	-0.17440556
23	0x3e9470c4	0.28992283
24	0x3e8784c1	0.2646847
25	0x3d353a0e	0.04424482
26	0x3dc3b621	0.09556223
27	0xbeecfe27	-0.46287653
28	0xbec56b88	-0.38558602
29	0x3eaef65b	0.3417233
30	0x3e9e0a87	0.30867407
31	0xbd3e9516	-0.0465289
32	0x3e0fc48e	0.14039823
33	0xbed89e8f	-0.4230847
34	0x3ed664c6	0.4187376
35	0x3eef8ddf	0.46787927
36	0x3db1879f	0.08668446
37	0xbeae6474	-0.34061015
38	0x3ee35572	0.44401127
39	0xbee41a47	-0.44551298
40	0xbe549533	-0.2076004
41	0x3e168e74	0.14702779
42	0x3ed16951	0.40900663
43	0xbefbdbd5	-0.49191156
44	0xbe170e32	-0.14751509
45	0xbf078252	-0.5293323
46	0xbe7b4a42	-0.24540046
47	0x3e6e9337	0.23298346
48	0x3e4bcef8	0.19903171
49	0xbd2b7763	-0.041861903
50	0x3d0bada7	0.034101155
51	0xbf171e99	-0.59031063
52	0x3d9b221e	0.07574867
53	0x3f1824fe	0.59431446
54	0x3f2466b3	0.64219207
55	0xbecfdd4f	-0.40598533
56	0x3d7bc698	0.06146869
57	0x3ecb5eb1	0.3972068
58	0x3e2cadcf	0.16863178
59	0x3e5b5dea	0.21422544
60	0x3f04297a	0.5162579
61	0x3e9f2b0f	0.3108754
62	0xbeaf548d	-0.34244195
63	0xbef558c5	-0.47919288
64	0xbedd2132	-0.4318939
65	0x3d623e17	0.055234995
66	0xbe716488	-0.23573506
67	0xbd8e3d41	-0.06945277
68	0xbdbe5d79	-0.09295172
69	0x3ee49f20	0.44652653
70	0xbd2b1b90	-0.041774333
71	0x3df8da54	0.12151018
72	0x3f2b909f	0.6701755
73	0xbe067b4d	-0.13132973
74	0xbe362a85	-0.17789657
75	0xbd27a4fe	-0.040928833
76	0xbe854b51	-0.26034024
77	0xbe753b31	-0.23948361
78	0x3f0bc67c	0.5459974
79	0x3ee79876	0.45233506
80	0xbe28010a	-0.16406646
81	0xbf561a9a	-0.8363434
82	0xbeb0c495	-0.3452498
83	0x3f965884	1.1745763
84	0xbeaca694	-0.3372084
85	0xbf389d36	-0.72114885
86	0xbe0fd2f8	-0.14045322
87	0xbe9a285b	-0.30108914
88	0xbeecfd80	-0.46287155
89	0x3ca6e34c	0.020372055
90	0x3f80ecc9	1.0072261
91	0xbe1d1ebb	-0.15343754
92	0x3e899c07	0.26876852
93	0xbf060261	-0.5234738
94	0x3c2c3d1e	0.010512618
95	0xbe27176a	-0.16317526
96	0x3f8e5ba6	1.1121719
97	0x3ea4bb1f	0.32174012
98	0xbfb76c74	-1.4329972
99	0x3f10a0b2	0.564952
100	0x3f817583	1.0113987
101	0xbf287bc9	-0.6581388
102	0xbf4b3c9f	-0.79389375
103	0x3e2baabc	0.16764349
104	0xbf1c9f4e	-0.6118058
105	0xbf863698	-1.0485411
106	0x3f53c453	0.8272144
107	0xbf6b9cee	-0.9203633
108	0xbf1366d6	-0.5757879
109	0x3f88f708	1.0700388
110	0xbe46b970	-0.19406676
111	0x3f7777d6	0.9666723
112	0x3e413ad8	0.18870103
113	0x3d61c2de	0.05511748
114	0x3f138f0a	0.57640135
115	0x3f805e57	1.002879
116	0x3efcb6ee	0.49358314
117	0x3f92a9f9	1.1458122
118	0x3f5fc07f	0.874031
119	0x3ecf51fa	0.4049223
120	0xbdce2b53	-0.10066857
121	0x3ea37e9b	0.3193253
122	0x3f41870f	0.7559671
123	0x3e1d000e	0.15332052
124	0xbedef169	-0.43543556
125	0xbf2138db	-0.6297738
126	0xbf543546	-0.8289379
127	0xbec884d0	-0.39163828
128	0xbf56284f	-0.83655256
129	0xbfce329a	-1.6109192
130	0xbcf4e427	-0.029893948
131	0x3e4a2fbf	0.19744776
132	0xbd5c6e03	-0.053815853
133	0x3e1308e4	0.1435886
134	0x3f1c1e42	0.6098367
135	0xbd8f971f	-0.07011246
136	0xbe7fd440	-0.2498331
137	0x3ee50e8e	0.44737667
138	0xbeb351c6	-0.35023326
139	0x3fadee60	1.3588371
140	0x3f0a85a4	0.5411017
141	0xbda83ec1	-0.08215094
142	0xbf0dec6d	-0.5543888
143	0x3c9ceac7	0.01915492
144	0x3e46595d	0.19370027
145	0x3eb6918c	0.35657918
146	0x3f2a4e3c	0.66525626
147	0xbe2c1be8	-0.1680752
148	0x3e2c78a6	0.16842899
149	0xbdeecf10	-0.11660588
150	0xbe749988	-0.23886693
151	0xbae9cf53	-0.0017838277
152	0x3e510080	0.20410347
153	0xbec05020	-0.3756113
154	0xbe27d75b	-0.16390745
155	0x3d48778c	0.048942134
156	0xbeb63431	-0.35586694
157	0xbe491e9a	-0.1964058
158	0x3cabb4f4	0.020960309
159	0x3e3923e5	0.18080099
160	0x3f2d3908	0.6766515
161	0xbf2faead	-0.6862591
162	0xbda999ea	-0.0828131
163	0x3f31f55f	0.6951503
164	0xbf4ab49b	-0.7918183
165	0x3fb0e76e	1.3820627
166	0xbf4fe002	-0.81201184
167	0xbfd6edec	-1.6791358
168	0x3dfe3ba7	0.124137215
169	0xbf88221b	-1.0635408
170	0x3ff42c1a	1.9075959
171	0xbf2dfeec	-0.67967105
172	0xbf145134	-0.57936406
173	0x400f5904	2.239808
174	0xc039c0dd	-2.9023964
175	0xbe4d8b81	-0.20072748
176	0x3f0031fb	0.50076264
177	0x3fc25df5	1.5184923
178	0x3eb102f0	0.34572554
179	0xc00083e7	-2.0080507
180	0xbefce67a	-0.4939459
181	0x3f62d4de	0.8860606
182	0xbec0b296	-0.3763625
183	0xbf0a5519	-0.540361
184	0xbdba38d4	-0.0909287
185	0x3f41eb7d	0.7574995
186	0x3e925535	0.28580633
187	0xbea9931a	-0.33120042
188	0x3f25f151	0.64821345
189	0x3f4875cf	0.7830476
190	0x3e460e2b	0.19341342
191	0xbf9c0d29	-1.2191516
192	0xbf6660d8	-0.8999152
193	0xbfa67181	-1.3003389
194	0xbf9a602c	-1.2060599
195	0xbe98e90c	-0.298653
196	0xbe681698	-0.22664869
197	0x3faa9a38	1.3328314
198	0x3e96d330	0.29457998
199	0xbcf648d1	-0.030064018
200	0x3f9cc41e	1.224735
201	0x3f09b941	0.537983
202	0xbe1e9ce4	-0.15489537
203	0xbdafa86c	-0.08577046
204	0x3f4691ff	0.7756652
205	0xbecb2121	-0.39673713
206	0x3fd279ba	1.6443398
207	0x3f3a5537	0.7278628
208	0xbf3b9476	-0.7327341
209	0xbf8de80f	-1.1086444
210	0x3ec6fa55	0.38862863
211	0xbd819be2	-0.063285604
212	0x3e8d98cc	0.27655637
213	0x402f00e5	2.7344296
214	0x40585f73	3.3808258
215	0xc042e171	-3.0450099
216	0xbc8aecd4	-0.016958632
217	0xbe8a309d	-0.26990214
218	0x3ddb4137	0.10705798
219	0x3fd1c1c5	1.6387259
220	0x40002dda	2.0027986
221	0xbc7ba41b	-0.01535895
222	0xbf95759c	-1.1676517
223	0xbfb10ac6	-1.3831413
224	0xc0263c24	-2.5974207
225	0x3e6f8340	0.23389912
226	0xbf3aeb96	-0.73015726
227	0xbe74c9ee	-0.23905155
228	0xbf9666e9	-1.1750156
229	0xbd84c1b3	-0.06482258
230	0xbf465bd8	-0.7748389
231	0xbf2a16d4	-0.6644108
232	0x40288fc4	2.6337748
233	0xbf4bc02b	-0.795901
234	0xbf9c7701	-1.2223817
235	0xbea48dac	-0.32139337
236	0xbf08dd77	-0.5346293
237	0x3ed83a2c	0.42231882
238	0x40597736	3.397901
239	0x3f6256b2	0.88413537
240	0xbfb1de16	-1.38959
241	0xbf3e7ebb	-0.74412125
242	0x3e843072	0.2581821
243	0xbdfc39cf	-0.123157136
244	0xbfb0a4d3	-1.38003
245	0xbf6b8ff4	-0.9201653
246	0xbec1027c	-0.37697208
247	0x3e425233	0.18976669
248	0x3e903059	0.28161886
249	0xbfa2a5c5	-1.2706839
250	0xbf9753d3	-1.1822456
251	0x3ed41f21	0.4143
252	0xbfb8291c	-1.4387546
253	0x3dfe0eac	0.12405142
254	0xbe9c81a5	-0.3056766
255	0xbe49510e	-0.19659826

bias f4 [8]
0	0xbf4da1be	-0.80324924
1	0xbf52ec71	-0.8239203
2	0xbf5bfe79	-0.8593517
3	0xbfe0be13	-1.7558006
4	0x3bd34171	0.00644701
5	0xbf81d035	-1.0141665
6	0xbfa69160	-1.3013115
7	0x3ed0ed35	0.40805975

weight f4 [1, 8]
0	0x3e22501f	0.15850876
1	0x3e4f397f	0.20236777
2	0x3fbdc72d	1.4826409
3	0xbd00ad1f	-0.0314151
4	0x3f54e6de	0.83164775
5	0xbf4c377d	-0.7977217
6	0xbe5b2e38	-0.2140435
7	0x3f3e6a80	0.74381256

weight f4 [4, 32, 32]
0	0xb32e8acc	-4.0638767e-08
1	0x3590ee73	1.0798234e-06
2	0xa017c039	-1.2853799e-19
3	0xb6f185aa	-7.1979202e-06
4	0xbbbd74b4	-0.0057817344
5	0x3a1ccb8e	0.000598126
6	0xbe38188f	-0.17978118
7	0xbb94c191	-0.0045396765
8	0xa6e104e2	-1.5613835e-15
9	0xa51a755d	-1.3397135e-16
10	0xbd44bc9a	-0.048031427
11	0xbcd58585	-0.026064644
12	0xbb90e758	-0.0044221096
13	0x341f6f19	1.4848446e-07
14	0x3cfef060	0.03112048
15	0xb503701f	-4.896446e-07
16	0xbde832d5	-0.113378204
17	0xa30ca21c	-7.623743e-18
18	0xaf5f26d7	-2.029553e-10
19	0x3972c629	0.00023152739
20	0xad17a981	-8.620994e-12
21	0xbb7526b4	-0.0037407102
22	0xbe840958	-0.2578838
23	0x37f6ea58	2.943461e-05
24	0xbc198660	-0.009370416
25	0xa074758c	-2.0706497e-19
26	0xbe01f3fe	-0.12690732
27	0xba00af67	-0.00049089495
28	0x3b1e0031	0.0024109
29	0x3317e05a	3.5361474e-08
30	0xba51f929	-0.0008009845
31	0xbd4f7ef1	-0.05065817
32	0xb606cc96	-2.008664e-06
33	0xbd885578	-0.06656927
34	0xaad4765f	-3.7740901e-13
35	0x2effe994	1.1637549e-10
36	0xbd91a050	-0.07110655
37	0xa8436555	-1.0846647e-14
38	0xbe32ea0b	-0.17472093
39	0xba31350e	-0.000675992
40	0x3a90d030	0.0011048373
41	0x31ea9893	6.827642e-09
42	0xbb367c54	-0.0027845101
43	0x32030bc5	7.62788e-09
44	0xbd884ccd	-0.066552736
45	0xbbf8549c	-0.0075784456
46	0xbedd5011	-0.43225148
47	0xb97c3fa9	-0.00024056308
48	0xba81e410	-0.0009909887
49	0xabe48c79	-1.6239363e-12
50	0x3da9b163	0.08285787
51	0xbd982fca	-0.0743099
52	0x3da2d674	0.0795106
53	0x3c2c394f	0.01051171
54	0xbdf5c04a	-0.11999567
55	0xbb3ce4e2	-0.0028822948
56	0xbc512777	-0.012765757
57	0x347e0022	2.3655642e-07
58	0x3e0717c1	0.13192655
59	0xba8c76d3	-0.0010716565
60	0xbbb2fe39	-0.0054624346
61	0xbc956c06	-0.018239986
62	0x3915af1b	0.00014274979
63	0xbdc4e82c	-0.09614596
64	0x313b5916	2.726272e-09
65	0xba6e43f4	-0.00090891053
66	0x23e35462	2.4647127e-17
67	0xb01523d8	-5.425682e-10
68	0xbd24424b	-0.040102284
69	0xa75f739f	-3.1010145e-15
70	0xbdd2dde9	-0.10296232
71	0xaee7bd69	-1.053831e-10
72	0xb5db01e7	-1.6317325e-06
73	0x248311a5	5.6842085e-17
74	0xba4f0af3	-0.0007898055
75	0xb1d4cd2d	-6.193338e-09
76	0xbd28d13d	-0.04121517
77	0xb88bf816	-6.674246e-05
78	0xbdcde06f	-0.10052573
79	0xb5272a56	-6.2273955e-07
80	0xba332a4f	-0.00068346126
81	0xa31ea917	-8.601003e-18
82	0x3d624416	0.055240713
83	0xbd28c969	-0.041207705
84	0x3a40a01d	0.00073480775
85	0x3cc25c5b	0.02372568
86	0xbe9c8c8d	-0.30575982
87	0x38030cd5	3.1244785e-05
88	0xbac05136	-0.001467264
89	0x23d70d21	2.3315907e-17
90	0x3c7c42fd	0.015396831
91	0x2f13b3ba	1.3433424e-10
92	0xbc877fb4	-0.016540386
93	0x3b438a7a	0.0029837177
94	0x384a7fc9	4.8279562e-05
95	0xbe01b79f	-0.12667702
96	0x31914a83	4.2285264e-09
97	0x131e15fe	1.9953247e-27
98	0x067b68f2	4.7284955e-35
99	0x1e5bcf11	1.1636584e-20
100	0xb806b835	-3.2119646e-05
101	0xa5ce9aa5	-3.5840095e-16
102	0xbdb87d07	-0.09008222
103	0xb98b2f7c	-0.00026547525
104	0x92934c76	-9.295853e-28
105	0x0634196b	3.3872911e-35
106	0xb93629e2	-0.00017372475
107	0xb46557b6	-2.1359196e-07
108	0xbaada875	-0.0013249057
109	0xaebeec9c	-8.68223e-11
110	0x3a9ba6ef	0.0011875312
111	0xb057defa	-7.8533413e-10
112	0x37707159	1.4331506e-05
113	0x2207845d	1.8365984e-18
114	0x9fb19ad6	-7.521857e-20
115	0x3310c1ed	3.3703987e-08
116	0xaf695b0a	-2.122357e-10
117	0xbaa8b24c	-0.001287052
118	0xbe2d3e8c	-0.16918391
119	0xa4620b2f	-4.901541e-17
120	0xb0528cab	-7.6597456e-10
121	0x30f1ee7a	1.7602837e-09
122	0xbd76157b	-0.06007908
123	0x3a8aedc7	0.0010599428
124	0xa78edb2b	-3.965054e-15
125	0x32311fbc	1.03099715e-08
126	0xb1bd6380	-5.511936e-09
127	0xbde71650	-0.11283553
128	0xbb40a2c3	-0.0029393889
129	0xbd1814c8	-0.037129194
130	0xb902e7ea	-0.00012484161
131	0x3520e6d1	5.9940527e-07
132	0x3e00bbf4	0.12571698
133	0xba71b9d3	-0.00092211104
134	0xbd5d9beb	-0.054103773
135	0xbe69469b	-0.2278084
136	0xbd579fe2	-0.05264271
137	0x30a9eb79	1.2363294e-09
138	0xbe0c8128	-0.13721144
139	0xbbad1e77	-0.0052831727
140	0xbee1ab5e	-0.44076055
141	0xbd924b3d	-0.07143257
142	0x3ebe2114	0.37134612
143	0xbdd99d0c	-0.106256574
144	0xbe9be53b	-0.30448326
145	0x3a24a257	0.0006280294
146	0x3eb0a582	0.34501272
147	0xbe18a928	-0.14908278
148	0x3cd7eeab	0.026358923
149	0x3e0801a0	0.1328187
150	0x3e078c8b	0.13237207
151	0xbd19b3e4	-0.037525073
152	0xbe340122	-0.17578557
153	0x9b87b346	-2.244973e-22
154	0xbc4864ff	-0.012231111
155	0xbd93d673	-0.07218637
156	0xbe44be40	-0.192132
157	0xbd80cff2	-0.062896624
158	0x3d34422e	0.044008426
159	0xbe863697	-0.26213524
160	0x3717088d	9.002292e-06
161	0xa09367b9	-2.4971407e-19
162	0x9800a898	-1.662873e-24
163	0x351c41e9	5.821044e-07
164	0xb37e54b5	-5.9216024e-08
165	0xbc679a9a	-0.014135981
166	0x3d8f4059	0.06994695
167	0x9f4cbfab	-4.3357224e-20
168	0x93b0363d	-4.448213e-27
169	0x97aa6bbb	-1.10131875e-24
170	0x378c10da	1.6697148e-05
171	0x376a0eda	1.3950945e-05
172	0x3710db18	8.634081e-06
173	0xa3201800	-8.6786996e-18
174	0x3e265286	0.16242418
175	0x25a040f0	2.779958e-16
176	0x3cca4762	0.024692241
177	0x30a19ee3	1.175945e-09
178	0x912f318a	-1.3820331e-28
179	0x3842044a	4.62572e-05
180	0xa4afc4d3	-7.6227585e-17
181	0xb99e89d6	-0.00030238804
182	0x3e2f5c7e	0.17125127
183	0x23593b5d	1.1776164e-17
184	0x2910b8e8	3.2134804e-14
185	0x0f9f4ecd	1.5708963e-29
186	0xba3cd25a	-0.00072029757
187	0x22a2607a	4.4012337e-18
188	0x346d3c38	2.2094252e-07
189	0x2dd0f4e9	2.3755624e-11
190	0xb406f4da	-1.2568799e-07
191	0x3db2ed4a	0.087366655
192	0x332e23cc	4.054509e-08
193	0xb046e2a4	-7.2354056e-10
194	0x154635d1	4.0028235e-26
195	0xb33750f0	-4.268162e-08
196	0xb83ab3a5	-4.4513163e-05
197	0xa17ae356	-8.500417e-19
198	0xbca80f4b	-0.020515105
199	0xb6dcae3d	-6.576795e-06
200	0x2916fb21	3.352451e-14
201	0x936915bc	-2.941945e-27
202	0x328df75a	1.6527043e-08
203	0xbb546ab7	-0.003241224
204	0x26cdde10	1.4284923e-15
205	0x370e57d6	8.4843105e-06
206	0xbd380fad	-0.044936825
207	0xa9221782	-3.5991616e-14
208	0x901e05d6	-3.1164502e-29
209	0x21ef6fe8	1.6224891e-18
210	0xae56e59a	-4.8861894e-11
211	0xb9a23def	-0.00030945192
212	0xb0c9d8d5	-1.4686302e-09
213	0xba9e8fd9	-0.0012097313
214	0xbdcdc3c9	-0.10047109
215	0x24427452	4.216557e-17
216	0x38b66e36	8.698965e-05
217	0x9283de63	-8.322085e-28
218	0xbc30656c	-0.010766368
219	0x2b2d30c7	6.152964e-13
220	0x3680d173	3.8390804e-06
221	0xb5c3c379	-1.4585522e-06
222	0x3a6b1bc3	0.00089686754
223	0x370c27e1	8.353935e-06
224	0xbc1843ad	-0.009293479
225	0xb655bb28	-3.1848413e-06
226	0xb51f08d0	-5.924494e-07
227	0x9b71c1a5	-1.9997623e-22
228	0xbcd0c9d1	-0.025486859
229	0x2513de7a	1.2825596e-16
230	0xbeb5a7dd	-0.35479632
231	0xbb49efbe	-0.0030813063
232	0x3dad887e	0.084732994
233	0xadb37b66	-2.0404744e-11
234	0xbcce415a	-0.025177646
235	0xbd333115	-0.04374798
236	0xbb715385	-0.0036823463
237	0xbad4c638	-0.001623339
238	0x3c74fe3c	0.014953192
239	0x3badf79f	0.0053090598
240	0x3b9ee63c	0.0048492234
241	0x349ac074	2.8824763e-07
242	0x3c47a7a8	0.012185968
243	0xbb0b1596	-0.0021222583
244	0xb0e57376	-1.6694759e-09
245	0xbbfa659d	-0.007641508
246	0xbcd98f50	-0.026557595
247	0x3d3678a3	0.044548642
248	0xb827e7d4	-4.003181e-05
249	0x31d73c0c	6.26415e-09
250	0x3e983298	0.297261
251	0xbcdd024e	-0.026978638
252	0x3b5ceb99	0.0033709763
253	0xbdce48d2	-0.10072483
254	0x3ae7fa78	0.0017698547
255	0xbe32995b	-0.17441313

w_comp f4 [122, 4]
0	0xa7b05aa7	-4.89481e-15
1	0xa885f4b9	-1.4872098e-14
2	0xa8333ba1	-9.949426e-15
3	0xa8a80db1	-1.8657685e-14
4	0x3d790b50	0.060801804
5	0xbea8569d	-0.3287858
6	0x3dc4ae92	0.09603609
7	0x3e4799dc	0.19492286
8	0x3e12c075	0.14331229
9	0x3ca2e53e	0.019884702
10	0xbd238ed0	-0.03993112
11	0x3ddb5cb9	0.10711045
12	0x0001925f	1.44344e-40
13	0x80018a3f	-1.41429e-40
14	0x80008455	-4.7472e-41
15	0x802b7197	-3.989675e-39
16	0x000023a9	1.2792e-41
17	0x0000887c	4.8961e-41
18	0x8000463d	-2.5197e-41
19	0x8001196f	-1.0096e-40
20	0xb2f78080	-2.881302e-08
21	0xb4223286	-1.5105806e-07
22	0x33c72e2c	9.275058e-08
23	0x2fbf3600	3.4781067e-10
24	0x37a9e218	2.0251653e-05
25	0x37cf3a02	2.4703335e-05
26	0xb925ad54	-0.00015800196
27	0x38f14259	0.00011504134
28	0xb00aa6ed	-5.0441323e-10
29	0xb88f64fe	-6.8375826e-05
30	0x24096cbc	2.979924e-17
31	0x384d3e1d	4.8933656e-05
32	0xaf5c19b2	-2.0018012e-10
33	0x323f708a	1.1143252e-08
34	0xb2b0da00	-2.0588232e-08
35	0x2af1fd5c	4.2986003e-13
36	0xbecc19ee	-0.39863533
37	0xbea6de7c	-0.32591617
38	0xbec75bbf	-0.38937184
39	0x3e6c9e0d	0.23107167
40	0xbe8cdcb2	-0.27512127
41	0x3eacfa4c	0.3378471
42	0xbe0b9c2d	-0.13633795
43	0x3ea63f9d	0.32470408
44	0xb1692555	-3.3927183e-09
45	0xacccaab7	-5.816982e-12
46	0x2cdf50a8	6.346996e-12
47	0x2d91d82f	1.6580596e-11
48	0x3cbf3bd9	0.023343967
49	0xb58408e5	-9.837355e-07
50	0x3c9ee932	0.019398306
51	0xbc8ccd6f	-0.017187802
52	0x3bf5d476	0.007502134
53	0x3a1c3654	0.0005959023
54	0x3d42e54c	0.047581956
55	0x3cf3176e	0.029674258
56	0xb0ca527f	-1.4720881e-09
57	0xb025e31f	-6.034941e-10
58	0xaf372963	-1.6658457e-10
59	0x30ea7ae9	1.7060674e-09
60	0xb2223278	-9.441116e-09
61	0x805da3bb	-8.599437e-39
62	0xb1d87ef1	-6.300859e-09
63	0xa7518a55	-2.9079566e-15
64	0xbdd71b9e	-0.105033144
65	0x3d0dc535	0.0346119
66	0xbe8eb3ef	-0.27871653
67	0xbe90b4a8	-0.2826283
68	0xbf036860	-0.5133114
69	0x3df47990	0.11937249
70	0xbe22a132	-0.15881804
71	0xbed6425a	-0.41847497
72	0xbcd6ec28	-0.026235655
73	0xb2dc6c75	-2.5660691e-08
74	0xbc976379	-0.01848005
75	0x2da985c2	1.9272476e-11
76	0xbdaa91b8	-0.08328575
77	0x3e3203b9	0.17384233
78	0xbdeb8620	-0.11500192
79	0xbedca2e3	-0.43093023
80	0x3bc00d1f	0.005860939
81	0x3ce02952	0.027363453
82	0x3d030885	0.031990547
83	0xbd5be0ba	-0.053681113
84	0xb7d726ca	-2.564806e-05
85	0x37a9b747	2.0231715e-05
86	0xb7dcf282	-2.633897e-05
87	0x381a319a	3.6762656e-05
88	0xbd7e29ed	-0.062051702
89	0x3c7a6174	0.015282024
90	0xbd474303	-0.04864789
91	0xbd010f9b	-0.031509023
92	0xbdfca307	-0.123357825
93	0xbdb930e1	-0.09042526
94	0xbd6af17e	-0.05735921
95	0x3c7b6c80	0.015345693
96	0xbcbe4fe9	-0.023231464
97	0x3df7cf19	0.121000476
98	0x3d1d28db	0.03836904
99	0xbcfb7b48	-0.030698434
100	0x26148fb7	5.1542585e-16
101	0x26adcd6c	1.2059966e-15
102	0x245a0b54	4.728081e-17
103	0xbb51b00e	-0.0031995806
104	0x80012487	-1.04939e-40
105	0xad097224	-7.812893e-12
106	0x00001a8a	9.52e-42
107	0xb51846ac	-5.6727254e-07
108	0x3edea152	0.43482453
109	0x3eb9e1aa	0.3630498
110	0x3edbe2ba	0.42946416
111	0xbec27ef3	-0.3798748
112	0xbe8df281	-0.27724078
113	0xbe89e953	-0.26935825
114	0xbe8c5680	-0.27409744
115	0x3e8dc32c	0.27687967
116	0x3cc6ac1f	0.024251996
117	0xbc4be8ba	-0.012445623
118	0xbe6ece7e	-0.23320958
119	0x3d0bad3a	0.03410075
120	0x35c1b01c	1.4430875e-06
121	0x35c32e1a	1.454205e-06
122	0xb56c2113	-8.796498e-07
123	0xb502ab81	-4.8678345e-07
124	0x32f2a34c	2.8246767e-08
125	0xb40b7349	-1.2987324e-07
126	0x31ef36fe	6.9620674e-09
127	0xbd6d866e	-0.05798953
128	0xbb320776	-0.0027165092
129	0xa7f3958b	-6.7608184e-15
130	0xbc19c076	-0.009384265
131	0xbb017ceb	-0.0019758295
132	0x30274c00	6.086225e-10
133	0x25c2bebf	3.378289e-16
134	0xb662129a	-3.3687452e-06
135	0x371b33f0	9.250813e-06
136	0xbde07a62	-0.10960843
137	0x3dd9fe83	0.106442474
138	0xbde3bbcf	-0.11119806
139	0x3d990ac9	0.0747276
140	0x3e7a1579	0.24422254
141	0xbdcdbd2a	-0.10045846
142	0x3e71df4b	0.23620336
143	0xbdde1025	-0.10842923
144	0x1bf8ce9c	4.1161677e-22
145	0x1d8a8ad6	3.667185e-21
146	0x1d825f3f	3.4509196e-21
147	0x9de7e83c	-6.1385316e-21
148	0xbe4a9412	-0.19783047
149	0xbe027ab4	-0.1274212
150	0xbecc9820	-0.39959812
151	0xbd471947	-0.04860809
152	0x2afce289	4.4921383e-13
153	0x2a512518	1.8575798e-13
154	0x291b1471	3.4434644e-14
155	0x2a90d092	2.5724263e-13
156	0x3e34a776	0.17642006
157	0xbdb466cf	-0.08808672
158	0x3eecfff6	0.46289033
159	0x3e2a67be	0.16641137
160	0x3282a4be	1.5208908e-08
161	0xb2ebf236	-2.7467745e-08
162	0x32a9676f	1.9721226e-08
163	0xb06c7604	-8.602401e-10
164	0x232ba21c	9.3042566e-18
165	0x1e0f0671	7.571689e-21
166	0xa148f6d5	-6.8089315e-19
167	0x21a910c6	1.1456325e-18
168	0x0000a1cb	5.804e-41
169	0x8000d93d	-7.793e-41
170	0x000086fd	4.8425e-41
171	0x0000607f	3.4616e-41
172	0x003bac5d	5.480127e-39
173	0x000051eb	2.9387e-41
174	0x0006617b	5.85982e-40
175	0x800140f1	-1.15132e-40
176	0x0e0af60c	1.712828e-30
177	0x0db86b88	1.1365763e-30
178	0x8ea13c80	-3.9747824e-30
179	0x0f8ecf99	1.4082245e-29
180	0xb9aae13a	-0.00032592734
181	0xb80a2e40	-3.2944838e-05
182	0xb8dbb19d	-0.00010475817
183	0xbaf7287f	-0.0018856673
184	0xbc069d59	-0.008216226
185	0xba7ca845	-0.0009638111
186	0xbc4b0a14	-0.0123925395
187	0x3acc8c09	0.0015605699
188	0x3bbb4814	0.0057153795
189	0xbbe9c349	-0.0071338755
190	0x3d0ca266	0.034334563
191	0xbc93d59a	-0.01804619
192	0x3964ff75	0.0002183894
193	0xb9577ffa	-0.00020551673
194	0xba660089	-0.00087738835
195	0x3c0875e8	0.008328892
196	0x8000ce72	-7.4059e-41
197	0x0000cea1	7.4124e-41
198	0x8000454d	-2.486e-41
199	0x00003910	2.047e-41
200	0x000151f7	1.21239e-40
201	0x00011320	9.8696e-41
202	0x80010aef	-9.5758e-41
203	0x000000aa	2.38e-43
204	0x3d5eb167	0.054368403
205	0x3e5bcac0	0.21464062
206	0x3df546c0	0.11976385
207	0xbd154655	-0.036444027
208	0xbe92edf8	-0.2869718
209	0xbe8f0154	-0.279307
210	0xbe98b5bc	-0.29826152
211	0x3e911f09	0.2834399
212	0x3daea60f	0.08527767
213	0x396e3af8	0.00022719416
214	0x3e4fa8e6	0.20279273
215	0xbdce0470	-0.1005944
216	0x99985424	-1.5750416e-23
217	0x37e21ec0	2.6955619e-05
218	0x1b195ba7	1.2685478e-22
219	0x1a3bcd6c	3.8836632e-23
220	0xad872ca6	-1.5367551e-11
221	0xab858586	-9.487279e-13
222	0xabfbbd17	-1.7887106e-12
223	0xada90a3a	-1.9217617e-11
224	0x94d292b8	-2.1262451e-26
225	0x13c75a4d	5.0323706e-27
226	0x957a9648	-5.060565e-26
227	0x238e52f2	1.54308e-17
228	0xa47900e5	-5.3994026e-17
229	0xa1584837	-7.327922e-19
230	0xace43761	-6.486298e-12
231	0xa27b8d3e	-3.4091616e-18
232	0xb80611ad	-3.196455e-05
233	0xb0f34d10	-1.770248e-09
234	0xb25ff2a0	-1.3035475e-08
235	0x3987047e	0.00025752553
236	0x1eea5fbc	2.4815309e-20
237	0x9dae5e3b	-4.615485e-21
238	0x1eace76c	1.8306922e-20
239	0x1d954bba	3.951827e-21
240	0x027e17a2	1.8667755e-37
241	0x815531b6	-3.9157587e-38
242	0x01102a70	2.647907e-38
243	0x0250b8e8	1.5334492e-37
244	0xb1470054	-2.8958498e-09
245	0xb5261665	-6.187241e-07
246	0x30f4307e	1.7767119e-09
247	0x30ba7a2b	1.3568003e-09
248	0x248e516a	6.1720604e-17
249	0x2b19cc62	5.464016e-13
250	0x8cef8add	-3.6907356e-31
251	0xa53a8ffd	-1.6181713e-16
252	0x1af39c6b	1.0075515e-22
253	0x9baf58be	-2.900867e-22
254	0x3310092a	3.3535947e-08
255	0xb43b1ef3	-1.7426991e-07
