experiments/grail_nell_v3_ind/graph_classifier_chk.pth (torch, 141134 bytes, 21 tensors)

weight f4 [122, 32]
00000000: 47ae 86bf 5bee f7bf 91c4 ec3d 755b aebc
00000010: 8816 a93e 85d4 563f 51e6 983f 4f58 80bf
00000020: 725c ffbe 62c0 0bbf a19e c13d b6ff 863f
00000030: 36e2 243f 13e1 ddbe 3f51 1ebf e446 44bf
00000040: e31f 51bf 8072 ff3e 7bbd ac3e cc6f ae3e
00000050: 13c7 863e 4863 ecbd 936d 9fbf 218c 15bf
00000060: 2733 183f f3ec 18bf ebcf 00bf 3fd0 fdbe
00000070: 694d 07bf 2134 503e 70f3 613f d136 ccbd
00000080: 903b 2e3f 3b11 563b 77dc 69bf abfd 843d
00000090: 8257 fb3e 0088 b93f 22c5 543f 9835 08c0
000000a0: f6fd a53e d54c 74be 9a17 a13e b196 ec3e
000000b0: c86e 973f 0030 f83e 5b49 10bf 1d73 b23e
000000c0: 00b1 ccbf 6b60 9a3f d384 74bf fdc2 3e3e
000000d0: 679a 2cbd a886 823f 6ef3 dcbe 7f80 ff3e
000000e0: 28e0 de3f 9ecc 53bf cb70 87bf a2b0 1d3f
000000f0: 17fb 163d 39b1 a43d ff5f 9a3f 677f 753e
00000100: e94c 63bf e6ae a4bf d40b f03d d2db 9f3f
00000110: ec07 843f afd6 8f3f 82c9 5640 d3d7 3dc0
00000120: 3c45 b43e 4030 a63d b418 973d b842 e43e
00000130: b668 443f 64a2 38be 981f 6abf 0f63 4abf
00000140: 163d 5cbf de41 703f 11f5 48be dda1 2b3f
00000150: 0fce 40bf d91c 723e f8a2 31bf 5cca 9fbe
00000160: 8ec8 843f d14a 11bf d8c6 84bf 97f9 93be
00000170: 3a40 bcbf b2e0 713e 95eb 193f 191c e23e
00000180: 88ca 2e3e be9b 5bbd 33fc 3a3e cc78 83bd
00000190: 9ad6 933e bbb6 9c3e c93f a63e 5f64 95be
000001a0: 669f 533e e361 14be c425 a43e 5814 5b3e
000001b0: 8a99 8c3e af3f 893e 6de2 89be 9af3 81be
000001c0: c6b6 94be 359c 96bd cb37 4abe 7137 9b3d
000001d0: 27a6 7abe 77d1 833e 35e3 13be 1263 62be
000001e0: 33b1 9f3e 7311 7abe a52a 89be 3d21 27be
000001f0: e250 1cbe 78a8 4c3d 27ec 673e e0e6 563e
00000200: 97dc f33e 8fbc f13e 95dc 1fbe 54f6 b93e
00000210: ecb2 863c c875 18bf 4418 8d3e b0a0 683d
00000220: a2f5 6bbe a28b f5be d9a2 18be 5e14 a73a
00000230: fa65 7dbe ecad e9bc ab3e da3e 2b00 fe3d
00000240: 4572 013f ad45 263f 3608 01bf 7518 d2bd
00000250: ca76 283e b770 273e e245 7d3c 5143 8c3e
00000260: a6f7 f8be a30e 913e 42f9 a63e 6c20 b93d
00000270: 5e8b 323e 24a6 003e cf61 753a c508 cabe
00000280: 3c05 38be 5248 b5be 23bc d23e 89d3 4f3f
00000290: 716f 8f3f 7c40 873e b3c8 05bf 0c9c 433e
000002a0: 8a69 8e3e 922c 0ebe ad67 303f b074 64bf
000002b0: 4d7c ff3d 99e7 7a3e 5448 75be 7161 0ebf
000002c0: be9a 93be 2fb8 0b3f cd08 273e 8e7a 043f
000002d0: 7b46 18bf fa69 26bf 44a6 db3e edb3 4ebf
000002e0: 917d 073f 9e8e 213e d17f bcbe 5d0c 92bf
000002f0: e718 cfbe ca71 93be 1557 72bf 9ac0 95bd
00000300: 7aad 963f c939 153f ea86 b83e 9e2f c03f
00000310: c8bf bc3e d6ae 6abf 6de1 77bf 35cf ccbd
00000320: fbfa 233f 8fc8 a2be 191f 7ebe 37ed 05be
00000330: 10bd 00bf ae9d 4dbd 7b1c 2a3f e79b 223e
00000340: 51e7 6f3e 318f 47be 10b8 c5be 96c2 7dbf
00000350: 516a 163c a391 62bf 60cd 79be dd44 13bf
00000360: dc6e 72bc c632 d9be a167 f9bd 9b5c cd3d
00000370: b3ff 4a3e 483f 1d3f 55fc 14bf 2a27 6abe
00000380: c132 3bbe ae61 06bf 9ad6 ab3d 58e5 8d3f
00000390: 4aea 3c3f 032b f4bd f2c8 723d 91ec 4fbe
000003a0: 045f a93e 50fc 1abd e59a 183e f853 95be
000003b0: cede adbe 788d 6abf 5ac9 34be 4a9b b33e
000003c0: 4140 283f 1f2a bc3f 02f6 643f 03f4 b53e
000003d0: 11d9 74be 4e50 d7be dcb1 8dbe 8912 863d
000003e0: 089f a8be 3b6c b3be 24ba 8fbd 16c3 96ba
000003f0: 901c 0abf 6416 b93c 3c2e 5bbf 7a90 1cbf
-1.0521935 -1.9369615 0.115609296 -0.021283844 0.33025002 0.8391803 1.1945287 -1.002695
-0.49875218 -0.5459043 0.09454084 1.0546787 0.6440767 -0.4333578 -0.6184272 -0.7667067
-0.8168928 0.49892044 0.33738312 0.3406967 0.26323757 -0.11542374 -1.2455314 -0.58416945
0.5945305 -0.59736556 -0.5031726 -0.49572942 -0.52852494 0.20332386 0.8826208 -0.09971393
0.68059635 0.0032664079 -0.9135203 0.06493696 0.490902 1.4494629 0.831133 -2.128271
0.3242032 -0.23857434 0.3146332 0.46208718 1.1830683 0.4847412 -0.5636193 0.3485345
-1.5991516 1.2060674 -0.95515174 0.1862907 -0.042139437 1.0197344 -0.43154472 0.49902722
1.7412157 -0.82734096 -1.0581297 0.61597645 0.03686055 0.08041615 1.2060546 0.23974381
-0.8878923 -1.2865875 0.11721006 1.2488959 1.0314918 1.1237391 3.356049 -2.9662979
0.35209072 0.08114672 0.073777586 0.44582152 0.76722276 -0.18030697 -0.9145446 -0.790574
-0.8603071 0.93850505 -0.19624735 0.6704386 -0.7531442 0.23643817 -0.69389296 -0.31209075
1.0373704 -0.56754786 -1.0373182 -0.2890136 -1.47071 0.2362087 0.60125095 0.44162062
0.17069447 -0.053615324 0.18260269 -0.064195246 0.28874665 0.30608162 0.3247054 -0.2917814
0.20666274 -0.14490466 0.32060063 0.2139448 0.2746089 0.268064 -0.26930562 -0.25381166
-0.29045695 -0.07354013 -0.19747846 0.07578934 -0.24477445 0.25745746 -0.14442141 -0.22108105
0.3118988 -0.24420719 -0.26790348 -0.16321273 -0.1526523 0.04996535 0.22648679 0.2098651
0.47629234 0.4721417 -0.15611489 0.36320746 0.016442738 -0.5955472 0.27557576 0.05679387
-0.2304292 -0.47958094 -0.14905871 0.0012747159 -0.24745932 -0.028525315 0.42625937 0.12402376
0.50564986 0.64950067 -0.50403154 -0.10258571 0.16451564 0.16351591 0.015458556 0.27395108
-0.4862644 0.2833148 0.32612044 0.09039387 0.17435977 0.12563378 0.0009360583 -0.39459816
-0.17970747 -0.3540674 0.41159162 0.8118215 1.1205884 0.26416385 -0.5225937 0.19102496
0.27814895 -0.1388419 0.68908197 -0.8924055 0.1247488 0.2450241 -0.23953372 -0.55617434
-0.28828996 0.54577917 0.16311951 0.51749504 -0.59482545 -0.6500546 0.42900288 -0.80743295
0.52925974 0.1577706 -0.36816266 -1.1410023 -0.40448686 -0.28797752 -0.94664127 -0.073121265
1.1771691 0.582913 0.3604043 1.5014532 0.36865067 -0.9167303 -0.9682835 -0.10000459
0.6405484 -0.3179364 -0.2481655 -0.13078772 -0.50288486 -0.050199203 0.6644971 0.15879785
0.23428084 -0.19488217 -0.3861699 -0.9912504 0.009180621 -0.88503474 -0.2439475 -0.5752695
-0.014796939 -0.4242155 -0.12177969 0.10027429 0.19824104 0.61424685 -0.5819753 -0.22866502
-0.1828108 -0.524928 0.083905414 1.1085615 0.73794997 -0.11922266 0.059273668 -0.20305087
0.33080304 -0.03783828 0.14902838 -0.29165626 -0.3395905 -0.91622114 -0.17654935 0.35079414
0.65723044 1.4700354 0.8943788 0.3553773 -0.2391093 -0.42053455 -0.27674758 0.06546504
-0.3293383 -0.3504351 -0.070179254 -0.0011502232 -0.5394983 0.022593684 -0.85617423 -0.61157954

weight f4 [4, 8, 32]
00000000: c3c4 263f cdf5 b53e e9c6 c8bd e11d d3bf
00000010: fab4 5f3f 4ea3 34bf b3da 853f eebc 7fbf
00000020: 1026 e63d 6357 983f c38a 1b3f 8491 03bf
00000030: 03dc 2fbf ca76 d63e ac98 973e cc8b a13e
00000040: 385e 23bf a62e 0a3d 06e3 4bbf 6a68 78bf
00000050: e1e4 14bf 1872 033d 19fa 083f d3ec 0dbf
00000060: f7b8 2cbf f59e 753e c7a4 cabe 42c0 413f
00000070: ac43 143f ae20 e43e eeed 54bf 4c87 18bf
00000080: de65 97bf 1175 09be fef8 adbf 882e d13f
00000090: 9f12 b5bf 0a7d 643f 1bcb 943d 7c0c 1e3f
000000a0: 28cb 96bd 5a90 3cbf ce6b 4cc0 ec36 e03f
000000b0: c3fe a2be 5a75 d8bf d204 d8be 154f 2cbf
000000c0: c103 f33d 4719 3dbf c0b4 383f afaf 543e
000000d0: 6a96 f0bf c8b3 d3bf 3e88 dfbe 3f82 bb3f
000000e0: a5cf e2bd ebb3 e93e da6c 433f 1a45 593e
000000f0: abc7 75bf 5818 bdbf f5e5 ddbf a068 d43e
00000100: 1b85 dcbf 02d7 0540 6c4f 8a3f 28fc 3a3f
00000110: 20f2 b93f 7582 dcbd 42c2 813f 7ca7 993f
00000120: b8d8 163f b552 fe3f aabf d53e 695f 65bf
00000130: df59 03be 46c4 a83e 91d6 ffbe d83c be3e
00000140: fde0 df3e 382a d93d efdf e83e cae5 69be
00000150: 1d0c d23f 822b 9c3f a14e 583f 512a 943e
00000160: 29cc ad3d fcda 313f f9ed 363e 1258 dcbe
00000170: a958 643f ebc3 86be 7512 613e f95f c7ba
00000180: 9bee e33e a7be 05be f8c5 c73d 4a06 6a3c
00000190: 9e54 c53f eb0b 4cbf 8dde 2f3e 9452 74bf
000001a0: 1077 74bd 744d b5be cbf1 753f 5d7e 53bc
000001b0: 99de 78bf ad8e fd3f 205d 24bf 4078 b7be
000001c0: d36d 89be 192b a13e 07c9 e4be 964d 173f
000001d0: 6e17 87be 446e 393f bace 01c0 3627 cabe
000001e0: 06bc 433e 9ff9 6e3e e85f 9e3e 5d7e 5b3d
000001f0: 5136 4abe 1ce0 c73f 9325 dd3f c3d2 613e
00000200: 352f 4ebf 03db 973f 561c 7fbf 8b7c 87be
00000210: 88b3 1940 d546 83be 6ea9 22be 0fcd f8be
00000220: f75f aebd ac19 a83e 2f38 b4bf a9e2 3dbd
00000230: e1b2 96be 87bf 9fbe 2b38 cd3f 32e2 b8be
00000240: 96c0 14be aae7 24bf f5ca 063f 256b 8fbe
00000250: 6257 fdbe 7f90 45bf 318c 62bf 069e b3bf
00000260: 1286 8cbe f02a 893e 1da6 66be 98c7 ea3e
00000270: 2448 c73e 9df4 203f ddf7 c0be 05e4 9e3e
00000280: 012f 31bf 98dd e4bd a507 ba3e 3e02 293f
00000290: 076d fabe 188d a5be 467a 693f c107 f63e
000002a0: f969 bbbd 5d64 9e3e 8a82 92bf 0537 87be
000002b0: d481 79be dc7d 0bbf 4c9d aabe 70a2 39bf
000002c0: 4f26 2a3e 79eb 6fbe 0194 f63d e2d7 173f
000002d0: 0937 26bf 021b 253f d985 9f3f 046c 2e3f
000002e0: 583a 0c3f 0b73 f13e 962d 0d3c c806 563d
000002f0: 1d01 86be 5747 39bf 3e29 083e af5f 323e
00000300: 6be1 59bf 9f4d a63f 871b 1f3f ee37 d9be
00000310: 7da1 913f 664a a23e 5348 c53d b074 a1be
00000320: a1ba 573e ddef 4b3f f717 d03e f745 783e
00000330: 2b29 46bd c711 2940 c472 ee3e 4118 51bd
00000340: 7e0c 8e3c 5211 053f e466 d33e e24e 1bbf
00000350: 9cbb c03e 343c f7be a450 d83d fe0f 8a3f
00000360: 881b 94be 6438 b03f 62a6 963e b323 9b3e
00000370: a213 ea3f eade 983d d7ce 523f 1d0e d9bd
00000380: 7f62 193f d95a 53bf bd91 c2be afa7 25bf
00000390: 17a9 c0bb 7c6c e2bd 1b67 c2bf 277d 153f
000003a0: 3d18 2abe 0ebd 803e 641a 0e3f 9334 473f
000003b0: aaf6 f9bf dde3 283e f2fa ae3e 23ee e43d
000003c0: 1179 96bf 297f ea3d 2f4c 84bf 2069 d3be
000003d0: 0282 08bf 942b 3c3f 6f20 14bf 5834 3ebf
000003e0: 5f32 0cbd bf29 c43f 65a8 213e 7e46 d8be
000003f0: d2b5 963e 1bfa 7e3e 9d1a 743d 33fb cbbe
0.65143985 0.35539094 -0.09803564 -1.6493493 0.87385523 -0.70561683 1.0457367 -0.9989766
0.112377286 1.1901668 0.6075861 -0.51393914 -0.68695086 0.41887504 0.29608667 0.3155197
-0.6381564 0.033735894 -0.79643285 -0.97034323 -0.5816174 0.03209123 0.5350662 -0.5543949
-0.67469734 0.23986419 -0.3957884 0.7568399 0.5791576 0.44556183 -0.8317555 -0.59581447
-1.1827962 -0.13423564 -1.3591611 1.6342325 -1.4146308 0.89253294 0.07265302 0.617378
-0.07362968 -0.73657763 -3.1940799 1.7516761 -0.31834993 -1.6910813 -0.42191178 -0.6730817
0.118659504 -0.73866695 0.721508 0.20770143 -1.8795903 -1.653924 -0.43658632 1.4649123
-0.11074761 0.4564508 0.7633797 0.21217766 -0.96007794 -1.4773054 -1.7335802 0.41486073
-1.722812 2.091248 1.0805488 0.7304101 1.4527016 -0.1076707 1.0137408 1.2004237
0.58924437 1.986899 0.4174779 -0.8959871 -0.12827252 0.32962245 -0.4996839 0.37155795
0.4372634 0.10603756 0.45483348 -0.22841564 1.6409947 1.2200778 0.8449498 0.28938535
0.08486206 0.6947477 0.17864217 -0.43035942 0.89197785 -0.2632135 0.21979697 -0.0015211097
0.4451798 -0.1306101 0.097545564 0.014283726 1.5416448 -0.79705685 0.1717474 -0.95438504
-0.05968386 -0.35410655 0.9607207 -0.012908545 -0.9721466 1.9809166 -0.642046 -0.3583393
-0.26841602 0.31478193 -0.44684622 0.5910276 -0.26385063 0.72433877 -2.0282426 -0.3948304
0.19114694 0.2333741 0.30932546 0.053587306 -0.19747283 1.5615268 1.7277092 0.22053055
-0.8054078 1.1863712 -0.9965261 -0.26462206 2.4015827 -0.25639978 -0.15884945 -0.48593947
-0.085143976 0.32832086 -1.4079646 -0.046358738 -0.2943335 -0.3120081 1.6032766 -0.36110073
-0.1452659 -0.6441599 0.5265344 -0.28011432 -0.4948073 -0.7717361 -0.88495165 -1.40326
-0.27446038 0.2679057 -0.22524305 0.45855403 0.38922226 0.6287325 -0.37689105 0.3103334
-0.6921235 -0.11175078 0.36333957 0.66019046 -0.48911306 -0.32334208 0.912022 0.4805279
-0.09151072 0.30935946 -1.1446087 -0.26409164 -0.24365932 -0.5448892 -0.33323133 -0.72513485
0.16616176 -0.2342967 0.12039948 0.59313786 -0.64927727 0.64494336 1.2462722 0.6813357
0.54776525 0.47158083 0.008616826 0.05225256 -0.26172724 -0.7237448 0.13296983 0.17419313
-0.85109586 1.2992438 0.6215138 -0.42425483 1.1377407 0.31697387 0.096329354 -0.31534338
0.21067287 0.7966288 0.40643284 0.2424544 -0.048379105 2.64171 0.46571934 -0.05104852
0.017339941 0.51979554 0.41289437 -0.6066724 0.37643135 -0.4828812 0.10562256 1.078613
-0.28927255 1.3767209 0.29423815 0.30300674 1.8287241 0.074643925 0.8234686 -0.10598395
0.5991592 -0.825605 -0.38001814 -0.6470899 -0.005879532 -0.11055848 -1.5187715 0.5839409
-0.16610809 0.25144237 0.5550902 0.77814597 -1.9528401 0.16493173 0.3417583 0.111782335
-1.1755697 0.11450035 -1.0335749 -0.41291142 -0.53323376 0.73503995 -0.5786199 -0.7429862
-0.034227725 1.532524 0.15786894 -0.4224128 0.29435593 0.24900095 0.059595693 -0.39840087

w_comp f4 [122, 4]
00000000: 89d4 75bf fc56 74bf 8e54 473e e4c7 25bf
00000010: c95b aabe 2e51 e0be 3c37 95be 7c65 06bf
00000020: f6e7 6fbf 351c 183f 3167 663f 569f f43d
00000030: 0265 cd3c 3739 f33d 6985 963f 9f0e 38bf
00000040: ccb2 08bf 929c 6d3e 7031 85bf 224c 453f
00000050: 9bf1 b63d 13f3 5b3e 2f9a 963f fd89 c83e
00000060: e6bb c2bd 9c23 0fbf b559 713f f315 1fbf
00000070: 7f32 a23e bcdd 1f3f 51cb b53e 7273 e4be
00000080: c509 d23e 58c1 133e b871 863f d3da a03e
00000090: 1aa7 c3be 6393 5bbe 140c db3e 8380 d73e
000000a0: c266 a4be bcfe e0bc 8b2d 113f c4b1 9c3e
000000b0: eeab f4be 1e2e a13e 766b 173f be7f b6bf
000000c0: 6ca4 9f3f 5296 d1be a208 6c3f c761 5a3f
000000d0: 4ab9 2a3f 1a97 41bf fb16 b23e a171 e6bc
000000e0: 0cc8 4dbc f864 16bd 8915 913f e6f7 c23e
000000f0: e7b2 8a3e 7578 e23d bd40 d73e 14bc e83f
00000100: b9eb 2e3d e94a 1a3f e996 b13d e1fc 513e
00000110: 85ea 50bd 35c8 35bf eefc b83f 0e61 c33f
00000120: 1e9a 883f 6f64 0ac0 cd4f eebe 22f1 7cbf
00000130: e27e 0ebf 615d 9abd d350 013f 7f51 083e
00000140: 2938 5d3e e8eb ae3e bb02 ef3f 87f7 9a3f
00000150: 73b4 f33f 132c 58bf 78da 0840 98e2 7b3e
00000160: 298d 4a3f 4e21 27c0 4195 3f3e a135 9ebf
00000170: 2253 4e3e 6ba5 1e3d c834 9d3f 1cf2 86bf
00000180: 5ece 1bbc fe51 01c0 eafb 9d3e 34af 8c3f
00000190: 79af 2e3f b37c a53f 0395 683f 3c8f 2ebe
000001a0: de8a 0cbe 86b2 0fbf 5aaf e03e 9aac 863d
000001b0: 06b6 d2bf d3de 3b3e aff9 913f efaa 173e
000001c0: 699a 193f 0af3 1fbf 83d8 0040 7df3 023e
000001d0: e549 bdbe f7f6 14bf 2b78 643f 7e17 283f
000001e0: 5c85 253f d66d 173f 5e43 ac3f fc35 99be
000001f0: fa0b e8be 6d9f 03bf 729f 7e3f 7c20 213f
00000200: a301 843e 44fc adbf 8fde 22bc fdce 833e
00000210: 255b ebbe bdb3 6bbe 5ba3 693f 3cdf 85bf
00000220: fe40 033f bfe7 f1bd 6108 833e d949 b93f
00000230: a36b 1640 3859 693f f6f3 ddbe dcf4 0c40
00000240: cf12 e43e da50 5b3f 653e 10bf bb83 9d3f
00000250: 67bf 45bf efcb f8be 99ef f73d f54f 403e
00000260: 0509 dabf a47d 113f 2a9d 4fbf 6620 e53f
00000270: f96c e2be bb88 4dbe 38f4 50bf 2f45 e33f
00000280: c9ed 273f ad79 83bf 9544 3a3d 3910 fabe
00000290: b74e 323f 3646 cd3e 4d97 9d3f 2795 1d3f
000002a0: df9b 8abb 4518 523e e0d1 1e3f 00aa 753e
000002b0: 8d02 b7bf 6929 ea3c 3e44 2f3f 2102 77be
000002c0: d294 dc3f 8038 b0be bfd8 a8bf e8f1 92bd
000002d0: 377b 08bd f448 41bf 2c7c a13e ccf8 1640
000002e0: 37d6 983e 0a9a d73d 06cc 943e 9418 de3f
000002f0: b9d3 083f 8d3c ad3f a34e 603e a7a8 c53e
00000300: ad88 8ebf 6f89 393f 9cb2 3bbf cc99 503f
00000310: 4296 9dbf fd07 a93e 2beb 2b3f fca4 c73f
00000320: 0788 f6be f589 673d 3d32 003f 18a8 8c3f
00000330: fa8c fbbf 2b9a 363f 9322 5d3f d30f b73f
00000340: 5eb2 c3be 44c2 70bf 06e7 333f a7fc 21bf
00000350: a008 cf3f 7be4 153e 06ae 9a3f 6b65 d63e
00000360: 72ab 983f b6cb c7be f00d a13e 6f7f 353f
00000370: 83b6 4e3f a5ee 6d3e fd80 c73f 4934 66bf
00000380: 6cfa 5f3f 4bba a53e ad93 db3e 9cac 5f3f
00000390: 37fa 90bf 0c1a 9a3f ff0c 833d 24d4 903f
000003a0: b638 603e 3bb4 943e 6ee1 e5be 391e 0d3f
000003b0: 8ae0 a93e f893 353f 065c b13f ea9c a9bd
000003c0: bf92 ea3e eb97 84be 985b 313e eb54 963e
000003d0: c3a8 adbd 8766 8bbf 06de 2240 6f0d 0a3f
000003e0: 6424 db3e e627 ddbe b3f1 a23f 0ede 8ebf
000003f0: 0b15 c2bd 9deb 9cbd 6c27 fdbd ba73 c4bf
-0.9602743 -0.9544523 0.19465849 -0.64758134 -0.33273152 -0.43811935 -0.29143703 -0.524986
-0.9371332 0.5941804 0.9000121 0.119444534 0.025072578 0.11876147 1.1759464 -0.7189731
-0.5339782 0.23204258 -1.0405712 0.77069294 0.08932801 0.21479444 1.1765803 0.39167777
-0.09508495 -0.5591371 0.9427751 -0.62142867 0.3167915 0.62447715 0.3550668 -0.44619328
0.4102308 0.14429224 1.0503454 0.3141695 -0.38213426 -0.21442942 0.42782652 0.42090234
-0.32109648 -0.027465217 0.5671012 0.30604374 -0.47787422 0.31480497 0.5914835 -1.4257734
1.2472053 -0.40934998 0.9220067 0.85305446 0.6668898 -0.7562119 0.34783158 -0.028130354
-0.012559902 -0.036717385 1.1334697 0.38079756 0.27089617 0.110581316 0.4204158 1.8182397
0.04270527 0.60270554 0.08671362 0.20506622 -0.051004905 -0.71008617 1.4452188 1.5263994
1.0672033 -2.16238 -0.46545258 -0.9880544 -0.5566236 -0.07537342 0.5051395 0.13312338
0.21603455 0.34164357 1.8672708 1.2106789 1.9039444 -0.8444225 2.1383343 0.24598157
0.79121643 -2.6114078 0.1870928 -1.2360116 0.201489 0.038731974 1.2281733 -1.0542636
-0.009509651 -2.0206294 0.30856258 1.0990968 0.682365 1.292868 0.90852374 -0.17046827
-0.13724849 -0.5613178 0.43883783 0.0657589 -1.6461799 0.1834672 1.1404322 0.148113
0.60001236 -0.62480223 2.0132148 0.12788196 -0.3697044 -0.5818934 0.8924586 0.65660846
0.64656615 0.5915197 1.3458059 -0.29924 -0.45321637 -0.5141514 0.99462044 0.6294019
0.257825 -1.359261 -0.009940757 0.25743857 -0.45967975 -0.23017783 0.91264886 -1.0458751
0.51271045 -0.1181178 0.2559233 1.4475662 2.3503196 0.9115176 -0.4335019 2.202445
0.445456 0.85670245 -0.56345206 1.2305826 -0.7724518 -0.4859309 0.121062465 0.18780501
-1.7034003 0.5683234 -0.8109919 1.7900512 -0.44223765 -0.2007169 -0.8162265 1.7755488
0.65597206 -1.0271508 0.04547556 -0.48840502 0.6965136 0.4009263 1.2311798 0.61555713
-0.004230007 0.2051707 0.62038994 0.23990631 -1.4297653 0.028584199 0.68463504 -0.24121906
1.7232916 -0.34418106 -1.3191146 -0.07175046 -0.03332063 -0.7550194 0.31540048 2.3589354
0.29850933 0.105274275 0.29061908 1.7351251 0.53448063 1.3534104 0.21904998 0.38605234
-1.113546 0.7247533 -0.7331941 0.81484675 -1.231148 0.33013907 0.6715571 1.5597224
-0.48150656 0.05652805 0.5007666 1.0988798 -1.9652398 0.7132899 0.8638088 1.4301704
-0.3822202 -0.94046426 0.7027439 -0.6327614 1.6174507 0.1463794 1.2084358 0.4187425
1.1927321 -0.39022607 0.31455946 0.70897573 0.8074724 0.23235567 1.5586239 -0.8992353
0.8749149 0.32368693 0.42886105 0.87372756 -1.132636 1.2039199 0.06398963 1.131474
0.21896634 0.29043755 -0.44898552 0.5512424 0.33179122 0.7092891 1.3856208 -0.08281882
0.45815083 -0.25897154 0.17320096 0.29361662 -0.08479454 -1.0890664 2.5448012 0.5392675
0.428012 -0.43194503 1.2730011 -1.1161516 -0.0947667 -0.07662127 -0.12361035 -1.5347817

self_loop_weight f4 [8, 32]
00000000: 5873 c7bf abde 92bf 6c5f d3be 8697 1e3d
00000010: b6d2 963f b4c8 55bf 86e0 10bf 1354 88bf
00000020: 0172 17bf c4f3 cbbe 7b8c 26bf d113 acbf
00000030: d6d5 3b3f d4ca 073f 31bb 00c0 d3e9 a7be
00000040: 9055 eabe 78c1 f3be 4c00 ad3f 27de abbc
00000050: 2188 9fbf 1154 d7be 9567 d0bf e676 26be
00000060: a9a4 33bf e671 cbbe 5707 4fbf 6aec a1bf
00000070: fbde 20bf e30d 463f df2a 993e 4563 3ebf
00000080: 68f0 2340 2061 d93f fefa 05c0 50ce 003e
00000090: 4c3d 93c0 369e 71bf 0043 223f 83a4 a7bf
000000a0: 753a a4bf 3f2c 1ec0 b338 24bd 5769 96bf
000000b0: 1c9b b4bf 821b 1ac0 8403 0640 763a dabf
000000c0: 16b4 a1bf ed1b c8bf db37 b0bf 3ba2 db3e
000000d0: 6826 48bf dcf5 763e f3d4 723f 3fb1 33c0
000000e0: fb62 d23e 5859 c3bf f734 b4bf c240 403e
000000f0: 2c7f 7abf 14c7 18c0 3ec6 723f 26a7 84bf
00000100: 9c3c 90bf 8dc0 78c0 640c c4bd 1fab e83f
00000110: cbde 38bf 0d09 b7be 4a6e ffbf 8f87 513f
00000120: b6af 64be abe6 303f bb91 7d3e 92a8 67be
00000130: 2d33 d03d 81d4 7f3f 8dbe 58c0 36a3 a6bf
00000140: 0b9c afbd 077a 17bf 27bf 8fbd 6129 a7bf
00000150: faf6 c1be 3636 cebd b70d 38c0 4897 ad3e
00000160: 850c e93d a182 6e3f 33e5 1dbf c637 7dbf
00000170: a89d 443e 4ed3 1240 df10 d83e eac7 8abd
00000180: 237a 5e3f 751d 45c0 1a6d aa3e 0463 cebf
00000190: 3bf9 8bbe 00d0 82bd dc48 393f a22a 9dbf
000001a0: abc1 8e3e df8d 17be ce1a f8be 2dc9 97be
000001b0: 684b 44be 17ee cebf 6da5 953f 064d 95bc
000001c0: b90d d0be ea7b d1be 5eed 8dbf 7607 1140
000001d0: 7890 843e bc16 293f a794 f93f 5486 2240
000001e0: 7b65 00c0 100e 77bf 03ef 923e 3b97 14bf
000001f0: af78 cebf 0809 c2bf fb0d 86c0 9e1f 90bd
00000200: e433 7340 8c44 68c0 d060 81bf 5e42 b63f
00000210: 9023 65c0 a6a0 04bf f613 9dbe 3329 81bf
00000220: a59b 93bf 8536 c1bf dfc8 3cc0 b958 a8bf
00000230: d6ba 6dbf 4742 e7bf 5ec9 eb3f 5440 a9bf
00000240: 8ac9 06be a010 b6bf e8fa a7bf 31af 0e3f
00000250: f2a2 a2be 4dd9 d03e 81e5 73bf 5158 98bf
00000260: 1171 40c0 b23b 41bf b565 b5bf 0e5e 08c0
00000270: 0f05 54bf 5d55 2ec0 2a32 a0bf ba3f 61bf
00000280: bccd b6bf bc1c febf 53f7 5fbf 1bc6 f6bf
00000290: 17bc fd3e c0c4 cdbf a173 3ebf 2fb4 c5bf
000002a0: b0d1 dbbe c98e 3b3f 8875 64be fae6 f7bf
000002b0: c2a4 34bf 97f9 5b3f 4590 b43e bff8 8cbf
000002c0: 1824 95bf c0d9 d4bf cbca a53f eea0 46bf
000002d0: 1427 c4bf a51c a4bf e29d 8cbf 4e45 f3be
000002e0: 7d46 71bd 2630 b43e 21c3 95bf da74 d0bf
000002f0: b961 f4be 6fe8 fb3f 5b4f 57bf 94af 8fbf
00000300: df46 0fc0 3e45 3040 8ed8 073f 3122 23be
00000310: 273e 7abd 35a1 a53e ea83 37bf 7ddb 473e
00000320: 3591 6abf fe7a bebf 10c1 eb3f ad8d c8bd
00000330: 534f a9bd 0050 8ebf 198d 13c0 d9f7 dabe
00000340: 7a90 08bf e727 823e bce7 91bf 9615 3d3f
00000350: fba9 d03e 3652 083f 594c 8d3f d464 b43f
00000360: ea25 d93f 74a4 df3d f269 e4be 936f ce3f
00000370: 7cdd c53d 03d3 7dbf e1c7 0d40 eee5 0bbf
00000380: 70d2 c43f e0eb 043f 0721 44bf fa30 59bf
00000390: 0afe bcbf 63dd 1f3d 4be7 913e f118 463f
000003a0: b8da 573d 9eeb a7bf 030e 573f c811 513f
000003b0: 05f2 953f b25c 8dbd 002b 89bf ede2 23bf
000003c0: ee00 45be 641e 0c3e 1f27 94bf 45f5 2d3f
000003d0: 02c8 263e 573d 3d3e d269 d73f a592 d93f
000003e0: 75dc f7bf b3d8 9cbf db61 7c3c 0887 9f3e
000003f0: 289f e8bf a532 4fbe 9d61 47bf ef77 bd3e
-1.5582075 -1.1474203 -0.4128374 0.038718723 1.1783054 -0.83509374 -0.56592596 -1.0650657
-0.5915833 -0.39834416 -0.65058106 -1.3443547 0.7337316 0.53043866 -2.0114253 -0.3279558
-0.45768404 -0.47608542 1.3515716 -0.020979954 -1.2463418 -0.42056325 -1.6281611 -0.16256294
-0.70173126 -0.39735335 -0.80870575 -1.2650273 -0.6284024 0.7736494 0.2991552 -0.74370223
2.5615482 1.6982765 -2.0934443 0.12578702 -4.6012325 -0.94382036 0.63383484 -1.309708
-1.283034 -2.4714506 -0.040093135 -1.1750897 -1.4109836 -2.407929 2.0939646 -1.7049091
-1.2633083 -1.5633522 -1.3767046 0.4289721 -0.78183603 0.24117225 0.94856185 -2.8076932
0.4109114 -1.526164 -1.4078664 0.18774703 -0.978503 -2.3871508 0.94833744 -1.036351
-1.1268497 -3.8867524 -0.09572676 1.8177222 -0.72214955 -0.35749093 -1.9955533 0.8184747
-0.22332653 0.6910197 0.24762623 -0.22622898 0.10166011 0.9993363 -3.3866303 -1.3018558
-0.08574685 -0.59170574 -0.07018881 -1.3059503 -0.3788374 -0.10068934 -2.875837 0.3390448
0.11379341 0.93168074 -0.61677855 -0.9891323 0.19200766 2.294147 0.42200372 -0.06776412
0.86905116 -3.079923 0.33286363 -1.6123967 -0.27338585 -0.06387329 0.723768 -1.2278636
0.27882132 -0.14800213 -0.4845795 -0.29645672 -0.1916939 -1.6166409 1.1691109 -0.018225204
-0.4063547 -0.4091485 -1.1088064 2.2660804 0.2589147 0.66050315 1.949849 2.5394487
-2.0061939 -0.9650583 0.28697976 -0.5804326 -1.613058 -1.5159006 -4.1892066 -0.070372805
3.8000422 -3.6291838 -1.010767 1.4239004 -3.5802956 -0.5180763 -0.3067929 -1.0090698
-1.1531874 -1.5094763 -2.9497602 -1.3152076 -0.92863214 -1.8067101 1.8420827 -1.3222756
-0.13162819 -1.4223824 -1.3123446 0.5573607 -0.31764942 0.40790787 -0.9527207 -1.1901952
-3.006901 -0.7548171 -1.4171664 -2.1307406 -0.8282022 -2.7239602 -1.2515309 -0.87987864
-1.4281535 -1.9852519 -0.8748676 -1.9279207 0.49557564 -1.6075668 -0.74395186 -1.5445613
-0.42933416 0.7326475 -0.2231046 -1.9367363 -0.705639 0.8592772 0.3526632 -1.1013411
-1.165164 -1.6628952 1.2952513 -0.7758931 -1.5324426 -1.2821242 -1.0985682 -0.47513813
-0.058905113 0.35192984 -1.1700174 -1.628566 -0.47730806 1.9680308 -0.8410546 -1.1225457
-2.2387006 2.7542262 0.5306481 -0.15931012 -0.06109443 0.32349554 -0.7168566 0.19517322
-0.9162782 -1.4881284 1.8418293 -0.097926475 -0.08267083 -1.1118164 -2.305487 -0.42767218
-0.53345454 0.25421068 -1.1398845 0.7386106 0.40754685 0.53250444 1.1038924 1.409327
1.6964695 0.10920039 -0.4461208 1.61278 0.096613854 -0.99150103 2.2153246 -0.5464772
1.537672 0.51922417 -0.76612896 -0.8484036 -1.4765027 0.03902949 0.28496775 0.7738181
0.05269882 -1.311878 0.84005755 0.8166776 1.1714483 -0.06902446 -1.0716248 -0.64018136
-0.19238636 0.13683468 -1.1574439 0.67952377 0.16287234 0.1848043 1.6829169 1.6997877
-1.9364153 -1.2253631 0.01540419 0.31157708 -1.8173571 -0.20234163 -0.7788332 0.37005565

weight f4 [8, 80]
00000000: 1273 84be bf25 94be 98a8 2ebe 39ac dfbd
00000010: 8b19 383e c061 debe 97b1 46bf 085c bb3d
00000020: 657f a73c 6571 ecbe 9a26 16bf cc7b bf3d
00000030: c7c4 27bf 7386 3cbf 48d4 ff3e 70c9 54bd
00000040: c4ed bfbe abc5 09bf 036f 533d 0285 523e
00000050: 363b 52be b911 ed3d 1ba0 e93d 7f5a 9a3e
00000060: ce2d cd3e 7513 7b3e e86f 44be dc3c 7dbe
00000070: 2867 45be e10c 1f3f aa02 c23e bdcd 9fbd
00000080: 96e9 13be 6c27 2fbf 438e 0f3e 8184 5d3e
00000090: 0fb6 953e 6140 79bd 0f34 313e 4803 f5be
000000a0: dc9b cabe 813d b1ba 71f5 0b3f e9b4 19bf
000000b0: df4c ae3d e49b d5be 3007 4bbe 5854 f53e
000000c0: e86f e33e 0f2c 70be 8d58 7b3d 2e06 c2be
000000d0: ff73 a93e bfd0 dd3e 9ced c43e c142 29bf
000000e0: e0c8 993e ec88 1f3e 931d 95bd b181 c73e
000000f0: 58f3 393f 74a1 1e3f 3d9b 08bf e3af 5bbe
00000100: 5129 67be ad30 193e d3e6 aa39 f319 843d
00000110: 263f afbe 26ef 463e 0f9b 6a3e 4073 f3bd
00000120: de32 703f 0b45 a5be e584 d8be a9ed 88bd
00000130: c3b2 f5be 24a8 c2be 1b98 8d3e 1f73 963e
00000140: 008f 21be 5913 5dbf dae5 16bf 6eb7 a23f
00000150: 45e0 b7be 65a4 43bf 75f4 b7be b9a1 98be
00000160: 4e09 f1be 48f6 51be f2d8 983f cac4 10be
00000170: fd7b 863e 203c 48bf 137a f03d 57da 25be
00000180: 7102 733f 675e 7d3d b4b4 96bf a85e 033f
00000190: 4363 4d3f 86e1 21bf 4cbf 23bf 9cb4 4c3e
000001a0: ea30 c1be ab9e 4dbf fe79 283f 3f77 4bbf
000001b0: b2b7 0bbf 6173 9f3f a488 5cbe 87a7 7b3f
000001c0: 2cf7 f9bc 4795 15be 914b 183f e2bb 5c3f
000001d0: 5f75 f03e d81e a63f aaae 1f3f 43a7 813e
000001e0: b71a 803c ad97 c23d 6e57 223f baab 2ebc
000001f0: fbed 88be a2c4 f6be 85f2 51bf 68fd 2ebe
00000200: 3fb5 16bf 7137 e4bf ae64 94bd 8103 cb3e
00000210: fb32 493e 3edd 583d a94c ca3e d044 b3be
00000220: fcb0 3dbd 3e65 3c3e c0c1 0abf 4590 c43f
00000230: 9ae6 353f aa0f 9c3d 7353 26bf 46b7 2f3e
00000240: 08bf ac3e 2e4e ef3e 961b 5e3f 2bcc 5f3a
00000250: 7527 f03d 250e bbbe d384 b3bb 01e2 febd
00000260: 8779 ad3e f109 1ebf 0ace bbbe 1826 f33d
00000270: 4792 12bf 78f3 b6be 77a7 f2bd 480f 443d
00000280: 57fa 423f 2f38 51bf be54 383e 0135 7e3f
00000290: e94b 4ebf 147f c33f 2962 06bf dffe cfbf
000002a0: 30c8 9b3c 1c8e 5dbf e303 0f40 549d 2fbf
000002b0: 56f2 2abf 1559 2040 3eea 39c0 48d4 24be
000002c0: ae6c c93e 260e 9d3f 15fe fb3e b036 fbbf
000002d0: b1ed 57be 254d 9f3f de39 aebd d9e3 51bf
000002e0: f569 8ebe dbe8 dc3e b91a 063f c8e6 403b
000002f0: 466e 843f 50aa f53e 44ff 22be b6e2 b4bf
00000300: 2f9f 4cbf d354 71bf 3c0a 84bf d496 e5be
00000310: 7567 09bf 5536 6f3f d554 ef3d fbe5 92be
00000320: 7382 b83f 2f9b 5e3e 0938 f9be e5fe 8dbe
00000330: ff91 173f afb4 4abe fb86 fa3f f76f 093f
00000340: ce9f 80bf 1a77 41bf 70af 1d3e 275a d9be
00000350: e30a a2bd 500e 3e40 50f2 6c40 4adf 34c0
00000360: 473e b6be 3c38 663d 842f bd3e 36d4 d13f
00000370: 4ab9 d23f f487 8fbe 55c6 56bf 1ca7 c6bf
00000380: e648 2ec0 b43a 883e 6ae3 81bf 86f6 e2be
00000390: 39d4 35bf 3b62 993e fee2 8dbf bc64 75be
000003a0: fc2a 0f40 b763 01bf 6f76 5abf 0a39 86bd
000003b0: 73eb 4fbe d7d0 233f 5e6b 7040 6061 813f
000003c0: a6d3 b0bf fecd 3dbf 16c3 8b3e 011f dfbd
000003d0: e567 afbf 58b4 63bf d5d2 c1be bc33 5b3e
000003e0: 8030 ad3e 457d a2bf a3c8 95bf 1892 d23e
000003f0: 6361 b7bf 6286 183e 1f9d 9abe c1b4 46be
-0.25869042 -0.28935048 -0.17056501 -0.10921521 0.17978494 -0.43433952 -0.7761473 0.09148413
0.020446489 -0.46180263 -0.5865265 0.09349784 -0.65534633 -0.73642653 0.49966645 -0.05194992
-0.37486088 -0.5381724 0.05161954 0.20558551 -0.205304 0.11575646 0.11407491 0.30147168
0.4007401 0.24519141 -0.19183314 -0.24730247 -0.19277632 0.62129027 0.37892658 -0.07802913
-0.14444575 -0.6841953 0.14019112 0.21632577 0.29240462 -0.060852412 0.17305015 -0.47854066
-0.39572036 -0.0013522358 0.5467139 -0.6004167 0.08510756 -0.41720498 -0.1982696 0.47915912
0.44421315 -0.23454307 0.061363745 -0.3789534 0.3309631 0.43323323 0.38462532 -0.66117483
0.30036068 0.15579575 -0.072810315 0.38966134 0.7263694 0.6196511 -0.53361875 -0.21453814
-0.22574355 0.14959975 0.00032596904 0.06450262 -0.34227866 0.19427165 0.22910713 -0.118872166
0.9382762 -0.32279238 -0.4228889 -0.06685955 -0.47987947 -0.38018906 0.2765511 0.29384705
-0.15777206 -0.8635765 -0.58944476 1.2712228 -0.35913292 -0.7642272 -0.35928693 -0.29810885
-0.4707741 -0.20504105 1.1941206 -0.14137569 0.2626647 -0.78216743 0.11742034 -0.16196571
0.949256 0.061857607 -1.1773896 0.5131631 0.80229586 -0.63234746 -0.6396377 0.19990772
-0.3773263 -0.80320233 0.65811145 -0.7947883 -0.5457717 1.2457086 -0.215365 0.983025
-0.030513369 -0.14607726 0.59490305 0.86224186 0.46964547 1.2978163 0.6237589 0.25322923
0.015637739 0.09501586 0.6341466 -0.01066106 -0.26744065 -0.48196894 -0.8201068 -0.17088854
-0.5887031 -1.7829419 -0.072457656 0.3965111 0.19648354 0.052945368 0.39511612 -0.35013437
-0.046311364 0.18397996 -0.5420189 1.5356528 0.71054995 0.07620175 -0.64971083 0.17159757
0.33739495 0.46739334 0.8676084 0.00085371983 0.11726276 -0.3653423 -0.0054784804 -0.124454506
0.3388178 -0.6173392 -0.36680633 0.118725 -0.5725445 -0.35732627 -0.11848348 0.047866136
0.7616324 -0.81726354 0.18001077 0.9929963 -0.8058458 1.5273156 -0.5249353 -1.6249655
0.019016355 -0.86544967 2.2346122 -0.6859944 -0.66776025 2.5054371 -2.904922 -0.16096604
0.3934073 1.2269943 0.49217287 -1.9626064 -0.21086766 1.2445418 -0.08507131 -0.8198829
-0.27815214 0.43146405 0.52384526 0.0029434431 1.0346153 0.479815 -0.15917689 -1.4131687
-0.79930395 -0.94270056 -1.0315623 -0.44841635 -0.5367349 0.9344228 0.11686102 -0.28691086
1.441481 0.21738885 -0.48675564 -0.27733532 0.5920715 -0.19795488 1.9572443 0.5368647
-1.0048769 -0.7557236 0.15398955 -0.42451593 -0.07912233 2.9696236 3.7022896 -2.8261285
-0.3559439 0.056205973 0.36950314 1.6392887 1.6462796 -0.28033412 -0.8389638 -1.5519748
-2.7231994 0.26607287 -1.0147526 -0.44328707 -0.7102695 0.29957756 -1.1084898 -0.23964208
2.2369986 -0.5054278 -0.85336965 -0.06553848 -0.2030466 0.6399054 3.7565532 1.0107841
-1.381459 -0.74142444 0.27297276 -0.108945854 -1.3703581 -0.8894706 -0.37856165 0.21406454
0.33826065 -1.2694479 -1.1701854 0.41127086 -1.4326595 0.14895013 -0.30198 -0.1940489

bias f4 [8]
00000000: ca5e 86bf fb09 7fbf 741d 21bf ac48 debf
00000010: ea88 2fbe 0fb7 7abf 03f8 45bf a1c8 debb
-1.0497677 -0.99624604 -0.62935567 -1.7365928 -0.17142072 -0.97935575 -0.7733156 -0.006798819

weight f4 [1, 8]
00000000: 1319 103e 006c bcbd 7fdb cb3f ee7a acbc
00000010: b30e 293f 359d 62bf 40ef 0cbf 57c1 923e
0.14072065 -0.09200287 1.592636 -0.021054711 0.66038054 -0.8852113 -0.55052567 0.28663132

weight f4 [4, 32, 32]
00000000: 3bea 11b2 408c ef3d 2eff 3320 cf69 b7b5
00000010: fa0d 87bb 7695 9e39 d349 21be 373e 03bb
00000020: c967 6333 96c9 17a1 f327 29bd 4d54 91bc
00000030: adfd 2ebb 2c19 982d c907 123c 36b8 523a
00000040: 1b5e d5bd b92a 3e1f e2ac abaa cdb6 6934
00000050: 9310 a432 f486 6f3c b2df 73be c4ef 2d36
00000060: 583e 053c f3cc e7b2 09f7 d5bd 780d bf37
00000070: d24a c53a 1791 bcbb 2a9f 143a ec85 23bd
00000080: 8bd4 75b5 6c98 6bbd c688 7ea9 235c 912d
00000090: b1a8 86bd 66e4 1fa5 26b1 2dbe e467 04ba
000000a0: e9b5 6e3a 2ba1 0a31 3e19 e6ba 38c5 2730
000000b0: f118 76bd d02e bfbb 1812 d7be bb83 1fb9
000000c0: feae 2bba a7d5 2baa 8077 9e3d cf7a 89bd
000000d0: 298f 8b3d a0d6 173c a1d6 f2bd a90c feba
000000e0: 86e5 1fbc b730 82b3 3dd1 fb3d d478 42ba
000000f0: 963d 84bb d4b3 77bc 8739 d538 a076 bebd
00000100: cb76 9b2e 47fa 803d b81e d49d 99f6 cbb6
00000110: 1c30 0abd 7d33 0aab c0fc c9bd 0ea9 2aa9
00000120: f2e2 31b5 1f9f 6a22 604b 08bb 2d17 733a
00000130: 677e 10bd 4333 263a 4035 bfbd fc9f 3fb4
00000140: 1812 d7b9 ec07 4a1f 8ffa 4b3d 4c64 12bd
00000150: 2fa8 fc39 476e a33c 439b 99be 3a3e f336
00000160: 1285 8f3a 6a52 b81f a773 783c 8ab9 312c
00000170: 7f89 9ebb 95dc d239 d5e5 ce37 4119 f7bd
00000180: 24d8 572e 989b d3b3 e44f de81 c88c 1a99
00000190: 43dc 08b7 14dd 6020 9377 673c 4192 8bb8
000001a0: 9874 cd2e 0aeb f800 3164 96b5 299f d1b2
000001b0: 7c0c 1eba ad2c 3eac a21e 60be 5c50 043d
000001c0: 9bcf 5936 1a33 6b1d 8b20 ea1a 3a90 9d30
000001d0: fb95 90aa 3b07 903e 39a3 57be 067e 269f
000001e0: 6eae 8e3e 2add c52e 4294 33bd c8c0 5b39
000001f0: 352d bc27 f4ca 8b2f 4cae d43c 1cb2 d13c
00000200: 5379 1fbb 0f44 0dbd a8ee 93b8 cff5 f733
00000210: 33ad f93d b0b2 13ba 3682 59bd 683c 59be
00000220: 6d29 4dbd 105e 9a2f 2ecc febd 534d 12bb
00000230: 6b99 dbbe 7816 82bd 05ae bb3e af6c c2bd
00000240: 3255 90be 6c5c aa39 7777 ad3e 08e6 14be
00000250: aad4 c73c 0ba4 033e 5b15 073e 9c1e 0abd
00000260: 9b23 28be 9e50 5898 add1 44bc 9299 86bd
00000270: 12d5 35be 1879 75bd 4287 1e3d 9f10 85be
00000280: d9ee 6636 4a76 94b1 f00d 4412 27ca 7e34
00000290: befb dcb3 f516 35bc 965d 823d 73fe b59a
000002a0: ddfe d32e 4a74 dd12 1f7b fe36 a142 f734
000002b0: 1aa1 0236 a6f3 721e 7c7e 1d3e aeea a226
000002c0: 2216 a13c 3b5f 4c2f 9d76 b28d 3fe2 6237
000002d0: f30e 0d1f e21d 28b9 8033 273e 3910 ad9c
000002e0: aa3d 1529 c5dd a195 289f 18ba 6c13 cb1d
000002f0: 9acf 4a33 e4a5 2a31 cd50 2bb2 95cf a23d
00000300: 72d2 0033 8e8d 143e fd0b a010 dcff 1239
00000310: b2e9 beb7 c80e 60aa 51a4 50bc 5fb3 87b4
00000320: 9320 5127 06a4 1511 28c5 b9b7 527e fd39
00000330: a077 4722 9dea 4a3a 0ee9 11bd 6ed4 b92d
00000340: a91d 838b fa7b 9e1c 6c11 1928 06fe 73b8
00000350: f1ee b9af f408 5b3a 692c afbd bd35 829f
00000360: ec02 a4b8 4813 b731 4685 4e3b 39e3 3228
00000370: 0eb3 0734 f27c 4935 8976 4839 3a36 c535
00000380: 11d1 e8bb 33db dd3a a882 89b4 2e71 7baa
00000390: 028a a8bc 4363 5720 e2c7 a5be 713b 36bb
000003a0: 7625 a13d e1c7 2fac 7fee a5bc 47d9 fcbc
000003b0: 0eaa 21bb 9064 90ba acc0 6b3c 45b3 933b
000003c0: 8b2f 5c3b 284c cf33 9bbb 213c f4ac c0ba
000003d0: 6f11 17ad 7e12 97bb 0eee d2bc 5409 1d3d
000003e0: 79ce a2b7 bc93 e42f d30f 923e dede c1bc
000003f0: edad 453b 79c9 c0bd 585a a33a f38c 21be
-8.493369e-09 0.116966724 1.5246322e-19 -1.3665357e-06 -0.004121539 0.00030247465 -0.15750818 -0.0020026097
5.2946948e-08 -5.1427587e-19 -0.041297864 -0.017740393 -0.0026701496 1.7291578e-11 0.008912989 0.0008038314
-0.1041834 4.0269404e-20 -3.0495664e-13 2.1766319e-07 1.909965e-08 0.014619578 -0.23815802 2.591857e-06
0.00813254 -2.698514e-08 -0.10447509 2.2775246e-05 0.0015052205 -0.0057546007 0.0005669469 -0.03992264
-9.1578903e-07 -0.057518408 -5.6517962e-14 1.6525508e-11 -0.06575144 -1.3868436e-16 -0.16962108 -0.00050508813
0.0009106086 2.0173256e-09 -0.001755513 6.103451e-10 -0.06008238 -0.005834438 -0.42005992 -0.00015212495
-0.0006549208 -1.5261977e-13 0.077376366 -0.06712877 0.06814415 0.009267479 -0.118573435 -0.0019382435
-0.0097593125 -6.062458e-08 0.122957684 -0.00074185175 -0.004035662 -0.015118558 0.00010167347 -0.0929997
7.069686e-11 0.062977366 -5.6147695e-21 -6.078579e-06 -0.033737287 -4.9098903e-13 -0.09862661 -3.7894214e-14
-6.626789e-07 3.1797152e-18 -0.002079688 0.0009273168 -0.035276797 0.0006340036 -0.093363285 -1.7846463e-07
-0.00041021476 4.2781717e-20 0.0497995 -0.03574018 0.00048190492 0.019950045 -0.30001268 7.2492085e-06
0.0010949692 7.8063374e-20 0.015164292 2.5256208e-12 -0.004838168 0.00040218668 2.4664138e-05 -0.12065364
4.907731e-11 -9.8537555e-08 -8.166456e-38 -7.990044e-24 -8.157515e-06 1.9046687e-19 0.01412763 -6.6552784e-05
9.343032e-11 2.2859519e-38 -1.120503e-06 -2.440318e-08 -0.0006029082 -2.7025424e-12 -0.21886685 0.0323032
3.2456362e-06 3.112841e-21 9.683271e-23 1.1464245e-09 -2.5683608e-13 0.28130516 -0.21058358 -3.525611e-20
0.27867454 8.9978094e-11 -0.04384256 0.00020957284 5.2229496e-15 2.542816e-10 0.025962017 0.025597624
-0.002433379 -0.034488734 -7.0539594e-05 1.1546546e-07 0.12191238 -0.00056342315 -0.053102694 -0.2121445
-0.050088335 2.8079272e-10 -0.12441288 -0.002232392 -0.42890486 -0.06351942 0.36656204 -0.09493386
-0.2819 0.00032493786 0.33880207 -0.14540875 0.024393398 0.12855546 0.1319174 -0.033720598
-0.16419832 -2.7958047e-24 -0.012012881 -0.0657226 -0.17757061 -0.059929937 0.03870321 -0.25989243
3.4411698e-06 -4.320815e-09 6.1863874e-28 2.3729136e-07 -1.029034e-07 -0.011052837 0.06365506 -7.527093e-23
9.640442e-11 1.3975728e-27 7.584123e-06 4.6055814e-07 1.9465283e-06 1.2861759e-20 0.15380281 1.1304618e-15
0.019663874 1.8587525e-10 -1.0998652e-30 1.3523327e-05 2.9870277e-20 -0.00016032861 0.1632824 -1.1452373e-21
3.313813e-14 -6.537727e-26 -0.0005822056 5.3753734e-21 4.7220603e-08 2.4832554e-09 -9.971882e-09 0.079497494
2.999372e-08 0.14507124 6.3127343e-29 0.0001401896 -2.2758588e-05 -1.9900325e-13 -0.012734489 -2.527622e-07
2.9022235e-15 1.1804571e-28 -2.2145527e-05 0.00048350036 2.7032858e-18 0.00077406486 -0.03562265 2.1126403e-11
-5.050399e-32 1.048761e-21 8.496984e-15 -5.8172292e-05 -3.3821082e-10 0.0008355521 -0.085533924 -5.5146044e-20
-7.8206736e-05 5.328193e-09 0.0031512543 9.930256e-15 1.2637994e-07 7.5060154e-07 0.00019117644 1.4693426e-06
-0.007105001 0.0016926288 -2.5613303e-07 -2.2332545e-13 -0.02057362 1.8244051e-19 -0.3237906 -0.0027806426
0.07868473 -2.497995e-12 -0.020255325 -0.030865325 -0.002466801 -0.0011016298 0.014389198 0.0045074546
0.0033597674 9.6530414e-08 0.009871389 -0.0014699982 -8.587227e-12 -0.0046103587 -0.025748279 0.038338974
-1.9408051e-05 4.157793e-10 0.28527698 -0.023665842 0.0030163482 -0.09413428 0.0012462838 -0.15776424

w_comp f4 [122, 4]
00000000: 8c63 802b b03d 5f2b 74e3 172c 8a95 cc2b
00000010: 128f 6f3d 3a30 9cbe a899 bf3d c424 433e
00000020: 9d94 0b3e 5f97 9d3c b83c 1fbd e61c ca3d
00000030: 5f92 0100 3f8a 0180 5584 0080 9627 1700
00000040: a923 0000 7c88 0000 3d46 0080 6f19 0180
00000050: 09d4 abaf 257a 6ab0 b236 612f 08f9 76b0
00000060: 8fed 24b3 6dbc 75b3 1cea 6434 fa8e 2fb4
00000070: 10d5 53ae 7d51 e1b7 20fb 26a9 5125 9b37
00000080: 4aba 42ae b91d 5c31 9f42 efb1 cb8a ee29
00000090: 25dc cbbe b6b1 a6be 6730 c7be 1467 6c3e
000000a0: 4e7d 8cbe cd9e ac3e cc4a 0bbe 88de a53e
000000b0: a353 80b0 19c0 9eab 2ef7 f42a e589 9929
000000c0: c860 9a3c 6a90 e5b4 a1c7 7d3c e8b7 6cbc
000000d0: 2fea ce3b 754d dd39 ccd7 2a3d 5ed9 d13c
000000e0: c273 13ac 5aee 6fab 46c6 afab 9daf e92d
000000f0: fa97 43b1 fa4d 0080 7944 fdb0 1098 9ba5
00000100: 13ff d5bd db0a 0d3d b113 8dbe 5961 8fbe
00000110: 2a0e 03bf 717e f33d 902d 22be e9a0 d5be
00000120: 4f9c b0bc 786e 0ab2 ff20 75bc 901a 7b2c
00000130: bf67 aabd 56cf 313e 664c ebbd 8970 dcbe
00000140: 72e5 963b 01da c03c 935f e83c 19c6 42bd
00000150: 9e8c b2b1 74b7 8c31 b946 9eb3 ac9c 0c34
00000160: cb88 63bd af53 483c 3e0f 30bd 637b bfbc
00000170: c39b e7bd da3b aabd 7371 57bd 9157 693c
00000180: bdc6 a9bc d6c3 e53d 1ac0 0c3d aafa ebbc
00000190: 9a08 e323 789e bd24 348c 9621 7a53 1dbb
000001a0: 8724 0180 6c8b beae 8a1a 0000 f2b4 8130
000001b0: 98c8 d83e 8868 b43e 0d4d d53e be29 bdbe
000001c0: df4c 8cbe 84f9 87be f092 8abe 131a 8c3e
000001d0: 9c06 c63c fd16 4bbc 4c2b 6ebe cb34 0b3d
000001e0: c945 b8b1 1968 2bb1 1c11 aa30 5e0c acb0
000001f0: e665 2332 1afc 54b3 f890 0a31 171c 4dbd
00000200: 8ae5 01bb b6f5 34ac acc5 f3bb b6f9 b8ba
00000210: 9559 3f2f 3b79 f423 f750 feb5 bf57 9536
00000220: c188 c5bd 5fae bd3d 2160 babd ecc8 623d
00000230: 1793 3d3e e5d3 e4bd 5140 3f3e c9b4 aebd
00000240: 3f4c 2233 e146 2cb3 d6f3 ebb0 c60a 3f33
00000250: 927e 49be 30a8 01be deb8 cbbe 3c1c 46bd
00000260: 1cea f1a3 5032 e1a4 0f9d 90a4 640a b024
00000270: d137 253e f226 a9bd 93b5 e23e a23e 223e
00000280: 4bb1 28ae 74ab 28ae 3779 d9ad eced 60ae
00000290: 47ea d729 6e02 052a ca0a 3829 dd58 15a9
000002a0: cba1 0000 3dd9 0080 fd86 0000 7f60 0000
000002b0: 9853 3f00 eb51 0000 655b 0480 f140 0180
000002c0: d917 9489 496f 668a 4a68 e58a 20aa c58a
000002d0: affe acb4 4c09 2336 1f71 63b4 a043 cf35
000002e0: 0536 96bb f23c aab9 0616 fabb 4660 193a
000002f0: 2aa7 8c3b 094e b7bb 6da3 f93c c981 86bc
00000300: 4ebf 0939 cf79 00b9 7684 2cba 7a3a df3b
00000310: 72ce 0080 a1ce 0000 4d45 0080 1039 0000
00000320: f751 0100 2013 0100 ef0a 0180 aa00 0000
00000330: 5197 4e3d b735 493e 0aa1 df3d 0963 07bd
00000340: 6968 62be adbf 46be d584 7bbe c20f 863e
00000350: 1e50 9c3d 1277 3239 6f32 483e a6a2 bbbd
00000360: 1c5a 3b14 0021 4131 f893 6d94 91ba bf19
00000370: ae39 a828 6cdb 33a7 a09e cb27 264b d728
00000380: dd93 2490 beaa 958e 5fe4 dc10 3035 9e28
00000390: 9082 37ae eb5b efab 93ee 6aae 417a a0ac
000003a0: 4ce5 ac33 3aa5 faad 9ecb 392f de18 d634
000003b0: 42e7 bd19 c14e c998 ff8c cc19 7845 ce18
000003c0: 94a3 0700 ab5d 0580 1a92 0000 f8a1 0b00
000003d0: a0c8 702e 5d53 52b3 1cc8 a82d 382c 3bad
000003e0: bf74 7222 acdc ba29 2e32 c9a1 e396 56a3
000003f0: 997f 1118 6551 ec98 a06f 4132 0043 8db3
9.122577e-13 7.9311124e-13 2.1584652e-12 1.4536577e-12 0.05848605 -0.30505544 0.093554795 0.19056994
0.1363091 0.019237218 -0.038876265 0.09868793 1.44344e-40 -1.41429e-40 -4.7472e-41 2.126417e-39
1.2792e-41 4.8961e-41 -2.5197e-41 -1.0096e-40 -3.125538e-10 -8.530228e-10 2.0483062e-10 -8.9848173e-10
-3.8400284e-08 -5.721488e-08 2.1319323e-07 -1.635016e-07 -4.8165083e-11 -2.6860036e-05 -3.707722e-14 1.8494817e-05
-4.427595e-11 3.2031109e-09 -6.9633894e-09 1.05934e-13 -0.39816394 -0.32557458 -0.38904116 0.23086196
-0.2743935 0.33714905 -0.13602751 0.3239634 -9.336997e-10 -1.1279893e-12 4.3514622e-13 6.818486e-14
0.018844977 -4.275965e-07 0.01548949 -0.014448144 0.006314538 0.00042210115 0.041709706 0.025616344
-2.0954215e-12 -8.5240636e-13 -1.248953e-12 2.6567021e-11 -2.8462623e-09 -2.7973e-41 -1.8427634e-09 -2.6991255e-16
-0.10449042 0.03443418 -0.27554086 -0.28003958 -0.5119349 0.11889351 -0.15837693 -0.41724327
-0.021558909 -8.057775e-09 -0.01496148 3.568399e-12 -0.08320569 0.17364249 -0.11489181 -0.43054608
0.0046049887 0.023541452 0.028365886 -0.047552202 -5.196468e-09 4.0953925e-09 -7.370313e-08 1.3095513e-07
-0.055550378 0.012226983 -0.042983286 -0.023374265 -0.11309006 -0.08312197 -0.052598428 0.014242069
-0.020724649 0.11218993 0.03436289 -0.02880605 2.4615032e-17 8.223414e-17 1.0201507e-18 -0.0024006055
-1.04939e-40 -8.664966e-11 9.52e-42 9.437413e-10 0.4234054 0.35236 0.41660348 -0.3694591
-0.27402398 -0.26557553 -0.2706523 0.27363643 0.024173073 -0.012395618 -0.23258704 0.033985894
-5.3630385e-09 -2.4942948e-09 1.2373991e-09 -1.2518162e-09 9.511018e-09 -4.958938e-08 2.0164048e-09 -0.050075617
-0.0019820654 -2.5715935e-12 -0.007439336 -0.0014112506 1.7403175e-10 2.6505876e-17 -1.8948039e-06 4.450761e-06
-0.09645224 0.09261774 -0.091003664 0.055367395 0.18513142 -0.11173228 0.18676879 -0.08530576
3.778791e-08 -4.0111335e-08 -1.7167803e-09 4.448045e-08 -0.19677189 -0.12661815 -0.3978948 -0.04836677
-2.6228422e-17 -9.766343e-17 -6.271611e-17 7.6345435e-17 0.16134574 -0.08259381 0.44279155 0.15844205
-3.8356245e-11 -3.835106e-11 -2.4723874e-11 -5.114302e-11 9.5885587e-14 1.1813616e-13 4.0865565e-14 -3.3161723e-14
5.804e-41 -7.793e-41 4.8425e-41 3.4616e-41 5.815624e-39 2.9387e-41 -4.00128e-40 -1.15132e-40
-3.565213e-33 -1.10950276e-32 -2.2091127e-32 -1.9034404e-32 -3.2222803e-07 2.4294304e-06 -2.1182176e-07 1.5442383e-06
-0.0045840763 -0.00032470335 -0.00763202 0.00058508327 0.0042923884 -0.0055940193 0.030473435 -0.016419308
0.00013136605 -0.00012252408 -0.00065810175 0.006812391 -7.4059e-41 7.4124e-41 -2.486e-41 2.047e-41
1.21239e-40 9.8696e-41 -9.5758e-41 2.38e-43 0.050437275 0.19649397 0.10919388 -0.03305343
-0.22110142 -0.19409056 -0.2456239 0.26183897 0.07632469 0.0001701976 0.19550489 -0.09161882
9.458858e-27 2.8103955e-09 -1.1994624e-26 1.982429e-23 1.8676761e-14 -2.496019e-15 5.65158e-15 2.3902385e-14
-3.2457207e-29 -3.6895755e-30 8.712656e-29 1.756459e-14 -4.1725345e-11 -1.7007484e-12 -5.3417337e-11 -4.5610464e-12
8.051083e-08 -2.8495085e-11 1.6897991e-10 3.98787e-07 1.9635546e-23 -5.2036803e-24 2.1150053e-23 5.3319897e-24
7.01529e-40 -4.92779e-40 5.2411e-41 1.068294e-39 5.4747873e-11 -4.8970254e-08 1.9188255e-11 -1.0639538e-11
3.285892e-18 8.29834e-14 -1.3633572e-18 -1.1632915e-17 1.8805231e-24 -6.1086758e-24 1.1259459e-08 -6.5780114e-08

self_loop_weight f4 [32, 32]
00000000: dd82 30bf ef22 4cbe 887b 2abf 450e fdbe
00000010: 4c4a 91bd 984d 2abf 2a50 15c0 40cc 9ebf
00000020: cf77 76be 9747 d8be e506 f4be 5daa c5be
00000030: 7a97 4bbe 8810 5abf f655 d1bf 6b4e 39bf
00000040: 8a28 adbf 5db7 bbbe 22e0 3abf 62e3 6fbd
00000050: 1921 bbbf 774d c9bf d721 2ac0 0c69 68be
00000060: 8287 5dbe e7f8 5cbf f013 3bbf 2549 aebe
00000070: cdf1 39bf 8f4d a5be e12c 2bbf d767 b9bf
00000080: f2ed 82be e199 51bf 2404 84bd 4eea 84bd
00000090: 843c 1bbf 941b 46bc 8b8d 963e ee24 f2bb
000000a0: 11ca 833e e493 11be 3cd8 42be bfde 4bbd
000000b0: d999 1db8 b360 163e a134 9a3f fb5b ef3a
000000c0: cb02 cdbe d64a 59ba d4b7 07bf 57ad 153f
000000d0: 5848 153f b556 5b3e afdb 8d3f 3465 9fbb
000000e0: 3252 303f 1556 48be 4de6 673e 401b d3be
000000f0: 68b6 56bf 11fa 0e3f e9fa bdbc 079a 603d
00000100: c4f7 3ebe 13bb 4e3e f160 cf3c 5c83 b0bd
00000110: 0c8d d93d 85e5 c8be 1618 403e a0e4 f13e
00000120: f805 cbbd c0d1 f7bc 5c01 1ebf a886 73bd
00000130: 2678 1db9 c74d 6fbe 94f3 663d 61de 68bf
00000140: a7fb 36bf 1bde bcb9 ed0c fbbe 3383 9fbe
00000150: e0e6 09bf 2b82 cbbe 7e01 c63e 6b80 41bf
00000160: 8737 8ebe bd8b 2f3e e900 353d c869 16bf
00000170: 0e17 67bf fda6 443d ee71 093e e463 af3e
00000180: d215 26be 7d79 05bf 35b3 a9bd a288 a9bd
00000190: c5b6 6d3d c346 4dbe ba6b 143f 39ac 693e
000001a0: 5b9a efbe 695e 443d cbcd 343f bad7 70bc
000001b0: 5be5 3dbe fb0a ce3e c8f4 6d3e 3eb4 163e
000001c0: 5eec 563e 6f11 4fbd 5f0d 1abd 128f 7cbf
000001d0: 34ea b03f f524 193f b6f4 58bf 9745 01bf
000001e0: dc94 9f3c 8d49 35be d6b1 b9bf 74ae 47bf
000001f0: b915 debe d739 3b3e 2efc e0bd 6cee 5a3f
00000200: 07a6 573e 30c2 b9be 3132 40be 17dd 5dbd
00000210: d5bc 4c3f c74d 5bbe bd64 bb3f 2209 0abf
00000220: 8f75 86be 30a3 bcbe 46b7 d03e 84d9 023c
00000230: c403 5b3c 9101 f9bc 3818 8d3f 3cb5 37bf
00000240: 458f ed3e 19dc a1bd 9a4a e2bd 6f0c a33f
00000250: c815 50be f8c1 a9bf 6957 0140 b60c 423d
00000260: 8b01 41bf 4c1d f0bc 899f b2bf 2061 a73d
00000270: b1e7 66be 8c94 e1be 1b98 a93e 1fb6 b03f
00000280: 4623 68be b5c0 1a3e c824 bdbd 2c0e 64be
00000290: 62ba d7bd ec30 cdbe 4e56 2fbf 1616 b0bd
000002a0: 4e5c 3cbe 3a03 9dbd af58 5ebf 0263 fc3a
000002b0: 4585 bdb8 8b88 76bb feef 34bf ecf7 25be
000002c0: 2b0e d4be afef 43bd 219d 293e b515 8ebc
000002d0: 70f5 c0be 4580 33bf 2574 32bf 0a9f 31be
000002e0: 72de 11bf 7325 bfbe 71e8 a93e e5af 19be
000002f0: 089a a8be dc8e 98bd e0cf 2ebe c8f1 e5be
00000300: bb3e 0dbf 7aea aebe ff2a 1fb9 4546 1cbe
00000310: e1ef 11be e8d8 8abe 13a7 0a3e 542b a6be
00000320: 89a2 2fbf 1887 94be 6cd4 443e 94bb 2f3e
00000330: 99a2 39be 8827 423f 83cf 02bf 77cd 833d
00000340: 0d7c 36be 1587 06be c581 39be cab8 e8be
00000350: e8f5 dd3d f03b 8abf 8ca0 833e 4e81 2a3e
00000360: 22e6 303f d1b3 60bd 72ef a3bf 947e 5abe
00000370: a3a7 98be ec68 a4bd 7860 50be e120 68bf
00000380: 9b79 0fbc 7176 1ebf ddf0 51bc 89fa 2fbe
00000390: 29c0 e1be 99fc 28be f309 33bf 597d 18be
000003a0: 5cfe b2be 9e36 f2bd 52f3 90be 3e81 45bf
000003b0: e5d4 75bc 4bc1 1dbf 38e8 97bf 3e81 18bf
000003c0: b94a 07bf a7cf c2bd a689 8dbe 7652 26bf
000003d0: 3511 40be 90a5 b3bd 9a03 44bf fda7 68be
000003e0: d611 5dbf 89e9 98be 955f 70bf b79c b13b
000003f0: d83b 23bf 34ff 293f fde1 9ebe e75c 47bf
-0.6894968 -0.19935201 -0.66594744 -0.4942495 -0.07094249 -0.6652465 -2.3330178 -1.2406082
-0.24069141 -0.4224212 -0.4766151 -0.3860654 -0.19882002 -0.85181475 -1.6354358 -0.7238528
-1.3527997 -0.36663333 -0.7299825 -0.05856646 -1.4619476 -1.5726765 -2.6583154 -0.22696322
-0.21633723 -0.86317295 -0.730773 -0.3404018 -0.72634584 -0.32285735 -0.66865355 -1.4484814
-0.25572163 -0.81875426 -0.06446102 -0.064900026 -0.60639215 -0.012091536 0.29404864 -0.0073896563
0.25740102 -0.14216572 -0.190278 -0.049772974 -3.7575e-05 0.14685325 1.2047311 0.0018261665
-0.40041193 -0.00082890445 -0.53014874 0.5846762 0.5831351 0.21419795 1.1082667 -0.0048643593
0.6887542 -0.19564088 0.22646447 -0.41231728 -0.8387208 0.5585032 -0.023190932 0.054834392
-0.18649203 0.2018855 0.02531478 -0.08618805 0.10622606 -0.3923761 0.18759188 0.4724474
-0.09913248 -0.030251384 -0.61720824 -0.05945459 -0.00015017446 -0.23369513 0.056384638 -0.90964323
-0.7147774 -0.00036023636 -0.490333 -0.31154785 -0.5386791 -0.39747748 0.38673013 -0.75586575
-0.2777674 0.1714315 0.04419032 -0.5875516 -0.90269554 0.048010815 0.13422367 0.34255898
-0.16219261 -0.521385 -0.08286134 -0.08278014 0.05803563 -0.20046525 0.5797688 0.22819604
-0.4679745 0.0479416 0.70626515 -0.014699871 -0.18544523 0.40242752 0.23237908 0.14717194
0.20988604 -0.050553735 -0.037610408 -0.9865581 1.3821473 0.59822017 -0.847484 -0.5049681
0.019480161 -0.17703839 -1.4507396 -0.7800057 -0.43375948 0.18283783 -0.109855995 0.8552005
0.21059428 -0.36280966 -0.18769147 -0.054165926 0.79975635 -0.21416388 1.4640118 -0.53920186
-0.26261565 -0.36843252 0.40764827 0.00798643 0.013367597 -0.030396255 1.1023016 -0.71760917
0.46398368 -0.079033084 -0.11049385 1.273817 -0.20320809 -1.326232 2.02096 0.047375403
-0.7539298 -0.029310845 -1.3954936 0.08172822 -0.22549321 -0.44058645 0.3312386 1.3805579
-0.22669706 0.15112574 -0.09235531 -0.22271031 -0.105335966 -0.40076387 -0.68491066 -0.085979626
-0.18394586 -0.07666631 -0.8685407 0.0019255581 -9.037046e-05 -0.0037618007 -0.706787 -0.16207856
-0.4141706 -0.047836002 0.16563846 -0.017344335 -0.37687254 -0.701176 -0.6970847 -0.17345825
-0.5698005 -0.3733326 0.3318515 -0.15008505 -0.32930017 -0.07449123 -0.17071486 -0.44911027
-0.55173844 -0.34163266 -0.00015179439 -0.1526118 -0.14251663 -0.2711861 0.13540296 -0.32454932
-0.68607384 -0.29009318 0.19221658 0.17161399 -0.18128432 0.7584157 -0.5109789 0.06435674
-0.17820759 -0.13137467 -0.1811591 -0.45453483 0.108379185 -1.0799541 0.25708425 0.16650888
0.69101155 -0.054858986 -1.2807448 -0.21337348 -0.29815397 -0.08027825 -0.203493 -0.9067517
-0.00875702 -0.6189948 -0.012813774 -0.17185415 -0.4409192 -0.16502608 -0.69937056 -0.14891566
-0.34959686 -0.11826824 -0.2831064 -0.7715033 -0.015004371 -0.61623067 -1.1867743 -0.5957221
-0.5284839 -0.09512263 -0.2764408 -0.64969575 -0.18756564 -0.08771813 -0.76567996 -0.22720332
-0.8635534 -0.29865673 -0.93895847 0.005420293 -0.6376319 0.66405034 -0.3103179 -0.7787613
