experiments/grail_fb_v1/best_graph_classifier.pth (torch, 166252 bytes, 21 tensors)

weight f4 [180, 32]
000000 8c 5d 14 be d2 dc ba 3e 65 ae f1 bd e6 a3 63 be
       -0.1448881 0.36496598 -0.11800841 -0.22230491
000010 d6 86 de 3f 95 8f 8f 3f c9 2e e3 3d 2e 57 4e 3f
       1.7384899 1.1215693 0.11092908 0.80601776
000020 cd 2c 9b 3e 79 99 89 3f db 7a 42 3f 4e 54 ea bc
       0.30307618 1.0749961 0.7596871 -0.028604653
000030 ae de 19 3e 0a db 32 3f 84 e6 86 be d0 0c 0a 3d
       0.15026352 0.6986548 -0.26347744 0.033703625
000040 50 bb ae bf 95 b3 b6 3e 06 b9 ec 3f 6e 31 e4 be
       -1.3650913 0.35683885 1.8493965 -0.44568962
000050 66 e2 a1 be a9 65 60 3e 9d 23 47 bf 2d 47 d2 3d
       -0.3161804 0.2191378 -0.77788717 0.10267482
000060 79 cf 99 3e ca fb 83 bf 36 ba 18 be 5d d2 f6 be
       0.30041102 -1.0311215 -0.14914784 -0.4820737
000070 a0 09 bd 3d c4 1e 0c bf e7 91 ae be 0c 24 f1 3d
       0.092303514 -0.54734445 -0.3409569 0.117744535
000080 de 3d cb 3c 80 2d 1f 40 c2 56 1e bf 3a e2 9d bf
       0.024809774 2.487152 -0.6185113 -1.2334664
000090 27 50 23 3f 34 fe 12 bf bc cd 43 3e 2e 18 ad 3f
       0.6379418 -0.57419133 0.1912145 1.3523004
0000a0 fb 95 56 bf 64 f9 72 3f 98 5e 53 bf 71 62 15 3f
       -0.838226 0.9491179 -0.82566214 0.58353335
0000b0 a7 33 09 be e7 ff c2 3f 2f 85 30 be 58 8a 58 be
       -0.1339861 1.5234345 -0.17238306 -0.21146524
0000c0 89 c9 c3 3f 2a 8c 67 bd 0f 78 1b 3d c4 c2 0d 3f
       1.5295879 -0.056530155 0.037956294 0.55375314
0000d0 b0 41 3e bf 57 3d a5 be ca 9d 25 bf 24 1d e4 be
       -0.7431898 -0.3227336 -0.6469389 -0.44553483
0000e0 8a 8d c5 bf a5 8f 5d bf 51 b7 9e bf 6f b7 fc 3f
       -1.5433819 -0.8654731 -1.2399694 1.974348
0000f0 23 9e 22 c0 ee b1 d4 3e 68 f6 23 3e 3b b2 04 3f
       -2.540902 0.41542 0.16011965 0.5183446
000100 26 12 76 3e cc 02 00 3f 29 75 81 3e 84 b8 9c 3e
       0.2403036 0.5000427 0.252847 0.30609524
000110 86 2d 15 bf b0 20 c6 bf 98 8a 84 be de 1f d7 be
       -0.5827259 -1.5478725 -0.2588699 -0.420165
000120 8b db 08 bf 52 fc a1 3d 4a 0b 50 3d d8 ab 43 3f
       -0.53459996 0.079094544 0.050792016 0.7643409
000130 0e 97 35 bf bc 95 c4 3e 6f 34 fc bd 89 d6 0e bd
       -0.70933616 0.38395488 -0.123146884 -0.034872565
000140 47 59 68 bf 36 d4 59 3f 05 66 e9 bd 34 1c 80 3f
       -0.90761226 0.85089433 -0.11396412 1.0008607
000150 d8 e7 3e be 2a f1 28 3f 6a 41 87 bf 19 3b 15 be
       -0.18643129 0.6599299 -1.0566838 -0.14573325
000160 09 6e 3e be aa ff 87 bf b9 6e 52 bf 10 ba b2 3f
       -0.18596663 -1.0624897 -0.822002 1.3963032
000170 a6 fd 80 bd b1 00 8f 3e d4 16 c1 be 2f c6 8e 3d
       -0.062983796 0.27930215 -0.3771273 0.06971394
000180 1d a3 00 80 dc 40 00 00 57 33 af 2b d1 90 00 00
       -5.8514e-41 2.3267e-41 1.2448748e-12 5.195e-41
000190 05 55 00 80 94 b4 ee 2a 74 0b 8c a6 40 54 00 00
       -3.0499e-41 4.2402594e-13 -9.717556e-16 3.0223e-41
0001a0 e0 76 00 00 d4 09 00 80 4d 7c 00 80 b3 11 f3 1e
       4.2644e-41 -3.526e-42 -4.4591e-41 2.5735946e-20
0001b0 bd 48 9e 20 28 7f 00 80 bc 90 00 80 6e 7e 00 00
       2.6814375e-19 -4.5615e-41 -5.1921e-41 4.5354e-41
0001c0 bb 5f 8d ac 7a 8d 8b 16 14 93 26 23 4d 71 d4 0e
       -4.0180892e-12 2.2545945e-25 9.030023e-18 5.237114e-30
0001d0 f3 fe fc 9d a7 10 00 00 18 14 00 00 28 80 99 2c
       -6.6967456e-21 5.974e-42 7.208e-42 4.3627497e-12
0001e0 8b e9 8e 26 78 12 87 33 72 9b 8a a9 04 db 07 2d
       9.916531e-16 6.289787e-08 -6.1553966e-14 7.722493e-12
0001f0 b1 8a a6 a8 fd 37 00 00 ed 67 c3 1c 16 04 00 00
       -1.848985e-14 2.0085e-41 1.2930882e-21 1.466e-42
000200 60 4a dd 3e 01 83 c9 be 51 8a c9 be 35 39 7a bf
       0.43220806 -0.3935776 -0.3936334 -0.9774354
000210 2b 6c 94 3f 1b f8 6f 3f 3a 6d 31 3f 21 b2 c8 be
       1.159551 0.93737954 0.6930729 -0.39198402
000220 7b 75 24 be 40 3d 65 3f 44 7a 6d 3f b9 26 88 3e
       -0.1606044 0.89546585 0.9276469 0.26592043
000230 c8 5c bc bd 2b d0 c2 3e 0d 24 b6 bd be 99 58 3f
       -0.09197384 0.38049445 -0.08893595 0.8460959
000240 c6 14 78 bf 33 54 3d 3f 6d 7e 5f 3f eb b1 90 bd
       -0.969067 0.739566 0.87302285 -0.07065185
000250 8c d7 e5 3d 47 33 b6 3f 25 2c 98 3e a4 40 37 3f
       0.11222753 1.4234399 0.2972118 0.7158301
000260 71 13 e0 3f 25 24 91 3e 58 76 b8 be c6 87 4e bf
       1.7505933 0.2834789 -0.3602779 -0.80675924
000270 e0 a8 58 3f e8 45 64 bf a2 74 98 bf 61 03 a3 3d
       0.8463268 -0.8916917 -1.1910594 0.07959629
000280 af 16 78 be 00 62 ab 3e 0f c2 ae 3d bf 8c 9c bd
       -0.24227403 0.33473206 0.085331075 -0.07644033
000290 d8 0c c8 3e 8c 89 8d be da 5d be bd 6b f1 87 3e
       0.390723 -0.27644002 -0.092952445 0.26551375
0002a0 63 ea 82 be 36 f4 6f 3d 46 ea 01 3e de 53 12 3f
       -0.25569448 0.058582507 0.12687024 0.5715922
0002b0 fc 69 c3 3e 00 c8 da 3e 38 78 88 bd 8a 4b 64 be
       0.38166797 0.42730713 -0.06663555 -0.22294441
0002c0 69 63 b6 3d 6a 28 9d 3c 13 23 b2 3e 30 7c 88 be
       0.0890568 0.01918431 0.34792385 -0.26657248
0002d0 e5 bb 10 be e5 8c fb be 5c 19 e1 be 1c cf f1 3c
       -0.14134176 -0.49130931 -0.4396466 0.029517703
0002e0 46 47 ef be 3f 4b 75 be 97 cf 06 bf 59 ca 03 3e
       -0.46734065 -0.23954485 -0.52660507 0.12870158
0002f0 55 7f ab be ba aa 16 3f 92 dc 9f 3e 77 82 b9 bd
       -0.33495584 0.5885426 0.3122297 -0.09058087
000300 fc 28 86 3f b5 e3 76 bf dc 0d b9 3e 89 b9 e4 3e
       1.0481257 -0.96441203 0.36143386 0.44672802
000310 23 b5 6d 3d 73 1c 14 3f 84 40 47 bf 4e f4 00 c0
       0.058034074 0.5785591 -0.7783282 -2.0149112
000320 41 60 45 bf 69 c2 7b 3f d4 dd 22 bb 35 a5 ee be
       -0.77099997 0.9834352 -0.0024851458 -0.46610418
000330 6c 31 96 bf 8c 0c 86 3e b7 fa f3 3e 03 13 42 3f
       -1.1733832 0.26181448 0.47652218 0.7581026
000340 39 37 ba bf 38 ab d4 3f c4 45 0e 3f f0 12 ad be
       -1.4548103 1.6614752 0.55575204 -0.3380351
000350 c8 2a 33 bf 44 d6 4f be 04 d2 b8 be 40 f3 b1 be
       -0.69987154 -0.2029658 -0.3609773 -0.34755898
000360 2e 2a fc 3e 8f 12 8f bf 1b a4 f4 bf 26 d6 69 bd
       0.4925093 -1.1177539 -1.9112581 -0.057088993
000370 fd 91 a8 3d be 32 ef 3e c0 74 43 bf c6 ca 7a 3d
       0.0823097 0.467184 -0.7635002 0.061228536
000380 39 78 2a 3f b4 10 e5 3d b8 0f 7c 3f b6 e2 db 3e
       0.66589695 0.111848265 0.98461485 0.42946404
000390 5c a2 aa 3f 16 f0 a5 3c 8d e0 8a bf f5 cd 6c bf
       1.3330798 0.020256083 -1.0849777 -0.92501765
0003a0 32 bd 29 bf e5 3c 1c 3f ab 09 ae bf 0e 34 84 bf
       -0.66304314 0.6103042 -1.35967 -1.0328386
0003b0 23 32 38 bf 93 f9 aa 3f 33 ef 39 be a3 f0 7f bf
       -0.719515 1.3357414 -0.18157654 -0.9997656
0003c0 8c f4 a3 3f 54 39 7e 3e f7 8d 93 3c 3d d8 23 bf
       1.2809005 0.24826556 0.01801203 -0.6400183
0003d0 05 a1 74 bf 32 dd a7 bf 20 a6 c0 bf 7c d0 e2 bc
       -0.95558196 -1.3114378 -1.5050697 -0.027687304
0003e0 8e df c8 bf 04 3b b4 bf cb d9 dc bf 2d 32 a4 3f
       -1.5693223 -1.408051 -1.7253965 1.2827812
0003f0 ea fb 01 c0 de 72 0a 40 a2 09 39 bf d0 9a a8 be
       -2.0310006 2.163261 -0.72280324 -0.32930613

weight f4 [4, 8, 32]
000000 63 49 fc be 05 c7 6a 3e 38 5a 4a bf 7b 51 a8 bf
       -0.4927474 0.22927482 -0.7904391 -1.3149866
000010 3f 54 6c 3d aa 01 1f be 5b b0 cd be 9a 32 50 3d
       0.05769753 -0.15527979 -0.4017361 0.050829507
000020 6d b2 0d c0 c2 69 40 40 bd 18 c6 3d 36 1a 09 3f
       -2.2140152 3.006455 0.09672687 0.5355562
000030 83 90 42 3e d8 80 76 bf 8d 0f fc 3f 29 4b bc 3d
       0.1900044 -0.9629035 1.9692246 0.09194023
000040 5c 66 e1 bc f8 75 53 3e 11 0a 3c be da c7 34 3d
       -0.027514629 0.2065047 -0.18363215 0.044135906
000050 22 0e 5c bf 5a bc ec 3e 65 01 08 bf b0 fd a3 bf
       -0.85959065 0.4623745 -0.5312713 -1.2811794
000060 f4 dc 54 3e 90 16 ae bf 6d 54 ea be cc eb b2 be
       0.20787412 -1.3600636 -0.45767537 -0.34945524
000070 e8 e5 b3 3f 2c 8f 57 bf 93 c6 1a bf bc 2a 18 3f
       1.4054537 -0.8420284 -0.6045925 0.5944021
000080 c6 45 be 3e 27 93 51 be 6d e9 22 bf 0e ef 0f 40
       0.37162608 -0.2046629 -0.6363743 2.2489657
000090 49 17 dd bd 01 9b b9 be 68 46 4d 3f f5 93 61 3f
       -0.10795457 -0.3625107 0.80185556 0.8811639
0000a0 e5 a5 13 bf 5b 07 7a bf af e6 c0 be 3f 43 5b bf
       -0.5767501 -0.97667474 -0.37675998 -0.85649484
0000b0 10 e0 0b 3f a8 49 84 3e 46 86 83 3f 14 5b 97 3f
       0.5463877 0.25837445 1.0275352 1.182467
0000c0 de c3 c6 be a7 e1 81 3f ff 94 51 bf 3e 21 f3 be
       -0.3882131 1.0146989 -0.81867975 -0.474863
0000d0 d4 77 dd 3f 81 61 87 bf bb 38 6d bf 44 f0 83 bf
       1.7302194 -1.0576631 -0.9266469 -1.0307698
0000e0 d8 55 af 3f 4e b3 ca bd e7 2b 80 3f 04 f0 8b bf
       1.3698072 -0.09897481 1.0013398 -1.0932622
0000f0 a4 cd eb be 17 a0 d4 3e 81 a4 f1 3e e0 34 32 3f
       -0.4605533 0.4152839 0.4719582 0.6961193
000100 f5 16 dd bf 8e 65 c0 be 89 93 a5 bf 54 8c 44 3f
       -1.7272631 -0.3757748 -1.2935649 0.76776624
000110 72 74 1d be 02 6a 82 bf 02 92 cd bf 43 ac c3 be
       -0.15376452 -1.0188601 -1.6060183 -0.38217363
000120 a7 ae 3a 3e 4a 98 f5 3e 68 34 dc bf 31 2a 1d bf
       0.18230687 0.4796775 -1.7203493 -0.61392504
000130 ec 96 ae bf 9c b0 01 bf 37 cb c2 bf de 9f e6 bf
       -1.3639808 -0.5066011 -1.5218266 -1.8017538
000140 a3 1d 93 bf 08 c3 20 c0 84 3b 37 3d c2 22 85 3f
       -1.149342 -2.5119038 0.044734493 1.0401232
000150 65 a1 d9 bf 0a 39 f6 be e9 b2 38 be 32 c7 23 40
       -1.7002379 -0.48090392 -0.18036999 2.559033
000160 59 23 05 c0 c0 2e 85 bf 88 46 6d bf 06 35 66 3f
       -2.0802824 -1.0404892 -0.9268575 0.8992466
000170 36 88 cf be 74 6c b0 bf 84 b0 23 c0 1d c8 bf be
       -0.40533608 -1.3783097 -2.5576487 -0.37457362
000180 c7 d5 5d c0 36 fc b8 bf 78 61 e0 be 8d ca 49 c0
       -3.466173 -1.4451969 -0.43824363 -3.1529877
000190 14 bf 2d bc 19 65 e5 be 20 90 52 bf 73 d6 51 be
       -0.010604639 -0.44803694 -0.8225117 -0.20491962
0001a0 40 5d 02 c0 75 95 cd bf ac 8f 2f 3e bc a8 42 be
       -2.0369415 -1.6061236 0.1714465 -0.1900968
0001b0 85 bd 86 be 7b 78 f5 3f 40 d8 91 bf 5f e6 1f bf
       -0.26316467 1.9177393 -1.1394119 -0.62460893
0001c0 6e 44 54 bf d5 39 7b be a8 a0 18 be e8 af 99 bf
       -0.82916915 -0.2453378 -0.14905035 -1.2006807
0001d0 81 f8 17 c0 de 47 d3 be f2 75 2d 3e 2b 9b 80 bf
       -2.3745425 -0.41265768 0.16939524 -1.0047354
0001e0 bf 82 42 be 5f 3c ab 3c 0e 38 ef bf 9f 47 68 3f
       -0.18995188 0.02090281 -1.8688982 0.90734285
0001f0 6c 95 41 3f 32 0f ce bf ba 2c b4 bd 07 4c de be
       0.75618625 -1.6098387 -0.087975934 -0.4341738
000200 49 23 2b be ab 4a d7 3f 7c e8 ea be a2 4c a7 3f
       -0.16712679 1.6819662 -0.45880497 1.3070261
000210 9a ce e1 bb 6b 0a be 3e 08 16 46 40 9f 5a 0e 40
       -0.006891084 0.37117323 3.0950947 2.224281
000220 a0 3a 8b bf e2 68 a2 3f 07 ab fc be f0 0d 43 bf
       -1.0877266 1.2688258 -0.49349234 -0.7619314
000230 2d 51 6e bf f9 8a f3 3f bd f6 46 3f f3 bb 7a 3e
       -0.93092614 1.9026786 0.7772024 0.2448576
000240 e8 0a 29 40 e2 ef 10 3f 68 3f e3 3f 66 45 b5 3f
       2.6412907 0.5661603 1.7753725 1.4161804
000250 5d 7f bc 3f f4 25 8b 3e ae 1f 3d 40 7c 25 27 3e
       1.4726368 0.27177393 2.9550586 0.16322893
000260 84 a7 67 3f 8b 61 55 3f 0d ef 49 be 0f 2d 63 3f
       0.90489984 0.83351964 -0.19720097 0.8874063
000270 7a f2 56 be 2a 19 e5 3c 6d c8 9a 3f 0a eb 1a 40
       -0.20990935 0.0279661 1.2092415 2.4205956
000280 4e b0 82 3e e5 6f 0c bf 7f 26 9e bf 7b 26 d2 3e
       0.25525135 -0.5485824 -1.2355498 0.41044983
000290 19 0a 77 bc c4 31 a0 bf 84 88 a5 be 89 26 8f be
       -0.015078091 -1.2515187 -0.32330716 -0.27959087
0002a0 a4 8f fa bf 21 ce 76 3f b1 8b 05 c0 50 15 86 3d
       -1.9575086 0.9640828 -2.086651 0.06547034
0002b0 39 37 28 bc 55 54 d3 bf f2 31 6c 3f d3 58 f4 be
       -0.010267072 -1.6510111 0.9226371 -0.47724018
0002c0 84 b5 cb 3d 49 ae 90 bf e8 78 80 bf dd e6 2f 3c
       0.09946731 -1.1303188 -1.0036898 0.010736194
0002d0 19 9e 64 3f fa 87 31 bf 77 00 1a c0 25 29 2b bf
       0.8930374 -0.6934811 -2.4062784 -0.66859657
0002e0 38 8e 91 3f 7a d5 be bf 71 1e 6a 3d 4f 61 d0 bf
       1.1371527 -1.4908898 0.057157937 -1.6279696
0002f0 02 c8 2a bf ca aa 28 be c3 ac 18 c0 38 b9 c4 3d
       -0.6671144 -0.16471401 -2.3855445 0.0960564
000300 03 1d fd be 2b 87 2d c0 b8 84 a1 bf a4 e7 a5 bf
       -0.49436197 -2.711375 -1.2618628 -1.2961316
000310 4f eb dd be 3f b9 15 3e 86 e9 d2 bf 28 7b b7 3d
       -0.4334359 0.14621447 -1.6477516 0.08959037
000320 da 70 58 be 15 f6 c9 bd c6 36 42 bf 7b 21 aa bf
       -0.211368 -0.098613895 -0.7586483 -1.3291467
000330 a0 73 66 bf f8 96 dc 3f 57 20 4e 3f 70 42 72 3f
       -0.9002018 1.7233572 0.80518097 0.94632626
000340 41 8c b6 be f5 7e 29 3f 59 a2 3b bf f2 15 51 bf
       -0.3565388 0.66209346 -0.732946 -0.8167411
000350 52 60 d8 bf 6a 83 83 bd 9c fd 7f bf ca e8 46 bf
       -1.6904395 -0.064215496 -0.9999635 -0.7769896
000360 29 ea 33 bd 2f 19 a6 3d e3 e6 0e c0 15 9b bd 3f
       -0.043924484 0.08110272 -2.2328422 1.4812952
000370 d0 d4 86 be e0 b3 99 bf 7d a0 d0 be 2c 43 a3 3e
       -0.26334238 -1.2008018 -0.40747443 0.31887186
000380 d7 a6 0a c0 4d f4 9e 3f 3e 90 e4 3e 15 af 0f be
       -2.166433 1.2418305 0.44641298 -0.14031632
000390 41 76 7f 3d 2d 9b ce be d6 58 b0 3d bf 59 64 3e
       0.062368635 -0.40352765 0.08610694 0.2229986
0003a0 bc 42 83 3e 08 bc 0e be e0 31 02 3f 8b 0c 41 3e
       0.25636852 -0.13938916 0.50857353 0.18852441
0003b0 05 9e 5b 3f 22 ca 25 bf 6c 65 58 bd a1 25 b7 3d
       0.85787994 -0.64761555 -0.0528311 0.08942724
0003c0 e6 66 fd bf c0 7f 29 bf ed 50 d7 be ae 95 1e bf
       -1.9797027 -0.66210556 -0.4205393 -0.61947143
0003d0 60 03 d7 bf 7c 38 58 bf b8 b9 48 3f af 35 9c 3f
       -1.6797905 -0.8446119 0.78408384 1.2203883
0003e0 5b ed 6a 3e 2a e7 e4 be be 13 b1 be 19 06 55 3f
       0.22942106 -0.44707614 -0.34585375 0.8321243
0003f0 75 bb a8 3f 3f 31 27 bf bd 1d 88 3e 05 12 f4 3e
       1.3182207 -0.6530952 0.26585189 0.47669998

w_comp f4 [180, 4]
000000 4c f5 c4 be 96 41 97 3f e8 f3 2e 40 60 08 26 bb
       -0.38468397 1.181689 2.7336369 -0.0025334582
000010 30 5a 87 3f f4 16 52 bd d0 c7 ad be 73 ee 9c be
       1.0574398 -0.05129142 -0.33941507 -0.30650672
000020 8e 3b 87 bf b7 da f5 be 42 45 71 bf 00 24 c4 3b
       -1.056505 -0.4801843 -0.94246304 0.005985737
000030 da 29 f6 be cf 48 af 3c a4 6d 85 3f 0c de f8 bd
       -0.48078805 0.021397023 1.0424085 -0.12151727
000040 60 d9 67 3f 83 fb 2f bf d8 a2 8e bf f1 2c 33 40
       0.9056606 -0.6874315 -1.1143446 2.799618
000050 9e 82 dd 3f 34 97 cc 3f 3b 56 d3 be c8 3c 71 bf
       1.7305486 1.5983644 -0.41276726 -0.9423337
000060 ff 9e 40 bf 56 03 2c c0 3a f8 bd 3f 5c 0f 0e 3e
       -0.7524261 -2.6877036 1.4841378 0.13873047
000070 f7 da c9 3d ea 1b 2f bf 7f da 3f bf c1 cd 32 be
       0.09856217 -0.6840197 -0.74942774 -0.17461301
000080 01 21 d8 3e 92 21 9c 3e f8 a5 ae bf 2f be 2a 3f
       0.4221268 0.30494362 -1.36444 0.6669645
000090 4c 78 53 40 d6 cc bb bf 31 24 d1 3f 2c ad 73 3f
       3.3042173 -1.4671886 1.633917 0.95186114
0000a0 b0 b0 15 bf 93 6f 38 c0 fd 61 b6 3f 55 ea 03 40
       -0.5847273 -2.88181 1.4248654 2.0611775
0000b0 91 9b 2c bf 51 4b 15 bf ef e9 61 3f 9e 65 21 bf
       -0.67424875 -0.5831805 0.8824758 -0.6304568
0000c0 40 53 bc bf 34 3c 58 3e ef 8b 02 40 51 3a 64 3f
       -1.4712906 0.21116716 2.0397909 0.89151484
0000d0 3f 7f 3d 40 0a 63 8c bf 34 08 db bf 41 fe cf 3e
       2.9608915 -1.0967724 -1.7111878 0.40623668
0000e0 36 42 f4 3f 18 8f c5 3f 34 97 f1 3f ff e5 a5 be
       1.9082706 1.5434294 1.8874269 -0.32402036
0000f0 26 5e f1 3e 7b e2 41 3e e0 69 19 bf 06 b4 4b 3e
       0.47142142 0.18934052 -0.5992718 0.19892892
000100 80 22 8d 3f ff d8 87 bf 45 ca b4 3f 3d ad 71 bf
       1.1026154 -1.0613097 1.4124228 -0.94404966
000110 bc ad 08 3f de f2 65 bf 7d 69 e1 3e b5 50 94 3f
       0.533901 -0.8982371 0.44025794 1.158713
000120 8c 39 74 bf df a5 09 bf 47 11 01 40 5b 09 66 bf
       -0.9540031 -0.53768724 2.0166795 -0.89858025
000130 7a e9 23 3f 04 80 40 bf 6d 49 c1 bd 2c 4d 31 3e
       0.6402813 -0.75195336 -0.09437833 0.17314595
000140 31 56 e3 3f 16 3e ba bf 52 da aa 3e 3a f3 3b c0
       1.7760679 -1.4550197 0.3336969 -2.9367204
000150 94 c8 42 3f e9 08 9b bd 98 ab d1 3e e3 33 bf bf
       0.7608731 -0.07570059 0.40951228 -1.493771
000160 5d 21 9f be 24 c3 04 bf 7b 75 83 3f 65 13 d1 be
       -0.31080142 -0.5186026 1.0270227 -0.4083511
000170 fa 0a c7 bd 0b 5d 64 be ad 87 0a 3f 9c 71 8b bf
       -0.097188905 -0.22301118 0.54113275 -1.0894046
000180 a7 f9 21 3e 91 a6 ec be 36 4b e7 bf 70 5d c2 be
       0.15817891 -0.4622083 -1.8069828 -0.37961912
000190 22 73 79 bf 91 5f af bf d4 7a 7b 3f 60 d5 66 3f
       -0.97441304 -1.370104 0.98234296 0.90169334
0001a0 9a b4 10 3f 81 8c 3c bf b8 2b 2d 3f 3a 30 00 c0
       0.56525576 -0.7365189 0.67644835 -2.0029435
0001b0 a1 70 d1 3f e5 f0 4d bc 08 f4 26 40 6f 79 8e bf
       1.6362497 -0.012569641 2.6086445 -1.1130809
0001c0 4b 35 c1 3f b9 a1 0d bf 53 1d 47 bf 74 83 f2 be
       1.5094389 -0.55324894 -0.7777912 -0.47365916
0001d0 bc 8d 24 3f ed 6d 21 be 58 90 9c be 6c e4 a2 3f
       0.6427877 -0.1576459 -0.30578876 1.2725959
0001e0 95 16 77 bf bb 80 c7 bf ef 45 b9 be dc d5 17 3f
       -0.9651883 -1.558616 -0.36186168 0.593107
0001f0 49 47 cb be c8 88 2a c0 ec a0 29 3c 06 5c 03 c0
       -0.39702824 -2.6645985 0.010353308 -2.0524917
000200 0c f3 29 c0 d3 b9 91 3f 8b 53 1b c0 1e 5b 1f c0
       -2.6554594 1.1384834 -2.426974 -2.4899364
000210 f6 ba 83 3f a9 17 03 be 30 96 c5 3f 6c a7 de 3f
       1.0291431 -0.12801994 1.5436459 1.7394843
000220 e0 26 2e 3f db ca 7d bf d3 33 0e 3f b6 a5 f2 3e
       0.6802807 -0.9913766 0.5554783 0.47392052
000230 b8 e2 89 be f1 62 89 be 71 32 36 3e b0 41 64 be
       -0.26930785 -0.268333 0.1779268 -0.22290683
000240 3e b3 9a bd fc 55 42 be 31 45 30 3d bb f1 e2 bd
       -0.07553719 -0.18978113 0.043034736 -0.11081263
000250 1d 8d a9 3e 05 05 4a bf d4 88 b9 bf be 36 d0 3e
       0.33115473 -0.7891391 -1.4494882 0.40666765
000260 bb 99 80 bf bf be e3 be ab 8b 3a 3f 5d 2c ac bf
       -1.0046915 -0.44481465 0.72869366 -1.3451039
000270 57 81 7b 3f 0e a7 bf 3f dd c5 d9 bf 33 7b 3c 3e
       0.9824423 1.4972856 -1.7013508 0.18406372
000280 2b 17 0d 40 60 b9 87 bf 48 e0 81 bf 23 24 36 c0
       2.204539 -1.0603447 -1.014657 -2.8459556
000290 8e 56 01 3e 4f 3d 29 c0 b1 c1 72 bf 5f a7 19 3e
       0.12630674 -2.644367 -0.948268 0.15005253
0002a0 10 0a 11 3c 57 8d f3 bf b0 98 08 40 99 37 8c 3f
       0.008852497 -1.9027508 2.1343193 1.0954467
0002b0 37 d5 2b bf d8 e7 ae bf f5 b6 25 3f 28 ff 74 3e
       -0.67122215 -1.3664503 0.64732295 0.2392546
0002c0 ce 1f 0d c0 63 ce e0 be 5d af ca 3f 21 a7 b3 bf
       -2.2050662 -0.4390746 1.5834767 -1.4035379
0002d0 b1 ce 49 bf 2e 8b f8 bf 07 da 17 3f 34 ad a4 3f
       -0.7883101 -1.9417474 0.5931706 1.2865357
0002e0 18 93 c8 3f 66 d1 2b c0 49 31 c9 3f ce 13 92 be
       1.566989 -2.6846557 1.5718166 -0.28530735
0002f0 14 a2 2e bf 89 07 6b bf ef 53 cf 3f 76 10 b1 bf
       -0.6821606 -0.9180837 1.619749 -1.3833148
000300 09 9a e4 be 2e ff 24 bf ca e5 eb bf 4f a4 30 3f
       -0.4464877 -0.64451873 -1.8429501 0.69000715
000310 ab dd 4c 3c f4 ec 5d 3d 72 28 73 3f ed c7 96 be
       0.012504022 0.054181054 0.9498359 -0.29449406
000320 9e b9 ba 3e 31 d7 3b bf f1 5f 13 be 05 43 25 bf
       0.3646974 -0.7337523 -0.14392067 -0.6455539
000330 f8 a0 48 be f5 bc a1 be 10 7f 74 3e 7c 36 80 bf
       -0.19592655 -0.31589475 0.23876595 -1.0016627
000340 b8 3a 88 3d d5 3e 4e bf 0b 47 8e 3e b1 5e 89 bf
       0.06651825 -0.80564624 0.27788576 -1.0732023
000350 6c be 68 3f 61 8f 82 3f a3 f5 4e bf 08 e4 66 bf
       0.9091556 1.0200006 -0.8084356 -0.901917
000360 46 97 5d 3f fd 32 d3 bf ba 3c 56 3f 27 bf 8a bf
       0.8655895 -1.6499935 0.8368641 -1.0839585
000370 96 49 90 3f 6c fc cc 3d da 65 87 bb 64 76 58 bf
       1.1272457 0.10009083 -0.0041320147 -0.8455565
000380 49 45 ce bf 6f e2 13 3f ae e4 0e 40 33 2f dd bd
       -1.6114894 0.57767385 2.2327075 -0.10800018
000390 fe 0d 41 3f 36 08 85 bf 3a a3 e2 be 70 6f 42 be
       0.75411975 -1.0393131 -0.44265157 -0.18987823
0003a0 d7 f5 18 3f 43 ae c2 be 8d ea 1d bf d1 ca 41 3f
       0.5975012 -0.38023576 -0.6168602 0.757001
0003b0 81 16 2e 3f 8d 56 93 bf 48 90 2f 3f d9 0e 32 be
       0.6800309 -1.1510788 0.6857953 -0.17388476
0003c0 76 04 7c be 09 81 7a c0 11 9c 67 bf e9 b7 09 3e
       -0.24611077 -3.9141257 -0.90472513 0.13449062
0003d0 6f 43 b4 bf 16 0b 03 bf 8a 0b fb 3f 84 94 fd bf
       -1.4083079 -0.5118879 1.9612896 -1.9810948
0003e0 5e a6 32 bf 87 25 5a 40 17 0a 8f be fa ce b4 3e
       -0.69785106 3.4085405 -0.27937385 0.3531416
0003f0 99 28 55 3f d0 8f 95 bf 6a 02 9e 3f 7d 06 29 3f
       0.8326507 -1.1684513 1.2344487 0.66025525

self_loop_weight f4 [8, 32]
000000 c5 42 55 3f fd 23 3c bf 32 f5 2c 3f e5 3b e7 3e
       0.8330501 -0.73492414 0.6756164 0.45162883
000010 f9 97 f9 be 69 b4 03 bf ec 49 23 c0 5c 29 a8 be
       -0.48748758 -0.5144716 -2.5513868 -0.32844055
000020 71 85 a1 bf da 70 9d 3e 91 64 50 3d 09 73 a3 bf
       -1.2618848 0.3075016 0.050877158 -1.2769481
000030 6f 02 84 be 9d ca 2f bf 6c cd e2 be 46 7d 38 3e
       -0.25783107 -0.6866854 -0.4429735 0.18016538
000040 d6 6f 80 bf 0c 57 b2 bd d4 47 a3 3e 7f d9 ee bf
       -1.003413 -0.08708009 0.31890738 -1.8660125
000050 f2 84 0d c0 4b b7 a0 bf a9 e0 c4 bf cd 01 45 bf
       -2.2112393 -1.2555937 -1.5381061 -0.7695587
000060 ea ba 69 bf 77 1c c4 3e 90 c8 49 bf e3 0a 7e 3d
       -0.91300833 0.38302967 -0.7882166 0.0620221
000070 86 73 89 bf 29 3e cc 3e 61 f0 c4 3e 81 04 b6 3e
       -1.073838 0.39891174 0.38464645 0.3555031
000080 6e e4 75 be f3 8e 6e 3f 4d 32 28 bf 12 97 9d 3d
       -0.2401292 0.93186873 -0.6570175 0.0769483
000090 24 e3 3a bf 12 96 97 bf 00 06 57 3e 1e a6 ad be
       -0.7300284 -1.1842673 0.20998383 -0.339158
0000a0 3a f4 59 3e 72 53 0c bf 96 1d 4b bf da 02 02 be
       0.21284571 -0.5481483 -0.7934202 -0.126964
0000b0 1e d8 28 bf aa b1 96 be 81 79 49 bf 14 cd 2b c0
       -0.6595477 -0.29432422 -0.78701025 -2.684392
0000c0 52 25 bd 3d 1f 45 1c 3f ec aa 48 c0 91 ec 79 3e
       0.09235634 0.6104297 -3.1354322 0.24406649
0000d0 ee 2e 88 bd 3e 24 b4 bf 65 09 32 be cf b6 3a bf
       -0.06649576 -1.407356 -0.17386396 -0.72935194
0000e0 6d 62 e7 bd 5e 88 17 c0 36 f4 43 bf 60 a4 84 bf
       -0.1129807 -2.3676982 -0.7654451 -1.0362663
0000f0 9f 67 84 bf a2 46 f8 be f6 41 62 c0 cd 2a 3c be
       -1.0344123 -0.4849139 -3.535276 -0.18375702
000100 06 8c 00 be db f7 e2 bf 65 e7 03 c0 92 e8 58 bf
       -0.12553415 -1.773189 -2.0609982 -0.84729874
000110 59 93 11 bf c7 81 fc be 2e 60 2f c0 33 b0 04 bf
       -0.5686546 -0.49317762 -2.7402453 -0.5183136
000120 77 cb ed bf de 55 13 c0 52 ea 3f bf c4 b4 14 3f
       -1.8577718 -2.302116 -0.7496692 0.58088326
000130 b4 e5 cd be af 47 0d bd 65 db 94 bf 46 29 09 bf
       -0.40214312 -0.03449219 -1.1629454 -0.53578603
000140 79 e5 cf bf f0 5e 17 bf f0 23 b9 3e c4 2c b7 bf
       -1.6241904 -0.5912924 0.3616023 -1.4310536
000150 74 c5 b8 bd f5 9f 0c 3e 26 8a 81 bf f9 5a 77 3e
       -0.09022036 0.13732894 -1.0120285 0.24155797
000160 27 27 20 c0 8b 03 74 bf 0c 0b dd 3e e5 ca cb be
       -2.5023897 -0.95317906 0.4317249 -0.39803234
000170 40 19 35 3f dc 1c ea 3e 49 d7 8b bf fa d9 c2 3d
       0.70741653 0.45725143 -1.0925075 0.09514232
000180 49 50 3b 3f 1e 7e bb be 7f 8c 4f bf af 24 0b 3e
       0.7316938 -0.36619657 -0.81073755 0.13588212
000190 84 89 cf bd 9e 51 84 be 9d 03 ec bd 81 1a 86 3d
       -0.10133651 -0.2584352 -0.11524127 0.06548024
0001a0 6c 66 b9 3f b1 6b 00 c0 f0 7e 8b bf ae 99 06 c0
       1.4484382 -2.006573 -1.0898113 -2.1031299
0001b0 d7 47 04 3f 92 94 bb bf ee 87 91 bf 8a 8c 43 be
       0.5167212 -1.4654715 -1.1369607 -0.1909658
0001c0 52 98 b9 bf 21 0f 39 bf 48 fa 1b c0 1d 36 1d bf
       -1.449961 -0.7228871 -2.437151 -0.61410695
0001d0 8c 50 f1 3e f6 de 13 3f e4 68 cc bf 30 94 10 bf
       0.47131765 0.57762086 -1.596951 -0.56476116
0001e0 4b cc c0 bf 3e 51 af bf 1d 99 30 bc a9 f0 c3 be
       -1.5062345 -1.3696668 -0.010778693 -0.38269547
0001f0 30 b7 b2 bf 5e bd 7f c0 74 df bf 3d 8a 2d 31 bf
       -1.3962154 -3.995933 0.09368792 -0.6921011
000200 47 b6 76 3f 6e 69 12 40 e5 79 5e bf c8 c9 cc 3e
       0.96371883 2.287685 -0.86904746 0.39997697
000210 b9 d5 b6 3e 79 ec 0a bf 15 66 34 bf 8f 51 d3 be
       0.35709932 -0.5426708 -0.70468265 -0.41273162
000220 c8 34 b3 3e dd df e8 be 02 31 8e be 58 25 21 3f
       0.35001206 -0.45483294 -0.27771765 0.6294761
000230 86 fe 7e 3f 3a e8 20 bd 5a 6a 81 be c2 23 9b be
       0.9960712 -0.03928397 -0.25276452 -0.3030072
000240 17 57 a3 bf b7 91 2a bf d0 b7 01 c0 04 84 b6 be
       -1.2760953 -0.66628593 -2.026844 -0.35647595
000250 64 8e ec be 1a 3a e8 be 05 27 e5 be d7 a7 0b be
       -0.46202385 -0.45356828 -0.44756332 -0.13638245
000260 ee 5d fe 3e d0 42 aa bf c7 54 a4 bf 4b a1 b5 be
       0.49681038 -1.330164 -1.2838372 -0.3547462
000270 dd 6e d4 bd 63 04 22 c0 2a 47 6e bc ef dd 05 3d
       -0.10372708 -2.5315177 -0.014543334 0.032682355
000280 58 1f 5c c0 a0 72 82 bf 59 90 c3 3e 42 f1 bb be
       -3.439413 -1.0191231 0.38196066 -0.36707503
000290 3b 72 26 bf 36 61 e4 be 98 22 6b be 01 ef 57 bf
       -0.6501805 -0.44605416 -0.22962415 -0.84349066
0002a0 3a 5b c9 bf 2b a0 93 be d2 0c 96 bf 90 40 42 bf
       -1.5730965 -0.28833136 -1.1722662 -0.75879765
0002b0 f6 7c 79 be e1 2d f7 bf ba 95 9b bf db aa 8d be
       -0.24364075 -1.9310876 -1.2155068 -0.27669415
0002c0 c7 cd 40 3f a5 56 7e 3d 58 aa 94 3e 3e 0c d7 3e
       0.7531399 0.06209435 0.29036212 0.42001528
0002d0 6b bd 49 bf 3f 3c 5a bf ce 77 fc bf f1 8e 29 bd
       -0.78804654 -0.8524818 -1.9724061 -0.041396085
0002e0 a8 c5 1e c0 cc a1 14 bf 7d 75 8a bf dc 42 10 c0
       -2.480814 -0.5805938 -1.0817105 -2.2540808
0002f0 08 07 c1 be a0 da 2f bf 0b f6 1b bf f6 21 a6 be
       -0.37700677 -0.6869297 -0.60922307 -0.32447785
000300 f3 60 1b be 55 7d bb bf e2 df 4c bf 1c be 37 be
       -0.15173702 -1.4647623 -0.8002912 -0.17943615
000310 e6 25 2f bf 80 76 68 3e 5c 65 a6 be ec 9c 51 be
       -0.68417203 0.22701454 -0.32499206 -0.20470017
000320 66 10 9a bf fc ae 92 bf d5 b2 0b 3f 18 b5 f8 bf
       -1.2036254 -1.1459651 0.5456975 -1.9430265
000330 70 99 03 c0 05 90 a6 bc 91 b6 13 3e 6b e3 d6 bf
       -2.05624 -0.020332346 0.14425112 -1.6788152
000340 4c 91 a5 be ac db b6 bf b0 c1 20 bf 0d d8 07 bd
       -0.32337415 -1.4285789 -0.62795544 -0.033165026
000350 d9 c1 1d 3d ff be ac 3e a0 5e 6a 3f b9 21 e2 be
       0.038514946 0.33739468 0.91550636 -0.44166353
000360 8c e4 dd bd 35 9c 9c bf 11 42 32 3f a5 a4 64 3e
       -0.108346075 -1.2235171 0.6963206 0.22328432
000370 b1 38 4a bf d9 78 57 3e d2 67 7e bf 44 d2 e0 bf
       -0.78992754 0.21042193 -0.9937717 -1.7564168
000380 b0 e2 3d 3f 32 e5 d3 bf 7d 5d 69 bf 43 08 47 be
       0.7417402 -1.655432 -0.91158277 -0.19436745
000390 c6 14 62 be 7f 0b 9f be 89 4c b9 3e 06 e1 e6 3d
       -0.22078237 -0.31063458 0.36191204 0.112733886
0003a0 c6 8b a8 3e fd 73 d2 bd a2 2a 1c bf 52 0d aa be
       0.3291914 -0.10276029 -0.6100255 -0.33213288
0003b0 e0 4a 21 3d 9b 86 ea 3d 8a 11 e8 bf 95 8f 63 3f
       0.039378047 0.11451455 -1.8130352 0.88890964
0003c0 4b 4b f6 bf 07 7c c9 bf d9 ca bb bf fa cf dc be
       -1.9241728 -1.5740975 -1.4671279 -0.43127424
0003d0 69 a6 11 3f c7 b9 dd bf 04 15 e6 bf 8b bf 3f 3e
       0.56894547 -1.732232 -1.7975163 0.18725412
0003e0 69 19 82 bf ee 3c 78 be 88 84 a5 bf 0e 89 a0 3e
       -1.0164005 -0.24241993 -1.293107 0.31354564
0003f0 fc b8 51 bf dd 85 04 3d f1 6a aa bf 33 bd 42 c0
       -0.8192289 0.032354224 -1.3313886 -3.0427978

weight f4 [8, 80]
000000 7d 7d 3f bf 36 6e 06 bf 38 f3 66 3e 5d b0 c7 be
       -0.74800855 -0.5251192 0.22553718 -0.39001742
000010 4f 25 4d bf 97 43 c5 bf 64 0f dc be fd bb 70 3d
       -0.80135053 -1.5411252 -0.42980492 0.05877303
000020 2b 10 f6 be cd 61 9e bf a8 69 49 bf 3b 16 82 be
       -0.4805921 -1.2373596 -0.78676844 -0.25407586
000030 b7 05 9b bf 6f c8 b0 bf 1e a6 8b be c9 45 1f 3e
       -1.2111119 -1.3811167 -0.27275175 0.15553965
000040 f0 2b 08 3d 10 06 43 3f c5 e7 a2 bf ae 08 58 bf
       0.033245027 0.76181126 -1.272698 -0.84388244
000050 53 ef c5 be 54 d4 38 be 6e e8 4d 3f af e9 8b 3e
       -0.38659152 -0.18049747 0.80432785 0.27326724
000060 fa d0 b1 be d2 57 30 3d 2a 7c a6 3e cf 5a 2d be
       -0.3472975 0.043052502 0.32516605 -0.16929172
000070 7d e1 01 bf e8 8b d4 3d c7 93 c2 3e c4 c2 8e be
       -0.5073469 0.103782475 0.3800337 -0.2788297
000080 ff fa 11 3f 0c 43 8c bc a6 55 b1 3c 90 4f fa bd
       0.57023615 -0.017121814 0.021647286 -0.122222066
000090 45 8c 1d be de e1 26 be 5f 58 d5 3e 7f f6 c8 3e
       -0.1538554 -0.16297099 0.41668984 0.39250562
0000a0 1d 88 76 be 76 d7 8a 3f 78 f3 8c be 2d 52 47 be
       -0.2407536 1.0847003 -0.27529502 -0.19464941
0000b0 8f de dd 3e 3b 3e 4f be 05 8f 16 bd a8 1c a9 3e
       0.4333386 -0.20238583 -0.036757488 0.33029675
0000c0 36 ea 07 bf a4 35 75 3d 48 57 0b be 5f 82 3e 3f
       -0.5309175 0.05986561 -0.13607514 0.7441768
0000d0 d4 91 5e bf 9e 8a b9 3d 2d cc 2f 3d 34 dd b5 3e
       -0.86941266 0.09059642 0.042919327 0.35520327
0000e0 7c ab 8d be aa b0 bb 3b 05 d4 04 bf d0 70 30 be
       -0.27669895 0.005727847 -0.51886016 -0.17230535
0000f0 0e 43 10 3f ce f2 5b bf 60 c6 9c be 87 0d 22 3d
       0.5635232 -0.85917366 -0.30620098 0.039563682
000100 06 e2 22 3f 6a 08 11 bf f2 29 51 bf 10 8c 58 3e
       0.63626134 -0.56653464 -0.8170463 0.2114718
000110 0e d2 c4 be 36 a4 eb be e4 5e 12 3f 45 e3 c1 3d
       -0.3844151 -0.4602372 0.5717604 0.09467176
000120 9f ee 90 3e 8f 5b ba be d7 62 17 3f 27 f9 98 3e
       0.28307053 -0.3639798 0.5913519 0.29877588
000130 32 86 68 be 8c 39 ac 3e 6a b4 03 3e fa bb 75 be
       -0.22707441 0.33637655 0.12861791 -0.23997489
000140 f2 0c a0 bf 9f 03 d0 bf 33 ff b0 3e 0b e6 73 c0
       -1.250395 -1.6251105 0.34569702 -3.8109157
000150 d8 3c 1f bf d6 cd 0b c0 21 d0 af bf 3e 09 31 bf
       -0.62202215 -2.1844382 -1.3735391 -0.6915473
000160 d5 13 d2 bd b6 f2 4b c0 c4 ff 38 bf 31 39 61 bf
       -0.10257689 -3.186689 -0.7226527 -0.8797789
000170 1e 18 69 c0 30 1e 53 3e 9f 46 2c bf c6 01 37 c0
       -3.642097 0.20616984 -0.6729526 -2.8594832
000180 50 22 fc bd 37 ff 78 3e 8b 98 3f 3e 72 df 2e be
       -0.12311232 0.24316107 0.18710534 -0.17077425
000190 4c d6 ab 3d 06 43 01 3a c5 78 58 3d 70 22 e1 be
       0.08390483 0.0004930947 0.05284955 -0.43971586
0001a0 4f 66 d3 3e 12 14 1c bf bb 38 15 3f ff c4 2e bd
       0.41288993 -0.60968125 0.5828969 -0.04266834
0001b0 27 e0 13 3e 65 dc 10 bf 11 df 9c be f4 cd 66 bd
       0.14440976 -0.56586295 -0.30638936 -0.056348756
0001c0 18 96 16 ba ec e7 0e 3d be 24 98 bf 36 fe 01 3e
       -0.00057444116 0.034889147 -1.1886213 0.1269463
0001d0 9e f5 b3 3e 83 85 dd be 21 17 0b bf 0b 37 9d 3e
       0.3514833 -0.43265924 -0.54332167 0.30706057
0001e0 e8 3b f3 3d 9f 14 9c bb 4f 3c e3 be 1c c5 15 bf
       0.118766606 -0.0047632004 -0.4438195 -0.5850389
0001f0 a0 fe 6e 3e 70 47 6c be 40 e6 c7 3e eb 99 c2 3e
       0.23339319 -0.23074126 0.39042854 0.38008055
000200 9c cb cc be 0c 90 8b 3e c1 8d a3 be be cb ef 3e
       -0.39999092 0.27258337 -0.31944087 0.4683513
000210 33 76 8b bf a7 b9 b0 bd 91 d8 bd 3e e5 15 cc 3e
       -1.0895447 -0.086291604 0.3707929 0.39860454
000220 c9 58 3d 3d 06 de d5 be cd 8b 4d 3f fe ab 22 3f
       0.04622725 -0.41770953 0.80291444 0.6354369
000230 a4 d2 03 be 55 93 08 bf 4c 32 d7 be 96 20 a6 be
       -0.12873322 -0.5334981 -0.4203056 -0.32446736
000240 3d 20 41 3e b8 fe 99 bf 0e 41 ed 3c ae f3 05 be
       0.18859954 -1.2030859 0.028961685 -0.13081238
000250 d7 52 a2 be d1 33 b6 3e 10 49 ba be 7f b8 8b 3e
       -0.31703827 0.35586408 -0.36383867 0.27289197
000260 e0 75 89 be 8d cd 71 3e f0 d8 b2 3f e3 01 00 bf
       -0.26847744 0.23613568 1.3972454 -0.5000288
000270 e7 c6 0d 3f a6 be 80 be 36 73 02 3f 24 19 d0 bd
       0.55381626 -0.25145453 0.5095705 -0.10161045
000280 4e 2a 93 bf ac 95 a6 be a9 07 27 c0 3e 8e 86 be
       -1.1497285 -0.32536066 -2.6098425 -0.26280397
000290 f5 00 20 bf a8 0b 82 bf eb e4 d0 bf 62 a3 71 bf
       -0.6250146 -1.0159807 -1.631986 -0.9438993
0002a0 92 6c d7 bd 7d f6 49 c0 9e 8a ce 3f 3c 00 0a c0
       -0.10518755 -3.1556695 1.6136053 -2.1562643
0002b0 d3 dd df bf 77 0a 48 bf 70 f8 49 3f 2e 1d 2e c0
       -1.748957 -0.7814097 0.7889471 -2.720531
0002c0 4a d8 8c 3e 23 de ec be 1f 9a e9 3e e4 7a c7 bc
       0.27508765 -0.46263227 0.45625398 -0.024350591
0002d0 9a 7f 47 3d 4d 1f fd 3e 93 88 37 3e ae cd be be
       0.048705675 0.49437943 0.17923193 -0.37266296
0002e0 c9 b3 c3 3d f5 27 0a bf af 80 47 3e 4a cb b6 3e
       0.09555776 -0.5396722 0.19482683 0.35701972
0002f0 5a 93 24 3e 45 ed 9a be 83 d3 4a be e3 30 57 3e
       0.16071835 -0.30259147 -0.19807248 0.21014743
000300 c9 83 a9 3d fb 66 13 3f ef bd 64 3d b3 c0 f7 bd
       0.08277089 0.5757901 0.055845197 -0.12097301
000310 42 a1 b9 bd bc a6 3c be 6a f8 eb 3d 67 49 64 3f
       -0.090639606 -0.18422979 0.115219906 0.89174503
000320 a9 8e 1d 3f f6 6d bb 3e 08 57 f9 3e 93 e4 16 3e
       0.6154581 0.3660733 0.48699212 0.14735632
000330 cf 50 f5 3b a1 22 97 3e 43 04 10 bd d1 63 73 3d
       0.00748644 0.29518607 -0.035160314 0.059421364
000340 4c 7b 25 bf 08 5c 93 3e e9 32 63 be 11 26 04 bf
       -0.6464126 0.28781152 -0.2218739 -0.51620585
000350 f5 59 1a bf 54 bf df 3e 54 39 e6 3e 38 03 69 bf
       -0.60293514 0.4370066 0.44965613 -0.91020536
000360 3a 44 71 3f fa 69 05 bf 7c 86 5a bb 87 7c 02 bf
       0.9424473 -0.5211483 -0.003334432 -0.50971264
000370 fb 72 1f 3f c3 f8 99 bd cf 2a 71 3c 3f 83 06 be
       0.6228482 -0.07518151 0.014719679 -0.13136004
000380 bb db 34 3f fa 32 46 bf d8 23 eb be b5 90 d3 3e
       0.7064778 -0.77421534 -0.45925784 0.4132134
000390 73 46 02 3f 30 3e 96 be d9 55 82 be 42 0e 7a bd
       0.50888747 -0.2934432 -0.25456122 -0.061048754
0003a0 eb 48 13 3f 3b 0c eb 3e 94 9d 1c 3f 9d b7 4c be
       0.5753314 0.4590777 0.61177945 -0.19991918
0003b0 c0 b5 22 be 17 0d d3 3c 79 e6 1e 3e ea 18 37 bf
       -0.15889645 0.025763078 0.15517606 -0.7152239
0003c0 4a b1 cc bf f0 f4 9e bf e8 f0 62 3e 1e e6 6c bf
       -1.5991604 -1.2418499 0.22162211 -0.9253863
0003d0 01 6d c9 bd 26 07 7f bf 33 9b fa bf 41 b2 8e be
       -0.09835244 -0.9962028 -1.9578613 -0.27870372
0003e0 7b 70 94 3e a4 37 27 c0 06 ab 1e bf f4 e7 c6 3e
       0.28992066 -2.612771 -0.6197971 0.3884884
0003f0 96 c2 c2 bf 84 c7 84 bf 25 41 41 bf 7e a6 85 be
       -1.5215633 -1.0373387 -0.7549003 -0.26103586

bias f4 [8]
000000 c7 32 1e c0 f6 ee 63 c0 fc 67 4e c0 45 9e 17 c0
       -2.4718492 -3.56146 -3.2250967 -2.369035
000010 3e 4c 8d bf 36 fd 7c bf 51 df ee bf ff 1d 34 c0
       -1.1038892 -0.9882387 -1.8661901 -2.8143308

weight f4 [1, 8]
000000 ff bd 06 bc 04 3f ce bd f3 3f b7 bd 4d f2 b0 be
       -0.00822401 -0.10070613 -0.08947744 -0.3455986
000010 5f 04 39 be 39 1c ba be 32 13 15 bf ce 97 ae bd
       -0.18068074 -0.36349657 -0.58232415 -0.08525048

weight f4 [4, 32, 32]
000000 50 6c 00 bf 86 fe d1 3e f5 3a 11 bf ff a3 01 3e
       -0.5016527 0.41014498 -0.56730586 0.12660216
000010 03 dd 3a be 52 57 9e be 56 07 77 bd de 94 0d bf
       -0.18248372 -0.30925995 -0.06030973 -0.5530528
000020 79 3c 9d be 7e a6 89 bf 53 77 b0 be 4f 2e a5 be
       -0.307102 -1.0753934 -0.34466037 -0.32261893
000030 2a b1 7f 3e fc 18 86 bf 8c 2b 0e bf f3 67 fd 3e
       0.24969926 -1.0476375 -0.555352 0.4949337
000040 df 35 c9 3d 35 4f 51 be 25 fa 40 bd b1 48 31 bf
       0.09824728 -0.20440371 -0.047113556 -0.69251543
000050 0f e9 b1 3d 41 84 8c bf af 7e c6 bd 48 e9 d5 bd
       0.086870305 -1.0977861 -0.09692132 -0.104448855
000060 0e 46 3f be 34 b0 71 bf 62 3d 6a bf f2 55 d7 3e
       -0.18679067 -0.9440949 -0.9149991 0.4205776
000070 cd f5 02 bf ef 85 49 bf 19 7a 47 be e4 f7 f3 be
       -0.5115631 -0.7871999 -0.1948017 -0.47650063
000080 40 6c 78 bf e8 5a 1e be d2 8f ca be 96 3a b1 3f
       -0.97040176 -0.15464365 -0.3956285 1.3846004
000090 4d 82 18 bf 53 f2 bc 3d f3 a6 a1 bf 1f a0 bf bf
       -0.59573823 0.09225907 -1.2629074 -1.497074
0000a0 cf f1 a7 bf 6e 0c c7 3e 88 51 0e be 18 2f 91 bf
       -1.3120669 0.3887667 -0.13898289 -1.1342497
0000b0 b7 0e ef 3e e5 91 b1 3f 7e 5d 1b bf aa 47 8b be
       0.46690914 1.3872648 -0.6068953 -0.27203113
0000c0 ab cc 2e bc c9 a5 3a 3e 19 87 cb 3e fd e2 91 be
       -0.010668914 0.18227305 0.3975151 -0.2849349
0000d0 8b 53 ba 3d b6 42 91 3e d9 bc 40 bf b1 64 ab 3f
       0.09097966 0.2837121 -0.7528816 1.3390104
0000e0 7d 2b d3 3e 19 ab 50 3e 9c 59 13 3d 34 ad 4a bc
       0.41244116 0.20377769 0.03597413 -0.012370396
0000f0 2d 00 9a 3f 90 41 5e 3f 7f 7c f3 3d b8 ac bf 3e
       1.2031304 0.8681879 0.1188898 0.3743646
000100 0a 65 ba bd d5 75 dd bf 09 93 30 be c1 23 29 3f
       -0.09101303 -1.7301584 -0.1724359 0.6607018
000110 f3 61 3e 3e 9b b5 62 bf e1 af 29 3e 18 97 0d be
       0.18592052 -0.8855836 0.16570999 -0.13827169
000120 9d 53 c0 3e c2 2f fa be 89 da eb 3e 33 15 24 bf
       0.37563792 -0.4886456 0.46065167 -0.6409485
000130 0e c0 f5 3e 70 c4 a3 3f bf e3 55 3d 39 81 9d bf
       0.4799809 1.2794323 0.05221915 -1.2305061
000140 16 14 d3 3d 17 dd b4 be 4f 50 76 bf d0 61 30 3f
       0.103065655 -0.35324928 -0.9621629 0.6889925
000150 b9 0b 39 be 70 45 ce be f5 ed 1d 3f f0 6e ab be
       -0.18070878 -0.40287352 0.6169122 -0.33483076
000160 c3 2a 04 3f 92 c0 ae be 6e 32 7a be 39 d7 8b be
       0.5162775 -0.34131294 -0.244333 -0.2731264
000170 52 68 8d bc d8 fa 20 bf cb 99 73 3e ea f0 aa be
       -0.017261658 -0.6288276 0.23789136 -0.33386928
000180 5c 71 3c bd 9e c0 bb 3d 16 fd 99 3d bd 47 2c bf
       -0.046006545 0.09167598 0.075189754 -0.67296964
000190 45 99 ca be 54 9c 80 bf 70 16 82 bf 4b c4 e3 be
       -0.3957006 -1.0047708 -1.0163097 -0.44485697
0001a0 7e 13 fd bd d1 db 77 be 53 55 d2 be 32 e9 d6 bf
       -0.123572335 -0.24204947 -0.41080722 -1.6789916
0001b0 c3 4d bd 3e d3 35 8b bf a6 6c 61 bf e6 13 ba 3e
       0.3697339 -1.0875801 -0.8805641 0.36343306
0001c0 53 f6 cc be 58 8b 85 bf f5 f2 22 bf cd ca 44 bf
       -0.4003168 -1.0433149 -0.63651973 -0.7687195
0001d0 79 bb 2f bf 3b 46 97 be 18 70 ad bd 39 6d a5 bf
       -0.68645436 -0.2954577 -0.08468646 -1.2923957
0001e0 b4 26 a3 3e cd cd 80 be f6 76 7c bf d9 19 f6 be
       0.31865466 -0.25157014 -0.9861902 -0.48066595
0001f0 47 3b bf be b6 20 5f bf 0c 4a 5f bf 8d 95 2e bf
       -0.37349913 -0.8715929 -0.8722236 -0.68196946
000200 40 d7 01 bd 5b fd 61 be 2d 79 fb be d5 b3 09 3f
       -0.03169942 -0.22069304 -0.49115887 0.53790027
000210 36 9e 25 3e 8d 13 74 bd 19 66 12 be 92 df 2b be
       0.16173634 -0.059588958 -0.1429676 -0.16784504
000220 87 9d 50 bd 41 2d 15 be 43 a3 32 be 6d 00 a7 be
       -0.05093148 -0.14568044 -0.17445092 -0.32617512
000230 7d 51 a0 be 9c e7 86 be ed ce 32 be f8 c2 bb 3c
       -0.3131217 -0.2634858 -0.17461748 0.022920117
000240 bd 9e 6a 3c 60 ad 96 bd 64 f1 85 3e 03 b3 38 3e
       0.014320073 -0.073572874 0.2616073 0.18037038
000250 8e b6 cb 3d f1 fc 3e be c9 2e ab be ad 60 4e 3e
       0.09946929 -0.18651177 -0.33434132 0.20154066
000260 be e1 03 bd ea f1 b5 3d cb 4e 88 3d 8b 09 58 3e
       -0.032197706 0.08884032 0.066556536 0.2109739
000270 a9 6c f8 3e 8d 50 a4 bd f1 d7 46 bd da c3 f5 3d
       0.485204 -0.08023176 -0.04854578 0.12000246
000280 aa c1 10 bd f1 66 2d be 47 43 0f 3d ec 95 d4 be
       -0.035340942 -0.169338 0.03497627 -0.4152063
000290 1d 75 6c be 8b 76 46 3e 94 ca 24 3e 11 f5 a2 3d
       -0.2309155 0.19381158 0.16092902 0.07956899
0002a0 07 da a7 3e 58 00 14 3e e7 49 dc 3e d7 bc 08 be
       0.3278353 0.14453256 0.43025133 -0.13353287
0002b0 7a 3e 5a bf f2 ec 0d 3f 19 57 9f 3d e5 d7 97 3e
       -0.8525158 0.55439675 0.077802844 0.29656902
0002c0 76 d5 d1 3d c6 45 37 be 7e 06 5a 3e 9e 41 f5 be
       0.102457926 -0.1789771 0.21291539 -0.47901624
0002d0 96 05 92 bc 84 55 fc be ad 75 0c 3f 45 ac 00 be
       -0.01782493 -0.49283993 0.5486706 -0.12565716
0002e0 3d 2b 22 3e 59 f1 e0 ba 59 25 4a 3e 9f f8 58 3d
       0.15836807 -0.0017161771 0.1974081 0.05297148
0002f0 82 b7 95 3d 68 c3 25 3e 8b a4 4d be a4 99 30 3d
       0.07310392 0.16187823 -0.200823 0.043115273
000300 57 f3 18 bf 9b e5 92 3f a8 6b 1f 3e 02 e0 2c bf
       -0.5974631 1.147632 0.15568411 -0.6752931
000310 10 eb 0e bf 28 97 09 bd b4 35 4a bf 94 f2 a7 bf
       -0.55827427 -0.03359142 -0.78988194 -1.3120904
000320 1b b1 a9 bf 6e e1 e2 be 58 38 1e bf ed d5 4e bf
       -1.3257173 -0.44312614 -0.61804724 -0.80795175
000330 b6 24 0e 3d b4 dd 7b be 31 6a c7 bf 7e 92 c2 bf
       0.03470298 -0.24596292 -1.5579282 -1.5200956
000340 21 6b 8b be 64 e7 ad bf 1c d6 1b bf 30 2a 80 3c
       -0.2723017 -1.358624 -0.6087358 0.015645117
000350 f9 b4 0a bf 60 3b 8d bf 4d a0 32 3f 2d a7 fb bf
       -0.5418239 -1.1033745 0.6977585 -1.9660393
000360 d7 e9 ec 3d 0a 4a 1c bf 60 b8 8b bf 0e 3e 2b be
       0.11568039 -0.61050475 -1.0915642 -0.1672289
000370 9b 85 ae 3e 80 05 98 bf 61 d6 87 bd 20 98 04 bf
       0.34086308 -1.1876678 -0.066326864 -0.51794624
000380 df 4b 7b 3f e9 03 0d c0 23 15 ae be 33 5e b1 3e
       0.98162645 -2.2033637 -0.340005 0.3464218
000390 28 90 a0 be 6c a3 42 3d 8e fb 87 3e b2 25 97 3e
       -0.31359982 0.047519132 0.26559108 0.29520947
0003a0 64 df 30 3f e7 38 79 3e a2 c0 46 bf 36 15 30 bf
       0.6909087 0.24338113 -0.77637684 -0.68782365
0003b0 44 dd 9d bf d4 80 1e 3f de 23 9b be 77 66 98 3e
       -1.233315 0.61915326 -0.30300802 0.29765674
0003c0 05 a8 8a bf 96 0f 9f 3d 99 da 20 3f 46 80 82 3e
       -1.0832525 0.07766645 0.62833554 0.2548849
0003d0 dd 04 3a be 3b 68 a0 be eb 6a 0a bf d8 3b f9 bc
       -0.18165918 -0.31329522 -0.54069394 -0.030424044
0003e0 de 65 39 3d 85 45 98 3e e1 a1 d1 3e 13 f1 90 bf
       0.045263164 0.2974054 0.40943816 -1.132357
0003f0 3a 56 d8 be 04 dc 5f 3e 15 56 30 bf e9 58 34 be
       -0.42253286 0.21861273 -0.6888135 -0.17612042

w_comp f4 [180, 4]
000000 92 26 bf 3f 86 c1 6f 3f ae cf 0a bf 70 36 04 3f
       1.4933646 0.9365467 -0.54223144 0.51645565
000010 df 63 33 3e 2f 51 0b 3f 92 4f e5 bd 45 2e 2e 3d
       0.17518567 0.5442075 -0.111968175 0.042524595
000020 d1 9a 46 3e ba 68 c5 3e 0d e9 4f bf 2d af 22 3f
       0.19394995 0.38556463 -0.8121498 0.6354855
000030 10 59 08 ba 3a 3a 00 80 a0 9c a2 ab c4 57 01 00
       -0.00052012596 -2.0888e-41 -1.1554264e-12 1.2332e-40
000040 10 17 96 bf 61 d7 63 3f ee 10 cb 3f d4 6f 95 be
       -1.1725788 0.8900052 1.5864542 -0.2918688
000050 f4 9a a8 3f bc 93 0e 3f 34 cb d4 bf 55 2d e8 bf
       1.3172288 0.55694175 -1.6624513 -1.8138834
000060 73 9e 50 3e 2b a3 87 3f 29 ee 25 bf e2 e3 27 3e
       0.20372944 1.059667 -0.6481653 0.16395524
000070 9c 7a 1d 3f 5d 46 b0 3f d8 20 e1 3d fc 39 3b bf
       0.6151521 1.3771473 0.109925926 -0.7313535
000080 e0 90 32 3d 8b 89 ba 3e 52 71 77 bd 28 68 78 3d
       0.043595195 0.36433062 -0.060410805 0.060646206
000090 6e c5 37 3e cf 81 77 3f 4a 9a 03 bf 45 30 77 3d
       0.17946407 0.9668245 -0.514073 0.060348768
0000a0 33 d5 af 3f 78 85 71 bf 31 a8 41 3e 30 0a dc 3e
       1.3736938 -0.9434428 0.18911816 0.42976522
0000b0 5b d0 01 bf aa b3 c6 bf f4 94 e1 3d 27 5f f1 be
       -0.5070855 -1.5523579 0.11014739 -0.47142908
0000c0 a1 e6 87 3f 4c 38 43 3e 1a a9 1b be ce f8 3c 3f
       1.0617257 0.19064444 -0.15201226 0.73817146
0000d0 ac cc 7c 2d 1c 2d 00 00 ab 19 00 80 fe 9f 01 80
       1.4369988e-11 1.6182e-41 -9.208e-42 -1.4923e-40
0000e0 b9 86 5c 3e 8c fb d5 3d f2 d4 27 bd a9 80 60 bc
       0.21535768 0.104483694 -0.040974565 -0.01370255
0000f0 7c db 2a 3e b2 66 3b 3f d8 3c ac 3d bf a3 86 3e
       0.16685289 0.73203576 0.084100425 0.26296803
000100 a2 e3 39 3f 6d 2d 96 be dc 37 0f bf 22 b7 b2 be
       0.72612965 -0.29331532 -0.5594461 -0.34905344
000110 67 9f d7 bf 5b b2 18 3f 0b 25 ab 3e 17 54 40 3f
       -1.6845521 0.5964715 0.334267 0.7512831
000120 f9 52 98 bd 23 e0 75 3e a4 7f 02 bf 91 4a f2 3e
       -0.07437701 0.24011283 -0.50976014 0.47322515
000130 5f f5 91 3e 42 9d 9b 3e e2 ff 15 3e c0 30 ab 3e
       0.28507516 0.30393416 0.14648393 0.3343563
000140 33 2c 01 00 64 45 5a b8 0e 00 01 80 7c cb 00 00
       1.07691e-40 -5.2039875e-05 -9.1855e-41 7.2996e-41
000150 3e c3 bb 3e eb b6 c6 be fd 1e 0c bf 9f 54 0e 3f
       0.36672395 -0.3881143 -0.54734784 0.5559787
000160 22 4e a1 be 3a 12 a2 be 78 5b a1 be e0 52 a1 be
       -0.31504923 -0.3165453 -0.31515098 -0.3150854
000170 28 52 33 3e b3 47 ba be 63 ac 00 be 87 cb 86 3e
       0.17511809 -0.36382827 -0.1256576 0.26327154
000180 52 ae c2 3e d9 c4 f0 bd d0 bf 62 3f 53 90 7a bf
       0.3802362 -0.11756296 0.8857393 -0.9787647
000190 f4 b5 1e 3e 16 b3 07 bf 0d 46 2a 3f 55 8a 85 3e
       0.15499097 -0.5300764 0.6651314 0.260821
0001a0 69 6a 51 3f 9c 07 63 3e b8 c0 3d bf 8d 21 8d bd
       0.81802994 0.22170871 -0.7412219 -0.06891165
0001b0 72 6e 2e 40 ca 2b 7b bf cd 7f ea bf e1 42 a2 bc
       2.725491 -0.9811369 -1.8320252 -0.019807281
0001c0 1d b9 93 3f c7 07 a6 3f 72 68 54 3e 3a 6d 64 bf
       1.1540867 1.2971123 0.20742968 -0.89229167
0001d0 9f cf 28 3f da e2 a1 3f df 00 b4 3e cf d6 58 bf
       0.65941805 1.2647355 0.35156915 -0.8470277
0001e0 04 07 cc 3d 18 be f5 be 33 de 8b 3d eb 8a fc 3c
       0.099622756 -0.47996593 0.068294905 0.03082796
0001f0 fc 6a 0d bf 5b 22 c5 bc 8f 77 23 bf 90 dc 8c bd
       -0.5524137 -0.024064234 -0.63854307 -0.068780065
000200 a3 c1 92 be 03 cd 97 3f 32 15 cc be 3c e6 7e 3e
       -0.28663358 1.185944 -0.3985992 0.24892515
000210 db 75 ec 3e 77 a7 99 be 73 be 2c 3a 32 b6 ab 3f
       0.46183667 -0.30010578 0.00065896584 1.3414977
000220 de f3 59 be b0 09 09 3f 69 99 1d bf 7f fd 7d 3f
       -0.21284434 0.53530407 -0.6156221 0.9921493
000230 a7 25 01 80 ec 30 01 80 8c 00 eb 32 2c 6e 90 b0
       -1.05343e-40 -1.09385e-40 2.735785e-08 -1.0508692e-09
000240 16 f5 ca 01 8e 75 de 9d 82 24 1d b0 23 c4 8e 89
       7.455476e-38 -5.888446e-21 -5.716815e-10 -3.4369703e-33
000250 b5 11 38 3e c6 dd 05 3d c9 20 ad be 5f fe 0c 3f
       0.17975505 0.032682203 -0.33814076 0.5507564
000260 c2 1c 67 be ab 59 fb be 2d 69 a9 bf ea 9f 82 bd
       -0.22569564 -0.4909185 -1.3235222 -0.063781574
000270 77 3f bf 3e ab 93 81 bf 38 33 70 be 63 eb 95 3f
       0.37353107 -1.012319 -0.23457038 1.1712459
000280 0a 66 1c 40 e9 17 cf be f7 1f f3 bf 02 e5 09 3f
       2.443728 -0.4044793 -1.899413 0.53865063
000290 54 c7 21 3f 40 d6 45 be 4e 81 d8 3e 35 48 36 bf
       0.63194776 -0.19320011 0.42286152 -0.7120393
0002a0 bd b0 94 3f 32 ce 96 3e 0d ae 78 3e 22 c9 d1 3e
       1.1616436 0.2945419 0.24285145 0.40973765
0002b0 24 fc 04 bf 83 fc f2 3f 74 f0 ca bf a4 f8 9d be
       -0.51947236 1.898331 -1.585463 -0.3085376
0002c0 37 e7 2f 3e 14 dd a1 bf c1 7d c8 bf 56 e1 d4 bd
       0.17178045 -1.2645593 -1.5663377 -0.10394542
0002d0 6b 63 50 be 0f e2 81 3f 1c bf 12 3e 42 96 63 bf
       -0.20350425 1.0147113 0.14330715 -0.8890115
0002e0 33 b3 01 3f f5 46 81 3f d8 6e 39 bf f1 ec 37 3e
       0.5066406 1.0099779 -0.7243476 0.1796148
0002f0 54 ae 2c 3f b4 19 8d 3e c9 89 f0 be f1 76 8b bf
       0.67453504 0.27558672 -0.46980122 -1.0895673
000300 92 44 ad 3e 9b 7f 10 bf 32 d2 c8 be 89 5a 1b 3f
       0.33841377 -0.5644471 -0.39222866 0.6068502
000310 cf bf 79 3e 4f 3f a8 3f 58 e8 d8 be 10 50 56 3f
       0.24389575 1.314432 -0.42364764 0.83715916
000320 c9 a3 94 3f 8c c7 2b 3f 70 5d e6 3e 2e ea a8 3f
       1.1612483 0.6710136 0.44993162 1.3196466
000330 c5 74 31 be 18 79 8a bf 68 51 43 bf 22 11 c0 3e
       -0.173297 -1.0818205 -0.7629609 0.3751307
000340 65 45 d5 be 71 69 4b be cd cf 38 3b 3a 09 14 bf
       -0.41654506 -0.19864441 0.002820003 -0.5782658
000350 ec 79 98 3d ca 55 ab 3e f2 de c3 3e ec ac 87 3d
       0.0744513 0.3346389 0.3825603 0.06624779
000360 2d cd 2f 3e b9 00 75 3f b2 92 2f 3e 2e 98 e0 3e
       0.17168112 0.9570423 0.17145804 0.43866104
000370 de bb fb 3e b5 ff 8d 3f 38 a1 35 bf 5e d9 db bc
       0.4916677 1.109366 -0.70949125 -0.026837047
000380 8e 2f 55 be 50 dc af bd 20 36 c2 bf a2 36 d2 3f
       -0.20818922 -0.08586943 -1.5172768 1.6422923
000390 04 6b a8 bf 85 97 51 3b 45 02 0f 3f d2 87 1a 3e
       -1.3157659 0.0031981182 0.5586284 0.15090874
0003a0 fb 3d 63 bd aa b2 7f 3f b7 b2 ec bf c8 5d cc bf
       -0.05547903 0.99881995 -1.849204 -1.596612
0003b0 f6 55 00 80 8b 2c 01 00 be bf 00 00 62 08 01 00
       -3.0837e-41 1.07815e-40 6.8784e-41 9.4843e-41
0003c0 ec b4 bd 3c c0 fe c8 be 8c a9 84 bf 06 ac 77 bf
       0.02315756 -0.3925686 -1.0364242 -0.9674686
0003d0 90 70 f6 be db d6 4f 3f ea ee a3 be cd 92 40 bf
       -0.48132753 0.8118722 -0.32018214 -0.75224
0003e0 d6 ce 2c bf c1 47 1f 3f 2c 06 d7 3f 84 c5 87 3e
       -0.67503107 0.6221886 1.6798759 0.2651788
0003f0 68 69 6d b7 dc ad 41 b7 43 ac 00 00 d6 27 01 00
       -1.4150843e-05 -1.1544176e-05 6.1796e-41 1.06126e-40
