experiments/grail_fb_v1/graph_classifier_chk.pth (torch, 166222 bytes, 21 tensors)

weight f4 [180, 32]
00000000: 3ec4 0dbe 61a8 c53e bfdc bbbe 659c a0be
00000010: 292b dd3f fdcd 913f dbd6 913e 5a29 543f
00000020: 2f36 a63e 8662 993f 0361 5b3f a4e9 3dbe
00000030: 2c58 0a3e de44 3c3f 7210 63be c147 1b3e
00000040: 5406 a8bf 3c45 a33e b2ed de3f 9a09 e1be
00000050: 0901 52be 736f c83e 3214 26bf 027b 163d
00000060: 3520 b33e b54b 46bf dd62 b7bc 23e9 1dbf
00000070: 9a11 973e f039 25bf 8081 cfbe 01d6 163e
00000080: dfad d93d f604 2340 4268 3dbf ebe0 a5bf
00000090: 08c9 273f fc25 1abf 6ea0 983e e3e5 b03f
000000a0: 238b 66bf 0d4c 783f deed 52bf a1e0 133f
000000b0: 547e 1bbe 0e49 d03f 6c39 06be 6b74 7bbe
000000c0: 86a3 c83f 6e74 55bd 59a7 433d c03f 0b3f
000000d0: 6ece 3ebf b5c8 7fbe 3d52 2bbf 304c f7be
000000e0: 2221 cabf 98bc 46bf e5c4 9bbf c59c f73f
000000f0: c219 20c0 e9ae d63e a576 163e b1f3 043f
00000100: 4ce9 003e 6aa5 0b3f 6400 5b3e 91c3 d53e
00000110: ada0 0cbf addb c9bf f0ee 8dbe 4198 36be
00000120: 045a d6be d2ae 72bd a224 983d b2f2 353f
00000130: d392 23bf f9c4 a73e 088c 35be c2bc 04be
00000140: 446a 70bf 0823 243f 8fd9 eabc d748 633f
00000150: 0f57 d9bd 5680 3c3f 1ee9 7cbf 1f61 9abe
00000160: e602 48be db3c 84bf 7f28 28bf ec2e 9c3f
00000170: 06c3 923c c1df b33d a883 8cbe 9a41 823e
00000180: 1da3 0080 dc40 0000 6c99 d126 d190 0000
00000190: 0555 0080 16aa f625 9781 5fa0 4054 0000
000001a0: e076 0000 d409 0080 4d7c 0080 de3f a415
000001b0: 3c66 d117 287f 0080 bc90 0080 6e7e 0000
000001c0: 9b5e 6da8 effb 0b88 1fd4 8a1b e246 0880
000001d0: 4e69 1f94 a710 0000 1814 0000 c0e1 0828
000001e0: 34ed 0620 e6ab d730 40b4 2ea4 8eff 9628
000001f0: cadd eca2 fd37 0000 c60a 8b12 1604 0000
00000200: 084e 153f c329 d9be 66ee 09bf 32b0 62bf
00000210: bd5e 863f 876a 593f 1658 593f 6771 20bf
00000220: a07c babe c16e 823f 2e15 963f 760b 673e
00000230: 3dd8 49be fbf8 c43e 6b86 01bd 9979 863f
00000240: 5305 8ebf b928 803f 851c 2b3f 4f23 2b3e
00000250: 2465 47ba 5930 c63f 34a8 953e 8f45 543f
00000260: 4f43 f43f a163 c43e 30e9 ebbe 9e7b 27bf
00000270: 880c 703f f5d4 37bf c601 a3bf 0147 473e
00000280: 8598 6dbe 1d3d a33e 353b a43d 1ff2 92bd
00000290: ffb5 c13e db20 89be 43a6 b0bd 65d4 843e
000002a0: 0b64 7ebe 3218 6c3d 0ca2 fc3d c8d2 0b3f
000002b0: 7565 bf3e af31 d53e 601e 65bd 2016 5dbe
000002c0: 52cb b13d d137 9a3c db13 a23e 439b 7dbe
000002d0: b09b 07be 403a f6be a6c0 debe 0ab2 ea3c
000002e0: 9c2d e9be 8a23 6abe 8f0e 05bf 1030 013e
000002f0: 86b5 a7be dc1f 133f 4f3b 9a3e 6eec b0bd
00000300: 9065 8f3f 0907 5abf 993e 903e 9eb4 b03e
00000310: 3d5e 493e 08c5 243f 0d6a 38bf b7e8 fabf
00000320: 342c 4cbf 85d5 923f 4101 c53c 66ed c9be
00000330: 1972 91bf cc5d 013f 84f0 363f d462 463f
00000340: 122b bcbf 12d0 d73f ecad 1f3f 889e a7be
00000350: a022 2dbf 0400 3dbe 169a e7be 3061 9abe
00000360: c1fc f13e 753a 8bbf 3024 febf e0ce 8cbd
00000370: af94 3f3d 51c2 c53e 8755 38bf aec5 3a3e
00000380: 3d5c 2a3f 9989 303e 3dfa 7d3f 6108 ce3e
00000390: 2e48 ae3f 27a3 113d fa57 88bf 6cf9 55bf
000003a0: 24ca 20bf 2c39 173f 8b2d acbf ecc0 74bf
000003b0: 6888 2abf a31b ab3f 167e 3bbe 824a 81bf
000003c0: 82e9 a13f ccd6 553e 23c0 ab3d 49f5 22bf
000003d0: 573e 74bf 60b5 a2bf 9572 bbbf 6651 9fbc
000003e0: a55c c6bf fc66 b5bf 9695 d9bf 81ad 9e3f
000003f0: ea2d 03c0 a17d 0740 6434 23bf e7c1 99be
-0.13844392 0.38605025 -0.36691853 -0.3136932 1.7278796 1.1390988 0.28484234 0.828756
0.32463214 1.1983192 0.85694903 -0.18546158 0.13510197 0.73542583 -0.22174242 0.1516409
-1.3126931 0.3188876 1.7416289 -0.43952638 -0.20508207 0.3914753 -0.64874566 0.036738403
0.3498551 -0.7745927 -0.022386009 -0.61683863 0.29505616 -0.6454153 -0.40528488 0.14730074
0.106288664 2.5471778 -0.7398721 -1.2959265 0.65541124 -0.6021421 0.29809898 1.3820156
-0.90056056 0.96991044 -0.82394207 0.5776463 -0.15184909 1.6272295 -0.13107842 -0.24556129
1.5674903 -0.05211299 0.047767017 0.5439415 -0.74533737 -0.24978907 -0.6692236 -0.48300314
-1.5791361 -0.7763152 -1.2169462 1.9344717 -2.5015721 0.4193032 0.14693697 0.51934344
0.12588996 0.54549277 0.21386868 0.41750768 -0.5493267 -1.5770165 -0.27721357 -0.17831518
-0.4186555 -0.059248753 0.07428862 0.7107345 -0.6389591 0.32767466 -0.17729199 -0.1296263
-0.9391215 0.64115953 -0.028668193 0.8878302 -0.10612308 0.73633325 -0.9879321 -0.30152223
-0.19532356 -1.0331072 -0.6568679 1.220182 0.01791526 0.08782912 -0.27444196 0.25440675
-5.8514e-41 2.3267e-41 1.4543873e-15 5.195e-41 -3.0499e-41 4.2789452e-16 -1.8931712e-19 3.0223e-41
4.2644e-41 -3.526e-42 -4.4591e-41 6.633984e-26 1.3532116e-24 -4.5615e-41 -5.1921e-41 4.5354e-41
-1.3176657e-14 -4.2124937e-34 2.2967265e-22 -7.60112e-40 -8.048216e-27 5.974e-42 7.208e-42 7.598468e-15
1.1428725e-19 1.5692165e-09 -3.7882913e-17 1.6764175e-14 -6.4202756e-18 2.0085e-41 8.774789e-28 1.466e-42
0.5832219 -0.42414674 -0.5387939 -0.885501 1.0497662 0.8492817 0.84900033 -0.6267304
-0.36423206 1.019005 1.1725214 0.22562966 -0.19711395 0.38471207 -0.03162233 1.0505859
-1.1095375 1.0012428 0.6684039 0.16712688 -0.00076063187 1.5483505 0.2922989 0.8291864
1.9083041 0.3835726 -0.46076345 -0.65423 0.9376912 -0.7180932 -1.2734916 0.1946068
-0.23202713 0.31882563 0.08019105 -0.07175087 0.37834165 -0.2678288 -0.08625462 0.25943294
-0.24842851 0.057640262 0.123355955 0.546185 0.37382093 0.41639468 -0.05593717 -0.21590471
0.086813584 0.018825443 0.31655774 -0.24766259 -0.13242984 -0.48091316 -0.43506354 0.028649349
-0.4554261 -0.2286512 -0.5197534 0.1261599 -0.3275568 0.5747049 0.30123374 -0.086388454
1.120287 -0.85166985 0.28172758 0.345128 0.19664855 0.64363146 -0.7203682 -1.9602269
-0.7975495 1.1471411 0.02404845 -0.39438933 -1.1362945 0.5053375 0.7146075 0.7749455
-1.4700644 1.6860373 0.6237476 -0.32738137 -0.6763096 -0.18457037 -0.45234746 -0.30152273
0.47263148 -1.0877215 -1.9854794 -0.06875396 0.046772655 0.38624814 -0.72005504 0.18239471
0.66546994 0.1723999 0.9920996 0.40240768 1.3615777 0.035555985 -1.0651848 -0.8358371
-0.6280844 0.5907161 -1.3451399 -0.95606875 -0.6661439 1.3367809 -0.18309817 -1.0100863
1.2649386 0.2088272 0.083862565 -0.63655525 -0.95407623 -1.2711601 -1.4644343 -0.019447993
-1.5497023 -1.4172053 -1.6998775 1.2396699 -2.0496774 2.1170428 -0.63751817 -0.30030748

weight f4 [4, 8, 32]
00000000: 47f0 64be 3ef3 173f 7cc6 81bf fbea 81bf
00000010: 2969 903e e24b e9bd 7c90 04bf 50c4 fd3d
00000020: fcaa e5bf 5b64 4640 f294 7f3d 671e 113f
00000030: d13f 873d 7c4d 98bf ff47 0040 b559 043e
00000040: 18f2 cebd 96ad a13e 8ba8 3cbe 0f84 cabd
00000050: 838f 3abf 05ee de3e 5756 40bf ba7c 9fbf
00000060: 950d ff3e 7b11 adbf 2522 bbbe df37 ddbe
00000070: 5d67 b53f 3348 28bf 43bc 20bf 3d24 113f
00000080: d344 723e 2992 2abe c45f 24bf bf69 0a40
00000090: edf7 cfbe 69cc a9be c469 613f 7c7d 5f3f
000000a0: 3f61 02bf cd7a 68bf 1ea5 47be f802 63bf
000000b0: 70f4 1a3f bcd4 37bd f96e 863f 5714 863f
000000c0: fc7e 96be db58 7d3f 6b0d 34bf 75f5 07bf
000000d0: 0ff6 ef3f b97f 93bf 18b9 72bf 786e 71bf
000000e0: 7d86 ad3f 8942 98bd 85e2 923f d09d 95bf
000000f0: e711 fcbe ede2 483f 5756 de3e d526 643f
00000100: fbb4 cfbf dd67 b7be 671e b8bf 9d7d 283f
00000110: 0705 16be 73fb 8fbf 8883 e5bf 9fd9 bbbe
00000120: 9b56 473e 2d8e 183f 6f58 d7bf 395b edbe
00000130: 26ec a7bf 3bdd 2ebf 3350 b2bf c97d 09c0
00000140: a614 95bf f397 20c0 fba7 83bd e308 833f
00000150: 78c4 cdbf 3e59 babe e785 6abe 52bc 2140
00000160: 55b7 eabf 1a2d 80bf 105b 61bf 4634 253f
00000170: e99b b2be 57c3 b2bf 3abf 1cc0 1e81 c9be
00000180: 5d07 5fc0 c873 b7bf 24d7 1abf 7bfd 4ec0
00000190: 077a 9cbc 373f f1be 2669 54bf ea7b a4be
000001a0: 8cd6 0cc0 0471 ccbf 213f e13d b9d4 84bd
000001b0: ec08 99be 660f f83f 1f17 8fbf d0f2 27bf
000001c0: 804e 58bf 006a 4cbd 2ff6 0abe 4d64 a7bf
000001d0: adcf 13c0 d823 42be 88b7 d93d 0756 83bf
000001e0: be9e 36be 346c 48bc 3130 efbf 0606 593f
000001f0: ad0e 813f a699 cdbf 977a 4dbd aae7 d5be
00000200: 0f9f 65be 4d35 d13f a708 eabe d495 9a3f
00000210: 7643 bf3c 5310 b43e 4e20 4d40 8828 0d40
00000220: c060 95bf 9799 ad3f 1dfe fcbe 1586 1fbf
00000230: 33a1 85bf 3d80 0540 4149 3d3f 7179 0e3e
00000240: 1474 3340 d958 ea3e e508 ec3f dfff ae3f
00000250: f79a ba3f 7da4 883e 8210 3540 f734 25be
00000260: 48e3 5c3f ca6b 5c3f 719a b7be 2274 5d3f
00000270: 04e9 c5bd 4c8d c93d e3cc 9f3f b129 1840
00000280: d1a1 fd3e 40fd 30be db37 b6bf 4c83 023f
00000290: 793d 573e d15d 9abf 42a8 c8be ee34 a0be
000002a0: 6240 d5bf bc88 843f a6ce 05c0 0ac5 cf3d
000002b0: e0b3 8dbd 0ca0 dbbf bf0c 7c3f 8cc7 20bf
000002c0: b654 be3d 8045 95bf f9e4 83bf d3bb e3bd
000002d0: fe6f 773f c66f 06bf 6ade 29c0 dd4f 26bf
000002e0: 6c86 b23f bb7a bdbf 84de 243e 591b d5bf
000002f0: c0cc 1dbf e0e2 41be b7cd 17c0 432a 033e
00000300: a574 1ebf 46a0 22c0 ad60 a3bf 4e8e b5bf
00000310: 3ca8 17bf d261 d43c 3a40 dabf 60e6 f53b
00000320: 8bd7 17be 92b2 c03c 97e3 eabe 11ee 9cbf
00000330: 6003 51bf 18d2 ab3f 007d 573f 2d52 4b3f
00000340: cbfc d4be f98c 573f 0374 23bf 4686 4dbf
00000350: 6363 d5bf 9bba cfbd a61d 63bf 407d 3ebf
00000360: 85b5 b2bd 8e2b 803d 4e96 09c0 49ba a93f
00000370: 2acd 82be 0214 79bf af80 e8be 2109 ef3e
00000380: 0d5d 0cc0 9b54 963f 94d0 ef3e 32ee 8abd
00000390: 3716 59be 0caa cfbe 8c24 c33c 2c3b cd3e
000003a0: f08b 8a3e d896 4ebe 85a0 0f3f dca5 163e
000003b0: 1179 6f3f c412 2dbf be92 26bd e31b be3d
000003c0: b8c9 e4bf 4854 3abf 2cb2 d7be 65fe 59bf
000003d0: df46 bcbf 9313 5fbf 0097 483f b5a8 a43f
000003e0: bfc5 9b3e f10c d1be 2a3e 6ebe 02e8 2b3f
000003f0: f092 ce3f 361f c6be 5436 6d3e d611 133f
-0.22357284 0.59355533 -1.0138698 -1.0149835 0.2820523 -0.113914266 -0.51782966 0.12390959
-1.7942805 3.0998752 0.062397905 0.56687015 0.06603969 -1.1898646 2.0043943 0.12924846
-0.101047695 0.31577748 -0.18423669 -0.098884694 -0.7287523 0.4354097 -0.75131744 -1.2459939
0.4981505 -1.352096 -0.36549488 -0.4320669 1.4172169 -0.6573517 -0.62787265 0.5669592
0.23659067 -0.16657318 -0.64208627 2.1627042 -0.4061884 -0.33163765 0.8805201 0.8730085
-0.50929636 -0.9081238 -0.19496581 -0.88676405 0.6052923 -0.044880614 1.0502616 1.0474957
-0.29393756 0.9896371 -0.70332974 -0.5310891 1.8746966 -1.1523353 -0.9481368 -0.94309187
1.3556668 -0.074345656 1.1475378 -1.1688786 -0.49232408 0.7847126 0.43425247 0.8912175
-1.6227106 -0.3582143 -1.4384278 0.6581667 -0.14650355 -1.1248611 -1.7930765 -0.3668947
0.19466631 0.59591943 -1.6823863 -0.4635866 -1.3118942 -0.6830632 -1.3930725 -2.1483023
-1.1646926 -2.5092742 -0.06428524 1.0237087 -1.6075583 -0.3639621 -0.22902642 2.5271192
-1.8337198 -1.0013764 -0.88029575 0.6453289 -0.34884575 -1.3965863 -2.4491715 -0.3935632
-3.4848244 -1.4332209 -0.6048453 -3.2342212 -0.019101156 -0.47118542 -0.82972944 -0.3212579
-2.200595 -1.597199 0.10998369 -0.06485886 -0.2988962 1.9379699 -1.1178931 -0.6560488
-0.8449478 -0.049905777 -0.13570474 -1.3077484 -2.3095505 -0.18958986 0.10630709 -1.0260628
-0.17833993 -0.012232829 -1.8686582 0.84774816 1.0082604 -1.6062515 -0.05016574 -0.41778308
-0.22423957 1.6344391 -0.45709726 1.2076974 0.023347598 0.35168704 3.2050967 2.2055988
-1.1670151 1.3562497 -0.49412623 -0.6231397 -1.0439819 2.085952 0.739399 0.13913514
2.8039598 0.4577091 1.8440214 1.3671836 1.4578542 0.26687995 2.8291326 -0.16133486
0.86284304 0.86101973 -0.35860017 0.8650533 -0.09663585 0.09841403 1.2484401 2.3775446
0.4953752 -0.17284107 -1.4235796 0.50981593 0.21019544 -1.205988 -0.3919087 -0.31290382
-1.6660273 1.0354228 -2.0907378 0.10145004 -0.06919074 -1.7158217 0.9845695 -0.62804484
0.09293501 -1.1661835 -1.0304252 -0.11119809 0.9665526 -0.525143 -2.6542 -0.6496561
1.3947272 -1.4803079 0.16100508 -1.6648971 -0.6164055 -0.18934202 -2.3719308 0.1280909
-0.61896735 -2.5410323 -1.2763878 -1.4184053 -0.5924108 0.02592555 -1.705085 0.0075042695
-0.14828317 0.023522649 -0.45876762 -1.2260152 -0.81645775 1.342349 0.8417511 0.79422265
-0.41599116 0.8419948 -0.63848895 -0.8028301 -1.6670955 -0.10143014 -0.88717115 -0.74409866
-0.08726028 0.062583074 -2.1497989 1.3259975 -0.25547153 -0.97296154 -0.45410678 0.46686652
-2.1931794 1.174457 0.4683882 -0.067837134 -0.2119988 -0.40559423 0.023821138 0.40084207
0.2705989 -0.2017473 0.5610431 0.14711708 0.9354411 -0.6760676 -0.040667288 0.09282663
-1.787406 -0.72784853 -0.42128122 -0.851538 -1.4709128 -0.8713924 0.7835541 1.2863985
0.30424306 -0.40830186 -0.23265901 0.6715089 1.6138592 -0.38695687 0.23165256 0.5744909

w_comp f4 [180, 4]
00000000: de6c 36bc 320d 683f 4c76 2340 1c0d a83d
00000010: 7ddf 643f 972f 0ebe ddfc abbe c402 8cbe
00000020: bba8 1fbf 1543 f6be 218c 87bf 3be1 6f3e
00000030: 45f5 f2be 0ce2 a73c 4125 843f 2ed6 f1bd
00000040: 325a 8a3f 6fa2 1ebf c2bf 87bf 94fc 2440
00000050: b546 f23f 5965 b43f 30f1 03bf b198 8ebf
00000060: 2528 2ebf 3b34 2cc0 cbcf c63f 1864 ba3c
00000070: d053 b6bc 810f 43bf 2334 6bbf ade6 5fbe
00000080: b126 dd3e 49f9 973c d127 acbf 477a 2c3f
00000090: 90c2 6140 ebc3 b2bf ebd3 bd3f b735 863f
000000a0: cccb 05bf 2921 33c0 59ba cc3f c56f ec3f
000000b0: 8ffc abbe 8669 21bf baf9 fa3e d3d7 76be
000000c0: 457c b7bf c749 f43d 4e94 f63f 206f 733f
000000d0: 9a77 4240 bdd5 9abf 82bc c5bf e2f5 c03e
000000e0: b9a5 ef3f 8075 c23f b381 dc3f ddbd 58bd
000000f0: c006 c73e fb12 873e 2fff 35bf 641e 943e
00000100: df69 8e3f 722b 89bf 97d0 b43f a15f 71bf
00000110: 18a7 2a3f fd99 8abf f7a6 ff3e 4c09 873f
00000120: 8603 72bf 62b5 1bbf 1f52 0340 6b42 5dbf
00000130: 4178 0d3f 27df 1dbf 4c46 79be 5eb9 203e
00000140: b1ec dd3f bc94 c4bf e0a0 053f 64e0 47c0
00000150: 6f49 2d3f e20c 8f39 0887 163e 88a6 cbbf
00000160: de74 d0be 481c a8be fc22 853f 5e25 c1be
00000170: f04a 033e 045a 993d 660c 6d3e bd67 3abf
00000180: 4c33 643e f0a6 52bf 2e3e dcbf 8537 d1be
00000190: 1fab 9ebf 27df 85bf 0117 933f 672d 333f
000001a0: f035 183f 1fba 2dbf 3873 403f b5f8 08c0
000001b0: 49e6 cd3f 0618 ddbc b90c 2340 0301 92bf
000001c0: c4f6 b73f c245 02bf 4c33 44bf 3ee2 abbe
000001d0: 6db0 243f e0e8 83be e1d8 463d 293d 8d3f
000001e0: f91d a7bf 7745 d0bf eae2 dfbe 5ec4 323f
000001f0: beac 14bf cca9 30c0 127f a93e 5494 05c0
00000200: a147 36c0 eba4 a03f 1165 17c0 482a 2cc0
00000210: eee8 813f 1383 00be 0533 c23f 0b95 dc3f
00000220: 9c9f 5b3f 9524 4fbf a66f 1e3f 772e bb3e
00000230: 3928 43be bd3a 6dbe ae00 053e 51f0 f5bd
00000240: a926 59bd 303a 26be 03a1 d43c 7db0 adbd
00000250: 7659 cd3e d139 54bf 6796 a3bf 5e88 a93e
00000260: e829 8bbf 5572 68be 198e 3c3f de34 b2bf
00000270: 0c5e 6e3f 26d9 bb3f 2255 d4bf e881 2d3e
00000280: 9ce5 0740 38c6 8fbf 4162 56bf ee82 38c0
00000290: 9416 da3d d473 2bc0 0d81 86bf c044 4c3e
000002a0: 88a0 003e a29d 04c0 63c5 0740 2b7c 933f
000002b0: 3966 71be 9cc5 debf 7102 bf3e 03ec e23e
000002c0: 32f0 0dc0 8376 e0be 5efe c93f 03a4 b1bf
000002d0: f8e6 77bf c70d 0ac0 3490 bd3e f591 a23f
000002e0: d703 c83f 9b0c 10c0 36c1 cd3f 6e72 b9be
000002f0: ddc6 66bf e8b5 82bf ac96 eb3f 5223 c2bf
00000300: 96c7 acbe 6ee0 72bf 2982 f2bf ad20 3c3f
00000310: 72a8 0d3e d6ae 75bc 03f3 533f a908 b1bd
00000320: 144d bb3e f7dd 3cbf 2849 0bbe e091 24bf
00000330: 5c3e 17be 386c 75be 7729 573e bc97 66bf
00000340: 2bd2 9b3e 6cfe 5abf 27ae 3b3e 0f22 40bf
00000350: b08a 843f 752e 913f 6f41 18bf 89ea 80bf
00000360: 275c 2f3f 88e6 e7bf a60b 8f3f f187 9bbf
00000370: 1ec7 873f 02b2 e23d 489f 993c e967 51bf
00000380: 6230 ccbf 089d 193f fa5c 1040 860e e9bd
00000390: 1ba3 0f3f 6222 4ebf b9de 26bf fd20 8abd
000003a0: b644 123f a781 c4be 04d5 10bf 0df5 3b3f
000003b0: 78cf e23e 9d6a 7dbf a244 6c3f 8ed4 7dbe
000003c0: dcfb d1be e2eb 87c0 480a 4abf 0b5f 313e
000003d0: 5be5 b5bf d572 1fbf 7f09 ff3f 72cf febf
000003e0: 33db 11bf ef5b 5040 d0cb 23be 7b4b 893e
000003f0: ebb7 483f 148a 8dbf eb38 943f 7b78 153f
-0.011134354 0.90645134 2.5540953 0.082056254 0.89403516 -0.13885342 -0.33591357 -0.2734586
-0.6236684 -0.48098055 -1.0589639 0.23425762 -0.4745275 0.02049353 1.0323869 -0.1180843
1.0808775 -0.61966604 -1.0605395 2.5779161 1.8927828 1.4093429 -0.515399 -1.1140348
-0.68030006 -2.690688 1.5532163 0.022752807 -0.022256762 -0.7619553 -0.9187643 -0.2186534
0.43193582 0.018551486 -1.3449651 0.6737408 3.5275002 -1.396604 1.4830297 1.0485142
-0.52264094 -2.798899 1.5994369 1.8471609 -0.33591124 -0.6305164 0.4901865 -0.24105768
-1.4334799 0.119281344 1.9264009 0.9509144 3.03855 -1.2096478 -1.5448153 0.37687594
1.872245 1.5192108 1.7227081 -0.052915443 0.38872337 0.26381668 -0.71092504 0.28929436
1.1126059 -1.0716383 1.4126157 -0.94286543 0.66661215 -1.0828243 0.49932072 1.0549712
-0.94536626 -0.60823643 2.0518873 -0.8642947 0.5526162 -0.6166863 -0.24343222 0.15695712
1.7337857 -1.535789 0.521986 -3.1230707 0.67690176 0.00027284684 0.14699948 -1.5910196
-0.40714163 -0.32834077 1.0401301 -0.3772382 0.12821555 0.07487872 0.23149261 -0.7281454
0.22285193 -0.82285976 -1.7206476 -0.4086267 -1.2395972 -1.0458726 1.1491395 0.69991153
0.594573 -0.67862123 0.7517581 -2.1401799 1.6085902 -0.026988994 2.5476515 -1.1406559
1.4372182 -0.5088769 -0.7664077 -0.33571047 0.64331704 -0.25763607 0.048546676 1.103429
-1.3056022 -1.6271199 -0.4372781 0.6983088 -0.58076084 -2.7603636 0.3310476 -2.0871782
-2.848122 1.2550329 -2.3655436 -2.6900806 1.014921 -0.12550001 1.517182 1.7232984
0.8579042 -0.80915195 0.6188911 0.36558887 -0.19058312 -0.23166938 0.1298854 -0.12008727
-0.053015385 -0.16233134 0.025955683 -0.08480928 0.40107316 -0.8290072 -1.2780274 0.33111852
-1.0872164 -0.22699864 0.73654324 -1.3922384 0.93112254 1.4675643 -1.658848 0.16944087
2.1233892 -1.1232367 -0.83743674 -2.8829913 0.10648838 -2.6789446 -1.0508133 0.19948101
0.12561238 -2.0721211 2.1214225 1.1522268 -0.23574151 -1.7404056 0.3730655 0.44320688
-2.2177854 -0.43840417 1.5780752 -1.3878177 -0.96836805 -2.157091 0.3702408 1.2700793
1.5626172 -2.2507694 1.6074588 -0.36220115 -0.9014719 -1.0211763 1.8405356 -1.5167029
-0.33746022 -0.948737 -1.8945972 0.7348736 0.13833788 -0.014995297 0.8279268 -0.0864423
0.36582243 -0.7377619 -0.13602126 -0.6428509 -0.14769882 -0.23967063 0.21011911 -0.9007528
0.30433783 -0.85544467 0.18328153 -0.7505197 1.0354824 1.1342303 -0.59474844 -1.0071574
0.6849999 -1.8117228 1.117543 -1.2150861 1.0607641 0.110691085 0.018752709 -0.8179918
-1.5952265 0.60005236 2.2556748 -0.11379723 0.56108254 -0.80521214 -0.651836 -0.06744573
0.57136095 -0.38380167 -0.56575036 0.7342079 0.4429891 -0.98990804 0.92292225 -0.24788114
-0.41012466 -4.2475443 -0.7892194 0.17321412 -1.4210619 -0.62284595 1.9924773 -1.9907057
-0.56975096 3.2556112 -0.15995717 0.268154 0.78405637 -1.1057763 1.157987 0.58386964

self_loop_weight f4 [8, 32]
00000000: 3b2d 523f ec92 39bf 3d36 313f cc1e eb3e
00000010: 480f e9be 3a6f 21bf 9013 22c0 d520 c3be
00000020: 5e7c 9fbf f0a5 c93e ddaf af3c 4a5b 9bbf
00000030: 1d08 a9be 60e8 35bf 0fc2 95be 5890 aa3d
00000040: 9d88 82bf 3696 19be facf a33e 3d69 eabf
00000050: 680f 0cc0 5387 98bf 40de c2bf 44d9 41bf
00000060: 7a89 68bf 9867 c93e 9e05 43bf 9c19 753d
00000070: 9a49 82bf 9c79 f33e 8b54 b33e f1cc 6e3e
00000080: d44c 7cbe db60 793f e314 29bf 6acc 253e
00000090: 9fda 4bbf c36e 90bf 8893 883e 9f03 d0be
000000a0: cec9 5d3e 0a3c 1fbf e48c 5cbf 22bc 1dbe
000000b0: 48cc 3bbf cb5c c5be 73a7 6fbf 3919 31c0
000000c0: c579 093e 5611 263f c656 4dc0 c245 8a3e
000000d0: ef83 97be 81c2 b4bf 5bba 7dbe f984 36bf
000000e0: 119d 53be ece4 1cc0 ada0 61bf 6019 97bf
000000f0: 2bcb 86bf e6e3 13bf ee55 65c0 20f2 4fbe
00000100: 97e4 6ebe 84fe e4bf 1aa5 f4bf af5c 5bbf
00000110: e28e 3fbf 538c 40bf b962 2bc0 6713 2dbf
00000120: fdbe e4bf c3c0 0ac0 bed4 20bf ab75 ed3e
00000130: b782 c6be 03c9 99bd 3b68 72bf b803 fabe
00000140: 0bab c3bf 209d 06bf 9910 d43e 6565 afbf
00000150: 8500 59be b780 e33d 8881 6abf e04c 6a3e
00000160: bd04 20c0 313e 86bf e045 dd3e 0fdc e5be
00000170: af20 143f eb7d fa3e 983d 8cbf 7452 803e
00000180: 62a1 6d3f a228 b2be 5a73 4cbf 1e08 453d
00000190: 4c35 22be b1cd c4be f61d 5cbe a128 eebd
000001a0: 7236 b93f fa55 fbbf 0eaa 86bf 028d 0cc0
000001b0: 6d1b 283f 861d d0bf 5f83 90bf aeeb 96be
000001c0: 2175 f5bf 710e f1be f580 1ac0 8177 15bf
000001d0: 1232 003f 236a 0b3f 9532 e3bf 3ac5 dabe
000001e0: adde bdbf 8423 a8bf 162e febc 1bc0 bdbe
000001f0: 38c3 aabf 5776 83c0 13eb c33d 3d51 47bf
00000200: f4c0 823f 040f 1340 f1aa 65bf 1ead ea3e
00000210: 4460 8d3e df99 f9be 54d8 43bf 1b0a c1be
00000220: 33f7 aa3e 035a 0bbf c655 febe 4a88 173f
00000230: 09e3 6e3f 772a 33be f245 bfbe 53f0 b1be
00000240: bc54 b3bf 55e2 28bf 1776 06c0 b8ed d1be
00000250: 5d89 bdbe 035e bebe 3824 7dbe f4dc 8ebe
00000260: 5874 d23e 9230 b5bf 951d 8cbf 5077 7cbe
00000270: 740b 06be 7110 14c0 2325 c7bd d677 cf3c
00000280: 82c4 5ac0 47de 82bf 933b d33e ea9e 9abe
00000290: 1abf 2bbf 3308 02bf e2a1 bcbd 002f 72bf
000002a0: bf9e d7bf 79fc 36be 8fff 97bf 76d5 56bf
000002b0: dcc5 33be 4fc1 f4bf da8e 52bf 578c c3be
000002c0: 87c5 673f 0a34 eb3d c9d8 a53e 2e1b 0c3f
000002d0: 353a 67bf aea0 4abf ba13 f2bf abd1 a3bd
000002e0: d7d5 1cc0 a657 13bf 9a9a 8cbf 570f 12c0
000002f0: a4f8 00bf 647f 41bf c469 1cbf 4122 97be
00000300: f376 acbd 57a1 a2bf 6745 65bf 34fd 8cbe
00000310: 910a 2cbf d6a8 3fbd ce1b a7be 8188 56be
00000320: 3bfe 8dbf e378 90bf c362 1b3f aa39 13c0
00000330: 9fea fcbf 79f8 073d efd4 c23d 8a8f b9bf
00000340: 869f 2ebf 7752 cfbf e107 ffbe c3a2 30bd
00000350: 98cd 28be e854 593e d7cb 4f3f ac15 f7be
00000360: be34 52be 07cd a9bf 11a5 263f 2115 763e
00000370: e88d 4dbf 9f9c 743e 2eab 9abf 997d ffbf
00000380: 3cfc 2d3f ef1e d4bf 38a9 87bf 8403 42be
00000390: dc82 c9be 55a4 67be cf00 9e3e c98b 28be
000003a0: ca2d c23e 476f 3bbe d048 1abf 2bc6 adbe
000003b0: 28aa dd3b 6bf4 adbd bbd9 f8bf 3248 6d3f
000003c0: d5e9 e2bf 8f2e cebf 75a2 adbf 3ca8 e1be
000003d0: cf5b f03e 8887 f1bf c9e3 e3bf 08dc c03e
000003e0: b8dc 55bf 257a 9bbe da34 5bbf 1a0d 8d3d
000003f0: 94e8 3ebf 10fc dc3d 2221 9ebf db07 43c0
0.82100266 -0.7248981 0.69223386 0.45921934 -0.4551947 -0.63060343 -2.532444 -0.38110986
-1.2459829 0.39384413 0.021446163 -1.2137234 -0.33014002 -0.710577 -0.29249617 0.08328313
-1.0197941 -0.14998707 0.3199461 -1.8313366 -2.1884403 -1.1916298 -1.5224075 -0.75722146
-0.9083477 0.39336848 -0.76180446 0.059838876 -1.0178711 0.47553718 0.3502544 0.23320366
-0.24638683 0.97413415 -0.66047496 0.16191259 -0.79630464 -1.1283802 0.26675057 -0.40627763
0.21659014 -0.6220099 -0.8615248 -0.15403798 -0.73358583 -0.38547358 -0.9361488 -2.7671645
0.13425358 0.648702 -3.2084212 0.27006346 -0.29592845 -1.4121858 -0.2477812 -0.7129665
-0.20665385 -2.4514723 -0.88135797 -1.1804619 -1.0530752 -0.5776962 -3.5833697 -0.20307207
-0.23329388 -1.7890172 -1.9112885 -0.856883 -0.74827397 -0.7521412 -2.6779006 -0.6760773
-1.7870785 -2.1680152 -0.6282462 0.46378836 -0.38771603 -0.07509043 -0.94690293 -0.48830962
-1.5286573 -0.52583504 0.41418913 -1.3702818 -0.21191604 0.11108535 -0.916039 0.22880888
-2.5002892 -1.0487729 0.43217373 -0.44894454 0.5786237 0.48924193 -1.0956297 0.25062907
0.92824376 -0.34796625 -0.7986351 0.048103444 -0.15840644 -0.3843818 -0.21495804 -0.11628843
1.446974 -1.9635613 -1.0520647 -2.1961064 0.6566685 -1.625901 -1.1290091 -0.29476684
-1.917637 -0.4708133 -2.414121 -0.58385473 0.500764 0.54458827 -1.7749811 -0.42728597
-1.483358 -1.3135839 -0.031027835 -0.37060627 -1.3340826 -4.108196 0.09566321 -0.77858335
1.0215135 2.2977915 -0.8971396 0.45835203 0.27612507 -0.48750207 -0.76501966 -0.37703022
0.33391723 -0.5443422 -0.49674815 0.59192336 0.9331518 -0.17496668 -0.37358052 -0.34753665
-1.4010234 -0.65970355 -2.1009576 -0.41001678 -0.37018862 -0.371811 -0.24720848 -0.2790295
0.41104388 -1.4155447 -1.0946528 -0.24654889 -0.13090307 -2.3135035 -0.0972388 0.025325697
-3.418244 -1.0224084 0.4125639 -0.30199367 -0.6708847 -0.5079376 -0.09210564 -0.94602966
-1.684532 -0.17869748 -1.1874865 -0.83919466 -0.17555946 -1.9121493 -0.82249224 -0.38193008
0.9053578 0.11484535 0.32391956 0.5472897 -0.9032319 -0.7915143 -1.891227 -0.07998975
-2.4505517 -0.57555616 -1.0984681 -2.2821863 -0.50379395 -0.7558501 -0.61098886 -0.2951832
-0.08421125 -1.2705487 -0.89559025 -0.2753693 -0.67203623 -0.046791874 -0.326384 -0.2095051
-1.109321 -1.1286892 0.60697573 -2.3003945 -1.9759101 0.033195946 0.0951327 -1.449693
-0.68212163 -1.6197041 -0.498107 -0.04312397 -0.16484678 0.21223795 0.8117041 -0.48258722
-0.20527932 -1.3265694 0.6509562 0.24031498 -0.80294657 0.23887871 -1.208349 -1.9960204
0.67963004 -1.657194 -1.0598516 -0.18946654 -0.3935765 -0.22621281 0.30859992 -0.16459574
0.3792556 -0.18304168 -0.60267353 -0.33940253 0.006764669 -0.08493885 -1.9441446 0.92688286
-1.772761 -1.6107959 -1.3565203 -0.44073665 0.46945044 -1.8869486 -1.780389 0.3766787
-0.83539915 -0.30366626 -0.8562752 0.068872645 -0.74573636 0.107902646 -1.2353861 -3.0473545

weight f4 [8, 80]
00000000: cdb3 37bf 9882 06bf ef6d 663e 5845 9fbe
00000010: 60df 4cbf e118 c5bf 718a dabe 3ea1 823d
00000020: e4bd f6be ea1e 9ebf 9ad2 40bf 4d1d 6dbe
00000030: d9c9 9abf d3bc b0bf 6eec 8abe dcc2 1f3e
00000040: 3193 0f3d ce35 423f 5705 9ebf 7ba2 57bf
00000050: fa2a c5be c3e8 37be 6de1 4c3f 7234 8b3e
00000060: 4e7a b1be 0cc1 353d 675d a63e fd69 2dbe
00000070: 0e2a 02bf 1f65 d23d 95d5 bf3e 10df 8dbe
00000080: a684 113f db0f 80bc 18b9 ae3c e732 f8bd
00000090: 486b 23be a1e6 27be facd d43e 6458 c93e
000000a0: 2d0d 79be aa30 8a3f 2489 8dbe 6c3c 46be
000000b0: 226d dd3e e31e 4ebe 51d9 18bd c4d4 a83e
000000c0: 92ca 07bf 2142 703d c348 0bbe 701c 3f3f
000000d0: b0a6 5ebf a051 b63d 9a71 2d3d e663 b53e
000000e0: ece7 8ebe 0e71 a83b cf88 04bf af3c 34be
000000f0: 3aec 0f3f 580a 5cbf b92c 9dbe df2f 243d
00000100: f27e 223f 8be3 10bf 6778 51bf 8b50 583e
00000110: aa87 c4be 6ef3 ebbe 3431 123f 7275 c13d
00000120: 0e8f 903e 6513 babe 734a 173f 2f15 993e
00000130: 0dee 66be 7896 ac3e e82e 023e 2366 76be
00000140: 8070 9ebf 91f2 cebf 8bb2 b03e 068c 70c0
00000150: 62fe 19bf 0b61 0bc0 9547 afbf 375b 2fbf
00000160: cfc4 d0bd 1345 4ac0 161c 38bf ae44 5cbf
00000170: b2ac 62c0 5798 533e b22f 2bbf 2af7 32c0
00000180: 77f6 fcbd e112 753e 9387 3f3e d26d 2dbe
00000190: 41e3 a63d cdce 7eba 2174 573d c90b e1be
000001a0: 7fd7 d23e 4305 1cbf bed6 143f 7405 31bd
000001b0: 3894 123e edd8 10bf c777 9cbe 400d 64bd
000001c0: 8a0c 9939 5f2d 103d 0904 98bf b180 023e
000001d0: 3a88 b33e ee8f ddbe 0f09 0bbf a14b 9d3e
000001e0: e9fd f23d 11d9 1ebb 6b57 e3be 520a 15bf
000001f0: 61d7 6d3e d2b3 6abe 978e c63e eb49 c13e
00000200: 0d25 cbbe 0559 873e 7ee0 a1be 7e47 f03e
00000210: 05fd 8abf 58ce afbd c555 b93e 1701 c93e
00000220: 879d 3c3d bb75 d5be 82ee 4c3f dc84 213f
00000230: 086e 04be 3f94 08bf 012f d7be cc54 a5be
00000240: 36d3 3e3e 5a5b 98bf 76b0 df3c fc39 05be
00000250: 98c9 a1be 7064 b33e 824d babe 6c52 8b3e
00000260: b640 89be 1701 6c3e 8d0d b23f 8d51 ffbe
00000270: 8d17 0d3f 97f7 7cbe 08e6 003f f9ae d1bd
00000280: 9629 90bf 6d2e a5be 66bf 22c0 bdc5 96be
00000290: 8223 16bf dc10 86bf e98f cdbf a602 70bf
000002a0: 60e9 d0bd 3815 49c0 131a ca3f 3842 04c0
000002b0: ca96 d8bf 353e 44bf f6c3 463f 23f8 26c0
000002c0: c007 8b3e 5019 eebe 1c5d e73e 7c19 edbc
000002d0: 4617 523d ced5 003f dbc8 343e 001e c9be
000002e0: ea06 c73d 7516 09bf 9c0d 4b3e 13fe b53e
000002f0: 3cf4 233e 081f 96be a7cf 49be 4ec9 643e
00000300: f178 693d 7aa1 153f a1ee 383d ea7c d3bd
00000310: 9e1d b4bd a78d 38be 3140 ea3d 4fe8 663f
00000320: 6d68 203f 36eb b43e 2c0b f53e e623 183e
00000330: e3a6 c03b cccb 963e 5c90 25bd 3244 673d
00000340: 2789 20bf 5093 943e fb96 5abe dbd6 04bf
00000350: 496a 18bf bc6e e73e 44d1 e03e a416 68bf
00000360: 25a2 6e3f e234 01bf a721 77bc b754 01bf
00000370: fff4 203f c150 36bd 3939 923c 6117 fdbd
00000380: ff72 2e3f 7e26 43bf c968 e1be e81b d23e
00000390: 983c 013f 43c1 89be ce4d 80be a707 82bd
000003a0: 50d6 133f d4c6 df3e 1a60 1d3f da03 4bbe
000003b0: cfc6 23be 0b8b c83c 3898 243e 3092 32bf
000003c0: f81c ccbf 56fa 99bf 56e1 e63d 5d23 63bf
000003d0: ffe4 6abd b658 84bf cd80 01c0 71df 95be
000003e0: 4be7 8c3e f666 27c0 7eae 23bf 4e6f 813e
000003f0: 1280 bbbf 8f58 8bbf d713 24bf c4ad 09bf
-0.7175873 -0.5254302 0.22502874 -0.31107593 -0.80028343 -1.5398217 -0.42683747 0.06378411
-0.4819175 -1.2353184 -0.7532135 -0.23155709 -1.2092849 -1.3807625 -0.27133507 0.15601677
0.035052482 0.7586335 -1.234538 -0.842323 -0.3850935 -0.17959885 0.8003147 0.2718845
-0.34663624 0.044373557 0.32493135 -0.16934963 -0.5084542 0.102731936 0.37467638 -0.27709246
0.5684303 -0.01563256 0.021328494 -0.12119084 -0.15958893 -0.16396572 0.41563398 0.3932525
-0.24321432 1.0796101 -0.27643692 -0.19358987 0.43247324 -0.2012897 -0.037316624 0.32974827
-0.5304347 0.058656815 -0.13601975 0.7465277 -0.86973095 0.089022875 0.042344667 0.3542778
-0.27911317 0.0051404303 -0.51771253 -0.17601274 0.5621983 -0.85953283 -0.30698183 0.040084716
0.63474953 -0.56597203 -0.81824344 0.21124475 -0.38384753 -0.4608416 0.5710633 0.09446229
0.28234142 -0.36342922 0.59097975 0.29898974 -0.22551747 0.3370855 0.12713206 -0.240624
-1.2378082 -1.6167775 0.34511217 -3.7585464 -0.6015378 -2.177798 -1.369372 -0.6849856
-0.10193788 -3.160466 -0.71917856 -0.86042297 -3.5417905 0.20663582 -0.6686965 -2.7963357
-0.12351697 0.23932983 0.18704061 -0.16936424 0.08148814 -0.0009720147 0.052600984 -0.43954304
0.41180035 -0.6094553 0.5814017 -0.04321809 0.14314353 -0.56581 -0.30560133 -0.0556767
0.00029191776 0.03519952 -1.1876231 0.12744404 0.3506487 -0.43273872 -0.543107 0.30721763
0.11864836 -0.0024238268 -0.44402632 -0.5821887 0.23226692 -0.22920159 0.38780662 0.37751707
-0.39676705 0.26435104 -0.31616586 0.46929544 -1.0858465 -0.08584279 0.3619825 0.39258644
0.046048667 -0.41691384 0.80051434 0.6309335 -0.12932599 -0.53351206 -0.4202805 -0.32291257
0.18635258 -1.1902878 0.027305823 -0.130104 -0.31599116 0.35037565 -0.3638726 0.2721132
-0.26807183 0.2304729 1.3910385 -0.49866906 0.5511406 -0.24703823 0.50351 -0.102384515
-1.1262691 -0.32261983 -2.542932 -0.29447737 -0.5864793 -1.0473895 -1.6059543 -0.9375404
-0.10200763 -3.14192 1.5789207 -2.0665417 -1.6921017 -0.7665742 0.7764276 -2.608895
0.2715435 -0.46503687 0.45188224 -0.028942816 0.051291727 0.5032624 0.17654745 -0.392807
0.09718116 -0.5354989 0.1982941 0.35545406 0.16011137 -0.2932055 -0.1970812 0.22342417
0.057000104 0.5844952 0.04514945 -0.1032656 -0.087947115 -0.18022786 0.11438025 0.90198225
0.6265934 0.35335702 0.47860086 0.14857444 0.0058792694 0.2945236 -0.040420875 0.05646152
-0.6270928 0.2901864 -0.21346657 -0.51890343 -0.5953718 0.4520167 0.43909657 -0.90659547
0.9321616 -0.5047132 -0.015083707 -0.5051989 0.62873834 -0.044510607 0.017849552 -0.12357975
0.6814422 -0.7623061 -0.44025257 0.41036916 0.50483084 -0.2690526 -0.2505936 -0.06349116
0.5774889 0.4370638 0.61474764 -0.19825688 -0.15993808 0.024480363 0.16073692 -0.69754314
-1.594634 -1.2029521 0.11273448 -0.88725835 -0.057347294 -1.0339572 -2.0234864 -0.29272035
0.27520213 -2.6156592 -0.6393813 0.2528023 -1.4648459 -1.0886401 -0.64092773 -0.5378077

bias f4 [8]
00000000: 4c1b 1ec0 5257 63c0 68fe 4dc0 a791 1bc0
00000010: fa51 84bf c0b7 88bf 8a17 f7bf a62c 2cc0
-2.470416 -3.5522046 -3.2186527 -2.430765 -1.0337517 -1.0681076 -1.9304059 -2.6902251

weight f4 [1, 8]
00000000: 2a9b 16bc b9b5 cebd 5503 b9bd 4ce6 99be
00000010: 64a5 8abe 8fe3 abbe e758 1ebf bca8 65be
-0.009192267 -0.100932546 -0.09033839 -0.30058515 -0.27079308 -0.3357205 -0.61854404 -0.22427648

weight f4 [4, 32, 32]
00000000: ad06 07bf 7ae7 bd3e f9d9 11bf 1303 773e
00000010: e877 30be 4f78 bdbe 4561 913b 838c 23bf
00000020: 2664 8bbe eee8 5abf 9db5 b8be 4991 b0be
00000030: c9df 9e3e d4e8 a2bf 7afe fcbe efc9 133f
00000040: 6717 45bd 5451 6fbe 930c 9cbd 88bf 2cbf
00000050: fd2a e83e 3acf 95bf e7f5 c4bd 5f4f 58bd
00000060: 8466 45be 10cb 69bf 1e5f 74bf 2f47 e43e
00000070: b8c8 05bf 9cf8 6ebf 855f e8bd 6584 02bf
00000080: dd28 8abf 8e1a 20bd 8786 cdbe fb63 af3f
00000090: da75 08bf 2174 8f3d 0ca4 afbf d2c4 c0bf
000000a0: 608c 9fbf 4e54 d53e ed25 9abe 10f1 9bbf
000000b0: 5f31 1b3f fd2b a93f 2040 29bf f071 73bd
000000c0: 3200 8abd 8d34 403e 6448 de3e 00e0 24be
000000d0: 4a05 b33e 0936 6d3e 11bf 1fbf 0275 a23f
000000e0: 82d8 d23e f5ff 943e 9f2e 303d 44d9 f8bd
000000f0: 89ab 9e3f e89c 3d3f fe13 2c3e 2e00 b63e
00000100: 782c f5bd ace1 e8bf 811f 8ebe 6a77 1f3f
00000110: ea4e 423e 6c9e 5fbf 771b e73d fbb3 12be
00000120: c940 a53e b3ad 02bf ee74 e53e 7964 2abf
00000130: df7f de3e ad2a 8f3f 8820 53bd fbaa a8bf
00000140: 74b3 213d 0499 cabe 010e 7fbf 58a8 253f
00000150: 5d11 9d3d e06c debe d127 383f d6b8 23be
00000160: 377d f43e 932a b9be 03e9 3fbe 8b47 54be
00000170: 0711 14bb b452 0abf 118d 6c3e eac4 dfbd
00000180: 0e6c 3abe 5bdc 4a3d 3d0e 7f3d 0641 3bbf
00000190: 5fb5 c0be a586 7abf f07f 5dbf 0706 e5be
000001a0: d233 4bbc 74fc 44be c42a c8be 7bbc ddbf
000001b0: cc69 f23e 4c35 9fbf fb9e 8abf 29e5 d13e
000001c0: 53b9 0cbf 7a47 5bbf 6082 25bf fc45 34bf
000001d0: 717d b3be 7cae 7cbe bfd3 f9bd d578 a7bf
000001e0: 726b 9c3e ebb6 27be 713f 84bf 0637 f0be
000001f0: dd3b c8be 85eb 6abf d768 2cbf 926f 28bf
00000200: 0be0 69bd 2844 89be ecc7 d7be 32bc 033f
00000210: 2b16 153e 9b5b 5dbd 465e fdbd 16f0 0abe
00000220: 60f6 eebd 0f2e 05be 5176 0fbe d757 81be
00000230: 2942 95be 8a44 39be 8a51 0abe b8f2 fa3d
00000240: a3b2 133c 8eb7 a6bd 1f1e 823e 7ef5 083e
00000250: f1a9 243d 7c80 1dbe 792c 83be 0b45 ac3e
00000260: 429a bcbd f12c ae3c 4abc 683d d422 013f
00000270: c74e d43e 9079 98bd 2697 e43a 936e af3d
00000280: 7920 0ebd 6e61 97be 4b10 963d cbc4 cabe
00000290: 3f00 58be ac78 f33d 0913 153e a30b ad3d
000002a0: c69b 723e eeba 083e bcf1 bb3e f64c f1bd
000002b0: 2b8c 5ebf 3fb1 0a3f 8f1b b13d 2fc7 663e
000002c0: cf57 a03d e057 9ebe 8f88 063e 6b10 eebe
000002d0: 5b0b 233d e361 afbe e525 fd3e 5c02 df3e
000002e0: 87ee a53d 0c8e f53c 218d 8f3e 7f2b c53e
000002f0: 5a62 d3bc 055c 023f 4c2b 25be 49eb 223c
00000300: 25f6 0fbf 8e08 7e3f 685e 90bd 50ab 93be
00000310: b0f6 28bf 2246 c6bc 4f3a 3dbf 0378 a1bf
00000320: cdfb a5bf 7cfe 98be 5c7a 28bf 69ca 48bf
00000330: 671e 0f3b cff1 c8be a297 b9bf fc91 bfbf
00000340: c871 61be 5104 a4bf f98c 13bf 8d3a c7bd
00000350: e54e e6be d56b 94bf 9ed9 253f 005f f8bf
00000360: c26b f83d bf5c 1bbf 39bb b2bf b3d8 85be
00000370: 66a5 653e 7d0d 8fbf 4be0 9cbd fb27 05bf
00000380: 8a22 753f a622 07c0 e3ab c5be 31e3 b93e
00000390: 31d6 a8be 3aa3 2e3d db24 9d3e cd54 9d3e
000003a0: a212 303f 78b6 693e 3b64 3fbf a837 2dbf
000003b0: 9ea1 9ebf 9584 193f 47b1 81be 9201 973e
000003c0: b36b 87bf 22a1 c53d 3151 213f d2e7 823e
000003d0: 7a1d 33be 257a 8cbe f2f1 15bf 9c7b 6abd
000003e0: 78a2 573d da84 953e c471 ba3e 6b3c 8ebf
000003f0: 5c0b 0bbf f302 813e b37d 2bbf a101 2ebe
-0.5274456 0.37090665 -0.56973225 0.24122266 -0.1723324 -0.3700585 0.0044366443 -0.6388628
-0.27224845 -0.8551167 -0.3607606 -0.34485844 0.3103011 -1.2727304 -0.494129 0.5773
-0.04811802 -0.23370868 -0.07619586 -0.67479753 0.45345297 -1.1703866 -0.09617215 -0.05281007
-0.19277388 -0.91325474 -0.9545764 0.4458556 -0.522594 -0.933481 -0.11346344 -0.5098327
-1.079372 -0.039087825 -0.401417 1.3702387 -0.5330483 0.07004572 -1.3721938 -1.5060065
-1.2464714 0.41665882 -0.3010706 -1.2182941 0.6062221 1.3216549 -0.6611347 -0.05943483
-0.067383185 0.18770047 0.43414605 -0.16101074 0.34964973 0.23165144 -0.6240092 1.2691958
0.41180807 0.2910153 0.04301321 -0.12150815 1.2396098 0.74067545 0.16804501 0.35547012
-0.11971372 -1.819387 -0.2775841 0.62291586 0.18975416 -0.8735111 0.112845354 -0.1432647
0.3227599 -0.51046294 0.44815773 -0.6655956 0.43456933 1.1184899 -0.051544696 -1.3177179
0.03947778 -0.39569867 -0.99630743 0.6471 0.076693274 -0.4344244 0.71935755 -0.15988478
0.4775178 -0.36165294 -0.1874123 -0.20730416 -0.0022593157 -0.54032445 0.23100688 -0.1092623
-0.18205282 0.049526554 0.062269438 -0.7314609 -0.37638375 -0.978617 -0.8652334 -0.4473116
-0.012402492 -0.19236928 -0.39095128 -1.7323145 0.47346342 -1.243814 -1.0829767 0.40995148
-0.5497028 -0.8565594 -0.6465206 -0.7041929 -0.35056642 -0.24675936 -0.121985905 -1.308375
0.30550724 -0.16378371 -1.0331861 -0.4691698 -0.39108172 -0.91765624 -0.6734747 -0.6579524
-0.05709843 -0.26809812 -0.42144716 0.5145904 0.14559238 -0.05404244 -0.12371497 -0.13568148
-0.11668086 -0.13005851 -0.14009978 -0.2526233 -0.2915204 -0.18092552 -0.13507667 0.12253326
0.009014758 -0.08140479 0.25413606 0.13374898 0.04020113 -0.15381044 -0.25619867 0.33646426
-0.0920911 0.021261664 0.05682019 0.5044377 0.41466352 -0.07445061 0.0017440065 0.08566012
-0.034698937 -0.2956652 0.073273264 -0.39603266 -0.21093844 0.11888251 0.14558043 0.08449485
0.23692235 0.13352558 0.36707866 -0.11782257 -0.8693263 0.54176706 0.086478345 0.2253692
0.07829248 -0.30926418 0.1313803 -0.464969 0.03980575 -0.3425437 0.49442974 0.43556488
0.08102136 0.02997496 0.2803736 0.38509747 -0.025803734 0.5092166 -0.16129798 0.009943792
-0.5623496 0.99231803 -0.070492566 -0.2884164 -0.66001415 -0.024203364 -0.73917097 -1.261475
-1.2967469 -0.29881656 -0.65811706 -0.78433853 0.002183819 -0.39246985 -1.44994 -1.4966426
-0.2201606 -1.2813817 -0.5763698 -0.097279646 -0.44982067 -1.1595408 0.6478518 -1.9403992
0.12129928 -0.60688394 -1.3963386 -0.2614189 0.22426376 -1.1175991 -0.07659968 -0.5201413
0.9575583 -2.1114898 -0.38607702 0.36306146 -0.32975915 0.042636134 0.3069218 0.3072876
0.6877843 0.22823513 -0.74762315 -0.6766305 -1.2393072 0.5996793 -0.25330564 0.29493386
-1.0579742 0.09649874 0.63014513 0.2556749 -0.17491713 -0.2743694 -0.58572304 -0.05724679
0.052645177 0.2920292 0.3641492 -1.1112188 -0.5431421 0.25197563 -0.66988677 -0.16992809

w_comp f4 [180, 4]
00000000: 77c8 c53f 342a 753f fd9e 1ebf b52d a23e
00000010: 6f94 733c 94c2 033f 0a65 87be 78bb 043e
00000020: 3a11 03bd 528e 843e 8ce6 12bf 581a cd3e
00000030: 10c9 4a2d 3a3a 0080 604d 2a2e c457 0100
00000040: c03d b5bf ab3c 973f c226 e23f f78e 85bd
00000050: de57 a83f 4968 0c3f 58e5 d5bf c886 e6bf
00000060: 8520 1d3e 0597 833f 346b 48bf a080 353e
00000070: eebb 8b3e d12f bb3f 45e2 6a3e 9fe1 f6be
00000080: 0d1b 13bd 4426 bc3e d856 ea3c b504 0dbc
00000090: 729d c03e 97e0 6e3f c06f 40bf 08c0 923a
000000a0: ac7d 8d3f 58a4 55bf 3bb1 a53d abb4 c53e
000000b0: 0152 fabe 1d64 b7bf 1913 d83d 102e e4be
000000c0: 28c2 8a3f e254 073e be1c c1bd f539 603f
000000d0: ea98 e9b0 1c2d 0000 ab19 0080 fe9f 0180
000000e0: 6e1a 963e eb2f 4b3d 3ca8 cdbc df1d c8ba
000000f0: a954 6d3e 7151 373f c0df 873c d3a5 873e
00000100: 9ba0 493f 080b 53be fd44 0fbf 3a65 6dbe
00000110: 2f0a dbbf b636 233f 8cdd c93e 8eee 3e3f
00000120: 8e56 fdbd 1ee9 933e bdd8 7dbe aa8e 0b3f
00000130: 5621 653e f337 c13e f038 933e 32f6 8e3e
00000140: 332c 0100 4d97 bd2f 0e00 0180 7ccb 0000
00000150: 2e9e f93e 2ad8 c5be 24a4 f2be 2b78 ce3e
00000160: baf2 9fbe 3d7d a1be 8e0d a0be 43fc 9fbe
00000170: d23a 1a3e cd1c a3be b5e3 e7bd 3894 773e
00000180: 16bb 373e b3f0 02be 1852 383f 52f3 62bf
00000190: 0298 ba3d 12e3 2fbf 98f8 6a3f 2c40 8f3e
000001a0: 5e63 3e3f bb0d 913e 6020 4cbf dc55 86bd
000001b0: 2a3b 3340 8d27 30bf 35ef f3bf 82fb 8d3e
000001c0: e706 873f dac1 913f c38b 2f3e c8f3 82bf
000001d0: 77a3 233f c548 b43f 9b2c 863e 718d 69bf
000001e0: bd75 bb3e 5073 acbe ac3a 363e 88b6 213e
000001f0: ffc1 efbe 9ef4 b4bd 441c 40bf b1e1 753c
00000200: 8540 b2be 7cd6 983f c843 c7be ce48 873e
00000210: 3797 233f c33b a2be edc5 2ebd 4f51 a13f
00000220: fbb0 94bd 839b 1a3f 2599 2ebf 3070 4b3f
00000230: a725 0180 ec30 0180 559f 4336 becd 3535
00000240: 8b62 0180 16b9 3a94 e33e 8aac 8347 0100
00000250: c782 5d3e 0b43 ea3d 9c7b babe c88d 053f
00000260: 97b1 05be 6df9 08bf e9c5 c0bf c9a4 88bd
00000270: 3e68 b93e 5788 85bf 3ac1 d6be 7b56 683f
00000280: 17d7 1540 2bbf ebbe cfb7 eebf b120 e63e
00000290: 01b2 213f 936b b0be 5559 d93e c7c5 59bf
000002a0: 68b7 953f 30d7 9e3e 8262 713e f7b5 ca3e
000002b0: 3277 3ebf 22af 0240 6a6a aabf 6107 88be
000002c0: 1858 703e b174 94bf f872 e5bf 11c1 583e
000002d0: c7a8 e9be 8072 673f 4dfd 953e f422 59bf
000002e0: 9e48 113f b8e6 813f 3a15 38bf 198c 383e
000002f0: 7c7f 3d3f 4fdc d73d 201d adbe b75b 81bf
00000300: 8e32 b63c 199e 8cbe a8a1 d8bd d263 353f
00000310: 14e8 6e3e 1e93 b23f 02f3 07bf 15f6 453f
00000320: 9d57 943f aec3 2a3f 5fe5 d53e 67cc a53f
00000330: 15a4 2abe 75e3 85bf ff2b 36bf c737 b83e
00000340: cca2 41bf f682 07bf 9afc 41be 8fb7 07bf
00000350: 00c5 2a3e a843 d73e dfcb d93e e190 b33d
00000360: 7b50 4e3e d899 5d3f 74b0 ce3d b70b c03e
00000370: 487c 173f 225d 963f b2bc 3cbf 6c2c d43d
00000380: 6611 c1be f9ca 9cbe 6cc5 babf f623 be3f
00000390: 788f 84bf 9958 15be 681f b93e cc31 7b3e
000003a0: a2b7 49bd c333 943f 1ea5 e2bf 4cf0 cfbf
000003b0: f655 0080 8b2c 0100 bebf 0000 6208 0100
000003c0: 49e5 283c d622 eebe 63e8 94bf d2c1 59bf
000003d0: 90a6 1bbf 9d6b 383f 8c8c 9dbe 61bc 63bf
000003e0: 41da 68bf 3acc 553f e355 f33f afa0 bb3e
000003f0: f673 17ac b402 5c39 43ac 0000 d627 0100
1.5451802 0.9576752 -0.61961347 0.31675497 0.014866932 0.5146878 -0.26444274 0.12962139
-0.03199885 0.25889832 -0.57383037 0.4005916 1.15270155e-11 -2.0888e-41 3.8722248e-11 1.2332e-40
-1.415947 1.1815389 1.7668078 -0.06521409 1.3151815 0.54846627 -1.6710615 -1.8009882
0.15344436 1.0280463 -0.7828858 0.17724848 0.27291816 1.4623967 0.22937877 -0.4821901
-0.03591447 0.36747944 0.028605863 -0.008607079 0.3762012 0.93311447 -0.75170517 0.0011196146
1.1053977 -0.83453894 0.08090445 0.386144 -0.4889069 -1.4327427 0.105505176 -0.44566393
1.0840502 0.13215974 -0.0942931 0.87588435 -1.6996442e-09 1.6182e-41 -9.208e-42 -1.4923e-40
0.2931704 0.049606245 -0.025104634 -0.0015267691 0.23176827 0.71608645 0.016586185 0.264937
0.7876069 -0.20609677 -0.5596464 -0.23183146 -1.7112483 0.6375536 0.3942684 0.74582756
-0.123700246 0.28888792 -0.2478971 0.54514563 0.22375998 0.37737998 0.28754377 0.27922207
1.07691e-40 3.4486405e-10 -9.1855e-41 7.2996e-41 0.48753494 -0.38641483 -0.47390854 0.40326056
-0.31239873 -0.31540862 -0.3126034 -0.31247148 0.150615 -0.3185791 -0.113227285 0.24177635
0.17942461 -0.12787132 0.72000265 -0.8865253 0.091110244 -0.68705857 0.91785574 0.27978647
0.7437037 0.28330788 -0.797369 -0.06559345 2.800486 -0.6881035 -1.9057375 0.27730948
1.0548981 1.1387284 0.17143159 -1.0230646 0.639213 1.4084707 0.26205906 -0.9123145
0.36613265 -0.33681726 0.17795819 0.15792286 -0.46827695 -0.088357195 -0.7504313 0.015007422
-0.3481485 1.1940455 -0.389189 0.26422733 0.6390261 -0.3168622 -0.042669225 1.2602938
-0.07260319 0.6039354 -0.6820243 0.7946806 -1.05343e-40 -1.09385e-40 2.9150008e-06 6.772715e-07
-1.27186e-40 -9.427102e-27 -3.9291777e-12 1.17489e-40 0.21631919 0.11438569 -0.3642243 0.52169466
-0.13056026 -0.53505594 -1.5060397 -0.06672055 0.36212343 -1.0432233 -0.41944295 0.9075696
2.341253 -0.46044287 -1.8649844 0.44946817 0.6316224 -0.34457073 0.42450967 -0.8506741
1.1696596 0.3102355 0.23572734 0.39591953 -0.7440063 2.0419393 -1.3313725 -0.2656813
0.23471105 -1.1598111 -1.7925711 0.21167399 -0.4563658 0.9040909 0.29294816 -0.8481896
0.5675143 1.0148535 -0.7190739 0.18022193 0.7402265 0.105400674 -0.33811283 -1.0106114
0.022240903 -0.2746437 -0.105777085 0.7085544 0.23330718 1.3951147 -0.53105175 0.77328616
1.1589237 0.66704834 0.4177656 1.2953004 -0.16664155 -1.0460039 -0.7116088 0.35980055
-0.75639033 -0.52934206 -0.18944016 -0.53014463 0.16676712 0.42043805 0.42538354 0.08767868
0.20147888 0.8656287 0.100922495 0.37508938 0.59174013 1.1747172 -0.73725426 0.10360035
-0.37708586 -0.30623606 -1.4591498 1.4854724 -1.0356283 -0.14584579 0.36156774 0.24530715
-0.04924739 1.1578296 -1.770664 -1.6245208 -3.0837e-41 1.07815e-40 6.8784e-41 9.4843e-41
0.010308572 -0.46510953 -1.1633419 -0.8506137 -0.6080103 0.72039205 -0.3077129 -0.8895932
-0.9095803 0.8351475 1.9010586 0.3664603 -2.1522762e-12 0.00020981842 6.1796e-41 1.06126e-40

self_loop_weight f4 [32, 32]
00000000: 4e1f 67bf ead9 d63f c356 01bf 4c27 5ebf
00000010: 46f8 31be f416 a2bf befb b6bd 5893 12c0
00000020: 8065 1abf 608d 933e eba5 b0bf 5046 f8be
00000030: 994f d53e abb5 993f 4c55 1b3f 4555 76bf
00000040: 61fe d63e 97d1 c6bf 57f7 b8bf 9217 2ebf
00000050: 6979 ecbe 224e 39c0 ea2f 463f 7ad1 5bc0
00000060: cbad 38bf 2b13 62bf 69aa 7bbf 1292 b1bf
00000070: 549c 6ebf 93c0 bdbf 49ef 10bf 63ca 8fbf
00000080: a152 67bf da4f 8a3f 7955 6cbf 6d6e 273f
00000090: 4807 84bd c253 52bf 484a 1f40 e33a 10c0
000000a0: ddf0 79bf 597f a6bf 5201 0540 b4e0 23bf
000000b0: b4f2 3fc0 fdcf 813e 5180 13c0 90be 66bf
000000c0: b07b a9bf 40ef 4cbf b1d1 a1bf acb4 c1bf
000000d0: b9db 74bf e894 76c0 ee44 753f ded6 12be
000000e0: 296c 78bf 4e76 51bf 040c 5dbd 4fbb 12c0
000000f0: 72a8 acbd 1919 e6bf 576a 8cbf db43 abbf
00000100: 5d0e 48bf 1976 d0be 0037 babf 368c 603d
00000110: 0326 eebf 9b88 abbf 9e39 afbe 447d b5bd
00000120: fa3c debe 690e 59be e05c 6c3e b4e9 413f
00000130: aaf1 60bf a852 7a3f 9588 a3bf 0349 0dbf
00000140: df06 44c0 b618 bdbe 8edc b33f 3564 debf
00000150: 7929 d8bf d302 2ebf 0c1a 2cbe 7c8a c33f
00000160: 8dba 0ebf 5849 72bf 3057 2ebf 5a97 07c0
00000170: af9c 103e a998 783e ce5d abbf d9fd 26bf
00000180: 173e 36bf f19f 2d40 8f7b 6b3f 90a5 98bf
00000190: ad46 24bf f110 ccbf d695 23bf 35de c9bf
000001a0: ae5c 83bf 27e6 0cbe 8c1b 883e 4a46 ccbc
000001b0: 139f aa3d 48dc 5ebf 45cf 97bf fde0 03c0
000001c0: ff72 393f 033f 6dbe f847 8cbf 96aa 6ebf
000001d0: 1d4d 803e 3bfd 803f 2740 b8be b4dd 35bf
000001e0: 9eca 97bf c089 a1bf f6c4 25bf a56b 463f
000001f0: 5b8d a9bf 5b7c 2bc0 4fd6 56bf f224 3fbf
00000200: d98a 97bd 0fab b53e 8cd1 bc3e 3448 d43d
00000210: 9bea 9c3e d3bf a53c 9341 83bd d0b7 04be
00000220: 1817 2b3e 85e5 fe3c b49a ad3e 21a9 ebbd
00000230: 0281 6bbe 38f7 e33e f1fd 20be 755a 62bd
00000240: 84bc 1dbe 83ed cc3e 4197 e5b9 9ab5 793d
00000250: 7d13 42be d557 21be 2233 7cbe 566c 803d
00000260: 9211 0739 575d 6ebb 9b3a 38be 322b 44be
00000270: 2d26 043d cc12 ebbe 4448 95bc 9f8b 8bbd
00000280: 01ca 1dbc 8667 86be 9548 9a3f dbef b83e
00000290: 06ee 703d 5b73 473d 34d4 cc3b 31fd 013f
000002a0: 4327 c8bb 2f37 6d3d e0fb 55bd db92 863e
000002b0: 37c7 1d3f 2d58 01bf 3046 75be be4a a33c
000002c0: f45f c23e 16de dd3e d850 2b3e 0158 91be
000002d0: 17c8 b93b 0d8f d7bd ec3c a13e f45f 3fbf
000002e0: 3643 3a3d c3df 813c 4d03 25bd a561 95be
000002f0: 34ba 0c3f 1475 123f 1df8 103d 67c1 9bbd
00000300: 70a6 20be 4395 e23f d213 ae3f 74ff 38bf
00000310: ad8c 5ebe 1631 24bf f584 97be f00b d5bf
00000320: fa42 51bf 1ae8 8ebf 5218 ffbe a390 a03d
00000330: 5326 c1be 846b 78be 5ece 88be 2e21 dcbe
00000340: fddb c9bf da9e f03f b7ff bfbf 20aa 7ebf
00000350: 7c55 b8bf aa0b 12c0 f30a 923f 158c b1bf
00000360: 6007 57bf a1d1 54bf 0e97 70bf e836 aabf
00000370: d937 9fbf ec65 15c0 45b4 83bf 9f40 de3c
00000380: 064e f4bb e69c c43e d23c 36bf c228 543e
00000390: 6f7b 9bbf de05 8dbd ab03 63bc 1367 b3bf
000003a0: 52ab debe 57ff babe 665c d6be e10b fabd
000003b0: 4a7f 07bf e9c1 79bd dd7b 403e c888 ecbe
000003c0: 0c9b dcbd f3c7 f3be 6c4e 5dbe 62cd 9dbe
000003d0: c83d a23e aab5 3fbf 6f5a 42bf 831e 193f
000003e0: eb93 223d 882c 2cbf 5567 273d fde5 b03e
000003f0: b20a 5ebe 2d67 a8bd 60e4 d9be a062 acbe
-0.9028214 1.6785252 -0.5052301 -0.8677871 -0.17379865 -1.2663255 -0.08934735 -2.2902431
-0.60311127 0.28818798 -1.3800634 -0.48491144 0.4166229 1.2008566 0.6067703 -0.9622386
0.4199095 -1.5532712 -1.4450482 -0.68004715 -0.4618638 -2.8953938 0.7741686 -3.4346604
-0.7214019 -0.883105 -0.983069 -1.3872702 -0.9320729 -1.4824394 -0.5661512 -1.1233639
-0.90360457 1.0805619 -0.9231792 0.6540287 -0.06446701 -0.82159054 2.4889088 -2.2535942
-0.97633153 -1.3007613 2.0782056 -0.64014745 -2.9991884 0.25353995 -2.3047068 -0.90134525
-1.3240871 -0.80052567 -1.2642118 -1.5133262 -0.9564777 -3.8528385 0.95808303 -0.14339778
-0.9704004 -0.81821144 -0.053966537 -2.2926824 -0.08430566 -1.7976409 -1.0969952 -1.3380083
-0.78146917 -0.407151 -1.4548035 0.054821216 -1.860535 -1.3401064 -0.34223646 -0.08861783
-0.43405896 -0.21196903 0.23082304 0.7574723 -0.8786875 0.97782373 -1.2776057 -0.5518953
-3.0629194 -0.36932915 1.4051683 -1.7374331 -1.6887656 -0.6797306 -0.16806811 1.5276637
-0.55753404 -0.94643164 -0.6810179 -2.1186128 0.1412227 0.24276985 -1.3388002 -0.6523109
-0.7118849 2.712887 0.9198541 -1.1925526 -0.6417034 -1.594267 -0.63900506 -1.5770937
-1.0262659 -0.13759671 0.26583517 -0.02493586 0.08331122 -0.8705487 -1.1860129 -2.0606072
0.72441095 -0.23168568 -1.0959463 -0.93229043 0.25058833 1.007728 -0.35986444 -0.7104142
-1.1858709 -1.2620163 -0.64753664 0.77508 -1.3246263 -2.679465 -0.8392076 -0.7466575
-0.0739953 0.3548207 0.36878622 0.10365334 0.3064774 0.02023307 -0.06408992 -0.12960744
0.16708028 0.031115303 0.33907092 -0.11506868 -0.22998431 0.4452455 -0.15721871 -0.055262048
-0.15403944 0.40024957 -0.00043790977 0.060964204 -0.18952747 -0.15756162 -0.2462888 0.062706634
0.00012881149 -0.0036371553 -0.17991106 -0.19157103 0.03226297 -0.45912778 -0.018222935 -0.0681374
-0.009630681 -0.26250857 1.20534 0.36120495 0.058820747 0.048693996 0.0062508825 0.50776964
-0.006108196 0.057913955 -0.05224216 0.26283917 0.616321 -0.5052517 -0.23952556 0.0199331
0.3796383 0.433335 0.16730058 -0.28387454 0.0056696045 -0.10525332 0.31491792 -0.7475579
0.045474254 0.015853768 -0.04028635 -0.2917606 0.54971623 0.572099 0.03539287 -0.07605248
-0.15688491 1.7701801 1.3599799 -0.7226479 -0.21733351 -0.641374 -0.29593626 -1.6644268
-0.81742823 -1.1164582 -0.49823242 0.07840087 -0.37724552 -0.24259764 -0.26719946 -0.42994064
-1.577026 1.8798478 -1.4999913 -0.9947834 -1.4401088 -2.281962 1.1409591 -1.3870875
-0.8399563 -0.8313237 -0.9398049 -1.3298006 -1.2438918 -2.3343458 -1.0289389 0.027130423
-0.00745559 0.38400954 -0.71186554 0.20718673 -1.2147044 -0.06885885 -0.013855855 -1.4015831
-0.43490082 -0.36522934 -0.4186737 -0.12209297 -0.529286 -0.060975943 0.1879725 -0.46198106
-0.1077176 -0.47613487 -0.21611947 -0.30820757 0.3168776 -0.7488657 -0.7591924 0.5981218
0.039691847 -0.6725545 0.04087003 0.34550467 -0.21683767 -0.08222804 -0.4255705 -0.33668995
