experiments/grail_fb_v4_ind/best_graph_classifier.pth (torch, 174188 bytes, 21 tensors)

weight f4 [200, 32]
00000000: b9cf 203f 5f96 2bbf af3e 34bf 4198 c0bb
00000010: 0267 2dbe 8080 c8be 234b 473e a80d 67be
00000020: c490 323e 2f92 913d 2db2 9cbd 958b 50bf
00000030: efc0 0d3f f6c5 a53e 3355 fabe 7af6 45bf
00000040: 5fdf f63e bbe9 ee3e 3479 adbe 95c4 39bf
00000050: 0f68 4d3f ed8e da3d 218c aa3e b82d 863e
00000060: e382 013f e270 cd3c 1ea2 8f3e f749 eb3e
00000070: a9b6 383e f65c 943e 4e44 b83d a70b 903e
00000080: 7ce3 4d3f ab7b 12bf 9224 c63f d721 8dbf
00000090: 1b43 94bf def5 383f 2ec3 b3bf 847a 2dbf
000000a0: 18f0 793f 1e5a 883f 6fd5 c7be bdc8 86be
000000b0: f680 7bbd aa7c 70bf c6a7 a83e 38f6 a6bd
000000c0: 6e1e b13e ff48 81bf 1998 9fbf adb2 8ebf
000000d0: b11f c9be bfc4 8d3f 4d8d 313f ffde acbf
000000e0: 9a8d 813e 388d 21be 2c11 993f 71b8 fdbe
000000f0: 8cac 223e e560 03be 00c4 62be 1dfa e63d
00000100: 00cd c13e c130 7a3e eb6b 6c3f a543 b1be
00000110: 08db 1bc0 fe0b 9ebd 06bf 43bf 0287 3ebf
00000120: eade 88be 33b4 323e e150 cbbe 2d29 8fbe
00000130: 9a8d 7bbf 8cf5 a4bf 3eb0 96bf ded6 8e3e
00000140: 60a8 b7be e6c0 57bf f910 c13e 37f5 323d
00000150: 7ba2 01bf 41bf 163f 84d1 293e 3c51 f13e
00000160: 0962 f73e a221 3c3e 781d 9bbe 1968 07bf
00000170: 5dde a83e a02f 8bbd 0de9 3d3f 76e5 ab3b
00000180: c528 073f 9915 6b3f 1833 a63f d179 4ebf
00000190: 6210 08c0 8f7e 3c3f a61b 4dbe 2fb7 c0bf
000001a0: 8619 cabe 5b62 653e 2624 bfbe d2fa cf3e
000001b0: 892d 8e3c cf17 67bf d17b 72bf d8fd 073f
000001c0: 71d7 593e 43aa 5dbf 5c24 d3be 1550 d33d
000001d0: fcbb 21bf 6c80 bfbd 2682 c7be 70d4 a73e
000001e0: 43f9 f73d 8cf0 393f bf39 01be 3557 83bf
000001f0: e6d7 9f3e d419 223d 11b3 423e 9b43 183e
00000200: c4d2 abbe 069e 66be 8508 233f a4ec bdbe
00000210: 832e 17bf c52c 8cbf ff88 80bf 24e0 e3be
00000220: f7e6 06be e83d 8e3e 5549 4f3e 1b9f 9e3c
00000230: 8d29 e63e 88ee a1be fe15 97bd e090 593e
00000240: 1d00 2d3e 1c45 1bbf 5d68 b9be 5783 b7be
00000250: 56ec 483f 2eac e3be c9a6 8d3e 80cd c7be
00000260: ff16 94be 11d8 31bf 0a56 c03e 86d1 43be
00000270: 7df1 e4be 356c 1abe 0112 cf3e 0958 9abd
00000280: c3a7 8abe 2e68 99be 2c7e 92be 6018 45be
00000290: b70b f83e 2e38 7c3e cdf7 f3bc dc63 b03e
000002a0: 3e81 243f 67ac 273f a3b0 8f3e aaa9 2cbd
000002b0: 546a 29be ae51 0e3e 3d33 213f 8cac b0bd
000002c0: 5057 f3bc a835 723e 5b03 2dbe 83f1 c93d
000002d0: 1d67 603c 29ee 243e c920 493f bc2b 81bf
000002e0: 7b49 e43e 8e27 ffbe a7cc 103f 15a9 f73e
000002f0: e695 c9bd f7c2 d1be 4664 be3d 1a27 f8be
00000300: 45ce a8be f7a6 6c3f 4b20 4c3f f58f 003e
00000310: f878 f5bf c723 c93d ced2 e53e 57cb 12c0
00000320: 6316 cb3e 5830 97be 9a28 d13e 27d8 183f
00000330: a275 933f 9ce7 733d 73da 48bf da7b 27be
00000340: 73ea 073f 7b2f 52bf 0fd0 d3bd ba35 59bf
00000350: 7380 2cbf 1d63 babd 9e45 19be a434 ea3d
00000360: 6b7d 343f 0718 673f 8838 ea3e 53e6 a6bf
00000370: 117d 1ebe 8c95 e83e 498e 9cbd 0779 0e3f
00000380: 1d9a a9bc 7b3d f93d bb43 383f 9a48 0dbf
00000390: 796e 5c3e 8219 363f bf75 f2bd 359f 143f
000003a0: cdc7 333d db4d 9dbe b2d1 b5be 10e6 b5bd
000003b0: 494c 48bf e97b b9be eb59 483f 4941 b53e
000003c0: 7818 323f d54f a7be 8efc adbe 91c3 c7bd
000003d0: 5c9d a6bf 6e62 4d3f 4437 63bf 787d c1bf
000003e0: 4da0 d43d 166c 143f b11b a73f 3c90 09bf
000003f0: c2b0 ae3e f1a3 40be 47a7 41bf f2de 663d
0.6281696 -0.67026323 -0.7040815 -0.005877525 -0.16933826 -0.39160538 0.19462256 -0.22563803
0.17438036 0.071079604 -0.07651172 -0.81462985 0.5537252 0.32377595 -0.48893127 -0.7732922
0.48217294 0.46662697 -0.33881533 -0.72565585 0.80236906 0.10671792 0.33310035 0.26206756
0.5059034 0.02507824 0.28053373 0.45954868 0.1803843 0.28977174 0.08997403 0.2813389
0.8042524 -0.5721995 1.547991 -1.1025952 -1.1582979 0.72250164 -1.4043939 -0.6776507
0.9763198 1.0652502 -0.39030024 -0.26325026 -0.061402284 -0.9394022 0.329405 -0.08152431
0.34593529 -1.0100402 -1.2468292 -1.1148278 -0.3928199 1.1075667 0.6935623 -1.3505553
0.25303346 -0.15776527 1.1958365 -0.4955478 0.15886134 -0.12829931 -0.2214508 0.11278174
0.37851715 0.2443266 0.9235217 -0.3462192 -2.4352436 -0.07717131 -0.76463354 -0.74424756
-0.2673257 0.17451553 -0.39710143 -0.27961102 -0.9826294 -1.2887435 -1.1772535 0.27898306
-0.35870647 -0.84278715 0.37708262 0.043690886 -0.5063855 0.5888558 0.1658383 0.4713229
0.48316982 0.18372205 -0.3029592 -0.52893215 0.3298215 -0.06796193 0.7418373 0.0052458597
0.52796584 0.9182983 1.2984343 -0.8065463 -2.126 0.73630613 -0.20030078 -1.5055903
-0.39472598 0.22400801 -0.37332267 0.40621048 0.017355697 -0.90270704 -0.9472018 0.5312171
0.2127359 -0.86587924 -0.41238678 0.10318009 -0.63177466 -0.093506664 -0.38966483 0.32779264
0.1210809 0.7263267 -0.12619685 -1.0260988 0.31219405 0.039575413 0.19013621 0.1486954
-0.3355924 -0.22521219 0.63684875 -0.37094605 -0.59055346 -1.0951163 -1.0041808 -0.44506943
-0.13174044 0.27781606 0.20242818 0.019362977 0.44953576 -0.31627297 -0.073772416 0.21246672
0.16894574 -0.6065233 -0.36212435 -0.35842392 0.7848562 -0.444673 0.2766631 -0.39023972
-0.28923795 -0.69470316 0.37565643 -0.19122896 -0.4471549 -0.1508034 0.40443423 -0.075363226
-0.27081117 -0.29962295 -0.28611887 -0.1924758 0.48446438 0.24630806 -0.029781247 0.34451187
0.6425971 0.6549744 0.2806445 -0.04215399 -0.16544467 0.13898346 0.6296881 -0.08626661
-0.02970472 0.2365328 -0.16895811 0.09860518 0.013696459 0.16106476 0.7856565 -1.0091472
0.4458731 -0.49834865 0.56562275 0.48371187 -0.09843044 -0.4096906 0.092964694 -0.48467332
-0.3296987 0.9244227 0.79736775 0.12554915 -1.9177542 0.09821277 0.44887394 -2.2936609
0.39665517 -0.2952907 0.4085129 0.5970482 1.1520274 0.05954705 -0.7845833 -0.1635584
0.53092116 -0.821037 -0.103424184 -0.84847605 -0.673835 -0.091009356 -0.14967963 0.11435822
0.7050387 0.9027104 0.45746255 -1.3039039 -0.15477397 0.45426595 -0.07644326 0.55653423
-0.02070337 0.121699296 0.7197835 -0.55188906 0.21526517 0.7113267 -0.118388645 0.5805543
0.043891717 -0.30723462 -0.35511547 -0.088817716 -0.782414 -0.36227348 0.78262204 0.3540137
0.69568586 -0.32678095 -0.33981746 -0.09754098 -1.3016772 0.80228317 -0.88756204 -1.5116415
0.103821374 0.57977426 1.3055326 -0.5373571 0.3411923 -0.18812539 -0.7564587 0.05636496

weight f4 [4, 8, 32]
00000000: c3b3 893f f70a 0b3f c3e7 483e e6a2 f03e
00000010: 28e4 f6be 85e1 123f f297 55bf a604 6dbf
00000020: f5c9 6d3d 30ab d9bf b648 b3be 2af9 8dbd
00000030: 6306 03c0 2f77 1ac0 6d7a f83e 74a6 b2bf
00000040: 18af a4bf 2a99 abbf 9e7e 73bf 16e5 2fbf
00000050: 28e9 863d db58 41bf 924f cd3f 0d53 d4bd
00000060: 35c5 2fbf d371 5bbd f893 00bf ccc8 24bf
00000070: 66ef 0abf f624 0abf 5181 9f3e 6bd2 043f
00000080: f718 db3e 3816 dfbe 351d b63d e072 29c0
00000090: 4b05 8d3f 2a40 6fbf 86be c9be a77e fcbd
000000a0: 29f8 833f 607b 9abf b420 34bf 6ede c3be
000000b0: afd0 0ec0 dd66 c8bf cb1b 83bf 78d4 72c0
000000c0: 6436 013f aa65 b4be 5050 64be 6219 85bf
000000d0: 7f9d 02c0 ccf1 65bf 2861 953f a752 a23f
000000e0: e9e3 8ebe 64ec 1b3e 04d8 80bf ebb8 d7bf
000000f0: 1043 9b3f e62d 30bf 5922 5bc0 c477 413e
00000100: d364 18c0 84ec 48bf 75e2 81bf e9da 2cc0
00000110: da4c 49bf 21f7 903e f140 09bf a1b4 e63e
00000120: aba6 cdbf 356f 223f 8e0a db3e beb1 3dbf
00000130: 3e19 b8be 932f b0bf a523 bbbe 8298 3dbf
00000140: f88b 653f 7568 043e a465 923d 31bb 09bf
00000150: 6811 0040 9cb6 81bf 0b3f 18bf 6005 443e
00000160: 285b ae3c 6ba5 623f f2a5 d1bf 6e36 75bf
00000170: 1be0 d53e 84c3 393f 3bea 7e3f 3971 a9be
00000180: 361e eebd c647 47be 9103 41bf a350 503f
00000190: b66f 773f dd23 93bf 62ae 5e3e be4f f2bd
000001a0: 0ba8 97bf d1fd bbbd 30a0 ddbe d66e 7dbe
000001b0: 0598 ee3d 1ce7 a5be 8cba bbbe 23ff fe3d
000001c0: 6b27 cbbf acdc 81bd 84a8 7abe bff9 aa3f
000001d0: 1b6c 07c0 cd66 5fbe 5ba8 30bf 7bc0 6fbf
000001e0: ae09 10be dc5f 2ebf 2770 0cc0 29f8 95bf
000001f0: 33ab 42bf d8dc 1a3e c35c 76c0 09b7 46c0
00000200: 849f af3f c293 3cbd e6cc c5bd af97 473d
00000210: 80f7 eb3f a1c9 a73e 50a2 86bd 3609 1840
00000220: bc7a 1dbd 4e4d 873d d008 293f 1b66 593d
00000230: 93fd 513e a8c1 223d 5cdc 01bd bfeb cbbe
00000240: 47b3 923e 53a7 b43e 9a3c 0ebe c1c4 d43f
00000250: 043a 013e 7780 a13e 9254 80bd cc7f 5f40
00000260: cb03 06be c5bb 1b3f a2f3 1abf 2038 6b3d
00000270: 940f ab40 00e3 443e c2de bf3f 648e 08c0
00000280: 145e 713f 07e9 26bf 1eef a7bf 95ef bebf
00000290: cfdf e4be cd3b 8ebf f41a 153d 773d 403e
000002a0: 3a55 39be 5947 dbbf d1b3 63bf d42e efbe
000002b0: 8855 62c0 7b2b 1dc0 a297 ff3d c5ff ccbf
000002c0: 3b01 d9bf 28ff 83be 4bf7 84bf 515c 85bf
000002d0: ff04 8bbf 2ce2 9a3e c702 2a3f a8c9 20bf
000002e0: 33b1 5cbf c760 813e 374c 3abf 9a28 0dc0
000002f0: 95be 0bbf 2463 0fbf 00f2 babf 18eb 6fbc
00000300: f144 93bf 9bf0 b0be ec86 be3e 615f 92bf
00000310: 2829 8c3f c762 b4be eb10 9dbf 010f 7fbf
00000320: 21b0 8c3e c0bf a0be ba13 b5be 0093 30bf
00000330: 22c4 28c0 a5cb acbf 8987 a8bf f6f5 21c0
00000340: 4ae1 ac3f 365f ddbf 6244 6cbe 7551 4ec0
00000350: 5dc0 843f 542b 87c0 bc7a eb3e 0b07 bbbf
00000360: e49e 5c3f c6ab 583e 3c76 0dc0 e47f 6bbf
00000370: e950 d0bf 6a59 9fbe 761d 23c0 07f3 a2bf
00000380: 8ed0 2ac0 3eb5 44bc f0cb d8bf e55b 9ebf
00000390: a7b3 b1bf dd14 78bf eb37 13bf 4020 45bf
000003a0: 3b8f b6bf b7cf 78bf c80b 0bbd 4852 abbf
000003b0: 56f0 693f 665d b7bf c2b9 f2be b89d aabf
000003c0: 78a3 74bf 591b 0abe fc28 38bf 5971 b83e
000003d0: d966 09c0 4eb0 c9be 8a17 83be 237d 79bd
000003e0: 6b75 f1bf b9fc 1dbc b45e 5bbf 7e01 aabf
000003f0: 2c6e 25bf 1c69 8bbe 2ab6 a23e 9fec fcbf
1.0757984 0.54313606 0.1961966 0.46999282 -0.48220944 0.57375365 -0.83434975 -0.9258522
0.05805393 -1.7005367 -0.35016412 -0.0693229 -2.0472648 -2.4135244 0.48530903 -1.3957047
-1.2865934 -1.3406117 -0.9511508 -0.6870893 0.0658744 -0.7552621 1.6039908 -0.10367403
-0.6866029 -0.053575348 -0.5022578 -0.6436889 -0.54271543 -0.5396265 0.31153348 0.5188357
0.42792484 -0.4357164 0.088922895 -2.6476364 1.101724 -0.9345728 -0.3940317 -0.123288445
1.0310107 -1.2068901 -0.703624 -0.38255638 -2.231487 -1.5656391 -1.0242857 -3.794218
0.5047362 -0.35233814 -0.22296262 -1.0398371 -2.0408628 -0.8982208 1.1670275 1.2681473
-0.27908257 0.15226895 -1.0065923 -1.6853307 1.2129841 -0.68820035 -3.4239714 0.18893343
-2.3811538 -0.78485894 -1.0147234 -2.7008612 -0.7863289 0.28313544 -0.5361472 0.45059684
-1.6066488 0.6345094 0.4278149 -0.7409934 -0.35956758 -1.3764518 -0.36550632 -0.74060833
0.896667 0.12930472 0.07148293 -0.53801256 2.0010624 -1.0133853 -0.59471196 0.19142675
0.021283701 0.8853366 -1.6378767 -0.9578618 0.4177254 0.7256396 0.9957616 -0.33094195
-0.11626856 -0.19460973 -0.75396067 0.8137304 0.9665483 -1.149532 0.2174621 -0.11831616
-1.1848158 -0.09179271 -0.43286276 -0.24749312 0.11650089 -0.32402885 -0.3666576 0.12451007
-1.5871404 -0.06340918 -0.24478346 1.3357466 -2.1159732 -0.21816559 -0.6900689 -0.93653077
-0.14066193 -0.6811502 -2.1943452 -1.1716357 -0.7604248 0.15123308 -3.8494117 -3.1049216
1.3720555 -0.04603935 -0.09658222 0.04872864 1.8434906 0.32771018 -0.065739274 2.3755622
-0.038447127 0.066065416 0.6602907 0.05307589 0.20506887 0.039735466 -0.03170429 -0.39828297
0.28652403 0.35283908 -0.13890305 1.6622545 0.12619787 0.31543323 -0.062661305 3.492175
-0.13087384 0.6083339 -0.60528004 0.05742657 5.3456516 0.19227219 1.4989855 -2.1336908
0.94284177 -0.6519932 -1.3119848 -1.4916865 -0.44702002 -1.1112 0.036402658 0.18773447
-0.18098918 -1.7131149 -0.88946253 -0.46715415 -3.5364704 -2.4557788 0.124800935 -1.6015555
-1.69535 -0.25780606 -1.0387968 -1.0418798 -1.08609 0.3025068 0.6641049 -0.62807703
-0.86207885 0.25269148 -0.72772545 -2.2056031 -0.5458768 -0.5601065 -1.4605103 -0.014643453
-1.1505414 -0.34558567 0.37212312 -1.1435357 1.095006 -0.3523161 -1.2270788 -0.9963227
0.27478126 -0.31396294 -0.35366613 -0.68974304 -2.636971 -1.3499647 -1.3166362 -2.5306373
1.3506253 -1.7294681 -0.23072961 -3.2237217 1.0371205 -4.224039 0.45992076 -1.4611524
0.8617995 0.21159276 -2.2103415 -0.9199202 -1.6274692 -0.31122905 -2.5486732 -1.2730416
-2.6689792 -0.012006102 -1.6937237 -1.2371794 -1.388295 -0.96906835 -0.575072 -0.77002335
-1.426246 -0.9719195 -0.033946782 -1.3384485 0.9138235 -1.4325378 -0.47407347 -1.3329382
-0.95561934 -0.13486995 -0.7193754 0.36023977 -2.1469023 -0.39392322 -0.25603896 -0.060910355
-1.8863958 -0.009642773 -0.8569138 -1.3281705 -0.64621234 -0.2722863 0.31779605 -1.9759711

w_comp f4 [200, 4]
00000000: 6468 1b3e 63f3 893e d8e4 243f 536d 0c3e
00000010: e65f 743f 0cdf ec3e 9772 973f aa19 7d3f
00000020: 4e87 88be 13f0 99bd 2125 fa3f 5b2a b33f
00000030: b9b6 d13f 26f2 0240 5085 16bf 2596 14c0
00000040: 5d6b d43f 3dae 16bf 1c01 cbbe 544c 0bbf
00000050: fd69 63bf e16b b23e 5c26 1540 0c2d aa3f
00000060: 40cc 3abd 2c19 43bf 9ff8 eb3f 4791 ce3f
00000070: 57f6 8f3f e520 0e3d 78ad 28bc a0ae 42bf
00000080: 14b3 3c3f 3afd ecbe eb9d acbe 25a5 dbbf
00000090: 2deb bb3f f29a b2bf 466d 463f 5d4d 18bf
000000a0: 4e79 fdbf e486 363f 0a22 76bd fdbf b6bf
000000b0: e7bd 4d3c 76a9 7abf a9c5 c5be 0498 e23c
000000c0: 0a39 b03e 6afa 8a40 85a1 b93f 29bd 433f
000000d0: 28c9 893f fa19 0440 b3fe 683f 2f60 eebf
000000e0: d2f7 15bf 37f5 89bf d7d6 b63f 10f9 e8bf
000000f0: 0ca6 803f 2454 ca3f a1f4 b63f 1646 20c0
00000100: 008d 2b40 d8a5 923f 70e4 21be 79d0 e5be
00000110: 5f27 f3be 29ea cfbf 65c3 08be 6fb7 043e
00000120: 178d 9a3d 81f8 9abf f917 11be fb5e aabf
00000130: f2df 03be 92a4 f93e 5e86 183f a8bd 6e3d
00000140: fde7 3f3f f857 513e cd4b 603f 703b 8cbd
00000150: 0ee4 5540 3830 c5bf c110 2d3f 829d c83d
00000160: 4841 1bbf 2535 563f c87e 04bf 0197 4bbf
00000170: 04a7 363f 6dc6 30c0 fb68 66be 301a 91bf
00000180: 3a05 0540 c3e4 15bc 8313 bc3e 1f0a 28bf
00000190: fa51 3940 0c79 05c0 05cc a33f 6280 9f3d
000001a0: 1ccf 403f fe41 343e f20c 923d 1731 a03e
000001b0: 1c7b 823e 5722 04bf 8b9b 2b40 e83e a7bf
000001c0: 0d1c 8bbe 9ef4 7ebf ad04 32bf 1a82 3bbf
000001d0: 887b 9d3f d21c 48bf 3de2 fbbc 2c66 08c0
000001e0: a14b cf3d 42da 973f 7959 843f bf36 23bf
000001f0: 7d55 4740 6a69 c3bf 8603 123f b1da c63d
00000200: 4160 583f 042b 5440 f9ed e13f 5390 313d
00000210: 7022 0940 129f de3f 59cd 0dbf 8db5 21be
00000220: 8654 0e40 68d2 2bc0 b1ba 1d3e 51bf b03f
00000230: 66c8 8ebf 6447 88bf 27fb 3d40 598c 5fbf
00000240: 5391 473e 9fe5 ccbf ffc2 38bf 6379 d8bf
00000250: ca8e d13f 6cfb dcbe fcfe 7c3f 7d1f aebf
00000260: 7daf 363f 4de1 ebbf 9d97 d43e 14c8 babe
00000270: 74e5 b7bd a568 f73e 12b1 563f d3fc 083f
00000280: 89c0 e23e 4557 44c0 5c9e 9f3f 7e7c 26bf
00000290: b64d 373f ef92 75bf 7fd7 4d3f 145d cbbe
000002a0: 354d df3e 1ef8 f73d e57b 263d ac77 10bd
000002b0: 1d5f a23f a3e6 9d3f 6e2a 913e 2f06 c93f
000002c0: 1b19 9e3e a7f5 8f3f 56aa ec3e f20e 1bbe
000002d0: d27e 32bf 3f68 8ebf f9bb 8c3e a6ea 21c0
000002e0: b370 fcbd bd71 e1bf 175d 4d3f 4559 043e
000002f0: 4a62 c83e b2c5 0dc0 577b d8bf 0779 7e3e
00000300: 35d1 eb3f 0400 353f d249 21bf 8446 4c3e
00000310: a4a0 f3bd a95c 223f 5f87 523d 8f6e 88bf
00000320: 668e 503f 8a53 dbbf 7eeb abbf ec01 48c0
00000330: b552 b83f fbfc 873f bd3f 823f 1c97 9a3f
00000340: c3bc 473f 29ff 013f 51ee 293f 649e e9bf
00000350: f1ba cb3f 365f 62bf 7203 25bf 7a9b 23bf
00000360: 16a9 eb3f 3c63 9ebf 7cef 913f cb9b b8bf
00000370: cecf 633f fc4d 08bf d6e7 81bf 2b8a 26bf
00000380: e231 d63f 6414 32bf 32ae 9a3f 0ffb 963e
00000390: f0b8 543f 8bc2 08c0 8139 0cc0 3dfa 113e
000003a0: e4d3 bfbe 8f52 a1bf 804d efbf d1aa 37c0
000003b0: dbce e1bd 6bfc e7bf 1431 6abf 9698 eb3e
000003c0: b0eb 8ebe 8543 05bf 0f78 a63f 98a9 8abb
000003d0: 2227 f7bf 347b edbf 7e35 1140 940c 1d3f
000003e0: 9047 b43f e634 d4bf 71d0 89bf 9429 603b
000003f0: 963f 3640 50d9 193f 891f a03e 08b1 b8bf
0.1517654 0.26943502 0.6441169 0.13713579 0.9545883 0.4626392 1.1831845 0.98867285
-0.2666573 -0.07516494 1.9542581 1.3997301 1.6383888 2.0460296 -0.5879717 -2.321664
1.6595265 -0.58859617 -0.39649284 -0.5441334 -0.888336 0.3484793 2.3304663 1.3294997
-0.045604944 -0.76210284 1.8435248 1.6138085 1.1247052 0.03469934 -0.010295264 -0.76047707
0.7371075 -0.46286947 -0.33714232 -1.7159773 1.4681145 -1.3953536 0.7751049 -0.59493047
-1.9802644 0.71299577 -0.060091056 -1.427734 0.012557483 -0.97914827 -0.38627365 0.027660377
0.34418517 4.343068 1.4502417 0.7646051 1.0764513 2.0640855 0.9101364 -1.8623103
-0.5858127 -1.0777959 1.4284314 -1.8201008 1.0050673 1.5806928 1.4293405 -2.5042777
2.680481 1.1456861 -0.15809798 -0.44885615 -0.47490975 -1.6243335 -0.13355787 0.129606
0.07546442 -1.2107087 -0.14169301 -1.3310236 -0.12878397 0.4875837 0.5958003 0.05828634
0.7496336 0.20443714 0.8761566 -0.06847274 3.3420444 -1.540534 0.6760369 0.09795667
-0.60646486 0.8367484 -0.5175595 -0.7952729 0.71348596 -2.762111 -0.22500984 -1.1336117
2.078444 -0.009148779 0.36733636 -0.65640444 2.8956285 -2.085513 1.2796637 0.07788159
0.75316024 0.17603299 0.07131375 0.31287453 0.2548455 -0.516149 2.6813686 -1.3066072
-0.2716984 -0.99592006 -0.69538385 -0.73245394 1.2303324 -0.78168976 -0.030747527 -2.131236
0.10121847 1.1863482 1.0339805 -0.6375541 3.1145928 -1.5266545 0.57036626 0.09709681
0.8452187 3.3151255 1.7650748 0.04335053 2.142727 1.7392294 -0.5539146 -0.15791912
2.223909 -2.6847172 0.15403248 1.3808385 -1.1154907 -1.0646787 2.9684541 -0.8732353
0.1948903 -1.6007575 -0.7217254 -1.6912044 1.6371701 -0.4316057 0.98826575 -1.360336
0.71361524 -1.8428131 0.41521922 -0.36480772 -0.089793116 0.48322025 0.8386394 0.5351078
0.44287518 -3.0678265 1.2470202 -0.6503371 0.7160295 -0.9592733 0.80406946 -0.3971945
0.43613592 0.121078715 0.0406455 -0.035270378 1.2685276 1.233601 0.28352684 1.5705012
0.3087853 1.1246842 0.46223706 -0.1514242 -0.6972476 -1.1125563 0.27487162 -2.5299468
-0.12326183 -1.7612835 0.8022017 0.12924679 0.3913749 -2.2151914 -1.691264 0.24850856
1.842322 0.7070315 -0.63003266 0.19948775 -0.11895874 0.6342264 0.05139863 -1.065874
0.8146728 -1.7134869 -1.3431242 -3.1251173 1.440024 1.0624079 1.0175701 1.2077365
0.780224 0.5077997 0.66379267 -1.8251462 1.5916425 -0.8842653 -0.6445838 -0.63909113
1.8410976 -1.2374034 1.140121 -1.4422544 0.8898896 -0.53243995 -1.0148876 -0.6505458
1.6733973 -0.69562364 1.208441 0.29488418 0.8309469 -2.136874 -2.1910098 0.14255615
-0.37466347 -1.260332 -1.8695526 -2.8698008 -0.11025783 -1.8123907 -0.9148114 0.4601485
-0.2791419 -0.5205615 1.3005389 -0.004231643 -1.9308817 -1.8553224 2.26889 0.6134732
1.4084339 -1.6578643 -1.0766736 0.003420447 2.847631 0.6009722 0.3127406 -1.4429026

self_loop_weight f4 [8, 32]
00000000: 2782 8ebe 4fd4 5a3d acdc 2cbe c0cd 36be
00000010: 16a1 c3be a062 153e c7f9 27be 8a11 5c3f
00000020: bf3b 193e 9198 84bf 5bd6 19be 0d3f 3bbf
00000030: 2b88 cfbd f880 57bf c6ef e6bd 71ad 993f
00000040: b680 6ebf 6415 5cbd 1312 4a3e 9824 adbe
00000050: c39c 88bf 34ed f1bc f071 01c0 42bb 5b3f
00000060: 2e6c 9b3d 8ea5 02bf e3bd a33e 3a63 43bf
00000070: 91fd 553f 0dd6 31bf 12f4 66bd ea48 07bd
00000080: 2c24 163f fdc9 33bf 6f7f 46bf c64e 0b3f
00000090: 1a5c f83e c8f2 6ebf 6c3d 143f e823 c7bf
000000a0: 7348 1bbe 3e47 8fbe 3c15 b5bf dc3e 9abf
000000b0: b671 e2bd 0d32 8dbe 1ef7 25bf 07ae b7be
000000c0: e871 93bd 6fd2 88bf 3929 bbbe 0d70 20bf
000000d0: 1c8d a43c f9ff 9a3d 219c 3bc0 9d75 31c0
000000e0: b1d5 fabf a214 ecbe df3d ddbd 58f1 99bd
000000f0: 4b87 57c0 4d33 42bf d017 8cbf a9d8 33be
00000100: 7fbf 75bf 382b 70be 9d10 75bf 39f2 17c0
00000110: 9fbc 3abf 59ee 0ec0 c4ef d6be f358 debe
00000120: daea d2bf ff20 96bf 9c20 68bf 965c 2dbf
00000130: 5d2e 7bbe ac4b ed3e c254 c03c 4ef9 38be
00000140: 9e4a 2cc0 902a 73be 5581 5cbf cb08 1c3f
00000150: c611 4dbf f744 a9be 6806 a03e d46e 103f
00000160: c102 dcbc f506 38bf 7b57 93bc 8cb8 e6bf
00000170: 349f a9be 9b27 fc3e 4f40 d63d 1d9d 13c0
00000180: 2a49 29bf 1bee f13d a3c8 cdbe 0efc 64bf
00000190: 3218 113f dbbe 3b3f b058 db3d 6ddd b0be
000001a0: b146 243e 3926 b63d d8cd 08bf bf64 8abe
000001b0: 8bb3 dcbe 0012 5f3f e103 dbbd 139f 87bf
000001c0: 6cc3 b13f 9e41 b2bf 6850 55bf 4ed4 06bf
000001d0: a2ba 23bf 94e9 333e e618 dbbf f0f3 3ebf
000001e0: 4081 053f cd8d 92bf 7703 963f 3042 c8be
000001f0: 203a 54bf 6575 ecbc cef1 80be b698 c0be
00000200: a0b4 87bf 84e8 bdbe af92 9d3e 9e05 dabf
00000210: fae2 9b3f 6adb 2d3f 7df9 3940 2508 a8be
00000220: c015 d03f 9146 36be 55b6 83bf 87ae 2bbf
00000230: 41d9 d43e 7732 803f 4b5d df3e b6db 483f
00000240: 1084 d23f 8e5a 2d3f 7429 3a3f 6c9e 0240
00000250: 8fc4 73bf 25d3 0540 c407 a8bf 3882 5abe
00000260: e842 19bf 1a61 f4be d1c8 d13f 96eb d03e
00000270: 0970 59bf a269 9fbe e903 2cc0 0392 a0bf
00000280: 62de e4bd 0bfa 6cbf 0d10 c9bf b68f 3c3f
00000290: 2067 bebf 6b2a bfbf 1592 e4bf 336c 2cbf
000002a0: 0e56 02c0 594f 8dbf ff56 d7bf 9ce2 f0bf
000002b0: f2e5 37bf 3e14 b7be 1e09 69bf c851 853e
000002c0: 6fd4 5ebd 89ee 32bf 4264 5bbf f2b5 e0bf
000002d0: 6642 c1be 1cd8 b7bf ff0f 14be f5be e4be
000002e0: 33b0 eebf c8f3 99bf 5d4e 93bf 18fc aebf
000002f0: e4de 9ebe 79b2 08c0 53d9 513f b7d3 823f
00000300: 131e 4f3f acc0 9cbe f6a8 b73e 9f61 373f
00000310: 1d9b 04bf 0aee 4f3e 7ac9 cfbf fde5 2f3e
00000320: e85c 9ebf f493 67bf 7711 023e 9a20 87bf
00000330: 6cf6 6bbf ee0f b7bf bc1f d23d 2039 90bf
00000340: adb2 05c0 9d16 bcbc f78d d9be 0cd4 7e3e
00000350: dadb 01c0 82ae 7abf 7b66 1cbf ed94 563d
00000360: 3012 a1bf c5eb 4e3e 04cc d6bd 332c e8be
00000370: 4677 5dbf c196 07bf 3d21 39be 6906 05bf
00000380: 3465 783e 81d6 86be 2fe5 81bf c08e 89bf
00000390: 9675 193f e2cd 8abf f08a 36bf c25f acbd
000003a0: fa80 b4bf ac58 99be cbd2 76bf 0dab 533e
000003b0: 5d94 a8be f045 89bf f5d0 26bf 7716 a7be
000003c0: 3d13 3fbe 0724 05be a9be d6be a23c c4bf
000003d0: 4d6e 213e d480 2dbf a212 0bc0 3b2f 8dbe
000003e0: 5b47 af3f fd1c 333f 439c 5bbe 05d1 55bf
000003f0: fbca 5bbe e30a c83d 19a9 acbe ffe0 6dbe
-0.27833673 0.05342513 -0.16881055 -0.17851925 -0.38208836 0.14588404 -0.16403876 0.8596426
0.14964198 -1.035906 -0.15023176 -0.7314308 -0.10133394 -0.84181166 -0.11276202 1.2006055
-0.9316515 -0.053731337 0.19733457 -0.3381698 -1.067284 -0.029532053 -2.0225792 0.8583261
0.07588993 -0.51033866 0.3198081 -0.7632328 0.83590037 -0.6946724 -0.056385107 -0.03302852
0.58648944 -0.70230085 -0.775382 0.54417074 0.48507768 -0.93339205 0.5790622 -1.5557833
-0.15164356 -0.2798404 -1.4147105 -1.2050433 -0.11056845 -0.27577248 -0.64830196 -0.3587496
-0.0719946 -1.0689219 -0.36554888 -0.62670976 0.020086817 0.07568354 -2.9314044 -2.7728035
-1.9596463 -0.46109492 -0.108028166 -0.07516736 -3.3676326 -0.7585953 -1.0944767 -0.17563118
-0.95995325 -0.23453987 -0.95728475 -2.374159 -0.7294406 -2.2332976 -0.41979802 -0.43427238
-1.6477921 -1.172882 -0.9067476 -0.677194 -0.24529405 0.46346796 0.023477916 -0.18063852
-2.6920543 -0.23746705 -0.86134845 0.60950917 -0.80105245 -0.33060429 0.31254888 0.5641911
-0.026856782 -0.71885616 -0.01798605 -1.8025069 -0.33129275 0.49248967 0.10461485 -2.3064644
-0.66127264 0.11812993 -0.40192136 -0.89447105 0.56677544 0.733381 0.10710275 -0.34543934
0.16042592 0.08894009 -0.5343909 -0.27029988 -0.4310573 0.8713684 -0.10694099 -1.0595421
1.3887763 -1.3926275 -0.83325815 -0.526677 -0.63956654 0.17569572 -1.7116973 -0.7459097
0.52150345 -1.1449524 1.1719807 -0.39112997 -0.8290119 -0.028864572 -0.25184482 -0.3761651
-1.0601997 -0.37091458 0.30775973 -1.7032964 1.2178643 0.67912924 2.9058526 -0.32818714
1.6256638 -0.17800356 -1.0290018 -0.6706318 0.41572002 1.0015401 0.43625864 0.7846025
1.6446552 0.677163 0.727195 2.0409193 -0.952218 2.0910122 -1.312737 -0.21338737
-0.59867716 -0.47730333 1.6389409 0.40804738 -0.8493658 -0.3113528 -2.6877387 -1.2544559
-0.11175229 -0.92569035 -1.5708023 0.73656785 -1.4875221 -1.493482 -1.7857081 -0.673526
-2.0365024 -1.103984 -1.6823424 -1.8819156 -0.71835244 -0.3575763 -0.91029537 0.26038957
-0.05440181 -0.69895226 -0.85699856 -1.7555525 -0.3774597 -1.4362826 -0.14459227 -0.4467694
-1.8647522 -1.2027521 -1.150829 -1.3670683 -0.31029427 -2.135893 0.81972235 1.022086
0.80905265 -0.30615747 0.35871094 0.7163333 -0.51799184 0.20305648 -1.6233361 0.17177577
-1.2372103 -0.90460134 0.12701975 -1.0556824 -0.92172885 -1.4301736 0.10259959 -1.1267433
-2.0890305 -0.022960002 -0.42491123 0.24885577 -2.0290437 -0.9792253 -0.6109387 0.05238812
-1.2583675 0.20207126 -0.10488132 -0.4534622 -0.8651012 -0.5296441 -0.18079086 -0.51962906
0.24257356 -0.26335528 -1.0148066 -1.0746689 0.59945047 -1.084408 -0.7130575 -0.08416702
-1.410186 -0.29950464 -0.96415395 0.2067072 -0.32925692 -1.0724468 -0.65162593 -0.32634327
-0.18659683 -0.13002025 -0.41942337 -1.5331004 0.15764733 -0.677747 -2.1730123 -0.27575096
1.3693651 0.6996611 -0.21446328 -0.83522063 -0.2146415 0.097677015 -0.3372276 -0.2323036

weight f4 [8, 80]
00000000: aedf 8dbf e6fc 4cbf f4dd 22c0 3215 eabf
00000010: 0504 fc3e b67c f4bf 80c8 6dc0 ec32 8b3e
00000020: 47d2 4dc0 9e10 aabf 34ee c0bf ed48 cd3e
00000030: 0260 33c0 f64f 08c0 0cf9 553e bcc5 0a3e
00000040: ee46 f13e 5560 0e3d 314b 1040 fb9f 2e3e
00000050: 7995 44c0 9f71 cbbc 60fe df3d 8e7f 81bf
00000060: 224f 57be 99bc cbbd 36cc b13c cf00 6b3e
00000070: 2a8f 2b3e b807 233e d088 30bf 1336 b4bc
00000080: a1ac eebe ebac 21bf 3706 27bb d36f 763e
00000090: fbb8 35be 0607 013d ae81 bdbe cdf0 b13f
000000a0: 3524 9abe 8b6a 1d3f 9262 dcbf b828 bbbf
000000b0: 09ae 53be 884b 4a3e d7d0 b3bc 82ef 3f3e
000000c0: cb54 cebe 5f9a 33bf 4ed5 0ebf 639b 1a3e
000000d0: 648f 9e3f 9253 efbe 29fd 003e aa02 1840
000000e0: c0b4 dcbd 911f e33e b9b5 31bc 86a2 0cbf
000000f0: 32cf f5bd d566 1fbe 60d5 5d3f 50eb 38bf
00000100: d50b 74bf 0d4b 4c3f 22dc b83e ea7e 1dbe
00000110: bd58 0f40 2e71 ecbe d609 25be f50b f8bf
00000120: bca4 1f3d 7ae1 9ebf 0c62 22bf 9d7a 333f
00000130: 3f2b 083e 436a 6c3d 2df3 5dbe b658 183c
00000140: eade 03c0 c67b cbbf b2a2 a6bf 420e 34bf
00000150: a9b2 a2bf afae febf 73ee 033e 65a3 d8bf
00000160: 85fe adbf 789e 0cc0 bf6d aabf 15c4 ddbe
00000170: 7c2e cbbe 1105 32c0 23d9 f6bf 883f 073f
00000180: 37a4 0d3e bd5e 40bd 9c6c 56bf 92e5 383d
00000190: 24f8 3540 5979 c33f 88c5 893f ca8a ee3f
000001a0: 2fb9 41be e06a 5dbe 6f2d f6bd 44d3 6dbe
000001b0: 51c2 4fbf 74f2 073f ce7e 9d3f 3f15 d6be
000001c0: fcb1 8f3d 9d76 6e3f 77ab 923e d02f 313f
000001d0: 240e 8ebf 5c63 a13e 2b36 80be 82c7 87bf
000001e0: 7b5c b7bb 2b3b a1be c93d 363f 57d6 343f
000001f0: 733e cd3e 8a41 2f3e e1fe 0dbf f22e 64be
00000200: 0237 c73e 8657 1e3f 1c0c 8fbd 6c7a 363f
00000210: b923 13c0 13c5 b73d 9efe 433e 70f7 b0bf
00000220: 6c73 a5be 1035 86be 4c26 353d bb59 673e
00000230: d166 a9be 68bb 813e e3d4 c1bf ed5c 9e3e
00000240: 4672 26be 3b95 ecbe 5900 533f 53b6 fa3e
00000250: 5c35 3abf 1a18 d93e ef1c f03d 7f31 4340
00000260: 6380 2b3f 807d 203f 6698 c5bf 6198 13bf
00000270: f404 6cbe 20a3 fc3e 6f94 0d3f 4617 6d3e
00000280: fc65 d4bd 8ea1 f1be 03c5 0abe b50f a6be
00000290: 5c26 dabd d7f8 cfbe 8c1b 8bbe bff6 01bf
000002a0: 1231 d83d d259 97bf 6256 dcbe ad0b a6be
000002b0: 77a2 34bf cebe 383e d334 1ebf 715d 81be
000002c0: 47f4 163d dcb6 563d d572 c8bd 7604 b53e
000002d0: b13e 193d 78d1 443d 48ae 943d 1656 ca3c
000002e0: 84c7 bb3d 2e10 d1be 3d6c 473e b581 0e3e
000002f0: 6e2e 083d 1478 e83e 5b7d 323d 096d 05be
00000300: ccc0 ebbd 9bce 033d d81f 3e3e 9164 363b
00000310: 1165 513d 5b5e 7b3d 5bd0 bb3e d350 7b3e
00000320: 1179 2d3e 1c2a a03e 3c4a dbbe 1667 763d
00000330: 74b7 2ebf 28bb 34bd ace6 2f3e 6e53 ea3d
00000340: 7e25 ff3d a062 4dbd 8f0d 313e 4aac 593e
00000350: 6a84 0b3e 1cf2 dbbd 68cf ff3e 8411 eebd
00000360: 4047 a2bd d679 733e dee9 073f 2b9e d3be
00000370: 109f 603e 50b6 913e b223 32bc c92d 02bf
00000380: a035 47be 3663 96bd ad63 963c 43a2 773e
00000390: 1059 7dbd 59b8 8bbe ae56 dcbd fa6f 7c3e
000003a0: ee8c 98be 66d9 02be e8ef cbbe c401 9b3c
000003b0: 54b5 1ebe 8d94 233e aedb 2dbd 63a3 2a3e
000003c0: a1e4 ddbf 0ced 69be 6d78 d9be 2d8f 10c0
000003d0: 248f 8b3d 2ce8 aabf e89c 043c 9cd6 bebf
000003e0: 3ca8 9a3e f6cc 13c0 ab06 11c0 7d6c fa3e
000003f0: ddbe d5be cb62 12c0 a3bc 54bf 755f 4abf
-1.1083887 -0.8007339 -2.544797 -1.8287718 0.49221817 -1.9100559 -3.7153625 0.27187288
-3.2159593 -1.3286321 -1.5072694 0.400947 -2.8027349 -2.1298804 0.20895785 0.13551992
0.47124428 0.034759838 2.2545893 0.17053215 -3.071623 -0.024834452 0.1093719 -1.0117052
-0.2102628 -0.099480815 0.02170382 0.22949527 0.16753832 0.15920913 -0.6895876 -0.02199844
-0.4661608 -0.63154477 -0.0025485882 0.24066095 -0.17746346 0.03150084 -0.37013 1.3901612
-0.3010575 0.61490697 -1.7217581 -1.4621801 -0.20671858 0.19755375 -0.021950169 0.18743709
-0.40299067 -0.70157427 -0.5579423 0.15098338 1.2387509 -0.46743447 0.12596573 2.3751626
-0.10776663 0.4436002 -0.010846549 -0.5493549 -0.1200241 -0.15566571 0.8665371 -0.7223406
-0.95330554 0.7980202 0.36105448 -0.15380445 2.2397912 -0.461801 -0.16117033 -1.9378649
0.038975462 -1.241256 -0.6343086 0.7010897 0.13297747 0.057718527 -0.21674795 0.009298494
-2.0604806 -1.5897148 -1.3018401 -0.70334256 -1.2710773 -1.9897059 0.1288393 -1.6924864
-1.3593298 -2.1971722 -1.3314742 -0.4331366 -0.39683902 -2.7815592 -1.9285015 0.52831316
0.13832174 -0.04696535 -0.83759475 0.04514081 2.8432703 1.5271407 1.0763407 1.8636105
-0.18918298 -0.21622801 -0.120203845 -0.23225123 -0.8115588 0.5310433 1.2304323 -0.41813084
0.0701637 0.9314974 0.28646442 0.6921358 -1.1098065 0.31521118 -0.25041327 -1.060776
-0.0055957413 -0.31490454 0.71188027 0.70639557 0.40086707 0.17114845 -0.5546704 -0.22283533
0.38909155 0.618523 -0.069847316 0.7128055 -2.2990553 0.08973136 0.19140097 -1.3825512
-0.32314622 -0.26212358 0.044225976 0.22592823 -0.33086255 0.25338292 -1.5143093 0.30930272
-0.1625453 -0.46207604 0.82422405 0.48967227 -0.7273767 0.424012 0.11724269 3.049896
0.6699278 0.626915 -1.5437133 -0.57654387 -0.23048764 0.49343204 0.55304617 0.2315341
-0.103710145 -0.4719357 -0.13551717 -0.3243386 -0.10651848 -0.40619537 -0.27169454 -0.5076713
0.105562344 -1.1824286 -0.43034655 -0.32430783 -0.705604 0.18041536 -0.61799353 -0.25266603
0.036854055 0.052420482 -0.097875275 0.35354966 0.037413303 0.048051327 0.07259804 0.024699252
0.09168914 -0.40832657 0.19474883 0.13916667 0.033247404 0.45404112 0.04357658 -0.13029875
-0.115113825 0.032179456 0.18566835 0.0027830938 0.051121775 0.06136928 0.366824 0.2454255
0.16940714 0.31282127 -0.42830074 0.060156904 -0.6824868 -0.0441238 0.17177838 0.11441694
0.12458323 -0.050142884 0.17290328 0.2125713 0.1362473 -0.10739538 0.49962926 -0.116244346
-0.07923746 0.23776945 0.5309123 -0.4133161 0.21935678 0.28459406 -0.010872768 -0.5085111
-0.1945405 -0.07343142 0.018358076 0.24182992 -0.061852515 -0.27289084 -0.1075872 0.2465209
-0.2979502 -0.12778243 -0.3983147 0.01892174 -0.15498859 0.15974636 -0.04244583 0.1666389
-1.7335397 -0.22844332 -0.4247469 -2.2587388 0.06814411 -1.3352103 0.00809405 -1.4909244
0.30206478 -2.3093848 -2.266032 0.48910895 -0.4174718 -2.2872798 -0.83100337 -0.79051906

bias f4 [8]
00000000: 05a6 34c0 9480 4dc0 a90a 9fbf a6b5 41c0
00000010: da90 40c0 b869 49be 0890 debf 6313 88c0
-2.822633 -3.2109728 -1.2425128 -3.026712 -3.008841 -0.19669235 -1.7387705 -4.2523665

weight f4 [1, 8]
00000000: 778d afbe e38b a3be c0d1 3ebe 9fde 803e
00000010: d4e4 9fbe 6419 f9bd a8d9 8d3d b2a2 9e3e
-0.34287617 -0.31942663 -0.18634701 0.25169846 -0.3122927 -0.12163046 0.0692628 0.30983502

weight f4 [4, 32, 32]
00000000: feed eebe 1e72 653c e9dd ee3c 8c91 04bd
00000010: 84d6 c9be fa6c 7d3c 5e8a c53d 48d8 80b9
00000020: abba 2dbe 9299 68bc 6276 b13a e8d2 a5bb
00000030: 9ae5 163e 8332 02bd 7db0 243b 58ed 5bbe
00000040: 0b55 103f ecda b0bd c321 d6bb 9014 cb39
00000050: 7f28 923e 38c6 01be 9531 4a3b d834 0abe
00000060: 1a69 053a 652b 05bd 938c e63e 95bb 69bc
00000070: 8d13 01bb 27bf 2dbc 37e8 17ba 0893 9a3e
00000080: 8a2c d1b5 ee3e edae c201 a424 eee5 3bba
00000090: c3c7 f437 9ab4 8dad edb8 b5aa 0257 a02a
000000a0: 490d 282b 4eef aaac 62c4 9e9b fdec 1eac
000000b0: 4cf7 d1b9 9ac2 dc2c 41bc 3818 0389 30b7
000000c0: 239c 709f cdf5 e435 d277 51ab 3e40 d7a4
000000d0: 1eb2 abac b77e aeb7 58ca 0b38 fc8f 431b
000000e0: e3d6 1325 058d 049d baf0 0038 db8c aab3
000000f0: 4b0e c02d 315a 2c38 3ef7 1aa2 35f0 17af
00000100: 0f7f 12bd b3ea bb3c 1837 a5be 9fcd c2bd
00000110: ccde 503e d8ce 08bc 2e9f acbe b12d 223e
00000120: def8 dbbd 3020 eb3d 4efa 0137 4286 fe3d
00000130: 2409 a8bd 7502 a1be 74bc 1b38 fc78 413e
00000140: 2d6b b5bc d3dc 933d 2150 01bc a5c2 d1bb
00000150: 251a 7c3e d64d 9b3d 3652 d93d a2e1 af3c
00000160: 5971 a1b5 55ea b33e f732 ca3e bc02 e73e
00000170: 7742 14be 3334 863d 5505 ebbd 12f4 043f
00000180: 9634 fdbc a7bd e438 8916 1b39 34e3 01bd
00000190: d339 953e 9e79 18bb b39e aeb9 9847 f2b9
000001a0: 2ef6 aabd 267f 9ab9 c3bb aab6 9eca 32bc
000001b0: 6345 26be 47c8 cb3b 4088 5e37 6541 37bd
000001c0: fdda a4bc 18bd aabb e73d 13b8 48f5 cf32
000001d0: c5fb e63a 3f17 29bb 82af 34b7 4862 88bc
000001e0: 8448 7fb6 6c9a 6bbd ca19 16be e6be b9bb
000001f0: 7fb8 0ebb 02d9 513c 2d6d ca39 1cb1 cf3d
00000200: e923 91bc f05c 0fb9 9914 423c 4aaf 2fbe
00000210: 8abc 3cbe 03d9 11bd 2d65 f23b 3005 9e3a
00000220: 1874 ea3c a18a d4bd 63d9 78b7 a722 d4bc
00000230: 058a 81be 49e9 cb3e 03ce fab9 59b0 713a
00000240: d6a3 05bc d647 3abc 174c f2bb 8696 5b39
00000250: d4bf 293d 2a57 09bd 51fc 663b 93e3 9cbd
00000260: 7548 09bc 8c36 8fbc 731d 92be d691 f6ba
00000270: 48ec dab7 c2b6 52bd a0d2 90ba 13d9 993d
00000280: 73f3 ea3d 0f34 df3d c0f5 e4bd 48b2 9f3e
00000290: 71a5 003f f128 3e3e 7c8a 25be 3f03 9dbd
000002a0: 282c 63bc 9ef5 4b3e a32f 74b5 cf23 693e
000002b0: c065 eebe 2621 2cbd c78c c73a 06a0 98be
000002c0: 4c6d cfbd 1aef 8e3e 5645 0abc bf67 5abd
000002d0: e1f4 9b3e 4d5b 093e 6238 ba3d d6e1 193e
000002e0: 21c1 e239 c08e 273f 7074 f33e d290 113f
000002f0: 7597 96bd d052 1b3e c866 5dbe f14f f83e
00000300: 5e43 8e2b 57c8 1f32 930d c1b5 1eda 323c
00000310: 495c 24bc 7888 e93a b239 2ab2 73cb b134
00000320: df73 9734 7c9b 83bc 5519 d13b 1ca3 deb8
00000330: 52eb 923c 6f6e 8037 eaa8 24b9 de1e ae39
00000340: 797b c3b0 7c97 87b6 52db f4b5 bb1a 7e96
00000350: 24aa 92b8 e668 7b39 017b c02d 246c 3fb3
00000360: ca6c fa33 3277 293a f969 a5bb 340a 4a3a
00000370: f044 692b 5b3f 26bb 9312 6133 ef7f 2535
00000380: 5153 82be 3181 c639 bea5 833e 01c6 6ebc
00000390: f813 be3c d6c4 86b6 abdc 89b8 2a94 0438
000003a0: 3310 28b8 b6b0 19b7 8367 8236 fdac 2639
000003b0: 5570 c0bd 449f 04ba d633 8134 411f 3b3e
000003c0: f775 40ba 2afa bd3e f2e9 61ad 7e54 b1b5
000003d0: be6d 133b 066b 69bc 124e 05b7 d65f 6ab9
000003e0: e235 853c 33d4 13bc 53f8 723a 076d 3eb6
000003f0: ebd0 1c37 0239 91ba b613 e9ae 4700 fb3a
-0.4666595 0.014004258 0.02915855 -0.032365367 -0.39421475 0.015467877 0.09645532 -0.00024575205
-0.1696574 -0.01419677 0.0013539309 -0.0050605424 0.14736024 -0.031786453 0.002512961 -0.21477258
0.56379765 -0.08635506 -0.0065347864 0.00038734498 0.2854652 -0.1267327 0.0030852307 -0.13496721
0.0005089209 -0.032512087 0.45029125 -0.014265914 -0.001969549 -0.010604656 -0.00057947956 0.301903
-1.5584676e-06 -1.0788691e-10 7.112664e-17 -0.0007167746 2.9180088e-05 -1.6110047e-11 -3.2280377e-13 2.8482083e-13
5.9704027e-13 -4.8582588e-12 -2.6265817e-22 -2.2584705e-12 -0.00040047837 6.274381e-12 2.3876487e-24 -1.0522318e-05
-5.095113e-20 1.7058861e-06 -7.4418e-13 -9.335022e-17 -4.8798873e-12 -2.0801423e-05 3.332863e-05 1.6176546e-22
1.2823024e-16 -1.754296e-21 3.0741772e-05 -7.941863e-08 2.183422e-11 4.1091993e-05 -2.100178e-18 -1.3818709e-10
-0.035765704 0.022939062 -0.32268596 -0.09511875 0.2039749 -0.008350097 -0.33715194 0.15837742
-0.10740827 0.11480749 7.747278e-06 0.124279514 -0.082048684 -0.31447187 3.713039e-05 0.18893808
-0.022145832 0.07219853 -0.007892639 -0.0064013773 0.24619348 0.075832054 0.106113836 0.021469895
-1.2028423e-06 0.3513972 0.39492008 0.45119274 -0.1447848 0.06552925 -0.114756264 0.5193492
-0.030908864 0.00010907213 0.00014790347 -0.03171082 0.2914568 -0.002326585 -0.00033306106 -0.00046211178
-0.08347736 -0.00029467902 -5.088253e-06 -0.0109125655 -0.16237406 0.0062189433 1.3263954e-05 -0.0447401
-0.020123953 -0.00521053 -3.5105182e-05 2.4209513e-08 0.0017622641 -0.002580121 -1.07697e-05 -0.016648427
-3.804017e-06 -0.057520315 -0.14658275 -0.005668509 -0.0021777449 0.012808086 0.00038609785 0.10141203
-0.017717319 -0.00013672165 0.011845731 -0.17156711 -0.18431297 -0.03560735 0.007397315 0.0012055989
0.028619811 -0.10378004 -1.4832566e-05 -0.02589543 -0.25300613 0.3982642 -0.00047837207 0.0009219698
-0.008156737 -0.011369666 -0.0073943245 0.00020941542 0.041442707 -0.03353039 0.0035245607 -0.07660594
-0.0083790915 -0.017482065 -0.28538093 -0.0018811773 -2.6097652e-05 -0.051443823 -0.0011049099 0.07512107
0.114722155 0.10898601 -0.111796856 0.31190705 0.50252444 0.18570305 -0.16166109 -0.07666635
-0.013865508 0.19917914 -9.0966404e-07 0.22767566 -0.46562004 -0.0420238 0.001522445 -0.29809588
-0.101282686 0.27916795 -0.008439383 -0.053321596 0.30460265 0.13413735 0.090927854 0.15027556
0.0004324997 0.65452194 0.47549772 0.56861603 -0.07353107 0.15168309 -0.21621239 0.4849849
1.0108405e-12 9.30057e-09 -1.4383571e-06 0.010916261 -0.010031768 0.001781716 -9.908421e-09 3.3116848e-07
2.821025e-07 -0.016065352 0.0063811936 -0.000106161664 0.017934475 1.5310214e-05 -0.00015703184 0.00033210864
-1.422321e-09 -4.0409486e-06 -1.8243247e-06 -2.0526391e-25 -6.993514e-05 0.00023976303 2.1882498e-11 -4.4569006e-08
1.1661321e-07 0.00064646 -0.0050480333 0.0007707209 8.28739e-13 -0.0025367353 5.2403788e-08 6.165346e-07
-0.2545419 0.00037861758 0.2571239 -0.014573575 0.023202881 -4.016426e-06 -6.573772e-05 3.160924e-05
-4.0069408e-05 -9.160654e-06 3.8863523e-06 0.00015895437 -0.09396426 -0.0005059133 2.4065838e-07 0.18273641
-0.0007341797 0.37104923 -1.28417155e-11 -1.3212118e-06 0.0022495831 -0.014246708 -7.945595e-06 -0.0002235168
0.016261045 -0.00902276 0.00092685706 -2.8375669e-06 9.346967e-06 -0.0011079612 -1.05991146e-10 0.0019149863

w_comp f4 [200, 4]
00000000: 2888 dcbd b816 34be 0b49 9c3e 0541 ac3c
00000010: 55f2 afbd d708 dd3d 0d84 063d 2e4a d53d
00000020: fcf8 f5bd 0ead 573e 9949 b13e 5b2c d93d
00000030: 49bc 4a3e 7627 473d af0e 923d 87c5 6bbc
00000040: 138d 183c 2849 763d fa0c 34ba 51ab c33c
00000050: f7c9 b02a 65b8 73ad 6614 a0b1 1229 b1ac
00000060: d21b 223d ad50 263e ce7e 8bbe 427b bd3e
00000070: fc46 86b6 f388 2c36 a42b b236 7efa 0db7
00000080: be57 273e 3f39 d6bc a824 fe3d fa7b 08be
00000090: a774 24bc 37ab 90be 7f98 30bc 874d 36bd
000000a0: 5779 8fb3 581a 05bd 01ae 3c3c 0865 9abb
000000b0: 32a8 573d 0c68 fa3c 9316 b3bc 932c 013d
000000c0: 72a2 a33a ed6f 9abd 0101 193a f288 dcbb
000000d0: 1be9 1c3a c72c 9438 1eae 47b9 6963 bf3b
000000e0: 340e aa3b 9245 a93a b9e2 d43b d322 d73a
000000f0: 9fa5 e83b 5c5b 98bc 4873 a037 18d2 32b6
00000100: 656e 9cb6 dafb a037 cc8a 07b8 a408 4a38
00000110: e395 8d3d be75 a8be 5a23 42bd ccdd a33d
00000120: 2e89 763a f25a b9bc 125f 183c 1f75 c6bb
00000130: 3d3e 7ab7 af2f d336 b8b5 f497 1ef2 f639
00000140: fffa 09be 5aa6 cbbb deb5 643e f36e d13c
00000150: c58b afb1 addb 8b31 cf9a ac31 3535 2730
00000160: b7ef 192d b1af 262e aabd 382c 803a cf2c
00000170: 7368 b032 7cd7 b22f dd72 4139 7a63 22b0
00000180: 61cc 3f38 1da8 0100 f12c 0100 5259 0080
00000190: a47a 02bb 35ca 0cbc 8564 25bc d6d2 29bd
000001a0: e9e7 1a3d 7e5b a0bd a9d8 55bd 955d 1e3c
000001b0: 8df3 d53c fd74 ecbd 0169 cd39 e3df f1bb
000001c0: 7d4c c83d d467 12bb b610 16be 0c89 653e
000001d0: 017c f0bc 58a9 36bd 9b6d 2dbb 05b1 bbba
000001e0: 9acf b537 df08 70bb 8ea8 3139 324e 20ba
000001f0: 27f9 a63e c4cd 2ebe e698 663f 0ece 123f
00000200: e0cd 3099 6265 a498 6441 5897 fe05 bd18
00000210: 8ba4 99be d4fb 6e3e ca87 083e 601e 1abe
00000220: 173c 5eba 0b36 8bb6 0a76 1737 af2b 6838
00000230: a280 9cbe 8e53 67bc c99c 2abd 387b 8e3e
00000240: e6fc 23bd 02af b6bc 90b4 d63e 16be 74be
00000250: 9f43 993c fc02 0138 349f f536 c617 5139
00000260: d944 ebbb 894a 2cbc 4942 83be 1a2b 783c
00000270: e81f 1825 87e5 8122 6aae 8da1 4a89 1c20
00000280: 11d9 f8bc e79f e63c e70e e1be af7b 283d
00000290: dcce 8dbe 39c2 8fbd 56ab 793e 0e23 d3bd
000002a0: 836b cd20 78ca a32c 3a7d c319 7695 0535
000002b0: 8193 c13e f7ea 663d 8409 b0bc 0e21 8abe
000002c0: ace3 87b0 5880 4cb0 644b 5eb1 12b6 bd30
000002d0: c6d1 1299 2e50 791a 2842 8117 1a37 f398
000002e0: ff23 9bb9 b989 b43b 6ca2 ef39 b550 7239
000002f0: d500 343d ccc6 0b3e 10fa b6be 3f7d d33d
00000300: ae6f 6537 319c b7b9 2aa2 4d37 2866 87b9
00000310: eef3 3abe becf 713c cb00 b7bc fb72 e83b
00000320: 439a b9ba 8e20 8839 d2c8 76b6 1b9a a7b9
00000330: 2e7b a0be 85ee e4be 2cf2 ab3d 5878 cfbd
00000340: 4986 5fbc d2e4 35bd 5910 a53c 8d70 833d
00000350: bbcf 81bb 2c2c 0f3e db5c b1bd eebd 443d
00000360: 1ea5 293e b174 473e 9e23 6ebd 8709 25bd
00000370: 4a8a c93a 4dff 4d3b d4aa d33b 39ab 363a
00000380: fa2f 88b7 6f1f 70b9 dcc6 8236 83fc 8d36
00000390: 123b 2cb8 c8dc da38 c0db 24b8 88c1 ee38
000003a0: f8a9 eebc 74d4 a038 98ba a43b e8b8 e0bb
000003b0: e816 203c a870 f9bc fe70 65bc 174e d93b
000003c0: 3097 81bd d870 313e e0d4 8ebe a5c5 663e
000003d0: 1fa1 c8bd 3546 8aba 3259 9d3d 111b 4ebd
000003e0: 6cda 0739 ba5c 4d39 5c4e 9938 c4c6 b3b8
000003f0: 8fe8 483d 7ccb 223c 2711 73bc d091 b83a
-0.10768157 -0.17586792 0.30524477 0.021027097 -0.08591143 0.10792702 0.032840777 0.10414539
-0.120103806 0.21062109 0.34626463 0.10604163 0.19798388 0.048621617 0.07131707 -0.014390356
0.009310978 0.06012836 -0.0006868389 0.023885401 3.1404022e-13 -1.3853895e-11 -4.658932e-09 -5.0352023e-12
0.039577313 0.16241713 -0.27245182 0.370081 -4.001775e-06 2.5709712e-06 5.309894e-06 -8.462577e-06
0.16342065 -0.026150344 0.124093354 -0.13328543 -0.010037578 -0.28255627 -0.010778545 -0.04450753
-6.681028e-08 -0.032495826 0.011516095 -0.004711751 0.052650638 0.030567192 -0.02186135 0.03153665
0.0012484326 -0.075408794 0.00058366364 -0.0067301923 0.0005985663 7.0655304e-05 -0.00019042983 0.005840708
0.0051896814 0.001291441 0.006496754 0.0016413577 0.0070998217 -0.018598251 1.9127168e-05 -2.6646358e-06
-4.662014e-06 1.9190764e-05 -3.2315773e-05 4.81686e-05 0.06913354 -0.3290233 -0.047396995 0.08001289
0.00094045966 -0.022626374 0.00930001 -0.0060564424 -1.4915652e-05 6.293841e-06 -1.5814003e-24 0.00047101168
-0.13474654 -0.006214899 0.22335002 0.0255656 -5.1090603e-09 4.0704067e-09 5.0234585e-09 6.082986e-10
8.7502705e-12 3.7900075e-11 2.6253257e-12 5.8897887e-12 2.0536595e-08 3.2531122e-10 0.00018448704 -5.907662e-10
4.572829e-05 1.52143e-40 1.07957e-40 -3.2042e-41 -0.0019909525 -0.008593132 -0.0100947665 -0.041460834
0.037818823 -0.07829951 -0.052208576 0.009665866 0.02611711 -0.11545751 0.0003917888 -0.0073814257
0.09780214 -0.0022339718 -0.14654812 0.2241556 -0.029356005 -0.044595093 -0.0026463035 -0.0014319724
2.1673553e-05 -0.0036626381 0.00016942827 -0.00061151676 0.32611963 -0.17070681 0.90077055 0.57345665
-9.140563e-24 -4.2495377e-24 -6.98759e-25 4.8861405e-24 -0.3000835 0.23338252 0.1333305 -0.1505065
-0.0008477582 -4.1488142e-06 9.0277845e-06 5.5353794e-05 -0.3056689 -0.014119042 -0.04165343 0.27828383
-0.040036105 -0.022300247 0.41934633 -0.23900637 0.018709002 3.0758776e-05 7.3201027e-06 0.0001994065
-0.007179838 -0.010515817 -0.2563651 0.015146995 1.3194709e-16 3.520854e-18 -9.600699e-19 1.3259139e-19
-0.030376943 0.02815242 -0.43956682 0.04113358 -0.27696884 -0.07019467 0.24381766 -0.103094205
3.4799496e-19 4.655217e-12 2.0213106e-23 4.9763855e-07 0.3780785 0.056376424 -0.021488912 -0.26978344
-9.887251e-10 -7.4397155e-10 -3.2348106e-09 1.3803307e-09 -7.5903865e-24 5.1556762e-23 8.35313e-25 -6.2869666e-24
-0.00029590723 0.005509582 0.00045706646 0.00023108984 0.043946106 0.13650054 -0.35737658 0.10326623
1.3675466e-05 -0.00035020852 1.2256709e-05 -0.0002582532 -0.18257114 0.014759002 -0.022339245 0.007093785
-0.0014160353 0.00025964197 -3.677375e-06 -0.0003196754 -0.3134398 -0.44713226 0.083958 -0.101303756
-0.013642856 -0.044407673 0.020149397 0.06417952 -0.003961531 0.13981694 -0.08660289 0.048032694
0.16566893 0.19478108 -0.058139436 -0.04029229 0.0015376296 0.0031432689 0.0064595733 0.0006968263
-1.6234804e-05 -0.00022899894 3.897452e-06 4.2315237e-06 -4.106301e-05 0.00010436174 -3.9305305e-05 0.000113847724
-0.029133782 7.668967e-05 0.0050271265 -0.00685798 0.009771086 -0.030449226 -0.01400399 0.0066316235
-0.06327665 0.17328203 -0.27896786 0.22536333 -0.097963564 -0.0010549488 0.07683028 -0.05031878
0.00012955972 0.00019584867 7.310204e-05 -8.572408e-05 0.04904991 0.00993621 -0.014835632 0.0014081541

self_loop_weight f4 [32, 32]
00000000: fb6a 8bbe e8ad bdbe 226d 93bf abf7 67bf
00000010: 56b0 85bf 6828 0dbe c7e2 30bf df81 edbe
00000020: 3d44 003f 175c 01bf 0e85 ccbc c3fe fdbe
00000030: 135b b13f 29ea 1abe 27e4 1dbf d20a 06c0
00000040: b3cf 95be 05d5 44be 6da0 0fbf 98d6 43be
00000050: 5457 0abf ee37 dbbe 9faf 42be 943c 59bf
00000060: 9bc6 373e 6dcc e3be 77ab 4abe 8ac9 b93e
00000070: 997e d9be 0db1 03c0 52e0 f1be 33e0 43bf
00000080: c21b 2cbd 00d0 eb3d a4a6 e8b6 fd82 d7bd
00000090: c1a2 493e afac 5c3d b824 4a3c d846 723d
000000a0: 7fb0 dc39 0e27 223e 1a7c 9f30 ea62 b7be
000000b0: d3f0 43bf 509f b03e 50a9 e4b9 80f6 cebe
000000c0: fde0 2abe a3c3 20be f664 263f 4077 e8a0
000000d0: 365f 41bd b96c c13d 1df1 db3e ec73 8aba
000000e0: 186e a1be cdd0 fbbe d326 58bf 6337 ccb9
000000f0: 456c 7238 e30c 033d 2d55 5bbd 4b02 b2bd
00000100: 1c09 c93d 3df6 d3be 56f0 4dbd ea4c 4ebf
00000110: eef4 93bf f6e5 3abe df05 a4be e207 79be
00000120: 88e8 68bd 8d6b 7ebe c4a8 89bd 4525 773e
00000130: be0f 0bbe f297 0abf e44e 00be 9b89 77bf
00000140: 268f 843d 8d89 4e3f e03e 0d3c d321 80b9
00000150: c653 72bf 618b 1cbe e09f afbe 4095 1a3d
00000160: 09db c9be 34d3 aabe 4c86 c33e 1fe6 403e
00000170: 90bd 873e e408 84bd 74da b23d 47f0 693f
00000180: 6ec7 fdbc d610 d9be e1bc 7dbf fcbe cabf
00000190: 4f58 923e 4131 a7bf d8b4 983e 44b2 c03d
000001a0: 9240 aebf 2bf9 bcbf 73c0 bdba d551 65bf
000001b0: 0d5a 403f a1f9 b1bf 823d babd 9c43 9fbf
000001c0: 79ea 4cbf 341f b6bd fe01 abbd d418 b4be
000001d0: 325e 23bd 88ee cabf c77b 96bf 4884 24bf
000001e0: a762 8a3e 7f20 debd ec88 88bf 86e8 edbe
000001f0: cb92 a1be fb4d ab3e cd76 3f3e d479 15bf
00000200: e9ed 3cbe 294d 85bf 3a52 debd 7978 54bf
00000210: 37d0 b6bd b6fe 84bf 2558 66bf 51dd 23be
00000220: 9ffb 1ebf 1889 42bf 849f ffbc f32b 8abf
00000230: ce50 e0bf ece2 84bf c837 55bf e608 04bf
00000240: 9ca1 76be 6484 12bf e9fb 30bf 7c43 dfbd
00000250: 64fb adbf 72fa 95bf 4e89 8abf 5811 13bf
00000260: e382 bfbe 4450 18bf fb63 febf 9d18 2ebf
00000270: c688 d4be aefc f33c 06e2 07bf 8037 83bd
00000280: 9bb4 8bbe d7e5 fa3e 64f4 d8bc be4c 94bf
00000290: e1f0 ba3f 3e73 003f e184 ba3d 8655 22be
000002a0: c369 70be aa7e 32be 46cd 26bb 1f61 c23e
000002b0: 93bd 7fbf badc 053f d64e fe3a dfc4 acbe
000002c0: e9cf 333e 2957 363f 1869 a9be 788a 16be
000002d0: cd27 85bf e13c fb3e 7396 55be b7b6 c7bc
000002e0: 04a7 6cbd 5fc1 543e 65c3 debe cc1a 60be
000002f0: 27f5 c0bd 83ba 873e dbbf 95bd 3b46 2cbf
00000300: 72fc 62be 50cc d4be 73d3 203c 279d e7bf
00000310: 0943 903f 8e3f 3fbf 9654 01bf 3111 e8bd
00000320: e05f 31bf a653 5cbf 9aad 37bb 14f1 95bf
00000330: 76a2 cabf 7f66 a5be 6c78 54be aba3 d13f
00000340: c1c2 01bf 8c4c f5be 06b5 8cbe a69a 20bd
00000350: 2bb8 12be 27ec 5b3e c13b 97be 2b8b 01be
00000360: f7e9 69be 6369 5bbf 9c14 3ebe e5da 12be
00000370: 16ae 42be 616d dcbe b71b e8be 1505 23bf
00000380: 9bb8 07bf 1d6d 7c3c 1394 e9bd b564 1bbd
00000390: ffec e7be 22ba 47bf 60ad ecbd b860 283e
000003a0: cbcb 3dbf 939d 143f ca96 ebbd 4223 8abf
000003b0: dd76 943e d8b4 0b3e 49b9 b6bd 2d96 79bd
000003c0: 0ccd 04bd a24a 02be d263 2d3d 63b6 cdbd
000003d0: 6583 e5be 5f5b 8d3d 4fc0 b0be d7c4 e9bd
000003e0: f1e2 b03e d31d 413e 2eaa a83f bacd 53be
000003f0: 94e1 383e ec31 14bf e912 0a3f 7810 90bf
-0.27230057 -0.37046742 -1.151768 -0.90612286 -1.0444438 -0.13784945 -0.69096035 -0.46388146
0.50104123 -0.5053114 -0.02496579 -0.4960843 1.3855919 -0.15128388 -0.6167626 -2.0944104
-0.29260024 -0.19221886 -0.56104165 -0.1912483 -0.540395 -0.42816108 -0.19012307 -0.8485806
0.17946856 -0.44491902 -0.19791971 0.36286575 -0.424794 -2.0576813 -0.47241455 -0.76513976
-0.04201866 0.11514282 -6.9335383e-06 -0.10523031 0.19690992 0.05387562 0.012337856 0.059149593
0.0004209317 0.1583521 1.1604044e-09 -0.35817653 -0.76539344 0.34496546 -0.00043613696 -0.4042244
-0.16687389 -0.1569963 0.64997804 -3.9381242e-19 -0.04720994 0.09444565 0.42957392 -0.0010563112
-0.31529307 -0.4918274 -0.8443424 -0.00038951178 5.779813e-05 0.03199471 -0.053548027 -0.086918436
0.098161906 -0.41398802 -0.05027803 -0.8058611 -1.1559122 -0.18251786 -0.3203573 -0.24319413
-0.056862384 -0.24845715 -0.067216426 0.24135311 -0.13580224 -0.541381 -0.12530094 -0.96694344
0.06472616 0.80678636 0.008620948 -0.00024439264 -0.9465908 -0.15287544 -0.34301662 0.037739992
-0.39424923 -0.3336426 0.38188398 0.18837784 0.26511812 -0.06447008 0.08733073 0.9138226
-0.030978885 -0.42395657 -0.9911633 -1.5839534 0.28583 -1.3061906 0.29825473 0.094090015
-1.3613455 -1.476354 -0.001447691 -0.8957799 0.75137407 -1.3904306 -0.09093763 -1.2442508
-0.80045277 -0.0889267 -0.08349989 -0.35175192 -0.039884754 -1.5854044 -1.1756524 -0.64264345
0.2702839 -0.10846042 -1.0666785 -0.46466464 -0.31557307 0.33457932 0.18697663 -0.5838902
-0.1845013 -1.0414172 -0.10855527 -0.82996327 -0.089264326 -1.0390232 -0.8997825 -0.16002394
-0.62102693 -0.7599044 -0.031203993 -1.0794662 -1.752466 -1.0381751 -0.8328824 -0.5157608
-0.24085087 -0.5723326 -0.69134384 -0.109015435 -1.3592343 -1.1717055 -1.0823152 -0.5744834
-0.37404546 -0.59497476 -1.9874262 -0.68006307 -0.415106 0.029783573 -0.5307926 -0.0640707
-0.2728623 0.4900348 -0.026483722 -1.158592 1.460476 0.50175846 0.09107376 -0.15852937
-0.23477845 -0.17431131 -0.0025451942 0.37964723 -0.9989864 0.52289927 0.0019402157 -0.3374395
0.1755978 0.71226746 -0.33087993 -0.14701259 -1.0402771 0.49069884 -0.20858173 -0.024379117
-0.057776466 0.2077689 -0.4350845 -0.21885222 -0.09421759 0.26509485 -0.07311984 -0.67294663
-0.22166613 -0.41562128 0.009816038 -1.8094834 1.1270458 -0.7470635 -0.5051969 -0.11331404
-0.6928692 -0.8606514 -0.0028027059 -1.1714196 -1.5830829 -0.3230476 -0.20749062 1.6378073
-0.50687796 -0.47909963 -0.2748186 -0.039209984 -0.14328067 0.21476804 -0.29537776 -0.12650745
-0.22843157 -0.8570768 -0.1856255 -0.14341314 -0.19011721 -0.430522 -0.45333645 -0.6367963
-0.5301606 0.015406874 -0.11405196 -0.03793784 -0.45298 -0.7801839 -0.11556506 0.16443145
-0.7413909 0.5805294 -0.1150337 -1.079201 0.28996935 0.13643205 -0.08922059 -0.060934234
-0.03242211 -0.12723783 0.042331524 -0.10044553 -0.4482681 0.06902193 -0.3452172 -0.11414497
0.34548143 0.18859033 1.3176935 -0.20683947 0.18054801 -0.57888675 0.53935105 -1.1255026
