experiments/grail_fb_v4_ind/graph_classifier_chk.pth (torch, 174158 bytes, 21 tensors)

weight f4 [200, 32]
00000000: bbeb 023f cea4 19bf d5ff 31bf a91d 19bc
00000010: 8b57 55be db5d dcbe 90c2 a93d 69a2 56be
00000020: aeb0 2d3e 694d 493e 266c 203c 8a76 52bf
00000030: 0e40 da3e 630d 563e 28b9 07bf fa77 3fbf
00000040: d165 d13e a6d4 d73e 0762 89be d9c7 33bf
00000050: 350a 533f 0889 023e b00c 7b3e 8c3b 673e
00000060: a063 0d3f f97e bbbc e300 863e d59b cf3e
00000070: ce40 373e 68a9 773e f8a1 3b3e 267d cf3e
00000080: 1711 353f d7e1 34bf 0152 c23f e77c 8abf
00000090: 45d4 8dbf 10b5 0e3f c415 a9bf e2b4 03bf
000000a0: 0999 6b3f bd82 943f e792 b6be bdde d1be
000000b0: ea30 9abd 64b8 77bf 6c86 d13e 2f85 80be
000000c0: 6c2a 443e 9177 60bf cf79 97bf 216e 90bf
000000d0: fb71 40be 5951 793f 6074 1f3f 1521 b7bf
000000e0: 609d 803e ed61 9bbe bda0 913f dbb2 dbbe
000000f0: 5291 573e d528 f4bd cfb2 8fbe d562 023e
00000100: ac76 c73e a657 863e ac4e 673f 4265 a9be
00000110: ba4a 1dc0 7694 2fbd bbb9 38bf f181 42bf
00000120: 7bdb a3be 82fb 3a3e 7e0d c6be a320 8fbe
00000130: 1875 82bf 3930 a0bf 49f4 9abf d44b 8d3e
00000140: 2920 b4be 4b2c 55bf 2de7 de3e b286 903d
00000150: 4cb1 03bf 8e4d 1e3f 2230 3f3e 26fb 003f
00000160: 724d 093f d0d6 3a3e 2c5e a3be e556 06bf
00000170: e0f7 a83e e0d9 c5bc b16d 413f ec71 c5bb
00000180: b865 3e3f 0db7 843f b2b6 c33f da13 31bf
00000190: 255f 18c0 0e29 3a3f 48cf cabd c179 dcbf
000001a0: b9d4 15bf a002 153e 6966 abbe f822 1d3f
000001b0: 2289 0a3c 9fd4 48bf d0e2 94bf f4ff 163f
000001c0: aa37 843d a214 88bf 84de a1be 6660 a93e
000001d0: 6400 3cbf 1fd0 88bb eef7 11bf 956f 0c3f
000001e0: 99ac a73d a2ca 6e3f 8cd0 b6be d6a2 a1bf
000001f0: 779b b63d 95cf 653e a0c8 873e d697 9b3e
00000200: 78ce 92be 78d9 52be 1329 383f a4a3 b4be
00000210: 7b15 2bbf 1625 90bf adb2 82bf fedc f8be
00000220: bdae 43be d6b4 943e b3b2 5e3e 3e53 213d
00000230: 507b fd3e a927 adbe 7487 40be fcb3 5f3e
00000240: 93b1 ca3d fc6e 23bf 8960 afbe 232e 90be
00000250: 37a6 493f e89b e7be 9bdb 3b3e 9adb 97be
00000260: 1ca0 a0be 8113 19bf d147 893e 28a8 88be
00000270: 5d61 edbe aaaf 9fbd bc1a e13e e79e 163d
00000280: 9d0f 88be 9b42 97be 8984 91be 68a8 39be
00000290: 6e06 f73e 8163 693e d27c ecbc da9d af3e
000002a0: fca3 1c3f d6e4 233f f0a8 8c3e d408 25bd
000002b0: c0b3 16be 766e 063e 0b45 1f3f 74d7 adbd
000002c0: 0af2 d9bc acb7 703e ee24 24be a2a5 be3d
000002d0: 730f 5d3c 9734 1c3e 4db5 453f b818 80bf
000002e0: fb74 dc3e 1709 fbbe 243c 0e3f eb04 f43e
000002f0: 8ff0 a7bd 9f2c cebe dfc8 b53d c47b f0be
00000300: 52b5 c5be 5f78 5b3f fa9a 3e3f cce1 7f3d
00000310: 2ba9 e0bf 0b1b 6c3d c15e d03e aaf1 0cc0
00000320: f5a0 0c3f ce54 66be 9305 ce3e cbad 153f
00000330: d9dd 9c3f 44be 2d3d 6266 28bf 8577 7cbe
00000340: bfee 133f 7ab2 3bbf 0ddc 40be 051e 75bf
00000350: 6536 0dbf 5936 3fbe 05e4 15be cca4 64bd
00000360: 19c5 2b3f 245e 663f ba5a 0f3f 3297 9fbf
00000370: 47ce e8bd f5c7 dc3e 05c8 50be e413 153f
00000380: 5d96 a73b 5a76 1f3e 5997 303f 0495 fbbe
00000390: e12f 763e 0cb6 4a3f 1223 a3bd 6cec 143f
000003a0: 9b29 1c3c e73e a6be 73ce b8be 2db3 aabd
000003b0: 4b49 53bf 29ed a4be 4f37 493f b0f0 b13e
000003c0: 28de 343f ffae 9bbe b309 9cbe 4004 08bd
000003d0: ce56 b6bf 5097 573f 70d5 61bf 1cb4 b8bf
000003e0: 80e9 d93d ef2f 183f 17cc a73f e49d 05bf
000003f0: 3631 b43e 966b 23be 8dd5 42bf abf5 c13c
0.51140946 -0.60017097 -0.69530994 -0.00934545 -0.20834176 -0.43040356 0.08289063 -0.20960392
0.16961929 0.19658436 0.00979141 -0.82212126 0.42626995 0.20903544 -0.530169 -0.74792445
0.40897992 0.42154425 -0.268326 -0.7022682 0.8243745 0.12747586 0.24516559 0.22581309
0.5523014 -0.022887694 0.26172552 0.40548578 0.17895815 0.24185717 0.18323505 0.40525168
0.707292 -0.70657104 1.5181276 -1.0819367 -1.1080405 0.5574503 -1.3209767 -0.5144788
0.9203039 1.1602398 -0.35658953 -0.40990248 -0.07528861 -0.9676573 0.40922868 -0.2510161
0.19156808 -0.87682444 -1.1834048 -1.1283609 -0.1879348 0.9738975 0.6228695 -1.4306971
0.25120068 -0.3034815 1.1377178 -0.42909893 0.21051529 -0.119218506 -0.28066108 0.12733014
0.38957727 0.26238745 0.9035442 -0.33085066 -2.457686 -0.042866193 -0.721584 -0.75979525
-0.32003388 0.18260005 -0.3868217 -0.27954587 -1.0191984 -1.2514716 -1.21058 0.27596915
-0.35180786 -0.8327071 0.43535748 0.07056941 -0.5144241 0.6183709 0.18670705 0.5038322
0.536338 0.18246007 -0.31907785 -0.5247634 0.33001614 -0.024151742 0.75558 -0.0060255434
0.7437396 1.0368363 1.5290129 -0.69170916 -2.3808072 0.72718894 -0.09902817 -1.7224656
-0.58527714 0.14551783 -0.3347657 0.61381483 0.008455547 -0.78449434 -1.1631718 0.58984303
0.064559296 -1.0631297 -0.31615078 0.3308136 -0.73438096 -0.0041752006 -0.57018936 0.5485776
0.08187217 0.93277943 -0.35705984 -1.2627819 0.08916371 0.22442468 0.26520252 0.3038928
-0.28673148 -0.2059077 0.71937674 -0.35281098 -0.6682965 -1.1261318 -1.0210778 -0.48606104
-0.19109626 0.29044217 0.21747856 0.039386027 0.49508142 -0.3381932 -0.18801671 0.21846002
0.09897151 -0.63841224 -0.34253338 -0.281602 0.7876925 -0.45236135 0.18345492 -0.2965973
-0.31372154 -0.59795386 0.26812604 -0.26690793 -0.46363345 -0.07797177 0.4396571 0.036772635
-0.26574412 -0.29543003 -0.2842143 -0.18130648 0.48247093 0.22791864 -0.028868113 0.3430012
0.6118772 0.6402105 0.2747264 -0.040291622 -0.14717007 0.13128075 0.62214726 -0.0848836
-0.026604671 0.23507565 -0.16029713 0.09308936 0.013492453 0.15254436 0.7722977 -1.0007544
0.43058 -0.49030373 0.5556052 0.47660002 -0.0820018 -0.40268418 0.08876204 -0.46969426
-0.386149 0.85730547 0.74455225 0.062471196 -1.7551626 0.057642978 0.40697291 -2.20225
0.549331 -0.22493288 0.40238628 0.5846831 1.2255203 0.04241778 -0.65781224 -0.24654968
0.5778617 -0.7331921 -0.18833943 -0.9574893 -0.55161124 -0.18673076 -0.14637764 -0.055821225
0.6709762 0.899874 0.5599781 -1.2468016 -0.11367469 0.43121305 -0.20388801 0.58233476
0.0051143602 0.15572491 0.6898094 -0.49137127 0.24041702 0.7918403 -0.079656735 0.5817325
0.009531404 -0.32469866 -0.36095008 -0.08334956 -0.8253371 -0.3221219 0.7860002 0.34753942
0.70651484 -0.3040695 -0.3047615 -0.033207178 -1.4245241 0.8421526 -0.88216305 -1.4429965
0.1064024 0.5944814 1.3109158 -0.52194047 0.35193795 -0.1595901 -0.761071 0.023676714

weight f4 [4, 8, 32]
00000000: 1545 9a3f af70 063f f4a6 613e 581f ea3e
00000010: 8c55 cabe 83a4 f63e c08d 74bf c397 53bf
00000020: c457 c73d 383c f2bf 9647 a7be 673b 6cbd
00000030: f341 0cc0 ff94 1fc0 c1b4 f33e ce14 c3bf
00000040: cba2 93bf d358 a8bf 9280 83bf 5141 24bf
00000050: 2242 b03d a13f 44bf 8fdf dd3f fee7 d4bd
00000060: c999 23bf dc50 babd d1b7 ffbe 174a 61bf
00000070: 0e65 06bf 49dc 0bbf 7445 c73e 6f85 083f
00000080: 7ee0 f73e cada c6be 99b7 2b3e 210d 21c0
00000090: 058f 983f 64c6 6fbf bbb9 0bbf 7224 69bd
000000a0: a7cd 7c3f 4063 a4bf fbe7 33bf ecfa a5be
000000b0: d844 07c0 f57f c0bf 7daf 8abf 923c 6fc0
000000c0: ec74 fb3e fefd a9be b910 34be 1398 87bf
000000d0: e965 02c0 6fa1 79bf 0b25 aa3f f34f 8d3f
000000e0: 23bd 40be f0d9 2c3e 8ecb 77bf 0bcb d6bf
000000f0: 6c79 a53f 7657 2bbf 130f 53c0 a5fb 283e
00000100: db54 10c0 489e 46bf 5603 7ebf 081c 2fc0
00000110: 92e8 4abf efa8 b73e aa9f 08bf 1169 f03e
00000120: 0dad c9bf 7452 1f3f acc8 893e 7b31 36bf
00000130: 90a1 c7be a7c5 c3bf cd8f adbe 262f 2ebf
00000140: 6d17 793f 4f27 423e a219 c23d 7a82 13bf
00000150: 90e8 f93f 13e1 84bf d088 f6be 01f8 a23d
00000160: 0861 42be 3f4f 623f 736e d7bf 1f55 5dbf
00000170: cae6 bb3e 50ab 333f effa 713f a437 7fbe
00000180: 059f c6bd 4b2c 193d fe19 42bf b522 8d3f
00000190: 8f2f 943f 26d7 8abf 708c 5c3e 7a7f c5bd
000001a0: c3ad 89bf f167 d0bd ea04 d7be 65d8 80be
000001b0: 317f c83d 178f 8abe 040f f4bd a92b a53d
000001c0: f66b babf e7a7 91bc 2220 b2be c5d9 a83f
000001d0: 7b9a 0cc0 a175 66be eb51 15bf 672a 80bf
000001e0: a6ea 42be ed81 2cbf e7d7 09c0 3087 93bf
000001f0: 16ac 0ebf 510c bfbd f523 75c0 ff29 3cc0
00000200: 0a80 b53f 95e7 dbbc 5288 8fbd 9660 f23d
00000210: b6b1 f03f 159f 553e 1888 88bd 428a 1540
00000220: fa3d 8abc 1caf 773d 7038 1b3f f3ea 1d3d
00000230: 164e 1a3e cb74 173d 69c0 7ebe 1f96 75be
00000240: dfe9 9a3e b8aa ad3e 30d0 d6bd e2e6 c23f
00000250: 3c9b 913e 8c4a 4d3e 9059 27bd a916 5f40
00000260: de30 14be 257f 133f 76a2 11bf c866 83bc
00000270: 6b41 ab40 d4ee 0f3e 14fa d23f d878 0bc0
00000280: 4fde 823f ac26 e3be 7012 a0bf 09a0 a7bf
00000290: e7c6 9bbe 6a72 94bf 59aa 85bd aeaf 5a3e
000002a0: f871 eebd 2e94 ebbf 663f 6cbf 394e ecbe
000002b0: 4e95 69c0 eda9 23c0 655e 953e 63c9 d5bf
000002c0: 9511 ccbf b808 29be 9ad4 8ebf 83fe 7abf
000002d0: ce15 94bf fd6e a33e 4615 553f 0d39 3bbf
000002e0: 076d 58bf 94c9 513e fc1e 37bf 2072 15c0
000002f0: 3531 d9be 00c3 49bf e1b9 b3bf 53a9 da3d
00000300: ee3c 86bf 818e 9fbe 7af4 cd3e 0dc0 89bf
00000310: ab1f 9c3f 2714 cfbe 2d44 bbbf 25f9 68bf
00000320: b8ce 983e a7a0 9ebc b9ed d6be 4fb0 24bf
00000330: fe7e 23c0 9bbb abbf 84df a9bf 59fc 19c0
00000340: 7654 ae3f 11e6 d9bf b953 6abe 7322 58c0
00000350: aca8 823f cf4b 90c0 28e9 1e3f e784 ccbf
00000360: 34ca 5b3f 1869 4f3e e7f0 10c0 2ae7 78bf
00000370: c863 d7bf 7df3 91be 37f2 1fc0 8d8b a1bf
00000380: d7b5 23c0 3dde 9fbb a084 c6bf 375e 8dbf
00000390: 2f6e b8bf a5b2 43bf 7910 21bf ff9b 10bf
000003a0: baf1 c3bf af0f 97bf cfcf 11be cd3f a0bf
000003b0: 3d67 7c3f 73a4 9cbf 9450 e3be fd44 9cbf
000003c0: 0188 65bf 46eb 5ebe c441 2ebf 3d7e ba3e
000003d0: ac0e 11c0 dd6f b6be d1ce 3fbe 047a 82be
000003e0: 1aca 06c0 6a7e 9f3c 7c0c 49bf 73c8 9bbf
000003f0: 3161 21bf d68b 9bbe c955 763e ade9 f3bf
1.2052332 0.5251569 0.22036344 0.45727038 -0.39518392 0.48172387 -0.95528793 -0.82653445
0.09733537 -1.8924627 -0.32671803 -0.057673838 -2.1915252 -2.493469 0.47598842 -1.5240724
-1.1534055 -1.3152107 -1.0273612 -0.64162165 0.08606364 -0.7665959 1.733385 -0.103958115
-0.6390653 -0.09097454 -0.49944928 -0.8800368 -0.5249795 -0.54633003 0.38920176 0.53328604
0.4841346 -0.38838798 0.16769256 -2.5164263 1.1918646 -0.93662095 -0.5458028 -0.056919523
0.987513 -1.2842789 -0.7027585 -0.32418 -2.113577 -1.5039049 -1.0834805 -3.738072
0.49112642 -0.33201593 -0.17584504 -1.0593284 -2.03747 -0.97511953 1.3292555 1.1040024
-0.1882215 0.16880012 -0.96794975 -1.6780714 1.292768 -0.6693033 -3.297795 0.16502245
-2.2551792 -0.7758527 -0.9922384 -2.736086 -0.79261124 0.35871074 -0.5336863 0.4695516
-1.5755936 0.6223519 0.26910913 -0.7116925 -0.3899045 -1.5294694 -0.33898774 -0.6804069
0.9730137 0.18960308 0.09477545 -0.57620966 1.9524097 -1.0381187 -0.48151255 0.07957459
-0.18982327 0.8840217 -1.6830581 -0.8645801 0.36699516 0.7018328 0.9452352 -0.24923569
-0.09698299 0.037395757 -0.7582091 1.1026217 1.1577014 -1.0846908 0.21537948 -0.09643455
-1.0756153 -0.10176075 -0.41995937 -0.25165096 0.09789885 -0.27062294 -0.119169265 0.08064968
-1.4564197 -0.017780257 -0.3479014 1.3191458 -2.1969287 -0.2250581 -0.5832812 -1.001294
-0.19034824 -0.6738575 -2.1538026 -1.1525631 -0.5573133 -0.09328521 -3.8303196 -2.9400632
1.41797 -0.026843825 -0.07008423 0.118348286 1.8804233 0.20861466 -0.06666583 2.3365636
-0.016875256 0.06046973 0.6063299 0.038554143 0.1506885 0.036976617 -0.24878086 -0.23983048
0.30256554 0.3391931 -0.10488927 1.522671 0.28438747 0.20047969 -0.040856898 3.485758
-0.14471766 0.5761588 -0.5688852 -0.01604022 5.3517356 0.1405595 1.6482568 -2.1792507
1.0224093 -0.44365442 -1.2505627 -1.3095714 -0.30425188 -1.1597416 -0.06526632 0.21356079
-0.116428316 -1.8404596 -0.9228424 -0.4615343 -3.6497378 -2.5572464 0.2917358 -1.6702083
-1.5942866 -0.16507232 -1.1158631 -0.98044604 -1.1569154 0.31920615 0.83235586 -0.7313393
-0.8454136 0.20487052 -0.71531653 -2.3350906 -0.42420354 -0.7881317 -1.4041101 0.10676827
-1.0487344 -0.3116341 0.40225583 -1.0761734 1.2197164 -0.40445063 -1.4630181 -0.91005164
0.29845214 -0.019363714 -0.41978243 -0.64331526 -2.554626 -1.3416628 -1.3271337 -2.406027
1.3619525 -1.7023336 -0.228835 -3.3771026 1.0207725 -4.509254 0.6207452 -1.5978059
0.8585541 0.20254934 -2.2647035 -0.9722773 -1.6827326 -0.2850608 -2.4991586 -1.2620713
-2.5579736 -0.004878788 -1.5509224 -1.1044377 -1.4408625 -0.76444465 -0.6291576 -0.5648803
-1.5308144 -1.1801661 -0.14239429 -1.251947 0.9859503 -1.2237686 -0.44397414 -1.2208554
-0.8966065 -0.21769437 -0.680691 0.36424437 -2.2665205 -0.3563222 -0.18731238 -0.25483716
-2.1060853 0.019469459 -0.78534675 -1.2170547 -0.6303893 -0.30380124 0.24056162 -1.9055687

w_comp f4 [200, 4]
00000000: 6342 4a3d f88b ed3d 5542 413f 9759 56bd
00000010: fa11 5e3f 80c6 053f 4b9c 963f fde2 533f
00000020: 908c 0fbf ad6c 22be 6a93 e93f a5e6 a73f
00000030: 0d5d b43f e852 0740 329c 32bf c019 12c0
00000040: 6730 f43f 717e 4fbf 5553 dcbe 2cb3 46bf
00000050: 4ffb 62bf 1234 b23e 2726 1440 98ea a93f
00000060: 530b 7fbe f411 2ebf 5855 db3f db9e c93f
00000070: 842a 4d3f 7955 96be 9556 25be 1b25 4ebf
00000080: 1aef 3b3f d99f ecbe e96c acbe ab46 dbbf
00000090: 00e7 ad3f 8863 9fbf 444d 2d3f 9030 2ebf
000000a0: 08ba 01c0 3adf 553f f46a 50be 54eb b5bf
000000b0: 7c79 be3d 0c00 7dbf 3f38 acbe 6543 483e
000000c0: 8cfc ae3e c365 8940 759e b73f 0210 423f
000000d0: 4407 873f d378 0a40 3582 733f f078 d3bf
000000e0: b728 19bf 8213 8abf ec61 b53f b697 e8bf
000000f0: 05a9 643f b9cd f43f 93b8 933f ff4e 2bc0
00000100: 2357 2740 3c7f 5d3f 4747 a7be 3db8 dbbe
00000110: 1db2 d7be 5fc3 c8bf 32bd 16be 5cb3 df3d
00000120: 217f 063e e3cc a1bf 7382 2dbe 147a b4bf
00000130: 42ad 00be 66b4 f13e 15e5 113f e512 673d
00000140: 2b4d 053f e813 d33e b611 2a3f 924c 93be
00000150: 43f3 5140 6d37 bebf 7e1c 263f f2d7 dabd
00000160: 501f 1bbf 8424 543f d903 04bf dc84 4bbf
00000170: d51e 333f 0159 2ec0 6b88 63be 6ec6 8ebf
00000180: 17a3 0240 2995 11bc 28d6 b83e 9c5f 24bf
00000190: 24ba 3540 d178 05c0 47ba a83f 7ef1 cb3d
000001a0: 16b1 363f ef28 333e 897d 653d c3d8 c83e
000001b0: af31 a03e 8e74 09bf 5ea8 2b40 2852 a5bf
000001c0: 1bd0 80be 1923 79bf 7f0b 30bf 1d7e 3bbf
000001d0: e45a a83f 247d 0cbf 147b 1abe 4b9d 03c0
000001e0: 07ad 1e3e ef21 a43f 053b 723f d830 08bf
000001f0: 3861 4f40 adc2 c7bf ba01 dc3e 847e 70be
00000200: 34d7 663f 44a6 5040 1ea8 e03f 3579 e83c
00000210: 2a2b 0a40 30b3 ed3f 65a2 ddbe fd3f 5fbe
00000220: c0ff 0a40 873e 29c0 a98a 1a3e 5078 ae3f
00000230: 3d7c 8ebf 659d 87bf b5fb 3c40 0b13 5fbf
00000240: 01bb 813d c3f3 c4bf 2ace 4cbf 6738 e1bf
00000250: 0ee5 db3f 84b3 01bf 1bd7 8a3f a520 d9bf
00000260: 009c 3e3f f413 e6bf 00da d33e 418c b3be
00000270: 1672 b2bd f231 f13e 1241 543f 5533 063f
00000280: 1685 e23e ef1a 44c0 ad7b 9f3f 037d 25bf
00000290: f4a4 4b3f 23ec 7fbf 910c 493f 03de c4be
000002a0: 82ab db3e b47a f53d af72 203d d104 0fbd
000002b0: efc8 c33f 161d a13f d75e dd3e fd15 b23f
000002c0: 281d c03e b5b5 b43f 709d 3f3f 9ac0 f83d
000002d0: d487 23bf 3610 61bf 2298 c33e 1f1f 1cc0
000002e0: 46ec 05be 780b e9bf 776d 5a3f a574 3b3c
000002f0: b775 c33e 7f68 0dc0 2862 d6bf f9a3 653e
00000300: 9d42 f53f 6b92 283f f757 f0be d7d4 6b3e
00000310: b84e 23be 8936 223f 7d29 6a3d b076 82bf
00000320: 733a 2a3f 7157 debf 3460 b3bf b657 47c0
00000330: 41a5 c83f 894d 413f 35bd 363f da88 7c3f
00000340: 7305 2d3f e4e7 223f 024f 4a3f 2f37 c9bf
00000350: 6e48 ae3f 26c1 66bf f977 0dbf cbf7 58bf
00000360: 08f6 ec3f cd76 8fbf 5d9e a93f 6ea3 b3bf
00000370: 6e67 843f 500e 02bf d796 71bf 4cbb 4fbf
00000380: bf51 ea3f 3355 1abf b093 9e3f 85e6 183f
00000390: 3eb1 503f 4aef 05c0 49cb 07c0 f651 523e
000003a0: 9775 15bf 7dcd 8bbf 9168 e8bf 834c 31c0
000003b0: f803 e4bc 03dc d7bf 62bc 47bf a9ad 0f3f
000003c0: cd2d 8cbe 79ba 01bf ac77 a33f 2a73 88bb
000003d0: 706f 01c0 0001 f3bf 2ee3 0440 406a 213f
000003e0: 6783 b23f 6553 d1bf 8f39 87bf e6f6 853b
000003f0: e7d8 3840 ca7a 113f 5940 013f 864c a2bf
0.049379718 0.115989625 0.7549184 -0.052331533 0.8674618 0.5225601 1.1766447 0.8276823
-0.56073856 -0.15861769 1.8248112 1.3117262 1.4090897 2.1144352 -0.69769585 -2.2828217
1.9077271 -0.8105231 -0.43032327 -0.77617145 -0.88664716 0.34805351 2.3148286 1.3274717
-0.24906664 -0.67996144 1.713542 1.5751604 0.80143 -0.29362085 -0.1614631 -0.8052537
0.73411715 -0.46215704 -0.33676842 -1.7130941 1.3586121 -1.245225 0.67696023 -0.6804285
-2.0269794 0.8354374 -0.203533 -1.4212441 0.09300515 -0.98828197 -0.33636662 0.19556959
0.34177053 4.293672 1.4345232 0.75805676 1.0549092 2.1636245 0.95120555 -1.6521282
-0.5982775 -1.0787203 1.4170508 -1.8171299 0.89320403 1.9125282 1.1540703 -2.6766965
2.6146934 0.8652227 -0.32671568 -0.42914 -0.42128077 -1.5684623 -0.1472061 0.10922882
0.13134433 -1.2640651 -0.16944294 -1.4099755 -0.12566093 0.47207946 0.56990176 0.056414504
0.52070874 0.41226125 0.66433275 -0.28769356 3.2804725 -1.4860665 0.64887226 -0.106857195
-0.60594654 0.8286822 -0.5156837 -0.794996 0.6996892 -2.7241824 -0.22220008 -1.1154306
2.0412042 -0.00888566 0.36100888 -0.6420839 2.8394861 -2.085499 1.3181847 0.0995817
0.7136396 0.17496084 0.056027923 0.39227876 0.31287906 -0.53693473 2.6821513 -1.2915697
-0.25158772 -0.9731918 -0.6876754 -0.7323931 1.3152738 -0.5487845 -0.15086013 -2.0564754
0.15495692 1.2822856 0.94621307 -0.5319953 3.2403088 -1.5606285 0.42970067 -0.23485762
0.90172124 3.260148 1.7551305 0.028378109 2.1588845 1.8570309 -0.4328796 -0.21801753
2.1718597 -2.6444414 0.15091957 1.3630466 -1.1131665 -1.0594908 2.952863 -0.8713843
0.06334496 -1.538689 -0.8000208 -1.7595338 1.7179277 -0.50664544 1.0846895 -1.6963087
0.7445679 -1.7974839 0.41377258 -0.35067943 -0.087131664 0.47108418 0.8291179 0.52422076
0.44242162 -3.064144 1.2459618 -0.6464388 0.79548573 -0.9996969 0.785348 -0.38450631
0.42904288 0.119862944 0.03917187 -0.034916703 1.5295695 1.2587001 0.4323642 1.391296
0.37522244 1.4117953 0.74849606 0.12146111 -0.6387913 -0.8791536 0.38202006 -2.4393995
-0.13078412 -1.8206625 0.8532328 0.011441384 0.38175747 -2.209503 -1.6748705 0.22425832
1.9160954 0.65848416 -0.46942112 0.2303041 -0.15947998 0.63364464 0.057168473 -1.019247
0.66495436 -1.7370435 -1.4013734 -3.1147285 1.5675431 0.75508934 0.71382457 0.9864632
0.6758644 0.63635087 0.79026806 -1.5719966 1.3615854 -0.9013847 -0.5526119 -0.847531
1.8512583 -1.120813 1.3251454 -1.403425 1.0344064 -0.5080309 -0.9437079 -0.8114517
1.8306197 -0.60286254 1.2388821 0.59726745 0.8152045 -2.09273 -2.1217825 0.20539078
-0.5838255 -1.0922085 -1.8156911 -2.770295 -0.027833924 -1.6864017 -0.78021824 0.5612436
-0.27378693 -0.5067516 1.2770896 -0.0041641193 -2.0224266 -1.898468 2.076366 0.6305275
1.3946351 -1.6353575 -1.056444 0.0040882705 2.8882387 0.56827986 0.5048881 -1.2679603

self_loop_weight f4 [8, 32]
00000000: 3142 bdbe cc04 113e dd37 19be 3386 eebd
00000010: 92f5 a8be 4904 113e 2ff8 26be d398 673f
00000020: 1c85 103e 2f7b 7fbf 80a7 02be 2e4e 37bf
00000030: fd80 d93b e4c6 04bf 102c 69bc c2ff 893f
00000040: 4378 4ebf ba00 24bc 160f 453e b8e0 a4be
00000050: ec3a 82bf 491c eebc 0c22 ffbf 2212 463f
00000060: 4a5c 863d 518a fdbe e188 a33d e867 3bbf
00000070: 078b 5c3f 44cb 57bf ce45 42bd 1151 82bd
00000080: 85de 063f 0247 2bbf 0171 29bf a9bd 003f
00000090: 92d5 153f bae3 57bf 73c5 043f ff50 cabf
000000a0: 2fdd 39bd cb26 d6be 071f c6bf e503 a1bf
000000b0: 7af1 fcbd d001 8ebe 6b4a 1abf 9ec9 d2be
000000c0: 3857 25bd 9f07 87bf 23de b2be 3578 13bf
000000d0: 5db1 453d d842 1c3e d177 3cc0 e6d0 32c0
000000e0: a017 00c0 4c0e f6be 52e3 2ebe eaba d3bd
000000f0: 651e 56c0 ca8b 47bf ca8d 86bf 3ff1 823b
00000100: 184e 88bf c541 0cbe c535 79bf 44e9 1fc0
00000110: f039 41bf f78a 0fc0 7d74 d8be 0f48 b8be
00000120: b034 d8bf 1691 91bf 4b93 75bf 51da 2bbf
00000130: 4553 c1be baa3 e33e 12fc 2c3d eff3 74be
00000140: 8d98 29c0 4f25 7cbe 09de 6abf ed1f 373f
00000150: 9f6a 4cbf 8dda 00be 1262 b83e 06e3 a73e
00000160: 5053 cb3d ea19 48bf f5c2 2a3d 1365 e3bf
00000170: 1cde 05bf f0d3 0f3f 3971 803d b35c 17c0
00000180: 7663 29bf bf0f 84bd f718 b0be 2803 3bbf
00000190: b066 f03e f0e1 1c3f e978 e03d 9869 98be
000001a0: b119 193e 2568 d93d 0536 05bf 43c2 a4be
000001b0: 0720 c7be b450 823f 665d 323d 2f78 84bf
000001c0: b12e a73f 90c7 b0bf b2d1 48bf cb01 0fbf
000001d0: 9a00 1bbf 0d0d 553e 4a09 c8bf 1417 3dbf
000001e0: 930b 083f 1da4 8fbf 18e4 703f 99d1 c4be
000001f0: 2e7e 48bf c735 cbbc fdc4 bfbd 8a43 04bf
00000200: 97de 94bf ee32 b0be c536 df3e 5f25 eebf
00000210: 1eac b13f 0ba1 433f 6d8d 3640 0f92 e2be
00000220: 9540 dd3f 2b75 a2be d8bd 81bf f6e0 3dbf
00000230: e382 ce3e 1919 7f3f 73c6 e43e c16d 483f
00000240: 193e df3f 086a 383f 1554 3d3f f3ed 0740
00000250: a8dc 71bf 7ee4 0a40 4178 aebf 7deb c2be
00000260: 5508 14bf 11ec e9be ad30 c93f 81f6 bc3e
00000270: 3167 46bf 3d77 9bbe 5932 30c0 4062 a4bf
00000280: ad98 2cbe bbdb 50bf cf8b c7bf f9dd 5a3f
00000290: 7a95 c7bf 1349 d6bf 34f0 e3bf bc86 20bf
000002a0: deab 04c0 7edd 87bf 9d20 d0bf 5c85 eebf
000002b0: 8531 40bf f010 a3be 42ed 4fbf 27f8 d23d
000002c0: 67ef 35be 1b0c 2cbf 10a5 62bf b118 e3bf
000002d0: a0da 8cbe 451c babf 0c22 a9bd 275d 0fbf
000002e0: c4ef ecbf 218e 97bf 720e a1bf cad4 acbf
000002f0: fa6b a6be 074d 13c0 9e1d 5a3f e02f 7b3f
00000300: cfc3 4a3f 74dd f5be a755 bf3e 2ce1 243f
00000310: 26f9 f3be 128e 083e d1d2 cdbf 619c 843e
00000320: efbc 98bf a30e 6abf 6185 44bd ea7a 8ebf
00000330: 8964 4fbf 61aa abbf a9a9 473e fa12 98bf
00000340: 1164 edbf e954 eabd a0cb c8be b7bb a53e
00000350: be0f 07c0 b0cd 4ebf cadc 1fbf ec92 14be
00000360: 08cd a5bf 7d5b 1f3e 561e 8fbe 933c 89be
00000370: 25af 65bf 2502 16bf 1ebc 91be 7d2c f0be
00000380: 4db2 5e3e 1102 56be 9b13 70bf a2ec 96bf
00000390: 968c 133f 3798 83bf 7cd7 41bf 0c6c 04be
000003a0: 6ca2 acbf 2f3f 99be f0ca 6cbf 1a0c 5a3e
000003b0: 1c64 e4be 42fe 85bf 8f8e 15bf 76be cebe
000003c0: 9a27 3ebe 738c 8dbd 8111 cdbe f84a c4bf
000003d0: 92d4 133e ce96 20bf 5b33 0ac0 59d7 aebe
000003e0: f529 bf3f 7fd9 323f 97ee 25be 450b 54bf
000003f0: 0a2d 4ebe 4121 723e 04d6 d3be 82b8 7fbe
-0.36964563 0.14161986 -0.14962716 -0.1164669 -0.32999855 0.14161791 -0.16305612 0.90467566
0.14113277 -0.9979734 -0.12759209 -0.7160367 0.006637691 -0.51865983 -0.014231697 1.0781176
-0.80652255 -0.010009939 0.19244036 -0.32202697 -1.0174232 -0.029066222 -1.9932265 0.7737142
0.065605715 -0.4951959 0.07985092 -0.73205423 0.8614964 -0.84294534 -0.047429852 -0.063631184
0.5268329 -0.66905224 -0.66188055 0.502894 0.5852901 -0.8433186 0.51863784 -1.5805968
-0.045376953 -0.41826472 -1.5478219 -1.2579314 -0.123507455 -0.27735758 -0.602698 -0.41169447
-0.04036638 -1.0549201 -0.34935102 -0.57605296 0.04826485 0.15259874 -2.944813 -2.7940001
-2.001442 -0.48057783 -0.17078903 -0.103383854 -3.3456051 -0.77947676 -1.051202 0.003996044
-1.0648832 -0.13696964 -0.9734767 -2.4986124 -0.7547903 -2.2428567 -0.42276374 -0.35992476
-1.6891079 -1.1372402 -0.95927876 -0.6713 -0.37758842 0.4446085 0.04223258 -0.23921178
-2.649936 -0.24623607 -0.9174505 0.7153309 -0.7985019 -0.1258337 0.36012322 0.32790393
0.09928 -0.7816454 0.04168983 -1.776522 -0.52292037 0.56182766 0.062715955 -2.365033
-0.6616739 -0.06448316 -0.34394047 -0.7305169 0.46953344 0.61282253 0.10960562 -0.29768062
0.14951207 0.10615567 -0.5203555 -0.3217946 -0.38891622 1.0180879 0.043546103 -1.0349177
1.3061124 -1.3810902 -0.7844497 -0.5586211 -0.6054779 0.2080576 -1.5627835 -0.7386334
0.5314266 -1.1221958 0.94098043 -0.3844116 -0.78317535 -0.024805916 -0.093637444 -0.51665556
-1.1630429 -0.34413856 0.43596473 -1.8605155 1.3880651 0.7641761 2.852382 -0.4425206
1.7285334 -0.31730017 -1.0136061 -0.7417139 0.40334234 0.9964767 0.44682655 0.7829247
1.7440826 0.7203679 0.73956424 2.1238983 -0.9447732 2.170196 -1.3630449 -0.38070288
-0.57825214 -0.45687917 1.571798 0.36906818 -0.7750121 -0.3036441 -2.753073 -1.2842484
-0.16855116 -0.8158528 -1.5589541 0.85494953 -1.5592492 -1.674105 -1.7807679 -0.6270559
-2.07299 -1.0614469 -1.6259953 -1.8634448 -0.7507556 -0.3184886 -0.812214 0.103012376
-0.17767106 -0.6720597 -0.88533115 -1.774191 -0.27510548 -1.4539877 -0.08258447 -0.56001514
-1.8510671 -1.1840249 -1.2582533 -1.3502438 -0.32504255 -2.3015764 0.8520144 0.98119926
0.7920503 -0.48020518 0.37370035 0.64406085 -0.47651023 0.13335446 -1.6079961 0.25900558
-1.1932658 -0.91428584 -0.047978763 -1.113126 -0.8101278 -1.341137 0.19498314 -1.1880791
-1.8546163 -0.114419766 -0.39217854 0.32369778 -2.1103358 -0.80782604 -0.6244627 -0.14509171
-1.2953196 0.15562244 -0.27952832 -0.26804027 -0.89720374 -0.5859702 -0.28463835 -0.46908942
0.21747704 -0.20899226 -0.93779916 -1.1790965 0.5763639 -1.0280827 -0.7571943 -0.12931842
-1.3487067 -0.29931018 -0.9249716 0.21293679 -0.44607627 -1.0468218 -0.5842065 -0.40379685
-0.18569794 -0.06911554 -0.40052417 -1.5335379 0.14436558 -0.6273011 -2.1593845 -0.34148672
1.4934679 0.6986312 -0.16204296 -0.82829696 -0.20134369 0.23645498 -0.41374218 -0.24972728

weight f4 [8, 80]
00000000: 4a35 99bf 54f8 24bf 2f8e 20c0 82e6 eebf
00000010: c62c 0b3f 956d f5bf ef0a 67c0 f58e 873e
00000020: 329d 46c0 a02b 9bbf 8e97 d4bf cb6d a83e
00000030: 3dd0 2cc0 df66 09c0 92f4 803e b652 1a3e
00000040: fa23 1d3f 3cb7 733e 4fac 1a40 f947 623d
00000050: 9b9d 4cc0 43fb 573d a3d0 523c 84d5 96bf
00000060: 8ee4 90be 1bd8 80bd 48c2 00bd 147f b63e
00000070: d573 073e 61c9 783c f923 4ebf 02ab da3d
00000080: 095f c9be cb9b 3fbf f278 65bd 6733 b13e
00000090: 49c1 a6be 0995 023d 7bf4 f2be 6c97 be3f
000000a0: ebf4 69be 1a5b 423f d4d0 ddbf da22 cebf
000000b0: 44ee 37be ec0d 883e 31eb 443d eabd 8f3e
000000c0: 102d aebe 4878 16bf 17f9 1cbf ecbf fe3d
000000d0: 9e6b a33f f856 c5be 74a6 fa3d b910 1440
000000e0: b553 8dbd 2475 d13e e1a2 b13d 3310 e7be
000000f0: 7f00 3bbe 163e 57be aab3 603f 4983 21bf
00000100: e776 5bbf ba7b 4b3f ee5f e53e 1c86 17be
00000110: 05b0 0440 97b6 7dbe 16c0 37be a865 f1bf
00000120: 6fe2 153e 082d 93bf e33d f0be 443c 2c3f
00000130: bd92 033e 4334 f43c 0921 bbbd 0f66 693d
00000140: b9c9 0cc0 ec7e cebf 9c0d a5bf 53f3 3fbf
00000150: 7046 a7bf bdf6 01c0 9b1a bb3d f4f5 dcbf
00000160: a4b4 abbf 9876 0bc0 0174 c8bf f254 f6be
00000170: e482 adbe 4f8e 37c0 5a44 ffbf c300 c13e
00000180: 9ee0 703e c106 c6bd eb8c 25bf ee7a b73e
00000190: a9de 2e40 776f b43f e7bd 953f a121 fc3f
000001a0: cd94 5bbd d7ae 80be 2a67 0fbe 36b0 cbbe
000001b0: 1779 56bf 7fc2 bd3e bf5a a63f 3f89 10bf
000001c0: fc3b b4be d6fd 803f cc75 db3e 478e 2e3f
000001d0: 1ae8 5abf d549 863d 2cb3 07bf 6885 89bf
000001e0: 78b6 95be 55f9 a4be 97b8 e23e 67c9 223f
000001f0: 9240 053e ab6d 9b3e 6bf5 26bf c674 8bbd
00000200: 29c6 c43e 0890 1a3f 42b0 51be 0f47 723f
00000210: bc78 0ec0 9ba9 1d3e 9749 d13e 9316 97bf
00000220: 9a45 0abf 098c e8be 2ad8 223b 1e2e 8abc
00000230: 1455 08bf 5a69 643e 5d2c b5bf 1e11 883e
00000240: 1746 ebbe ab15 95be afef 833f 3fc0 3a3f
00000250: 3552 35bf 00bf ea3e 6c03 bfbd 5484 4a40
00000260: c0d8 073f 741a 063f b311 dcbf ff7d f9be
00000270: 4c31 c6be 8dc2 d33e d1b0 0c3f 8e09 a33c
00000280: 78ac d2bd ef63 ecbe e6aa 0ebe c17e a0be
00000290: 3912 c3bd 4ca2 d0be fdf0 88be 3f02 f1be
000002a0: d7ab e53d b479 96bf 33c8 d8be d9db 96be
000002b0: 2e34 33bf 9478 3f3e 36f0 1cbf 8112 6bbe
000002c0: 9db0 363d b8c3 523d 5265 cbbd 8b31 b53e
000002d0: b2cb 103d 9099 4a3d c2d2 8e3d 570d ad3c
000002e0: 729c ad3d ce78 d2be 534b 3a3e ae1f 1c3e
000002f0: 26c9 fd3c 563d ea3e 0436 273d 3ba0 ffbd
00000300: 18ff dfbd f832 fb3c 1d45 443e d668 8f3b
00000310: 9f62 343d 648e 8f3d 1a57 c13e 54f5 7d3e
00000320: abcd 3d3e 01c0 a03e 1e2a d7be 2033 7a3d
00000330: eda6 2ebf 8554 2cbd 50d2 303e 182e e43d
00000340: f3b3 1f3e 2fd8 77bd 8ae3 343e 4f89 403e
00000350: 84a2 0a3e 6dc5 c7bd 5d5b fd3e 7f43 e5bd
00000360: 996b c5bd 2807 713e e81b f53e d812 d3be
00000370: 86ef 453e 6e0a 8c3e 34a8 5cbc 5b50 fabe
00000380: 982c 3bbe 747d 96bd 904e 923c c9e9 803e
00000390: 3e14 9bbd efe4 7dbe a8f9 ddbd 6598 803e
000003a0: 8c5c 9bbe 093c f8bd 7b70 cbbe 107e a43c
000003b0: 2d5c ebbd 8fc8 283e 5c21 33bd 078c 203e
000003c0: 764a dcbf e90b 68be fa94 d8be 3324 10c0
000003d0: adfc 843d 522b aabf f176 033c 7a01 bcbf
000003e0: 55ca 993e 7048 13c0 2c3f 0ec0 418b f83e
000003f0: 6a0b d4be 034d 11c0 7715 53bf b4d7 44bf
-1.1969388 -0.6444142 -2.5086782 -1.8664095 0.54365194 -1.9174067 -3.6100423 0.26476255
-3.1033444 -1.2122688 -1.6608751 0.32896265 -2.7002099 -2.1469038 0.25186592 0.15070614
0.6138302 0.23800367 2.416767 0.05524442 -3.1971195 0.052729856 0.012867126 -1.178391
-0.28299373 -0.06291219 -0.03143528 0.35643828 0.1322778 0.015184731 -0.8052364 0.106771484
-0.3933032 -0.74847096 -0.056023546 0.3460953 -0.3256934 0.031880412 -0.4745215 1.488996
-0.22847335 0.7592026 -1.7329354 -1.6104386 -0.17961985 0.26573122 0.04807586 0.2807458
-0.34018755 -0.58777285 -0.6131758 0.1243895 1.2767217 -0.38542914 0.1223878 2.3135207
-0.069007315 0.40909684 0.08673645 -0.45129547 -0.18261908 -0.21019778 0.87774146 -0.6309095
-0.85728306 0.79485667 0.4479975 -0.14797252 2.0732434 -0.24776684 -0.17944369 -1.8859148
0.14637159 -1.1498117 -0.46922216 0.6727946 0.12848945 0.029810077 -0.0913716 0.056982096
-2.1998122 -1.6132483 -1.2894778 -0.7498066 -1.3068371 -2.0306847 0.09135934 -1.7262559
-1.3414502 -2.1791134 -1.5660402 -0.48111683 -0.33888924 -2.8680608 -1.9942734 0.37695894
0.23523185 -0.09669257 -0.6466815 0.35835975 2.73234 1.4096516 1.1698579 1.9697763
-0.053608704 -0.25133392 -0.14004198 -0.39782876 -0.8377852 0.3706245 1.2996444 -0.5645942
-0.35202014 1.0077465 0.4286331 0.6818585 -0.8551041 0.06557051 -0.5300777 -1.0743837
-0.29240775 -0.32221475 0.44281456 0.63588566 0.13012913 0.30357108 -0.6521823 -0.06809382
0.38432434 0.60376024 -0.20477393 0.94639677 -2.226119 0.1539673 0.40876457 -1.1803764
-0.54012454 -0.45419338 0.0024848082 -0.016867694 -0.5325482 0.22305813 -1.4154164 0.2657556
-0.45951912 -0.29118094 1.0307521 0.72949594 -0.7082856 0.45848846 -0.093268245 3.1643267
0.5306511 0.52384114 -1.7192901 -0.4872894 -0.38709486 0.41359368 0.549573 0.019902017
-0.10286802 -0.46169993 -0.1393238 -0.31346706 -0.0952496 -0.40748823 -0.2674636 -0.47072026
0.112144165 -1.1755891 -0.4234024 -0.29464605 -0.70001495 0.1869834 -0.6130403 -0.22956277
0.044602025 0.051456183 -0.09931435 0.3538936 0.03535051 0.049462855 0.069737926 0.021124525
0.08477105 -0.41107792 0.18192796 0.1524646 0.030979704 0.4574992 0.040822998 -0.124817334
-0.10937327 0.030663952 0.1916699 0.004376511 0.044039365 0.07009581 0.37761766 0.24800617
0.18535487 0.31396487 -0.4202432 0.061083913 -0.6822346 -0.04207279 0.17267728 0.11141604
0.15595989 -0.060508903 0.17664924 0.18802379 0.13538557 -0.09754453 0.49483767 -0.111945145
-0.09639663 0.23537886 0.47872853 -0.41225314 0.19329652 0.27351707 -0.013467837 -0.4888943
-0.1827873 -0.07348147 0.017859727 0.25178364 -0.0757222 -0.24794362 -0.10838634 0.25116268
-0.30344045 -0.12120826 -0.39734253 0.020079643 -0.114921905 0.16482757 -0.043732986 0.15678416
-1.7210224 -0.22660793 -0.4230116 -2.2522094 0.064935066 -1.329447 0.008023963 -1.4687951
0.3003718 -2.3012962 -2.2226057 0.48543742 -0.41414958 -2.2703254 -0.8245463 -0.76891637

bias f4 [8]
00000000: cc07 31c0 811d 52c0 fdc3 9dbf 67b5 40c0
00000010: 93e4 4ec0 a367 0bbe 9a3e d9bf bb7a 86c0
-2.766101 -3.2830508 -1.2325436 -3.011072 -3.232701 -0.13613753 -1.697223 -4.2024817

weight f4 [1, 8]
00000000: 5f88 d1be 1fc4 9dbe 5c18 3dbe c8d5 803e
00000010: 5bd2 6cbe b826 f5bd 08d4 c33d 2a9b a73e
-0.40924355 -0.3081369 -0.18466324 0.25163102 -0.23127119 -0.11970276 0.09561926 0.32735568

weight f4 [4, 32, 32]
00000000: ba24 d9be 2b10 013c 07b5 a23c 685c e3bc
00000010: a45a bfbe 05b0 6b3c 50fd a53d dd7f b139
00000020: 845b 1cbe c510 4bbc 17be 383a a1fd efba
00000030: f433 0e3e 60b7 d9bc 1c61 b23a f32a 55be
00000040: e3a5 053f a5c5 94bd ceac 8fbb b119 8039
00000050: aec7 863e 5691 e7bd 4ba6 e13a f027 d5bd
00000060: 940f 793a 109d dabc 8bb1 d73e b7fd 2abc
00000070: 94cc 7aba b648 0dba 4c9a 2d3b a8c8 863e
00000080: f045 9db4 6f64 7d32 cfd4 1a1b 5f4a aeb9
00000090: 9199 1137 d03f 8433 fe2b f7a6 5da7 962e
000000a0: 4d1d 85aa 4721 d431 4fae 2fa4 e818 cb34
000000b0: d304 14b9 8f6e 18b4 e0d9 798f 8113 57b6
000000c0: dd66 6e32 e73a a2b4 b9fd e4a7 3ac5 94a9
000000d0: 9ca1 1b2f ef1d b6b6 16d4 1337 d021 eea7
000000e0: 5543 c5af 7999 82a9 cb30 2e37 70fe 07b2
000000f0: 217e b52b da50 b737 8ff1 97ab 5e3c bd37
00000100: 9b2f 05bd 3982 ad3c 0020 a3be 6bfc bcbd
00000110: 7a54 253e c95b f5bb 0658 98be 3424 103e
00000120: 29be afbd ef98 ca3d d452 6436 57d5 ca3d
00000130: 14df 97bd 80e7 9ebe 42d2 9f38 5077 3e3e
00000140: 4af1 81bc 87fb 553d 49ff 9abb 4c79 35bb
00000150: ff5e 5d3e 98c1 793d 7dd1 ad3d 71ae aa3c
00000160: 2204 a2b8 76b0 b03e 5067 c73e 854e e43e
00000170: 2d91 0cbe 25b6 823d ef6c b6bd 9692 033f
00000180: af4f 9fbc d401 1838 e3a0 3438 0e80 e6bc
00000190: 7126 883e b520 97ba 9664 0bb9 a24f 0d3a
000001a0: 9a72 81bd 9c27 e1b8 9dca 8db5 0d0a d6bb
000001b0: 70a3 12be 1bcf 993b a5cf 9135 8c2d 30bd
000001c0: edd4 44bc 9d2f 52bb a3e0 67b7 a370 9833
000001d0: 19d2 a93a a187 ecba 239a cab7 4944 26bc
000001e0: b9e8 4839 f697 29bd 0591 02be e107 42bb
000001f0: 0c33 8eba fe4e 123c ee06 1539 f350 a73d
00000200: 086c 5abc 1e87 a538 3f18 053c 92fa 1fbe
00000210: d7fc 30be b201 dabc 50b2 9f3b 53af 2039
00000220: d81f bd3c 13b7 a6bd 7798 e7b6 8972 90bc
00000230: 039d 63be 76cf ba3e d16c 74b9 140b dd39
00000240: a943 c0bb 9359 dabb 1483 90bb 4a9a fc38
00000250: 201f 003d 9a92 f3bc b41e eb3a 9d44 88bd
00000260: 3019 b5bb 444a 34bc c17f 86be d377 9aba
00000270: b058 fcb5 5263 16bd 2f21 c6b9 e8a7 6e3d
00000280: 0dba d23d f33d ce3d ff7d e1bd 40b3 9a3e
00000290: 7617 ec3e 9be9 2e3e 1317 0fbe 60aa 91bd
000002a0: 86a3 00bc 615c 323e de04 02b8 d93d 4c3e
000002b0: ec4a e1be 006e 28bd 298d 1a3a edcc 95be
000002c0: 6517 9fbd 0a8e 773e 4e84 d5bb 345e 17bd
000002d0: 1faf 883e 7f54 d93d 6078 8e3d acb6 143e
000002e0: 57c8 adb9 82f6 233f ab78 ef3e 2287 0f3f
000002f0: 86fc 8dbd 0c8c 163e 9c32 3bbe 4761 f53e
00000300: 5e6c 1933 4390 36ae 991f b5b4 7c1d d93b
00000310: 0572 c2bb 41f2 833a f9c8 25b0 7bc8 3533
00000320: 82db f732 603f 1fbc ab5e 5d3b 4a4c eeb7
00000330: fba8 823c 84e1 5936 cc19 37b8 5016 1739
00000340: dffa 16ae d1ab 36b5 8c0e 79b4 52c4 a730
00000350: 1e77 a3b7 256b d738 f144 9dac 9c08 80ae
00000360: 3556 a6ba 1782 a139 06d9 26bb a9da bf39
00000370: ee24 1428 9e89 a6ba d6df 5132 765a 92b7
00000380: 8f1e 70be ef16 b238 f175 723e de81 3dbc
00000390: 9459 b33c d861 74b7 eea9 56b7 cbdc c537
000003a0: f9db 07b7 c59c cf37 3be1 9ab4 4c09 8bb7
000003b0: 6f79 a9bd 73a2 fbb8 4e6c 6435 00e7 2f3e
000003c0: 59ff 97b9 9295 a83e e15d 06b7 ea9f c431
000003d0: 6448 a53a 82c1 f6bb 3e3a 93b6 c04e e0b7
000003e0: 7698 3e3c 6169 a0bb 5304 143a 4e14 6a32
000003f0: fcf8 c0b3 cc7b 8dba c559 81b5 ccc2 5d3a
-0.42410833 0.00787739 0.019861711 -0.027754024 -0.3737384 0.014385228 0.08104956 0.00033855336
-0.15269285 -0.012394135 0.00070473686 -0.001830984 0.13887006 -0.026576698 0.0013609263 -0.20817165
0.5220625 -0.0726426 -0.0043846136 0.00024433204 0.2632422 -0.113070175 0.0017215697 -0.10408008
0.00095009175 -0.026686221 0.42127642 -0.010436467 -0.00095672277 -0.0005389558 0.0026489673 0.26324964
-2.9294415e-07 1.4749374e-08 1.2807344e-22 -0.00033243277 8.6784285e-06 6.1583364e-08 -1.7150992e-15 6.85094e-11
-2.3645877e-13 6.1737953e-09 -3.809472e-17 3.7829818e-07 -0.00014116177 -1.4196324e-07 -1.2318609e-29 -3.204885e-06
1.3876812e-08 -3.0217709e-07 -6.35578e-15 -6.6067337e-14 1.4154583e-10 -5.4275074e-06 8.811263e-06 -6.609493e-15
-3.5881934e-10 -5.799783e-14 1.0382569e-05 -7.915887e-09 1.2895831e-12 2.185295e-05 -1.0796241e-12 2.2558666e-05
-0.032516103 0.021180259 -0.31860352 -0.092278324 0.16145507 -0.0074877483 -0.29754657 0.1407631
-0.08581192 0.09892451 3.402286e-06 0.099039726 -0.07415596 -0.31035995 7.6208744e-05 0.18600202
-0.015862126 0.05224183 -0.0047301394 -0.0027690707 0.2161827 0.06097564 0.08487222 0.020835133
-7.725532e-05 0.3450963 0.3894601 0.44591156 -0.13727255 0.063823976 -0.08907496 0.5139555
-0.019447176 3.6241327e-05 4.306518e-05 -0.028137233 0.26591828 -0.0011530133 -0.00013293544 0.00053905894
-0.06320687 -0.00010736214 -1.0564287e-06 -0.00653196 -0.14320159 0.0046938783 1.0863774e-06 -0.043012187
-0.012013656 -0.0032071837 -1.3820975e-05 7.09854e-08 0.0012956291 -0.0018045792 -2.4152052e-05 -0.010148116
0.00019160182 -0.041404687 -0.12750633 -0.0029606747 -0.0010848953 0.008929966 0.00014212329 0.08169737
-0.013331421 7.892981e-05 0.0081234565 -0.15622929 -0.17283951 -0.026612137 0.0048735514 0.00015324102
0.023086473 -0.081403874 -6.9020857e-06 -0.01763274 -0.22227864 0.36486405 -0.0002331019 0.0004216066
-0.0058674407 -0.00666351 -0.004410157 0.00012045035 0.031279683 -0.029732991 0.0017938227 -0.06653712
-0.005526684 -0.011004034 -0.26269343 -0.0011784978 -1.8801275e-06 -0.036715813 -0.00037790227 0.058265597
0.102893926 0.100704096 -0.1101036 0.30214882 0.4611165 0.17081301 -0.13973646 -0.071125746
-0.007851487 0.17418052 -3.099895e-05 0.19945468 -0.44002473 -0.04112053 0.00058956683 -0.29257908
-0.07768134 0.24175277 -0.006516016 -0.036955073 0.26696107 0.106118195 0.069565535 0.14522809
-0.00033146396 0.64048016 0.4677175 0.5606557 -0.06932931 0.14701861 -0.18281025 0.4792578
3.5721648e-08 -4.151014e-11 -3.3736868e-07 0.0066258293 -0.0059340023 0.0010066704 -6.031225e-10 4.2324682e-08
2.8854405e-08 -0.0097197 0.003377835 -2.8407336e-05 0.015949717 3.2466787e-06 -4.3654625e-05 0.00014408794
-3.432887e-11 -6.805031e-07 -2.3195224e-07 1.2206647e-09 -1.9486582e-05 0.00010271956 -4.4698624e-12 -5.8222954e-11
-0.0012690487 0.00030805237 -0.0025458946 0.00036593273 8.223658e-15 -0.0012705808 1.22162955e-08 -1.744668e-05
-0.23449157 8.491973e-05 0.23677804 -0.011566607 0.0218933 -1.4566314e-05 -1.2794959e-05 2.3587045e-05
-8.097843e-06 2.4749324e-05 -2.8848612e-07 -1.657442e-05 -0.08275115 -0.00011998871 8.5094223e-07 0.17177963
-0.00028991213 0.32926613 -8.00888e-06 5.722531e-09 0.0012610075 -0.007530392 -4.3877217e-06 -2.6739552e-05
0.011633029 -0.0048953746 0.00056463963 1.3625209e-08 -8.985987e-08 -0.0010794341 -9.637375e-07 0.0008459508

w_comp f4 [200, 4]
00000000: a07a d8bd 2ec4 2dbe 0d2f 983e d2ec a83c
00000010: 634a a1bd 7563 d43d a8b7 f43c d35c c73d
00000020: 35f1 ebbd 39de 483e 9509 ab3e 08be c93d
00000030: 243f 493e 957f 413d 0b72 913d 9571 6cbc
00000040: 585a af3b facb 2a3d bf99 90b9 9126 8f3c
00000050: 60a0 8f1f 95c7 dd23 d04c c8ac f002 1ca3
00000060: dff0 103d d64c 163e 24e5 83be fadb a93e
00000070: 04d7 6a39 9c8c 00b9 3bc8 8538 3130 0339
00000080: 8dec 0e3e 3b8e c9bc 16f1 f83d 27e1 f8bd
00000090: 274c bdbb 4f05 77be e399 06bc 7f57 02bd
000000a0: b726 39b6 46fa c2bc eeb9 f53b 0505 30bb
000000b0: 5b01 193d 12de aa3c bd55 82bc 45ed c13c
000000c0: e7ca 1c3a cc20 82bd bba4 8439 7e39 6abb
000000d0: cad3 dfbb 30bf 033c 7920 90b9 8882 bd3b
000000e0: 545b 443b 91f4 153a a915 793b 7eae 7d3a
000000f0: 574a a73b 641b 4abc e7ea 9436 bbbd 0a36
00000100: ae2d 98b6 6fe1 9236 ba55 5936 ee0f dcb5
00000110: a989 4b3d b100 99be 7b47 36bd 013d 963d
00000120: 06a2 0a3a 2fb1 5fbc 7e3e b73b 851d 87bb
00000130: 296c 3b32 6ba6 1532 2dd1 28b8 331c bfb0
00000140: f400 e6bd 2fc9 90bb ab52 4c3e 0335 bb3c
00000150: e191 71b0 7fa2 5cb0 4765 1eb0 c43c 932e
00000160: 61a0 f42f b079 0a30 1047 81b0 d655 a130
00000170: 34f0 f632 7bd1 1b39 6c0e 7930 7010 ebb8
00000180: 0cd4 9c2e 1da8 0100 f12c 0100 5259 0080
00000190: 9b01 aeba 8d9f d6bb c7c2 e0bb a65d f2bc
000001a0: f486 193d 1515 9fbd 65d3 53bd dff0 1c3c
000001b0: 8553 953c b541 bbbd 3f13 6d39 e835 81bb
000001c0: 6e95 aa3d ad1c 96ba cf0c 07be 33e5 5a3e
000001d0: b4a4 d2bc 1fd1 11bd 3106 eeba e3b1 38ba
000001e0: 3e05 833b d528 c9bb 4a93 afb9 9d6f 0f3a
000001f0: d600 a43e e3e0 2cbe cda3 643f 8e2e 113f
00000200: d018 ab0f 230c c80e a2b3 940d f1d1 320f
00000210: 757f 99be 3185 6e3e fa71 083e 8c03 1abe
00000220: 9274 fab4 c26c d12b 8fc0 832d 3d37 9f32
00000230: 5500 9abe 8e65 5bbc 7888 21bd 2e08 863e
00000240: 2f22 18bd eb2a b1bc 0131 d13e bd25 50be
00000250: 63ca 3d3c 9544 0237 ec84 3936 3c98 8938
00000260: 68b7 82bb 73f2 e6bb 4ca7 5dbe 3b10 123c
00000270: 6e40 8a9b d02d e418 e252 c917 8050 3014
00000280: 32dc f1bc e88b e23c e359 dcbe f63a 263d
00000290: 8df1 7bbe 5b70 5bbd be0a 613e ae69 cabd
000002a0: 6ecf dfb6 8459 9623 8aa2 48ba 04d9 172c
000002b0: 749e bb3e 597d 603d 2730 a8bc 079c 85be
000002c0: fc19 6630 6e1e 2db1 d80a 20b1 2aed 6d31
000002d0: 8add 15b7 1fed ae37 9940 ecb2 744a bc36
000002e0: 4bd0 d1b8 1c1d 683b ffd0 4139 4e57 c038
000002f0: 98f8 273d 80df 043e 3fcb adbe 3840 c63d
00000300: c0d2 1ebc 19d7 083c 07bd d4bb 913a b53b
00000310: 56f6 2ebe 6468 4b3c a890 acbc b796 ac3b
00000320: 5ab1 22ba 32c1 10b9 583e ec38 5ca1 74b9
00000330: 28d9 93be dabc d3be ee22 b23d bbd1 c1bd
00000340: 379b 05bc 5b1d 85bc d461 ea3c 382b 473d
00000350: e11d 16bd d1cc f93d bec5 dabd 5be7 333d
00000360: 29b2 203e 2ca9 393e ede1 54bd 2aa3 18bd
00000370: 8226 953a e081 173b 5564 623b 5e35 d239
00000380: 2c4b 96b8 be05 48b9 caba 0e39 8f88 83b9
00000390: 2e42 fd37 0894 d6b6 f0e7 e536 8e5c e437
000003a0: c8d1 acbc 38c4 2d38 7843 233b ac4f 5ebb
000003b0: 1906 3339 2cf8 c3b3 cadd 15b9 8f5b ce33
000003c0: 4a2b 78bd c6ba 263e 4a86 85be 4272 4c3e
000003d0: e048 96bd 65b1 1d3b add0 563d dbb0 2cbd
000003e0: 1b4e 81b0 8565 9430 9e0f 892f 383b 942e
000003f0: ca2b 053d 500a f03b 47a0 22bc 2894 313a
-0.10570264 -0.16969368 0.29723397 0.020620737 -0.07875516 0.103705324 0.02987273 0.09734502
-0.11520616 0.19616021 0.33405748 0.09850699 0.19652992 0.047240812 0.0710183 -0.014431377
0.005351346 0.041698433 -0.0002758037 0.017474445 6.0828174e-20 2.4045394e-17 -5.69287e-12 -8.457399e-18
0.035385963 0.14677748 -0.25760758 0.3317564 0.00022396079 -0.00012259412 6.37923e-05 0.00012511086
0.13957424 -0.024603954 0.121553585 -0.121523194 -0.0057769003 -0.24123119 -0.0082154 -0.031821724
-2.7589683e-06 -0.02380098 0.007498971 -0.002685846 0.03735481 0.020857845 -0.015910024 0.02367271
0.00059811625 -0.06353912 0.00025299736 -0.0035739834 -0.006830667 0.008041188 -0.00027490014 0.005783383
0.0029961662 0.0005720342 0.0038007295 0.00096771854 0.0051052975 -0.012335632 4.43809e-06 2.067404e-06
-4.535271e-06 4.377383e-06 3.238542e-06 -1.6395913e-06 0.04969183 -0.2988334 -0.044501763 0.07335854
0.00052884256 -0.013653084 0.0055921664 -0.004123392 1.0909425e-08 8.7107805e-09 -4.024913e-05 -1.3905094e-09
-0.112306505 -0.004418514 0.1995341 0.022852426 -8.7882596e-10 -8.0266455e-10 -5.762399e-10 6.69558e-11
4.4497298e-10 5.0377036e-10 -9.406182e-10 1.1738688e-09 2.8747401e-08 0.0001485999 9.0606167e-10 -0.00011208735
7.131726e-11 1.52143e-40 1.07957e-40 -3.2042e-41 -0.0013275625 -0.0065497817 -0.006859157 -0.02958567
0.037482217 -0.07767693 -0.051715273 0.0095789125 0.018228302 -0.09143392 0.00022609251 -0.0039431937
0.08329283 -0.0011452638 -0.1318848 0.21376495 -0.025713302 -0.035599824 -0.0018159804 -0.000704555
0.0039984277 -0.0061389008 -0.0003348834 0.0005471649 0.32031888 -0.16882662 0.8931244 0.5671166
1.687146e-29 4.9315494e-30 9.164449e-31 8.816511e-30 -0.29980054 0.23292996 0.13324729 -0.15040416
-4.6650945e-07 1.488053e-12 1.4978489e-11 1.8535156e-08 -0.30078378 -0.013390912 -0.039436787 0.26178116
-0.037141975 -0.02162691 0.408577 -0.20326896 0.011583897 7.764572e-06 2.764452e-06 6.561025e-05
-0.003989149 -0.007047945 -0.2164585 0.008915002 -2.2871822e-22 5.8982877e-24 1.3010243e-24 8.901605e-27
-0.029523943 0.027654603 -0.43037328 0.040583573 -0.24603863 -0.053573947 0.21976754 -0.09883438
-6.670066e-06 1.6300944e-17 -0.0007653615 2.1578858e-12 0.36644328 0.05480704 -0.020530773 -0.26095602
8.371044e-10 -2.519211e-09 -2.3289228e-09 3.4622851e-09 -8.932673e-06 2.0852834e-05 -2.7503392e-08 5.611504e-06
-0.00010004694 0.0035417741 0.00018483771 9.171535e-05 0.04100856 0.12975883 -0.33944127 0.096802175
-0.009693801 0.0083520645 -0.0064922604 0.0055306633 -0.17086157 0.012415025 -0.021065071 0.00526699
-0.0006206237 -0.00013804881 0.00011264969 -0.00023329764 -0.28876615 -0.4135502 0.086980686 -0.09463831
-0.008154682 -0.01624935 0.028611101 0.0486252 -0.03664959 0.12197269 -0.106822476 0.04392181
0.15692963 0.1813094 -0.051973272 -0.03726498 0.0011379274 0.0023118183 0.0034544666 0.00040094083
-7.166559e-05 -0.00019075625 0.0001361176 -0.0002508801 3.0190768e-05 -6.39493e-06 6.851733e-06 2.7222817e-05
-0.021096125 4.1429157e-05 0.002491204 -0.0033922 0.00017073042 -9.125537e-08 -0.0001429237 9.609277e-08
-0.06058816 0.16282186 -0.26079017 0.19965461 -0.073381186 0.0024062034 0.052445102 -0.04216085
-9.408184e-10 1.0797271e-09 2.4931252e-10 6.74078e-11 0.032512464 0.007325448 -0.009925908 0.0006774091

self_loop_weight f4 [32, 32]
00000000: 4205 93be 0231 b9be f029 90bf 6408 6abf
00000010: 66d6 81bf 8f7c 03be beb2 2fbf a487 01bf
00000020: 58d4 023f b4d9 04bf 0e32 9bbc 4179 0cbf
00000030: ba1b a83f d011 3ebe bdbe 19bf 034e 09c0
00000040: 3bb3 90be a608 54be b6a7 04bf a88d 5ebe
00000050: 3dc2 e1be 387d ecbe ad31 5ebe 019d 4ebf
00000060: 0dab 233e 6708 0ebf a8f6 4ebe 8334 af3e
00000070: 7d77 cabe b3bc f3bf ab33 dabe 2a5f 4ebf
00000080: 5214 eabc 9d26 16bb af4d f6b5 a94e bcbd
00000090: 3508 4e3e 3efb dd3c 32ed 0e3c 7524 543d
000000a0: d722 2439 4bea 833d 6289 9c2e 4bff 63be
000000b0: 3db5 40bf 6e7a 9f3d 2009 01b9 8328 ccbe
000000c0: dbc7 01be 6f12 a7be 148c 223f 868f 959a
000000d0: daf3 96bd 064b e93d 7acf ca3e 6f4c b9b9
000000e0: 9b40 5fbe 7fc1 f2be 4f17 54bf 90b6 17b9
000000f0: 7bb5 9837 89f7 bb3c 9f54 e1bc cd71 cdbe
00000100: c6e7 ff3d a211 d8be 5968 11bd c66a 49bf
00000110: 8fae 8fbf bc9a 36be 21f6 9cbe f963 3fbe
00000120: 5697 66bd 1283 b7be b062 82bd 758a 6b3e
00000130: 3c6f 15be a6ab 0abf 6138 e3bd 6d91 7bbf
00000140: 922c 793d fd93 4c3f 1635 b83b 3581 6ab8
00000150: 364e 74bf 2643 44be e14c 9fbe 1178 5e3d
00000160: cd1e d2be 9b8a a9be 445b b33e 77df 3b3e
00000170: 717e 7d3e bc53 bebd 0698 b33d c8d2 653f
00000180: 8fd5 02be 7b63 d2be 2436 71bf 92df c6bf
00000190: 7d58 ae3e 1a29 9dbf 019d 983e 9258 d13d
000001a0: 06a2 a9bf bad0 c2bf 6081 2bba 27ab 62bf
000001b0: d896 313f 9d45 b0bf 08dd ccbd 3961 84bf
000001c0: 1dd0 33bf d924 bdbd d42d 89bd d1e5 a4be
000001d0: fc98 913c cdc5 d8bf 45b7 8fbf 5e0c 1bbf
000001e0: ba45 9a3e 9f94 66bd c114 7cbf 8660 f8be
000001f0: a6b3 8abe 6816 073f d2a2 483d 1d08 22bf
00000200: 11e6 70be ac00 81bf 0d60 10be 28b6 4dbf
00000210: 6af9 64bd d239 84bf 9682 51bf 0622 8e3e
00000220: 30ba 0fbf caac 53bf 5855 a3bc fb77 8cbf
00000230: d855 e2bf 46a7 8fbf fcb5 4fbf 9c85 26bf
00000240: 3028 69be d02e 1cbf cbff 2bbf ceed c1be
00000250: e4d1 aebf 039a 95bf c09d 79bf 09e4 0cbf
00000260: fce2 afbe 7e5f 17bf 7398 f9bf 6979 36bf
00000270: c852 cebe ebd0 b73c 62d7 0bbf c556 02be
00000280: a48c 85be f3a5 e53e e4fd 12bc cc39 94bf
00000290: f121 c13f ced6 e53e 093c 933d aa0d 9bbe
000002a0: cb31 6ebe 9085 98bd 7ee7 80ba f7f2 f13e
000002b0: fbdc 7cbf d3df 163e c6d8 e8bc 5d51 b1be
000002c0: 9d25 303e 98ae a23e f973 9bbe f861 0abe
000002d0: 079d 8dbf 6e57 313f 59e6 48be 195e d4ba
000002e0: 868d e53e 565b 393e c2d6 d8be 3ba0 46be
000002f0: aa2c b6bd 0453 103e 7c0c d23c c94b 5dbf
00000300: d5d0 5bbe 92b7 d1be aeb8 0c3c 21cb e6bf
00000310: 503d 9c3f ad35 3abf 28b7 e0be 967a 2abe
00000320: 4ca3 2fbf 6c82 57bf c451 aaba 6118 90bf
00000330: a65c c9bf 8c85 a4be fe5a 34be 567e c33f
00000340: b866 e8be b6be e9be f0cf 77be faaf 2cbd
00000350: 0573 16be 4d9f 5a3e 723f 8ebe ae32 fbbd
00000360: 042b bdbd 4f69 54bf eb64 60be c891 f4bd
00000370: acdf 3dbe 5c1a d5be 55ca 17bf 43ab 21bf
00000380: 7136 f9be d031 23be 5ddd e0bd 66df 62bd
00000390: c92b e5be 8309 40bf 6ed2 dbbd 7982 303e
000003a0: 928e 3bbf 3ae7 293f fc50 4bbc 592f 8abf
000003b0: c4ab 853e 5d0a 113e ed27 6ebd 9668 78bd
000003c0: de2d 76bc 877c febd a0de 1e3d 343d c2bd
000003d0: 03e5 06bf f437 abbd fc22 e9be ed6f dcbd
000003e0: 358e 1f3e 5532 463e d187 a53f 53e4 1dbe
000003f0: 483c 3d3e f26d 31bf fa4c e93e d2a4 96bf
-0.2871495 -0.36170202 -1.1262798 -0.91419053 -1.0143554 -0.12840484 -0.68632114 -0.50597596
0.5110526 -0.5189469 -0.018944766 -0.5487252 1.3133461 -0.18561482 -0.6005667 -2.1453865
-0.28261742 -0.20706424 -0.51818407 -0.21733725 -0.44093505 -0.46189284 -0.21698637 -0.8070832
0.1598322 -0.5548157 -0.2021128 0.3421975 -0.39544287 -1.9041961 -0.42617545 -0.8061396
-0.028574143 -0.00229112 -1.8351037e-06 -0.09194691 0.20120318 0.02709734 0.008723544 0.05179258
0.00015653238 0.06441172 7.118463e-11 -0.22265355 -0.7527655 0.077870235 -0.00012305798 -0.39874658
-0.12673895 -0.3263125 0.6349499 -6.185683e-23 -0.0737073 0.11391263 0.39611417 -0.00035342897
-0.21801989 -0.4741325 -0.82848066 -0.00014468492 1.820432e-05 0.022945182 -0.02750617 -0.40125886
0.12495379 -0.42200953 -0.035499904 -0.7867855 -1.1225146 -0.17832464 -0.3065653 -0.1869048
-0.05629667 -0.35842186 -0.063664794 0.23002036 -0.14593214 -0.54168165 -0.11094738 -0.9826878
0.06083352 0.7991331 0.0056215627 -5.591028e-05 -0.9543184 -0.1916624 -0.3111334 0.054313723
-0.41039124 -0.3311356 0.35030568 0.18346964 0.24755265 -0.09293315 0.087692305 0.8977475
-0.12776779 -0.41091523 -0.9422324 -1.5536978 0.34051886 -1.2278168 0.29807284 0.102219716
-1.3252571 -1.5219948 -0.00065424107 -0.8854241 0.69370794 -1.3771244 -0.10003096 -1.034217
-0.7023943 -0.09235544 -0.06698194 -0.32206586 0.017773144 -1.6935364 -1.1227804 -0.60565746
0.30131322 -0.05629408 -0.9846917 -0.48511142 -0.27090186 0.52768564 0.048983403 -0.6329363
-0.23525263 -1.007833 -0.1409914 -0.80356073 -0.055901922 -1.0330145 -0.81839883 0.27760333
-0.56143475 -0.8268553 -0.019938156 -1.0974115 -1.7682447 -1.1222923 -0.8113706 -0.6504762
-0.22769237 -0.6100893 -0.67187184 -0.37876743 -1.3657804 -1.1687626 -0.9750633 -0.55035454
-0.34352863 -0.59130085 -1.9499649 -0.7127901 -0.40297532 0.022438487 -0.54625523 -0.12728412
-0.26083863 0.44853172 -0.008971665 -1.1580138 1.5088483 0.44890445 0.07189185 -0.30283862
-0.23261182 -0.0744735 -0.0009834615 0.4725568 -0.9877469 0.1473382 -0.028423678 -0.34632388
0.17201848 0.3177383 -0.30361918 -0.13513935 -1.1063546 0.6927403 -0.1961912 -0.001620236
0.44834536 0.18101248 -0.42351347 -0.1939706 -0.08895238 0.14094168 0.025640719 -0.86443764
-0.21466382 -0.40960366 0.008588953 -1.803074 1.2206211 -0.7273815 -0.43889737 -0.16648325
-0.68608546 -0.84183383 -0.0012994339 -1.125744 -1.5731399 -0.32133138 -0.17612836 1.527293
-0.45390868 -0.45653313 -0.24200416 -0.04216001 -0.14692314 0.21349831 -0.2778278 -0.12265526
-0.0923672 -0.8297319 -0.21913497 -0.11941868 -0.18542355 -0.41621673 -0.5929311 -0.6315195
-0.48674348 -0.1593697 -0.10979722 -0.05538883 -0.44759968 -0.75014514 -0.10733496 0.17237271
-0.7326442 0.6636845 -0.012409445 -1.0795699 0.2610761 0.1416411 -0.058143545 -0.060646616
-0.015025584 -0.124260955 0.03878653 -0.0948433 -0.52693194 -0.083602816 -0.45534503 -0.10763536
0.15581591 0.19355138 1.2932073 -0.1541913 0.18480027 -0.6930839 0.4556654 -1.1769049
